results/pretrain/checkpoints/A02_H064_L02_D01_Tanh_W4096_P010000_Adam_PT_True_device_cuda_dtype_float32_chkp.pt (torch, 165579 bytes, 23 tensors)

layers.0.fc.weight f4 [64, 2]
-0.015657302 0.3997104 -0.5898138 -0.5070118 -0.25887156 0.18960999 -0.000116891126 0.5308955
-0.043035377 0.16243722 -0.22969003 -0.111569725 -0.6140788 -0.46007413 -0.28748462 0.028162379
0.27119178 0.45353168 -0.49018463 -0.22022486 0.26452157 0.539794 -0.1378803 0.52240896
-0.08296725 0.052088138 0.65134656 -0.5698753 -0.4268972 -0.15904224 -0.28886485 0.5983626
-0.446151 -0.27591148 -0.48596182 -0.70016414 -0.43018854 0.5443489 0.33045703 0.30146572
0.05686676 -0.32621983 0.11279904 -0.6925875 -0.48988655 -0.38498825 0.4626373 0.30555642
-0.30534324 -0.006504345 0.45801535 0.5945884 0.30023715 0.06178935 0.49307287 -0.33067977
0.14595819 -0.47131118 -0.49818376 -0.3041042 0.3061835 0.28828546 -0.41600204 0.15438932
0.40649393 -0.06491813 0.010935521 0.15506467 0.45037752 0.47658655 -0.53658783 -0.10002112
0.28298104 0.4802279 0.59784526 0.5709822 0.14914179 -0.58950007 0.052139804 -0.38232687
-0.6822772 0.48987293 0.5402776 -0.69845074 0.11274017 -0.095909275 -0.1045961 -0.29560727
0.27871883 -0.5048127 0.25299093 0.39458317 0.52275556 0.24856156 -0.6959793 -0.45226645
0.340954 0.13494068 -0.53486663 -0.3805931 0.66742444 0.47893083 -0.320309 -0.17723644
-0.63279337 0.046058197 -0.53647876 -0.3772799 -0.061728764 0.12397963 -0.30632886 0.36852247
-0.41291526 0.66017234 0.4952187 -0.5975219 -0.15883891 0.05578472 0.1269622 0.14431654
0.25317132 0.03734259 -0.29870507 0.274274 -0.65748525 -0.45343632 -0.15703613 -0.25256208
00000000: be43 80bc d7a6 cc3e 0afe 16bf 86cb 01bf
00000010: d08a 84be 1f29 423e 7223 f5b8 c4e8 073f
00000020: dd45 30bd f155 263e dd33 6bbe ab7e e4bd
00000030: 4534 1dbf d68e ebbe 2f31 93be cab4 e63c
00000040: a6d9 8a3e 4e35 e83e 7bf9 fabe a082 61be
00000050: 5f6f 873e f12f 0a3f 7e30 0dbe 98bc 053f
00000060: bcea a9bd 5f5a 553d a6be 263f 59e3 11bf
00000070: 4592 dabe f8db 22be 18e6 93be 4b2e 193f
00000080: e76d e4be 4544 8dbe fdcf f8be f53d 33bf
00000090: ac41 dcbe 735a 0b3f aa31 a93e b759 9a3e
000000a0: 1fed 683d 4906 a7be 2f03 e73d 6a4d 31bf
000000b0: 69d2 fabe 2e1d c5be ccde ec3e e471 9c3e
000000c0: f355 9cbe 6722 d5bb fd80 ea3e f236 183f
000000d0: afb8 993e d416 7d3d 0c74 fc3e dc4e a9be
000000e0: 1076 153e b34f f1be f111 ffbe 8cb3 9bbe
000000f0: 15c4 9c3e 279a 933e 38fe d4be 3c18 1e3e
00000100: f91f d03e ccf3 84bd e62a 333c 46c9 1e3e
00000110: e297 e63e 2703 f43e d25d 09bf dfd7 ccbd
00000120: e4e2 903e 6ee0 f53e 630c 193f e42b 123f
00000130: a0b8 183e 7ae9 16bf 8c90 553d 59c0 c3be
00000140: b8a9 2ebf a0d0 fa3e a24f 0a3f abcd 32bf
00000150: 51e4 e63d 156c c4bd 7b36 d6bd d659 97be
00000160: 3cb4 8e3e 683b 01bf 0788 813e ce06 ca3e
00000170: 4fd3 053f ec86 7e3e b32b 32bf 788f e7be
00000180: 8691 ae3e e42d 0a3e 05ed 08bf 19dd c2be
00000190: 54dc 2a3f 6c36 f53e 8bff a3be 787d 35be
000001a0: bffe 21bf 85a7 3c3d ac56 09bf d52a c1be
000001b0: 4dd7 7cbd 08e9 fd3d 23d7 9cbe faae bc3e
000001c0: a169 d3be 0e01 293f 4e8d fd3e 32f7 18bf
000001d0: aba6 22be 857e 643d 6102 023e b7c7 133e
000001e0: ac9f 813e 8bf4 183d dfef 98be a46d 8c3e
000001f0: f450 28bf ce28 e8be 14ce 20be d14f 81be

layers.0.fc.bias f4 [64]
-0.24087282 -0.5749602 -0.1577217 0.15250784 -0.4747352 -0.046984293 0.5029969 -0.0817055
0.02525785 -0.04668055 0.13947849 0.45401356 0.68454206 0.47575113 0.6870909 -0.04747345
-0.6503541 -0.3398608 0.4868893 -0.013000167 -0.36637393 -0.54271877 -0.68073326 -0.6355712
-0.15385692 0.41143245 0.39748028 -0.67812777 0.46517444 -0.55259347 -0.11553824 -0.30447412
-0.14406456 -0.1604157 -0.687379 -0.70503825 -0.112429634 0.013354772 -0.32450196 0.27512196
-0.6245464 -0.044266053 0.634201 -0.29879996 0.63592106 0.23870641 -0.63842165 0.45282558
-0.073622465 -0.32679668 0.5573658 -0.5615019 0.067819126 -0.14986093 0.4972545 0.20210963
0.34840438 0.2502252 -0.18193951 -0.144419 -0.601281 0.39352843 0.5538405 0.492315
00000000: 5da7 76be 9730 13bf cc81 21be 042b 1c3e
00000010: 7e10 f3be 9a72 40bd 68c4 003f 3755 a7bd
00000020: 8de9 ce3c 1b34 3fbd 73d3 0e3e 7774 e83e
00000030: 263e 2f3f a795 f33e 30e5 2f3f 8573 42bd
00000040: 9b7d 26bf 3c02 aebe 8e49 f93e a7fe 54bc
00000050: 5d95 bbbe 9eef 0abf 8944 2ebf cbb4 22bf
00000060: ab8c 1dbe 46a7 d23e 8982 cb3e c899 2dbf
00000070: 582b ee3e c476 0dbf 509f ecbd 08e4 9bbe
00000080: a985 13be 0344 24be 12f8 2fbf 637d 34bf
00000090: 8241 e6bd f9cd 5a3c 1f25 a6be c9dc 8c3e
000000a0: 46e2 1fbf 5250 35bd ff5a 223f 4ffc 98be
000000b0: b9cb 223f 746f 743e 9a6f 23bf c1d8 e73e
000000c0: 60c7 96bd e551 a7be 86af 0e3f 97be 0fbf
000000d0: c1e4 8a3d 2575 19be 2498 fe3e d4f5 4e3e
000000e0: 0f62 b23e 841d 803e 5a4e 3abe 93e2 13be
000000f0: 8ded 19bf 8f7c c93e 7ec8 0d3f b610 fc3e

layers.1.fc.weight f4 [64, 128]
-0.06107422 -0.004233153 -0.042580977 -0.030319555 -0.057604462 0.042397916 -0.04329984 0.014365875
0.0018772252 0.06711258 -0.056071833 -0.053046387 -0.042174514 0.035437945 -0.020825293 0.097453915
0.025013292 0.0008133833 0.0063140965 -0.024777168 0.0016885393 -0.026361609 -0.008049371 0.001070043
-0.053386394 -0.035124492 0.07370775 -0.08000943 -0.011684759 0.08127109 0.02342648 0.018991603
-0.09021718 0.03820358 -0.070742354 -0.029257264 -0.030659556 -0.015966365 -0.008288117 0.068835385
0.03301768 0.06585665 0.06065343 -0.065727286 0.03629206 -0.05507463 -0.048659474 0.034942385
0.017389406 0.06656933 -0.022290163 -0.0063978606 0.05926155 -0.081338465 0.07285405 -0.061841156
0.009216764 -0.040424176 -0.040444512 0.0027049799 0.06284452 -0.01601235 -0.04246874 -0.024822643
-0.0875383 0.0322536 -0.048388384 -0.040237732 -0.05838044 0.03264938 0.03976155 0.058211483
0.063437775 -0.047714513 -0.00085425534 0.034089874 0.08078165 0.022226697 -0.042255197 -0.035850566
-0.08785547 0.0050192196 -0.04702885 -0.052579556 0.06824914 -0.06446035 -0.01495961 0.029647477
-0.005068585 -0.048108462 -0.06538521 0.06892115 0.01753496 0.06776159 -0.018316593 0.023195649
-0.019856494 -0.008126907 -0.045497477 0.026803346 0.054914407 0.024931846 -0.029130004 -0.053577624
0.06266647 -0.06271554 0.044254173 -0.03986893 -0.03770369 0.028050324 -0.04340835 0.014113441
0.026846325 -0.0763997 0.02304777 0.03229339 0.033185463 -0.030354032 -0.063869976 -0.008758152
0.033460576 -0.031668935 0.024937185 0.058409758 -0.050200317 0.005189128 0.0315222 0.008262513
-0.00046070365 0.009369722 -0.06334615 0.0074228086 0.051641025 0.09694267 0.06416744 0.028277325
0.030053431 -0.027688215 -0.0773925 -0.074383795 0.09804345 0.04214395 -0.0485818 0.040252067
0.061817396 0.09007778 0.079017654 0.054460466 -0.024770886 -0.03026127 0.06836844 0.036969073
-0.039910886 0.07887151 0.046432268 0.041707773 -0.052598108 0.022862755 -0.04404807 0.07597086
-0.029340742 0.021930546 0.005136523 0.03413524 -0.038885947 0.033525575 -0.06189657 0.026582383
-0.049883652 -0.09158605 -0.06193255 0.066839166 0.050267193 0.08043478 0.057730637 -0.06689277
-0.075228095 -0.007850509 -0.05710944 0.055202708 -0.05182645 -0.033317685 -0.076524116 -0.045090158
0.07354728 0.061114553 0.06140799 0.054810494 0.06716282 -0.015511454 0.05148725 0.089718066
0.020770453 0.090433024 0.04202658 0.055134837 -0.041062966 0.053272076 0.011952936 -0.0123497285
-0.05051133 -0.041115403 -0.067125134 0.062726736 0.072417505 -0.01244302 -0.04782255 0.053501684
0.059103988 0.007835548 -0.040623274 0.0767169 0.03093855 -0.06822166 0.087204844 0.06592444
-0.027412498 0.047214363 -0.049523417 -0.016427178 0.0829366 0.006694883 -0.068494365 -0.027812507
-0.03472148 -0.029439503 0.010586233 0.08620686 0.00684225 -0.056259777 0.0031621424 0.051134046
0.0465636 -0.06264835 -0.0066156485 -0.06765111 -0.030744314 0.030414024 -0.065150216 0.036895566
0.06390771 0.0095898155 -0.06050888 -0.032251053 0.03629962 -0.063966885 0.0529739 -0.077547155
-0.08595558 -0.083087385 -0.023173124 0.04838453 -0.09075335 0.07867153 -0.03257968 0.0322498
00000000: f628 7abd 43b6 8abb 6469 2ebd b760 f8bc
00000010: a8f2 6bbd 70a9 2d3d 2c5b 31bd d95e 6b3c
00000020: 3a0d f63a 5272 893d 94ab 65bd 2b47 59bd
00000030: 2fbf 2cbd 6127 113d ce99 aabc eb95 c73d
00000040: ade8 cc3c 3b39 553a 7be6 ce3b 7df9 cabc
00000050: fa51 dd3a 4df4 d7bc 82e1 03bc af40 8c3a
00000060: b1ab 5abd b3de 0fbd 17f4 963d fcdb a3bd
00000070: 6e71 3fbc 7571 a63d e4e8 bf3c 4794 9b3c
00000080: c9c3 b8bd 5b7b 1c3d 5ee1 90bd eeac efbc
00000090: c029 fbbc e5cb 82bc e2ca 07bc 91f9 8c3d
000000a0: 8c3d 073d dadf 863d bb6f 783d 079c 86bd
000000b0: fca6 143d ef95 61bd 284f 47bd bf1f 0f3d
000000c0: 3a74 8e3c 8055 883d dc99 b6bc 25a5 d1bb
000000d0: 3dbc 723d c894 a6bd 8134 953d 274d 7dbd
000000e0: e901 173c d293 25bd 25a9 25bd 0846 313b
000000f0: a1b4 803d 552c 83bc b4f3 2dbd db58 cbbc
00000100: 4847 b3bd 5a1c 043d e632 46bd 52d0 24bd
00000110: 5420 6fbd 5bbb 053d 02dd 223d 2a6f 6e3d
00000120: aaeb 813d 4b70 43bd 1bf0 5fba d3a1 0b3d
00000130: da70 a53d c314 b63c c913 2dbd 0bd8 12bd
00000140: 92ed b3bd 4478 a43b 53a1 40bd a95d 57bd
00000150: 35c6 8b3d ca03 84bd 2719 75bc 44df f23c
00000160: 5f16 a6bb 610d 45bd aee8 85bd 8826 8d3d
00000170: 7aa5 8f3c 97c6 8a3d ae0c 96bc cd04 be3c
00000180: 16aa a2bc b826 05bc 905b 3abd b192 db3c
00000190: eeed 603d df3d cc3c 0ca2 eebc 3674 5bbd
000001a0: 4757 803d 0171 80bd dd43 353d 9a4d 23bd
000001b0: 2f6f 1abd cbc9 e53c f4cc 31bd 103c 673c
000001c0: d3ec db3c 7277 9cbd adce bc3c 1346 043d
000001d0: 7bed 073d 05a9 f8bc 43ce 82bd 5a7e 0fbc
000001e0: f50d 093d 49b7 01bd 1149 cc3c 123f 6f3d
000001f0: d99e 4dbd 9009 aa3b 6c1d 013d 7e5f 073c
00000200: 998a f1b9 7683 193c a0bb 81bd 083b f33b
00000210: 8a85 533d e189 c63d 386a 833d d9a5 e73c
00000220: 9d32 f63c 65d2 e2bc f67f 9ebd 8856 98bd
00000230: 01cb c83d 229f 2c3d b6fd 46bd 5adf 243d
00000240: 3d34 7d3d b37a b83d 02d4 a13d f011 5f3d
00000250: 50ec cabc 7ce6 f7bc c104 8c3d e26c 173d
00000260: 9979 23bd 6387 a13d c32f 3e3d c5d5 2a3d
00000270: 1d71 57bd ac4a bb3c c06b 34bd 9c96 9b3d
00000280: ff5b f0bc b0a7 b33c 4750 a83b 65d1 0b3d
00000290: df46 1fbd 1d52 093d 4287 7dbd 4cc3 d93c
000002a0: cd52 4cbd 7891 bbbd fcac 7dbd f9e2 883d
000002b0: f9e4 4d3d fdba a43d f676 6c3d 14ff 88bd
000002c0: 3011 9abd 6c9f 00bc 97eb 69bd 3c1c 623d
000002d0: f947 54bd 2078 08bd adb8 9cbd 75b0 38bd
000002e0: f59f 963d 4153 7a3d f286 7b3d f880 603d
000002f0: a98c 893d c123 7ebc 4be4 523d 1bbe b73d
00000300: cc26 aa3c f334 b93d 1024 2c3d 11d5 613d
00000310: a431 28bd d233 5a3d 3fd6 433c 8456 4abc
00000320: f8e4 4ebd a068 28bd e778 89bd e076 803d
00000330: a14f 943d cfdd 4bbc 94e1 43bd 9524 5b3d
00000340: 0617 723d ac60 003c 9764 26bd c01d 9d3d
00000350: d872 fd3c ccb7 8bbd 7498 b23d 6503 873d
00000360: 2d90 e0bc d963 413d 11d9 4abd 4a92 86bc
00000370: aada a93d c060 db3b c646 8cbd 0ed7 e3bc
00000380: 1c38 0ebd 1d2b f1bc e171 2d3c 398d b03d
00000390: f434 e03b a770 66bd f23b 4f3b ef71 513d
000003a0: 79b9 3e3d c74d 80bd 15c8 d8bb aa8c 8abd
000003b0: 80db fbbc d526 f93c 7a6d 85bd ce1f 173d
000003c0: 0ce2 823d 9a1e 1d3c 29d8 77bd ae19 04bd
000003d0: e9ae 143d 1201 83bd 29fb 583d 0bd1 9ebd
000003e0: 7b09 b0bd b829 aabd 90d5 bdbc db2e 463d
000003f0: e4dc b9bd 8a1e a13d 4572 05bd 5e18 043d

layers.1.fc.bias f4 [64]
0.07407946 0.003236732 -0.041115686 0.002389824 0.029679872 -0.021634635 0.026593195 0.031253066
-0.054868743 0.08979041 0.050032426 -0.010895862 0.07444323 -0.03649938 0.02829268 0.046467245
-0.07599556 -0.03105902 -0.046776205 -0.017667694 -0.04087917 -0.023785628 -0.02453942 0.06019426
0.011856167 -0.09103666 -0.034437954 -0.016222881 0.044976283 0.062773086 0.09301722 -0.07034833
0.073765315 0.040372703 -0.061937388 -0.06515813 -0.056992024 0.013667029 -0.029300151 -0.07556925
-0.036559314 0.04088194 0.0055362796 -0.08076845 -0.06956026 0.022240367 0.06305238 -0.03330863
-0.061052583 0.02706626 -0.061454196 -0.0679652 0.06997998 -0.00035028555 -0.026922561 0.022808108
0.065814696 -0.072755404 -0.024579715 -0.00828111 -0.112560496 0.08852403 -0.09276721 -0.042368192
00000000: f9b6 973d 5a1f 543b ec68 28bd 989e 1c3b
00000010: 3423 f33c 1e3b b1bc f9d9 d93c 3703 003d
00000020: 0cbe 60bd 09e4 b73d cdee 4c3d 8f84 32bc
00000030: b175 983d 6080 15bd 0dc6 e73c 7054 3e3d
00000040: 8fa3 9bbd 7c6f febc 6898 3fbd d7bb 90bc
00000050: eb70 27bd 14da c2bc e506 c9bc 428e 763d
00000060: 5e40 423c 6e71 babd d00e 0dbd d9e5 84bc
00000070: 0d39 383d 2d8f 803d d07f be3d c912 90bd
00000080: 4512 973d d95d 253d 0fb2 7dbd a071 85bd
00000090: 7870 69bd adeb 5f3c df06 f0bc 0dc4 9abd
000000a0: 38bf 15bd d273 273d ae69 b53b ee69 a5bd
000000b0: 9c75 8ebd 6e31 b63c 9b21 813d a16e 08bd
000000c0: 4612 7abd 10ba dd3c 65b7 7bbd 5731 8bbd
000000d0: aa51 8f3d 88a6 b7b9 b48c dcbc 12d8 ba3c
000000e0: dbc9 863d c900 95bd 665b c9bc 7ead 07bc
000000f0: 1e86 e6bd 164c b53d bcfc bdbd 458a 2dbd

layers.2.gsds.0.weight f4 [2, 64]
0.06290084 0.10597485 -0.056245375 0.1196323 -0.011172856 -0.11352966 -0.107356355 -0.053531416
-0.012029324 0.1226701 -0.057450417 -0.018682789 0.09507021 -0.0290717 0.06643853 -0.0040892814
-0.06483053 -0.09303046 0.11533354 -0.081420444 0.0067857713 0.04409025 0.009774028 -0.018782001
-0.036878336 -0.05288493 0.059231944 -0.040729612 0.053386632 0.04594337 0.04506121 -0.07161349
-0.08898092 -0.06932803 0.03252713 0.0013797745 0.11395756 0.08020005 -0.054339588 0.09059415
-0.06891122 -0.0414889 0.10355998 -0.100886896 -0.04421469 -0.10019402 0.049583558 0.104429364
0.11614603 -0.045416646 -0.09766612 0.058581162 -0.06836454 -0.0505381 -0.089015104 0.08665396
-0.016156903 0.0138602825 -0.020402677 0.00986482 -0.064275764 0.12915353 -0.10395318 0.00080318545
-0.06621949 -0.095653 0.05305131 0.1060378 0.06893991 0.02426558 0.0735515 0.053857733
-0.05533282 -0.06675326 0.046280492 0.0791853 0.07447241 0.011506683 0.11372193 -0.10159011
0.033900093 0.10991769 -0.0028549375 0.090694755 0.12037364 -0.105995856 0.064290546 0.07477768
0.05395019 0.072913826 0.09530752 0.053290293 0.07776893 -0.12973897 -0.13867679 0.048560593
0.14631435 -0.055946816 0.109570965 -0.03923535 0.06734784 -0.018268313 0.06508557 -0.050977025
-0.121997304 0.076239645 -0.06389977 0.08528016 0.034230705 -0.038627237 0.13607208 0.11103792
-0.048482712 0.047411975 0.045365434 -0.09426249 2.1372138e-05 -0.12258102 -0.0009900291 -0.12443293
0.09733464 0.07708947 0.11296786 0.06287745 -0.046800327 0.05427377 0.042796582 0.05741093
00000000: 28d2 803d 5809 d93d 8d61 66bd c801 f53d
00000010: 5b0e 37bc 3d82 e8bd a6dd dbbd c243 5bbd
00000020: a416 45bc 763a fb3d 2151 6bbd a60c 99bc
00000030: 2cb4 c23d c627 eebc ed10 883d 61ff 85bb
00000040: dec5 84bd c186 bebd fe33 ec3d c3bf a6bd
00000050: 2d5b de3b fa97 343d 3f23 203c b6dc 99bc
00000060: bd0d 17bd de9d 58bd 329d 723d 18d4 26bd
00000070: f1ab 5a3d 1d2f 3c3d 1a92 383d 18aa 92bd
00000080: a13b b6bd dbfb 8dbd 2b3b 053d 8dd9 b43a
00000090: 9562 e93d ec3f a43d 3093 5ebd 6d89 b93d
000000a0: 5321 8dbd 44f0 29bd 4117 d43d ca9d cebd
000000b0: 761a 35bd 8632 cdbd 2118 4b3d 10df d53d
000000c0: f8dd ed3d ce06 3abd 2d05 c8bd cdf2 6f3d
000000d0: b502 8cbd 0a01 4fbd 8d4d b6bd a277 b13d
000000e0: 7b5b 84bc 3d16 633c 8423 a7bc 0ea0 213c
000000f0: 03a3 83bd d340 043e 68e5 d4bd dd8c 523a
00000100: 159e 87bd b8e5 c3bd 554c 593d 592a d93d
00000110: 5e30 8d3d 9cc8 c63c 2ba2 963d ed99 5c3d
00000120: aba4 62bd efb5 88bd 9d90 3d3d e72b a23d
00000130: fe84 983d 8786 3c3c 0be7 e83d 7a0e d0bd
00000140: d3da 0a3d 871c e13d e719 3bbb 2cbe b93d
00000150: 7486 f63d 5b14 d9bd c3aa 833d 0a25 993d
00000160: e0fa 5c3d d853 953d 9730 c33d ec46 5a3d
00000170: 5145 9f3d 4bda 04be 4a01 0ebe 79e7 463d
00000180: 6ed3 153e 7d28 65bd be66 e03d 3fb5 20bd
00000190: aaed 893d 6ea7 95bc 954b 853d 49cd 50bd
000001a0: b9d9 f9bd 8823 9c3d e2dd 82bd 5da7 ae3d
000001b0: 7f35 0c3d 9837 1ebd 7b56 0b3e d967 e33d
000001c0: cf95 46bd 0f33 423d 1bd1 393d b10c c1bd
000001d0: 5148 b337 c20b fbbd ddc3 81ba b1d6 febd
000001e0: 6257 c73d 16e1 9d3d b25b e73d e4c5 803d
000001f0: b3b1 3fbd 2c4e 5e3d 784b 2f3d b927 6b3d

layers.2.gsds.0.bias f4 [2]
-0.0076671136 0.11796631
00000000: 693c fbbb 5298 f13d

log_envelope.log_envs.0.weight f4 [2, 1]
0.67839587 0.6713955
00000000: 5aab 2d3f 93e0 2b3f

exp_avg f4 [64, 2]
1.1168681e-06 6.2215315e-07 7.00927e-07 -9.754667e-07 -2.940689e-07 -1.8410898e-07 -1.4719981e-06 -6.9792924e-07
-1.4030909e-06 -9.514174e-07 1.5794504e-06 1.2074843e-06 8.586289e-07 1.3699237e-07 1.2606812e-06 1.2298384e-06
7.250277e-07 5.208823e-07 -8.152395e-07 1.0386942e-06 -5.203229e-07 -2.736974e-07 9.516943e-08 -2.2878962e-07
-1.4410946e-06 1.6987372e-08 1.6786477e-06 -1.4796314e-06 -1.0079418e-06 -2.4649094e-07 1.1182753e-06 9.823283e-07
-7.117541e-07 -2.454369e-07 -2.5172967e-06 -4.2165602e-06 4.0842842e-06 2.1473697e-06 -1.2911289e-06 -7.318029e-07
-1.8359616e-06 -1.52544e-06 -8.5554495e-07 -2.9549258e-07 -1.10208e-06 -5.229565e-07 -2.7285016e-06 -8.004733e-07
6.423722e-07 8.2167253e-07 -8.199747e-07 1.3773342e-08 -1.6066501e-06 -1.569773e-06 -2.2889915e-06 -2.1503542e-06
-4.5418312e-07 -1.3365438e-06 -3.141383e-07 -1.1510571e-06 7.4053224e-07 4.0240363e-07 -5.554444e-07 6.9932355e-07
-4.018559e-06 -5.328664e-06 -4.2266254e-08 -1.4997298e-07 -1.2849074e-06 9.393808e-07 -5.790202e-07 -1.4105511e-07
-1.1960028e-06 -1.3081674e-07 -9.834319e-08 8.363326e-07 -4.0396895e-07 -8.3239496e-07 1.4112679e-06 4.782563e-07
6.828617e-08 4.8088486e-06 1.8628602e-06 1.2620144e-06 6.438487e-07 1.510712e-08 3.3510244e-07 -4.4464323e-07
6.882687e-07 5.687978e-07 4.1234676e-07 -8.362183e-08 -2.3071243e-06 -9.177945e-07 -1.9142221e-06 2.6570287e-08
1.8862167e-07 3.130359e-08 -8.600855e-07 -1.566729e-08 -6.3053426e-07 7.8654153e-07 1.2490932e-06 5.095077e-07
-2.7424107e-06 1.022339e-06 3.933884e-07 1.2825138e-06 7.947542e-07 1.5885105e-07 3.6826648e-06 3.852202e-06
-2.009296e-06 -9.17838e-07 8.7216694e-07 -5.2667866e-07 -2.2285276e-06 -2.1728792e-06 -1.8874412e-06 -1.5251077e-06
1.4588967e-08 -6.0612643e-07 -1.2024293e-06 6.9899033e-07 1.5841316e-07 -1.2164503e-07 1.5585162e-07 1.4934457e-07
00000000: 4ce7 9535 0a02 2735 5627 3c35 c8ec 82b5
00000010: 86e0 9db4 7eaf 45b4 7891 c5b5 5559 3bb5
00000020: d651 bcb5 e864 7fb5 81fd d335 d810 a235
00000030: 877c 6635 2d18 1334 ad34 a935 ed10 a535
00000040: 869f 4235 c2d2 0b35 d5d6 5ab5 4369 8b35
00000050: 51ac 0bb5 aff0 92b4 f35f cc33 36a9 75b4
00000060: a26b c1b5 a0eb 9132 e54d e135 bf97 c6b5
00000070: 9e48 87b5 7555 84b4 a617 9635 8bd8 8335
00000080: 5f0f 3fb5 97c4 83b4 d4ee 28b6 fa7b 8db6
00000090: bc0b 8936 881b 1036 da4a adb5 1d71 44b5
000000a0: 296b f6b5 b8bd ccb5 9aa8 65b5 31a4 9eb4
000000b0: 2eeb 93b5 4c61 0cb5 4d1b 37b6 1be0 56b5
000000c0: 7b6f 2c35 e890 5c35 3b1c 5cb5 cc9f 6c32
000000d0: 14a4 d7b5 fdb0 d2b5 939c 19b6 ce4e 10b6
000000e0: 74d6 f3b4 4c63 b3b5 d7a6 a8b4 057e 9ab5
000000f0: fdc8 4635 ef09 d834 d919 15b5 26b9 3b35
00000100: 29d7 86b6 e0cc b2b6 3d88 35b3 4208 21b4
00000110: 1575 acb5 c229 7c35 f76d 1bb5 ef74 17b4
00000120: 5886 a0b5 a276 0cb4 be30 d3b3 5780 6035
00000130: 12e1 d8b4 bf71 5fb5 cc6a bd35 8661 0035
00000140: b8a4 9233 b25b a136 6407 fa35 7c62 a935
00000150: f2d4 2c35 e9c4 8132 21e8 b334 4db7 eeb4
00000160: 77c1 3835 7daf 1835 8260 dd34 9693 b3b3
00000170: 18d4 1ab6 5c5e 76b5 1676 00b6 ae3c e432
00000180: ee87 4a34 a972 0633 a0e0 66b5 bc94 86b2
00000190: fc41 29b5 b922 5335 84a6 a735 1ac5 0835
000001a0: 420a 38b6 4d37 8935 e432 d334 d722 ac35
000001b0: 1857 5535 a590 2a34 b323 7736 2a42 8136
000001c0: 71d7 06b6 5961 76b5 db1e 6a35 1561 0db5
000001d0: d08d 15b6 c8d1 11b6 fc53 fdb5 4db2 ccb5
000001e0: f5a2 7a32 b1b4 22b5 2863 a1b5 40a2 3b35
000001f0: 4718 2a34 889d 02b4 2b58 2734 865b 2034

exp_avg_sq f4 [64, 2]
8.052451e-09 2.0874675e-09 7.830083e-09 1.0488402e-09 4.075273e-09 5.304204e-10 1.1456359e-08 5.0822874e-10
3.7454697e-09 4.6191076e-10 8.3793433e-10 5.1449145e-10 2.439822e-10 4.0722317e-10 2.8422371e-09 5.136589e-10
4.791525e-09 4.2495393e-10 2.5790484e-08 1.353014e-09 6.705737e-09 3.489082e-10 3.832276e-09 1.5892337e-10
2.797739e-09 6.1361777e-10 6.27551e-10 5.432131e-11 1.6719053e-08 2.2677024e-10 4.2272706e-08 7.8642515e-10
2.5615559e-09 2.9066238e-10 2.6939821e-08 1.4844016e-09 3.7829317e-09 2.862295e-09 1.571708e-08 2.0698223e-09
1.2644336e-08 4.4308135e-10 1.0623726e-08 1.591802e-09 8.8375346e-10 2.2964871e-11 1.38203005e-08 5.772326e-10
5.9150564e-09 3.9586426e-10 1.172551e-09 2.2721222e-10 3.0701528e-09 3.1687694e-10 8.658833e-09 4.0259737e-10
6.6742194e-09 1.808892e-10 2.144278e-08 1.1704189e-09 2.0887487e-08 1.2886023e-10 7.1608377e-09 1.2925548e-10
4.0492754e-08 5.1195155e-09 3.7248495e-09 3.1287659e-10 6.3608785e-09 2.2168711e-10 2.4955277e-10 4.3146885e-11
1.5779383e-08 3.19189e-10 5.1746296e-10 3.037177e-10 2.4961885e-08 2.9410065e-09 1.5197847e-08 8.345401e-10
8.160205e-09 6.934225e-10 3.7330117e-09 6.2756084e-10 4.060293e-09 5.4564525e-10 2.1852392e-08 1.6972583e-09
1.3703194e-09 1.1445253e-10 3.210197e-10 1.12070846e-10 8.927871e-09 3.5777728e-10 7.269314e-09 2.9998293e-10
1.43124455e-08 1.0665699e-09 4.9042503e-09 9.923407e-10 1.6531005e-09 2.5444283e-10 1.5138124e-08 1.1247328e-09
4.767131e-10 1.1389032e-09 1.9771466e-08 9.0289237e-10 3.5793055e-10 4.7690885e-10 3.852981e-08 2.2700521e-09
1.5840772e-08 3.4578665e-10 1.0273682e-08 1.3912758e-10 3.8958685e-08 9.71445e-10 2.0193196e-09 4.1627746e-10
5.538908e-09 9.421477e-11 1.5706719e-09 1.0386302e-09 4.017936e-09 4.69183e-10 8.336116e-09 5.730094e-11
00000000: 0e57 0a32 1e73 0f31 1285 0632 c926 9030
00000010: 7b06 8c31 04cd 1130 9ad1 4432 6bb3 0b30
00000020: 80b1 8031 29f0 fd2f 6354 6630 1e6c 0d30
00000030: 7121 862f 91df df2f 2a51 4331 8831 0d30
00000040: b3a2 a431 f39e e92f e089 dd32 f3f4 b930
00000050: 4968 e631 77d0 bf2f 0ead 8331 f4bc 2e2f
00000060: 5842 4031 83ab 2830 fa7f 2c30 5ce8 6e2e
00000070: 969d 8f32 2656 792f 558f 3533 c02b 5830
00000080: 5e07 3031 18cb 9f2f 4b69 e732 bd03 cc30
00000090: 05fb 8131 07b2 4431 3902 8732 b33c 0e31
000000a0: 613a 5932 2896 f32f a483 3632 8ec6 da30
000000b0: 9fec 7230 4b00 ca2d 536e 6d32 22ab 1e30
000000c0: 633d cb31 f1a0 d92f 7827 a130 8ed2 792f
000000d0: b3fa 5231 7734 ae2f f3c1 1432 8b54 dd2f
000000e0: 0e53 e531 c9e3 462f 2c31 b832 74dc a030
000000f0: 126c b332 eeae 0d2f 650b f631 2f1e 0e2f
00000100: 41ea 2d33 bce7 af31 3ff8 7f31 7701 ac2f
00000110: e18e da31 60bf 732f 6e31 892f 13c3 3d2e
00000120: 3b8b 8732 dc79 af2f 383d 0e30 77f8 a62f
00000130: c46b d632 bc1a 4a31 6b8c 8232 8a65 6530
00000140: f630 0c32 459b 3e30 eb43 8031 ab80 2c30
00000150: b782 8b31 5ffc 1530 ebb5 bb32 f844 e930
00000160: d455 bc30 0caf fb2e 827b b02f 4772 f62e
00000170: 3161 1932 adb0 c42f 90c5 f931 d8ea a42f
00000180: cde2 7532 9896 9230 3e82 a831 e262 8830
00000190: 4e33 e330 a5e1 8b2f 1609 8232 0495 9a30
000001a0: b409 0330 9887 9c30 ead5 a932 672f 7830
000001b0: 3fc6 c42f 7a17 0330 f97b 2533 2eff 1b31
000001c0: 3a12 8832 2519 be2f 2280 3032 eff8 182f
000001d0: 8753 2733 af83 8530 3fc4 0a31 d8d9 e42f
000001e0: c050 be31 332e cf2e 1bdf d730 8dbf 8e30
000001f0: 240e 8a31 d2f7 0030 a036 0f32 1f03 7c2e

exp_avg f4 [64]
4.361004e-06 2.5359743e-06 -1.0588828e-06 -9.0487794e-07 -2.8480072e-06 4.3630603e-06 1.2464666e-06 2.8231466e-06
3.2078694e-06 7.5614016e-06 -1.317969e-06 -1.1968704e-06 -1.261547e-07 -1.3818318e-06 -1.1295837e-06 4.4921467e-06
-5.9222494e-08 -1.4759611e-06 5.9915374e-06 -6.2536533e-06 -4.199796e-06 3.5455844e-06 6.5519697e-07 -4.9791406e-06
2.4995627e-06 -4.863246e-07 -3.5850112e-06 -3.7171037e-06 -2.233993e-06 5.5853325e-06 5.73864e-07 2.4860688e-06
-1.1860486e-05 -1.1591411e-06 -2.9380708e-06 1.4606551e-06 -1.6267371e-06 3.941238e-07 -6.259479e-06 3.9165834e-06
4.3668797e-06 1.8738939e-06 1.4298752e-06 -2.2023414e-06 -6.039021e-07 2.0055224e-07 -3.3033375e-06 -1.5115118e-06
-9.904322e-07 -8.4659735e-07 -8.4641346e-07 2.95924e-06 4.324332e-06 4.8396423e-06 3.4989966e-07 7.717907e-06
-3.1333498e-06 -1.321239e-06 -4.2792635e-06 -3.885318e-06 -7.3065183e-07 1.0994332e-06 -1.0757589e-06 9.966519e-07
00000000: bd54 9236 b52f 2a36 f01e 8eb5 bde6 72b5
00000010: 6420 3fb6 6766 9236 444c a735 4a75 3d36
00000020: c746 5736 f2b7 fd36 12e5 b0b5 27a4 a0b5
00000030: 2475 07b4 6177 b9b5 339c 97b5 3fbb 9636
00000040: d25b 7eb3 a319 c6b5 ea0a c936 79d6 d1b6
00000050: f9eb 8cb6 adf0 6d36 cbe0 2f35 7e12 a7b6
00000060: 29be 2736 f98b 02b5 0696 70b6 5b73 79b6
00000070: b5eb 15b6 a469 bb36 a20b 1a35 56d6 2636
00000080: 66fc 46b7 c993 9bb5 ac2b 45b6 ba0b c435
00000090: 4356 dab5 f697 d334 8408 d2b6 326b 8336
000000a0: 3687 9236 8182 fb35 23ea bf35 f0cb 13b6
000000b0: d61b 22b5 6157 5734 e8ae 5db6 26df cab5
000000c0: feee 84b5 ba41 63b5 1735 63b5 5b97 4636
000000d0: bb19 9136 3664 a236 d8d9 bb34 287c 0137
000000e0: 8a46 52b6 6d55 b1b5 9896 8fb6 a15e 82b6
000000f0: 0322 44b5 3d90 9335 cb62 90b5 b3c4 8535

exp_avg_sq f4 [64]
5.9517674e-08 3.0056142e-08 1.0320234e-08 1.034638e-08 8.329981e-09 9.984644e-09 1.1129051e-08 1.0927517e-08
1.38709515e-08 3.4449037e-08 1.3106842e-08 1.0814958e-09 1.2678751e-08 4.363861e-10 5.11879e-09 1.3573657e-08
7.583278e-09 6.017241e-08 2.8813146e-08 6.0418344e-08 5.93164e-09 2.2289491e-08 3.0304648e-10 7.512174e-09
8.791414e-09 1.4683718e-09 4.4545088e-09 3.5117838e-09 1.6047799e-09 3.5082806e-08 1.0503222e-09 3.5486836e-09
9.633275e-08 4.6180877e-09 2.5467566e-09 6.250505e-10 4.3513175e-09 7.99787e-09 4.891711e-08 1.9257845e-08
6.4550134e-09 1.3453745e-08 1.3259746e-08 3.737361e-08 3.6170096e-09 2.8668476e-09 9.933437e-09 7.516506e-09
2.7710445e-08 3.0786858e-08 7.2922344e-09 3.2216338e-08 2.4423649e-08 1.1012411e-08 1.2103197e-08 2.7009019e-08
4.95948e-09 4.7346376e-09 1.4700075e-08 9.725597e-09 2.2532767e-09 1.969996e-08 1.15320145e-08 5.139098e-10
00000000: 60a0 7f33 1417 0133 de4c 3132 dcbf 3132
00000010: a51b 0f32 ee88 2b32 1532 3f32 babb 3b32
00000020: 174d 6e32 1ef5 1333 802c 6132 c0a3 9430
00000030: bdd1 5932 e2e7 ef2f 5ae1 af31 9331 6932
00000040: 9c47 0232 2238 8133 c780 f732 56bf 8133
00000050: 42cf cb31 1c77 bf32 009a a62f e40e 0132
00000060: 0c09 1732 bdcf c930 460e 9931 f453 7131
00000070: 2c8f dc30 f4ad 1633 ed5a 9030 1add 7331
00000080: 7ddf ce33 21ad 9e31 0403 2f31 05d0 2b30
00000090: 9882 9531 0167 0932 ee18 5233 736c a532
000000a0: e6ca dd31 3222 6732 fbcc 6332 b884 2033
000000b0: 1b8f 7831 1e02 4531 b8a7 2a32 f121 0132
000000c0: ea07 ee32 823a 0433 2c8f fa31 3d5e 0a33
000000d0: 2ccc d132 1931 3d32 6cee 4f32 7601 e832
000000e0: 0c68 aa31 50ae a231 9d8b 7c32 a115 2732
000000f0: 10d8 1a31 ac38 a932 561e 4632 3043 0d30

exp_avg f4 [64, 128]
-3.3677546e-07 -1.7593298e-06 -4.658417e-07 7.9090745e-07 -1.0962809e-06 -4.6094382e-07 5.5029903e-07 -4.7331818e-07
5.836819e-07 -6.093929e-07 8.973558e-07 1.5731518e-06 1.6215237e-06 7.930847e-07 1.0782231e-06 1.6503236e-07
-1.890629e-06 -1.5766879e-06 1.497669e-06 4.6848007e-07 -1.2480131e-06 -1.8099504e-06 -1.9236877e-06 -8.2976567e-07
-7.1196854e-07 1.5024048e-06 1.314388e-06 -1.6623492e-06 9.973127e-07 -1.7572062e-06 2.0101479e-07 -1.0290311e-06
-8.729441e-08 -2.4817498e-07 -9.480941e-07 -2.0674179e-06 2.6139344e-07 8.134892e-07 -1.270973e-06 4.6266032e-07
-1.3726874e-06 -3.1465484e-07 1.5488789e-06 -1.0985148e-06 1.4723803e-06 1.0394899e-06 -8.0850134e-07 4.777998e-07
2.486811e-07 -1.3089357e-06 1.7849412e-06 -1.6719061e-06 -1.3700611e-07 -9.05149e-07 1.3443561e-06 7.451506e-07
1.1914974e-06 3.4440922e-07 -5.8426485e-07 -1.0409817e-07 -1.2297422e-06 1.1499709e-06 6.2887494e-07 8.453746e-07
-3.2836525e-07 -1.5085446e-06 -5.4015027e-07 7.908923e-07 -1.0937384e-06 -4.5644475e-07 3.8775477e-07 -5.013543e-07
5.6389564e-07 -5.404633e-07 9.3139295e-07 1.4972493e-06 1.6134283e-06 8.8490725e-07 1.2181226e-06 1.722581e-07
-1.8251098e-06 -1.6924714e-06 1.4114287e-06 4.102805e-07 -1.2199355e-06 -1.7355031e-06 -1.7666771e-06 -1.0177104e-06
-7.309174e-07 1.5302082e-06 1.3775301e-06 -1.5444164e-06 9.275996e-07 -1.5649525e-06 1.1648814e-07 -1.049442e-06
-7.129347e-08 -2.4819798e-07 -1.2336267e-06 -1.892355e-06 2.061167e-07 1.0357506e-06 -1.2193217e-06 4.3881127e-07
-1.3112565e-06 -2.053129e-07 1.5725092e-06 -1.1364033e-06 1.4386954e-06 1.0624567e-06 -9.0268134e-07 8.907435e-08
1.8757252e-07 -1.1740457e-06 1.4059765e-06 -1.7613894e-06 -1.4710147e-07 -8.782463e-07 1.3243796e-06 6.576071e-07
1.158988e-06 5.1541946e-07 -6.3140425e-07 -1.2375293e-07 -1.2956516e-06 1.0802694e-06 4.1233e-07 9.498661e-07
-4.357871e-07 -2.4416133e-06 -6.678602e-07 1.1001628e-06 -1.5042264e-06 -6.983389e-07 5.153915e-07 -7.1146195e-07
8.866868e-07 -9.943052e-07 1.2667424e-06 2.2491001e-06 2.238807e-06 1.1973203e-06 1.4201972e-06 2.4858346e-07
-2.6775706e-06 -2.1134235e-06 2.2006896e-06 7.554546e-07 -1.7728089e-06 -2.5261572e-06 -2.6885014e-06 -1.0069464e-06
-1.055175e-06 2.0124523e-06 1.8812478e-06 -2.4113915e-06 1.4003949e-06 -2.5266975e-06 3.8887424e-07 -1.5244393e-06
-5.9423225e-08 -3.1761044e-07 -1.0886199e-06 -3.0103827e-06 4.887208e-07 1.3274289e-06 -1.8039599e-06 6.209157e-07
-2.07312e-06 -4.8356503e-07 2.1473738e-06 -1.5469625e-06 2.1203941e-06 1.4651408e-06 -1.0059905e-06 4.2308284e-07
4.4130113e-07 -1.9247152e-06 2.5553554e-06 -2.3591817e-06 -3.2614992e-07 -1.397713e-06 1.8728741e-06 1.0857005e-06
1.7455404e-06 4.9294243e-07 -8.2575934e-07 -9.731695e-08 -1.6663295e-06 1.646755e-06 6.318031e-07 1.0937257e-06
-4.1984546e-07 -1.8311425e-06 -7.8020463e-07 1.1001507e-06 -1.4958456e-06 -6.7717315e-07 1.4364491e-07 -7.449027e-07
8.193508e-07 -8.6474154e-07 1.2789463e-06 2.1188284e-06 2.2291044e-06 1.3067178e-06 1.6817119e-06 2.7957574e-07
-2.4904382e-06 -2.2153874e-06 2.0671853e-06 6.3332647e-07 -1.7242165e-06 -2.405126e-06 -2.2960512e-06 -1.3049945e-06
-1.0747913e-06 1.948783e-06 1.9835254e-06 -2.2607287e-06 1.2640173e-06 -2.089717e-06 2.275083e-07 -1.5455544e-06
-5.4519656e-08 -3.18542e-07 -1.5368336e-06 -2.638527e-06 3.6883245e-07 1.7221051e-06 -1.7226878e-06 5.747098e-07
-1.9272918e-06 -3.3305167e-07 2.1844785e-06 -1.6079396e-06 2.0290058e-06 1.469278e-06 -1.1347578e-06 -3.7944665e-07
3.206803e-07 -1.60301e-06 1.7084137e-06 -2.499016e-06 -3.8090508e-07 -1.3124475e-06 1.8396569e-06 9.541053e-07
1.7018488e-06 7.414752e-07 -9.0016266e-07 -1.4193711e-07 -1.8112213e-06 1.5477208e-06 1.4686822e-07 1.2884851e-06
00000000: 11ce b4b4 1d22 ecb5 cc18 fab4 bf4e 5435
00000010: ed23 93b5 a377 f7b4 43b8 1335 5b1c feb4
00000020: 51ae 1c35 2995 23b5 d2e1 7035 1625 d335
00000030: 21a3 d935 5ee4 5435 77b7 9035 c033 3134
00000040: 85c1 fdb5 959e d3b5 8403 c935 6983 fb34
00000050: 6781 a7b5 6ced f2b5 b418 01b6 10bd 5eb5
00000060: 1b1e 3fb5 3ca6 c935 076a b035 e21d dfb5
00000070: 67db 8535 25d9 ebb5 86d6 5734 3d1d 8ab5
00000080: 9c76 bbb3 e93c 85b4 8880 7eb5 f8bd 0ab6
00000090: a455 8c34 8d5e 5a35 4d96 aab5 8d63 f834
000000a0: 2e3d b8b5 d5ed a8b4 13e3 cf35 ae70 93b5
000000b0: 9a9e c535 9a84 8b35 ca07 59b5 2742 0035
000000c0: 7882 8534 b0ae afb5 1d92 ef35 4266 e0b5
000000d0: f41b 13b4 5ef9 72b5 b96f b435 5c06 4835
000000e0: 8aeb 9f35 3ee7 b834 60d6 1cb5 938c dfb3
000000f0: 9f0d a5b5 b358 9a35 f5cf 2835 b3ed 6235
00000100: 2d4a b0b4 3379 cab5 d8fe 10b5 b44d 5435
00000110: 91cc 92b5 4a0d f5b4 9c2c d034 ce94 06b5
00000120: 9d5e 1735 5b14 11b5 d604 7a35 18f5 c835
00000130: f98c d835 5d8a 6d35 607e a335 f2f5 3834
00000140: 4cf6 f4b5 e028 e3b5 5270 bd35 8644 dc34
00000150: aabc a3b5 6fef e8b5 901e edb5 4398 88b5
00000160: 4334 44b5 8e61 cd35 93e3 b835 be49 cfb5
00000170: 2900 7935 5c0b d2b5 0828 fa33 8dda 8cb5
00000180: 001a 99b3 1240 85b4 1793 a5b5 d3fc fdb5
00000190: ed50 5d34 1f04 8b35 93a7 a3b5 c395 eb34
000001a0: 6efe afb5 fb73 5cb4 010f d335 8586 98b5
000001b0: 3319 c135 bc99 8e35 ca4f 72b5 2449 bf33
000001c0: 8b67 4934 e793 9db5 fcb4 bc35 e168 ecb5
000001d0: f2f2 1db4 a0c0 6bb5 56c1 b135 6a86 3035
000001e0: 868e 9b35 5b5b 0a35 c57d 29b5 f2e0 04b4
000001f0: 40e6 adb5 c6fd 9035 345e dd34 4dfa 7e35
00000200: 1ff6 e9b4 99da 23b6 0147 33b5 4ea9 9335
00000210: d3e4 c9b5 7c75 3bb5 6f59 0a35 4bfb 3eb5
00000220: a704 6e35 1174 85b5 f004 aa35 3fef 1636
00000230: 693e 1636 9db3 a035 9b9d be35 0d75 8534
00000240: 50b0 33b6 57d4 0db6 8faf 1336 72ca 4a35
00000250: 40f1 edb5 0d87 29b6 1a6c 34b6 6a26 87b5
00000260: 899f 8db5 ab0d 0736 2f7f fc35 64d3 21b6
00000270: 34f5 bb35 5590 29b6 78c6 d034 569b ccb5
00000280: 8738 7fb3 0c84 aab4 b21c 92b5 fb05 4ab6
00000290: a330 0335 1c2a b235 971f f2b5 01ad 2635
000002a0: ee1f 0bb6 56ce 01b5 9a1b 1036 3aa1 cfb5
000002b0: 184c 0e36 dba5 c435 9205 87b5 1024 e334
000002c0: f7eb ec34 5b2a 01b6 ac7c 2b36 6f52 1eb6
000002d0: b419 afb4 0e99 bbb5 775f fb35 63b8 9135
000002e0: 5048 ea35 bf52 0435 c0a9 5db5 8ffc d0b3
000002f0: a5a6 dfb5 1206 dd35 2e99 2935 21cc 9235
00000300: 1f67 e1b4 94c5 f5b5 416f 51b5 e4a8 9335
00000310: ddc4 c8b5 fcc6 35b5 d03c 1a34 53f5 47b5
00000320: 5cf1 5b35 9620 68b5 43a8 ab35 3231 0e36
00000330: b997 1536 7b62 af35 2eb7 e135 9918 9634
00000340: 6721 27b6 11ac 14b6 f9b9 0a36 dd01 2a35
00000350: a16b e7b5 c067 21b6 dc15 1ab6 4527 afb5
00000360: 8c41 90b5 d6c7 0236 b51c 0536 06b7 17b6
00000370: 4ea7 a935 113d 0cb6 0149 7434 d870 cfb5
00000380: ff28 6ab3 1404 abb4 3345 ceb5 8c11 31b6
00000390: f203 c634 1523 e735 1a37 e7b5 c245 1a35
000003a0: 9f56 01b6 46ce b2b4 0e99 1236 62d0 d7b5
000003b0: 0e2a 0836 0234 c535 fb4d 98b5 c0b6 cbb4
000003c0: f729 ac34 0127 d7b5 a64c e535 c5b4 27b6
000003d0: 327f ccb4 5a27 b0b5 21ea f635 cf0e 8035
000003e0: 146b e435 ca09 4735 b5a2 71b5 6067 18b4
000003f0: 1719 f3b5 48bb cf35 d4b2 1d34 03f0 ac35

exp_avg_sq f4 [64, 128]
8.042914e-10 1.6642904e-09 3.037304e-10 4.672619e-10 2.2478206e-09 3.9867748e-10 9.567902e-09 5.658061e-10
8.4776336e-10 1.8894415e-09 5.577953e-10 3.3567076e-09 5.6938014e-09 1.2044025e-09 8.769273e-09 5.8778565e-10
2.184733e-09 1.0737009e-09 5.8430127e-09 1.211129e-09 1.8441568e-09 4.0213144e-09 2.2326232e-09 8.201793e-09
4.8429194e-10 1.1325643e-09 8.9973085e-10 8.478754e-09 1.5995518e-09 1.5912635e-09 2.1909445e-09 6.403289e-10
2.6648177e-09 3.6698455e-10 8.380658e-09 1.8939013e-09 1.6472954e-09 3.22388e-09 2.1605016e-09 7.176422e-10
1.464435e-09 3.0015554e-09 3.4450673e-09 7.59734e-10 2.6007807e-09 5.219527e-10 9.14947e-09 9.2206776e-09
1.8788533e-09 1.151027e-09 1.5740134e-09 2.1048336e-09 4.7662265e-09 1.7187434e-09 3.2952128e-09 2.2150581e-09
4.569334e-09 9.319719e-10 1.7983516e-10 7.3018136e-10 6.2175447e-09 4.491858e-09 1.0161801e-08 4.2339057e-09
8.3752605e-10 2.8703613e-09 3.006298e-10 4.3540538e-10 2.635322e-09 7.459529e-11 2.1292588e-09 1.0058717e-10
1.9490887e-10 2.3385718e-10 4.949606e-10 2.435945e-09 4.8207474e-09 1.8051733e-09 4.0944332e-09 7.80768e-11
3.6952925e-09 1.3755594e-09 2.4445703e-09 1.6324751e-10 1.634327e-09 3.3042868e-09 3.7831436e-09 3.2962046e-09
3.0550462e-10 1.7330805e-09 1.7584214e-09 4.21761e-09 2.3850428e-09 2.857462e-09 3.760545e-10 9.571607e-10
2.6465785e-10 2.9535063e-10 3.4873002e-09 3.3615313e-09 3.564174e-10 3.7501244e-10 1.371476e-09 9.831003e-10
3.2815253e-09 3.276483e-11 4.2863832e-09 1.1471555e-09 4.2129447e-09 9.042997e-10 3.5359575e-09 1.7465251e-09
1.7117037e-10 1.1581295e-09 2.6051439e-09 3.3925804e-09 1.934801e-10 5.1769133e-10 3.0424196e-09 4.9930904e-10
1.2917185e-09 6.748217e-10 4.0479256e-10 3.2399247e-10 3.6561298e-09 1.7135688e-09 2.5030091e-09 2.697389e-09
2.327012e-09 4.031922e-09 4.5435483e-10 1.0325579e-09 5.9637872e-09 6.9991135e-10 1.9934983e-08 8.29261e-10
1.7723856e-09 3.3528123e-09 1.3045145e-09 7.272048e-09 1.3661877e-08 2.2356548e-09 1.9657616e-08 8.3860685e-10
5.634683e-09 2.3458584e-09 1.174672e-08 2.3916253e-09 4.1642743e-09 8.866996e-09 5.719323e-09 1.8355562e-08
7.374473e-10 2.6343419e-09 2.3391302e-09 1.819868e-08 4.7473696e-09 3.9697365e-09 4.53127e-09 1.1632518e-09
4.8256115e-09 9.718437e-10 1.9120572e-08 4.8088626e-09 3.769078e-09 6.1812977e-09 4.442937e-09 2.2344189e-09
3.886326e-09 4.5005244e-09 9.05661e-09 1.8591175e-09 7.4155366e-09 1.205958e-09 2.0128542e-08 1.8885089e-08
3.5296344e-09 2.183643e-09 3.6430667e-09 5.5036056e-09 8.153053e-09 3.2281897e-09 7.95358e-09 4.0386823e-09
8.557453e-09 1.3287478e-09 4.301219e-10 1.7148343e-09 1.4241075e-08 9.111461e-09 2.1332438e-08 1.0226955e-08
2.3971192e-09 6.428112e-09 7.1639766e-10 9.786071e-10 6.709299e-09 2.071594e-10 6.1784644e-09 2.283239e-10
6.398252e-10 7.0778083e-10 1.2094915e-09 5.6679017e-09 1.2047849e-08 4.4987685e-09 1.0836215e-08 2.936445e-10
8.457933e-09 3.0923484e-09 5.9069847e-09 5.91847e-10 3.7898094e-09 7.623923e-09 8.621608e-09 9.017414e-09
6.796302e-10 3.8618864e-09 4.0633212e-09 1.0587541e-08 6.3834475e-09 6.454056e-09 1.2844377e-09 2.2523883e-09
8.049381e-10 8.362795e-10 9.648872e-09 7.674538e-09 1.3359729e-09 1.2797331e-09 3.0892773e-09 2.7805296e-09
8.138997e-09 7.579363e-11 1.06572875e-08 2.5777636e-09 1.0675221e-08 2.0034294e-09 9.553403e-09 5.1931135e-09
6.296388e-10 2.6022702e-09 5.836443e-09 7.918646e-09 7.154759e-10 1.3449637e-09 7.4923205e-09 1.1834101e-09
3.060794e-09 1.7457791e-09 9.440456e-10 9.645943e-10 9.467342e-09 4.2754915e-09 7.1150135e-09 7.272509e-09
00000000: fa14 5d30 03bd e430 41fa a62f a270 0030
00000010: 1478 1a31 de2c db2f 1460 2432 1187 1b30
00000020: 0b08 6930 68d7 0131 5b53 1930 d3ab 6631
00000030: 35a3 c331 2588 a530 aca7 1632 bd91 2130
00000040: 3b22 1631 7e91 9330 afc3 c831 d074 a630
00000050: 8075 fd30 db2b 8a31 b96c 1931 dee7 0c32
00000060: 041f 0530 90a8 9b30 ee50 7730 f4a9 1132
00000070: 3ad7 db30 9bb3 da30 818f 1631 2403 3030
00000080: f81f 3731 7cc0 c92f 86fa 0f32 dd25 0231
00000090: 0e67 e230 198b 5d31 f277 1431 9543 4530
000000a0: 3a45 c930 ec43 4e31 44be 6c31 87d5 5030
000000b0: 6bb9 3231 2879 0f30 cb2f 1d32 f868 1e32
000000c0: 231d 0131 2a32 9e30 ac54 d830 a0a4 1031
000000d0: 2cc4 a331 e838 ec30 ff71 6231 b737 1831
000000e0: 4900 9d31 d916 8030 19bb 452f f2b5 4830
000000f0: 1aa2 d531 cd56 9a31 1394 2e32 d479 9131
00000100: a837 6630 ee3f 4531 e245 a52f dc5d ef2f
00000110: 1319 3531 6a09 a42e 5152 1231 8b31 dd2e
00000120: f84d 562f 7990 802f c10d 0830 9965 2731
00000130: bea3 a531 e419 f830 04af 8c31 55b1 ab2e
00000140: 46f0 7d31 320e bd30 56fd 2731 177e 332f
00000150: c59e e030 a111 6331 e2fc 8131 7283 6231
00000160: f4f3 a72f 5931 ee30 f4ac f130 7dea 9031
00000170: 1ee6 2331 015d 4431 f7bc ce2f 198d 8330
00000180: 487f 912f e85e a22f 3ca5 6f31 af00 6731
00000190: 4af1 c32f 4f2a ce2f 867e bc30 c41d 8730
000001a0: 3481 6131 eb19 102e 6d47 9331 f2a9 9d30
000001b0: 74c1 9031 6f92 7830 39fd 7231 640a f030
000001c0: 2d34 3c2f 0f2c 9f30 2d06 3331 e822 6931
000001d0: cfbb 542f 4a4d 0e30 d012 5131 c03f 0930
000001e0: 4e88 b130 5b7e 3930 7d89 de2f e31d b22f
000001f0: 513f 7b31 d882 eb30 6701 2c31 f85c 3931
00000200: 3ae9 1f31 2989 8a31 c2c8 f92f e7e9 8d30
00000210: 07ea cc31 e263 4030 7e3d ab32 0ef2 6330
00000220: 4698 f330 4c67 6631 864a b330 9cdd f931
00000230: 92b5 6a32 0ea2 1931 8edb a832 b683 6630
00000240: 329b c131 c734 2131 9fce 4932 eb59 2431
00000250: 5815 8f31 7655 1832 b283 c431 4fac 9d32
00000260: 3eb5 4a30 d507 3531 6abe 2031 5253 9c32
00000270: 4e1e a331 2c66 8831 79b1 9b31 49e0 9f30
00000280: 87ce a531 b691 8530 953e a432 343b a531
00000290: 2981 8131 4563 d431 7da8 9831 508c 1931
000002a0: 7c88 8531 08a3 9a31 6497 1b32 e283 ff30
000002b0: c0cb fe31 e0be a530 22e7 ac32 c038 a232
000002c0: fc8d 7231 0e0f 1631 8259 7a31 3a1a bd31
000002d0: 8211 0c32 ead6 5d31 37a4 0832 a0c4 8a31
000002e0: 1404 1332 289f b630 4776 ec2f 5eaf eb30
000002f0: e9a8 7432 a188 1c32 873e b732 a0b2 2f32
00000300: 91ba 2431 45de dc31 01ec 4430 ad7f 8630
00000310: 9e87 e631 30c6 632f 594a d431 770b 7b2f
00000320: b2df 2f30 a68d 4230 333b a630 64bf c231
00000330: 00fb 4e32 9693 9a31 2d2a 3a32 ca6e a12f
00000340: 624e 1132 2b81 5431 63f6 ca31 88af 2230
00000350: 8437 8231 5efa 0232 3c1e 1432 02eb 1a32
00000360: b9d0 3a30 83b1 8431 5a9d 8b31 7fe4 3532
00000370: 6655 db31 7ac2 dd31 2288 b030 6fc8 1a31
00000380: 7c42 5d30 f0df 6530 30c4 2532 fad8 0332
00000390: 5e9d b730 9be2 af30 244b 5431 9813 3f31
000003a0: b0d3 0b32 05ac a62e 3f17 3732 7f24 3131
000003b0: 1e66 3732 b4ac 0931 5020 2432 1c6f b231
000003c0: e412 2d30 9fd3 3231 e589 c831 930a 0832
000003d0: 24ab 4430 b4d9 b830 93b7 0032 8ba5 a230
000003e0: 0f56 5231 24f0 ef30 a7bf 8130 a592 8430
000003f0: cfa5 2232 9fe7 9231 5278 f431 aae1 f931

exp_avg f4 [64]
2.7314989e-06 3.766542e-06 -2.2220947e-06 -3.1694497e-06 -2.5958432e-06 -1.3422324e-06 -3.1854295e-06 -1.9171187e-06
1.9443346e-06 2.9573914e-06 -2.0687135e-06 -3.0015728e-06 -2.0168093e-06 -5.6221165e-07 -4.0190425e-06 3.6527183e-06
-1.6028242e-06 -4.9350997e-06 5.724104e-07 -3.5222688e-06 -4.310438e-06 4.1994144e-06 -2.4962349e-06 -2.8927473e-06
-2.255195e-06 -3.173954e-06 -3.0958006e-06 -2.2092804e-06 -2.4898902e-06 5.1003262e-06 4.196119e-06 -1.8045145e-06
-5.8406144e-06 1.7700065e-06 -1.8506362e-06 1.4190422e-06 -2.2337274e-06 8.2011616e-07 -2.636276e-06 2.3705536e-06
4.0229106e-06 -1.6984587e-06 2.4057847e-06 -3.412856e-06 -1.0032707e-06 9.2920243e-07 -4.842575e-06 -3.7136647e-06
1.8897189e-06 -1.9514418e-06 -1.0081083e-06 3.710328e-06 -2.2191432e-07 4.2367965e-06 -1.0895017e-07 5.2165874e-06
-3.829995e-06 -2.756128e-06 -4.401491e-06 -1.6954428e-06 8.0265335e-07 -1.2518032e-06 -2.0104756e-06 -2.2615725e-06
00000000: cb4e 3736 b3c4 7c36 4c1f 15b6 bbb2 54b6
00000010: 3f34 2eb6 c126 b4b5 43c5 55b6 d9a7 00b6
00000020: 6a7b 0236 9977 4636 3ad4 0ab6 a16e 49b6
00000030: 8558 07b6 e4ea 16b5 50db 86b6 3921 7536
00000040: 9f20 d7b5 2f98 a5b6 bea7 1935 1e60 6cb6
00000050: 61a2 90b6 b2e8 8c36 fd84 27b6 0521 42b6
00000060: f557 17b6 1d00 55b6 73c1 4fb6 2643 14b6
00000070: fd17 27b6 7823 ab36 63cc 8c36 a532 f2b5
00000080: 7ffa c3b6 f690 ed35 6063 f8b5 eb75 be35
00000090: 25e7 15b6 f425 5c35 e0ea 30b6 cd15 1f36
000000a0: 8afc 8636 99f6 e3b5 1173 2136 6b08 65b6
000000b0: 1ea8 86b5 4e6e 7935 677d a2b6 4638 79b6
000000c0: 3fa2 fd35 84f5 02b6 564e 87b5 f3fe 7836
000000d0: 5847 6eb4 ce29 8e36 fdf7 e9b3 250a af36
000000e0: 6883 80b6 ebf5 38b6 85b0 93b6 f98e e3b5
000000f0: eb75 5735 a103 a8b5 b5eb 06b6 85c5 17b6

exp_avg_sq f4 [64]
1.4133166e-08 3.5191732e-08 7.44881e-09 9.262988e-09 3.0085643e-09 2.6260151e-08 3.5797687e-08 1.05569775e-08
1.1953751e-09 2.599713e-08 7.702941e-09 6.151574e-09 6.1383822e-09 1.1949183e-09 4.268029e-09 3.8183487e-09
8.433299e-09 3.0767676e-08 2.3535504e-08 1.9225311e-08 6.4226486e-09 1.3453045e-08 1.6846062e-09 3.9554218e-09
5.5964566e-09 1.12707506e-08 2.588843e-09 5.8757883e-09 2.4814384e-09 2.0365505e-08 1.7474724e-08 1.2162578e-08
3.7940275e-08 1.6190986e-09 7.5874296e-10 9.793243e-10 1.6007801e-08 1.0842519e-08 1.363813e-08 2.2095417e-08
6.0739835e-09 6.4891506e-09 1.9836717e-08 3.069103e-08 2.1493036e-09 1.109629e-08 5.5140625e-09 5.6216543e-09
2.770712e-08 8.107624e-09 1.3293627e-08 1.8205524e-08 1.233104e-08 4.984938e-09 1.4195905e-08 4.039324e-08
8.061766e-09 1.788181e-09 6.12896e-09 8.094054e-10 1.120623e-09 1.38797605e-08 3.04048e-08 4.3396486e-09
00000000: 52ce 7232 b825 1733 6df0 ff31 0d23 1f32
00000010: 39bf 4e31 af92 e132 f9bf 1933 145e 3532
00000020: 864a a430 4b50 df32 e555 0432 d15d d331
00000030: c8e9 d231 733a a430 fba5 9231 8d32 8331
00000040: 0be2 1032 6b25 0433 1f2b ca32 e824 a532
00000050: 37ae dc31 1e1f 6732 d087 e730 42e8 8731
00000060: f44a c031 49a1 4132 68e7 3131 fbe3 c931
00000070: ed85 2a31 38f0 ae32 531b 9632 95f3 5032
00000080: c6f3 2233 f886 de30 ca8f 5030 e998 8630
00000090: 8781 8932 e745 3a32 214d 6a32 56cc bd32
000000a0: 53b3 d031 2cf7 de31 6765 aa32 25d1 0333
000000b0: f3b2 1331 00a2 3e32 3576 bd31 9828 c131
000000c0: 9a00 ee32 b549 0b32 fd61 6432 5f62 9c32
000000d0: 7dd8 5332 fa47 ab31 40e2 7332 d67c 2d33
000000e0: 0680 0a32 07c4 f530 e796 d231 d77c 5e30
000000f0: 6b04 9a30 d573 6e32 6e96 0233 f41b 9531

exp_avg f4 [2, 64]
-4.5865872e-07 -7.445403e-07 1.5890333e-06 1.383297e-07 -5.503852e-06 1.5641449e-06 3.4331401e-06 1.7827949e-06
2.2411893e-06 3.372383e-06 2.979591e-07 3.710257e-06 5.239285e-06 -3.9632084e-07 3.342061e-06 2.3580144e-06
-8.6106303e-07 -5.4801416e-07 6.6529237e-06 -2.533452e-06 -6.0974444e-06 -4.200944e-06 -1.8140228e-06 -2.8836375e-06
-3.0692826e-07 -1.3756e-06 -4.0992873e-06 -7.630736e-06 1.9008096e-06 2.3384262e-06 3.0416886e-06 -1.991816e-06
-2.867684e-06 1.6745361e-06 -6.4319847e-06 7.077044e-07 -1.6140701e-06 8.022867e-07 -4.4123817e-06 3.0568901e-06
1.2385055e-06 -7.938599e-06 5.4937445e-06 -1.6961994e-06 1.7463644e-06 -6.5097777e-07 -5.208057e-06 3.5196765e-06
3.1784907e-07 -2.0890002e-06 -2.702497e-06 2.2937804e-06 1.7502285e-06 2.8301577e-06 -7.460361e-07 5.639399e-06
4.639229e-06 -4.9633004e-06 -8.840887e-07 1.993869e-06 -6.6297675e-06 6.6331168e-06 3.5172498e-06 7.1230295e-07
-1.5488117e-06 3.657799e-05 1.40200045e-05 -1.0037438e-05 1.6016698e-05 7.266831e-06 -8.274939e-06 -4.839356e-06
1.4431828e-06 1.2323863e-05 -1.7265553e-05 -3.1881656e-05 -4.233599e-05 -1.81569e-05 -2.4209889e-05 -1.5491636e-05
2.8829914e-05 2.0532581e-05 -2.604495e-05 -1.8123686e-05 2.2301138e-05 2.4272276e-05 2.9652641e-05 1.5339986e-06
1.0727498e-05 -2.5827749e-05 -1.0376512e-05 1.5957428e-05 -2.2309812e-05 2.0492826e-05 -1.2947083e-05 2.447386e-05
-5.8547466e-06 6.525302e-06 3.6888567e-05 2.3712972e-05 -8.710609e-06 -2.5970565e-05 2.3208004e-05 -4.2041256e-06
1.8893226e-05 2.7966682e-05 -2.8157749e-05 2.6583699e-05 2.2632914e-06 -8.59038e-06 1.6423415e-05 -1.0920356e-06
-2.1301661e-05 2.4767376e-05 3.706968e-07 2.6647893e-05 1.8595842e-05 2.7061584e-05 2.9376251e-06 -8.86837e-06
-1.673024e-05 1.0680168e-06 -1.9323006e-06 -2.295135e-05 4.623373e-05 -3.575945e-05 3.239225e-06 -9.926431e-06
00000000: 933d f6b4 6bdc 47b5 c546 d535 c787 1434
00000010: bbad b8b6 9cef d135 e664 6636 5e48 ef35
00000020: 5767 1636 1951 6236 30f7 9f34 bbfd 7836
00000030: 1ecd af36 ecc5 d4b4 2c48 6036 613e 1e36
00000040: cd23 67b5 3f1b 13b5 2e3c df36 6004 2ab6
00000050: a698 ccb6 d6f5 8cb6 5979 f3b5 8484 41b6
00000060: e6c7 a4b4 42a1 b8b5 9c8c 89b6 c305 00b7
00000070: 521f ff35 dbed 1c36 d01f 4c36 23ab 05b6
00000080: 7072 40b6 9fc0 e035 54d2 d7b6 13f9 3d35
00000090: 07a3 d8b5 b95c 5735 120e 94b6 f924 4d36
000000a0: ba3a a635 0630 05b7 e856 b836 f8a8 e3b5
000000b0: a064 ea35 dabe 2eb5 dec0 aeb6 9533 6c36
000000c0: d8a4 aa34 c030 0cb6 8c5c 35b6 d9ee 1936
000000d0: 65e9 ea35 bded 3d36 3643 48b5 123a bd36
000000e0: acaa 9b36 6d8a a6b6 1d52 6db5 69ce 0536
000000f0: 4575 deb6 0a92 de36 e409 6c36 1635 3f35
00000100: c4e0 cfb5 516b 1938 7637 6b37 7866 28b7
00000110: 995b 8637 9ad5 f336 98d4 0ab7 c061 a2b6
00000120: 62b3 c135 97c2 4e37 7ed5 90b7 abb8 05b8
00000130: ec91 31b8 a54f 98b7 5716 cbb7 09f4 81b7
00000140: c5d7 f137 623d ac37 1b7b dab7 5208 98b7
00000150: 5413 bb37 519c cb37 90be f837 cae3 cd35
00000160: 41fa 3337 aba8 d8b7 c816 2eb7 51dc 8537
00000170: f525 bbb7 02e8 ab37 4c37 59b7 374d cd37
00000180: e473 c4b6 ebf3 da36 ccb8 1a38 38eb c637
00000190: c823 12b7 5ddb d9b7 cfae c237 2a11 8db6
000001a0: e57c 9e37 fe99 ea37 4e34 ecb7 0f00 df37
000001b0: 0de3 1736 671f 10b7 04c5 8937 0f92 92b5
000001c0: f8b0 b2b7 89c3 cf37 2e04 c734 ea89 df37
000001d0: 44fe 9b37 4f02 e337 0424 4536 5cc9 14b7
000001e0: eb57 8cb7 c758 8f35 acac 01b6 a687 c0b7
000001f0: 17eb 4138 6bfc 15b8 7661 5936 b289 26b7

exp_avg_sq f4 [2, 64]
4.174806e-08 7.73155e-07 1.0525603e-07 2.6791435e-08 5.0175015e-07 5.0678107e-08 5.6935e-07 7.059985e-08
5.517052e-08 1.6515397e-08 1.4454626e-07 6.7269747e-07 1.417972e-06 7.4068197e-07 6.766668e-07 4.4845144e-08
2.2534813e-07 9.280597e-08 2.2661912e-07 5.664509e-08 4.0462527e-07 2.2354136e-07 4.1125855e-07 3.2080882e-07
1.4754414e-08 1.5299167e-07 1.7003352e-08 4.5884892e-07 5.9069936e-07 5.7765117e-08 7.086282e-09 3.0476193e-07
8.907611e-09 3.9274184e-09 1.8266269e-06 1.18531e-07 5.5918008e-08 1.0279327e-07 2.0024088e-07 7.335462e-08
2.5362064e-07 5.7144473e-07 8.407603e-07 3.047573e-07 2.5896501e-08 6.500355e-08 1.2877808e-06 4.959418e-07
5.389345e-08 1.6349297e-07 2.2597964e-08 4.2893376e-07 1.0646303e-08 5.164104e-08 2.2393579e-08 5.877139e-08
2.907047e-07 6.911344e-08 2.1405524e-09 1.708767e-08 1.1897297e-06 8.535808e-07 2.9611496e-07 3.5436605e-07
1.12912275e-08 2.8997653e-07 2.6021738e-07 3.3928876e-07 1.7000245e-07 1.3578233e-07 1.2947748e-06 2.9895202e-07
3.995821e-08 7.569085e-07 9.385591e-08 2.7825394e-07 1.0780147e-06 1.9650099e-07 7.7070774e-07 3.6542124e-07
1.6700777e-07 1.504184e-07 2.883548e-07 4.580841e-07 2.5174964e-07 1.2953842e-07 1.8316247e-07 4.2095803e-07
1.8405309e-07 3.3943985e-07 2.0255905e-07 5.2286487e-07 2.1022416e-07 3.2856667e-07 3.7039584e-08 1.696124e-07
1.3990733e-07 3.862792e-08 1.672936e-06 2.05576e-07 6.16365e-08 1.2911057e-07 1.2013896e-07 4.5473886e-08
5.234859e-07 9.136648e-07 7.44976e-07 1.2961553e-07 6.152413e-08 4.6850808e-08 1.1715371e-06 4.8171177e-07
2.3431457e-07 2.0555233e-07 1.7711176e-07 2.940727e-07 8.0985603e-07 4.2850792e-07 1.7822387e-08 2.312996e-07
5.0806614e-07 7.9204665e-07 1.270769e-08 8.026677e-08 7.8529473e-07 1.0058227e-06 1.1554383e-06 4.1371186e-07
00000000: 7a4e 3333 cf8a 4f35 1d09 e233 fd22 e632
00000010: 02b0 0635 2ba9 5933 6fd5 1835 ae9c 9733
00000020: a1f4 6c33 bedd 8d32 9334 1b34 6b93 3435
00000030: 2651 be35 47d3 4635 30a4 3535 c29b 4033
00000040: 39f7 7134 9f4c c733 9754 7334 ef49 7333
00000050: 463b d934 9506 7034 f2ca dc34 a13b ac34
00000060: 997a 7d32 0846 2434 c40e 9232 b757 f634
00000070: 8d90 1e35 6b19 7833 987b f331 299e a334
00000080: 1608 1932 f0f1 8631 6c2a f535 1b8b fe33
00000090: 802a 7033 33bf dc33 cb01 5734 2187 9d33
000000a0: 5b29 8834 6265 1935 9cb0 6135 869d a334
000000b0: 0273 de32 1498 8b33 d0d7 ac35 dc20 0535
000000c0: 7a78 6733 9b8c 2f34 731d c232 3548 e634
000000d0: f0e6 3632 edcb 5d33 005c c032 d46b 7c33
000000e0: 2612 9c34 846b 9433 ff18 1331 2fc8 9232
000000f0: cdae 9f35 a021 6535 bbf9 9e34 b33f be34
00000100: 58fb 4132 12ae 9b34 01b4 8b34 7e27 b634
00000110: eb89 3634 90cb 1134 20c8 ad35 a77f a034
00000120: 849e 2b33 5b2e 4b35 d58d c933 ee62 9534
00000130: 4eb0 9035 c8fd 5234 a2e2 4e35 1d2f c434
00000140: bf52 3334 b282 2134 2fcf 9a34 99ee f534
00000150: 3528 8734 4017 0b34 51ab 4434 0800 e234
00000160: 21a0 4534 423c b634 027f 5934 005b 0c35
00000170: fab9 6134 dc65 b034 7415 1f33 b41e 3634
00000180: 6f39 1634 d9e7 2533 a589 e035 4dbc 5c34
00000190: 065d 8433 a5a1 0a34 8cff 0034 114f 4333
000001a0: ad85 0c35 9142 7535 5cfa 4735 722c 0b34
000001b0: 401f 8433 0239 4933 b53d 9d35 fb4e 0135
000001c0: e697 7b34 cbb5 5c34 1c2c 3e34 0be1 9d34
000001d0: e264 5935 ae0d e634 d817 9932 265b 7834
000001e0: 0a62 0835 089d 5435 0351 5a32 205f ac33
000001f0: 0bcd 5235 ceff 8635 8f14 9b35 201c de34

exp_avg f4 [2]
3.6962094e-06 -3.9179275e-05
00000000: 650c 7836 6d54 24b8

exp_avg_sq f4 [2]
1.6967907e-06 6.5295313e-07
00000000: 49bd e335 9946 2f35

exp_avg f4 [2, 1]
1.848841e-06 1.0976019e-05
00000000: b125 f835 a525 3837

exp_avg_sq f4 [2, 1]
3.1544396e-08 6.2805634e-07
00000000: 6e7b 0733 b497 2835
