results/pretrain/checkpoints/A02_H064_L02_D01_Tanh_W4096_P010000_Adam_PT_True_device_cuda_dtype_float64_chkp.pt (torch, 317643 bytes, 30 tensors)

layers.0.fc.weight f8 [64, 2]
000000 f8 17 53 d0 3d 8b e5 3f 8b 76 ae 91 8b 5d d1 3f
       0.6732472485389271 0.27133454539021135
000010 cc 96 5f 6d 4c e1 a4 bf 38 3b df c0 6c 20 e2 3f
       -0.04078139147877166 0.5664581076651762
000020 c9 8c 87 52 a9 2c c8 3f 7b 7d 0a c0 e2 da da 3f
       0.18886295823822355 0.41960972551347425
000030 59 29 b9 e3 3d d8 dd bf 2d 32 43 6c 19 cf ca bf
       -0.4663233493671633 -0.2094451693177616
000040 71 43 94 d1 7f 24 c1 3f cc 2c 98 39 c4 b9 d2 bf
       0.13392636998517163 -0.29258828758675004
000050 cd 49 19 65 e2 58 b8 bf d2 d9 15 53 24 7f d9 bf
       -0.09510626762611381 -0.3983851252918643
000060 dd a0 c9 52 17 32 ca bf c5 12 ab 63 f7 44 c2 3f
       -0.2046536592708951 0.14272968641866704
000070 e3 51 2b 75 9d 95 a8 bf 4c 30 9a 00 ff 67 b6 bf
       -0.04801647239006337 -0.087524354598089
000080 3c 88 bc ba ef 57 c3 bf 7a e5 68 c5 a0 6f d9 bf
       -0.1511211072730151 -0.3974382331685643
000090 8a ee 83 e0 1f d4 cb 3f 77 77 f4 6e 32 a0 d9 3f
       0.21741102659858696 0.4004026492638028
0000a0 c5 86 7e ff 37 bc d9 bf 99 f3 4c 1a eb 89 cc 3f
       -0.40211296034440763 0.22295893463333696
0000b0 3d b1 c1 15 fe f0 e1 bf a6 59 bf 5f 7b a6 80 bf
       -0.560668032163029 -0.008130039081078188
0000c0 be cd 4e 14 d6 51 da bf d4 de b0 f2 c1 a9 ad 3f
       -0.41124488814531535 0.05793577277694131
0000d0 29 e9 0a 71 62 e3 ba 3f b2 f2 bc 8f 94 c7 cd 3f
       0.10503211269216152 0.23265320795498706
0000e0 47 17 f9 f6 1e 4e d7 3f 28 66 7a c5 35 39 d7 bf
       0.3641431247564139 -0.3628668240067747
0000f0 b7 bb 05 32 6b 1d dc 3f bc 2d 42 e1 ea 73 c4 3f
       0.4392955769062001 0.1597875213522978
000100 bd 88 95 d5 20 14 dd bf a1 ef 0a 73 f3 88 dc bf
       -0.45435353143524165 -0.4458588241066029
000110 88 0e a8 24 d8 64 b1 bf 38 e3 11 2d f0 ac e5 3f
       -0.06794501204427139 0.6773606186171497
000120 f1 a1 e1 7e 90 0c b7 3f 1f 59 eb 20 a0 38 9f bf
       0.0900354680794704 -0.030489446648823134
000130 98 9b b1 00 f0 d7 db 3f 4c eb 46 b0 c9 82 c8 bf
       0.43505477969886774 -0.19149132830883742
000140 46 4c 70 7e a7 bd d3 bf f5 b0 d5 9a 69 46 e4 bf
       -0.3084505781891419 -0.6335952781787727
000150 96 06 d7 e2 bb fb d5 3f 7c 25 61 db f4 d9 c7 bf
       0.3434896197542029 -0.18633900367630563
000160 3a b6 5a f2 56 9c a3 3f 68 18 bc 67 c4 6d a8 bf
       0.038302151760359185 -0.04771245733540824
000170 a6 8f 36 dc 68 1c e0 3f 6e b1 e4 c6 27 b7 e4 bf
       0.5034679699933704 -0.6473578343043707
000180 11 9a 6f 93 34 1f e6 3f dd 35 ce bc df c2 e1 3f
       0.6913092498405736 0.5550383269889455
000190 35 5b b7 17 1f 6d d8 3f 91 61 7d ab 09 4c d4 bf
       0.3816602450946676 -0.317140977354506
0001a0 66 61 c9 0e 02 b0 dc bf 2a 6a 0d a0 df 62 e6 3f
       -0.4482426781082921 0.699569523432108
0001b0 f5 c3 50 ac 31 54 db 3f 81 3f 8f 7e 2a f4 c4 bf
       0.42701379611668183 -0.16370135478655004
0001c0 b0 3f 01 47 1f 21 bf 3f 38 cc 7b 36 04 87 d1 3f
       0.121599154315162 0.27386575050985895
0001d0 37 42 f1 c8 99 79 e6 bf 7f f4 65 da 3c 9c b1 3f
       -0.7023438381821226 0.06879024822224443
0001e0 d1 8a c6 31 14 a5 b4 3f b0 76 87 65 ad ad e4 bf
       0.08064390387748267 -0.6462008460036568
0001f0 a0 b7 0a 35 5e 83 de bf 3e 0e 7f e2 92 c4 e6 3f
       -0.47676806621427126 0.7114958213573528
000200 ea 58 9d 4f 59 9c c0 3f de dd b2 99 ea 6c df bf
       0.12977138888772483 -0.49102272996557683
000210 7f 8d 7f 05 98 40 c6 bf 51 98 73 78 26 68 db 3f
       -0.1738462473723352 0.4282318283352469
000220 7c 8a b8 42 f4 b1 e1 bf f6 e2 98 f4 76 18 d9 3f
       -0.5529729178563936 0.3921182049412403
000230 13 5c ad f4 49 2b d9 3f 6e 9b fa b7 27 f3 d9 3f
       0.3932671441484114 0.4054660126370696
000240 ef 52 31 35 93 0c be bf 63 d9 0d d5 b1 7f d3 3f
       -0.11737937973641598 0.30466886335434235
000250 40 4c 7f 34 c7 f7 e4 bf 57 cc 24 7c 99 0c d6 bf
       -0.655246355565744 -0.3445190155354729
000260 e3 05 7a dc 22 68 db bf a5 80 d7 4e c8 3c dc bf
       -0.42823096781657294 -0.4412098665179747
000270 13 7b 8a b7 db 7c 50 3f cf dc 53 23 9c 8e df bf
       0.0010063310311704862 -0.4930792183872201
000280 5d e6 33 56 8c 2b d8 bf 69 c1 f9 07 d9 fc c0 bf
       -0.3776579706023762 -0.13271630181726415
000290 3c 39 6a 75 c1 8e c5 bf f7 af 81 52 09 63 dd bf
       -0.16841905816222347 -0.4591697030762129
0002a0 15 98 91 88 c5 b2 c4 bf 44 a6 bb 67 b3 87 8f 3f
       -0.16170567673106065 0.01539554748838435
0002b0 f2 42 e9 0f a4 56 c7 3f 14 d8 72 d9 01 3a c1 bf
       0.18233156945145584 -0.13458273999793902
0002c0 a9 83 42 5f 0e 60 b3 3f e4 60 ed 9b 6b 93 da bf
       0.0756844503944324 -0.4152478239752908
0002d0 a8 85 9b 81 31 d9 be bf 17 81 ce 18 27 56 df 3f
       -0.12050160803075605 0.48963334486508486
0002e0 65 28 f2 18 33 63 e2 3f e3 04 49 58 95 25 e5 bf
       0.5746093260979818 -0.6608378147431292
0002f0 07 a4 ac 80 e8 94 d1 3f 01 62 22 8c b7 65 dd bf
       0.27471363607270444 -0.45933331189147003
000300 5e e1 b7 fd 6c 01 de bf 75 21 34 d4 c8 de d8 bf
       -0.46883702065635713 -0.3885976860333565
000310 00 f8 d5 a1 c2 d4 d0 3f ab de 23 ce 77 24 c7 3f
       0.262985857050694 0.1808004147094285
000320 23 fe 35 44 60 67 dd bf c3 9a 8c 50 46 d7 e5 3f
       -0.4594345728037032 0.6825286458232188
000330 af 37 a2 1a c5 9c ce 3f 78 27 ce a7 af 69 b2 3f
       0.2391592388198069 0.07192514273461181
000340 a5 83 8c 21 7b f3 b8 bf 91 2d 4d 88 6f 95 e6 3f
       -0.09746522492470307 0.7057416593683447
000350 66 4b ee a3 7e 95 a0 bf 09 80 79 c6 fd ee e4 3f
       -0.03239055396183836 0.6541737438637948
000360 a8 51 e0 71 24 44 e1 3f 45 85 ac 04 0d f2 d4 bf
       0.5395681594987325 -0.32727361160694485
000370 50 de 80 0f 98 b6 d4 3f ff 86 f6 56 0a 21 94 bf
       0.3236446525001826 -0.019657289083290227
000380 e8 fa 07 28 93 34 9f 3f 60 da b2 55 f4 82 de bf
       0.030473994558628897 -0.47674282425888315
000390 2f 71 a1 44 c4 e2 cb 3f 16 e8 9c 20 23 7e e4 bf
       0.217857869635631 -0.6403976094218276
0003a0 88 39 dd a5 78 5d 93 bf 42 8e 6f fc e5 b2 b6 bf
       -0.018911252139611118 -0.08866727269156008
0003b0 4d 7d 14 7e 54 b9 d9 3f 1a bc e6 1d 2d 34 d4 bf
       0.40193664848807914 -0.31568458480882244
0003c0 5f 8f e0 50 74 b7 d1 bf 8b 81 8c 91 6b c7 d1 3f
       -0.27682216547167643 0.27779664243464514
0003d0 98 66 50 a6 20 f5 e3 bf 25 27 e4 7b aa 16 e0 3f
       -0.6236727951356498 0.5027668399572788
0003e0 e0 7f 4a cd f4 78 e3 bf 73 91 6a ab 3f 6c e1 3f
       -0.6085151681509124 0.5444639537786727
0003f0 83 4d 97 06 fb bb d2 bf e0 de f1 68 3f 2d c4 3f
       -0.29272342342047625 0.15763085006960065

layers.0.fc.bias f8 [64]
000000 b7 e7 09 00 b3 8c e5 bf d0 97 59 23 66 10 e5 bf
       -0.6734251976733877 -0.6582518282345919
000010 21 59 f8 de 4e b0 d2 3f 91 14 2a fc 8a 02 e1 bf
       0.29201099180626683 -0.5315604138455844
000020 4f 55 f4 02 3d 00 b1 bf 81 b6 e0 3c bd ac e1 3f
       -0.06640988657121237 0.5523363293666109
000030 0a b7 df 12 51 26 d4 bf 0d 8c 18 a4 54 ea e1 bf
       -0.314838665420084 -0.559854813098697
000040 5a 49 4c da 6b 59 d9 bf 6a 86 c3 3b 69 a1 d8 3f
       -0.3960828430000639 0.3848517497664036
000050 ba 80 be 71 5e 65 5b 3f 07 b2 d9 69 42 b4 a0 3f
       0.001672117453360085 0.032625270291507795
000060 a9 7b ed 46 39 d4 e0 bf b2 22 cd 72 d5 12 d9 3f
       -0.5259062180810946 0.39177452288690084
000070 ca 13 65 39 f4 8f ca 3f db 43 4c ac 14 ae cd 3f
       0.2075181274650773 0.23187502301200777
000080 f6 b9 ea c1 a6 70 e2 bf 99 2c 35 8a 04 fd a0 3f
       -0.5762513911666349 0.033180372115191044
000090 64 f8 1c f4 fd 0e d6 bf bc 86 71 d8 36 a1 e1 bf
       -0.34466503943611415 -0.5509294726764078
0000a0 81 2c 9a 37 7d 7d d8 3f 33 30 d6 37 cc 97 cb 3f
       0.3826592486372605 0.21556999899292037
0000b0 ba 1d 53 97 40 e2 e3 bf 67 29 4c 74 54 92 e3 3f
       -0.6213686900672919 0.6116125365672759
0000c0 dc ff 81 40 91 c2 da 3f ef 7d b7 bf 6f c7 ce 3f
       0.41812545108404975 0.24046131955309089
0000d0 92 b4 d7 68 bf d4 bd 3f 94 e7 e2 43 ee 91 d3 3f
       0.11652752217897192 0.3057819045021628
0000e0 c4 56 5e 46 48 01 c5 bf fc c4 52 f3 c1 14 a7 bf
       -0.16410163341486428 -0.045080243065408226
0000f0 f9 b3 66 5a cd 53 e3 3f 3f 9c f4 96 df 55 cc 3f
       0.6039797559402579 0.22137064810633153
000100 51 78 0f dd ce 64 ce bf 74 c0 42 61 6b a9 df 3f
       -0.2374514178654317 0.49471554277534513
000110 e1 87 77 03 9b 4a d9 3f 59 0e 02 1d 8a 75 cb bf
       0.3951785596710789 -0.21452452103050026
000120 d6 2f 16 d3 69 11 e1 3f 8e bb db 9c 18 ca d2 3f
       0.5333756563936685 0.29358496969410275
000130 d5 46 5f 99 98 9b e6 3f 64 f5 1f 3d a0 ae d7 bf
       0.7064936633634838 -0.37003332108709786
000140 a5 78 70 8c 2c ae e5 bf e7 c2 b6 c6 6e 86 33 bf
       -0.677511476798618 -0.0002979298066874539
000150 a5 b0 07 50 b9 6d e2 bf 62 af 31 05 ba 35 d4 bf
       -0.5758940280043318 -0.31577921397432906
000160 94 74 9a 14 07 33 c1 3f 8d 11 45 b0 d7 c3 e3 3f
       0.1343697405435803 0.6176565592545998
000170 75 f1 7e 8c 26 0c 6a bf 78 78 69 e6 41 e7 c3 3f
       -0.0031796219736561168 0.15549491644464175
000180 98 ff d7 55 c3 37 d3 bf ce ac f7 d9 cf 87 d1 3f
       -0.3002785051648913 0.2739143017376592
000190 82 aa c6 91 35 d8 ca 3f 66 56 06 89 92 49 db bf
       0.20972318284960428 -0.4263655031330472
0001a0 12 60 c9 f8 46 0c cf bf bb cf 80 af 61 ab da 3f
       -0.2425621714380673 0.4167103017709867
0001b0 92 a9 f7 be a8 06 de bf 52 68 8f 9d cd ef d9 bf
       -0.46915644311106874 -0.4052614248918235
0001c0 ce 56 ec fe f3 1c d5 bf 9f 63 cf 10 47 6d c1 bf
       -0.3298921575054522 -0.13614738770300236
0001d0 ee f1 50 f1 f7 42 e5 3f 69 6c 60 64 94 d3 e0 bf
       0.6644248688895098 -0.5258275948030021
0001e0 ea 9d 98 c2 90 65 d3 bf e3 d3 9c f9 21 e4 e0 3f
       -0.303074064288437 0.5278482318159344
0001f0 69 fa 6c 01 34 1f b5 3f f1 10 ca 92 55 c8 d6 3f
       0.08250737223441153 0.355977433537432

layers.1.fc.weight f8 [64, 128]
000000 d7 cd e9 aa 60 6f 86 bf d5 18 ec 23 55 59 b3 bf
       -0.010954623428211114 -0.0755818569851699
000010 ed b3 7a c0 ad 91 93 3f 21 57 89 d7 78 c0 8a bf
       0.01911040770817245 -0.013062423780108969
000020 5e 9b 96 9a 10 5b b2 3f be 09 76 1e 0f bd b1 3f
       0.07170203947189921 0.06929106229475843
000030 7c 62 49 1a 8c 66 ab 3f 00 8f 56 ac 80 ca a3 3f
       0.053516748627491645 0.03865434745537577
000040 63 fc d9 83 64 de 89 3f 41 7f 76 82 01 66 b1 bf
       0.012631211541927983 -0.06796273646477592
000050 7b 7a 34 e6 da 35 8d bf 0e 28 ff 99 02 7a 8c 3f
       -0.014262876653956305 0.01390459091625831
000060 41 85 a5 4e 8e f4 4d 3f a5 97 2d 40 c0 eb a2 3f
       0.0009141630992354559 0.03695488723205579
000070 4f 03 28 a9 d9 2e 59 3f f5 41 b4 8f 24 38 a5 bf
       0.0015370488732743997 -0.041443960706718665
000080 ac b4 65 19 d7 0a b2 3f a5 59 b8 2d ac 2f a0 bf
       0.07047790880251864 -0.03161371286494167
000090 c7 a5 f7 6e 08 85 a3 bf 0a 27 59 6f 09 6d a1 bf
       -0.03812433580953783 -0.034035010187450324
0000a0 79 0e 70 66 f3 27 b1 3f 13 4d 63 78 6d 96 92 bf
       0.0670158505527584 -0.01815196082391164
0000b0 f2 6b 52 48 cb 1b 9d bf b7 51 68 db 81 fe a7 bf
       -0.028426338471586328 -0.04686361125291987
0000c0 27 2e 56 c9 be 70 7f bf 6a af 0e 48 52 9a 84 bf
       -0.007675881633427951 -0.01005996973420738
0000d0 37 be 74 b9 1a cb a3 3f ee 3a 69 18 42 08 ba 3f
       0.03865893854014895 0.10168850990269693
0000e0 d8 77 ab 08 9f f6 a9 bf ef 76 fa 55 56 84 b5 bf
       -0.0507096956332444 -0.0840505561741016
0000f0 78 ec e4 39 b7 e4 a8 bf 91 a9 52 c8 07 ac a5 bf
       -0.04861996251789774 -0.04232811279628657
000100 c7 63 24 a1 a2 f7 a3 bf 04 89 b9 e8 a4 ac a6 bf
       -0.038998682184860516 -0.044285920532972894
000110 34 c2 86 1c 3e 33 b0 3f 8a 5e 5b 13 87 a2 6e 3f
       0.06328190037198383 0.0037396085925641186
000120 5a 48 fc 39 81 5d af bf 94 5f 45 f0 8d 7b 95 3f
       -0.06126025994139246 0.0209791353130125
000130 76 32 72 ea 04 17 b7 bf bb 93 fe 69 98 92 b2 3f
       -0.09019499515324889 0.07254936778788494
000140 41 0d b1 79 c4 03 a5 bf 66 b8 d8 03 a0 a3 18 3f
       -0.041044368605549504 9.399093774995065e-05
000150 c8 af 0f ee 45 a2 b2 3f 63 a0 6d 4c f6 46 b0 3f
       0.07278859197657461 0.0635827957718234
000160 3f 28 5b fb 6b eb 99 bf 58 2d ab 07 03 41 9b bf
       -0.025312125412519256 -0.026615187972124005
000170 f6 01 b3 ca 82 50 a2 3f 7b fb fe 5a 59 31 b0 3f
       0.03577049946170867 0.06325300666411053
000180 02 97 83 ef b2 71 b1 bf 53 a4 0b 48 76 fe a5 3f
       -0.06814115855703665 0.04295701627217654
000190 7a 5c 36 28 84 46 82 bf 3c 02 c8 7f 69 67 89 3f
       -0.008923561551269044 0.012404274189067192
0001a0 26 fd 12 55 75 31 b2 bf ee fe 3f c7 1d 20 b3 bf
       -0.0710671742153762 -0.07470880617620043
0001b0 66 b0 28 da 01 e7 ba 3f 1c 0b 68 0f 92 43 74 bf
       0.10508739067216907 -0.004947252795775705
0001c0 7b 18 62 96 29 bf a2 3f 13 dd 6a 97 63 7d 9f 3f
       0.036614703757593646 0.030751758686816077
0001d0 9e e6 39 f2 49 06 a6 bf d4 6d 94 5e e1 bd b1 bf
       -0.04301673013555994 -0.06930359419896287
0001e0 ac 09 dc 05 77 87 a0 bf 59 38 b6 ab 1c 29 ae bf
       -0.03228351542022109 -0.05890740963069225
0001f0 94 2a 42 1a 8d e6 a0 3f d0 86 c9 25 42 0e a5 3f
       0.03300896592653149 0.04112440787572569
000200 0f 53 24 ed 87 49 b3 3f d1 32 67 e3 ff f7 b5 bf
       0.07534074344250662 -0.08581542302926982
000210 0d 46 cb 38 9f f0 b6 bf d7 e0 d9 fd 82 c2 99 bf
       -0.08960909973691163 -0.025156065696564447
000220 f5 67 90 20 9f 5a a4 bf 2f 66 f3 c5 62 1c 93 bf
       -0.039753887868030725 -0.018662970859486257
000230 3f e5 57 e6 6f 84 a0 3f b0 c4 c9 6b ad a0 a3 3f
       0.0322604149514043 0.03833524647496611
000240 62 63 5e 80 ba 3c b8 3f ba 03 67 c1 3d 06 b4 3f
       0.09467664369584619 0.07822023364771172
000250 eb 28 f7 1f a2 9e b6 3f 87 da a7 87 d3 08 b6 3f
       0.08835805206686913 0.08607217847734648
000260 c0 77 b8 58 8d f8 b6 3f ac b7 20 ec a3 11 6d 3f
       0.08973010459928243 0.003548450623404661
000270 3e 15 89 91 97 c0 b1 3f 09 29 a5 c6 91 19 b5 bf
       0.06934497168648066 -0.08242140865073479
000280 0e d9 a3 10 1a 65 93 3f 5d 39 3f c4 74 21 a6 bf
       0.018940360322596432 -0.04322399993508228
000290 b6 4f 5a e7 1a 98 85 3f 12 01 a7 a9 15 78 a9 bf
       0.01054402369053507 -0.04974429794265424
0002a0 fd 68 f3 62 59 b2 b2 3f 1c 6b e4 9a 9e 9f a5 3f
       0.0730338923052933 0.04223342552923823
0002b0 62 2c 98 82 14 7b ab bf 6b 73 2f 86 10 f1 77 3f
       -0.05367340177698378 0.005845131442552591
0002c0 c9 04 da 93 92 5f b5 bf 65 cc ff f1 42 8c 95 3f
       -0.08348957166346617 0.0210428676800344
0002d0 a3 98 0c 75 a2 da 94 bf d5 60 b9 90 d0 a1 b2 bf
       -0.020365274805180033 -0.072781596501389
0002e0 1c da 4f 38 00 4b b1 bf 4e 4a 41 db 8c be 82 bf
       -0.0675506722908285 -0.009152508202679457
0002f0 60 a7 34 de 3d 2c a9 3f 60 0a 96 29 a1 96 a0 3f
       0.049165662169186275 0.032399212194850646
000300 24 9b 2d bd 66 dd a2 3f 2e 20 61 43 7a 09 92 3f
       0.036845408051524836 0.017614279139053383
000310 62 f5 c7 d0 00 8d b0 3f a9 d1 5d fb a3 58 95 bf
       0.0646515378684476 -0.020845949380104454
000320 c1 91 fe cc aa 4d 9c 3f ce 51 a4 83 a3 64 aa 3f
       0.027640026819101274 0.051549062556805234
000330 4b bc ce 8b 1d ae ae bf c4 fd f4 7b 78 a2 82 bf
       -0.05992214519152891 -0.009098950655810685
000340 16 be bb f5 8e 40 8d bf e3 32 f2 d7 dc 97 ab 3f
       -0.014283291696727079 0.05389299522457749
000350 a6 55 ec da 3f e2 8b 3f fd 01 70 b4 ee 55 ad 3f
       0.0136151302990964 0.057296237493577686
000360 bb a0 b9 e1 a8 e4 98 3f 73 c4 b0 bc bd 4d aa bf
       0.02430976751057366 -0.051374367984302526
000370 6a 5a fc b1 4e 27 a3 bf af d9 9f 97 d6 a6 b2 bf
       -0.037409266688133894 -0.07285824968116715
000380 63 51 64 34 7e a7 b2 bf e7 ab 65 fe 91 56 8a 3f
       -0.07286824015711128 0.012860432220540076
000390 b8 26 4c 4d d8 bf a0 bf 95 57 30 3e 05 bf 87 bf
       -0.03271366065571385 -0.011594811401703523
0003a0 6a 6f 19 47 00 bb b5 bf ca ab 12 6c fd 72 9a bf
       -0.08488466010879639 -0.025829276772735978
0003b0 65 39 9b 08 db 65 af bf ac d3 29 2f 85 20 b5 3f
       -0.06132397155816952 0.08252746964883667
0003c0 48 c8 b8 5f 5b 99 b2 3f 27 b2 68 7e 74 ac 86 3f
       0.07265254103620677 0.011071119411178177
0003d0 94 06 71 60 b6 72 a0 bf 33 74 41 0e 68 ea 73 3f
       -0.03212518622650609 0.004862219302677539
0003e0 76 49 2a f6 c5 e0 a2 bf 31 57 8f 0b 76 f7 3c 3f
       -0.03687113408990943 0.00044199592553916244
0003f0 85 b6 a0 04 9e 9d 83 bf 2d cf 3d 6e 10 f9 b4 3f
       -0.009577974811772147 0.08192541781846492
000400 be 36 a3 e1 a3 70 a7 3f 5c 16 0d 4c 64 e0 a4 bf
       0.045781251233717665 -0.04077447346075466
000410 4b 26 06 33 98 bf 53 bf af c1 b0 43 7f 44 8b 3f
       -0.00120534766401405 0.013314241650818596
000420 98 21 1e 8b b3 3a b3 3f ee a4 15 13 82 e8 b3 bf
       0.07511446138790345 -0.07776654210978837
000430 18 04 54 01 f2 0b a5 bf 4f 17 54 de ed 52 90 3f
       -0.041106760656482944 0.015941349692205006
000440 70 fb 56 e5 67 58 87 3f f5 25 05 ce 06 41 ad bf
       0.011399089514154886 -0.057136738442363035
000450 26 79 b3 a8 bf 3a b2 3f 1f 39 16 1e ba 01 af 3f
       0.07120893353155519 0.060560051129060925
000460 9f 92 3c 8b f3 7d 9f bf 54 58 7f 40 7b 49 77 3f
       -0.030753903745010743 0.005685311749365669
000470 2f 12 dc 39 cb 4c b0 3f 44 6b 41 b0 43 3b a8 bf
       0.06367178118313953 -0.04732715155178949
000480 22 9a 4d 4b ee 99 aa bf 7a 15 cd 02 08 8d 64 3f
       -0.051955649082448 0.0025086552108485845
000490 d4 d4 3b d1 de bf 70 3f fd 86 59 c0 c8 9e af 3f
       0.004089231853631154 0.06175830219286913
0004a0 88 0a cb 0e b5 8a 93 bf d7 d2 a1 dd c1 4d 9d 3f
       -0.0190838136939058 0.028616933014251025
0004b0 fa d4 8a 14 6b ca b0 3f e7 55 21 1c 99 76 7f bf
       0.06558865787049575 -0.0076814633231001355
0004c0 00 72 78 cf 92 c8 b9 3f cb 2d 50 19 aa f8 a1 3f
       0.10071675839612482 0.03510028418540009
0004d0 6a b5 3b 73 aa 58 64 bf d2 62 47 bc ef 05 84 bf
       -0.0024836854080293918 -0.009776947911562504
0004e0 f0 34 d1 32 3b 1c b3 3f 9c 43 01 de 94 f2 ad 3f
       0.0746495245995964 0.05849137506505217
0004f0 e9 ae 53 20 ff 21 ad bf d6 2c 5d 4e 44 e2 9d bf
       -0.056899998375085144 -0.029183451922375557
000500 e8 44 a4 2f 66 7a 8b 3f ae fb 04 68 f7 46 92 bf
       0.013417051628979285 -0.017848840450138397
000510 02 c1 86 cc 0c 99 b6 bf 4f cd f1 5e 6d 2e 92 3f
       -0.0882728576023091 0.01775523082728841
000520 54 ee 03 76 cf 54 91 bf 5f 34 ef 8a b6 eb ab 3f
       -0.016925088480077413 0.05453272291161037
000530 66 d3 ea 47 39 b9 b3 bf 49 f6 f2 24 7a 1a a2 3f
       -0.0770450401858632 0.035358254442581734
000540 10 c9 9e a2 96 79 af bf e1 63 82 75 a4 38 a5 bf
       -0.06147452101812878 -0.04144777235450881
000550 52 33 8b a9 7c ee 97 3f e6 79 b9 4e a1 d1 b0 3f
       0.023370693061952004 0.06569870159135113
000560 38 7c ce 2e 9c 7c 54 3f ed d8 c7 c2 12 2c b1 bf
       0.0012504124854115905 -0.06707875495326095
000570 b7 44 ca 4e 18 a9 ad bf 1a 2a 9f 89 5e 7c a2 bf
       -0.057930717103894684 -0.03610511236145815
000580 d3 af 24 4d ed 44 94 bf e1 5a 5e 83 cd 9b a4 bf
       -0.019794185479596948 -0.04025118092174807
000590 0c 79 8a 7e d1 99 a5 3f e0 6e 89 df 55 2c a3 bf
       0.042189165779960985 -0.03744762757989206
0005a0 86 68 e6 c6 10 e8 a8 3f 5c 2d e1 7f a4 d8 9b 3f
       0.048645519523419486 0.02719361334338309
0005b0 0c c5 f2 ed 55 b7 9c 3f db 51 44 de 01 0f b2 3f
       0.02804312004872593 0.07054149319112162
0005c0 30 53 60 4b 74 1d b4 bf 04 79 08 e7 e6 c5 68 bf
       -0.07857443657151175 -0.0030240545095373567
0005d0 f4 53 34 12 16 fd a7 bf d8 2c b0 4b f5 f1 85 bf
       -0.046852769586770565 -0.010715404865570141
0005e0 55 45 83 c0 3e 13 6f 3f b9 41 01 ec 1e d1 a1 bf
       0.003793356478219915 -0.034798590001290326
0005f0 93 e4 52 e9 70 ee 98 bf 20 f4 2c db 19 5f b5 bf
       -0.02434708046050511 -0.08348237610785292
000600 d3 d7 91 43 2e 29 b6 3f 83 c2 f7 1d 2e ce 99 bf
       0.08656586789751879 -0.025200577334489892
000610 b6 13 03 75 83 1a aa bf cc 46 1e 88 02 ac 8b bf
       -0.0509835319840372 -0.013511676577567931
000620 79 8f 24 b6 81 e5 b2 3f c9 ee 8d 06 b7 84 b4 3f
       0.0738144941029172 0.08015006933231485
000630 52 21 54 3b 3a 36 8c bf 62 e1 4f 1e cc b1 90 bf
       -0.013775305686536985 -0.016303243017291698
000640 af fb 0c 8f 75 0f a8 3f 05 ab a7 80 c3 c4 af 3f
       0.04699294444298318 0.062048062758398394
000650 30 43 be 54 85 95 b2 bf 65 21 2d 40 6f fe b2 3f
       -0.07259400671888439 0.07419486347965216
000660 a3 9f 5e c8 b6 a9 a4 3f 34 62 6f a8 e6 71 89 3f
       0.04035731502455 0.012424280181151472
000670 0d 02 61 2a 19 56 83 bf e2 1a 4f 32 3f 5b 8e bf
       -0.009441563230326211 -0.014822477076348265
000680 9c d7 7e 78 5b 75 a7 3f 32 71 a8 f7 81 4b ab bf
       0.045817240199013315 -0.053310452920614884
000690 bc 10 58 06 87 f0 b4 bf 50 1e 76 ec 34 49 b7 3f
       -0.08179515747912353 0.09096079609855079
0006a0 20 39 84 81 d2 de a1 3f e3 54 27 f4 54 ca aa bf
       0.034903124151343556 -0.05232491951361753
0006b0 b2 5c ae 78 a9 7f b2 bf 1a 93 c0 0e 98 ae 9a 3f
       -0.07226046749416318 0.026056648159413866
0006c0 eb 4a 84 68 6f 4f 81 bf fb 2f 3a 23 d5 61 a9 3f
       -0.008452291848276746 0.04957452826519667
0006d0 8b bf 22 09 eb 92 b9 3f 72 37 e0 f5 b4 4b a5 bf
       0.09989804242172633 -0.04159322263158928
0006e0 f9 25 be bb 4e cd 78 bf 67 c8 d2 66 fc e0 b2 3f
       -0.00605517153952339 0.07374551306091491
0006f0 94 bc af 1a 9d 0e b2 3f 8b 1b cb 95 eb 4d 99 3f
       0.07053548718953301 0.024711304681456474
000700 f5 a0 d3 f6 6c 3f 99 bf 3d 86 df b5 aa c6 a0 3f
       -0.0246560121203467 0.03276570768481377
000710 6e fd 49 53 82 ea 62 bf 16 a8 fc 8b 6b dd a0 3f
       -0.0023090882698963344 0.03293930133652638
000720 76 18 f7 c3 5a 41 a2 bf f0 2d 6c 88 0c 08 ab bf
       -0.035654865666899946 -0.052795783665796736
000730 44 53 46 f9 a1 a6 a2 3f 19 83 34 76 79 1e a3 3f
       0.03642755668548728 0.037341876677834125
000740 6a 0a 51 8c 16 6c b0 bf c6 77 a7 eb c7 e7 b0 bf
       -0.06414929319093124 -0.0660366964652602
000750 27 0b 0f 1e df 60 a2 bf 3f 7c 70 4b 67 f5 a6 3f
       -0.03589532129219313 0.04484103008166373
000760 56 f8 07 75 56 51 b6 bf 06 7a 2e 03 a0 61 9e 3f
       -0.08717861516194722 0.02966928500574719
000770 94 ac 3c 81 96 ad a0 bf 30 eb 51 fb 4e cc a4 3f
       -0.03257437064743232 0.04062125032301933
000780 05 ab 07 f0 2a 8e b2 3f 16 09 2e e6 19 ca a4 3f
       0.07248180732828409 0.04060440954983073
000790 81 b0 0b c3 10 8b 83 3f 0e 9c 2e 28 72 42 8e 3f
       0.009542590095826366 0.01477517304540579
0007a0 c9 9d b1 1e 54 0e b6 bf 53 dc f0 a6 71 6b b1 3f
       -0.08615613698349657 0.06804571462349544
0007b0 4a 5a 17 f0 61 52 b2 bf 7d be de 73 72 3a a0 3f
       -0.07156955825426184 0.031695915836618994
0007c0 33 15 8d d6 fd bf 96 bf 18 22 53 10 8d d8 b4 bf
       -0.02221676466003437 -0.08142930649331281
0007d0 26 6b 9a 3a a1 fa a0 bf 1c 35 74 94 29 8b a7 bf
       -0.03316215362902701 -0.04598360001737431
0007e0 8f ae 3a 32 64 82 8b bf 28 3f eb dc 35 2d aa 3f
       -0.013432295592188196 0.051126177995341415
0007f0 15 94 63 76 03 9f b7 bf 8c f3 e6 c1 62 89 a6 bf
       -0.09227010383945385 -0.044016920251556874

layers.1.fc.bias f8 [64]
000000 94 a5 d3 e8 8c ed 93 bf de 16 8c e3 ce 28 89 bf
       -0.019460870466820504 -0.012284866637411292
000010 e8 5e f0 7f 8a e4 a0 3f d4 d0 2e 65 34 09 a4 bf
       0.032993629567668326 -0.039132726050782246
000020 8a 95 ca 7c c4 cc b1 3f 74 35 a2 39 46 11 a5 3f
       0.06953075453437499 0.041147417579035755
000030 ef f2 e2 31 c5 31 ac bf 8c 79 f9 9a b5 e9 5b bf
       -0.055067217197096834 -0.0017036698808606558
000040 aa 51 4d d3 c0 8b 93 3f 6c 8a b6 4a 6c 2d a1 3f
       0.019087803742267852 0.03354967510246784
000050 31 8c 9e 6d 71 a3 95 3f 47 0c 03 16 e1 57 8d 3f
       0.021131298366196375 0.014327772602319778
000060 15 29 2f f4 78 37 9e 3f 44 9c 16 03 c0 d1 ab 3f
       0.02950848570234495 0.05433464086245768
000070 c6 7d dd 63 5f 0a 91 bf e5 12 3c ca 76 58 b0 3f
       -0.016641130895889387 0.06384985387201032
000080 b1 2e c2 5a e0 67 b0 3f f7 6a fa 78 d9 84 7a bf
       0.06408502784523297 -0.006474351408224824
000090 89 0c 92 cd 54 9c b1 3f 62 15 a4 a3 ff 1b b6 3f
       0.06879167574702384 0.08636472458973324
0000a0 7f 3d 17 3a e0 3d 90 bf 36 46 c9 24 73 e1 b0 bf
       -0.015861037774639094 -0.06594009063817272
0000b0 f1 b5 2f a7 01 e3 ac 3f fd 65 3c 74 8f 39 a0 bf
       0.0564194218239712 -0.03168915075202603
0000c0 0f ec 0e 92 ca df 61 3f b1 e3 69 ff 24 45 a2 3f
       0.002181907315813365 0.035683780840322206
0000d0 1f c5 29 a4 78 2a a6 bf ab 9a c1 cb 5e b8 9e 3f
       -0.0432927799601066 0.03000019186620288
0000e0 d8 dd e5 02 12 8f aa bf 80 bc ce f1 35 8a a0 3f
       -0.05187279019713359 0.032304464118504406
0000f0 af d5 e7 07 48 84 a2 bf da c5 a8 79 1a 3f b0 3f
       -0.03616547676567038 0.06346288175770756
000100 a0 91 d8 11 2f 30 7a bf 18 b9 f4 24 ef 6a ae 3f
       -0.0063936079655246 0.05940959287760189
000110 b0 e0 1c 2a 3e 1e aa bf b3 b3 1a 5c 73 05 a5 3f
       -0.051011984482501105 0.041057209962083084
000120 0e b7 02 93 87 d3 98 bf 5b 24 e6 92 12 a8 9d 3f
       -0.02424442133695153 0.028961458412173218
000130 2c fe 1e d4 e3 80 ab 3f 95 ee 65 66 fe 90 87 3f
       0.053717727321324155 0.011507022380775648
000140 a7 d2 25 5e 58 2e 81 bf b4 41 af 71 87 6a 48 3f
       -0.008389177678261929 0.0007451211307572454
000150 a1 1a 23 a5 07 3e b1 bf 39 37 36 4a 96 54 b5 bf
       -0.06735275060337155 -0.08332194625674284
000160 a3 a9 10 4c 09 53 ad 3f fc 41 fd 2f d6 d2 b0 3f
       0.05727414182213699 0.06571711227048377
000170 54 56 78 da 80 f1 a0 3f 23 22 07 af ad bd a1 3f
       0.033092524212560065 0.03465025674410451
000180 8e de d3 01 a9 f1 a9 3f 19 8c 83 f2 a6 f9 a7 3f
       0.05067184588727712 0.046826569656126256
000190 95 b3 e8 84 04 77 af 3f 86 63 70 0f b2 70 b2 bf
       0.06145490763115117 -0.07203209759644666
0001a0 7e a0 cd c4 4e af 7f 3f 55 94 45 e2 bb 85 b1 3f
       0.007735545816878296 0.06844686769689308
0001b0 94 80 87 23 99 51 a9 bf 9b 6f 72 9c 11 ed 97 3f
       -0.049450669848512124 0.023365283178108247
0001c0 12 28 59 59 76 05 93 3f e0 79 62 74 8a b1 b4 3f
       0.018575524524102667 0.08083405820295964
0001d0 e9 39 73 ff c8 71 90 3f 6b 93 b3 92 eb 08 ab 3f
       0.016059055892407335 0.05280243078030974
0001e0 e0 38 3c 68 b5 28 8b 3f 7c fc fe d3 c0 b4 b0 3f
       0.013261239284045379 0.06525807548222134
0001f0 44 13 9a 64 d2 6a a7 bf 37 9d 2a b2 37 fc a1 bf
       -0.04573686101961141 -0.03512739229091227

layers.2.gsds.0.weight f8 [2, 64]
000000 c8 d5 fd 6d 1a a5 b2 bf 67 c4 9f 5a 5b 12 ab 3f
       -0.07283177552547848 0.052874426662932454
000010 e6 90 cd 18 c7 f5 a2 3f 0a 3c 15 98 d6 c4 b6 3f
       0.037031385209759723 0.08894101345980246
000020 95 04 f8 f3 10 42 b2 3f 05 62 6c 23 55 d5 bc 3f
       0.07132059055585878 0.1126301967127646
000030 54 fd d3 c4 5a c4 ba bf a6 33 f5 ab 05 f4 9b bf
       -0.10455863290188933 -0.02729805814788091
000040 7f a5 47 22 1b 60 b9 bf e3 dc a1 0f 91 93 a1 bf
       -0.0991227110568129 -0.03432896915267649
000050 02 2a 30 68 08 e7 a0 bf b1 3b d4 dc 78 d3 b0 bf
       -0.033012640684393815 -0.0657268084653271
000060 86 26 fb 72 46 82 c1 bf 7a 28 3f c0 b8 b8 ad 3f
       -0.13678818334874537 0.05804993960153211
000070 74 ec 06 ba a0 90 af bf a1 84 00 7c 96 c0 ad 3f
       -0.0616502978404804 0.05810995353409366
000080 86 e0 43 e2 7b 2a b5 3f 3b 4f b9 05 d6 e1 64 3f
       0.08267950319339165 0.002549093258304239
000090 fc 99 a3 0c 9d 16 a6 bf 70 be e8 26 c9 cc bc 3f
       -0.04314127711568358 0.11249978256159365
0000a0 1b f6 f5 35 be c5 b2 3f 69 14 c4 03 9e 4e b1 3f
       0.07332981889154448 0.06760585395757492
0000b0 b0 e3 8d a8 34 2b be bf 80 83 68 6d 64 03 a5 3f
       -0.11784676661581162 0.041041506152629914
0000c0 e9 a4 c8 51 40 38 95 bf 96 61 39 3f d9 f6 b1 bf
       -0.020722393981633145 -0.0701728610378097
0000d0 8a 51 54 2c 58 6c bc bf bc ec e9 da 32 8e b9 bf
       -0.1110282047487258 -0.0998260292489474
0000e0 33 a8 67 47 d3 cc b3 bf ab 96 93 88 fc cc a6 bf
       -0.07734413617404882 -0.04453267256921597
0000f0 bc 04 a9 32 fd b8 aa bf ee a6 ab 6c 8c 0e b4 bf
       -0.05219260447894089 -0.07834699299896972
000100 29 ab 91 b9 ec a7 bf bf 38 77 77 82 8e f3 92 bf
       -0.12365607767575838 -0.018507219994595675
000110 b7 d9 c1 64 73 93 b2 3f bb b7 21 69 10 c3 ba bf
       0.07256241998570699 -0.10453894201938756
000120 bc 3c 2d 56 43 52 c1 3f cf 8b 93 5b 27 d2 a2 bf
       0.13532296855780668 -0.03675959580302612
000130 ab 7f 07 10 11 e6 b2 3f 15 0f ea 66 41 cf 9c 3f
       0.07382303849544651 0.028134366899862224
000140 e1 bc 31 8f 96 23 bb 3f 5d 3a 82 b9 06 c3 b2 bf
       0.10601178165392212 -0.07328836468716689
000150 f4 cb ac 0d 4c 96 ba bf f6 94 68 47 e9 6a b9 bf
       -0.10385585149633397 -0.09928758614895003
000160 08 fa 4a 64 22 91 b7 3f 02 66 d2 ad a0 dd bc bf
       0.09205832432324013 -0.1127567695970342
000170 71 9e 30 bb f3 72 b5 bf 3f 60 6e cc 0f 00 a9 3f
       -0.08378527946535443 0.048828595833754644
000180 01 51 1e b3 0d 54 ab 3f ae 04 ec 72 06 f4 a0 3f
       0.05337565242294496 0.0331117644582347
000190 85 d3 7a 0b 10 fa 8b 3f e6 8d 7a 60 1c 9e b5 bf
       0.013660550451598539 -0.08444383006513298
0001a0 bb 33 34 64 08 e4 a9 bf 70 1f 79 e4 d2 33 96 bf
       -0.05056787703697504 -0.021682067103284408
0001b0 b2 96 44 6e 96 d6 bd 3f e8 f4 bd d3 8b 87 b1 bf
       0.11655559722984313 -0.06847452086909167
0001c0 3a 41 a6 58 7a 11 9e bf dd 5d db 49 05 b8 b1 3f
       -0.029363547955257398 0.06921418240687367
0001d0 e1 99 0b e2 f8 1d a7 bf c3 93 15 1d 53 3c 87 bf
       -0.045150544732496696 -0.011345528912622421
0001e0 e9 2f 26 da bc e7 b9 bf fd ff 84 52 c6 99 b5 3f
       -0.1011922867384666 0.08437766565930356
0001f0 2e a4 af 17 56 67 9f 3f a1 98 09 1d b8 01 b2 bf
       0.03066763419693446 -0.07033873280451754
000200 53 7b 47 f4 58 41 a8 3f c4 52 5a ab 71 f8 bf 3f
       0.04737356168674602 0.12488470490854825
000210 2c 8a be 15 f2 7b bc bf 2c bc dc f3 f2 89 93 bf
       -0.11126626044146154 -0.019080921301050477
000220 eb 17 dd b8 d6 95 c2 3f e3 fa 72 18 1a d3 b5 bf
       0.14519771601243234 -0.08525240990546083
000230 de ef 8a 7c 68 6a b6 3f bf a0 21 a2 19 9b be bf
       0.0875611595210439 -0.11955414016995557
000240 51 63 b7 39 9a 26 49 bf c2 45 fc a6 d9 3b b9 bf
       -0.0007675412229516209 -0.0985694916419311
000250 7b d6 3f 23 cd 7a 98 3f 44 a4 0b ff cd 87 94 bf
       0.02390594985623416 -0.020049303714504654
000260 cd 74 c0 d5 ae 04 8c 3f 11 57 17 36 f6 c4 af bf
       0.013680807016550745 -0.0620495739964736
000270 3d 6d b1 c3 2c a5 bf 3f d1 b0 82 e2 dc 1b 71 bf
       0.12361411836302678 -0.0041769626915703776
000280 88 29 a8 e4 92 24 c2 bf ba ad 81 5b 08 9b ad bf
       -0.14174114384543324 -0.057823430223688146
000290 43 b6 3d 4c 23 e6 b5 bf f5 c8 29 e8 b7 db 7b 3f
       -0.08554287539819776 0.006801336656837122
0002a0 81 49 07 8c d4 71 9b 3f e4 7e fc d8 17 8f 96 bf
       0.02680141548791815 -0.02203023206595746
0002b0 5b 5f e5 83 d0 a0 b0 bf f2 a7 57 72 51 5c b0 bf
       -0.06495383472554066 -0.06390866319239288
0002c0 ac 05 90 68 e2 4c b4 bf de 0d 21 bc f2 59 9e bf
       -0.07929816296384357 -0.029640000088205436
0002d0 6e e7 ba d2 71 49 b8 bf 92 2a da a5 e7 59 95 3f
       -0.0948706759908455 0.020850772378745726
0002e0 65 1d cb 01 87 44 92 bf fe 5a 26 51 c4 a2 bf bf
       -0.017839536175214294 -0.12357737523266718
0002f0 4e ec 5f 44 a2 49 bb bf 6c f1 b9 14 e4 bd bb 3f
       -0.1065923134737414 0.10836625581754838
000300 fa ce 80 65 e7 62 bb bf 89 42 1f 2f a9 75 aa bf
       -0.10697790363411377 -0.051678931238375254
000310 5c a4 19 24 b0 09 97 bf 54 51 74 17 b2 17 b5 bf
       -0.022497894481066857 -0.08239281723610264
000320 20 17 af ae dc e3 b6 3f 37 1b af 72 14 06 95 3f
       0.08941439881081381 0.020531005382305536
000330 77 2b 30 c6 42 98 b0 3f bf ba 3c ae 93 d2 96 bf
       0.06482331598833278 -0.02228766203841803
000340 d6 b4 80 5f 8a 48 a8 3f c8 f1 b9 63 e8 fb a3 3f
       0.047428440244723966 0.039031278775812306
000350 43 69 af d9 30 2c c3 bf ca 94 b1 c8 33 72 bb 3f
       -0.14978609685096886 0.10721133851764644
000360 01 23 6d e3 4d ed b0 3f 73 85 0f e1 50 57 ac 3f
       0.0661209755172756 0.05535366771051544
000370 0b 01 5b ac d8 a1 bc 3f 69 58 77 89 99 d6 be bf
       0.11184457977197242 -0.12046203237636778
000380 99 6d 1f d0 ad 1d 87 bf 17 02 0a cb ba b4 bf 3f
       -0.011287076867964528 0.12385146576890126
000390 9d 7f b7 5a a7 65 b7 3f 42 a2 d5 d7 53 ae ab bf
       0.09139486279263882 -0.054064388367639285
0003a0 be fb 41 69 08 f5 9a bf 6f e4 74 82 ba 4d a6 bf
       -0.026325351166174953 -0.04356177179801867
0003b0 7e c8 df 8e c4 1e a4 3f 41 27 97 6e 22 78 a6 3f
       0.03929723972386599 0.04388530349713316
0003c0 d5 fa d8 d6 84 d8 b6 bf 79 23 0d aa ac 05 a6 bf
       -0.08924131627371008 -0.04301204276868637
0003d0 23 6d 38 ea 6c 30 77 3f 66 05 9e c1 78 9b bc bf
       0.005661416481895362 -0.11174730994209411
0003e0 cf d0 eb cc 95 72 b6 bf 94 45 3e b2 a4 34 b9 bf
       -0.08768593075712093 -0.0984595236934836
0003f0 d8 e4 eb b0 08 d2 b0 bf 32 09 35 c7 a7 f9 a4 bf
       -0.06570486373302076 -0.04096721941688698

layers.2.gsds.0.bias f8 [2]
000000 55 c0 14 43 7d bd ba 3f 3d 1c cf ff 5a 48 95 3f
       0.10445387733193574 0.02078382669767741

log_envelope.log_envs.0.weight f8 [2, 1]
000000 34 b8 84 38 4d 2e e6 3f 32 ad ab f2 24 62 e5 3f
       0.6931520561099718 0.6682305087719327

step f8 []
000000 00 00 00 00 80 88 c3 40
       10001.0

exp_avg f8 [64, 2]
000000 40 ea 2c 43 33 0d d0 be fe df 1c c6 1c cc ad be
       -3.826990950634714e-06 -8.880291597406981e-07
000010 c4 d6 31 ad e0 0e 6a 3e 42 df 44 a1 de 6a 8b 3e
       4.853702297798838e-08 2.0427599224116817e-07
000020 e3 54 5c 3f 26 39 a4 3e 1b fe 01 42 26 88 a4 3e
       6.026995140485352e-07 6.118963291750809e-07
000030 48 44 49 86 98 b5 92 3e 47 84 d4 3d 87 a7 96 3e
       2.7879116818336604e-07 3.375769759995814e-07
000040 33 8a dd 6a b9 c4 be be 52 bc 50 bd bd 02 c6 be
       -1.833942785599838e-06 -2.6238808268557075e-06
000050 8d d0 a7 22 49 9d ba 3e 78 9f 20 ee 9a f8 b3 3e
       1.5863416914482044e-06 1.1903711585412442e-06
000060 7d 89 34 13 80 d8 8f be 56 e0 fd 4f 7b 05 9c be
       -2.3726898632735378e-07 -4.175515897412868e-07
000070 b5 1a df 86 5d 79 8c 3e a0 21 0a b7 ad 7d 98 3e
       2.121484529700185e-07 3.6494332448417983e-07
000080 ff b4 5b d3 b3 c9 a5 3e 92 ff ad 5c 6f 31 9d 3e
       6.493300250522625e-07 4.350111708004087e-07
000090 01 d3 1d 7f fa 3e a3 3e f4 93 2f 43 ef 45 8f 3e
       5.735757879614683e-07 2.330033637968804e-07
0000a0 7d 77 2c 05 f1 14 b0 3e 1d 6f 65 17 a9 f4 ac 3e
       9.585501358831232e-07 8.62947259243588e-07
0000b0 58 ac a0 db 66 e1 c7 be a0 10 37 95 d0 c5 a8 3e
       -2.8467745467795407e-06 7.382844082128369e-07
0000c0 78 ff 32 da aa 43 b8 3e 02 f3 2f 5f 4f ca b5 3e
       1.446266517032806e-06 1.2988015185559538e-06
0000d0 b8 38 27 0b 21 86 a0 3e 85 e9 76 be 9a 02 ad 3e
       4.92451837802593e-07 8.64570549311773e-07
0000e0 17 b4 89 dd 9b 61 a8 be 64 6a b9 e0 a5 76 d0 be
       -7.266189028916589e-07 -3.9251967894568856e-06
0000f0 18 d4 0c 65 40 fb a6 3e 47 08 62 b3 98 7a 9a be
       6.849006216393706e-07 -3.9456624579420456e-07
000100 5c cd 34 bf d8 ad 6b be 48 45 33 41 b1 b0 b1 be
       -5.155632001388561e-08 -1.0544183666648475e-06
000110 d6 fc ff 78 e0 28 c0 3e 2d d6 34 c0 ec 02 c0 3e
       1.926383397687571e-06 1.908710602594916e-06
000120 02 a1 70 4f e0 2a ac be c8 d4 2a c1 03 53 a5 be
       -8.394564748925091e-07 -6.355129492293608e-07
000130 b6 59 05 a4 51 13 a9 be 01 fb 2a 4c 00 a3 a1 be
       -7.473070767021641e-07 -5.256153133499675e-07
000140 92 39 5b 63 6b e3 bc be 3e e6 63 1c a4 a8 b5 be
       -1.7218802787381094e-06 -1.2909623464105094e-06
000150 47 9b 29 c7 3d 90 ae be d0 58 72 39 9d ed 83 be
       -9.108615713460566e-07 -1.4847651350476617e-07
000160 c8 95 45 65 2d 26 bb be 16 a1 6d c2 b2 01 b5 be
       -1.6182142604457423e-06 -1.2520929517316376e-06
000170 e1 3d f9 49 74 5f a1 be f3 42 1c c6 d1 f3 8f 3e
       -5.17751818260593e-07 2.3806407783339825e-07
000180 55 17 a7 a9 84 06 b0 be 6e 56 2b cf 45 51 a0 3e
       -9.551919562962744e-07 4.862985448448988e-07
000190 19 b8 c0 d0 03 68 a2 be 81 a3 15 58 e8 53 b8 be
       -5.485507315100497e-07 -1.4500477337425583e-06
0001a0 60 83 02 d0 bb 74 b8 be 18 9a 3b b0 b0 b5 af be
       -1.457690643781778e-06 -9.450235158553611e-07
0001b0 a4 f9 13 b3 dd b6 a6 be f0 d4 a1 d0 2c 26 cb be
       -6.769394983728247e-07 -3.2364274647431686e-06
0001c0 f1 a1 69 69 a9 59 b5 be 99 ed 24 9d 37 f9 af be
       -1.27257354667388e-06 -9.528846994020243e-07
0001d0 f1 7f 73 86 26 d5 e0 be c1 77 a8 72 26 1a af 3e
       -8.026418255757647e-06 9.269162764590485e-07
0001e0 af a0 63 d1 d2 b9 92 be ff f1 e6 27 af af a6 be
       -2.79037253205035e-07 -6.761034255158373e-07
0001f0 a1 a9 dc 70 63 ee b5 be 65 72 41 48 0d 82 a9 be
       -1.3072016744145406e-06 -7.601980915972671e-07
000200 b0 eb 4a 91 9f 3f 76 3e bc 47 48 b0 ec 1d 6b be
       8.288222759059911e-08 -5.050914889474451e-08
000210 b4 86 ed e5 ca 66 c0 3e c4 e5 97 4d 56 cd b2 3e
       1.9552151537129465e-06 1.1206923801173818e-06
000220 e1 0c d6 10 52 4c 9c 3e e1 e3 f0 15 71 60 b9 3e
       4.2167495525203515e-07 1.5125707120268471e-06
000230 bd bc 26 44 f8 c1 ab be f4 43 6d 46 4c cd b3 be
       -8.272437599844505e-07 -1.18028790448512e-06
000240 b4 e0 78 d4 e1 17 ac 3e 9e 35 39 6d f8 c5 91 3e
       8.372452748378455e-07 2.6484313517680603e-07
000250 a5 1f 84 1b ef 55 cd be 3d 3e 6e c7 3c bb a8 be
       -3.497085540374967e-06 -7.370530415873538e-07
000260 5e 08 8a e6 fb ea aa 3e e6 be aa 48 a4 c8 88 be
       8.022161184925206e-07 -1.8465337732952464e-07
000270 83 de d5 1c b1 1a 42 be be cb 44 35 90 45 7d be
       -8.430455357017655e-09 -1.0904569808650374e-07
000280 2c 05 5b af d9 98 91 be f8 4e df e6 4e c1 ab 3e
       -2.622168005888416e-07 8.271667419853279e-07
000290 44 6b 29 a8 29 d7 82 be 6d b5 07 66 db c2 9d be
       -1.4037251013201102e-07 -4.434758462946605e-07
0002a0 a5 f4 bb b7 84 8c b1 3e 0a 88 5d 11 74 ec bc 3e
       1.0459959573488281e-06 1.7239836486927979e-06
0002b0 76 03 74 6a 42 ee d2 be 11 f0 8e 3f e7 a2 cf be
       -4.513430815978521e-06 -3.771345742779535e-06
0002c0 84 ba b1 53 2f 9d 51 be 59 f5 24 c1 90 4f 79 3e
       -1.6404318997312442e-08 9.429008710356983e-08
0002d0 7e 00 9c 36 58 2c ae 3e 30 4f 3f 3e df 7c a2 3e
       8.992320605638726e-07 5.50978822117724e-07
0002e0 de a9 72 04 f7 ac c5 3e 8e fe c1 c8 e7 3b 02 3e
       2.5839381439702753e-06 5.306794045135094e-10
0002f0 dc 26 e7 3d 80 4e 95 3e 53 e4 f1 9a 0a 35 af 3e
       3.1749374143336046e-07 9.300468287863065e-07
000300 a7 69 89 23 0f 27 a9 be 9b b3 36 04 e9 9f 97 3e
       -7.496051415798781e-07 3.520347073526136e-07
000310 9c ac 64 5e a7 70 bd be eb e2 cd fd c5 fd c0 be
       -1.7547639515429794e-06 -2.0255210828014735e-06
000320 4a c0 08 9b 33 ec c1 be 79 45 f3 1b cb 55 b7 be
       -2.1365478562116216e-06 -1.390882161268361e-06
000330 26 f4 85 52 9b 25 b9 be 26 18 db 9c 48 4c a5 be
       -1.4988721180602364e-06 -6.347293550416517e-07
000340 9a 07 eb d0 91 70 b7 3e 54 51 7c 32 0e cc c2 3e
       1.3971164808811123e-06 2.240787939098368e-06
000350 62 1f 0a c9 c0 aa 88 be 1d 5f 0d 0c 74 b9 6f be
       -1.8378350265615023e-07 -5.909135004114414e-08
000360 7d c6 5a e6 8b 71 b2 be 9d f4 4a a2 46 80 b6 be
       -1.099320706837372e-06 -1.341168748655246e-06
000370 b3 b6 6d cd 46 e2 c6 be 63 66 ea f5 f0 8a c2 be
       -2.727972609964759e-06 -2.2104667743549896e-06
000380 45 fa d1 14 8f 87 b3 3e 83 66 ef e4 cb bb b0 3e
       1.1640505193363462e-06 9.973990875350507e-07
000390 58 e3 2b e6 12 ba b3 3e 69 85 ce b3 e9 73 ae 3e
       1.1758119390898889e-06 9.075637091746159e-07
0003a0 81 49 0e a4 b0 fa b4 3e 62 18 4a 91 c5 a1 b3 3e
       1.250461210332109e-06 1.1701536709887057e-06
0003b0 c6 10 da f5 1e 3d c2 3e 34 ec 66 47 fc ab ba 3e
       2.1742288670041776e-06 1.5897642505608249e-06
0003c0 ab a5 df c8 c4 62 9e 3e eb 46 41 c7 27 8a b1 3e
       4.527839302369522e-07 1.0454457681951665e-06
0003d0 1b 8d 58 b7 a2 14 7c 3e fb cc 73 8a f8 f0 b1 3e
       1.04608416006325e-07 1.0693843622261543e-06
0003e0 df 7f d8 71 e7 38 b0 be 71 3e ca 2e df e2 99 3e
       -9.66923330188156e-07 3.857347071001407e-07
0003f0 17 a8 23 e2 0d 73 bc 3e 69 fd 6b f5 e7 43 be 3e
       1.6957182045703817e-06 1.8039499615761496e-06

exp_avg_sq f8 [64, 2]
000000 c4 da 7a 31 2e 78 1a 3e 01 16 6c da 6b 81 07 3e
       1.540725052678537e-09 6.841015990185543e-10
000010 a0 c0 10 98 8e b3 59 3e fe 50 a3 e4 98 69 f3 3d
       2.3936288954553532e-08 2.824888974111173e-10
000020 d7 78 78 a5 29 6a 62 3e 4a 5f d1 c1 77 84 e4 3d
       3.430004785427364e-08 1.4928411363757294e-10
000030 c1 57 13 a3 a8 b1 1b 3e f3 59 c7 30 32 96 f0 3d
       1.6120017649735785e-09 2.413683010220292e-10
000040 78 9d 9a db 67 c6 82 3e a7 97 e0 82 9c a4 2b 3e
       1.3988481644309893e-07 3.218070274683363e-09
000050 da c6 57 e4 ba d1 50 3e da 6c fa 52 42 fc 11 3e
       1.5664154659082884e-08 1.046887309404885e-09
000060 5f 8b ee a3 58 54 13 3e cb df 58 c7 d8 e3 fb 3d
       1.1251236745467787e-09 4.0585330178807556e-10
000070 3b 7b 26 ec 48 9f 40 3e 48 5f 1d b0 07 c2 07 3e
       7.74031805734537e-09 6.914467611577031e-10
000080 f8 fa f8 1d 8c 9f 57 3e 64 13 a6 27 10 67 09 3e
       2.200084902995611e-08 7.393126799106152e-10
000090 2f 42 0e 02 61 43 65 3e 31 80 40 ce f1 5f f1 3d
       3.960579442804339e-08 2.5283637531885523e-10
0000a0 e3 77 fa 26 75 b9 3e 3e ce 81 ba a8 0f 71 e6 3d
       7.153592037878351e-09 1.6328445918654918e-10
0000b0 91 9f 98 88 74 fe 36 3e 57 9b 90 34 8c 84 eb 3d
       5.353699825075064e-09 2.002180871464892e-10
0000c0 57 fe d7 75 a3 7f 40 3e fd f8 cb 02 75 75 fc 3d
       7.682753706653852e-09 4.141302880455722e-10
0000d0 46 27 c2 7a d1 6b 38 3e 71 91 6b 99 f2 88 e7 3d
       5.685995601556634e-09 1.7123931154135013e-10
0000e0 cd 1f 1d 75 2c dd 72 3e 53 fa af 2e 5b 03 0a 3e
       7.027372575269341e-08 7.570811454960895e-10
0000f0 3a c2 1f b4 9e 80 12 3e ff 71 fb a1 9e 7d d5 3d
       1.0769826840203216e-09 7.818271767451317e-11
000100 d2 e1 98 4a 17 da 65 3e eb 64 fa 38 37 ee 00 3e
       4.070236887501141e-08 4.927432784332775e-10
000110 01 40 dd 5e d4 27 f5 3d 35 19 c7 db a9 8d da 3d
       3.078542688691471e-10 9.660060854048422e-11
000120 db fc de a8 ef cb 3e 3e 56 fa 83 1e 5e 4b ea 3d
       7.170398176201767e-09 1.9131697550648614e-10
000130 64 19 8f da e1 0b 00 3e 0e 1c 7f 97 f7 ba f2 3d
       4.670121417342888e-10 2.725623264384166e-10
000140 55 81 27 72 ad 36 41 3e 06 85 0e 87 eb ab fe 3d
       8.015699719374692e-09 4.4632997910139013e-10
000150 97 9f 43 20 87 7d 4b 3e f3 a1 ad 71 28 e0 de 3d
       1.2801188560955631e-08 1.1232484076504753e-10
000160 97 67 3e 52 60 c8 45 3e 0a fa e7 e8 ea bf 0a 3e
       1.0143369317921151e-08 7.785180987827917e-10
000170 a1 16 d4 24 e0 21 56 3e 18 c7 b5 ed a4 cd 01 3e
       2.0612335218021543e-08 5.181441624890571e-10
000180 4f 46 9d 85 e8 ba 4a 3e 34 31 ab c8 ac dc d4 3d
       1.2447177666751021e-08 7.589555561028281e-11
000190 97 c2 14 f9 c2 75 12 3e da 1c ec e8 86 67 d3 3d
       1.0745137872563364e-09 7.059280437164938e-11
0001a0 18 69 ec 14 f1 d3 6a 3e cb 6c ad ea 4e e9 14 3e
       4.997085289154308e-08 1.2172013767652912e-09
0001b0 5a bf 13 05 33 e5 39 3e 3c 7b 43 0e 44 f6 fb 3d
       6.0292216369098115e-09 4.0690030361049883e-10
0001c0 08 4a ef 55 21 b0 18 3e c6 48 2a 28 6d 46 e1 3d
       1.4370312368350408e-09 1.2569291795108204e-10
0001d0 ab ef 12 9b 59 d3 61 3e e2 b9 46 50 3b 0d 08 3e
       3.320274134232743e-08 6.999962003725079e-10
0001e0 c2 ff ba 29 d3 ec 5b 3e 65 ce 8b f3 21 51 07 3e
       2.600727331994263e-08 6.786118117894197e-10
0001f0 39 fd 39 4d 70 e3 0c 3e d7 12 9e 7a 84 38 03 3e
       8.407640369095112e-10 5.593980740734635e-10
000200 d4 1d c6 ca 3e 67 66 3e dd 4b 19 77 cc a9 20 3e
       4.172940157575107e-08 1.9398606547400404e-09
000210 b8 25 e8 2f 85 bf 3e 3e 82 fe 32 7b b6 e6 e4 3d
       7.159105973414758e-09 1.52076404940844e-10
000220 bd 91 a3 50 7b 7e 2c 3e c4 cc 84 1f df 3e 00 3e
       3.3171462288021823e-09 4.728089578165907e-10
000230 98 e8 4c 65 f2 a8 65 3e f0 92 fa ec 1e 20 1e 3e
       4.0344798313321395e-08 1.753533252556188e-09
000240 f9 9a d8 a6 29 10 62 3e 6a ef 6f 87 2d 5c 17 3e
       3.364521182171062e-08 1.3597350170717577e-09
000250 0b b9 69 2d 5a ca 10 3e e5 1c 1a 45 22 62 e1 3d
       9.773321506707087e-10 1.2648041169179844e-10
000260 22 d0 85 71 36 6d 34 3e be 44 3b 85 b1 d5 f5 3d
       4.7559412175533376e-09 3.1773728546804845e-10
000270 53 52 b7 17 1b 71 27 3e 6c 2b 76 94 73 3f fd 3d
       2.728986978867836e-09 4.2561234091034744e-10
000280 36 37 b9 fa bd 76 41 3e a9 36 3c b4 67 f6 0f 3e
       8.132232518595592e-09 9.302317600851252e-10
000290 29 38 7f 1a 0a dd 1d 3e ff f5 f2 54 9d 80 e9 3d
       1.7382807224774709e-09 1.8555438650394878e-10
0002a0 0d f3 8e 63 ff 1a 76 3e 69 fc ae 6b 63 31 26 3e
       8.23492535403139e-08 2.5835963069177554e-09
0002b0 1c 24 e6 57 6e 69 63 3e b8 8d 9d bb b6 10 11 3e
       3.6157369531662874e-08 9.933305137302524e-10
0002c0 6b 9b 70 4d 3e eb 4f 3e f0 11 21 45 27 e6 1a 3e
       1.4863405102257573e-08 1.565730007900487e-09
0002d0 e9 35 3e d8 14 0f 16 3e 41 a5 6b 03 d4 99 d1 3d
       1.2839976590399777e-09 6.403166959774666e-11
0002e0 26 62 01 9f dc 1c 28 3e 1a c8 54 7d 20 28 0f 3e
       2.8070925514975522e-09 9.067806459372619e-10
0002f0 fe b6 1c f8 e6 1a 64 3e fc 69 1b c0 bd 21 fc 3d
       3.744864242174098e-08 4.093715922733453e-10
000300 41 09 27 26 8b 22 10 3e e1 6c 76 f9 14 1c ca 3d
       9.391768687489094e-10 4.749325861650657e-11
000310 06 fa ba 85 9f 65 68 3e b8 23 59 25 e4 70 f6 3d
       4.5442889199429354e-08 3.265592565008049e-10
000320 5f 97 44 de ed fb 6a 3e 75 2e 51 40 a3 4b 23 3e
       5.026179986299781e-08 2.2462871584827066e-09
000330 63 1b 7f 62 bc 1d 4b 3e cc d4 3f 88 d2 85 0c 3e
       1.2626944004182395e-08 8.301210972945172e-10
000340 ac 94 45 74 a7 8a 4b 3e ff 72 a6 e2 9b 39 e6 3d
       1.2825065128557739e-08 1.617084117003024e-10
000350 7a d9 75 de f7 4f e5 3d a6 3f f3 e9 28 16 c4 3d
       1.5506794392835987e-10 3.6537243060739396e-11
000360 7b bd e4 a3 2e 03 4d 3e b4 10 fb 10 e0 1e dc 3d
       1.3509965698752409e-08 1.0230217042000731e-10
000370 f9 ae 5d a9 ee 33 59 3e 34 d8 71 d2 81 a1 f3 3d
       2.3471992869669784e-08 2.856670060612809e-10
000380 b5 2b c0 0a 3e 40 64 3e e7 30 b1 d0 fa e9 fd 3d
       3.772032761147536e-08 4.3530575038002627e-10
000390 fc 83 b4 6c 13 ce 3b 3e c4 29 ef 71 31 6a e3 3d
       6.473852297366452e-09 1.412613853730249e-10
0003a0 34 c9 7c 05 2d 7f 06 3e 2e 51 65 ec a3 8d f0 3d
       6.547424919724298e-10 2.408819640244922e-10
0003b0 0e 87 f5 51 05 9b 6a 3e 9d b2 30 b0 11 c9 f3 3d
       4.955669851803757e-08 2.8791584410893646e-10
0003c0 82 42 9a 8d 1c 78 42 3e 2b 63 ce a5 d3 c1 18 3e
       8.600384782191865e-09 1.4410549621861359e-09
0003d0 37 f0 40 9b fd 6c 32 3e f3 87 29 45 75 2e fe 3d
       4.290078004699291e-09 4.3919829332605155e-10
0003e0 5c 03 9a be 54 83 1a 3e e1 26 e7 aa 28 48 fb 3d
       1.5432604035026587e-09 3.9700346734274864e-10
0003f0 6d bd 20 1a cc 63 51 3e 02 85 82 9f a1 fc 06 3e
       1.619554413511639e-08 6.690051282222422e-10

step f8 []
000000 00 00 00 00 80 88 c3 40
       10001.0
