results/pretrain/checkpoints/A02_H064_L02_D01_Tanh_W4096_P001000_Adam_PT_True_device_cuda_dtype_float32_chkp.pt (torch, 165579 bytes, 23 tensors)

layers.0.fc.weight f4 [64, 2]
-0.017408948 0.3785799 -0.59003043 -0.52319217 -0.26354653 0.19123712 8.5794614e-05 0.5485351
-0.04848387 0.1879009 -0.22092496 -0.13159125 -0.6636147 -0.46185806 -0.28419006 0.028603183
0.26971096 0.42218822 -0.49119166 -0.2969629 0.26935214 0.5867666 -0.1355149 0.52831554
-0.10116555 0.065631956 0.6555033 -0.6770658 -0.43144566 -0.1764078 -0.28988343 0.60523474
-0.44922477 -0.31710932 -0.48532552 -0.6644321 -0.42639944 0.59011877 0.3286003 0.34331152
0.052391075 -0.35201868 0.10848933 -0.6708292 -0.49884084 -0.38021663 0.46089548 0.40162903
-0.3046005 -0.019240037 0.46191344 0.6760558 0.29487315 0.07783429 0.48972315 -0.38833967
0.14470913 -0.54396933 -0.500784 -0.36065596 0.30861613 0.28883365 -0.4116764 0.19838794
0.4017278 -0.08391781 0.014392588 0.17037043 0.45258242 0.63725424 -0.564604 -0.2436124
0.29143625 0.5620632 0.62643605 0.6060285 0.1542737 -0.6023991 0.052904148 -0.43792123
-0.6723591 0.6197572 0.5538406 -0.69519746 0.120115094 -0.11973511 -0.104502104 -0.31440318
0.28408203 -0.4309746 0.2638167 0.36539385 0.52144504 0.260779 -0.69001305 -0.46949494
0.34306583 0.14378521 -0.5435638 -0.4007591 0.67355925 0.4796643 -0.31917217 -0.17738166
-0.67662364 -0.0022959916 -0.54379165 -0.51478374 -0.039749596 0.11300539 -0.3036522 0.40848523
-0.4180883 0.6418517 0.49826372 -0.6066979 -0.16381562 0.0350728 0.11935861 0.1590699
0.26444256 0.045207117 -0.33174664 0.31897917 -0.6651124 -0.41590708 -0.16500835 -0.33621523
00000000: 369d 8ebc 3ad5 c13e 3c0c 17bf ecef 05bf
00000010: 92ef 86be aad3 433e a2ec b338 cc6c 0c3f
00000020: 0697 46bd 1869 403e 273a 62be dbbf 06be
00000030: a7e2 29bf a978 ecbe 5c81 91be 3951 ea3c
00000040: 8e17 8a3e 0e29 d83e 797d fbbe 850b 98be
00000050: 86e8 893e 5636 163f 6bc4 0abe b03f 073f
00000060: e22f cfbd 0c6a 863d 10cf 273f 2f54 2dbf
00000070: 72e6 dcbe 3fa4 34be 9a6b 94be aaf0 1a3f
00000080: ca00 e6be 275c a2be 967c f8be 3918 2abf
00000090: 0751 dabe 0612 173f 4c3e a83e 87c6 af3e
000000a0: 0698 563d cb3b b4be a72f de3d 76bb 2bbf
000000b0: 1168 ffbe c1ab c2be 7efa eb3e 52a2 cd3e
000000c0: 99f4 9bbe 489d 9dbc eb7f ec3e fe11 2d3f
000000d0: 9df9 963e 9667 9f3d febc fa3e 75d4 c6be
000000e0: a12e 143e 9341 0bbf 6133 00bf e6a7 b8be
000000f0: ef02 9e3e 01e2 933e 40c7 d2be 3526 4b3e
00000100: 44af cd3e 1add abbd e4ce 6b3c 9675 2e3e
00000110: e2b8 e73e 1823 233f e389 10bf 8775 79be
00000120: 2237 953e 60e3 0f3f 1d5e 203f af24 1b3f
00000130: edf9 1d3e d436 1abf 05b2 583d 3637 e0be
00000140: ba1f 2cbf 68a8 1e3f 7fc8 0d3f 76f8 31bf
00000150: e7fe f53d ae37 f5bd 3305 d6bd 74f9 a0be
00000160: 3373 913e b4a8 dcbe fc12 873e e714 bb3e
00000170: 6c7d 053f d384 853e b2a4 30bf a461 f0be
00000180: 53a6 af3e 6e3c 133e ff26 0bbf 4c30 cdbe
00000190: 616e 2c3f 8f96 f53e 896a a3be 8aa3 35be
000001a0: 3537 2dbf 5978 16bb ee35 0bbf dec8 03bf
000001b0: 79d0 22bd 5f6f e73d 4d78 9bbe fa24 d13e
000001c0: ab0f d6be 6550 243f 6c1c ff3e 8e50 1bbf
000001d0: 48bf 27be 7fa8 0f3d 4972 f43d 38e3 223e
000001e0: 0465 873e 192b 393d b2da a9be 3d51 a33e
000001f0: ce44 2abf c6f1 d4be f3f7 28be 6724 acbe

layers.0.fc.bias f4 [64]
-0.24172936 -0.57191193 -0.15718876 0.15769862 -0.46811518 -0.04182198 0.5005362 -0.078698486
0.025115432 -0.05131025 0.13601124 0.44860852 0.6779863 0.4339209 0.6831036 -0.046305053
-0.6434165 -0.3421527 0.48738357 -0.011354676 -0.360998 -0.53666425 -0.665631 -0.59970635
-0.15008056 0.39170268 0.37794206 -0.66962737 0.44986394 -0.5456454 -0.13916983 -0.29605418
-0.14280912 -0.14883338 -0.6379654 -0.6144763 -0.10642085 0.013180219 -0.3271551 0.27336726
-0.62274504 -0.051691517 0.62947273 -0.29589862 0.6330397 0.2469474 -0.6309329 0.45517102
-0.07558988 -0.32283658 0.55644625 -0.56353676 0.06999324 -0.137701 0.4988959 0.20253251
0.35099083 0.24250175 -0.1777947 -0.14382887 -0.59365904 0.39089298 0.55628234 0.4864785
00000000: e787 77be d268 12bf 17f6 20be bf7b 213e
00000010: cbac efbe 864d 2bbd 2423 003f ac2c a1bd
00000020: e1be cd3c b22a 52bd 8846 0b3e 04b0 e53e
00000030: 8390 2d3f e12a de3e e1df 2e3f 5eaa 3dbd
00000040: f2b6 24bf a42e afbe 578a f93e f708 3abc
00000050: bbd4 b8be d462 09bf cb66 2abf 5b86 19bf
00000060: b8ae 19be 418d c83e 9f81 c13e b36c 2bbf
00000070: 9154 e63e 6baf 0bbf 8982 0ebe 6a94 97be
00000080: 8e3c 12be c767 18be b351 23bf 524e 1dbf
00000090: 2df3 d9bd d8f1 573c e080 a7be cbf6 8b3e
000000a0: 386c 1fbf 7cba 53bd 2025 213f 0680 97be
000000b0: e40e 223f c7df 7c3e d284 21bf 2d0c e93e
000000c0: dece 9abd d64a a5be 4373 0e3f f243 10bf
000000d0: 9e58 8f3d 7e01 0dbe 496f ff3e af64 4f3e
000000e0: 12b5 b33e 6152 783e d00f 36be e047 13be
000000f0: 0afa 17bf 2023 c83e 8568 0e3f b613 f93e

layers.1.fc.weight f4 [64, 128]
-0.06713639 0.004896478 -0.047516026 -0.043753717 -0.05649078 0.0433129 -0.042953588 0.0121721
-0.007524372 0.069296055 -0.07428581 -0.05438081 -0.04483039 0.047524173 -0.023343956 0.087814756
0.030268481 0.017032035 0.007079255 -0.02902754 0.0049855113 -0.025733823 -0.0021068498 0.002508733
-0.054326825 -0.049683284 0.07042538 -0.07951217 -0.004283617 0.087904036 0.021883527 0.014210887
-0.08751115 0.037404742 -0.07140103 -0.024815448 -0.039307114 -0.02403623 -0.005685188 0.076214045
0.01977971 0.067498304 0.05871822 -0.058821995 0.041405722 -0.066760406 -0.046400804 0.03590038
0.01816746 0.07523978 -0.03119233 -0.0022282724 0.057099395 -0.0735013 0.07000652 -0.06363427
0.009599618 -0.031579994 -0.03990146 0.003053528 0.065329544 -0.017360037 -0.042846404 -0.025390873
-0.09284737 0.03688836 -0.047788884 -0.05425357 -0.056673907 0.047339365 0.049751706 0.063367106
0.034198634 -0.031547986 -0.021093985 0.031430814 0.07844454 0.027697327 -0.037369683 -0.045343325
-0.087603115 0.016208027 -0.044835374 -0.07765101 0.071962535 -0.062446572 -0.0137935355 0.02153353
-0.0018171495 -0.05649202 -0.06648718 0.06573296 0.01964775 0.06971119 -0.033539392 0.021375325
-0.024829648 -0.009560747 -0.05708622 0.026256977 0.026482057 -0.0004448807 -0.024960995 -0.049275026
0.05729378 -0.06845158 0.04197154 -0.034930147 -0.037258603 0.020242263 -0.049800936 0.023194179
0.013683614 -0.06860666 0.017475009 0.03282544 0.037479833 -0.013651327 -0.06666409 -0.008498468
0.035350446 -0.02785906 0.02796762 0.053677645 -0.05142537 0.0060450383 0.039615016 0.011930416
2.9575212e-06 0.010626563 -0.06161231 0.008204597 0.054541856 0.0933208 0.062239327 0.025945824
0.028963976 -0.030023813 -0.08171101 -0.070445195 0.09541811 0.048393928 -0.05210551 0.04271298
0.063488364 0.09388183 0.08412452 0.055995416 -0.02595562 -0.035750173 0.06958168 0.040090628
-0.04200417 0.07618227 0.044616293 0.0405637 -0.050178625 0.02402376 -0.04182565 0.07466677
-0.026693014 0.026065925 0.0064523127 0.035527315 -0.041012373 0.031238353 -0.06675141 0.026638838
-0.057545528 -0.09686166 -0.06476678 0.06686627 0.052325867 0.07953888 0.061347555 -0.068449624
-0.07179515 -0.0069815135 -0.05818999 0.057362493 -0.05515935 -0.03234922 -0.07860577 -0.041971173
0.07972156 0.061921902 0.06430283 0.058599938 0.07023876 -0.014542388 0.049052775 0.08712263
0.021610757 0.08736655 0.0401477 0.055948656 -0.03801507 0.0452505 0.0154369315 -0.02202841
-0.054412425 -0.0453976 -0.06972787 0.06449146 0.06968916 -0.0057774 -0.045148958 0.06004781
0.053334456 0.0073090154 -0.036557373 0.07583195 0.030711107 -0.07173338 0.08192021 0.061439503
-0.034681395 0.04948325 -0.04566721 -0.019498495 0.082106136 0.001471811 -0.070279546 -0.034132835
-0.03151704 -0.025080469 0.0031861304 0.07920595 -0.0019488808 -0.059404563 0.0004142403 0.049972054
0.03947903 -0.080401056 -0.009038613 -0.06987269 -0.031189645 0.033684637 -0.06836579 0.038238693
0.06690404 0.0060273684 -0.058348544 -0.036248915 0.02624467 -0.06440876 0.050557453 -0.07491065
-0.080307685 -0.0803203 -0.02353109 0.051457096 -0.09034613 0.0795751 -0.030170314 0.03274645
00000000: ce7e 89bd a272 a03b 2aa0 42bd 1937 33bd
00000010: e062 67bd de68 313d 1af0 2fbd 7d6d 473c
00000020: 028f f6bb 17eb 8d3d 2923 98bd 6abe 5ebd
00000030: 12a0 37bd b5a8 423d d33b bfbc 39d8 b33d
00000040: 9bf5 f73c c486 8b3c 18f9 e73b 2acb edbc
00000050: 805d a33b bdcf d2bc 1313 0abb 8e69 243b
00000060: ce85 5ebd b380 4bbd 2e3b 903d 47d7 a2bd
00000070: 955d 8cbb 0807 b43d 1545 b33c c8d4 683c
00000080: 0c39 b3bd b735 193d b43a 92bd c449 cbbc
00000090: 7f00 21bd a1e7 c4bc d04a babb 1c16 9c3d
000000a0: 0f09 a23c 8d3c 8a3d 8482 703d 55ef 70bd
000000b0: 0c99 293d aeb9 88bd c50e 3ebd 470c 133d
000000c0: edd3 943c 5017 9a3d 0f87 ffbc 3508 12bb
000000d0: 0ee1 693d d987 96bd 945f 8f3d af52 82bd
000000e0: b747 1d3c 065a 01bd b76f 23bd b31d 483b
000000f0: 7fcb 853d a336 8ebc b67f 2fbd 8500 d0bc
00000100: c326 bebd 4018 173d 47be 43bd fe38 5ebd
00000110: e622 68bd ece6 413d 72c8 4b3d 9dc6 813d
00000120: de13 0c3d 7638 01bd 4bcd acbc 99bd 003d
00000130: 88a7 a03d 81e5 e23c f410 19bd ecb9 39bd
00000140: 4369 b3bd b2c6 843c 4ca5 37bd 7e07 9fbd
00000150: 1861 933d fac7 7fbd 48fe 61bc 1667 b03c
00000160: 6b2d eeba 2d64 67bd 6e2a 88bd 019f 863d
00000170: 51f4 a03c bec4 8e3d 9a60 09bd 4e1b af3c
00000180: 8c67 cbbc aea4 1cbc 3dd3 69bd df18 d73c
00000190: e6f0 d83c e03e e9b9 007b ccbc 9cd4 49bd
000001a0: e2ac 6a3d 5830 8cbd 59ea 2b3d ea12 0fbd
000001b0: 7a9c 18bd 1ad3 a53c 11fc 4bbd b801 be3c
000001c0: 3d31 603c a681 8cbd c027 8f3c f873 063d
000001d0: 7484 193d d1a9 5fbc 2f87 88bd 293d 0bbc
000001e0: a1cb 103d af38 e4bc 5a1c e53c 17dd 5b3d
000001f0: 69a3 52bd 7515 c63b 5b43 223d cb77 433c
00000200: d479 4636 091b 2e3c 315d 7cbd 936c 063c
00000210: 4867 5f3d fa1e bf3d aaee 7e3d 568c d43c
00000220: dc45 ed3c 80f4 f5bc 1a58 a7bd 9245 90bd
00000230: 926a c33d b638 463d 966c 55bd cef3 2e3d
00000240: 3006 823d 1e45 c03d 7a49 ac3d 735b 653d
00000250: e1a0 d4bc c66e 12bd d780 8e3d 1236 243d
00000260: 910c 2cbd 7305 9c3d 93bf 363d 1f26 263d
00000270: 1a88 4dbd 7acd c43c 5f51 2bbd e4ea 983d
00000280: 4fab dabc 3588 d53c ec6d d33b 1785 113d
00000290: 97fc 27bd 93e7 ff3c f7b4 88bd b139 da3c
000002a0: dcb4 6bbd 685f c6bd 72a4 84bd 2ff1 883d
000002b0: a653 563d 48e5 a23d 9347 7b3d 512f 8cbd
000002c0: 5609 93bd 2ec5 e4bb a158 6ebd eff4 6a3d
000002d0: c5ee 61bd 9e80 04bd 10fc a0bd f7e9 2bbd
000002e0: 0f45 a33d d2a1 7d3d 34b1 833d 7d06 703d
000002f0: 57d9 8f3d 3243 6ebc 90eb 483d 596d b23d
00000300: 0b09 b13c 3ced b23d ea71 243d 6b2a 653d
00000310: b1b5 1bbd 9758 393d 2feb 7c3c ed74 b4bc
00000320: 90df 5ebd d5f2 39bd 7ccd 8ebd 1914 843d
00000330: 31b9 8e3d 5850 bdbb 1dee 38bd b1f4 753d
00000340: 3b75 5a3d 7780 ef3b 2fbd 15bd c84d 9b3d
00000350: dc95 fb3c f3e8 92bd c8c5 a73d fda7 7b3d
00000360: 140e 0ebd f3ae 4a3d 8a0d 3bbd 4fbb 9fbc
00000370: 4327 a83d c8e9 c03a b9ee 8fbd dfce 0bbd
00000380: 0318 01bd 8e75 cdbc 66ce 503b bb36 a23d
00000390: 9771 ffba 3352 73bd 642e d939 7faf 4c3d
000003a0: c3b4 213d 4fa9 a4bd b116 14bc 6a19 8fbd
000003b0: 6d81 ffbc e7f8 093d 5d03 8cbd 2da0 1c3d
000003c0: fc04 893d 3b81 c53b e2fe 6ebd be79 14bd
000003d0: 10ff d63c bde8 83bd 5515 4f3d c16a 99bd
000003e0: 5b78 a4bd f87e a4bd 46c4 c0bc adc4 523d
000003f0: 6407 b9bd 45f8 a23d bc27 f7bc 2421 063d

layers.1.fc.bias f4 [64]
0.07139517 0.0003119598 -0.038473662 0.001798637 0.032390993 -0.017807731 0.028616054 0.030910367
-0.050367586 0.08606944 0.052184008 -0.010886666 0.0660685 -0.031300794 -0.0050787856 0.042808387
-0.07239628 -0.028070599 -0.0515297 -0.014852516 -0.039984412 -0.024383929 -0.025413228 0.061287537
0.014952225 -0.09095064 -0.050488718 -0.013584832 0.035852652 0.060339034 0.0879396 -0.06611996
0.076663926 0.051025376 -0.051057115 -0.06679241 -0.061762676 0.008910123 -0.026062168 -0.079326846
-0.03109019 0.047562953 0.00050259085 -0.07722318 -0.06440852 0.026543673 0.04351509 -0.03610037
-0.06565494 0.030922582 -0.055338215 -0.07073347 0.07404627 0.032815576 -0.021926437 0.019774025
0.06620912 -0.075108424 -0.023911605 -0.021870803 -0.09476892 0.082199946 -0.08992783 -0.04154055
00000000: a237 923d 898e a339 8f96 1dbd 3ec0 eb3a
00000010: 6bac 043d 85e1 91bc 376c ea3c bd37 fd3c
00000020: 3e4e 4ebd 2d45 b03d e6be 553d fd5d 32bc
00000030: ec4e 873d 4335 00bd f16b a6bb d957 2f3d
00000040: 8044 94bd 50f4 e5bc cf10 53bd f857 73bc
00000050: b2c6 23bd cec0 c7bc 672f d0bc a408 7b3d
00000060: 2dfa 743c 5444 babd 42cd 4ebd ea92 5ebc
00000070: 3bda 123d 1026 773d ad19 b43d e769 87bd
00000080: fa01 9d3d fcff 503d 4421 51bd 76ca 88bd
00000090: dcfa 7cbd c4fb 113c 5480 d5bc 1d76 a2bd
000000a0: dbb0 febc 5fd1 423d 4dc0 033a 3027 9ebd
000000b0: 9de8 83bd 1e72 d93c e13c 323d fbdd 13bd
000000c0: 1976 86bd 5b51 fd3c 53aa 62bd b6dc 90bd
000000d0: 92a5 973d a069 063d 129f b3bc 23fd a13c
000000e0: a698 873d 72d2 99bd 45e2 c3bc 662a b3bc
000000f0: 3516 c2bd 7258 a83d 152c b8bd 6c26 2abd

layers.2.gsds.0.weight f4 [2, 64]
0.05905968 0.107687175 -0.043895967 0.10826128 -0.009768382 -0.10960883 -0.110580064 -0.054218482
-0.008764105 0.10585895 -0.051009167 -0.015415836 0.092159435 -0.025470503 0.061718617 -0.007801922
-0.056320183 -0.08896397 0.12470528 -0.07152446 0.007018747 0.037680812 0.015168818 -0.017955396
-0.032808382 -0.048030704 0.037967853 -0.042994957 0.053639725 0.05427483 0.04173147 -0.06652477
-0.093477055 -0.043883797 0.033154972 0.007004952 0.112888955 0.0855178 -0.06080205 0.097714916
-0.075330846 -0.04598524 0.09972046 -0.09775536 -0.02906921 -0.10154734 0.051408954 0.09831963
0.11668601 -0.048569188 -0.09684488 0.06079887 -0.07952817 -0.04526818 -0.09718998 0.099409066
-0.008515273 0.014930618 0.0009246943 0.021248292 -0.06072211 0.12876582 -0.106683746 -0.0074879485
-0.076426096 -0.09604056 0.054227214 0.1052938 0.068441786 0.027701342 0.07280912 0.056084245
-0.04484536 -0.06602353 0.052543413 0.074968435 0.07519262 0.011047582 0.11565221 -0.10339711
0.039722703 0.096374325 -0.0032721786 0.089797646 0.121125646 -0.0964788 0.071944624 0.07017908
0.05463369 0.07794104 0.089085355 0.051839877 0.07514046 -0.12805673 -0.1399204 0.051731445
0.14020486 -0.056124527 0.10642511 -0.030366493 0.07305177 -0.00074121414 0.069785215 -0.050174117
-0.1190044 0.07808958 -0.062466256 0.090255804 0.033338223 -0.040251106 0.13161655 0.11055986
-0.05182502 0.04399929 0.047615882 -0.09165473 0.0033893955 -0.123360604 0.0019648015 -0.122491434
0.097416505 0.076492846 0.097458825 0.03569661 -0.046270616 0.053979084 0.043656275 0.059878606
00000000: 90e8 713d 188b dc3d 42cc 33bd 17b8 dd3d
00000010: 900b 20bc 987a e0bd cd77 e2bd 3314 5ebd
00000020: 5297 0fbc 94cc d83d fdee 50bd b492 7cbc
00000030: 16be bc3d 84a7 d0bc a9cc 7c3d 44a7 ffbb
00000040: feaf 66bd be32 b6bd 7b65 ff3d 6b7b 92bd
00000050: 84fd e53b 3257 1a3d a286 783c 3217 93bc
00000060: 1562 06bd d8bb 44bd 2e84 1b3d 7b1b 30bd
00000070: 54b5 5b3d 494f 5e3d 9eee 2a3d 233e 88bd
00000080: e670 bfbd 7fbf 33bd 82cd 073d cc89 e53b
00000090: 5332 e73d f523 af3d 920b 79bd c21e c83d
000000a0: 0f47 9abd 055b 3cbd 3e3a cc3d f633 c8bd
000000b0: 8d22 eebc 0df8 cfbd 3292 523d cd5b c93d
000000c0: 13f9 ee3d 7cf0 46bd 9c56 c6bd 3c08 793d
000000d0: aadf a2bd 216b 39bd 8a0b c7bd fb96 cb3d
000000e0: a583 0bbc 8d9f 743c 2f67 723a e610 ae3c
000000f0: bfb7 78bd 30db 033e 027d dabd 775d f5bb
00000100: 4985 9cbd eab0 c4bd 5b1d 5e3d 47a4 d73d
00000110: 352b 8c3d eded e23c f31c 953d 98b8 653d
00000120: c5af 37bd 5837 87bd c337 573d 0d89 993d
00000130: 97fe 993d eb00 353c 11db ec3d ddc1 d3bd
00000140: 46b4 223d e75f c53d 0c72 56bb d4e7 b73d
00000150: b910 f83d ad96 c5bd b457 933d 0dba 8f3d
00000160: 93c7 5f3d 8d9f 9f3d 6272 b63d 0d56 543d
00000170: 3ee3 993d 4e21 03be 4b47 0fbe 5ae4 533d
00000180: dd91 0f3e d5e2 65bd 68f5 d93d 27c3 f8bc
00000190: 2b9c 953d 0a4e 42ba 8deb 8e3d 6083 4dbd
000001a0: 94b8 f3bd 6eed 9f3d 9edc 7fbd 09d8 b83d
000001b0: a98d 083d 58de 24bd 7dc6 063e 356d e23d
000001c0: 7946 54bd 9938 343d df08 433d 7ab5 bbbd
000001d0: 9f20 5e3b 7ca4 fcbd e6c3 003b cadc fabd
000001e0: 4e82 c73d 48a8 9c3d 7e98 c73d 9c36 123d
000001f0: 4286 3dbd 2c19 5d3d ecd0 323d 4543 753d

layers.2.gsds.0.bias f4 [2]
-0.012129756 0.1185419
00000000: e2bb 46bc 18c6 f23d

log_envelope.log_envs.0.weight f4 [2, 1]
0.6939493 0.67351514
00000000: a9a6 313f 7d6b 2c3f

exp_avg f4 [64, 2]
9.622932e-05 -0.00015663795 -0.00039752622 6.9252405e-05 -3.9703216e-05 6.3830186e-05 -5.580931e-05 9.953754e-05
-0.000115070434 0.00015637102 -3.196097e-05 -4.3815824e-05 -0.00021656252 -7.0435424e-05 -4.0318115e-05 8.151156e-06
-3.5090718e-05 2.673448e-06 -0.00032051103 -0.00038150023 0.00026123843 0.000108053115 -2.2107464e-05 2.3935463e-05
-0.00022962662 5.0220173e-05 9.5819996e-05 3.187078e-05 -0.00043697498 -0.000107723856 0.00017239108 0.0001286471
-2.1201586e-06 -0.00010167509 0.00049279176 0.00014240696 1.1645283e-05 0.0009813574 0.0001276862 0.00022469899
-0.00016359516 -0.00018522397 -8.488962e-05 0.00043576155 -3.8799426e-06 6.0931397e-05 -0.00012807465 0.00027594727
-3.4975656e-05 -3.3116583e-05 0.00039022433 0.00027847715 9.6207805e-05 4.264225e-05 -0.0001987076 -0.00042721254
-6.265837e-05 -0.0002198183 -0.00036975264 -7.582316e-05 0.00018356091 3.037697e-05 0.00019520114 0.00020717048
5.1887517e-05 -9.380118e-05 6.163152e-05 7.4946205e-05 0.0002508049 0.00036211472 1.0401169e-05 2.3548907e-08
0.00034877312 0.0003201515 0.00023438802 0.00025328758 3.5281028e-05 -0.0005852014 0.00017659875 -0.0003900447
-0.000189354 0.00045683412 -1.3203617e-05 -0.0001186775 0.00012599469 -0.00018838579 -1.3349366e-05 -0.000265223
1.8612216e-05 0.00021467869 0.00021856453 -3.4995843e-05 -0.0002655467 2.7206532e-05 0.0001791208 9.448735e-06
2.8055709e-05 2.6829151e-05 -5.1398365e-05 -9.401199e-05 0.00020757997 -2.2349788e-05 -0.00025191187 -8.089643e-05
-0.00011709141 -0.00018532728 -0.00058850966 -0.00051841245 0.00011125579 -6.136414e-05 0.00025198865 0.0004509402
-0.00034657554 -5.9714068e-05 2.4905496e-05 0.00013047476 -0.00018741407 -8.876828e-05 -4.4894165e-05 8.630483e-05
0.00034638695 4.498354e-05 -0.00038633225 0.00039178244 -0.00027102046 2.9937353e-05 -0.00030032342 -0.00013345295
00000000: b9ce c938 2e3f 24b9 116b d0b9 9a3b 9138
00000010: 0187 26b8 92dc 8538 ca14 6ab8 cfbe d038
00000020: f851 f1b8 87f7 2339 d50d 06b8 e2c6 37b8
00000030: 0f15 63b9 bbb6 93b8 3f1b 29b8 f3c0 0837
00000040: 5f2e 13b8 7d69 3336 430a a8b9 1804 c8b9
00000050: d4f6 8839 939a e238 6b73 b9b7 04c9 c837
00000060: edc7 70b9 80a3 5238 f8f2 c838 fdac 0538
00000070: ca19 e5b9 cee9 e1b8 e1c3 3439 71e5 0639
00000080: 0c48 0eb6 663a d5b8 b22e 013a 1453 1539
00000090: 1c60 4337 e4a0 803a 81e3 0539 2d9d 6b39
000000a0: be8a 2bb9 ae38 42b9 c506 b2b8 ed76 e439
000000b0: 7430 82b6 9790 7f38 c74b 06b9 04ad 9039
000000c0: d3b2 12b8 a9e6 0ab8 0697 cc39 9200 9239
000000d0: 2cc3 c938 c4da 3238 2a5c 50b9 7ffb dfb9
000000e0: 7567 83b8 077f 66b9 5cdb c1b9 4003 9fb8
000000f0: 427a 4039 0cd2 fe37 e8ae 4c39 e73b 5939
00000100: cca1 5938 20b7 c4b8 2c40 8138 702c 9d38
00000110: 777e 8339 37da bd39 ae80 2e37 9848 ca32
00000120: 89db b639 02da a739 0ec6 7539 afcb 8439
00000130: b7fa 1338 3368 19ba 5e2d 3939 ea7e ccb9
00000140: 548d 46b9 3d83 ef39 1a85 5db7 7fe2 f8b8
00000150: 711d 0439 6d89 45b9 17f7 5fb7 a10d 8bb9
00000160: 6e21 9c37 5f1b 6139 782e 6539 80c8 12b8
00000170: 1339 8bb9 9539 e437 60d2 3b39 0286 1e37
00000180: 2d59 eb37 2a0f e137 9394 57b8 4e28 c5b8
00000190: d3a9 5939 ce7b bbb7 0a13 84b9 f1a6 a9b8
000001a0: f98e f5b8 6a54 42b9 3746 1aba 12e6 07ba
000001b0: ff51 e938 9fb0 80b8 581d 8439 2b6c ec39
000001c0: 95b4 b5b9 7e75 7ab8 25ec d037 0dd0 0839
000001d0: 9584 44b9 1c29 bab8 be4c 3cb8 8efe b438
000001e0: 459b b539 b5ac 3c38 a38c cab9 2668 cd39
000001f0: c017 8eb9 fa21 fb37 ba74 9db9 81ef 0bb9

exp_avg_sq f4 [64, 2]
6.433336e-05 1.49011e-05 6.249428e-05 7.083895e-06 3.2929293e-05 4.0765585e-06 9.298686e-05 3.554778e-06
2.991537e-05 2.658887e-06 6.092487e-06 2.3337998e-06 1.6953949e-06 3.089842e-06 2.2778671e-05 3.3896288e-06
3.876621e-05 2.6044104e-06 0.0002086232 4.768733e-06 5.4247375e-05 2.4146557e-06 3.1149724e-05 1.1606417e-06
2.2345328e-05 4.3945884e-06 4.9086616e-06 1.0171668e-07 0.00013592732 1.648648e-06 0.00034343777 4.616697e-06
2.074171e-05 2.198754e-06 0.00021839044 8.177645e-06 2.6794482e-05 1.922803e-05 0.00012641054 1.231872e-05
0.00010201019 1.5093409e-06 8.595022e-05 1.1771343e-05 7.1167938e-06 1.4602286e-07 0.000108310815 9.1720227e-07
4.7640482e-05 2.491606e-06 9.314588e-06 1.3836701e-06 2.4193421e-05 6.1832014e-07 6.867451e-05 1.8014418e-06
5.4183623e-05 6.731055e-07 0.00017220355 5.728131e-06 0.00016982123 9.231967e-07 5.752431e-05 4.3924342e-07
0.0003226045 2.757305e-05 2.9701785e-05 1.8072732e-06 5.0468374e-05 2.923661e-07 1.6799609e-06 6.533071e-08
0.00012798198 1.75187e-06 4.117243e-06 2.339506e-06 0.00020113903 2.0521153e-05 0.0001228206 4.8859874e-06
6.4843785e-05 2.1805477e-06 2.876249e-05 4.5936604e-06 3.2717926e-05 3.83558e-06 0.00017711584 1.2801505e-05
1.0984009e-05 8.030286e-07 2.3121274e-06 8.225451e-07 7.1028044e-05 1.4236813e-06 5.8796984e-05 2.1495318e-06
0.0001162093 8.341526e-06 3.9759776e-05 7.799347e-06 1.33595395e-05 1.8830149e-06 0.00012279794 7.694199e-06
2.2717854e-06 5.1973407e-06 0.00016044125 2.9846628e-06 2.8034992e-06 3.81692e-06 0.00031034072 1.209539e-05
0.0001280154 1.8416737e-06 8.320503e-05 6.916473e-07 0.00031635194 5.725135e-06 1.596058e-05 1.8599173e-06
4.4580996e-05 5.876226e-07 1.207341e-05 7.564024e-06 3.224114e-05 3.4326695e-06 6.737787e-05 2.846947e-07
00000000: b6ea 8638 bdff 7937 5c0f 8338 32b2 ed36
00000010: 8f1d 0a38 5fc9 8836 f101 c338 9f8e 6e36
00000020: c5f2 fa37 556f 3236 116e cc36 609e 1c36
00000030: 538d e335 155b 4f36 d314 bf37 6179 6336
00000040: e798 2238 6ec7 2e36 ddc1 5a39 1b03 a036
00000050: ad87 6338 780b 2236 c3a6 0238 58c7 9b35
00000060: 3a72 bb37 3a75 9336 15b5 a436 566f da33
00000070: b687 0e39 1d47 dd35 700f b439 20e9 9a36
00000080: 7cfe ad37 4e8e 1336 bdff 6439 b832 0937
00000090: b6c4 e037 e14b a137 128d 0439 80ac 4e37
000000a0: 4eee d538 8f94 ca35 2c40 b438 897d 4537
000000b0: cbcc ee36 75ca 1c34 ed24 e338 a935 7635
000000c0: 94d1 4738 7735 2736 da45 1c37 8bb6 b935
000000d0: faf2 ca37 a3fa 2535 5905 9038 12c9 f135
000000e0: 3943 6338 75af 3435 8a91 3439 4534 c036
000000f0: 0a12 3239 98d1 7735 4246 7138 28d1 eb34
00000100: 3e23 a939 ad4c e737 1928 f937 6f91 f235
00000110: 01ae 5338 7ef6 9c34 047b e135 f04b 8c33
00000120: e732 0639 cb21 eb35 d926 8a36 6800 1d36
00000130: d9e8 5239 d724 ac37 67c9 0039 50f2 a336
00000140: befc 8738 8655 1236 fa46 f137 3e23 9a36
00000150: 9b3a 0938 62b3 8036 2cb8 3939 0cc6 5637
00000160: f647 3837 b58f 5735 0c2a 1b36 decc 5c35
00000170: e4f4 9438 5115 bf35 c89c 7638 ad40 1036
00000180: 65b5 f338 95f2 0b37 bcc3 2638 f1d9 0237
00000190: c922 6037 e6bb fc35 52c3 0039 5516 0137
000001a0: fa74 1836 d164 ae36 1f3c 2839 1e4c 4836
000001b0: c023 3c36 1813 8036 3ab5 a239 4eed 4a37
000001c0: df3b 0639 6d2f f735 5c7e ae38 a4a9 3935
000001d0: 0adc a539 891a c036 16e3 8537 46a2 f935
000001e0: 7bfc 3a38 1ebd 1d35 e78e 4a37 79ce fd36
000001f0: a93a 0738 d05c 6636 384d 8d38 24d8 9834

exp_avg f4 [64]
-7.8788034e-05 6.4941596e-05 2.30788e-05 3.9524843e-05 0.0001598604 0.00010930365 6.939632e-05 0.000120034405
-1.1156468e-05 -0.0004929582 -2.6676937e-05 -5.1662246e-05 -0.00024087037 -1.8656494e-05 -0.00010216265 0.00016524723
0.00013382056 -0.00011148084 1.8234103e-05 0.0001507592 6.128341e-05 8.799059e-05 -2.5042616e-05 0.00031579184
9.0107445e-05 -8.476203e-05 -4.7861227e-05 0.00010406753 -0.00013654972 0.00021548547 -0.00035747973 0.00011406329
0.00027123644 0.00028578567 0.00023849159 0.00020405355 -6.4770065e-06 0.00011998686 -0.00011507685 -8.4486615e-05
6.943066e-05 -0.00046952 -0.00016792136 0.000254188 -3.064686e-05 0.0002506481 0.00015713931 4.177041e-05
-0.00013703953 0.00019978115 6.470612e-05 -0.00014978898 8.589704e-05 6.762934e-05 9.307844e-05 4.9528106e-05
3.9237175e-06 -0.00010806183 9.665569e-05 1.3365015e-05 0.00012139783 -0.00015625841 0.00021333627 -5.0029694e-06
00000000: 013b a5b8 4131 8838 5899 c137 7ac7 2538
00000010: 33a0 2739 f339 e538 de88 9138 fbba fb38
00000020: aa2c 3bb7 dd39 01ba 49c8 dfb7 eaaf 58b8
00000030: 2692 7cb9 8480 9cb7 2840 d6b8 3746 2d39
00000040: 2f52 0c39 d2ca e9b8 70f5 9837 1d15 1e39
00000050: 4885 8038 9787 b838 9c12 d2b7 dd90 a539
00000060: 11f8 bc38 45c2 b1b8 9abe 48b8 d43e da38
00000070: c92e 0fb9 f1f3 6139 1e6c bbb9 4335 ef38
00000080: bd34 8e39 81d5 9539 9913 7a39 35f7 5539
00000090: 1055 d9b6 74a1 fb38 6a55 f1b8 682e b1b8
000000a0: 4d9b 9138 e829 f6b9 0c14 30b9 8944 8539
000000b0: d18a 00b8 6b69 8339 c3c5 2439 a332 2f38
000000c0: 45b2 0fb9 587c 5139 d5b2 8738 ac10 1db9
000000d0: 9f23 b438 3ad4 8d38 1b33 c338 66bc 4f38
000000e0: 7aa8 8336 419f e2b8 a1b3 ca38 4d3a 6037
000000f0: f796 fe38 4cd9 23b9 05b3 5f39 2edf a7b6

exp_avg_sq f4 [64]
0.00044743685 0.00021711735 8.161272e-05 7.586305e-05 5.3900534e-05 4.7208894e-05 8.805297e-05 7.3577576e-05
9.267496e-05 0.00016680907 0.00010241957 6.3187304e-06 9.896142e-05 1.1707149e-06 3.9648454e-05 7.161227e-05
6.0944283e-05 0.00040421326 0.00018149773 0.00040929887 7.762895e-06 0.00016496892 2.061797e-06 6.2091676e-06
5.8133253e-05 6.36795e-06 9.4089387e-07 4.243477e-06 1.9184865e-06 0.00021640156 6.5531276e-06 1.7192444e-05
0.00053786644 3.1633073e-05 3.6247673e-06 6.193794e-07 2.6410336e-05 6.3886604e-05 0.00033057644 0.00013045847
1.4336894e-05 0.0001017135 0.00010234148 0.00029235 2.9124609e-05 2.2623319e-05 5.829814e-05 5.9207203e-05
0.00022072365 0.00024808937 5.7114306e-05 0.00023758491 0.00012548317 2.2480384e-05 9.791886e-05 0.00010945977
2.0437568e-05 3.3336404e-05 8.505264e-05 5.201219e-05 1.6618618e-05 0.00015556223 8.832593e-05 2.2573633e-06
00000000: f595 ea39 ffa9 6339 7f27 ab38 aa18 9f38
00000010: 4213 6238 2a02 4638 14a9 b838 a94d 9a38
00000020: 7e5a c238 78e9 2e39 17ca d638 7b05 d436
00000030: 8289 cf38 7521 9d35 344c 2638 8b2e 9638
00000040: 6d9e 7f38 96ec d339 6d50 3e39 2a97 d639
00000050: 613d 0237 82fb 2c39 675d 0a36 5858 d036
00000060: 1bd4 7338 46ac d536 bc91 7c35 3163 8e36
00000070: 59bf 0036 dae9 6239 f0e2 db36 7e38 9037
00000080: 9bff 0c3a c1ad 0438 0741 7336 6e43 2635
00000090: c48b dd37 dcfa 8538 3851 ad39 aecb 0839
000000a0: 7e88 7037 054f d538 2aa0 d638 8e46 9939
000000b0: 9f50 f437 35c7 bd37 2785 7438 4055 7838
000000c0: 0e72 6739 fe11 8239 058e 6f38 3720 7939
000000d0: 2294 0339 4294 bc37 ca59 cd38 c48d e538
000000e0: 5871 ab37 b1d2 0b38 4a5e b238 aa27 5a38
000000f0: 3668 8b37 6b1e 2339 9f3b b938 357d 1736

exp_avg f4 [64, 128]
-6.0810264e-05 0.00015225359 -4.2333064e-05 -6.3507985e-05 -1.0632691e-05 1.1410161e-05 -3.344508e-05 -1.5952188e-05
-6.977485e-05 5.8947935e-05 -0.00010601659 -1.3251463e-05 -4.2174124e-05 0.00022818246 -7.672159e-05 -0.0001065668
9.4242925e-05 0.00015916885 1.6574704e-05 -5.134612e-05 3.7849342e-05 -1.3598232e-05 0.00010956612 4.3658212e-05
-1.0151725e-06 -0.00015024382 -2.9417515e-05 2.1401638e-05 0.00013030258 0.00011127701 -2.2457863e-05 -4.504258e-05
4.4911845e-05 -1.6904925e-05 -9.634584e-06 0.000102472775 -9.7285134e-05 -0.00015583576 2.08626e-05 8.056906e-05
-0.00021273296 9.37607e-05 -6.7495157e-06 4.7191614e-05 0.00010229081 -6.825672e-05 7.998901e-05 -1.9594163e-05
7.8970635e-07 0.00012343361 -0.0001677391 5.799958e-05 -2.728915e-05 0.0001359823 -3.659628e-05 -4.8382593e-05
1.2524266e-06 0.00016614977 -5.545499e-06 -6.5836407e-06 5.1639312e-05 -3.9135786e-05 -5.991059e-05 1.0585064e-05
-5.4672517e-05 -8.818378e-05 4.5090264e-06 -6.3507185e-05 3.2373828e-06 4.532507e-05 0.00029609745 2.7110964e-05
-9.3632225e-05 8.084452e-05 -8.417867e-05 -3.0185467e-05 -2.479537e-05 0.0001177186 0.00016259286 -4.4694443e-05
-6.549319e-05 6.3548605e-06 3.6884205e-05 -9.4833136e-05 3.9114337e-05 1.5899039e-05 -8.692087e-05 -0.00023771285
2.6432317e-05 1.267165e-05 -1.0423504e-05 -8.431448e-05 6.484968e-05 -6.2226565e-05 -0.00010663097 -1.5032825e-05
-5.7827543e-05 -2.0705203e-05 -0.0003093811 -8.6046515e-05 -0.0001562032 -0.00014775014 3.5216453e-05 6.063003e-05
-0.00014020491 3.0082876e-07 -2.4477591e-05 4.1026575e-05 2.585379e-05 -3.9218558e-05 -0.0002240079 0.0002913439
-7.485624e-05 -2.4143446e-06 9.177061e-05 -1.0882185e-05 8.733062e-05 7.916077e-05 -3.236306e-05 -1.7128922e-06
2.123704e-05 5.5910506e-05 1.953385e-05 -3.9712053e-05 -5.4082113e-05 2.2788265e-05 0.00029676754 9.5255986e-05
2.713058e-05 0.00015631758 1.7042621e-05 4.578308e-05 7.879289e-05 -7.962483e-06 -0.00015450327 4.30046e-06
-6.1183493e-07 2.5499556e-05 -1.9908002e-05 9.424412e-05 -0.00011888753 0.0001821982 -0.00019401673 1.1605331e-05
0.00013483543 0.00010039094 0.00017023421 7.2854345e-06 -7.730007e-06 -0.00016827298 0.00014332402 0.00016859196
2.0764437e-05 -8.715609e-05 -7.351266e-05 -2.1085094e-05 5.2507014e-05 0.00013617288 4.5990728e-05 2.5458345e-05
4.233656e-05 3.9309813e-05 0.00010758678 0.00016296595 -8.906486e-06 -9.73524e-05 -0.00012155053 -9.608692e-06
-0.00017898453 -6.248509e-05 -0.00010342747 1.591016e-05 2.2379725e-05 -3.1536852e-05 0.0002031375 -0.00013528967
3.7107053e-05 0.00011812389 -0.00019104293 0.000109447996 -2.7572436e-05 9.133824e-05 -8.175321e-05 4.0827912e-05
0.00017937626 8.123182e-05 2.9119583e-05 4.6535086e-05 0.00013949379 5.385139e-06 -0.00018692247 -9.3386356e-05
3.2313685e-05 -0.00038311383 7.528709e-08 4.5809575e-05 8.837402e-05 -2.5753045e-05 0.00031841596 -2.361664e-05
2.7610437e-05 -5.0678536e-05 7.725389e-05 2.0051264e-05 -0.00011404981 0.00018517874 0.00013651843 1.926386e-05
-0.00026453065 -0.0002463704 7.220368e-05 1.7305409e-05 1.2751779e-05 -8.3521976e-05 -0.00032567393 -0.00023565156
-3.836655e-05 0.00027770945 5.782518e-05 -8.442635e-05 -2.2738035e-05 -0.00029160097 -1.7179766e-05 -6.416407e-05
-4.9283362e-06 3.79439e-05 -0.0003403629 -0.00031099073 -5.201525e-05 -6.3788684e-06 -4.514545e-05 -2.8155955e-05
-0.00023175312 -3.2836815e-05 -0.000101908605 -3.039699e-05 -3.904466e-05 9.59945e-05 -0.00022693665 0.00030551478
9.319443e-06 -0.00021746429 0.00039105388 -0.00010733584 4.4147746e-06 -9.936455e-05 -8.689109e-05 1.0861588e-05
7.3259675e-05 5.607394e-05 1.10959845e-05 3.0359377e-05 2.0252672e-05 4.457252e-06 0.00032853082 1.3538048e-05
00000000: 860e 7fb8 43a6 1f39 c88e 31b8 972f 85b8
00000010: 0f63 32b7 456e 3f37 6247 0cb8 10d1 85b7
00000020: 1654 92b8 dd3e 7738 3955 deb8 9a52 5eb7
00000030: 1fe4 30b8 4344 6f39 97e5 a0b8 9d7c dfb8
00000040: 49a4 c538 90e6 2639 e809 8b37 7a5c 57b8
00000050: 6cc0 1e38 f623 64b7 ddc6 e538 a61d 3738
00000060: 1041 88b5 c58a 1db9 a2c5 f6b7 ab87 b337
00000070: d5a1 0839 645d e938 e563 bcb7 1aec 3cb8
00000080: ba5f 3c38 0dcf 8db7 39a4 21b7 a7e6 d638
00000090: 8f05 ccb8 d867 23b9 1802 af37 2ff7 a838
000000a0: 1211 5fb9 64a1 c438 e679 e2b6 9cef 4538
000000b0: f684 d638 0c25 8fb8 c6bf a738 255e a4b7
000000c0: 35fc 5335 f56d 0139 1fe3 2fb9 9344 7338
000000d0: 01eb e4b7 7996 0e39 f57e 19b8 6aee 4ab8
000000e0: 0d19 a835 7d38 2e39 7913 bab6 0be9 dcb6
000000f0: 4a97 5838 bb25 24b8 8248 7bb8 8196 3137
00000100: 2b50 65b8 4eef b8b8 3e4c 9736 292f 85b8
00000110: d041 5936 6c1b 3e38 873d 9b39 5a6c e337
00000120: 6b5c c4b8 128b a938 1489 b0b8 cc36 fdb7
00000130: a7ff cfb7 b1df f638 b07d 2a39 4b76 3bb8
00000140: 6359 89b8 d63b d536 1db4 1a38 27e1 c6b8
00000150: b30e 2438 ed5e 8537 4949 b6b8 8f42 79b9
00000160: f8ba dd37 5398 5437 9ce0 2eb7 fed1 b0b8
00000170: e8ff 8738 a27f 82b8 119f dfb8 7e35 7cb7
00000180: da8b 72b8 16b0 adb7 6e34 a2b9 df73 b4b8
00000190: 7aca 23b9 60ed 1ab9 61b5 1338 004d 7e38
000001a0: f803 13b9 9781 a134 3a55 cdb7 f313 2c38
000001b0: 97e0 d837 9b7e 24b8 aae3 6ab9 84bf 9839
000001c0: 23fc 9cb8 2006 22b6 f974 c038 a192 36b7
000001d0: 4525 b738 1d03 a638 92bd 07b8 87e6 e5b5
000001e0: 3226 b237 7381 6a38 a0dc a337 7e90 26b8
000001f0: 3ad6 62b8 6d29 bf37 7797 9b39 2bc4 c738
00000200: 7a96 e337 2ee9 2339 c0f6 8e37 3507 4038
00000210: 9c3d a538 9b96 05b7 2802 22b9 ac4c 9036
00000220: fa3c 24b5 e1e7 d537 1c00 a7b7 eda4 c538
00000230: 4253 f9b8 750c 3f39 f870 4bb9 84b4 4237
00000240: 9c62 0d39 fa88 d238 e680 3239 6875 f436
00000250: 21b0 01b7 6f72 30b9 4049 1639 0fc8 3039
00000260: 4a2f ae37 92c7 b6b8 cf2a 9ab8 e5df b0b7
00000270: fa3a 5c38 a1c9 0e39 2be6 4038 618f d537
00000280: 8992 3138 97e0 2438 36a0 e138 d7e1 2a39
00000290: 116d 15b7 ac29 ccb8 f2e8 feb8 0535 21b7
000002a0: cbad 3bb9 6d0a 83b8 33e7 d8b8 cf76 8537
000002b0: 18bc bb37 7046 04b8 4f01 5539 8bdc 0db9
000002c0: 65a3 1b38 48b9 f738 b252 48b9 7287 e538
000002d0: 5b4b e7b7 d88c bf38 ec72 abb8 a33e 2b38
000002e0: f316 3c39 005b aa38 d445 f437 ab2e 4338
000002f0: 1445 1239 feb1 b436 9e00 44b9 6bd8 c3b8
00000300: 8e88 0738 abdc c8b9 84ad a133 a823 4038
00000310: 7155 b938 3e08 d8b7 11f1 a639 591c c6b7
00000320: f69c e737 aa8f 54b8 5e03 a238 c333 a837
00000330: 072e efb8 8a2c 4239 6326 0f39 d398 a137
00000340: b4b0 8ab9 462b 81b9 0e6c 9738 152b 9137
00000350: 79f0 5537 8528 afb8 37bf aab9 3c19 77b9
00000360: c5eb 20b8 8899 9139 5089 7238 0d0e b1b8
00000370: 8fbd beb7 05e2 98b9 441d 90b7 d38f 86b8
00000380: 165e a5b6 f425 1f38 bc72 b2b9 780c a3b9
00000390: f32a 5ab8 100a d6b6 8f5a 3db8 7430 ecb7
000003a0: c102 73b9 43ba 09b8 c4b7 d5b8 0afd feb7
000003b0: e2c3 23b8 a850 c938 d8f5 6db9 802d a039
000003c0: b45a 1c37 2007 64b9 5d06 cd39 7e19 e1b8
000003d0: a022 9436 f061 d0b8 4c39 b6b8 2a3a 3637
000003e0: fda2 9938 ef30 6b38 e428 3a37 44ac fe37
000003f0: 48e4 a937 818f 9536 a93e ac39 7921 6337

exp_avg_sq f4 [64, 128]
5.859672e-06 9.605433e-06 2.082729e-06 3.17452e-06 1.5655056e-05 3.1318505e-06 7.614479e-05 4.4401513e-06
6.6089556e-06 1.5120114e-05 3.7939674e-06 2.4723628e-05 4.1474133e-05 7.508735e-06 6.740722e-05 4.5938637e-06
1.3060126e-05 6.6040943e-06 4.5167082e-05 9.707514e-06 1.3159743e-05 2.9263036e-05 1.3185576e-05 6.354365e-05
3.4891173e-06 6.5845784e-06 5.1271145e-06 6.503183e-05 1.0665971e-05 9.206274e-06 1.7668906e-05 3.904524e-06
2.1527125e-05 2.670123e-06 6.469385e-05 1.0322426e-05 1.3146032e-05 2.5752373e-05 1.6036069e-05 4.941194e-06
8.302812e-06 2.4238992e-05 2.3635674e-05 4.756548e-06 1.7193055e-05 3.0897293e-06 7.130387e-05 7.374796e-05
1.5227193e-05 7.5314465e-06 9.098925e-06 1.3271961e-05 3.874417e-05 1.32143305e-05 2.385188e-05 1.7501714e-05
3.5791603e-05 6.7574983e-06 9.590897e-07 5.716889e-06 4.699401e-05 3.4820958e-05 8.0684185e-05 3.1958363e-05
6.136194e-06 2.015154e-05 2.1062847e-06 2.9153155e-06 1.8816307e-05 4.6312587e-07 1.5563988e-05 6.510315e-07
1.2141696e-06 1.5582484e-06 3.2725152e-06 1.7145721e-05 3.435071e-05 1.27261355e-05 2.9559915e-05 5.6377945e-07
2.595426e-05 9.364668e-06 1.7391314e-05 1.076683e-06 1.1430432e-05 2.3314538e-05 2.6530846e-05 2.37738e-05
2.0556922e-06 1.1861469e-05 1.2282124e-05 3.034986e-05 1.7084403e-05 2.007756e-05 2.782104e-06 6.6297607e-06
1.9232762e-06 2.084622e-06 2.5038084e-05 2.2961916e-05 2.507349e-06 2.4349551e-06 9.567909e-06 7.119611e-06
2.352419e-05 2.2235699e-07 3.0523734e-05 7.9432175e-06 3.0333475e-05 6.2578265e-06 2.5805131e-05 1.2798526e-05
1.2340187e-06 7.859549e-06 1.8247736e-05 2.407733e-05 1.4058946e-06 3.4580783e-06 2.177205e-05 3.5363846e-06
9.050577e-06 4.8634806e-06 2.8137047e-06 2.3779705e-06 2.618703e-05 1.21636895e-05 1.8381574e-05 1.9458754e-05
1.7225682e-05 2.473836e-05 2.8434467e-06 7.163885e-06 4.2500604e-05 5.4778197e-06 0.00015768377 6.4221094e-06
1.3838244e-05 2.677809e-05 9.202926e-06 5.3606964e-05 0.000100220655 1.3158025e-05 0.0001505883 6.381565e-06
3.5825746e-05 1.4947687e-05 9.026992e-05 1.9128858e-05 2.9919996e-05 6.475249e-05 3.6027475e-05 0.00014156502
5.080653e-06 1.6198892e-05 1.4349068e-05 0.00013906824 3.313742e-05 2.4494639e-05 3.6382145e-05 6.668495e-06
3.8823342e-05 7.1383547e-06 0.00014700546 2.8216562e-05 2.9982464e-05 4.9332226e-05 3.290059e-05 1.600007e-05
2.3691513e-05 3.618349e-05 6.381311e-05 1.2160003e-05 5.1259747e-05 7.5146218e-06 0.0001561066 0.00015014224
2.8510185e-05 1.4130547e-05 2.2083988e-05 3.651487e-05 6.617101e-05 2.4808685e-05 5.8114296e-05 3.1707266e-05
6.65651e-05 8.9474615e-06 2.4046633e-06 1.3363844e-05 0.00010754196 7.02404e-05 0.00016834577 7.72797e-05
1.780744e-05 4.5569835e-05 5.0878098e-06 6.7246433e-06 4.8584945e-05 1.3963545e-06 4.5885943e-05 1.5214299e-06
4.442861e-06 5.0511358e-06 8.371228e-06 4.0389827e-05 8.7039596e-05 3.2237687e-05 7.93393e-05 2.2014306e-06
6.0005874e-05 2.1491e-05 4.252904e-05 4.2687384e-06 2.682746e-05 5.4428805e-05 6.107045e-05 6.607903e-05
4.6501627e-06 2.6844433e-05 2.8735541e-05 7.712402e-05 4.648111e-05 4.5796707e-05 9.739507e-06 1.5844389e-05
5.952718e-06 6.029662e-06 7.049908e-05 5.2943687e-05 9.936554e-06 9.142631e-06 2.1813317e-05 2.0476571e-05
5.9187987e-05 5.2565315e-07 7.693959e-05 1.8073462e-05 7.781732e-05 1.4085557e-05 7.062105e-05 3.869213e-05
4.715615e-06 1.7983877e-05 4.1300158e-05 5.685386e-05 5.3912763e-06 9.455722e-06 5.4306707e-05 8.472277e-06
2.1752221e-05 1.2758922e-05 6.6443354e-06 7.1882328e-06 6.879926e-05 3.0778105e-05 5.295859e-05 5.3285617e-05
00000000: 339e c436 0527 2137 03c5 0b36 d709 5536
00000010: fa52 8337 c82c 5236 ecaf 9f38 9cfc 9436
00000020: 7fc2 dd36 65ac 7d37 dd9b 7e36 9665 cf37
00000030: 83f4 2d38 8bf3 fb36 fa5c 8d38 fd24 9a36
00000040: d01c 5b37 bd98 dd36 c971 3d38 75dd 2237
00000050: aac8 5c37 e479 f537 9e37 5d37 bd42 8538
00000060: 9426 6a36 19f1 dc36 9409 ac36 b361 8838
00000070: fff1 3237 a574 1a37 b037 9437 9b03 8336
00000080: 2695 b437 5d30 3336 3fac 8738 7b2e 2d37
00000090: c78d 5c37 cd06 d837 3285 8637 89cc a536
000000a0: 4e4c 0b37 d754 cb37 3945 c637 709a 9f36
000000b0: ce39 9037 2559 4f36 f988 9538 22a9 9a38
000000c0: 4c78 7f37 a2b6 fc36 96a7 1837 a3aa 5e37
000000d0: 3c81 2238 1eb3 5d37 8615 c837 a5d0 9237
000000e0: f11e 1638 78be e236 12ba 8035 b4d3 bf36
000000f0: 6f1b 4538 b80c 1238 fe34 a938 080b 0638
00000100: 81e5 cd36 1a0b a937 b259 0d36 bda4 4336
00000110: b6d7 9d37 89a3 f834 698f 8237 8bc2 2e35
00000120: 8df6 a235 0225 d135 629d 5b36 28d4 8f37
00000130: cb13 1038 5682 5537 6ff7 f737 a156 1735
00000140: 59b8 d937 f11c 1d37 90e3 9137 8c82 9035
00000150: 55c5 3f37 9793 c337 8f8e de37 d96d c737
00000160: 86f4 0936 9f00 4737 520f 4e37 d497 fe37
00000170: 7a50 8f37 3b6c a837 2fb4 3a36 3675 de36
00000180: a211 0136 89e5 0b36 e008 d237 579e c037
00000190: ee43 2836 3668 2336 db85 2037 fee4 ee36
000001a0: d055 c537 06c1 6e34 9c06 0038 dc43 0537
000001b0: a474 fe37 52fa d136 1978 d837 40b9 5637
000001c0: 8fa0 a535 82dc 0337 b712 9937 acf9 c937
000001d0: 2cb2 bc35 5511 6836 1fa3 b637 a052 6d36
000001e0: efd7 1737 fb30 a336 14d3 3c36 3995 1f36
000001f0: 38ac db37 a612 4c37 2132 9a37 5b3b a337
00000200: df7f 9037 3985 cf37 0bd2 3e36 4e61 f036
00000210: ad42 3238 1dce b736 ea57 2539 807d d736
00000220: ce2a 6837 83a1 e037 4466 1a37 0ad8 6038
00000230: 8e2d d238 49c1 5c37 3de7 1d39 3a21 d636
00000240: 9a43 1638 d4c7 7a37 4b4f bd38 e976 a037
00000250: b4fc fa37 bacb 8738 351c 1738 1271 1439
00000260: 7a7a aa36 dbe2 8737 c7bc 7037 d9d2 1139
00000270: 09fd 0a38 d679 cd37 0899 1838 f0c1 df36
00000280: 3fd6 2238 0086 ef36 7a25 1a39 9bb2 ec37
00000290: da82 fb37 13ea 4e38 bdfe 0938 e437 8637
000002a0: 23bd c637 bac3 1738 67d3 8538 d102 4c37
000002b0: bcff 5638 1c26 fc36 8cb0 2339 806f 1d39
000002c0: 2829 ef37 3d12 6d37 0141 b937 8b27 1938
000002d0: 4ac5 8a38 3f1c d037 c0bf 7338 6bfd 0438
000002e0: de98 8b38 0e1d 1637 cd5f 2136 4635 6037
000002f0: 2688 e138 074e 9338 f985 3039 3911 a238
00000300: 3061 9537 3d22 3f38 f4b7 aa36 3fa4 e136
00000310: b0c7 4b38 606a bb35 a875 4038 ef33 cc35
00000320: e313 9536 ed7c a936 2772 0c37 3f68 2938
00000330: 0789 b638 f436 0738 f662 a638 4abc 1336
00000340: d1ae 7b38 9247 b437 3561 3238 2f3c 8f36
00000350: 880b e137 7c4a 6438 f312 8038 e993 8a38
00000360: 9808 9c36 fb2f e137 1b0d f137 a5bd a138
00000370: b6f4 4238 d715 4038 dd66 2337 91e9 8437
00000380: 75bd c736 6752 ca36 e8d8 9338 da0f 5e38
00000390: 2db5 2637 4d63 1937 befb b637 1ac5 ab37
000003a0: 9e40 7838 9c1a 0d35 a15a a138 779c 9737
000003b0: db31 a338 0251 6c37 631a 9438 5c49 2238
000003c0: d33a 9e36 15dc 9637 b539 2d38 5e76 6e38
000003d0: b6e6 b436 04a4 1e37 62c7 6338 2724 0e37
000003e0: 8a78 b637 270f 5637 68f2 de36 7332 f136
000003f0: 5248 9038 bd17 0138 da1f 5e38 ff7e 5f38

exp_avg f4 [64]
-5.6915178e-05 -0.00020821775 5.149388e-05 5.905949e-05 2.5534506e-05 0.00022035341 6.0814968e-05 -1.2172681e-05
-2.5497142e-05 -0.00018542212 5.2777403e-05 2.7002548e-05 -0.00023956753 6.3918094e-05 -0.00012079844 -5.768785e-05
0.000111313515 0.00019380022 -0.00028217403 0.0002027194 2.2588536e-05 6.619257e-05 -7.264154e-06 1.20900895e-05
7.669689e-05 -1.2303846e-05 -5.7973633e-05 4.6386755e-05 -9.4308394e-05 -8.790096e-05 -0.00035508757 0.00016357924
0.00017515152 8.338148e-05 -2.6231783e-05 -1.4434163e-05 -0.0002552553 -0.00022443019 0.00012458446 -0.00021559646
6.782268e-05 0.00022008213 -0.0003124582 0.00020131966 6.409823e-05 0.00016004631 -8.8138506e-05 3.1392028e-05
-0.0002922904 0.00012758895 0.00028317043 -0.00018326746 0.00019613799 7.606096e-05 0.00023303038 -0.0002269491
-2.3161483e-05 1.1549842e-05 -6.0359157e-06 -5.6287256e-05 0.00018382436 -0.00028750327 0.00016994713 1.9954092e-05
00000000: 35b8 6eb8 0755 5ab9 22fb 5738 a5b6 7738
00000010: ef32 d637 ab0e 6739 9313 7f38 4439 4cb7
00000020: b2e2 d5b7 df6d 42b9 4e5d 5d38 8883 e237
00000030: 6b34 7bb9 c40b 8638 2b55 fdb8 dbf5 71b8
00000040: fd70 e938 da36 4b39 c2f0 93b9 1391 5439
00000050: 837c bd37 ded0 8a38 9cbe f3b6 8ad6 4a37
00000060: 54d8 a038 9e6c 4eb7 b728 73b8 668f 4238
00000070: 6fc7 c5b8 7857 b8b8 0c2b bab9 7886 2b39
00000080: e1a8 3739 17dd ae38 530c dcb7 422a 72b7
00000090: c9d3 85b9 0555 6bb9 e3a2 0239 bc11 62b9
000000a0: 063c 8e38 d9c5 6639 6ed1 a3b9 5619 5339
000000b0: 7a6c 8638 1bd2 2739 00d7 b8b8 efaa 0338
000000c0: 8e3e 99b9 66c9 0539 7e76 9439 7c2b 40b9
000000d0: 64aa 4d39 eb82 9f38 9e59 7439 2ff9 6db9
000000e0: e84a c2b7 32c6 4137 1f88 cab6 fb15 6cb8
000000f0: fac0 4039 09bc 96b9 d633 3239 1663 a737

exp_avg_sq f4 [64]
0.00010105503 0.0002549795 5.126467e-05 5.1009272e-05 1.0646052e-05 0.00020817894 0.0002704265 7.7234574e-05
3.0872193e-06 0.00019334468 5.4945005e-05 3.2745666e-05 4.0905128e-05 9.056642e-06 5.534985e-07 8.444813e-06
6.345136e-05 0.000210446 0.00018858768 0.00013033637 1.3287498e-05 7.567907e-05 1.97019e-06 1.5582338e-05
3.583694e-05 7.4416996e-05 1.4754909e-06 3.8332473e-05 4.7779254e-06 0.0001213614 9.91581e-05 9.1094436e-05
0.0002393738 4.9030646e-06 1.2955911e-07 4.2199317e-06 0.000116715404 8.616709e-05 9.679147e-05 0.00016869094
1.0402169e-05 4.690363e-05 0.00014875575 0.00022609295 1.5406356e-05 8.55521e-05 6.3955366e-07 1.6503125e-05
0.00021750848 5.852957e-05 0.000105386054 0.00012129746 9.945367e-05 2.9213052e-07 0.000114586364 0.00027704283
3.7849706e-05 5.9685226e-07 1.5570586e-05 1.3285041e-06 7.3372107e-06 0.00010754054 0.00023876099 2.5385641e-05
00000000: 82ed d338 c5ae 8539 0505 5738 caf2 5538
00000010: 729c 3237 9c4a 5a39 08c8 8d39 fff8 a138
00000020: 062e 4f36 91bc 4a39 c074 6638 6458 0938
00000030: 8c91 2b38 fbf1 1737 2194 1435 32ae 0d37
00000040: 3111 8538 2bab 5c39 9fbf 4539 e7aa 0839
00000050: 5fed 5e37 e4b5 9e38 9b37 0436 d1b6 8237
00000060: 9f4f 1638 5210 9c38 7b09 c635 2ec7 2038
00000070: 1152 a036 6883 fe38 19f3 cf38 f409 bf38
00000080: 6a00 7b39 0185 a436 f01c 0b34 f098 8d36
00000090: 1bc5 f438 9bb4 b438 86fc ca38 a1e2 3039
000000a0: fa84 2e37 64ba 4438 51fb 1b39 5d13 6d39
000000b0: e63c 8137 6f6a b338 cbad 2b35 3170 8a37
000000c0: fd12 6439 a67d 7538 b502 dd38 1461 fe38
000000d0: c891 d038 1dd6 9c34 164e f038 0f40 9139
000000e0: d0c0 1e38 6037 2035 949d 8237 0e4f b235
000000f0: 2932 f636 6387 e138 ea5b 7a39 40f3 d437

exp_avg f4 [2, 64]
0.00045204553 0.0009871874 0.0009663207 -0.0012435423 0.0011435108 0.00017957794 -0.0006767593 -0.0006997396
-0.0001751675 -0.00022427374 0.0011189737 0.0006220051 -0.0013411356 0.00210585 -0.0017394035 0.00038239107
0.0018237642 0.0010845977 0.001320013 0.0014278216 0.0005991024 -0.00019328445 0.001449172 4.5555207e-05
-0.00011082848 0.00017664816 -0.0003948049 6.7471155e-05 0.00082666765 0.0014961266 -0.00028336415 0.00050218
-7.068591e-05 -0.00029525856 8.301139e-05 0.00080564455 0.0005908302 0.0009470307 -0.0007779905 0.0011292055
-0.0023323582 -0.0009111568 -0.0008842062 0.000715643 0.0005292952 -0.000747713 0.0006250569 -0.0013521401
0.00037444907 2.4234212e-05 -0.00083930837 0.0005620774 -0.0006266994 0.00036902016 -0.00057462975 0.00055297435
0.0007901041 0.00075900846 0.00046925564 0.0009541815 0.0012652348 -0.00034775212 -0.0009837159 -0.002136532
-0.0005488801 -0.0006412941 0.00020773246 -0.00010958491 9.143152e-05 0.0001667055 0.00018962986 0.000443803
-0.00017906894 -0.00018191275 -0.00016177775 -0.00043060194 0.00018426718 -0.00045455643 0.0008978626 -0.00034142478
-0.00020012657 -0.0008599721 -0.00011933675 -0.0003519839 0.00026546494 0.00066006184 -9.101847e-05 -0.00056607934
-7.511235e-05 0.00064974924 -0.00037804892 -0.0004155971 -0.0005037243 -0.00042393978 -0.0001341155 7.99853e-05
-0.00054748857 -0.0001383422 -0.0007609311 0.0001513443 0.00017029667 0.0012853746 0.00070531806 -0.00015899686
0.0006731178 0.0005464939 5.8731173e-05 0.00020675415 -0.00039156972 -0.00020843277 -0.0012263677 0.0004996795
-0.00022058676 -0.0005375258 0.0010226225 -0.00012327963 0.00044666466 -0.0010922804 8.372417e-05 0.00028958116
8.8117406e-05 -0.0003869447 -3.4916644e-05 -0.00039565132 -0.00053290615 0.00024044924 0.0009336565 0.00067432213
00000000: 8600 ed39 8364 813a af50 7d3a 5bfe a2ba
00000010: dbe1 953a 164d 3c39 8c68 31ba bb6e 37ba
00000020: 2bad 37b9 062b 6bb9 87aa 923a 0e0e 233a
00000030: 0bc9 afba 4d02 0a3b b2fc e3ba a97b c839
00000040: 5f0b ef3a 0f29 8e3a 4904 ad3a be25 bb3a
00000050: 150d 1d3a 66ac 4ab9 25f2 bd3a 8812 3f38
00000060: 966c e8b8 a13a 3939 d1fd ceb9 4d7f 8d38
00000070: bab4 583a ae19 c43a 7e90 94b9 bba4 033a
00000080: 353d 94b8 efcc 9ab9 6716 ae38 e431 533a
00000090: f2e1 1a3a 2842 783a 0ff2 4bba d901 943a
000000a0: 7ada 18bb b3da 6eba 13ca 67ba fd99 3b3a
000000b0: 66c0 0a3a 2c02 44ba dcda 233a 4b3a b1ba
000000c0: b451 c439 934a cb37 0805 5cba 6058 133a
000000d0: 1649 24ba 0c79 c139 c0a2 16ba 7bf5 103a
000000e0: fd1e 4f3a 32f8 463a 6d06 f639 0922 7a3a
000000f0: 3cd6 a53a 8052 b6b9 07f0 80ba 0f05 0cbb
00000100: b8e2 0fba 851c 28ba c2d2 5939 f3d0 e5b8
00000110: ecbe bf38 abcd 2e39 61d7 4639 3bae e839
00000120: 74c4 3bb9 d5bf 3eb9 e2a2 29b9 6ac2 e1b9
00000130: d837 4139 8851 eeb9 8a5e 6b3a 4201 b3b9
00000140: 11d9 51b9 c06f 61ba 6e44 fab8 7b8a b8b9
00000150: 1a2e 8b39 0008 2d3a 2be1 beb8 f164 14ba
00000160: a385 9db8 ef53 2a3a de34 c6b9 80e4 d9b9
00000170: 5e0c 04ba 3c44 deb9 5ba1 0cb9 c8bd a738
00000180: 5685 0fba f40f 11b9 3979 47ba 2db2 1e39
00000190: aa91 3239 047a a83a 18e5 383a 65b8 26b9
000001a0: 2c74 303a 9642 0f3a 1e56 7638 25cc 5839
000001b0: 994b cdb9 bf8e 5ab9 12be a0ba ecfc 023a
000001c0: 4f4d 67b9 bfe8 0cba 8409 863a a044 01b9
000001d0: 512e ea39 d92a 8fba 1295 af38 edd2 9739
000001e0: accb b838 d7de cab9 7673 12b8 6c6f cfb9
000001f0: bab2 0bba 1a21 7c39 a1c0 743a fec4 303a

exp_avg_sq f4 [2, 64]
0.00033844684 0.0061920937 0.00082157267 0.00020648124 0.0040163794 0.0004091515 0.004590931 0.00056635845
0.00043529295 0.0001206636 0.0011558007 0.005394364 0.011289542 0.005954272 0.0053881253 0.0003374118
0.0017719858 0.00071849336 0.0017809069 0.0004406407 0.0032349778 0.0017726527 0.003252347 0.002570158
0.00010938435 0.0011974977 0.0001323616 0.0036685874 0.0047190986 0.0004457069 4.740102e-05 0.0024069783
6.688384e-05 2.164703e-05 0.014519096 0.00093934254 0.00044642435 0.0007950341 0.0015840229 0.0005686731
0.002020222 0.0045459024 0.0066891015 0.002414255 0.00020710734 0.0005231617 0.010342332 0.004006439
0.00040464068 0.001282234 0.00016680651 0.0034469143 6.3291875e-05 0.00038186955 0.00017990194 0.00046346753
0.002333012 0.00054903 1.6808059e-05 9.876044e-05 0.0093879495 0.006788971 0.002391144 0.0028429031
8.644225e-05 0.0010000159 0.0017194418 0.0027191967 0.00047757424 0.0010917974 0.010020076 0.0023432106
0.00021696209 0.006115434 0.0005120574 0.0010709631 0.0051298076 0.00071539055 0.0046202396 0.002632148
0.0005285287 0.0007494154 0.0014303369 0.0036269762 0.0011952815 0.0003855618 0.00016849079 0.002973461
0.0013563681 0.0021666258 0.0016317798 0.0033584319 0.0005731022 0.002464006 0.0001477983 0.00035796608
0.001099688 0.00020662532 0.008654874 0.0013781796 0.00045614233 0.00045901205 0.00032332903 5.3030308e-05
0.0038548505 0.0059003457 0.0038821918 7.218886e-05 0.0004910136 0.00034087224 0.0076944963 0.00376274
0.0014257958 0.0009765718 0.0012651669 0.0018350193 0.00635325 0.0030753943 0.000119987664 0.0017099984
0.0036818844 0.006413891 0.00010250676 5.5346663e-05 0.0019564969 0.005855664 0.00927452 0.002929688
00000000: 9171 b139 0ce7 ca3b cf5e 573a e382 5839
00000010: d59b 833b 6283 d639 856f 963b ac77 143a
00000020: 0838 e439 c70c fd38 3c7e 973a 34c3 b03b
00000030: c5f7 383c 0e1c c33b df8e b03b a5e6 b039
00000040: fa41 e83a 4659 3c3a 526d e93a cb05 e739
00000050: ec01 543b 5b58 e83a 5425 553b 1970 283b
00000060: 4765 e538 5bf5 9c3a 8cca 0a39 af6c 703b
00000070: aba2 9a3b c4ad e939 75d0 4638 65be 1d3b
00000080: fd43 8c38 a596 b537 81e1 6d3c 363e 763a
00000090: 100e ea39 d669 503a fd9e cf3a 0113 153a
000000a0: b365 043b cbf5 943b 4030 db3b 7a38 1e3b
000000b0: f42a 5939 ca24 093a e272 293c 7248 833b
000000c0: f425 d439 a210 a83a c8e8 2e39 a0e5 613b
000000d0: 91bb 8438 aa35 c839 0fa4 3c39 8ffd f239
000000e0: 72e5 183b c8ec 0f3a 08ff 8c37 9c1d cf38
000000f0: eacf 193c 0476 de3b bdb4 1c3b 0050 3a3b
00000100: 5448 b538 f712 833a e55e e13a 8d34 323b
00000110: ee62 fa39 a41a 8f3a 3f2b 243c 8d90 193b
00000120: 5180 6339 fb63 c83b 973b 063a 8f5f 8c3a
00000130: f217 a83b 0c89 3b3a 6165 973b 1e80 2c3b
00000140: f68c 0a3a 6b74 443a 247a bb3a 90b2 6d3b
00000150: feaa 9c3a 3b25 ca39 e7ac 3039 66de 423b
00000160: 29c8 b13a f3fd 0d3b 72e1 d53a 2319 5c3b
00000170: 3d3c 163a 297b 213b 4efa 1a39 65ad bb39
00000180: 6823 903a 90a9 5839 2ccd 0d3c 09a4 b43a
00000190: 6326 ef39 8ea7 f039 7d84 a939 dc6c 5e38
000001a0: a9a1 7c3b b057 c13b 5f6c 7e3b 1964 9738
000001b0: 5db7 003a 19b7 b239 1d22 fc3b 4d98 763b
000001c0: c5e1 ba3a 5000 803a f5d3 a53a 0885 f03a
000001d0: ec2e d03b 8e8c 493b e3a1 fb38 0622 e03a
000001e0: c54b 713b 9e2b d23b e6f8 d638 0724 6838
000001f0: 9238 003b dfe0 bf3b 28f4 173c 0200 403b

exp_avg f4 [2]
-0.0022223748 -3.5252422e-05
00000000: 43a5 11bb 00dc 13b8

exp_avg_sq f4 [2]
0.013590471 0.0022827068
00000000: 91aa 5e3c 7799 153b

exp_avg f4 [2, 1]
0.0011820898 0.014166135
00000000: 5af0 9a3a 1419 683c

exp_avg_sq f4 [2, 1]
0.00021951195 0.004860847
00000000: ca2c 6639 bd47 9f3b
