results/pretrain/checkpoints/A03_H064_L02_D01_Tanh_W4096_P010000_Adam_PT_True_device_cuda_dtype_float32_chkp.pt (torch, 182731 bytes, 23 tensors)

layers.0.fc.weight f4 [64, 2]
000000 8f 88 68 bc 33 c4 c0 3e 19 46 27 bf 27 63 5b be
       -0.014192714 0.37649688 -0.65341336 -0.21424542
000010 0b 45 81 be a3 59 f4 3d 6e 5a 1f 3b 68 3f f2 3e
       -0.25247988 0.11931159 0.0024315375 0.47314
000020 92 5c 06 bd cb bc b7 3d 19 34 96 be a4 07 56 bd
       -0.032803126 0.08971556 -0.29336622 -0.05225338
000030 1f b5 3f bf 79 a8 0c be a2 53 8d be 78 5d a6 3c
       -0.74885744 -0.13736142 -0.2760287 0.020308241
000040 c3 6c 94 3e 6a e2 70 3e 2c 4c 02 bf c6 43 c1 bd
       0.2898923 0.2352387 -0.5089748 -0.09436755
000050 60 52 95 3e 0d 00 c1 3e 07 e3 08 be 37 bb bf 3e
       0.2916441 0.3769535 -0.13367854 0.3744752
000060 ee ab 49 bd 8c 4d 6f 3d 48 aa 3e 3f 6f b2 6e be
       -0.04923623 0.058423564 0.7447858 -0.23310255
000070 14 8a 07 bf ef 98 ca bd 1f 7f 96 be cc 1a ee 3e
       -0.52945065 -0.09892451 -0.2939386 0.4650482
000080 0d e3 11 bf 31 e4 45 bd 71 9d f7 be 4b ee 21 bf
       -0.56987077 -0.048313323 -0.48362306 -0.6325423
000090 12 79 fa be c7 fb ae 3e 83 ab ab 3e 02 81 6c 3e
       -0.48920494 0.34176466 0.3352929 0.23096088
0000a0 e2 2a 54 3d aa a5 a9 be e1 f5 fc 3d 6a 3f 41 bf
       0.05179871 -0.33134204 0.12351585 -0.7548739
0000b0 f1 96 22 bf 67 f3 5a bd ca 0e fc 3e 83 89 72 3e
       -0.6351157 -0.053454783 0.49230033 0.23685269
0000c0 b2 b5 ac be 6f c2 8f 3d ab 2e c3 3e d0 f1 1a 3f
       -0.33732373 0.07019507 0.38121542 0.60525227
0000d0 f5 eb 39 3e be 76 cb 3d a7 b2 14 3f e0 dd 19 be
       0.18156417 0.09934758 0.580851 -0.15026045
0000e0 e1 f1 fb 3d 11 d6 9f be 1c 3c 0b bf 73 0c 2f be
       0.12301994 -0.31218007 -0.54388595 -0.17094593
0000f0 e8 a9 a0 3e 9f b3 c3 3d 6b b2 cf be 78 4f 00 3e
       0.31379628 0.095557444 -0.4056581 0.12530315
000100 a2 7e df 3e 84 02 bb bc 6b 10 2f 3c 34 b9 c5 3d
       0.436513 -0.022828348 0.010685067 0.09654465
000110 2d 9f ec 3e bc e5 fc 3e 80 a5 e8 be f8 40 d2 be
       0.4621519 0.49394023 -0.45438766 -0.41065192
000120 f0 bd 96 3e 7f a6 ba 3e ba 6c 2e 3f df 2f c3 3e
       0.29441786 0.3645515 0.68134654 0.3812246
000130 3a 3a 1b 3e 6c f2 04 bf 21 d7 32 3d 46 38 ac be
       0.1515893 -0.51932406 0.043662194 -0.33636683
000140 b5 48 3b bf 89 ee 9b 3e d1 7d 1d 3f 2b 04 ff be
       -0.7315782 0.30455425 0.61520106 -0.49807867
000150 7b 5e 87 3d ed b1 3e bd 39 39 d8 bd ea 51 71 be
       0.066098176 -0.046556402 -0.10557789 -0.23566404
000160 07 e9 1b 3e f4 ee 63 be b1 af 2d 3e 25 41 c0 3e
       0.15225612 -0.22259122 0.16961552 0.375497
000170 aa b4 18 3f e8 46 e6 3d 5d 6b 2f bf ca f6 b0 be
       0.5965067 0.11243993 -0.685232 -0.34563285
000180 f3 79 b5 3e a8 98 1e 3e 50 dd 15 bf a1 40 10 be
       0.35444602 0.15487921 -0.5854082 -0.14087154
000190 f6 e3 3d 3f 39 1e 23 3e 51 6d aa be b9 61 f9 bd
       0.74175966 0.15929498 -0.33286527 -0.12176842
0001a0 0a 20 43 bf bf 6d 90 3d c7 a2 11 bf 60 75 94 be
       -0.7622076 0.070521824 -0.56889004 -0.289958
0001b0 77 d3 53 bd 72 8b da 3d 2e 75 a6 be b6 cb 89 3e
       -0.05171534 0.10671128 -0.32511276 0.26913232
0001c0 c7 78 db be 5d 4a 1b 3f c7 3e 05 3f ee 0e ad be
       -0.42865583 0.60660344 0.52048916 -0.33800453
0001d0 25 82 1e be 78 eb 0b 3d 54 88 05 3e 53 a9 6f 3d
       -0.15479334 0.034160107 0.13040286 0.05851109
0001e0 ab b4 95 3e 57 b8 4b 3e ed 76 8a be de 73 91 3e
       0.292394 0.19894539 -0.27043858 0.28408712
0001f0 2a 75 40 bf eb 6b fa bd 49 7a 08 be c8 64 51 be
       -0.7517878 -0.12227615 -0.13327898 -0.20448601

layers.0.fc.bias f4 [64]
000000 03 d4 82 be 3a 2e 1b bf f2 17 2e be aa 5e 28 3e
       -0.25552377 -0.6061741 -0.17001322 0.16442361
000010 73 9f 03 bf 1b 7d 1e bd b7 37 08 3f c5 0d c9 bd
       -0.51415175 -0.03869353 0.53210014 -0.098170795
000020 d7 74 6b 3c 48 c8 a6 bd 13 d4 09 3e c4 98 05 3f
       0.0143711185 -0.08143669 0.13459806 0.52186227
000030 4b 9d 39 3f c9 ab 1a 3f ad 3a 2b 3f 4a 45 69 bd
       0.72505635 0.60418373 0.6688641 -0.056950845
000040 db ac 29 bf 9e 53 b2 be f9 19 01 3f a5 d3 99 bc
       -0.6627938 -0.3482942 0.50430256 -0.018777678
000050 50 ab cd be 8b 9c 0b bf b4 00 43 bf 97 5f 26 bf
       -0.40169764 -0.5453574 -0.7617295 -0.6498961
000060 b9 a6 1f be cb 00 f3 3e 4d a2 f6 3e a7 24 26 bf
       -0.15590943 0.47461542 0.481707 -0.6489968
000070 ca f5 0f 3f ae 44 10 bf 86 02 05 be 89 e2 a4 be
       0.5623442 -0.56354797 -0.12989244 -0.32204083
000080 e7 37 29 be 9b 62 65 be ce 50 40 bf 37 ed 3d bf
       -0.16525231 -0.22400896 -0.751233 -0.74190086
000090 d7 08 0e be aa 30 c8 3c 4d b4 a8 be 7e f0 98 3e
       -0.1387056 0.024437267 -0.3295006 0.2987098
0000a0 b3 7c 33 bf a0 2a a2 bd 7f d2 2a 3f b0 83 9b be
       -0.7011215 -0.07918286 0.6672744 -0.30373907
0000b0 76 d1 33 3f 87 39 a5 3e 36 49 26 bf d2 a6 e9 3e
       0.7024149 0.32270452 -0.6495546 0.45635086
0000c0 c2 f7 a2 bd 4b 52 b6 be b5 7c 1b 3f 55 bc 10 bf
       -0.07957412 -0.3560966 0.6073716 -0.5653737
0000d0 cf c3 06 3e 06 17 32 be f5 dc 04 3f 39 97 56 3e
       0.13160633 -0.17391595 0.51899654 0.20956124
0000e0 69 37 bc 3e 25 30 87 3e 33 e6 5d be 16 ab 4d be
       0.36761025 0.2640392 -0.21669845 -0.20084795
0000f0 8b 09 1a bf 6f 61 d0 3e bf 14 1b 3f fa 13 19 3f
       -0.6017081 0.40699336 0.6057853 0.59796107

layers.1.fc.weight f4 [64, 128]
000000 9d 16 72 bd 47 4f 3a 3a 4e c4 22 bd e8 56 0d bd
       -0.059103597 0.000710715 -0.039737992 -0.03450671
000010 cb bf 59 bd 94 84 4d 3d 37 b8 11 bd 18 01 91 3c
       -0.053161424 0.050175264 -0.03557607 0.017700717
000020 c8 5b 07 bc 5d c4 95 3d a1 75 98 bd 3d 8b 5d bd
       -0.008261628 0.07312844 -0.07444311 -0.054087866
000030 00 44 38 bd 40 42 40 3d bb b2 82 bc 3f 45 bb 3d
       -0.044986725 0.04693818 -0.015954366 0.09144067
000040 3f 43 cd 3c 22 32 af 3c 54 1c 21 3c b9 e1 f9 bc
       0.02505648 0.02138621 0.009833414 -0.03050314
000050 40 0f 83 3b 86 56 d8 bc 48 75 1b bc c3 7f 30 bb
       0.0039996207 -0.026408445 -0.009488411 -0.002693162
000060 a7 b1 42 bd 7d d6 5d bd 2e e6 89 3d da 0a b1 bd
       -0.047532704 -0.05415963 0.067333564 -0.08644648
000070 7e 07 65 bc d4 01 ad 3d 36 2f 92 3c 79 bd a4 3c
       -0.013978837 0.08447614 0.017844778 0.020109879
000080 7f a1 c2 bd 85 76 24 3d 17 f0 92 bd fb a5 da bc
       -0.09503459 0.04015209 -0.071747 -0.026690474
000090 90 c2 10 bd e8 25 b5 bc dc 5f e4 bb ca 05 87 3d
       -0.0353418 -0.022112802 -0.006969435 0.06592901
0000a0 82 c4 be 3c 43 56 8a 3d 53 45 65 3d 83 00 6f bd
       0.023287062 0.06754734 0.055974316 -0.058350097
0000b0 05 6b 0f 3d be 73 87 bd e2 09 60 bd 87 f5 1a 3d
       0.03501417 -0.06613873 -0.054696925 0.03783181
0000c0 ba 7a 5d 3c 03 63 9c 3d a9 a6 c9 bc 45 95 12 bb
       0.01351803 0.076360725 -0.024615603 -0.0022366804
0000d0 44 5a 86 3d 0e 6f 95 bd e3 e7 8e 3d dc a7 74 bd
       0.065601856 -0.072965726 0.06977823 -0.059730396
0000e0 e2 89 03 3c f9 4c 13 bd 3f fd ee bc 1b f5 9e 39
       0.008028479 -0.03596208 -0.029173492 0.00030318726
0000f0 0d 21 7c 3d 05 61 6b bc 82 91 0d bd f8 8a ca bc
       0.061554957 -0.014366393 -0.034562595 -0.024724469
000100 09 f1 af bd 2f 2f f7 3c d2 51 53 bd 50 43 36 bd
       -0.08590896 0.030173866 -0.0515917 -0.044497788
000110 ce 42 61 bd 99 ea 8f 3c d1 5d 25 3d 5f e1 46 3d
       -0.05499535 0.01756792 0.040372673 0.048554774
000120 d4 4d 9e 3d ea 35 8a bd 08 b3 3c bb 68 46 01 3d
       0.07729688 -0.067485645 -0.0028793234 0.031561285
000130 dd 8c 9e 3d f9 fb 1d 3d 3a 9a 24 bd b8 f6 1b bd
       0.07741711 0.038570378 -0.040186144 -0.038077086
000140 74 e8 bd bd 24 f3 ab 3b 05 89 31 bd 3d a2 ab bc
       -0.092728525 0.0052474905 -0.043343563 -0.020951385
000150 0c 5f 92 3d 08 6f 81 bd d8 56 a3 bc 1c 2a e2 3c
       0.07147035 -0.06320006 -0.019938871 0.02760797
000160 20 87 36 bc 76 d2 43 bd d2 34 84 bd 9f bd 84 3d
       -0.011140615 -0.047808133 -0.06455387 0.0648148
000170 56 08 87 3c c8 8d 82 3d 1d ce 98 bc c3 4c 6d 3c
       0.016483467 0.06374699 -0.01865297 0.014483633
000180 54 cf 6a bc bd 71 bf bb 3d a3 43 bd 90 02 af 3c
       -0.014331657 -0.005842416 -0.047763098 0.021363527
000190 9d 9e 74 3d a7 53 65 3d cd 15 dd bc 21 f6 61 bd
       0.059721578 0.05598798 -0.026987934 -0.055166367
0001a0 ce 19 48 3d 83 af 65 bd de e9 27 3d d7 68 18 bd
       0.048852734 -0.056075584 0.040994518 -0.037209358
0001b0 9e dd 1d bd 3b 1c d4 3c 63 14 3c bd a8 28 0e 3c
       -0.03854143 0.025892368 -0.04591788 0.008676685
0001c0 e2 24 21 3d 1d 28 a4 bd 00 21 d2 3c eb 66 f8 3c
       0.039341815 -0.080154635 0.025650501 0.030322513
0001d0 ee 01 10 3c 73 05 15 bd 00 4b 8a bd 9a d1 0b bc
       0.008789523 -0.03638215 -0.06752586 -0.00853386
0001e0 9f be 1a 3d 45 a9 a2 bc 64 3b d4 3c 14 d3 70 3d
       0.037779447 -0.019856105 0.025907226 0.05879505
0001f0 7d 51 49 bd ab 14 e9 3b ca d5 02 3d cd 23 09 3c
       -0.04914998 0.0071130595 0.031942166 0.008370352
000200 51 e9 24 3b 6f 43 8c 3d aa 52 fa bc 47 bb d4 3c
       0.0025163481 0.068487994 -0.030556995 0.025968207
000210 ed 4b 2d 3d ec f3 ec 3d fd ea 19 3d 61 40 3d 3d
       0.042308737 0.11569962 0.037577618 0.046203975
000220 04 c2 ab 3c 8d 06 23 bc a1 77 a1 bd 59 3b 7c bd
       0.020966537 -0.009950292 -0.078841455 -0.061580036
000230 b8 d2 e0 3d 1d aa 51 bc e1 8f 86 bd bf cb 5d 3d
       0.109776914 -0.012796906 -0.065704115 0.054149386
000240 1f d8 ec 3d 91 10 e5 3d 0e 33 9b 3d 79 5f 45 3d
       0.11564659 0.111848004 0.07578097 0.048186753
000250 7e 1c 22 bd 31 da 16 bd 37 54 05 3e 57 33 5a 3d
       -0.039577954 -0.036829177 0.13020407 0.053271618
000260 7a c9 0c bc cb c4 73 3d 45 2b 00 3d ad 51 68 3d
       -0.008592958 0.05951385 0.031291265 0.056718517
000270 59 ee 6d bd 87 98 9e 3d a2 ba 3d bd b0 3e fa 3d
       -0.058088634 0.07743936 -0.046320565 0.12218988
000280 3c 18 f7 bc 38 c9 55 3c 22 5d 9c 3c 09 1f af 3d
       -0.030162923 0.013048463 0.019087378 0.08550841
000290 5c d0 0e bd 49 69 bc 3c 49 70 96 bd 2e 7b a9 3c
       -0.034866676 0.022999423 -0.073456354 0.02068862
0002a0 be 6e 0d 3c 9a 4b bb bd 18 13 5a bd 6b 82 5f 3d
       0.00863236 -0.09145279 -0.053240865 0.054567736
0002b0 a1 90 45 3d 1a eb a2 3d 0d 87 a7 3d 81 82 b0 bd
       0.048233632 0.07954998 0.08180056 -0.08618642
0002c0 06 53 a3 bd 5b 0f 26 3d 9a 9c fb bd df 2b 9d 3d
       -0.0797482 0.040541988 -0.12285729 0.07674383
0002d0 e7 18 54 bd d5 4b 0a bc 96 62 81 bd ab 68 16 bd
       -0.05178156 -0.008440931 -0.06317632 -0.036720913
0002e0 c1 83 95 3d cf 1c 01 3d 6a f9 a1 3d 20 70 32 3d
       0.07300521 0.031521615 0.079089 0.043563962
0002f0 45 3e 88 3d 36 31 4a bc fa 7c aa 3c 13 2e c4 3d
       0.06652502 -0.012340834 0.020811547 0.095791005
000300 6d e1 ad 3c 6b de b6 3d 65 bd 07 3d 9a 26 98 3d
       0.021225655 0.089291416 0.033139605 0.07429238
000310 b5 25 55 bd d1 89 f2 3c 2a cf 92 3c 0b fd 03 bd
       -0.052037913 0.029606732 0.01792105 -0.032223742
000320 25 97 0e bd c0 e1 3f bd 8c 1b 77 bd 99 c8 9b 3d
       -0.03481211 -0.04684615 -0.060329005 0.0760662
000330 0e c5 ad 3d 0a a7 42 bc 07 d8 56 bd b9 20 5e 3d
       0.08484851 -0.0118806455 -0.052452113 0.054230426
000340 98 f2 67 3d 6f 22 24 3c 2d 19 2b bd cb 7f c4 3d
       0.05662784 0.010017975 -0.041772056 0.09594687
000350 b4 19 88 3c 86 bb 9c bd 5c e7 b0 3d 9e 2c 96 3d
       0.016613819 -0.07652955 0.08637878 0.07332729
000360 3d bb 24 bd 4a 74 3e 3d 43 22 19 bd 93 59 71 bc
       -0.040217627 0.04649762 -0.03738619 -0.014730829
000370 d9 1f b6 3d 9d 67 96 3b c7 68 4a bd 29 36 05 bd
       0.08892793 0.0045899884 -0.04941633 -0.032522354
000380 e8 30 c3 bc 9e f3 20 bd f9 40 bd 3c a1 a7 ae 3d
       -0.023827031 -0.03929483 0.02310227 0.085280664
000390 32 87 b8 3d 0c c5 79 bd 2e 5a 1f bc aa 75 56 3d
       0.090101615 -0.060978934 -0.00972609 0.052358307
0003a0 48 48 3c 3d 23 88 12 bd 6d 50 ac 3b 9a eb a8 bd
       0.04596737 -0.03577436 0.005258611 -0.082480624
0003b0 a1 2c ad bc f7 68 28 3d dc a5 79 bd ac 86 29 3d
       -0.021139445 0.041115727 -0.06094919 0.0413882
0003c0 e0 98 cf 3d df 99 f1 3b 42 b7 70 bd d6 25 1b bd
       0.101365805 0.007373079 -0.05876852 -0.03787788
0003d0 15 30 7a 3c eb 73 84 bd bb 43 86 3d 07 12 9a bd
       0.015270253 -0.06467422 0.06555887 -0.0752297
0003e0 b3 63 b4 bd ab 40 a4 bd af 86 17 bd 1e 66 40 3d
       -0.088080786 -0.08020147 -0.03699368 0.046972387
0003f0 37 45 b8 bd 7c af a9 3d 11 50 f8 bc b2 26 16 3d
       -0.08997577 0.08285424 -0.030311616 0.036657996

layers.1.fc.bias f4 [64]
000000 dd aa 8f 3d e2 aa 7b 3c 7f ef 91 bd 3a 3d 0a 3d
       0.070150115 0.015360566 -0.071257584 0.033749796
000010 dd 6f 60 3c 1b 1b 87 3b b7 93 92 3c 38 76 14 3c
       0.013698545 0.0041231043 0.017892702 0.009061389
000020 81 08 23 3c 5b b5 ac 3d 72 be aa 3c 50 44 96 bc
       0.009950758 0.08433028 0.020842765 -0.01834312
000030 d2 70 da 3d 85 05 28 bc fb 9e 02 be 14 f9 16 3d
       0.1066605 -0.010255222 -0.12755959 0.036858633
000040 9f be 22 bd 4d 1f 0e bd 82 c2 70 bd 32 0d 90 bc
       -0.03973257 -0.03469782 -0.058779247 -0.017584417
000050 77 16 14 bd 8a ea 35 bc 40 71 50 3d 3d 77 a0 3d
       -0.036154237 -0.011103282 0.050889254 0.07835243
000060 18 0f bd 3c b7 cd b7 bd 99 20 39 bd 5d 4b 9e 3c
       0.023078486 -0.08974784 -0.045197103 0.019323045
000070 2b 7e cb 3d e9 f7 85 3d 82 e8 c3 3d f9 06 b2 bd
       0.09936174 0.06541426 0.09565832 -0.08692736
000080 80 e3 c1 3d b6 e7 81 3d d9 49 ce bc e3 4f 0b be
       0.0946722 0.063430235 -0.025181698 -0.13604693
000090 5e 04 81 bd 98 ae a3 3c 9d f6 41 bc 10 ef 98 bd
       -0.06299661 0.019980714 -0.011838582 -0.074674726
0000a0 70 22 de bc 3c 16 6e 3d 8d 5a 8f bb b2 7b 93 bd
       -0.02711603 0.058126673 -0.004374808 -0.072013274
0000b0 a8 73 89 3b c4 d4 6f 3d 10 6e e9 3d 27 85 32 bd
       0.0041946955 0.05855252 0.11397946 -0.043584015
0000c0 d5 b8 2f bd fc d1 03 3d d0 d1 7a bd c5 79 87 bd
       -0.04290088 0.03218268 -0.06123525 -0.066150226
0000d0 dc 31 49 3d 9a 11 0c 3e 2d 13 05 bd e9 7b 51 3c
       0.049119815 0.1367859 -0.03248899 0.01278589
0000e0 b2 99 3a 3d 70 13 ce bd 98 b8 15 bd dd c2 e5 bd
       0.04555673 -0.10062301 -0.036552995 -0.11218808
0000f0 36 8e 06 be fe 57 eb 3d 05 85 df bd b6 47 a8 3b
       -0.13140187 0.114913926 -0.10914043 0.0051355017

layers.2.gsds.0.weight f4 [3, 64]
000000 ed 89 78 3d 04 d2 d6 3d c2 93 6b bd e6 7f 8a 3d
       0.06067841 0.10489276 -0.05751396 0.06762676
000010 e1 2e 2c bc 7b a1 f9 bd 23 54 d8 bd 5c 88 51 bd
       -0.010509224 -0.12189003 -0.10562923 -0.051155433
000020 62 f8 c0 3c 47 b0 13 3e 0b e8 6d bd 18 d5 93 bc
       0.023555938 0.14422713 -0.05808262 -0.018045947
000030 2a c6 c5 3d 8c c4 b3 bc c1 26 8a 3d 61 19 be bb
       0.096569374 -0.021944307 0.06745673 -0.0058013652
000040 49 1e 83 bd 2f 13 b4 bd 5e f2 ed 3d 3c 3c 92 bd
       -0.06402261 -0.087927215 0.116184935 -0.07140395
000050 f3 a0 c1 3b 2e 7b 2f 3d 08 13 15 3c d3 56 ae bc
       0.005909079 0.042842083 0.009098776 -0.021281635
000060 66 81 02 bd 44 81 4c bd 71 bc 18 3d 1d ce 35 bd
       -0.031861685 -0.049927965 0.037289087 -0.044386018
000070 00 54 60 3d 66 45 3d 3d d8 f9 76 3d 82 10 8b bd
       0.05476761 0.04620876 0.060296863 -0.06790258
000080 53 31 ce bd fb 38 11 3c bf 8b 02 3d b2 ce e4 b7
       -0.100680016 0.008863683 0.031871554 -2.7275968e-05
000090 cf ab e9 3d 34 95 ad 3d 68 15 60 bd 66 96 ad 3d
       0.11409723 0.08475724 -0.054707915 0.08475952
0000a0 ce e0 7d bd 8e 45 07 bd 2c 7b cf 3d c1 23 cf bd
       -0.06198197 -0.033025317 0.10130915 -0.101142414
0000b0 81 e7 c0 bc c2 c9 cb bd 5a f7 49 3d f1 44 db 3d
       -0.02354789 -0.099505916 0.04930816 0.10706509
0000c0 1d 2c fa 3d 9c d3 3f bd 9a dd 01 bc 31 49 77 3d
       0.12215445 -0.046832666 -0.007926369 0.060372535
0000d0 27 90 87 bd ff 31 76 bd 37 20 b1 bd ee 06 b2 3d
       -0.06619292 -0.060106274 -0.086487226 0.08692728
0000e0 3b f9 ae bc 6a 97 5b 3c cc 7c 11 bd 6c d8 c6 3b
       -0.021359077 0.013402799 -0.035519406 0.00606828
0000f0 13 f6 76 bd cd f8 04 3e b0 58 d2 bd e8 77 8e ba
       -0.06029327 0.12985535 -0.10270822 -0.0010869475
000100 c7 1d a1 bd 5f 85 c7 bd 3f 73 68 3d 2a 1d ca 3d
       -0.07867008 -0.097422354 0.056750532 0.09868844
000110 58 45 9f 3d 46 06 ae 3c 98 37 93 3d 26 89 67 3d
       0.07776898 0.021243226 0.07188338 0.05652728
000120 fd 16 82 bc ce 46 8b bd 89 d5 4c 3d 0d a0 9f 3d
       -0.015880102 -0.06800614 0.05000833 0.07794199
000130 9b 2c 92 3d ed 79 78 3c 8a fb e6 3d 15 b9 d2 bd
       0.07137414 0.015165788 0.11278446 -0.10289208
000140 93 32 14 3d cf 6f d8 3d 67 30 b0 bb 77 e4 ba 3d
       0.036181044 0.10568201 -0.0053768638 0.091256075
000150 36 cb 03 3e 57 13 c3 bd 1f 7d 85 3d 14 30 9a 3d
       0.12870488 -0.09525173 0.065180056 0.075287014
000160 20 03 5b 3d 9f 15 9a 3d 41 35 b8 3d 4b 2d 62 3d
       0.053469777 0.07523655 0.089945324 0.055218976
000170 67 44 96 3d ba fd 05 be 1b 52 0a be 2f 05 5a 3d
       0.073372655 -0.1308507 -0.13507883 0.0532276
000180 fb 27 14 3e 70 6f d1 bc 87 b5 e0 3d 98 a0 04 bd
       0.14468376 -0.025565833 0.109721236 -0.032379717
000190 a3 10 93 3d 04 c1 97 bb bf c0 94 3d 53 98 21 bd
       0.071809076 -0.0046311636 0.07263326 -0.03945191
0001a0 34 97 f8 bd db 80 9d 3d 2d 6d 89 bd 2e 67 be 3d
       -0.12138215 0.07690593 -0.06710277 0.09297024
0001b0 e0 d0 ed 3c b0 72 3b bd 17 65 0a 3e a7 1f dd 3d
       0.029030263 -0.04576367 0.13515125 0.10797053
0001c0 97 8c 52 bd 63 1b 2a 3d bc 44 7a 3d ec f1 c2 bd
       -0.05140361 0.041530024 0.061100706 -0.09518799
0001d0 8d 71 b0 b9 a5 f4 01 be f0 73 78 3a 39 04 ff bd
       -0.00033653938 -0.1269098 0.0009477725 -0.12451977
0001e0 50 d4 cc 3d 74 39 9e 3d 3a dc cf 3d 5a 66 8b 3d
       0.10001433 0.07725802 0.10149427 0.068066314
0001f0 7b 16 30 bd fc 91 51 3d e9 b7 2f 3d 12 ee 5f 3d
       -0.04299019 0.051164612 0.0429 0.0546704
000200 17 fd 75 bc dc 71 5f 3e b8 da 14 be 4b c8 60 be
       -0.015013955 0.21820778 -0.1453656 -0.21951406
000210 c6 16 5b bd 11 26 54 3e cd 1e a5 bd ab 77 06 be
       -0.053488515 0.20717646 -0.080625154 -0.13131587
000220 96 da 5a be b2 3d 28 3e be 29 6e be 80 4c 32 bc
       -0.21372446 0.16429785 -0.23258111 -0.010882497
000230 21 ab 33 3e f3 b2 3a be e2 fb 3d be dd 6d 04 bd
       0.17545749 -0.18232326 -0.18553117 -0.032331336
000240 8b 23 30 3e cb 50 75 bd 0c a6 bf bd 75 0b a6 bc
       0.17201059 -0.059891503 -0.09357843 -0.020269135
000250 c4 72 ac 3c 7c ad 93 3d 98 9a eb 3d 76 c4 9b 3d
       0.021050818 0.07210824 0.11504096 0.07605831
000260 eb 8c 7b 3d 36 f4 64 3d c2 78 6c 3e 99 3c 0c 3e
       0.061413687 0.05589696 0.2309294 0.13694991
000270 64 01 28 3e c0 c7 cf 3c 43 ac db bd 5d 8a e2 bd
       0.1640678 0.025363803 -0.10726216 -0.11061547
000280 a3 54 26 3e 8c 45 48 be 6f 7e ec 3c 77 4d 62 be
       0.16243224 -0.1955778 0.028868882 -0.22099863
000290 b4 69 36 bd 14 e0 72 3d 7e 43 b2 3d 0d 8d 4f 3c
       -0.0445344 0.05929573 0.08704279 0.0126679065
0002a0 80 6c bd 3d d9 53 05 3e 28 b3 cc 3d 91 06 b8 3c
       0.0924921 0.13020267 0.09995109 0.022464069
0002b0 b2 21 77 3e 7b 82 54 3e 8f 25 1d 3e 7f 5e 15 3d
       0.24133947 0.207529 0.15346359 0.03646707
0002c0 d1 f2 1d 3e 0e 7f 88 3d 7f 68 dd 3d 57 af b7 ba
       0.15424658 0.06664859 0.10810947 -0.0014014047
0002d0 d4 90 14 be 2d 4e 0a 3e 9e 25 4c 3c 4f 4d bc bd
       -0.14508373 0.13506384 0.0124601405 -0.09194433
0002e0 85 68 62 bd 99 c3 42 bd a1 06 d5 bd 38 47 11 be
       -0.05527546 -0.047549818 -0.10401655 -0.14187324
0002f0 b8 c8 09 3e 89 d6 44 3e 38 7e 14 be 77 5c 2e 3e
       0.13455474 0.19222464 -0.14501274 0.1702746

layers.2.gsds.0.bias f4 [3]
000000 c3 d0 2a 3d fb f7 8a 3d fe 8b 45 3e
       0.041702997 0.0678558 0.19291684

log_envelope.log_envs.0.weight f4 [3, 1]
000000 68 0c 2d 3f a6 65 2b 3f af 44 17 3f
       0.67597055 0.6695198 0.5908918

exp_avg f4 [64, 2]
000000 5e 54 b5 b6 66 20 24 b6 55 7e 0e b7 df 10 4c b6
       -5.404042e-06 -2.4456763e-06 -8.4932735e-06 -3.040819e-06
000010 2a fb f0 b6 42 e2 2d b6 96 e9 92 35 f5 3d 95 34
       -7.1817967e-06 -2.5910708e-06 1.094583e-06 2.7798492e-07
000020 aa a5 01 b7 34 dd b6 b6 41 33 0a b6 47 f9 29 36
       -7.727571e-06 -5.449774e-06 -2.0593436e-06 2.532806e-06
000030 4d 71 22 b7 eb 41 03 b7 4d 06 ed b6 40 38 a0 b6
       -9.682332e-06 -7.823556e-06 -7.063884e-06 -4.77492e-06
000040 6e c6 3f 36 63 bd f0 35 25 9d d4 b6 96 5d 57 35
       2.857672e-06 1.7936512e-06 -6.3363864e-06 8.0229927e-07
000050 d6 3b 2e 36 23 bc cd b5 d7 46 38 36 13 bc a4 36
       2.596285e-06 -1.5328445e-06 2.745937e-06 4.9094756e-06
000060 fe cd b9 36 4b 0a 0b 37 2c ab 92 37 29 6c 90 b7
       5.5374103e-06 8.287442e-06 1.7484264e-05 -1.7216504e-05
000070 42 28 42 b5 c4 e0 a1 b6 32 cc 02 b7 a4 35 3c 36
       -7.2329215e-07 -4.82434e-06 -7.796147e-06 2.8045406e-06
000080 0e d8 20 36 3c 8e db 35 b2 06 22 b6 a8 b2 c2 b6
       2.3967618e-06 1.6358167e-06 -2.4143778e-06 -5.802449e-06
000090 ac a2 da b6 9a 48 ca 36 5b ee e7 36 3a 35 99 35
       -6.515844e-06 6.028521e-06 6.9120847e-06 1.1414879e-06
0000a0 08 8a 3b 35 99 98 12 b6 5f 1e 8c 36 0c 77 6f 33
       6.986379e-07 -2.184452e-06 4.175861e-06 5.5754796e-08
0000b0 88 82 3b b7 cb db 05 36 96 d4 70 37 36 5e bf 36
       -1.117646e-05 1.994648e-06 1.4354611e-05 5.703211e-06
0000c0 2d 3d 25 b6 f5 c5 84 35 db bd dc 36 20 2d db b5
       -2.4622525e-06 9.89238e-07 6.578613e-06 -1.6329905e-06
0000d0 69 da 14 37 f8 24 b3 36 a6 7a 66 36 c8 2b 53 b6
       8.87234e-06 5.3389194e-06 3.4344062e-06 -3.1466934e-06
0000e0 06 02 0c 37 70 60 12 36 db f4 01 b7 d0 8a 96 35
       8.345121e-06 2.181183e-06 -7.746009e-06 1.1216271e-06
0000f0 40 77 86 36 c4 bb cd 34 9d 46 e1 b6 ad 01 1f 36
       4.0073937e-06 3.8320843e-07 -6.713743e-06 2.3693822e-06
000100 3d 83 21 37 aa aa 45 36 0a 60 38 b7 da 9a 07 b7
       9.626904e-06 2.9454627e-06 -1.09896155e-05 -8.082681e-06
000110 e3 bf a0 37 54 e3 bf 36 9a fa 25 b7 ed d9 b1 b4
       1.916284e-05 5.718708e-06 -9.893114e-06 -3.312738e-07
000120 ed 59 b8 36 65 06 84 36 cf 7e 80 36 c0 18 82 36
       5.494096e-06 3.934651e-06 3.8294597e-06 3.877183e-06
000130 d2 07 cd 36 7a 63 37 b6 d3 e1 bc 36 21 da 95 36
       6.1103865e-06 -2.7327028e-06 5.629126e-06 4.4659396e-06
000140 d1 1d 96 b7 a8 f3 98 37 78 d1 9b 36 da e7 c2 36
       -1.7895278e-05 1.8233273e-05 4.6437453e-06 5.8086416e-06
000150 c5 89 f1 36 e3 9f 9e 36 eb 38 44 b6 c4 00 9f b6
       7.198398e-06 4.72738e-06 -2.9239407e-06 -4.7386584e-06
000160 3c 59 ef 36 41 f9 0f 36 bd 37 ad 36 55 ab 5d 36
       7.1331433e-06 2.1453745e-06 5.1622906e-06 3.3031295e-06
000170 8a a1 04 37 54 83 d4 36 12 28 44 b6 4a 06 3b b6
       7.905424e-06 6.333381e-06 -2.92296e-06 -2.7868832e-06
000180 fd 22 c2 36 ba cb a5 36 71 bf 03 b7 b1 62 26 b6
       5.7857237e-06 4.9411e-06 -7.852782e-06 -2.4793374e-06
000190 34 22 50 37 4d fd d1 35 ed 80 2f b6 cd d5 55 35
       1.240573e-05 1.5645434e-06 -2.6152077e-06 7.9659804e-07
0001a0 fe c0 10 b7 cf da 8a b6 37 6e 40 b6 fb 0d b7 b5
       -8.628003e-06 -4.138193e-06 -2.8674383e-06 -1.3638631e-06
0001b0 00 d9 8b 36 57 87 b1 36 f6 70 22 b7 8f fb 18 36
       4.167785e-06 5.2907667e-06 -9.682253e-06 2.2796191e-06
0001c0 06 a9 0c b6 73 49 05 b6 52 ef 17 37 c6 6f 14 b7
       -2.096001e-06 -1.9861297e-06 9.0560225e-06 -8.847512e-06
0001d0 48 b9 26 b7 e3 72 ed b6 72 62 22 b6 33 53 97 b6
       -9.93751e-06 -7.076525e-06 -2.4197184e-06 -4.5098363e-06
0001e0 43 61 b0 36 72 f8 7c b3 65 11 4a 36 28 7b 08 37
       5.2565315e-06 -5.8899282e-08 3.011047e-06 8.134906e-06
0001f0 ed a6 39 b7 fe 06 30 b7 d7 52 c5 36 69 fb b2 36
       -1.1065725e-05 -1.04920455e-05 5.8807013e-06 5.3340814e-06

exp_avg_sq f4 [64, 2]
000000 bf 4a 85 32 53 5c d8 30 a2 fe 43 34 94 68 cd 31
       1.5517228e-08 1.5742309e-09 1.8253425e-07 5.9781744e-09
000010 09 8d 39 32 3d 24 1e 30 60 33 ea 32 1b 86 e7 2f
       1.0800485e-08 5.7531563e-10 2.7264548e-08 4.2113943e-10
000020 79 99 e5 31 48 47 03 31 ac ac 13 32 a3 c2 26 31
       6.682225e-09 1.9103528e-09 8.595787e-09 2.4266817e-09
000030 9b a8 bf 32 af a0 fa 30 67 06 d1 31 b1 89 91 30
       2.2312e-08 1.8235563e-09 6.0834284e-09 1.0589273e-09
000040 eb 0a 05 32 93 fc f6 2f 13 ec 90 33 06 0c cf 30
       7.744101e-09 4.4926604e-10 6.748464e-08 1.506465e-09
000050 e5 bb 32 33 b1 96 93 30 dc 00 13 32 40 5f 63 30
       4.1614744e-08 1.0738487e-09 8.5567216e-09 8.271748e-10
000060 33 bd 93 32 a8 90 29 31 f4 17 b7 33 14 f7 a1 31
       1.719909e-08 2.4674964e-09 8.5259586e-08 4.7138062e-09
000070 82 7b ee 33 94 2b d3 30 7b 0b af 33 2c 26 1f 30
       1.11052046e-07 1.5364656e-09 8.151161e-08 5.789811e-10
000080 39 ff 80 33 e7 1a c5 30 76 89 8a 33 27 03 a7 30
       6.006889e-08 1.4341283e-09 6.45113e-08 1.2151745e-09
000090 11 91 56 33 2c d5 1c 31 36 db 01 33 fc 2e 89 30
       4.9957695e-08 2.2822162e-09 3.0234524e-08 9.981416e-10
0000a0 da ea ba 32 66 a1 78 30 ae ae 83 32 88 3c b5 2f
       2.1760048e-08 9.0451235e-10 1.5329842e-08 3.2966718e-10
0000b0 6d 84 b7 33 eb 11 28 31 49 74 69 33 2b 8d b4 30
       8.54569e-08 2.4457403e-09 5.43553e-08 1.3136846e-09
0000c0 a5 63 83 32 e3 1c 80 2f 99 4e 31 31 d1 be 32 2f
       1.529572e-08 2.330359e-10 2.5801568e-09 1.6256797e-10
0000d0 41 94 47 32 9c 19 f8 30 95 34 12 34 77 e9 2b 31
       1.1617034e-08 1.8051654e-09 1.3616439e-07 2.5016484e-09
0000e0 db ce 98 32 8d d8 07 31 4d c2 a3 33 e6 75 2a 31
       1.7789196e-08 1.976818e-09 7.625622e-08 2.4805273e-09
0000f0 31 34 4c 33 71 85 f8 2e 39 af ba 32 07 ba 80 2f
       4.754492e-08 1.1301438e-10 2.1732932e-08 2.3415245e-10
000100 99 9b c9 33 8c 22 76 31 be f2 73 32 e6 0c 78 31
       9.388095e-08 3.581735e-09 1.4199655e-08 3.6096082e-09
000110 ea 60 28 33 73 b5 b3 30 b5 c2 93 32 4e aa 4d 2f
       3.920369e-08 1.3075535e-09 1.7201595e-08 1.8705146e-10
000120 c6 26 f9 32 5f a9 be 2f 6c a7 ba 30 54 66 e9 2f
       2.9005047e-08 3.4681144e-10 1.3580865e-09 4.2455162e-10
000130 3d ac 31 33 d1 5c 78 30 72 fe f1 32 a0 03 5c 30
       4.1367674e-08 9.0353774e-10 2.8171801e-08 8.0040685e-10
000140 5d 0c 4e 33 ab 19 84 31 ae 70 5f 32 21 3f b7 30
       4.7974357e-08 3.8446237e-09 1.3005929e-08 1.3332945e-09
000150 c1 5e 0e 32 f6 9c c2 30 a7 31 03 33 6d d2 89 30
       8.287032e-09 1.4159969e-09 3.0545973e-08 1.0027869e-09
000160 ca 9e c6 32 42 12 d0 30 4b a6 51 32 e6 a5 07 31
       2.3122443e-08 1.5139181e-09 1.2203212e-08 1.9739388e-09
000170 51 62 d3 33 d6 f4 13 31 4d 7b a2 32 14 07 4c 30
       9.843337e-08 2.1530489e-09 1.8915353e-08 7.4224826e-10
000180 3f d7 0d 33 d0 3a 03 31 29 9c ec 32 c8 63 06 31
       3.3024886e-08 1.909644e-09 2.754503e-08 1.9556285e-09
000190 82 31 ab 32 46 e3 f2 30 4b b3 d2 32 d8 68 d0 2f
       1.9929534e-08 1.7672412e-09 2.452875e-08 3.7909476e-10
0001a0 e0 4b bd 31 7f 41 6a 30 15 21 5f 33 bc dc 12 31
       5.50925e-09 8.522178e-10 5.195132e-08 2.137127e-09
0001b0 c0 aa 16 31 7d 72 cb 30 1f 5a d5 33 2c fe 16 31
       2.1924933e-09 1.4802733e-09 9.934978e-08 2.1972353e-09
0001c0 18 9d 1e 33 e2 f3 d8 2f da 6a b8 32 08 bb b2 30
       3.6930118e-08 3.946346e-10 2.146901e-08 1.3004362e-09
0001d0 71 02 93 33 20 cb 13 31 05 6a b1 31 ad 7a af 30
       6.845665e-08 2.1506779e-09 5.163431e-09 1.2767792e-09
0001e0 fd 9f 4b 32 3f 5d a0 2f 5e ec fc 32 2b 8f 3a 31
       1.1852532e-08 2.9170086e-10 2.9444148e-08 2.7147944e-09
0001f0 51 76 92 33 d5 0a 59 31 8b 41 00 33 0c 63 12 31
       6.8201764e-08 3.1583813e-09 2.9861933e-08 2.1302098e-09

exp_avg f4 [64]
000000 20 83 f1 b7 51 db 2e 38 7d 1b 99 b7 92 8d 80 b6
       -2.8790499e-05 4.1689087e-05 -1.8251822e-05 -3.831178e-06
000010 4f 98 1d b8 32 01 09 38 ae 97 01 b8 d3 b1 f7 b7
       -3.7573565e-05 3.266446e-05 -3.089726e-05 -2.95275e-05
000020 82 98 49 b7 64 32 be 37 db e1 64 b7 0c 6b c2 37
       -1.2016042e-05 2.267323e-05 -1.3642445e-05 2.317645e-05
000030 d8 27 2d 38 2f 2d 5d b8 7f 06 16 b8 44 08 6a b6
       4.128352e-05 -5.2732586e-05 -3.5768837e-05 -3.4873528e-06
000040 8f 3c 02 38 64 cd 0c b6 2e 26 cd b7 99 89 af 37
       3.1050815e-05 -2.0981179e-06 -2.4455683e-05 2.09257e-05
000050 23 eb c5 b6 55 03 33 36 d5 8e 43 38 cb da 00 38
       -5.898431e-06 2.6675018e-06 4.6624646e-05 3.0721345e-05
000060 ed 94 23 37 3d cb 8b b5 1f 02 29 38 f8 06 22 38
       9.750232e-06 -1.0415457e-06 4.0294715e-05 3.86303e-05
000070 fd f7 08 38 36 9e 11 38 ea 09 e9 b6 13 30 17 37
       3.2655884e-05 3.471804e-05 -6.9450953e-06 9.0114945e-06
000080 59 a5 66 38 55 96 5d b8 26 4f e3 37 e1 34 f3 b5
       5.4990265e-05 -5.2830514e-05 2.7097365e-05 -1.8120301e-06
000090 e3 24 51 37 1a d0 4b 37 18 38 87 35 10 cc 9f 37
       1.2465959e-05 1.2148195e-05 1.0074609e-06 1.9049301e-05
0000a0 fa 98 23 38 17 48 de 37 ae 24 03 38 67 c2 9e b7
       3.90047e-05 2.6498032e-05 3.1266994e-05 -1.8925593e-05
0000b0 53 c8 fc 37 e7 fa 0f 38 af 56 26 38 d0 a7 43 b5
       3.0134024e-05 3.4327528e-05 3.9658215e-05 -7.288736e-07
0000c0 05 de 07 38 24 39 04 38 2b 70 cd b7 78 2f 8c 36
       3.239328e-05 3.152447e-05 -2.4490137e-05 4.177851e-06
0000d0 a0 8b e9 b7 d7 3b aa 37 1a 67 05 38 ec 48 02 b8
       -2.7840782e-05 2.0293444e-05 3.1805692e-05 -3.106233e-05
0000e0 79 7f f2 b6 80 42 08 b8 95 2a 2c b8 a2 63 e7 b7
       -7.227002e-06 -3.248686e-05 -4.1047653e-05 -2.7583741e-05
0000f0 86 ae 60 37 fd 76 13 38 f8 f8 28 b8 6e 00 0c 38
       1.3392075e-05 3.5158348e-05 -4.028619e-05 3.3379e-05

exp_avg_sq f4 [64]
000000 fe cb 3f 34 e2 55 48 34 92 dd 62 33 12 83 4e 32
       1.7862473e-07 1.8657695e-07 5.2821242e-08 1.202058e-08
000010 89 0a 56 34 f7 a1 0d 34 fa 7e b9 33 b5 3b e3 33
       1.9934136e-07 1.3190571e-07 8.637831e-08 1.0581372e-07
000020 7a ad 2d 33 ca 90 bc 33 a4 95 31 33 45 9a ae 33
       4.0437477e-08 8.780769e-08 4.134712e-08 8.130568e-08
000030 2f f1 89 34 b7 e0 86 34 fb 1d 11 34 13 7f 4c 32
       2.5693723e-07 2.5122947e-07 1.3515084e-07 1.1903256e-08
000040 74 32 d8 33 b5 52 97 33 07 57 b3 33 a3 47 df 33
       1.0067461e-07 7.04653e-08 8.351167e-08 1.0397277e-07
000050 db c9 61 32 db 94 da 32 01 80 46 34 b5 82 8f 33
       1.314262e-08 2.5446232e-08 1.8486755e-07 6.682732e-08
000060 df 73 ac 32 6c 3d e9 30 5d 40 61 34 b3 47 1f 34
       2.0076127e-08 1.6970438e-09 2.0978173e-07 1.4834113e-07
000070 37 76 14 34 43 29 1f 34 fb 97 fd 31 a1 96 05 32
       1.382658e-07 1.482304e-07 7.3805473e-09 7.775868e-09
000080 c0 a5 cb 34 f2 cd cf 34 aa ad 49 33 df 29 9b 31
       3.7932296e-07 3.87066e-07 4.6956906e-08 4.515854e-09
000090 29 b8 78 32 d2 34 d6 32 d1 6c 5a 33 cf 6e a4 33
       1.4477373e-08 2.4936899e-08 5.085605e-08 7.657001e-08
0000a0 c0 19 02 34 04 13 28 34 a2 41 27 34 d5 df cd 33
       1.2116561e-07 1.5653137e-07 1.5576964e-07 9.586771e-08
0000b0 3c a4 06 34 72 8e 42 34 dd 37 1d 34 53 cd 1d 32
       1.253947e-07 1.8119479e-07 1.4642087e-07 9.185288e-09
0000c0 19 c1 18 34 75 1d 06 34 62 92 7b 33 25 c8 2f 33
       1.4226352e-07 1.2490439e-07 5.8573626e-08 4.0927393e-08
0000d0 2b 1f af 33 8c 3b 74 33 f4 49 24 34 a0 d8 f2 33
       8.154742e-08 5.6864835e-08 1.5300594e-07 1.1308407e-07
0000e0 07 ab 64 32 06 57 e5 33 7f 51 7a 34 bf 4f 0a 34
       1.3310234e-08 1.0679473e-07 2.3312712e-07 1.2881263e-07
0000f0 c8 a9 97 32 6f 2b 42 34 48 90 18 34 bb d3 24 34
       1.7655921e-08 1.8083459e-07 1.4208592e-07 1.5350717e-07

exp_avg f4 [64, 128]
000000 ef 34 7d 35 f3 3b 02 36 d0 48 55 35 8b 2b 24 b4
       9.4326873e-07 1.9406405e-06 7.945464e-07 -1.5289531e-07
000010 cc 83 c2 35 b2 e7 e0 34 06 fe 13 b5 74 2e 1f 35
       1.4492484e-06 4.1891832e-07 -5.513142e-07 5.9299714e-07
000020 89 a3 9f b4 40 9f 50 35 0c a3 0d b5 c5 58 6e b5
       -2.9735045e-07 7.771778e-07 -5.276386e-07 -8.8791086e-07
000030 35 6c eb b5 8b e4 01 b6 82 5c af b5 9d f1 8b 35
       -1.7540357e-06 -1.9355527e-06 -1.3065439e-06 1.0426626e-06
000040 31 f2 08 36 d3 37 81 34 fc a5 ca b2 c1 cf 90 b4
       2.0406553e-06 2.406874e-07 -2.3591376e-08 -2.697325e-07
000050 ec 8e 58 35 48 ea 65 35 12 dc 14 36 41 cf ac 35
       8.067425e-07 8.565007e-07 2.2181816e-06 1.2875317e-06
000060 f4 0e 5b 35 0e da 36 b5 62 10 c3 b5 88 79 4b 35
       8.160562e-07 -6.8117595e-07 -1.45334e-06 7.5800244e-07
000070 c4 4d d5 b5 c0 61 f5 35 c8 c7 88 33 24 06 a6 35
       -1.589237e-06 1.8282371e-06 6.3693335e-08 1.2369751e-06
000080 c6 0c 3c b3 07 f8 38 35 eb 86 95 35 cb 5b ec 35
       -4.378378e-08 6.890627e-07 1.1140631e-06 1.7610085e-06
000090 b9 e3 c7 33 e9 4b 5e b5 ce 90 50 34 81 9b 8d b5
       9.308082e-08 -8.281191e-07 1.9424189e-07 -1.0550576e-06
0000a0 93 81 01 36 1f ca 9b b5 d2 83 ed b5 7e 32 6b 35
       1.929792e-06 -1.1607225e-06 -1.7696241e-06 8.76178e-07
0000b0 f3 7a f3 b5 47 79 6e b5 b8 51 9d 35 07 bb 7a b3
       -1.8140694e-06 -8.883839e-07 1.1721195e-06 -5.837776e-08
0000c0 97 4a 08 b4 30 ce ca 35 03 3c 0f b6 e8 d5 e7 35
       -1.2693123e-07 1.5110181e-06 -2.1343592e-06 1.7273096e-06
0000d0 35 56 a2 34 90 5e 86 35 66 db ab b5 0a 8c 4e 34
       3.0237575e-07 1.0011299e-06 -1.2804346e-06 1.9236191e-07
0000e0 43 9f 4c 35 35 09 a2 b5 71 3f 56 35 9c 60 fc 34
       7.622768e-07 -1.207262e-06 7.981353e-07 4.700895e-07
0000f0 d9 74 bf 35 33 34 c3 b4 6a 30 49 b5 44 ae d2 b5
       1.4264616e-06 -3.635956e-07 -7.4948787e-07 -1.5696937e-06
000100 90 be 75 35 03 39 5c 35 47 ea c8 34 48 b4 1c b4
       9.154692e-07 8.203935e-07 3.7423362e-07 -1.4594218e-07
000110 a3 aa bd 35 a3 bc 72 b3 49 b8 8f b5 e7 f5 0f 34
       1.4131259e-06 -5.651658e-08 -1.0707964e-06 1.3407372e-07
000120 8a b1 87 34 3d 27 b8 b3 7c 73 bf 33 3d 04 a4 b5
       2.5274886e-07 -8.575305e-08 8.915137e-08 -1.2220186e-06
000130 d2 48 f3 b5 1b cb 79 b5 5b b6 b6 b5 c2 9d 95 34
       -1.8126104e-06 -9.3055286e-07 -1.3613129e-06 2.7868197e-07
000140 16 05 8f 35 eb 0e ce 32 40 7a 73 b5 7d ca b7 34
       1.065581e-06 2.398834e-08 -9.070245e-07 3.4233736e-07
000150 5c 9a 7c 35 89 9b 90 35 3b d1 a1 35 c3 47 c6 35
       9.410194e-07 1.0774103e-06 1.2056329e-06 1.4773035e-06
000160 ff 3e 8c 34 7f 30 23 b5 63 14 8f b5 49 19 94 35
       2.6122868e-07 -6.0792803e-07 -1.0660264e-06 1.1034218e-06
000170 e5 6d cb b5 23 f5 65 35 fa 99 00 35 e7 0d 1f 35
       -1.5156662e-06 8.566587e-07 4.790778e-07 5.9252346e-07
000180 89 b8 ff 34 3f 3b 3d 35 3b 1e f5 35 d3 3d aa 35
       4.7631718e-07 7.04942e-07 1.8262721e-06 1.268398e-06
000190 35 27 4b 35 2d 63 16 35 6b 18 31 35 6f 4c 84 b5
       7.5680447e-07 5.6023674e-07 6.597317e-07 -9.857011e-07
0001a0 fc b3 a4 35 91 77 be 34 92 17 e3 b5 54 e0 27 35
       1.2271335e-06 3.5477254e-07 -1.6919678e-06 6.253879e-07
0001b0 0a 3d e7 b5 f6 10 0b b5 8c fa ae 35 d9 0e a1 b5
       -1.7228606e-06 -5.1806217e-07 1.3036929e-06 -1.1999756e-06
0001c0 eb 63 df 34 40 d8 d2 34 25 97 46 b5 b8 84 8c 35
       4.1609687e-07 3.927289e-07 -7.398069e-07 1.0469439e-06
0001d0 af 37 22 b5 e9 6a c5 b3 3d 8a b7 b5 65 f5 f6 b4
       -6.0430733e-07 -9.192974e-08 -1.3674795e-06 -4.599962e-07
0001e0 cc 2b 3c b5 9f 68 f4 b4 bd 7b 0c 35 cc 63 2d 35
       -7.009919e-07 -4.5524664e-07 5.2334127e-07 6.4592746e-07
0001f0 b7 7a c9 35 7e 91 78 b5 37 70 99 b5 b9 05 d8 b5
       1.5011382e-06 -9.259892e-07 -1.1432047e-06 -1.609492e-06
000200 f4 51 a4 b6 88 0a 45 b7 d8 1a 66 b6 7c 1f f5 36
       -4.8971215e-06 -1.1744567e-05 -3.4288296e-06 7.3052342e-06
000210 4d 8b 50 b7 1f 83 1c b5 09 65 58 37 3d f7 00 b6
       -1.24302e-05 -5.8305335e-07 1.2898127e-05 -1.9217398e-06
000220 c9 66 31 35 c8 d0 31 b5 e2 4b 92 36 92 37 7c 37
       6.608721e-07 -6.6241455e-07 4.359973e-06 1.5033309e-05
000230 60 96 8e 37 04 8d 18 37 43 d2 83 37 5c 4b 1c 36
       1.6997743e-05 9.092739e-06 1.5714328e-05 2.3289676e-06
000240 2c ba 68 b7 3a 37 1c b7 b2 fd 6c 37 a2 ae f9 b4
       -1.3871624e-05 -9.311183e-06 1.4125764e-05 -4.6506926e-07
000250 79 21 4d b7 2d 33 90 b7 fa 31 80 b7 36 37 79 b7
       -1.2226746e-05 -1.7189968e-05 -1.5282061e-05 -1.4854411e-05
000260 85 7a 45 b6 d8 86 59 37 04 31 4c 37 fb b5 88 b7
       -2.9426603e-06 1.2965604e-05 1.217076e-05 -1.6297205e-05
000270 e6 da 54 37 14 7b 4b b7 d1 3e 7a b6 39 5f dd b6
       1.2687151e-05 -1.2128399e-05 -3.7289467e-06 -6.5973986e-06
000280 ee 53 bb b6 5e 52 b8 b6 03 d4 84 b7 47 5d 8e b7
       -5.582805e-06 -5.493216e-06 -1.5834352e-05 -1.6971155e-05
000290 c4 bb 40 b6 a8 a3 3d b5 f3 60 48 b7 d6 0a d1 36
       -2.8719523e-06 -7.064614e-07 -1.1943502e-05 6.229947e-06
0002a0 ed e6 35 b7 7f 1f cb b6 2c 8d 82 37 f6 23 16 b7
       -1.0842207e-05 -6.053538e-06 1.5562946e-05 -8.9490695e-06
0002b0 d6 be 83 37 cc 35 25 37 95 33 81 b7 21 6c 36 37
       1.5705282e-05 9.847292e-06 -1.5402018e-05 1.0873221e-05
0002c0 7d d7 20 b6 79 de e4 b6 7e f9 2d 37 16 8a 62 b7
       -2.3967289e-06 -6.8208287e-06 1.0369693e-05 -1.35028e-05
0002d0 2b 32 ad 36 f6 79 47 b6 b5 34 61 37 2e 52 fe 36
       5.161642e-06 -2.9724301e-06 1.3423317e-05 7.579357e-06
0002e0 3e bf 4d 37 26 10 3f 36 9f 00 b4 b6 0e 4d ae b6
       1.2263479e-05 2.8470618e-06 -5.3644903e-06 -5.1945744e-06
0002f0 40 35 68 b7 35 57 4b 37 12 dc 70 37 1f c1 66 37
       -1.3840676e-05 1.2120047e-05 1.4356354e-05 1.3754033e-05
000300 18 e8 a7 b6 46 2b 62 b7 b9 ef b2 b6 41 09 f6 36
       -5.004007e-06 -1.3480725e-05 -5.332721e-06 7.3324486e-06
000310 5f 1f 53 b7 da 52 4d b6 1b ec 66 36 38 c4 89 b6
       -1.2583884e-05 -3.0595606e-06 3.4410102e-06 -4.105761e-06
000320 01 c6 77 36 fb 04 9f b6 64 5d 01 37 9f 48 70 37
       3.6921122e-06 -4.739149e-06 7.710743e-06 1.4322023e-05
000330 81 2e 8d 37 3e 00 25 37 7c 74 32 37 f8 2b f7 b3
       1.6830165e-05 9.834823e-06 1.0636748e-05 -1.1509832e-07
000340 56 c7 81 b7 9b 68 56 b7 46 17 3d 37 10 d5 4d 36
       -1.5470821e-05 -1.2779749e-05 1.1270697e-05 3.06714e-06
000350 ba 6d 46 b7 89 c8 8b b7 22 80 88 b7 44 a4 24 b7
       -1.1827267e-05 -1.6663473e-05 -1.627213e-05 -9.813408e-06
000360 55 8b b8 b6 f4 ee 80 37 ff b8 66 37 00 de 39 b7
       -5.4998477e-06 1.537006e-05 1.3752141e-05 -1.1078548e-05
000370 3c 0b 5f 37 9d f1 6e b7 d0 4f 88 b5 a0 0c 1b b7
       1.32944515e-05 -1.424216e-05 -1.0156018e-06 -9.241659e-06
000380 48 93 f1 b5 96 55 b6 b6 ac dd 2d b7 0e 11 9d b7
       -1.7998764e-06 -5.433986e-06 -1.0363216e-05 -1.87238e-05
000390 df 40 50 35 fe 88 af 36 ac 94 36 b7 b9 7d da 36
       7.758044e-07 5.2313544e-06 -1.0882661e-05 6.5115423e-06
0003a0 a6 20 45 b7 50 8f fd b5 31 69 85 37 55 82 27 b7
       -1.1749717e-05 -1.8891678e-06 1.5903819e-05 -9.984321e-06
0003b0 e9 39 8a 37 15 cf 43 37 72 6d 0f b7 64 fb ed 35
       1.6477848e-05 1.1671121e-05 -8.548946e-06 1.773104e-06
0003c0 8f bd 8e 35 e3 69 23 b7 43 29 46 37 0f 88 85 b7
       1.0634993e-06 -9.740211e-06 1.1811327e-05 -1.5918193e-05
0003d0 e2 c9 1a b5 a1 5d fa b6 50 f4 5c 37 08 2b be 36
       -5.766325e-07 -7.4614804e-06 1.3169905e-05 5.6674508e-06
0003e0 02 55 33 37 e6 76 c5 36 bf a5 db b6 bd 17 96 b6
       1.0689024e-05 5.884899e-06 -6.546004e-06 -4.473112e-06
0003f0 fd c3 53 b7 c6 80 39 37 5c 39 98 36 b2 b5 63 37
       -1.2622212e-05 1.1056842e-05 4.5366305e-06 1.3572559e-05

exp_avg_sq f4 [64, 128]
000000 e3 e7 81 30 1b 93 08 31 a7 df 5e 30 86 6b 16 30
       9.451891e-10 1.9874224e-09 8.108096e-10 5.472248e-10
000010 54 fa 40 31 67 c6 59 30 d7 70 8c 32 7e 62 af 30
       2.8081972e-09 7.9226087e-10 1.6349459e-08 1.2760919e-09
000020 e5 bd be 30 31 19 70 31 1e 0c 3d 30 9b 10 a6 31
       1.3878291e-09 3.4938916e-09 6.877502e-10 4.8331237e-09
000030 da 4f 02 32 8a 69 4c 31 67 ce 61 32 f0 12 b5 30
       7.585152e-09 2.97459e-09 1.3143654e-08 1.3174866e-09
000040 a2 cf 35 31 f3 cd b0 30 cb aa 1d 32 24 11 11 31
       2.6456992e-09 1.286422e-09 9.177437e-09 2.111002e-09
000050 f9 35 2c 31 33 a1 bf 31 65 42 3f 31 26 59 5b 32
       2.5059974e-09 5.577158e-09 2.78319e-09 1.2767748e-08
000060 24 dc 97 30 da d6 af 30 fc a2 b3 30 b4 58 5b 32
       1.1049264e-09 1.279399e-09 1.3070287e-09 1.27676465e-08
000070 2d 6d 0c 31 0e c0 06 31 92 39 7b 31 73 0b cc 30
       2.043474e-09 1.9608737e-09 3.6558032e-09 1.4846208e-09
000080 b5 e5 a4 31 72 f0 09 30 65 e2 62 32 93 cc 23 31
       4.799143e-09 5.0182003e-10 1.32064075e-08 2.3835909e-09
000090 db 32 30 31 48 9d bc 31 40 c0 57 31 54 87 5e 30
       2.5640279e-09 5.489401e-09 3.13959e-09 8.095544e-10
0000a0 1e d9 3b 31 a7 ab c9 31 7e 84 92 31 a3 12 7a 30
       2.7335498e-09 5.8693845e-09 4.264222e-09 9.0975955e-10
0000b0 81 86 63 31 2c 88 4a 30 22 d0 76 32 87 a7 88 32
       3.3109304e-09 7.3680684e-10 1.43664085e-08 1.5908666e-08
0000c0 cf c7 67 31 b4 e8 fb 30 0e e7 07 31 4a 57 31 31
       3.3728502e-09 1.8328792e-09 1.9776425e-09 2.5806508e-09
0000d0 fd 72 16 32 25 9b 45 31 d9 a9 94 31 27 99 81 31
       8.7572944e-09 2.8755462e-09 4.3266764e-09 3.7718055e-09
0000e0 29 18 02 32 89 41 23 31 5d eb ca 2f a9 f1 94 30
       7.572489e-09 2.3756874e-09 3.6910822e-10 1.0837101e-09
0000f0 c9 7b 17 32 1e c9 f1 31 a7 2d 94 32 75 3d ce 31
       8.817502e-09 7.0368875e-09 1.7250228e-08 6.002376e-09
000100 23 41 88 30 12 da 60 31 7e a4 cb 2f 82 88 07 30
       9.913815e-10 3.2720249e-09 3.7042364e-10 4.9306703e-10
000110 47 01 68 31 a6 3e 43 2e 89 6c 0d 31 8e 7b eb 2e
       3.376117e-09 4.439351e-11 2.0579896e-09 1.07085105e-10
000120 a0 da 80 2e d6 53 ec 2e d3 3d eb 2f 70 8f 5e 31
       5.859602e-11 1.074693e-10 4.279018e-10 3.2386787e-09
000130 6e 8a d3 31 21 c5 01 31 0f 6e 9d 31 d8 ab 28 2e
       6.156646e-09 1.8884025e-09 4.5818136e-09 3.8351405e-11
000140 6d bc 96 31 f3 0a c8 30 13 4b 43 31 82 f3 29 2e
       4.386996e-09 1.4555027e-09 2.841891e-09 3.864243e-11
000150 dc d0 14 31 66 a0 94 31 2b 63 9a 31 c1 28 7e 31
       2.1655557e-09 4.325602e-09 4.493264e-09 3.698503e-09
000160 9b 5e bc 2f fb b1 0b 31 6b 07 1e 31 bc 00 a1 31
       3.4264222e-10 2.0328332e-09 2.2996243e-09 4.6858e-09
000170 95 6d 52 31 08 ca 65 31 45 b9 a2 2f 97 30 97 30
       3.0621312e-09 3.3438727e-09 2.959927e-10 1.1000506e-09
000180 6d 0c 90 2f e9 35 d6 2f 8a 7b 8b 31 39 66 87 31
       2.6202276e-10 3.896468e-10 4.059477e-09 3.9406385e-09
000190 16 70 50 2f 13 b4 d5 2e d2 ac f1 30 86 ef a1 30
       1.8957311e-10 9.718106e-11 1.7584176e-09 1.1782368e-09
0001a0 4e 27 6c 31 2f fb 3e 2e 9c b0 bb 31 ce 42 ca 30
       3.4364862e-09 4.3424094e-11 5.4624945e-09 1.4716421e-09
0001b0 aa 7c b5 31 8f ea 9e 30 a8 26 85 31 f4 b0 dd 30
       5.281966e-09 1.1562679e-09 3.875204e-09 1.6130159e-09
0001c0 53 6a d7 2e 8c f1 a3 30 08 58 43 31 cf c9 90 31
       9.795955e-11 1.1928463e-09 2.8426275e-09 4.2138946e-09
0001d0 00 7e ce 2e ca 2c c9 2f 6a ca 86 31 c1 8d 28 30
       9.3901775e-11 3.6593512e-10 3.922925e-09 6.131949e-10
0001e0 24 04 d1 30 4a c3 41 30 0c 2a 13 30 e8 8b d6 2f
       1.5207928e-09 7.0490513e-10 5.353804e-10 3.9025783e-10
0001f0 55 9d 95 31 b6 22 0d 31 7d 40 2c 31 7f 5f 6c 31
       4.3543573e-09 2.0537931e-09 2.5065952e-09 3.4396803e-09
000200 61 29 d7 31 d5 8b f7 32 bc 11 65 31 0d cb b2 31
       6.262028e-09 2.8818173e-08 3.3333967e-09 5.203566e-09
000210 64 09 d8 32 5e 0b b4 30 d4 cc 36 33 17 bf 45 31
       2.514998e-08 1.3099954e-09 4.2561467e-08 2.8775895e-09
000220 25 5e 07 31 97 bc 00 32 ad 7e 25 31 6f 6f 12 33
       1.96986e-09 7.493461e-09 2.4082667e-09 3.4094622e-08
000230 83 eb 60 33 bf fc 10 33 22 09 58 33 c2 75 89 31
       5.236826e-08 3.3757484e-08 5.0299725e-08 4.0006123e-09
000240 b8 ed 01 33 50 56 4c 32 1d 03 26 33 0f 5a 6f 31
       3.0251357e-08 1.1893988e-08 3.865272e-08 3.483027e-09
000250 8e 77 b0 32 ad 90 21 33 b5 99 1d 33 9f 9e 45 33
       2.0543464e-08 3.7617315e-08 3.6694207e-08 4.6011902e-08
000260 7b 83 6d 31 80 62 92 32 87 95 9e 32 c2 7c 61 33
       3.4562777e-09 1.704143e-08 1.8461618e-08 5.250036e-08
000270 26 87 c9 32 7a 28 d1 32 2f 01 04 32 0c fb 2c 32
       2.3460938e-08 2.4349209e-08 7.68368e-09 1.0068799e-08
000280 1c 11 4b 32 87 0a a7 31 4f 8c 57 33 4f 75 1a 33
       1.1820045e-08 4.8615365e-09 5.01862e-08 3.596261e-08
000290 1e 5e af 31 1f b1 4d 32 e9 8d a6 32 45 1e 02 32
       5.10387e-09 1.1972843e-08 1.9389477e-08 7.573878e-09
0002a0 90 22 2a 33 0a 0b 6f 32 6e fa 25 33 3a 0e 2d 32
       3.9612644e-08 1.3914141e-08 3.864482e-08 1.007316e-08
0002b0 40 31 18 33 2b 09 1d 32 59 87 53 33 30 23 1f 33
       3.543505e-08 9.140687e-09 4.9250364e-08 3.7052075e-08
0002c0 7b 73 e4 31 30 6e 78 32 7e bc 0a 33 88 3b db 32
       6.648802e-09 1.4460554e-08 3.230206e-08 2.5522027e-08
0002d0 df af 9d 32 6b ed 1d 32 b3 de 06 33 2a 7e 67 32
       1.8357182e-08 9.192585e-09 3.140185e-08 1.3474656e-08
0002e0 81 a1 ee 32 b9 98 37 32 14 1d 86 31 42 d3 bb 31
       2.778029e-08 1.0686727e-08 3.903219e-09 5.4664335e-09
0002f0 10 40 36 33 ab cf f5 32 0c d4 4f 33 00 17 19 33
       4.243344e-08 2.861619e-08 4.83888e-08 3.5644007e-08
000300 cc df dc 31 d2 5f d7 32 6d 44 5f 31 c9 1c ac 31
       6.4282855e-09 2.5072868e-08 3.2489667e-09 5.0091313e-09
000310 97 10 e8 32 51 a6 1f 30 97 0f 39 32 50 5e b6 30
       2.7015899e-08 5.8080213e-10 1.0771962e-08 1.3269048e-09
000320 90 d7 61 30 0a 19 c8 30 8f 42 93 31 3e c2 f7 32
       8.2160856e-10 1.4559032e-09 4.28583e-09 2.8842916e-08
000330 76 ef 4f 33 15 7e 8f 32 d6 e7 e9 32 34 b0 6c 2f
       4.841373e-08 1.6704726e-08 2.7230197e-08 2.1526675e-10
000340 24 7b 0a 33 86 db 5c 32 73 b5 ac 32 a7 74 06 30
       3.2242625e-08 1.2855599e-08 2.0105949e-08 4.891469e-10
000350 86 e1 a4 32 d7 2a 10 33 02 a3 17 33 5f 7a c9 32
       1.9194669e-08 3.3566575e-08 3.5305682e-08 2.3455128e-08
000360 64 06 5a 31 88 1d ad 32 8e c2 c5 32 a9 31 f3 32
       3.1726808e-09 2.015328e-08 2.3022292e-08 2.8311506e-08
000370 cb fe e6 32 10 88 d9 32 e5 12 a1 30 f3 7f 21 32
       2.689139e-08 2.5323999e-08 1.1719662e-09 9.400526e-09
000380 77 27 ea 30 ef 41 9d 31 67 ca ed 32 e5 c6 1b 33
       1.7036957e-09 4.576797e-09 2.7682473e-08 3.6269643e-08
000390 76 2b a3 30 0f d6 a1 30 21 e1 7a 32 aa d9 13 32
       1.1872163e-09 1.1775131e-09 1.4603104e-08 8.606017e-09
0003a0 9b c3 d4 32 7d e7 ee 2f 5d 7c 38 33 7d 21 5a 32
       2.4769e-08 4.345643e-10 4.2953946e-08 1.2696884e-08
0003b0 79 29 37 33 af 5b 56 32 85 3a c0 32 48 05 0c 32
       4.2645727e-08 1.2477286e-08 2.2378353e-08 8.150273e-09
0003c0 c0 76 e6 2f fb 67 3a 32 77 09 be 32 ab f8 06 33
       4.1921133e-10 1.0850267e-08 2.2123215e-08 3.142547e-08
0003d0 ad 51 1d 30 06 60 8d 31 2a 67 00 33 67 d0 a0 31
       5.7232336e-10 4.1145567e-09 2.989615e-08 4.6803055e-09
0003e0 d2 f7 4e 32 cd 10 b0 31 01 c2 b8 31 c6 ff 72 31
       1.2047126e-08 5.124184e-09 5.3771605e-09 3.5361025e-09
0003f0 a2 97 fe 32 eb 84 8a 32 3d 80 70 32 71 4e f8 32
       2.9638446e-08 1.6125759e-08 1.3998997e-08 2.890667e-08

exp_avg f4 [64]
000000 6f 94 45 b6 52 c3 e2 37 ba de 6a b7 07 0f 71 b7
       -2.9441687e-06 2.7032253e-05 -1.3999344e-05 -1.4368218e-05
000010 1b d7 b1 b6 7d 06 f8 37 5a 4c 2c b7 d6 35 9f b7
       -5.3000526e-06 2.9566925e-05 -1.0269776e-05 -1.8979346e-05
000020 c0 8b 4e b7 90 8b 80 37 a8 10 00 b8 da 6b 2c b5
       -1.2311095e-05 1.5323778e-05 -3.053309e-05 -6.423194e-07
000030 14 d4 8a 36 ff 25 20 b7 c4 f7 a0 b6 08 f4 a1 b6
       4.1374096e-06 -9.54559e-06 -4.7972153e-06 -4.826583e-06
000040 cf 10 d1 37 a9 28 f1 b6 5b 70 61 b7 2e c0 ea b5
       2.4922569e-05 -7.187093e-06 -1.3437205e-05 -1.749029e-06
000050 f4 16 93 36 f9 e7 10 37 79 01 18 37 34 19 40 37
       4.3836135e-06 8.637079e-06 9.060249e-06 1.144996e-05
000060 06 1e 20 37 6b d1 15 37 ac 78 92 37 f2 53 a6 37
       9.5437335e-06 8.929851e-06 1.7460748e-05 1.9827832e-05
000070 3a ae 0b 37 ee ee d6 35 bc 50 51 b7 03 b4 49 b7
       8.325611e-06 1.601378e-06 -1.2476168e-05 -1.2022446e-05
000080 e3 d3 ca 37 ef 51 72 b7 06 84 91 36 82 01 ce b7
       2.4178944e-05 -1.4443401e-05 4.3367063e-06 -2.4557816e-05
000090 c5 0b c4 b6 1c 29 d1 36 b5 2b 62 37 c1 25 9e 35
       -5.8426253e-06 6.233471e-06 1.3480826e-05 1.1782905e-06
0000a0 6c 73 31 37 cf 8f f2 36 25 a1 4f 37 4a d6 91 36
       1.0576896e-05 7.2289035e-06 1.2375681e-05 4.3462833e-06
0000b0 1e f8 10 38 6b 6a e3 37 8d 61 98 37 30 00 bd 36
       3.4563353e-05 2.7110063e-05 1.8165238e-05 5.6326608e-06
0000c0 4d 9a 26 37 76 60 18 37 12 48 ce 36 8c bd b1 b5
       9.930297e-06 9.082365e-06 6.1476685e-06 -1.3242693e-06
0000d0 a8 f6 83 b7 b6 78 b7 36 35 51 ba 35 ad 9e 7a b7
       -1.5731275e-05 5.4678776e-06 1.3881714e-06 -1.4938106e-05
0000e0 0d 10 dd b6 e1 ca cd b6 11 42 48 b7 2f 16 aa b7
       -6.588182e-06 -6.1330943e-06 -1.1936311e-05 -2.027591e-05
0000f0 b3 df 4f 36 98 a8 ca 36 ff 9a 91 b7 33 fb b4 37
       3.0975614e-06 6.039696e-06 -1.7357523e-05 2.1574646e-05

exp_avg_sq f4 [64]
000000 3f a2 9a 32 7f 6b 0e 34 38 0b 26 33 96 53 02 33
       1.800174e-08 1.3263887e-07 3.866009e-08 3.0344005e-08
000010 27 14 ed 31 80 33 13 34 fa ba 7e 33 40 fb 72 33
       6.899899e-09 1.3709177e-07 5.9309038e-08 5.6573526e-08
000020 53 a1 1e 32 f5 07 70 33 5a 59 0c 34 a1 f4 e1 31
       9.233491e-09 5.588659e-08 1.3071022e-07 6.576173e-09
000030 6c 3d 6d 32 4f 5b 03 32 49 35 f1 31 77 1c 88 31
       1.3809181e-08 7.645965e-09 7.020081e-09 3.961357e-09
000040 d9 15 b4 33 27 fe 3f 33 4a 94 5f 33 32 4e c3 32
       8.385877e-08 4.4701803e-08 5.20561e-08 2.2736547e-08
000050 f7 50 99 31 ad 5f e2 32 fa e2 49 32 5a 66 92 32
       4.4620907e-09 2.6353371e-08 1.1751348e-08 1.7043181e-08
000060 67 58 8c 32 1e f4 a8 32 65 8b e5 32 a6 95 62 33
       1.6338346e-08 1.9668786e-08 2.6722498e-08 5.275583e-08
000070 a1 b3 59 32 b7 67 b2 32 4a bb 0b 33 03 16 27 33
       1.2671905e-08 2.0769091e-08 3.2533798e-08 3.8902737e-08
000080 3e f1 e5 33 ac 08 ea 32 16 7d 1a 31 4c 44 9d 33
       1.0707525e-07 2.7245129e-08 2.2481053e-09 7.323305e-08
000090 ee 61 ca 32 e5 5d a2 32 fa c4 18 33 40 ca dc 32
       2.3560428e-08 1.890198e-08 3.5569407e-08 2.5703343e-08
0000a0 68 a8 94 32 ef c0 6d 32 b0 64 2f 33 4a a6 18 33
       1.730605e-08 1.3839084e-08 4.0836937e-08 3.5541497e-08
0000b0 12 c3 16 34 8e 49 e8 33 32 9b 39 33 1f ba e8 31
       1.4040805e-07 1.08167214e-07 4.321482e-08 6.773248e-09
0000c0 80 08 82 33 3e 17 9f 32 c9 a4 a5 32 9f 99 ab 32
       6.055143e-08 1.8520605e-08 1.9283464e-08 1.9976879e-08
0000d0 25 40 5c 33 d8 cd d7 31 4d 1a af 32 9b ac 91 33
       5.128108e-08 6.2807253e-09 2.0384642e-08 6.7834854e-08
0000e0 6c 52 77 32 d8 9a bd 31 61 0a a8 32 c4 09 54 33
       1.4396033e-08 5.5182277e-09 1.9562494e-08 4.936898e-08
0000f0 cb 20 19 31 34 9a 0f 33 22 b9 b2 33 ea 20 89 33
       2.228307e-09 3.343503e-08 8.3224464e-08 6.385547e-08
