results/pretrain/checkpoints/A04_H064_L02_D01_Tanh_W4096_P010000_Adam_PT_True_device_cuda_dtype_float64_chkp.pt (torch, 386251 bytes, 30 tensors)

layers.0.fc.weight f8 [64, 2]
00000000: e086 7a2f 3fc7 e73f 81df 7379 6e27 c93f
00000010: 1414 e524 d0f1 b0bf ec30 6c7d 807c e73f
00000020: ddb0 022a bd1d c93f 2379 c04f d45d d73f
00000030: 85f8 5203 1408 e1bf ac27 2fbd 0dda c6bf
00000040: d9cb cea6 63c4 c93f 86da bb02 a8e4 c2bf
00000050: c3c7 bbd6 c561 c6bf bc14 cb30 1f75 dcbf
00000060: 030b 40fc e8f8 d4bf 49fc 764c 6f7b be3f
00000070: 9d72 49ea c4be a73f 6231 fa9f 06ab 7ebf
00000080: c2a1 5ed3 fb4b 99bf a7ff 1510 448e c4bf
00000090: 9a52 79fc b730 d03f 8914 2e4a 6ea8 d53f
000000a0: a75b 3e4d 2a02 d8bf 39c6 508d e216 c13f
000000b0: 1bf7 82f9 56cf e6bf ba74 4987 9550 95bf
000000c0: 89e5 6efd 1bfd dfbf 72d6 59d4 401c 783f
000000d0: 95ee a877 b516 b73f 00e1 204b c8cb c53f
000000e0: eb62 fb1a f738 d83f 361e 26d6 4f25 d0bf
000000f0: eef7 31db ca81 e13f 7db3 e8aa e3c5 c73f
00000100: 8b7c 3bb4 8756 dcbf 6977 5d4b 7a38 dcbf
00000110: c85a b588 325b c93f 00de 58ec 1e48 de3f
00000120: c449 48aa f20b c83f 124d 62ed 3547 be3f
00000130: b543 06cb 39bb d93f 5595 d654 5d4d a1bf
00000140: 6b9b f157 cf42 d8bf f984 fb27 457e e0bf
00000150: dae7 1c52 9ec3 dc3f fcfc 95af 75c2 c6bf
00000160: 860a efba 7851 86bf 9f15 583e 4391 b0bf
00000170: a312 e68f 4343 e03f 9d8e 29ce 0270 e4bf
00000180: 88e7 8f56 a5c9 e73f 3ebb e626 6e8c d93f
00000190: 49cf 4385 865a dc3f 2258 d309 7d28 d3bf
000001a0: 2b4a f097 6e1c debf 235f 9ecd de4e de3f
000001b0: e907 1011 e643 df3f 2d51 1f35 d4f2 c1bf
000001c0: 8b73 d041 0510 d03f f09c 73ae efd9 d33f
000001d0: 18c6 6972 1b9a eabf 9364 8aa0 a0fe 81bf
000001e0: b323 8024 8111 b53f c390 855d 27ad e3bf
000001f0: 5f09 afbe 6d6f dbbf 2510 0a2f 57e0 e03f
00000200: cf15 9cd0 d064 c13f 3412 8076 9466 e0bf
00000210: 3515 42af c20f babf ef72 c9b6 d363 d53f
00000220: 6c5d 68b2 812d e6bf 6484 aa88 fc0f c93f
00000230: 7c0a 36df a5c3 da3f 0b0b be0c d168 d53f
00000240: e4e8 2640 9e8b c5bf e324 6591 9aac d33f
00000250: acf2 30bb d3d6 eabf 9572 af4f c0d1 c0bf
00000260: c482 925b 481b e1bf 6ff7 6849 a26d d7bf
00000270: d29f 3290 72e0 afbf 782e f944 a5cb dbbf
00000280: 3a92 4095 be5d e0bf 5b56 ecbc 63b8 bbbf
00000290: 1f7d 3a5e d630 cbbf 437f 7b69 0fa9 d5bf
000002a0: 04ba 613b b9ba c6bf 0f39 91f3 15bc 753f
000002b0: 1902 ba76 e63b cf3f 8e74 19bc 9a01 bcbf
000002c0: e831 c4f1 e4f0 c73f 2be4 4547 bfde d8bf
000002d0: 39a1 2774 54fa 7c3f 4555 150d b18e d73f
000002e0: 480d 4720 b708 e53f 61cb 9545 55a8 e1bf
000002f0: 09e5 8a66 d5dd d43f 330d cc76 d6bc c4bf
00000300: 294f 26b6 6aff e0bf 2172 a2a5 fbfb d1bf
00000310: 4792 93ab 694c d33f 8394 7c33 649b c13f
00000320: 3b24 0235 5d24 dfbf 5c81 37dc c836 e33f
00000330: 7891 6e7f 7a7b d23f ce1b 5521 e94d b13f
00000340: 6fb3 d7f9 30d2 b7bf f0e8 5437 5924 e63f
00000350: 39a1 eec3 9cdc b73f d3f7 2934 eac0 e83f
00000360: 6738 76a4 6945 e13f 3eeb b18b fd58 cbbf
00000370: 58d0 8a64 ffc3 d43f e880 e9a7 c54c 963f
00000380: 1b27 b222 38b2 a23f 86ee b3e8 9e1d e2bf
00000390: 58c7 f6b2 a230 d13f 5ec9 76b4 a937 e3bf
000003a0: 39d2 8a13 ea9d b03f 1f20 95dd a6b8 bfbf
000003b0: fc1f 27e1 752f da3f 841e 416e bae5 cabf
000003c0: 4d3a 3b87 56ee d4bf 5eb6 2489 596f d03f
000003d0: a762 2c7a adf1 e3bf 6efb 19c4 f51f d93f
000003e0: f4f6 0c41 d5b9 e8bf 8972 0c6e b5a3 d53f
000003f0: f20e fb6d 8c68 d7bf 9c49 05ca 70d4 b83f
0.743072121364289 0.19651585512451322 -0.06618977452042457 0.7339479875240875 0.19622005988401883 0.3651018885447163 -0.5322361054347914 -0.17852946984777185
0.20130582470809946 -0.14760303624617083 -0.1748587893012524 -0.4446485496994901 -0.3276922667866275 0.11907096497360316 0.046377328490710946 -0.007487321737823601
-0.02470391728971478 -0.16059160981603535 0.25297355323463366 0.33840520137921054 -0.37513215583151766 0.1335108938233576 -0.7128100274346453 -0.02081521642900406
-0.4998235678609367 0.005886319389551186 0.09019025966056866 0.1702814452016881 0.3784768832679634 -0.2522773352907025 0.5470937997013132 0.18572660298505275
-0.44278137780015275 -0.44094712600587244 0.19809562373366973 0.4731519039227976 0.1878646213013565 0.11827408833987743 0.4020523531590315 -0.03379336987135654
-0.37907775486239953 -0.5154138356121215 0.4494396020778574 -0.1778094394066797 -0.010897582249417736 -0.0647165324408747 0.5082109270593559 -0.6386732126815847
0.7433649721781288 0.399196184148355 0.4430252362646923 -0.29934621772315684 -0.47048535192257884 0.47356386260934097 0.4885192076327472 -0.14022305101264845
0.2509778158872044 0.31017677341738104 -0.8313119158394242 -0.008786444567976203 0.08229834691168385 -0.6148869349094855 -0.4286760675569407 0.5273853224503041
0.13588915048619163 -0.5125219644983816 -0.10180298594248856 0.33421795702251605 -0.6930550083660996 0.19580036805294576 0.41819140241583574 0.334522497600276
-0.1683233083002228 0.307409898745915 -0.8387240081861669 -0.13140109911809775 -0.5345804012796056 -0.36606652420947844 -0.062259273626579806 -0.4343045400207539
-0.5114434161265031 -0.10828231203444132 -0.2124278984165153 -0.33844361592308675 -0.17757335090159654 0.0053063256719510085 0.24401551053235052 -0.10939948169967037
0.18703901104926435 -0.3885954090142742 0.007074670693761492 0.36808420446080375 0.6573138838215664 -0.5517984732708606 0.3260396481887971 -0.1620128707946634
-0.531178813706423 -0.28100482154130374 0.30153886561882753 0.13755466951366566 -0.4865944879207437 0.6004375744924277 0.28878652996561227 0.06759507240086224
-0.09305101489708333 0.6919370728203642 0.09321002753734299 0.7735491770579251 0.5397232257980819 -0.2136532718758079 0.3244627458436802 0.02177723729471462
0.03651595519575165 -0.5661158127763464 0.26859347798300837 -0.6005447888076494 0.0649095819197293 -0.12391131314973379 0.40914675700741987 -0.2101357496596742
-0.32704699712931956 0.2567962493220416 -0.6232516657065234 0.392575685029377 -0.7726846952934623 0.338116986722334 -0.3657561372785799 0.09699158603806385

layers.0.fc.bias f8 [64]
00000000: 2da5 667c 61a7 e8bf d677 a4b8 92f1 e6bf
00000010: e92e 7161 100d da3f e0b2 f45a 72c0 e5bf
00000020: 0389 cc72 a7da a23f ffd3 9673 62a7 e13f
00000030: 9f11 9989 11f5 d2bf 536c ca0e 2cd5 e5bf
00000040: 8f55 95c4 64eb e2bf bc49 5016 1f96 d93f
00000050: 7f53 f577 8311 c03f 3de4 e2fe a40a 9cbf
00000060: aa06 634b a6bd e5bf 4d05 f46b ca4e e13f
00000070: 9edb 9a05 1e9e cc3f 7993 cb51 05aa d23f
00000080: 67da 8236 7d81 e3bf 7ee4 5573 2c7f 7a3f
00000090: 468d 1cee bed8 e0bf 016c b1ca b565 e4bf
000000a0: 5752 d3d7 92cf d93f 0ffa 0717 9c7a cb3f
000000b0: dce4 fe88 ed3a e5bf 5fcf caf9 8740 e63f
000000c0: 56ba 5b37 1720 d93f 0e87 1487 2ef9 d13f
000000d0: aa11 6020 a36d d33f d665 76ef 39eb d93f
000000e0: 174a 9164 326a d2bf e0f6 cebf da4c a6bf
000000f0: 0204 b0f5 fbe8 e43f a7dd b655 0e7d d73f
00000100: 2b18 da8a a2ef d0bf 9565 46b3 fe58 e33f
00000110: 3289 7d61 7be9 da3f 04f7 4f56 d856 cebf
00000120: 5343 d3ac a478 e13f 3549 2402 13ba d73f
00000130: 7db3 f4d2 d125 e73f 5a23 16de 3698 dcbf
00000140: cc30 8ec9 769c e6bf 6e41 be8f 9827 c1bf
00000150: 94e3 6d02 8ee1 e5bf 0744 b456 c77b d4bf
00000160: 8edf e9e0 e60c c13f 66b7 3849 8a47 e73f
00000170: 8fa8 d541 630e ab3f 1160 7bea ac11 cb3f
00000180: d187 854a 5a2d e0bf 113c 231a 1a42 d43f
00000190: 47c2 8cc7 2636 cd3f 19ab 32ce 2e34 ddbf
000001a0: 0e96 fed4 e26b d5bf afe4 5a26 89d8 da3f
000001b0: 9500 5e19 ea6d e0bf 9faa 9220 7982 dcbf
000001c0: 7c8c 9076 8e17 d6bf b040 5acb 3647 c2bf
000001d0: 06f4 7d59 405d e73f 81dd a6b6 a855 e2bf
000001e0: baf8 45b1 ba7d d6bf 9204 2b6d 09d5 e43f
000001f0: a251 dff5 5f16 793f 92bb b4ea 879a d53f
-0.7704322271066865 -0.7169889074609681 0.4070473624785636 -0.6797420288545162 0.036824448360009775 0.551682687530615 -0.2962077945451486 -0.6822719849473152
-0.591234573318319 0.3997876851946349 0.12553447110499502 -0.02738435559942708 -0.6794005844496571 0.5408680065594723 0.2235753562324278 0.29162724483312946
-0.6095567764921953 0.006468938479309403 -0.5264582300773462 -0.6374157866333691 0.403294287459436 0.21467925190513923 -0.6634433437058322 0.6953773382906369
0.392583660183765 0.28083384696411506 0.30356672441146293 0.4049820745945828 -0.28773174115227235 -0.04355510322009848 0.653440456255453 0.3670078122190383
-0.2646261554695026 0.6046136380638695 0.42050060768646624 -0.237025301117619 0.5459769607060515 0.37073207101015565 0.7233666534644808 -0.44679042518742096
-0.7065996109609158 -0.1340208722945237 -0.6837835357138027 -0.32005485026553554 0.13320623380763802 0.727482932101094 0.05284414461751041 0.21147691201508725
-0.5055362182140418 0.31653454353812643 0.22821507209438804 -0.4563099874164194 -0.3347098426841918 0.41946629281626263 -0.5134172912076048 -0.44546344929646325
-0.3451877744539116 -0.14279828004192074 0.7301332233324735 -0.5729564254205998 -0.35142390548561375 0.6510054714382412 0.006124853940452731 0.3375568191576629

layers.1.fc.weight f8 [64, 128]
00000000: 4195 ad81 7471 aabf aec4 42b7 e383 a4bf
00000010: 83d3 896d d45f a2bf 300a cb53 3012 b13f
00000020: dcc5 7806 21fd a3bf c894 0fb0 a07f b13f
00000030: 47d6 2fb1 f647 c23f 4692 b8d7 3ee0 aa3f
00000040: 9dac 8fa8 548f a63f d230 606c 304b bfbf
00000050: 241e a92a 7514 c53f 5678 1408 06f3 c83f
00000060: c723 88ad 1305 b53f 6b91 8b4b b807 713f
00000070: 18a1 447f 3d28 c0bf 246a d656 f2b0 c3bf
00000080: c6f9 5a27 c46e c13f e360 2638 21fb 9fbf
00000090: 1c26 3611 523d acbf 479a 15e8 9d92 b2bf
000000a0: 14d3 8bdb f130 c23f 5757 a88d 959a c2bf
000000b0: 6606 dcbc 6edf 97bf 2dc2 3db4 6072 c2bf
000000c0: f75b d1ca 20ef b9bf 90f0 6437 8ab6 c1bf
000000d0: 5b61 7af6 58aa c53f 7825 9ef9 ab2c 84bf
000000e0: 86b3 837d 389e c1bf e8bf 2c38 8dac b23f
000000f0: fd57 3a4b f341 b7bf a1eb b8ea 087f b03f
00000100: 7289 d468 2f80 b3bf 0e1c b1f9 ca27 a0bf
00000110: 1129 2768 b631 c33f 4c50 1659 b03e c1bf
00000120: 66d9 5d97 52c7 a9bf 114b a82c 0eb9 c53f
00000130: ab35 8324 b941 b0bf f55f 025c 08dc b43f
00000140: e089 17ac 09c4 943f 5b4c a8d6 bbcf b83f
00000150: b6db da51 b589 bb3f b169 367b 76a3 8c3f
00000160: 3d02 0843 cfe8 c1bf dd24 69a1 dff6 9bbf
00000170: 94c2 c159 9371 c0bf e540 24bd 9593 b5bf
00000180: 1fa9 2301 e4f1 9d3f db09 ff00 626b a0bf
00000190: a57c 2605 2ccb b93f d5f0 56f8 97da 9fbf
000001a0: f5b5 9b2e 2d9d 893f 9711 5ff4 4ea4 b7bf
000001b0: cb00 1ea4 9874 a53f ede0 8ae1 c2c7 aebf
000001c0: 7099 cbe7 1505 a23f 95bf 9c71 6e98 abbf
000001d0: 3a0f 8f54 8d52 abbf 6b0a 4cfb 1da1 bcbf
000001e0: c746 69ef 9063 b13f 5258 52df 16b4 5fbf
000001f0: 939b 4822 fcfc c83f 6c48 0490 98ce ba3f
00000200: db7c 9385 56a4 b93f 37c8 c304 a832 afbf
00000210: 2d31 8827 6e8d b8bf 458f 40ea 0c8b 93bf
00000220: 49dd 09ea 101b a7bf bc48 05f1 ac44 a6bf
00000230: 9d38 a039 a330 a43f 3330 7d76 1e91 a83f
00000240: 603a 0f90 f86a ba3f 348c 025e f9c7 b23f
00000250: 1c35 7173 4ebd 983f ac63 3cb9 10dd 943f
00000260: 3517 669f 8180 b93f b50a b65b 73b7 76bf
00000270: e08e 81ee 06b4 ae3f c3fb 52e4 c28a b3bf
00000280: e8cf 770b 7f57 973f 37cc 91da 9c4b a0bf
00000290: 6857 2ae5 7b6a 9c3f 18c8 8971 e39e 9fbf
000002a0: 7ec1 2419 9c3d 9e3f 281f e1d5 43ed a33f
000002b0: 7016 864b c76d a6bf 1b86 6948 242e 86bf
000002c0: 4c87 8150 3390 b1bf dcf6 649a b763 8a3f
000002d0: ff07 4d1a a87a a4bf 2421 4e22 287e b4bf
000002e0: 5714 4bc5 2c3b 8abf 3eb4 d593 1e5b b2bf
000002f0: 095c 1504 fb19 9a3f b7fc 670e 7a0b 8c3f
00000300: 3320 764b 8532 a53f ce5a d33a 06ad 803f
00000310: a7d3 3951 ce5e a33f 599d 21f8 00f6 a13f
00000320: 2158 9ad2 3c74 933f 20ce 921b fc08 8fbf
00000330: 38e1 e0bb 99b1 b5bf 807f c87e 9e1f 51bf
00000340: baf2 8996 5b27 7abf b545 fce8 4f33 aa3f
00000350: 5564 7277 5311 983f 75ca 230e c795 b13f
00000360: ec53 7c73 a794 7bbf c846 24a6 6da0 afbf
00000370: 3e45 677d 185d aa3f 166e 4a7a 5367 b8bf
00000380: abb4 e411 ece3 b2bf 45c7 f047 5a11 813f
00000390: ab27 58f4 8202 a9bf 68d1 7a3c d9a4 813f
000003a0: 89cd ad24 b282 a8bf 873d 633d 7514 a0bf
000003b0: 0c8e fc72 e2c6 a4bf 6a39 5aa6 99be b93f
000003c0: e1ea 31fb b011 b43f 6e06 2e8a e1aa 883f
000003d0: 0e9e ec3e c6e5 a5bf 4814 38c3 af29 963f
000003e0: d6f1 0aed c7fc 99bf 164f bbac f783 98bf
000003f0: 7bb6 3c46 6f80 b7bf 361a 62da 7d37 b13f
00000400: fa43 e60a 60de a93f 5bfd 12d6 2c85 b2bf
00000410: e6c7 02c8 1d29 80bf ae74 69f1 7a07 9f3f
00000420: 6f1c 6133 656a ae3f 43a0 2ded 0628 97bf
00000430: 6de8 be8a de88 9ebf db72 7dba b255 8ebf
00000440: 4571 4985 29ce 7c3f e282 07f7 bcd2 b0bf
00000450: 7bd3 8c51 14e1 b33f 3a57 67c2 ae66 ae3f
00000460: 8fc8 de9e b3d8 8ebf 6f49 e385 0928 7f3f
00000470: 5459 5967 7b0f ac3f 9ca2 45ec 9766 acbf
00000480: d273 2205 8655 a2bf e319 5d04 ba3e aabf
00000490: f740 9f4e 111d a3bf c258 f111 71d8 ab3f
000004a0: 7c58 06b0 719d 90bf 5287 f58d fb7f 933f
000004b0: c862 65b6 98b5 42bf 3afa 481e 0929 95bf
000004c0: 37b5 8115 fb65 b83f 735c 5a9f 6f54 9a3f
000004d0: 785b 6445 c508 693f 2c05 e356 8fd5 94bf
000004e0: e497 1b91 55fa aa3f 4051 118b 4949 ab3f
000004f0: 2bbe d90f f70b a4bf d5f8 3e0d affd 99bf
00000500: ec29 aa3c c651 76bf 7c88 4afb 8a90 893f
00000510: dcca 62ff 3559 b7bf 441e c500 56f9 8f3f
00000520: 93e5 5df2 1c3d 9b3f 7c6b 5f4c 0a25 a73f
00000530: 6093 fc76 d7c8 b2bf e382 b1dc dd74 8d3f
00000540: db82 d79e 542b a6bf 0443 0417 3031 a0bf
00000550: 2a12 4973 1d76 953f 39d9 d993 8770 a63f
00000560: 38ad 085b bde8 81bf 2ab2 3539 93d1 91bf
00000570: 14c5 9d98 f2e4 adbf 419a 9df1 b73b a7bf
00000580: e02f 62db 2910 83bf ab1d d910 2917 aabf
00000590: 018a 6753 1237 a83f ccbd 2d83 163f abbf
000005a0: b6d8 63de 6dd8 a93f 3375 470e bc75 9c3f
000005b0: d563 f921 8f91 9c3f c55b c15e cc7c ae3f
000005c0: b9e1 3e9b ab9e bfbf 8bd9 e87e 0e6d 93bf
000005d0: 9457 47fd 421d 28bf ca0a 5a04 ec88 92bf
000005e0: d91f 8f25 efa6 8b3f d17c ce59 4069 a3bf
000005f0: 4a43 93ae 8386 9bbf f593 6f2d ea54 b2bf
00000600: 8fb3 494e 46d9 ab3f 4f36 9cc0 8a16 b4bf
00000610: 2eb8 9742 8f27 a3bf 0fc8 b275 8caf 253f
00000620: 306f a410 7d30 b33f f72c 75e2 0027 c03f
00000630: 650d dc3c b3d6 9cbf 2085 4a29 3c26 aebf
00000640: f717 0fee d370 813f fb06 84a9 2e14 b23f
00000650: b3da efad b723 a7bf 90d9 9614 43cf bb3f
00000660: 9874 e32b f2a7 a83f 1b02 9bdd 3c9c a63f
00000670: a717 21ca aebd 7e3f fcde 6d65 bf2c a4bf
00000680: a970 9bb4 9dbb a83f 19ba bcf1 d756 b0bf
00000690: 435f ae0b 2319 c1bf 8e26 c4c8 87e8 ae3f
000006a0: 61d0 2150 579d b23f fd4c f612 8b91 afbf
000006b0: cde6 7301 63ee bdbf 81b1 dafd cb6f a73f
000006c0: 5a12 2783 a5d4 9dbf d354 b1fb 6b60 ab3f
000006d0: 7587 7903 b887 b03f 6348 2270 6b79 acbf
000006e0: 299b 51bc ae93 afbf e0ea f932 66ac b63f
000006f0: 4320 0cd9 f21a bf3f 4654 d27d eb2d 6ebf
00000700: 0470 c8e3 b414 a4bf 5439 80d1 fb0d b03f
00000710: 47a4 9d6f df2e 913f dd26 e6d5 cf6e 8cbf
00000720: 8f33 60db 6269 71bf d640 c8c3 8ed7 9bbf
00000730: cbcb 5279 36ad b13f d37d 9b4f cdcd 893f
00000740: 2c5f 74a5 87fc afbf b035 b871 d454 a9bf
00000750: efdd 783c 05bd b1bf 492f f5ea bbe5 813f
00000760: 4c8d 29f4 ff14 a1bf cdaf c350 45d5 af3f
00000770: d4af 817d b986 ab3f 46fb 98ce f893 b53f
00000780: 2319 9f23 c04c b73f dcaa e133 1869 a53f
00000790: 91ff 4b13 752e 93bf d3b0 4bc3 c6a7 9ebf
000007a0: 072b 83b3 b5dd c0bf 20b5 6957 adfe b33f
000007b0: bc62 dc02 074b b7bf 4454 86db d22e 81bf
000007c0: f975 49fc a6ca a5bf 776c 6acc bcb0 b2bf
000007d0: da2c c4df 5229 893f 8750 5ed5 465e b2bf
000007e0: dea0 24bf 4a3d a3bf 77a3 f774 8bf7 aa3f
000007f0: 1c0e d3d8 dc01 babf 8aa0 dfdf 7ef1 83bf
-0.05164684374794116 -0.04006873714514235 -0.03588737332476113 0.06668378873568126 -0.039040596046458126 0.06835369394646584 0.14282115604116738 0.052492107232215576
0.04406227643615888 -0.12224104543583117 0.16468681891477488 0.19491649050263743 0.08210871683708297 0.004157752897956927 -0.126228034155482 -0.1538374828349599
0.13619281694077595 -0.031231421520346535 -0.055155338860526565 -0.07254969516871156 0.14211867542294299 -0.14534253517984538 -0.02331326511103384 -0.14411553192941665
-0.10130505515677145 -0.13838317589568705 0.1692610934740156 -0.009850829653958768 -0.13764101151118896 0.07294542905287893 -0.09085007273310448 0.06443839769865047
-0.07617470082599256 -0.031553595523796316 0.1499546059188295 -0.13472561216315382 -0.05034883592354582 0.16970994167839895 -0.06350285664958359 0.08148243185348732
0.020279074791582974 0.09691976538333462 0.1075700116005994 0.013983655581616046 -0.13991728566181108 -0.027308935381630362 -0.12846605188999105 -0.08428321712222304
0.02924305207208377 -0.032069265958415825 0.10075640798321446 -0.031107306034514465 0.01250682161795689 -0.09235089746568402 0.04190518382438454 -0.06011780741886406
0.035195049805952006 -0.05389733445042492 -0.05336419732296212 -0.11183345208341115 0.06792550892830738 -0.0019350264895243896 0.19522048639302322 0.10471490398438882
0.10016384850631559 -0.06093335207141631 -0.09590805497299888 -0.01908512286912802 -0.04512837273517307 -0.04349270288607118 0.03943357542458268 0.047982170070639894
0.1031947471339918 0.07336386246838417 0.024159646793397646 0.020374547296430442 0.09961710111209927 -0.005546045892858832 0.059967247595322126 -0.07633607935257118
0.02279470927710739 -0.03182687919697751 0.02774995409216477 -0.03087954884035335 0.029531897577898196 0.03891956315834327 -0.04380629345818654 -0.01083019586548333
-0.06860657420614052 0.012885507964365876 -0.03999829598480175 -0.08004999959496623 -0.012808179636872348 -0.0717028723644981 0.025489732860787515 0.01369376522506936
0.041401067220306585 0.008142517729010559 0.037832686820287 0.03507998494097348 0.018998098711186743 -0.015153855887866163 -0.08474121891857045 -0.001045136242403516
-0.0063851907403857325 0.0511727306276372 0.023503593602616075 0.0686916741868034 -0.006733564477845438 -0.06177084591958032 0.05149151354602076 -0.0953266309319861
-0.07379031597948209 0.008333878822756833 -0.04884728653639966 0.0086152049619634 -0.04787213037243549 -0.031406081908808274 -0.040579868828242466 0.10056457816447098
0.07839494831743422 0.012044679669773486 -0.0427686645328401 0.021643396654344366 -0.025378345339719242 -0.023940915982918552 -0.09180350746893311 0.06725298482533834
0.05052471287775258 -0.07234459139271136 -0.007890923181864861 0.030301972374549173 0.05940548183621607 -0.022613628603181956 -0.029818989961974674 -0.01481189376470964
0.00703254908566137 -0.06571560889234321 0.07765318861932073 0.059377156477849316 -0.015061763082347105 0.007606541823593423 0.05480561863503178 -0.05547022589855041
-0.03580874264409996 -0.051259816200900386 -0.03733114323370217 0.05438569396999206 -0.016225601547909183 0.01904290250730096 -0.0005709643999508235 -0.020664350961164347
0.09530610346856326 0.025712722874768845 0.003055939955753425 -0.0203459164411061 0.05269114872298511 0.05329351255992032 -0.03915378635872132 -0.025381789382429815
-0.005449079859895605 0.012482724946782257 -0.09120500073440091 0.015612289331911396 0.02660031537332015 0.045204469511836515 -0.0733771005148589 0.014383061692741566
-0.04329933585154829 -0.031625273522996294 0.020958385621513788 0.04382728271314069 -0.00874469694198031 -0.01740102802925684 -0.058387356882017155 -0.0453774912301026
-0.009308173186830915 -0.05095794993081467 0.04729516285057756 -0.053215697777769216 0.05047934856149665 0.027792871829537446 0.02789901394712387 0.059545885626611596
-0.12351486721207196 -0.018970705505319024 -0.00018397753468829255 -0.018100440755470605 0.013501995404922628 -0.03791237922927738 -0.026880319147326838 -0.07160819634698597
0.05439204888975901 -0.0784689636459117 -0.03741119087122545 0.0001654490432421722 0.07495862633043937 0.1261902909994672 -0.02816276606519121 -0.05888545993844674
0.008515983297808545 0.07062045706336655 -0.04519437788251448 0.10863131764094747 0.04815632615803017 0.044160749484493965 0.0075051143376806745 -0.039403897410862115
0.04830639676740251 -0.06382512714183299 -0.13357961721771447 0.06036781621703567 0.07271333414411309 -0.06165728193732354 -0.11691874299495027 0.04577481721694011
-0.029131494645996937 0.05347001502438222 0.0645709045870982 -0.05561385864088277 -0.06167360352337987 0.0885681032613479 0.12150495337493887 -0.003684005684201827
-0.03922047882608129 0.06271337380187464 0.016780368030058914 -0.013883231845074057 -0.004250894699009757 -0.0271894747730251 0.06904926740644084 0.012599567405628875
-0.06247352499684519 -0.04947532547167144 -0.06929047323580283 0.008738964183656288 -0.03336334090706802 0.062174001797614765 0.053762241907719194 0.08428912204634029
0.09101487035431836 0.04181743272132163 -0.018731908133304002 -0.029936891240979712 -0.13176604523899746 0.07810481437782757 -0.09098857707830182 -0.008390090298045057
-0.042561739250896076 -0.07300930014246086 0.01228585000401099 -0.07175104817571497 -0.03757699569024607 0.05266986658882094 -0.10159092229428562 -0.009737960059240675

layers.1.fc.bias f8 [64]
00000000: efa5 21df 44b8 9dbf 796c 9ab6 9491 a03f
00000010: 49b8 f164 803c b33f d9ed 539d 64b9 a5bf
00000020: b039 6b3e 1332 87bf 9585 59e8 a24e a03f
00000030: 5d13 ec0b 1b27 98bf 3944 9de4 3f17 95bf
00000040: d431 935b 4b79 c93f 061e efc3 fdc9 a33f
00000050: dca9 d0a8 c3a0 6e3f 860f 41c6 2741 a23f
00000060: d447 1f3b 5300 ac3f 0c80 5a45 e707 a2bf
00000070: 5cc8 7938 2d96 a0bf 8d2d 06df 8509 953f
00000080: 82c8 22b7 078d b03f ffc6 6702 1f51 6c3f
00000090: 3320 458d 3d92 a9bf d1e5 65d1 ef44 b93f
000000a0: 7c5a c5ea ecd3 98bf 3de9 2030 bb7f a9bf
000000b0: f4e9 83b7 1268 b33f 65e8 c3e1 4266 b03f
000000c0: e333 80c7 90cf 523f b0a8 faf9 9e9a a33f
000000d0: 8fba cd7d b74c bbbf a912 06bd f59b a03f
000000e0: 25e6 5eff e326 7a3f 5c05 edf3 6fd9 9e3f
000000f0: d935 165a 6396 603f 816b 8f47 880b 5bbf
00000100: 8272 4a9f 6474 863f 8af1 7fbf e550 ab3f
00000110: b18b e2e3 8d94 b4bf 0fac b1e3 34bc ad3f
00000120: b24b 2424 5f47 96bf 301d 59ac e2a1 b43f
00000130: dd18 bc24 9d10 8f3f d9a1 7324 b630 a1bf
00000140: eebc aa59 d313 ae3f a367 2308 4bfa c83f
00000150: 624e 8f0e 961b c5bf 2baf c2ba bccc b4bf
00000160: afdc 619f d936 a53f cc87 2ae8 6d90 b83f
00000170: ac76 6754 f7bb 993f acd3 0727 3c86 9e3f
00000180: 2676 979c cef4 b13f d83d e11d 6bab adbf
00000190: d8ae 6c38 dade a63f ed3b b7c9 75ae b5bf
000001a0: 3ee2 c3ad 676d 883f dc38 78ce 8789 c63f
000001b0: 0c3d 74f8 baf9 b0bf 1f83 c1cf 4025 c03f
000001c0: 2dbf 38b1 a6bd b13f c613 7c80 728d a53f
000001d0: ee34 0ae3 9f12 a13f f239 7147 141c 92bf
000001e0: 7e05 caf8 a833 8d3f d036 1453 d016 b23f
000001f0: 9fa3 636d a5f0 adbf b715 0025 6420 babf
-0.029023243063795275 0.03236069420855698 0.07514193024118855 -0.04243006153589208 -0.011325979559299565 0.031849947798728774 -0.023586676218673264 -0.020596502617369537
0.19901411029276395 0.03865044609807104 0.003738767764408053 0.035653346014924245 0.05468998047548693 -0.03521654817200223 -0.03239575685883331 0.02054413961154249
0.06465194912996888 0.0034566503193155236 -0.04994385098922329 0.09870814192063128 -0.024245931462554257 -0.049802636742656926 0.07580677967408872 0.0640603829560021
0.0011481202946044204 0.03828903962615138 -0.10663935490968356 0.03243987972658619 0.006384745231053955 0.030126332533887065 0.002024835631067684 -0.00165069874332488
0.010964189635438663 0.053351573587835224 -0.08039175809476153 0.05807652739971313 -0.021756636219901267 0.08059517581670117 0.01516840713840078 -0.03357476420370959
0.05874500722472385 0.19513833901765762 -0.16490436278273807 -0.08124904212553179 0.041434097963184306 0.09595381658667107 0.025131096388455162 0.029808940775143775
0.07014170954740759 -0.05794844379181158 0.04466897906089934 -0.08469330000592352 0.01192742346801012 0.17607209760212228 -0.06631058278820862 0.12613687652903935
0.06930009676648004 0.04209478205124344 0.033345219101741694 -0.017685238705149993 0.014258689968530854 0.07066061046881633 -0.058476609805274686 -0.1020567503292885

layers.2.gsds.0.weight f8 [4, 64]
00000000: 3dc5 acfb 4a66 aebf 4f85 d090 cee3 a93f
00000010: 0c9c 6b3a 34f0 a53f a82f 065d 495d b63f
00000020: 5940 ea86 51b4 af3f 1010 73bb ce46 bc3f
00000030: 1897 d07e 1a09 babf f65b 90e7 4c2d 9abf
00000040: 01d6 4af3 e416 b1bf c772 2fb3 07d7 9fbf
00000050: 6cc2 2a87 f0b5 a5bf 0818 6ccb de64 b1bf
00000060: af52 aeef 1d75 c2bf 2377 f89e 5e91 a33f
00000070: e30d edb4 3214 a5bf 0572 d99d 251c b13f
00000080: dc82 6d5c 93fd b23f ff5c e99e 241c 953f
00000090: bdfe 2eb1 7764 a7bf 7e35 3cf0 44a6 c13f
000000a0: fe6b 9107 ed9e aa3f d2b6 e9ee 0d4d b53f
000000b0: 5195 4444 a989 bbbf 3335 1ce8 56d4 a93f
000000c0: 604b 3302 9e4e 95bf 1b35 d1ce 3723 b4bf
000000d0: 5c58 67f2 d667 c0bf b1e7 8347 ed46 b9bf
000000e0: c2a0 d215 5499 97bf 376b 1977 ce59 aabf
000000f0: 2d9d 47f0 ba8d a3bf e429 a016 0a3f b4bf
00000100: 9b4b 25ee aec1 c0bf 7118 dc60 67bf 7dbf
00000110: 6bd5 a352 240c b43f 6313 cc90 fd27 b8bf
00000120: 3f9a 3ded 5226 c13f 91a3 0048 209c a6bf
00000130: 58c5 07b7 2c8d b13f 3a8e 4666 c24c 913f
00000140: c8a7 4124 fde4 bb3f c4fd 6e77 6003 91bf
00000150: 895e 430f d40b bbbf 5280 071a 374e b7bf
00000160: 88be f229 f6d6 b83f e9dd ae85 2db9 bbbf
00000170: 7050 78b5 4810 b5bf 54b0 201d fba7 ac3f
00000180: 39b4 8a90 9fbd a83f 8e5f d93e bfd1 9d3f
00000190: 100e 6f75 42e7 a23f baa6 4742 d333 b5bf
000001a0: e775 1f00 d222 a2bf 9625 8984 ee20 85bf
000001b0: aa55 82fc 6d7f bd3f 679a 9758 8497 a7bf
000001c0: 65a4 f5ce 8cfe a0bf 34c7 e6c8 2100 a93f
000001d0: c613 6143 eba7 a9bf ba74 8287 e132 8abf
000001e0: db1a 3b41 fa42 bdbf dacf fb80 caf4 b33f
000001f0: b1e7 455c 93db a03f f522 e4d8 c012 b6bf
00000200: 4995 ab70 d674 883f 7983 7f3d 4ad5 bd3f
00000210: 0d96 a057 2882 bcbf ee32 8394 a173 99bf
00000220: 1a33 7879 dc4e c13f 0e70 06a8 b2bc b8bf
00000230: 9f8d dd11 00ae b23f 3124 79db 6c86 bfbf
00000240: 9ab6 a41c b763 ac3f f032 da60 35cb b8bf
00000250: ed90 734a 5e3f 8c3f 0707 c983 69e6 97bf
00000260: 2f06 9d2d dcc5 a43f 4225 e5b1 f559 adbf
00000270: d9aa 1551 5a17 c03f 0bad 4dd9 14e0 813f
00000280: 9cfa e5ba 5a2e c2bf bbbe 94de 88f9 7fbf
00000290: f67a db83 7e66 b2bf 8a42 7d01 9585 833f
000002a0: 162f ba15 a706 923f 446b 28ea 1b28 7f3f
000002b0: ba3b 7020 088f adbf b8b8 962d 0f3b acbf
000002c0: 5a86 9b6a 699c b2bf fc1d 446f 6f58 99bf
000002d0: be9b 6083 d4f6 b7bf e81d 01ac 71e8 9f3f
000002e0: 03b1 0d36 0107 7bbf 494c 05fb 9667 c0bf
000002f0: b24f 2a2b d6ea babf 7590 36ca 5926 bc3f
00000300: 9e2f b8ae b3ae babf ec5c dd6f 6153 b2bf
00000310: b541 1a9c a95a 97bf 174c 03a3 1025 b3bf
00000320: 749f 6183 f908 be3f fce7 a76f 6924 933f
00000330: 2c55 029f 042c b03f b9af f503 9faf a53f
00000340: 27c7 6393 34fd a33f 3d0b 93f9 c178 b13f
00000350: a6a1 654d c966 c2bf 5391 c5bb 79c3 bc3f
00000360: 1994 4402 4e56 b73f 1ac2 61d7 ff3e a53f
00000370: dfb1 e074 9bd8 bd3f 1af0 1d8e bb74 c0bf
00000380: 1719 e327 49e5 99bf 1519 1b20 a534 bd3f
00000390: d25e 61b1 08d5 b63f 2568 c631 0909 aabf
000003a0: 97c8 92ce d82e 95bf d753 6b08 6af8 8c3f
000003b0: 311c c260 d268 a53f 154b 1f35 e0e9 a53f
000003c0: fa86 c513 a054 b6bf 5de9 db29 814c a2bf
000003d0: cbdb a653 9645 a83f 1612 12cb 7b7c bcbf
000003e0: 53be dc4d fe17 b8bf f649 9643 e993 b9bf
000003f0: c9b4 6a1b 2826 b2bf 9bd8 92d9 fe7f a4bf
00000400: 960b 92a7 4c32 c83f 064d b69f 4837 a63f
00000410: 344b e262 2e1e c23f 6f85 22c3 9785 7e3f
00000420: 3a6a 1574 0ea6 bd3f 7242 ae82 4249 9abf
00000430: 81af e264 79d7 be3f d98c cebd 59e5 b7bf
00000440: 8f84 ad57 d8f0 cebf 96c7 8b7d 6f5c a03f
00000450: d3e8 8a06 348a c1bf 7ed5 a84a f6c0 bd3f
00000460: 3bf5 b5b6 8fc2 a43f 54f0 e961 e631 cc3f
00000470: 3332 2c0c d483 c93f e477 a30a 4569 cbbf
00000480: cb50 8ed3 cf15 bcbf e296 186c a3a0 c7bf
00000490: 3cdc b015 7d82 cabf b093 c5c2 703e c6bf
000004a0: 2368 be6e d4ab b4bf 9bf9 4c6e 0cc8 bdbf
000004b0: 987b 38db 236f b1bf 2941 fcf3 f9c7 b43f
000004c0: ae32 8ec7 8cb2 af3f 2107 3b90 4ca0 87bf
000004d0: 4953 f435 633b cabf 363f ea1f e463 9dbf
000004e0: d2a1 9a5d c2f8 c7bf 3582 0af4 92db 97bf
000004f0: ddba a14d 6fc2 bc3f 7039 b71a d25e bebf
00000500: f50b d8df c8af a23f 3892 a2ef cc52 c63f
00000510: 7f8d f158 9739 bbbf cbcb 3045 aa09 c13f
00000520: 16f2 5c60 2160 8c3f 1f4b 496e f0ea ccbf
00000530: a84a 57f5 b38a c0bf 193f 070a 6ec7 c6bf
00000540: 3a3b 945e 3383 c33f f4f3 acf5 78f5 cdbf
00000550: 0ef9 d26d e78e c8bf 1d85 0bc5 dfdf b1bf
00000560: 8e05 66c6 2c88 c4bf 1456 83c5 e6db c53f
00000570: fa32 cb16 09ab a5bf 8bcc a3fa fbaf 28bf
00000580: 133e 37fc e6c2 bb3f 7eea c42d 2740 c83f
00000590: a85d 2baf 9dfd abbf e553 5743 6f65 aebf
000005a0: 69f4 7ad4 f3b9 ac3f 08ea fc66 6ace c2bf
000005b0: d168 e4ca cc9f b5bf 81e3 224c 1b76 c4bf
000005c0: 7d9b fbf7 84d1 c63f c0d9 9706 3bc1 c5bf
000005d0: ec05 9afe 698a 993f f970 f142 b03e b6bf
000005e0: d025 f246 9af5 b1bf 0a9a 70af 13fa 90bf
000005f0: 2719 9bac bf6b 973f 1311 e1b9 2ee0 c6bf
00000600: fdfa 891c 0d44 d43f 3416 1f8f 2bf3 a4bf
00000610: cea0 6b7e 4575 733f 30e5 2e5c 53c7 b2bf
00000620: e3b3 46eb 686c d73f deea 60c5 2ba0 c7bf
00000630: 6524 a2f6 18ac cabf 8d82 e014 9024 d23f
00000640: dd68 a996 fef2 d23f 20a4 2072 0fc2 b33f
00000650: 9dde 1328 e04d d7bf bb67 96bf 0998 d23f
00000660: 1139 af92 bd73 d7bf c95a d3e7 9b6a c0bf
00000670: e40d ad4b e2ec c33f c866 28cb cf5b b23f
00000680: e7ba 2cda 5545 d1bf 1b8f 0d18 f043 d23f
00000690: a17b 9db8 02d1 d03f 207c 20d2 3130 cc3f
000006a0: 25d6 8cf1 c7b7 4c3f 7ee2 4c95 c92b cbbf
000006b0: 23b2 bc7d e071 cdbf 12ed 8655 7ade b73f
000006c0: d31b c5b8 c0be a7bf 8cc9 3370 0c5c 9fbf
000006d0: 8fde 6404 58b3 cebf 89fb 4ab9 48e0 c83f
000006e0: a014 51cb f2c2 d13f 8bf7 6d9b 0983 d33f
000006f0: 45ce 1b6b c037 74bf cfae 4e88 cccc d0bf
00000700: 9de0 46d7 acd4 babf 2c29 1843 50cb b73f
00000710: 277d 13d3 b92b c13f d3f5 fdb6 8357 d23f
00000720: 4557 95dd a0c0 cbbf 0e69 a2c1 70e0 b43f
00000730: f1f1 c196 511a b2bf b280 2a7c ddd2 c2bf
00000740: 1ab5 c289 be99 bcbf 82cd 00d3 6321 ca3f
00000750: 2a86 3a9a 3104 c1bf 82c9 345e 2539 c73f
00000760: 38d5 5d11 b122 d83f 6bf7 150e 7f98 b43f
00000770: a9c0 34f6 a28a b03f dda2 3d56 bbb6 c13f
00000780: 953b 8201 53b4 d0bf e336 8694 7d82 d23f
00000790: 3ced d794 e97f c33f 8244 6a16 2629 b03f
000007a0: feb1 c9eb 467d d53f 10a2 d0e3 7d56 c4bf
000007b0: 8439 c952 17fc c13f 1c0a 5324 517b d1bf
000007c0: c4fb 01ca 57fa c03f 9a80 78d4 06b1 b4bf
000007d0: fbbd a82e 5ac2 c63f fc91 b74e ee93 b73f
000007e0: 8511 f2f8 35dc c6bf e706 ac8b 8df9 c0bf
000007f0: 371b 2e6f 9c40 2a3f 4dad f098 9c7a b7bf
-0.05937418291285688 0.05056615369563621 0.04284823620928799 0.08736094018075724 0.06192259570991671 0.11045543743517805 -0.10170140834869945 -0.025563432343997015
-0.0667555898642931 -0.03109371215019754 -0.042403713703042495 -0.0679454085003216 -0.1441991253201613 0.038218457131945514 -0.041169724069302104 0.06683573821778317
0.07418175703561353 0.020615169715111566 -0.04568838155637198 0.13788663606866786 0.051993758367380835 0.08320700724444954 -0.10756929318138943 0.05044814666153243
-0.020807713398265704 -0.0786623840260358 -0.12816893421285414 -0.0987385081861294 -0.02304583914943304 -0.05146641925667555 -0.03819069083311386 -0.07908690502532739
-0.13091074588973303 -0.0072626150338291765 0.07831027047708054 -0.09436020646178415 0.1339820536042726 -0.04415989760338513 0.06856040447725797 0.016894376270683
0.10896284232299458 -0.016614444055219627 -0.10564923641811154 -0.09103721986275673 0.09703005336882076 -0.10829433931109346 -0.08227972441119547 0.05596909266054753
0.04832171096254751 0.029120434008603584 0.03692062076109093 -0.08282204025422404 -0.03542190791607052 -0.010316718501729476 0.11522567190907887 -0.04607785779426337
-0.0331920626293332 0.048829131864648906 -0.05010924527645204 -0.01279236025612317 -0.11430324642706628 0.07795396470083862 0.03292522908573348 -0.08622365279382989
0.011941600144789748 0.11653579713266805 -0.11136104716623425 -0.024855160417064086 0.13521915370110876 -0.09662930109192322 0.07296753345649741 -0.12314491613609914
0.05544826721812264 -0.0968507157760532 0.013792740485265098 -0.023339890163931034 0.040572052543677344 -0.057326963391981525 0.12571267089091157 0.00872818267972388
-0.14203962446113827 -0.007806334158246104 -0.0718764373700472 0.009532131298017239 0.017603502942207326 0.007606610337940026 -0.05773187061287595 -0.05513808661940928
-0.07269915440294863 -0.02475141636480592 -0.0936100788827465 0.031160141108811518 -0.0065984771070868335 -0.12816130883092772 -0.10514582208480652 0.10996018587917596
-0.10422823920833799 -0.07158478718826061 -0.022806787636513188 -0.07478431682402263 0.11732444245865087 0.018693587722715663 0.06317166215952302 0.042355508073199606
0.03904117869559647 0.06824886649250757 -0.14376179007673534 0.11235771974822244 0.09116065554970056 0.04149627212689584 0.11658641437015359 -0.1285623973780055
-0.02528871828033016 0.114084549272864 0.08918814020705249 -0.05085018856625848 -0.020686519249189485 0.014145687467513142 0.041815351783093375 0.04279995583023869
-0.08722877962784628 -0.035739933356995414 0.04740590830936461 -0.1112744684961132 -0.09411610985693501 -0.09991319561076026 -0.07089472455364211 -0.04003902822425794
0.18903501684334562 0.043390531059367674 0.14154605701750145 0.007451622792502873 0.1158150704772333 -0.025670088983647373 0.120475375299689 -0.09334336170154546
-0.24172500878470202 0.03195522697013968 -0.13703012771094922 0.11622561762563596 0.0405468855414974 0.2202728250593987 0.19933558077208743 -0.21415007609806402
-0.1097078219884821 -0.18458979395034364 -0.20710719641803788 -0.17378053198185972 -0.08074691489892465 -0.11633374874961648 -0.0681021127897864 0.08117639738725714
0.06190910278300997 -0.011536214973037641 -0.20493736395351395 -0.028701366851748143 -0.18727902956494674 -0.023298545975764823 0.11234183926874715 -0.11863434936751616
0.036497380566309724 0.17440187169008126 -0.10634752198671114 0.13310745600173698 0.01385522914244412 -0.22591977486680379 -0.12923287848987752 -0.17796111573851972
0.15244142644993436 -0.23405372615698605 -0.19186108458047396 -0.06982229767483657 -0.1604057282202515 0.1707733597201445 -0.042320522339286584 -0.00018835020939142843
0.10844272286998828 0.1894577954752385 -0.05466931117342294 -0.05936763474497989 0.056106204688583024 -0.1469243052359419 -0.08446960404799887 -0.15985432832328786
0.17826902493035482 -0.16995942899639083 0.02494207016434828 -0.08689405092576753 -0.07015384895398502 -0.01657896765041226 0.022871966276192836 -0.17871650768405142
0.31665351664553026 -0.04091774103248405 0.0047505106547093955 -0.07335396767202407 0.36599181152524646 -0.1845755304110161 -0.20837699930806078 0.2834816173436046
0.2960812064462866 0.07717987572017693 -0.36412815011815686 0.2905296679469946 -0.36643924069075334 -0.12825344867333957 0.1556666249763189 0.07171343526752161
-0.269856894551522 0.28539659832880354 0.2627569964296815 0.22022078285314794 0.000876400593461117 -0.21227378644995903 -0.23003774775988103 0.09323849285185684
-0.04637720351688981 -0.030624574993404916 -0.23984813894798093 0.1943446068525783 0.2775237069620946 0.30487289599101847 -0.004935981401775151 -0.2624999362112534
-0.10480766540320237 0.0929460681728968 0.13414690786792358 0.2865914618522229 -0.21681605166912213 0.08154968955424044 -0.07071409159284038 -0.14706009447855234
-0.11172095168395338 0.20414398005378237 -0.1329404833859809 0.18143145656501863 0.3771174115748468 0.08045190900699388 0.06461542616739514 0.13838903151488227
-0.26100611827217196 0.2892145109588979 0.15234107749697923 0.06312788054698795 0.3357713034263553 -0.15888951896455739 0.14050571005141077 -0.2731516699533658
0.13263985980662885 -0.08082621276162386 0.1778061607196689 0.09210099622539042 -0.17859530120416536 -0.13261575050278582 0.0002002898177943747 -0.09171465619936221

layers.2.gsds.0.bias f8 [4]
00000000: 0c5c 01a1 48bc b33f 8811 0fea 08b6 88bf
00000010: f571 dbd9 e00d b93f 1c10 f27d 4c1f b7bf
0.07709173136514397 -0.012065953867826065 0.09786801642207606 -0.09032133173792584

log_envelope.log_envs.0.weight f8 [4, 1]
00000000: b39e 0f18 4f73 e63f cc14 a1b3 199e e53f
00000010: a217 fb3d 6113 e33f 526d 1833 b92e e23f
0.7015758008901315 0.675549364889457 0.5961157045901369 0.5682035444219002

step f8 []
00000000: 0000 0000 8088 c340
10001.0

exp_avg f8 [64, 2]
00000000: cbf3 559d 7c7e bd3e cd8e 58a2 2f34 cb3e
00000010: 44c6 7aec 6573 d43e 673b dcaa 5257 a43e
00000020: 1ae2 6acb f1ba c7be 455c e334 967e c23e
00000030: 7b18 5c3c 92b1 e63e 8597 2e25 91ff c03e
00000040: 2ed4 ea45 99c5 e5be a153 4102 205f d4be
00000050: b201 db20 40bd c53e 0ce3 aefa 42ea ac3e
00000060: 5503 9738 a677 c43e 3f2b 228d 9f9d d03e
00000070: c860 9705 610c b3be f580 061b 1f7b c3be
00000080: 7a43 c193 f614 d6be 7193 6108 c734 d4be
00000090: 36b8 943e 2d3f dbbe c68e 1ea6 c94b bc3e
000000a0: c66d 99dd 4dc1 d6be fb1a d81f 5bb5 db3e
000000b0: e11d e5bb 8a54 ea3e 05da 2d97 87d6 98be
000000c0: 641a febd 26c0 e73e d4cd 0ad3 1c9e c23e
000000d0: 906a 2845 78be d13e 2bb1 426e 309a d33e
000000e0: ce97 5ace 2aee e33e 72a3 ac98 5e39 d2be
000000f0: 1c92 9b70 9c7f b03e 6cff 66f4 15e8 c8be
00000100: 1107 574c bf18 d03e 5ff0 c348 1d71 c2be
00000110: beed 3a82 6a37 f5be 748a 7027 5755 c83e
00000120: 5160 d847 49bc bdbe e9d1 e1f6 2ee9 cfbe
00000130: 4994 cb95 dba4 dd3e ac05 8990 a00d d8be
00000140: 4cd3 c185 00a6 e6be e301 c4e1 a9f2 e3be
00000150: e48e 785a 13f2 d53e 5e3f 1c94 b176 c4be
00000160: 9333 b907 a29c c5be 4015 3bb1 f11a d4be
00000170: 6efb 06a8 983a 97be ce85 b25a fab5 a63e
00000180: 7b3a db98 d04d b63e bb2f da3a 225f 903e
00000190: 3734 bad9 8db7 c93e 78b0 6ad2 52ee b6be
000001a0: bb29 4487 1e0b d5be 2713 8722 5bd0 b23e
000001b0: 9a62 dd49 7cac c2be f0d2 7203 c81b ccbe
000001c0: 30f2 f5e6 e92f bfbe f060 96a6 9700 9b3e
000001d0: ea3e 8bbf 9f0b e63e cbfe 9ec8 e7c4 d03e
000001e0: a1b1 67e6 75dd cb3e ad7c 05e3 667c d0be
000001f0: ffaa 7e07 be03 bfbe f522 7910 8c1c d23e
00000200: d70b a1bb dae3 9cbe 3c73 e017 27ce bdbe
00000210: e8fd 014d dd99 ab3e 0173 1963 817b d93e
00000220: 4978 18c9 e3ed de3e 5d15 4325 5be4 c53e
00000230: b216 06af 45d9 e33e f25e 27ec 31cb e13e
00000240: 1939 6aa4 0971 b0be 4ccd 4f30 b534 cc3e
00000250: bf1d 8bc2 31d7 e13e 85ad 6f9a d4ef b63e
00000260: 48c8 c342 a63b b0be 1722 fa6f c3bc d5be
00000270: 9c10 2c52 3d68 babe 9355 64e1 1dc2 e2be
00000280: 2554 7c58 7cbe ec3e 523c 8c32 45ef c03e
00000290: bd52 671b 257a c2be f46b 5ce3 ce49 c9be
000002a0: 9754 0155 3267 e6be 0c83 866b daea c3be
000002b0: 058c df4d c678 c1be c35c 9a5f 3ac9 d8be
000002c0: 5a01 79b7 f592 c7be 1104 69e8 2f70 c7be
000002d0: ff92 024a 3624 c6be e608 155f 0e8b da3e
000002e0: 6ad5 7d69 1d36 e53e 8a48 718e 906f c9be
000002f0: 2d17 c3d4 973e a03e babe 783e eb39 d2be
00000300: 0437 b9cc 288a d63e 61fb a23f 2ee3 bb3e
00000310: f928 2e37 7e43 d3be b335 56f3 dbb8 be3e
00000320: 0924 6acd 3890 cdbe 485f 6281 d910 cb3e
00000330: eb00 e493 c0f8 ccbe c86c 5dee 9e76 d1be
00000340: a51e 4705 47d2 e03e 17ff 32ac d201 d23e
00000350: 5ea7 1dd1 e5ca d03e adfd 0e93 1bbc cb3e
00000360: 7c02 481b fd3c d23e dfe8 5d1a e818 cdbe
00000370: 2f31 e54d 7410 e03e 2c73 4b9a 1a31 bebe
00000380: d9d3 fd00 7187 b93e bb8d a707 3359 bf3e
00000390: 47c6 377e 7b46 7cbe d894 fea7 521e d2be
000003a0: 0ea0 1500 a0a4 d63e 152c 0520 9d09 bb3e
000003b0: b799 fa4f cb52 cc3e c24d f663 1201 debe
000003c0: 1499 a18c 66b9 b8be 8b77 bb4c 45f6 c53e
000003d0: 8c10 f0fc 7b8e 9dbe ed11 daf8 23e5 d33e
000003e0: 2fff d10d 9932 c73e 8086 1daf dac3 d63e
000003f0: fe55 2cb9 dc70 c53e 5192 ba21 2870 a83e
1.7579846958986111e-06 3.242951850850268e-06 4.8758444745486115e-06 6.062121735444517e-07 -2.8288664809218214e-06 2.2047137583181117e-06 1.0821169677221535e-05 2.026356278733484e-06
-1.0381636625348281e-05 -4.856963673989616e-06 2.5915217126417262e-06 8.617366707908615e-07 2.4399018385416198e-06 3.961495354097229e-06 -1.1353704593067012e-06 -2.3223094205022593e-06
-5.264732234237156e-06 -4.817524432797257e-06 -6.496139556317869e-06 1.6865757505945782e-06 -5.42523727061921e-06 6.60620253035179e-06 1.2555237728264136e-05 -3.701151378080318e-07
1.132516439362775e-05 2.2193941265570287e-06 4.230504674152883e-06 4.6735528692993834e-06 9.503527006526123e-06 -4.34496395022235e-06 9.833860893866778e-07 -2.969096303234657e-06
3.837744946223887e-06 -2.198440205101708e-06 -2.023360151669011e-05 2.900762690953319e-06 -1.7723735078519797e-06 -3.804072483732378e-06 7.0676745422592745e-06 -5.7347372224859725e-06
-1.0799620376847383e-05 -9.511902185455875e-06 5.23224063145634e-06 -2.439456836429641e-06 -2.5763329725481527e-06 -4.793465240464812e-06 -3.461374618283433e-07 6.768361137285591e-07
1.3294198625727954e-06 2.439560898646416e-07 3.0657062788986823e-06 -1.3667912043642445e-06 -5.017145771066989e-06 1.1213952665217022e-06 -2.226087032857903e-06 -3.3507967845631807e-06
-1.8588997610916875e-06 4.023658336182271e-07 1.0512068898376832e-05 3.998079714351026e-06 3.321776421252694e-06 -3.9305555648842535e-06 -1.8486153105882746e-06 4.318121007048456e-06
-4.30495386564444e-07 -1.7765333661996804e-06 8.22574884665138e-07 6.075487861770214e-06 7.374109502160101e-06 2.6097316468710455e-06 9.464607018792998e-06 8.484711888564576e-06
-9.799929487106373e-07 3.362404074719381e-06 8.507062447717506e-06 1.367142070436392e-06 -9.675625376984513e-07 -5.182589802317959e-06 -1.5739909222110116e-06 -8.944639415401831e-06
1.3706247741699228e-05 2.0187675499115828e-06 -2.2026453862878713e-06 -3.014601840057354e-06 -1.0682636144713257e-05 -2.3743385463990103e-06 -2.082797990064693e-06 -5.909454097306052e-06
-2.810247163670545e-06 -2.7940548677223255e-06 -2.6394669277611306e-06 6.3283891774143375e-06 1.011437716134474e-05 -3.0321835882497304e-06 4.841239529477413e-07 -4.3454756233765615e-06
5.373879683979449e-06 1.6622200278840475e-06 -4.592810784918025e-06 1.8311802255395438e-06 -3.5242279453101755e-06 3.226497038499093e-06 -3.4536944034658675e-06 -4.163590096552257e-06
8.021066755583529e-06 4.293232169050112e-06 4.0036604945589015e-06 3.3062452975127477e-06 4.348334574633667e-06 -3.4686674607572924e-06 7.660043078638004e-06 -1.7995722398279886e-06
1.521651032701903e-06 1.8685123267463637e-06 -1.0533378218943606e-07 -4.319774802673616e-06 5.398527720280889e-06 1.6115637891552264e-06 3.3764141561143504e-06 -7.153555599787239e-06
-1.473678411767459e-06 2.6180738127286875e-06 -4.404273540872272e-07 4.743356738172168e-06 2.7653751276112362e-06 5.427612210202903e-06 2.555950638148283e-06 7.283125031577155e-07

exp_avg_sq f8 [64, 2]
00000000: 8526 78c0 f319 903e 4e21 c046 36f8 403e
00000010: 5453 a0b1 5aad 713e 7d03 0468 f9c8 143e
00000020: 8972 77d1 4bf1 8a3e 1107 281e 81e6 0c3e
00000030: 5ff7 ec0d fb37 743e 9f8b 1b1e 71d8 0b3e
00000040: 1648 93a9 146c a23e f113 a430 4079 353e
00000050: 664e 1f9c 0270 7d3e 39cb 3d6a 571f 413e
00000060: 921c 885c d0a7 743e cf69 aef9 927b 363e
00000070: 6368 4703 d8a0 5c3e 3680 b13c d212 103e
00000080: 5061 0aa0 f59a 673e 1a3d 68ab 920f 273e
00000090: ef6b c3a3 11f6 863e 179f dd01 75c0 1a3e
000000a0: 2bc1 a8bb 1098 783e 61bd a139 ea77 253e
000000b0: bc20 a602 7f25 8e3e 76d1 0414 695f 423e
000000c0: efa5 6ed0 b1f8 8e3e b458 8172 8de5 273e
000000d0: 76ae a964 195a 693e 0e52 fe7e ac2c 073e
000000e0: 20ef cd23 7954 823e fb1f c67f 5d08 173e
000000f0: 6a81 62f4 f8ad 8e3e b09a 99c1 aa18 333e
00000100: 195c 2c96 c99b 783e ebab dae3 6352 2b3e
00000110: d583 650e d604 7b3e 9eb0 b0b6 af91 313e
00000120: 1d78 3453 4e75 743e 1eef 8d36 1d7b 2d3e
00000130: e408 eb81 4883 863e d251 145e 5348 293e
00000140: 6416 e079 2e2e 793e ad8b 66a2 8cb8 1f3e
00000150: b959 f4c4 b43c 763e 610a 8320 26e8 2e3e
00000160: 53aa 98ef 24df 713e d58e a5a6 3933 293e
00000170: b1ae 3e9b 1e23 823e 5d9a 7e0b 90bd 2b3e
00000180: e722 9437 4609 7c3e b561 2fdb 4968 133e
00000190: 3fe5 57cf dc8d 653e 2d46 d96c 2437 153e
000001a0: 2db1 a4b2 1373 863e 0583 c5ee 9846 293e
000001b0: f836 789c 02dd 753e dea7 609c 6a59 113e
000001c0: 8bd4 44b4 c127 793e 326f 2e1f 8e97 333e
000001d0: 0179 96d7 7746 963e cfeb 19cb 037e 403e
000001e0: 29ac 5e04 1070 803e d45b 0141 cf7c 2f3e
000001f0: 3358 b7cd 82da 613e 1eaf 25f8 a100 1a3e
00000200: d9c3 7f75 8fb6 883e 0fca df9a 9b5a 313e
00000210: 1b25 8aac 534d 5f3e 6ecd b07b 91f3 0e3e
00000220: 86d5 4606 4652 7a3e dcf9 a9e3 e023 273e
00000230: c576 9185 5e7e 913e eea5 6762 8835 413e
00000240: de96 4df1 0ec5 843e e1e8 112b ae58 2d3e
00000250: 538d eebe 4e16 753e 2823 1a21 8d34 2c3e
00000260: d1e5 7252 d5c6 873e 098d e6ee 60bd 283e
00000270: 3ea2 adb0 07a9 643e 0155 8371 1c71 2b3e
00000280: c244 5578 650d 793e 95ca 3c9a 38bb 233e
00000290: e72d 86ab a507 653e 1867 731a 36ae 1e3e
000002a0: bbac f21a 63e2 893e cf91 e2c0 ed77 093e
000002b0: 9875 c935 0276 893e 6a8c cdb0 b265 353e
000002c0: 8cbc 0c7d 9952 943e a978 8dcc 929f 4a3e
000002d0: 8d73 25d4 335e 473e a93d e765 848b 033e
000002e0: 8181 bd78 5d3a 6a3e fa10 3224 2ba8 253e
000002f0: 3782 92cf 7d5d 843e 21b0 e4c2 ee08 063e
00000300: 62d5 266b 9f86 773e 4aee 71d2 0843 163e
00000310: b68e 0263 de39 823e f874 21c3 faeb 2a3e
00000320: 4c13 95f6 0053 863e 9b19 7167 c97d 313e
00000330: d863 2702 d6b0 783e 391a 395f 1eb5 213e
00000340: 7f49 bc4d 5100 813e d1c5 b486 0ddb 313e
00000350: 66ab 0268 5114 493e 6dcb f76a 137d 163e
00000360: 531c 2938 2e8c 693e 6070 9840 b5f2 063e
00000370: a921 c73c 089f 763e a32c f0dc 9280 173e
00000380: 1636 a0b8 86ce 873e b5b5 9f65 0118 2b3e
00000390: 5527 a125 a55a 5a3e 4024 a4c6 9dab 203e
000003a0: 04df 3c6f 1146 323e f877 2527 9860 013e
000003b0: df01 604d 85ef 8b3e d1c3 1396 c6e1 173e
000003c0: d585 7c1c c339 7f3e 2288 6964 a659 3e3e
000003d0: 77e3 3119 2e53 613e be66 259e 56cd 143e
000003e0: b746 18c3 d0ed 643e 1ba9 70a9 069e 273e
000003f0: 07ec c18e 16c5 7e3e a062 d34b e58a 223e
2.3992919337464414e-07 7.902075625801591e-09 6.585257175701275e-08 1.2098494706613777e-09 2.0073773819477455e-07 8.411125652855279e-10 7.532043209704788e-08 8.104100135887513e-10
5.490240539091195e-07 4.999720424349725e-09 1.0966338151392252e-07 7.973251676712317e-09 7.694781978966024e-08 5.234664169924436e-09 2.66621784250041e-08 9.356020288139956e-10
4.3968316991776765e-08 2.6846341497576027e-09 1.7107432082646565e-07 1.5571588527833357e-09 9.161980944121184e-08 2.4992527605224575e-09 2.2460869903936897e-07 8.555453790382614e-09
2.3075538299376117e-07 2.7819408062267053e-09 4.7221686634604056e-08 6.744669250072214e-10 1.3656894451071988e-07 1.3406782343111846e-09 2.2858068344113178e-07 4.446216750331419e-09
9.167397289584052e-08 3.1806804124830512e-09 1.0065321340769603e-07 4.090621934102409e-09 7.621283231284032e-08 3.4320301500358883e-09 1.6773361806970062e-07 2.943272945361657e-09
9.380428742108241e-08 1.8463991530179607e-09 8.283977702794189e-08 3.5980287673700673e-09 6.657711173393398e-08 2.9336775692522708e-09 1.3513256435831037e-07 3.229416813789069e-09
1.0444308697425021e-07 1.1296580170776388e-09 4.014773395325985e-08 1.2348987834001868e-09 1.672619530183399e-07 2.9424870232853287e-09 8.144721796323501e-08 1.0098611820995357e-09
9.37107929630239e-08 4.561620847462258e-09 3.319273314763861e-07 7.679800215244903e-09 1.2247073949192642e-07 3.665631805075588e-09 3.325484395812923e-08 1.5135430414092825e-09
1.8412714086716615e-07 4.0405282852065255e-09 2.915231326004068e-08 9.008054227728397e-10 9.80547852417625e-08 2.693868042968678e-09 2.6067539732840797e-07 8.013617392024098e-09
1.547467653142768e-07 3.416371484807055e-09 7.855571458478126e-08 3.283526569406579e-09 1.77150164070747e-07 2.880087161126404e-09 3.8482758388609025e-08 3.194650665623687e-09
9.332720026413286e-08 2.2970294155479503e-09 3.917118846221012e-08 1.7858409003354275e-09 1.9285324757054496e-07 7.412300788521518e-10 1.896990181768701e-07 4.981937318278615e-09
3.028311513106914e-07 1.2397455855035e-08 1.0881562877049067e-08 5.688340456709653e-10 4.885343604546592e-08 2.521195947815882e-09 1.5173257120628644e-07 6.412997960678633e-10
8.764069540127949e-08 1.2958104119062475e-09 1.357946515279052e-07 3.134109438159637e-09 1.663285005647833e-07 4.072523310830147e-09 9.198026921316932e-08 2.0614236930162093e-09
1.2666911330305573e-07 4.1573483365051544e-09 1.1678490397249659e-08 1.3090074960362817e-09 4.758607643047124e-08 6.678769769790245e-10 8.427060933021865e-08 1.3680104720490593e-09
1.7737405882992676e-07 3.1541301072625814e-09 2.4544151912525925e-08 1.9406872126063882e-09 4.2546781547605765e-09 5.057466236537582e-10 2.0813664630693498e-07 1.3901116579964854e-09
1.1632454921226934e-07 7.06645548204423e-09 3.227018221473056e-08 1.210841753758806e-09 3.898323831461925e-08 2.749414317327339e-09 1.1462671850759504e-07 2.158638239170033e-09

step f8 []
00000000: 0000 0000 8088 c340
10001.0
