results/pretrain/checkpoints/A06_H064_L02_D01_Tanh_W4096_P001000_Adam_PT_True_device_cuda_dtype_float32_chkp.pt (torch, 234187 bytes, 23 tensors)

layers.0.fc.weight f4 [64, 2]
00000000: 7f8f 03bc 5aeb bb3e 9357 28bf 4fb8 f9be
00000010: 6017 a1be 6113 3d3e b5d6 d239 f16e 0d3f
00000020: 3e9a 9ebd a0ca 423e c5b4 a1be a44c 00be
00000030: a96f 31bf 6c2e d5be 3496 a2be 103c 003d
00000040: 1807 9e3e c9f1 d23e f965 0abf 5ac8 8abe
00000050: f05d a73e f180 0a3f 1acb 3bbe e5eb 0a3f
00000060: b619 b5bd 41dd 8b3d a2ab 403f ff4f 1dbf
00000070: 3377 00bf 0022 43be b343 a2be 8291 1a3f
00000080: b26b 0ebf bff5 99be 40d8 03bf 2593 26bf
00000090: 4588 00bf 2194 173f 3e40 b13e 146c b33e
000000a0: 18c8 b03d 5f57 b7be 7c66 0c3e 3768 29bf
000000b0: 41cb 21bf 9be1 8fbe e0ed 053f ea5d c73e
000000c0: e461 b5be 6599 3cbc 5e31 ea3e 7b5e 2f3f
000000d0: 4be1 763e 673f ea3d fad2 123f 117f c8be
000000e0: d066 1e3e 7dc7 06bf 9987 0cbf ac6f b5be
000000f0: f547 ba3e d909 903e f177 d5be be33 653e
00000100: 5d06 e03e 9dac abbd 83d9 6e3d c7aa 1e3e
00000110: 2ddd fe3e bb2f 2c3f cfc3 01bf 41a9 8dbe
00000120: 4a46 9e3e d516 103f e60d 3d3f cb07 183f
00000130: d4a5 3d3e b79f 1abf b4b9 473d cbf6 e3be
00000140: 3b3f 41bf 2705 163f ebb6 203f b57f 2dbf
00000150: facf 253e 5563 04be 8822 08be 6e92 a1be
00000160: 248d 3f3e f727 cbbe a298 3e3e 995f c23e
00000170: 4f59 183f d4af 433e a323 2fbf 63d2 e8be
00000180: 7a19 bd3e 9010 193e 1059 1dbf 456f c7be
00000190: 0cb4 2f3f 0ed6 f93e 09f9 9abe df7f 3fbe
000001a0: 1b78 49bf 03cb 263c b1b4 17bf a81a 02bf
000001b0: e928 cebd 9f5c 013e fbfc adbe 163e d13e
000001c0: ec85 ecbe 43c3 1f3f 579f 103f 4ba3 0fbf
000001d0: 43a0 30be 93cb d0bb e242 dc3d 02af 1a3e
000001e0: 722d 9c3e aa08 5f3d 8879 8cbe c702 b13e
000001f0: e382 43bf b010 c1be eaa6 0abe 1627 a2be
-0.008029818 0.36702996 -0.6575863 -0.4877343 -0.31463146 0.18464424 0.0004021429 0.5524741
-0.07744263 0.19022608 -0.3158323 -0.12529236 -0.69311005 -0.4163698 -0.3175522 0.03130728
0.30864787 0.41200092 -0.5406185 -0.2710598 0.32688856 0.54103 -0.18339196 0.54266196
-0.088427946 0.0682931 0.7526189 -0.6145019 -0.50181884 -0.19055939 -0.31692275 0.6037828
-0.5563308 -0.30070302 -0.51501846 -0.65068275 -0.5020793 0.592104 0.34619325 0.35043395
0.08631915 -0.35808846 0.1371097 -0.66174644 -0.63200766 -0.2810181 0.52316093 0.38938838
-0.35426247 -0.0115111815 0.4574079 0.6850354 0.2410938 0.11437874 0.57353175 -0.39159444
0.15468907 -0.52648145 -0.54894406 -0.3543676 0.36383024 0.28132513 -0.4169307 0.2238302
0.43754855 -0.08382533 0.058312904 0.15494834 0.4977812 0.6726033 -0.50689405 -0.27668193
0.30913 0.5628484 0.7384933 0.5938689 0.1852029 -0.60399956 0.048761085 -0.44524226
-0.7548711 0.5860161 0.6277911 -0.6777299 0.16192618 -0.12928517 -0.13294423 -0.3155703
0.18706185 -0.39678928 0.18612912 0.3796356 0.59511274 0.19110042 -0.6841375 -0.45473012
0.369335 0.14947724 -0.61464024 -0.3895208 0.68634105 0.48796123 -0.30268124 -0.18701123
-0.7869889 0.010180238 -0.5926009 -0.50821924 -0.10066397 0.12632988 -0.3398207 0.4086768
-0.46195924 0.6240732 0.56493133 -0.5610854 -0.17248635 -0.006371924 0.107549444 0.15105823
0.30503422 0.054451622 -0.2743647 0.3457243 -0.7637159 -0.37708044 -0.13540235 -0.31670445

layers.0.fc.bias f4 [64]
00000000: 494c 81be bc0a 10bf 1b4a 1dbe 5930 293e
00000010: da6f f5be f198 15bd 4a6e 0e3f 4adc d0bd
00000020: b2cf 993c 4d44 cfbd 8fe3 063e 8652 f03e
00000030: 0df8 313f fbe9 0a3f 9913 2b3f a0e2 36bd
00000040: 0a23 24bf 0cd6 aebe ebec f93e cfb8 41bc
00000050: 8917 babe a098 07bf 1a73 12bf a82f 1ebf
00000060: b076 1bbe 420a c63e f3f8 dd3e fe1c 2dbf
00000070: 5d72 f83e 3854 0bbf 7f58 18be df57 9bbe
00000080: 2ed4 20be 68de 54be de8c 1dbf 7cf4 18bf
00000090: 1021 01be 83b4 bfb8 90b7 a1be 3d1e 943e
000000a0: 0b5d 2bbf 8341 d3bd c452 213f 6a47 9abe
000000b0: f5a8 2a3f ba9b 8e3e 1e49 2dbf 6f91 ee3e
000000c0: c198 b8bd c2dc abbe b0d1 123f 7999 11bf
000000d0: 8729 d73d 8513 49be 34da 023f 1c0c 4e3e
000000e0: 6f63 b53e f76a 783e 6ea4 49be ac1b 27be
000000f0: c8b0 17bf 3c38 cb3e b323 103f c818 033f
-0.25253513 -0.5626638 -0.153603 0.1652235 -0.47936898 -0.03652281 0.5563704 -0.10198267
0.018775795 -0.10120449 0.13172744 0.4693796 0.6951912 0.54263276 0.6682678 -0.04464972
-0.64115965 -0.3414768 0.48813567 -0.011823847 -0.3634608 -0.5296726 -0.5720688 -0.6179147
-0.15181994 0.386797 0.43353996 -0.67622364 0.48524752 -0.5442538 -0.14877509 -0.30340478
-0.1570594 -0.20787966 -0.6154307 -0.59748054 -0.12610269 -9.141213e-05 -0.3158536 0.2892932
-0.6693885 -0.1031523 0.63016915 -0.3013261 0.6666406 0.27853185 -0.6768969 0.46595332
-0.090135105 -0.33566862 0.5735121 -0.56874806 0.105059676 -0.19636352 0.511142 0.20121807
0.35427424 0.24259554 -0.19691631 -0.1631915 -0.5925412 0.3969134 0.5630447 0.5120969

layers.1.fc.weight f4 [64, 128]
00000000: cd0a 79bd 90c8 e3bc f48b 1cbd 8470 a6bd
00000010: 6c99 3cbd a1cc 4c3d b638 c1bc 6284 9b3c
00000020: 5ac4 4fbc f2a7 8f3d bce6 aebd 1cf9 74bd
00000030: 5e5f 5abd 477d d83d 4fec 4ebc 6ed0 d03d
00000040: c79f 183c c986 6a3c 18f3 bf3c 5dd5 0cbd
00000050: 80c6 843c 1fd9 91bc de74 08bd 5ce7 1abc
00000060: 98ad 44bd e161 58bd 3d20 6b3d 3423 c5bd
00000070: b2d7 2abc ec80 853d 2c43 843c 7bd2 e23b
00000080: 08d4 c8bd 7d94 3a3d f508 a7bd 432c 3dbd
00000090: cbeb 34bd ebd9 d5bc 72f8 1fbb 03cd 8d3d
000000a0: b0bf 08bd 94c8 403d 429c 473d 09ff 0bbd
000000b0: d028 133d 33c0 bcbd 57fe 7fbd 1be9 5f3d
000000c0: a31b 403c 0940 7f3d c767 033b 14fb 0e3b
000000d0: 2b4f 8d3d 7db7 a1bd 3bbf 763d 7af6 5ebd
000000e0: 64f7 cc3c d790 8ebc f569 93bc 5c04 a33b
000000f0: 1664 833d 187e 4ebc 5ba6 abbc 1973 f1bc
00000100: 195c b1bd e0f9 483d 7bcd 15bd 5bff c1bd
00000110: e029 3fbd 9466 963d 4a25 443d edf6 d13d
00000120: 76c5 983c a2d8 66bc 32b4 68bd 6b07 923c
00000130: 9590 8a3d 6fd4 bd3c 0dbb 30bd b2da 41bd
00000140: 8d4c 9cbd 26c0 343d 6b09 5dbd 87a1 b5bd
00000150: 4e67 b03d 93ef 47bd 4841 90bb e82d d23c
00000160: 62dd 9e3c 4342 a6bd 9128 a6bd 2984 953d
00000170: fefd 3e3c dfe0 a73d 0aa9 05bd 0b99 043d
00000180: 531d a7bc 0fbd 33ba 1259 5dbd 21c7 1c3d
00000190: 9684 b93c 4ef8 1dbc 5cb5 0ebc 53dd 64bd
000001a0: 693a 7f3d 9c51 a2bc 444b 003d 5667 8dbc
000001b0: 7706 41bd db4c 9bbb 832e 3abd 492d b43c
000001c0: 2a57 583c ec93 43bd 1fbc 913b 04d3 383d
000001d0: 5f31 1d3d 73fe 4b3c 1d2f 9fbd 26af a4bc
000001e0: 26ad c93c 0913 04bd 13e7 2f3d 2319 733d
000001f0: bdd8 30bd 5890 8ebb 6797 1b3d 02be 903b
00000200: 4826 20bc 8cb1 913d 5dcb 5abd 13b8 233d
00000210: 8d67 253d 700b b33d c9bc e93c ab36 c53c
00000220: 3ae1 083d 095b b7bc d0e2 aebd a2da 7dbd
00000230: 61da d83d 2dbe 23bc 0f4d 97bd 19b6 3b3d
00000240: 4c2a f63d 5f41 033e 52bc 863d 3df3 753d
00000250: d3cc 24bd 4044 45bd 3266 093e 35a1 823d
00000260: af51 11bd 6833 2d3d 09f5 143d 1a32 883d
00000270: 4422 21bd 628c a13d 1997 0cbd 0fff d83d
00000280: 4ae7 8cbc 521e 893c fd76 e23c a5bd b53d
00000290: 09fa 0dbd e65a c43c f64c 98bd 76ff 1f3d
000002a0: b95a 283c c49c babd fcf2 55bd 8d46 263d
000002b0: 312b 6f3d 687c a43d 3870 bb3d 48e8 cbbd
000002c0: 67e5 86bd a74a fc3c 96e5 eebd c6af 903d
000002d0: 5da2 70bd 0e3b 46bc 6ec5 88bd 953a 45bd
000002e0: 4b03 883d 5b0e 0d3d 8051 5e3d 0f14 693d
000002f0: d0aa 993d fc22 a3bc c16a 3a3c 6a8a ba3d
00000300: a32b 483c 83bc 8e3d c8c5 d03c 9ee5 b73d
00000310: d6c6 50bd 9810 d53b b346 b53c 40ec 5bbd
00000320: 9599 28bd 07d7 7dbd 2519 03bd 4bb1 a73d
00000330: 1fd9 aa3d e929 303b e9b9 10bd 3d88 773d
00000340: 0389 173d 8196 9ebc a1b1 c4bc 3ef4 a53d
00000350: 8f4d 563c 6d18 b8bd f35e 893d 4024 573d
00000360: 3f76 6bbd 6381 9a3d 1f78 dfbc 9d00 f6bc
00000370: 418b bf3d ce07 83bc b294 97bd 0135 49bd
00000380: ddb9 1cbd 894d 16bd 3624 bcbb edc7 7c3d
00000390: 54b7 6ebb 728a 6dbd 5a0d a0bc 3ea3 753d
000003a0: f063 f83c 2165 e7bd 40a5 943b cc23 babd
000003b0: d4be 92bc ed46 763d c677 9dbd 407b 353d
000003c0: b9fa 853d b196 82bc 2306 24bd 7031 58bd
000003d0: fed1 ee3c b58c c4bd f33c 843d 7302 76bd
000003e0: d4ca 86bd 8389 94bd 47f9 29bd 0fde 303d
000003f0: 4fb2 d0bd 343f bf3d 4ef2 c3bc f612 353d
-0.060801316 -0.027805597 -0.038219407 -0.081269294 -0.046044752 0.049999837 -0.023586612 0.018984023
-0.012681091 0.07014455 -0.08540103 -0.05980788 -0.053313605 0.1057077 -0.012629583 0.10196005
0.009315438 0.014314362 0.023431346 -0.034383167 0.016207933 -0.017803727 -0.03331458 -0.009454574
-0.048017114 -0.05282772 0.05740379 -0.09625855 -0.010427402 0.065187305 0.016145311 0.006922064
-0.09806067 0.045551766 -0.08156005 -0.04618479 -0.044170182 -0.026104888 -0.002440956 0.069238685
-0.033385932 0.047066286 0.048733003 -0.034178767 0.035927594 -0.092163466 -0.062498417 0.054665666
0.011725339 0.062316928 0.002005087 0.0021817135 0.06899866 -0.07896326 0.060240965 -0.054434277
0.025020309 -0.01740305 -0.01799486 0.004974885 0.06415574 -0.012603305 -0.020953348 -0.029473828
-0.08660144 0.049066424 -0.036572915 -0.09472533 -0.046670794 0.07343784 0.047887124 0.102521755
0.018648844 -0.014089735 -0.056812473 0.017825803 0.06765858 0.023172585 -0.043147136 -0.047327705
-0.076317884 0.04412856 -0.05396406 -0.088686995 0.08613454 -0.04881246 -0.0044023134 0.025656655
0.019392673 -0.08118107 -0.08113206 0.07300598 0.011657236 0.08197188 -0.03263191 0.032372516
-0.020399725 -0.000685648 -0.054040022 0.03827584 0.02264623 -0.00964172 -0.008710232 -0.055875134
0.062311564 -0.019814305 0.03132178 -0.017261188 -0.047125306 -0.0047393865 -0.045454513 0.02199425
0.013204375 -0.04774849 0.0044474746 0.045123115 0.038377162 0.012450802 -0.07772658 -0.020103049
0.024618696 -0.032244716 0.04294498 0.059350144 -0.043175448 -0.004350703 0.037986185 0.004417182
-0.009774752 0.071139425 -0.0534166 0.03997047 0.040381957 0.08742416 0.028532403 0.02407392
0.033417918 -0.022382276 -0.08539355 -0.061976083 0.105885275 -0.009994072 -0.07387745 0.04582796
0.12019786 0.12817906 0.06578888 0.060046423 -0.040234398 -0.04816079 0.1341789 0.06378404
-0.03547829 0.042285353 0.036366496 0.06650181 -0.03933932 0.07888104 -0.034323785 0.105955236
-0.017200131 0.01673809 0.027644629 0.088740624 -0.03466228 0.023969125 -0.07436554 0.039061986
0.010275536 -0.09111932 -0.05223368 0.040594626 0.0583908 0.08031541 0.091522634 -0.099564135
-0.06586724 0.030797316 -0.11664884 0.07064776 -0.05874859 -0.012099041 -0.06678282 -0.04815157
0.06641253 0.03443752 0.054276943 0.056903895 0.07503283 -0.019914143 0.011377991 0.09108432
0.012217435 0.069695495 0.025484934 0.08979343 -0.050970875 0.0065022223 0.022128439 -0.053692102
-0.041162092 -0.061972644 -0.0320064 0.08188113 0.08342194 0.002688045 -0.035333548 0.06043266
0.0369959 -0.019358875 -0.024010481 0.08103226 0.013080015 -0.08989034 0.06707563 0.052524805
-0.057485815 0.0754421 -0.027278958 -0.03002959 0.093527324 -0.015994933 -0.07401408 -0.049122814
-0.03826319 -0.036695037 -0.0057416214 0.0617141 -0.003642519 -0.05799336 -0.019537617 0.059970133
0.030321091 -0.11298586 0.004536301 -0.09088859 -0.01791326 0.060126234 -0.076888606 0.044306993
0.06541962 -0.015940996 -0.040044915 -0.052781522 0.029152866 -0.0959715 0.06456938 -0.06006093
-0.06581655 -0.07252791 -0.041497495 0.04318052 -0.1019026 0.09338227 -0.02391925 0.044207536

layers.1.fc.bias f4 [64]
00000000: 1350 783d 4075 653c 16af 6fbd 0d18 bb3c
00000010: 4689 0e3d 099d bcba 0211 e43c 6395 8a3c
00000020: 4412 1cbd eba8 af3d 930f a83c 9881 40bc
00000030: c934 a63d ef39 72bd da05 79bd 42e6 003d
00000040: bde4 70bd d60c eebc e556 6cbd 46f3 6dbc
00000050: 8e91 37bd d23d 94bc 2523 ab3c 2457 923d
00000060: 238b d73c 3685 bcbd fa9d 9ebd 2a1a 76bb
00000070: a638 733d efe9 7e3d 74f4 ba3d 275d cfbd
00000080: aee9 b93d c115 643d b30a a0bd 9124 d6bd
00000090: be4f 81bd d732 3f3c 8ced 20bb c327 9ebd
000000a0: bcb5 583c 8fd2 773d a85c 0d3c 8f80 9ebd
000000b0: 87ba 7ebd 2bd4 013d 6bdf 363d e1a1 34bd
000000c0: 7a97 51bd bf7c cd3c fa41 17bd bc67 6cbd
000000d0: 590b 893d 0fec 703d 5d69 c5bc ef6a 3a3c
000000e0: 8105 523d 3ee2 62bd 2012 02bd cf4f b9bc
000000f0: b254 adbd 7bef d13d a1fe c3bd 9c37 07bd
0.06062324 0.014005005 -0.058516584 0.022838617 0.034798883 -0.0014390062 0.027840141 0.016916936
-0.038103357 0.085771404 0.020515239 -0.011749648 0.08115537 -0.05913728 -0.060796596 0.03146959
-0.05881189 -0.029058855 -0.057700057 -0.014523333 -0.044816546 -0.018095884 0.020890782 0.07145527
0.026311463 -0.092050955 -0.077449754 -0.0037552216 0.059380196 0.062234815 0.09128657 -0.10125189
0.09077774 0.05568481 -0.07814541 -0.10456193 -0.06314038 0.011669836 -0.0024555651 -0.07722428
0.013226923 0.06050354 0.008628048 -0.07739364 -0.062189605 0.03169648 0.04464666 -0.044099692
-0.05116985 0.025083898 -0.036928155 -0.057716116 0.066916175 0.058818873 -0.024098093 0.011378034
0.05127478 -0.055391543 -0.031755567 -0.022621064 -0.0846342 0.102507554 -0.09570051 -0.033012018

layers.2.gsds.0.weight f4 [6, 64]
00000000: d93c 743d a256 de3d a2de 2ebd 913e bc3d
00000010: 6d34 25bc 877f dfbd 93f6 e2bd 4b01 6abd
00000020: 1895 24bc aa2f 013e 3f29 52bd 3056 69bc
00000030: 946f be3d 4279 d3bc 368c 783d fa29 10bc
00000040: 794a 60bd 9073 b5bd 8970 013e 0e77 99bd
00000050: 05d8 b33b 1cab 153d f0e6 8b3c 8f6f 93bc
00000060: 9048 00bd 22c1 44bd 7946 233d 1e62 2fbd
00000070: 37b9 5e3d fa14 743d c6df 073d 9ef1 87bd
00000080: d4be b6bd af4e 87bd b561 063d cd12 da3b
00000090: 0c90 ea3d 1db0 a93d e42d 80bd 6252 cc3d
000000a0: b4c4 9abd e560 40bd 0e75 cc3d 7d44 cbbd
000000b0: da7b 9fbc 634a cabd eec4 523d 8720 c73d
000000c0: 288f f33d 4939 43bd 2708 cabd bc4b 743d
000000d0: 6a54 b3bd bada 3fbd 8983 c7bd c03f cd3d
000000e0: dd13 0fbc 7cfb a03c cec4 64bc 0270 b73c
000000f0: 663d 7bbd 6abd 043e cd32 dfbd c9c8 16bc
00000100: 4cbd 9cbd df9d c8bd 8d99 5e3d 4672 d53d
00000110: b15f 843d 8f29 eb3c dff3 993d 843f 6c3d
00000120: 6378 b4bc fb85 7ebd e7db 573d 6d5b 983d
00000130: 3320 9d3d 78f5 b63b 599e f13d 9bc4 cdbd
00000140: 19bb 203d b075 c33d 7b42 0bbb 82e7 b13d
00000150: ad13 f23d 4892 c3bd 108f 903d c3c0 873d
00000160: b443 653d cb3a 9a3d f714 ab3d 08b1 483d
00000170: 45d6 9a3d f047 01be 3638 f2bd 3cef 5a3d
00000180: ebc0 0b3e 8565 e4bc f680 d43d 8826 dbbc
00000190: d77c 943d 4ffb 3439 4e86 953d b4e8 4fbd
000001a0: 649d eebd ed68 923d 4345 63bd 3f92 ae3d
000001b0: e601 113d f15a 26bd a7a9 033e a2b7 e13d
000001c0: 2fa1 5cbd 0e23 253d c44d 5a3d e764 b1bd
000001d0: e029 d43b 4e06 f9bd cf7a 903b aad3 f5bd
000001e0: 18bc c93d 371e 983d c11d c03d 7bf0 483d
000001f0: 1e87 34bd f7c9 643d 123c 3d3d c62c 7b3d
00000200: ebdc efbd 7feb 4b3e 9173 dabd 84bb 58be
00000210: 1d64 15bc 24bd 523e ef40 66bd 0e66 d8bd
00000220: a491 2bbe c145 313e 2c8d 6ebe 5f88 b9bc
00000230: a825 103e b190 10be 987e 2cbe f34e 75bd
00000240: 112c 0c3e 5d51 8cbc b36e d6bd 4ae1 203d
00000250: 8cf8 15bb 3cf9 2a3d b6c6 a53d fadd 603d
00000260: db75 2e3d fb57 cc3c a501 243e abfa ee3d
00000270: 31ea 083e 18f3 533c d5be d8bd ad4c 00be
00000280: f1f4 2c3e 85aa 13be 92a4 55bc 8931 22be
00000290: 26fd 1ebd 2d4b febc 3b11 093e 8a06 d13c
000002a0: 5aa1 8c3d 93f4 e83d 37da 763c 12db 103d
000002b0: ffff 6c3e 4371 543e 1f88 053e 5a8f 373d
000002c0: 2dfa 0a3e f0ca 963d 40b6 ce3d 877e 89bd
000002d0: ca53 afbd 4961 093e 879d 08bc d235 b8bd
000002e0: b7d8 acbd 506b 11bd 9488 cdbd eb44 f9bd
000002f0: a4b5 9c3d 4b09 253e e1bd 0bbe 1ead 013e
00000300: a27e e93c 59f9 8c3d 9645 aa3d 7119 f2bc
00000310: ad53 bbbc a055 d9bd b9c5 3cbd acba c1bd
00000320: 95f5 0abc b59d 093e 399d 863d ea2e 95bd
00000330: c754 753d 7bcf cd3b 7d61 6abc 3c15 03bd
00000340: f316 b4bd 8618 c5bc e6aa 5f3d 39e5 ea3d
00000350: 1ace b43d a7bd 22bc 3aa9 8d3b f014 e73d
00000360: 5d6f 523b 00b0 a03d 16ba 283e acdf a73d
00000370: 4d32 6c3d 4307 d8bd 742a 88bc 4359 07be
00000380: e772 2b3e 38d7 793d e1a9 a8bd 9482 9f3b
00000390: dde6 d23b 0330 a63a c304 a6bc 7545 a53d
000003a0: 68ba 03be 3af6 28be ac47 1e3e 78fa 69bd
000003b0: 6594 8eba c45e bc3c 00c4 2d3d 78b4 c4bd
000003c0: 7f86 cc3c a453 b9bd f623 3e3e dab8 133d
000003d0: c861 143e fc5e c73d d777 fd3c aa4f 12bd
000003e0: 69e0 2d3d 54c9 9abd db72 d03d 5469 91bd
000003f0: 4e6a fd3d 1461 cbbc 98ad 5d3d cd65 b33d
0.05962834 0.10856368 -0.042692788 0.09191621 -0.0100833 -0.10912996 -0.110821865 -0.05713014
-0.010045312 0.12615839 -0.051308867 -0.01424174 0.092986256 -0.025814656 0.06068059 -0.0087990705
-0.054758523 -0.088599324 0.12640585 -0.07493411 0.005488398 0.036540136 0.017077893 -0.017997531
-0.0313192 -0.04803575 0.03986213 -0.04281818 0.054375853 0.059590317 0.03317239 -0.06637882
-0.08923116 -0.066068046 0.032808024 0.0066550733 0.11453256 0.08285544 -0.06258753 0.09976651
-0.075570494 -0.046967406 0.09983264 -0.099251725 -0.019468237 -0.098774694 0.051457338 0.09723001
0.11892539 -0.047662053 -0.09864836 0.05964254 -0.08756335 -0.046839453 -0.09741885 0.10021925
-0.008732763 0.019651167 -0.0139629375 0.022392277 -0.06133785 0.1296288 -0.10898361 -0.009203144
-0.07653293 -0.097957365 0.054345656 0.104221866 0.06463564 0.02870634 0.07517218 0.05767776
-0.022030061 -0.062139492 0.05269995 0.07439313 0.07672157 0.0055834614 0.117977805 -0.10047265
0.03924093 0.095439315 -0.0021249342 0.08686735 0.11820159 -0.09549385 0.07058537 0.06628563
0.05597277 0.07530745 0.08353608 0.048996955 0.075604 -0.12625098 -0.11827128 0.053450808
0.13647811 -0.02788044 0.1037616 -0.026751772 0.07250374 0.00017259757 0.07301007 -0.050759032
-0.11651114 0.07148919 -0.055485975 0.08523988 0.0354022 -0.040614072 0.12857686 0.11021353
-0.053864654 0.040316634 0.05329682 -0.08661824 0.0064747185 -0.12159406 0.004409171 -0.12003262
0.09850329 0.07427638 0.09380675 0.049057465 -0.04407417 0.05585667 0.046199866 0.061321996
-0.11712059 0.19914053 -0.10666574 -0.21165282 -0.009118107 0.20579964 -0.05621427 -0.105663404
-0.16754776 0.17311765 -0.2329604 -0.022648035 0.14076865 -0.14117695 -0.16845167 -0.059889745
0.13688685 -0.01712864 -0.10470333 0.039277352 -0.0022883741 0.041741595 0.08094542 0.054899193
0.042592864 0.024944296 0.16016252 0.11668905 0.13370587 0.012936376 -0.10583273 -0.1252925
0.16890313 -0.14420517 -0.013039725 -0.15839209 -0.03881564 -0.031041706 0.13385479 0.025515813
0.06866713 0.11374774 0.015066675 0.03536517 0.2314453 0.20746331 0.13040207 0.044814445
0.13571997 0.07362926 0.10093355 -0.06713586 -0.08560903 0.13416018 -0.008338339 -0.089946404
-0.084397726 -0.03550273 -0.10035816 -0.12171348 0.07651833 0.16116826 -0.13646652 0.12663695
0.028502766 0.06883497 0.08314054 -0.029553147 -0.022867048 -0.10612035 -0.046087 -0.09459433
-0.008481403 0.13439067 0.065729566 -0.07284339 0.059895303 0.006280837 -0.01430547 -0.032002673
-0.0879344 -0.024059545 0.05460634 0.11469502 0.08828373 -0.009932912 0.004323152 0.112832904
0.0032109835 0.07846069 0.16477236 0.08196959 0.057665158 -0.1054826 -0.016621806 -0.13217644
0.1674305 0.060996264 -0.08235527 0.004867861 0.0064362125 0.0012679104 -0.020265942 0.080698885
-0.12864077 -0.16500178 0.15457028 -0.05712363 -0.0010877965 0.022994407 0.04242325 -0.09604734
0.024966476 -0.09049156 0.18568406 0.03606496 0.14490426 0.09734914 0.030940933 -0.035720505
0.042450342 -0.075579315 0.10178157 -0.07100168 0.12373792 -0.024826564 0.05412063 0.08759651

layers.2.gsds.0.bias f4 [6]
00000000: 176b e13c 43af c93d 51c3 183e aa23 8cbd
00000010: 574b ffbd bfe1 073d
0.027516885 0.09847882 0.14918257 -0.0684274 -0.12465542 0.033174273

log_envelope.log_envs.0.weight f4 [6, 1]
00000000: bbda 293f dedb 2a3f 307e 1a3f 8afc 4d3f
00000010: f110 583f a1bc 403f
0.6634938 0.6674174 0.60348797 0.8046347 0.8440085 0.75287825

exp_avg f4 [64, 2]
00000000: a3e6 6aba 5327 ca3a bad4 523d b866 8dbb
00000010: c56a e43c 271e a639 6783 403b 7138 76ba
00000020: de8c f43b 1a04 a039 8d33 243d ad0e 0abb
00000030: 4f0f b73c 20ad 29bb f2c0 843c 21dd a538
00000040: 20a7 98bc 9eac 9f3a 0560 523d 7229 cfba
00000050: 9995 2fbd 5bdf 2e3b 16d2 e43c 4530 07ba
00000060: 6b7e ae3b 3a36 26ba 47f8 34bd c4cd c839
00000070: 871d 363d e954 1dba 98db 1a3d ad9b 2ab9
00000080: f222 0e3d e5dc 1abb ad7f 0d3d 2e28 f8ba
00000090: ef6d 233d c7f0 b63a f649 b2bc e87b 153a
000000a0: 7ba7 d4bc 6ecd 653a 3b52 8fbc 0663 8739
000000b0: ca30 8d3d 3106 8cbb 7968 09bd 173c 603a
000000c0: e2b9 ce3c 3082 85ba 62ad 8cbc 030f 9d3a
000000d0: c970 4dbc 50b4 24ba ed91 3fbd 553f 80b8
000000e0: 9b30 20bc f00f 81ba c9f1 233d 6d72 2ebb
000000f0: d1ed 2ebd a30f 693a fecf ab3c 02a8 6eba
00000100: a0d0 abbc e1cf 953a 45b5 e3bc 82ac 063b
00000110: 6825 9bbc 8bba f9b9 b239 0f3c 3a0e d0b9
00000120: 9617 89bc ead5 a83a 54aa 4abd a54d 213b
00000130: dd19 f5bc 2868 63ba 2237 bcb8 725e 5aba
00000140: 07b3 1f3d 3759 4dba 923d 6ebd c791 a6ba
00000150: b99e a2bc d81a 053a 07d4 bd3c 7200 d837
00000160: 739e 543c 5b5b d4ba 2e0a 473b 45f6 bcba
00000170: 9848 05bd 2cd9 c13a cbcb 8d3c da9f aeba
00000180: 46ae edbc 4825 453a 554e 423d 9c31 18bb
00000190: b084 70bc f344 653a e4fb b7b9 e510 ed38
000001a0: f647 a13d 8f1e 16bb cc80 393d 80db 10bb
000001b0: 8418 6d3c 3b92 4fba 0991 213d 8247 4b3a
000001c0: 58f2 003d ea2c e239 9fa5 1dbd 06c2 aeb9
000001d0: b94a 5f3c 90e0 d63a 77bf 15bb 1b61 b03a
000001e0: 90d2 c3bc 8000 9eb9 3b0b ec3b abdf 40b9
000001f0: ba55 343d 91ef eaba f38f df3a ec11 8dba
-0.0008960759 0.0015423096 0.051472403 -0.0043152235 0.027882943 0.00031684453 0.0029375197 -0.00093925657
0.0074630817 0.00030520634 0.040088225 -0.0021065876 0.022346167 -0.0025890544 0.016205285 7.9090016e-05
-0.018634379 0.0012182181 0.051361103 -0.0015805198 -0.042867277 0.0026683423 0.027932208 -0.0005157034
0.005325129 -0.0006340478 -0.04418209 0.0003830028 0.044461753 -0.00060017273 0.037807077 -0.00016270457
0.034701295 -0.0023630199 0.03454559 -0.0018932873 0.039899763 0.0013957255 -0.021763783 0.00057023624
-0.025958767 0.0008766268 -0.017495265 0.00025822985 0.068940714 -0.004273199 -0.0335469 0.0008553876
0.02523512 -0.0010185894 -0.01717252 0.0011982623 -0.012539097 -0.0006282972 -0.046770025 -6.115312e-05
-0.009777213 -0.0009846669 0.040025506 -0.0026618496 -0.04270727 0.00088905747 0.020973202 -0.00091040146
-0.020973504 0.0011429751 -0.027796397 0.00205496 -0.018938735 -0.00047631966 0.008741783 -0.0003968345
-0.01673488 0.0012881134 -0.049478844 0.002461293 -0.02991956 -0.0008674883 -8.974808e-05 -0.00083301135
0.038989093 -0.00078334234 -0.058164187 -0.001270824 -0.019851075 0.00050775474 0.023172392 2.5749414e-05
0.01297723 -0.0016201542 0.0030371058 -0.0014416656 -0.032539934 0.0014789454 0.01730909 -0.0013322786
-0.029013764 0.0007520509 0.047437984 -0.002322293 -0.014680073 0.0008745931 -0.00035092153 0.000113041875
0.078750536 -0.0022906398 0.045288846 -0.0022103488 0.014471177 -0.00079182134 0.039444957 0.0007754491
0.031481117 0.00043139543 -0.038488027 -0.00033332425 0.013628655 0.0016393829 -0.0022849718 0.0013456674
-0.023904115 -0.0003013648 0.007203487 -0.0001839387 0.044027068 -0.001792418 0.001705645 -0.0010762787

exp_avg_sq f4 [64, 2]
00000000: 504f a639 d789 0239 382c d33b 6d9b 0d38
00000010: 6f6b 043a 4255 f336 c0c6 b23a 202d 9138
00000020: 2d94 1b39 edcd af36 5b96 413a f390 4639
00000030: a699 cf39 3682 9537 ccaf 5639 7ddc 8437
00000040: 8069 4439 7faf b838 591f 743b f50b 7437
00000050: 8dde f33a d377 fb36 674d 043a c8f4 4a37
00000060: f8f5 9a38 5bfa 2038 68e7 f93a 198a a737
00000070: 2496 443b 7744 8a37 2b4f 2f3b 3345 c237
00000080: 781d b03a 91c0 e737 a874 123b 2913 de37
00000090: 2294 e03a 5ac8 0639 cb3a 003a cc46 2f39
000000a0: 3db6 173a 527b bb38 e704 863a 7fc6 9e36
000000b0: ac0e c43b edc3 2837 6d6c 643a 699c d736
000000c0: fce1 e739 573b df37 9a1c 1139 3b18 3f35
000000d0: 6545 0039 12ac fb35 2ca7 2b3b 5a5d 0837
000000e0: aecc 4239 4356 0b37 e78e 3b3b 2c56 c437
000000f0: 6a76 943a 421a e335 ad89 4d3a fb06 8f35
00000100: 151a f33a cbf7 7f39 77b1 3139 9f24 6037
00000110: 0e32 d639 5bee c035 56fb 1b39 f999 5237
00000120: 4d33 753a a14b d037 b4a4 7f3a b8b7 0038
00000130: bbe4 fa3a 9cb5 3239 998c 3e3a 053e ef37
00000140: 3532 953a 3c22 ac36 db0b 233b f503 c638
00000150: f20f a939 95a2 e637 4672 713a dbc3 bf38
00000160: d6a9 2f3a cf5c 8837 03ab 8939 4f42 1e38
00000170: 6eca c03a 0f9a d236 807f bf3a dcd4 5037
00000180: 3a42 9d3a f9fb 0c37 81c1 033b 003c af38
00000190: 3477 5e39 987a a138 73c1 313a e2ad 4638
000001a0: 169c 753b 2e04 8c38 9a12 563b 4f9e 8937
000001b0: 60e4 c938 237c ca36 5377 383b 12ac 3a39
000001c0: a8cd 783a 3345 8237 1694 983a fa96 2137
000001d0: 22c8 b13a d7af b536 3964 bd38 0a6c 7a38
000001e0: f10a 033a 4f69 f437 dc62 9639 75f4 f136
000001f0: e930 013b 537c e537 8904 4339 8483 d536
0.0003172108 0.00012449115 0.0064444803 3.376177e-05 0.0005051409 7.2518897e-06 0.0013639554 6.922544e-05
0.00014837152 5.2393793e-06 0.00073847704 0.00018936749 0.00039596594 1.7822818e-05 0.0002047412 1.5838299e-05
0.00018731318 8.8064924e-05 0.003725013 1.4546317e-05 0.0018605754 7.4943323e-06 0.0005046934 1.2097131e-05
7.3891075e-05 3.8380134e-05 0.0019066157 1.9972258e-05 0.0029996717 1.6482763e-05 0.0026750069 2.3158826e-05
0.0013436517 2.7627017e-05 0.0022347365 2.6473384e-05 0.0017133991 0.00012853873 0.00048915733 0.00016715674
0.00057873485 8.939825e-05 0.001022485 4.731875e-06 0.0059831943 1.0059198e-05 0.00087136665 6.425708e-06
0.00044228125 2.6611304e-05 0.00013838933 7.1188305e-07 0.00012232883 1.8751036e-06 0.0026192171 8.127967e-06
0.00018577531 8.30513e-06 0.0028619112 2.3405148e-05 0.0011326794 1.692046e-06 0.00078406447 1.0656362e-06
0.0018547202 0.00024411005 0.00016946146 1.3359967e-05 0.00040854554 1.4374485e-06 0.00014875582 1.2552825e-05
0.0009353653 2.483075e-05 0.00097520207 3.068868e-05 0.0019141653 0.00017043058 0.00072688755 2.85199e-05
0.0011382761 5.129985e-06 0.0024878893 9.442113e-05 0.00032246072 2.7493845e-05 0.00092104485 9.144071e-05
0.0006701028 1.625568e-05 0.0002625809 3.773189e-05 0.0014708766 6.2764225e-06 0.0014610142 1.2447326e-05
0.0011997886 8.403317e-06 0.002010435 8.355826e-05 0.00021215976 7.699913e-05 0.00067808403 4.736882e-05
0.0037477068 6.676499e-05 0.0032664896 1.640539e-05 9.626965e-05 6.0345205e-06 0.0028147295 0.00017802443
0.00094910944 1.5529431e-05 0.0011640813 9.6315e-06 0.0013563673 5.414691e-06 9.03089e-05 5.9705264e-05
0.0004998884 2.9136105e-05 0.00028683885 7.2108182e-06 0.001971299 2.735682e-05 0.00018598339 6.363205e-06

exp_avg f4 [64]
00000000: 0187 cc3b 8d8f 19bc ce08 4fbb 8d9a b5bb
00000010: d52c 263b c733 48bb 7434 62bc 1b34 773a
00000020: 6572 b33b f630 b8ba 2635 ae3b 5f1e c0ba
00000030: fcce 85bb c00f b5bb 0b9d 9a3b cda2 29bb
00000040: abd9 93bb 58f6 8cbb 4438 333b d859 163b
00000050: b508 e83b db87 4d3a 3741 31bc 768c 603b
00000060: 6f82 e1ba 6656 00bb 1021 1fbb 0ad2 0fb9
00000070: 3aac 86bb b7b5 e0ba 17f8 0c3b f4d7 f9ba
00000080: 8bc6 573c cdf9 313c 4141 23bb 5c5a d1ba
00000090: 3873 963b 4724 d03b 6d73 b9bb 20d8 babb
000000a0: 2594 883a bb4d 163c b062 143b d75c 8b3b
000000b0: e231 ffbb e16f e1bb 8f90 063c e3ac b8bb
000000c0: e743 c83b 9b5d a03a 0446 66bc 6077 e53a
000000d0: 529a aabc b8c8 2ebb 2c9e a3bb e2ec eb3a
000000e0: 9836 e0ba ca80 e5ba c8ca ba3b 7a60 003c
000000f0: 8710 04bb 913e 6fb8 ee1d 33bb 2f6d fbbb
0.0062416797 -0.009372604 -0.0031590941 -0.0055421055 0.0025356312 -0.003054844 -0.013806451 0.00094300666
0.0054762834 -0.0014052677 0.0053163944 -0.0014657489 -0.0040835124 -0.005525559 0.004718428 -0.002588439
-0.004512032 -0.0043018274 0.002734677 0.0022941735 0.007081116 0.00078403734 -0.010818771 0.0034263409
-0.001720501 -0.0019582747 -0.0024281181 -0.00013715788 -0.0041098865 -0.0017143999 0.0021510178 -0.0019061551
0.013169895 0.01086278 -0.002491072 -0.0015972364 0.004591372 0.006351981 -0.005659512 -0.0057020336
0.0010420127 0.009173806 0.002264183 0.0042530107 -0.007787929 -0.006879792 0.008213176 -0.005635844
0.00611161 0.0012234928 -0.014054779 0.001750689 -0.020825539 -0.002666993 -0.004993221 0.0017999674
-0.0017106114 -0.0017509696 0.005700443 0.007835502 -0.0020151453 -5.704031e-05 -0.0027331072 -0.007672928

exp_avg_sq f4 [64]
00000000: d05a 263b 7c73 813a a25f 863a 8b2c 843a
00000010: a05a 2b39 81f6 7b3a 889c ea39 a9c8 ce39
00000020: 71be 7d3a 43fb 9d39 a1fc 8d39 124b b438
00000030: 2fe5 253a 8ec0 d139 e33b 9039 9ff7 7739
00000040: 23da b139 fd0f f23a f072 7a3a 678e 963b
00000050: 9639 3f3a d349 2e3a 1770 c838 374e 6f39
00000060: f04d e539 bfe7 a037 0d24 9b38 311c 8538
00000070: 93ce 0139 cb8b a63a 499a ae39 3595 5c37
00000080: 2a40 7f3b da36 6b39 1199 2e39 bc98 9937
00000090: e0cb 7d39 02a1 cc39 3392 173b a8dd 093a
000000a0: 563a ec38 f2ad 543a e622 e139 66ec 9d3a
000000b0: 9c59 bc39 1ba7 e639 9871 1c39 497c 1d3a
000000c0: d757 0a3a 778c c13a b6b6 943a 8c92 8f3a
000000d0: e8af d73a af9b 8738 9870 2f3a 740d a93a
000000e0: 03f9 bb38 3455 d338 ef32 303a e8e2 383a
000000f0: a589 ba39 9e32 1d3a ca37 873a ad98 9739
0.0025383718 0.0009876336 0.001025189 0.0010084076 0.00016341591 0.0009611622 0.00044748583 0.00039440885
0.0009679562 0.00030132578 0.0002708184 8.597052e-05 0.00063284015 0.0004000705 0.0002751044 0.00023648002
0.00033922595 0.00184679 0.000955387 0.0045946124 0.0007294653 0.0006648574 9.5576215e-05 0.00022821953
0.00043736352 1.9181402e-05 7.397691e-05 6.347185e-05 0.00012379354 0.0012706456 0.00033302818 1.3147762e-05
0.0038948157 0.0002243178 0.00016650955 1.8310144e-05 0.0002420391 0.00039029872 0.0023127913 0.00052591646
0.00011264223 0.0008113078 0.00042941346 0.0012048602 0.00035924918 0.00043993522 0.00014919636 0.00060075946
0.00052773714 0.0014766593 0.0011345956 0.0010953709 0.0016455622 6.4663e-05 0.0006692498 0.0012897686
8.963237e-05 0.00010077134 0.0006721457 0.00070528546 0.00035579238 0.0005996617 0.0010316309 0.00028914717

exp_avg f4 [64, 128]
00000000: 65da 47ba 251a 873b e034 e339 1e54 a13a
00000010: 1fa0 ddba 3697 9e39 1e93 6bbb 8cd6 c739
00000020: 969d 0bb9 a64f db3a 2dd0 d6b8 3428 f33a
00000030: 63f8 2d3b e448 cbbb 8afc c0ba a816 283a
00000040: 289e 253b d02e 013b d23c a4ba b437 90b9
00000050: 1dbd ebba 3226 18bb 24c5 7e3b 4c60 e83a
00000060: 0e3e 123a db55 9dba 85ec 4d3a 054f 1d3b
00000070: ada7 893a ad80 293b ae3d 3eb9 aa03 a63a
00000080: 05c4 bcb8 fa62 51ba 8570 bb3a aa4f fb3a
00000090: 5491 e2b8 5022 29bb d3e9 c0ba 14ba 4c3a
000000a0: 14e5 ce3b e9d7 7f38 e4f1 ee3a 5515 a2ba
000000b0: 41ba c93a 65f8 743a 5cb9 3a3b a7ea 37bb
000000c0: bd74 9ab9 debe 613b 827e 95bb eb14 1eba
000000d0: 7c55 713a 8642 2c3b 949d 093b 3d48 df39
000000e0: f207 1aba 4586 24bb 6ff6 eab9 3929 1eba
000000f0: 0564 66ba da0a 7b3a 7244 90bb c812 da3a
00000100: 85fe 4bba 62b5 4fba 9989 eab9 716d a13a
00000110: 5c64 f5ba 64bf a4b9 d611 c439 5a7f cfb9
00000120: 7d97 ef39 a1a2 6bb9 140b 593a a54c 013b
00000130: a976 2c3b 8bf7 b238 c011 753a 57af 1139
00000140: 2730 a0ba 8d2f 67ba 8b2c 7e3a 56d2 9c39
00000150: afcd e3ba 8692 1bbb a783 53ba 8a5f 3bba
00000160: d7ba 05ba deb1 9a3a d52f da3a f44f 7fba
00000170: 197e ca3a 2eb6 8aba 31b9 bcb8 5ca2 24ba
00000180: b7c1 94b9 f140 3aba 37a4 29ba 0c75 a9ba
00000190: e924 1739 9f3d 81b8 e31c c5ba cb33 693a
000001a0: 6c76 93b9 a9ad d3b9 30a4 173b f9ea ccba
000001b0: 3155 0f3b 9219 be3a 2db8 39ba 7f6c a539
000001c0: 3689 dbb7 5c29 fab9 fc3c 3d3a 3a04 fcba
000001d0: 38f9 9a39 2e44 beb9 7d10 073b 86b3 2b3a
000001e0: 9db4 603a 1354 8338 4f40 69ba 3204 efb9
000001f0: c0b6 c5ba 4946 ac3a 23d6 a939 59a9 d43a
00000200: daca 043a 053e d6bb 7842 9239 00dd 84ba
00000210: 6563 b43a 439b 543a b216 153c 67e6 063a
00000220: b77b 74ba e6bf 40ba ebb9 0dba 8009 5738
00000230: f2ba c9ba 91e4 103c d4c5 cb3b 09e9 5c3a
00000240: a4ba 9bbb d6f0 28bb d421 d53b dbbc 84ba
00000250: 66a3 603a f8bc 433a b2fd cebb ae83 d0bb
00000260: c950 fb38 3a83 e93a 801d 16ba a3d6 0abc
00000270: 757e 38ba 397f 8fbb 6f02 ebba 7ebe b5ba
00000280: 8f99 2abb 074f 8f39 76b0 b3bb 6c90 72bb
00000290: 3b50 b8ba fd53 363a b3ba 9fb9 80fe 25ba
000002a0: 1223 26bc 42e2 86bb 228d abba 74a6 ae3a
000002b0: ee33 5aba 7ece 95ba 658a 09bc 392a 003c
000002c0: a317 c9ba 4094 8dbb da74 eb3b e85a a9b8
000002d0: 0004 413b 13f6 23bb 8914 82ba bf52 103b
000002e0: 2ba4 a53b 446e 073b 4c73 533a 0422 1fb9
000002f0: 186f 02bb d589 d63a 2842 2a3c 88bb d2b9
00000300: 9f53 ff39 6883 07ba eb31 2f39 d09d 84ba
00000310: 968f ae3a 0792 5d39 de47 363a 19c8 4739
00000320: cf7d b9b9 866c d5b8 9b33 00ba ae86 aeba
00000330: 0428 f9ba 2294 8d3a 44c6 9039 9441 39b9
00000340: 2a67 d5b8 7082 5437 875c 5838 6309 84b9
00000350: 8d11 aa3a c52a df3a f8e4 fbb9 f01a ddb9
00000360: 643e 4839 d2a9 8eb9 f76f 83ba 5828 b7b9
00000370: ae3f 75ba b7e6 09b9 b05d 12b9 3b14 8e37
00000380: fb98 c7b7 97e6 f439 3570 eab9 03b1 a238
00000390: d536 9ab9 91d6 7c39 6413 873a 9079 10ba
000003a0: 7fc5 93ba 0d68 a938 2958 cdba 62b4 963a
000003b0: bc93 b4ba 4dd2 84ba 6889 16ba b04e 163a
000003c0: 32e9 dbb8 d187 cdb9 f632 223a 4269 853a
000003d0: 9a2f cab8 99d4 70b9 7b63 c1ba e850 86b9
000003e0: 1e2b adb8 76f2 e439 8ed9 1e3a 8136 8539
000003f0: 3d75 1f3a 5314 30ba 11cd 473a a7ad 82ba
-0.0007623791 0.0041229897 0.0004333621 0.0012308394 -0.0016908682 0.0003024877 -0.0035945843 0.00038116088
-0.00013314778 0.0016732111 -0.00010243091 0.001855141 0.0026545755 -0.0062037576 -0.00147237 0.00064120675
0.002527127 0.001971174 -0.0012530333 -0.00027507322 -0.0017985437 -0.0023216126 0.003887483 0.0017728894
0.0005578705 -0.0012003736 0.00078553736 0.0024003398 0.0010502242 0.002586405 -0.0001814279 0.0012665887
-9.00105e-05 -0.0007987466 0.0014300501 0.0019173522 -0.00010803589 -0.0025807805 -0.0014718123 0.000780971
0.0063139293 6.099782e-05 0.0018230048 -0.0012365977 0.0015390591 0.0009344875 0.002849183 -0.0028063448
-0.00029460146 0.003444604 -0.0045622 -0.00060303387 0.00092061586 0.0026284768 0.0020998465 0.00042587696
-0.0005875818 -0.0025104445 -0.00044815565 -0.00060333643 -0.0008788708 0.0009576507 -0.0044026906 0.0016637677
-0.0007781762 -0.00079234515 -0.00044734476 0.0012315941 -0.0018721926 -0.00031423115 0.00037397322 -0.00039577
0.000456985 -0.0002247193 0.0008279544 0.0019729522 0.0026315844 8.53381e-05 0.0009348653 0.00013893597
-0.0012221382 -0.00088190363 0.00096959685 0.0002991135 -0.0017380024 -0.0023738458 -0.0008068629 -0.00071477203
-0.00051013887 0.0011802276 0.0016646335 -0.0009739392 0.0015448957 -0.0010582858 -8.999033e-05 -0.0006280297
-0.0002837309 -0.0007105014 -0.00064713083 -0.001292856 0.00014414232 -6.162677e-05 -0.0015038516 0.00088959624
-0.00028126256 -0.00040374443 0.0023138635 -0.0015633992 0.0021870846 0.001450347 -0.0007084634 0.00031552088
-2.6170728e-05 -0.0004771453 0.0007218865 -0.0019227334 0.0002955885 -0.00036290422 0.0020609193 0.00065498834
0.00085718354 6.262227e-05 -0.00088978274 -0.00045588758 -0.0015084371 0.0013143505 0.00032393736 0.0016224786
0.00050656276 -0.006538155 0.00027896813 -0.0010136664 0.0013762532 0.0008110294 0.009099649 0.0005146027
-0.0009326296 -0.0007352814 -0.0005406427 5.1268842e-05 -0.0015390797 0.008843557 0.0062186513 0.0008427059
-0.004752474 -0.0025778315 0.006504277 -0.0010127084 0.000856927 0.0007466818 -0.006316864 -0.0063633537
0.0001198366 0.0017815598 -0.0005726442 -0.008474025 -0.00070378865 -0.00437918 -0.0017929802 -0.0013865975
-0.002603147 0.00027333965 -0.0054836823 -0.0037012352 -0.0014061996 0.0006955264 -0.00030465945 -0.0006332174
-0.010140197 -0.0041163275 -0.0013088326 0.0013324753 -0.0008323778 -0.0011429337 -0.008394812 0.007822567
-0.0015342127 -0.0043206513 0.0071855607 -8.0754806e-05 0.0029451847 -0.0025018498 -0.0009924333 0.0022021977
0.0050549707 0.0020665089 0.0008066192 -0.00015176093 -0.0019902643 0.0016367981 0.010391749 -0.00040194043
0.00048699693 -0.00051694224 0.00016707896 -0.0010117833 0.0013317938 0.00021130602 0.0006953458 0.00019052661
-0.00035379684 -0.000101768455 -0.00048905023 -0.0013315284 -0.0019009118 0.0010801593 0.0002761354 -0.00017667405
-0.00010175847 1.26665545e-05 5.1584586e-05 -0.00025183996 0.0012975201 0.0017026296 -0.00048045046 -0.00042172475
0.00019096729 -0.00027210877 -0.0010027875 -0.00034934538 -0.00093554973 -0.00013151286 -0.00013958546 1.693714e-05
-2.3793886e-05 0.0004671111 -0.0004471556 7.757733e-05 -0.00029414022 0.00024112525 0.0010305461 -0.0005511278
-0.0011274068 8.077929e-05 -0.0015666533 0.001149785 -0.0013776938 -0.0010133475 -0.0005742521 0.0005733771
-0.0001048617 -0.00039201838 0.00061874033 0.0010178464 -9.640977e-05 -0.00022967382 -0.0014754379 -0.00025618752
-8.257314e-05 0.00043668196 0.000605964 0.00025408345 0.00060828385 -0.0006716896 0.0007621805 -0.0009969965

exp_avg_sq f4 [64, 128]
00000000: 19e5 4f38 393b 8138 6360 3037 ad2d 3836
00000010: 8d8b c838 b6fb c937 5018 0e3a 929a da37
00000020: 1350 7938 f30d f438 f46e 1338 c24f c638
00000030: 8198 6139 6d60 7c38 7f1b cf39 9f30 4237
00000040: 5cfc 6638 d8b9 7238 5d97 6f39 c375 a438
00000050: f595 4838 5240 e338 f479 8c38 086e d039
00000060: 6881 b437 7eee 2738 a97c b337 0c5e c339
00000070: 3ee7 bc38 6bc7 3038 ea44 0239 a412 9f37
00000080: 4261 0039 f3da a737 854f d939 c17f 3c38
00000090: f7df f438 57b9 7439 b6f7 4a38 531d 4338
000000a0: 803c ce38 810f c838 d66e 0a39 1af6 5937
000000b0: 098c f738 eb4e 6237 fe5d eb39 cde6 0b3a
000000c0: 8102 d438 c295 8c38 56ce 9238 7ea5 5f38
000000d0: c535 8039 a454 0239 a4cf f738 1c25 9a38
000000e0: 5d1d 2e39 16e2 be37 112e c236 f6c0 2238
000000f0: 5595 8639 3a42 3339 b287 173a 67a6 4f39
00000100: b871 5538 90ef e237 17bb fa36 b576 2636
00000110: 16c5 e238 ad15 8035 ebca bb38 04ba e134
00000120: a99b ef36 9ec8 8636 5c60 3936 123c 8238
00000130: 3ad4 3d39 2a77 1f38 580a 2239 3c01 c436
00000140: 6b19 7c38 01a5 b036 465e 7138 fe3e 0d37
00000150: 0197 2e38 7cb0 ac38 0c4a 6538 9df9 1539
00000160: 0660 2a36 3893 1c37 708d 1838 8bd7 f538
00000170: 9887 f138 ffb9 1838 6213 e237 74f0 9837
00000180: dd32 5b37 c516 8e37 0537 3039 ee1d 4038
00000190: 4627 0338 2071 6337 f388 d137 dd71 7038
000001a0: 1e4d 9138 b26a 2334 84ff 2239 74a7 ac37
000001b0: a0c3 1e39 5e7c 0e37 0f57 0f39 a5ce 9d38
000001c0: bb6e 4a37 7923 a136 22ff ad37 1196 a138
000001d0: 667f 1837 6208 5836 02bb e538 ffcc 4437
000001e0: c9a8 db37 d405 a137 13f7 2237 4cb6 ab37
000001f0: d530 1539 f965 5638 c529 d038 9c2d 0c39
00000200: 66e7 8e38 1d9f bb39 547c 2638 d305 5937
00000210: e388 1d39 d35c 6c38 caba 503a 8050 a938
00000220: 9cfb ea38 a525 9739 b3a0 8338 d6af 6c39
00000230: 66f2 d239 b090 f839 2b8d 263a eb8e 8638
00000240: f94f 1439 3f26 5c39 d28a 063a 7dd3 2339
00000250: 39d0 ea38 d05c 8739 12ce 8039 0543 213a
00000260: 39ea 9738 bbec 1139 04ee 0138 ff7d 383a
00000270: d0d4 de38 4e27 4439 e86f 6f39 3c77 df38
00000280: 0b77 9439 1b2f 0538 1198 1e3a 276f 5039
00000290: 0c40 4439 58f0 ef39 d60d 1439 39f3 6a38
000002a0: cd94 f039 e8d0 d139 1b33 5139 f382 bd37
000002b0: e798 0539 02de f337 bf65 3d3a 481c 4a3a
000002c0: 037e 6039 29ef a539 bb54 fe39 8d5b 8338
000002d0: 6412 193a e59c b039 ffcf 6b39 8008 5739
000002e0: e107 dd39 9505 4839 74f7 2537 9a60 9538
000002f0: c498 ea39 5ee9 bb39 f153 653a 8048 ad39
00000300: da46 9638 5349 9d38 208b 7c37 3330 3b37
00000310: f2ec 4239 b42e 2e35 bfb7 eb38 39d6 0336
00000320: 8e17 8336 3fe5 0c36 9627 b936 b421 0c39
00000330: 696c a939 01c3 8538 3ac6 7839 00c9 b136
00000340: 3e0b 1239 cba5 c437 4fff e738 68a3 b436
00000350: 8970 c038 c3b7 3e39 7025 0739 6de4 5539
00000360: 1bf8 1137 0752 1938 de9d a838 8b2d 5539
00000370: ec58 3a39 0d17 c038 2d10 f537 80f6 1c38
00000380: 07f5 8c37 def1 cc37 2ee4 7339 966c e138
00000390: 2762 ed37 3304 0937 7817 8638 cc9e ac38
000003a0: a302 fb38 b6f0 3e35 3c2c 9339 99b7 6038
000003b0: 34cb 8839 4650 ef37 804a 5039 c245 bf38
000003c0: 42fb 4037 3f10 a637 0185 7738 cf29 2b39
000003d0: a7e0 0737 c3b1 6336 fca4 5339 ccc7 cb37
000003e0: 2978 6038 a2bd fc37 f1f4 b137 2b0b e537
000003f0: a28c 7439 e0e6 be38 1911 0739 bf2e 5539
4.956601e-05 6.1622304e-05 1.0512859e-05 2.7444723e-06 9.5627365e-05 2.407828e-05 0.0005420493 2.6059603e-05
5.94408e-05 0.00011637425 3.5150864e-05 9.456232e-05 0.00021514484 6.0171285e-05 0.00039502603 1.1574622e-05
5.50713e-05 5.7870377e-05 0.00022849203 7.842064e-05 4.7823374e-05 0.00010836184 6.698436e-05 0.0003975483
2.1517932e-05 4.0038016e-05 2.1396512e-05 0.0003726337 9.007611e-05 4.2147392e-05 0.00012423439 1.8962957e-05
0.00012243263 2.0009908e-05 0.00041448712 4.4941673e-05 0.00011676543 0.00023338698 4.839125e-05 4.6518933e-05
9.8341145e-05 9.539631e-05 0.00013201995 1.2991508e-05 0.000118039614 1.3489024e-05 0.00044892723 0.0005336821
0.00010109414 6.703615e-05 7.0002556e-05 5.332147e-05 0.00024454124 0.00012429297 0.00011816554 7.3502044e-05
0.00016604872 2.2755044e-05 5.7870134e-06 3.880352e-05 0.00025669733 0.00017095442 0.0005780413 0.00019803048
5.0889066e-05 2.7052854e-05 7.4723607e-06 2.4805024e-06 0.0001081323 9.543052e-07 8.954651e-05 4.204486e-07
7.1408763e-06 4.016866e-06 2.7623237e-06 6.210072e-05 0.00018103505 3.8019534e-05 0.00015453377 5.841399e-06
6.0105154e-05 5.2644177e-06 5.7546677e-05 8.418921e-06 4.1625466e-05 8.234472e-05 5.4666816e-05 0.00014302736
2.5387867e-06 9.332602e-06 3.6371348e-05 0.000117226584 0.00011517032 3.6412846e-05 2.6950325e-05 1.8231782e-05
1.306526e-05 1.6938322e-05 0.00016805164 4.580424e-05 3.126941e-05 1.3556593e-05 2.4978513e-05 5.7326502e-05
6.928503e-05 1.5219373e-07 0.00015544711 2.0581974e-05 0.0001514093 8.492816e-06 0.00013669975 7.524834e-05
1.206592e-05 4.8023035e-06 2.0742013e-05 7.70503e-05 9.089568e-06 3.2191388e-06 0.00010954404 1.173024e-05
2.6185431e-05 1.919541e-05 9.713479e-06 2.0469677e-05 0.00014227939 5.1116545e-05 9.925993e-05 0.00013368431
6.814189e-05 0.00035785968 3.9693274e-05 1.2935564e-05 0.00015023681 5.6353234e-05 0.0007962404 8.073542e-05
0.000112048554 0.00028829012 6.276499e-05 0.00022572218 0.00040234922 0.00047410047 0.0006353433 6.4162385e-05
0.00014144172 0.00020995083 0.000513238 0.00015623677 0.00011196774 0.00025818357 0.00024567597 0.0006151649
7.2438685e-05 0.00013916467 3.0977666e-05 0.0007037818 0.00010625424 0.00018706659 0.00022834504 0.00010655678
0.00028317454 3.175354e-05 0.00060498813 0.00019877833 0.00018715876 0.00045764702 0.00014119534 5.6016466e-05
0.00045887232 0.00040019234 0.00019950831 2.2591534e-05 0.00012740829 2.9071238e-05 0.0007224939 0.0007709903
0.00021409248 0.0003164944 0.00048509784 6.2636194e-05 0.0005839227 0.00033686231 0.00022488831 0.00020507164
0.00042158275 0.00019075566 9.892381e-06 7.122867e-05 0.00044745777 0.00035841292 0.0008748165 0.00033051148
7.1657545e-05 7.500001e-05 1.5052763e-05 1.1157291e-05 0.00018589551 6.4888013e-07 0.000112398986 1.9645215e-06
3.9068464e-06 2.0995064e-06 5.518038e-06 0.00013363996 0.00032314964 6.3782565e-05 0.00023724968 5.2984105e-06
0.00013927833 2.3442224e-05 0.00011062493 5.383441e-06 9.176235e-05 0.00018188269 0.0001288855 0.00020398358
8.70044e-06 3.6554437e-05 8.040269e-05 0.00020330229 0.00017771468 9.159567e-05 2.9213808e-05 3.742287e-05
1.68034e-05 2.4431323e-05 0.0002325929 0.00010749062 2.8298307e-05 8.166814e-06 6.393989e-05 8.231177e-05
0.00011969104 7.1130796e-07 0.00028070982 5.357675e-05 0.0002609134 2.85284e-05 0.00019864179 9.120583e-05
1.1502592e-05 1.9796307e-05 5.901326e-05 0.00016323406 8.098933e-06 3.3929107e-06 0.0002018399 2.4292523e-05
5.351767e-05 3.0129046e-05 2.1214104e-05 2.7304128e-05 0.00023322043 9.10291e-05 0.00012880973 0.00020330677

exp_avg f4 [64]
00000000: 72ec 933b 2b79 5bbb edb3 813b 1618 d4bb
00000010: 4166 653a b1d3 84bb 9028 863a 792b 803b
00000020: 91a7 c5bb 0ee7 eabb c0f2 893b 7073 6fb9
00000030: 820d eeba 862c c13a f075 d73a 9310 04ba
00000040: 86ea d6ba b705 9e39 c195 273b c7f2 b13a
00000050: 7f82 283b eb7b b5b9 c045 1fbb 9948 06bb
00000060: be4b efba ef3d ca3a fe99 973b 1add c1ba
00000070: 7ccb fbba 67e2 1abb ffc2 ce3a c507 c53a
00000080: 2d77 bbbb 62dd 4a3a c42f c63a 43d3 583b
00000090: 32a8 a63a 14df 84bb dda9 4bbb f322 eaba
000000a0: e725 24bb e75c b0b8 1544 72bb 2a1c 3f3b
000000b0: a4a2 cc3b fa15 943b 08ea d739 e48f a5ba
000000c0: 6668 59bb 31bb 873a 9b47 4bbc 9ffe 4dbb
000000d0: 66e2 8038 477a 52bb 5a47 87ba 1c1f 453b
000000e0: 9a45 873b ccd3 bcba 839e 50ba a8ee b1bb
000000f0: 5d49 6abb 2d37 47bb 7c12 143b 8818 f3ba
0.0045142705 -0.003348897 0.0039582164 -0.006472598 0.0008750894 -0.004053556 0.0010235477 0.0039114323
-0.0060319384 -0.007168657 0.0042098463 -0.0002283582 -0.0018161985 0.0014738 0.0016438346 -0.000503787
-0.0016396798 0.00030140366 0.0025571438 0.0013576382 0.0025712547 -0.00034615336 -0.002430305 -0.002049005
-0.0018256826 0.0015429835 0.0046265116 -0.0014790625 -0.0019210423 -0.0023633481 0.0015774666 0.0015032223
-0.005720994 0.0007738677 0.0015120436 0.0033084906 0.0012714921 -0.0040549133 -0.0031076588 -0.0017863199
-0.0025047006 -8.4096384e-05 -0.003696685 0.0029161074 0.006244974 0.0045192214 0.00041182362 -0.0012631384
-0.0033173799 0.001035547 -0.012407209 -0.0031432284 6.1456856e-05 -0.003211634 -0.0010320947 0.0030078357
0.00412817 -0.0014406382 -0.00079581904 -0.0054300614 -0.0035749294 -0.0030397878 0.0022594025 -0.001854674

exp_avg_sq f4 [64]
00000000: a73e 0c3a fd7c 7c3a e0ee 073a 4d43 dd39
00000010: 09cc 8638 c7e1 bb3a b4ee 8d3a 2d8b f339
00000020: e042 9839 1a87 b739 101b d739 7b5b aa38
00000030: fee7 7939 fed5 3b39 bd4c 1538 4c5e 7d37
00000040: 40b2 ad39 5331 4a3a 5d88 3b3a 4e1c dc3a
00000050: 25a5 043a 217f d439 2b57 6638 9cd1 143a
00000060: 3e25 5539 b4ac 8e3a d9e3 0b38 fc3f 9a39
00000070: cebf 8138 0edf 8e3a 74cb 4f3a dcfe 7b38
00000080: 6fe3 103b d993 e936 1dec c738 8ebd 0939
00000090: 8535 a63a 6466 0b3a 4536 083a 3f68 113a
000000a0: 31a0 4538 6d82 0b38 d055 d939 915f 623a
000000b0: 0a28 8a39 4079 1f3a ac2a 6038 b7ae 7139
000000c0: af1f 733a fe7d a638 cd59 d93a 213e fb39
000000d0: 90fe d23a 9ee6 1a39 e4f2 413a 9eac fc3a
000000e0: 9090 aa39 9724 6d37 73f3 5239 6813 3e39
000000f0: a8b4 c339 cdaa 073a 4043 253b 25b6 643a
0.0005349912 0.0009631662 0.00051854365 0.00042202548 6.4276224e-05 0.0014334255 0.0010828585 0.00046452266
0.00029041525 0.00035005138 0.0004102816 8.123271e-05 0.00023832914 0.00017913428 3.5595836e-05 1.510193e-05
0.00033129938 0.00077130384 0.00071538036 0.0016793103 0.0005060009 0.0004053051 5.4917455e-05 0.0005676986
0.00020327137 0.001088521 3.3352382e-05 0.0002942084 6.186926e-05 0.0010900216 0.000792674 6.008042e-05
0.0022108217 6.961153e-06 9.533039e-05 0.00013135953 0.0012680745 0.00053176866 0.0005196075 0.0005546845
4.711765e-05 3.326165e-05 0.000414534 0.00086354563 0.00026351243 0.00060834363 5.3445503e-05 0.00023048637
0.00092744356 7.938965e-05 0.0016582549 0.0004792074 0.0016097594 0.00014772496 0.0007398559 0.0019277518
0.00032532634 1.413482e-05 0.00020117853 0.00018127041 0.00037327898 0.00051752926 0.0025217086 0.00087246514
