results/pretrain/checkpoints/A06_H064_L02_D01_Tanh_W4096_P010000_Adam_PT_True_device_cuda_dtype_float32_chkp.pt (torch, 234187 bytes, 23 tensors)

layers.0.fc.weight f4 [64, 2]
0	0x3d562fbe	0.052291624
1	0x3ea415f1	0.3204799
2	0xbf3cf30e	-0.7380837
3	0xbe771fa3	-0.24133162
4	0xbedd15c3	-0.43180665
5	0x3d44c4fa	0.048039414
6	0xbd4dffa1	-0.050292615
7	0x3eeecc56	0.4664027
8	0xbddf0eb5	-0.10891477
9	0x3e1171b0	0.14203525
10	0xbece106b	-0.402469
11	0xbc941713	-0.018077409
12	0xbf529d61	-0.8227139
13	0xbe51908d	-0.20465298
14	0xbed3a6aa	-0.41338092
15	0x3df9b56b	0.12192806
16	0x3eb32eaf	0.34996554
17	0x3e719daf	0.23595308
18	0xbf25ab9a	-0.6471497
19	0x3cfe1eed	0.031020606
20	0x3ece7ae2	0.40328127
21	0x3e0d3f6f	0.13793729
22	0xbee37241	-0.44423106
23	0x3ebaf6e0	0.36516476
24	0xbe171fea	-0.14758268
25	0x3d797b58	0.060908645
26	0x3f5835e7	0.8445725
27	0xbedb9e35	-0.4289414
28	0xbf2708f2	-0.65248024
29	0xbe2553a8	-0.16145194
30	0xbed336ae	-0.41252655
31	0x3eb913b0	0.36147833
32	0xbf31d525	-0.6946586
33	0xbd3423bb	-0.043979388
34	0xbf0ebba6	-0.5575508
35	0xbeed98a9	-0.46405533
36	0xbf2373db	-0.63848656
37	0x3ed0b2f5	0.40761533
38	0x3ed70759	0.41997793
39	0x3e9069ff	0.2820587
40	0x3eaa8301	0.33303073
41	0xbe8a31ba	-0.26991063
42	0x3e9795a9	0.2960637
43	0xbf08b4d8	-0.53400946
44	0xbf402b58	-0.7506614
45	0xbdb02d0c	-0.08602342
46	0x3f3a37ec	0.7274158
47	0x3ee20ce1	0.4415045
48	0xbee35a4f	-0.44404837
49	0x3db5e101	0.08880807
50	0x3f26fe30	0.6523161
51	0x3eba91ad	0.36439267
52	0x3efc5974	0.49286997
53	0x3ca78339	0.020448314
54	0x3f3f0030	0.7460966
55	0xbe1d7d40	-0.1537981
56	0x3eab2e8d	0.33433953
57	0xbeb1d8f6	-0.3473584
58	0xbf285215	-0.6575025
59	0xbdf5b24e	-0.119968995
60	0x3eec108f	0.46106383
61	0x3d922308	0.07135588
62	0xbf0ef111	-0.5583659
63	0x3e5a73cb	0.21333234
64	0x3eee6d5f	0.4656782
65	0xbd8af508	-0.06785017
66	0x3ec15195	0.37757555
67	0x3e3616c5	0.17782123
68	0x3f250d91	0.64473826
69	0x3eff5da9	0.49876145
70	0xbf4f1579	-0.8089214
71	0xbe34a48c	-0.17640895
72	0x3ebaf851	0.36517575
73	0x3ec95c53	0.3932825
74	0x3f5ef2e3	0.87089366
75	0x3e1bb268	0.15204775
76	0x3ea96079	0.33081415
77	0xbefdb533	-0.49552307
78	0x3de8e344	0.113714725
79	0xbea8dd1b	-0.3298119
80	0xbf6bfb58	-0.92180395
81	0x3eb96b41	0.3621464
82	0x3f48fc93	0.785104
83	0xbec6a51a	-0.38797837
84	0x3ea19f52	0.31566864
85	0xbdf131df	-0.1177709
86	0xbe8b5ee5	-0.27220836
87	0xbe44bb57	-0.1921209
88	0x3e2a3788	0.16622746
89	0xbe4a48cf	-0.19754337
90	0x3eb0e77e	0.34551615
91	0x3e8a9b11	0.2707143
92	0x3f44c02a	0.7685572
93	0x3d45b742	0.04827047
94	0xbf2a50ad	-0.6652935
95	0xbea4e02b	-0.32202277
96	0x3edf2304	0.43581402
97	0x3e4408eb	0.19144027
98	0xbf31b5a3	-0.6941778
99	0xbe7c9c8d	-0.24669094
100	0x3f2aecbf	0.66767496
101	0x3e88be62	0.2670775
102	0xbecc88e3	-0.39948186
103	0xbde7354d	-0.11289463
104	0xbf6bebd3	-0.92156714
105	0xbd2fa623	-0.04288305
106	0xbf257d14	-0.6464398
107	0xbe6b1298	-0.22956312
108	0xbee60e2f	-0.44932696
109	0x3de4b3bf	0.11167096
110	0xbedc0a62	-0.4297667
111	0x3e9b4c26	0.30331534
112	0xbf256be9	-0.6461778
113	0x3edd0bcf	0.43173072
114	0x3f2ea4b3	0.6822006
115	0xbe5eda98	-0.21763074
116	0xbe959b88	-0.29220223
117	0xbd8e10a9	-0.069367714
118	0x3e8888b5	0.266668
119	0x3e108795	0.1411422
120	0x3ef33bb8	0.475065
121	0x3e0ad264	0.1355682
122	0xbee4bfab	-0.4467748
123	0x3e354cc9	0.17705072
124	0xbf5596f5	-0.8343347
125	0xbe376c47	-0.17912398
126	0xbe71f7be	-0.23629662
127	0xbec1098f	-0.37702605

layers.0.fc.bias f4 [64]
0	0xbeab0266	-0.33400267
1	0xbf2c77ba	-0.6737019
2	0xbe7d2095	-0.2471946
3	0x3e92be7b	0.2866095
4	0xbf31b4ef	-0.6941671
5	0x3c772f71	0.0150869945
6	0x3f58bcfd	0.84663373
7	0xbe28d544	-0.16487604
8	0xbdc50f26	-0.0962203
9	0xbdad0c4c	-0.08449611
10	0x3d348b37	0.044078078
11	0x3f27cf75	0.6555093
12	0x3f4dead4	0.80436444
13	0x3f49e610	0.7886667
14	0x3f54d7ff	0.83142084
15	0xbde57257	-0.11203449
16	0xbf68e36a	-0.90972006
17	0xbeed7715	-0.46379915
18	0x3f226c55	0.6344655
19	0xbd53cde1	-0.051710013
20	0xbf07be7a	-0.5302502
21	0xbf25d027	-0.6477074
22	0xbf44b8b4	-0.76844335
23	0xbf57e149	-0.8432813
24	0xbe25d63b	-0.16195004
25	0x3f55a02b	0.8344752
26	0x3f2a1202	0.6643373
27	0xbf76b4b3	-0.96369475
28	0x3f2f5b1c	0.68498397
29	0xbf357aef	-0.70890707
30	0xbeac7f2a	-0.33690768
31	0xbf3d04ba	-0.7383534
32	0xbe50b1e5	-0.20380361
33	0xbee6fd5f	-0.45115182
34	0xbf5d328b	-0.8640525
35	0xbf85636c	-1.0420966
36	0xbeb1fc97	-0.34763023
37	0x3d5b568d	0.053549338
38	0xbea7127d	-0.32631293
39	0x3ee6f5ad	0.4510931
40	0xbf78946c	-0.97101474
41	0xbe455c28	-0.19273436
42	0x3f2634d5	0.64924365
43	0xbed6ce6f	-0.4195437
44	0x3f567e5b	0.83786553
45	0x3edf57b7	0.4362161
46	0xbf6c6c58	-0.9235282
47	0x3f2b2ee1	0.66868407
48	0xbe2ba676	-0.16762719
49	0xbef96fc0	-0.4871807
50	0x3f4b7978	0.7948222
51	0xbf2c19ba	-0.67226756
52	0x3e2ceb0d	0.1688654
53	0xbe327a19	-0.17429389
54	0x3f296f4b	0.66185445
55	0x3e6728af	0.22574113
56	0x3f237306	0.63847387
57	0x3ef69e33	0.4816757
58	0xbeb6bc6f	-0.35690638
59	0xbe8f592f	-0.2799773
60	0xbf316b67	-0.6930451
61	0x3ef716ee	0.4825968
62	0x3f3d98b4	0.7406113
63	0x3f29afc0	0.662838

layers.1.fc.weight f4 [64, 128]
0	0xbd58863a	-0.052862383
1	0xbc883866	-0.016628455
2	0x3d021fb4	0.031768516
3	0xbe1c7125	-0.15277536
4	0xbc36c8f4	-0.011156309
5	0x3e0b1847	0.1358348
6	0x3d1ce901	0.038308147
7	0x3d90ed6c	0.07076535
8	0xbda7f77d	-0.082015015
9	0x3dd262ce	0.10272752
10	0xbe3318f8	-0.17489994
11	0xbd3b7808	-0.045768768
12	0xbd9c0ebb	-0.07619997
13	0x3e474059	0.1945814
14	0x3cc40120	0.023926318
15	0x3db7263e	0.08942841
16	0x3d01ec80	0.031719685
17	0x3d998f2a	0.074980095
18	0x3d963b51	0.073355325
19	0xbdca2ec5	-0.09872202
20	0x3c92134c	0.017831467
21	0xbca2ca49	-0.019871848
22	0xbd0e1484	-0.034687534
23	0xbd599481	-0.05312014
24	0x3c64ecd0	0.013972476
25	0xbdd596bf	-0.10429143
26	0xbc23a3a8	-0.009987749
27	0xbe19e38f	-0.15028213
28	0xbcf66750	-0.03007856
29	0x3dbbda7f	0.09172534
30	0xbd069e2a	-0.03286568
31	0x3cd9c114	0.026581325
32	0xbe0e272e	-0.13882133
33	0x3c9b105f	0.018928705
34	0xbdf8c35e	-0.12146638
35	0xbcbbde63	-0.02293319
36	0xbdb7afe1	-0.08969093
37	0xbd5d3aee	-0.054011278
38	0xbc206fb8	-0.009792261
39	0x3d591808	0.053001434
40	0xbdae66a0	-0.08515668
41	0x3d56092b	0.052254837
42	0x3c60f574	0.013730396
43	0x3d78aeaf	0.060713466
44	0x3b35df59	0.0027751534
45	0xbe42228c	-0.18958491
46	0xbdea8229	-0.11450607
47	0x3dd5ddbb	0.10442682
48	0xbd25a799	-0.040443037
49	0x3db2e8b3	0.0873579
50	0xbc9a083a	-0.01880275
51	0x3d6ffb73	0.05858941
52	0x3db7f4b8	0.08982223
53	0xbd1792a6	-0.03700509
54	0x3d7bf347	0.061511304
55	0xbce3cacc	-0.027806662
56	0x3d9d2439	0.076729245
57	0x3d3b4ee4	0.045729533
58	0x3db10da7	0.08645182
59	0xbb6768d2	-0.003531028
60	0x3d4f8530	0.050664127
61	0x3be876e0	0.007094249
62	0x3d36dfd3	0.04464705
63	0xbd16eadf	-0.036845084
64	0xbda1c5ca	-0.078990534
65	0x3ced8ae2	0.028996889
66	0xbd894009	-0.06701667
67	0xbe2f1f78	-0.17101848
68	0xbcb8d032	-0.022560213
69	0x3d71f493	0.059071135
70	0x3d089394	0.033343866
71	0x3d2e493d	0.042550314
72	0x3c214a8a	0.009844432
73	0xbced177d	-0.028941864
74	0xbd0a6aa8	-0.03379312
75	0x3d0eac33	0.03483219
76	0x3d3bf1d8	0.045884937
77	0x3d19aad3	0.037516426
78	0xbce22c32	-0.027608965
79	0xbd8dfcee	-0.06933008
80	0xbdea0b16	-0.11427896
81	0xbcc6a29c	-0.02424746
82	0xbcc7747d	-0.024347538
83	0xbdb5cce8	-0.088769734
84	0x3db522de	0.08844541
85	0xbd3a6ee6	-0.045515917
86	0xbcce8811	-0.025211366
87	0x3c8c10de	0.017097887
88	0xbcad393a	-0.021145452
89	0xbbead34d	-0.0071663023
90	0xbd5d0e97	-0.053968992
91	0x3d4ce0bc	0.05001901
92	0x3ca6babd	0.020352716
93	0x3d40f0a2	0.047104485
94	0xbd3ee618	-0.046606153
95	0xbccc5947	-0.024944915
96	0xbd099549	-0.033589635
97	0xbca434be	-0.02004468
98	0xbd8d1108	-0.06888014
99	0x3a2c941a	0.0006583348
100	0xbbab24ad	-0.005222878
101	0xbca1f0ee	-0.019768205
102	0xbcaea2e8	-0.021317914
103	0xbd86abc3	-0.0657573
104	0x3d26da3c	0.04073547
105	0xbd0453da	-0.03230653
106	0x3d0acf3c	0.03388904
107	0xbc540e1d	-0.012942818
108	0xbd8610e9	-0.06546194
109	0x3b4989bc	0.0030752262
110	0xbd5ade2d	-0.05343454
111	0x3cadc5ff	0.021212576
112	0x3b6d64fe	0.0036223526
113	0xbdba73db	-0.09104129
114	0x3d722d70	0.059125364
115	0x3cf0883e	0.02936184
116	0x3c4a33c2	0.012341442
117	0xbc72dc4f	-0.0148230335
118	0xbd9195c0	-0.07108641
119	0x3bbc6d74	0.0057503525
120	0x3d83f7ba	0.064437345
121	0xbc645f06	-0.013938671
122	0x3d4c3157	0.04985174
123	0x3d6edd93	0.05831678
124	0xbd8271f9	-0.06369395
125	0x3c752ba7	0.014964021
126	0x3c57c330	0.013169095
127	0x3c12c2e7	0.008957601
128	0xbc02cc85	-0.007983332
129	0x3e12e1e2	0.1434398
130	0x3d2b9bb0	0.041896522
131	0x3d47c298	0.048769563
132	0x3d26a116	0.040680967
133	0x3e199391	0.14997698
134	0x3ca5590f	0.020184068
135	0x3db29842	0.08720447
136	0x3aa9f1d2	0.0012965745
137	0x3cc0038f	0.023439197
138	0xbe0ea412	-0.13929775
139	0xbd4d1229	-0.050066147
140	0x3df6b3a6	0.12045984
141	0xbdb0fe64	-0.08642271
142	0xbd9a4850	-0.07533324
143	0x3dd7aefa	0.10531421
144	0x3e528ed7	0.20562302
145	0x3e3dd642	0.18538764
146	0x3d82f81b	0.063949786
147	0x3cee6bd1	0.029104145
148	0xbd83ca10	-0.06435025
149	0xbd5aaf9a	-0.053390123
150	0x3e6315ad	0.22176237
151	0x3d8cef5f	0.06881594
152	0x3d151796	0.036399446
153	0xbd02b743	-0.031913053
154	0xbcd8efa8	-0.026481465
155	0x3d97856e	0.073984966
156	0xbd975e23	-0.07391002
157	0x3e2192d4	0.15778667
158	0xbd5b5e1a	-0.05355654
159	0x3e394c89	0.18095602
160	0xbd29d826	-0.0414659
161	0xbcb12fd6	-0.021629255
162	0x3d080e52	0.033216782
163	0x3e2f6ede	0.17132136
164	0xbd2e0452	-0.04248459
165	0xbbe6394a	-0.0070258724
166	0xbdb501a1	-0.08838201
167	0x3c8f5a32	0.017499063
168	0x3dc0e71b	0.0941908
169	0xbddf8a3d	-0.10915039
170	0xbd8ccf24	-0.068754464
171	0x3d921760	0.07133365
172	0x3d5bc2bb	0.053652506
173	0x3d0f192d	0.03493612
174	0x3dc869fb	0.09785839
175	0xbdd3575e	-0.10319398
176	0xbdbbcfa2	-0.09170462
177	0x3dc68329	0.096929856
178	0xbe348fa3	-0.17632918
179	0x3dda6a17	0.10664766
180	0xbd293818	-0.04131326
181	0x3d05dfb0	0.03268403
182	0xbd3edfad	-0.046600033
183	0xbcd04e91	-0.025428088
184	0x3d8933fa	0.06699367
185	0xbd464c90	-0.04841286
186	0x3dddc24a	0.10828073
187	0x3d1182cd	0.035525132
188	0x3d87c8a8	0.06630069
189	0xbbd045bf	-0.0063559706
190	0x3b04ed3f	0.0020283011
191	0x3dc79213	0.09744658
192	0x3c8af872	0.016964171
193	0x3d92b759	0.07163877
194	0x3d2e67d0	0.042579472
195	0x3dc99ff2	0.0984496
196	0xbd68e33a	-0.056857325
197	0xbc527022	-0.012844117
198	0x3cc81541	0.024424197
199	0xbce9e0a6	-0.028549504
200	0xbbe69588	-0.0070368685
201	0xbd949b64	-0.07256201
202	0xbd13941e	-0.036029927
203	0x3d8c4545	0.068491496
204	0x3db6abe3	0.089195035
205	0x3c2c4227	0.010513819
206	0xbd5aec1b	-0.053447824
207	0x3daeed7e	0.08541392
208	0x3d68063e	0.056646578
209	0x3c5772a2	0.013149889
210	0xbd2222d4	-0.039583996
211	0x3dd1d2d0	0.102452874
212	0x3c893dd7	0.01675312
213	0xbda7b805	-0.08189396
214	0x3d8f16ed	0.069867946
215	0x3d8e9707	0.069624
216	0xbd29b3f3	-0.04143138
217	0x3cfffd2d	0.031248653
218	0xbd44ec00	-0.04807663
219	0xbc638ced	-0.01388858
220	0x3da570ae	0.080781326
221	0xb76a8513	-1.3978471e-05
222	0xbd44d005	-0.048049945
223	0xbc516da6	-0.01278249
224	0xbc9dcb7c	-0.019262068
225	0xbc2453e9	-0.010029771
226	0x3ca7a5e1	0.02046484
227	0x3d9bc203	0.07605364
228	0x3d349b0d	0.04409318
229	0xbd1b112f	-0.037858184
230	0xbbed3f27	-0.0072401944
231	0x3d609eb5	0.054838855
232	0x3cf4bd9d	0.02987557
233	0xbe033823	-0.12814383
234	0xbb1f14af	-0.0024273803
235	0xbda1ba1d	-0.078968264
236	0xbc825e99	-0.015914248
237	0x3d2236d7	0.03960308
238	0xbd83c1be	-0.06433438
239	0x3cfc4d0d	0.03079846
240	0x3dba55c7	0.09098392
241	0xbc49a47e	-0.012307284
242	0xbd8e67b4	-0.069533736
243	0xbd0ba101	-0.034089092
244	0x3d7f1009	0.06227115
245	0xbdcf007e	-0.10107516
246	0x3d7027d3	0.05863173
247	0xbd9ff339	-0.07810063
248	0xbdaecab7	-0.085347585
249	0xbd91919d	-0.07107852
250	0xbd102881	-0.035194878
251	0x3d5067e9	0.050880346
252	0xbda6bf1f	-0.08141922
253	0x3da0e8b9	0.07856888
254	0xbc1f3623	-0.009717497
255	0x3ceffcf7	0.029295428

layers.1.fc.bias f4 [64]
0	0x3cf3bf4c	0.029754303
1	0x3cd2f1e8	0.025750116
2	0xbdd1a9f1	-0.10237492
3	0x3d93cb5c	0.07216522
4	0xbcc7107f	-0.024299858
5	0x3c74af6a	0.0149344
6	0x3ccb590b	0.024822732
7	0xbc1c39fa	-0.009535307
8	0x3daac05c	0.08337471
9	0x3ccb8352	0.024842892
10	0xbcabd336	-0.020974737
11	0xbca320e0	-0.019913137
12	0x3dd27904	0.10276988
13	0x3c0c8e9a	0.008578921
14	0xbde07847	-0.10960441
15	0x3e407acb	0.18796842
16	0xbdbcfb13	-0.09227576
17	0xbd256104	-0.040375724
18	0xbd82e863	-0.063919805
19	0xbd0da849	-0.034584317
20	0xbdb0bca2	-0.08629729
21	0xbd4e9299	-0.050432775
22	0x3daf137e	0.0854864
23	0x3e02e256	0.12781653
24	0x3c20c662	0.009812923
25	0xbdddfd5e	-0.108393416
26	0xbe1e3a4a	-0.15451923
27	0xbd058856	-0.032600723
28	0x3e02a788	0.1275922
29	0x3db0ef4f	0.086393945
30	0x3d92a4fb	0.07160374
31	0xbe34b5ed	-0.17647524
32	0x3dd5da90	0.10442078
33	0x3df2685e	0.11836313
34	0xbdfb4fb5	-0.12271062
35	0xbe0e1951	-0.13876845
36	0xbd62b3c7	-0.05534723
37	0x3df69f78	0.12042135
38	0x3d121f47	0.03567436
39	0xbd2b82b7	-0.041872706
40	0x3dea94d8	0.11454171
41	0x3d80188a	0.062546805
42	0x3de1a3fa	0.11017604
43	0xbe14de7b	-0.14537995
44	0xbdf08008	-0.1174317
45	0xbcf6a3e6	-0.03010745
46	0xbd59e184	-0.053193584
47	0xbd62bcab	-0.05535571
48	0x3abce567	0.0014411629
49	0xbdfb13b7	-0.1225962
50	0xbdc85cf8	-0.097833574
51	0xbc80b3e3	-0.015710777
52	0x3d4f3d4b	0.050595563
53	0x3ddc396f	0.10753142
54	0xbda3329c	-0.07968637
55	0x3afff313	0.0019527398
56	0x3c52a1b3	0.012855935
57	0x3e608090	0.21924043
58	0x3cf47f12	0.029845748
59	0x3dde2ff2	0.108489886
60	0xbdd7a0a4	-0.10528687
61	0x3e00a316	0.12562212
62	0xbdda39d4	-0.10655561
63	0xbcb78fed	-0.022407496

layers.2.gsds.0.weight f4 [6, 64]
0	0x3d714137	0.058900084
1	0x3dc85ef7	0.09783738
2	0xbd5adf0e	-0.053435378
3	0x3ba4f41e	0.005033984
4	0xbc787e45	-0.015166824
5	0xbde52eab	-0.11190542
6	0xbdd55213	-0.10416045
7	0xbd60d5a9	-0.054891262
8	0xbd212a3d	-0.039346922
9	0x3c9e40b6	0.019317966
10	0xbda30f7d	-0.079619385
11	0xbc82beb3	-0.015960073
12	0x3dd133f0	0.102149844
13	0xbd33a865	-0.043861765
14	0x3d841a12	0.06450285
15	0xbd4b8024	-0.04968275
16	0xbd80c064	-0.062866956
17	0xbddab1ae	-0.10678421
18	0x3ddbae36	0.107265875
19	0xbdb03d8b	-0.086054884
20	0xbc27b499	-0.010235929
21	0x3d2ff4b1	0.042957965
22	0x3cc43aa0	0.023953736
23	0xbd1877a6	-0.03722348
24	0xbc399cc0	-0.011328876
25	0xbd21641e	-0.03940212
26	0x3c71e819	0.014764809
27	0xbd23d39d	-0.039996732
28	0x3d5de461	0.054172877
29	0x3d7c0371	0.06152672
30	0x3c919248	0.017769948
31	0xbd8d0728	-0.068861306
32	0xbd9a5b2a	-0.075369194
33	0x3d5f7146	0.054551385
34	0x3cd7fb01	0.026364805
35	0x3c658998	0.014009856
36	0x3dd6e855	0.104935326
37	0x3ceb1452	0.028696213
38	0xbd5110aa	-0.051041283
39	0x3dbcc4b7	0.09217208
40	0xbcba457a	-0.022738207
41	0xbd5596ea	-0.052145876
42	0x3d996ea9	0.0749181
43	0xbd8e6786	-0.06953339
44	0x3cb9b376	0.022668581
45	0xbc421ef5	-0.011848201
46	0x3d2c789b	0.042107206
47	0x3dc569ff	0.09639358
48	0x3da379b3	0.07982197
49	0x3d58faf2	0.052973695
50	0xbd9d255e	-0.07673143
51	0x3c88adbb	0.016684404
52	0xbd9018e1	-0.07035995
53	0xbd522309	-0.051302943
54	0xbb988763	-0.004654811
55	0x3d610b98	0.054942697
56	0xbca65531	-0.020304294
57	0xbd8f813f	-0.070070736
58	0xbe113706	-0.14181146
59	0x3d393d58	0.045224518
60	0xbd491961	-0.04909647
61	0x3e0d9a9f	0.13828515
62	0xbdd8f856	-0.10594241
63	0x3ab3fa45	0.0013731202
64	0xbd8055a6	-0.06266336
65	0xbe02baa1	-0.12766506
66	0x3d54847b	0.051884156
67	0x3ddb1f09	0.10699279
68	0x3d9845ab	0.07435163
69	0x3c7ee78e	0.015558137
70	0x3d9127ca	0.07087667
71	0x3d6fff65	0.058593173
72	0x3c854e2e	0.01627263
73	0xbdbe0557	-0.09278362
74	0x3d81544b	0.06314906
75	0x3dc58e59	0.09646291
76	0x3d989d60	0.07451892
77	0x3c5bdd4c	0.0134194605
78	0x3df57574	0.11985293
79	0xbd944e25	-0.072414674
80	0x3c177ca7	0.009246028
81	0x3db1bf6c	0.08679089
82	0x3be77f5e	0.007064744
83	0x3db03f0d	0.08605776
84	0x3dd7e04c	0.10540828
85	0xbdb691d6	-0.08914535
86	0x3cc97582	0.024592165
87	0x3d976f1f	0.073942415
88	0x3ce97626	0.02849872
89	0x3dace0cd	0.08441315
90	0x3d92a8e9	0.07161123
91	0x3d2d3f94	0.04229696
92	0x3d893db4	0.06701222
93	0xbe0ed0a0	-0.13946772
94	0xbd758613	-0.059942316
95	0x3d5839a5	0.05278935
96	0x3e0763b3	0.13221626
97	0xbd4b1e0b	-0.049589198
98	0x3de01824	0.109421045
99	0xbc84e266	-0.016221236
100	0x3d899ce1	0.067193754
101	0x3cc15261	0.023598852
102	0x3d5510a3	0.05201782
103	0xbd210c7e	-0.039318554
104	0xbdcd69f4	-0.100299746
105	0x3d99ff7c	0.07519433
106	0xbcb282ad	-0.021790827
107	0x3d92cdfb	0.07168194
108	0x3d771691	0.060324255
109	0xbcee13a1	-0.029062094
110	0x3dec8a46	0.11549811
111	0x3df7b152	0.12094368
112	0xbd664a2e	-0.056223087
113	0xbd45d561	-0.048299197
114	0x3c654a32	0.01399474
115	0xbda1ac28	-0.07894164
116	0xbb3edfd4	-0.0029125111
117	0xbe08060b	-0.13283555
118	0x3cb400f5	0.021973113
119	0xbe00ba9a	-0.12571183
120	0x3dcf1c2f	0.101127975
121	0x3d3e48c5	0.046456117
122	0x3dc6eea5	0.097134866
123	0x3d6e8ad8	0.05823788
124	0x39041763	0.00012597213
125	0x3d60fee7	0.054930594
126	0x3d3bdf0c	0.04586701
127	0x3d69932c	0.05702512
128	0xbd408838	-0.04700491
129	0x3e53392d	0.2062728
130	0xbde38b8f	-0.11110603
131	0xbe6d67ab	-0.23184077
132	0xbd1cea36	-0.0383093
133	0x3e789e95	0.24279244
134	0xbd0982f8	-0.033572167
135	0xbdc883db	-0.097907744
136	0xbda1825d	-0.07886193
137	0x3e0df5ce	0.13863298
138	0xbe6d8eb9	-0.23198976
139	0x3bf890d4	0.0075856242
140	0x3e45427c	0.19263643
141	0xbe096102	-0.13415912
142	0xbe3679f6	-0.17819962
143	0x3d00ea0e	0.031473212
144	0x3e18ff8a	0.1494123
145	0xbd4900b2	-0.04907293
146	0xbdda72ea	-0.10666449
147	0x3c44356c	0.011975627
148	0xbccf98a4	-0.02534134
149	0x3cce15c6	0.025156867
150	0x3de3780d	0.11106882
151	0x3aea2d5c	0.0017866301
152	0x3d0c0c97	0.034191694
153	0x3d092a5d	0.033487666
154	0x3e3751ae	0.17902252
155	0x3df6def4	0.12054244
156	0x3e0b5a1b	0.13608591
157	0x3d0b483d	0.03400444
158	0xbcb20afe	-0.021733757
159	0xbdfa2e5b	-0.12215873
160	0x3e28f68b	0.16500299
161	0xbd5395ee	-0.051656656
162	0xbd600dfb	-0.054700833
163	0xbe38370b	-0.17989747
164	0xbbad986c	-0.005297711
165	0x3e029d5c	0.1275534
166	0x3dd24048	0.10266167
167	0x3c863ed8	0.016387388
168	0x3c8b9a32	0.0170413
169	0x3d0010ba	0.03126595
170	0x3da51019	0.08059711
171	0x3d7f605a	0.062347747
172	0x3e4c71c7	0.19965278
173	0x3e301ca9	0.17198433
174	0x3e1d4a48	0.15360367
175	0xbba4ab04	-0.0050252695
176	0x3e1b34f1	0.15156914
177	0x3dcfdc33	0.101494215
178	0xbc56cbf7	-0.013110152
179	0xbdd739f4	-0.105091006
180	0xbd1addde	-0.037809245
181	0x3e289bc2	0.16465667
182	0xbe711370	-0.23542571
183	0xbd7d0930	-0.06177634
184	0xbd89afd2	-0.06722988
185	0x3d3099c0	0.043115377
186	0xbe37cd7e	-0.17949483
187	0xbd043e00	-0.03228569
188	0x3e1cdd86	0.1531888
189	0x3e6a57f7	0.22885118
190	0xbe0c2209	-0.13684858
191	0x3e306a95	0.17228158
192	0x3e0c2054	0.13684207
193	0x3d75fca6	0.060055397
194	0x3d2fb02b	0.042892616
195	0x3d5a5ac5	0.05330922
196	0xbce7148a	-0.028208036
197	0xbe68d5f7	-0.22737871
198	0xbd96f193	-0.073702954
199	0xbe77d4c9	-0.24202265
200	0x3e51ec43	0.20500283
201	0x3e31e09f	0.17370842
202	0x3e387a88	0.18015492
203	0xbe2e9390	-0.17048478
204	0x3d26e097	0.04074153
205	0x3c062e1c	0.008189704
206	0xbd210647	-0.039312627
207	0xbe4e8a3f	-0.20169924
208	0xbe2b097f	-0.16702841
209	0xbd2caca1	-0.04215682
210	0xbbd330ad	-0.0064450116
211	0x3e473d9e	0.19457099
212	0x3e1eff27	0.1552702
213	0xbb95c0d4	-0.004570106
214	0xbcc3c0a4	-0.02389557
215	0x3e1c00c3	0.15234666
216	0xbdcd44b6	-0.10022871
217	0x3e0cc63f	0.137475
218	0x3e9f7c51	0.31149533
219	0x3e35c6ed	0.17751665
220	0x3dada849	0.084793635
221	0xbe3175c3	-0.17330079
222	0x3e41088f	0.18850921
223	0xbe39d28e	-0.18146726
224	0x3e9c8c06	0.3057558
225	0x3e3a89f8	0.18216693
226	0xbd7d349e	-0.061817758
227	0xbd8b23d0	-0.0679394
228	0x3deee6c5	0.116651095
229	0x3d7aa3af	0.061191257
230	0x3c79f77c	0.015256759
231	0x3de03cdd	0.10949109
232	0xbe6591c0	-0.2241888
233	0xbea62dd7	-0.32456848
234	0x3e7095a1	0.23494579
235	0xbd8cebc3	-0.068809055
236	0xbe3388cd	-0.17532654
237	0xbd43c406	-0.047794364
238	0x3d9bafa7	0.076018624
239	0xbe647f08	-0.22314084
240	0x3d1a8962	0.037728675
241	0xbe012ca5	-0.12614687
242	0x3e55d20e	0.20880911
243	0x3df3b89b	0.11900445
244	0x3e9059ee	0.2819361
245	0x3e141713	0.14461927
246	0xbe1c04e7	-0.15236245
247	0xbe23ae72	-0.15984514
248	0x3ae84934	0.0017722012
249	0xbe61f2c8	-0.2206527
250	0x3eaf6a2d	0.34260693
251	0xbd4024d4	-0.046910122
252	0x3e8dea33	0.27717742
253	0xbdadf152	-0.08493294
254	0x3e1b348a	0.15156761
255	0x3e04660b	0.12929551

layers.2.gsds.0.bias f4 [6]
0	0x3d0c29be	0.034219496
1	0x3dbb0078	0.09130949
2	0x3e37a2a2	0.17933133
3	0xbda18c55	-0.07888094
4	0xbe868ff5	-0.26281705
5	0x3cf54d4a	0.02994408

log_envelope.log_envs.0.weight f4 [6, 1]
0	0x3f284665	0.65732414
1	0x3f2be3a3	0.6714422
2	0x3f0d9208	0.5530095
3	0x3f0b9c83	0.5453569
4	0x3fa474f5	1.2848192
5	0x3f888871	1.0666639

exp_avg f4 [64, 2]
0	0xb80c5e7b	-3.3466593e-05
1	0x3821097a	3.8394217e-05
2	0x391470ee	0.0001415645
3	0xb7eda9d5	-2.8331686e-05
4	0x386ccde9	5.6458553e-05
5	0x380e8f7f	3.398908e-05
6	0x389afe0f	7.390614e-05
7	0x3810a28b	3.4483655e-05
8	0x379f5066	1.8991715e-05
9	0x37ed41d5	2.8283257e-05
10	0x37d026a7	2.4813531e-05
11	0xb7f1a04a	-2.880408e-05
12	0x38b65c35	8.695611e-05
13	0xb8027539	-3.1103587e-05
14	0x37b05d69	2.1024332e-05
15	0x3815f00a	3.5747922e-05
16	0x381d9666	3.7571786e-05
17	0x385cd878	5.265369e-05
18	0xb7cb1459	-2.420896e-05
19	0xb8b5fcf8	-8.677872e-05
20	0xb848a644	-4.7838563e-05
21	0x38186f9b	3.6343565e-05
22	0x39618d71	0.00021510363
23	0x37de9e48	2.6538168e-05
24	0xb6c4b8bd	-5.8627616e-06
25	0xb794ce8c	-1.7739156e-05
26	0xb8b26ba3	-8.50775e-05
27	0xb80cab07	-3.3537883e-05
28	0x3970bfb3	0.00022959597
29	0x37424457	1.1579213e-05
30	0x38a61fa4	7.92139e-05
31	0x38e9e057	0.00011152092
32	0x393d6ca9	0.00018064924
33	0xb7b5f64d	-2.1691574e-05
34	0x389cb2ad	7.4719406e-05
35	0xb77216c4	-1.4429625e-05
36	0x391939e2	0.0001461278
37	0x38357237	4.3260134e-05
38	0xb88201cd	-6.1992185e-05
39	0x37bc1cf6	2.2424832e-05
40	0xb94bd8f1	-0.00019440406
41	0xb7d56f3e	-2.544338e-05
42	0xb92b1de6	-0.00016318969
43	0xb73474c0	-1.0756019e-05
44	0x3955f6d8	0.0002040522
45	0xb6b716dd	-5.4564866e-06
46	0xb9728aca	-0.00023130621
47	0xb6c9175e	-5.992987e-06
48	0x380309bb	3.1241896e-05
49	0x3706cee7	8.035196e-06
50	0xb9209d5f	-0.00015317414
51	0x361dee1b	2.3533419e-06
52	0xb924f611	-0.00015731926
53	0xb80bdf27	-3.334801e-05
54	0xb97dfb13	-0.00024221493
55	0xb7cb5211	-2.4237701e-05
56	0xb8d8e386	-0.00010342062
57	0xb85f84c5	-5.3290994e-05
58	0x39228434	0.00015498773
59	0xb79ba077	-1.8552162e-05
60	0xb892e1ca	-7.003879e-05
61	0x373f96a9	1.1419565e-05
62	0x392c2ac7	0.00016419134
63	0x37bf5663	2.2809201e-05
64	0xb891ea88	-6.957824e-05
65	0xb7d65daf	-2.5554413e-05
66	0xb9538422	-0.00020171751
67	0x37030db1	7.811396e-06
68	0xb8bd366e	-9.0223606e-05
69	0x37aac387	2.0356629e-05
70	0x39155699	0.00014242007
71	0x37042e19	7.878546e-06
72	0xb8638eee	-5.425413e-05
73	0x381743b6	3.6064266e-05
74	0xb79e3620	-1.8860272e-05
75	0x3924cc43	0.00015716352
76	0xb9086594	-0.00013007812
77	0xb8399c55	-4.4253033e-05
78	0xb81e75bd	-3.7779788e-05
79	0xb8399c8f	-4.4253244e-05
80	0x3919628d	0.0001462793
81	0x381ffaf7	3.8142283e-05
82	0xb86499ac	-5.4502554e-05
83	0xb803d9ab	-3.1435553e-05
84	0xb78bedcc	-1.6680824e-05
85	0xb7a037ba	-1.9099436e-05
86	0x395f5742	0.00021299443
87	0xb7d1b8e3	-2.5000836e-05
88	0xb838b6ca	-4.4039254e-05
89	0xb7f74480	-2.9476592e-05
90	0xb8b843a2	-8.786401e-05
91	0x3718b3c3	9.10176e-06
92	0xb9606544	-0.00021400029
93	0x3788277d	1.6230852e-05
94	0x387c1f0c	6.0110397e-05
95	0xb6975429	-4.509948e-06
96	0xb8aac091	-8.1421e-05
97	0xb7975380	-1.8039485e-05
98	0x38c7cb55	9.526933e-05
99	0xb7bc6490	-2.2458174e-05
100	0xb8d22c35	-0.000100218145
101	0x382321bd	3.889365e-05
102	0x3923c1ac	0.0001561704
103	0xb345f4ee	-4.60904e-08
104	0x389ac881	7.380639e-05
105	0xb500d9d6	-4.800071e-07
106	0xb7588b3c	-1.2907021e-05
107	0xb7fb95c5	-2.9991274e-05
108	0x3971668c	0.00023021753
109	0x36efa31a	7.1417426e-06
110	0x38c2c8ea	9.288064e-05
111	0x384b58b7	4.8481594e-05
112	0x3925c44b	0.00015808751
113	0x35bfdd21	1.4294966e-06
114	0xb8c72cf0	-9.49743e-05
115	0xb89ef34a	-7.579343e-05
116	0x391ea122	0.00015128081
117	0x37e3aff9	2.7142452e-05
118	0xb8a25a78	-7.741613e-05
119	0x38135931	3.5130597e-05
120	0xb937c9d1	-0.00017527422
121	0xb7811281	-1.5386615e-05
122	0x386c5052	5.634159e-05
123	0x3586ccda	1.0043398e-06
124	0x3850a485	4.9744285e-05
125	0xb7f238f3	-2.8875167e-05
126	0x38594160	5.1797717e-05
127	0xb7dca182	-2.6301252e-05

exp_avg_sq f4 [64, 2]
0	0x33a4145c	7.6405485e-08
1	0x32d1a863	2.4407376e-08
2	0x357f7f8f	9.5180525e-07
3	0x327393d7	1.41780765e-08
4	0x340de358	1.3214355e-07
5	0x3194c7d1	4.3300834e-09
6	0x347a64cd	2.3319735e-07
7	0x330106dc	3.004139e-08
8	0x33178f4d	3.528776e-08
9	0x31c97557	5.86321e-09
10	0x3482e6c9	2.4382305e-07
11	0x33017b3e	3.014724e-08
12	0x33fde63e	1.18231114e-07
13	0x31f1eb64	7.040784e-09
14	0x342336ce	1.5200496e-07
15	0x3237a4b0	1.06894475e-08
16	0x33b64deb	8.4892086e-08
17	0x32b970ce	2.1588132e-08
18	0x355418f6	7.901248e-07
19	0x32d9fa9b	2.5376087e-08
20	0x34b52fdf	3.3748708e-07
21	0x32237976	9.515466e-09
22	0x347e28c5	2.3670425e-07
23	0x318681ec	3.9146837e-09
24	0x33292252	3.9379593e-08
25	0x3210288f	8.391125e-09
26	0x34be855a	3.5487284e-07
27	0x3270aec7	1.4009578e-08
28	0x35222584	6.0404295e-07
29	0x317933a2	3.6263619e-09
30	0x351590f7	5.5717777e-07
31	0x32becf34	2.2213136e-08
32	0x349e209a	2.9453514e-07
33	0x32268c8d	9.694429e-09
34	0x34b09f9e	3.289869e-07
35	0x31d2e794	6.138132e-09
36	0x34b663d5	3.397278e-07
37	0x32dd363c	2.5752449e-08
38	0x3441e008	1.8056028e-07
39	0x32f6c52c	2.8727833e-08
40	0x3492c75c	2.7339672e-07
41	0x32a5d402	1.9304938e-08
42	0x34628b01	2.109846e-07
43	0x3154415c	3.0887213e-09
44	0x358a0f87	1.028632e-06
45	0x32210e72	9.374718e-09
46	0x34c1779d	3.6036081e-07
47	0x31e38dd5	6.622694e-09
48	0x3409e019	1.2840646e-07
49	0x31c50656	5.734175e-09
50	0x33e92fb5	1.0858586e-07
51	0x314c7859	2.9754317e-09
52	0x3487a42a	2.5265155e-07
53	0x320edd40	8.315794e-09
54	0x3537639e	6.8317775e-07
55	0x3193c874	4.301052e-09
56	0x33cb0f84	9.4557464e-08
57	0x31f72054	7.1923214e-09
58	0x3504b8f3	4.944297e-07
59	0x32224ef5	9.447594e-09
60	0x349a234c	2.8710417e-07
61	0x3174325d	3.5535301e-09
62	0x3468dcb4	2.1686975e-07
63	0x3155821e	3.1069542e-09
64	0x34c5c9e2	3.6840999e-07
65	0x33227f3d	3.7834287e-08
66	0x349782f8	2.8221234e-07
67	0x31d47d5e	6.1842647e-09
68	0x33e7fd96	1.0802903e-07
69	0x30cd82e2	1.4952912e-09
70	0x341060c2	1.3446245e-07
71	0x318a6c05	4.028609e-09
72	0x3447e2ab	1.861578e-07
73	0x31d5ea65	6.2257635e-09
74	0x34a63a42	3.0962298e-07
75	0x33811601	6.011033e-08
76	0x34c4db10	3.6667234e-07
77	0x32e8d363	2.7104482e-08
78	0x340ad7b0	1.2930718e-07
79	0x322ae89b	9.948191e-09
80	0x34a3b697	3.0493968e-07
81	0x320a7128	8.058386e-09
82	0x355b4438	8.168313e-07
83	0x33311955	4.1234063e-08
84	0x342fb3d6	1.6363569e-07
85	0x31b87550	5.3684417e-09
86	0x3497bab1	2.8261778e-07
87	0x330a8b89	3.2257535e-08
88	0x33e03ce6	1.044189e-07
89	0x31fa44d3	7.283782e-09
90	0x33c87161	9.333849e-08
91	0x3286dd59	1.570031e-08
92	0x34e22352	4.212148e-07
93	0x31994d15	4.4616493e-09
94	0x3492ca3b	2.734176e-07
95	0x31819cdc	3.772227e-09
96	0x348c9436	2.618487e-07
97	0x320027da	7.459642e-09
98	0x34c7f1f2	3.7242677e-07
99	0x32b8cbb8	2.151306e-08
100	0x33e71c5b	1.07619336e-07
101	0x32b7a1f9	2.137766e-08
102	0x34043023	1.231097e-07
103	0x322ac407	9.939874e-09
104	0x3582c2dc	9.742466e-07
105	0x32b87d8d	2.1477513e-08
106	0x3518b853	5.689264e-07
107	0x327de86b	1.4779384e-08
108	0x3478e22d	2.3179082e-07
109	0x320404de	7.684518e-09
110	0x351106ac	5.402642e-07
111	0x33018fbb	3.0165875e-08
112	0x348fc6a4	2.6780356e-07
113	0x31c4e317	5.730168e-09
114	0x3499985b	2.8609324e-07
115	0x328b63df	1.6227146e-08
116	0x3497ed08	2.8298405e-07
117	0x321d614d	9.160726e-09
118	0x33e92310	1.0856286e-07
119	0x32b80b1c	2.1425471e-08
120	0x346db5f0	2.2138533e-07
121	0x31ccb3d9	5.9576277e-09
122	0x33b94dd2	8.628889e-08
123	0x318811f4	3.960162e-09
124	0x34bb67e4	3.4907055e-07
125	0x3220d8f3	9.362554e-09
126	0x338af660	6.470941e-08
127	0x31bfdad7	5.583711e-09

exp_avg f4 [64]
0	0x39851b4b	0.00025388072
1	0x3918729b	0.00014538543
2	0x395e4a9d	0.00021199365
3	0xb9bfc157	-0.00036574408
4	0x395c68f5	0.00021019935
5	0xb8ccf9cf	-9.7740085e-05
6	0xb9472aee	-0.00018994111
7	0x395137b0	0.00019952538
8	0x3983000e	0.00024986308
9	0xb926ed7c	-0.00015919463
10	0x3848281d	4.7721074e-05
11	0xb90bd167	-0.00013334081
12	0xb944b69f	-0.00018760048
13	0xb9216def	-0.0001539511
14	0xb8b51d52	-8.636214e-05
15	0x39426ea7	0.00018542503
16	0x3954f609	0.00020309551
17	0x39651f41	0.00021850785
18	0xb90d8e97	-0.00013499927
19	0xb836be52	-4.356943e-05
20	0x396b5130	0.00022441591
21	0x39094b6e	0.00013093438
22	0x38d55417	0.000101722944
23	0x3829fb4a	4.052677e-05
24	0x37c69410	2.3672386e-05
25	0xb95a23b4	-0.000208034
26	0xb9969cfc	-0.00028727192
27	0x38d70179	0.00010252273
28	0xb94f057f	-0.00019743106
29	0x390dda5c	0.00013528153
30	0x39082192	0.00012982477
31	0x398671b9	0.00025643202
32	0xb7ec40fc	-2.8163653e-05
33	0x39398d5d	0.00017695637
34	0x38fc3346	0.00012025847
35	0x399640bf	0.0002865847
36	0x39348ae4	0.00017217878
37	0x3952b5d0	0.00020094891
38	0x3813ba16	3.5220837e-05
39	0xb974b6d3	-0.0002333776
40	0x39173f8c	0.00014424155
41	0x395359b8	0.00020155951
42	0xb8970dfa	-7.2028444e-05
43	0x399bb197	0.0002969622
44	0xb91efbd0	-0.00015161862
45	0xb98c3019	-0.00026738716
46	0x38b01b61	8.397434e-05
47	0xb9058901	-0.00012734906
48	0xb8b9a85e	-8.852848e-05
49	0x391281ef	0.00013972049
50	0xb98320c5	-0.00025010682
51	0x391aec27	0.00014774558
52	0xb952fa07	-0.00020120303
53	0xb8ccbdc3	-9.762824e-05
54	0xb94b8d6e	-0.00019412275
55	0x37553394	1.2707798e-05
56	0xb9034167	-0.00012517498
57	0xb92bb36d	-0.00016374672
58	0x3988a5f3	0.00026063583
59	0x39b57ad2	0.00034614519
60	0x381428e5	3.5324036e-05
61	0xb953ee67	-0.0002021134
62	0xb937d804	-0.00017532712
63	0xb95f8998	-0.00021318195

exp_avg_sq f4 [64]
0	0x35b4290e	1.3422994e-06
1	0x358955a2	1.0232218e-06
2	0x350a0b74	5.142567e-07
3	0x36737506	3.6277938e-06
4	0x35505edc	7.7624077e-07
5	0x352236a7	6.042923e-07
6	0x34d7b529	4.0178682e-07
7	0x3621b2eb	2.4095013e-06
8	0x35439694	7.286228e-07
9	0x36b64fed	5.4333273e-06
10	0x34af5c70	3.2663547e-07
11	0x33c52b0c	9.1813575e-08
12	0x3528f7d2	6.2945503e-07
13	0x35583f98	8.055881e-07
14	0x34a99c9d	3.1592654e-07
15	0x36073376	2.0146522e-06
16	0x344267f8	1.8105482e-07
17	0x34b697e8	3.4010668e-07
18	0x34e182f8	4.2004808e-07
19	0x3619cb4b	2.2917109e-06
20	0x352cf831	6.443616e-07
21	0x348997b9	2.562863e-07
22	0x3556d248	8.002721e-07
23	0x356ae76e	8.750857e-07
24	0x3493b864	2.7515046e-07
25	0x346e1957	2.2174696e-07
26	0x35f6564d	1.8353545e-06
27	0x351a1c1f	5.741039e-07
28	0x3556472f	7.98248e-07
29	0x350b9e5b	5.201197e-07
30	0x350a877f	5.160618e-07
31	0x34a98d72	3.1581618e-07
32	0x36188437	2.2726724e-06
33	0x350ec8fe	5.3191604e-07
34	0x34049f2f	1.2351369e-07
35	0x34a1e522	3.0155303e-07
36	0x34707fa1	2.2398173e-07
37	0x369b999b	4.637242e-06
38	0x34fb85c5	4.6849723e-07
39	0x354cc4de	7.62824e-07
40	0x34c30b15	3.6329644e-07
41	0x366a6638	3.4928216e-06
42	0x34cb976e	3.7921876e-07
43	0x36374c1d	2.7313429e-06
44	0x34daf51b	4.0784002e-07
45	0x358ccda9	1.0490668e-06
46	0x35334fbe	6.6798736e-07
47	0x350398dd	4.902375e-07
48	0x35d52579	1.5880643e-06
49	0x35c49702	1.4647087e-06
50	0x3500450f	4.778421e-07
51	0x3512b30e	5.46498e-07
52	0x36a145e6	4.806311e-06
53	0x363e028a	2.8313684e-06
54	0x353aafa1	6.9545973e-07
55	0x35b8f746	1.3781034e-06
56	0x3521e6e5	6.031317e-07
57	0x353f8d7a	7.135892e-07
58	0x3582c71a	9.743701e-07
59	0x3684564f	3.943954e-06
60	0x3526ac3a	6.209044e-07
61	0x34c3d26f	3.647469e-07
62	0x34f6ab74	4.594582e-07
63	0x35583fc1	8.0559045e-07

exp_avg f4 [64, 128]
0	0xb7c23fe4	-2.3156354e-05
1	0xb8893c0c	-6.543854e-05
2	0xb8040e97	-3.148484e-05
3	0x37bb7f03	2.2351282e-05
4	0xb873e26c	-5.8146587e-05
5	0xb75d01b0	-1.3173019e-05
6	0x37d3767b	2.5208332e-05
7	0xb7bd9f8b	-2.2604849e-05
8	0x36f921cf	7.424714e-06
9	0xb791c84c	-1.7378617e-05
10	0x37aa03dc	2.0267376e-05
11	0x37bb24f9	2.2309354e-05
12	0x387a5328	5.968209e-05
13	0x381bf808	3.7185877e-05
14	0x380ca2e1	3.3530294e-05
15	0xb6f25986	-7.222584e-06
16	0xb89527d4	-7.112292e-05
17	0xb874922d	-5.831027e-05
18	0x37009461	7.663942e-06
19	0x376546fa	1.3665989e-05
20	0xb7ddf864	-2.6460919e-05
21	0xb7cfe8fc	-2.4784815e-05
22	0xb886d058	-6.428425e-05
23	0xb80d5154	-3.3692762e-05
24	0xb7c55baa	-2.3526914e-05
25	0x38a0e27b	7.67158e-05
26	0x38808e5a	6.130031e-05
27	0xb7aacb7b	-2.0360332e-05
28	0x3849df5a	4.8130147e-05
29	0xb8873399	-6.4469124e-05
30	0xb72c3874	-1.0265143e-05
31	0xb86398db	-5.4263375e-05
32	0xb5aed17f	-1.3024982e-06
33	0xb7c37738	-2.3301327e-05
34	0xb821ad4e	-3.8546794e-05
35	0xb8a340eb	-7.7845376e-05
36	0xb763a1b4	-1.3567904e-05
37	0x379b6c96	1.8528004e-05
38	0xb75aa095	-1.3031201e-05
39	0x38103dc8	3.4389814e-05
40	0xb85b5708	-5.2294723e-05
41	0xb7999ab2	-1.8311057e-05
42	0x386f569e	5.706271e-05
43	0xb84cb645	-4.8807142e-05
44	0x3887f4a8	6.4828724e-05
45	0x385a77e9	5.2086925e-05
46	0xb7d8deee	-2.5853016e-05
47	0x37df1996	2.6595586e-05
48	0x365b0a9a	3.2639714e-06
49	0xb86a3af3	-5.584485e-05
50	0x3898cc0d	7.285932e-05
51	0xb8884c3d	-6.499186e-05
52	0x36a8a433	5.0259055e-06
53	0xb80ca8cb	-3.35358e-05
54	0x3802dd2b	3.1200394e-05
55	0x36d8be52	6.459458e-06
56	0x36d80622	6.4380156e-06
57	0x3806fe59	3.218497e-05
58	0xb833ab7d	-4.2836637e-05
59	0xb7620a3e	-1.3473034e-05
60	0xb8185c27	-3.6325448e-05
61	0x379e90dc	1.8902523e-05
62	0x37b5a79e	2.1654934e-05
63	0x3834c305	4.309697e-05
64	0xb7b8f657	-2.204922e-05
65	0xb80c5d26	-3.3465352e-05
66	0xb756b5aa	-1.2797691e-05
67	0x37d1fe15	2.5033058e-05
68	0xb8656049	-5.4687527e-05
69	0x342d0509	1.6113712e-07
70	0x382f30e0	4.176877e-05
71	0xb713f2c2	-8.818404e-06
72	0xb6406529	-2.8669112e-06
73	0xb6c13b9b	-5.758787e-06
74	0x364f2d96	3.0871938e-06
75	0x37e68cde	2.7483733e-05
76	0x387349b2	5.800435e-05
77	0x38161816	3.578522e-05
78	0x38129415	3.4947025e-05
79	0xb6c62d53	-5.9061363e-06
80	0xb81521c8	-3.555583e-05
81	0xb7b32ccd	-2.1359325e-05
82	0x37d7b105	2.5712428e-05
83	0xb574928e	-9.111035e-07
84	0xb7e850db	-2.7694206e-05
85	0xb80ff057	-3.431769e-05
86	0xb815ce56	-3.5716534e-05
87	0xb819fc53	-3.6713038e-05
88	0xb7108ea2	-8.616278e-06
89	0x3807afb4	3.2350144e-05
90	0x37ef2fa5	2.8513206e-05
91	0xb8246223	-3.9192044e-05
92	0x38125b74	3.4894285e-05
93	0xb804d7eb	-3.167234e-05
94	0xb783d88a	-1.571725e-05
95	0xb7f99215	-2.9751138e-05
96	0xb7246907	-9.799615e-06
97	0xb7a04cd8	-1.910927e-05
98	0xb802efa0	-3.1217583e-05
99	0xb82992d1	-4.0429473e-05
100	0xb7325787	-1.0630006e-05
101	0x36d08604	6.2144845e-06
102	0xb783012f	-1.5616968e-05
103	0x380edfa5	3.4063723e-05
104	0xb82fc5cc	-4.1907464e-05
105	0xb7188af5	-9.0922595e-06
106	0x38163735	3.5814202e-05
107	0xb7ca37d1	-2.4106268e-05
108	0x387717ea	5.891166e-05
109	0x37af800e	2.0921256e-05
110	0xb82c11df	-4.102464e-05
111	0x3801ef76	3.0979012e-05
112	0xb6ed5227	-7.072714e-06
113	0xb7de5ebe	-2.650858e-05
114	0x380acf4d	3.3094828e-05
115	0xb7fe2e49	-3.0300713e-05
116	0x3709a868	8.2050465e-06
117	0xb73c771f	-1.1233408e-05
118	0x37efbdbb	2.857937e-05
119	0x372b3994	1.02058e-05
120	0x37d66c12	2.5561112e-05
121	0x37cd412e	2.4468256e-05
122	0xb7b06f35	-2.103262e-05
123	0xb767ca90	-1.3815836e-05
124	0xb7e70d1d	-2.7543452e-05
125	0x37b8bfbb	2.202379e-05
126	0x38224504	3.8688086e-05
127	0x37e24cbf	2.6977037e-05
128	0x37426c0f	1.158846e-05
129	0xb81c5ad8	-3.7277903e-05
130	0xb7b43f2b	-2.1487087e-05
131	0xb67e214c	-3.786833e-06
132	0x37381b31	1.0973586e-05
133	0xb7c6129f	-2.361211e-05
134	0xb7c25acf	-2.3168888e-05
135	0xb7af14f2	-2.087138e-05
136	0x37b93d68	2.2082313e-05
137	0xb8057214	-3.1815915e-05
138	0x37c5bd7e	2.357247e-05
139	0xb7cc988d	-2.4389732e-05
140	0xb7b4739a	-2.1511503e-05
141	0x37fc6b82	3.0090803e-05
142	0xb7cd2162	-2.445345e-05
143	0xb796d9d3	-1.7982826e-05
144	0xb7d48acf	-2.5337007e-05
145	0xb7f5d729	-2.9306468e-05
146	0xb7d9d390	-2.5966932e-05
147	0x37ca8b65	2.4145187e-05
148	0x37bd8072	2.2590368e-05
149	0x379be95a	1.8586103e-05
150	0xb8109de7	-3.4479333e-05
151	0x37bb074d	2.2295537e-05
152	0xb7c068a3	-2.2936909e-05
153	0x37fb4b6f	2.9956658e-05
154	0x378debaa	1.691825e-05
155	0x37d0c296	2.4886143e-05
156	0x35f60309	1.8329312e-06
157	0xb7f880ab	-2.962382e-05
158	0x37da25bd	2.6005198e-05
159	0xb78a26b9	-1.6468914e-05
160	0x37daaecd	2.6069023e-05
161	0x37ca98ec	2.4151486e-05
162	0x37b8fb2e	2.2051474e-05
163	0xb80841c4	-3.2486176e-05
164	0x37b5545e	2.1616168e-05
165	0x380ff088	3.431787e-05
166	0x37907b70	1.7223618e-05
167	0xb6b2f975	-5.333854e-06
168	0xb80a0ad6	-3.2911856e-05
169	0x37f82b84	2.9584167e-05
170	0x36365db8	2.7174665e-06
171	0xb721eef1	-9.651981e-06
172	0xb73bc1de	-1.1191207e-05
173	0x37808e8b	1.5325166e-05
174	0x37c9ea19	2.4070077e-05
175	0xb7c79458	-2.3791727e-05
176	0x37d37d83	2.5211606e-05
177	0xb816adcf	-3.592466e-05
178	0x37ffcbef	3.0493333e-05
179	0xb735d047	-1.0836934e-05
180	0xb80030f9	-3.0563187e-05
181	0xb8080d4c	-3.243731e-05
182	0xb7d71869	-2.5641364e-05
183	0xb7c0df94	-2.2992295e-05
184	0xb7d94b8a	-2.5903591e-05
185	0x37fb5691	2.9961842e-05
186	0xb73c6b6f	-1.1230687e-05
187	0x37ad64b9	2.067011e-05
188	0x37d31801	2.5164338e-05
189	0xb7d4d0f5	-2.5369673e-05
190	0xb7c60f05	-2.3610433e-05
191	0xb7acf9b6	-2.0620279e-05
192	0x371283db	8.732978e-06
193	0x37c6bbf9	2.3690971e-05
194	0x36bb1223	5.5751457e-06
195	0xb5ea4721	-1.745506e-06
196	0x377c163a	1.50255455e-05
197	0xb61a822d	-2.302356e-06
198	0xb81290b1	-3.4943867e-05
199	0x367d07ad	3.7704406e-06
200	0x36bde790	5.6595964e-06
201	0x362cc62d	2.574535e-06
202	0x35d5d39f	1.5931327e-06
203	0xb75acff4	-1.304223e-05
204	0xb789ab82	-1.6411537e-05
205	0xb7fb6846	-2.9970088e-05
206	0xb7e52b75	-2.7319164e-05
207	0x368d4251	4.2098477e-06
208	0x37cd83b2	2.449923e-05
209	0x373068b3	1.0514795e-05
210	0xb798b762	-1.8205206e-05
211	0x36acb45d	5.1469965e-06
212	0x372eb897	1.0414186e-05
213	0x3712c2bb	8.747617e-06
214	0x37dcf99b	2.6342275e-05
215	0x3806529c	3.2025026e-05
216	0x367e28df	3.787274e-06
217	0xb7acf3f6	-2.0617601e-05
218	0xb76be3d7	-1.406014e-05
219	0x37f8aa5f	2.9643239e-05
220	0xb7518f39	-1.2490717e-05
221	0x37b2e78e	2.132708e-05
222	0x374a886f	1.2071904e-05
223	0x3794c1ca	1.7733215e-05
224	0x36f8e199	7.417239e-06
225	0x375427c8	1.2645447e-05
226	0x37e75e35	2.7581214e-05
227	0x37ff9669	3.0468409e-05
228	0x3735340e	1.0800561e-05
229	0xb5519d0b	-7.8087095e-07
230	0x3676421f	3.6695344e-06
231	0xb7377833	-1.0935636e-05
232	0x38135b45	3.5132533e-05
233	0x36e90162	6.944102e-06
234	0xb73c5815	-1.1226181e-05
235	0x3695bc7a	4.4624876e-06
236	0xb7896781	-1.637987e-05
237	0xb69b529c	-4.628977e-06
238	0x380822ab	3.2457214e-05
239	0xb7e1e143	-2.6926986e-05
240	0x370588fb	7.959311e-06
241	0x3791d933	1.7386488e-05
242	0xb7b7fb02	-2.1932185e-05
243	0x372ec5c6	1.0417256e-05
244	0xb7293345	-1.0085122e-05
245	0x36a0dcfa	4.7940966e-06
246	0xb78558e9	-1.5896238e-05
247	0xb6aa49cc	-5.074986e-06
248	0xb798619b	-1.8165263e-05
249	0xb79b868d	-1.8540095e-05
250	0x36a8507f	5.016161e-06
251	0x3706ce01	8.034986e-06
252	0x3799a44c	1.8315528e-05
253	0xb75457de	-1.2656643e-05
254	0xb80aa8f3	-3.305911e-05
255	0xb73d3b95	-1.127915e-05

exp_avg_sq f4 [64, 128]
0	0x330d7357	3.293402e-08
1	0x33f82313	1.155478e-07
2	0x32c05a30	2.2392754e-08
3	0x32d228fa	2.4465852e-08
4	0x33fd70d7	1.1801756e-07
5	0x31a886c4	4.9047646e-09
6	0x34401a81	1.7891035e-07
7	0x3281ec4c	1.5125032e-08
8	0x3223a6f0	9.525806e-09
9	0x32c5dd62	2.3034492e-08
10	0x32135d35	8.577719e-09
11	0x33d299fd	9.806897e-08
12	0x34277040	1.5593923e-07
13	0x340e0eaf	1.3230122e-07
14	0x343168e2	1.6522566e-07
15	0x3208b530	7.957439e-09
16	0x342b3cfe	1.5947805e-07
17	0x3395fd0f	6.984384e-08
18	0x33e13fc1	1.0488976e-07
19	0x324a193b	1.1763684e-08
20	0x33937eed	6.8683086e-08
21	0x33dff3b7	1.0428578e-07
22	0x341178a2	1.3548063e-07
23	0x342fc195	1.636857e-07
24	0x327ce04d	1.4719331e-08
25	0x341a9bd1	1.4399053e-07
26	0x33e90ff8	1.0852813e-07
27	0x344defcf	1.9179355e-07
28	0x33f82892	1.15557796e-07
29	0x34007fcb	1.196742e-07
30	0x33225884	3.779907e-08
31	0x33fa979d	1.16691105e-07
32	0x32d258d3	2.448761e-08
33	0x333c0ad3	4.3782006e-08
34	0x3432d3d6	1.6654607e-07
35	0x3444c1c9	1.8324421e-07
36	0x331a3cd7	3.5911253e-08
37	0x3326ee6c	3.886673e-08
38	0x330fc347	3.3472386e-08
39	0x336bba31	5.488454e-08
40	0x3439acc8	1.7292325e-07
41	0x32b879f4	2.1475877e-08
42	0x33fc697a	1.17538505e-07
43	0x33650b40	5.332845e-08
44	0x3424d2f1	1.535043e-07
45	0x3373d30c	5.6769792e-08
46	0x344c1846	1.9007811e-07
47	0x341b6c9e	1.4475015e-07
48	0x329e2098	1.8408443e-08
49	0x33a4e183	7.6778655e-08
50	0x34181e60	1.4167153e-07
51	0x33f55ce7	1.14256004e-07
52	0x3322db5e	3.7918078e-08
53	0x33101ac7	3.3551967e-08
54	0x33dca943	1.0275337e-07
55	0x32b94fee	2.1573182e-08
56	0x33d23890	9.789176e-08
57	0x338c21a0	6.5253744e-08
58	0x3325b746	3.8583742e-08
59	0x32c0f284	2.2462025e-08
60	0x3406b1d3	1.2544415e-07
61	0x3398ea0b	7.120624e-08
62	0x342d74c7	1.6154364e-07
63	0x33f57937	1.14307504e-07
64	0x330ed07a	3.325156e-08
65	0x3340b7bc	4.487059e-08
66	0x32422df1	1.1302732e-08
67	0x32d3baca	2.4648575e-08
68	0x33f80d43	1.1550812e-07
69	0x2fea7208	4.2645376e-10
70	0x33730e06	5.65906e-08
71	0x31b89036	5.3714997e-09
72	0x311a3d38	2.2444748e-09
73	0x3116aa1f	2.1924575e-09
74	0x30f8a268	1.8090534e-09
75	0x3399c2fc	7.160085e-08
76	0x341ee849	1.4799402e-07
77	0x334f059a	4.8201038e-08
78	0x33aee04d	8.1433065e-08
79	0x313e0d70	2.7656277e-09
80	0x33aee031	8.1432866e-08
81	0x32fe9003	2.963498e-08
82	0x33497cea	4.6912568e-08
83	0x31012f0d	1.8798716e-09
84	0x337703b3	5.7512533e-08
85	0x33c39cd8	9.108925e-08
86	0x3379b331	5.8137804e-08
87	0x339c66c6	7.2830105e-08
88	0x31b73b1d	5.3327214e-09
89	0x33988797	7.102715e-08
90	0x33938b58	6.8705674e-08
91	0x33bb233b	8.7142745e-08
92	0x33cf5f84	9.656563e-08
93	0x3372663d	5.6438e-08
94	0x32978213	1.7637865e-08
95	0x338dff4d	6.612263e-08
96	0x31f70d0a	7.1901285e-09
97	0x3310ee31	3.3744247e-08
98	0x33b15bcf	8.258905e-08
99	0x33b74418	8.533988e-08
100	0x32ad8bda	2.0203448e-08
101	0x31564d5f	3.118508e-09
102	0x32da8b98	2.544202e-08
103	0x33665c87	5.36352e-08
104	0x338f0f0f	6.6616956e-08
105	0x31341272	2.6203932e-09
106	0x33d28929	9.803836e-08
107	0x33379d49	4.2751058e-08
108	0x34204f95	1.4930113e-07
109	0x332877a8	3.9224375e-08
110	0x33abcfd0	8.000609e-08
111	0x334941aa	4.685868e-08
112	0x31b61c3b	5.3001066e-09
113	0x32dd6a0f	2.5776016e-08
114	0x338aab77	6.457315e-08
115	0x33b65596	8.4906034e-08
116	0x313c4ec5	2.7402376e-09
117	0x31c340a1	5.6825944e-09
118	0x33a80b27	7.825138e-08
119	0x322489cf	9.57739e-09
120	0x333a5a61	4.33887e-08
121	0x32d855e8	2.5184775e-08
122	0x32f97901	2.9042441e-08
123	0x329e7d48	1.8450592e-08
124	0x33af60db	8.1666904e-08
125	0x332e8f0f	4.0642643e-08
126	0x3345545c	4.594436e-08
127	0x33d31517	9.8292894e-08
128	0x32abcd40	2.0000357e-08
129	0x338cddae	6.559581e-08
130	0x3202c85e	7.612554e-09
131	0x3234f948	1.0534059e-08
132	0x336eaa51	5.5568595e-08
133	0x322627da	9.671533e-09
134	0x3429c884	1.5812299e-07
135	0x324567fa	1.1490551e-08
136	0x329b8eb0	1.8109262e-08
137	0x3328449b	3.9177944e-08
138	0x32226c82	9.454313e-09
139	0x3398344d	7.087565e-08
140	0x33dcfa5e	1.029009e-07
141	0x33b79252	8.548217e-08
142	0x3413ea8e	1.3775772e-07
143	0x321c95f7	9.114493e-09
144	0x336dc0c3	5.535618e-08
145	0x331a8e36	3.598526e-08
146	0x33e5f9cb	1.07090806e-07
147	0x32c6386d	2.3075893e-08
148	0x3343b69b	4.5568054e-08
149	0x339c2bfe	7.272318e-08
150	0x337a5b96	5.8290958e-08
151	0x34123a1d	1.3618451e-07
152	0x323634e3	1.0605819e-08
153	0x3357d9c5	5.025665e-08
154	0x32fe8d8e	2.9633863e-08
155	0x3427f524	1.5642269e-07
156	0x333c99cf	4.391205e-08
157	0x334dedb3	4.7946468e-08
158	0x33490bc3	4.6809657e-08
159	0x332deaa8	4.049312e-08
160	0x3346e59e	4.6309303e-08
161	0x32f9e47d	2.909132e-08
162	0x340f9cec	1.3375e-07
163	0x33964bf0	6.998732e-08
164	0x332a3aa2	3.9634536e-08
165	0x3386eecb	6.2832974e-08
166	0x33126496	3.4084756e-08
167	0x32c7b976	2.3250987e-08
168	0x33cdc28b	9.5814435e-08
169	0x338b69e2	6.491952e-08
170	0x3366dbbc	5.3750895e-08
171	0x3284251d	1.53837e-08
172	0x3389414b	6.3914364e-08
173	0x32856c36	1.5532446e-08
174	0x34275156	1.5582677e-07
175	0x34186169	1.4191541e-07
176	0x33170142	3.515857e-08
177	0x33562815	4.9862212e-08
178	0x33c3439d	9.092694e-08
179	0x331c1f45	3.635002e-08
180	0x33bd191f	8.805568e-08
181	0x333f4742	4.453546e-08
182	0x339b97bc	7.24535e-08
183	0x33203ed7	3.7310055e-08
184	0x33cdea43	9.588668e-08
185	0x330fd14f	3.3485147e-08
186	0x321f3977	9.268084e-09
187	0x32b263fc	2.0767395e-08
188	0x33de3251	1.0346833e-07
189	0x339f263c	7.410969e-08
190	0x342cc7f9	1.6091498e-07
191	0x33b08d98	8.2213944e-08
192	0x32a96959	1.9722096e-08
193	0x32cb0c49	2.3637897e-08
194	0x31b644a9	5.304703e-09
195	0x32283210	9.79027e-09
196	0x33846c13	6.1663876e-08
197	0x2f6beb9a	2.1456828e-10
198	0x330d0790	3.2836e-08
199	0x310a6417	2.0138538e-09
200	0x30a7a3a6	1.2197361e-09
201	0x30489682	7.297346e-10
202	0x309be7b2	1.1343586e-09
203	0x332f9c4f	4.0887524e-08
204	0x33bcd2e7	8.792795e-08
205	0x32cdcef2	2.3959249e-08
206	0x33698e58	5.4379e-08
207	0x30bf6c97	1.3927942e-09
208	0x333be7ac	4.3750035e-08
209	0x3253a2f6	1.23188695e-08
210	0x32f8ceed	2.8965099e-08
211	0x3099b2ed	1.1183069e-09
212	0x330689a2	3.1324483e-08
213	0x33627729	5.27281e-08
214	0x3312a31e	3.4141628e-08
215	0x334ed941	4.8160704e-08
216	0x3139f180	2.705832e-09
217	0x32f99564	2.905535e-08
218	0x330f8b48	3.3421458e-08
219	0x3366c4c1	5.3729995e-08
220	0x33658a06	5.344375e-08
221	0x32fe6e9b	2.961979e-08
222	0x3224ecfa	9.599939e-09
223	0x32efd939	2.7922043e-08
224	0x319aa71a	4.500987e-09
225	0x328883a3	1.5892345e-08
226	0x33681892	5.4039056e-08
227	0x3333c8c2	4.1859273e-08
228	0x32358d56	1.0567723e-08
229	0x30c30c4e	1.4191615e-09
230	0x328b2691	1.6199268e-08
231	0x32f2125b	2.8180855e-08
232	0x331ce5e9	3.6530682e-08
233	0x30b6441d	1.3261602e-09
234	0x338a2fd1	6.4348235e-08
235	0x32b48b6f	2.1018165e-08
236	0x33afe540	8.190773e-08
237	0x329126e6	1.689791e-08
238	0x3356ec5c	5.0040725e-08
239	0x32e805ce	2.7010994e-08
240	0x316099d6	3.2683736e-09
241	0x3239f2f4	1.0823658e-08
242	0x32fa1d0a	2.9117036e-08
243	0x334d36ec	4.7780233e-08
244	0x310b8a61	2.0305821e-09
245	0x3106596a	1.9550392e-09
246	0x335854f3	5.036868e-08
247	0x31d4b33a	6.1903878e-09
248	0x32bd2737	2.2020329e-08
249	0x32484cb3	1.1658972e-08
250	0x3257a883	1.2552962e-08
251	0x322b483f	9.969937e-09
252	0x3369d27a	5.4440967e-08
253	0x32d3c28c	2.4652103e-08
254	0x33021fc0	3.029686e-08
255	0x3378c307	5.7919376e-08

exp_avg f4 [64]
0	0x38cbec63	9.723825e-05
1	0xb7d9165c	-2.5878828e-05
2	0x37d52753	2.540989e-05
3	0xb7554ef4	-1.2714172e-05
4	0x37584622	1.2890932e-05
5	0xb8a5bb73	-7.902728e-05
6	0x385d5ba9	5.277587e-05
7	0x38e65f1c	0.0001098497
8	0xb81fc0d3	-3.8088136e-05
9	0x3723c1d7	9.760689e-06
10	0x38a8f042	8.055616e-05
11	0x36b2925b	5.3218514e-06
12	0xb7776994	-1.4746929e-05
13	0xb75c64b3	-1.3136468e-05
14	0x37aca3b9	2.0580237e-05
15	0xb793f549	-1.7637985e-05
16	0x3787260a	1.6110967e-05
17	0x38b78acc	8.751973e-05
18	0x387d7186	6.0425627e-05
19	0x3613d72d	2.2029956e-06
20	0x37ec5fcd	2.8178003e-05
21	0x370e767f	8.491449e-06
22	0xb62c0c6f	-2.5637235e-06
23	0xb830474f	-4.202808e-05
24	0x3679c349	3.7217562e-06
25	0xb63271ec	-2.6590378e-06
26	0x35b039e2	1.3129868e-06
27	0x36d23abb	6.265325e-06
28	0xb7bb35fc	-2.2317276e-05
29	0xb67b3ce2	-3.7437353e-06
30	0x36324f04	2.657006e-06
31	0x38eee3c9	0.00011391153
32	0xb8de0d06	-0.00010588211
33	0xb81778a0	-3.6113546e-05
34	0x36c7b1f5	5.951379e-06
35	0x38003f6b	3.057664e-05
36	0xb7622f78	-1.3481702e-05
37	0xb82534ea	-3.9388346e-05
38	0xb890f5c7	-6.912235e-05
39	0xb798059e	-1.8122428e-05
40	0xb7a70797	-1.9911486e-05
41	0x38929414	6.989404e-05
42	0xb7ecf19a	-2.8245897e-05
43	0x382b29fa	4.080867e-05
44	0x368540d6	3.971257e-06
45	0x3765bcb3	1.3693399e-05
46	0x37c2b9ef	2.3213184e-05
47	0x37819315	1.5446489e-05
48	0xb86d30a8	-5.6550518e-05
49	0x378b9e1e	1.664372e-05
50	0x3800b08e	3.0682007e-05
51	0xb7366724	-1.087206e-05
52	0x373f2cfd	1.1394962e-05
53	0xb89e4bf4	-7.5481745e-05
54	0x37ee48e6	2.8405757e-05
55	0x38c4b65e	9.379977e-05
56	0x38a73cbe	7.974495e-05
57	0xb7a60f91	-1.979599e-05
58	0xb78447f2	-1.5769128e-05
59	0xb8352f81	-4.3198004e-05
60	0xb7d28a40	-2.5098328e-05
61	0xb7716839	-1.4388986e-05
62	0x3862aa12	5.404099e-05
63	0xb8d60f4c	-0.000102071645

exp_avg_sq f4 [64]
0	0x34c6c9ab	3.7027107e-07
1	0x347c8f78	2.3521523e-07
2	0x33c03db5	8.951921e-08
3	0x33761d22	5.7302834e-08
4	0x3228072a	9.780516e-09
5	0x34fdb9b8	4.726005e-07
6	0x350d460e	5.2628536e-07
7	0x359a3b08	1.1491074e-06
8	0x33483fc2	4.6624116e-08
9	0x33b83c56	8.579143e-08
10	0x34ed9271	4.425124e-07
11	0x33b5725e	8.4492726e-08
12	0x33118fb6	3.3891148e-08
13	0x32d56f3d	2.4847049e-08
14	0x32a9350d	1.9698314e-08
15	0x329f826e	1.8569349e-08
16	0x33409954	4.4842935e-08
17	0x351983fc	5.7189004e-07
18	0x34c5a956	3.6817318e-07
19	0x34bfba31	3.5711994e-07
20	0x33956605	6.9569104e-08
21	0x3375f220	5.726372e-08
22	0x32046178	7.705573e-09
23	0x33a62ed8	7.738498e-08
24	0x330c07da	3.260343e-08
25	0x34894ade	2.5572712e-07
26	0x3392cc70	6.835842e-08
27	0x335b1ae2	5.101436e-08
28	0x3325d248	3.8608306e-08
29	0x3417e4bf	1.4146188e-07
30	0x349773a8	2.8210093e-07
31	0x35589eac	8.069717e-07
32	0x35f392bc	1.8147616e-06
33	0x341f0bc8	1.4812315e-07
34	0x32739bb3	1.41798635e-08
35	0x34ecd5f5	4.41141e-07
36	0x344aa42e	1.8872444e-07
37	0x33ab1a5f	7.967605e-08
38	0x34c25de1	3.6203622e-07
39	0x33a01d1c	7.4558756e-08
40	0x322ad28a	9.943173e-09
41	0x34c8f125	3.742836e-07
42	0x339ef61d	7.402216e-08
43	0x33f56301	1.142671e-07
44	0x3341e6aa	4.5146102e-08
45	0x33b6c626	8.5110784e-08
46	0x325b5263	1.276621e-08
47	0x3432d124	1.6653627e-07
48	0x34056e44	1.2426705e-07
49	0x32b76459	2.1349637e-08
50	0x3481f811	2.4208614e-07
51	0x33ea85d2	1.0920816e-07
52	0x35a32d47	1.2157624e-06
53	0x34d1432d	3.897816e-07
54	0x33df1e83	1.0389797e-07
55	0x359f52f6	1.1870568e-06
56	0x34c95aad	3.7505143e-07
57	0x3205831f	7.771432e-09
58	0x330bb324	3.2526387e-08
59	0x330eb3d3	3.32255e-08
60	0x3496191b	2.7957944e-07
61	0x338c00d4	6.519409e-08
62	0x34d00d09	3.8752503e-07
63	0x354f15a9	7.714503e-07
