results/pretrain/checkpoints/A24_H064_L02_D01_Tanh_W4096_P010000_Adam_PT_True_device_cuda_dtype_float32_chkp.pt (torch, 543307 bytes, 23 tensors)

layers.0.fc.weight f4 [64, 2]
00000000: 7215 ec3e eadc e33d 2f63 29bf 3c9a aabd
00000010: c566 23bf 2577 2e3e adf1 d3be 4642 b43d
00000020: a8b5 1cbf 7885 aabd 8ad1 1bbf cd20 a03d
00000030: 16d9 3cbf 1188 d4bd 9050 fdbe 758a 123e
00000040: 2f69 d83e caf0 f43d 9b0d 37bf 8387 f1bc
00000050: d1f5 0c3f 3e53 3a3d d9d0 29bf d310 2c3e
00000060: 289d 89bc ac1a 383d ef3f 3b3f e36e 65be
00000070: 12c5 41bf 656b eebc 85d0 aabe 58d5 5d3e
00000080: 0b3b 54bf fc48 6cbc f1fd 25bf 2cdd 7dbe
00000090: 2e23 2bbf a78a f03d 3418 243f dd33 9b3d
000000a0: 747d 123f 1bfd 93bc 014d 0e3f bf89 55be
000000b0: 74b1 31bf bf14 3abd d885 303f 11f7 d4bc
000000c0: 5326 b0be ea2c 8dbd 183e 153f 51a1 0e3e
000000d0: 5c9e 313f f52b 163c 272f 3a3f ab1a fcbb
000000e0: c483 313f 4b55 e4bc d948 36bf 838d 9bbd
000000f0: 1fb4 fb3e 9514 903d 9083 3ebf 6e15 9c3d
00000100: 4a8b 363f fe1e 3f3d cc54 eb3e 2a49 843d
00000110: 4f73 133f 8c8e 9c3e 06f2 4dbf 8c36 9f3d
00000120: e8f9 f03e 98af 853e fe07 6c3f 534d 873d
00000130: 4f9c 873e 8cbb 3abe 8a90 f63e 5aea cabd
00000140: 11c5 57bf 3cc4 ed3d dfc3 2f3f 7df2 84be
00000150: 85f8 af3e 31c7 593d f260 e9be 70ca 063d
00000160: 4d06 1d3f c7e2 0bbd 514c 113f 5271 093e
00000170: 47d8 643f ba64 a73c f730 4bbf 9dbe a0bc
00000180: 5902 203f 0404 1d3b 03e4 10bf d5a8 d3bd
00000190: b787 333f d3fd 033e 6b4d 35bf 79ac ecbc
000001a0: a64e 74bf 019b 343c b1d4 3cbf b20c d3bd
000001b0: 26d8 2cbf fd63 d0bc 5564 19bf 0af1 183e
000001c0: ddf2 0fbf b80b 333e c048 333f a7d8 0cbe
000001d0: 9a18 0abf a896 383e fba6 1b3f bee2 c9bc
000001e0: d266 263f c8b8 1b3e 401f 2abf f5bf 9e3d
000001f0: 6cbf 5dbf d3f8 babc b551 17bf ee64 13bd
0.4611011 0.111261204 -0.6616697 -0.08330199 -0.6382869 0.17037638 -0.4139532 0.08801703
-0.61214685 -0.083262384 -0.60866606 0.07818756 -0.73768747 -0.10377515 -0.49475527 0.1431063
0.4226775 0.11959989 -0.71505135 -0.029483562 0.55062586 0.045489542 -0.663343 0.16803293
-0.01679857 0.04494731 0.7314443 -0.22405581 -0.7569133 -0.029103944 -0.33362213 0.21663415
-0.8290259 -0.014421698 -0.6484061 -0.24791402 -0.66850555 0.11745196 0.6409943 0.075782515
0.57222676 -0.018065026 0.5558625 -0.20853327 -0.69411397 -0.04542994 0.6895423 -0.025996717
-0.3440424 -0.06893332 0.5829787 0.13928725 0.6938226 0.009165754 0.727282 -0.0076936088
0.69341683 -0.027872702 -0.71204907 -0.075953506 0.4916086 0.07035176 -0.744195 0.07621275
0.7130629 0.046660416 0.45963132 0.064592674 0.5759782 0.30577505 -0.80447423 0.07774076
0.47065663 0.2611053 0.92199695 0.06606545 0.26486441 -0.18235606 0.4815715 -0.0990798
-0.84285074 0.11609694 0.6865825 -0.25966254 0.34369293 0.05316848 -0.45581776 0.032907903
0.6133774 -0.03415182 0.56757075 0.13422135 0.89392513 0.020433772 -0.7937159 -0.019622141
0.6250358 0.0023958692 -0.5659792 -0.103349365 0.7012896 0.12889795 -0.70821255 -0.028890835
-0.9543251 0.011023284 -0.7376204 -0.10305156 -0.67517316 -0.025438303 -0.5991872 0.14935699
-0.56229955 0.17484939 0.7003288 -0.13754521 -0.5394379 0.18026221 0.60801667 -0.024644252
0.6500064 0.15207207 -0.66453934 0.07751457 -0.8662021 -0.022823727 -0.5910905 -0.035984926

layers.0.fc.bias f4 [64]
00000000: 4325 37bf 1b48 65bf 7208 24bf fb48 223f
00000010: df78 7bbf 24c8 dd3e 4e98 873f 1d70 bbbe
00000020: 43e3 dbbe 4761 43bd 43b4 11bf e6e8 903f
00000030: c613 993f 6dfc 703f f07e 993f bf5c 47be
00000040: db83 9abf fe3e 3ebf 0aa2 6e3f be5c 0bbe
00000050: 5817 64bf 8e45 7cbf 4f00 98bf a976 89bf
00000060: ca35 02bf d6ae 753f fc51 813f 46d9 98bf
00000070: 3a80 823f a52b 6fbf 54e2 15bf 7c86 46bf
00000080: aee8 44bf 5f82 58bf 9dcf 6fbf 9a38 89bf
00000090: 40ae babe 93cd 1c3e 2be3 4cbf b5aa 2a3f
000000a0: 17af 99bf c20a 1cbf 7d19 863f b452 40bf
000000b0: 0f21 933f 2cf3 3e3f 3738 a8bf 5826 703f
000000c0: 3e1b 1ebf 63cd 2ebf ab76 7b3f 64e3 89bf
000000d0: 3d2c ea3e b321 e7be e21f 633f c9da 323f
000000e0: e3c8 7b3f f22a 2c3f beec 54bf 74ba 6dbf
000000f0: eaaa 85bf d698 633f 91fc 883f 60b4 873f
-0.7154123 -0.8956315 -0.64075387 0.6339261 -0.9823131 0.43316758 1.0593355 -0.36608973
-0.42946824 -0.047700193 -0.5691568 1.1321075 1.1959159 0.9413517 1.1991863 -0.19468974
-1.2071489 -0.7431487 0.93216 -0.13609597 -0.8909812 -0.9854363 -1.1875094 -1.0739337
-0.50863326 0.95969903 1.0103145 -1.1941307 1.0195382 -0.9342597 -0.58548474 -0.77548957
-0.7691754 -0.8457393 -0.9367617 -1.0720398 -0.36461067 0.15312795 -0.8003413 0.6666673
-1.2006558 -0.60953915 1.0476528 -0.75126195 1.1494464 0.745898 -1.3142155 0.9380851
-0.6176032 -0.68282145 0.9822795 -1.0772519 0.45736876 -0.45142898 0.88720524 0.6986509
0.98353404 0.6725303 -0.8317374 -0.9286263 -1.0442784 0.88905084 1.0702077 1.0601921

layers.1.fc.weight f4 [64, 128]
00000000: 4e88 be3e 8511 343e b0f2 953d 8efe 36bf
00000010: 5b66 1b3e af7e a6be 19e4 89be 4599 08be
00000020: 9a38 9e3e 22a5 813c 0edd 913e 8924 04bf
00000030: 8f22 80be fc04 07bd 974e a7be 7f84 87be
00000040: 0593 7d3e 01f9 343e 4441 8ebe 21b4 143e
00000050: 33a7 033f c6e2 cf3e ce48 343e e79c 923e
00000060: 9fc3 2cbe a361 81be e406 59be 5174 5b3e
00000070: ab93 4ebe 6185 8e3e 510b aa3e ecc7 4f3e
00000080: 5906 693e 8e8d 183f 0919 673e 5bd2 353e
00000090: f3ba 7f3e 0515 d3bd 8857 d43e 0d89 aa3b
000000a0: d964 c33d dd7a 993e 334f b5bd e744 063e
000000b0: 22c3 33be 44d2 93be 9a3b 673e c532 34be
000000c0: 8dca b03e b8dc 413e 616e 3ebe 620d 7e3e
000000d0: c5d8 df3c b304 3f3c 6a8b b2be b8ae dfbe
000000e0: d9c9 a3be 2524 18be 35ce 673e d545 033f
000000f0: ab53 dd3e 3f8d c1be 9f3b 77be 33a7 dcbe
00000100: 5694 603d fc04 90bc 39a6 88bd 4fbe 88be
00000110: 5b71 50bd 542f 433d a4e9 743d 8a22 423e
00000120: 55bd ec3d a097 8ebc 5433 4abd 583d 95bb
00000130: e29e e0bd 31be 513d 7e0d d3bc 04f8 323d
00000140: bdec 11be e4e8 e5bd 90c7 a2bc 2786 a5bd
00000150: 3fec d63d 4953 883c 262a 46bd 528b 613c
00000160: eb40 9e3d c08b 873b c3a4 ffbc 06dc 803d
00000170: 815c bf3c 10aa 153d 1dfa 6fbc 0688 aabc
00000180: 88da 68bd 7689 2e3e c494 33bd 1a9f aebc
00000190: 8c18 5b3d e4a0 6a3b f8a6 a33d c75a a0bd
000001a0: 5386 c13c 4e23 82be 1c1a 84bd 7490 843a
000001b0: 30fb cdbd 65ba 9c3d 4d40 9dbd 8273 3a3d
000001c0: c633 c539 4b85 20be b8b7 a23d 76c0 633c
000001d0: a54e e93d 7217 e4bd 7b1f 93bd 85cf 85bc
000001e0: 8aec 593d bd5d 0cbc 3d3d 283d c998 9b3d
000001f0: 6268 34bd 1cef e3bb 1776 8c3d b1d5 82bd
00000200: 8c79 32bd 3a31 a13d 370c 943d 72e4 6e3d
00000210: 5a7f 5e3d d62e 9e3e d43f a03d d886 393e
00000220: ad04 2cbe b3d4 193e 46f9 61be 622e 48bd
00000230: 2545 ea3d 6359 a1bd d43f 16bd cab6 043e
00000240: e47a c53d 6d28 2d3e 2dd7 c93d d5fd ebbd
00000250: cb1e 74bd e3df 62bd bfc8 ee3d edf9 b03c
00000260: ec74 ba3d b0d2 023d f65f 8a3c a63b 153d
00000270: b17e 81bd 5d9c 9e3d 319f eebd 156f 473e
00000280: dbbc a4bd b2f5 36bd c5df dcbc 3289 b03d
00000290: 2c55 0cbe d2d8 febd 901f bdbd c31a 1c3c
000002a0: 2eba 263d 5d96 29be 0145 57bd f361 893d
000002b0: 9871 723d 0ccc 503d 62c0 653d b1d2 4dbd
000002c0: 7369 16be 6ddb e83d 0243 1cbe 01c2 873d
000002d0: cf86 de3c 3b19 283e e459 2dbd 8b70 22bb
000002e0: 35dd c63d ef5c ccbd 055a 0c3e 4047 5abb
000002f0: 4ac1 3d3d 6391 133c 3aa1 763d 3da6 e83d
00000300: 7bfb 193c fb90 a93d dec6 243d 0a56 853d
00000310: b484 2fbd dfb6 2c3c 2e37 df3b b7bd 11bd
00000320: 0b99 19bd dd51 56bd 1ada 47bd 28cd 823d
00000330: 2f18 b63d f2d1 67bb 89b9 4abd eef7 5c3c
00000340: d952 483d 4689 3d3b 1d86 31bd 2870 9a3d
00000350: f56b f63c 599b 9dbd a2d9 9f3d 9eba 873d
00000360: 6a75 38bd d8f2 623d 8fe8 2ebd ae53 5abc
00000370: b951 b13d 33ce 41bb 5266 86bd 1b1d 13bd
00000380: 0c16 b5bb eaf8 08bd e94d e839 9149 973d
00000390: 5dae 5bbc 35ae 8fbd 63a3 a5bb c272 5d3d
000003a0: c334 123d a5a1 35bc 76f4 ca3a eb74 9abd
000003b0: 1028 d5bc 8ce7 183d ceb9 71bd c592 e93c
000003c0: c884 d83d 4214 9f3a fe5c 54bd b5a4 27bd
000003d0: 1ca8 193c 3456 8ebd 169b 5e3d 6347 abbd
000003e0: b36f bbbd 5860 9cbd fe47 c4bc 1994 843d
000003f0: 26aa b7bd ae03 9d3d 0409 20bd 0816 1a3d
0.37213367 0.17584808 0.073216796 -0.7148217 0.15175764 -0.32518527 -0.26931837 -0.13339718
0.3090256 0.015825812 0.28488964 -0.5161825 -0.25026366 -0.032963738 -0.32677147 -0.26468274
0.24763115 0.17673112 -0.2778417 0.14521839 0.51427 0.40602702 0.17605898 0.28635332
-0.16871499 -0.25269803 -0.21194035 0.2143109 -0.20173518 0.27836135 0.3321176 0.20291108
0.22756328 0.59590995 0.22568144 0.17756025 0.24973659 -0.103067435 0.4147303 0.005204326
0.095407195 0.2997655 -0.08852997 0.13112222 -0.17554906 -0.28871357 0.2258133 -0.17597492
0.34529534 0.18931854 -0.18596794 0.24809793 0.027325043 0.011658835 -0.3487199 -0.43687987
-0.31989935 -0.14857538 0.22637255 0.5127843 0.43227896 -0.37803075 -0.24143837 -0.43096313
0.054828964 -0.017580502 -0.066723295 -0.26707694 -0.050889354 0.047652557 0.05979313 0.18958488
0.1155955 -0.017406285 -0.049365357 -0.004554432 -0.109678045 0.05120677 -0.02576327 0.043693557
-0.14250465 -0.11226061 -0.01987055 -0.08082228 0.10494279 0.016641276 -0.04838004 0.013766127
0.07727226 0.0041365325 -0.031206494 0.06291966 0.023359539 0.036539137 -0.014647034 -0.020816814
-0.056849033 0.17044625 -0.043843046 -0.0213161 0.053490207 0.0035801465 0.07990831 -0.078298144
0.023623621 -0.2541756 -0.064502925 0.0010113851 -0.10057676 0.076527394 -0.0767828 0.045520313
0.00037613342 -0.15675847 0.07945198 0.013900867 0.113919534 -0.11137284 -0.07183739 -0.016334305
0.053204097 -0.008567271 0.041074026 0.07597501 -0.04404486 -0.0069559943 0.06858461 -0.06388415
-0.043572947 0.07870717 0.07228892 0.05832333 0.05432067 0.30895108 0.07824674 0.18117845
-0.16798659 0.15022545 -0.22067747 -0.04887236 0.114389695 -0.07878377 -0.036681965 0.12960353
0.0964258 0.16909952 0.09855495 -0.11523024 -0.05959968 -0.055389296 0.11659383 0.021603549
0.09104332 0.03193921 0.01689146 0.03643384 -0.063229926 0.07744668 -0.11651457 0.19475968
-0.08043834 -0.044667907 -0.02696217 0.08619918 -0.13704365 -0.12443699 -0.09234536 0.009527865
0.0407049 -0.16561265 -0.05255604 0.067081355 0.059190363 0.050975844 0.056091674 -0.05024976
-0.14688663 0.11369977 -0.15259936 0.066288 0.027163891 0.16415875 -0.042322055 -0.002478632
0.09710161 -0.09978663 0.13706215 -0.0033306628 0.046326913 0.009006831 0.06021235 0.113598324
0.0093983365 0.08279606 0.040228717 0.06510551 -0.042851165 0.010541647 0.006811998 -0.035581317
-0.03749947 -0.052324165 -0.048791982 0.06386787 0.088913314 -0.003537294 -0.049493346 0.013486845
0.048907135 0.0028920933 -0.04334079 0.07540923 0.030080775 -0.07695646 0.07805182 0.06627391
-0.04503385 0.055407375 -0.042702254 -0.013325615 0.086581655 -0.0029572367 -0.06562485 -0.03591643
-0.00552631 -0.033440508 0.00044308536 0.073870786 -0.013408271 -0.07015649 -0.0050548776 0.05406452
0.03569485 -0.011085902 0.0015484232 -0.075418316 -0.02602008 0.037330195 -0.059015088 0.028512368
0.10572201 0.0012136775 -0.051846497 -0.04092856 0.009378459 -0.06950036 0.05434712 -0.08363225
-0.09152164 -0.076355636 -0.02396011 0.0647356 -0.08968 0.076667175 -0.039071098 0.037618667

layers.1.fc.bias f4 [64]
00000000: 646e b4bd ef6d 9b3c a999 80be f3d1 7cbd
00000010: fd78 97be cce9 2dbd 06c9 ec3e 7be9 c63d
00000020: 7c53 0dbf f568 febc 54b8 3c3e 2a0b ecbb
00000030: 3240 473e fbce 0c3c 6d73 66be f4af ea3d
00000040: e224 58be 664a 7f3d 6761 23bd 27d6 2abe
00000050: bd5f abbe 6ea7 81bc 0548 c43d 57e4 8c3d
00000060: 8886 40bd f2c9 40ba ad8a 6fbe f57b 6e3d
00000070: 22b8 343e b39d 123e bc79 ec3d 7023 38be
00000080: a5e4 143f 8592 813d 9eb5 e9bd 3d9c 56bc
00000090: c747 acbd d7e5 383e 4a72 3f3e 4405 24be
000000a0: 645c 1a3e 3af5 263e 7484 bdbc eca9 60be
000000b0: 5afd 863d 7d49 acbd 8201 79bd 36e0 253c
000000c0: 3bc9 573d 501f 38be 3baa 8bbd 2577 84bd
000000d0: 68a8 5d3e 809f 183d e347 e5bd 7c91 b2bd
000000e0: 5f6a 5ebe 4141 063c f88d 54bd ee83 163e
000000f0: ed1d 60bd 0ca0 d03e 46aa 2bbe 6e66 30bc
-0.08810118 0.018973319 -0.25117233 -0.06172366 -0.29584494 -0.042459294 0.4624712 0.097125016
-0.5520551 -0.031055907 0.1842969 -0.0072034793 0.19458082 0.00859427 -0.22504969 0.11459342
-0.2110782 0.06232681 -0.039887812 -0.16683255 -0.3347148 -0.015826907 0.09584049 0.0687949
-0.0470033 -0.0007354311 -0.23392744 0.058223683 0.17648366 0.1431797 0.115466565 -0.17982268
0.58161384 0.063267745 -0.11411594 -0.013098774 -0.08412128 0.18056427 0.18695942 -0.16017634
0.15074307 0.16304484 -0.023134448 -0.2193982 0.06591292 -0.08412454 -0.060792454 0.010124257
0.052682143 -0.17980695 -0.06819578 -0.064680375 0.21646273 0.037261486 -0.11195352 -0.08719155
-0.21720265 0.008194269 -0.051893204 0.14698765 -0.05471604 0.40747106 -0.16764173 -0.010766609

layers.2.gsds.0.weight f4 [24, 64]
00000000: bccb ba3b d258 d93d e5c1 69bd 60ac a7ba
00000010: 29b9 a53a a39c 2bbd 05fb cabd 0ec8 2bbd
00000020: a2eb a1bd 523a 413d c7af a03c 3b29 97bc
00000030: 44f7 d13d 9afa 19bd 89d1 7d3d 366c abbc
00000040: d3a5 52bc 44f4 babd 75fe b23d f1e8 0ebd
00000050: 89ba 97bb 297a f33c 21e0 d03c bc89 07bd
00000060: 05f4 eabc 0e9d 12bd 0e3a ce3d becc cbbc
00000070: 2fe4 2f3d 6405 9b3d 672b 3dbd 233d eebc
00000080: 96c2 17bd 5b01 c7bd 686c 383b c4af 76bb
00000090: 4500 6d3d 62dc c63c 4a91 52bc 8c41 d33c
000000a0: f068 c4bc f53c 253c 7286 e73d e796 88bd
000000b0: 9c84 0a3d 34bf f23b b7cd 233d 7c3d e63d
000000c0: da47 2c3c e1a0 a2bc a850 8abd 2027 6c3d
000000d0: 48a4 143c c3e2 87bd 8d97 bebd fffc b93d
000000e0: f035 2fbd 4918 1abd 510f 033d 23de 7a3c
000000f0: a2d8 94bd be1b 0d3e fe3d ecbd 111c c9b9
00000100: dcb8 553d 5d75 e0bd 67a4 243c 5442 8e3d
00000110: bd67 4c3b ff05 a8bb f757 6e3d 8441 da3d
00000120: fa0a 5b3d 4108 9fbc cf85 0b3d 8188 4f3d
00000130: 91c6 123d 98d8 3ebd 19f8 053e 3009 dabd
00000140: 060f 13bc 3f85 b13d bb22 dbbb ce49 083d
00000150: 991a b2bc 8e0e c8bc 141a ed3c 3dac 803d
00000160: 0561 743d 48cd 973d 6a03 dd3d 3e4a 0d3d
00000170: cdda 203e 1555 8cbd df88 4ebd ace7 e23a
00000180: b801 9f3d 1fae 7cb8 5c34 c53d 5341 abbc
00000190: 297b 923c a24f 06bd a247 633d e9c4 f5bc
000001a0: 305d febd 6b47 7f3d 448d 5dbd 0cf0 463d
000001b0: baf7 723c a68f 77bd 40fe 633d a9b9 b43d
000001c0: aac9 f6bc bfe8 353d 1da7 fc3c fd92 aabd
000001d0: 8ae7 febb cd8d 03be 8c29 8e3d 4ff0 e8bd
000001e0: 2ba7 9b3d c997 9d3b 2fc3 dd3c 3b85 a6bd
000001f0: 6c47 3bbd 03e4 8c3c d567 5d3d 11d5 af3c
00000200: c084 73bd c8d8 423e 0c8d ca3d 5214 923b
00000210: 2582 82bd 9d77 6f3e da51 03bb 0cbe 563d
00000220: 13e7 e6bd 2932 873d 62ae b4bd 4a9c 673d
00000230: fb67 5b3e adb7 23be 599c 7bbe fd74 a7bd
00000240: 1b9d 483e 6c81 093d 2cb5 63bd 7921 13bb
00000250: 63d0 5ebd 31c8 08be 5a9b f03d a2a9 ff3d
00000260: 7e6c 67bd 3847 633d 1a41 2a3e 1d2d 153e
00000270: e82f 823d dd3f f93c 1f13 2bbd 4199 68bd
00000280: b70e 293e 7ffe cf3c 9195 5fbd f337 56bd
00000290: 503e ecbd adbb 593d e923 0bbe 6d64 f03b
000002a0: 5f9f 223d fea9 013e 2af8 f13c 6347 ef3c
000002b0: 6aae 7f3e cb4e bd3d 98a3 953d d23e 053d
000002c0: d292 e93d 3e02 a73d 6aac 573c 91cc 99bd
000002d0: d349 0bbd 7764 2c3e 52c5 4ebe 5514 073d
000002e0: d66b 693d 382e 7fbc 1489 dfbd ffac 453d
000002f0: b513 a73b 4c6f 123e a58e 4cbe 228c 4d3e
00000300: f1a6 af3d b60d 633c 3a40 05be 4bf2 44be
00000310: bc12 413d 3123 7cbe 5424 77bd 825c a0bd
00000320: 41ce bc3d 8fda e43d cdd3 413d 0fce 0bbe
00000330: 6087 043e 7783 8d3d 3bb3 9dbd 93b0 79be
00000340: 61e1 4dbd 5712 1abe cc02 e3bb a49d 3b3d
00000350: c97d 04bd aa44 8e3c 6df9 eabd 3095 7b3e
00000360: 97c3 c7bc ff98 0d3e 2c3a 633d 4cf0 1e3e
00000370: c2de f43d f8f9 acbd c343 4c3e 2828 6ebd
00000380: 8534 2d3e 5225 3a3e 4c71 31bd dada a2bc
00000390: 2729 293e 3bfe c4bc 21b2 633d 516f 2b3d
000003a0: 7c04 0abe a1db 0dbe 646b 503e a027 f03c
000003b0: ae24 183e 4038 a13d 2f17 d2bc c23d 0fbe
000003c0: 78f5 05be 30c9 0cbe 394f 413e 5ec7 863c
000003d0: 62d1 363d 2d2a 493d 73b3 c4bd f727 c0bd
000003e0: fb36 0cbe dfbb d8bd e68c 80be 8e96 0ebc
000003f0: 2471 543e 63f9 8cbd 3786 f33d 28ab 603d
0.0057005566 0.10612644 -0.057069678 -0.0012792461 0.0012643683 -0.041897427 -0.099111594 -0.041938834
-0.079062715 0.04717476 0.019615067 -0.018452277 0.1025224 -0.037592508 0.061967406 -0.020925622
-0.012856918 -0.09128621 0.0873994 -0.03489012 -0.004630391 0.029721336 0.025497498 -0.033090338
-0.02868081 -0.03579431 0.10069667 -0.024877902 0.042942222 0.075693876 -0.04618397 -0.029081887
-0.037050806 -0.097170554 0.0028140787 -0.0037641386 0.057861585 0.024275009 -0.012852022 0.025788091
-0.02397582 0.010085334 0.1130494 -0.06669407 0.033817872 0.007408047 0.039991107 0.11242196
0.010515178 -0.019852104 -0.06753665 0.0576545 0.009072371 -0.06635048 -0.0930625 0.09081458
-0.04277605 -0.037620816 0.03199703 0.015311751 -0.07267882 0.13780114 -0.115352616 -0.0003835862
0.05217825 -0.10959885 0.010048962 0.06946245 0.0031189763 -0.005127668 0.05818936 0.10657027
0.053477265 -0.019413115 0.034063157 0.05066729 0.0358339 -0.04659328 0.13082923 -0.106462836
-0.00897575 0.08667993 -0.00668749 0.03327351 -0.021741198 -0.024421003 0.0289431 0.06282852
0.059662838 0.07412201 0.10791667 0.03449463 0.15708466 -0.068521656 -0.0504235 0.0017311475
0.07764 -6.0243645e-05 0.096291274 -0.020905172 0.017880993 -0.032790788 0.055488236 -0.03000112
-0.12420118 0.06232397 -0.0540898 0.04856877 0.01482957 -0.06043973 0.055662394 0.08824474
-0.030125458 0.044411417 0.030841405 -0.08328817 -0.0077790665 -0.12847061 0.06941518 -0.1137396
0.07600244 0.004809354 0.02707061 -0.081308804 -0.04572241 0.017198568 0.0540541 0.021463903
-0.059452772 0.19028008 0.09890184 0.004457989 -0.06372479 0.23385473 -0.00200378 0.052427337
-0.11274543 0.06601364 -0.088223234 0.056545533 0.21426384 -0.15988036 -0.2457136 -0.081766106
0.19591181 0.033570692 -0.0555927 -0.0022450371 -0.05439795 -0.13357617 0.11748381 0.12483527
-0.05649995 0.05548784 0.16626397 0.1456799 0.06356794 0.03042596 -0.041766282 -0.05678678
0.1650952 0.025389908 -0.054585997 -0.05229945 -0.11535323 0.053157497 -0.13587917 0.0073361904
0.03970277 0.12662503 0.02953728 0.029208845 0.24968877 0.09243544 0.07306594 0.032530613
0.11404957 0.081547245 0.013163665 -0.07509721 -0.03400595 0.168352 -0.20192459 0.032978375
0.056987606 -0.015574984 -0.109148175 0.048260685 0.005098785 0.14300269 -0.1997629 0.20072988
0.085767634 0.013858249 -0.13012782 -0.19233052 0.047137007 -0.246228 -0.06033738 -0.078301445
0.09219027 0.11174499 0.04732113 -0.13652824 0.12942266 0.069098406 -0.07700201 -0.24383764
-0.050263766 -0.15046059 -0.0069278236 0.045804635 -0.03234652 0.017366726 -0.114733554 0.2456863
-0.024385257 0.13827895 0.0554754 0.15521353 0.1195655 -0.08446115 0.19947724 -0.058143765
0.16914566 0.18178299 -0.04332094 -0.019879747 0.16519605 -0.024047008 0.0555898 0.041854206
-0.13478273 -0.13853313 0.20353466 0.02931577 0.14857742 0.07872057 -0.02564582 -0.13988402
-0.1308192 -0.13748622 0.18877877 0.016452488 0.044633277 0.049112488 -0.0960454 -0.09382623
-0.13692848 -0.105827086 -0.25107497 -0.008702887 0.20746285 -0.06883504 0.11890834 0.054850727

layers.2.gsds.0.bias f4 [24]
00000000: 2e09 0abd 9e70 11bd e249 733d 1215 65bd
00000010: 2fe7 883e fc72 efbb c63d a93d 339b e33d
00000020: 8638 54be cf1c 043d 0da3 a73d 842b ba3d
00000030: 5553 14be 8598 03be 4141 d23d 9165 da3d
00000040: 6c2e 383e 39fc 38bd 9052 c1bd 1e28 8bbd
00000050: afa4 873d a210 e53c f234 82bc f6c2 933d
-0.03370016 -0.03550779 0.059396632 -0.055928297 0.2673888 -0.0073074084 0.082637355 0.11113586
-0.20724687 0.032254037 0.08185396 0.09090331 -0.14484914 -0.1285115 0.102663524 0.106639035
0.17986459 -0.045162413 -0.09439576 -0.06794761 0.06623208 0.027962033 -0.015894387 0.0721492

log_envelope.log_envs.0.weight f4 [24, 1]
00000000: b84e 1f3f 4bc4 213f 8b71 073f a8d9 0d3f
00000010: fb64 1a3f 9983 883f 2263 3b3f cf3f 8e3f
00000020: 9c36 233f 2dfc 693f bc6e 353f 6f0e 683f
00000030: aba5 483f 54d7 443f dd1d 663f 5cd1 3d3f
00000040: 1100 263f 909e 213f 48f3 bb3e b2e1 2d3f
00000050: 5c2c bf3e 0c48 343f 145d 143f f93f 1c3f
0.6222949 0.63190144 0.5290763 0.5541024 0.60310334 1.066516 0.7319814 1.1113223
0.637552 0.91400415 0.7087209 0.90647024 0.7837779 0.76891065 0.8988932 0.7414758
0.6484385 0.6313257 0.36709046 0.6792251 0.3733853 0.70422435 0.57954526 0.61035115

exp_avg f4 [64, 2]
00000000: d8f4 0bbc 77fd 0c3a 98cd aaba 1a3c b8b9
00000010: 2cac b33b ff37 f439 67ef fc3a 18d4 f339
00000020: ec61 cfbb 8bdb 0fba 6ee1 e63a a121 a538
00000030: 476a c73a cf83 8d38 31c4 f13b 01cf b238
00000040: 4867 84bb bc67 403a e7d2 f3b7 1ec5 92b9
00000050: e3fb 063a a8f0 8739 26fc 5d3b 92b5 c839
00000060: 8510 e2b9 4249 24b7 f3d5 523a f61e edb9
00000070: 9449 11bc f13e 1cb9 6961 01bb d7cd d53a
00000080: 3c66 6ebb 8705 8cb8 85b9 ccba cf72 06ba
00000090: 6baf 93ba 2bd5 2c3a 7ba7 323b 7a26 2a39
000000a0: b04d d53b e278 7bb9 d19a dfbb c88a 17ba
000000b0: 9f94 3dbb 7666 94b9 bf66 a83b 10e1 8e36
000000c0: 4f6f 0d3b 62d8 0339 aadd 54bb 8986 893a
000000d0: 0d2d e1ba 0bdf 5637 3d79 003b b4f4 5d39
000000e0: e1cd 4d3a ecea 07ba d23e d83b bcd3 ad39
000000f0: cd1d 4fb9 d09f 1239 c257 3bbb 8fa6 453a
00000100: b86f 01bb a88c 3238 7001 7bbb d99b 4238
00000110: 6155 dcb8 4269 723a 9d08 72bb 1ad5 5ab9
00000120: 48b2 cb39 72ff 6339 b118 abba ddc1 b53a
00000130: cfb2 51ba ed9a 43bb 45f9 083b 4118 2738
00000140: b598 29bc cff0 ff39 243c 693b 66f3 8fba
00000150: 75d6 a3bc 3a2e 4039 e65d 103b db52 7fb9
00000160: ab1b 78bb 48ac c5b8 5b12 8a3b d224 6f39
00000170: b9e0 373b 8cbf 8538 a2bd 7ab8 abdb 15b9
00000180: af1e 3ab9 d244 69b8 ddf2 08bb b0a2 d1b9
00000190: 3604 923c df19 a539 16c0 e03a e314 41b9
000001a0: 86df 96ba 59f2 b239 f105 da38 7ff0 eeb9
000001b0: 4684 16bb a5d4 25b9 d9bf 8d3b 2e34 ff39
000001c0: 58ac aabb 90c4 c339 d3d8 e03b cbc5 edb8
000001d0: d103 d3ba 545c 3839 47f9 d33a c2d1 0738
000001e0: 3b1e 8f3a 7ef2 d1b8 9644 7d3b 5046 18b7
000001f0: 2557 10bb 30a6 beb8 8ab8 9e3b a3ae a0b8
-0.008542262 0.00053783454 -0.0013031242 -0.00035139994 0.005483171 0.00046581027 0.0019297422 0.00046506594
-0.006328812 -0.00054877315 0.0017614791 7.874077e-05 0.0015214168 6.747955e-05 0.007378124 8.526259e-05
-0.0040406324 0.00073396764 -2.9066066e-05 -0.00027994154 0.00051492284 0.0002592851 0.0033872216 0.00038282253
-0.00043118387 -9.792218e-06 0.0008042745 -0.0004522723 -0.00886764 -0.00014900767 -0.00197419 0.0016311955
-0.0036376854 -6.67675e-05 -0.0015619254 -0.0005128802 -0.0011267489 0.0006593044 0.002726047 0.00016226797
0.006509505 -0.00023982258 -0.0068238755 -0.0005780873 -0.0028927696 -0.000283051 0.0051392014 4.2581305e-06
0.0021581238 0.00012573742 -0.0032480755 0.0010492365 -0.0017179564 1.2807325e-05 0.0019603514 0.00021167361
0.0007850808 -0.00051848474 0.0065992856 0.00033154886 -0.0001975216 0.0001398318 -0.0028586243 0.0007539773
-0.0019750427 4.2569503e-05 -0.0038300417 4.639835e-05 -0.000105063205 0.0009247252 -0.0036931403 -0.00020869487
0.00038852007 0.00021743568 -0.0013053623 0.001386698 -0.0007999362 -0.0029846982 0.002090053 3.983849e-05
-0.01035135 0.00048816807 0.0035588825 -0.0010982573 -0.019999722 0.00018327768 0.0022028624 -0.00024349561
-0.0037858288 -9.425782e-05 0.004213614 0.00022806533 0.002805753 6.3776126e-05 -5.9781254e-05 -0.0001429158
-0.00017749773 -5.5615623e-05 -0.002089671 -0.00039984798 0.017824274 0.00031490528 0.001714709 -0.00018413695
-0.0011510707 0.0003413137 0.00010396157 -0.0004557408 -0.0022967025 -0.00015814842 0.0043258485 0.00048676267
-0.0052085333 0.0003733975 0.006861785 -0.000113378825 -0.001609916 0.00017582002 0.0016172313 3.238186e-05
0.0010919044 -0.00010011064 0.0038645617 -9.076277e-06 -0.0022024598 -9.090861e-05 0.004843776 -7.661923e-05

exp_avg_sq f4 [64, 2]
00000000: 4faf e938 046b 6535 2bdc 0d38 ff44 7a35
00000010: 1564 2c38 b532 3635 e111 0238 c970 0b35
00000020: da09 0639 6d87 3035 75e3 3538 d3e0 7c35
00000030: 412d f437 0989 e334 dd0e 2338 358a 7b34
00000040: c56d c837 0ecd 7b35 d5a8 c937 1be2 0934
00000050: a1d8 e937 877f 1a36 72d0 1938 fad8 aa34
00000060: 9d6d 9f35 514f 0d34 3b6d c637 eac0 fc34
00000070: f210 8138 64b4 4433 0cdb 6138 33cc 5b36
00000080: 538c 8138 1591 6434 ef30 8337 667f eb34
00000090: 96a2 d637 431b 0d36 b204 e537 f281 5a34
000000a0: bda2 de38 2ea5 c334 bcc4 6138 9afd 7435
000000b0: a4ba 8b38 5ebd 6335 3553 c337 c83d 4434
000000c0: 32dc 3a38 efdf ff34 7884 db37 af9b eb35
000000d0: 2ef6 0738 68b9 5533 624b 3b38 ca7d b334
000000e0: 1065 0938 a507 d634 a42c b038 e971 4435
000000f0: c6a7 0438 aa12 cd34 7458 dc37 350f ca34
00000100: 832e 9f37 7bbc fa34 0d3d e637 a6ac 4c34
00000110: 1ae6 bb37 1c90 cc35 d672 8937 5857 ef34
00000120: 44ff 7837 5d54 0b35 911b 0938 a1f4 5e36
00000130: fb29 0239 6569 c737 7500 0f38 1392 2133
00000140: d446 3538 be51 5b35 7265 0638 068c 3436
00000150: a889 2f39 b906 7e33 8927 0838 6530 8535
00000160: c652 cd38 e03e b134 7209 d737 0968 8834
00000170: d552 2938 dad5 9d33 b097 6137 e1bf 9234
00000180: a358 1c38 9c8b 8833 363d 0138 2047 de34
00000190: 096f 1f39 6886 3935 5d11 5237 691a 1434
000001a0: 8841 3638 a16b 8b34 945d b637 ac28 3c35
000001b0: 577e 6038 3327 9233 0184 0c38 cc07 9235
000001c0: ca91 3c38 9a10 3135 8f06 3538 f7cb cd35
000001d0: b47d b537 060c 8a33 296e 8d38 5f17 d234
000001e0: 9c38 1e37 f556 3b34 7513 1238 d18c 1333
000001f0: 8c3b dd37 4f29 2435 6a12 bb37 6f24 d233
0.000111429596 8.5464876e-07 3.3822067e-05 9.323266e-07 4.1101204e-05 6.787407e-07 3.1011066e-05 5.194566e-07
0.00012782906 6.576218e-07 4.33656e-05 9.420448e-07 2.910814e-05 4.238175e-07 3.887607e-05 2.3426476e-07
2.3892973e-05 9.380318e-07 2.4039686e-05 1.2841376e-07 2.787664e-05 2.302202e-06 3.6672172e-05 3.182284e-07
1.1878325e-06 1.3160503e-07 2.3654304e-05 4.707902e-07 6.154356e-05 4.579887e-08 5.3848184e-05 3.2752403e-06
6.177337e-05 2.1286935e-07 1.5639203e-05 4.3864856e-07 2.5586498e-05 2.1026506e-06 2.7301114e-05 2.0350106e-07
0.00010616097 3.6441764e-07 5.3827403e-05 9.126612e-07 6.662801e-05 8.4839655e-07 2.3284558e-05 1.8276398e-07
4.455093e-05 4.7660384e-07 2.616852e-05 1.7554174e-06 3.241578e-05 4.9761553e-08 4.465448e-05 3.3432872e-07
3.2757467e-05 3.9866168e-07 8.400649e-05 7.318145e-07 3.1627504e-05 3.8197805e-07 2.6267233e-05 3.7636497e-07
1.8975936e-05 4.6703266e-07 2.7446566e-05 1.906179e-07 2.2399287e-05 1.5241126e-06 1.6385147e-05 4.458077e-07
1.4841386e-05 5.19043e-07 3.268902e-05 3.322297e-06 0.00012413405 2.3771727e-05 3.4094282e-05 3.7618587e-08
4.3219727e-05 8.170281e-07 3.2042568e-05 2.6903595e-06 0.00016740581 5.9145098e-08 3.2461747e-05 9.923357e-07
9.7905795e-05 3.3014567e-07 2.5634396e-05 2.540767e-07 4.0369883e-05 7.3497816e-08 1.3446363e-05 2.733423e-07
3.7275848e-05 6.358388e-08 3.0813004e-05 4.1402473e-07 0.00015204785 6.911346e-07 1.2521018e-05 1.3793182e-07
4.3453212e-05 2.5969078e-07 2.1739666e-05 7.0094643e-07 5.3523425e-05 6.805785e-08 3.350154e-05 1.0880117e-06
4.495847e-05 6.5961797e-07 4.315987e-05 1.5333052e-06 2.1635416e-05 6.428313e-08 6.743923e-05 3.9132553e-07
9.430714e-06 1.7447367e-07 3.4827233e-05 3.4354176e-08 2.6372982e-05 6.115487e-07 2.2300712e-05 9.785514e-08

exp_avg f4 [64]
00000000: a92e 8d39 a86d 913b 4f49 3d3b 1c3a f4bb
00000010: a97f 183c 7ce4 02ba db15 93bb 681a 1bbb
00000020: 3e3e 493b 4d42 84b8 13d7 683b 34f3 b7bb
00000030: 0021 2abb 6886 48bb 8d20 bcbb 22ee e43b
00000040: 1d2d 823b 37bc 8c3b 45ef 61bb 737f c7b9
00000050: 9860 193c c88e 893b 55ce df3b 64a9 813b
00000060: e554 773b 13e9 80bb c675 6fbb 210b 873b
00000070: 27a6 dbbb a06f 913a 89a2 ca3b 4130 283b
00000080: 10e0 f23a 745b 023c bffa 283b 687a 7d3b
00000090: b622 443b e41a 1a3a 461f e93b af4f 11bc
000000a0: 5a0f 133b 91f9 773b 3bd3 24ba 5227 933b
000000b0: 26b1 b0bb 3b61 e1bb f11a 1b3b fda8 deba
000000c0: b5fb 5e3b 9d48 bd3b ca27 36bc ebd8 c43b
000000d0: 81c4 0dbb 9f1b 693a 38d4 98bb 3011 67ba
000000e0: e979 06bc 0e0c b3bb 9d45 1e3c fa5f 0c3c
000000f0: 51ad a63b 149a 55bb 11b8 08bb fd9e babb
0.0002692838 0.004438121 0.0028882807 -0.0074532162 0.00930778 -0.0004993153 -0.0044886894 -0.0023666862
0.0030707265 -6.3066e-05 0.0035528585 -0.005613709 -0.002595961 -0.003059769 -0.005741185 0.0069863955
0.003972663 0.004294898 -0.003447489 -0.00038051195 0.009361409 0.004197929 0.0068300166 0.0039569605
0.003773981 -0.0039340346 -0.0036538704 0.0041211997 -0.0067031565 0.0011095889 0.0061839265 0.0025663527
0.0018529911 0.007956374 0.0025784222 0.0038677696 0.0029927916 0.0005878641 0.007114324 -0.008869096
0.002243957 0.0037837962 -0.00062875793 0.0044907713 -0.0053922115 -0.006878046 0.0023667181 -0.0016987618
0.003402454 0.0057764784 -0.011117885 0.006007304 -0.0021632018 0.00088923605 -0.0046639703 -0.0008814512
-0.008207777 -0.0054640835 0.009660152 0.0085678045 0.005086579 -0.0032593058 -0.0020861665 -0.0056952224

exp_avg_sq f4 [64]
00000000: 697f 5538 316d 9f38 3c9c 8638 ccc3 f738
00000010: c1ba ec38 45cd 0038 0409 a438 5c36 6138
00000020: 2dab 9238 d3f5 9437 6ce7 9238 e466 7e38
00000030: 81c2 1038 b01e 8738 3363 7e38 7eeb 4f38
00000040: ba33 fa38 d43f 8638 faf3 7638 3101 3539
00000050: 7978 e638 d1a4 1f38 b7ae f838 23bb 8738
00000060: 746f c538 0301 be38 0ef2 ef38 6741 9938
00000070: 493c ba38 2b6d ba38 9d5e dc38 7a45 9738
00000080: 8cc0 6738 4c6f 0239 8d17 8a38 0f56 6b38
00000090: 6182 6f37 45db 0e38 e3d7 1a39 652d ec38
000000a0: 6c29 2a38 b9ec 8a38 3624 2138 9f40 ac38
000000b0: ce28 c637 064e d538 0894 3038 566c 0338
000000c0: 4fb2 3c38 9484 a738 7a4e 0639 9438 f638
000000d0: efa7 ec37 9881 d337 0018 6e38 24a0 0938
000000e0: 3689 e438 10e8 7238 5e29 1839 2755 0539
000000f0: bb39 7938 7276 9138 d2d9 6638 858a 8f38
5.0901817e-05 7.602049e-05 6.418719e-05 0.00011814348 0.000112881426 3.070875e-05 7.821809e-05 5.3694806e-05
6.9937065e-05 1.7757446e-05 7.004928e-05 6.0654143e-05 3.451342e-05 6.4430176e-05 6.0650706e-05 4.9571965e-05
0.00011930564 6.401507e-05 5.887819e-05 0.00017261949 0.000109896944 3.806205e-05 0.00011858105 6.4721586e-05
9.414452e-05 9.0600945e-05 0.00011441494 7.307791e-05 8.8804e-05 8.889505e-05 0.000105080406 7.213182e-05
5.5254015e-05 0.00012439227 6.5847395e-05 5.6108514e-05 1.4275866e-05 3.405965e-05 0.00014767009 0.00011261812
4.0569736e-05 6.624446e-05 3.8419115e-05 8.213636e-05 2.362244e-05 0.000101711645 4.2099535e-05 3.133373e-05
4.4988756e-05 7.987875e-05 0.0001280847 0.000117407326 2.8211593e-05 2.5213507e-05 5.6765974e-05 3.2812488e-05
0.00010897445 5.791342e-05 0.0001451126 0.0001271559 5.9419992e-05 6.936201e-05 5.5039134e-05 6.8445726e-05

exp_avg f4 [64, 128]
00000000: 6f07 9fba da34 4cb9 3eb3 0bb9 623a 923a
00000010: d161 4eb9 d8f2 363a 73b2 c23a a1fd 7038
00000020: 7b18 68ba dc62 7c38 f10b 80ba 559c e33a
00000030: 7cf3 7a39 0a36 5e39 1834 e13a ee66 9839
00000040: 89c5 80b9 cef1 2db9 ce14 b83a cd7e 94b9
00000050: b8fc bbba a5d0 cbba b4ad 72b9 38df d2ba
00000060: a6cf 6738 3e54 4439 235f 6139 e611 e7ba
00000070: be21 6239 87fd 5bb9 fb4d 8aba cacf 4bb9
00000080: 949c 84ba ba13 afba c610 bfba dc94 76b9
00000090: c59d 47ba 3d8b 0439 1b83 5fba 357e a238
000000a0: 7301 81b9 376c 59ba 915c 1b39 21de cbb8
000000b0: 9232 6339 7378 1239 6618 d4ba 527f 933a
000000c0: 4d48 76ba 363b ffb8 675b 6039 d1ba 6ab9
000000d0: 8f65 1a39 4680 05b9 606b aa3a afb0 933a
000000e0: 8405 cc3a ad81 2b39 b4c3 19b9 a635 c0ba
000000f0: 6b28 d0ba dce6 ae3a 0bdc 9a3a a760 d73a
00000100: fd62 5038 1659 ad38 be50 9c38 10fd 25b8
00000110: 48d1 9838 7896 a0b8 7e49 0ab9 314b 0138
00000120: 5a3a 1938 89b1 a8b5 4eb9 9f38 9470 f6b8
00000130: 3340 6b39 2dba dcb8 e6a0 10b9 d1e3 0ab6
00000140: 29b2 f138 fa6f 8e38 81d1 00b9 c79d 0538
00000150: bd84 bf38 bd0c b438 6ae2 bd38 ba72 0239
00000160: 988d 88b6 9128 83b8 5a70 c3b8 22f1 0839
00000170: 81ba c6b8 ccdb c038 1539 8138 f7a0 c438
00000180: a01e f938 e643 3c38 d5a0 a138 176e ee38
00000190: b1d2 2838 1c63 bdb7 9a93 79b8 2eb6 3ab8
000001a0: e78c ff38 9f58 e938 525f 5c38 2df5 0e38
000001b0: b3ed 99b8 f3b0 75b8 f724 3139 c4f3 15b9
000001c0: ec3d c738 f4e9 7038 1353 bbb8 3ad8 c738
000001d0: c800 b7b8 6843 7238 2886 f8b8 1446 d2b8
000001e0: bfcc b9b8 4bdc aeb8 959a 8638 afb1 d638
000001f0: 2909 de38 330f fbb8 a907 28b9 a194 b9b8
00000200: 58bd 2539 a09b ad38 f552 5a38 c07d 2cb9
00000210: b2df d538 0841 35b9 8583 46b9 0534 1136
00000220: 1fc7 0639 7019 e4b8 3d8e 2a39 dd50 5db9
00000230: bdba 2eb9 fc8e e3b8 b269 4eb9 2b0c 8ab7
00000240: 2825 0139 9b9b 5438 0924 5ab9 4721 0539
00000250: acac 4339 6319 5a39 631a 0539 f538 5039
00000260: bce8 4938 7c8b d1b8 0f45 d8b8 2600 5039
00000270: 85af dfb8 af1c b338 ed56 2239 b4ce 8038
00000280: 95ed 4639 c0ec 3039 9dc2 2e39 a5c2 e738
00000290: 2dac fe38 3bf2 fe38 409b 3139 fcc8 8cb8
000002a0: 13ed 0739 2dcd 6e39 4462 0ab9 e40a ac38
000002b0: 820c 08b9 54fa 84b8 4ad2 5539 bd6a 54b9
000002c0: 5e20 3c39 1556 5938 6561 c2b8 05c5 e938
000002d0: 20df 60b9 acc8 d4b7 7322 48b9 8de9 51b9
000002e0: 1a88 56b9 b8f3 4eb8 d9a2 ce38 915a 4839
000002f0: 9d72 3d39 94f7 53b9 1638 59b9 435f 43b9
00000300: 8cff 9bb7 2d5e 4338 fcd3 8037 6072 8537
00000310: 094f 3538 2213 5935 f766 3d38 8e9a d936
00000320: 9760 65b7 9f73 abb7 bb56 8ab7 6940 7b38
00000330: 410e 2db9 0af8 fab7 a261 7f38 5504 c936
00000340: c116 8538 f8aa 6538 c7c7 2e38 ef8c 4d37
00000350: 41eb 1cb8 5034 38b8 16cf 4238 9c08 5cb8
00000360: 2277 1338 0632 42b8 bf55 3cb8 932d 82b8
00000370: 7441 2fb8 7ea3 5538 01b5 9db7 c7fe 0c38
00000380: 3fdd 89b7 58cc a7b7 8081 d9b7 31d1 5938
00000390: cb76 54b7 3dbd 2e38 2715 2c38 c8db 91b7
000003a0: 4fbc 6938 b065 56b6 b14a 6fb8 a99b cd37
000003b0: 4194 fcb7 0869 30b8 dbe8 88b8 5e6b dc37
000003c0: 9e91 5eb7 8393 1b38 b683 6ab8 ca1b 4b38
000003d0: d894 85b8 118f 8937 d7ea 0d38 2868 ca37
000003e0: 3d15 3a38 d690 b1b7 8079 7537 e0bc 2bb8
000003f0: a8aa 36b8 5710 1b38 5087 0e38 36d0 3b38
-0.0012132953 -0.00019474645 -0.00013322846 0.0011156315 -0.0001968213 0.00069789356 0.0014854207 5.745667e-05
-0.00088537455 6.0173552e-05 -0.0009769184 0.0017365316 0.00023932563 0.00021191701 0.0017181663 0.00029068388
-0.00024561238 -0.00016588645 0.0014044286 -0.00028323234 -0.0014342284 -0.0015549852 -0.00023143628 -0.0016088253
5.526808e-05 0.00018723399 0.00021493113 -0.0017629236 0.0002156561 -0.00020979914 -0.0010551804 -0.00019436996
-0.0010117465 -0.0013357319 -0.0014577142 -0.00023515843 -0.0007614757 0.00012640371 -0.0008526311 7.74827e-05
-0.00024605877 -0.00082940183 0.00014816436 -9.721169e-05 0.00021667246 0.00013968516 -0.0016181588 0.0011253154
-0.0009394929 -0.000121703764 0.00021396355 -0.00022385574 0.00014724418 -0.00012731654 0.0013001971 0.0011267866
0.0015565609 0.00016356139 -0.00014664122 -0.0014664426 -0.0015881186 0.0013343948 0.0011814845 0.0016432003
4.9683254e-05 8.2658764e-05 7.453699e-05 -3.957475e-05 7.2869065e-05 -7.6574215e-05 -0.00013188084 3.0826024e-05
3.6532387e-05 -1.2568645e-06 7.6162265e-05 -0.000117511634 0.00022435263 -0.000105250954 -0.0001379285 -2.069621e-06
0.000115249604 6.791945e-05 -0.00012285078 3.1856613e-05 9.132314e-05 8.5854415e-05 9.054395e-05 0.00012440505
-4.0695995e-06 -6.254123e-05 -9.319252e-05 0.000130598 -9.476115e-05 9.196214e-05 6.161832e-05 9.37599e-05
0.000118789496 4.488593e-05 7.7070355e-05 0.0001136923 4.0250543e-05 -2.2576707e-05 -5.950369e-05 -4.4515524e-05
0.00012185593 0.00011126813 5.254086e-05 3.4083776e-05 -7.3398835e-05 -5.857735e-05 0.00016893806 -0.00014300557
9.500593e-05 5.7438345e-05 -8.932329e-05 9.529335e-05 -8.7262655e-05 5.7760073e-05 -0.0001185055 -0.000100266334
-8.859624e-05 -8.337999e-05 6.418411e-05 0.00010237411 0.00010587491 -0.00011971444 -0.00016024582 -8.849172e-05
0.00015806162 8.27827e-05 5.205251e-05 -0.00016450044 0.00010198298 -0.00017285731 -0.00018931746 2.1636963e-06
0.00012853414 -0.00010876625 0.00016265451 -0.00021106326 -0.00016663499 -0.000108508364 -0.00019685065 -1.6456548e-05
0.0001231624 5.0689658e-05 -0.00020803524 0.00012696265 0.00018660974 0.00020799557 0.00012693698 0.00019857644
4.8138885e-05 -9.9918776e-05 -0.00010312546 0.00019836481 -0.00010666162 8.540728e-05 0.00015481906 6.142017e-05
0.00018971258 0.00016872864 0.00016666432 0.00011051194 0.00012143734 0.00012156783 0.0001693787 -6.7131565e-05
0.0001296292 0.00022773883 -0.00013197312 8.203628e-05 -0.0001297463 -6.340878e-05 0.00020391602 -0.00020257659
0.00017941135 5.1817e-05 -9.268782e-05 0.000111470035 -0.00021445425 -2.5365815e-05 -0.0001908632 -0.00020018798
-0.00020459332 -4.9341208e-05 9.853178e-05 0.00019107225 0.00018067141 -0.00020214758 -0.00020715626 -0.00018632137
-1.8596438e-05 4.657933e-05 1.5357502e-05 1.5908096e-05 4.322737e-05 8.086664e-07 4.5157005e-05 6.4850965e-06
-1.3671953e-05 -2.0438629e-05 -1.6491269e-05 5.990305e-05 -0.00016503876 -2.9917825e-05 6.0887665e-05 5.990771e-06
6.3461724e-05 5.475708e-05 4.167089e-05 1.2251766e-05 -3.7412396e-05 -4.391774e-05 4.6446068e-05 -5.2460106e-05
3.5158482e-05 -4.6299792e-05 -4.490255e-05 -6.207372e-05 -4.178421e-05 5.093542e-05 -1.8800145e-05 3.361588e-05
-1.6434698e-05 -2.0003106e-05 -2.5928719e-05 5.1931656e-05 -1.2663843e-05 4.1661075e-05 4.1027695e-05 -1.738769e-05
5.5726905e-05 -3.1947675e-06 -5.7051602e-05 2.451039e-05 -3.0109777e-05 -4.2059488e-05 -6.528358e-05 2.627604e-05
-1.3266135e-05 3.709226e-05 -5.5912613e-05 4.8424852e-05 -6.3696585e-05 1.6398293e-05 3.383573e-05 2.4128778e-05
4.4365635e-05 -2.1167489e-05 1.4631427e-05 -4.094548e-05 -4.3551117e-05 3.6970097e-05 3.3981458e-05 4.4778186e-05

exp_avg_sq f4 [64, 128]
00000000: ba7c ec36 79e1 e434 ba41 d333 d749 c236
00000010: ffe6 0335 ade2 7a36 e513 5237 1735 8b34
00000020: 53cd 9036 b5f6 1a35 5fc1 9336 e994 8f37
00000030: fd8a a535 7416 0635 516c 7537 7d62 6935
00000040: 5e24 1035 f6a0 d134 e9cc 2537 550b 6d35
00000050: 659b 2137 ed01 4837 f507 0a35 09a0 6b37
00000060: d4db 4e34 0403 ca34 034c b234 859e 9237
00000070: 16b9 0335 1a6e cd34 c69a c736 5dc6 ad34
00000080: fe16 e636 3bf4 1137 5c3b 6537 f7eb 0235
00000090: 0c9e 6236 6c2c 8835 ac23 cb36 3b81 1a34
000000a0: f5a2 2935 ab55 3d36 28b5 0135 5381 a533
000000b0: 5256 1935 b8be 2d34 9104 5e37 d370 1837
000000c0: ae12 ce36 7d85 ce34 d197 1735 50d3 ee34
000000d0: 3666 9c35 d9bb 1e35 c571 1337 6ecd 1237
000000e0: c099 4837 18ae 9a34 1ed9 fc33 6608 3b37
000000f0: fd1f 7137 5c5d 4937 df5c 1537 1726 6b37
00000100: ed1d 6834 8fd7 f033 ccf2 0733 68e2 e732
00000110: ab70 be34 82bd 9d32 74d7 9b34 6535 c331
00000120: 1721 f032 9e47 5532 7d4c eb32 e48e 8034
00000130: 130a 6a35 7808 1234 96ac fe34 dbf6 9f32
00000140: 62a0 7a34 0166 3333 b0c2 5b34 5657 f332
00000150: 810d 3234 8daa a534 2552 5434 830d e934
00000160: 877c 5832 b33c 5e33 6491 1234 953f c534
00000170: cd9f c534 9a4a 1234 e709 b733 1dab a233
00000180: 0e0e 9c33 68d6 d633 6bcd 0335 5179 4034
00000190: 1511 c633 e5be 2033 52a8 fa33 2b2b 3d34
000001a0: 902d 8434 b8ff 2933 aad0 1835 836d ae33
000001b0: ea9c 0035 6d9c 4833 dd40 f034 6f3d 8c34
000001c0: e4dd 7833 1656 0833 74dd df33 fcda 8e34
000001d0: fc86 9333 9a03 9132 ed81 c834 ffd0 6e33
000001e0: 9fd3 e133 845b 9433 068c 3c33 4e81 ce33
000001f0: 9158 eb34 62d9 4134 c6d6 b534 9ca9 ed34
00000200: 7c7d 3336 89c4 8836 363e e935 5dde 0b36
00000210: 1357 9c36 5b4b 8935 f797 dd36 2dbc 5035
00000220: d154 8635 3ec8 9534 9987 d335 7f10 c936
00000230: 8e28 0337 e5e3 8836 a9b2 0137 57ac a534
00000240: cf22 b836 979a 2036 2a08 c736 583a a834
00000250: 56f6 8a36 3a0f cd36 8e4a bd36 cdce e436
00000260: d21b a735 8685 7036 c0fa 8336 a1bc 0937
00000270: 895d 9236 c696 8c36 6879 0b36 c546 2536
00000280: 44cf 5036 1cdb 4036 301e d336 0dc3 9f36
00000290: ae12 7935 8934 1c35 c8fc 8236 b89f 1436
000002a0: a086 b936 d3d3 2536 35ca d036 e062 4136
000002b0: 43fa c136 9fe3 2036 9493 0637 7b11 c336
000002c0: 1ee3 0a36 ea21 1336 6491 9136 79c0 ac36
000002d0: 1e1e 0b36 56b8 9035 e3d6 ac36 9a53 4b36
000002e0: 3876 ae36 9dc9 0936 43ff 2d36 9bd9 5c36
000002f0: b33d dd36 5611 a436 2271 eb36 2c15 bf36
00000300: 05ac f135 df4d 3236 c442 8135 4ea8 c035
00000310: 203a 6036 b3e5 e234 0fa8 0f36 6370 f934
00000320: c456 1535 2667 9333 c807 7b35 c279 7d36
00000330: cb15 f836 01b7 0136 2570 7236 050a e333
00000340: 4924 7336 be1f d635 4907 3136 0938 6a33
00000350: e68c 3136 a3c5 9336 7656 8236 ad1e 4b36
00000360: 38b5 8535 0b3a 3136 2c73 3136 7c03 8336
00000370: 6634 4636 b795 4136 585a 6b35 57f2 b535
00000380: 7c92 8b35 52fa fb35 2bf5 4b36 a5c9 4b36
00000390: 2f80 b834 9223 9c33 7205 4d36 406e d135
000003a0: b2ad 3f36 863a 2635 6b46 c736 67e0 1636
000003b0: 6b67 9a36 ea64 db35 3f88 5636 f13f d835
000003c0: 251a 4335 7539 bd35 8bcb 2336 8f3b 7e36
000003d0: 2250 8834 a832 0835 6df1 6736 2c6d af35
000003e0: b9e0 1e36 6420 8135 062b db35 90c8 dc35
000003f0: c5c9 7836 2fad 1636 8cfb 0a36 83c8 7236
7.047868e-06 4.2632362e-07 9.837409e-08 5.7902466e-06 4.9137446e-07 3.7384846e-06 1.25216075e-05 2.5929396e-07
4.3154373e-06 5.7728477e-07 4.4034527e-06 1.711627e-05 1.2333909e-06 4.9951564e-07 1.4628357e-05 8.6942583e-07
5.36971e-07 3.9046398e-07 9.882476e-06 8.830587e-07 9.632528e-06 1.1921377e-05 5.1420585e-07 1.4044353e-05
1.9265218e-07 3.7627626e-07 3.321039e-07 1.7478373e-05 4.907064e-07 3.8264335e-07 5.94868e-06 3.236809e-07
6.857211e-06 8.699538e-06 1.3663284e-05 4.877215e-07 3.376862e-06 1.0145718e-06 6.054024e-06 1.4389381e-07
6.319454e-07 2.821306e-06 4.831986e-07 7.706935e-08 5.7122554e-07 1.6181264e-07 1.3233294e-05 9.086175e-06
6.141453e-06 3.8467616e-07 5.6472805e-07 4.4484705e-07 1.1652653e-06 5.913294e-07 8.788372e-06 8.7501085e-06
1.1956727e-05 2.8811405e-07 1.1774158e-07 1.1148024e-05 1.4372167e-05 1.20022705e-05 8.902715e-06 1.401596e-05
2.161757e-07 1.1215081e-07 3.165296e-08 2.6994897e-08 3.5472235e-07 1.8363384e-08 2.9027763e-07 5.681317e-09
2.7954725e-08 1.2414516e-08 2.7392383e-08 2.3945825e-07 8.7186453e-07 1.360039e-07 4.743676e-07 1.8622293e-08
2.3341411e-07 4.1769457e-08 2.0466791e-07 2.8328639e-08 1.6582455e-07 3.0857737e-07 1.9773923e-07 4.3409463e-07
1.2601169e-08 5.174361e-08 1.3650202e-07 3.6740371e-07 3.681038e-07 1.362445e-07 8.523403e-08 7.574838e-08
7.2668726e-08 1.0004152e-07 4.9100225e-07 1.7925528e-07 9.223201e-08 3.742652e-08 1.16721495e-07 1.7617701e-07
2.4620067e-07 3.9580954e-08 5.692806e-07 8.1224265e-08 4.7912056e-07 4.6708397e-08 4.4750678e-07 2.612173e-07
5.7943808e-08 3.1743262e-08 1.0424529e-07 2.6608893e-07 6.8697744e-08 1.688186e-08 3.7347436e-07 5.5603774e-08
1.05158726e-07 6.908434e-08 4.389951e-08 9.616143e-08 4.3836602e-07 1.8053609e-07 3.3870145e-07 4.4268097e-07
2.674612e-06 4.0759955e-06 1.7377959e-06 2.0842047e-06 4.659299e-06 1.0229227e-06 6.6040043e-06 7.775987e-07
1.0008463e-06 2.7899108e-07 1.5760189e-06 5.992187e-06 7.817651e-06 4.0796463e-06 7.730597e-06 3.085904e-07
5.4876796e-06 2.393184e-06 5.9316126e-06 3.133489e-07 4.1413978e-06 6.1112487e-06 5.6413182e-06 6.8190043e-06
1.2450566e-06 3.5840508e-06 3.9332954e-06 8.209755e-06 4.362028e-06 4.1898775e-06 2.0783282e-06 2.462811e-06
3.111506e-06 2.8737768e-06 6.2918043e-06 4.761276e-06 9.278691e-07 5.819098e-07 3.9037295e-06 2.2146687e-06
5.529102e-06 2.4710214e-06 6.222423e-06 2.8816794e-06 5.7809825e-06 2.397435e-06 8.021383e-06 5.813488e-06
2.0695802e-06 2.1924448e-06 4.3382624e-06 5.148406e-06 2.0730145e-06 1.0782485e-06 5.1510156e-06 3.029802e-06
5.1993666e-06 2.0531945e-06 2.592759e-06 3.2909218e-06 6.593496e-06 4.889599e-06 7.016716e-06 5.6947083e-06
1.8005964e-06 2.6569394e-06 9.63068e-07 1.4354098e-06 3.3412434e-06 4.2262909e-07 2.1406483e-06 4.6461636e-07
5.5633086e-07 6.8639835e-08 9.351611e-07 3.777081e-06 7.393513e-06 1.932902e-06 3.6126087e-06 1.0572334e-07
3.6230942e-06 1.5953481e-06 2.6379296e-06 5.4533334e-08 2.645707e-06 4.4039493e-06 3.8843673e-06 3.0267213e-06
9.962014e-07 2.640884e-06 2.6442094e-06 3.90451e-06 2.95348e-06 2.8846387e-06 8.767579e-07 1.3556081e-06
1.039894e-06 1.877381e-06 3.0392064e-06 3.036673e-06 3.4365937e-07 7.270786e-08 3.055055e-06 1.56038e-06
2.8562322e-06 6.192498e-07 5.93886e-06 2.2482361e-06 4.601597e-06 1.6346141e-06 3.196779e-06 1.6111863e-06
7.2681206e-07 1.409832e-06 2.440737e-06 3.7883617e-06 2.5390278e-07 5.073766e-07 3.456221e-06 1.3070289e-06
2.367464e-06 9.620676e-07 1.6329293e-06 1.6449649e-06 3.7072325e-06 2.2452548e-06 2.0710022e-06 3.6177523e-06

exp_avg f4 [64]
00000000: 3285 8d39 10d6 4fb9 b2c2 cc39 f3f8 d9b8
00000010: ed3d 2e36 bb61 d538 d7d3 1aba 1d0d a1b8
00000020: 2e7e 523b 2bdf 83b8 2f00 be38 69db 96b9
00000030: c008 8738 1e23 a338 227b 9e39 0b90 83b9
00000040: 111a f5b8 30f1 abb8 538a 3138 5a7a b3b7
00000050: 6803 87b8 2443 4b39 2aa1 97b7 22a9 70b9
00000060: 2e22 02b9 6e36 0eb9 b395 04b9 e666 92b9
00000070: f719 91b9 3c24 8ab9 3726 8138 798a db37
00000080: b5a4 beba 629c b5b6 9fc7 92b7 071f 7c39
00000090: 47dc 4b39 a5fe be38 45bc d1b9 36c4 02b9
000000a0: 18b3 14ba 41f9 efb8 1613 86b8 7135 48b9
000000b0: e40d 03b9 d73f 1eb9 f8b7 e238 aeef aa38
000000c0: be90 d4b4 109a c3b8 dac8 beb8 2633 ddb7
000000d0: d0a5 f038 e601 eb37 d695 ef36 716d 68b9
000000e0: 430b 0c3a d5c5 8638 d22f 11b8 49b5 0339
000000f0: 70a6 b3b8 68b6 c1b9 05d6 c0b7 42b2 f338
0.00026992854 -0.00019820803 0.0003905497 -0.00010393737 2.5964066e-06 0.00010174835 -0.00059062004 -7.679521e-05
0.0032118666 -6.288135e-05 9.05994e-05 -0.00028773703 6.4389315e-05 7.778987e-05 0.0003022785 -0.00025093587
-0.000116873656 -8.19884e-05 4.2328913e-05 -2.1395437e-05 -6.437936e-05 0.000193846 -1.807565e-05 -0.0002295119
-0.00012410499 -0.00013562452 -0.00012644268 -0.00027923955 -0.000276759 -0.00026348408 6.1583174e-05 2.6171316e-05
-0.0014544936 -5.4124257e-06 -1.7497512e-05 0.00024044151 0.00019441648 9.107337e-05 -0.00040003858 -0.0001247086
-0.0005672439 -0.00011442835 -6.393173e-05 -0.00019093395 -0.00012498308 -0.00015091836 0.000108107866 8.1508755e-05
-3.959339e-07 -9.327021e-05 -9.0973175e-05 -2.636907e-05 0.00011474977 2.8015067e-05 7.1401982e-06 -0.00022166014
0.00053422543 6.426467e-05 -3.461523e-05 0.00012560668 -8.5663865e-05 -0.00036947732 -2.2987844e-05 0.00011620346

exp_avg_sq f4 [64]
00000000: f443 1336 3814 8837 53e8 0336 0f5b ca36
00000010: 3f6f 5735 420e bb35 87ad da34 8436 be36
00000020: 9301 4b37 3777 2a36 8f14 1436 8cdb 4a36
00000030: b850 af34 44fb 8c36 73c0 c135 7518 8536
00000040: 1616 a935 c849 8c36 80b9 9136 e3d7 6636
00000050: 8fa1 2e35 4f21 b836 b6d7 c635 e038 1d37
00000060: 67cb 1437 b684 0137 418b 0d36 65b3 ae36
00000070: b02d ae35 c382 b936 fc3f a437 a4ae 8436
00000080: 342a 2b37 cbf2 c436 d78c 3537 d520 0a36
00000090: cb8b 5937 de02 ba35 2496 4b36 2789 c535
000000a0: c47f 8135 5428 8136 9410 e436 7da4 f335
000000b0: 245e 8435 9a1c 8f36 2730 3c36 18e2 8335
000000c0: 7480 9636 4da0 a435 0714 9837 4675 9936
000000d0: 345f e835 acbf f536 f877 0936 5df1 8635
000000e0: 8727 5c35 48a6 2a36 4aaf 2c37 b07b 8935
000000f0: 9c3b 9536 39a4 c734 8341 0337 6351 f636
2.194426e-06 1.6221878e-05 1.9655752e-06 6.0306697e-06 8.0255626e-07 1.3936735e-06 4.0731922e-07 5.6687877e-06
1.2100109e-05 2.5401366e-06 2.2065685e-06 3.0228139e-06 3.265502e-07 4.2015763e-06 1.4435631e-06 3.966556e-06
1.2597909e-06 4.1809144e-06 4.342932e-06 3.4398333e-06 6.505515e-07 5.487505e-06 1.481493e-06 9.3711715e-06
8.868846e-06 7.719898e-06 2.1091694e-06 5.2064884e-06 1.2977307e-06 5.5286523e-06 1.9580119e-05 3.9542374e-06
1.020222e-05 5.86952e-06 1.08212325e-05 2.0582713e-06 1.2966756e-05 1.3858914e-06 3.033675e-06 1.471756e-06
9.648434e-07 3.8491944e-06 6.7968595e-06 1.8152783e-06 9.862165e-07 4.2650618e-06 2.8042211e-06 9.826063e-07
4.4853023e-06 1.2265606e-06 1.8129138e-05 4.5734078e-06 1.7313055e-06 7.3238825e-06 2.0484422e-06 1.0054024e-06
8.2013906e-07 2.5428762e-06 1.0292812e-05 1.0243293e-06 4.4474855e-06 3.7186126e-07 7.823462e-06 7.340846e-06
