results/energy/data/dump/A02_H064_L02_D01_Tanh_W4096_P010000_V0.00e+00_S5.00e-01_Adam_PT_False_device_cuda_dtype_float64_chkp.pt (torch, 320083 bytes, 34 tensors)

layers.0.fc.weight f8 [64, 2]
000000 2b 85 3d d0 3d 8b e5 3f a6 de b9 91 8b 5d d1 3f
       0.6732472483819597 0.27133454543170854
000010 78 6e fc 6f 4c e1 a4 bf 94 5f d8 c0 6c 20 e2 3f
       -0.040781391782926 0.5664581076152779
000020 58 15 2f 53 a9 2c c8 3f df d6 0f c0 e2 da da 3f
       0.1888629585429651 0.41960972553293446
000030 6a 2a 73 e3 3d d8 dd bf 72 37 47 6c 19 cf ca bf
       -0.46632334911251994 -0.209445169325075
000040 e7 61 0a cf 7f 24 c1 3f c4 e9 9e 39 c4 b9 d2 bf
       0.13392636880304495 -0.2925882876112633
000050 75 e1 65 62 e2 58 b8 bf 20 4d 24 53 24 7f d9 bf
       -0.09510626699728227 -0.3983851253444346
000060 e1 03 cd 52 17 32 ca bf 59 e2 ac 63 f7 44 c2 3f
       -0.20465365927705562 0.14272968642196096
000070 2e 5b 21 73 9d 95 a8 bf df 89 a6 00 ff 67 b6 bf
       -0.04801647215270176 -0.08752435460932116
000080 83 53 07 ba ef 57 c3 bf 92 c8 78 c5 a0 6f d9 bf
       -0.1511211069434034 -0.3974382332263612
000090 da 80 fa e0 1f d4 cb 3f df 76 f2 6e 32 a0 d9 3f
       0.21741102681426733 0.4004026492565184
0000a0 24 79 8b ff 37 bc d9 bf 4b b2 49 1a eb 89 cc 3f
       -0.4021129603915077 0.22295893462741598
0000b0 de 51 91 15 fe f0 e1 bf 31 26 6f 61 7b a6 80 bf
       -0.5606680318110724 -0.00813003913016805
0000c0 29 ba 09 14 d6 51 da bf a7 d8 8e f2 c1 a9 ad 3f
       -0.41124488789401653 0.05793577276146893
0000d0 07 0f 42 72 62 e3 ba 3f 28 24 d1 8f 94 c7 cd 3f
       0.1050321129751489 0.2326532079917183
0000e0 58 da f6 f5 1e 4e d7 3f b1 69 7c c5 35 39 d7 bf
       0.36414312381694947 -0.3628668240141009
0000f0 54 43 d8 31 6b 1d dc 3f bf 5e 50 e1 ea 73 c4 3f
       0.43929557674078024 0.1597875213781119
000100 00 fd c7 d4 20 14 dd bf 7d 51 07 73 f3 88 dc bf
       -0.4543535306874702 -0.44585882409344163
000110 d3 39 d0 22 d8 64 b1 bf 13 82 14 2d f0 ac e5 3f
       -0.0679450116151437 0.6773606186362165
000120 67 93 eb 7e 90 0c b7 3f bc 81 d8 20 a0 38 9f bf
       0.09003546808851369 -0.030489446644539106
000130 47 66 7a 00 f0 d7 db 3f de b0 33 b0 c9 82 c8 bf
       0.43505477949802124 -0.19149132827386145
000140 56 5b 5d 7e a7 bd d3 bf fa 5c d8 9a 69 46 e4 bf
       -0.30845057812023435 -0.6335952781982137
000150 e3 4e 03 e3 bb fb d5 3f 4c 06 65 db f4 d9 c7 bf
       0.3434896199153014 -0.18633900368335998
000160 e7 3e 59 f3 56 9c a3 3f f8 d6 cd 67 c4 6d a8 bf
       0.0383021518761078 -0.047712457343477455
000170 c8 a5 40 dc 68 1c e0 3f f7 79 e1 c6 27 b7 e4 bf
       0.503467970066759 -0.6473578342809664
000180 91 3d 75 93 34 1f e6 3f 38 4d cc bc df c2 e1 3f
       0.6913092498816004 0.5550383269750574
000190 4f 89 7e 17 1f 6d d8 3f 2a 5a 79 ab 09 4c d4 bf
       0.38166024488795797 -0.3171409773398489
0001a0 30 29 0b 0e 02 b0 dc bf 79 fb 0f a0 df 62 e6 3f
       -0.4482426774162773 0.6995695234507898
0001b0 44 d5 c5 ab 31 54 db 3f 14 fb 79 7e 2a f4 c4 bf
       0.42701379561124875 -0.16370135474786507
0001c0 c0 fc b9 45 1f 21 bf 3f ed 2d 7f 36 04 87 d1 3f
       0.12159915401751942 0.2738657505221614
0001d0 84 a2 a8 c8 99 79 e6 bf db de fb d9 3c 9c b1 3f
       -0.7023438376537148 0.06879024812576111
0001e0 47 3f b5 32 14 a5 b4 3f 3e e6 7b 65 ad ad e4 bf
       0.08064390409458354 -0.6462008459195159
0001f0 4b a4 f9 34 5e 83 de bf ed 54 78 e2 92 c4 e6 3f
       -0.4767680661521509 0.71149582130843
000200 c0 60 dc 4f 59 9c c0 3f d5 5c b8 99 ea 6c df bf
       0.12977138900237684 -0.491022729985571
000210 86 06 84 04 98 40 c6 bf 13 ad 7d 78 26 68 db 3f
       -0.17384624691480982 0.4282318283719217
000220 bc 5a 8d 42 f4 b1 e1 bf 45 05 a1 f4 76 18 d9 3f
       -0.5529729175421703 0.39211820497083166
000230 9a 65 dd f4 49 2b d9 3f b4 1d 05 b8 27 f3 d9 3f
       0.3932671443231698 0.4054660126753007
000240 53 8c 69 36 93 0c be bf 80 c0 1b d5 b1 7f d3 3f
       -0.11737938002038222 0.3046688634049204
000250 0f ff 6e 34 c7 f7 e4 bf 80 2a 27 7c 99 0c d6 bf
       -0.6552463554471347 -0.3445190155440869
000260 81 36 53 dc 22 68 db bf 07 60 d7 4e c8 3c dc bf
       -0.42823096767538266 -0.4412098665175112
000270 06 c5 16 c6 db 7c 50 3f 1d 44 4c 23 9c 8e df bf
       0.0010063310840958141 -0.4930792183595843
000280 c5 0c 02 56 8c 2b d8 bf 4a 84 ed 07 d9 fc c0 bf
       -0.37765797042102306 -0.132716301795002
000290 c2 cc 8b 75 c1 8e c5 bf f0 53 7f 52 09 63 dd bf
       -0.16841905822329833 -0.45916970306762916
0002a0 f3 46 22 87 c5 b2 c4 bf 66 d5 b1 67 b3 87 8f 3f
       -0.16170567606291505 0.015395547487268412
0002b0 33 14 0b 0e a4 56 c7 3f fc 7a 82 d9 01 3a c1 bf
       0.18233156858164676 -0.13458274002638138
0002c0 ff b2 8a 5d 0e 60 b3 3f bc f1 f6 9b 6b 93 da bf
       0.0756844499944229 -0.41524782401009097
0002d0 2a 1d 4b 81 31 d9 be bf ff 32 cf 18 27 56 df 3f
       -0.12050160795762524 0.48963334486761306
0002e0 ba 7a bc 18 33 63 e2 3f 48 ce 4b 58 95 25 e5 bf
       0.5746093257074201 -0.6608378147634051
0002f0 97 98 f5 80 e8 94 d1 3f 4c 0d 1c 8c b7 65 dd bf
       0.27471363633811435 -0.4593333118684384
000300 f7 04 7d fd 6c 01 de bf 97 e4 39 d4 c8 de d8 bf
       -0.46883702044222225 -0.3885976860543194
000310 4a d7 0a a1 c2 d4 d0 3f a3 98 2c ce 77 24 c7 3f
       0.26298585631171945 0.1808004147253018
000320 80 6f 9f 44 60 67 dd bf 7e 67 8a 50 46 d7 e5 3f
       -0.45943457318730196 0.6825286458072097
000330 72 52 90 1a c5 9c ce 3f a3 9c d6 a7 af 69 b2 3f
       0.23915923878725526 0.07192514274230404
000340 54 87 2b 1f 7b f3 b8 bf c4 a2 4f 88 6f 95 e6 3f
       -0.09746522437083388 0.7057416593862276
000350 cf d6 eb a2 7e 95 a0 bf 62 75 78 c6 fd ee e4 3f
       -0.03239055384430644 0.6541737438562161
000360 d8 48 a1 71 24 44 e1 3f 35 91 a6 04 0d f2 d4 bf
       0.5395681590400967 -0.3272736115852866
000370 28 f0 c6 0e 98 b6 d4 3f 73 40 08 57 0a 21 94 bf
       0.3236446518237721 -0.019657289087320295
000380 5f 9c 6b 30 93 34 9f 3f a0 b1 b5 55 f4 82 de bf
       0.030473995046943588 -0.476742824269218
000390 97 dc 75 44 c4 e2 cb 3f 51 cb 9a 20 23 7e e4 bf
       0.21785786955635864 -0.640397609406458
0003a0 90 fe ef a2 78 5d 93 bf 9c 3a 6d fc e5 b2 b6 bf
       -0.01891125196925586 -0.08866727268944391
0003b0 0c 2c 72 7e 54 b9 d9 3f 06 41 e3 1d 2d 34 d4 bf
       0.40193664882889446 -0.31568458479615946
0003c0 68 41 91 50 74 b7 d1 bf be 80 95 91 6b c7 d1 3f
       -0.27682216518316816 0.27779664246737557
0003d0 f6 90 29 a6 20 f5 e3 bf f7 fe e8 7b aa 16 e0 3f
       -0.6236727948530916 0.5027668399925166
0003e0 4a e0 30 cd f4 78 e3 bf f7 b1 6b ab 3f 6c e1 3f
       -0.6085151679644778 0.5444639537868728
0003f0 c2 6d 09 06 fb bb d2 bf d3 56 e9 68 3f 2d c4 3f
       -0.2927234229043415 0.15763085005408203

layers.0.fc.bias f8 [64]
000000 67 32 e7 ff b2 8c e5 bf 4c d0 7f 23 66 10 e5 bf
       -0.6734251974208519 -0.6582518285126837
000010 38 2c ac de 4e b0 d2 3f 39 74 56 fc 8a 02 e1 bf
       0.2920109915291422 -0.5315604141684452
000020 58 87 4f 05 3d 00 b1 bf 20 4a 94 3c bd ac e1 3f
       -0.06640988711981544 0.5523363288105578
000030 b0 c2 f2 11 51 26 d4 bf 9d 51 b0 a3 54 ea e1 bf
       -0.31483866455804854 -0.5598548123403365
000040 54 4d 88 d9 6b 59 d9 bf 9f a2 e7 3b 69 a1 d8 3f
       -0.3960828422870766 0.38485174989777166
000050 c0 8d d6 ef 5e 65 5b 3f b9 54 85 6c 42 b4 a0 3f
       0.0016721179120871982 0.03262527060238924
000060 e1 36 b0 46 39 d4 e0 bf e3 42 23 72 d5 12 d9 3f
       -0.5259062176353063 0.3917745222689019
000070 06 ec e2 39 f4 8f ca 3f 6b e3 af ab 14 ae cd 3f
       0.20751812769398742 0.2318750227275602
000080 1f 58 4c c2 a6 70 e2 bf cd 62 80 87 04 fd a0 3f
       -0.576251391876898 0.033180371800147414
000090 b1 d7 b3 f3 fd 0e d6 bf 1a 9e c5 d8 36 a1 e1 bf
       -0.3446650390536617 -0.5509294732882524
0000a0 74 11 7b 37 7d 7d d8 3f 9a 1d e6 36 cc 97 cb 3f
       0.3826592485240987 0.21556999855623077
0000b0 61 1f c9 96 40 e2 e3 bf c3 34 68 74 54 92 e3 3f
       -0.6213686890632567 0.6116125367713255
0000c0 9f f8 a2 40 91 c2 da 3f 36 89 ce bf 6f c7 ce 3f
       0.4181254512040002 0.24046131959500777
0000d0 92 bf e4 6b bf d4 bd 3f a6 4b 7c 44 ee 91 d3 3f
       0.11652752288932636 0.30578190506019565
0000e0 98 4c 68 46 48 01 c5 bf 98 cc c2 f1 c1 14 a7 bf
       -0.1641016334329819 -0.0450802428835228
0000f0 72 4a b6 5a cd 53 e3 3f d3 74 d2 98 df 55 cc 3f
       0.6039797565193352 0.22137064897552836
000100 cb b8 3a db ce 64 ce bf 1d 06 ee 60 6b a9 df 3f
       -0.2374514170127838 0.49471554246710686
000110 5a ce 2f 03 9b 4a d9 3f c0 69 e8 1a 8a 75 cb bf
       0.3951785594101459 -0.21452452005253342
000120 59 68 a3 d2 69 11 e1 3f ab 12 50 9d 18 ca d2 3f
       0.5333756555585395 0.29358497011734624
000130 f1 c5 5a 99 98 9b e6 3f be 5a 8c 3d a0 ae d7 bf
       0.7064936633307167 -0.37003332148143986
000140 63 e7 cb 8c 2c ae e5 bf 7c 35 ce f7 6b 86 33 bf
       -0.6775114774638776 -0.0002979291528440659
000150 13 7f 97 4f b9 6d e2 bf b4 b8 25 04 ba 35 d4 bf
       -0.5758940271880156 -0.3157792129994832
000160 80 7c f1 12 07 33 c1 3f 49 25 47 b0 d7 c3 e3 3f
       0.1343697397705661 0.6176565592697126
000170 df dd 9e 37 26 0c 6a bf 26 86 8f e6 41 e7 c3 3f
       -0.00317962135610704 0.15549491651386055
000180 db 4d f3 55 c3 37 d3 bf c5 ca fc d9 cf 87 d1 3f
       -0.3002785052642289 0.2739143017562749
000190 8e 50 1c 91 35 d8 ca 3f 59 f0 76 88 92 49 db bf
       0.20972318253973693 -0.426365502611366
0001a0 27 f4 14 f9 46 0c cf bf e7 cf a4 af 61 ab da 3f
       -0.2425621715755437 0.4167103019019564
0001b0 42 e4 65 bf a8 06 de bf 42 54 9d 9d cd ef d9 bf
       -0.4691564435120804 -0.4052614249424701
0001c0 fe c2 99 fe f3 1c d5 bf ba 46 a1 11 47 6d c1 bf
       -0.3298921572050374 -0.13614738808478483
0001d0 ff 7a 52 f1 f7 42 e5 3f 88 92 6a 64 94 d3 e0 bf
       0.6644248689006814 -0.5258275948768452
0001e0 a6 60 c2 c1 90 65 d3 bf 8e cc 7a f9 21 e4 e0 3f
       -0.30307406350903887 0.5278482315683435
0001f0 23 b1 33 01 34 1f b5 3f 81 c4 5b 93 55 c8 d6 3f
       0.08250737218231001 0.35597743406749066

layers.1.fc.weight f8 [64, 128]
000000 69 6c 74 b5 60 6f 86 bf 36 29 f5 24 55 59 b3 bf
       -0.010954623735008622 -0.07558185722624419
000010 28 55 ad c1 ad 91 93 3f 77 55 5d db 78 c0 8a bf
       0.019110407777891997 -0.01306242389152133
000020 a6 cb 61 9a 10 5b b2 3f 7c b8 74 1f 0f bd b1 3f
       0.07170203942386752 0.06929106252639089
000030 03 89 81 19 8c 66 ab 3f fa 8e 8f aa 80 ca a3 3f
       0.05351674853661061 0.038654347248465684
000040 c9 eb c7 7f 64 de 89 3f 22 80 07 82 01 66 b1 bf
       0.012631211423458926 -0.06796273636382513
000050 6b 54 8e e3 da 35 8d bf ba ac 07 9e 02 7a 8c 3f
       -0.014262876576859726 0.013904591033642045
000060 9d 1b 34 09 8e f4 4d 3f 33 fb 4f 41 c0 eb a2 3f
       0.0009141629729193416 0.036954887364109366
000070 97 d7 90 ad d9 2e 59 3f 94 3a ae 8f 24 38 a5 bf
       0.0015370488893160278 -0.04144396070397707
000080 62 be de 18 d7 0a b2 3f b2 27 a4 2d ac 2f a0 bf
       0.07047790867977136 -0.031613712855757994
000090 0a d9 51 70 08 85 a3 bf 2c 37 98 71 09 6d a1 bf
       -0.03812433596697147 -0.03403501044895871
0000a0 5d 1b 50 67 f3 27 b1 3f 76 a3 06 78 6d 96 92 bf
       0.067015850756531 -0.018151960802842614
0000b0 2e 86 73 4c cb 1b 9d bf 28 76 3a da 81 fe a7 bf
       -0.028426338711943604 -0.046863611115650905
0000c0 93 c5 d7 c7 be 70 7f bf 01 e4 34 47 52 9a 84 bf
       -0.0076758816116905436 -0.010059969709447005
0000d0 2f 59 6e ba 1a cb a3 3f f6 5c 94 18 42 08 ba 3f
       0.03865893865365632 0.1016885099419261
0000e0 ec 83 86 09 9f f6 a9 bf c2 9e 82 55 56 84 b5 bf
       -0.050709695732855525 -0.08405055606510373
0000f0 95 64 05 38 b7 e4 a8 bf cd 3d 05 c7 07 ac a5 bf
       -0.04861996229983238 -0.042328112644664274
000100 11 aa 11 a2 a2 f7 a3 bf 1b 7b f0 e6 a4 ac a6 bf
       -0.038998682292760496 -0.044285920325128646
000110 0a e1 7d 1d 3e 33 b0 3f f6 a8 3f fd 86 a2 6e 3f
       0.06328190059673858 0.0037396084317055057
000120 68 ca 1e 38 81 5d af bf 1f 00 e8 f3 8d 7b 95 3f
       -0.06126025972425425 0.02097913552461261
000130 b5 0d 27 e9 04 17 b7 bf f7 98 6b 69 98 92 b2 3f
       -0.09019499485207556 0.07254936765420782
000140 57 b8 42 7b c4 03 a5 bf ee f9 86 ca a0 a3 18 3f
       -0.0410443687882071 9.399098292470879e-05
000150 54 02 3a ed 45 a2 b2 3f 3f e9 bd 4b f6 46 b0 3f
       0.07278859178223601 0.06358279561201118
000160 04 19 7d fa 6b eb 99 bf e7 1b a3 03 03 41 9b bf
       -0.025312125362028773 -0.02661518773745888
000170 c8 86 d9 c9 82 50 a2 3f 24 27 11 5b 59 31 b0 3f
       0.03577049936280968 0.06325300668063655
000180 ee 9b 99 ef b2 71 b1 bf e1 73 83 48 76 fe a5 3f
       -0.06814115857706302 0.042957016326660165
000190 0f 4a 2d 23 84 46 82 bf d6 61 8b 78 69 67 89 3f
       -0.008923561404718531 0.012404273978447938
0001a0 36 ef 77 55 75 31 b2 bf 69 de 9c c6 1d 20 b3 bf
       -0.07106717430718565 -0.07470880602783726
0001b0 38 01 1b d9 01 e7 ba 3f 32 e6 0c 1e 92 43 74 bf
       0.10508739042689264 -0.004947253008873486
0001c0 0d 6b 4f 95 29 bf a2 3f b9 22 0a 96 63 7d 9f 3f
       0.0366147036326848 0.03075175860661503
0001d0 aa 2f 0f f0 49 06 a6 bf 1c 39 a5 5f e1 bd b1 bf
       -0.04301672988330492 -0.06930359444706763
0001e0 c4 66 7b 06 77 87 a0 bf 40 f0 7b a9 1c 29 ae bf
       -0.03228351549269129 -0.05890740937135819
0001f0 0c 8f 67 1b 8d e6 a0 3f 93 3a 6b 27 42 0e a5 3f
       0.033008966059950934 0.041124408065674654
000200 9a 84 42 ec 87 49 b3 3f c2 14 77 e4 ff f7 b5 bf
       0.07534074323713683 -0.0858154232765456
000210 27 a0 60 38 9f f0 b6 bf 49 68 a3 00 83 c2 99 bf
       -0.0896090996399158 -0.025156065858802177
000220 8a 0e c4 20 9f 5a a4 bf e8 e9 3c c2 62 1c 93 bf
       -0.03975388789151875 -0.018662970643370885
000230 58 59 45 e5 6f 84 a0 3f 9d ec f4 69 ad a0 a3 3f
       0.032260414826555006 0.038335246261760526
000240 0e 04 c6 7f ba 3c b8 3f b2 70 f5 c1 3d 06 b4 3f
       0.09467664355726432 0.0782202337772471
000250 66 ab fc 1f a2 9e b6 3f 36 44 c1 87 d3 08 b6 3f
       0.08835805207188016 0.08607217850045931
000260 e7 b2 f5 57 8d f8 b6 3f 16 36 5a 00 a4 11 6d 3f
       0.08973010442214112 0.0035484507705578856
000270 c9 8b e0 91 97 c0 b1 3f 82 1b 5a c6 91 19 b5 bf
       0.06934497176602784 -0.08242140858247463
000280 f4 02 c8 0d 1a 65 93 3f 26 e9 44 c4 74 21 a6 bf
       0.018940360156196115 -0.043223999937668275
000290 9e 65 77 e2 1a 98 85 3f aa 71 56 ab 15 78 a9 bf
       0.010544023548322564 -0.049744298138850354
0002a0 23 e9 98 63 59 b2 b2 3f 3a bb 92 9b 9e 9f a5 3f
       0.0730338924558152 0.04223342560850658
0002b0 0f ce 9d 84 14 7b ab bf 95 d7 5f 94 10 f1 77 3f
       -0.05367340201237535 0.005845131649030129
0002c0 ab 83 72 93 92 5f b5 bf 5d 70 89 f3 42 8c 95 3f
       -0.0834895715693295 0.021042867769537888
0002d0 bc f2 6a 74 a2 da 94 bf 33 95 45 90 d0 a1 b2 bf
       -0.02036527476842552 -0.07278159639607366
0002e0 11 91 a4 38 00 4b b1 bf 75 3c 4d db 8c be 82 bf
       -0.06755067236787606 -0.00915250820403755
0002f0 0c 82 30 e0 3d 2c a9 3f 63 97 38 2a a1 96 a0 3f
       0.04916566240013162 0.032399212268770204
000300 57 9d 6e bc 66 dd a2 3f a3 18 8d 46 7a 09 92 3f
       0.036845407964672 0.01761427932367411
000310 74 dd 5d d1 00 8d b0 3f 22 5c f4 fc a3 58 95 bf
       0.06465153800478679 -0.020845949472541155
000320 0c 76 75 d0 aa 4d 9c 3f f1 19 8c 84 a3 64 aa 3f
       0.027640027020757116 0.051549062662207386
000330 f2 fc c7 89 1d ae ae bf ce 97 8b 80 78 a2 82 bf
       -0.05992214495562988 -0.00909895078934744
000340 10 3e 42 fd 8e 40 8d bf 4a 04 15 d8 dc 97 ab 3f
       -0.014283291915744761 0.05389299524041087
000350 da aa 88 d3 3f e2 8b 3f 77 03 55 b3 ee 55 ad 3f
       0.01361513008403874 0.05729623736488681
000360 d9 b7 d5 e2 a8 e4 98 3f 44 e7 c9 ba bd 4d aa bf
       0.024309767575168315 -0.05137436776290241
000370 e2 95 fa b1 4e 27 a3 bf 5b 87 56 97 d6 a6 b2 bf
       -0.03740926668733004 -0.07285824961448155
000380 d4 06 be 34 7e a7 b2 bf 62 15 a7 01 92 56 8a 3f
       -0.07286824023870092 0.012860432315288054
000390 ab 69 b0 4c d8 bf a0 bf fc 98 09 44 05 bf 87 bf
       -0.03271366058489219 -0.011594811571921763
0003a0 f2 05 92 47 00 bb b5 bf 75 48 98 69 fd 72 9a bf
       -0.08488466021847055 -0.025829276628492843
0003b0 b4 37 fe 09 db 65 af bf 85 ba 7b 2e 85 20 b5 3f
       -0.06132397171960183 0.08252746949049523
0003c0 4f 5f 34 5f 5b 99 b2 3f 6a e9 eb 7c 74 ac 86 3f
       0.07265254091578054 0.011071119367888033
0003d0 fe ba 4b 5e b6 72 a0 bf 1a 77 3e 01 68 ea 73 3f
       -0.03212518597671553 0.004862219113332756
0003e0 d5 59 30 f7 c5 e0 a2 bf 7d d6 f0 c5 76 f7 3c 3f
       -0.036871134209082314 0.0004419960950515568
0003f0 f0 3f a3 03 9e 9d 83 bf 48 68 d8 6e 10 f9 b4 3f
       -0.009577974782956716 0.08192541795907105
000400 71 ce 03 e1 a3 70 a7 3f ac 60 2b 4a 64 e0 a4 bf
       0.04578125116122756 -0.040774473241698445
000410 22 b6 fd 6a 98 bf 53 bf fc 8f 87 50 7f 44 8b 3f
       -0.0012053478676209502 0.01331424202448516
000420 be eb e1 8a b3 3a b3 3f e2 21 ab 13 82 e8 b3 bf
       0.07511446133314245 -0.077766542245747
000430 02 69 67 ff f1 0b a5 bf 20 c8 f9 e1 ed 52 90 3f
       -0.04110676043247176 0.01594134990450169
000440 f4 f2 b4 ec 67 58 87 3f cd 2b 19 d0 06 41 ad bf
       0.011399089728564495 -0.057136738684299006
000450 f1 72 b5 a9 bf 3a b2 3f 9a 0f 99 20 ba 01 af 3f
       0.07120893376618277 0.06056005142138972
000460 10 45 15 85 f3 7d 9f bf 2f 2c 2c 33 7b 49 77 3f
       -0.03075390338682832 0.005685311555462965
000470 c3 42 ac 38 cb 4c b0 3f 2a 0f ec b2 43 3b a8 bf
       0.06367178090682572 -0.04732715186221832
000480 2e 6b 29 48 ee 99 aa bf e8 38 c1 05 08 8d 64 3f
       -0.051955648716747724 0.0025086552323393303
000490 3e c2 59 d6 de bf 70 3f 64 a8 26 c0 c8 9e af 3f
       0.004089231928091906 0.06175830216973635
0004a0 4c ae 4b 0e b5 8a 93 bf 8a 9a 00 d9 c1 4d 9d 3f
       -0.01908381366494742 0.028616932744763214
0004b0 67 2a 5c 15 6b ca b0 3f 2d dd be 36 99 76 7f bf
       0.06558865806088364 -0.007681463710404385
0004c0 71 6c ba cd 92 c8 b9 3f 1c ad c9 16 aa f8 a1 3f
       0.10071675799047043 0.03510028389140471
0004d0 95 b9 97 55 aa 58 64 bf 09 ba 9f c7 ef 05 84 bf
       -0.0024836851923659233 -0.009776948241747812
0004e0 d2 2a c2 32 3b 1c b3 3f 80 c7 3b e1 94 f2 ad 3f
       0.07464952458591803 0.05849137544090777
0004f0 bc b5 36 22 ff 21 ad bf 21 4c 0f 4b 44 e2 9d bf
       -0.056899998594740236 -0.02918345173004522
000500 7b 74 16 30 66 7a 8b 3f 14 3e 72 69 f7 46 92 bf
       0.013417051641960711 -0.017848840533188762
000510 64 29 db cb 0c 99 b6 bf 0d 0b a3 5c 6d 2e 92 3f
       -0.08827285744624686 0.017755230692965408
000520 e8 ce 2d 78 cf 54 91 bf 32 9f cb 8c b6 eb ab 3f
       -0.01692508860601452 0.054532723128259866
000530 7e 76 17 48 39 b9 b3 bf 9e 2d 10 26 7a 1a a2 3f
       -0.07704504022646039 0.03535825457228302
000540 5c 39 85 9f 96 79 af bf 60 7c a8 74 a4 38 a5 bf
       -0.06147452065725886 -0.0414477722554174
000550 67 82 19 ae 7c ee 97 3f 7f 77 c6 4e a1 d1 b0 3f
       0.02337069332713995 0.06569870160316603
000560 80 85 52 16 9c 7c 54 3f cf 4e 6b c3 12 2c b1 bf
       0.0012504123963384683 -0.06707875510192739
000570 dd f4 8d 51 18 a9 ad bf 8e f9 6e 8b 5e 7c a2 bf
       -0.057930717425713964 -0.036105112572374684
000580 3c cb 8a 47 ed 44 94 bf 00 e1 6f 85 cd 9b a4 bf
       -0.019794185153567442 -0.04025118116254767
000590 2a fe 26 80 d1 99 a5 3f eb f2 53 df 55 2c a3 bf
       0.04218916596755336 -0.03744762755557026
0005a0 94 2d ff c7 10 e8 a8 3f d6 f8 b9 7d a4 d8 9b 3f
       0.048645519651098784 0.027193613218053546
0005b0 36 e9 fd eb 55 b7 9c 3f 8f e2 24 de 01 0f b2 3f
       0.02804311993484384 0.07054149316253187
0005c0 9f dd f0 4a 74 1d b4 bf c6 4c 4a f1 e6 c5 68 bf
       -0.07857443647014016 -0.003024054584167854
0005d0 f9 11 00 14 16 fd a7 bf e8 2d 59 4c f5 f1 85 bf
       -0.04685276979583714 -0.010715404884783689
0005e0 53 d0 be e3 3e 13 6f 3f aa b3 e1 ea 1e d1 a1 bf
       0.0037933567345707435 -0.03479858987052549
0005f0 46 ad ed e3 70 ee 98 bf 29 16 08 db 19 5f b5 bf
       -0.024347080146452947 -0.08348237607432253
000600 de 6e 41 44 2e 29 b6 3f 65 dc 77 1a 2e ce 99 bf
       0.08656586805721697 -0.025200577130786068
000610 ff 92 e2 75 83 1a aa bf b3 d3 b8 82 02 ac 8b bf
       -0.05098353208567196 -0.013511676420515295
000620 c5 ee 40 b6 81 e5 b2 3f 78 45 cc 05 b7 84 b4 3f
       0.07381449412872161 0.08015006915618084
000630 91 72 80 37 3a 36 8c bf bc 32 0b 1b cc b1 90 bf
       -0.013775305575159965 -0.016303242827052186
000640 c7 32 37 90 75 0f a8 3f 2b 69 8b 7f c3 c4 af 3f
       0.046992944578595756 0.06204806262913317
000650 eb 30 bd 54 85 95 b2 bf e4 7a 27 40 6f fe b2 3f
       -0.07259400671790998 0.07419486347451315
000660 48 e3 c6 c9 b6 a9 a4 3f f2 d9 af a3 e6 71 89 3f
       0.040357315188379206 0.012424280042961453
000670 14 0d c8 2c 19 56 83 bf 47 c6 e9 34 3f 5b 8e bf
       -0.009441563300248514 -0.014822477152139813
000680 4b 5a e7 79 5b 75 a7 3f a9 40 cd f7 81 4b ab bf
       0.0458172403629545 -0.05331045293735432
000690 a3 e8 d0 05 87 f0 b4 bf 43 f9 2c ed 34 49 b7 3f
       -0.08179515735619929 0.09096079626485669
0006a0 57 9a 9b 80 d2 de a1 3f c1 a0 ca f4 54 ca aa bf
       0.03490312404556011 -0.05232491958787611
0006b0 2f 2c cb 77 a9 7f b2 bf 32 f3 b0 0b 98 ae 9a 3f
       -0.07226046728753553 0.026056647981238253
0006c0 4f b1 32 6c 6f 4f 81 bf 51 21 89 22 d5 61 a9 3f
       -0.008452291955415218 0.04957452818468034
0006d0 66 49 f7 08 eb 92 b9 3f f7 71 bb f6 b4 4b a5 bf
       0.09989804238219832 -0.0415932227312829
0006e0 9b ad fa b7 4e cd 78 bf cd e7 e4 66 fc e0 b2 3f
       -0.006055171484756451 0.07374551307739736
0006f0 cd 61 e1 19 9d 0e b2 3f a3 c7 90 94 eb 4d 99 3f
       0.0705354870018546 0.024711304609986617
000700 a7 21 55 f5 6c 3f 99 bf 8e 62 6d b4 aa c6 a0 3f
       -0.024656012033376886 0.03276570751649387
000710 1d 92 35 63 82 ea 62 bf bc 5c 7d 8c 6b dd a0 3f
       -0.0023090883857313075 0.03293930139505494
000720 13 1e 86 c5 5a 41 a2 bf d7 d8 02 89 0c 08 ab bf
       -0.03565486584835411 -0.05279578373431242
000730 dd f3 ab f7 a1 a6 a2 3f a5 e8 52 77 79 1e a3 3f
       0.036427556498871395 0.03734187680807225
000740 f2 9a 72 8b 16 6c b0 bf b2 6c a1 eb c7 e7 b0 bf
       -0.0641492929886274 -0.06603669645976387
000750 a1 9b 68 1c df 60 a2 bf e7 95 65 4c 67 f5 a6 3f
       -0.035895321100091644 0.044841030193122404
000760 45 fd 39 75 56 51 b6 bf 4b 97 b5 ff 9f 61 9e 3f
       -0.08717861520743948 0.02966928480363799
000770 04 12 39 81 96 ad a0 bf 2b f2 dd fa 4e cc a4 3f
       -0.03257437064579352 0.04062125027028104
000780 46 1d 6d f0 2a 8e b2 3f be c3 5b e5 19 ca a4 3f
       0.07248180742054897 0.04060440945421061
000790 32 2c b1 c0 10 8b 83 3f 94 2b 02 2d 72 42 8e 3f
       0.009542590027328133 0.014775173185872771
0007a0 0b e0 5c 1e 54 0e b6 bf d6 c3 54 a6 71 6b b1 3f
       -0.08615613690642492 0.06804571448152727
0007b0 31 16 81 ef 61 52 b2 bf dc 8a fd 74 72 3a a0 3f
       -0.0715695581175957 0.03169591596703977
0007c0 db 04 86 d4 fd bf 96 bf 13 37 1b 10 8d d8 b4 bf
       -0.022216764542012917 -0.08142930644245565
0007d0 a5 a9 76 3c a1 fa a0 bf ac 2f 0b 93 29 8b a7 bf
       -0.033162153845597765 -0.04598359985320086
0007e0 f2 c0 a2 2e 64 82 8b bf 9e 4e a9 db 35 2d aa 3f
       -0.013432295487604471 0.05112617784894023
0007f0 5d 9e 7d 76 03 9f b7 bf a6 c8 ed c2 62 89 a6 bf
       -0.09227010386313723 -0.044016920371079224

layers.1.fc.bias f8 [64]
000000 ed 7c 7d e1 8c ed 93 bf bb d6 69 f0 ce 28 89 bf
       -0.019460870039776635 -0.012284867011867253
000010 2e a5 7c 7e 8a e4 a0 3f a2 7c c4 69 34 09 a4 bf
       0.03299362939862714 -0.039132726584506075
000020 68 56 55 7b c4 cc b1 3f a5 31 3f 33 46 11 a5 3f
       0.06953075419490917 0.04114741683551707
000030 f1 bc 09 2c c5 31 ac bf ac d5 8a 52 b5 e9 5b bf
       -0.05506721651624414 -0.0017036696173538908
000040 d8 62 de de c0 8b 93 3f 9f 91 c1 4c 6c 2d a1 3f
       0.019087804415536563 0.033549675340313494
000050 7c 6d 51 71 71 a3 95 3f f4 ff e4 24 e1 57 8d 3f
       0.021131298581491972 0.014327773035461157
000060 ac 2e ce 03 79 37 9e 3f d2 af c4 ff bf d1 ab 3f
       0.029508486611617243 0.054334640475957166
000070 67 a0 c5 5e 5f 0a 91 bf f6 e7 cc c8 76 58 b0 3f
       -0.01664113059942487 0.06384985353807324
000080 9f ac 2e 59 e0 67 b0 3f a5 05 b7 7f d9 84 7a bf
       0.0640850274782445 -0.006474351506257224
000090 cf c7 9d ce 54 9c b1 3f d7 ff 61 a1 ff 1b b6 3f
       0.06879167599052426 0.08636472406396876
0000a0 bf 97 1d 42 e0 3d 90 bf 4c 99 9b 26 73 e1 b0 bf
       -0.01586103824174478 -0.06594009106229243
0000b0 2e c9 8f ad 01 e3 ac 3f 3a e4 6f 76 8f 39 a0 bf
       0.05641942256615305 -0.031689151008273034
0000c0 5f 8a b8 a9 ca df 61 3f e5 a4 4f 03 25 45 a2 3f
       0.002181907487981235 0.03568378129404851
0000d0 37 57 e3 9e 78 2a a6 bf 3c 6a 55 d7 5e b8 9e 3f
       -0.043292779346002445 0.030000192540095436
0000e0 d5 f6 a3 fe 11 8f aa bf 30 66 78 f4 35 8a a0 3f
       -0.051872789701503365 0.03230446442848878
0000f0 3f 3b d9 04 48 84 a2 bf 27 ac fb 7b 1a 3f b0 3f
       -0.03616547640978362 0.06346288229876561
000100 91 10 70 e6 2e 30 7a bf 7d 1b 61 25 ef 6a ae 3f
       -0.006393607333851873 0.05940959292688939
000110 97 54 36 2e 3e 1e aa bf 14 5b ad 61 73 05 a5 3f
       -0.05101198495973696 0.04105721061085013
000120 12 c9 6f a1 87 d3 98 bf e6 39 eb 96 12 a8 9d 3f
       -0.024244422176658516 0.028961458646159864
000130 66 ce f2 cf e3 80 ab 3f f3 bc 3c 60 fe 90 87 3f
       0.05371772683556912 0.011507022201469463
000140 d1 0b bb 76 58 2e 81 bf 62 65 27 7b 88 6a 48 3f
       -0.008389178393718584 0.0007451216136430789
000150 c6 37 76 a2 07 3e b1 bf 88 d8 3d 48 96 54 b5 bf
       -0.06735274998047122 -0.0833219457980211
000160 99 8e a8 46 09 53 ad 3f 55 0e 2f 33 d6 d2 b0 3f
       0.057274141192718626 0.06571711301426693
000170 39 20 bc de 80 f1 a0 3f 1e e1 f4 ab ad bd a1 3f
       0.03309252470904806 0.034650256386557596
000180 38 31 c2 fe a8 f1 a9 3f a5 ea 86 f1 a6 f9 a7 3f
       0.05067184552999254 0.046826569541243125
000190 9f c0 62 84 04 77 af 3f db ce 66 0d b2 70 b2 bf
       0.061454907570238186 -0.07203209712207174
0001a0 cf 27 51 db 4e af 7f 3f 94 07 f8 e2 bb 85 b1 3f
       0.007735546144496965 0.06844686785919257
0001b0 5c 45 3d 2a 99 51 a9 bf 2c 32 f2 a3 11 ed 97 3f
       -0.04945067062966288 0.02336528361461114
0001c0 62 dc 54 5b 76 05 93 3f 0c 14 78 72 8a b1 b4 3f
       0.01857552463954127 0.08083405775694547
0001d0 b8 01 23 04 c9 71 90 3f 50 45 dd 93 eb 08 ab 3f
       0.016059056165205837 0.052802430915685705
0001e0 d9 df e5 7e b5 28 8b 3f ad 57 93 d1 c0 b4 b0 3f
       0.013261239943616875 0.0652580749186586
0001f0 f6 3e d3 65 d2 6a a7 bf 2f 3e 71 ae 37 fc a1 bf
       -0.04573686116202495 -0.03512739185736923

layers.2.gsds.0.weight f8 [2, 64]
000000 88 7b a9 5a 1a a5 b2 bf b4 47 89 82 5b 12 ab 3f
       -0.07283177102497806 0.052874431309319375
000010 17 50 8d fb c6 f5 a2 3f 4b f4 f2 9a d6 c4 b6 3f
       0.03703138180449644 0.08894101412711668
000020 1e 66 b4 ee 10 42 b2 3f 6d 3f 17 19 55 d5 bc 3f
       0.07132058933020644 0.11263019430702821
000030 3f d6 60 b9 5a c4 ba bf 6c 88 2d 9e 05 f4 9b bf
       -0.10455863023602151 -0.027298057345781876
000040 d9 13 05 16 1b 60 b9 bf 2b dd ea 3a 91 93 a1 bf
       -0.09912270820230108 -0.034328974191732385
000050 7c e4 a6 67 08 e7 a0 bf 95 89 2f dd 78 d3 b0 bf
       -0.03301264062196993 -0.06572680854836783
000060 93 e3 e9 6a 46 82 c1 bf d6 bf 5a ae b8 b8 ad 3f
       -0.13678817959205655 0.058049937518603364
000070 66 ea 57 b4 a0 90 af bf 9a 84 61 84 96 c0 ad 3f
       -0.061650297178819355 0.058109954509526676
000080 fd 38 d0 e4 7b 2a b5 3f 7f d7 67 0a d8 e1 64 3f
       0.08267950378669649 0.002549097017658874
000090 35 9f 15 18 9d 16 a6 bf 40 1e 37 24 c9 cc bc 3f
       -0.043141278448102595 0.1124997819343827
0000a0 96 f3 86 29 be c5 b2 3f fa 79 93 fa 9d 4e b1 3f
       0.0733298159966139 0.06760585181789472
0000b0 94 42 da a1 34 2b be bf 99 e8 bd 4b 64 03 a5 3f
       -0.11784676505545583 0.04104150223334208
0000c0 d2 e8 2b 92 40 38 95 bf 64 d7 25 43 d9 f6 b1 bf
       -0.020722397729493754 -0.07017286195136091
0000d0 b1 09 2d 25 58 6c bc bf 7c f3 66 e0 32 8e b9 bf
       -0.11102820308318574 -0.09982603052681144
0000e0 1e bf e3 44 d3 cc b3 bf ad 32 8d 8a fc cc a6 bf
       -0.07734413558841566 -0.044532672799140506
0000f0 65 62 99 50 fd b8 aa bf c6 3f 31 79 8c 0e b4 bf
       -0.05219260796429096 -0.07834699591444325
000100 86 18 db a2 ec a7 bf bf 1d c0 f4 87 8e f3 92 bf
       -0.12365607238743523 -0.018507220314120432
000110 0d 1f 36 57 73 93 b2 3f a8 b5 b6 6d 10 c3 ba bf
       0.0725624168318257 -0.10453894308621747
000120 1f ef 26 4d 43 52 c1 3f 3a 8c 52 63 27 d2 a2 bf
       0.13532296435538968 -0.036759596704790856
000130 7e 33 15 fb 10 e6 b2 3f de 09 c6 7b 41 cf 9c 3f
       0.07382303361846529 0.02813436811403302
000140 b7 99 ff 9f 96 23 bb 3f 63 70 cc bd 06 c3 b2 bf
       0.1060117855664434 -0.073288365685984
000150 77 55 d5 f8 4b 96 ba bf fd 66 34 33 e9 6a b9 bf
       -0.10385584664375878 -0.0992875814448801
000160 4f 44 cc 61 22 91 b7 3f d0 f3 ae c0 a0 dd bc bf
       0.0920583237423369 -0.11275677398857842
000170 61 e6 db b5 f3 72 b5 bf 23 1f 14 cc 0f 00 a9 3f
       -0.08378527822414973 0.048828595792711725
000180 6d 42 72 bc 0d 54 ab 3f 49 c6 fb 55 06 f4 a0 3f
       0.05337565350885574 0.03311176108935549
000190 61 f7 ba ba 0f fa 8b 3f dd c2 c4 49 1c 9e b5 bf
       0.013660548101480154 -0.08444382477751895
0001a0 fd fe dd 57 08 e4 a9 bf fd 77 75 3e d3 33 96 bf
       -0.050567875600789215 -0.021682072341143045
0001b0 d6 61 a9 7b 96 d6 bd 3f cd 23 a2 c5 8b 87 b1 bf
       0.11655560034831267 -0.06847451758416341
0001c0 df 14 4c 13 7a 11 9e bf a3 76 c3 48 05 b8 b1 3f
       -0.02936354391842577 0.06921418215230317
0001d0 a8 54 6a f1 f8 1d a7 bf 78 8f 94 fa 52 3c 87 bf
       -0.04515054652180456 -0.011345527908424677
0001e0 65 fd 4e d0 bc e7 b9 bf b8 44 aa 48 c6 99 b5 3f
       -0.10119228444726998 0.08437766336489261
0001f0 b5 fe ee ef 55 67 9f 3f f5 2c 54 20 b8 01 b2 bf
       0.03066763188303297 -0.07033873357083904
000200 1f 90 62 de 58 41 a8 3f 8f 23 60 a8 71 f8 bf 3f
       0.047373559137924064 0.12488470421534557
000210 11 bb 95 13 f2 7b bc bf 64 04 bf d8 f2 89 93 bf
       -0.11126625993868468 -0.019080919722686565
000220 77 81 01 b4 d6 95 c2 3f 45 98 fb 10 1a d3 b5 bf
       0.14519771375035948 -0.0852524081670661
000230 37 d4 9a 7c 68 6a b6 3f 2a d3 71 9a 19 9b be bf
       0.08756115953549758 -0.11955413838024911
000240 17 46 8a 14 99 26 49 bf ff a6 8d a8 d9 3b b9 bf
       -0.0007675406896671702 -0.09856949200698394
000250 e3 c2 a7 2c cd 7a 98 3f 57 ba 80 bd cd 87 94 bf
       0.023905950403732567 -0.02004929989942136
000260 a9 92 ae ec ae 04 8c 3f 92 58 db 2c f6 c4 af bf
       0.013680807683905742 -0.062049572921453536
000270 01 cf 14 b7 2c a5 bf 3f 30 2f 5b 30 dd 1b 71 bf
       0.12361411542661573 -0.004176963824374089
000280 87 f9 de de 92 24 c2 bf c5 d9 d4 4b 08 9b ad bf
       -0.14174114115116884 -0.05782342839886526
000290 cd 7d 16 4c 23 e6 b5 bf 10 f3 e1 5e b7 db 7b 3f
       -0.08554287536252687 0.006801334659141359
0002a0 d6 32 15 8d d4 71 9b 3f 55 a1 a5 dc 17 8f 96 bf
       0.026801415549288908 -0.022030232279037183
0002b0 fb 94 e8 7e d0 a0 b0 bf 9f 1a e1 74 51 5c b0 bf
       -0.06495383356430644 -0.06390866378306236
0002c0 10 83 01 6c e2 4c b4 bf 44 0a 7d c7 f2 59 9e bf
       -0.07929816376555388 -0.029640000749404885
0002d0 42 9c 7c c6 71 49 b8 bf bc f3 16 8e e7 59 95 3f
       -0.09487067314022204 0.020850770995582954
0002e0 fa 35 e5 ee 86 44 92 bf cb 72 06 41 c4 a2 bf bf
       -0.017839535075202285 -0.12357737147835761
0002f0 e3 de 89 43 a2 49 bb bf 95 d8 5d 17 e4 bd bb 3f
       -0.10659231327906186 0.10836625643227855
000300 09 68 d4 69 e7 62 bb bf 0f 4b f8 1c a9 75 aa bf
       -0.10697790464146818 -0.051678929125179456
000310 0e 0d c4 f7 af 09 97 bf a1 af 3e 1a b2 17 b5 bf
       -0.02249789190046863 -0.08239281788581689
000320 68 d0 00 ab dc e3 b6 3f bd b2 b0 87 14 06 95 3f
       0.08941439795381856 0.02053100660502837
000330 08 cc 34 cc 42 98 b0 3f 46 d6 21 9e 93 d2 96 bf
       0.06482331738952507 -0.022287661100980814
000340 12 ed 3a 64 8a 48 a8 3f 21 69 a5 5e e8 fb a3 3f
       0.04742844079506815 0.039031278184398006
000350 30 25 68 d6 30 2c c3 bf c5 e2 fb bf 33 72 bb 3f
       -0.14978609532435305 0.1072113364897503
000360 db 70 b6 e0 4d ed b0 3f 05 d9 cf d7 50 57 ac 3f
       0.06612097488545336 0.055353666633822164
000370 94 37 e1 9b d8 a1 bc 3f bd ff 4d 88 99 d6 be bf
       0.11184457593591751 -0.12046203210593283
000380 49 e9 ea aa ad 1d 87 bf ca 8e bf be ba b4 bf 3f
       -0.011287075785152327 0.1238514629072213
000390 21 fe 83 60 a7 65 b7 3f ab 08 fa dc 53 ae ab bf
       0.09139486414277843 -0.054064388966268716
0003a0 8a 62 d7 48 08 f5 9a bf da 62 f3 74 ba 4d a6 bf
       -0.026325349279292122 -0.043561770225726895
0003b0 c7 68 a7 73 c4 1e a4 3f 0f 08 35 5a 22 78 a6 3f
       0.03929723655501643 0.04388530112420607
0003c0 65 43 61 d1 84 d8 b6 bf 34 ed fc ab ac 05 a6 bf
       -0.0892413150006753 -0.043012042994144656
0003d0 61 d3 03 c5 6c 30 77 3f 04 c7 3c c3 78 9b bc bf
       0.0056614159404845 -0.11174731031931279
0003e0 33 ff 72 c3 95 72 b6 bf 1c 50 25 a5 a4 34 b9 bf
       -0.08768592855176109 -0.09845952064398528
0003f0 ea 7b a3 9f 08 d2 b0 bf d8 a1 4c b4 a7 f9 a4 bf
       -0.06570485970904341 -0.040967217215726215

layers.2.gsds.0.bias f8 [2]
000000 27 33 b9 25 7d bd ba 3f f3 2d da ff 5a 48 95 3f
       0.10445387049658149 0.02078382670019425

log_envelope.log_envs.0.weight f8 [2, 1]
000000 3a d9 7a 3a 4d 2e e6 3f 10 91 21 f8 24 62 e5 3f
       0.6931520597634411 0.6682305189429218

step f8 []
000000 00 00 00 00 00 00 f0 3f
       1.0

exp_avg f8 [64, 2]
000000 2b ec 9c c7 db 46 dc 3c 60 48 dc e4 e2 e6 bd bc
       1.5696772255694087e-15 -4.149722180806739e-16
000010 2b b2 59 ca 57 65 eb 3c 74 2b 0c c3 4f fa c1 3c
       3.0415526570316156e-15 4.989836202583297e-16
000020 f9 2c 94 f3 e1 72 eb bc 9e e1 f1 0b 8b 0b ac bc
       -3.0474245622488883e-15 -1.9460190704456816e-16
000030 16 de 62 c5 b0 ef e6 bc f3 86 2a dc 57 14 95 3c
       -2.546439843654703e-15 7.313408780508481e-17
000040 eb 9d 55 af 93 9e 0a 3d a4 75 c4 8c e6 a9 b1 3c
       1.1821406517115941e-14 2.4513272192489615e-16
000050 f3 81 60 d0 fa 51 fc bc 39 16 d1 d7 c0 f0 c2 3c
       -6.288355029471597e-15 5.257028854227642e-16
000060 f7 10 57 f9 a8 c1 91 3c 6f ca 83 7b fc fc 82 bc
       6.16051813326036e-17 -3.2939324144838605e-17
000070 40 38 a7 f9 32 61 e5 bc b8 1c 77 84 f0 2f a0 3c
       -2.3736217513663006e-15 1.123217057899603e-16
000080 50 fa 86 7f 5a b0 ed bc e3 5d 2f 9c d3 d2 c4 3c
       -3.2961279141910355e-15 5.779693782971607e-16
000090 9b be bf d4 42 6d e3 bc 78 fe 6e 54 ed fe 94 3c
       -2.1568081777120024e-15 7.284384507269808e-17
0000a0 a5 06 4e d3 36 f8 c0 3c 6e 29 86 d9 eb 10 91 3c
       4.710006431917284e-16 5.920992439704464e-17
0000b0 c4 b4 a3 43 98 b3 ef bc a0 d6 54 27 be af c1 3c
       -3.519578197504425e-15 4.9089885668252e-16
0000c0 25 6d 36 3b 92 a2 e6 bc 8d 83 1d 28 4d 4c a6 3c
       -2.5129946804091405e-15 1.5472381929709329e-16
0000d0 5b 27 11 69 43 7d e9 bc 4d 9c d8 76 b8 77 ba bc
       -2.8298818678772268e-15 -3.6731254775225704e-16
0000e0 23 bb a4 ce b1 27 05 3d 46 64 72 ca ca 1d 95 3c
       9.394732490875107e-15 7.326214493453679e-17
0000f0 40 7d e9 dc a7 cc dd 3c c2 38 c2 34 dd 99 b2 bc
       1.654201019782794e-15 -2.581411693714662e-16
000100 15 3e c6 26 a4 d6 00 bd aa 14 42 f7 a4 f7 a2 bc
       -7.477770515036256e-15 -1.3161250512441162e-16
000110 3e 8a 57 d4 86 53 f3 bc 38 7f 94 52 70 7a ab bc
       -4.291295337810711e-15 -1.906688446471524e-16
000120 5a 72 f1 b7 c5 10 9a bc 1a 04 5e 6e 1b b2 88 bc
       -9.043292831700624e-17 -4.284026443608893e-17
000130 f4 6e 60 f6 36 17 e2 3c 0e 55 33 2f ee 33 b9 bc
       2.0084692142546426e-15 -3.497598482389133e-16
000140 29 37 30 9e 9a d3 c8 bc 29 8c e6 a0 7b 04 ac 3c
       -6.890759638521354e-16 1.9441053920513356e-16
000150 7d f5 3b 68 5e 05 dd bc 3c 3f 15 58 31 55 94 3c
       -1.6109875538580903e-15 7.054351610087577e-17
000160 af e6 76 03 f8 d9 d4 bc 98 c2 82 e0 06 42 97 3c
       -1.1574874745448746e-15 8.069211075233038e-17
000170 c6 f0 b2 91 e9 70 ca bc d2 19 cd 6f 55 dd b0 bc
       -7.338869507152982e-16 -2.340431308608899e-16
000180 e5 10 02 f6 18 90 bd bc 85 68 51 66 cc 03 a4 3c
       -4.102673877593047e-16 1.3888083489896937e-16
000190 bf 1f fe fe 68 9e e2 3c 6c 24 bb f7 86 1f a5 bc
       2.067100891879351e-15 -1.4657131892674487e-16
0001a0 96 74 aa 44 71 2a ff bc ea 02 90 01 65 ec aa bc
       -6.920195713348487e-15 -1.8681872875646474e-16
0001b0 4b 0d d2 c4 46 c3 f6 3c 4d 43 9f 88 1e e0 bb bc
       5.05435662138149e-15 -3.8684980090110186e-16
0001c0 ed b7 06 e5 30 cf ea 3c 90 b7 c3 10 ca ba a1 bc
       2.9764346346386935e-15 -1.2302413098404148e-16
0001d0 97 b8 e0 09 29 cc f7 bc 2e fc 6c 1b 83 61 d1 3c
       -5.2841067519605185e-15 9.648341451377974e-16
0001e0 df 38 1b 1a 04 8e e3 bc 3e 28 fc e3 a3 50 ce bc
       -2.1710133792057957e-15 -8.414102962034785e-16
0001f0 bf 4d 56 a3 98 61 c6 bc ca 8a 8e 86 53 a0 c1 3c
       -6.212040693395411e-16 4.892273946983318e-16
000200 29 92 41 98 65 a7 d4 bc 08 72 03 fd 8d d0 ac 3c
       -1.146521431287142e-15 1.9994191420593626e-16
000210 62 c4 0a b6 ee 9a f4 bc e2 34 57 ae 4c 6d ba bc
       -4.575274590823217e-15 -3.6674762268042593e-16
000220 2b 22 77 b3 84 4d ec bc 19 1c 6c 4f a6 52 b5 bc
       -3.142242700163232e-15 -2.9591399043519507e-16
000230 5e 53 ee 32 52 7b df bc f6 75 5f 04 65 8c bb bc
       -1.7475866868302203e-15 -3.823110772174799e-16
000240 49 10 7a 8b d5 93 e9 3c 49 a2 0c ea 00 39 c2 bc
       2.839670408320681e-15 -5.057807006666593e-16
000250 bc dc 6e 88 e4 5d d5 bc e3 44 8c ac 0f d4 98 3c
       -1.1860939111957329e-15 8.614069237943619e-17
000260 c7 08 ac 24 43 6f d9 bc 05 1e b5 bb 6f 60 55 bc
       -1.4119049415555892e-15 -4.635333981629942e-18
000270 d4 1d 60 a2 80 11 c3 bc fb ed 2c 5e e6 e9 b3 bc
       -5.292535591264559e-16 -2.763577059525509e-16
000280 51 b4 48 e0 b9 55 e0 bc 45 65 83 9f a4 0a b0 bc
       -1.813534599642263e-15 -2.226215663083909e-16
000290 af a6 aa 70 2a 01 c6 3c da d7 34 eb ae bd 98 bc
       6.107490578442411e-16 -8.58374146022325e-17
0002a0 e8 dd 62 ef 3e 17 fe bc a8 4d 99 99 54 bb 69 3c
       -6.681500700145549e-15 1.1159371882936774e-17
0002b0 d9 c5 bb cc 26 96 03 3d 8c e3 76 5e b1 7e b4 3c
       8.698166425813972e-15 2.84423789189992e-16
0002c0 84 8d 12 60 d0 03 f2 3c 7f 17 41 87 7f 13 b9 3c
       4.000110976785222e-15 3.4800169243500356e-16
0002d0 fb c3 9f a6 21 59 ca bc 98 0a 0f f5 df 25 7d bc
       -7.313086170415265e-16 -2.528181532752364e-17
0002e0 a0 4e 17 43 e3 96 f1 3c b6 8d b4 a8 7c 38 ad 3c
       3.905632538282467e-15 2.0275900504034323e-16
0002f0 6b 41 b9 aa f3 e7 e7 bc fe dc e1 87 95 98 b0 bc
       -2.6541060251422628e-15 -2.303162058123926e-16
000300 f3 b4 58 c3 9f 49 e3 bc 96 90 6f e6 ef 35 ae 3c
       -2.1413530993963745e-15 2.0962878541107245e-16
000310 f2 c7 23 fd ed a3 00 3d 9d 50 7a fd 35 e0 a6 bc
       7.389799959207127e-15 -1.5873291448111127e-16
000320 92 c7 b7 15 9c 46 f1 3c ab 4f 70 45 4d 12 a7 3c
       3.836002441377674e-15 1.6009063217878172e-16
000330 e3 32 08 03 b9 74 b7 3c 63 ae c7 f3 dc 2b 96 bc
       3.2551666996199245e-16 -7.692228872623862e-17
000340 9d 90 93 5d b6 f1 f8 bc d5 95 4e 4e a4 c5 a9 bc
       -5.5387225755152356e-15 -1.788294398595958e-16
000350 bf 66 d5 ae 35 2c d5 bc 54 81 d3 f5 1f d8 95 3c
       -1.1753206261963454e-15 7.578742381873711e-17
000360 dd ea 36 0d bc a7 f4 3c a9 f1 67 ab 78 36 af bc
       4.586378652413757e-15 -2.1658216034006126e-16
000370 94 78 54 f1 88 76 fe 3c 02 ce 79 f4 54 3b 87 3c
       6.764150812732368e-15 4.030068823826235e-17
000380 67 98 be 9e e9 fd f5 bc 01 48 f2 fa c4 c9 9d 3c
       -4.8831707588097e-15 1.0334844761313004e-16
000390 a8 5a 2e 75 97 8f cc 3c d7 0e 3c 10 65 26 a6 bc
       7.927243531514898e-16 -1.5369635845525312e-16
0003a0 a3 46 6a 55 43 b0 de bc 45 dc db 26 cf 65 78 bc
       -1.703555487231683e-15 -2.1161624653555613e-17
0003b0 48 b3 0f 8e b1 b2 ee bc 4d c7 d7 60 cf 3f a2 bc
       -3.408165058302785e-15 -1.2662966572278339e-16
0003c0 70 5f 11 42 91 fc e9 bc 2a 8b 63 98 b3 95 b7 bc
       -2.8850912173045738e-15 -3.27304456542235e-16
0003d0 35 c6 71 e7 5d 73 e9 bc 20 cc 39 6d 3c 64 b9 bc
       -2.825589941196181e-15 -3.523785019014379e-16
0003e0 58 16 b0 3f e6 ca e0 bc 5d b2 07 10 a1 a2 97 bc
       -1.8643504315435944e-15 -8.200131587818784e-17
0003f0 47 29 99 b8 a8 3e f7 bc 9a 02 11 a1 5c 5d a6 3c
       -5.16137399030953e-15 1.5518624343140196e-16

exp_avg_sq f8 [64, 2]
000000 26 b7 9a d0 4a fd 93 39 11 87 c1 1b 64 5a 56 39
       2.46388659247128e-31 1.7220194177879462e-32
000010 f1 3c 11 7a 6a c3 b2 39 a5 f9 de 96 f7 28 60 39
       9.251042565496093e-31 2.489846532861093e-32
000020 00 fd 23 fc fa d5 b2 39 29 27 16 ff c5 a9 33 39
       9.286796462597842e-31 3.78699022253828e-33
000030 2a 3d 2e 79 bd 4d aa 39 cc 9b 93 ff 99 37 06 39
       6.484355877352196e-31 5.348594799081863e-34
000040 ce 83 c6 74 01 b7 f1 39 65 d3 8e 7d 56 33 3f 39
       1.3974565204291145e-29 6.0090051358308534e-33
000050 2b 54 11 28 07 0d d4 39 17 2e c4 6c e0 ef 61 39
       3.954340897668078e-30 2.763635237418203e-32
000060 cb 5f 81 88 7e 87 ff 38 16 91 ef 5e 13 07 e2 38
       3.795198367022975e-34 1.084999075118749e-34
000070 3b 52 70 6e c3 da a6 39 2d ff bf 79 e7 33 1a 39
       5.634080218559232e-31 1.2616165591566413e-33
000080 0d 1b 19 56 26 09 b6 39 93 8f ed 9c 55 ae 65 39
       1.0864459226709361e-30 3.340486022492069e-32
000090 f9 65 27 47 ba de a2 39 17 79 d8 0c 8c 0a 06 39
       4.651821515445374e-31 5.306225764975249e-34
0000a0 ba fb 16 ab f3 cb 5c 39 89 ef 6d 52 0b 20 fd 38
       2.2184160588702216e-32 3.5058151471037464e-34
0000b0 e8 53 78 f7 eb 1f b9 39 eb e3 a0 79 fd 47 5f 39
       1.2387430688348516e-30 2.4098168749220565e-32
0000c0 73 29 64 c7 04 9e a9 39 c2 43 68 3d 33 dc 28 39
       6.315142263764646e-31 2.393946025787961e-33
0000d0 15 b7 17 89 1c 3e b0 39 03 ce 95 ba 6f 83 51 39
       8.008231386140313e-31 1.3491850773625428e-32
0000e0 01 37 c6 60 77 60 e6 39 60 b9 76 70 89 4b 06 39
       8.826099857510452e-30 5.3673418804090815e-34
0000f0 37 b6 46 b3 3d 33 96 39 e5 69 93 7a c7 4c 41 39
       2.736381013850439e-31 6.663686332446808e-33
000100 10 17 16 c5 72 5a dc 39 fd 81 3c 20 f0 fc 21 39
       5.591705187554565e-30 1.7321851505123298e-33
000110 75 83 e2 02 dd ac c2 39 52 9e 7b 37 5b e0 32 39
       1.8415215676315966e-30 3.635460831907998e-33
000120 fb 8c 51 44 3b fc 10 39 24 66 4d f1 73 7e ee 38
       8.178114523988799e-34 1.8352882569540283e-34
000130 39 4a 7b 7a 17 5d a0 39 48 3e 9f 4c 5a c2 4f 39
       4.033948584608666e-31 1.2233195144010782e-32
000140 c3 06 5c 18 65 d1 6e 39 6e 72 47 c8 e0 9f 33 39
       4.7482568395875e-32 3.7795457754030824e-33
000150 23 d1 cf 02 30 0e 95 39 06 f1 10 94 cd ab 04 39
       2.5952808986856765e-31 4.9763876638745265e-34
000160 13 51 09 8c 37 bd 85 39 c6 48 5f cb e9 0b 0b 39
       1.3397772537282736e-31 6.5112167376663615e-34
000170 5d 33 b9 5e 6e 7a 71 39 6e 7a 51 0f 01 71 3c 39
       5.385900564301992e-32 5.477618710316771e-33
000180 ec 3a e4 7e 5e d9 55 39 a0 df 50 85 99 07 24 39
       1.6831932945884387e-32 1.9287886302234817e-33
000190 8d ea 13 48 3d 55 a1 39 a5 fa ca 87 33 4f 26 39
       4.272906097208414e-31 2.148315153192559e-33
0001a0 b9 58 8c 99 5c 48 d8 39 70 b5 4c 91 2b 1f 32 39
       4.788910871104684e-30 3.490123741418159e-33
0001b0 00 ed 2c 89 41 e8 c9 39 fc 7a e8 f4 10 6d 53 39
       2.5546520856102937e-30 1.4965276845722235e-32
0001c0 40 ec 06 c4 f0 f7 b1 39 d3 1f fc d8 1c 6f 1f 39
       8.859163134276784e-31 1.5134936804378614e-33
0001d0 a1 2c 3c dc e8 50 cc 39 6a b7 70 d3 a7 35 7e 39
       2.792178416611478e-30 9.309049276237856e-32
0001e0 9c df 40 d2 91 1e a3 39 c7 ad 29 68 98 f9 76 39
       4.713299092690573e-31 7.079712865572262e-32
0001f0 5b 5b ae a7 c5 0b 69 39 65 50 a3 d6 8c 11 5f 39
       3.858944957640058e-32 2.393434437233177e-32
000200 4d 4b 5c 46 44 54 85 39 b3 94 aa f5 d2 c1 34 39
       1.3145113924007185e-31 3.9976769056334023e-33
000210 af 21 2a a0 8d 3a c5 39 82 b9 ed f1 a7 75 51 39
       2.0933137581432585e-30 1.3450381874174422e-32
000220 58 91 ab 68 b6 06 b4 39 fb a5 bb cc b2 bb 46 39
       9.873689186729133e-31 8.756508973528083e-33
000230 d4 58 20 69 08 c7 98 39 96 31 38 bd 0e f9 52 39
       3.0540592279862304e-31 1.461617597631901e-32
000240 46 2b f4 4d ed 5a b0 39 74 10 80 ea 70 9a 60 39
       8.063728027892153e-31 2.5581411716685723e-32
000250 82 9a aa 4f b2 d3 86 39 b8 8b 40 b7 87 d2 0e 39
       1.4068187661755932e-31 7.420218883608666e-34
000260 2b 47 53 69 49 2c 90 39 6f 27 10 0a 22 d9 86 38
       1.9934755639890943e-31 2.1486321121253322e-36
000270 0f 66 6c 52 1d 2e 62 39 6b ec 11 28 e5 d3 43 39
       2.801093298480214e-32 7.637358163935669e-33
000280 fd df b2 4c cb ae 9a 39 dc c4 ac b8 b3 bb 39 39
       3.2889077440996284e-31 4.956036178560135e-33
000290 16 f5 0f d6 c3 35 68 39 38 74 3c 31 11 9b 0e 39
       3.7301441165762874e-32 7.368061745595566e-34
0002a0 e2 03 71 e9 eb a2 d6 39 1a b5 4e 11 97 8d b0 38
       4.464245160604552e-30 1.2453158082168002e-35
0002b0 4f a4 48 cb 7d 2e e3 39 7d 04 b9 4a 85 00 45 39
       7.565809917115752e-30 8.089689185719312e-33
0002c0 3a a1 1f 67 11 3a c0 39 91 7c 6a d4 d1 70 4f 39
       1.6000887826597645e-30 1.2110517793762699e-32
0002d0 32 48 de f4 0b 5b 71 39 e4 e3 8d 66 75 3d d5 38
       5.348122933591907e-32 6.391701862550102e-35
0002e0 df c7 58 cd 4f f0 be 39 38 46 fc 1f 9e 58 35 39
       1.5253965524090762e-30 4.1111214124949994e-33
0002f0 63 7b 2a 84 32 93 ac 39 5d 54 7e b0 f6 8a 3b 39
       7.044278792696472e-31 5.304555465981645e-33
000300 da c8 36 93 be 99 a2 39 0e 01 9c 94 30 d1 36 39
       4.585393096294465e-31 4.394422767292152e-33
000310 30 86 9b 0e ac b0 db 39 39 f1 ff 4d 48 2a 2a 39
       5.460914343709774e-30 2.5196138139667817e-33
000320 48 59 58 a9 6b d8 bd 39 42 0c 5d 12 5c 9d 2a 39
       1.4714914730255497e-30 2.5629010511402017e-33
000330 af b2 98 bc 52 82 4b 39 e1 25 f2 17 13 94 08 39
       1.0596110242314488e-32 5.917038502882824e-34
000340 3b 68 e3 1e 52 1c cf 39 4c 77 88 f0 dd 9a 30 39
       3.0677447768522163e-30 3.197996856049683e-33
000350 5c e7 b7 a8 05 6a 86 39 ce 7a 93 03 c9 db 07 39
       1.3813785743625717e-31 5.74373360908089e-34
000360 f3 7c ff d8 f6 54 c5 39 f7 bc e8 d0 1e 5b 38 39
       2.103486914331666e-30 4.690783217756807e-33
000370 d1 62 63 ad 2c 33 d7 39 2d a0 56 cf 59 fc ea 38
       4.5753736217388024e-30 1.6241454724776197e-34
000380 35 34 36 c8 9b 2e c8 39 97 59 83 fe f0 2e 16 39
       2.3845356659694132e-30 1.0680901624043898e-33
000390 09 3a 04 4e a4 64 74 39 ba b5 f3 d8 f4 87 28 39
       6.284119000794487e-32 2.362257060240569e-33
0003a0 ac 69 80 b7 6d 8b 97 39 c1 ee ac 9e 2a c3 cd 38
       2.902101298077181e-31 4.478143579779733e-35
0003b0 b3 70 02 9e 28 8f b7 39 74 99 99 77 da a6 20 39
       1.161558906463604e-30 1.6035072241063886e-33
0003c0 d6 44 7f 54 f0 e1 b0 39 03 de 29 ff e3 cf 4b 39
       8.323751332167998e-31 1.0712820727240794e-32
0003d0 08 79 1d 1e 82 31 b0 39 02 a9 05 b7 46 1e 50 39
       7.983958515789049e-31 1.2417060860230181e-32
0003e0 16 eb f5 9c f5 32 9c 39 7f 3f f3 a7 69 ee 0b 39
       3.4758025315967907e-31 6.72421580575435e-34
0003f0 16 52 9b 2a 15 04 cb 39 6f 8c df 67 4c 02 29 39
       2.6639781467843756e-30 2.408277015035038e-33

step f8 []
000000 00 00 00 00 00 00 f0 3f
       1.0
