results/energy/data/dump/A02_H064_L02_D01_Tanh_W4096_P010000_V0.00e+00_S5.00e-01_Adam_PT_False_device_cuda_dtype_float32_chkp.pt (torch, 168019 bytes, 23 tensors)

layers.0.fc.weight f4 [64, 2]
0	0xbce63bb0	-0.028104633
1	0x3ed2c043	0.4116231
2	0xbf1a4070	-0.60254574
3	0xbeffd92d	-0.4997038
4	0xbe878723	-0.2647029
5	0x3e39da20	0.18149614
6	0x3c4ea947	0.012613601
7	0x3f0852b1	0.5325118
8	0xbcf85ed8	-0.030318663
9	0x3e1ada4a	0.15122333
10	0xbe77e083	-0.24206738
11	0xbdd5a9c4	-0.10432771
12	0xbf2073e8	-0.6267686
13	0xbeed79e7	-0.46382067
14	0xbe994f33	-0.29943237
15	0x3ccdf5e5	0.025141666
16	0x3e84277d	0.25811377
17	0x3eedb33a	0.46425802
18	0xbf00c484	-0.5029986
19	0xbe543707	-0.20724116
20	0x3e8dd0a6	0.2769825
21	0x3f07d0ce	0.53052986
22	0xbdffe94c	-0.1249567
23	0x3f05c5e5	0.5225509
24	0xbd8fab38	-0.07015079
25	0x3d73b378	0.059497327
26	0x3f29f759	0.6639305
27	0xbf15074d	-0.58214265
28	0xbed3e2b3	-0.41383895
29	0xbe15dd91	-0.14635302
30	0xbe9a6f8e	-0.30163234
31	0x3f15fff1	0.5859366
32	0xbee006c1	-0.43755153
33	0xbe87945e	-0.26480383
34	0xbef227c4	-0.47295964
35	0xbf36ae14	-0.7135937
36	0xbee2ad19	-0.44272688
37	0x3f083885	0.5321124
38	0x3eafb826	0.34320182
39	0x3e93c77c	0.28863132
40	0x3d8ea975	0.06965915
41	0xbea1e003	-0.3161622
42	0x3dccddcc	0.10003242
43	0xbf3445d1	-0.7041903
44	0xbefefa88	-0.49800515
45	0xbec2bd2b	-0.3803495
46	0x3ef37490	0.47549868
47	0x3e965ff8	0.29370093
48	0xbe9e2801	-0.30889896
49	0xbbc01090	-0.0058613494
50	0x3ef0d5d1	0.4703813
51	0x3f152d9f	0.5827274
52	0x3ea032e9	0.3128884
53	0x3d54f657	0.05199274
54	0x3f018125	0.50587684
55	0xbea3fc24	-0.32028306
56	0x3e2281fc	0.15869898
57	0xbeead28c	-0.4586376
58	0xbf02d14e	-0.51100624
59	0xbe96e617	-0.2947242
60	0x3e9618e1	0.29315856
61	0x3e9a2ede	0.30113882
62	0xbed63709	-0.41838863
63	0x3e109cc7	0.14122306
64	0x3ed6acc5	0.41928688
65	0xbd9f7d47	-0.07787567
66	0xbac6f8d5	-0.0015180359
67	0x3e12b926	0.14328441
68	0x3eed244c	0.46316755
69	0x3eee25fb	0.46513352
70	0xbf0c9a11	-0.54922587
71	0xbde48616	-0.11158387
72	0x3e976358	0.2956798
73	0x3ef0112a	0.46888095
74	0x3f1b2195	0.6059812
75	0x3f0f5c0d	0.55999833
76	0x3e25b989	0.16184057
77	0xbf13d4a8	-0.5774636
78	0x3d210899	0.03931484
79	0xbebce477	-0.36893055
80	0xbf31ea1b	-0.6949784
81	0x3ef4f9cf	0.4784684
82	0x3f0d86b7	0.55283684
83	0xbf2ffd76	-0.68746126
84	0x3dccdc6d	0.100029804
85	0xbdadecd0	-0.08492434
86	0xbdbc1a24	-0.091846734
87	0xbe91a6a5	-0.28447452
88	0x3e952058	0.2912624
89	0xbf047974	-0.5174782
90	0x3e87a9fb	0.26496872
91	0x3ec55373	0.3854023
92	0x3f09212a	0.5356623
93	0x3e845b07	0.25850698
94	0xbf2ece54	-0.6828358
95	0xbee0fa4f	-0.4394097
96	0x3eae79ea	0.34077388
97	0x3e0eb753	0.1393712
98	0xbf06ff35	-0.52733165
99	0xbebd61b2	-0.36988598
100	0x3f2e07dd	0.6798075
101	0x3ef33c3f	0.47506902
102	0xbeaa8c8a	-0.33310348
103	0xbe2f8a7b	-0.1714267
104	0xbf253170	-0.6452856
105	0x3d688ea6	0.056776665
106	0xbf0ca20b	-0.5493476
107	0xbebad0a8	-0.36487317
108	0xbd8c5ac3	-0.06853249
109	0x3df04d67	0.11733513
110	0xbea3624f	-0.3191094
111	0x3eb660e2	0.3562079
112	0xbeccbd92	-0.3998838
113	0x3f2c65c6	0.67342794
114	0x3f020604	0.5079043
115	0xbf1936e9	-0.5984941
116	0xbe155e9e	-0.14586875
117	0x3d8933b0	0.06699312
118	0x3e0f09e1	0.13968612
119	0x3e0ad0bc	0.13556188
120	0x3e75b746	0.23995695
121	0x3ccf5246	0.025307786
122	0xbe9282b4	-0.28615344
123	0x3e8844e5	0.26615062
124	0xbf27a232	-0.65481865
125	0xbeec21ad	-0.46119443
126	0xbe143b57	-0.14475761
127	0xbe75a524	-0.23988777

layers.0.fc.bias f4 [64]
0	0xbe6a5a4c	-0.22886008
1	0xbf0ffe84	-0.56247735
2	0xbe2e65b2	-0.17030981
3	0x3e290052	0.16504028
4	0xbef9716b	-0.48719344
5	0xbd72ce56	-0.05927881
6	0x3efb42cf	0.49074408
7	0xbdc02ce2	-0.09383561
8	0x3d11fe4e	0.035642914
9	0xbd0c5ba9	-0.0342671
10	0x3e0277c4	0.12741
11	0x3eea8e23	0.45811567
12	0x3f327361	0.69707304
13	0x3eed49a7	0.46345255
14	0x3f3329f1	0.6998587
15	0xbd53f77b	-0.051749688
16	0xbf29b385	-0.6628955
17	0xbeb486e2	-0.35259157
18	0x3effbbe5	0.4994804
19	0xbccfd87f	-0.025371788
20	0xbebdc60f	-0.3706517
21	0xbf07df6d	-0.53075296
22	0xbf2f3e61	-0.6845456
23	0xbf1f343e	-0.6218909
24	0xbe2a6fb4	-0.16644174
25	0x3ed8ff91	0.42382482
26	0x3ed1d296	0.40980977
27	0xbf2a5cec	-0.6654804
28	0x3ef4939c	0.47768867
29	0xbf0a329a	-0.5398346
30	0xbe02f1a0	-0.12787485
31	0xbea26717	-0.31719276
32	0xbe204a1d	-0.15653272
33	0xbe310b5f	-0.17289494
34	0xbf2c8529	-0.67390686
35	0xbf30f87b	-0.6912915
36	0xbdcccce5	-0.10000018
37	0x3cd23188	0.025658384
38	0xbeac881f	-0.33697602
39	0x3e9349fe	0.2876739
40	0xbf1ca4fa	-0.61189234
41	0xbd68a9b3	-0.056802463
42	0x3f258e81	0.6467057
43	0xbe9f6881	-0.31134418
44	0x3f1fae61	0.62375456
45	0x3e686011	0.22692896
46	0xbf202c29	-0.62567383
47	0x3eee5341	0.46547893
48	0xbd7acf95	-0.061233122
49	0xbeadbce3	-0.33933172
50	0x3f0b7fd5	0.5449193
51	0xbf0c8dab	-0.5490367
52	0x3d63004e	0.055420212
53	0xbe25d83c	-0.16195768
54	0x3ef83fd2	0.4848619
55	0x3e5bb66e	0.2145631
56	0x3eb8e040	0.3610859
57	0x3e736fba	0.23773089
58	0xbe470445	-0.19435222
59	0xbe15ea62	-0.14640191
60	0xbf1d2b4c	-0.6139419
61	0x3ecff05c	0.40613067
62	0x3f0abe07	0.5419621
63	0x3f013672	0.504737

layers.1.fc.weight f4 [64, 128]
0	0xbd95808b	-0.07299908
1	0xbb9068f4	-0.0044070426
2	0xbd06c438	-0.032901973
3	0xbc94584f	-0.018108515
4	0xbd8e9791	-0.06962503
5	0x3d6227bf	0.055213686
6	0xbcfbde99	-0.030745791
7	0x3cde9351	0.027169855
8	0xbc3249ca	-0.0108818505
9	0x3da3a495	0.07990376
10	0xbd8817ef	-0.0664519
11	0xbd26d503	-0.040730488
12	0xbcf5ad59	-0.029989885
13	0x3cf07b10	0.029355556
14	0xbc09f207	-0.00841952
15	0x3de223c9	0.11041982
16	0x3c691b23	0.014227661
17	0x3c1df4e9	0.009640911
18	0x3c9a4542	0.018831853
19	0xbd199a99	-0.03750095
20	0xbc2ccaf9	-0.010546439
21	0xbd1e489c	-0.038643464
22	0xbc971f36	-0.0184475
23	0xbc3a6d52	-0.011378603
24	0xbd2b6d91	-0.041852538
25	0xbd216d64	-0.039410964
26	0x3da36fbc	0.07980296
27	0xbdbd5840	-0.09245348
28	0xb901e605	-0.00012388088
29	0x3d9e88e1	0.07740951
30	0x3c30c6b5	0.010789563
31	0x3cd4d3da	0.025979925
32	0xbdd2b859	-0.10289068
33	0x3cd59cbf	0.026075719
34	0xbdaa57bc	-0.08317515
35	0xbd1ee7c0	-0.038795233
36	0xbd313f67	-0.043273356
37	0xbceb492d	-0.028721416
38	0xbca9d941	-0.020733478
39	0x3da5421e	0.080692515
40	0x3d228755	0.039679844
41	0x3d594659	0.053045604
42	0x3d94af7e	0.07260035
43	0xbd9e8dda	-0.077419
44	0x3d427a20	0.04747975
45	0xbd77ea1f	-0.06052601
46	0xbd7a64f2	-0.061131425
47	0x3d42b2ad	0.04753368
48	0x3b9ac4ec	0.004723182
49	0x3d94b0b8	0.07260269
50	0xbce4bfc1	-0.027923467
51	0xbc8d0d33	-0.017218208
52	0x3d937e04	0.0720177
53	0xbd8c6247	-0.068546824
54	0x3dae22ce	0.08502732
55	0xbd499b6e	-0.049220495
56	0x3cb2abc0	0.021810412
57	0xbd56abb9	-0.05240986
58	0xbd1fd40e	-0.03902059
59	0xbc1f2347	-0.009713001
60	0x3d4ee27e	0.05050897
61	0xbb68dae0	-0.003553085
62	0xbcf53372	-0.029931758
63	0xbc4d4942	-0.012529673
64	0xbdcbe9a2	-0.09956671
65	0x3ca463b3	0.020067072
66	0xbd77d2d2	-0.06050379
67	0xbce55d78	-0.027998671
68	0xbd9058a9	-0.070481606
69	0x3ca6d7b1	0.020366522
70	0x3d5430f3	0.051804494
71	0x3d3c8807	0.046028163
72	0x3d9afb03	0.07567408
73	0xbd76621b	-0.060152154
74	0x3c3ac5cd	0.011399698
75	0x3d3d3cbf	0.04620051
76	0x3dbe3b9e	0.09288715
77	0x3d0c7f0f	0.03430086
78	0xbcf71ab3	-0.030164098
79	0xbd415ba2	-0.04720653
80	0xbdccd6d6	-0.10001914
81	0xbbede5bb	-0.007260052
82	0xbd0f0b2d	-0.034922767
83	0xbd7aea77	-0.06125876
84	0x3d65fd55	0.0561498
85	0xbd9ce038	-0.07659954
86	0xbcde09f1	-0.02710435
87	0x3c8ff4f7	0.017572863
88	0xbc8d421c	-0.017243437
89	0xbd12eee1	-0.035872344
90	0xbd5a174f	-0.053244885
91	0x3d68cf5e	0.056838386
92	0x3cf2ab44	0.029622681
93	0x3d63c226	0.055605076
94	0xbcf7d2cb	-0.030251881
95	0x3c353988	0.01106108
96	0xbd028717	-0.031867113
97	0xbca56b29	-0.0201927
98	0xbd6bdfd1	-0.057586495
99	0x3c709028	0.014682807
100	0x3d304eb0	0.043043792
101	0x3d0d0e77	0.034437623
102	0xbd292668	-0.041296393
103	0xbd29fe59	-0.04150233
104	0x3d4f297b	0.05057667
105	0xbd9975c2	-0.07493164
106	0x3d66dc06	0.056362174
107	0xbd5523d5	-0.052036125
108	0xbcd1db97	-0.025617404
109	0x3d24ca1c	0.04023181
110	0xbd6342b1	-0.055483524
111	0x3cd636b9	0.02614914
112	0x3c767143	0.015041652
113	0xbdb58e82	-0.08865072
114	0x3d10587c	0.035240635
115	0x3ca5355f	0.02016705
116	0x3d378960	0.044808745
117	0xbd2ef74b	-0.042716306
118	0xbd541409	-0.05177692
119	0x3b5acdb2	0.0033386764
120	0x3d3ab2c2	0.045580633
121	0xbca0ce91	-0.019629749
122	0x3c51eb23	0.012812409
123	0x3d3e7892	0.046501704
124	0xbd7f28ab	-0.062294643
125	0x3c8da9bf	0.017292855
126	0x3d328723	0.043585908
127	0x3ca6b44f	0.02034965
128	0xbc50562b	-0.012715857
129	0x3ac0c5bd	0.0014707368
130	0xbd6ad53f	-0.057332274
131	0x3ca4b50f	0.020105867
132	0x3d20d84e	0.039268784
133	0x3de0d90e	0.109789
134	0x3d9d59e4	0.07683161
135	0x3d287050	0.041122735
136	0x3c8dc207	0.017304434
137	0xbc73b539	-0.01487475
138	0xbdb5e170	-0.088808894
139	0xbd7d2929	-0.06180683
140	0x3de25646	0.110516116
141	0x3d0b31f2	0.03398318
142	0xbd1372e1	-0.03599823
143	0x3d5a62ad	0.05331676
144	0x3d4c7808	0.04991916
145	0x3dc5ac38	0.09651989
146	0x3dbbceae	0.091702804
147	0x3d2ad729	0.0417091
148	0xbd18bd4a	-0.037289895
149	0xbd2f77b8	-0.042838782
150	0x3d67fe26	0.05663886
151	0x3cc79859	0.024364637
152	0xbcedc8aa	-0.029026348
153	0x3daa3895	0.083115734
154	0x3d6ad9ba	0.057336546
155	0x3cee47b7	0.02908693
156	0xbd25c0a7	-0.04046693
157	0x3c53caf3	0.012926805
158	0xbd6875d5	-0.056753
159	0x3da9f1c1	0.08298064
160	0xbd2c7178	-0.0421004
161	0x3c1bf9f0	0.009520039
162	0xbbf45e70	-0.007457547
163	0x3cb9e1da	0.022690702
164	0xbd532cea	-0.051556505
165	0x3caa1649	0.02076258
166	0xbd98bbbd	-0.07457683
167	0x3d1f0be0	0.038829684
168	0xbd4cfca6	-0.05004563
169	0xbdd5fe6b	-0.10448917
170	0xbd4b1d0d	-0.04958825
171	0x3d5f5efc	0.054533944
172	0x3d7efd0c	0.062253043
173	0x3da65a3f	0.08122682
174	0x3d38c583	0.045110237
175	0xbd5e061a	-0.054205038
176	0xbdb42212	-0.08795561
177	0xbb7c061f	-0.0038455797
178	0xbd645b15	-0.055750925
179	0x3d31738b	0.04332308
180	0xbd1fcb83	-0.039012443
181	0xbca80164	-0.020508476
182	0xbd83327b	-0.06406113
183	0xbd047551	-0.032338444
184	0x3db0bbfe	0.08629607
185	0x3d4dd376	0.050250493
186	0x3d57ee72	0.052717634
187	0x3d2d1c59	0.042263363
188	0x3d5fb443	0.05461527
189	0xbb3c6f44	-0.0028752843
190	0x3d835bed	0.06414018
191	0x3dd15de9	0.1022299
192	0x3c0a82f8	0.008454077
193	0x3d9f73cf	0.077857606
194	0x3cf23f66	0.029571246
195	0x3d8ae61d	0.06782172
196	0xbd5b0e71	-0.05348057
197	0x3d2564d7	0.04037937
198	0x3cc6cd12	0.024267707
199	0xbccc8c96	-0.02496938
200	0xbd2268ca	-0.039650716
201	0xbd5f27ae	-0.0544812
202	0xbd5e4afd	-0.054270733
203	0x3d99fade	0.07518552
204	0x3dadc319	0.084844775
205	0xb817b8e5	-3.6173402e-05
206	0xbd111dad	-0.03542869
207	0x3d2b5ef8	0.041838616
208	0x3d3ed457	0.04658922
209	0xbba05d2c	-0.0048939195
210	0xbce6eb26	-0.0281883
211	0x3d86e8a1	0.06587339
212	0x3c978270	0.018494815
213	0xbda54f10	-0.080717206
214	0x3d98fbfd	0.07469938
215	0x3d5b5b8b	0.0535541
216	0xbd23c007	-0.039978053
217	0x3d752f5d	0.059859622
218	0xbd17b03d	-0.03703331
219	0xbcec29cd	-0.028828526
220	0x3dc33cad	0.09533057
221	0xbbbf1fec	-0.005832663
222	0xbda530c1	-0.0806594
223	0xbd250e6e	-0.040296964
224	0xbd408738	-0.047003955
225	0xbd2b3e4e	-0.041807465
226	0xbaeb4e07	-0.0017952331
227	0x3d970296	0.0737354
228	0xbbaacbfd	-0.0052123056
229	0xbd4aa2f3	-0.049471807
230	0xbc197569	-0.009366372
231	0x3d820d66	0.06350212
232	0x3d0bd452	0.03413803
233	0xbd9a3b46	-0.07530837
234	0x3bbe90b3	0.0058155893
235	0xbda43562	-0.080179945
236	0xbc96403c	-0.018341176
237	0x3d303b7b	0.043025475
238	0xbd9ec2c7	-0.077519946
239	0x3d497f7e	0.04919385
240	0x3d54a46d	0.05191462
241	0xbb49d4cc	-0.0030797003
242	0xbd444830	-0.047920406
243	0xbd373513	-0.04472835
244	0x3d44f8fe	0.04808902
245	0xbd9d8631	-0.076916106
246	0x3d85ee14	0.065395504
247	0xbd855d1b	-0.06511899
248	0xbd9682b0	-0.073491454
249	0xbd90d928	-0.07072669
250	0xbd11f6e1	-0.035635833
251	0x3d143949	0.036187444
252	0xbdd34544	-0.10315946
253	0x3dba9127	0.09109717
254	0xbca5d24d	-0.02024188
255	0x3d36d7e3	0.04463948

layers.1.fc.bias f4 [64]
0	0x3db0820a	0.08618553
1	0x3c8054db	0.015665462
2	0xbd5b68d4	-0.05356677
3	0x3c717208	0.01473666
4	0x3ca08ad8	0.019597456
5	0xbd0b7f38	-0.034056872
6	0x3c687d00	0.014189959
7	0x3c9c5f0c	0.01908829
8	0xbd653734	-0.05596085
9	0x3dd12e7b	0.102139436
10	0x3d1ac878	0.03778884
11	0xbcb3f89e	-0.021969136
12	0x3db1b9cc	0.08678016
13	0xbd47ba99	-0.048761938
14	0x3d25c0f1	0.040467206
15	0x3d0d5a81	0.03451014
16	0xbdb53db8	-0.088496625
17	0xbd31f18b	-0.043443244
18	0xbd0c7e30	-0.03430003
19	0xbcf3a11d	-0.02973991
20	0xbd07da2c	-0.03316705
21	0xbc5511e4	-0.013004754
22	0xbca12fb3	-0.019676065
23	0x3d43b5c1	0.047780756
24	0xba08131e	-0.0005190837
25	0xbdd2f80b	-0.10301217
26	0xbcb44b19	-0.022008466
27	0xbceb1738	-0.028697595
28	0x3d69aa71	0.05704731
29	0x3d88f45c	0.06687233
30	0x3dbaa4cb	0.09113463
31	0xbda95fa4	-0.08270195
32	0x3d7b4409	0.06134418
33	0x3ce6416f	0.028107373
34	0xbd4a56e4	-0.04939927
35	0xbd9006e9	-0.07032568
36	0xbd369979	-0.044579957
37	0x3cd5c704	0.026095875
38	0xbd2aef9f	-0.041732427
39	0xbd813c45	-0.063103236
40	0xbd4834cf	-0.048878487
41	0x3cef8bbd	0.029241437
42	0x3c915383	0.017740017
43	0xbdbec364	-0.093146116
44	0xbda6c73d	-0.081434704
45	0x3c244e92	0.010028498
46	0x3d9a621c	0.07538244
47	0xbcab8836	-0.020938974
48	0xbd4784ac	-0.04871051
49	0x3c70b613	0.014691847
50	0xbd970439	-0.07373852
51	0xbd690e59	-0.05689845
52	0x3d6bf1cd	0.057603646
53	0xbc46865b	-0.012116994
54	0xbd2057e8	-0.039146334
55	0x3d0ffa6d	0.035150934
56	0x3d6a6d14	0.05723293
57	0xbd78add6	-0.060712658
58	0xbd14d131	-0.036332313
59	0xbc3bd1f2	-0.011463629
60	0xbdfece06	-0.124416396
61	0x3dce6a15	0.10078827
62	0xbdd722a0	-0.10504651
63	0xbd12a1b9	-0.035798762

layers.2.gsds.0.weight f4 [2, 64]
0	0x3d917083	0.07101538
1	0x3dbfa631	0.0935787
2	0xbd8cf3cc	-0.06882438
3	0x3e023a93	0.12717657
4	0xbcc31795	-0.023814956
5	0xbdf57cd2	-0.11986698
6	0xbdc70409	-0.097175665
7	0xbd5736a2	-0.052542336
8	0xbccc13c6	-0.024911772
9	0x3e092c73	0.13395862
10	0xbd479742	-0.048728235
11	0xbbd1f447	-0.006407294
12	0x3ddc9698	0.10770911
13	0xbc8cd64f	-0.017192034
14	0x3da204bc	0.07911059
15	0x3bcebcf1	0.0063091447
16	0xbd9ea25b	-0.077458106
17	0xbdd8cd7c	-0.10586068
18	0x3e030d1f	0.12797974
19	0xbda7e5fa	-0.081981614
20	0xbbaa8a25	-0.0052044564
21	0x3d035f37	0.032073226
22	0xbb18508f	-0.0023241376
23	0xbcff52b1	-0.03116736
24	0xbd49f0ec	-0.049302027
25	0xbd26a417	-0.040683832
26	0x3d835e49	0.06414468
27	0xbd5a4f5b	-0.053298336
28	0x3d877ffb	0.06616207
29	0x3d0c528d	0.034258414
30	0x3d6df7c0	0.0580976
31	0xbdac982d	-0.08427463
32	0xbdcf6ff7	-0.101287775
33	0xbda7292b	-0.08162149
34	0x3ca414fd	0.02002954
35	0xbc23cf3b	-0.009998138
36	0x3df937a3	0.12168815
37	0x3dbe5139	0.09292836
38	0xbd897f6f	-0.06713759
39	0x3dd32b61	0.10311008
40	0xbda73752	-0.081648484
41	0xbd5dc40b	-0.05414204
42	0x3dedf3e0	0.11618781
43	0xbde8afdb	-0.11361667
44	0xbd5b737a	-0.053576924
45	0xbdd76b16	-0.10518472
46	0x3d19d29e	0.037554376
47	0x3def48f6	0.11683838
48	0x3e03fd28	0.1288954
49	0xbd6e1638	-0.05812666
50	0xbde1867e	-0.110119805
51	0x3d3eab55	0.046550114
52	0xbda583b1	-0.08081759
53	0xbd8213b5	-0.06351415
54	0xbdcd2de7	-0.10018521
55	0x3dcb9250	0.09940016
56	0xbb901c4f	-0.004397906
57	0x3ca3ab33	0.019979095
58	0xbce1d5c3	-0.02756775
59	0x3cbc14fc	0.022959225
60	0xbd9d7971	-0.07689179
61	0x3e113202	0.14179233
62	0xbdd46bac	-0.10372099
63	0x3c48fdb4	0.012267519
64	0xbda0b89f	-0.07847714
65	0xbdde0720	-0.10841203
66	0x3d2486df	0.040167686
67	0x3df35f73	0.1188344
68	0x3da679e6	0.08128719
69	0x3c3e09f7	0.0115990555
70	0x3d77e09a	0.06051693
71	0x3d27e8e7	0.040993597
72	0xbd8afcb6	-0.06786482
73	0xbda31a74	-0.0796403
74	0x3d711cd6	0.05886539
75	0x3db9dde6	0.09075527
76	0x3d84dc08	0.0648728
77	0x3cc5bc8f	0.024137763
78	0x3dcdf062	0.10055615
79	0xbdea35fc	-0.11436078
80	0x3cad1185	0.021126518
81	0x3dc60487	0.09668832
82	0xbc814d9f	-0.015784083
83	0x3dd3fe24	0.10351208
84	0x3e0839ab	0.13303249
85	0xbdf1fb63	-0.11815526
86	0x3d58df5c	0.052947387
87	0x3db32d97	0.0874893
88	0x3d28b381	0.041186813
89	0x3daf6cee	0.085656986
90	0x3ddd3fe1	0.108031996
91	0x3d872267	0.065983586
92	0x3db93c6b	0.09044727
93	0xbe11e567	-0.14247666
94	0xbe1a3931	-0.1506088
95	0x3d122c11	0.035686556
96	0x3e22ca7d	0.15897556
97	0xbd8c8276	-0.06860821
98	0x3dfa6794	0.12226787
99	0xbd549039	-0.051895354
100	0x3da3a94b	0.079912744
101	0xbbb84ccf	-0.0056243907
102	0x3d9e5728	0.077314675
103	0xbd7e90cc	-0.062149808
104	0xbe0a0e31	-0.13481976
105	0x3db65b90	0.08904183
106	0xbd9cbfe0	-0.07653785
107	0x3d929677	0.07157605
108	0x3d40692f	0.04697531
109	0xbcceb1a6	-0.025231194
110	0x3e1868ee	0.14883777
111	0x3dc6e7a5	0.097121514
112	0xbd11d7ad	-0.035606075
113	0x3d0d35c5	0.034475107
114	0x3d6e9a22	0.05825246
115	0xbddb1469	-0.10697252
116	0xbc526e03	-0.012843612
117	0xbe0a9fc7	-0.13537513
118	0xbc5b8910	-0.013399377
119	0xbe0c67c1	-0.13711454
120	0x3dae2401	0.08502961
121	0x3db82906	0.089921996
122	0x3e00037e	0.12501332
123	0x3d9a387b	0.07530304
124	0xbd08fb7d	-0.033442963
125	0x3d2902cd	0.041262437
126	0x3cf4d114	0.029884852
127	0x3d629235	0.055315215

layers.2.gsds.0.bias f4 [2]
0	0x3ba08330	0.0048984513
1	0x3e011e44	0.12609202

log_envelope.log_envs.0.weight f4 [2, 1]
0	0x3f2a5fe5	0.66552573
1	0x3f28b2e0	0.6589794

exp_avg f4 [64, 2]
0	0xb63fbdfc	-2.8571803e-06
1	0x32cfca01	2.4189832e-08
2	0xb66a34ab	-3.4899374e-06
3	0x34d1100f	3.8940968e-07
4	0xb61c0bbd	-2.3252644e-06
5	0x33e177c9	1.0499168e-07
6	0x36b05ee5	5.256256e-06
7	0x3356649c	4.991726e-08
8	0x36293f1e	2.5219701e-06
9	0x33bfe540	8.935831e-08
10	0xb6c8b9d4	-5.9820977e-06
11	0x3426b2ce	1.5525004e-07
12	0xb5c1e233	-1.4445453e-06
13	0x347a1278	2.3289783e-07
14	0xb6748b3b	-3.6439876e-06
15	0x34923fca	2.7241032e-07
16	0xb5ae9458	-1.3007184e-06
17	0xb29556d1	-1.7385362e-08
18	0xb6f69957	-7.3492224e-06
19	0x35a69d20	1.2413693e-06
20	0x36a2d06c	4.8522397e-06
21	0xb4c90e25	-3.744946e-07
22	0x35a01efe	1.1929949e-06
23	0xb3d6cd00	-1.0002441e-07
24	0x35fe7e5f	1.8961254e-06
25	0xb30c8d5a	-3.272485e-08
26	0x36915d6c	4.3322125e-06
27	0xb456d21d	-2.0006742e-07
28	0x36405f8a	2.866584e-06
29	0x34a67837	3.1007377e-07
30	0xb74bbce5	-1.2143723e-05
31	0xb5147712	-5.5307567e-07
32	0xb4995cf5	-2.8566106e-07
33	0x34ed232e	4.4170287e-07
34	0x3676125a	3.6667539e-06
35	0xb3f464b0	-1.13804504e-07
36	0xb67c4b09	-3.7594602e-06
37	0xb50c655f	-5.230158e-07
38	0x36e96970	6.9562157e-06
39	0xb50aba47	-5.1680075e-07
40	0x36deca63	6.6396765e-06
41	0x34c64fe2	3.6938496e-07
42	0xb64b1b1e	-3.0265142e-06
43	0xb4ee30e3	-4.4366524e-07
44	0xb498f8be	-2.849319e-07
45	0x349d0758	2.9248872e-07
46	0x36c89b0e	5.978515e-06
47	0xb4e34a85	-4.2336265e-07
48	0xb61b7668	-2.3165721e-06
49	0x34af59cd	3.266163e-07
50	0x3645469f	2.9396394e-06
51	0xb52466e2	-6.1244475e-07
52	0x36bfdf94	5.7182715e-06
53	0xb4183105	-1.4173936e-07
54	0x36c79f21	5.949187e-06
55	0x34892ffe	2.5553157e-07
56	0x36b38dce	5.351124e-06
57	0x34f045cb	4.4754265e-07
58	0xb6daa928	-6.5165987e-06
59	0x353582e4	6.7618225e-07
60	0xb640753f	-2.8678476e-06
61	0xb290d252	-1.6859449e-08
62	0xb5e77aae	-1.7246546e-06
63	0x33c17a0e	9.0094645e-08
64	0x3730ae1a	1.0530954e-05
65	0xb4fdb2b3	-4.7254943e-07
66	0xb65d58b2	-3.2983194e-06
67	0xb46f0ec2	-2.2263978e-07
68	0x36aefa1e	5.2147216e-06
69	0xb4472b78	-1.8549133e-07
70	0xb6501803	-3.1008392e-06
71	0x33c7fbe7	9.3124804e-08
72	0x370b3196	8.296591e-06
73	0xb4bdedef	-3.5377113e-07
74	0x36108963	2.1537642e-06
75	0xb50d1768	-5.2560654e-07
76	0x36f01a0f	7.155591e-06
77	0x352a09f5	6.3344424e-07
78	0xb66727dc	-3.4444884e-06
79	0x34705785	2.2383581e-07
80	0xb6eb8eb3	-7.020158e-06
81	0xb3047b05	-3.084553e-08
82	0x36bf35a5	5.6984886e-06
83	0x34fa2004	4.6589423e-07
84	0xb5e642c3	-1.7155766e-06
85	0xb25ff9e1	-1.3037124e-08
86	0x360a233a	2.0584107e-06
87	0x34ed9fe4	4.4261026e-07
88	0x36453660	2.9386938e-06
89	0xb40e2eef	-1.3241855e-07
90	0x361a3936	2.298109e-06
91	0xb4c6987b	-3.6991318e-07
92	0x36e0f601	6.704359e-06
93	0xb3b472ee	-8.402809e-08
94	0x35c379dc	1.4564098e-06
95	0x34fe0824	4.731711e-07
96	0x36051045	1.9828015e-06
97	0xb445c273	-1.8417795e-07
98	0xb5401c33	-7.156661e-07
99	0x35127c9e	5.457058e-07
100	0x360f45b5	2.1349235e-06
101	0xb48ab013	-2.5832614e-07
102	0xb6d00694	-6.199649e-06
103	0x348c88ae	2.617648e-07
104	0xb696f95a	-4.4993767e-06
105	0x355bbf94	8.186264e-07
106	0xb6e647a6	-6.862875e-06
107	0x35a5e816	1.2361004e-06
108	0xb5b71813	-1.3641569e-06
109	0xb438e8e7	-1.7221065e-07
110	0xb73a7897	-1.1114541e-05
111	0xb4d04f40	-3.880068e-07
112	0x36011436	1.9234262e-06
113	0x3308123d	3.1681555e-08
114	0x36fc9de4	7.528566e-06
115	0x3456a83c	1.9991506e-07
116	0x36a5258f	4.9217556e-06
117	0x34bb1beb	3.4851777e-07
118	0x370b5aa3	8.306149e-06
119	0xb37a9a3e	-5.8347943e-08
120	0xb54d367d	-7.644774e-07
121	0xb401e12a	-1.2095975e-07
122	0xb51c262c	-5.8170076e-07
123	0xb3dffdf4	-1.04304405e-07
124	0xb5861a9c	-9.991522e-07
125	0x33f5697f	1.1427891e-07
126	0x354ee9c8	7.7081177e-07
127	0x348741e6	2.5193657e-07

exp_avg_sq f4 [64, 2]
0	0x3023d1d4	5.959724e-10
1	0x29ff2df3	1.1332246e-13
2	0x308e4693	1.0351918e-09
3	0x2d23404b	9.279753e-12
4	0x2fb8dda0	3.362688e-10
5	0x2ae655fa	4.0915866e-13
6	0x312d059e	2.5178006e-09
7	0x2b5685a8	7.621356e-13
8	0x30166941	5.4719257e-10
9	0x2b143835	5.2658165e-13
10	0x314e9f98	3.0067664e-09
11	0x2b1ca3f7	5.564988e-13
12	0x2f392615	1.6839181e-10
13	0x2c22291f	2.3044411e-12
14	0x308e1dea	1.0340362e-09
15	0x2c305bf4	2.5062149e-12
16	0x2f8a75f9	2.5185878e-10
17	0x299b36e6	6.892906e-14
18	0x31aec492	5.086414e-09
19	0x2f0dd503	1.2899552e-10
20	0x30f54294	1.7845019e-09
21	0x2d2e0c9d	9.893556e-12
22	0x2f43f98a	1.7823801e-10
23	0x2abb5eec	3.3283738e-13
24	0x2fe23203	4.1144696e-10
25	0x2b7928cc	8.851919e-13
26	0x30dcd042	1.6066297e-09
27	0x2c91e950	4.1470508e-12
28	0x30935178	1.0718813e-09
29	0x2d419957	1.1004828e-11
30	0x32672eae	1.3456583e-08
31	0x2e062472	3.0500442e-11
32	0x2c464a8d	2.8178876e-12
33	0x2d315599	1.0080292e-11
34	0x30f0bf89	1.7516736e-09
35	0x2ccad207	5.764503e-12
36	0x30a7016c	1.2151253e-09
37	0x2df1d287	2.749202e-11
38	0x318e6728	4.1444714e-09
39	0x2de49662	2.5987382e-11
40	0x3185a51d	3.8895807e-09
41	0x2d0b241a	7.909251e-12
42	0x3078596a	9.034894e-10
43	0x2dd93271	2.4692444e-11
44	0x2d0e7212	8.097094e-12
45	0x2c83d678	3.7470547e-12
46	0x3164d7d1	3.3301044e-09
47	0x2d7c505c	1.4342385e-11
48	0x2fc570c4	3.5914216e-10
49	0x2c57c5af	3.0663074e-12
50	0x3024d8ff	5.997122e-10
51	0x2dde83e2	2.5297046e-11
52	0x313e222c	2.7668063e-09
53	0x2b41f4d4	6.890714e-13
54	0x315f0e5a	3.2458929e-09
55	0x2cc65fbb	5.6381267e-12
56	0x312cb3e6	2.5131555e-09
57	0x2dcf7458	2.3584842e-11
58	0x3184eacb	3.8683985e-09
59	0x2e00cd39	2.9286105e-11
60	0x30878e18	9.862928e-10
61	0x2a766223	2.1883237e-13
62	0x2f3b17bc	1.7015983e-10
63	0x2b33b68b	6.3846904e-13
64	0x32301ac1	1.02506315e-08
65	0x2dddb732	2.5206146e-11
66	0x307fc729	9.3051483e-10
67	0x2d376c44	1.04263854e-11
68	0x311a4256	2.2447657e-09
69	0x2c67b5c7	3.2927981e-12
70	0x305ef0aa	8.1105134e-10
71	0x2a502e61	1.8490202e-13
72	0x31c79a98	5.8092375e-09
73	0x2d14f977	8.468218e-12
74	0x2fa82ca4	3.059074e-10
75	0x2d9c0081	1.773537e-11
76	0x319db2ef	4.5896438e-09
77	0x2e085cc5	3.1005216e-11
78	0x30a39bb0	1.190406e-09
79	0x2d12abb6	8.337267e-12
80	0x31991fad	4.456487e-09
81	0x2bcb64da	1.445201e-12
82	0x312a61ea	2.4793914e-09
83	0x2d4a4fa5	1.1500055e-11
84	0x2f9dc209	2.8696004e-10
85	0x2beb4817	1.6717763e-12
86	0x301d42f3	5.721141e-10
87	0x2d341e2f	1.02385175e-11
88	0x30419549	7.042514e-10
89	0x2c42a6f8	2.7661744e-12
90	0x2fbf08e3	3.4749012e-10
91	0x2d1a6c2e	8.777907e-12
92	0x318a8a9b	4.032086e-09
93	0x2a98f387	2.7169605e-13
94	0x2fb50165	3.29247e-10
95	0x2d88cc93	1.555226e-11
96	0x2f45d27a	1.7991822e-10
97	0x2b904fd8	1.0253976e-12
98	0x2d977fbc	1.7223438e-11
99	0x2d9052db	1.64077e-11
100	0x2fb8e87b	3.3634592e-10
101	0x2c769540	3.5041553e-12
102	0x317271a4	3.5280232e-09
103	0x2c9e69da	4.502382e-12
104	0x30e4fca5	1.6660989e-09
105	0x2e3098b4	4.0153394e-11
106	0x31937a4c	4.2921666e-09
107	0x2f062b38	1.2202583e-10
108	0x2ef0c817	1.09494795e-10
109	0x2bd8766e	1.5380594e-12
110	0x323f7a6b	1.1145498e-08
111	0x2d721a16	1.37619e-11
112	0x302bbf02	6.2480876e-10
113	0x2bd04c8a	1.4800533e-12
114	0x31aa6579	4.9591873e-09
115	0x2bef8730	1.7019493e-12
116	0x31429bba	2.8319236e-09
117	0x2cad57b8	4.9266945e-12
118	0x31c6d358	5.7865854e-09
119	0x2a9e1fc4	2.808848e-13
120	0x2f2d75d9	1.5776126e-10
121	0x2c208f47	2.2816902e-12
122	0x2d1a1c45	8.760164e-12
123	0x2b2dd1de	6.1753196e-13
124	0x2e246d5e	3.738642e-11
125	0x2b0df048	5.042672e-13
126	0x2e9b6ff1	7.068469e-11
127	0x2ccbfcc7	5.797671e-12

exp_avg f4 [64]
0	0x35bb96d2	1.397648e-06
1	0x3639afbe	2.7669444e-06
2	0xb6af0eac	-5.2171144e-06
3	0x36eed10d	7.1172894e-06
4	0xb6a83148	-5.0125273e-06
5	0xb678a0fe	-3.704859e-06
6	0xb5d05002	-1.5520493e-06
7	0xb60fb270	-2.1412525e-06
8	0x33e90c6e	1.0852169e-07
9	0x368e27fc	4.2365846e-06
10	0xb5edc834	-1.7716143e-06
11	0x35eb8a1c	1.754906e-06
12	0x36de4c05	6.6249654e-06
13	0xb610e90b	-2.159332e-06
14	0x369dbcc5	4.7009403e-06
15	0xb5546941	-7.912932e-07
16	0xb673419c	-3.6248011e-06
17	0xb6a37df1	-4.87244e-06
18	0x363da239	2.825762e-06
19	0xb6d7ea6c	-6.4347896e-06
20	0xb60dbb8b	-2.1119802e-06
21	0x35ad98d2	1.2933981e-06
22	0xb5869b2c	-1.0028939e-06
23	0x343e2a44	1.7710505e-07
24	0xb68606c9	-3.994301e-06
25	0x358cf144	1.050103e-06
26	0x362bca2e	2.559867e-06
27	0x359c81f0	1.1660723e-06
28	0x366d95a0	3.5402845e-06
29	0x360059f4	1.9125846e-06
30	0xb571dd77	-9.010177e-07
31	0xb64be627	-3.0383324e-06
32	0xb6c659b8	-5.9113045e-06
33	0xb6ff7674	-7.613382e-06
34	0x356f1091	8.9058545e-07
35	0x343e5e96	1.7729539e-07
36	0x364ec8dc	3.0813308e-06
37	0x360e8197	2.123508e-06
38	0xb69cee39	-4.676895e-06
39	0x36d1fa2b	6.2578088e-06
40	0x361533dd	2.2232919e-06
41	0xb65a4ade	-3.252811e-06
42	0x36c99718	6.0078564e-06
43	0xb6e8b6d4	-6.935423e-06
44	0xb5bf6c21	-1.4262079e-06
45	0xb5d518f6	-1.5877001e-06
46	0x36462659	2.952662e-06
47	0x36a65b03	4.9577807e-06
48	0x364f09ef	3.0851186e-06
49	0xb68fbb02	-4.2835027e-06
50	0xb63218aa	-2.6538423e-06
51	0x3625f999	2.47322e-06
52	0xb62335c9	-2.43202e-06
53	0xb5c576ed	-1.4712256e-06
54	0xb568c55c	-8.671393e-07
55	0x363c2ff3	2.8042093e-06
56	0x363bf900	2.8010109e-06
57	0xb5d270c2	-1.5679036e-06
58	0xb6a3d03f	-4.8820216e-06
59	0xb525d3f1	-6.1775705e-07
60	0xb686c917	-4.016921e-06
61	0x36f26ff7	7.2251964e-06
62	0xb5b7d6f3	-1.3697121e-06
63	0x364304c5	2.906004e-06

exp_avg_sq f4 [64]
0	0x2fb2c2c3	3.2516398e-10
1	0x306966db	8.491107e-10
2	0x314414bd	2.8533542e-09
3	0x31a8d876	4.9140523e-09
4	0x31465b38	2.8864644e-09
5	0x3089f20b	1.0036855e-09
6	0x2fb99453	3.3756695e-10
7	0x2fa5108b	3.002508e-10
8	0x2d47127c	1.1315945e-11
9	0x3103b600	1.9166464e-09
10	0x3004434f	4.811697e-10
11	0x2f88afb2	2.4863095e-10
12	0x31ad900a	5.051338e-09
13	0x30184238	5.539138e-10
14	0x3123ac08	2.381741e-09
15	0x2e5d5eff	5.0333956e-11
16	0x30ae77ff	1.2694271e-09
17	0x311ff5ea	2.3277331e-09
18	0x30496c8a	7.327762e-10
19	0x319d7152	4.5821844e-09
20	0x2faba3e2	3.1221165e-10
21	0x300c6725	5.107828e-10
22	0x2e7476d2	5.558471e-11
23	0x2d2d76e7	9.860313e-12
24	0x30e1b16f	1.6421334e-09
25	0x2f39437b	1.6849626e-10
26	0x3042fa57	7.0932543e-10
27	0x2f50e079	1.8997239e-10
28	0x30a4e234	1.1996861e-09
29	0x2fdea06f	4.049556e-10
30	0x2f120ad8	1.3282475e-10
31	0x3063fd41	8.2942014e-10
32	0x318594e2	3.8877355e-09
33	0x31d61172	6.230203e-09
34	0x2e90fe3d	6.5935236e-11
35	0x2cec1894	6.710252e-12
36	0x3079edb4	9.092347e-10
37	0x2fe4be3b	4.1608125e-10
38	0x311c5d7e	2.2754132e-09
39	0x31848efa	3.85796e-09
40	0x2fff9997	4.6493362e-10
41	0x30925548	1.0647137e-09
42	0x3187a916	3.94824e-09
43	0x31ae9efc	5.082141e-09
44	0x2f87f595	2.4730853e-10
45	0x2f80a008	2.3396773e-10
46	0x308b26fa	1.0124659e-09
47	0x31349833	2.6279963e-09
48	0x30a593c5	1.2047329e-09
49	0x310f59ce	2.0860287e-09
50	0x3038a3ab	6.7171396e-10
51	0x3063df0e	8.28991e-10
52	0x30472537	7.2448664e-10
53	0x2f585cf7	1.9678113e-10
54	0x2e983362	6.921287e-11
55	0x302c6882	6.272175e-10
56	0x306a25ee	8.5182605e-10
57	0x300654c6	4.8869386e-10
58	0x31267a3b	2.422566e-09
59	0x2df80fcb	2.820135e-11
60	0x30db4386	1.5953538e-09
61	0x31bc9a03	5.4890292e-09
62	0x2f32e2b7	1.6269551e-10
63	0x304cb813	7.4476353e-10

exp_avg f4 [64, 128]
0	0xb4732137	-2.2643222e-07
1	0x348fe6f7	2.6803875e-07
2	0x34dac7d2	4.0751053e-07
3	0x3426898a	1.5509991e-07
4	0xb50da546	-5.27671e-07
5	0x3504b9d4	4.944425e-07
6	0x35dec2a5	1.6596938e-06
7	0x351c3201	5.8187294e-07
8	0xb50b4d59	-5.189409e-07
9	0x3587b308	1.0110389e-06
10	0xb4e1ad62	-4.2035668e-07
11	0x35465dfa	7.38975e-07
12	0x356f085d	8.904661e-07
13	0xb55698f6	-7.99438e-07
14	0x35c53edd	1.4695939e-06
15	0x352c4859	6.418027e-07
16	0xb3c13aa2	-8.997928e-08
17	0x34cc9303	3.8104926e-07
18	0x35b48f81	1.345281e-06
19	0xb554d4a7	-7.9285604e-07
20	0xb51ce116	-5.844207e-07
21	0xb540fb8d	-7.189163e-07
22	0xb34337d4	-4.545275e-08
23	0xb5cf3d1f	-1.544049e-06
24	0x3504331a	4.9248195e-07
25	0xb49ba0d7	-2.8988026e-07
26	0xb3fe0e5b	-1.1830408e-07
27	0xb5ce2993	-1.5360296e-06
28	0x3477c755	2.3076184e-07
29	0x345a7c87	2.0348135e-07
30	0xb55cf9b7	-8.231977e-07
31	0x35057a33	4.9724184e-07
32	0xb59ab8ec	-1.1527713e-06
33	0xb46e3712	-2.2185512e-07
34	0xb5ccef8f	-1.5268905e-06
35	0x3325e451	3.862471e-08
36	0xb54da302	-7.660566e-07
37	0xb58ec3c7	-1.0636803e-06
38	0xb53b72e4	-6.9830116e-07
39	0x3492819c	2.7288922e-07
40	0x351075a7	5.3815387e-07
41	0xb5aff5be	-1.3110036e-06
42	0x35198577	5.719116e-07
43	0xb445cbdb	-1.8421217e-07
44	0x342392f2	1.5234016e-07
45	0xb4925806	-2.7258665e-07
46	0xb5dbfeb6	-1.6390902e-06
47	0x35e6c730	1.7194307e-06
48	0xb566b565	-8.594564e-07
49	0x3510155f	5.367528e-07
50	0xb4d4f1bf	-3.966397e-07
51	0xb398d8a6	-7.11746e-08
52	0x35c020ba	1.4314639e-06
53	0x3563c7c0	8.4854764e-07
54	0x353f6684	7.1302225e-07
55	0x3583a545	9.80836e-07
56	0x359d327a	1.1712102e-06
57	0xb56bae43	-8.7797906e-07
58	0x33ca6c9c	9.426114e-08
59	0xb50d6834	-5.267823e-07
60	0xb598658e	-1.1354439e-06
61	0x358f5368	1.0678605e-06
62	0x35e7bd2e	1.72659e-06
63	0x35701053	8.943072e-07
64	0xb49d8b40	-2.9344847e-07
65	0xb4f5f292	-4.58113e-07
66	0xb45c7543	-2.0531756e-07
67	0x344334c4	1.8179986e-07
68	0xb51df179	-5.8838447e-07
69	0xb383c288	-6.135548e-08
70	0x34ece931	4.4128095e-07
71	0xb3df3bda	-1.03951336e-07
72	0x32a45eee	1.9135282e-08
73	0xb28eaa1e	-1.6608336e-08
74	0x33f6f220	1.149931e-07
75	0x350c8837	5.2352283e-07
76	0x3551ae8d	7.811257e-07
77	0x34e964a7	4.3472866e-07
78	0x353cc9e5	7.032925e-07
79	0xb396f29a	-7.029048e-08
80	0xb5281c8b	-6.262641e-07
81	0xb49c6c2e	-2.9135975e-07
82	0x350e9fc9	5.313164e-07
83	0xb344a433	-4.5784144e-08
84	0xb4ef794e	-4.460548e-07
85	0xb51977ec	-5.717145e-07
86	0xb522d5a7	-6.066061e-07
87	0xb522cfbb	-6.065199e-07
88	0xb4487a11	-1.8670859e-07
89	0x34c5e953	3.6863875e-07
90	0x34f2dec7	4.5238104e-07
91	0xb532a133	-6.6544743e-07
92	0x3517ee4d	5.6598657e-07
93	0xb50409c4	-4.918804e-07
94	0xb42d67e5	-1.6149677e-07
95	0xb4b7fc2d	-3.4269888e-07
96	0xb4452873	-1.836177e-07
97	0xb472ac4f	-2.2600692e-07
98	0xb52a8b3a	-6.3532536e-07
99	0xb527f606	-6.257036e-07
100	0xb40b17d9	-1.295406e-07
101	0xb1619348	-3.282553e-09
102	0xb4d0160d	-3.8759063e-07
103	0x34c3880e	3.6420573e-07
104	0xb5131481	-5.4791604e-07
105	0xb3714e80	-5.618358e-08
106	0x35457705	7.3561415e-07
107	0xb4c4be88	-3.6646475e-07
108	0x35382cd1	6.861056e-07
109	0x347c7e64	2.351531e-07
110	0xb51f1ec4	-5.9276886e-07
111	0x34db8917	4.0891675e-07
112	0xb3b262fa	-8.306775e-08
113	0xb4a12395	-3.0014476e-07
114	0x34e39e9c	4.2397448e-07
115	0xb5199618	-5.7215357e-07
116	0x338d69c3	6.585062e-08
117	0xb40d4a6f	-1.3158727e-07
118	0x351c0632	5.8123544e-07
119	0x34885dc4	2.5400198e-07
120	0x34d2be4c	3.9254007e-07
121	0x34897ba9	2.5608213e-07
122	0xb48258fa	-2.4279126e-07
123	0xb44d9cd2	-1.9149164e-07
124	0xb53838c8	-6.862797e-07
125	0x34fedd9d	4.7472432e-07
126	0x34fe7dc0	4.7402682e-07
127	0x351e7a1a	5.903727e-07
128	0xb50c9f47	-5.2385843e-07
129	0x34b46e01	3.360765e-07
130	0x35366290	6.794371e-07
131	0x34e2b0b3	4.2224346e-07
132	0xb5a70b62	-1.2445782e-06
133	0x356e5a2f	8.8793144e-07
134	0x3659ba63	3.2444011e-06
135	0x358be34c	1.0422459e-06
136	0xb57a83da	-9.3324127e-07
137	0x35fd1513	1.8856102e-06
138	0xb53e2c85	-7.08453e-07
139	0x35e08341	1.67275e-06
140	0x3607bde7	2.0227105e-06
141	0xb5b107e5	-1.3189825e-06
142	0x364aa4f2	3.0196356e-06
143	0x35a2b653	1.2123004e-06
144	0xb4e7111f	-4.303956e-07
145	0x351ddab2	5.88053e-07
146	0x363c0722	2.8018335e-06
147	0xb5c7734e	-1.4860213e-06
148	0xb5b1e118	-1.3253039e-06
149	0xb5e0b956	-1.674324e-06
150	0xb4b1f9e0	-3.3150627e-07
151	0xb6500f70	-3.10034e-06
152	0x35612405	8.3871447e-07
153	0xb4d1352b	-3.8967968e-07
154	0xb2cbfe91	-2.3748074e-08
155	0xb655279d	-3.1762531e-06
156	0x3533e935	6.702206e-07
157	0x344ab417	1.8878232e-07
158	0xb5d4dc0e	-1.5859275e-06
159	0x35544d57	7.90887e-07
160	0xb615e632	-2.2336721e-06
161	0xb5077d7c	-5.047402e-07
162	0xb64e214e	-3.0715778e-06
163	0xb43a8904	-1.7372446e-07
164	0xb5c3c3c2	-1.4585605e-06
165	0xb606297c	-1.9991703e-06
166	0xb5cf304d	-1.5436759e-06
167	0x352e0715	6.4830357e-07
168	0x3553ac28	7.8854146e-07
169	0xb6292175	-2.5202437e-06
170	0x35bbeae5	1.4000949e-06
171	0xb50f12db	-5.329909e-07
172	0x351df0b3	5.883732e-07
173	0xb4d01152	-3.875562e-07
174	0xb65b5f50	-3.2689022e-06
175	0x36608ba6	3.3459887e-06
176	0xb5db04cc	-1.6318168e-06
177	0x356ff66b	8.9393023e-07
178	0xb5227187	-6.0514907e-07
179	0xb4cdb4a7	-3.8315667e-07
180	0x36360919	2.712541e-06
181	0x35cf4f43	1.544577e-06
182	0x35d78fd3	1.6060607e-06
183	0x360499d7	1.975908e-06
184	0x3623a7d2	2.4386577e-06
185	0xb5cfdb14	-1.5486462e-06
186	0x339536ef	6.9483455e-08
187	0xb58db4a3	-1.0557891e-06
188	0xb622562f	-2.4190047e-06
189	0x36159a40	2.2292515e-06
190	0x3662ac04	3.377675e-06
191	0x36006ef6	1.9138074e-06
192	0xb52e8aa2	-6.502179e-07
193	0xb59ac6eb	-1.1531787e-06
194	0xb5026e7a	-4.858954e-07
195	0x34fe832a	4.740662e-07
196	0xb5b6657a	-1.358959e-06
197	0xb43b0624	-1.7417966e-07
198	0x358345e7	9.780605e-07
199	0xb48f3068	-2.6671046e-07
200	0x33e5f108	1.0707487e-07
201	0xb3c92797	-9.366993e-08
202	0x34b5a1bd	3.3831557e-07
203	0x35a7f5c5	1.2513998e-06
204	0x35f3a4f8	1.8152923e-06
205	0x358a09f2	1.0284696e-06
206	0x35d8b00a	1.6144488e-06
207	0xb415aa7c	-1.3938728e-07
208	0xb5cb3d8b	-1.514259e-06
209	0xb54fd1ce	-7.7418815e-07
210	0x35a79b50	1.2487671e-06
211	0xb36a1ca8	-5.4508433e-08
212	0xb58e13ee	-1.0585625e-06
213	0xb5b94638	-1.380401e-06
214	0xb5c6de31	-1.4816816e-06
215	0xb5b91d6d	-1.3792138e-06
216	0xb4f8b00e	-4.6321696e-07
217	0x357da83d	9.4494663e-07
218	0x3591a740	1.0852018e-06
219	0xb5cf8a10	-1.5462883e-06
220	0x35adfdc4	1.296336e-06
221	0xb5a2ad40	-1.2120363e-06
222	0xb4b043c1	-3.2831852e-07
223	0xb55d1e63	-8.2373134e-07
224	0xb4d8264c	-4.0261e-07
225	0xb50999ab	-5.1260093e-07
226	0xb5c18d96	-1.4420827e-06
227	0xb5cabf66	-1.5105877e-06
228	0xb4813807	-2.4068888e-07
229	0x339d76bb	7.332479e-08
230	0xb57c13b1	-9.390597e-07
231	0x355c2161	8.200496e-07
232	0xb5aed962	-1.3027277e-06
233	0xb418a812	-1.4217247e-07
234	0x35e5b150	1.7113434e-06
235	0xb56df350	-8.8643446e-07
236	0x35d4c171	1.585153e-06
237	0x3522ab87	6.059931e-07
238	0xb5b4ea9a	-1.3479323e-06
239	0x3572113f	9.017712e-07
240	0xb42546a5	-1.5392523e-07
241	0xb54f6a85	-7.7268515e-07
242	0x35905bdf	1.0755574e-06
243	0xb5b86671	-1.3738883e-06
244	0x33f51fc8	1.14144825e-07
245	0xb4cad88c	-3.778299e-07
246	0x35b5dc77	1.3549715e-06
247	0x351feec7	5.957958e-07
248	0x357c2703	9.3934085e-07
249	0x351f5e26	5.936912e-07
250	0xb51988ad	-5.719583e-07
251	0xb4e22480	-4.2122338e-07
252	0xb5d459b0	-1.5821333e-06
253	0x35944f97	1.1050023e-06
254	0x358dd941	1.0568548e-06
255	0x35b4fff6	1.348554e-06

exp_avg_sq f4 [64, 128]
0	0x2d313627	1.0073309e-11
1	0x2c749a0d	3.476e-12
2	0x2d887bb2	1.5516342e-11
3	0x2ccbc51c	5.7914906e-12
4	0x2e5131c5	4.7565302e-11
5	0x2de3c88d	2.5895975e-11
6	0x2fbfada9	3.486609e-10
7	0x2e1d3294	3.574259e-11
8	0x2e04bb6e	3.0179796e-11
9	0x2ef70c79	1.1234475e-10
10	0x2d86f389	1.5342188e-11
11	0x2ec4f818	8.9571184e-11
12	0x2f11d79c	1.3264273e-10
13	0x2e7b4093	5.7128146e-11
14	0x2fa6adb2	3.0318642e-10
15	0x2e51e7d2	4.7726996e-11
16	0x2cfd5004	7.199576e-12
17	0x2d5015e1	1.1828289e-11
18	0x2f892c84	2.4951785e-10
19	0x2e98ee5e	6.954502e-11
20	0x2e6c6ab9	5.3754976e-11
21	0x2ec8ba08	9.127993e-11
22	0x2cb67c49	5.1865495e-12
23	0x2faec2ff	3.178897e-10
24	0x2dccbf93	2.3277191e-11
25	0x2cb0879d	5.017277e-12
26	0x2b46b65d	7.059681e-13
27	0x2fb3f229	3.2731975e-10
28	0x2d7f5b19	1.45152996e-11
29	0x2bf24336	1.7213789e-12
30	0x2eb6f221	8.3194125e-11
31	0x2dbb6420	2.1303903e-11
32	0x2f3028eb	1.6021644e-10
33	0x2d14e377	8.463333e-12
34	0x2fabe08e	3.1264275e-10
35	0x2c4dbe05	2.9237734e-12
36	0x2e989ff6	6.9405745e-11
37	0x2f0d3be3	1.2845151e-10
38	0x2ea069ef	7.294775e-11
39	0x2d56767b	1.21908e-11
40	0x2db72035	2.0818994e-11
41	0x2f60459b	2.039741e-10
42	0x2e85b1e7	6.0797416e-11
43	0x2d1062eb	8.2074165e-12
44	0x2d5ba943	1.2486292e-11
45	0x2ca1f1df	4.6027483e-12
46	0x2fc2d32b	3.5438438e-10
47	0x2fcc401a	3.715293e-10
48	0x2ebf01a8	8.6859686e-11
49	0x2de004c4	2.5467968e-11
50	0x2d35638b	1.0310762e-11
51	0x2cea0f6c	6.652392e-12
52	0x2f844e65	2.4066363e-10
53	0x2ea81682	7.643754e-11
54	0x2eb52eb9	8.239227e-11
55	0x2f07a9b2	1.2338466e-10
56	0x2f5326e9	1.9204162e-10
57	0x2eac1212	7.8248644e-11
58	0x2b0fab1a	5.1041257e-13
59	0x2e16c44c	3.4280398e-11
60	0x2f5316d1	1.9198444e-10
61	0x2f2f5b26	1.594854e-10
62	0x2fd05126	3.789264e-10
63	0x2f04101b	1.2011052e-10
64	0x2d7a822a	1.4239757e-11
65	0x2e3ad967	4.2484596e-11
66	0x2cfcee45	7.188724e-12
67	0x2cebfddd	6.707286e-12
68	0x2e80dacb	5.8596315e-11
69	0x2b60ecab	7.990923e-13
70	0x2e0b202e	3.1633522e-11
71	0x2c0ef3cd	2.031475e-12
72	0x2a999bf0	2.7286463e-13
73	0x2abc3e94	3.343893e-13
74	0x2c8409d2	3.752756e-12
75	0x2e584a9b	4.9178977e-11
76	0x2ee71055	1.0507565e-10
77	0x2e17e78f	3.453909e-11
78	0x2eb53145	8.239679e-11
79	0x2b16bbc7	5.35513e-13
80	0x2e9eaf5a	7.216157e-11
81	0x2d9df8b7	1.7959285e-11
82	0x2e58de76	4.93103e-11
83	0x29dcf48f	9.812387e-14
84	0x2e1a495f	3.5080713e-11
85	0x2e87f622	6.182811e-11
86	0x2e97cf2c	6.903486e-11
87	0x2e88c5f0	6.219725e-11
88	0x2ce39012	6.467723e-12
89	0x2df1544e	2.7435967e-11
90	0x2e22b682	3.6996635e-11
91	0x2eab97df	7.8031574e-11
92	0x2e6a291c	5.3241953e-11
93	0x2e506c65	4.7389998e-11
94	0x2c6ab8d5	3.3356002e-12
95	0x2db9ed45	2.1137434e-11
96	0x2caf28b2	4.9783172e-12
97	0x2d0d56e9	8.03422e-12
98	0x2e95b65b	6.8081284e-11
99	0x2ea23ffe	7.3782744e-11
100	0x2c1ad825	2.20047e-12
101	0x29f89d4f	1.1040701e-13
102	0x2df13698	2.7422772e-11
103	0x2db97305	2.1083144e-11
104	0x2e72813f	5.5139223e-11
105	0x2b183d99	5.408673e-13
106	0x2ecd037e	9.322941e-11
107	0x2dd615db	2.4338689e-11
108	0x2eb48c42	8.210367e-11
109	0x2d542885	1.2059802e-11
110	0x2e82ee50	5.9540484e-11
111	0x2de18196	2.5637086e-11
112	0x2b8432fa	9.393313e-13
113	0x2da00c1c	1.8195272e-11
114	0x2e222d71	3.6874895e-11
115	0x2e86f071	6.1363255e-11
116	0x2b16d4f0	5.3586215e-13
117	0x2c912e8e	4.1263165e-12
118	0x2e846d39	6.022067e-11
119	0x2d4069f5	1.0937464e-11
120	0x2df1003f	2.7398637e-11
121	0x2d4eed85	1.1762484e-11
122	0x2d30014b	1.0004729e-11
123	0x2cbe7789	5.413396e-12
124	0x2eae6a5c	7.931497e-11
125	0x2e2922f5	3.84572e-11
126	0x2e221753	3.685525e-11
127	0x2e7cd450	5.7486738e-11
128	0x2e68ca6a	5.2930473e-11
129	0x2ca97355	4.8160733e-12
130	0x2e1c820b	3.5585795e-11
131	0x2e08d6ef	3.111372e-11
132	0x2f87df15	2.4714866e-10
133	0x2ea86337	7.6573796e-11
134	0x30b027b0	1.2816965e-09
135	0x2ee25fd7	1.0294315e-10
136	0x2ecc0369	9.277452e-11
137	0x2fc56599	3.590628e-10
138	0x2e2b9dc0	3.902101e-11
139	0x2fe1973a	4.1034715e-10
140	0x302dfdc7	6.329767e-10
141	0x2f08d0e5	1.2443342e-10
142	0x30a83b44	1.2240453e-09
143	0x2f24385a	1.4935733e-10
144	0x2e95370a	6.7855124e-11
145	0x2dc0337b	2.1850735e-11
146	0x30894307	9.987112e-10
147	0x2f7bd040	2.2902302e-10
148	0x2f8a421b	2.5149025e-10
149	0x2fef20f0	4.349725e-10
150	0x2e6ac0c4	5.337665e-11
151	0x30aa1c37	1.2377147e-09
152	0x2e7f537c	5.8054436e-11
153	0x2cc8a9c6	5.7031905e-12
154	0x2d102342	8.193281e-12
155	0x30b520b3	1.3178777e-09
156	0x2edd0dcf	1.00523694e-10
157	0x2ce25e70	6.433791e-12
158	0x2fa18067	2.9376965e-10
159	0x2e37a466	4.1755398e-11
160	0x301a3411	5.6098864e-10
161	0x2e35efd6	4.1367652e-11
162	0x30a8f2d3	1.2292624e-09
163	0x2e28eae3	3.84074e-11
164	0x2f85891b	2.4289978e-10
165	0x2fe7be7f	4.215401e-10
166	0x2faf90d5	3.1935224e-10
167	0x2e954e6a	6.789665e-11
168	0x2e03424b	2.984483e-11
169	0x303ae3d2	6.799016e-10
170	0x2fb66bd3	3.318222e-10
171	0x2e6cbabe	5.3826048e-11
172	0x2ee8c520	1.0585155e-10
173	0x2ce4aa82	6.49908e-12
174	0x30bacb08	1.3590986e-09
175	0x30b8e0a0	1.3451604e-09
176	0x2fa1b36a	2.941321e-10
177	0x2e7c7d80	5.7409633e-11
178	0x2d8c3efd	1.594413e-11
179	0x2e8640ef	6.105149e-11
180	0x305b47fd	7.977404e-10
181	0x2f7b12d3	2.2835005e-10
182	0x2fd59aa4	3.8854353e-10
183	0x2ffd819b	4.6112522e-10
184	0x304ef9c2	7.529729e-10
185	0x2f652ab8	2.0842605e-10
186	0x2b22bdea	5.781752e-13
187	0x2f114a39	1.3214042e-10
188	0x30622e32	8.228397e-10
189	0x3031b57d	6.4650135e-10
190	0x30bff12d	1.3965625e-09
191	0x3010379c	5.246592e-10
192	0x2e998b47	6.982375e-11
193	0x2f732918	2.211532e-10
194	0x2e1f25fc	3.618615e-11
195	0x2e1a8ac8	3.513881e-11
196	0x2fa0438a	2.915182e-10
197	0x2c984a31	4.3283367e-12
198	0x2f2cd1b2	1.5717808e-10
199	0x2d39ea85	1.0568106e-11
200	0x2bf5ad44	1.7456388e-12
201	0x2c06ef6a	1.9175447e-12
202	0x2db29fcc	2.0307221e-11
203	0x2f88a0f8	2.485263e-10
204	0x300ff5ba	5.2372295e-10
205	0x2f3f8a98	1.7420587e-10
206	0x2fe2462a	4.1159015e-10
207	0x2c2f3d08	2.4902875e-12
208	0x2fca60ae	3.681228e-10
209	0x2ed2f969	9.5939985e-11
210	0x2f882394	2.4763536e-10
211	0x2a9a8d24	2.745383e-13
212	0x2f421466	1.7651444e-10
213	0x2fac9767	3.1394196e-10
214	0x2fc2cf1e	3.543556e-10
215	0x2faa9a5e	3.1032504e-10
216	0x2e11f6f6	3.318853e-11
217	0x2f1e727b	1.4410688e-10
218	0x2f4df5f7	1.8732026e-10
219	0x2fd67490	3.9009196e-10
220	0x2f9173a8	2.6457525e-10
221	0x2f85e958	2.435836e-10
222	0x2d8b1b17	1.58145e-11
223	0x2eeba343	1.0715564e-10
224	0x2dd6d50e	2.4423599e-11
225	0x2e2ed239	3.9749735e-11
226	0x2fbb0136	3.4015962e-10
227	0x2fce763c	3.7555192e-10
228	0x2d3134ac	1.0072981e-11
229	0x2b653a79	8.143829e-13
230	0x2f194e2b	1.394304e-10
231	0x2ee4f2ba	1.04113565e-10
232	0x2f993740	2.7869795e-10
233	0x2c462ec1	2.8163446e-12
234	0x2fff97b4	4.649202e-10
235	0x2f07e915	1.2360986e-10
236	0x2fe0c0ac	4.0882264e-10
237	0x2e89d3d3	6.267666e-11
238	0x2fa36a9a	2.9725272e-10
239	0x2f0c044e	1.2734455e-10
240	0x2c978bbf	4.307193e-12
241	0x2ed1f03b	9.546893e-11
242	0x2f53c6f7	1.9261025e-10
243	0x2faadbf6	3.1079112e-10
244	0x2c29ffda	2.415837e-12
245	0x2dc5a5da	2.246996e-11
246	0x2fa507a6	3.001876e-10
247	0x2e715036	5.4868297e-11
248	0x2f187c17	1.3868405e-10
249	0x2e813d8e	5.877175e-11
250	0x2e5cde4f	5.021966e-11
251	0x2de8d643	2.6470498e-11
252	0x2fd93446	3.9509213e-10
253	0x2f535153	1.921923e-10
254	0x2f49e24b	1.8361239e-10
255	0x2f9d0b2f	2.856608e-10

exp_avg f4 [64]
0	0x35ae5c2a	1.2990834e-06
1	0x364aa522	3.0196466e-06
2	0xb5fc2ebe	-1.8789067e-06
3	0x36460709	2.9508394e-06
4	0xb1ea3514	-6.8163306e-09
5	0xb688720e	-4.0663936e-06
6	0xb65dadea	-3.3032798e-06
7	0xb60414b3	-1.9681581e-06
8	0xb1850589	-3.8714387e-09
9	0x365e6ff4	3.3145743e-06
10	0xb5ccd315	-1.5260617e-06
11	0xb2c47eaf	-2.2875012e-08
12	0x35d3509b	1.5744184e-06
13	0xb53748b0	-6.8278587e-07
14	0x35957827	1.1136334e-06
15	0xb4a2a6b0	-3.0296133e-07
16	0xb62af5cc	-2.5475047e-06
17	0xb631f531	-2.6517775e-06
18	0x3678e8c7	3.7090374e-06
19	0xb60793d7	-2.0202622e-06
20	0xb2f085f7	-2.8000597e-08
21	0x3256d703	1.2505327e-08
22	0xb4327323	-1.6619428e-07
23	0xb553e54c	-7.8937296e-07
24	0xb5b8aa9e	-1.3758724e-06
25	0xb5362280	-6.785049e-07
26	0x361d2bc5	2.34203e-06
27	0xb5c3e073	-1.4593955e-06
28	0x3547c26d	7.4416204e-07
29	0xb4b52f1b	-3.374815e-07
30	0xb419d141	-1.4325362e-07
31	0xb5ead8f1	-1.7497497e-06
32	0xb64b136e	-3.0260667e-06
33	0xb5d647ba	-1.5965118e-06
34	0x3617bac6	2.260947e-06
35	0xb5054d53	-4.965888e-07
36	0x366e2c41	3.5490523e-06
37	0x3603803c	1.9595163e-06
38	0xb5dfa0e4	-1.666162e-06
39	0x364a71ea	3.0166652e-06
40	0xb5d18aec	-1.5612145e-06
41	0xb3d78cdf	-1.0037342e-07
42	0x35d546c5	1.5890333e-06
43	0xb627d0f3	-2.5006564e-06
44	0xb5169966	-5.610258e-07
45	0xb628edea	-2.5172435e-06
46	0x35959d8e	1.114722e-06
47	0x3627ac99	2.4985404e-06
48	0x3621813b	2.4066092e-06
49	0xb5b6df4d	-1.3625046e-06
50	0xb5b5fef8	-1.3559757e-06
51	0x33ac7513	8.03067e-08
52	0xb5f35b9b	-1.8131572e-06
53	0xb4e4695f	-4.2544977e-07
54	0xb5c25c08	-1.4480911e-06
55	0x36188d9c	2.2732193e-06
56	0x33abb88c	7.996377e-08
57	0x352ccc66	6.437243e-07
58	0xb5196783	-5.714757e-07
59	0xb48a8a48	-2.5805116e-07
60	0xb50a6274	-5.1552274e-07
61	0x36089c5c	2.0356592e-06
62	0xb63b18ce	-2.787961e-06
63	0x34bba975	3.495476e-07

exp_avg_sq f4 [64]
0	0x2fa19bb8	2.9396374e-10
1	0x30c94948	1.4645503e-09
2	0x3003c156	4.793227e-10
3	0x30d5c1f0	1.555291e-09
4	0x2bb69193	1.2972283e-12
5	0x3111d592	2.1221678e-09
6	0x30d44c64	1.5446742e-09
7	0x2fdaec6a	3.982195e-10
8	0x289eb70f	1.7620913e-14
9	0x30e7d1ed	1.6867127e-09
10	0x2fb66eb2	3.318426e-10
11	0x2d834453	1.4923318e-11
12	0x2ffeef48	4.637235e-10
13	0x2eae1d44	7.9178025e-11
14	0x2f92c2f8	2.669578e-10
15	0x2db83bf5	2.0945004e-11
16	0x305eacd6	8.1008744e-10
17	0x30921078	1.0627579e-09
18	0x3103cac4	1.9178268e-09
19	0x30318d7b	6.459328e-10
20	0x2b89417a	9.752609e-13
21	0x2e198bbf	3.4912292e-11
22	0x2beea499	1.6956602e-12
23	0x2eb98257	8.435979e-11
24	0x2f837548	2.3912095e-10
25	0x2f342dcf	1.6387179e-10
26	0x304ca982	7.445565e-10
27	0x2fa2ea71	2.963421e-10
28	0x2f20128c	1.4558504e-10
29	0x2d0d9b38	8.0493875e-12
30	0x2c155d2b	2.1225892e-12
31	0x2ff5964f	4.467204e-10
32	0x30b54cce	1.3191312e-09
33	0x3000ed03	4.690294e-10
34	0x30002e48	4.66319e-10
35	0x2daee2b2	1.9882183e-11
36	0x30ff0870	1.855609e-09
37	0x3013e8ca	5.38091e-10
38	0x2fe4b287	4.159981e-10
39	0x30aeddbd	1.2723188e-09
40	0x301039f9	5.246928e-10
41	0x2d4a484e	1.14984255e-11
42	0x3004a001	4.82487e-10
43	0x3085c48d	9.732887e-10
44	0x2e7fdab6	5.817454e-11
45	0x3080508b	9.336117e-10
46	0x2fb47328	3.2823633e-10
47	0x309a8d4e	1.1245136e-09
48	0x307c7c78	9.1853947e-10
49	0x2f86cdca	2.452068e-10
50	0x2fa96e75	3.0819405e-10
51	0x2e7e22c2	5.7783785e-11
52	0x3009cda7	5.013256e-10
53	0x2ed85f5e	9.8394834e-11
54	0x2fc6324e	3.6051734e-10
55	0x3071a67c	8.791188e-10
56	0x2c29f979	2.415483e-12
57	0x2e8c9356	6.392635e-11
58	0x2e9353fa	6.699703e-11
59	0x2ca27149	4.616894e-12
60	0x2e4a04bd	4.593369e-11
61	0x304d19f1	7.461543e-10
62	0x30985c00	1.1085604e-09
63	0x2d5bfe0c	1.25051185e-11

exp_avg f4 [2, 64]
0	0x374b7252	1.212636e-05
1	0xb737a584	-1.0946187e-05
2	0xb805d655	-3.1909283e-05
3	0x379ad708	1.8458362e-05
4	0xb7f43dee	-2.9115905e-05
5	0xb7b5cf90	-2.1673535e-05
6	0xb66fdf93	-3.5743913e-06
7	0xb736794f	-1.087629e-05
8	0xb7044125	-7.882981e-06
9	0x3783e4aa	1.5722897e-05
10	0xb689be2e	-4.105058e-06
11	0x378ce835	1.679743e-05
12	0x386e47b1	5.681039e-05
13	0x36ab2255	5.100194e-06
14	0x3839023f	4.410953e-05
15	0xb5a4b129	-1.2270513e-06
16	0xb8304622	-4.2026986e-05
17	0xb8021411	-3.1013104e-05
18	0x3821b509	3.8553993e-05
19	0xb71e20a9	-9.425138e-06
20	0xb760a8e0	-1.339076e-05
21	0xb7379176	-1.0941518e-05
22	0xb7b24f94	-2.125631e-05
23	0xb7c80d88	-2.3848159e-05
24	0xb7cb8dd3	-2.4265528e-05
25	0x36f01f1f	7.1561803e-06
26	0x37ad756c	2.0677886e-05
27	0xb80ed3c2	-3.4052653e-05
28	0x3827d708	4.0016166e-05
29	0xb72bb51b	-1.0234561e-05
30	0x36bca597	5.622114e-06
31	0xb8293245	-4.0339557e-05
32	0xb784b0dc	-1.5817983e-05
33	0xb7d896a5	-2.5819356e-05
34	0xb82aeabb	-4.074977e-05
35	0xb7b79fac	-2.1889653e-05
36	0x37a4d2b8	1.9648447e-05
37	0x3808d2f8	3.2621407e-05
38	0xb802e6ba	-3.1209296e-05
39	0x38013ae4	3.0810843e-05
40	0xb809f51b	-3.2891618e-05
41	0xb803938f	-3.137026e-05
42	0x384c2954	4.867588e-05
43	0xb821b45a	-3.8553357e-05
44	0xb71418d8	-8.827272e-06
45	0xb76db22c	-1.4167785e-05
46	0xb76d9a38	-1.4162208e-05
47	0x37da277c	2.6006011e-05
48	0x37fdea3b	3.0269022e-05
49	0xb814a95c	-3.5443678e-05
50	0xb7840a99	-1.5740561e-05
51	0xb713cb3f	-8.809205e-06
52	0xb7f7d1eb	-2.9542445e-05
53	0xb7f0f50d	-2.872434e-05
54	0xb77ce79f	-1.5074299e-05
55	0x37b1a94f	2.1178885e-05
56	0x3727540e	9.973546e-06
57	0x3769cfbd	1.393625e-05
58	0xb714ad88	-8.861891e-06
59	0x37996899	1.8287728e-05
60	0xb86fdc22	-5.7187055e-05
61	0x3844724a	4.683648e-05
62	0xb737353a	-1.0920043e-05
63	0x37d17106	2.4967372e-05
64	0xb7422f6c	-1.1574342e-05
65	0xb804bc1c	-3.1646443e-05
66	0xb74ed02b	-1.2327025e-05
67	0x3806613e	3.2038653e-05
68	0x379fcd47	1.9049867e-05
69	0xb740f8dc	-1.1502034e-05
70	0xb7bb8b55	-2.2357019e-05
71	0xb7077892	-8.0746995e-06
72	0xb7b5e6cb	-2.1684353e-05
73	0xb8175ced	-3.608775e-05
74	0x37c59209	2.3552233e-05
75	0x3792bc74	1.7492312e-05
76	0x35a04f0f	1.1943938e-06
77	0x37d14e0b	2.4951083e-05
78	0xb5aaa5df	-1.2714262e-06
79	0xb821ef7f	-3.860844e-05
80	0xb72ea1f9	-1.040892e-05
81	0xb6cb29e0	-6.0547463e-06
82	0xb7537a8e	-1.26051145e-05
83	0x381ece35	3.786218e-05
84	0x37df8093	2.6643544e-05
85	0xb79c691d	-1.8645596e-05
86	0x36830cc7	3.9055917e-06
87	0x380b0004	3.3140197e-05
88	0xb6993cb6	-4.566823e-06
89	0x381f539a	3.7986414e-05
90	0x3815bd1c	3.570049e-05
91	0x37f7926f	2.9512883e-05
92	0x37bbf10c	2.2404383e-05
93	0xb82f85a7	-4.1847725e-05
94	0xb7855659	-1.5895044e-05
95	0xb74f0608	-1.2339566e-05
96	0x37fb1c2a	2.9934647e-05
97	0xb7a4b3fe	-1.9634139e-05
98	0x380d29b5	3.3655862e-05
99	0xb8204ddd	-3.821949e-05
100	0x379aa7a9	1.8436303e-05
101	0x378e2b5f	1.6947915e-05
102	0x37683b8c	1.3842142e-05
103	0xb68ade02	-4.1385656e-06
104	0xb847b972	-4.7618007e-05
105	0x380aef60	3.31247e-05
106	0xb7455c43	-1.1763596e-05
107	0x33a319e7	7.5949906e-08
108	0x378be7d2	1.6678041e-05
109	0x36202112	2.3861107e-06
110	0x38289f41	4.0202638e-05
111	0x3421d83e	1.5072962e-07
112	0x37869b46	1.604635e-05
113	0xb732ae18	-1.0650161e-05
114	0x37ba14a2	2.2182536e-05
115	0xb814d52a	-3.5484474e-05
116	0xb810b0a5	-3.449679e-05
117	0xb82c238c	-4.10411e-05
118	0xb6af4a61	-5.2240653e-06
119	0xb7f454eb	-2.912661e-05
120	0x3623bd3c	2.4399042e-06
121	0x385a2886	5.201299e-05
122	0x3792e40e	1.7510753e-05
123	0x37b78d71	2.1881164e-05
124	0x3641ecb8	2.889703e-06
125	0xb7195485	-9.139189e-06
126	0xb7da1754	-2.5998488e-05
127	0x3710a815	8.6222035e-06
