results/energy/checkpoints/A02_H064_L02_D01_Tanh_W4096_P010000_V-2.00e+01_S5.00e-01_Adam_PT_False_NO_TRAP_device_cuda_dtype_float32_chkp.pt (torch, 168471 bytes, 23 tensors)

layers.0.fc.weight f4 [64, 2]
-0.013165765 0.39713538 -0.5994008 -0.40578777 -0.36379892 0.32168058 -0.0080595305 0.54945165
-0.10932105 0.20224734 -0.27216834 0.01444072 -0.67576295 -0.4084542 -0.33736917 0.16537757
0.32822642 0.39867234 -0.5124139 -0.1569261 0.27804103 0.53331774 -0.21418445 0.5125535
-0.11950653 0.04603035 0.7939155 -0.7268707 -0.47034666 -0.13117602 -0.54703504 0.57035136
-0.46516675 -0.31621888 -0.46828756 -0.5820525 -0.4638702 0.6191461 0.36111644 0.27355978
0.052093096 -0.31506675 0.15529299 -0.6574499 -0.5084721 -0.09745869 0.47938144 0.1925291
-0.33183837 0.1717564 0.46245992 0.57160586 0.3053559 -0.0070437505 0.6031571 -0.45439696
0.2866249 -0.46895492 -0.5313495 -0.17139825 0.34571868 0.16744788 -0.4483625 0.33595783
0.4309518 -0.11251614 0.024934726 0.15399559 0.4520586 0.21976183 -0.5442148 0.108471796
0.30106932 0.44446683 0.64573365 0.43363765 0.16863537 -0.6068045 0.079230264 -0.40398958
-0.7068167 0.5696105 0.6847 -0.71438104 0.12372562 -0.13304716 -0.1296276 -0.32206774
0.31052175 -0.4647229 0.25754616 0.33876473 0.5199883 0.18209921 -0.70367324 -0.38714305
0.3781761 0.06454068 -0.54279613 -0.3450082 0.6962974 0.36959437 -0.3352561 -0.11733661
-0.6321515 0.22481397 -0.55507565 -0.1900247 -0.111189 0.11194932 -0.3538279 0.40441674
-0.52426314 0.6713465 0.7195016 -0.66471833 -0.23275991 0.18560739 0.18656223 0.093336895
0.3376425 -0.049085733 -0.34378657 0.31921124 -0.69733715 -0.3141544 -0.23054598 -0.18257906
00000000: 39b5 57bc 5455 cb3e 5572 19bf 6ac3 cfbe
00000010: da43 babe 51b3 a43e 1f0c 04bc dda8 0c3f
00000020: b7e3 dfbd ed19 4f3e a659 8bbe c598 6c3c
00000030: cdfe 2cbf e920 d1be a7bb acbe bd58 293e
00000040: 4b0d a83e c81e cc3e 8f2d 03bf 3cb1 20be
00000050: 655b 8e3e 8387 083f 2b53 5bbe b536 033f
00000060: d7bf f4bd 528a 3c3d 0c3e 4b3f 3314 3abf
00000070: 47d1 f0be 0253 06be 7d0a 0cbf 8c02 123f
00000080: 562a eebe 71e7 a1be 63c3 efbe 6501 15bf
00000090: 6580 edbe 5c80 1e3f 41e4 b83e 0710 8c3e
000000a0: 925f 553d 6e50 a1be 2005 1f3e a34e 28bf
000000b0: 3a2b 02bf 6c98 c7bd 7c71 f53e 5926 453e
000000c0: b8e6 a9be e9e0 2f3e 8cc7 ec3e c354 123f
000000d0: 9c57 9c3e 43cf e6bb 8168 1a3f b8a6 e8be
000000e0: 80c0 923e dc1a f0be 8506 08bf 0683 2fbe
000000f0: 0a02 b13e 7577 2b3e c58f e5be aa02 ac3e
00000100: b7a5 dc3e dd6e e6bd e943 cc3c 05b1 1d3e
00000110: 3a74 e73e 3f09 613e a951 0bbf 7626 de3d
00000120: c225 9a3e 2891 e33e cd4e 253f c105 de3e
00000130: c0ae 2c3e 8a57 1bbf 7a43 a23d b9d7 cebe
00000140: f0f1 34bf fed1 113f 8048 2f3f ade1 36bf
00000150: dc63 fd3d 843d 08be 19bd 04be 10e6 a4be
00000160: b5fc 9e3e 29f0 edbe 17dd 833e 9272 ad3e
00000170: f41d 053f 3778 3a3e ee23 34bf 9d37 c6be
00000180: 4ca0 c13e e72d 843d b0f4 0abf eaa4 b0be
00000190: 8c40 323f 793b bd3e b0a6 abbe 2d4e f0bd
000001a0: aed4 21bf a235 663e 7019 0ebf d695 42be
000001b0: 0fb7 e3bd af45 e53d ee28 b5be b60f cf3e
000001c0: 1c36 06bf 5ddd 2b3f 4231 383f fb2a 2abf
000001d0: 9d58 6ebe dd0f 3e3e 2b0a 3f3e 6a27 bf3d
000001e0: 7adf ac3e 1f0e 49bd cb04 b0be a86f a33e
000001f0: b084 32bf d8d8 a0be 3f14 6cbe 01f6 3abe

layers.0.fc.bias f4 [64]
-0.246376 -0.56377476 -0.14186491 0.1525561 -0.457287 -0.025722668 0.49547982 -0.0706426
0.00039282936 -0.04750956 0.14110333 0.46517602 0.66986436 0.36533996 0.6726643 -0.024445623
-0.63220376 -0.36953866 0.46279708 -0.0091032665 -0.37933132 -0.5495542 -0.6792354 -0.63849723
-0.13918673 0.406707 0.37256813 -0.57526636 0.42106432 -0.5414264 -0.13087927 -0.25641638
-0.13916561 -0.14598122 -0.7126495 -0.70603365 -0.11178569 0.009970337 -0.31922334 0.27028954
-0.57084954 -0.05113106 0.62122434 -0.28467345 0.6336753 0.24733554 -0.6335351 0.45944172
-0.078578494 -0.33258867 0.53945374 -0.5734345 0.073478684 -0.13711105 0.5084025 0.20280345
0.31313258 0.1730062 -0.16442332 -0.14736214 -0.5523798 0.37052542 0.55004543 0.49413905
00000000: fd49 7cbe 8b53 10bf 0945 11be ab37 1c3e
00000010: 8621 eabe 58b8 d2bc 88af fd3e 11ad 90bd
00000020: aaf4 cd39 6299 42bd 647d 103e 8d2b ee3e
00000030: 3b7c 2b3f d70d bb3e ba33 2c3f 3042 c8bc
00000040: 1bd8 21bf 2c34 bdbe bdf3 ec3e de25 15bc
00000050: b737 c2be 96af 0cbf 5fe2 2dbf 8e74 23bf
00000060: f786 0ebe e63b d03e 40c1 be3e a844 13bf
00000070: be95 d73e ec9a 0abf 3705 06be 0249 83be
00000080: 6e81 0ebe 1a7c 15be 3370 36bf 9fbe 34bf
00000090: e5ef e4bd a05a 233c 3e71 a3be 6463 8a3e
000000a0: 3223 12bf cd6e 51bd 8f08 1f3f b8c0 91be
000000b0: 8b38 223f 8745 7d3e 5b2f 22bf f23b eb3e
000000c0: c3ed a0bd 1049 aabe a419 0a3f 9acc 12bf
000000d0: fe7b 963d d766 0cbe ab26 023f b5ab 4f3e
000000e0: ea52 a03e 8a28 313e 965e 28be 1ae6 16be
000000f0: c368 0dbf 82b5 bd3e c7cf 0c3f cbff fc3e

layers.1.fc.weight f4 [64, 128]
-0.06364164 8.2909835e-05 -0.045975514 -0.04477043 -0.05095795 0.046599172 -0.035112947 0.015864901
-0.012451513 0.07742155 -0.07166181 -0.062111244 -0.052379772 0.055211764 -0.02093436 0.08726627
0.029894328 0.02028633 0.006180806 -0.03471497 0.011752802 -0.018577902 -0.0035644858 -0.003940492
-0.046544954 -0.04949026 0.06373011 -0.07591679 -0.011872497 0.08598721 0.01752495 0.022280704
-0.092491366 0.042094745 -0.07704327 -0.026299577 -0.04515162 -0.03533933 0.0015413166 0.07002269
0.02036364 0.06647686 0.052276347 -0.054725513 0.03512002 -0.06566734 -0.053612366 0.042822536
0.012791833 0.07923333 -0.028649347 0.0027777876 0.069210835 -0.06608691 0.06264274 -0.06543395
0.008557835 -0.029187532 -0.036900796 0.00780553 0.07254318 -0.021998173 -0.034412213 -0.031695273
-0.08982541 0.040936302 -0.04032132 -0.05455883 -0.050227817 0.046234462 0.047476918 0.070438184
0.044560216 -0.033120155 -0.01850059 0.023958808 0.071749814 0.029479014 -0.03863483 -0.048411563
-0.08312024 0.021768335 -0.04652591 -0.06857886 0.07840356 -0.056047905 -0.011188427 0.022759251
0.003439921 -0.06283869 -0.0720477 0.06546908 0.013444477 0.07292876 -0.031277202 0.024558673
-0.032576736 -0.0054187244 -0.052852325 0.028147804 0.035689678 0.0049330257 -0.018169276 -0.05434284
0.057279963 -0.057970796 0.034715854 -0.028200338 -0.04300165 0.016599612 -0.05124089 0.022537803
0.013117215 -0.06646866 0.01272467 0.038404483 0.05780997 -0.017214106 -0.073112205 -0.012611975
0.03157549 -0.02730654 0.036515713 0.056079865 -0.045373786 0.0012578956 0.038310923 0.0057518496
0.0066940244 -0.004276432 -0.07544725 0.010724338 0.059261587 0.07799834 0.063325785 0.010523799
0.044749398 -0.04297161 -0.06494063 -0.077261254 0.08784636 0.054520484 -0.058784116 0.02768392
0.057454936 0.07682699 0.0750955 0.0712298 -0.019884476 -0.031080794 0.065962225 0.04130092
-0.055985432 0.092764445 0.04478452 0.052767888 -0.055590875 0.016982645 -0.029837338 0.07051321
-0.019882355 0.032786686 0.0072208955 0.036008973 -0.028754108 0.038039006 -0.06187904 0.019887505
-0.055596847 -0.08460379 -0.07046193 0.06956309 0.049954318 0.08786163 0.062144298 -0.06663969
-0.059341595 -0.02054035 -0.04648417 0.05939885 -0.046153277 -0.046914693 -0.085927404 -0.057938203
0.06838412 0.071488045 0.061345734 0.0691935 0.083845176 -0.030921701 0.051707085 0.07806913
0.028356783 0.08619728 0.050463058 0.05835636 -0.03209356 0.051698245 0.0068187625 -0.008064446
-0.047149464 -0.043372717 -0.065152034 0.05683193 0.063269466 -0.005920382 -0.05099027 0.048827246
0.05689855 0.0073155356 -0.04114913 0.0817472 0.036414076 -0.06672586 0.08694199 0.06721979
-0.021984251 0.048471976 -0.054168936 -0.017761746 0.07543463 0.0045785424 -0.06331932 -0.026513787
-0.035047628 -0.019662807 0.010313971 0.08568535 0.009424289 -0.05594895 0.0051398794 0.042640932
0.042324923 -0.057374507 -0.015861765 -0.06594009 -0.038774412 0.031754635 -0.0645763 0.031217106
0.068405256 0.0055455924 -0.05750764 -0.028635914 0.04705799 -0.064650096 0.04422835 -0.08233
-0.088328175 -0.08147486 -0.014451672 0.057035476 -0.08224115 0.072666146 -0.03802355 0.024300916
00000000: 8c56 82bd e1df ad38 d250 3cbd 3361 37bd
00000010: 49b9 50bd c6de 3e3d 98d2 0fbd 1cf7 813c
00000020: 6e01 4cbc 318f 9e3d 6dc3 92bd 5c68 7ebd
00000030: 2c8c 56bd bb25 623d 897e abbc a8b8 b23d
00000040: f3e4 f43c 842f a63c 5c88 ca3b 4931 0ebd
00000050: d38e 403c af30 98bc 269a 69bb 3e1f 81bb
00000060: eca5 3ebd 4db6 4abd ef84 823d 437a 9bbd
00000070: dd84 42bc 101a b03d 7c90 8f3c 0686 b63c
00000080: 1d6c bdbd 8a6b 2c3d ddc8 9dbd 3672 d7bc
00000090: e8f0 38bd f9bf 10bd 0106 ca3a 0e68 8f3d
000000a0: a6d1 a63c 0525 883d b91f 563d dc27 60bd
000000b0: 03da 0f3d 997c 86bd a498 5bbd af66 2f3d
000000c0: d694 513c 1645 a23d 09b2 eabc 8b0b 363b
000000d0: 69be 8d3d 9358 87bd d64a 803d 3c02 86bd
000000e0: 2936 0c3c b11a efbc 4a25 17bd 88c5 ff3b
000000f0: 8591 943d 8335 b4bc d2f3 0cbd e7d2 01bd
00000100: 62f6 b7bd d3ac 273d f827 25bd 1479 5fbd
00000110: afbb 4dbd 5960 3d3d 2877 423d e541 903d
00000120: c684 363d 00a9 07bd 8d8e 97bc 4345 c43c
00000130: 91f1 923d f97d f13c 8e3f 1ebd 344b 46bd
00000140: f23a aabd 8253 b23c f491 3ebd 1373 8cbd
00000150: 0c92 a03d 7d92 65bd aa4f 37bc 9c71 ba3c
00000160: 4c70 613b 92b1 80bd bf8d 93bd a714 863d
00000170: 3946 5c3c ac5b 953d 861c 00bd 452f c93c
00000180: 2f6f 05bd 8e8f b1bb ae7b 58bd 3996 e63c
00000190: 572f 123d 38a5 a13b bcd7 94bc 9996 5ebd
000001a0: 659e 6a3d c972 6dbd 3632 0e3d 6504 e7bc
000001b0: 8022 30bd e9fb 873c f8e1 51bd 33a1 b83c
000001c0: 96e9 563c b920 88bd 227b 503c 054e 1d3d
000001d0: 26ca 6c3d 9904 8dbc dabb 95bd 75a2 4ebc
000001e0: 4d55 013d f7b1 dfbc 8091 153d 00b4 653d
000001f0: ddd9 39bd f9df a43a eaeb 1c3d 037a bc3b
00000200: 8c59 db3b 5021 8cbb 1684 9abd 22b5 2f3c
00000210: 47bc 723d 98bd 9f3d f3b0 813d 036c 2c3c
00000220: 254b 373d 0003 30bd 98ff 84bd 263b 9ebd
00000230: cbe8 b33d df50 5f3d 9dc7 70bd 63c9 e23c
00000240: de55 6b3d 7857 9d3d abcb 993d eee0 913d
00000250: c5e4 a2bc 269d febc 3417 873d 272b 293d
00000260: fb50 65bd 49fb bd3d f96f 373d 2423 583d
00000270: 42b3 63bd 301f 8b3c 6f6d f4bc 3b69 903d
00000280: 52e0 a2bc 554b 063d 439d ec3b 257e 133d
00000290: bc8d ebbc cace 1b3d e074 7dbd 1feb a23c
000002a0: 85b9 63bd c044 adbd 584e 90bd 1877 8e3d
000002b0: e69c 4c3d ccf0 b33d 058b 7e3d 647a 88bd
000002c0: 2c10 73bd 3c44 a8bc 2f66 3ebd 354c 733d
000002d0: 380b 3dbd 9f29 40bd b5fa afbd 9c50 6dbd
000002e0: f90c 8c3d 5368 923d aa45 7b3d 52b5 8d3d
000002f0: 05b7 ab3d 824f fdbc cfca 533d b5e2 9f3d
00000300: 7c4c e83c 3388 b03d 5ab2 4e3d 1407 6f3d
00000310: 8974 03bd 8ac1 533d ed6f df3b bd20 04bc
00000320: cc1f 41bd 97a7 31bd 6e6e 85bd 99c8 683d
00000330: 6c93 813d c4ff c1bb 2cdb 50bd 14ff 473d
00000340: 740e 693d 29b7 ef3b fd8b 28bd 136b a73d
00000350: ed26 153d 91a7 88bd a40e b23d 87aa 893d
00000360: 5118 b4bc 8d8a 463d 3fe0 5dbd 1581 91bc
00000370: 797d 9a3d 9907 963b 8fad 81bd 7133 d9bc
00000380: 1a8e 0fbd e513 a1bc eefb 283c cd7b af3d
00000390: 5568 1a3c ba2a 65bd 6f6c a83b 42a8 2e3d
000003a0: e65c 2d3d 8801 6bbd 88f0 81bc 990b 87bd
000003b0: ebd1 1ebd 2611 023d 9440 84bd 04bb ff3c
000003c0: 0e18 8c3d cdb7 b53b 228d 6bbd dd95 eabc
000003d0: e1bf 403d 4567 84bd c928 353d a29c a8bd
000003e0: 67e5 b4bd 4bdc a6bd b5c6 6cbc 089e 693d
000003f0: 0c6e a8bd fdd1 943d 95be 1bbd b712 c73c

layers.1.fc.bias f4 [64]
0.06486131 -0.005740918 -0.02781012 0.0072782477 0.02413677 -0.010281889 0.03709996 0.041543532
-0.065092154 0.076296315 0.060035735 -0.007064728 0.056323603 -0.022892814 0.006481193 0.053626828
-0.06565879 -0.024936823 -0.059718486 -0.012123854 -0.06003945 -0.039075967 -0.042396493 0.06888896
0.020196812 -0.084440336 -0.054135088 -0.005146588 0.026056726 0.045286443 0.10343151 -0.059147414
0.08687418 0.059757113 -0.059481617 -0.05908652 -0.07259647 -0.030000303 -0.019135995 -0.086555004
-0.027927686 0.044855714 -0.0068600914 -0.072034 -0.057751674 0.040762756 0.04663567 -0.036323454
-0.06975311 0.042841867 -0.044229757 -0.082152486 0.08196949 0.020149652 -0.014590139 0.011848307
0.06895032 -0.09771478 -0.0143047925 -0.027451076 -0.097802706 0.07513599 -0.08233527 -0.03787738
00000000: 02d6 843d 501e bcbb 0cd2 e3bc 5e7e ee3b
00000010: 7aba c53c 5e75 28bc 21f6 173d 8d29 2a3d
00000020: 094f 85bd 3e41 9c3d 08e8 753d 3c7f e7bb
00000030: 94b3 663d b689 bbbc 3060 d43b cea7 5b3d
00000040: 1e78 86bd 4f48 ccbc 5f9b 74bd 21a3 46bc
00000050: edeb 75bd 1f0e 20bd f2a7 2dbd a815 8d3d
00000060: c973 a53c 0eef acbd c1bc 5dbd b6a4 a8bb
00000070: ea74 d53c 477e 393d e6d3 d33d 8f44 72bd
00000080: 17eb b13d e0c3 743d ffa2 73bd b504 72bd
00000090: 75ad 94bd 32c3 f5bc 17c3 9cbc c043 b1bd
000000a0: 9ac8 e4bc a0ba 373d 9eca e0bb 9086 93bd
000000b0: 058d 6cbd d9f6 263d 0b05 3f3d e7c7 14bd
000000c0: b8da 8ebd f47a 2f3d 432a 35bd 903f a8bd
000000d0: 9fdf a73d e210 a53c 7a0b 6fbc 671f 423c
000000e0: d335 8d3d b01e c8bd a65e 6abc 14e1 e0bc
000000f0: c94c c8bd e6e0 993d 659f a8bd 5025 1bbd

layers.2.gsds.0.weight f4 [2, 64]
0.06486774 0.10168507 -0.02308365 0.105857916 -0.002034955 -0.116531536 -0.10575198 -0.060291197
-0.09597546 0.11325671 -0.05669765 -0.024775606 0.08354068 -0.020871367 0.05784451 -0.011326251
-0.05113352 -0.07487577 0.11349676 -0.07215299 0.01591736 0.048258632 0.018030139 -0.025376441
-0.026023606 -0.046887342 0.050417308 -0.0317467 0.0452668 0.056390077 0.11356659 -0.067686364
-0.07767074 -0.074098736 0.03901768 0.0015146093 0.113765016 0.1018901 -0.054713752 0.083364636
-0.0584037 -0.032386832 0.108790666 -0.08921525 -0.046118222 -0.10637739 0.04917215 0.103521295
0.10749028 -0.051578015 -0.08044501 0.06680679 -0.06888702 -0.045388225 -0.093475804 0.07937673
-0.016516427 0.03491268 -0.014208766 0.007813706 -0.05208077 0.12071219 -0.098108135 -0.011320971
-0.043516234 -0.08004383 0.11284325 0.09503865 0.08070145 0.030274622 0.07865299 0.06352577
-0.12556866 -0.056249302 0.02170466 0.08114635 0.07786584 -0.003910856 0.12666133 -0.071335375
0.057115436 0.13725233 0.015830211 0.063670315 0.1136952 -0.09987743 0.08289566 0.048208073
0.07203371 0.037052494 0.09072187 0.03367096 0.03877381 -0.07565453 -0.16362722 0.067742676
0.098443605 -0.015610435 0.090304665 -0.03861118 0.053087886 0.015031542 0.056660358 -0.056093503
-0.059322312 0.07079145 -0.07019827 0.096071735 -0.011719405 -0.034162946 0.11568924 0.116350286
-0.08759276 0.05147265 0.07388824 -0.04275592 0.0030418623 -0.12107459 -0.006562742 -0.08741523
0.11120424 0.008270589 0.1422593 0.20193456 -0.048725862 0.06306499 0.058295157 0.06224462
00000000: 61d9 843d 4340 d03d ec19 bdbc 09cc d83d
00000010: e15c 05bb 16a8 eebd 7e94 d8bd e7f3 76bd
00000020: c88e c4bd 22f3 e73d cc3b 68bd 36f6 cabc
00000030: 6017 ab3d 6efa aabc 5dee 6c3d bd91 39bc
00000040: 6271 51bd 7858 99bd fd70 e83d f2c4 93bd
00000050: 2065 823c d8aa 453d f1b3 933c 41e2 cfbc
00000060: 752f d5bc f10c 40bd 6182 4e3d d408 02bd
00000070: ae69 393d 48f9 663d 9a95 e83d 269f 8abd
00000080: d611 9fbd 14c1 97bd 01d1 1f3d db85 c63a
00000090: a2fd e83d c2ab d03d 871b 60bd 14bb aa3d
000000a0: b838 6fbd 0ea8 04bd a4cd de3d 7cb6 b6bd
000000b0: 76e6 3cbd 64dc d9bd bd68 493d f902 d43d
000000c0: dd23 dc3d 7843 53bd 5ac0 a4bd 00d2 883d
000000d0: a314 8dbd 01e9 39bd 3e70 bfbd 4490 a23d
000000e0: 754d 87bc 9900 0f3d e2cb 68bc 0f05 003c
000000f0: a552 55bd f437 f73d ebec c8bd 987b 39bc
00000100: 143e 32bd 05ee a3bd 5d1a e73d a0a3 c23d
00000110: cd46 a53d 7c02 f83c d214 a13d cd19 823d
00000120: 1295 00be ab65 66bd f9cd b13c 0f30 a63d
00000130: 2078 9f3d a326 80bb 82b3 013e 4818 92bd
00000140: e0f1 693d e08b 0c3e 5cae 813c 9565 823d
00000150: 07d9 e83d 8a8c ccbd 33c5 a93d d475 453d
00000160: 6986 933d 5bc4 173d 63cc b93d 90ea 093d
00000170: 49d1 1e3d c3f0 9abd e58d 27be acbc 8a3d
00000180: cd9c c93d e9c2 7fbc a7f1 b83d c226 1ebd
00000190: af72 593d db46 763c b114 683d 4dc2 65bd
000001a0: f4fb 72bd 1cfb 903d 1cc4 8fbd 42c1 c43d
000001b0: bf02 40bc 72ee 0bbd 7bee ec3d 0f49 ee3d
000001c0: d563 b3bd fcd4 523d b852 973d d520 2fbd
000001d0: fb59 473b f4f5 f7bd 450c d7bb c206 b3bd
000001e0: 0cbf e33d 5d81 073c 6cac 113e efc7 4e3e
000001f0: c594 47bd 3828 813d e7c6 6e3d 37f4 7e3d

layers.2.gsds.0.bias f4 [2]
-0.01963701 0.10751273
00000000: cbdd a0bc a22f dc3d

log_envelope.log_envs.0.weight f4 [2, 1]
0.3766028 0.38768178
00000000: 15d2 c03e 3a7e c63e

exp_avg f4 [64, 2]
-0.0060222126 0.0011570193 -0.000770152 0.0016638968 0.0014724947 0.0029100645 -0.003623368 0.0029992305
-0.00058224663 -0.00021524268 0.002246227 -0.0038189057 0.0026642631 -0.0028766734 -0.0011200189 -0.0026344748
-0.0011584966 -0.0056260577 -0.0043551642 0.002094442 0.0011932785 -0.0036706338 0.0015777636 -0.000509965
-0.0034146793 0.0031533623 0.0007968192 0.0013304498 -0.0010300035 0.003491381 -0.0010161169 -0.0029624933
-0.00083773775 -0.0029758443 0.0027404004 -0.00034168523 -0.009315295 -0.00015538554 0.0035419997 -0.004555654
-0.0021859184 0.0029913061 -0.0014825454 0.0028934104 0.00021634164 0.0023372436 0.0031339435 0.00059677515
0.00019179384 -0.0012695787 6.3651816e-05 0.0011776626 0.00096061145 0.0034587558 0.0020994106 0.0026253772
0.00073056517 0.00046765216 -0.0013229502 -0.0013486111 -0.005975155 0.001614467 0.0010840653 -0.0028527637
0.004796705 -0.002822694 0.0026947067 -0.0033642629 -1.3539828e-06 0.0006482725 -0.0006451082 -0.0025837626
-0.0018395275 0.0026141922 -0.0012790627 0.0017426036 0.0014348547 -0.0011471665 -0.0064908937 -0.00075669563
-0.0004497532 -0.006190373 -0.0016210905 -0.0035824291 -0.0033860332 0.0027485252 0.0004555915 -0.0031911186
0.002001651 -0.0019864286 0.0012429769 -0.00449624 0.00042261276 0.0029716387 -0.003729888 0.0056218407
-0.0026740015 0.0024633887 0.0013670053 -0.0041300505 0.00064843317 -0.0008967115 0.0006088433 0.0057112435
-0.0040509636 -0.007219469 -0.0020332052 -0.0041904617 0.005621814 -0.0043491204 -0.006598171 -0.0031640134
0.004589538 0.004433299 0.0005676621 -0.00062431104 0.00051027146 0.0023594408 0.0035797888 0.0068773427
-0.0008614775 -0.0017480568 -0.0056957705 0.0039941836 0.0038520035 -0.0004981744 0.0012535318 -0.00022444499
00000000: fb55 c5bb 20a7 973a 07e4 49ba 1d17 da3a
00000010: b900 c13a c8b6 3e3b 0776 6dbb bd8e 443b
00000020: e9a1 18ba c4b2 61b9 7035 133b 9b46 7abb
00000030: eb9a 2e3b 9286 3cbb 99cd 92ba 27a7 2cbb
00000040: b2d8 97ba cb5a b8bb c4b5 8ebb e842 093b
00000050: c867 9c3a 048f 70bb f6cc ce3a 2caf 05ba
00000060: d0c8 5fbb a4a8 4e3b a2e1 503a 7d62 ae3a
00000070: 2f01 87ba a7cf 643b 3a2f 85ba 6426 42bb
00000080: a19b 5bba 6206 43bb 4a98 333b 3724 b3b9
00000090: 2e9f 18bc fdee 22b9 e520 683b 9847 95bb
000000a0: a041 0fbb ca09 443b f851 c2ba 5f9f 3d3b
000000b0: c4d9 6239 712c 193b d962 4d3b e770 1c3a
000000c0: 441c 4939 fe67 a6ba cf7c 8538 cd5b 9a3a
000000d0: 8bd1 7b3a 4bac 623b 4496 093b 850e 2c3b
000000e0: 6683 3f3a 362f f539 d866 adba e1c3 b0ba
000000f0: 3ccb c3bb 869c d33a 3217 8e3a 6ff5 3abb
00000100: ae2d 9d3b f2fc 38bb ad99 303b f77a 5cbb
00000110: 7fba b5b5 d5f0 293a 7a1c 29ba 5854 29bb
00000120: 4d1c f1ba de52 2b3b 39a6 a7ba 1368 e43a
00000130: bc11 bc3a 855c 96ba 90b1 d4bb fc5c 46ba
00000140: dacc ebb9 9dd8 cabb c57a d4ba 30c7 6abb
00000150: 36e8 5dbb 9a20 343b 75dc ee39 1622 51bb
00000160: 222e 033b be2e 02bb 62eb a23a 3255 93bb
00000170: 2092 dd39 d3bf 423b 2371 74bb 6b37 b83b
00000180: 4d3e 2fbb ce70 213b 162d b33a 6055 87bb
00000190: 9dfb 293a 4a11 6bba c89a 1f3a 6225 bb3b
000001a0: f2bd 84bb 4c91 ecbb 863f 05bb 2450 89bb
000001b0: 3237 b83b 1183 8ebb 7835 d8bb 565b 4fbb
000001c0: d663 963b 3545 913b 29cf 143a cea8 23ba
000001d0: bdc3 053a d9a0 1a3b e49a 6a3b 555b e13b
000001e0: c7d4 61ba 0e1f e5ba 96a3 babb a4e1 823b
000001f0: e571 7c3b eb97 02ba 8c4d a43a fe58 6bb9

exp_avg_sq f4 [64, 2]
0.0017096542 0.0019380514 0.00032969652 0.00011469402 0.00018650429 0.00011224656 0.0012392236 0.00057476206
0.00014701863 0.00016607284 0.0006361786 0.00019479996 0.00023648053 0.00052592985 0.00014846472 6.7423796e-05
0.00033538102 0.00047267324 0.0004838968 0.00092779985 0.0006121009 0.00047821875 0.00040474135 8.1423204e-05
0.0010403672 0.0010889618 5.9643997e-05 4.509603e-05 0.00059099915 0.00069738104 0.00018655515 0.0003119185
0.00054698705 0.0001979561 0.00033591632 9.417173e-05 0.0016785337 0.00024942294 0.00094185164 0.0019682574
0.000450093 0.00039491424 0.0017105227 0.00072135346 0.00015269633 0.00010860588 0.00028747314 0.00019901259
0.00015599676 1.9755093e-05 5.8614045e-05 3.844518e-05 0.0003363149 0.0001757788 7.4762436e-05 9.793276e-05
0.00017608967 7.943971e-05 0.00010863803 4.0093353e-05 0.0010608947 0.0006972388 0.00028946504 0.00017315942
0.0013717111 0.0029667672 0.0010610715 0.0015236445 7.788543e-05 3.1299023e-05 5.5522338e-05 2.0858195e-05
0.00027150838 0.00039524824 5.8951486e-05 0.00015406469 0.00097237475 0.00044990017 0.00094552565 0.00018454502
0.000976854 0.0012786556 0.00026537117 0.0004904364 0.0011460792 0.0010916998 0.0005198788 0.0005731841
0.0019819157 0.001043418 0.00084666186 0.0006651262 0.00046517557 0.00038630483 0.000577366 0.001392581
0.0006269668 0.001080336 0.0009136153 0.00076447387 9.59233e-05 3.6052843e-05 0.0022405984 0.0015098001
0.00017699918 0.0006227783 9.538975e-05 0.0002549491 0.0015650736 0.0017656543 0.0006499793 0.000106665735
0.000720098 0.0004737377 0.00015145945 0.00016778383 0.000390641 9.805959e-05 0.00068547943 0.00085522543
8.952706e-05 6.280492e-05 0.0015897009 0.0013730963 0.00021805103 0.00033740362 0.00011863821 3.0823037e-05
00000000: 7a16 e03a 3706 fe3a 1edb ac39 e287 f038
00000010: 5d90 4339 ea65 eb38 726d a23a a1ab 163a
00000020: 0329 1a39 d723 2e39 39c5 263a 3743 4c39
00000030: c2f7 7739 8ede 093a 32ad 1b39 e065 8d38
00000040: 14d6 af39 21d1 f739 87b3 fd39 9837 733a
00000050: 6575 203a 6fb9 fa39 7733 d439 c0c1 aa38
00000060: ee5c 883a 7fbb 8e3a 412a 7a38 7e25 3d38
00000070: 48ed 1a3a 73d0 363a 049e 4339 fe88 a339
00000080: ae63 0f3a 7092 4f39 ed1d b039 107e c538
00000090: 3f02 dc3a fbc4 8239 98e6 763a e1fd 003b
000000a0: 76fa eb39 7e0c cf39 9e33 e03a 3619 3d3a
000000b0: 1c1d 2039 56c3 e338 feb7 9639 09ae 5039
000000c0: 1093 2339 bdb7 a537 5ad8 7538 3340 2138
000000d0: 6c53 b039 4351 3839 c7c9 9c38 4061 cd38
000000e0: b6a4 3839 df98 a638 99d4 e338 e929 2838
000000f0: b80d 8b3a e7c6 363a 57c3 9739 2192 3539
00000100: fdca b33a 186e 423b a713 8b3a 07b5 c73a
00000110: 6c56 a338 1247 0338 a8e0 6838 a2f8 ae37
00000120: 3d59 8e39 5239 cf39 ad42 7738 6d8c 2139
00000130: f7e6 7e3a 94e0 eb39 27dd 773a 6d82 4139
00000140: c809 803a 9098 a73a 8421 8b39 a190 003a
00000150: 0938 963a 5e17 8f3a 7a48 083a bc41 163a
00000160: 07e3 013b 4cc3 883a 84f2 5d3a dd5b 2e3a
00000170: cfe2 f339 f588 ca39 605a 173a 4487 b63a
00000180: 085b 243a 109a 8d3a af7f 6f3a f966 483a
00000190: 6e2a c938 7237 1738 01d7 123b 7ce4 c53a
000001a0: db98 3939 f241 233a fb0b c838 b0aa 8539
000001b0: 2823 cd3a 876d e73a 5f63 2a3a bbb1 df38
000001c0: f5c4 3c3a ff5f f839 16d1 1e39 21ef 2f39
000001d0: f3ce cc39 57a5 cd38 bfb1 333a 3531 603a
000001e0: 79c0 bb38 22b6 8338 835d d03a 77f9 b33a
000001f0: a1a4 6439 8ce5 b039 67cd f838 fc47 0138

exp_avg f4 [64]
-0.0016927748 0.00089979067 0.0024351499 0.0006060337 0.00088743225 -0.00086803373 -0.0011350587 0.0001533024
-0.003101697 -0.0006235651 -0.0011800701 0.001346277 -0.0003514729 -0.0011158577 0.0014630952 -0.00048530896
0.00013080204 0.00029579762 -0.0037364936 -0.0012687165 0.00036544434 -0.0027277695 0.00025638615 0.0020332853
-0.00012510436 0.0003417847 0.0012141953 0.0006403458 -0.00051561504 1.7586395e-06 -0.0018093975 -0.0007598201
0.0026081842 0.00020862509 0.00058986386 0.00050270034 0.0008739628 0.0010276058 0.0021612656 -0.0017155028
-0.0028844082 -0.0013888415 -0.0001313608 0.00096214557 -0.002223271 -0.0006406821 0.0018346657 0.002772495
-0.0005859905 -0.0015486482 -0.00095610914 -0.0009045224 -0.0029433502 -0.0016809851 0.001238171 -0.0021420163
0.0014755228 -0.0028181416 0.003312868 0.0032224085 -0.0005794898 -0.0018914157 0.001856488 0.00084623724
00000000: 19e0 ddba eedf 6b3a 0997 1f3b 3cde 1e3a
00000010: 92a2 683a c28c 63ba 40c6 94ba cdbf 2039
00000020: d745 4bbb bf76 23ba 95ac 9aba 8f75 b03a
00000030: e545 b8b9 f941 92ba 54c5 bf3a 1171 feb9
00000040: e827 0939 4915 9b39 f6df 74bb 104b a6ba
00000050: 1c99 bf39 61c4 32bb 916b 8639 de40 053b
00000060: 722e 03b9 9131 b339 a225 9f3a e1dc 273a
00000070: 572a 07ba 650a ec35 4e29 edba aa2e 47ba
00000080: 12ee 2a3b 5fc2 5a39 18a1 1a3a a6c7 033a
00000090: a71a 653a bbb0 863a 05a4 0d3b b9da e0ba
000000a0: 5708 3dbb ca09 b6ba e5bd 09b9 7f38 7c3a
000000b0: 4cb4 11bb 73f3 27ba 2a79 f03a bfb2 353b
000000c0: 289d 19ba 03fc caba 66a3 7aba 791d 6dba
000000d0: 39e5 40bb 8054 dcba 204a a23a 1261 0cbb
000000e0: 5466 c13a 92b0 38bb b41c 593b 0b2f 533b
000000f0: e7e8 17ba 61e9 f7ba 6655 f33a 05d6 5d3a

exp_avg_sq f4 [64]
0.0029603925 0.00019731042 0.00020714034 0.0017634869 0.00015874437 0.0003006403 0.00055072457 0.00014737672
0.0010086558 0.0008139392 0.0013745043 0.00025535192 0.0015243585 2.4191186e-05 0.0006265144 0.00027328625
0.0003035658 0.00036379683 0.0004864471 0.0024494326 0.00085147395 0.001592228 0.00010607237 0.00020790141
3.437424e-05 8.84346e-05 0.00037501135 8.176823e-05 0.00014269775 9.154825e-05 0.00061760214 0.000105058854
0.001866546 0.0019656233 3.3829605e-05 2.397639e-05 0.00069713173 0.00022678236 0.0010049107 0.00048026533
0.0010308591 0.00038078096 0.0012532031 0.0006516912 0.0013701862 0.0010672526 0.0004891573 0.001454389
0.001088276 0.001138809 7.4174095e-05 0.0016012017 0.0006406553 0.00034542262 0.0021370854 0.00015926026
0.00038112578 0.0001776315 0.00039061438 0.0014057092 6.182888e-05 0.0015766572 0.00031289284 5.781923e-05
00000000: 2503 423b 1de5 4e39 d033 5939 cd24 e73a
00000010: 9e74 2639 429f 9d39 805e 103a 2389 1a39
00000020: df34 843a 895e 553a b628 b43a c1e0 8539
00000030: fccc c73a 2dee ca37 ab3c 243a dc47 8f39
00000040: e927 9f39 fcbb be39 d309 ff39 a986 203b
00000050: 7335 5f3a 4eb2 d03a 2c73 de38 1c00 5a39
00000060: 0f2d 1038 f775 b938 2c9d c439 fc7a ab38
00000070: 23a1 1539 98fd bf38 94e6 213a 0b53 dc38
00000080: e4a6 f43a b0d1 003b 43e4 0d38 e820 c937
00000090: b8bf 363a 6dcc 6d39 35b7 833a 1fcc fb39
000000a0: e41d 873a 8ea3 c739 8542 a43a 42d6 2a3a
000000b0: d297 b33a 0ee3 8b3a ca3a 003a 32a1 be3a
000000c0: 7ca4 8e3a 1744 953a ea8d 9b38 6adf d13a
000000d0: a6f1 273a d719 b539 580e 0c3b 1aff 2639
000000e0: d6d1 c739 9842 3a39 60cb cc39 c63f b83a
000000f0: 21aa 8138 d6a7 ce3a c40b a439 ed82 7238

exp_avg f4 [64, 128]
0.0004397664 0.00032826234 0.0015087998 0.00058444357 0.0006191869 0.00087259494 0.0015320483 0.0012569886
-0.00045289818 0.0011808091 -7.690189e-05 0.0009944552 0.00018206729 -0.0025161665 0.0011174686 0.0022279208
0.0002645806 0.00018621764 0.0018607877 -0.00069442234 -0.000385307 -0.0009082779 0.00056196924 -0.0011237318
0.0012245494 -0.00013960773 -0.0007841236 -0.0020750645 -0.0012536969 0.000607342 -0.0008377465 0.0016129971
-0.0014552546 0.000120189674 -0.0009885873 0.0008467366 -0.00039578616 -0.0012778579 -0.0010082427 -0.0006564368
0.0018564777 -0.0026212824 -0.0005570185 4.514735e-06 -0.0011379782 -0.00023241463 -0.0012446177 0.0016420832
-0.0010483555 0.000662769 -0.0005250468 0.0005189647 0.0020430125 0.0011408355 0.00029539576 0.0015847648
0.0021507295 -0.0025590954 0.0010003713 -0.00048109822 -0.0009793615 0.001396692 0.0016583755 0.00046472112
0.0003896304 -0.00085482723 -6.366901e-05 0.0005567971 0.00018986149 -0.00025042676 4.9889263e-06 -0.00016953789
0.00052837457 -0.00036048406 0.0006978393 0.00025667087 -0.00020144196 0.00013762018 -0.00017687988 4.1258318e-06
-0.0007654502 -0.00087181764 0.0002481414 0.00044784055 -0.00018910426 -0.0004482083 -0.0006528921 0.00017837323
-0.00016925081 0.0008885907 0.00030654704 -9.7243406e-05 -0.00014681411 -0.00067170087 0.0003503401 -0.00015989396
0.00018128738 0.00023163814 0.0001995137 -0.00055127736 0.0004974846 0.00036463907 -0.00042698073 -0.00034676623
-0.00029875472 -2.5965697e-05 -0.00014434641 -0.000445909 -0.00010642653 0.00057108136 0.00014640609 3.133034e-05
0.00030480037 -0.00065909827 0.0008200203 -0.00045352578 -9.134448e-05 -0.0004196498 -0.000119071134 7.8849094e-05
0.00020739621 7.253184e-05 -4.2710602e-05 0.00028706086 0.00017039981 2.1900043e-05 4.4234534e-05 -0.00030549525
0.0013896751 0.00046953835 0.0030739084 0.0010006493 0.0020026993 0.0013883169 0.0014346865 0.0022863054
-0.00022066863 0.0014587071 0.00023590802 0.0011890789 -0.00071476644 -0.0052384073 0.0006843102 0.0043134596
0.0007439257 -6.1869214e-06 0.0028570476 -0.0006508362 -0.00020851985 -0.0009161492 0.0015126711 -0.00070572353
0.0023612313 1.3578269e-05 -0.0017736817 -0.0030120795 -0.0031499057 0.001222192 -0.00080895174 0.0033450685
-0.0020645692 0.00060284504 -0.00043091463 0.0022513305 9.1717175e-06 -0.0012709015 -0.0013906164 -0.0017974124
0.0041678916 -0.004964353 -0.0020520317 0.0001799402 -0.0032431951 -0.00033826404 -0.00090524764 0.0016230716
-0.0012892878 0.00080251356 -0.0006566096 0.0014754368 0.0030332908 0.0014361329 -0.0002680688 0.0027062157
0.0036426813 -0.005085951 0.002148948 -0.00039592222 -0.0007877256 0.002041004 0.0016371793 -0.00019138514
0.0013057711 -0.0009923731 8.415838e-05 0.000958848 0.0011766852 -0.0005853183 -0.00092140504 -0.0003284015
0.0011917108 -0.00081626547 0.0012878996 -0.00011076299 -0.0014591612 -0.00017821456 -0.0014351886 6.746891e-05
-0.00073110504 -0.0012870625 -0.00013923434 0.0010482599 0.00013706721 -0.00017003538 -0.0004957807 0.0013893079
-0.0002041139 0.0012541999 0.00014004517 0.0007288091 -0.0010742369 -0.00069689914 0.0010530794 2.1732216e-05
0.00074804923 0.00080770004 0.0015081674 -0.00026681332 0.0013144178 0.000968678 -0.00045185187 -0.001262286
0.00011968558 -8.0433915e-07 -0.0012615897 -0.00053795066 -0.0012543567 0.00085474364 0.0013161827 -0.0008364858
0.0008894773 -0.00095232297 0.0009827993 -0.0001783877 -0.00050360936 -0.0008003179 -0.0010602913 -0.00015165219
2.2914437e-05 -6.2185914e-05 0.00016811353 0.0009456076 0.0013145156 -0.00058670307 -0.0008736895 -0.0015108663
00000000: 7290 e639 a01a ac39 ecc2 c53a 5835 193a
00000010: ee50 223a dbbe 643a 03cf c83a 8ac1 a43a
00000020: f772 edb9 61c5 9a3a 6346 a1b8 6158 823a
00000030: 51e9 3e39 45e6 24bb 0678 923a 4f02 123b
00000040: 68b7 8a39 6b43 4339 ade5 f33a e509 36ba
00000050: 0803 cab9 8019 6eba 1e51 133a 2f4a 93ba
00000060: 0f81 a03a aa63 12b9 a58d 4dba cefd 07bb
00000070: 1653 a4ba 0836 1f3a 379c 5bba 346b d33a
00000080: 3ebe beba 570e fc38 7c93 81ba 88f7 5d3a
00000090: 8581 cfb9 cc7d a7ba 0327 84ba ba14 2cba
000000a0: 0e55 f33a d2c9 2bbb e104 12ba 477d 9736
000000b0: 3628 95ba 54b4 73b9 7122 a3ba 2b3b d73a
000000c0: f968 89ba adbd 2d3a 4ba3 09ba 220b 083a
000000d0: 10e4 053b 1688 953a 59df 9a39 e2b7 cf3a
000000e0: 41f3 0c3b 7fb6 27bb e41e 833a e93b fcb9
000000f0: eb5d 80ba 3511 b73a d95d d93a d0a5 f339
00000100: 4f47 cc39 7c16 60ba 0a86 85b8 05f6 113a
00000110: 8e15 4739 b64b 83b9 8d66 a736 fbc5 31b9
00000120: 9e82 0a3a 5aff bcb9 34ef 363a c891 8639
00000130: 2a3a 53b9 234e 1039 d578 39b9 a070 8a36
00000140: 7ea8 48ba b18a 64ba fa18 8239 24cc ea39
00000150: 4a4a 46b9 80fd eab9 d926 2bba b309 3b39
00000160: eb78 31b9 50f0 683a 0cb8 a039 28ef cbb8
00000170: 1df2 19b9 1515 30ba daad b739 35a9 27b9
00000180: f617 3e39 e4e3 7239 8d34 5139 9983 10ba
00000190: a069 023a 072d bf39 62dc dfb9 2dce b5b9
000001a0: 2ea2 9cb9 e9d0 d9b7 b25b 17b9 e5c8 e9b9
000001b0: 4f31 dfb8 9fb4 153a 9684 1939 b268 0338
000001c0: 9dcd 9f39 56c7 2cba a1f6 563a 33c7 edb9
000001d0: 3290 bfb8 7104 dcb9 d4b5 f9b8 c95b a538
000001e0: 7f78 5939 3c1c 9838 2924 33b8 a880 9639
000001f0: 5aad 3239 fcb5 b737 7888 3938 e12a a0b9
00000200: c225 b63a 5f2c f639 a073 493b 3828 833a
00000210: b83f 033b 2ff8 b53a 170c bc3a d7d5 153b
00000220: 4963 67b9 1732 bf3a 145e 7739 deda 9b3a
00000230: 2a5f 3bba f2a6 abbb 4863 333a ec57 8d3b
00000240: 0204 433a 4099 cfb6 4e3d 3b3b e19c 2aba
00000250: 1fa6 5ab9 bb29 70ba d244 c63a 4e00 39ba
00000260: e3be 1a3b 39ce 6337 e27a e8ba 4f66 45bb
00000270: a66e 4ebb f531 a03a d50f 54ba f038 5b3b
00000280: b94d 07bb 3f08 1e3a 62ec e1b9 0f8b 133b
00000290: 3ae0 1937 6194 a6ba 5845 b6ba 2797 ebba
000002a0: cf92 883b 03ac a2bb 617b 06bb 54ae 3c39
000002b0: c98b 54bb 0859 b1b9 244e 6dba 3fbd d43a
000002c0: 52fd a8ba c65f 523a 5320 2cba 7263 c13a
000002d0: 2dca 463b a03c bc3a 968b 8cb9 c45a 313b
000002e0: 0dba 6e3b 0da8 a6bb 5dd5 0c3b c893 cfb9
000002f0: 5f7f 4eba 5dc2 053b 9f96 d63a 8fae 48b9
00000300: 6826 ab3a 8412 82ba 307e b038 335b 7b3a
00000310: 013b 9a3a 0c70 19ba 728a 71ba 4e2d acb9
00000320: 2e33 9c3a a6fa 55ba bdce a83a 6d49 e8b8
00000330: 5341 bfba 1bdf 3ab9 f01c bcba 187e 8d38
00000340: a1a7 3fba a7b2 a8ba 6fff 11b9 c465 893a
00000350: b3b9 0f39 864b 32b9 48f7 01ba 7019 b63a
00000360: 6807 56b9 f763 a43a 17d9 1239 8d0d 3f3a
00000370: 69cd 8cba 1cb0 36ba 7b07 8a3a 944d b637
00000380: bc18 443a d5bb 533a b3ad c53a 14e3 8bb9
00000390: 8b48 ac3a e1ee 7d3a 88e6 ecb9 4a73 a5ba
000003a0: b5ff fa38 c4e9 57b5 ed5b a5ba 4205 0dba
000003b0: 3a69 a4ba e010 603a c383 ac3a 9d47 5bba
000003c0: d02b 693a 50a5 79ba 46d1 803a 950d 3bb9
000003d0: a704 04ba 6dcc 51ba 79f9 8aba d304 1fb9
000003e0: 6138 c037 cf69 82b8 a247 3039 a7e2 773a
000003f0: d34b ac3a facc 19ba 4f08 65ba 4308 c6ba

exp_avg_sq f4 [64, 128]
5.143342e-05 0.00020889424 4.332946e-05 0.000109412125 0.000108689186 2.645097e-05 0.00013361644 3.3547196e-05
9.670086e-05 9.008073e-05 0.00013855903 0.00018675173 0.0002332493 0.000116638264 0.00014113233 0.000111274676
0.00021255946 0.00020797875 0.00018126932 7.747973e-05 0.00014151659 0.0002549911 0.00018109995 0.00012972417
3.5278532e-05 0.00021203149 8.9548084e-05 0.00018927042 7.8826306e-05 0.00016252013 5.3766624e-05 5.4750675e-05
5.791389e-05 1.5007773e-05 0.00014860345 0.0001498069 9.122536e-05 0.00015623546 0.00015591473 5.4111337e-05
8.12502e-05 0.0001697057 0.00019269904 0.00011746872 0.00012900414 0.000119299606 0.0001294209 0.00013436865
4.898266e-05 0.00016142239 0.00020136367 0.00017517968 8.9590314e-05 0.00010984938 0.00016084271 9.09682e-05
0.00017037509 0.00012991516 2.644512e-05 2.4911884e-05 0.00013583591 0.00011633633 0.00013120973 0.00010864761
5.0411327e-05 0.00019571144 9.651464e-06 0.00010865579 0.000112261245 2.2003785e-05 0.000107258275 1.4619812e-05
0.00010242665 8.350123e-05 0.00014340905 0.00015406442 0.00021881035 2.0015555e-05 8.94064e-05 1.6618726e-07
0.00021198839 0.0001970745 7.4622854e-05 8.124069e-05 0.00013554795 0.00024002764 0.00018683591 8.809365e-05
2.2442928e-05 0.00020135487 9.996284e-05 4.6429734e-05 6.22441e-05 0.00016349593 5.046781e-05 2.880105e-05
1.9333656e-05 1.559549e-05 0.00010736453 0.00015933337 9.769289e-05 0.00013760812 0.00013188954 4.7620713e-05
5.893325e-05 8.0286594e-07 0.00020113062 0.00012619956 0.00013123993 0.00012832867 8.323007e-05 0.00010541938
3.9656643e-05 0.00015444959 0.00018250021 0.00018621003 2.6302043e-05 0.000103077175 0.00014685724 1.8551094e-05
3.603499e-05 6.1578244e-06 1.741596e-05 2.2316199e-05 8.625872e-05 4.8130303e-05 9.412005e-05 9.409374e-05
0.00021136523 0.00069489545 0.0001627906 0.00039181253 0.0003222542 9.862702e-05 0.00052903185 0.00012055833
0.00039705305 0.00035135009 0.000521269 0.0005884406 0.0006960688 0.0004661175 0.00046815575 0.00043427554
0.0006484311 0.00073046325 0.0006073432 0.00031832364 0.00043110186 0.0007909814 0.0005313347 0.00044650584
0.00012042462 0.0007325032 0.00026076345 0.00062648644 0.00027289373 0.0005139689 0.00022590255 0.00019426383
0.0002094644 5.9432303e-05 0.0004971506 0.00043330717 0.00039390856 0.0006224153 0.0005132129 0.0002102359
0.0002896092 0.0006513726 0.00055541017 0.00037395977 0.0003974102 0.00040693636 0.00044548998 0.0005307831
0.00019481644 0.00057537825 0.0006916821 0.00050311215 0.00031279316 0.0004180314 0.00048223574 0.00032549503
0.0006026712 0.0005131951 8.6494125e-05 0.00010309178 0.0004344364 0.0003866326 0.0004970437 0.00036883212
0.00020754672 0.00064049405 2.7722397e-05 0.00038912144 0.00033388502 8.850174e-05 0.00046620486 5.2973377e-05
0.00040926438 0.00032976232 0.0005293802 0.00045751853 0.0006427996 5.449705e-05 0.00033610346 7.0469815e-07
0.0006571723 0.00068015954 0.0002127912 0.00033031916 0.00040643636 0.0007238378 0.000559363 0.00034945086
7.285309e-05 0.0006858527 0.00030343962 0.00013619666 0.00019527723 0.00051688455 0.00022362199 8.3726365e-05
8.999156e-05 6.204199e-05 0.0004010594 0.00046409466 0.00040843093 0.00053852826 0.00042114744 0.00018512439
0.00016306709 2.4099666e-06 0.0005873794 0.00041025673 0.00038767036 0.00044100886 0.00033733607 0.00045893205
0.00017417835 0.00053770636 0.0006082469 0.00055522093 0.00011588666 0.00038849757 0.00042866953 5.3103082e-05
0.000104915256 1.7295875e-05 5.0490497e-05 9.898146e-05 0.0002758601 0.00013799923 0.00041507903 0.00033150986
00000000: 37ba 5738 9f0a 5b39 a7bc 3538 3074 e538
00000010: 10f0 e338 07e3 dd37 641b 0c39 07b5 0c38
00000020: e1cb ca38 b9e9 bc38 284a 1139 c9d2 4339
00000030: 6294 7439 b19b f438 ecfc 1339 235c e938
00000040: 7fe2 5e39 df14 5a39 1d13 3e39 9d7c a238
00000050: 1264 1439 53b0 8539 a6e5 3d39 9106 0839
00000060: 09f8 1338 c554 5e39 c3cb bb38 e476 4639
00000070: 8d4f a538 2a6a 2a39 7983 6138 17a4 6538
00000080: 91e8 7238 e5c9 7b37 6fd2 1b39 7c15 1d39
00000090: 3e50 bf38 23d3 2339 0b7d 2339 9bf5 6238
000000a0: de64 aa38 07f3 3139 410f 4a39 8a59 f638
000000b0: 4945 0739 7d30 fa38 29b5 0739 4fe5 0c39
000000c0: bb72 4d38 7e43 2939 2625 5339 70b0 3739
000000d0: 6fe2 bb38 f05e e638 e3a7 2839 2ec6 be38
000000e0: b7a6 3239 d639 0839 76d6 dd37 ddf9 d037
000000f0: 2d6f 0e39 97f9 f338 5895 0939 bed9 e338
00000100: c070 5338 e437 4d39 b9ec 2137 22de e338
00000110: cc6d eb38 c594 b837 d9ef e038 9d47 7537
00000120: e4cd d638 621d af38 1360 1639 5a8c 2139
00000130: 7570 6539 14e7 a737 b27f bb38 3571 3234
00000140: 3349 5e39 c9a5 4e39 d77e 9c38 c35f aa38
00000150: e021 0e39 eeaf 7b39 62e9 4339 ebbe b838
00000160: d243 bc37 c922 5339 24a3 d138 8cbd 4238
00000170: 0c89 8238 1b70 2b39 66ad 5338 c999 f137
00000180: b62e a237 0fd3 8237 e528 e138 ba12 2739
00000190: 79e0 cc38 e64a 1039 d44b 0a39 5abc 4738
000001a0: 182f 7738 8784 5735 97e6 5239 7054 0439
000001b0: 739d 0939 f78f 0639 ce8b ae38 9914 dd38
000001c0: ff54 2638 bff3 2139 875d 3f39 6041 4339
000001d0: 35a3 dc37 232b d838 b1fd 1939 2c9e 9b37
000001e0: 4724 1738 4f9f ce36 7d18 9237 ac33 bb37
000001f0: cce5 b438 85df 4938 5162 c538 3154 c538
00000200: eca1 5d39 a529 363a c5b2 2a39 306c cd39
00000210: 3af4 a839 fad5 ce38 baae 0a3a 43d4 fc38
00000220: 8f2b d039 6935 b839 c5a5 083a 9541 1a3a
00000230: 6378 363a 3b61 f439 cd72 f539 7aaf e339
00000240: 79fb 293a 8f7c 3f3a 1d36 1f3a ade4 a639
00000250: 8305 e239 dd59 4f3a 4549 0b3a 0019 ea39
00000260: 7a8c fc38 7505 403a 14b7 8839 cb3a 243a
00000270: 2d13 8f39 debb 063a 41e0 6c39 4db3 4b39
00000280: aca3 5b39 f346 7938 3653 023a 812d e339
00000290: 8385 ce39 9529 233a 2289 063a c572 5c39
000002a0: b0d6 9739 e0c0 2a3a f298 113a 0810 c439
000002b0: 7e5b d039 135a d539 a790 e939 4024 0b3a
000002c0: a447 4c39 fbd4 163a 0052 353a 49e3 033a
000002d0: 63fe a339 3a2b db39 96d4 fc39 34a7 aa39
000002e0: 94fc 1d3a f187 063a 2e64 b538 fa32 d838
000002f0: 11c5 e339 f3b4 ca39 0a4c 023a cf5f c139
00000300: e6a0 5939 d4e6 273a 658d e837 ff02 cc39
00000310: 4a0d af39 039a b938 f56c f439 bb2f 5e38
00000320: 8992 d639 f3e3 ac39 1bc6 0a3a 19df ef39
00000330: 8d81 283a c393 6438 0b37 b039 7d2a 3d35
00000340: 1646 2c3a bc4c 323a b420 5f39 b02e ad39
00000350: f716 d539 efbf 3d3a 37a2 123a 8036 b739
00000360: b4c8 9838 ccca 333a fa16 9f39 03d0 0e39
00000370: 55c3 4c39 897f 073a 127c 6a39 4096 af38
00000380: dab9 bc38 8a1c 8238 4845 d239 bb51 f339
00000390: ac22 d639 052c 0d3a 74cd dc39 f31d 4239
000003a0: fdfc 2a39 e9ba 2136 5dfa 193a ba17 d739
000003b0: 3c40 cb39 3537 e739 7bdc b039 d19c f039
000003c0: a5a3 3639 ddf4 0c3a c272 1f3a 3f8c 113a
000003d0: 2d08 f338 43af cb39 0dbf e039 00bb 5e38
000003e0: f305 dc38 9c16 9137 c2c5 5338 4494 cf38
000003f0: 51a1 9039 e3b3 1039 f79e d939 80ce ad39

exp_avg f4 [64]
-0.00031393807 -0.0023815641 0.0017205906 0.0033785508 0.0013186566 0.0011597428 0.0020559449 0.0019051982
0.0022300223 -0.0012138836 0.00036068002 0.0015845086 0.0010725103 0.00020797468 0.0018014569 -0.001293531
0.001353277 0.0028706703 -0.0006416585 0.00039605412 0.00190605 -0.0009828472 0.0013288097 0.0010032245
0.0013960662 0.0010941395 0.0012193676 0.0008138298 0.000511054 -0.0005715204 -0.0016525118 0.0018611817
0.0022072077 8.402576e-05 0.0021018994 -0.00037057296 0.0010148839 0.0021230844 0.0011505251 -0.0012312086
-0.0013347116 0.0010301564 -0.0010768616 0.0022137368 0.0001172189 -9.61043e-05 0.0014310494 0.0033824279
-0.0023998346 0.0004850627 0.0004664462 -0.00019798017 0.000503414 -0.0017422095 0.0003214479 -0.0019294656
0.0019543364 -0.0015121553 0.002807992 -0.0021227535 -0.00011429073 -1.1969648e-05 0.001225831 0.0010503308
00000000: 0e98 a4b9 0414 1cbb 7185 e13a ad6a 5d3b
00000010: c6d6 ac3a 8302 983a 08bd 063b d8b7 f93a
00000020: 9125 123b 2d1b 9fba a719 bd39 49af cf3a
00000030: 7993 8c3a c713 5a39 dd1e ec3a b38b a9ba
00000040: 7160 b13a db21 3c3b f934 28ba 7ca5 cf39
00000050: 6dd4 f93a e1d2 80ba 742b ae3a a17e 833a
00000060: 35fc b63a 3b69 8f3a 30d3 9f3a 3257 553a
00000070: 41f8 053a 16d2 15ba 1899 d8ba e5f2 f33a
00000080: cda6 103b fd36 b038 05c0 093b 7649 c2b9
00000090: da05 853a 7223 0b3b 37cd 963a 8160 a1ba
000000a0: 7df1 aeba 5006 873a 7b25 8dba 5714 113b
000000b0: 6bd3 f538 9a8b c9b8 0d92 bb3a b9ab 5d3b
000000c0: 8b46 1dbb 0350 fe39 598d f439 e698 4fb9
000000d0: 8bf7 033a da5a e4ba 0288 a839 1fe6 fcba
000000e0: 5314 003b 8333 c6ba 4a06 383b e51d 0bbb
000000f0: 5eaf efb8 3fd1 48b7 10ac a03a 41ab 893a

exp_avg_sq f4 [64]
0.00071278086 0.0020856443 9.842321e-05 0.001100856 8.1154656e-05 0.0030867136 0.001528029 0.00034504713
5.9080012e-05 0.0017705285 0.000635428 0.00013149546 0.0010661002 7.481724e-05 0.0015403865 0.00014206069
0.00051014393 0.0010529925 0.00324819 0.0007714135 0.00032340467 0.00019923892 0.00014832262 6.7398854e-05
0.00012870114 0.0004198902 0.00063958863 0.00019434585 0.0004167565 0.00024277806 0.00011944308 0.00058500713
0.0006689661 0.00039092384 0.0003073193 1.0216558e-05 0.0027746074 0.0007381142 0.00050035864 0.0014007628
0.0005903995 0.00013703502 5.8693924e-05 0.0015815578 0.00043634078 0.0017330352 0.00047157423 0.0008093455
0.0023663763 0.00030744306 0.0008810577 0.0003552752 0.001168189 0.0010921039 0.001887961 0.0012834037
0.000147938 2.0912956e-05 9.633573e-05 6.0131708e-05 0.0005334742 0.0042282394 0.0018390603 3.686018e-05
00000000: ead9 3a3a 4eaf 083b 8f68 ce38 994a 903a
00000010: 9331 aa38 764a 4a3b 2548 c83a 71e7 b439
00000020: aecc 7738 1411 e83a da92 263a 0be2 0939
00000030: 63bc 8b3a 33e7 9c38 cbe6 c93a 20f6 1439
00000040: 2ebb 053a 9104 8a3a 96df 543b af38 4a3a
00000050: a48e a939 caea 5039 0d87 1b39 7c58 8d38
00000060: f3f3 0639 b524 dc39 11aa 273a 51c9 4b39
00000070: 1c80 da39 3d92 7e39 847d fa38 2a5b 193a
00000080: 8e5d 2f3a e9f4 cc39 b31f a139 c867 2b37
00000090: 30d6 353b 017e 413a 802a 033a cd99 b73a
000000a0: 0ac5 1a3a 0fb1 0f39 1f2e 7638 464c cf3a
000000b0: abc4 e439 0327 e33a 9f3d f739 422a 543a
000000c0: 3515 1b3b 4f30 a139 c8f6 663a 3b44 ba39
000000d0: eb1d 993a ed24 8f3a 7675 f73a e237 a83a
000000e0: ce1f 1b39 3b6e af37 da07 ca38 ee35 7c38
000000f0: d9d8 0b3a 0b8d 8a3b a00c f13a 519a 1a38

exp_avg f4 [2, 64]
0.004141217 -0.019340698 0.0769337 -0.033638626 0.0013691282 0.0073453956 0.028200915 0.0521612
0.105556004 0.03041069 0.0029861596 0.030191591 0.03763747 -0.035731733 0.016303305 0.03775335
-0.003731188 -0.012952441 0.036144152 0.0041489 0.009336348 0.009641013 0.044021502 0.013859241
0.027004836 -0.0022187314 -0.0010966351 -0.029835548 -0.0488623 0.037473317 0.075289495 0.009108681
0.0017096272 0.050450206 0.01924412 -0.03839382 0.024216436 0.059079785 -0.01398938 -0.013601703
0.05072628 -0.045090236 0.07107162 -0.006341267 -0.036230072 0.032118466 0.007198539 -0.057643935
-0.0032986172 -0.026589071 0.025388187 0.037981723 0.035344075 0.0007538315 0.009754988 0.040165078
0.05603851 -0.14574696 -0.014562102 0.0909724 -0.020926854 0.03307382 0.030968174 0.0254225
-0.0073558534 -0.023369823 0.010928413 0.014054335 -0.0064174817 0.0006880085 -0.004655495 0.009305115
0.03885561 -0.0118797505 0.01956064 0.017096158 0.009751479 0.004315717 -0.0011475083 0.007186804
-0.012846853 -0.017766818 0.014955631 0.02203005 -0.012281528 -0.016578903 -0.011296302 0.003168246
0.0012059121 0.015471323 -0.0012421478 -0.0046003805 0.004128917 -0.016966091 0.024005318 -0.0056545795
0.0059759184 0.0047220243 -0.008289153 -0.010081007 0.0065622097 0.01543077 -0.014890778 -0.006156999
-0.0107729575 -0.015894692 0.027136479 -0.012574591 0.0060918 0.015646676 -0.008142468 -0.017905036
0.0074897693 -0.013640585 0.013283303 -0.013441761 -0.0036400782 -0.009899618 0.002819965 0.0060860435
0.013077112 -0.014282148 -0.0042016185 0.020804163 -0.020058345 0.013003841 -0.005498709 0.0018534956
00000000: 0cb3 873b 6270 9ebc 6a8f 9d3d a8c8 09bd
00000010: 5274 b33a a5b1 f03b 9b05 e73c fca6 553d
00000020: bf2d d83d d71f f93c 72b3 433b 5b54 f73c
00000030: bf29 1a3d 705b 12bd 828e 853c 42a3 1a3d
00000040: f286 74bb 7a36 54bc e40b 143d 7ff3 873b
00000050: 7bf7 183c 57f5 1d3c e44f 343d df11 633c
00000060: 3f39 dd3c 2368 11bb f8bc 8fba ae69 f4bc
00000070: d623 48bd 9f7d 193d 6131 9a3d 943c 153c
00000080: 9215 e03a e0a4 4e3d d8a5 9d3c d742 1dbd
00000090: 8c61 c63c a5fd 713d b633 65bc add9 5ebc
000000a0: 5cc6 4f3d 8ab0 38bd ff8d 913d 67ca cfbb
000000b0: fc65 14bd a78e 033d b9e1 eb3b 0c1c 6cbd
000000c0: 9d2d 58bb 53d1 d9bc e3fa cf3c b992 1b3d
000000d0: f3c4 103d c79c 453a 63d3 1f3c 2384 243d
000000e0: a388 653d b13e 15be e295 6ebc bd4f ba3d
000000f0: cb6e abbc 6a78 073d f8b0 fd3c d942 d03c
00000100: 5f09 f1bb 1272 bfbc 160d 333c 2744 663c
00000110: bd49 d2bb 785b 343a 1f8d 98bb 7b74 183c
00000120: 0f27 1f3d 49a3 42bc a33d a03c 3e0d 8c3c
00000130: abc4 1f3c dc6a 8d3b fd67 96ba 487f eb3b
00000140: 9b7b 52bc b88b 91bc 7708 753c 5d78 b43c
00000150: 7638 49bc 7bd0 87bc 2014 39bc 59a2 4f3b
00000160: b20f 9e3a 6f7b 7d3c 90cf a2ba cabe 96bb
00000170: de4b 873b 79fc 8abc cda6 c43c 0d4a b9bb
00000180: a3d1 c33b 36bb 9a3b 3acf 07bc cf2a 25bc
00000190: ce07 d73b 57d1 7c3c 73f8 73bc a7c0 c9bb
000001a0: 0f81 30bc 9635 82bc 524d de3c a805 4ebc
000001b0: b99d c73b 752d 803c fc67 05bc 95ad 92bc
000001c0: bd6c f53b c37c 5fbc 36a2 593c d53a 5cbc
000001d0: 618e 6ebb 0232 22bc 29cf 383b 6f6d c73b
000001e0: 6241 563c acff 69bc bbad 89bb 7e6d aa3c
000001f0: 6651 a4bc 100e 553c 842e b4bb fef0 f23a

exp_avg_sq f4 [2, 64]
0.006616552 0.12094064 0.11100177 0.06772995 0.11262457 0.019549089 0.1279362 0.0914184
0.32846987 0.0808064 0.08657011 0.10767901 0.16423011 0.0344654 0.05915377 0.06977441
0.052445125 0.07549401 0.05973252 0.13547283 0.07542263 0.09241599 0.07973162 0.023096211
0.020552764 0.053180348 0.019137118 0.04379887 0.040968403 0.09689829 0.19596516 0.021170622
0.008313633 0.05467551 0.15450768 0.10109969 0.04179062 0.08566897 0.054424107 0.0355701
0.073461466 0.14285128 0.28107688 0.05673335 0.026726443 0.08315358 0.07488767 0.13949116
0.01428694 0.039244395 0.0491539 0.080255404 0.047099546 0.036384482 0.029296974 0.03161165
0.09109883 0.36636496 0.022999076 0.17709877 0.17924643 0.08188489 0.076799266 0.09717686
0.0006942751 0.008408626 0.006023805 0.007289585 0.007546845 0.0009583559 0.0066411793 0.0035248988
0.012199088 0.0053819586 0.005659883 0.0044937427 0.007186933 0.007245574 0.003433831 0.002786629
0.0035231565 0.0051298076 0.0021275294 0.007061961 0.0054290616 0.007891757 0.01195625 0.0020211919
0.0017841896 0.0040749237 0.0009988418 0.0018600954 0.005023699 0.011265577 0.006851998 0.0027906194
0.00046778822 0.0031642176 0.019687558 0.004022106 0.0026720718 0.0059447307 0.0026684036 0.0013033493
0.0090953335 0.005932382 0.010544143 0.0033719745 0.0031858745 0.002355915 0.011029689 0.009982841
0.0014242961 0.001558776 0.0019735715 0.009819659 0.0033553976 0.0017637347 0.0013536115 0.001103289
0.0033736615 0.018376105 0.0017968989 0.007021872 0.011623449 0.0035795884 0.00410175 0.004867072
00000000: a9cf d83b baaf f73d e554 e33d 00b6 8a3d
00000010: b6a7 e63d 6925 a03c b501 033e 9239 bb3d
00000020: 342d a83e d37d a53d ab4b b13d d086 dc3d
00000030: f02b 283e 972b 0d3d 394b 723d e3e5 8e3d
00000040: b3d0 563d 9a9c 9a3d 16aa 743d 64b9 0a3e
00000050: 2e77 9a3d 9844 bd3d 554a a33d 4434 bd3c
00000060: 455e a83c a3d3 593d 72c5 9c3c 7266 333d
00000070: 7cce 273d 9c72 c63d 17ab 483e 036e ad3c
00000080: e735 083c 6df3 5f3d 4337 1e3e 5b0d cf3d
00000090: a42c 2b3d 3773 af3d d0eb 5e3d f4b1 113d
000000a0: f772 963d 9b47 123e 4fe9 8f3e 3b61 683d
000000b0: 6af1 da3c 6d4c aa3d b55e 993d c5d6 0e3e
000000c0: c513 6a3c bbbe 203d 9a55 493d f25c a43d
000000d0: 74eb 403d e507 153d 3500 f03c 387b 013d
000000e0: 0692 ba3d 3094 bb3e 8f68 bc3c 6159 353e
000000f0: 608c 373e 44b3 a73d ef48 9d3d a904 c73d
00000100: 0300 363a 55c4 093c 5763 c53b 79dd ee3b
00000110: 864b f73b 2d3a 7b3a 409e d93b fd01 673b
00000120: afde 473c 245b b03b 8a76 b93b 3f40 933b
00000130: 5d80 eb3b 486c ed3b 200a 613b e09f 363b
00000140: c2e4 663b f217 a83b 056e 0b3b 0668 e73b
00000150: 45e6 b13b 6e4c 013c 26e4 433c f975 043b
00000160: 78db e93a f086 853b 92eb 823a 72ce f33a
00000170: d79d a43b 4193 383c ba86 e03b d3e2 363b
00000180: 7941 f539 c35e 4f3b cd47 a13c dfcb 833b
00000190: ed1d 2f3b 04cc c23b 62e0 2e3b 25d5 aa3a
000001a0: 9804 153c 6d64 c23b 57c1 2c3c 58fc 5c3b
000001b0: 1bca 503b b265 1a3b deb5 343c 128f 233c
000001c0: 72af ba3a d84f cc3a 0957 013b a3e2 203c
000001d0: 3be6 5b3b 1e2d e73a aa6b b13a 3c9c 903a
000001e0: a618 5d3b 7c89 963c ec85 eb3a bb17 e63b
000001f0: 4770 3e3c 8797 6a3b f967 863b f67b 9f3b

exp_avg f4 [2]
-0.00724399 0.017382327
00000000: fe5e edbb 6265 8e3c

exp_avg_sq f4 [2]
0.2599197 0.016954077
00000000: 3214 853e 47e3 8a3c

exp_avg f4 [2, 1]
0.0051826476 0.02086915
00000000: 33d3 a93b c8f5 aa3c

exp_avg_sq f4 [2, 1]
0.0015836104 0.0028529628
00000000: 2691 cf3a c6f8 3a3b
