results/energy/checkpoints/A02_H064_L02_D01_Tanh_W4096_P010000_V-1.33e+01_S3.75e-01_Adam_PT_False_device_cuda_dtype_float32_chkp.pt (torch, 168055 bytes, 23 tensors)

layers.0.fc.weight f4 [64, 2]
000000 4a 9a 8a bc 0d a2 cb 3e 6d 24 1c bf 4d a9 f7 be
       -0.016919274 0.39772072 -0.6099308 -0.48371354
000010 d5 85 a7 be 90 fa 58 3e b1 24 1c bc 0b ce 0a 3f
       -0.32719293 0.21189332 -0.009530232 0.54220647
000020 eb 5f af bd 5a 1f 39 3e 5b 92 95 be 04 2c a1 bd
       -0.08563217 0.18078366 -0.29213223 -0.078697234
000030 6b 85 26 bf 0b ca df be be ef b4 be 74 60 1a 3d
       -0.6504733 -0.43708834 -0.3533916 0.03768964
000040 a5 b2 ad 3e ec ef d1 3e 0b 9b 07 bf 19 2c 55 be
       0.33925357 0.41003358 -0.5297095 -0.20817603
000050 26 60 95 3e 29 4f 08 3f f3 58 44 be 1d f3 05 3f
       0.29174918 0.5324579 -0.19174556 0.52324086
000060 27 9c d9 bd 93 aa 44 3d 9d 7e 47 3f 46 37 22 bf
       -0.10625487 0.048014235 0.7792757 -0.6336559
000070 08 d4 f5 be 39 96 18 be e7 82 d4 be 26 49 21 3f
       -0.4801333 -0.14901055 -0.4150612 0.6300224
000080 f8 99 f4 be 0a c3 91 be 69 28 f1 be bd 8f 30 bf
       -0.4777372 -0.28469115 -0.47101143 -0.6896933
000090 e6 e0 e7 be 1c cb 12 3f 60 0e bd 3e 22 e2 97 3e
       -0.4528877 0.5734117 0.3692503 0.29664713
0000a0 ad 49 07 3d f9 83 aa be 3f 30 10 3e 8f a2 2c bf
       0.033029247 -0.33303812 0.14080904 -0.67435545
0000b0 5d c0 14 bf 72 64 81 be c9 be 01 3f b4 68 9d 3e
       -0.58106023 -0.25271946 0.5068174 0.30743945
0000c0 f6 c4 b5 be 4e af c9 3c 9b 20 f0 3e a2 3e 17 3f
       -0.35501832 0.024619725 0.46899876 0.59079945
0000d0 46 11 a8 3e 75 3a 2d 3d 5d 6b 14 3f b8 97 bb be
       0.3282568 0.042292077 0.57976323 -0.3663919
0000e0 e1 3e 46 3e e2 f0 01 bf 04 30 0f bf 1c ec 8f be
       0.19359924 -0.50758183 -0.5593264 -0.28109825
0000f0 a4 2b b1 3e 73 f7 5f 3e 9b 1a f2 be cb 11 6b 3e
       0.34603608 0.21871738 -0.47285923 0.22956006
000100 9f 42 dd 3e c9 1c 97 bd 1c 5f ca 3c 65 63 1f 3e
       0.4321489 -0.07378537 0.024703555 0.1556526
000110 47 49 fb 3e 96 3a d7 3e bf a7 18 bf 15 ed 65 bd
       0.49079344 0.42036885 -0.5963096 -0.056134302
000120 f2 5d a0 3e f8 a0 f1 3e 87 f4 24 3f 95 20 05 3f
       0.31321675 0.47193122 0.6443562 0.5200284
000130 26 03 1d 3e a1 fd 1b bf 2e eb 87 3d 57 2e c9 be
       0.15333232 -0.6093388 0.06636654 -0.39293167
000140 01 0c 3a bf 38 85 04 3f 4a 26 1b 3f 9a 44 34 bf
       -0.72674567 0.51765776 0.606053 -0.7041718
000150 de 56 f8 3d 31 dd da bd 38 f9 00 be 19 50 9e be
       0.121259436 -0.1068672 -0.1259507 -0.30920485
000160 1e d2 9b 3e 37 9e fb be 9b 54 8e 3e ce 72 c0 3e
       0.30433744 -0.49144146 0.27798924 0.3758759
000170 16 44 0a 3f c4 de 7b 3e dd 78 30 bf 3e ce d9 be
       0.5401014 0.24596697 -0.6893442 -0.42540163
000180 4c 30 c6 3e 7a 02 de 3d 1a be 0d bf f2 b0 b9 be
       0.38708723 0.10840316 -0.55368197 -0.3626781
000190 ec 23 33 3f a8 6f e6 3e 1b f3 ad be 7d 1e 20 be
       0.6997669 0.45007062 -0.33974537 -0.1563663
0001a0 b8 db 2f bf 24 ed d5 3d 05 95 16 bf f5 2a 8d be
       -0.6869464 0.104456216 -0.58821136 -0.27571836
0001b0 95 f4 d7 bd 99 93 fa 3d 44 49 a5 be cd 72 d4 3e
       -0.10544697 0.12235183 -0.3228246 0.41493836
0001c0 4e 2f fa be 5a 1f 27 3f cd c8 1d 3f 9a b0 21 bf
       -0.48864216 0.65282214 0.6163452 -0.631601
0001d0 f5 34 64 be 40 6b b9 3d 06 0c 46 3e 8e f9 fa 3d
       -0.22285827 0.090536594 0.19340524 0.1225463
0001e0 a5 75 a0 3e 16 e5 07 bc 03 61 a9 be c4 8b 93 3e
       0.31339756 -0.008294364 -0.33081827 0.2881757
0001f0 4b c2 2f bf de 73 cf be 08 a5 6a be e9 9f 6a be
       -0.6865584 -0.40518087 -0.22914517 -0.22912563

layers.0.fc.bias f4 [64]
000000 bb 8c 7d be fc 44 0f bf 81 40 14 be a0 a4 16 3e
       -0.24760716 -0.55964637 -0.14477731 0.14711237
000010 c1 bd ea be 4b 40 fb bc b3 79 f9 3e 4e d9 86 bd
       -0.45847896 -0.030670306 0.48725662 -0.06584416
000020 85 04 87 3c 52 75 47 bd a6 72 12 3e 73 63 e8 3e
       0.016481647 -0.04869587 0.14301547 0.45388374
000030 c2 0f 2c 3f ad e3 be 3e a8 11 26 3f 39 87 60 bd
       0.67211545 0.37283078 0.6487069 -0.05481646
000040 98 0f 20 bf 51 89 b1 be 1a 53 e8 3e ab f6 e9 bb
       -0.62523794 -0.34675077 0.453759 -0.007140001
000050 b0 2f be be 4f d8 0b bf c0 f5 24 bf b3 0b 1c bf
       -0.37145758 -0.54626936 -0.64437485 -0.6095535
000060 18 68 16 be 5e b5 cb 3e b3 f9 bd 3e a9 6e 14 bf
       -0.14688146 0.3978681 0.37104568 -0.57981354
000070 c3 2e df 3e 14 b8 06 bf 1c f1 f5 bd 59 f1 82 be
       0.43590364 -0.5262463 -0.120088786 -0.2557476
000080 6f da 0a be 97 11 16 be 77 d7 2b bf 8b 2f 27 bf
       -0.13559888 -0.14655147 -0.6712565 -0.6530692
000090 95 73 de bd b7 9c f5 3b b4 33 a2 be ff 79 8b 3e
       -0.10861889 0.0074954885 -0.3168007 0.27241513
0000a0 67 7a 11 bf fa 02 2a bd 82 fe 1f 3f 42 a6 91 be
       -0.56827396 -0.041506745 0.62497723 -0.28447157
0000b0 f4 f9 22 3f 9e e4 79 3e 9c e8 1d bf 3d 10 e9 3e
       0.6366265 0.24403617 -0.6168306 0.455202
0000c0 24 e9 96 bd 3f 5d a6 be 47 3b 0a 3f 88 40 11 bf
       -0.07368687 -0.32493016 0.539967 -0.5673909
0000d0 42 49 8b 3d 45 98 ee bd 26 bb 01 3f d4 42 45 3e
       0.06801082 -0.11650137 0.5067619 0.19263774
0000e0 7a b4 9b 3e f1 40 4e 3e cb 14 30 be 55 0c 11 be
       0.3041113 0.2014196 -0.17195432 -0.1416486
0000f0 ab dc 06 bf 2d e9 bb 3e cd d0 08 3f 50 3b f6 3e
       -0.5268046 0.36701337 0.53443605 0.48092127

layers.1.fc.weight f4 [64, 128]
000000 dc 1a 6a bd 0e 2a 45 39 26 c1 2a bd a6 12 07 bd
       -0.05715452 0.0001880305 -0.041688107 -0.03297677
000010 ea 4b 4d bd 35 96 47 3d 9e f5 1d bd 87 75 89 3c
       -0.050121225 0.048727233 -0.038564317 0.016779674
000020 5c 74 ba bb 6e fc 9e 3d 80 b2 80 bd 0f 2c 6a bd
       -0.0056901406 0.07762991 -0.06284046 -0.057170924
000030 e0 b1 52 bd 76 01 4b 3d bd 5a c6 bc 2b 24 c6 3d
       -0.051439166 0.04956194 -0.02421319 0.09674867
000040 4e ae f0 3c 6d bb 11 3c fc be 19 3c c7 88 05 bd
       0.02937999 0.008894783 0.009383913 -0.032601144
000050 12 8d f4 3b e6 c9 cc bc e2 fa 84 bb e9 0c b9 39
       0.007463106 -0.024998616 -0.004058228 0.00035295569
000060 7c da 32 bd 78 63 2a bd b0 ed 81 3d cf aa 9c bd
       -0.043665394 -0.041598767 0.063441634 -0.07649767
000070 8c c3 74 bc 2e 8f b0 3d 8b 48 9c 3c b0 65 bf 3c
       -0.0149392 0.08621059 0.01907756 0.023363918
000080 e2 1a bb bd b4 6c 3c 3d db 41 95 bd a9 94 d1 bc
       -0.09135987 0.046002105 -0.072879516 -0.025583582
000090 c8 f0 14 bd 89 c9 e2 bc 0a d8 da bb 50 37 85 3d
       -0.03636244 -0.02768399 -0.006678586 0.06504691
0000a0 64 bd ba 3c 57 e1 83 3d e5 5c 55 3d f2 11 73 bd
       0.022795387 0.064394645 0.052090544 -0.059343286
0000b0 63 2b 04 3d 61 6c 7f bd 44 45 4b bd 23 28 20 3d
       0.03226794 -0.062359218 -0.049626604 0.039100777
0000c0 3f d3 57 3c b6 05 99 3d 50 78 e5 bc a6 8e e8 3a
       0.013172924 0.074717924 -0.028011471 0.0017742708
0000d0 27 87 88 3d 3e 88 8c bd 51 0b 83 3d 12 e2 71 bd
       0.06666403 -0.06861924 0.06398643 -0.059053488
0000e0 98 f6 64 3c 78 69 13 bd 1e 84 0b bd 6e da 2c 3c
       0.013974808 -0.035989255 -0.034061544 0.010550125
0000f0 d5 e9 94 3d ec 8a a0 bc 99 1b 1d bd c2 15 0a bd
       0.072711624 -0.019597493 -0.038356397 -0.033712156
000100 de dc aa bd 9f d3 04 3d 28 ea 26 bd 0b 15 30 bd
       -0.08342908 0.03242838 -0.040750653 -0.04298882
000110 05 af 4d bd 05 b1 10 3d f2 4c 2f 3d e9 28 7c 3d
       -0.05021574 0.03532507 0.04279799 0.061562452
000120 be f0 79 3d 2f 97 3a bd c8 ea 32 bb 61 1e e1 3c
       0.061020605 -0.045554336 -0.0027300585 0.027480306
000130 0e 89 93 3d c4 5d fa 3c 58 6f 24 bd ac 1d 18 bd
       0.072038755 0.030562289 -0.04014525 -0.037137672
000140 2d 42 b8 bd c1 de ca 3b f9 d3 3f bd 94 f0 5f bd
       -0.08996997 0.006191105 -0.046833012 -0.054672793
000150 b5 70 98 3d ed d0 7b bd 3e 1f 8d bc c0 84 cc 3c
       0.07443372 -0.061478544 -0.017226811 0.024965644
000160 52 ea 06 bb ec 7f 45 bd 5a 69 8d bd d2 8b 8a 3d
       -0.0020586443 -0.0482177 -0.0690486 0.0676495
000170 e1 eb 36 3c 9a be 87 3d 59 52 a6 bc 3b f8 b9 3c
       0.011164636 0.06628151 -0.020302938 0.022701373
000180 a0 41 c9 bc bd a3 6f ba 5d 6e 4d bd e9 cf c3 3c
       -0.024567425 -0.00091415254 -0.05015408 0.02390285
000190 54 1f 58 3d 40 89 b1 3c d9 42 c9 bc 73 f3 70 bd
       0.05276425 0.021671891 -0.024568008 -0.05882592
0001a0 82 70 68 3d cf 6d 87 bd 2f d7 0f 3d a0 5a 0f bd
       0.05674792 -0.06612741 0.035117324 -0.034998536
0001b0 dc e1 37 bd 50 7c d4 3c 71 fc 48 bd 33 e7 83 3c
       -0.04489313 0.025938183 -0.049068872 0.016101455
0001c0 1a b0 c7 3c 57 1d 9d bd e8 ef a7 3c 92 9d 0f 3d
       0.024375964 -0.07671612 0.020500138 0.03506238
0001d0 1c b5 2d 3d 32 58 eb bc 61 9d 94 bd 37 25 58 bc
       0.042409047 -0.028728578 -0.0725658 -0.013192466
0001e0 71 90 08 3d 77 08 cd bc a9 99 0e 3d 51 72 81 3d
       0.033340875 -0.02502845 0.03481451 0.06320632
0001f0 72 1c 30 bd a5 8e 72 ba d5 4d 0c 3d 34 f4 43 3b
       -0.042995878 -0.0009252823 0.034253914 0.0029900195
000200 62 8e e0 3b ec 85 59 3b 8b f8 89 bd ee 0b 36 3c
       0.006852911 0.0033191396 -0.06736859 0.011111243
000210 9f f2 73 3d 03 9a aa 3d 5a 0b 85 3d 33 c5 7d 3c
       0.059557553 0.08330157 0.06496306 0.0154889105
000220 c7 f7 16 3d 7b 50 12 bd da 63 92 bd 79 fe 99 bd
       0.036857393 -0.035721283 -0.071479514 -0.0751924
000230 f5 0e b8 3d f6 38 3a 3d 99 ac 6f bd 59 c0 1a 3d
       0.08987228 0.04546448 -0.05851421 0.037781093
000240 02 a4 6c 3d 90 69 ab 3d 3b 66 9c 3d f1 7b 82 3d
       0.057773598 0.08369744 0.076366864 0.06371296
000250 b1 cb bb bc 8b 27 07 bd f4 b6 81 3d 10 c1 2d 3d
       -0.022924276 -0.032996695 0.06333724 0.042420447
000260 73 8a 4c bd 7a a4 b0 3d f0 32 39 3d 25 bf 4f 3d
       -0.049936723 0.086251214 0.045214593 0.0507194
000270 26 ac 6c bd 78 4a 95 3c 13 13 0b bd a5 e5 9a 3d
       -0.05778136 0.018223986 -0.033953737 0.075633325
000280 6a 63 a3 bc 04 b1 05 3d 33 bd 16 3c 6f 07 0a 3d
       -0.019944865 0.03263952 0.009200382 0.033698495
000290 a2 50 03 bd 8d c7 07 3d 4a 08 83 bd 6e 5b a1 3c
       -0.03205932 0.03314929 -0.063980654 0.019696917
0002a0 d0 3f 4c bd 17 c7 b6 bd a7 f5 8f bd 49 5d 8b 3d
       -0.049865544 -0.08924692 -0.07029276 0.06804902
0002b0 28 a3 3c 3d f6 4b ad 3d 7e d4 7d 3d c0 e8 84 bd
       0.046054035 0.08461754 0.061970226 -0.06489706
0002c0 d3 77 7f bd ed ca 5c bc 4e 26 5b bd a8 95 6a 3d
       -0.062370133 -0.013476116 -0.053503327 0.05727163
0002d0 72 42 3c bd 92 2f 1f bd df 79 ab bd 79 03 53 bd
       -0.045961805 -0.038863726 -0.083728544 -0.051516984
0002e0 88 de 93 3d f2 54 83 3d 79 ab 85 3d d3 43 8a 3d
       0.07220179 0.064126864 0.065268464 0.06751218
0002f0 39 29 a7 3d aa a0 e4 bc 41 49 57 3d 2e d5 a1 3d
       0.081621595 -0.027908642 0.052560095 0.07901989
000300 c3 3f ea 3c 7d 9b b2 3d b0 96 4c 3d fb 3e 70 3d
       0.028594857 0.08721063 0.049948394 0.058653813
000310 59 ca 06 bd a4 66 4f 3d 8d 76 24 3c 60 27 56 bc
       -0.032907818 0.050634995 0.01003803 -0.013070911
000320 bb 05 43 bd 5e b1 2b bd 0f 49 82 bd 50 82 73 3d
       -0.047612887 -0.041917197 -0.06361591 0.059450448
000330 e0 bf 83 3d 96 5a 05 bc b8 5b 4d bd 33 bf 6a 3d
       0.064330816 -0.008139273 -0.050136298 0.057311248
000340 84 71 61 3d 9a 6e c0 3b 3f f1 2d bd 26 fb a2 3d
       0.055039898 0.0058725597 -0.0424664 0.07958059
000350 9c 52 08 3d 93 02 8e bd 00 95 a8 3d 38 95 87 3d
       0.033281907 -0.06934085 0.082315445 0.06620258
000360 93 81 db bc d5 76 4e 3d 6b 00 56 bd 45 cd 5e bc
       -0.026795184 0.050406296 -0.052246492 -0.013598745
000370 01 77 98 3d 6e cb 1a 3b 60 f9 85 bd dd bf ed bc
       0.07444573 0.0023619789 -0.06541705 -0.029022152
000380 5e 99 0a bd e0 43 9c bc 7e 0a 2b 3c 9b 22 a7 3d
       -0.03383767 -0.019075334 0.010439513 0.08160897
000390 77 c3 20 3c 8e f9 68 bd 6c bb 3f 3b 83 77 2e 3d
       0.009812227 -0.05687862 0.0029256 0.042594444
0003a0 27 bf 33 3d 1d d9 89 bd 8d bf 71 bc f7 25 8b bd
       0.04388347 -0.06730864 -0.014755142 -0.067943506
0003b0 8d 67 25 bd e0 4d 07 3d 81 3c 86 bd 5d 2e 0b 3d
       -0.040381957 0.03303325 -0.06554509 0.033979762
0003c0 12 3a 88 3d f2 fa c8 3b 84 e0 75 bd 7c d3 f9 bc
       0.06651701 0.0061334306 -0.060028568 -0.030496351
0003d0 6a 89 2d 3d a6 fc 83 bd b9 58 3a 3d c4 65 aa bd
       0.042367376 -0.06444673 0.04549477 -0.083201915
0003e0 bb 03 b1 bd a6 fa a6 bd 26 0e 86 bc ad ea 6a 3d
       -0.0864329 -0.08153276 -0.016364168 0.05735271
0003f0 ac 30 a6 bd 17 b0 8f 3d 94 e3 0e bd 01 61 c8 3c
       -0.08114752 0.07016008 -0.034885004 0.024460318

layers.1.fc.bias f4 [64]
000000 4d d2 86 3d d6 04 86 bb e7 4f f1 bc 6d 62 7e 3b
       0.065830804 -0.004089932 -0.029457046 0.003881599
000010 bd ec 17 3d e4 8c 3f bc 42 86 11 3d 76 e4 1d 3d
       0.037091006 -0.011691306 0.03552843 0.038547955
000020 8a 24 82 bd 17 3d 9e 3d ae 9a 74 3d 4e 6e 70 bb
       -0.063546255 0.07726496 0.059717827 -0.003668684
000030 af c3 75 3d 20 6a c8 bc 6a 62 de 3b 04 a4 36 3d
       0.06000107 -0.024464667 0.006786634 0.04459001
000040 b8 f5 88 bd 66 43 be bc 81 9e 6e bd e6 86 39 bc
       -0.06687492 -0.023225497 -0.05825663 -0.011323666
000050 50 f1 73 bd 1e 71 2a bd a2 c0 50 bd 53 22 8c 3d
       -0.059556305 -0.041611783 -0.05096496 0.06842484
000060 3c 33 ab 3c 42 dc ac bd 50 3b 4f bd e1 82 ec bb
       0.020898454 -0.08440448 -0.050593674 -0.0072177504
000070 4a 6f b6 3c 55 95 31 3d 1c 4c 6f 3d 98 62 6d bd
       0.022269864 0.043355305 0.058422193 -0.057955354
000080 81 bd ad 3d 65 a1 74 3d 8a 43 5c bd a3 df 5d bd
       0.084834106 0.05972423 -0.053775348 -0.054168355
000090 52 f9 8d bd d8 4f 8f bc a2 9e a8 bc 59 f9 ad bd
       -0.0693232 -0.017494127 -0.020583455 -0.08494825
0000a0 4e 9f d4 bc 35 d4 45 3d b6 04 2f bd 56 f0 94 bd
       -0.025954869 0.04829808 -0.042729102 -0.07272403
0000b0 93 ac 76 bd dd 2f 2f 3d 69 12 62 3d 7d 85 1a bd
       -0.060223173 0.042770255 0.05519334 -0.03772496
0000c0 e0 3c 8e bd 30 94 29 3d e6 31 2d bd a1 f9 9f bd
       -0.06945205 0.04140109 -0.042283915 -0.07811285
0000d0 3f e6 a5 3d a0 af a7 3c f4 33 74 bc 11 77 56 3c
       0.081005566 0.020469487 -0.014904965 0.013089911
0000e0 68 d5 8e 3d 9c e6 90 bd b5 68 06 bd c6 11 15 bd
       0.06974298 -0.07075235 -0.0328147 -0.036393903
0000f0 17 ae c3 bd 4e cd 9e 3d 62 c0 a9 bd 19 c2 12 bd
       -0.095546894 0.077540025 -0.08288647 -0.035829637

layers.2.gsds.0.weight f4 [2, 64]
000000 26 02 81 3d 4e 5e dc 3d 20 bb 00 bd 28 96 e1 3d
       0.06299238 0.10760175 -0.031428456 0.11014968
000010 f6 b1 d6 ba a7 6a f1 bd 4a 36 d5 bd ee b1 61 bd
       -0.0016379941 -0.117879204 -0.104107454 -0.055101328
000020 83 8b a4 bd 38 a7 ec 3d 3d 1e 6e bd 60 d8 be bc
       -0.08034422 0.11555332 -0.058134306 -0.023296535
000030 67 da ab 3d fe b8 b8 bc 2c ad 6b 3d 60 12 85 bb
       0.08391266 -0.022549149 0.057538196 -0.0040610284
000040 dd db 5f bd f5 7c a0 bd b3 d2 ef 3d f4 40 99 bd
       -0.054653037 -0.07836334 0.117101096 -0.07483092
000050 0a 4a 64 3c d0 11 48 3d a2 c2 93 3c 25 27 ba bc
       0.013933668 0.048845112 0.018037144 -0.022723744
000060 53 d1 a3 bc 69 bb 4a bd 3e 13 49 3d 8e ee 13 bd
       -0.019997275 -0.049495135 0.049090616 -0.036116175
000070 1b 33 43 3d 54 ce 4f 3d 8d 2e bd 3d 5b 3c 83 bd
       0.04765616 0.05073388 0.092373945 -0.06407996
000080 a9 fd aa bd 6f c3 aa bd 57 25 16 3d 28 d3 99 3c
       -0.08349163 -0.08338057 0.036656704 0.018777445
000090 73 11 f1 3d df be c1 3d ff 6b 5f bd 6c 96 b0 3d
       0.11770906 0.09460234 -0.054546352 0.08622441
0000a0 fa 04 84 bd 99 7a 11 bd 79 e4 d8 3d 1c 81 b9 bd
       -0.06446262 -0.03551731 0.10590453 -0.09057829
0000b0 22 ff 57 bd c6 6c dd bd d2 87 4d 3d 99 eb dc 3d
       -0.052733548 -0.108117625 0.050178356 0.10787124
0000c0 7a 85 e3 3d 5f fe 3d bd cb fd b6 bd fd f7 81 3d
       0.11109443 -0.046385165 -0.08935126 0.06346128
0000d0 5d a3 95 bd 1c 40 34 bd 54 9e be bd b0 b6 b1 3d
       -0.0730655 -0.044006452 -0.093075424 0.08677423
0000e0 e5 30 4d bc 16 3a dd 3c b1 cc 33 bc 51 99 77 3b
       -0.012523864 0.027005237 -0.010974095 0.0037780593
0000f0 b2 fc 50 bd ef 9b fb 3d 2e 1b c8 bd 90 d5 2a bc
       -0.05102224 0.12285601 -0.09770809 -0.010426894
000100 71 44 30 bd 11 da 9e bd c6 8d e5 3d c7 a0 e6 3d
       -0.04303402 -0.077564366 0.11208682 0.112611346
000110 e4 dc 8e 3d 87 ba 2f 3d c9 91 ae 3d 38 0e ba 3d
       0.06975725 0.042902496 0.085239 0.09084743
000120 68 02 93 bd 06 2d 3b bd 41 7b 82 3c cc 67 a2 3d
       -0.07178193 -0.045697235 0.015927913 0.07929954
000130 10 2f b8 3d 80 6e 0d bc 63 30 0f 3e 74 ae 96 bd
       0.089933515 -0.008632302 0.13983302 -0.07357493
000140 c2 ac 75 3d 13 1f 04 3e 09 61 03 3d 68 f8 85 3d
       0.059979208 0.12902479 0.03207496 0.0654152
000150 71 17 f5 3d bc b5 b7 bd 15 87 bc 3d 32 b2 61 3d
       0.11967362 -0.0897021 0.09205452 0.05510158
000160 9b 79 af 3d e2 0d 2b 3d f4 e0 ac 3d 86 95 0f 3c
       0.08568116 0.041761287 0.08441344 0.0087636765
000170 d9 49 33 3d 9b 58 b4 bd e6 29 3c be 42 b5 9a 3d
       0.0437716 -0.08805963 -0.18375358 0.075541034
000180 3d f5 d8 3d cf 76 c5 bc 16 42 cf 3d 7b 4f 63 bc
       0.105936505 -0.024104504 0.10120027 -0.01387393
000190 55 a1 7b 3d c8 01 23 3b c4 cb 86 3d a6 a9 31 bd
       0.061433155 0.0024872888 0.06581834 -0.04337468
0001a0 0e 58 93 bd f8 b6 6c 3d a4 76 a0 bd d0 6e cf 3d
       -0.071945295 0.05779168 -0.07835129 0.10128558
0001b0 37 2b af ba 32 fc 07 bd ca 1e 00 3e 94 37 f5 3d
       -0.001336432 -0.033199497 0.12511745 0.11973491
0001c0 44 c7 af bd a2 1e 62 3d 44 87 79 3d ac 60 45 bd
       -0.08582929 0.055204995 0.060920015 -0.048187897
0001d0 c4 11 8b 3c f5 f9 f6 bd 4f b6 86 3c ba 48 8a bd
       0.016976245 -0.12059394 0.016444353 -0.06752153
0001e0 d9 1a 01 3e 04 f1 26 3d f9 b3 01 3e b6 d1 d4 3d
       0.12607898 0.040757194 0.1266631 0.10391562
0001f0 37 e8 6a bd 6e 1d 9e 3d 20 c8 7e 3d 51 b8 97 3d
       -0.057350364 0.07720457 0.062202573 0.074082024

layers.2.gsds.0.bias f4 [2]
000000 ae 83 92 bc d0 2e ee 3d
       -0.017885055 0.116300225

log_envelope.log_envs.0.weight f4 [2, 1]
000000 82 23 31 3f 22 01 3d 3f
       0.69194806 0.73829854

exp_avg f4 [64, 2]
000000 5c 1a 00 39 20 c8 43 ba b8 fe fe 39 51 46 85 b9
       0.00012216851 -0.00074684806 0.00048636436 -0.00025420127
000010 3d 24 cc 37 31 68 39 b8 6f 76 0b 39 2c fd e8 b9
       2.433557e-05 -4.4204473e-05 0.00013300193 -0.00044439116
000020 08 5a 48 38 58 46 e8 38 bd f6 c5 b9 63 78 94 38
       4.7767564e-05 0.000110757246 -0.00037758602 7.079614e-05
000030 2d ce b8 b8 6c 8d cf 39 44 ff fa b7 a3 6b 1d 38
       -8.812207e-05 0.00039587484 -2.992119e-05 3.753196e-05
000040 b2 b4 65 b9 a9 f3 60 39 1b c9 b3 39 d1 cf 26 ba
       -0.00021906456 0.00021453075 0.00034291376 -0.00063633645
000050 41 f7 7f b9 a6 06 e7 39 8e 37 56 38 a6 1e c5 38
       -0.00024410804 0.00044064707 5.1073315e-05 9.399401e-05
000060 69 e6 d4 b8 dd 8a e8 b9 e2 ed a4 b8 4f ff bf 38
       -0.00010151865 -0.0004435395 -7.8644385e-05 9.155145e-05
000070 bc 64 4c 38 ae 11 aa b9 91 b8 6f 39 f7 c3 a0 b8
       4.8731206e-05 -0.000324381 0.00022861573 -7.665896e-05
000080 2e 24 c8 b8 1d 84 54 39 a5 f9 da b9 45 70 6a 39
       -9.543482e-05 0.00020267112 -0.000417662 0.00022357803
000090 be 8b e1 39 17 bd 3a b9 e7 42 d4 b9 15 51 5c 3a
       0.0004301946 -0.00017808784 -0.00040485637 0.0008404416
0000a0 ea ff 56 b8 1b 1e 33 b9 8b f1 1f b9 ba 02 46 b9
       -5.1259914e-05 -0.00017081985 -0.00015253403 -0.00018883767
0000b0 a9 12 05 38 fb fd fc b8 6c 13 25 b9 b3 df fa 38
       3.172705e-05 -0.00012063604 -0.00015742861 0.00011962596
0000c0 f2 88 32 b9 f8 67 40 b7 60 8e b0 39 ee e9 cc 37
       -0.00017026419 -1.1468299e-05 0.00033675414 2.4427627e-05
0000d0 8c 4f 98 37 85 98 04 b9 a6 82 25 b9 b1 89 fa 37
       1.8156854e-05 -0.00012645319 -0.00015784297 2.986644e-05
0000e0 1e a9 50 b9 09 c3 27 b8 8b 47 b5 37 f9 25 36 b9
       -0.00019899427 -3.9997543e-05 2.1610196e-05 -0.00017371018
0000f0 50 aa 44 3a 12 09 81 37 a8 02 91 b9 83 bd e1 b7
       0.0007502185 1.5382222e-05 -0.00027658534 -2.6910338e-05
000100 68 3c 6c b9 6d 18 3c 3a fb 79 09 39 e9 81 2f 3a
       -0.00022529217 0.00071752706 0.0001311078 0.00066950783
000110 c2 55 a2 39 14 21 10 39 c3 21 f8 38 a4 ef 8e 34
       0.00030962942 0.00013745233 0.0001183185 2.6623923e-07
000120 a1 64 3e 39 3b a7 9b b9 d8 b2 ec 39 73 5f 4c b8
       0.00018157299 -0.000296885 0.00045146677 -4.8726284e-05
000130 a0 10 32 39 bf d8 a1 39 95 88 d4 39 c9 2e 5d b9
       0.00016981596 0.000308698 0.00040537553 -0.00021093631
000140 cf 0e 87 b9 94 e2 a8 39 ca 61 80 b9 9f 62 7d 39
       -0.0002576024 0.0003221227 -0.0002448692 0.000241647
000150 48 84 f6 38 75 15 be b9 91 c0 df b8 df 4d a4 39
       0.000117548334 -0.0003625561 -0.00010669337 0.00031338536
000160 c6 80 e3 b8 e1 e3 41 3a e5 2d 8d b9 ab 7f d1 39
       -0.000108481894 0.00073963223 -0.0002692781 0.00039958706
000170 82 1b e4 b8 fa 92 63 b9 57 dd 06 b9 09 b6 81 ba
       -0.00010877011 -0.0002170316 -0.00012861691 -0.000989617
000180 c8 48 ed 39 c0 60 78 b9 79 a7 5e ba e7 fa 21 39
       0.0004525839 -0.00023687165 -0.00084935833 0.00015447625
000190 7f 61 bf b9 ec 8b 2a 39 d7 d1 33 39 3a 52 0c ba
       -0.00036503 0.00016264588 0.00017148942 -0.0005352829
0001a0 37 a4 08 ba a1 99 77 b7 68 27 c5 b9 c3 1e 2d b9
       -0.0005212458 -1.4758117e-05 -0.00037604128 -0.00016510025
0001b0 f9 f8 81 b7 56 bc f6 39 d6 bd 08 3a 73 87 e5 37
       -1.5493935e-05 0.00047061098 0.0005216276 2.7362e-05
0001c0 69 d6 a9 b9 e4 fe 87 b9 0a 9b 81 b9 19 24 53 39
       -0.0003239394 -0.00025939115 -0.0002472031 0.00020135976
0001d0 65 9e e7 b8 87 4f fa b8 6b 12 36 b9 ff 40 26 b9
       -0.000110444416 -0.00011935742 -0.00017363734 -0.00015855207
0001e0 de 19 bd 38 dd 14 a8 38 3d 4e c8 38 dd 6d f3 b9
       9.0170404e-05 8.01475e-05 9.551316e-05 -0.00046430426
0001f0 a7 06 0e b9 00 83 64 39 82 f7 7c b9 ce 83 87 b8
       -0.00013544653 0.00021792576 -0.00024124797 -6.461852e-05

exp_avg_sq f4 [64, 2]
000000 d5 33 31 3a a9 b2 d4 3a 65 83 fc 39 b2 87 f5 39
       0.0006759738 0.0016227561 0.00048163082 0.00046831142
000010 08 ce 7f 38 38 a0 66 38 1f bc c9 39 f8 83 56 3a
       6.098862e-05 5.498549e-05 0.0003847787 0.0008183117
000020 f8 82 dc 38 8e e4 20 39 9e 25 5b 39 98 19 df 38
       0.00010514812 0.00015343932 0.00020899481 0.00010638236
000030 de 74 c9 37 51 24 70 39 3f 59 65 38 9c 76 03 39
       2.4015488e-05 0.00022901713 5.468097e-05 0.00012537319
000040 16 40 29 38 16 14 03 39 80 7a 9f 39 5c a2 8c 3a
       4.0352425e-05 0.00012500616 0.00030418113 0.0010729539
000050 c8 89 94 39 5a db 27 3a 0e 54 c9 38 78 38 0d 39
       0.00028331415 0.00064032304 9.600083e-05 0.00013467844
000060 68 05 36 39 db 99 fa 39 a0 28 6b 37 90 c3 17 37
       0.00017358887 0.00047798347 1.401655e-05 9.045834e-06
000070 7f a6 85 37 00 29 f0 38 a9 c3 c1 36 92 47 0c 37
       1.5932366e-05 0.00011451729 5.774626e-06 8.361314e-06
000080 28 57 9a 39 84 95 9d 39 61 ae b1 39 51 d9 f6 39
       0.00029438105 0.0003005677 0.00033889993 0.0004708269
000090 6a f6 df 38 2d 63 91 39 eb 3b 2d 3a 19 49 1b 3b
       0.00010679367 0.00027730447 0.0006608355 0.0023694693
0000a0 d0 0d 1e 38 1c ae 62 38 bc 6a 31 3a 72 7d 8e 3a
       3.7683e-05 5.404475e-05 0.0006767919 0.0010871126
0000b0 e3 bf db 35 31 8b ac 36 06 49 02 37 a6 bf 81 38
       1.6372618e-06 5.1422035e-06 7.765606e-06 6.186897e-05
0000c0 b4 24 5e 38 75 46 72 38 39 dc 94 38 4e 37 fc 38
       5.2963107e-05 5.7762914e-05 7.0982096e-05 0.00012026598
0000d0 70 98 64 38 57 84 2d 38 47 cc 8e 37 02 db b2 37
       5.4501405e-05 4.1369665e-05 1.7022843e-05 2.1321237e-05
0000e0 01 62 fe 37 93 a8 76 37 a1 8e 75 38 b2 2c 84 38
       3.0324796e-05 1.4701992e-05 5.8545385e-05 6.302576e-05
0000f0 40 59 d4 39 93 df 0b 39 88 64 21 39 6b 01 dd 37
       0.00040502287 0.00013339361 0.00015391607 2.6345913e-05
000100 f0 df 19 3a da a9 07 3b 23 97 04 3a e2 7f 85 3a
       0.0005869856 0.0020700605 0.00050579215 0.0010185207
000110 82 bd 52 38 c1 57 9a 37 19 a9 cb 37 8f ff 9c 36
       5.0244395e-05 1.8399094e-05 2.4278228e-05 4.6789132e-06
000120 6d 76 77 38 d6 92 94 39 7b c6 31 38 da 24 17 39
       5.899968e-05 0.0002833816 4.2384938e-05 0.0001441421
000130 d8 43 29 3a 53 94 7a 3a 16 4b 6d 39 7e 04 84 39
       0.0006456948 0.0009558845 0.00022630053 0.0002518035
000140 66 5a 0c 3a 3f ac cd 39 19 30 37 39 86 81 a8 39
       0.00053540466 0.0003922898 0.00017470158 0.0003213996
000150 6a f7 95 39 06 09 ef 39 24 f7 f2 39 9b fe 83 3a
       0.00028603832 0.00045592355 0.0004634197 0.0010070385
000160 62 b4 02 3a 7b d3 33 3a b0 ff 92 39 a1 a0 02 3a
       0.00049859856 0.0006859821 0.00028037792 0.0004983042
000170 f6 22 f3 37 95 cc b7 38 2d 1c 62 38 dd 1b 63 3a
       2.8984137e-05 8.7642264e-05 5.390884e-05 0.0008663515
000180 ab 76 93 39 28 98 4e 3a fe bb 25 3a a0 cf 8c 3a
       0.0002812644 0.00078809494 0.00063222635 0.0010743029
000190 75 3b 4c 39 9d 12 7a 39 2e 92 42 3a 19 b0 86 3a
       0.00019477106 0.00023848792 0.0007422295 0.001027587
0001a0 7e 73 e9 38 74 b7 82 39 20 60 02 37 f1 9c 3c 37
       0.00011131818 0.00024932215 7.770985e-06 1.1242214e-05
0001b0 8a 58 a5 39 59 8f 5b 3a 03 de 19 39 f8 ee 0d 37
       0.0003153722 0.00083755475 0.00014673923 8.459894e-06
0001c0 91 e1 17 39 0d 07 9d 38 07 53 7a 37 ea 12 4d 38
       0.00014484512 7.487657e-05 1.49204925e-05 4.8893424e-05
0001d0 3e 09 f9 37 1c 26 dc 37 3b 56 d8 38 85 83 20 39
       2.9687417e-05 2.624379e-05 0.00010315744 0.00015307784
0001e0 74 d8 92 36 fe 4b 29 35 e7 18 19 39 7b ac 0c 3a
       4.3763375e-06 6.306799e-07 0.00014600494 0.0005366278
0001f0 78 a1 22 38 fd 4d 2e 39 63 2a 98 37 7a 28 da 37
       3.877419e-05 0.00016622986 1.813955e-05 2.6006473e-05

exp_avg f4 [64]
000000 de f2 0b bb b8 5a a9 ba d8 b6 86 39 a7 b8 c5 ba
       -0.0021354477 -0.0012920713 0.000256947 -0.0015084938
000010 20 4b de 39 05 10 13 3a 07 f9 75 3a ac f5 a0 39
       0.00042399112 0.0005609992 0.0009383116 0.00030700618
000020 5c c1 38 3a 19 9c f1 ba 7d 9a be 3a 11 dd d2 39
       0.0007047856 -0.0018433362 0.0014541891 0.0004021903
000030 ec fc a2 ba e8 1b b8 39 67 29 2f ba 2c c9 8d b9
       -0.0012434996 0.00035116007 -0.00066818896 -0.000270435
000040 fc 35 5a 3a 6b da b5 3a 4d 6b 31 ba 4d 54 39 3b
       0.00083240843 0.0013874298 -0.0006768003 0.0028279007
000050 0f 53 98 b9 db 56 a5 ba 78 cf c9 b8 4f 3b 1f 3a
       -0.00029053583 -0.0012614386 -9.623071e-05 0.00060742063
000060 b8 3a a1 39 ae 17 0f ba 9f b4 a4 b9 a6 86 54 b9
       0.00030752062 -0.00054585456 -0.0003141509 -0.00020268056
000070 5f f5 f6 b7 85 82 38 b9 ff 31 4b ba 2a 06 8f 39
       -2.9439745e-05 -0.0001759623 -0.00077512854 0.00027279678
000080 31 22 14 3b f0 2e dc 3a 17 8f 8a 39 82 ad 8b b9
       0.0022603387 0.0016798656 0.0002642802 -0.0002664142
000090 98 42 83 ba 9c 95 2a ba c6 3e b9 3a 23 ef 38 ba
       -0.0010014353 -0.0006507279 0.0014133088 -0.0007054677
0000a0 af 35 7b 3a 85 1f 93 3a d8 49 90 ba 4e ac b5 3a
       0.00095828896 0.0011224604 -0.0011008335 0.0013860555
0000b0 8d 10 db 3a b7 0a 94 3a 36 7e 14 ba 53 03 05 bb
       0.0016713307 0.0011294697 -0.0005664559 -0.002029617
0000c0 e2 93 d3 ba da 8e 08 3b 1e a0 49 3a 45 8c c0 ba
       -0.0016142095 0.00208371 0.0007691401 -0.0014690241
0000d0 8f 1e 5b 3a 58 a4 56 39 e7 92 bd 3a 6c 10 55 b8
       0.00083587406 0.00020469853 0.0014463336 -5.079845e-05
0000e0 fb aa 05 ba 18 5e 2f 3a 5a fb 27 39 22 67 20 ba
       -0.00050990254 0.0006689741 0.00016019997 -0.00061188836
0000f0 d5 26 30 37 ca 95 97 ba 70 43 50 3a f6 69 23 39
       1.0499459e-05 -0.0011565026 0.0007944619 0.00015584365

exp_avg_sq f4 [64]
000000 6d ac 6b 3b a1 82 a9 3a 8a b1 b3 38 f4 27 19 3b
       0.0035960928 0.0012932607 8.568454e-05 0.0023369761
000010 de b3 d1 38 e4 b0 76 39 05 e5 f6 39 aa 09 d7 38
       9.9993995e-05 0.00023526285 0.0004709141 0.00010253799
000020 85 b1 8d 39 fb 02 fe 3a 1b 78 ec 3a 7f 74 86 39
       0.00027025878 0.001937955 0.0018041165 0.00025645268
000030 6f da ab 3a df 74 0b 38 f8 b3 97 39 88 74 9b 38
       0.0013111363 3.3249027e-05 0.00028935052 7.4126816e-05
000040 7e 88 07 3a 1a 57 b4 3a 19 cf 59 3a 36 bb b3 3b
       0.000517018 0.0013758868 0.0008308753 0.005484964
000050 d7 54 21 39 c5 2b 1a 3b 59 5a 84 37 16 71 0d 39
       0.00015385762 0.0023524624 1.5777698e-05 0.00013488936
000060 27 bb 69 38 a2 d5 90 39 4e fe e8 38 82 66 08 37
       5.5725828e-05 0.0002762499 0.0001110999 8.130099e-06
000070 61 ff 02 37 37 62 b5 38 be 3c 72 39 9b e4 ec 37
       7.808064e-06 8.6490465e-05 0.00023101547 2.8239845e-05
000080 c6 88 72 3b 28 a6 0e 3b ba 4d 4d 38 4e fc d8 38
       0.0037007793 0.0021766517 4.8948197e-05 0.00010346678
000090 f8 ee 3a 3a 6b 7f a5 39 9a d4 19 3b 5b 3b fd 39
       0.0007130946 0.00031566186 0.0023472668 0.00048300144
0000a0 b0 6f 3f 3a 0b 95 96 3a fc c1 86 3a 25 1b c0 3a
       0.00073027145 0.001148851 0.00102812 0.0014656527
0000b0 0a 2b fb 3a 9f 56 72 3a 2c 80 9e 39 4e b1 f6 3a
       0.0019162607 0.0009244475 0.00030231604 0.0018821151
0000c0 85 a8 ef 3a aa d9 2a 3b 99 84 09 3a 18 42 02 3b
       0.0018284476 0.002606968 0.0005245894 0.001987582
0000d0 bc bd d2 39 68 6e b5 37 03 82 f0 3a 87 05 80 38
       0.00040195684 2.1628293e-05 0.0018349293 6.104545e-05
0000e0 8b 90 26 39 8f 85 61 39 ac f7 a7 37 9b 0b 8a 39
       0.0001588484 0.00021507427 2.0023283e-05 0.00026330058
0000f0 04 b0 6e 35 ae 10 c9 3a 6e 20 88 39 e7 72 be 37
       8.8918046e-07 0.0015340054 0.00025964103 2.270327e-05

exp_avg f4 [64, 128]
000000 0d ca 01 39 63 3a ff 39 e6 ae 8b 37 43 af 96 b9
       0.00012377668 0.00048680892 1.6651535e-05 -0.0002874081
000010 a3 32 c1 39 1b 29 03 b7 07 f5 ef b9 82 be a5 b7
       0.00036849556 -7.817779e-06 -0.00045768192 -1.9758245e-05
000020 50 fa 58 b8 62 64 b3 b7 04 15 67 b9 7e 0a 0f ba
       -5.1731535e-05 -2.1385207e-05 -0.00022037706 -0.00054565805
000030 ed 41 1f ba 4b 5e b6 37 10 c4 24 ba 82 d3 4d b9
       -0.00060751924 2.174e-05 -0.0006285319 -0.00019629116
000040 57 c9 12 3a 62 1d c6 39 ce d9 17 ba c2 85 21 37
       0.000559946 0.00037787395 -0.00057926483 9.627491e-06
000050 28 8f e5 39 e4 f7 20 3a c0 17 0f 3a 9d 0b 1a 3a
       0.00043784943 0.0006140454 0.0005458556 0.00058763643
000060 5b b7 89 38 5f 5f d8 b9 c8 3c a3 b9 22 64 2a 3a
       6.566822e-05 -0.00041269787 -0.00031135068 0.00064999063
000070 97 5f 70 b9 95 e4 ed 39 21 d6 11 39 80 54 b0 38
       -0.00022923794 0.0004537447 0.00013908047 8.408073e-05
000080 e3 36 82 39 40 7f da 38 f7 f0 1f 3a ee 3d 05 3a
       0.00024836426 0.00010418752 0.0006101275 0.00050827756
000090 17 fb 60 38 ff 43 3e 37 0f a1 ee 39 0f fb 10 b9
       5.3639607e-05 1.1340714e-05 0.00045514895 -0.00013826437
0000a0 60 33 6a 39 bc a2 ac 39 f6 1d 07 ba 60 f6 b0 39
       0.00022335118 0.00032927643 -0.0005154306 0.000337529
0000b0 61 f1 cb b9 c8 91 96 b9 cc 7b 1f 3a 2d 8b e1 b9
       -0.0003889902 -0.00028718845 0.0006083816 -0.00043019038
0000c0 43 01 0a 39 6d 1c 92 39 5e 5e dc b9 86 69 05 3a
       0.00013161176 0.0002786847 -0.0004203198 0.00050892716
0000d0 bd 2c 8b b9 80 11 3d 38 f4 2e 05 ba 68 78 b6 b9
       -0.0002654548 4.507741e-05 -0.0005080544 -0.00034803455
0000e0 8f 49 01 ba 30 05 fc 38 74 19 d7 38 c6 00 18 39
       -0.00049319206 0.000120172626 0.0001025674 0.00014496138
0000f0 6a f3 0b 3a 5c 44 f4 b9 95 56 05 ba 1a 7c e5 b9
       0.0005338701 -0.00046590238 -0.0005086449 -0.00043770747
000100 bf f7 0a 39 dc f4 0a 3a d8 27 2d 39 29 d3 94 b9
       0.00013252998 0.0005300769 0.00016513409 -0.00028386086
000110 8e bf d3 39 b8 9c 01 39 df e6 17 b9 5b 01 10 39
       0.00040387776 0.00012360781 -0.00014486488 0.00013733415
000120 0a 30 42 b9 e9 18 35 39 c6 0a a3 b9 70 5a 00 ba
       -0.00018519178 0.00017270785 -0.0003109781 -0.0004896289
000130 44 18 16 ba a5 03 92 b9 52 dd c5 b9 04 6f 2a 35
       -0.0005725662 -0.00027850005 -0.00037739665 6.3491484e-07
000140 a0 83 1e 3a df 21 f5 39 8a 6f d9 b9 2c c2 17 b9
       0.00060468353 0.00046755277 -0.00041472568 -0.00014472817
000150 b4 c9 df 39 3b 76 1a 3a 09 9c 1a 3a 3f e0 9b 39
       0.00042684155 0.00058922515 0.0005897885 0.0002973098
000160 c1 fe 5f 39 cb 53 fd b9 0a 31 da b9 c9 ec d8 39
       0.0002136184 -0.0004831835 -0.00041616737 0.0004137515
000170 33 fd a8 b9 e9 05 08 3a 37 c6 e5 b7 5d 37 8f 39
       -0.00032232105 0.0005188869 -2.7391228e-05 0.00027316334
000180 c5 57 2a 38 2f 68 c1 38 d4 66 a6 39 30 bf 1a 3a
       4.06129e-05 9.222363e-05 0.000317386 0.0005903123
000190 b0 58 ba b8 c3 91 48 b9 08 d8 d5 39 75 39 34 b9
       -8.8856905e-05 -0.00019127787 0.00040787482 -0.00017187542
0001a0 7d 25 ec 39 3b ce 4b 38 68 6d 11 ba 99 bc c6 39
       0.0004504136 4.859104e-05 -0.0005547614 0.0003790602
0001b0 67 56 04 ba d6 82 c0 b9 4e 22 a0 39 fd bd fa b8
       -0.00050482753 -0.00036718574 0.00030543137 -0.00011956317
0001c0 97 a4 4b b8 da 4f cc 39 27 17 fe b9 10 09 17 3a
       -4.8552258e-05 0.00038969406 -0.00048463905 0.0005761543
0001d0 94 8a c6 37 0e 69 6e 39 21 20 f6 b9 b4 c6 55 b9
       2.366797e-05 0.00022736585 -0.00046944714 -0.00020387286
0001e0 87 40 9b b9 36 cc 27 b9 e8 62 53 39 de 81 4f 38
       -0.0002961198 -0.00016002436 0.00020159374 4.9473594e-05
0001f0 52 7f cd 39 c2 21 aa b9 08 96 33 b9 2b 4b a7 b9
       0.00039195508 -0.00032450078 -0.00017126661 -0.00031908727
000200 30 30 32 39 28 62 72 3a da 28 8c 38 7c cd 00 ba
       0.00016993354 0.0009246194 6.6833294e-05 -0.0004913432
000210 36 a8 18 3a 93 f5 24 38 7b 77 40 ba f2 c8 b9 37
       0.0005823405 3.9329356e-05 -0.0007342023 2.2147291e-05
000220 2d 6b 1a b9 25 e1 13 38 02 f4 df b9 7a ca 62 ba
       -0.0001472651 3.5257213e-05 -0.00042715674 -0.0008651387
000230 08 91 78 ba a2 c4 2e b8 c9 a0 7d ba 6f ea 92 b9
       -0.00094820606 -4.166796e-05 -0.0009675143 -0.00028021957
000240 0b 01 83 3a ff 15 3d 3a 1a a1 6a ba b7 cf 43 b8
       0.0009994818 0.00072130555 -0.00089503976 -4.6685072e-05
000250 51 c3 39 3a 6c 0b 81 3a c9 b3 82 3a ab b0 6f 3a
       0.00070862944 0.0009845323 0.0009971793 0.0009143452
000260 bb e9 27 39 1d b1 4b ba 81 a9 10 ba dd a3 82 3a
       0.00016013432 -0.00077702274 -0.0005518422 0.0009967048
000270 64 5d bc b9 89 74 5d 3a c4 bf 2f 39 e4 d1 4a 39
       -0.00035927736 0.0008447846 0.00016760739 0.00019342412
000280 e4 35 b3 39 22 0d 1b 39 ac 14 7b 3a 58 e3 6f 3a
       0.00034181692 0.00014786844 0.00095779705 0.00091510033
000290 3b d8 fa 37 74 06 20 b8 a0 d5 3f 3a ba d5 52 b9
       2.9903013e-05 -3.8152983e-05 0.00073179044 -0.0002010678
0002a0 ad ff e2 39 6c 76 f9 39 9b ce 57 ba 44 ad 17 3a
       0.00043296572 0.00047581212 -0.0008232386 0.00057860115
0002b0 4a 3b 25 ba c7 86 0a ba 5e 06 78 3a ab 99 35 ba
       -0.0006303085 -0.00052843656 0.0009461398 -0.00069275004
0002c0 80 52 20 39 e4 98 10 3a ba 4a 58 ba 0c 53 65 3a
       0.00015289523 0.00055159465 -0.0008250881 0.00087480317
0002d0 36 c8 bc b9 46 e5 1c 39 09 1f 50 ba 42 31 0a ba
       -0.00036007323 0.0001496273 -0.0007939195 -0.0005271622
0002e0 7e b2 45 ba b1 b5 0b 39 1a 21 4c 39 3d 93 47 39
       -0.0007541551 0.00013323758 0.00019467287 0.0001903297
0002f0 18 d2 54 3a e4 f1 39 ba 0c f5 56 ba 06 5e 2c ba
       0.00081184646 -0.00070932345 -0.0008199967 -0.000657529
000300 2c 46 3f 39 ff 1e 62 3a bd 77 8d 39 45 41 ff b9
       0.0001824132 0.00086258346 0.00026982828 -0.0004868602
000310 50 6b 25 3a d6 50 64 39 c4 7d 4c b9 85 bd 76 39
       0.00063102413 0.00021773888 -0.00019501807 0.0002353099
000320 27 a8 ad b9 2e a3 9b 39 a8 c7 0c ba c7 b9 50 ba
       -0.00033122415 0.00029685482 -0.0005370327 -0.00079622533
000330 af 00 6c ba ad 95 f3 b9 30 cd 18 ba d2 1a 05 b7
       -0.00090027874 -0.0004646009 -0.0005828915 -7.933662e-06
000340 fb a8 82 3a 50 12 4c 3a bc ff 2f ba 07 b4 88 b9
       0.0009968573 0.0007784711 -0.00067138276 -0.00026074072
000350 a2 21 36 3a 97 8d 7c 3a b7 e5 7e 3a e4 ab ea 39
       0.00069477607 0.00096341356 0.0009723561 0.00044760027
000360 f5 c8 bb 39 8a 6e 51 ba b9 43 33 ba 9a cb 2d 3a
       0.00035817144 -0.0007989189 -0.00068383996 0.0006629765
000370 3d 0b 01 ba 38 1e 60 3a 7b 81 93 b8 2e d8 eb 39
       -0.0004922634 0.0008549425 -7.033624e-05 0.0004498376
000380 14 9e 59 38 fa de 09 39 10 72 f8 39 69 09 80 3a
       5.1884053e-05 0.00013148403 0.0004738723 0.000976843
000390 e9 77 3f b9 da 39 b1 b9 dc 1b 31 3a d6 5b 82 b9
       -0.0001825985 -0.00033803174 0.00067561655 -0.00024863955
0003a0 0e 5f 43 3a 29 09 aa 38 cf b7 65 ba af f4 24 3a
       0.0007452824 8.107938e-05 -0.00087630464 0.0006292564
0003b0 85 dc 4f ba e9 24 22 ba 33 92 f3 39 f0 dc 22 b9
       -0.00079292833 -0.00061853096 0.000464575 -0.0001553183
0003c0 02 19 cf b8 77 f2 28 3a c4 1c 4d ba 96 79 77 3a
       -9.875187e-05 0.00064448215 -0.0007824416 0.000944042
0003d0 d3 e2 32 38 0c d2 c8 39 d4 75 42 ba 30 23 ad b9
       4.2649754e-05 0.0003830347 -0.00074180705 -0.00033023348
0003e0 2f cb fd b9 3b 21 89 b9 1c 3d ac 39 a5 ad 71 38
       -0.00048407304 -0.00026155435 0.00032851927 5.7620597e-05
0003f0 4e a1 1f 3a bf f4 06 ba af 79 7b b9 01 b3 fc b9
       0.0006089405 -0.00051481643 -0.00023982556 -0.00048198554

exp_avg_sq f4 [64, 128]
000000 50 98 bc 38 aa d4 4a 39 b4 cc 09 37 1a 83 db 38
       8.992909e-05 0.00019343445 8.2134975e-06 0.00010467153
000010 aa fa 0b 39 4d 7c 59 37 50 6e 84 39 c9 63 a6 36
       0.00013349453 1.2963149e-05 0.0002525919 4.958802e-06
000020 98 8f b7 38 82 88 58 38 71 f2 00 39 4a 82 55 39
       8.7528664e-05 5.1625546e-05 0.00012297348 0.000203618
000030 a1 f0 90 39 68 ec 59 38 42 a5 98 39 57 63 b8 38
       0.00027645103 5.1957002e-05 0.00029114826 8.792307e-05
000040 0b ee 37 39 23 52 64 39 88 af 66 39 c9 4a 82 38
       0.00017540918 0.00021774373 0.000219999 6.212813e-05
000050 b6 58 02 39 87 a4 8e 39 7e 06 2e 39 33 d8 94 39
       0.00012430814 0.00027206933 0.00016596352 0.0002838984
000060 ba f2 cb 36 59 6b 47 39 41 9e 71 38 d4 bd 87 39
       6.0781285e-06 0.00019018109 5.7606263e-05 0.0002589064
000070 10 12 1f 39 c3 c4 08 39 31 b8 86 38 12 a2 68 37
       0.0001517015 0.0001304327 6.423926e-05 1.38660125e-05
000080 93 d3 41 38 04 8c e0 37 50 16 aa 39 ec 04 0d 39
       4.621183e-05 2.676808e-05 0.0003244155 0.00013448641
000090 4b 0b fb 38 4e d3 22 39 72 bf 2d 39 b9 ae ba 38
       0.00011970716 0.00015528241 0.00016569885 8.901716e-05
0000a0 53 e6 92 38 2e b0 f3 38 de 5b 5f 39 11 af a5 38
       7.004724e-05 0.00011619959 0.0002130116 7.900422e-05
0000b0 3f d2 5c 39 3f a4 b2 38 db d7 93 39 34 03 7b 39
       0.00021059158 8.5182946e-05 0.0002819885 0.00023938419
0000c0 a0 f4 26 38 24 12 da 38 93 95 38 39 10 5a 1c 39
       3.980531e-05 0.00010398429 0.00017603328 0.0001491087
0000d0 04 a3 48 38 d8 92 98 38 cf dc 3e 39 95 56 b0 38
       4.7835536e-05 7.2752766e-05 0.0001820207 8.408461e-05
0000e0 58 fd 37 39 7e 52 8c 38 e3 01 27 37 1b 44 21 38
       0.00017546618 6.6910856e-05 9.954415e-06 3.844882e-05
0000f0 e9 2c 62 39 cc 0e 12 39 55 24 8b 39 bb c0 4e 39
       0.0002156977 0.00013929157 0.00026539215 0.00019717489
000100 f0 fc b9 38 39 bb ad 39 37 b4 94 37 7b 80 d6 38
       8.868601e-05 0.00033136623 1.7726894e-05 0.000102282465
000110 71 99 14 39 34 07 36 38 dd e4 9d 39 ff 0d 09 38
       0.00014171541 4.339889e-05 0.0003011589 3.267638e-05
000120 8c 0a 25 39 7a fa 11 39 1a 76 4f 39 e0 22 22 39
       0.00015739555 0.00013921587 0.00019785055 0.00015462516
000130 91 38 88 39 75 92 70 38 53 a4 8b 39 98 25 9c 37
       0.00025982087 5.7356858e-05 0.00026634577 1.8614155e-05
000140 18 68 93 39 4e 70 b1 39 ad 47 f1 38 bf 9e 03 39
       0.0002811558 0.00033843744 0.00011505126 0.00012552271
000150 d6 42 f5 38 02 00 75 39 42 25 97 39 04 0f 95 39
       0.000116949595 0.00023365024 0.00028828724 0.00028430682
000160 08 e3 3e 38 96 09 a2 39 3a 4b f6 38 c0 90 2e 39
       4.551097e-05 0.0003090619 0.00011744206 0.00016647857
000170 28 6a 1c 39 a1 1f 86 39 7e c3 d5 38 ce e4 5d 38
       0.00014916866 0.00025582037 0.00010193045 5.2903597e-05
000180 4c 54 47 38 da 7a e4 37 33 9c ad 39 a8 2c 83 39
       4.7523805e-05 2.7236925e-05 0.0003311351 0.0002501954
000190 8e 99 3a 39 05 ec 95 39 ad e3 00 39 94 65 b3 38
       0.00017795546 0.00028595343 0.00012291847 8.5543055e-05
0001a0 73 5d 0b 39 1f a4 68 36 9f e4 71 39 03 16 e2 38
       0.00013290886 3.4666225e-06 0.00023068719 0.0001078062
0001b0 9f 34 71 39 68 2d 20 39 06 5f 90 39 0f 65 9b 39
       0.00023003154 0.00015275704 0.00027536618 0.00029639198
0001c0 ee 5f 9c 38 57 de 72 39 b9 df ab 39 c4 70 68 39
       7.456528e-05 0.00023161747 0.00032782348 0.00022167253
0001d0 ac da a9 38 ff 00 45 39 00 35 2c 39 16 91 e0 37
       8.099279e-05 0.00018787755 0.00016422942 2.6770442e-05
0001e0 fc 82 71 38 54 1d a9 37 73 57 db 37 f3 56 41 38
       5.7580866e-05 2.0160027e-05 2.6147556e-05 4.6095764e-05
0001f0 5f dc 40 39 4c 35 b1 38 07 3c a0 39 cc 9b 47 39
       0.00018392642 8.449945e-05 0.00030562302 0.00019036158
000200 dc 14 a5 39 ed fd 0b 3a 26 9b be 37 65 8b 99 39
       0.00031486794 0.0005340267 2.2722012e-05 0.0002928629
000210 99 ac e0 39 ca 40 67 38 de da 6b 3a 2f e1 cd 37
       0.00042853205 5.513503e-05 0.00089971523 2.4542764e-05
000220 ba 6b a4 39 ee 5f 59 39 8d ec cb 39 e0 c2 12 3a
       0.0003136078 0.00020730469 0.0003889542 0.00055984966
000230 a9 1a 60 3a c0 db 1c 39 7a 39 7c 3a b2 c1 7c 39
       0.00085488945 0.00014959183 0.0009621602 0.0002410475
000240 d9 61 f3 39 90 fb 29 3a 0a c3 22 3a d7 36 78 39
       0.00046421474 0.0006484324 0.00062088727 0.00023671552
000250 23 9e b1 39 df 51 42 3a 9b ab e5 39 f1 53 7d 3a
       0.00033877892 0.00074127124 0.0004380614 0.00096636923
000260 c9 6d b4 37 f5 ae 0f 3a 78 d6 21 39 c6 bc 4d 3a
       2.1508795e-05 0.0005481088 0.00015434052 0.0007848259
000270 ae 43 06 3a 61 97 b7 39 2b 5c 83 39 06 0b 21 38
       0.00051217794 0.00035017266 0.00025054938 3.8395658e-05
000280 a0 8e 2f 39 36 2c c7 38 bc 7a 90 3a fc b9 ba 39
       0.00016742432 9.4972944e-05 0.0011022906 0.00035615254
000290 d0 4b e6 39 1c 19 16 3a 58 ff e6 39 f5 43 a1 39
       0.00043925503 0.00057257875 0.00044059264 0.00030758945
0002a0 e5 e3 5b 39 ef d4 9f 39 06 9b 2c 3a b8 4f 5c 39
       0.00020970365 0.0003048549 0.00065843796 0.00021010533
0002b0 6f 4f 34 3a 43 46 80 39 4b bc 79 3a d4 8a 61 3a
       0.00068782916 0.00024466412 0.0009526654 0.0008603756
0002c0 4f dc 29 39 bb 9c a5 39 56 a7 02 3a 2f d9 d3 39
       0.00016199167 0.00031588026 0.00049840414 0.0004040687
0002d0 ce 06 43 39 37 dc 8f 39 bf 75 10 3a 14 dc 6e 39
       0.00018599184 0.00027439158 0.00055107096 0.00022779434
0002e0 e2 2f f9 39 f4 fe 41 39 33 6a ea 37 52 8f 17 39
       0.00047528656 0.00018500892 2.7944427e-05 0.00014453873
0002f0 02 f5 36 3a 4b c9 d8 39 03 bf 74 3a c9 f9 2f 3a
       0.0006979258 0.00041348705 0.00093363243 0.0006712941
000300 29 84 a3 39 f8 ae 6a 3a a9 5e 49 38 4a 54 96 39
       0.0003118825 0.0008952464 4.8010294e-05 0.0002867303
000310 ca 93 ec 39 a6 f1 08 39 0e 3d 88 3a 3c 1c c4 38
       0.0004512354 0.00013059992 0.0010394172 9.351267e-05
000320 53 47 fe 39 eb ce dc 39 45 cf 16 3a df 44 df 39
       0.00048499796 0.00042115836 0.00057529315 0.00042585187
000330 72 44 54 3a 42 b6 2b 39 e2 56 6f 3a 80 37 84 38
       0.00080973573 0.00016375727 0.0009130073 6.304588e-05
000340 55 1c 46 3a dd c6 78 3a f6 df b0 39 67 79 cd 39
       0.00075573224 0.0009490082 0.000337362 0.000391911
000350 29 2b a7 39 42 5c 26 3a 32 a5 4a 3a 3b 2f 81 3a
       0.0003188488 0.0006346145 0.00077303045 0.0009855995
000360 bf 78 00 39 70 05 5f 3a ad 44 a5 39 d3 bc 0e 3a
       0.00012252013 0.0008507585 0.0003152242 0.0005445007
000370 45 cd 04 3a 41 4b 33 3a 10 ec b2 39 48 4f 14 39
       0.0005065988 0.0006839522 0.00034126686 0.00014143914
000380 00 1a 2d 39 ba 0c c9 38 83 d8 95 3a ad 37 31 3a
       0.00016508251 9.5867974e-05 0.0011432323 0.00067603105
000390 e9 58 18 3a 0f 7c 67 3a 67 3a ab 39 58 03 9d 39
       0.00058115885 0.0008830437 0.00032659175 0.00029947865
0003a0 1e fb c7 39 0a 58 1d 37 16 67 39 3a 1b 16 96 39
       0.00038143335 9.378427e-06 0.0007072551 0.000286267
0003b0 7b e6 41 3a 4c 56 db 39 6e 56 7a 3a 9d 91 85 3a
       0.000739671 0.0004183523 0.0009549622 0.0010190491
0003c0 78 8a 80 39 44 67 27 3a f1 14 69 3a e0 a7 1e 3a
       0.0002451723 0.0006385932 0.0008891365 0.0006052237
0003d0 c2 88 89 39 ff 68 11 3a cd b0 03 3a ad de 9d 38
       0.0002623257 0.00055469567 0.0005023599 7.52782e-05
0003e0 0f 8d 28 39 f3 05 86 38 fe 06 95 38 f6 57 29 39
       0.00016074277 6.390726e-05 7.106176e-05 0.00016149864
0003f0 74 59 21 3a fa 48 8b 39 c8 b5 8a 3a aa 98 2b 3a
       0.0006154992 0.00026566518 0.001058274 0.0006545881

exp_avg f4 [64]
000000 3c 16 83 ba a5 9e ce ba 82 ba 05 3a d1 ca a4 ba
       -0.0010001133 -0.0015763832 0.0005101339 -0.0012572651
000010 2b 6a 82 38 47 5e e8 3a ab 8c cc 3a a7 6c 38 3a
       6.2186584e-05 0.0017728292 0.0015605887 0.00070352334
000020 fe 13 54 ba 67 9b e5 ba 64 5b 5e 3a 6a ca cd 39
       -0.0008090137 -0.0017517627 0.0008482246 0.00039251457
000030 5d 2c 94 ba 41 82 9c 39 06 d0 51 ba 73 7d bc 37
       -0.0011304725 0.00029851685 -0.0008003715 2.2469763e-05
000040 e5 ba 60 3a 21 5f a6 3a d1 ec e7 ba e4 91 9c 3a
       0.00085727713 0.0012693146 -0.0017694478 0.0011945334
000050 29 7c 22 b9 41 12 59 ba 09 cd 6a b9 be 13 b3 39
       -0.00015495777 -0.0008280613 -0.0002239236 0.0003415625
000060 3d 10 b3 39 3f 0e 43 3a 92 3c 06 ba 0e e9 10 3a
       0.0003415364 0.00074407825 -0.000512072 0.0005527892
000070 8b 86 29 ba 16 aa 56 ba e6 e6 69 39 02 15 83 3a
       -0.0006466887 -0.0008188797 0.00022306628 0.0010000768
000080 6d 92 a1 3a 41 25 76 3a d8 44 e3 b9 cc 97 87 b9
       0.0012326963 0.00093897065 -0.00043348107 -0.00025862304
000090 99 a1 e4 ba 53 56 87 ba a8 4f 68 3a 9a ab b0 ba
       -0.0017443179 -0.0010325409 0.00088619674 -0.0013478876
0000a0 e4 9d 62 3a ce cc ee 39 bb 41 51 ba 1e 63 ba 3a
       0.00086447434 0.0004554749 -0.0007982512 0.0014220213
0000b0 40 f7 3c 3a 51 57 cc 3a cc f6 40 ba c3 9c 81 ba
       0.0007208474 0.0015589987 -0.00073609944 -0.0009888638
0000c0 53 80 db ba 61 a1 47 3a 30 34 b4 3a 35 2f 75 ba
       -0.0016746618 0.0007615295 0.0013748463 -0.00093530427
0000d0 1e e4 94 3a ba 19 1c 3a 47 76 b2 3a f6 2b b2 ba
       0.0011359488 0.0005954761 0.0013615572 -0.0013593424
0000e0 1c 56 8c 39 4e 7c 3c b9 7e 44 7d 39 45 fc 10 b8
       0.00026767037 -0.00017975384 0.00024153476 -3.456722e-05
0000f0 d5 9d 3b 3a 83 68 e7 ba d9 9a c9 3a b2 7a 42 39
       0.00071570027 -0.0017655048 0.0015381231 0.0001854699

exp_avg_sq f4 [64]
000000 9f 15 47 3a 40 25 19 3b 5d 94 6b 39 4c d4 02 3a
       0.00075944694 0.002336815 0.00022466616 0.0004990741
000010 49 d0 8d 36 19 b4 33 3b 92 4d 04 3b ee 8d 07 3a
       4.226375e-06 0.002742058 0.0020187837 0.00051709905
000020 f6 48 e0 39 e2 6e 1a 3b ad 17 1f 3a 14 15 0f 39
       0.0004277897 0.0023564626 0.00060688966 0.00013645395
000030 c8 53 85 3a 58 32 9b 38 04 c0 11 3a 21 97 7d 35
       0.0010172063 7.400353e-05 0.00055599236 9.4469766e-07
000040 91 4e 28 3a fd 42 b8 3a 46 45 2f 3b 65 d2 94 3a
       0.0006420399 0.001405805 0.002674417 0.0011354206
000050 c1 8f a7 37 a5 37 cf 39 7a 2f 21 38 47 1f cf 38
       1.9974892e-05 0.00039523575 3.8429607e-05 9.876355e-05
000060 b9 95 ed 38 6f d1 07 3a 72 35 7b 39 08 9a 90 39
       0.00011328929 0.00051810493 0.00023957135 0.00027580583
000070 a4 92 92 39 6f 19 c3 39 01 52 aa 38 34 ad 3d 3a
       0.00027956546 0.00037212248 8.121506e-05 0.0007235587
000080 e7 07 a0 3a 59 8d e8 39 6f 23 fb 38 be bc 57 38
       0.0012209386 0.000443558 0.00011975213 5.1435774e-05
000090 c9 f7 26 3b 0e 94 d1 39 ea b9 29 3a de 66 cc 3a
       0.0025477281 0.00039973896 0.0006474542 0.0015594622
0000a0 f4 19 16 3a 9c 72 29 39 4a 6f cc 39 4b 93 e4 3a
       0.0005725913 0.00016159791 0.0003899283 0.0017438916
0000b0 99 e2 d9 39 a1 e7 e1 3a 17 a2 93 39 ba b5 a8 39
       0.00041558294 0.0017235168 0.0002815879 0.00032178854
0000c0 e6 c3 1e 3b 47 9e c1 39 85 3a bc 3a c9 2a 05 3a
       0.0024225651 0.00036929754 0.0014360702 0.0005079923
0000d0 fb d9 92 3a df d6 a4 39 61 ec da 3a ed db d7 3a
       0.0011203879 0.0003144061 0.0016702526 0.0016468741
0000e0 75 a6 80 38 15 f9 21 37 c3 b8 cb 37 b3 0e 36 36
       6.134521e-05 9.654342e-06 2.4285522e-05 2.712867e-06
0000f0 cf 9c e4 39 21 2a 38 3b 91 db 05 3b b0 ae 01 38
       0.0004360438 0.0028101283 0.0020425061 3.0918687e-05
