results/energy/checkpoints/A02_H064_L02_D01_Tanh_W4096_P010000_V0.00e+00_S5.00e-01_Adam_PT_False_device_cuda_dtype_float32_chkp.pt (torch, 168019 bytes, 23 tensors)

layers.0.fc.weight f4 [64, 2]
0	0xbc7ee498	-0.015557431
1	0x3eccb3ec	0.3998102
2	0xbf170497	-0.5899138
3	0xbf01d213	-0.5071117
4	0xbe8497ea	-0.2589715
5	0x3e424351	0.18970992
6	0xb78ef87a	-1.7043425e-05
7	0x3f07ef51	0.5309954
8	0xbd30aea2	-0.043135293
9	0x3e267022	0.16253713
10	0xbe6b19bc	-0.22959036
11	0xbde44a46	-0.11146979
12	0xbf1d3ad2	-0.6141788
13	0xbeeb9bf1	-0.4601741
14	0xbe933e41	-0.28758433
15	0x3ce78631	0.02826223
16	0x3e8acc9b	0.27109227
17	0x3ee82842	0.45343214
18	0xbefb0694	-0.49028456
19	0xbe61688d	-0.22012539
20	0x3e877c78	0.2646215
21	0x3f0a2967	0.53969425
22	0xbe0d4aae	-0.1379802
23	0x3f05b62e	0.5223111
24	0xbdaa1f27	-0.08306723
25	0x3d54f192	0.051988192
26	0x3f26b819	0.6512466
27	0xbf11dccf	-0.5697755
28	0xbeda9f5f	-0.42699715
29	0xbe22c1c7	-0.15894233
30	0xbe93f32f	-0.28896472
31	0x3f1927d3	0.5982639
32	0xbee460d0	-0.44605112
33	0xbe8d372a	-0.2758115
34	0xbef8c2e2	-0.48586184
35	0xbf333768	-0.7000642
36	0xbedc4ec7	-0.43028852
37	0x3f0b53e8	0.54424906
38	0x3ea93ec2	0.33055693
39	0x3e9a4c9e	0.3013658
40	0x3d6955b9	0.056966517
41	0xbea6f93a	-0.3261202
42	0x3de73796	0.11289899
43	0xbf3146dd	-0.69248754
44	0xbefac560	-0.4897871
45	0xbec51016	-0.38488835
46	0x3eecebe6	0.46273726
47	0x3e9c64cf	0.3054566
48	0xbe9c48de	-0.30524343
49	0xbbd1dbf2	-0.0064043934
50	0x3eea73f9	0.45791605
51	0x3f183d7e	0.5946883
52	0x3e99c5c8	0.30033708
53	0x3d7cae06	0.0616894
54	0x3efc66fc	0.4929732
55	0xbea95b7a	-0.33077604
56	0x3e155c11	0.14585902
57	0xbef15ccb	-0.47141108
58	0xbeff04ea	-0.49808437
59	0xbe9ba674	-0.3040043
60	0x3e9cb6fc	0.30608356
61	0x3e938d0e	0.28818554
62	0xbed50b50	-0.41610193
63	0x3e1e3270	0.15448928
64	0x3ed02d14	0.40659392
65	0xbd84bfa1	-0.06481863
66	0x3c34cc0a	0.011034975
67	0x3e1ee377	0.15516458
68	0x3ee68ad3	0.4502779
69	0x3ef3f60f	0.47648665
70	0xbf096447	-0.53668636
71	0xbdcca376	-0.09992115
72	0x3e90effb	0.2830809
73	0x3ef5ed88	0.48032784
74	0x3f1905de	0.5977458
75	0x3f12326e	0.571082
76	0x3e189e6e	0.14904186
77	0xbf16f006	-0.58959997
78	0x3d55f94e	0.05223971
79	0xbec3b34a	-0.38222724
80	0xbf2eb046	-0.6823772
81	0x3efac386	0.48977298
82	0x3f0a562f	0.54037756
83	0xbf32c71f	-0.69835085
84	0x3de718bc	0.112840146
85	0xbdc4a079	-0.0960092
86	0xbdd66adc	-0.104696006
87	0xbe974cd4	-0.29550803
88	0x3e8ea722	0.27861887
89	0xbf0141f2	-0.5049125
90	0x3e819519	0.25309065
91	0x3ec9f9c3	0.39448366
92	0x3f05d9dc	0.5228555
93	0x3e7ea121	0.24866153
94	0xbf322526	-0.69587934
95	0xbee7825d	-0.45216647
96	0x3eae846d	0.34085408
97	0x3e0a13b2	0.13484076
98	0xbf08e678	-0.5347667
99	0xbec2cfff	-0.38049313
100	0x3f2ae2e1	0.6675244
101	0x3ef54386	0.4790308
102	0xbea3f272	-0.3202091
103	0xbe3597a9	-0.17733635
104	0xbf21f832	-0.6326934
105	0x3d3d1056	0.046158157
106	0xbf095d37	-0.5365786
107	0xbec137ec	-0.37737978
108	0xbd7d4005	-0.061828632
109	0x3dfe1d56	0.12407939
110	0xbe9ce436	-0.3064286
111	0x3ebcbc08	0.36862206
112	0xbed376bb	-0.41301522
113	0x3f28fa83	0.6600725
114	0x3efd9a67	0.49531862
115	0xbf18fdbc	-0.5976217
116	0xbe22c0de	-0.15893885
117	0x3d64e74c	0.055884644
118	0x3e01e833	0.12686233
119	0x3e13ade9	0.1442181
120	0x3e81acc6	0.25327128
121	0x3d195cf9	0.03744218
122	0xbe98fcfa	-0.29880506
123	0x3e8c608a	0.27417403
124	0xbf285781	-0.6575852
125	0xbee835e9	-0.4535363
126	0xbe20e845	-0.15713604
127	0xbe815c86	-0.25265902

layers.0.fc.bias f4 [64]
0	0xbe76c184	-0.24097258
1	0xbf132a0c	-0.57486033
2	0xbe219bf6	-0.1578215
3	0x3e1c1120	0.15240908
4	0xbef31d8c	-0.4748348
5	0xbd40d791	-0.04708058
6	0x3f00bddb	0.50289696
7	0xbda72112	-0.081606045
8	0x3cce18b1	0.025158258
9	0xbd3ecb5e	-0.046580665
10	0x3e0eed98	0.13957822
11	0x3ee88185	0.45411316
12	0x3f2f379c	0.6844423
13	0x3ef3888c	0.47565114
14	0x3f2feba9	0.68718964
15	0xbd42dbb3	-0.047572803
16	0xbf268428	-0.65045404
17	0xbeae0f4f	-0.33996055
18	0x3ef93c78	0.48678946
19	0xbc56a0e3	-0.013099882
20	0xbebba269	-0.36647347
21	0xbf0af62a	-0.54281867
22	0xbf2e4b0e	-0.68083274
23	0xbf22bb57	-0.6356711
24	0xbe1da6dd	-0.15395685
25	0x3ed29a2d	0.41133252
26	0x3ecb8f9c	0.39758003
27	0xbf2d933b	-0.6780278
28	0x3eee1e43	0.46507463
29	0xbf0d7039	-0.55249363
30	0xbdecd392	-0.11563791
31	0xbe9bf121	-0.30457404
32	0xbe139fdd	-0.14416452
33	0xbe2429d5	-0.16031583
34	0xbf2ffe9d	-0.68747884
35	0xbf3483ee	-0.7051381
36	0xbde675bd	-0.112529255
37	0x3c592b07	0.013254887
38	0xbea61806	-0.32440203
39	0x3e8ce9ab	0.27522025
40	0xbf1fdbb9	-0.62444645
41	0xbd35b91f	-0.044366
42	0x3f225476	0.6341013
43	0xbe98eff7	-0.2987058
44	0x3f22c531	0.6358214
45	0x3e748989	0.2388059
46	0xbf236910	-0.6383219
47	0x3ee7e5da	0.4529255
48	0xbd969300	-0.07352257
49	0xbea744e0	-0.32669735
50	0x3f0ea90e	0.55726707
51	0xbf0fb80b	-0.561402
52	0x3d8ab058	0.06771916
53	0xbe195af5	-0.14976104
54	0x3efea539	0.4973543
55	0x3e4f0fec	0.20220917
56	0x3eb26f27	0.34850428
57	0x3e801069	0.2501252
58	0xbe3a343a	-0.18183985
59	0xbe13c872	-0.14431933
60	0xbf19e703	-0.6011812
61	0x3ec989a6	0.3936283
62	0x3f0dc1f1	0.55374056
63	0x3efc1d4b	0.492411

layers.1.fc.weight f4 [64, 128]
0	0xbd79c2e9	-0.060976896
1	0xbb87706c	-0.004133275
2	0xbd2ed194	-0.042680338
3	0xbcf792ea	-0.030221421
4	0xbd6b8af8	-0.057505578
5	0x3d2e107b	0.042496186
6	0xbd31c3d4	-0.043399647
7	0x3c6a777e	0.014310716
8	0x3ae9454d	0.0017797143
9	0x3d89a682	0.06721212
10	0xbd6611b0	-0.056169212
11	0xbd59aea6	-0.053145073
12	0xbd2d278d	-0.042274047
13	0x3d11902a	0.035537876
14	0xbca9c88b	-0.02072551
15	0x3dc7c894	0.09755054
16	0x3ccdb51f	0.02511078
17	0x3a6f65c2	0.00091322896
18	0x3bd22b60	0.006413862
19	0xbccbc98e	-0.024876382
20	0x3aea55e8	0.0017878385
21	0xbcd8b8f8	-0.026455387
22	0xbc023faf	-0.007949754
23	0x3a7e5a39	0.0009702775
24	0xbd5b01f0	-0.053468645
25	0xbd10475c	-0.035224304
26	0x3d9727cd	0.07380638
27	0xbda41057	-0.08010929
28	0xbc3dd908	-0.011587389
29	0x3da6a5a1	0.0813706
30	0x3cbf18e5	0.0233273
31	0x3c9ac331	0.018891903
32	0xbdb8f810	-0.09031689
33	0x3d1cdf83	0.038299095
34	0xbd91157a	-0.070841745
35	0xbcf07e25	-0.029357025
36	0xbcfa6258	-0.030564472
37	0xbc81fd64	-0.015867896
38	0xbc095be8	-0.008383729
39	0x3d8cc757	0.068739586
40	0x3d06d4be	0.03291773
41	0x3d86ab93	0.06575694
42	0x3d780815	0.060554583
43	0xbd86681f	-0.06562828
44	0x3d150f82	0.036391743
45	0xbd61fdc7	-0.05517366
46	0xbd47b7d8	-0.04875931
47	0x3d0eb702	0.0348425
48	0x3c8da396	0.017289918
49	0x3d8889ce	0.06666909
50	0xbcb76b5e	-0.022390064
51	0xbbd4d124	-0.006494658
52	0x3d7324f3	0.05936141
53	0xbda6608f	-0.08123886
54	0x3d95005b	0.072754584
55	0xbd7ce777	-0.06174418
56	0x3c18a3eb	0.009316425
57	0xbd252b3a	-0.040324427
58	0xbd260f93	-0.040542196
59	0x3b375199	0.002797222
60	0x3d808771	0.062758334
61	0xbc825cca	-0.015913386
62	0xbd2e5c5f	-0.04256856
63	0xbccc2629	-0.02492054
64	0xbdb31443	-0.08744099
65	0x3d047f2a	0.032347836
66	0xbd4699d8	-0.04848656
67	0xbd24696c	-0.0401396
68	0xbd6eb85a	-0.05828128
69	0x3d0615ed	0.032735754
70	0x3d227450	0.039661705
71	0x3d6e0e3a	0.058119036
72	0x3d821fd2	0.063537255
73	0xbd43d85c	-0.04781376
74	0xba45d602	-0.0007546843
75	0x3d0b3a07	0.033990886
76	0x3da53cbb	0.08068224
77	0x3cb6e653	0.022326624
78	0xbd2cab88	-0.042155772
79	0xbd133d84	-0.035947338
80	0xbdb42188	-0.08795458
81	0x3ba13671	0.00491982
82	0xbd4038a6	-0.046929024
83	0xbd56f595	-0.0524803
84	0x3d8bfa43	0.06834843
85	0xbd83d077	-0.06436246
86	0xbc76b6f4	-0.015058268
87	0x3cf3af6e	0.029746737
88	0xbba94c64	-0.005166577
89	0xbd44a542	-0.048009165
90	0xbd85b4db	-0.06528636
91	0x3d8cf22a	0.06882127
92	0x3c8edf24	0.017440386
93	0x3d8a92b5	0.067662634
94	0xbc953cc8	-0.01821746
95	0x3cbd33c3	0.023095971
96	0xbca37a26	-0.019955706
97	0xbc039d3a	-0.008033091
98	0xbd39f302	-0.045397766
99	0x3cdac195	0.026703635
100	0x3d615653	0.055013966
101	0x3ccd0e50	0.025031239
102	0xbcedd5b1	-0.02903256
103	0xbd5bd9fd	-0.053674687
104	0x3d8022e2	0.06256653
105	0xbd80a4e8	-0.06281453
106	0x3d34dbc2	0.04415489
107	0xbd22e656	-0.039770447
108	0xbd1a06eb	-0.037604254
109	0x3ce699a8	0.02814944
110	0xbd31650e	-0.043309264
111	0x3c659941	0.014013589
112	0x3cdcb7ce	0.026943114
113	0xbd9caaf2	-0.07649793
114	0x3cbbff17	0.022948785
115	0x3d03debe	0.032194845
116	0x3d085439	0.033283446
117	0xbcf978e0	-0.030453146
118	0xbd83025c	-0.063969344
119	0xbc0dde1b	-0.008658911
120	0x3d097683	0.033560287
121	0xbd014ea1	-0.031569127
122	0x3ccd1492	0.025034223
123	0x3d6edea2	0.058317788
124	0xbd4e06ce	-0.05029946
125	0x3bad4ca0	0.0052886754
126	0x3d00b4b6	0.03142234
127	0x3c05d251	0.008167819
128	0xba12cd40	-0.00056000426
129	0x3c1b26a4	0.009469662
130	0xbd81eff0	-0.063445926
131	0x3beffd8c	0.0073239263
132	0x3d53e7d2	0.051734753
133	0x3dc6bdf8	0.097042024
134	0x3d83361e	0.064068064
135	0x3ce6d7fd	0.028179163
136	0x3cf56170	0.029953688
137	0xbce200f3	-0.027588343
138	0xbd9eb43f	-0.07749223
139	0xbd988acc	-0.074483484
140	0x3dc896c2	0.0979438
141	0x3d2d07f5	0.042243917
142	0xbd4694f7	-0.048481908
143	0x3d2476cf	0.040152367
144	0x3d7d9a1f	0.06191456
145	0x3db8af18	0.090177715
146	0x3da20851	0.079117425
147	0x3d5ea949	0.05436066
148	0xbcca1b33	-0.024671173
149	0xbcf71619	-0.030161904
150	0x3d8c3912	0.06846823
151	0x3d170422	0.036869176
152	0xbd23e035	-0.040008742
153	0x3da15300	0.07877159
154	0x3d3e981a	0.046531774
155	0x3d2a6cff	0.041607853
156	0xbd57089b	-0.05249844
157	0x3cbc1bed	0.022962535
158	0xbd34d464	-0.044147864
159	0x3d9b623f	0.07587098
160	0xbcf12d5d	-0.029440576
161	0x3cb2d947	0.021832122
162	0x3ba50ac4	0.0050366838
163	0x3d0b68a8	0.034035355
164	0xbd1faf70	-0.03898567
165	0x3d08e964	0.033425704
166	0xbd7d1ef2	-0.06179709
167	0x3cda93ba	0.02668177
168	0xbd4cbba2	-0.049983628
169	0xbdbb5d57	-0.091486625
170	0xbd7e0900	-0.0620203
171	0x3d89172f	0.06693875
172	0x3d4e4db2	0.050367065
173	0x3da486b4	0.08033505
174	0x3d6c0e2f	0.057630714
175	0xbd89336a	-0.066992596
176	0xbd9a4583	-0.075327896
177	0xbbfdf8b9	-0.0077505973
178	0xbd6a5466	-0.057209395
179	0x3d61b437	0.055103507
180	0xbd53df30	-0.05172652
181	0xbd080f5f	-0.033217784
182	0xbd9cecef	-0.07662379
183	0xbd3918ce	-0.04518967
184	0x3d96d377	0.073645525
185	0x3d7abc08	0.061214477
186	0x3d7b1ebd	0.06130861
187	0x3d60197f	0.054711815
188	0x3d89589e	0.067063555
189	0xbc7c88cc	-0.015413474
190	0x3d527bf0	0.051387727
191	0x3db7f211	0.089817174
192	0x3ca95698	0.020671174
193	0x3db96938	0.09053272
194	0x3d2bbc98	0.041927904
195	0x3d616d61	0.055035952
196	0xbd27ca0a	-0.040964164
197	0x3d5a9c27	0.053371575
198	0x3c4233a9	0.011853137
199	0xbc48b627	-0.01225046
200	0xbd4e8048	-0.050415307
201	0xbd280038	-0.041015834
202	0xbd8944de	-0.067025885
203	0x3d8042a5	0.062627114
204	0x3d941b7c	0.07231805
205	0xbc4a3a8d	-0.012343061
206	0xbd4378e5	-0.047722716
207	0x3d5abc22	0.053402074
208	0x3d726726	0.0591804
209	0x3bfda0e0	0.007740125
210	0xbd25fbd6	-0.040523373
211	0x3d9ce9cc	0.07661781
212	0x3cfe43de	0.031038221
213	0xbd8b83a1	-0.068122156
214	0x3db2cc4b	0.08730372
215	0x3d86cf44	0.065825015
216	0xbcdfc0b0	-0.02731356
217	0x3d410042	0.047119386
218	0xbd4a772e	-0.049430065
219	0xbc8763e0	-0.016527116
220	0x3daa0ec8	0.083036005
221	0x3bde9ff8	0.006793972
222	0xbd8c7ad0	-0.06859362
223	0xbce4a83e	-0.027912255
224	0xbd0ea0c1	-0.034821276
225	0xbcf1fa33	-0.02953825
226	0x3c2f11ec	0.010685425
227	0x3db058eb	0.0861071
228	0x3be36439	0.0069394377
229	0xbd66d91c	-0.056359395
230	0x3b55c1b8	0.0032616686
231	0x3d51d9f9	0.051233266
232	0x3d3e50a7	0.046463635
233	0xbd807f5d	-0.062742926
234	0xbbdc096e	-0.0067149913
235	0xbd8a5874	-0.06755152
236	0xbcfb0a3b	-0.030644527
237	0x3cf859d3	0.030316269
238	0xbd85a1ae	-0.065249786
239	0x3d16b72b	0.036795776
240	0x3d82add3	0.063808106
241	0x3c1ec0ab	0.00968949
242	0xbd7840d2	-0.060608692
243	0xbd03b5e5	-0.03215589
244	0x3d15179a	0.03639946
245	0xbd82ccd3	-0.06386723
246	0x3d5892c7	0.052874353
247	0xbd9e9cdb	-0.077447616
248	0xbdafd529	-0.08585579
249	0xbda9f557	-0.08298748
250	0xbcbd0658	-0.023074314
251	0x3d45c697	0.048285093
252	0xbdba112f	-0.09085309
253	0x3da152da	0.07877131
254	0xbd05daf4	-0.032679513
255	0x3d0480b2	0.032349296

layers.1.fc.bias f4 [64]
0	0x3d9782b1	0.07397974
1	0x3b4d956c	0.003136958
2	0xbd28004e	-0.041015916
3	0x3b232bd3	0.0024897947
4	0x3cf25f09	0.029586332
5	0xbcb069aa	-0.02153476
6	0x3cdaab77	0.026693089
7	0x3d006be9	0.03135291
8	0xbd6125e9	-0.054967795
9	0x3db81850	0.08989012
10	0x3d4d5775	0.050132234
11	0xbc3420ec	-0.010994177
12	0x3d984153	0.074343346
13	0xbd151813	-0.036399912
14	0x3ce6f645	0.028193602
15	0x3d3ebce6	0.046566866
16	0xbd9b6f48	-0.075895846
17	0xbcfd9ed4	-0.030959524
18	0xbd40011d	-0.04687606
19	0xbc8feaf8	-0.017568097
20	0xbd27d92f	-0.040978607
21	0xbcc2092b	-0.023686012
22	0xbcc9d6e7	-0.024638606
23	0x3d76f53b	0.060292464
24	0x3c43e14c	0.01195557
25	0xbdbaa5b8	-0.091136396
26	0xbd0d7749	-0.034537587
27	0xbc84156b	-0.016123494
28	0x3d37d38b	0.044879477
29	0x3d80c381	0.062872894
30	0x3dbeb431	0.093117125
31	0xbd9046d2	-0.07044758
32	0x3d97469a	0.07386513
33	0x3d24f523	0.040272843
34	0xbd7e1a97	-0.062037077
35	0xbd853e08	-0.06505972
36	0xbd69d935	-0.05709191
37	0x3c5e4917	0.013567231
38	0xbcef35d6	-0.029200476
39	0xbd9af85e	-0.075669035
40	0xbd15571e	-0.036460035
41	0x3d27dc63	0.04098166
42	0x3bb8adff	0.0056359763
43	0xbda535ae	-0.08066879
44	0xbd8e4150	-0.06946051
45	0x3cb6e6cc	0.02232685
46	0x3d80edce	0.06295358
47	0xbd0805ce	-0.03320866
48	0xbd7a7afe	-0.06115245
49	0x3cde6a31	0.027150245
50	0xbd7b4ea8	-0.06135431
51	0xbd8afd2d	-0.06786571
52	0x3d8f8605	0.07007984
53	0xb9eba40a	-0.00044944911
54	0xbcdbbb25	-0.026822636
55	0x3cba0771	0.022708626
56	0x3d869698	0.06571692
57	0xbd94cca1	-0.07265592
58	0xbcca2c8f	-0.02467945
59	0xbc06151f	-0.008183747
60	0xbde6ba2f	-0.112659805
61	0x3db517b9	0.08842415
62	0xbdbdc862	-0.092667356
63	0xbd2df0e6	-0.042466067

layers.2.gsds.0.weight f4 [2, 64]
0	0x3d809dc2	0.0628009
1	0x3dd93dc5	0.10607485
2	0xbd66ca66	-0.056345366
3	0x3df4cd5b	0.11953231
4	0xbc356b0d	-0.011072886
5	0xbde84dd2	-0.11342968
6	0xbddc1210	-0.10745633
7	0xbd5bac99	-0.0536314
8	0xbc46ba08	-0.012129314
9	0x3dfb060b	0.12257012
10	0xbd6ae84a	-0.057350434
11	0xbc99de58	-0.01878278
12	0x3dc27fc1	0.094970234
13	0xbced5610	-0.028971702
14	0x3d884556	0.0665385
15	0xbb8945fd	-0.0041892515
16	0xbd84917e	-0.06473063
17	0xbdbe5254	-0.092930466
18	0x3dec686a	0.11543353
19	0xbda68b58	-0.081320465
20	0x3be1a04b	0.0068855635
21	0x3d3500cd	0.044190217
22	0x3c21c69e	0.009874014
23	0xbc9aae68	-0.018881992
24	0xbd17768e	-0.036978297
25	0xbd58350b	-0.05278496
26	0x3d72347d	0.059132088
27	0xbd273cf0	-0.0408296
28	0x3d5b14c9	0.05348662
29	0x3d3bc64c	0.045843408
30	0x3d38fae8	0.045161158
31	0xbd92de84	-0.07171348
32	0xbdb6700d	-0.08908091
33	0xbd8dc770	-0.06922805
34	0x3d04d253	0.032427143
35	0x3aa7be6a	0.0012797837
36	0x3de996fa	0.114057496
37	0x3da47458	0.08030003
38	0xbd5e2a61	-0.054239634
39	0x3db9bdd7	0.09069412
40	0xbd8d55c0	-0.06901121
41	0xbd29876d	-0.041388918
42	0x3dd44bad	0.103659965
43	0xbdce695e	-0.10078691
44	0xbd34b1a2	-0.044114716
45	0xbdcd66f1	-0.100294
46	0x3d4aaf47	0.049483564
47	0x3dd5aaa3	0.10432937
48	0x3deda98e	0.116046056
49	0xbd399df8	-0.045316666
50	0xbdc8399a	-0.097766116
51	0x3d6f89f6	0.05848118
52	0xbd8bce4c	-0.068264574
53	0xbd4e9831	-0.05043811
54	0xbdb681fa	-0.0891151
55	0x3db14337	0.08655398
56	0xbc852d25	-0.016256878
57	0x3c64b9a4	0.013960276
58	0xbca651e0	-0.020302713
59	0x3c1ffcbc	0.009764846
60	0xbd836e98	-0.064175785
61	0x3e0426a0	0.1290536
62	0xbdd519d3	-0.10405316
63	0x3a38587f	0.000703223
64	0xbd87d270	-0.06631935
65	0xbdc3b14f	-0.09555303
66	0x3d59b526	0.053151272
67	0x3dd8f5f1	0.105937846
68	0x3d8d64c0	0.06903982
69	0x3cc79a26	0.024365496
70	0x3d96d67d	0.07365129
71	0x3d5c316c	0.05375807
72	0xbd630d7f	-0.055432793
73	0xbd8881ba	-0.066653684
74	0x3d3d27de	0.0461806
75	0x3da2601d	0.079284884
76	0x3d98509e	0.074372515
77	0x3c3e29ce	0.011606647
78	0x3de8b2f0	0.113622546
79	0xbdcfda16	-0.101490185
80	0x3d0b43a4	0.034000054
81	0x3de0e81e	0.10981773
82	0xbb348d9f	-0.0027550233
83	0x3db989ef	0.09059512
84	0x3df6ba16	0.12047212
85	0xbdd8e02b	-0.10589632
86	0x3d83df2d	0.06439052
87	0x3d995962	0.074877515
88	0x3d5d632f	0.054049667
89	0x3d958814	0.073013455
90	0x3dc2fc2f	0.095207565
91	0x3d59de1c	0.053190336
92	0x3d9f10eb	0.07766899
93	0xbe04c017	-0.12963901
94	0xbe0e1b7b	-0.1387767
95	0x3d468004	0.04846193
96	0x3e15ed9e	0.14641425
97	0xbd6590ee	-0.05604642
98	0x3de09b23	0.1096709
99	0xbd204ede	-0.039137714
100	0x3d89b969	0.06724817
101	0xbc94d5c4	-0.018168338
102	0x3d857fda	0.065185264
103	0xbd5135eb	-0.05107681
104	0xbdf9a559	-0.12189741
105	0x3d9c57f2	0.07633962
106	0xbd831249	-0.06399972
107	0x3daedbbb	0.08538004
108	0x3d0bccec	0.034130976
109	0xbd1ea058	-0.038727134
110	0x3e0b70a8	0.13617194
111	0x3de39c43	0.11113789
112	0xbd46fe84	-0.04858257
113	0x3d429bd5	0.047511894
114	0x3d3a39d6	0.045465313
115	0xbdc0d84e	-0.09416257
116	0xb8a4cbd3	-7.8580946e-05
117	0xbdfad7c7	-0.122481875
118	0xba6959dc	-0.0008901635
119	0xbdfea24c	-0.124332994
120	0x3dc78bba	0.097434476
121	0x3d9e1578	0.077189386
122	0x3de78ffa	0.11306758
123	0x3d80917d	0.0627775
124	0xbd3f48fd	-0.046700466
125	0x3d5de573	0.054173898
126	0x3d2fb43a	0.042896487
127	0x3d6abf98	0.057311624

layers.2.gsds.0.bias f4 [2]
0	0xbbfe8329	-0.0077671004
1	0x3df163ef	0.11786639

log_envelope.log_envs.0.weight f4 [2, 1]
0	0x3f2db1e8	0.6784959
1	0x3f2be721	0.6714955

exp_avg f4 [64, 2]
0	0xb5504530	-7.758672e-07
1	0xb50216f3	-4.846217e-07
2	0x36a4756a	4.9012497e-06
3	0x36425711	2.8958932e-06
4	0x361e2842	2.3567268e-06
5	0xb5b40d57	-1.3414927e-06
6	0xb52ffd04	-6.5560766e-07
7	0xb5eed730	-1.779501e-06
8	0x35a273a0	1.2103592e-06
9	0xb595f97b	-1.1173973e-06
10	0xb4a3bce7	-3.049856e-07
11	0xb5cb0af8	-1.5127871e-06
12	0x35eebe5f	1.7787787e-06
13	0x369ecd28	4.7326503e-06
14	0x34c51f3a	3.671683e-07
15	0xb5335635	-6.6808144e-07
16	0x345e563a	2.070673e-07
17	0x346d6d03	2.2112003e-07
18	0x35b53ddf	1.3503558e-06
19	0xb449f680	-1.880926e-07
20	0xb5b2b7ea	-1.331556e-06
21	0x34e40b5d	4.2476577e-07
22	0x358b73bf	1.0389994e-06
23	0x3347338d	4.6380183e-08
24	0x368e9247	4.2489587e-06
25	0x35fadeba	1.8691273e-06
26	0x35ebd6d0	1.7571383e-06
27	0xb50549c6	-4.9653715e-07
28	0x363e210a	2.8331438e-06
29	0xb5a33793	-1.2160621e-06
30	0x355f248a	8.3127145e-07
31	0x33a41e6a	7.6423774e-08
32	0xb5557eed	-7.9533385e-07
33	0xb68ddb4e	-4.227658e-06
34	0xb6e8d8d7	-6.9393823e-06
35	0xb65a0a7a	-3.249063e-06
36	0x367b4e97	3.744766e-06
37	0x352e2da2	6.4886456e-07
38	0xb596d756	-1.1238542e-06
39	0x35b01b31	1.3120936e-06
40	0xb4da0548	-4.0609507e-07
41	0xb493adab	-2.7507244e-07
42	0xb5fc9e77	-1.8821582e-06
43	0xb6119c2b	-2.1697585e-06
44	0xb43fe267	-1.7870626e-07
45	0xb58ad460	-1.034361e-06
46	0xb616f7f0	-2.249606e-06
47	0x35073af5	5.037721e-07
48	0xb506bfd3	-5.019803e-07
49	0xb60b219f	-2.0732184e-06
50	0x3416a91f	1.4031365e-07
51	0xb5a0ceef	-1.1981155e-06
52	0xb5d396f5	-1.5764659e-06
53	0x3605e744	1.9953159e-06
54	0x34a3bd65	3.049892e-07
55	0x32dd39da	2.5754094e-08
56	0x340024a7	1.1934263e-07
57	0x35727010	9.03151e-07
58	0xb42fd9f4	-1.6377436e-07
59	0xb5924fc5	-1.0901064e-06
60	0x35d09d28	1.5542946e-06
61	0x35c42af5	1.461564e-06
62	0x3574296b	9.0957354e-07
63	0xb632e397	-2.6656542e-06
64	0xb6cf9495	-6.186378e-06
65	0xb455930d	-1.9890668e-07
66	0xb4439a00	-1.8216815e-07
67	0xb5951643	-1.1107844e-06
68	0x34941aed	2.758674e-07
69	0x357f3bad	9.508174e-07
70	0x338d0422	6.566576e-08
71	0xb63d4e39	-2.8208726e-06
72	0xb541d7e2	-7.2212254e-07
73	0xb602509b	-1.9418428e-06
74	0x344b348b	1.8924963e-07
75	0xb4de59c0	-4.1416024e-07
76	0x35b4e3df	1.3477364e-06
77	0x35a33408	1.215959e-06
78	0xb58d0165	-1.0505725e-06
79	0xb48d1edd	-2.6285753e-07
80	0x37369bef	1.08843515e-05
81	0x3622b9c7	2.4248018e-06
82	0xb67aa2a2	-3.7347568e-06
83	0xb54cf99d	-7.635916e-07
84	0xb68f148d	-4.2641245e-06
85	0x35b1892b	1.3227449e-06
86	0x358a66ad	1.0311684e-06
87	0xb40a945a	-1.2906222e-07
88	0x364e112f	3.0706394e-06
89	0x34f5ed4a	4.5807457e-07
90	0xb4ba6377	-3.471757e-07
91	0x345dca83	2.0655902e-07
92	0xb5e876cd	-1.7319923e-06
93	0xb642451c	-2.894848e-06
94	0xb6a1fa89	-4.82734e-06
95	0xb71709bc	-9.002568e-06
96	0x35c1df63	1.4444635e-06
97	0x35b721be	1.3644383e-06
98	0xb66ad737	-3.4993989e-06
99	0xb65f0a33	-3.3235526e-06
100	0xb66f71bf	-3.5679984e-06
101	0xb62cbaf3	-2.5738816e-06
102	0xb5a5e55b	-1.2360209e-06
103	0x359debe3	1.1766064e-06
104	0xb6106045	-2.1513708e-06
105	0xb624a0d2	-2.4531514e-06
106	0x3519f1ad	5.7348626e-07
107	0x355b3185	8.165592e-07
108	0x354b13ef	7.56524e-07
109	0xb4e452fd	-4.252869e-07
110	0x34dd7613	4.1250368e-07
111	0xb48a7855	-2.5792056e-07
112	0x3622fb10	2.4286019e-06
113	0x35445fb3	7.315495e-07
114	0xb5bbbe87	-1.3988036e-06
115	0x34d53cc7	3.9718563e-07
116	0x35ef3c3f	1.7824422e-06
117	0xb5ad2983	-1.2901586e-06
118	0x354b5cdd	7.5758527e-07
119	0x3387405d	6.298135e-08
120	0xb665e490	-3.42567e-06
121	0xb4829147	-2.432009e-07
122	0x36e8dd1f	6.9398807e-06
123	0x360d3d0b	2.104617e-06
124	0x3614a03b	2.2146985e-06
125	0x36b46b8c	5.376938e-06
126	0x3592cfa8	1.0938284e-06
127	0x330864e7	3.1756738e-08

exp_avg_sq f4 [64, 2]
0	0x29878d35	6.0197e-14
1	0x28d38a9d	2.348582e-14
2	0x2c290aa2	2.4022247e-12
3	0x2b6c0cec	8.3861976e-13
4	0x2b1c55f2	5.5541606e-13
5	0x2a4a9e06	1.799603e-13
6	0x2941930a	4.2982145e-14
7	0x2ab243dc	3.1666239e-13
8	0x2a24f0df	1.4649695e-13
9	0x2a0c93c8	1.248577e-13
10	0x28279029	9.301622e-15
11	0x2a80d51f	2.288525e-13
12	0x2ab21ed1	3.1640535e-13
13	0x2c1d9c9d	2.239798e-12
14	0x2872db52	1.3481256e-14
15	0x294902ac	4.4633283e-14
16	0x279a7aee	4.2876867e-15
17	0x27b028d2	4.889407e-15
18	0x2a4d4dad	1.8234607e-13
19	0x277eee6b	3.5378828e-15
20	0x2a47a06f	1.7730412e-13
21	0x28a28365	1.8042596e-14
22	0x29f31611	1.0795196e-13
23	0x257801e6	2.1511214e-16
24	0x2bfe1520	1.8053649e-12
25	0x2ac4ac9d	3.4936369e-13
26	0x2aadd012	3.087535e-13
27	0x28de125c	2.4654913e-14
28	0x2b61ee7f	8.026704e-13
29	0x2a267fb5	1.4788069e-13
30	0x299b9a24	6.910122e-14
31	0x262857f8	5.840593e-16
32	0x298e705e	6.3255594e-14
33	0x2bfb8a98	1.787309e-12
34	0x2ca96e31	4.8155026e-12
35	0x2b949179	1.0556409e-12
36	0x2bc55c2a	1.4023273e-12
37	0x293d9ce7	4.210252e-14
38	0x2a0e34e3	1.2630482e-13
39	0x2a41d570	1.7215895e-13
40	0x28948a66	1.6491322e-14
41	0x28084e40	7.566484e-15
42	0x2ac76d16	3.5425195e-13
43	0x2b0483a7	4.7078525e-13
44	0x27661f64	3.1935929e-15
45	0x29f0ebb3	1.0699028e-13
46	0x2b0e7263	5.060728e-13
47	0x28e49727	2.5378637e-14
48	0x28e2f79d	2.5198425e-14
49	0x2af1f818	4.298235e-13
50	0x270dddcc	1.9687917e-15
51	0x2a219eeb	1.4354808e-13
52	0x2a8be827	2.4852448e-13
53	0x2ae0205f	3.9812855e-13
54	0x2827912b	9.3018405e-15
55	0x2498f0c0	6.632734e-17
56	0x26cd4226	1.4242662e-15
57	0x29b7acda	8.1568175e-14
58	0x274145ef	2.6822042e-15
59	0x2a05cb55	1.1883318e-13
60	0x2a87ffce	2.4158317e-13
61	0x2a7082e4	2.1361694e-13
62	0x29ba4bfc	8.2732405e-14
63	0x2b48020e	7.1057125e-13
64	0x2c86a7b3	3.8271274e-12
65	0x278e8b3a	3.9563867e-15
66	0x276f1ff5	3.3185237e-15
67	0x2a0aeb13	1.233842e-13
68	0x2809183b	7.610282e-15
69	0x29cb9328	9.0405385e-14
70	0x25f891c4	4.3119917e-16
71	0x2b5ffa8d	7.9573224e-13
72	0x296ad85b	5.2146096e-14
73	0x2ad44647	3.770753e-13
74	0x278109e5	3.581542e-15
75	0x289a7fd4	1.7152871e-14
76	0x2a4c81f9	1.8163933e-13
77	0x2a26787b	1.4785562e-13
78	0x29f8881d	1.1037024e-13
79	0x27f8f00a	6.909408e-15
80	0x2d5069bd	1.184691e-11
81	0x2b257f70	5.879663e-13
82	0x2bc44e70	1.3948408e-12
83	0x29834bd1	5.830721e-14
84	0x2bffe64b	1.8182759e-12
85	0x2a44fe59	1.7496542e-13
86	0x29ef6f8c	1.06330824e-13
87	0x26f00db0	1.6657055e-15
88	0x2b84b2ed	9.428826e-13
89	0x28bd0009	2.098323e-14
90	0x2859211a	1.20530976e-14
91	0x2799b906	4.2666634e-15
92	0x2aa8dfa2	2.999797e-13
93	0x2b6be150	8.3801455e-13
94	0x2c23fb56	2.3303213e-12
95	0x2d0e93fa	8.104623e-12
96	0x2a6aea89	2.0864746e-13
97	0x2a519b9c	1.8616917e-13
98	0x2bac581d	1.2245791e-12
99	0x2b9b756b	1.1046002e-12
100	0x2bb32ade	1.2730613e-12
101	0x2b3a7933	6.624867e-13
102	0x2a2c0256	1.5277479e-13
103	0x2a1bdeaf	1.3844024e-13
104	0x2b02471d	4.628397e-13
105	0x2b2963e9	6.0179514e-13
106	0x29141e08	3.288865e-14
107	0x2996249c	6.667689e-14
108	0x2980e07e	5.723285e-14
109	0x28a2e98b	1.8086896e-14
110	0x28994410	1.701593e-14
111	0x27efaca7	6.6523016e-15
112	0x2b260458	5.8981075e-13
113	0x2971044a	5.351647e-14
114	0x2a5c4ca5	1.9566517e-13
115	0x288e1827	1.5775641e-14
116	0x2ab2dad6	3.1771e-13
117	0x2a3b6837	1.6645093e-13
118	0x29813d20	5.739354e-14
119	0x25e4a96d	3.9666503e-16
120	0x2ba52892	1.1735216e-12
121	0x27d5192e	5.9146676e-15
122	0x2ca9746c	4.8161943e-12
123	0x2af95a90	4.4294126e-13
124	0x2b0a0f73	4.904889e-13
125	0x2c4b7244	2.8911465e-12
126	0x2a06b5a0	1.1964605e-13
127	0x24e88ac2	1.00849026e-16

exp_avg f4 [64]
0	0x34ddb6c3	4.1297434e-07
1	0xb53861b2	-6.8687507e-07
2	0x3507e22a	5.062053e-07
3	0x33aba84d	7.993422e-08
4	0x34843b53	2.463008e-07
5	0x32decc27	2.593704e-08
6	0x35c8a8ab	1.495025e-06
7	0xb444d843	-1.8332598e-07
8	0x34832d4f	2.4433618e-07
9	0xb56805fd	-8.643545e-07
10	0xb4cbc3bd	-3.7954115e-07
11	0xb4814c34	-2.4083567e-07
12	0x34e0ddf8	4.1884755e-07
13	0x368d1e7f	4.2056777e-06
14	0xb3a8f770	-7.868118e-08
15	0x3424e942	1.5358549e-07
16	0x35db096f	1.6319517e-06
17	0x34e0cdba	4.1872937e-07
18	0x352c61b0	6.4217147e-07
19	0x34bbe2b3	3.499641e-07
20	0x346dd00d	2.2148033e-07
21	0x3598973e	1.13689e-06
22	0x345848fd	2.014312e-07
23	0x3565d300	8.5616193e-07
24	0x35ab67ad	1.2770666e-06
25	0x35b15a9d	1.32139e-06
26	0xb4cae7a8	-3.7793984e-07
27	0xb6081f8e	-2.0283946e-06
28	0x350e27e7	5.295719e-07
29	0xb54a22bb	-7.5301404e-07
30	0x34a30677	3.036582e-07
31	0x35a20950	1.2072651e-06
32	0x362b003e	2.5481127e-06
33	0xb547c4c7	-7.4419626e-07
34	0x35105757	5.3771276e-07
35	0x353cf813	7.0396453e-07
36	0x348d7c48	2.6353723e-07
37	0x35676dca	8.621397e-07
38	0xb5a37da0	-1.2181008e-06
39	0xb3755d00	-5.712809e-08
40	0xb6c02f0b	-5.7275224e-06
41	0x35fbec6a	1.8769763e-06
42	0x34ceab00	3.849491e-07
43	0xb28aa2cd	-1.6139348e-08
44	0x349d65a3	2.931748e-07
45	0xb450bcb3	-1.9440158e-07
46	0xb4e7588d	-4.3091532e-07
47	0xb5a3fcc0	-1.2218006e-06
48	0xb585ac0c	-9.959344e-07
49	0xb42095a7	-1.4955604e-07
50	0x33a5c04d	7.7183905e-08
51	0xb54e873a	-7.693776e-07
52	0x36464a41	2.954752e-06
53	0xb57c6193	-9.4019305e-07
54	0xb50729f0	-5.0352446e-07
55	0xb467ea77	-2.1598849e-07
56	0xb571131f	-8.980732e-07
57	0x3686d08e	4.01779e-06
58	0xb49bbf17	-2.9010036e-07
59	0xb4a3fe29	-3.0546042e-07
60	0xb4de6843	-4.1426583e-07
61	0xb5404b83	-7.163546e-07
62	0x3621ff50	2.413948e-06
63	0xb2ce3b93	-2.4008648e-08

exp_avg_sq f4 [64]
0	0x28999da6	1.7054781e-14
1	0x29547a88	4.7179735e-14
2	0x28e6cdcc	2.562438e-14
3	0x26382a09	6.389479e-16
4	0x27da90bf	6.066409e-15
5	0x249b1ef8	6.7273e-17
6	0x2a7ba65f	2.2351e-13
7	0x27722c96	3.3608417e-15
8	0x27d717b1	5.9700174e-15
9	0x29a83be3	7.4710874e-14
10	0x2881c003	1.4405149e-14
11	0x27d0f93e	5.8001826e-15
12	0x289e0428	1.7543326e-14
13	0x2bf8eec0	1.7687726e-12
14	0x26326f84	6.190729e-16
15	0x2729f91b	2.3588502e-15
16	0x2a95edb7	2.6632665e-13
17	0x289ded55	1.7533428e-14
18	0x2939b8aa	4.1238422e-14
19	0x285ca191	1.2247487e-14
20	0x27b0bbe8	4.905354e-15
21	0x2a118651	1.2925187e-13
22	0x27922f67	4.0574534e-15
23	0x29a50f57	7.330133e-14
24	0x2a379f78	1.6308992e-13
25	0x2a449715	1.7460714e-13
26	0x2880a853	1.4283854e-14
27	0x2ae79e88	4.1143846e-13
28	0x28fc9a89	2.804464e-14
29	0x297f5e21	5.6703018e-14
30	0x28261b92	9.2208295e-15
31	0x2a241943	1.457489e-13
32	0x2b36c21e	6.492878e-13
33	0x29796c07	5.5382805e-14
34	0x290236ff	2.89135e-14
35	0x295f2ee2	4.955661e-14
36	0x27fa3a0c	6.9451874e-15
37	0x29a75f74	7.432848e-14
38	0x2a270ec0	1.4837697e-13
39	0x25bc2284	3.263619e-16
40	0x2c66d75d	3.2804516e-12
41	0x2ac6545c	3.5230401e-13
42	0x28857952	1.481858e-14
43	0x23f03fc2	2.6047855e-17
44	0x281ad61e	8.5951466e-15
45	0x278828f2	3.7791976e-15
46	0x28a740be	1.8568802e-14
47	0x2a2812f0	1.4927968e-13
48	0x29df5a4d	9.918854e-14
49	0x27212bda	2.236701e-15
50	0x262bb586	5.9573553e-16
51	0x29854b20	5.9194186e-14
52	0x2b75be51	8.73056e-13
53	0x29c70d00	8.8396304e-14
54	0x28e45da0	2.5353688e-14
55	0x27a813fa	4.6651026e-15
56	0x29b59d9b	8.065355e-14
57	0x2be32ffb	1.6142637e-12
58	0x28179b20	8.415821e-15
59	0x282815d4	9.330607e-15
60	0x289a93ff	1.7161618e-14
61	0x29671bc5	5.131639e-14
62	0x2b240503	5.827146e-13
63	0x2484e98d	5.7641525e-17

exp_avg f4 [64, 128]
0	0xb31c3618	-3.637078e-08
1	0xb55c8dd5	-8.216278e-07
2	0x3426ea63	1.5545224e-07
3	0xb361ea5d	-5.2600047e-08
4	0xb3be04d0	-8.84844e-08
5	0xb3741483	-5.6829332e-08
6	0x350b5d73	5.191752e-07
7	0x30a9109a	1.2301087e-09
8	0x3328440b	3.9177433e-08
9	0xb4695df3	-2.1733995e-07
10	0x331f962f	3.7156664e-08
11	0x33a13a4a	7.5077494e-08
12	0x34640ea0	2.1239475e-07
13	0xb5c1e93a	-1.4447498e-06
14	0xb4f8c5e0	-4.6337573e-07
15	0xb2f5dee7	-2.8623118e-08
16	0xb3269d27	-3.8792816e-08
17	0xb52da2f7	-6.468467e-07
18	0xb4e488c7	-4.2567828e-07
19	0x34077c1b	1.2618004e-07
20	0xb41829ad	-1.4171265e-07
21	0x32817800	1.5072146e-08
22	0xb48b91bc	-2.5996803e-07
23	0x34e4530a	4.2528728e-07
24	0x319f3bb3	4.634296e-09
25	0x350f4d9b	5.338458e-07
26	0xb39b06d8	-7.218995e-08
27	0x353f30ed	7.122424e-07
28	0xb31f009d	-3.702063e-08
29	0xb459e9f7	-2.0294816e-07
30	0x3401c8c2	1.2087096e-07
31	0x34b271e5	3.3237953e-07
32	0x34b8a595	3.4393148e-07
33	0xb2b6fbc8	-2.1302085e-08
34	0x342f1f45	1.6309521e-07
35	0x34e00adf	4.173116e-07
36	0xb2a628f8	-1.9343574e-08
37	0xb38a1347	-6.429632e-08
38	0x32bb2400	2.1786036e-08
39	0x32c3c428	2.279019e-08
40	0x36037b1b	1.9592178e-06
41	0x34b7babf	3.4222282e-07
42	0x33b85d43	8.585132e-08
43	0xb3d4b393	-9.904684e-08
44	0xb4a8bd62	-3.1430233e-07
45	0x33dc4e9b	1.02588466e-07
46	0x3525de78	6.1791025e-07
47	0x356c505a	8.803378e-07
48	0x34504dba	1.9399786e-07
49	0xb4df4b67	-4.159185e-07
50	0x35878350	1.0096501e-06
51	0x3301d31a	3.022715e-08
52	0xb53e502f	-7.08972e-07
53	0xb4882c7d	-2.5364344e-07
54	0x34486e87	1.8666661e-07
55	0xb309b9b3	-3.206669e-08
56	0xb49dad73	-2.936973e-07
57	0xb4d37d78	-3.9393103e-07
58	0x33354fbf	4.2214875e-08
59	0xb24c45e0	-1.1890251e-08
60	0x31d66733	6.239952e-09
61	0xb3cd214a	-9.5521116e-08
62	0x35134f13	5.4876836e-07
63	0x3347e78d	4.6543892e-08
64	0xb31b6b9f	-3.618663e-08
65	0xb28c5fb3	-1.6341664e-08
66	0x33674105	5.3843014e-08
67	0xb3618b37	-5.251351e-08
68	0xb3fce5ea	-1.17764856e-07
69	0xb1d9cc5a	-6.3387633e-09
70	0x352d693d	6.4600664e-07
71	0x32524b4d	1.224073e-08
72	0xb44ef067	-1.9272703e-07
73	0x340d37e1	1.3151977e-07
74	0xb47938d2	-2.3210603e-07
75	0x33d27c50	9.801499e-08
76	0x34368d09	1.7001379e-07
77	0xb5ba2aa3	-1.3870489e-06
78	0xb439d565	-1.73071e-07
79	0x3300bfaf	2.9976658e-08
80	0x33ee5743	1.10986115e-07
81	0x3431c62d	1.6556505e-07
82	0xb51939a5	-5.7080825e-07
83	0xb40f56a7	-1.3349437e-07
84	0xb414db5d	-1.3863378e-07
85	0xb347b7c0	-4.6500418e-08
86	0x339ddb30	7.350752e-08
87	0xb40ff202	-1.3405955e-07
88	0x33519e8d	4.8805806e-08
89	0xb4179908	-1.4118643e-07
90	0xb3b7aefa	-8.5534296e-08
91	0x35614fe5	8.3935294e-07
92	0x3295bc1a	1.7431422e-08
93	0x33cbe780	9.495034e-08
94	0xb3f5dd68	-1.1448975e-07
95	0x34a62c92	3.095234e-07
96	0x34074296	1.2597079e-07
97	0xb28250bb	-1.5170704e-08
98	0xb4b9cf2e	-3.4609678e-07
99	0x34b9765c	3.4545053e-07
100	0xb471b2b3	-2.2509884e-07
101	0xb42f967d	-1.6352892e-07
102	0xb323bdcd	-3.8124018e-08
103	0x330dfb68	3.3057773e-08
104	0x35d3dc0d	1.5784768e-06
105	0x33d3b2ed	9.8579996e-08
106	0x3414ec55	1.3869551e-07
107	0xb38b4ebd	-6.487014e-08
108	0xb43d03a3	-1.760332e-07
109	0xb3f0e990	-1.1218356e-07
110	0xb3e89533	-1.0830481e-07
111	0x35353bf8	6.751502e-07
112	0xb3017090	-3.0137528e-08
113	0x336ddf5a	5.5384e-08
114	0x33d184db	9.756487e-08
115	0x33915bd3	6.7687914e-08
116	0xb350a8ad	-4.8582184e-08
117	0x33efe315	1.1170611e-07
118	0x342949da	1.5766219e-07
119	0xb40c6f03	-1.3078902e-07
120	0xb4ba2eca	-3.4679243e-07
121	0xb50b9c0a	-5.20086e-07
122	0xb30cc07a	-3.2771347e-08
123	0x3244be1b	1.14519265e-08
124	0x33f79f1d	1.1530776e-07
125	0xb46c1fcf	-2.1990785e-07
126	0x35401149	7.1550727e-07
127	0x32994e73	1.7847219e-08
128	0x341871ff	1.4197575e-07
129	0xb5df5070	-1.6638205e-06
130	0x34f373f2	4.5346638e-07
131	0x33bdf4cd	8.845527e-08
132	0xb2805da7	-1.494375e-08
133	0xb424931b	-1.5327207e-07
134	0x342a3b20	1.5853993e-07
135	0x336555cd	5.3396253e-08
136	0x34d0acc3	3.886872e-07
137	0xb550ad3d	-7.7738133e-07
138	0x34c3a64f	3.6442586e-07
139	0x34ab024b	3.18529e-07
140	0x349afca8	2.8868567e-07
141	0xb650b5d5	-3.1100255e-06
142	0xb57f3a7a	-9.508e-07
143	0x34b373fc	3.3425738e-07
144	0xb3132227	-3.4257166e-08
145	0xb5c93535	-1.4991152e-06
146	0xb4ea00e3	-4.3586542e-07
147	0x3508af6e	5.091923e-07
148	0xb4ba6ae9	-3.4722987e-07
149	0xb42881dd	-1.5693463e-07
150	0xb4fcf735	-4.7118525e-07
151	0x3582aeea	9.736661e-07
152	0x3343ddf1	4.560383e-08
153	0x35a38dc7	1.2185709e-06
154	0xb45854ed	-2.0147463e-07
155	0x35a35a3f	1.2170711e-06
156	0xb4a0e4d0	-2.9968805e-07
157	0xb4f4840b	-4.5544616e-07
158	0x3501752a	4.822674e-07
159	0x3552377f	7.8311854e-07
160	0x35209a2a	5.9828983e-07
161	0x33861263	6.243206e-08
162	0x3526a799	6.2083706e-07
163	0x356a770b	8.7345023e-07
164	0x34bfcfd3	3.5727734e-07
165	0x35525725	7.835791e-07
166	0xb44ce752	-1.9083134e-07
167	0xb42e53f4	-1.6235555e-07
168	0x36817ba0	3.8588914e-06
169	0xb43b23ad	-1.7428711e-07
170	0x31f63533	7.1655903e-09
171	0xb48079fb	-2.393061e-07
172	0xb55266c3	-7.8380634e-07
173	0x34c13b36	3.5992133e-07
174	0x35ab7f9b	1.2777631e-06
175	0x3516e30b	5.6209745e-07
176	0x3505a5b8	4.9787513e-07
177	0xb597dd7b	-1.1314836e-06
178	0x360b5282	2.076064e-06
179	0x34053d1d	1.2408823e-07
180	0xb5c1d3e3	-1.4441288e-06
181	0xb5875383	-1.0082589e-06
182	0x34a469b9	3.0624304e-07
183	0x345af0ed	2.039048e-07
184	0xb36fb3a7	-5.5809917e-08
185	0xb5ac90e3	-1.2857166e-06
186	0x342b7fab	1.5972061e-07
187	0x33a05765	7.4664776e-08
188	0x3410c55a	1.3482841e-07
189	0xb35053e7	-4.8505083e-08
190	0x345f2b10	2.078416e-07
191	0xb3eecc2d	-1.1119878e-07
192	0x3413bd3b	1.3759283e-07
193	0xb4afd8fe	-3.2754173e-07
194	0x339ffd4f	7.450091e-08
195	0x33be3387	8.856937e-08
196	0xb3b149f3	-8.255656e-08
197	0xb454bae3	-1.9812028e-07
198	0x350510ca	4.957079e-07
199	0xb411d5d4	-1.3581968e-07
200	0xb2cf5980	-2.4138672e-08
201	0xb479496f	-2.3216647e-07
202	0xb40df830	-1.3221938e-07
203	0x348df76d	2.6443323e-07
204	0x34450ecb	1.8352436e-07
205	0xb623957f	-2.437591e-06
206	0xb52006b0	-5.9614376e-07
207	0x34899b21	2.563111e-07
208	0xb15ea000	-3.2396201e-09
209	0x32b31880	2.0849484e-08
210	0xb585faf8	-9.982314e-07
211	0x33eb31e7	1.09521174e-07
212	0xb4a24e11	-3.0231652e-07
213	0xb4555b47	-1.9870377e-07
214	0xb3bca4c7	-8.784405e-08
215	0x343b1d3e	1.742637e-07
216	0xb3c8196d	-9.317851e-08
217	0x32a25dcd	1.8901938e-08
218	0xb2712c33	-1.4038096e-08
219	0x35d7f330	1.6089525e-06
220	0xb432cbd2	-1.6651691e-07
221	0xb3e98dc7	-1.0875697e-07
222	0x340fb075	1.3382108e-07
223	0x34d5715d	3.9756824e-07
224	0x35048e56	4.938096e-07
225	0x33a93874	7.8799445e-08
226	0xb403f296	-1.2288578e-07
227	0x34e5b757	4.278797e-07
228	0xb3146ce3	-3.4557967e-08
229	0x348b5444	2.595208e-07
230	0xb461889b	-2.1004455e-07
231	0xb408aade	-1.2728148e-07
232	0x3637a744	2.7366486e-06
233	0x3295cc20	1.7438708e-08
234	0x34224833	1.5113692e-07
235	0xb481c845	-2.4173838e-07
236	0xb4fcb220	-4.706826e-07
237	0x333b13da	4.3557385e-08
238	0x347a5bad	2.3316416e-07
239	0x34ff42e5	4.7546123e-07
240	0x3488d5eb	2.548762e-07
241	0xb4a45d7c	-3.06154e-07
242	0x350e8b25	5.3101604e-07
243	0xb2a8eab3	-1.9664503e-08
244	0xb52a9a97	-6.3554893e-07
245	0xb49839ea	-2.8354344e-07
246	0x346c6d28	2.2018924e-07
247	0xb4692c2f	-2.171589e-07
248	0xb502af7a	-4.8684126e-07
249	0xb58ad99c	-1.0345134e-06
250	0xb3b2436a	-8.3010335e-08
251	0x343d5f93	1.7636766e-07
252	0x34cfa3d7	3.8675964e-07
253	0xb4f46370	-4.5520892e-07
254	0x351ff61e	5.9590263e-07
255	0xb4532fed	-1.9668342e-07

exp_avg_sq f4 [64, 128]
0	0x25188328	1.3228336e-16
1	0x29980344	6.7507225e-14
2	0x272e214c	2.41654e-15
3	0x259f7e3f	2.766765e-16
4	0x2661ab6f	7.829489e-16
5	0x25ba2c17	3.2295733e-16
6	0x28f2c85c	2.695429e-14
7	0x2032a4ae	1.5131674e-19
8	0x2530f568	1.5348713e-16
9	0x27aa3020	4.7236656e-15
10	0x251f2ca3	1.3806175e-16
11	0x262276fd	5.63663e-16
12	0x27a2880c	4.5111535e-15
13	0x2a6b0263	2.0873021e-13
14	0x28c16663	2.1471708e-14
15	0x24bce9ed	8.192829e-17
16	0x252d804a	1.5048824e-16
17	0x293c6f75	4.184106e-14
18	0x28a33656	1.81202e-14
19	0x26e5739d	1.5921404e-15
20	0x2710b5a0	2.0082474e-15
21	0x23d186e8	2.271696e-17
22	0x27f37eab	6.7583382e-15
23	0x28a2e99d	1.8086927e-14
24	0x221e7858	2.1476702e-18
25	0x29005945	2.849914e-14
26	0x26163543	5.211389e-16
27	0x29647679	5.072893e-14
28	0x251e02d1	1.370527e-16
29	0x2794652f	4.1187955e-15
30	0x26d28c9c	1.4609789e-15
31	0x28470422	1.1047615e-14
32	0x2855171c	1.1828886e-14
33	0x245144c1	4.5377888e-17
34	0x273fac6d	2.6600047e-15
35	0x289cdc05	1.7414897e-14
36	0x242c8ea7	3.7417386e-17
37	0x25ee4f52	4.1340168e-16
38	0x245ae295	4.7463137e-17
39	0x246f8713	5.1939276e-17
40	0x2ad8171b	3.838534e-13
41	0x2852fa70	1.1711647e-14
42	0x26547052	7.37045e-16
43	0x268d6189	9.810277e-16
44	0x2831f4fa	9.878595e-15
45	0x2697ac29	1.0524394e-15
46	0x292bf40e	3.818131e-14
47	0x29ae8366	7.749946e-14
48	0x27879851	3.763517e-15
49	0x289bd05d	1.729882e-14
50	0x29e58c06	1.0193933e-13
51	0x24d2ae2d	9.136805e-17
52	0x29625e99	5.026413e-14
53	0x27e7ca8f	6.4334994e-15
54	0x277b149d	3.4844422e-15
55	0x24ed1a83	1.0282728e-16
56	0x281b6387	8.62581e-15
57	0x288bc675	1.5518167e-14
58	0x254d762e	1.7820956e-16
59	0x238265f4	1.4137807e-17
60	0x228fa6f6	3.8937004e-18
61	0x26837eaa	9.124283e-16
62	0x29079fdb	3.0114674e-14
63	0x2579c2e4	2.1663339e-16
64	0x2516f8cd	1.3094723e-16
65	0x23f64f66	2.6705e-17
66	0x25a71eba	2.8990703e-16
67	0x259ef802	2.7576688e-16
68	0x26c7ddf5	1.386856e-15
69	0x22943cdd	4.017992e-18
70	0x293bf240	4.173246e-14
71	0x238a32e7	1.4983548e-17
72	0x2785d306	3.7143708e-15
73	0x26f94854	1.729745e-15
74	0x27c21944	5.387321e-15
75	0x268a735a	9.60694e-16
76	0x275047be	2.890469e-15
77	0x2a589cc5	1.9239044e-13
78	0x2757d696	2.995357e-15
79	0x24cf33fb	8.986e-17
80	0x26b18519	1.2317918e-15
81	0x274585d3	2.7411788e-15
82	0x2912bcba	3.2582207e-14
83	0x2700697a	1.7820747e-15
84	0x270a7d66	1.9219326e-15
85	0x25794b82	2.162289e-16
86	0x261bbdbb	5.403356e-16
87	0x2701806b	1.7971962e-15
88	0x25895037	2.3820067e-16
89	0x270fa306	1.9933612e-15
90	0x2652df68	7.316116e-16
91	0x299ea46e	7.0451335e-14
92	0x240c20cd	3.0385444e-17
93	0x2681ed92	9.015567e-16
94	0x26bce7a1	1.3107904e-15
95	0x282c9621	9.580472e-15
96	0x26e4b0f1	1.5868638e-15
97	0x23d446b3	2.3015028e-17
98	0x2857c827	1.1978299e-14
99	0x2856fa0d	1.19336075e-14
100	0x27b68e5c	5.0669494e-15
101	0x2740b1bf	2.674171e-15
102	0x252791ff	1.4534406e-16
103	0x24fbfc7f	1.0928164e-16
104	0x2a8c4396	2.4915893e-13
105	0x268c0d26	9.718015e-16
106	0x270a9cfa	1.9236444e-15
107	0x25f2951e	4.2081354e-16
108	0x275f4a32	3.0987688e-15
109	0x26b55f03	1.2585151e-15
110	0x26a90bd0	1.1729932e-15
111	0x294d495f	4.5582783e-14
112	0x24d16ed6	9.0827065e-17
113	0x25b0d2a6	3.0673874e-16
114	0x26892e90	9.518905e-16
115	0x26040ea4	4.581654e-16
116	0x25880ed3	2.3602285e-16
117	0x26b3d4a2	1.2478254e-15
118	0x27331dbe	2.4857363e-15
119	0x26f68526	1.7105769e-15
120	0x2858a670	1.2026499e-14
121	0x28f3a29f	2.7048945e-14
122	0x24f7a37a	1.07396115e-16
123	0x2371ec3d	1.31146616e-17
124	0x26bf9d24	1.329588e-15
125	0x27ae3bbb	4.835946e-15
126	0x29668fe4	5.1195064e-14
127	0x2412e496	3.1852323e-17
128	0x27113f50	2.0157114e-15
129	0x2a9bd764	2.7682988e-13
130	0x28b93774	2.0563175e-14
131	0x26618568	7.8243356e-16
132	0x23cdf8e9	2.2331562e-17
133	0x272947b3	2.349233e-15
134	0x27351dba	2.513491e-15
135	0x25a45bb2	2.85116e-16
136	0x28881428	1.5107775e-14
137	0x298814c7	6.0432175e-14
138	0x286f3e0d	1.328062e-14
139	0x2836c680	1.0146072e-14
140	0x28162186	8.333942e-15
141	0x2b881ffc	9.672259e-13
142	0x29cb913d	9.040206e-14
143	0x28494572	1.11728e-14
144	0x25074d2f	1.1735534e-16
145	0x2a7d075a	2.2473465e-13
146	0x28ab1e19	1.8997866e-14
147	0x28e9892a	2.5927682e-14
148	0x28593272	1.2056858e-14
149	0x27317787	2.462848e-15
150	0x28c7f94c	2.2201553e-14
151	0x29d579f6	9.480257e-14
152	0x256fc630	2.0797094e-16
153	0x2a272fc4	1.4849152e-13
154	0x27923f8a	4.059203e-15
155	0x2a26c679	1.4812621e-13
156	0x2821cae8	8.981294e-15
157	0x28bad662	2.0743122e-14
158	0x28d17db9	2.3258185e-14
159	0x298a18e0	6.132746e-14
160	0x292134e8	3.579507e-14
161	0x25e0b0d2	3.8977624e-16
162	0x292d960d	3.8543865e-14
163	0x29abcb14	7.629154e-14
164	0x2865f2d7	1.2764711e-14
165	0x298a4278	6.1399616e-14
166	0x27833463	3.64166e-15
167	0x273df060	2.6359327e-15
168	0x2bd192a3	1.4891043e-12
169	0x275ae1d3	3.0375997e-15
170	0x22bd6ea1	5.1345686e-18
171	0x27ce53df	5.726742e-15
172	0x298a5701	6.143524e-14
173	0x28695d55	1.2954336e-14
174	0x2a37d2c2	1.6326786e-13
175	0x290e4af7	3.1595356e-14
176	0x28df4529	2.4787967e-14
177	0x2a1024d6	1.2802549e-13
178	0x2af2a23e	4.3100414e-13
179	0x26dde82f	1.5397889e-15
180	0x2a6aceae	2.0855081e-13
181	0x29e4ea33	1.0165861e-13
182	0x2828f29b	9.37848e-15
183	0x2795cc2b	4.1577167e-15
184	0x25b38d8d	3.114747e-16
185	0x2a3a1e6c	1.6530673e-13
186	0x2737d2e4	2.5510676e-15
187	0x2620aef9	5.5748283e-16
188	0x2702fdc8	1.81787e-15
189	0x2587a05c	2.352743e-16
190	0x279ba33e	4.319813e-15
191	0x26b2336c	1.2365169e-15
192	0x27086afb	1.8931786e-15
193	0x284143d1	1.07283575e-14
194	0x261ffa9d	5.550385e-16
195	0x26621a70	7.844533e-16
196	0x26447226	6.815586e-16
197	0x278d6b41	3.9251647e-15
198	0x28dd54a2	2.4572632e-14
199	0x2704ecae	1.8446984e-15
200	0x24865b17	5.826755e-17
201	0x27c23325	5.3901268e-15
202	0x26fbf112	1.7481966e-15
203	0x27fbee5e	6.9924933e-15
204	0x2772b2d7	3.3681196e-15
205	0x2b273f8b	5.94185e-13
206	0x29200d61	3.553874e-14
207	0x27ecb14a	6.5695376e-15
208	0x219ae184	1.0495139e-18
209	0x2448786f	4.3470098e-17
210	0x29e0625a	9.9646596e-14
211	0x26acdd52	1.1994887e-15
212	0x2824a4a2	9.139528e-15
213	0x278e40d0	3.9483187e-15
214	0x265e6a49	7.7165766e-16
215	0x275ad2c6	3.0367838e-15
216	0x267a3f95	8.6822344e-16
217	0x2424c490	3.5728326e-17
218	0x23b5c367	1.9706815e-17
219	0x2a91bb81	2.588728e-13
220	0x2747ccea	2.7727882e-15
221	0x26aa75e8	1.1828078e-15
222	0x27010a94	1.790808e-15
223	0x288e5e46	1.5806052e-14
224	0x28dba37f	2.438479e-14
225	0x2632f8f0	6.209353e-16
226	0x26d9a08a	1.5100914e-15
227	0x28a4e79d	1.8308104e-14
228	0x2509b022	1.1942532e-16
229	0x27f2a85f	6.735104e-15
230	0x279ef455	4.4118715e-15
231	0x26e97992	1.6200574e-15
232	0x2b52cdb5	7.4892463e-13
233	0x240c3ecd	3.0410855e-17
234	0x272498bc	2.284237e-15
235	0x27d28b07	5.8437443e-15
236	0x28c78c23	2.2154213e-14
237	0x255abcd0	1.8972458e-16
238	0x27c3df59	5.4365526e-15
239	0x28cb9eac	2.260634e-14
240	0x27ea0cc3	6.4961883e-15
241	0x2828d975	9.373027e-15
242	0x28fdfbb5	2.8197803e-14
243	0x2432549e	3.866927e-17
244	0x2935e917	4.0392247e-14
245	0x2810d485	8.039689e-15
246	0x27aeadf4	4.84833e-15
247	0x27a9e791	4.7157988e-15
248	0x28d57bcc	2.3701439e-14
249	0x29f0fdde	1.070218e-13
250	0x26469c82	6.8907157e-16
251	0x2760239d	3.110555e-15
252	0x2886bb7e	1.49583e-14
253	0x28baa491	2.0721518e-14
254	0x291fec3c	3.5509993e-14
255	0x278b6008	3.8684367e-15

exp_avg f4 [64]
0	0x34bdc99d	3.5350686e-07
1	0x34ecf352	4.4135464e-07
2	0xb4e9fafd	-4.358225e-07
3	0xb664bd73	-3.4084921e-06
4	0x3278c0cd	1.4479338e-08
5	0xb5552137	-7.939702e-07
6	0xb57e520a	-9.4741756e-07
7	0xb52b9d80	-6.3931657e-07
8	0x33e0adfd	1.0462461e-07
9	0xb4b98807	-3.4557908e-07
10	0xb50ac2a3	-5.169224e-07
11	0x337a945a	5.8342586e-08
12	0x35638e0d	8.47708e-07
13	0xb448fc9e	-1.8718353e-07
14	0x33e6d427	1.07488e-07
15	0xb48d017f	-2.6264385e-07
16	0xb4b6f8d3	-3.4081185e-07
17	0xb453e413	-1.9733879e-07
18	0x3538726e	6.871186e-07
19	0xb484b5da	-2.471923e-07
20	0x343ce3a2	1.7591677e-07
21	0xb48b53e7	-2.5951815e-07
22	0x3402e605	1.2190874e-07
23	0xb36ad860	-5.4679163e-08
24	0xb4330cfd	-1.6675399e-07
25	0x34cb0707	3.781681e-07
26	0x3491b453	2.7139558e-07
27	0xb42df0c8	-1.6199476e-07
28	0x330233cd	3.0315096e-08
29	0xb50cafd4	-5.240993e-07
30	0xb58eed72	-1.064893e-06
31	0x340e2255	1.323727e-07
32	0xb510edde	-5.399032e-07
33	0x354093ea	7.1740817e-07
34	0x34abce0f	3.200116e-07
35	0xb384968e	-6.174115e-08
36	0x356ac487	8.745778e-07
37	0x3504e933	4.951318e-07
38	0xb4a4b498	-3.067878e-07
39	0x34fdf437	4.7302612e-07
40	0xb413e173	-1.377246e-07
41	0xb4c045d4	-3.5813594e-07
42	0xb4b075f2	-3.286837e-07
43	0xb49d56d0	-2.9306693e-07
44	0xb4d3936f	-3.9409085e-07
45	0xb1dbd0cd	-6.3974768e-09
46	0x33b173ea	8.2632894e-08
47	0xb6477aab	-2.9724713e-06
48	0x35484f69	7.4621363e-07
49	0xb1b42ecd	-5.24401e-09
50	0xb56d41d8	-8.8385195e-07
51	0xb4523853	-1.9578265e-07
52	0xb53ec296	-7.1063675e-07
53	0x33fe9897	1.18555526e-07
54	0xb5b5318d	-1.3499972e-06
55	0x344e0d9d	1.9190198e-07
56	0x333ccc1a	4.395779e-08
57	0xb44ddf4d	-1.9173349e-07
58	0x34ca2c6e	3.765776e-07
59	0xb31e930d	-3.6920984e-08
60	0x3419fe50	1.4341754e-07
61	0x3559ebfa	8.118219e-07
62	0xb5317781	-6.611154e-07
63	0x3345ee60	4.6084438e-08

exp_avg_sq f4 [64]
0	0x28611ee7	1.249671e-14
1	0x28af746b	1.9479391e-14
2	0x28ab1578	1.8994124e-14
3	0x2ba3819b	1.1617819e-12
4	0x23c15e7f	2.0965123e-17
5	0x298df36e	6.303886e-14
6	0x29ca1f1e	8.976e-14
7	0x293812dd	4.087257e-14
8	0x269dc0c1	1.094631e-15
9	0x28572303	1.19424895e-14
10	0x28f0ae27	2.6720879e-14
11	0x25c43811	3.4038572e-16
12	0x29a1d0fb	7.1860886e-14
13	0x277c7919	3.5037672e-15
14	0x26a68185	1.155367e-15
15	0x27f8887b	6.89818e-15
16	0x28513dfc	1.1615271e-14
17	0x278c4e36	3.8942602e-15
18	0x2954a11b	4.7213193e-14
19	0x27dc2686	6.1104034e-15
20	0x275efe9a	3.0946709e-15
21	0x27f2a719	6.734966e-15
22	0x26d62e26	1.4861742e-15
23	0x25ac59d2	2.9898108e-16
24	0x27485eab	2.7806895e-15
25	0x2880d01e	1.4301111e-14
26	0x2804afa2	7.365556e-15
27	0x273d1882	2.6242305e-15
28	0x24d3e87c	9.190051e-17
29	0x28f768e9	2.7468006e-14
30	0x29ff5a7c	1.13399714e-13
31	0x26fc86bc	1.7522532e-15
32	0x29034724	2.9149548e-14
33	0x2967c9ed	5.1467446e-14
34	0x28387b15	1.0240741e-14
35	0x25dbbebc	3.811969e-16
36	0x29ac3cb1	7.648863e-14
37	0x28dcd105	2.4515554e-14
38	0x28298c9d	9.411875e-15
39	0x28c98a17	2.237537e-14
40	0x2708ade8	1.8968066e-15
41	0x28670e1c	1.2826135e-14
42	0x28429d6b	1.0803298e-14
43	0x281ab8f4	8.588823e-15
44	0x288be37e	1.5530759e-14
45	0x2296ff21	4.092771e-18
46	0x2644cf30	6.828195e-16
47	0x2b78b31b	8.835586e-13
48	0x297ac6ae	5.568348e-14
49	0x224ae95b	2.7499642e-18
50	0x29afe8c9	7.811943e-14
51	0x278a19f7	3.8330845e-15
52	0x29636f11	5.050046e-14
53	0x26ca8f52	1.4055413e-15
54	0x2a4d31c5	1.8224925e-13
55	0x2784ae54	3.6826367e-15
56	0x255ec70e	1.9322873e-16
57	0x278472b7	3.6761734e-15
58	0x287f76a2	1.4181068e-14
59	0x251d295b	1.3631591e-16
60	0x2714365b	2.0568592e-15
61	0x299467ec	6.590548e-14
62	0x2944d727	4.3707357e-14
63	0x2574dac9	2.1237754e-16

exp_avg f4 [2, 64]
0	0x35e60e75	1.7140543e-06
1	0xb769951d	-1.39226e-05
2	0x371b58bd	9.259381e-06
3	0x3789a667	1.640916e-05
4	0xb662ada0	-3.3777687e-06
5	0xb6ae4ed6	-5.194782e-06
6	0x3663e783	3.3960393e-06
7	0x36d5327d	6.3537723e-06
8	0x37385df1	1.0989127e-05
9	0x36c13ffa	5.759296e-06
10	0xb6d8b20b	-6.4580286e-06
11	0x373362bf	1.06922225e-05
12	0x36b5c8a7	5.4175794e-06
13	0xb8170ea5	-3.6014844e-05
14	0xb63cfd8d	-2.816177e-06
15	0x366071f7	3.3444937e-06
16	0xb5877f40	-1.0095318e-06
17	0xb7aad38a	-2.0364085e-05
18	0xb6eba400	-7.022638e-06
19	0xb6a6eaaa	-4.974504e-06
20	0xb500c1cd	-4.7965733e-07
21	0xb65f623d	-3.3286772e-06
22	0xb6eb1357	-7.005797e-06
23	0x37357114	1.0814769e-05
24	0x36320e9d	2.6532573e-06
25	0xb65fb883	-3.333699e-06
26	0x353957af	6.9045467e-07
27	0x36e29fe0	6.7539368e-06
28	0xb6e7c19a	-6.9068747e-06
29	0x362ab052	2.5434606e-06
30	0xb6018585	-1.9300217e-06
31	0x36edf123	7.0912224e-06
32	0x36e89eb7	6.9326156e-06
33	0xb691846a	-4.3367518e-06
34	0x36f2b7c7	7.2335565e-06
35	0x3737c0bf	1.0952527e-05
36	0xb5d74737	-1.6039475e-06
37	0xb6d8d902	-6.4625647e-06
38	0xb614cd9a	-2.2173394e-06
39	0xb663e193	-3.3956937e-06
40	0x380ff8c3	3.4325534e-05
41	0xb6c691da	-5.917839e-06
42	0xb72783b3	-9.984639e-06
43	0xb6e195b8	-6.722952e-06
44	0xb664d27d	-3.4097168e-06
45	0x3692ec55	4.3786517e-06
46	0x3784032f	1.5737109e-05
47	0x3750054a	1.2398998e-05
48	0x365622e3	3.1908792e-06
49	0xb6a7b582	-4.998118e-06
50	0x378a2ab2	1.6470764e-05
51	0x36bb3a1d	5.5797996e-06
52	0xb6444f5a	-2.9252465e-06
53	0xb74fac77	-1.2378317e-05
54	0x3732db45	1.0660679e-05
55	0x36a059d4	4.778829e-06
56	0x368b407b	4.1500293e-06
57	0xb77ef813	-1.5197339e-05
58	0xb64191fb	-2.8844213e-06
59	0x36803f50	3.822068e-06
60	0xb6b09efa	-5.263716e-06
61	0x35e0900d	1.6731225e-06
62	0x36a53168	4.923135e-06
63	0x363298d3	2.6613022e-06
64	0x3540e300	7.18559e-07
65	0xb633f05a	-2.6812982e-06
66	0xb62422aa	-2.4458081e-06
67	0x3611a7dd	2.1704393e-06
68	0xb59ec2f7	-1.182866e-06
69	0xb5a0526a	-1.1944915e-06
70	0xb5025f27	-4.856724e-07
71	0x349f21a7	2.9640543e-07
72	0x36625da2	3.3731126e-06
73	0xb47aa000	-2.3341272e-07
74	0x357ee0da	9.4949576e-07
75	0xb48183d3	-2.4124037e-07
76	0x3582d74b	9.748413e-07
77	0xb63670f7	-2.7185868e-06
78	0x342cfc67	1.6110572e-07
79	0xb5bf42ad	-1.4250014e-06
80	0xb6304c37	-2.6270407e-06
81	0x364cf51b	3.054104e-06
82	0xb59c5440	-1.1647426e-06
83	0x34921500	2.72099e-07
84	0xb38b05cd	-6.473747e-08
85	0xb46720cd	-2.1525484e-07
86	0xb67929d0	-3.712823e-06
87	0xb525a31a	-6.1704634e-07
88	0xb44bb99a	-1.897337e-07
89	0xb491aa9a	-2.7132484e-07
90	0x36190657	2.2802467e-06
91	0x36162a3a	2.237632e-06
92	0x35f13e5a	1.7974046e-06
93	0xb62d5d40	-2.5833288e-06
94	0x359044eb	1.0748894e-06
95	0x339e999a	7.385388e-08
96	0xb58aa88d	-1.0330856e-06
97	0x34870800	2.515153e-07
98	0xb5c8b653	-1.4954225e-06
99	0xb33170cd	-4.1313616e-08
100	0x349f945a	2.9723998e-07
101	0xb684e879	-3.96097e-06
102	0xb4b19233	-3.3075193e-07
103	0x34fb430d	4.680118e-07
104	0xb582bb67	-9.740296e-07
105	0xb6725b1d	-3.6113845e-06
106	0x360a365b	2.0595241e-06
107	0xb55e2dd7	-8.276815e-07
108	0x34c5e467	3.6860294e-07
109	0x3581bcce	9.666198e-07
110	0xb530bea7	-6.5842545e-07
111	0xb686b7fd	-4.0149303e-06
112	0x353cee40	7.0382157e-07
113	0xb5aa76da	-1.2700577e-06
114	0xb55ada00	-8.152856e-07
115	0xb5a3344d	-1.2159668e-06
116	0x360efded	2.1307453e-06
117	0xb3f82267	-1.1554658e-07
118	0xb54780c0	-7.4320633e-07
119	0xb5d40847	-1.579764e-06
120	0xb525d10d	-6.17715e-07
121	0xb596b367	-1.1228084e-06
122	0xb4bfe83a	-3.574549e-07
123	0x360e4357	2.1198846e-06
124	0xb53f55df	-7.1278004e-07
125	0x3550ca0d	7.778006e-07
126	0xb58d4e80	-1.0528165e-06
127	0x341978c0	1.4293164e-07
