results/energy/checkpoints/A02_H064_L02_D01_Tanh_W4096_P010000_V-2.00e+01_S5.00e-01_Adam_PT_False_NO_TRAP_device_cuda_dtype_float32_chkp.pt (torch, 168407 bytes, 23 tensors)

layers.0.fc.weight f4 [64, 2]
00000000: 4ff2 57bc ac55 cb3e 9c72 19bf 61c1 cfbe
00000010: 7042 babe ebb6 a43e 4b37 04bc afa9 0c3f
00000020: 3be6 dfbd 7d19 4f3e 7b58 8bbe 0226 6c3c
00000030: aafd 2cbf 8e22 d1be dbbc acbe 5450 293e
00000040: 770c a83e 641b cc3e db2e 03bf 6faf 20be
00000050: 075c 8e3e 6986 083f 1d51 5bbe 5636 033f
00000060: 64c5 f4bd 5794 3c3d b93e 4b3f e712 3abf
00000070: d5d1 f0be 8b4f 06be fa0a 0cbf 7301 123f
00000080: ce2a eebe 37ea a1be 6dc1 efbe a001 15bf
00000090: 6083 edbe 4b80 1e3f c4e5 b83e ae0e 8c3e
000000a0: c454 553d 754e a1be 2f04 1f3e ee4d 28bf
000000b0: 1d2b 02bf aa8c c7bd e873 f53e 7527 453e
000000c0: 84e6 a9be 6cd9 2f3e a8c7 ec3e 0256 123f
000000d0: 4c58 9c3e 6df4 e5bb 186a 1a3f 3ea3 e8be
000000e0: 39c1 923e 2c1a f0be 5a07 08bf 9b88 2fbe
000000f0: a2ff b03e 0f79 2b3e ef8e e5be d3ff ab3e
00000100: 6aa7 dc3e 9571 e6bd 4255 cc3c c3ae 1d3e
00000110: 3974 e73e 490c 613e 3a52 0bbf cd08 de3d
00000120: 4b24 9a3e e192 e33e b64d 253f 9807 de3e
00000130: f5af 2c3e e557 1bbf 6938 a23d 74d8 cebe
00000140: 08f2 34bf dcd0 113f d947 2f3f bce2 36bf
00000150: 9e5e fd3d 563b 08be 93bc 04be cfe7 a4be
00000160: 4cfd 9e3e f7f0 edbe a6dd 833e 4970 ad3e
00000170: 151e 053f 2e7c 3a3e f224 34bf a435 c6be
00000180: e69e c13e d531 843d 64f4 0abf dfa6 b0be
00000190: fb40 323f 8439 bd3e 85a6 abbe 7846 f0bd
000001a0: add6 21bf 0d2e 663e cd1a 0ebf b79c 42be
000001b0: 9caf e3bd 4240 e53d 522c b5be b20b cf3e
000001c0: fd34 06bf b3de 2b3f 8f31 383f 4c2b 2abf
000001d0: f057 6ebe 1c16 3e3e c10d 3f3e be33 bf3d
000001e0: 49de ac3e 4025 49bd aa06 b0be 1271 a33e
000001f0: fa82 32bf 33d9 a0be 3b11 6cbe 10f7 3abe
-0.013180329 0.397138 -0.59940505 -0.40577224 -0.36378813 0.32170805 -0.0080698235 0.54946417
-0.10932585 0.20224567 -0.27215943 0.014413359 -0.6757456 -0.40846676 -0.33737835 0.16534549
0.3282201 0.39864647 -0.5124337 -0.15691923 0.27804586 0.53330094 -0.21417661 0.51254785
-0.11951712 0.046039905 0.7939258 -0.7268509 -0.4703509 -0.1311628 -0.5470425 0.5703346
-0.46517032 -0.31624004 -0.4682726 -0.58205605 -0.46389294 0.6191451 0.36112797 0.2735495
0.052082792 -0.3150517 0.1552894 -0.6574391 -0.50847036 -0.097436264 0.47939992 0.19253333
-0.33183682 0.17172784 0.46246076 0.5716249 0.30536115 -0.007017663 0.60318136 -0.45437044
0.28663042 -0.46894968 -0.5313622 -0.17141955 0.34570032 0.16745399 -0.44835612 0.33593616
0.43096477 -0.11252133 0.024942998 0.15398698 0.45205858 0.21977343 -0.5442234 0.10841522
0.30105814 0.44447997 0.645717 0.4336517 0.16863997 -0.6068099 0.07920916 -0.40399516
-0.7068181 0.5695932 0.68469006 -0.7143972 0.123715624 -0.13303885 -0.1296256 -0.32208106
0.31052625 -0.46472904 0.25755042 0.3387473 0.51999027 0.18211433 -0.70368874 -0.387128
0.37816542 0.06454817 -0.5427916 -0.34502313 0.696304 0.36957943 -0.33525482 -0.11732191
-0.63218194 0.22478504 -0.55509645 -0.19005094 -0.11117479 0.11193897 -0.35385376 0.4043861
-0.52424604 0.6713669 0.7195062 -0.66472316 -0.23275733 0.18563122 0.1865759 0.09336041
0.3376334 -0.04910779 -0.34380084 0.31922203 -0.69731104 -0.3141571 -0.23053448 -0.1825831

layers.0.fc.bias f4 [64]
00000000: ce4a 7cbe 2053 10bf 9a40 11be 0c38 1c3e
00000010: 9a20 eabe d8c2 d2bc e6ae fd3e 68ac 90bd
00000020: e4d5 c839 ad9b 42bd 8e7c 103e a82c ee3e
00000030: 2c7c 2b3f de0a bb3e 1c34 2c3f 5848 c8bc
00000040: 0ed8 21bf f833 bdbe 85f1 ec3e 9e30 15bc
00000050: 8d37 c2be 09b0 0cbf 35e2 2dbf a173 23bf
00000060: 8687 0ebe 603c d03e 12c2 be3e 3144 13bf
00000070: 2d95 d73e ec9a 0abf 2007 06be fb49 83be
00000080: d97f 0ebe fa7b 15be 896f 36bf f3bd 34bf
00000090: 29ee e4bd 3f77 233c 5970 a3be 5d62 8a3e
000000a0: c923 12bf 4376 51bd 8908 1f3f 3ac0 91be
000000b0: 2638 223f 0345 7d3e d02e 22bf e63c eb3e
000000c0: b1ee a0bd aa49 aabe ea18 0a3f c0cc 12bf
000000d0: e575 963d 3669 0cbe d826 023f 42a7 4f3e
000000e0: e853 a03e ff22 313e 315a 28be d9e3 16be
000000f0: 3f69 0dbf e2b4 bd3e 77d0 0c3f 4001 fd3e
-0.2463791 -0.5637684 -0.141848 0.15255755 -0.45727998 -0.025727674 0.495475 -0.07064134
0.00038306334 -0.047511745 0.14110014 0.46518445 0.66986346 0.36531729 0.6726701 -0.024448559
-0.632203 -0.36953712 0.46278015 -0.0091058295 -0.37933007 -0.5495611 -0.6792329 -0.6384831
-0.13918886 0.40671062 0.3725744 -0.57525927 0.42106 -0.5414264 -0.13088655 -0.2564238
-0.13915958 -0.14598075 -0.7126394 -0.7060234 -0.11178238 0.009977161 -0.31921652 0.2702817
-0.57085854 -0.051138174 0.621224 -0.2846697 0.63366926 0.24733357 -0.6335268 0.459449
-0.07858027 -0.33259326 0.53944266 -0.57343674 0.07346705 -0.1371201 0.5084052 0.20278648
0.31314015 0.17298506 -0.16440655 -0.14735354 -0.5523872 0.37052065 0.5500559 0.49415016

layers.1.fc.weight f4 [64, 128]
00000000: 5553 82bd 33a3 b238 c938 3cbd 575b 37bd
00000010: 0fb3 50bd 90f0 3e3d b2c4 0fbd 9f24 823c
00000020: bf14 4cbc b795 9e3d c5c3 92bd bb60 7ebd
00000030: ec8a 56bd 4d0d 623d cf6a abbc bbc3 b23d
00000040: c1e8 f43c 3932 a63c 4bfc ca3b 8f39 0ebd
00000050: 3d81 403c 9d3c 98bc 1754 69bb 0172 81bb
00000060: 4e90 3ebd 4eb7 4abd 9780 823d 2b82 9bbd
00000070: 17c0 42bc 8f1c b03d 8678 8f3c bdb3 b63c
00000080: 2476 bdbd cb6e 2c3d 1dcd 9dbd b463 d7bc
00000090: 40f5 38bd b1ca 10bd 12f7 c83a 6063 8f3d
000000a0: d7fc a63c 781a 883d 841b 563d d127 60bd
000000b0: 82cf 0f3d b77d 86bd 1da4 5bbd 8a75 2f3d
000000c0: 0356 513c d247 a23d cbb9 eabc 534d 363b
000000d0: bac9 8d3d de52 87bd 0f4c 803d 86f9 85bd
000000e0: 457b 0c3c c749 efbc e410 17bd ad74 ff3b
000000f0: 1d8d 943d 5b1a b4bc a4e4 0cbd 3ace 01bd
00000100: 81f3 b7bd 6ba6 273d 1e2a 25bd 7a73 5fbd
00000110: ceb9 4dbd c05a 3d3d 3577 423d 923f 903d
00000120: 3f8a 363d 23ad 07bd 5582 97bc 9949 c43c
00000130: daf0 923d 6c84 f13c 8441 1ebd 244a 46bd
00000140: b43d aabd 7c46 b23c f18e 3ebd 7870 8cbd
00000150: 3291 a03d 8695 65bd b363 37bc 9875 ba3c
00000160: 5c34 613b 4aae 80bd 238c 93bd e713 863d
00000170: 6b3e 5c3c eb58 953d 5a17 00bd 0529 c93c
00000180: dc6a 05bd 5a5e b1bb a979 58bd 108d e63c
00000190: 9e34 123d 4bbf a13b 88df 94bc de9b 5ebd
000001a0: 509a 6a3d d375 6dbd 2531 0e3d b80c e7bc
000001b0: 7923 30bd 7b06 883c 49e0 51bd d7a1 b83c
000001c0: e3fd 563c 8123 88bd 9894 503c 894a 1d3d
000001d0: 48c8 6c3d 440d 8dbc 5ebc 95bd c79a 4ebc
000001e0: ec58 013d d6ab dfbc 6d90 153d 5fba 653d
000001f0: f1d7 39bd 91ea a43a 64ec 1c3d 985f bc3b
00000200: bba9 db3b 5f12 8cbb 7477 9abd 56ca 2f3c
00000210: fac7 723d ecc4 9f3d 38b4 813d 59c3 2c3c
00000220: fc49 373d d7fa 2fbd 0dff 84bd 9438 9ebd
00000230: 5fe7 b33d 6e37 5f3d 4cc4 70bd cbf4 e23c
00000240: ee58 6b3d 7557 9d3d bfd1 993d 04df 913d
00000250: e0e6 a2bc fba3 febc a51a 873d a627 293d
00000260: 6b3a 65bd 50fb bd3d 7564 373d 8616 583d
00000270: 40c7 63bd 7e2a 8b3c b878 f4bc d075 903d
00000280: 3cfe a2bc 8853 063d 0d8d ec3b 7c89 133d
00000290: a38d ebbc 73c9 1b3d 507b 7dbd 20d1 a23c
000002a0: d79f 63bd f34e adbd e952 90bd 9577 8e3d
000002b0: d78b 4c3d ebef b33d 8686 7e3d b276 88bd
000002c0: dc19 73bd 383d a8bc cd68 3ebd 1b53 733d
000002d0: 3cf9 3cbd 4222 40bd 59fb afbd e240 6dbd
000002e0: c114 8c3d 8e5c 923d e45d 7b3d 47b3 8d3d
000002f0: 0ab5 ab3d bd39 fdbc 82d2 533d 2fe2 9f3d
00000300: 7e5f e83c 2586 b03d 07b4 4e3d 2d0c 6f3d
00000310: c86d 03bd 04bb 533d 214c df3b aa33 04bc
00000320: 9f19 41bd 4eac 31bd 7f6b 85bd 0ec8 683d
00000330: 6890 813d 0414 c2bb 61e3 50bd 8107 483d
00000340: 760b 693d c38d ef3b fd8c 28bd 196e a73d
00000350: a427 153d e6a7 88bd 8b0d b23d 6cae 893d
00000360: 551d b4bc 938f 463d 67df 5dbd fc73 91bc
00000370: 7179 9a3d e2ed 953b dea9 81bd f132 d9bc
00000380: d585 0fbd 64fe a0bc 841b 293c 277b af3d
00000390: 9c83 1a3c 5a26 65bd f759 a83b 889e 2e3d
000003a0: e25d 2d3d 9601 6bbd 73fb 81bc fd0c 87bd
000003b0: 99d8 1ebd 6b15 023d d23c 84bd d4b2 ff3c
000003c0: 971b 8c3d 5a95 b53b f488 6bbd 7397 eabc
000003d0: f9ba 403d 6669 84bd 6a23 353d b99d a8bd
000003e0: 49e5 b4bd 14dd a6bd c9bc 6cbc ffa7 693d
000003f0: e669 a8bd 5fcf 943d 14c3 1bbd 5001 c73c
-0.063635506 8.5181e-05 -0.045952592 -0.044764843 -0.050952014 0.046616137 -0.035099693 0.015886603
-0.012456118 0.077433996 -0.07166246 -0.062103968 -0.05237858 0.055188466 -0.020924954 0.08728739
0.029896142 0.02028762 0.0061946264 -0.03472286 0.011749563 -0.01858359 -0.00356031 -0.003950358
-0.04652434 -0.04949122 0.06372183 -0.07593187 -0.011886618 0.08599197 0.017513525 0.022302503
-0.09251049 0.042097848 -0.07705138 -0.02629266 -0.045155764 -0.03534955 0.0015332422 0.07001376
0.020384235 0.066456735 0.052272335 -0.054725472 0.035110004 -0.06566947 -0.053623307 0.042836703
0.012776854 0.07923855 -0.028653046 0.0027817085 0.06923242 -0.066076025 0.06264507 -0.065417334
0.008574312 -0.029209984 -0.036881343 0.0077958913 0.07253478 -0.021985224 -0.034397736 -0.031690814
-0.089819916 0.040930193 -0.04032337 -0.054553486 -0.050226025 0.046229124 0.047476966 0.07043375
0.044565435 -0.0331241 -0.018494764 0.023960875 0.07174845 0.029482089 -0.0386367 -0.04841055
-0.0831255 0.021762125 -0.04652304 -0.06857389 0.07840194 -0.0560508 -0.011193204 0.022761151
0.0034363484 -0.06283243 -0.07204463 0.06546765 0.013442616 0.072923504 -0.03127227 0.024555692
-0.032572612 -0.005412859 -0.0528504 0.028143436 0.03569471 0.004936134 -0.018172994 -0.054347865
0.05727607 -0.057973694 0.034714837 -0.028204307 -0.04300258 0.016604653 -0.051239286 0.022538109
0.013122055 -0.06647397 0.01273074 0.03840116 0.05780819 -0.01721824 -0.07311319 -0.012610144
0.031578943 -0.027303617 0.03651469 0.05608594 -0.045371953 0.0012582113 0.038311377 0.0057487004
0.006703583 -0.004274651 -0.07542315 0.010729393 0.059272744 0.07801232 0.06333202 0.010544621
0.04474829 -0.04296383 -0.064939596 -0.07725635 0.08784365 0.05449622 -0.058780953 0.027704617
0.057457857 0.07682697 0.07510709 0.07122615 -0.01988548 -0.031084051 0.06596879 0.041297577
-0.055963915 0.0927645 0.044773538 0.052755855 -0.05560994 0.016988035 -0.02984272 0.07053721
-0.019896619 0.032794505 0.007218963 0.036019787 -0.028754061 0.038033914 -0.061885178 0.01987511
-0.055572357 -0.08462324 -0.07047064 0.06956402 0.04993805 0.08785995 0.06214001 -0.06663264
-0.059350833 -0.020537004 -0.046486665 0.059405427 -0.046136126 -0.04690767 -0.08592863 -0.057923205
0.06839896 0.0714656 0.061368838 0.0691896 0.0838414 -0.03091132 0.051714428 0.07806813
0.028365847 0.08619336 0.050464656 0.05836122 -0.032087117 0.051692024 0.006814495 -0.008068958
-0.047143575 -0.043377213 -0.06514644 0.056831412 0.063263714 -0.005922796 -0.050998095 0.04883528
0.056895696 0.0073106005 -0.041150082 0.08175296 0.036414757 -0.06672649 0.08693989 0.067227215
-0.021986643 0.048476767 -0.05416813 -0.017755501 0.07542694 0.004575477 -0.06331228 -0.026513549
-0.03503974 -0.019652553 0.010321502 0.08568411 0.009430792 -0.055944778 0.005137678 0.042631656
0.04232586 -0.05737456 -0.01586697 -0.06594274 -0.038780782 0.031758707 -0.06456913 0.031213202
0.068412 0.0055414857 -0.057503656 -0.02863667 0.04705331 -0.06465416 0.044223227 -0.08233208
-0.08832795 -0.08147636 -0.014449307 0.05704498 -0.082233235 0.072661154 -0.038027838 0.024292618

layers.1.fc.bias f4 [64]
00000000: 64d5 843d 0f4a bcbb adad e3bc c9d3 ee3b
00000010: 2cd9 c53c 9d6c 28bc a5fb 173d 4e34 2a3d
00000020: d33f 85bd bb3f 9c3d 88e9 753d 530b e7bb
00000030: 06b7 663d ab84 bbbc b186 d43b 6d9c 5b3d
00000040: fa74 86bd c235 ccbc 8d9c 74bd 269d 46bc
00000050: d0e0 75bd 6c15 20bd 819c 2dbd 101c 8d3d
00000060: 988d a53c 41ec acbd b3b7 5dbd be73 a8bb
00000070: 2a7a d53c 6e7a 393d f9cb d33d 7d3c 72bd
00000080: 90ef b13d 52c4 743d 6d96 73bd dd10 72bd
00000090: 72ac 94bd cfb2 f5bc 4eb8 9cbc 7a45 b1bd
000000a0: 1fd4 e4bc dac3 373d 8640 e1bb a583 93bd
000000b0: 6e8c 6cbd 9bf6 263d f40b 3f3d 70bb 14bd
000000c0: 4edd 8ebd db7d 2f3d 9d28 35bd 1d40 a8bd
000000d0: 65e0 a73d d405 a53c 6008 6fbc d008 423c
000000e0: 403e 8d3d 0630 c8bd a8e6 69bc 7c1a e1bc
000000f0: 0b4d c8bd e4e0 993d e59d a8bd 2c13 1bbd
0.064860135 -0.005746133 -0.027792776 0.0072884304 0.024151407 -0.010279802 0.03710522 0.041553788
-0.06506314 0.07629343 0.060037166 -0.0070509105 0.05632689 -0.02289041 0.006485783 0.053615976
-0.0656528 -0.024927977 -0.05971961 -0.012122428 -0.06002885 -0.03908293 -0.042385582 0.06890118
0.020209119 -0.08443499 -0.054130267 -0.0051407507 0.026059229 0.045282774 0.10341639 -0.059139717
0.08688271 0.05975754 -0.05946963 -0.059098113 -0.07259454 -0.02999249 -0.019130852 -0.0865583
-0.027933178 0.044864513 -0.006874147 -0.072028436 -0.05775111 0.040762525 0.04664226 -0.036311567
-0.06975804 0.042844635 -0.044228185 -0.08215354 0.08197097 0.02014438 -0.014589399 0.011842921
0.06896639 -0.09774785 -0.014276184 -0.027478449 -0.0978032 0.075135976 -0.08233241 -0.03786008

layers.2.gsds.0.weight f4 [2, 64]
00000000: 0cdc 843d 593d d03d 7fe9 bcbc 42c5 d83d
00000010: 0956 05bb 55a5 eebd 5c90 d8bd d0e1 76bd
00000020: 2085 c4bd bef8 e73d bc3a 68bd ebe2 cabc
00000030: 3f1c ab3d cb22 abbc 64f5 6c3d cb55 39bc
00000040: 1773 51bd f15a 99bd be78 e83d 5bc4 93bd
00000050: 416c 823c 2bae 453d a3d4 933c 21cf cfbc
00000060: f407 d5bc f30d 40bd 8c81 4e3d c717 02bd
00000070: 5e50 393d e705 673d 859e e83d de9b 8abd
00000080: da10 9fbd c4b5 97bd 23d6 1f3d b2f0 c43a
00000090: d803 e93d 57b6 d03d d121 60bd 4cb7 aa3d
000000a0: 1825 6fbd 90b4 04bd abd4 de3d e1b7 b6bd
000000b0: b3fd 3cbd 8dd6 d9bd 7f6b 493d e2fa d33d
000000c0: 6b22 dc3d 8b51 53bd 59ba a4bd 07d9 883d
000000d0: 190c 8dbd 97e8 39bd 416d bfbd 1c9c a23d
000000e0: 8526 87bc 59e7 0e3d 28f4 68bc ba5f 003c
000000f0: d457 55bd 033e f73d 0fe7 c8bd 6459 39bc
00000100: 5a5b 32bd 62fb a3bd bf21 e73d 41ac c23d
00000110: ee42 a53d 2507 f83c d311 a13d 0522 823d
00000120: d98b 00be a676 66bd 8004 b23c 6e3d a63d
00000130: 287e 9f3d 36f8 7fbb ffb2 013e 2511 92bd
00000140: 2edb 693d 5f85 0c3e 5bf2 813c 5373 823d
00000150: 4ad0 e83d 5396 ccbd c8bf a93d 387d 453d
00000160: e887 933d c5dd 173d 53ca b93d 61df 093d
00000170: 65d7 1e3d 24f9 9abd 4b86 27be 0fb7 8a3d
00000180: 49ab c93d b49f 7fbc 8eee b83d 6d37 1ebd
00000190: ff7f 593d cc9a 763c 77f6 673d 2fd4 65bd
000001a0: cc07 73bd 4af0 903d 41b6 8fbd e8b5 c43d
000001b0: 7bd5 3fbc a5cc 0bbd 6aea ec3d aa3f ee3d
000001c0: 6d59 b3bd c2b0 523d 6562 973d 0e2f 2fbd
000001d0: 8ef0 463b 5002 f8bd facb d6bb 27fd b2bd
000001e0: daca e33d 2d55 073c d3a9 113e 71ce 4e3e
000001f0: 47a8 47bd 9d33 813d e6bd 6e3d 00f7 7e3d
0.06487283 0.10167951 -0.023060558 0.10584499 -0.002034547 -0.11652628 -0.10574409 -0.060273945
-0.09595704 0.11326741 -0.05669664 -0.024766406 0.08354997 -0.020890614 0.05785121 -0.011311959
-0.05113515 -0.07488049 0.11351155 -0.07215186 0.01592076 0.048261803 0.018045729 -0.025367321
-0.026004769 -0.046888303 0.050416514 -0.031760957 0.04524266 0.056402113 0.1135836 -0.067680106
-0.07766886 -0.07407716 0.039022576 0.0015025346 0.11377686 0.101910286 -0.05471975 0.08335742
-0.058384985 -0.03239876 0.10880407 -0.08921791 -0.046140384 -0.106366254 0.049174782 0.103505865
0.10748752 -0.051591437 -0.080433555 0.0668202 -0.06887073 -0.04538783 -0.093470104 0.07939932
-0.01649786 0.0348886 -0.014218368 0.007835323 -0.052085713 0.12072375 -0.09809696 -0.011312816
-0.04354415 -0.08006932 0.112857334 0.09505511 0.080694064 0.030276844 0.07864728 0.06354145
-0.12553348 -0.056265496 0.021730661 0.081171855 0.07787734 -0.0039057857 0.12665938 -0.07132176
0.05709379 0.13722752 0.015862634 0.063696526 0.11367853 -0.099896096 0.082885325 0.04821512
0.072036564 0.03707673 0.090717934 0.033660296 0.038779635 -0.07567051 -0.16359822 0.06773197
0.09847123 -0.015602041 0.09029876 -0.038627077 0.053100582 0.015051555 0.05663153 -0.056110557
-0.059333608 0.070770815 -0.07017184 0.09605008 -0.011708613 -0.03413071 0.115681484 0.11633237
-0.08757291 0.0514381 0.07391814 -0.042769484 0.0030355784 -0.12109816 -0.0065550776 -0.08739691
0.11122675 0.008260054 0.14224939 0.20195939 -0.048744466 0.063086726 0.05828657 0.062247276

layers.2.gsds.0.bias f4 [2]
00000000: c6e0 a0bc a236 dc3d
-0.01963843 0.10752608

log_envelope.log_envs.0.weight f4 [2, 1]
00000000: cad3 c03e 5983 c63e
0.37661582 0.38772085

exp_avg f4 [64, 2]
00000000: 7717 24bc d339 08bc 5f32 4cba ca1f f6b8
00000010: 9868 453a e654 ba3a dfd7 8bbb a2e9 28bb
00000020: a4be e23a 2fc2 0b3b 9ebf 5d3a d58b 09ba
00000030: 3d8e 373b a4a8 c33a 31e2 33ba 07f4 69ba
00000040: aaae 21b9 c870 20ba af1f a6bb 9689 79bb
00000050: cb01 0a3b 201c a03a 247b 253b fcc1 c93a
00000060: df5d e3bb 92b1 99bb 5106 503a dfa8 3a3a
00000070: 522b 2ebb 356d 1dbb 56e6 ce3a ff4d 7f3a
00000080: 7fd9 e039 ee46 09b8 b2d1 dc3a d631 e638
00000090: ea8d ccbb 283d 49bb 4411 be3b 7f3d 983b
000000a0: 0a41 60bb dcaa f6ba b983 babb 65c0 6fbb
000000b0: d702 05ba 1c7d 5639 d405 5e3b 8c48 713b
000000c0: 4b94 40b9 eed3 ffb9 53b8 7fb9 5ad3 dbb7
000000d0: 0d8f 5139 dedd 3c3a 4258 333a 9f5a 143a
000000e0: ea89 a3ba 7354 afba 20c9 b8ba ecc5 afba
000000f0: 55dc a9bb 9dcb 89bb aff1 1f3a 9c21 21b9
00000100: ea3e 193c 5c67 153c 65ed e83b ce1c b73b
00000110: 7797 8c3a 9a8a b13a ac0a 03bb 8d70 3dbb
00000120: 69ce 08bb ccb8 c2ba c90d 8bba 2fa4 16ba
00000130: 1d7b b03b 6c08 6a3b e3c7 95bb 7650 62bb
00000140: 7a78 483b ddae b23a 6178 b93a 84f7 9d3a
00000150: 65ce c9bb 4454 9cbb fc7b 403b f58c 083b
00000160: 804a bb3b 4bc6 a23b bd07 173b 2dc4 9f3a
00000170: f9ed aaba 0403 baba f506 6dbb bbac c2ba
00000180: eb49 a2bb e7a2 a4bb 4c0c 233b 9218 c53a
00000190: a669 323a bf47 8f37 e3dc 81bb f1fd 39bb
000001a0: 6098 01bb 9aa1 edba 0359 69ba 178a 3fba
000001b0: 6532 173c 2b4e c23b 6a4b 18bb 3298 bcba
000001c0: 3206 beb9 26c1 e6b9 46be 1d3b 5eba e93a
000001d0: d035 ed36 a940 aa3a a245 a6b9 198b c539
000001e0: c704 d038 6d44 fdb8 318c e8bb 2e46 95bb
000001f0: 8289 793b 06a1 5a3b bcda 5c3a e146 743a
-0.01001536 -0.008314568 -0.00077894883 -0.00011736115 0.00075305393 0.0014215976 -0.004267677 -0.0025774022
0.0017299247 0.002132546 0.0008459034 -0.0005246972 0.0028008365 0.0014927578 -0.0006862013 -0.00089246075
-0.00015419224 -0.00061203213 -0.005069695 -0.0038076392 0.0021058198 0.0012215413 0.00252504 0.0015392895
-0.0069386805 -0.0046903575 0.00079355115 0.00071205007 -0.0026576114 -0.0024021391 0.0015785198 0.00097391004
0.00042886657 -3.2729404e-05 0.0016847162 0.00010976537 -0.0062425034 -0.0030706618 0.005800398 0.004646003
-0.0034218454 -0.0018819231 -0.005691972 -0.0036583182 -0.00050739705 0.00020455237 0.0033877986 0.0036816923
-0.0001836579 -0.0004879529 -0.00024387361 -2.6205253e-05 0.00019985084 0.00072046916 0.00068414595 0.00056592555
-0.0012477015 -0.0013376608 -0.0014098026 -0.0013410426 -0.0051837363 -0.004205181 0.00061013823 -0.00015366677
0.009353379 0.009118881 0.0071083778 0.0055881506 0.0010726292 0.0013545335 -0.0019995375 -0.0028906197
-0.0020874983 -0.0014856099 -0.0010608967 -0.0005746511 0.00538577 0.0035710586 -0.0045709475 -0.0034532822
0.0030589388 0.0013632436 0.0014150256 0.0012051915 -0.0061586373 -0.0047707874 0.0029370775 0.002083597
0.005715668 0.004967486 0.0023045384 0.0012189202 -0.0013040892 -0.0014191573 -0.0036167477 -0.0014852503
-0.0049526594 -0.0050243023 0.0024879156 0.001503723 0.0006805904 1.7080338e-05 -0.0039630993 -0.002838012
-0.001977466 -0.0018129826 -0.00089015084 -0.0007306649 0.009228324 0.0059297285 -0.002323831 -0.001438862
-0.0003624424 -0.00044012925 0.002406971 0.0017832031 7.069415e-06 0.0012989241 -0.00031713868 0.00037678404
9.919103e-05 -0.000120767254 -0.0070967902 -0.004555485 0.0038076346 0.0033360138 0.0008424928 0.0009318423

exp_avg_sq f4 [64, 2]
00000000: d731 e03a 924c fd3a 5907 ad39 3f1d f038
00000010: 82b1 4339 5813 eb38 e896 a23a 3114 163a
00000020: 8ed5 1939 09d6 2d39 25e1 263a 9a4a 4b39
00000030: bf36 7839 3f8a 093a 4ece 1b39 e4d5 8c38
00000040: 2af5 af39 91b6 f639 f6f3 fd39 22a9 723a
00000050: 339b 203a fdc7 f939 5b63 d439 742c aa38
00000060: f964 883a 6729 8e3a a069 7a38 d922 3d38
00000070: 8608 1b3a 9a28 363a 9730 4339 e4ec a239
00000080: 5d7e 0f3a 5cde 4e39 ec36 b039 3ea6 c538
00000090: b70c dc3a 188b 8239 f112 773a bc9e 003b
000000a0: 332c ec39 a71a ce39 8f40 e03a 9e48 3c3a
000000b0: f839 2039 8f04 e338 84de 9639 301d 5039
000000c0: 8eb9 2339 f74d a537 bb0e 7638 6cce 2038
000000d0: 6b78 b039 46ac 3739 a87b 9c38 3fa5 cc38
000000e0: b777 3839 682d a638 d30e e438 d852 2838
000000f0: 972b 8b3a eb31 363a 63e6 9739 aafa 3439
00000100: 03cd b33a 9cd3 413b 3d09 8b3a 91fb c63a
00000110: 0e4e a338 b145 0338 148d 6838 6725 af37
00000120: b27d 8e39 ab9c ce39 bd76 7738 9b2c 2139
00000130: 11da 7e3a 7e1d eb39 b6f6 773a 761f 4139
00000140: 2308 803a b80a a73a 99d4 8a39 411f 003a
00000150: e74e 963a 7695 8e3a 3f4b 083a d0bb 153a
00000160: baf3 013b 4c5a 883a c026 5e3a 62b6 2d3a
00000170: 12ff f339 4fca c939 a57f 173a 6613 b63a
00000180: c86f 243a 751a 8d3a f2b7 6f3a 58d0 473a
00000190: e95d c938 c804 1738 59df 123b bb31 c53a
000001a0: ce3d 3939 099a 223a aaed c738 4125 8539
000001b0: 883f cd3a b96d e63a 9906 2a3a 512f df38
000001c0: 0153 3c3a 4a66 f739 1db5 1e39 af96 2f39
000001d0: 0600 cd39 e28d cd38 6e7b 333a 7e4b 5f3a
000001e0: 02c0 bb38 7447 8338 4d91 d03a 884b b33a
000001f0: 5dda 6439 3d6e b039 f9ff f838 a4ef 0038
0.0017104697 0.0019325188 0.00033002606 0.00011449539 0.00018662776 0.00011209276 0.0012404593 0.00057250547
0.00014670772 0.000165783 0.00063659466 0.0001938738 0.00023671518 0.00052467355 0.00014858806 6.7155604e-05
0.00033561263 0.000470568 0.00048437685 0.000925677 0.0006126642 0.00047641984 0.00040509817 8.114512e-05
0.0010406069 0.0010846079 5.9703016e-05 4.5093566e-05 0.0005914051 0.0006948799 0.0001861475 0.00031075545
0.00054738467 0.00019728526 0.00033610256 9.424657e-05 0.0016788457 0.00024899165 0.0009425125 0.0019625863
0.0004504636 0.0003931124 0.0017109084 0.00071824517 0.00015280384 0.000108250526 0.00028776017 0.00019847299
0.00015614016 1.9705838e-05 5.866469e-05 3.8339218e-05 0.00033659054 0.00017516417 7.4616924e-05 9.7582575e-05
0.00017592205 7.9239544e-05 0.000108746484 4.0131476e-05 0.0010617849 0.00069501874 0.00028972616 0.00017259517
0.0013717714 0.0029575592 0.0010607612 0.0015181174 7.7869845e-05 3.129774e-05 5.54445e-05 2.0879042e-05
0.00027178 0.0003940811 5.8999973e-05 0.00015370773 0.00097218255 0.00044844666 0.0009459065 0.00018417634
0.000976805 0.0012744283 0.0002647981 0.00048874697 0.0011467607 0.0010878283 0.0005199201 0.0005711885
0.001982911 0.0010402887 0.0008474402 0.00066266034 0.00046538614 0.0003848844 0.00057792134 0.0013891279
0.000627276 0.0010765331 0.00091445365 0.0007622293 9.601919e-05 3.600566e-05 0.0022410958 0.0015044728
0.00017665999 0.00062027626 9.533328e-05 0.00025395493 0.0015659193 0.0017580307 0.00064859685 0.00010642282
0.00071839994 0.00047187723 0.00015135524 0.00016745435 0.00039100664 9.8015895e-05 0.00068467006 0.0008518024
8.952619e-05 6.259876e-05 0.0015912444 0.0013679126 0.00021825121 0.0003365147 0.0001187324 3.074076e-05

exp_avg f4 [64]
00000000: eec0 12bb ff25 b93a bde6 1f3b 4542 103b
00000010: 337a b33a 8c81 adba c368 17ba f911 f1b8
00000020: cf86 6abb d817 2dba ea52 26bb 2485 b639
00000030: 34c0 97b8 9785 93ba 4ade 383a 3db8 24b9
00000040: 3552 5dba 2a35 83b9 513c 93ba 815b bfba
00000050: ed5e 003b eff6 873a 3f10 4d3a fa29 2b3b
00000060: 5570 f038 5f82 5d3a e209 043b 57fe 533a
00000070: d949 16ba 6be1 cab8 4943 1fbb bfa8 d439
00000080: f04b 803b fb79 bf39 d493 883a 7e53 473a
00000090: d613 8f3a 8bba d43a f7a2 cf39 e27e ddba
000000a0: 18b0 3eba d3ee c6ba 1053 60ba afdb 3eb9
000000b0: 6bf2 1fba 91d7 00bb 6f48 7e3a a01f 243b
000000c0: 0097 49ba a09c 44bb 2931 93ba 15a8 9c3a
000000d0: 2362 4ebb e7e0 28bb 8060 043a 3a03 ecba
000000e0: 236c b53a 14bf f8ba c822 763b 7f9a 793b
000000f0: 0730 22ba 06ff c539 79ac 133b 70b4 823a
-0.0022392827 0.0014125704 0.0024399005 0.0022012156 0.0013693034 -0.001323746 -0.00057758036 -0.00011495123
-0.0035785919 -0.0006602979 -0.002537901 0.00034812943 -7.236042e-05 -0.0011255023 0.00070521666 -0.00015708893
-0.0008442731 -0.00025025877 -0.0011233186 -0.0014599414 0.001958783 0.0010373275 0.000782255 0.002611755
0.00011465015 0.0008449908 0.0020147492 0.0008086911 -0.000573305 -9.674098e-05 -0.002430158 0.00040561517
0.0039153025 0.0003652124 0.0010420033 0.0007603689 0.0010915946 0.001622991 0.00039603535 -0.0016898776
-0.0007274165 -0.0015177376 -0.0008557299 -0.0001820165 -0.0006101492 -0.0019659738 0.00097001245 0.0025043264
-0.0007690042 -0.0030000582 -0.0011229861 0.0011951948 -0.00314916 -0.0025768818 0.000504978 -0.0018006333
0.0013841431 -0.0018977844 0.0037557352 0.0038086472 -0.0006186966 0.00037764775 0.0022533222 0.0009971987

exp_avg_sq f4 [64]
00000000: af34 423b 6c16 4f39 ef69 5939 af59 e73a
00000010: 139c 2639 3fc6 9d39 f480 103a f7ae 1a39
00000020: b456 843a 3595 553a c952 b43a baf4 8539
00000030: e9ff c73a e71f cb37 2562 243a fd6a 8f39
00000040: 0946 9f39 36e9 be39 60e7 fe39 cbaf 203b
00000050: 8761 5f3a c2ba d03a 68a1 de38 4435 5a39
00000060: 674c 1038 119c b938 bcca c439 84a6 ab38
00000070: 7bc7 1539 5f2e c038 1c0f 223a 8047 dc38
00000080: c5e2 f43a adf2 003b 9cfb 0d38 5a4d c937
00000090: 78ee 363a 5204 6e39 05ce 833a 230c fc39
000000a0: d02f 873a b4d6 c739 3d6b a43a 85f9 2a3a
000000b0: 6dbc b33a a002 8c3a 6f55 003a 24d1 be3a
000000c0: ffc8 8e3a e365 953a 9db5 9b38 0608 d23a
000000d0: 9b1c 283a c642 b539 3431 0c3b 9622 2739
000000e0: 5504 c839 3551 3a39 cbff cc39 d96e b83a
000000f0: 54cb 8138 11cc ce3a 6835 a439 cac0 7238
0.0029633453 0.00019749411 0.00020734196 0.0017650629 0.00015889136 0.00030093078 0.00055123796 0.00014751764
0.001009664 0.0008147539 0.0013757582 0.00025550072 0.0015258762 2.4214341e-05 0.0006270728 0.00027354798
0.00030379024 0.0003641338 0.00048619043 0.0024518843 0.00085213076 0.0015924799 0.00010615849 0.00020809943
3.440343e-05 8.850557e-05 0.00037535082 8.184931e-05 0.0001428406 9.163911e-05 0.0006182061 0.000105037354
0.0018683305 0.0019675896 3.385135e-05 2.3997087e-05 0.00069782836 0.00022699058 0.0010055905 0.00048074228
0.0010313932 0.00038116204 0.0012544167 0.00065221667 0.0013712771 0.0010681935 0.0004895543 0.0014558178
0.0010893642 0.0011398162 7.424804e-05 0.001602412 0.0006412954 0.0003457276 0.0021391632 0.00015939245
0.000381502 0.00017768594 0.00039100493 0.0014071121 6.189072e-05 0.0015777369 0.00031320308 5.7876845e-05

exp_avg f4 [64, 128]
00000000: 005b 82ba 5693 b73a b5dd 0d3a 896f 96ba
00000010: 20d0 31b8 3eea 803a 5b25 3b3b 7b47 5b3a
00000020: 0cdd f2ba 0efc fc3a 1797 e0ba e806 a9b9
00000030: d33a 3c39 3c68 57ba 998f d83a 23d8 0e3a
00000040: e93b 983a cfd6 d73a 66e2 9739 670c e9ba
00000050: ac31 0d3a a334 223a d9c9 8a3a f5f8 f4ba
00000060: 203e 4f3a 6b80 cdba ac31 76ba 2c70 62ba
00000070: daba 1639 486b aa3a 8e20 d4ba 9298 403a
00000080: f281 a4ba b5d8 05ba 73b5 e9ba 4f62 793a
00000090: 14e6 feba 49de 26bb 2ce9 313a b66f 473a
000000a0: 4b56 553a 8ca8 22ba 8349 38b9 bea4 8d3a
000000b0: 9348 5738 7562 b6ba 3f85 00bb 494e 3e3b
000000c0: ad53 c3ba f43c e43a a77b c9ba c407 813a
000000d0: 76d4 cd3a f887 003b d830 8338 44c8 b339
000000e0: 0b01 b339 2b23 50ba ebbe e239 ded8 7bba
000000f0: 1f39 7aba ad05 fe39 14a6 343b 3e0a 9e3a
00000100: c05c 84ba a2e6 7e3a fa21 b338 3eb7 97ba
00000110: 6279 2fb9 b60d 283a de61 0e3b 20f7 d739
00000120: 9eb0 bfba 5313 ac3a 247e b8ba 3ea5 15ba
00000130: 16cc 8d38 d018 beb8 82b9 ad3a 5ea7 70b8
00000140: ee35 573a 15a6 9f3a 1d3f 6bb9 0f0a b0ba
00000150: 7310 1e3a f904 4b3a 7f0d 263a 3684 c3ba
00000160: 4e35 c239 64e4 98ba a1b7 16ba b995 c4b9
00000170: 8ba5 e839 0f7d 5b3a 16f6 9eba 44b2 5939
00000180: c5c1 4cba 1057 fab9 fc41 bfba 133d e739
00000190: 1ccf cfba 48ce e0ba a09b 653a e2e6 5e3a
000001a0: 4684 0c39 ac7e 7138 a44f 56b8 4c5b 733a
000001b0: 9cac ac39 acc1 90ba 63e5 caba 960c 0e3b
000001c0: e344 89ba e3c5 9c3a 80d6 83ba f13c 293a
000001d0: 4827 703a 7726 ab3a 827e 84b8 4a52 cfb8
000001e0: 065e 82b9 60dc c5b8 5b08 fc38 436e 40ba
000001f0: 9fba 2fba cfdf b538 bede 083b d224 833a
00000200: d15a fbba 8055 6d3b f43f 9a3a 79d4 3ebb
00000210: ae26 fd39 f091 013b 7b72 a73b 9d0a dd3a
00000220: 1989 7cbb 4bd8 7c3b 1c86 7cbb cee5 c2ba
00000230: d191 09ba 7d8b efba f069 173b 490c 6e3a
00000240: 1238 593b 4d39 803b 84d7 45b9 e43e 6dbb
00000250: a2bd e93a eec5 163b db94 4c3b a4fb 39bb
00000260: dfd6 df3a 31bf 7abb bbd9 1fbb 5228 4cba
00000270: 5c16 7bb8 bfda 5e3b 3a21 48bb 135b df3a
00000280: d1a6 0abb b6d3 6cba 0a5d 2bbb dd06 3e3b
00000290: 34d1 7fbb 929a a2bb b739 0f3b eb1a ba3a
000002a0: 8f2a 0f3b ba2d 6eba 9ce6 97ba 90fc 363b
000002b0: 3513 11ba 9a70 5abb 9071 45bb 15a6 aa3b
000002c0: 534d 37bb c2f5 813b 91e1 76bb 0088 3b3b
000002d0: aac7 2d3b ff9b 843b c300 20ba 75e8 8639
000002e0: 97b7 7d38 7468 c9ba 3ba5 8a3a 6b5f e4ba
000002f0: 333a 8cba c31f b639 75ca 9d3b d22a e73a
00000300: 12bd fdba 97ad 4f3b 2210 cd39 6dae 3fbb
00000310: ee38 8c39 5a98 c03a c36a 863b 2b5c 833a
00000320: 1416 5cbb 2463 483b bb65 64bb 98f4 fcba
00000330: 6226 3dba 27fc 21ba 5bde 0b3b 4c94 afb8
00000340: c6dd 393b ed58 633b eb9e 91ba 000e 49bb
00000350: 1848 f83a 0cdc 273b a4ff 193b 42e6 26bb
00000360: b997 843a 8015 60bb faf4 edba 5211 a7b8
00000370: c74a ca39 c733 313b 0579 28bb 138f 523a
00000380: f3c6 c7ba fb19 5fba 8993 1dbb db26 f53a
00000390: 9ec6 61bb c75a 7cbb aff6 223b 198d c83a
000003a0: fc63 7e3a 3fd7 3c39 e90b 75ba 513a 283b
000003b0: 04dd eab8 d421 41bb d16f 2fbb e12e 873b
000003c0: f2b5 13bb 3a15 583b 6cb9 51bb 8a70 133b
000003d0: 7f4b f63a 9fd5 503b 6d65 5bba 7578 05ba
000003e0: 3cbd 78ba 4045 d4b9 98c1 043a 5208 bcba
000003f0: 313b 43ba 81ba b2b9 b6fb 7e3b 5a72 ce3a
-0.0009945333 0.0014005702 0.000541176 -0.0011477332 -4.239392e-05 0.0009835435 0.00285562 0.00083648384
-0.0018529012 0.0019301192 -0.0017134872 -0.00032239337 0.00017950991 -0.0008217131 0.0016522288 0.0005449077
0.0011614534 0.0016467216 0.00028969644 -0.0017780185 0.0005386125 0.0006187653 0.001058872 -0.0018689918
0.00079056807 -0.001567853 -0.0009391557 -0.0008637931 0.00014374722 0.0013001943 -0.0016184018 0.00073469535
-0.0012550934 -0.0005105839 -0.0017830565 0.00095132453 -0.0019447231 -0.0025462082 0.00067867595 0.0007607894
0.0008138164 -0.0006204925 -0.00017574993 0.0010806543 5.1327585e-05 -0.001391484 -0.001961067 0.002903836
-0.0014902257 0.0017413185 -0.0015371934 0.0009844233 0.0015703577 0.0019612294 6.2556646e-05 0.0003429075
0.00034142318 -0.0007939811 0.00043248324 -0.0009607206 -0.0009545255 0.00048450884 0.002756481 0.0012057496
-0.0010098442 0.0009723698 8.541714e-05 -0.0011574996 -0.00016734519 0.00064107345 0.0021725814 0.00041192118
-0.001462478 0.0013128318 -0.0014075679 -0.0005708522 6.761418e-05 -9.064528e-05 0.0013254138 -5.7376332e-05
0.0008209635 0.0012180234 -0.00022434858 -0.0013430732 0.0006029673 0.00077445764 0.00063344085 -0.0014916721
0.0003704228 -0.0011664745 -0.0005749409 -0.00037495585 0.00044373827 0.0008372822 -0.0012127783 0.00020761142
-0.00078108563 -0.00047748582 -0.0014591808 0.00044105257 -0.001585457 -0.001715132 0.00087588467 0.0008503032
0.00013400716 5.757685e-05 -5.1095747e-05 0.00092833186 0.00032935 -0.0011044047 -0.001547974 0.0021674982
-0.00104728 0.001196083 -0.0010058433 0.00064559194 0.0009161127 0.0013057728 -6.3178144e-05 -9.885857e-05
-0.00024865585 -9.43474e-05 0.00012017853 -0.0007340649 -0.0006703529 8.67244e-05 0.0020884718 0.001000548
-0.0019176846 0.0036214292 0.0011768327 -0.0029118343 0.0004828474 0.0019770823 0.0051100827 0.0016864125
-0.0038533865 0.003858107 -0.0038532084 -0.0014869513 -0.00052478636 -0.0018275824 0.0023103915 0.000908081
0.0033144993 0.003913081 -0.0001886767 -0.0036200816 0.0017833004 0.002300616 0.0031216654 -0.002837875
0.0017077586 -0.0038260932 -0.0024391252 -0.00077879906 -5.9863887e-05 0.0034004895 -0.0030537383 0.0017040692
-0.002115656 -0.0009034233 -0.0026147985 0.002899579 -0.0039034607 -0.004962274 0.002185447 0.0014198696
0.0021845435 -0.0009085793 -0.0011589113 0.0027921535 -0.0005534173 -0.0033331276 -0.0030127503 0.005207787
-0.0027969673 0.003966064 -0.003767107 0.0028614998 0.0026516714 0.0040469165 -0.0006103629 0.00025731666
6.0490882e-05 -0.0015366212 0.0010577807 -0.0017423456 -0.0010698497 0.0003473741 0.0048153945 0.0017636663
-0.0019358716 0.003168916 0.00039112667 -0.0029248253 0.00026745297 0.0014693842 0.0041020825 0.0010021975
-0.0033582496 0.003057667 -0.0034850675 -0.0019298969 -0.00072154973 -0.0006179236 0.002134225 -8.372273e-05
0.0028360947 0.0034690455 -0.0011109983 -0.003067851 0.0018942384 0.0025613336 0.002349832 -0.0025466834
0.0010116018 -0.0034192502 -0.0018154674 -7.966407e-05 0.00038584156 0.0027038918 -0.00257069 0.0008032184
-0.0015241787 -0.00085106463 -0.0024044237 0.0018703596 -0.003445066 -0.0038506256 0.0024866273 0.001530084
0.000970423 0.00018009263 -0.0009347783 0.0025669525 -0.00011199157 -0.0029469626 -0.0026769529 0.0041254614
-0.0022538868 0.0032971636 -0.003200139 0.0022497498 0.001879081 0.003186561 -0.00083693006 -0.0005091497
-0.00094886473 -0.00040487386 0.0005064248 -0.0014345741 -0.000744748 -0.00034089762 0.0038907356 0.0015750632

exp_avg_sq f4 [64, 128]
00000000: fc31 5738 662b 5b39 047b 3538 6622 e538
00000010: 4013 e438 da1b de37 5822 0c39 c4bd 0c38
00000020: 8db0 ca38 8109 bd38 b235 1139 a0d8 4339
00000030: 0cd3 7439 bf30 f438 2d1f 1439 b2f5 e838
00000040: 3b0b 5f39 a31f 5a39 06ff 3d39 297a a238
00000050: c175 1439 beb5 8539 3312 3e39 0c21 0839
00000060: aa01 1438 4e62 5e39 b0fb bb38 807c 4639
00000070: 1d13 a538 528d 2a39 1a94 6138 937d 6538
00000080: 6a1b 7338 ef79 7b37 29f0 1b39 bc3d 1d39
00000090: ad1e bf38 81e1 2339 8060 2339 706e 6238
000000a0: a24c aa38 49ae 3139 c23e 4a39 4e66 f638
000000b0: 4542 0739 b238 fa38 a9d0 0739 0ff0 0c39
000000c0: 299e 4d38 e358 2939 7447 5339 e3db 3739
000000d0: 45fd bb38 0785 e638 92d1 2839 8c9f be38
000000e0: 2e79 3239 5301 0839 05bf dd37 ca0f d137
000000f0: 4a93 0e39 8406 f438 6da6 0939 71ff e338
00000100: b5f1 5238 101c 4d39 b90d 2237 338f e338
00000110: e6a3 eb38 e930 b837 125d e038 fa08 7537
00000120: 144e d638 78ca ae38 e41e 1639 cda5 2139
00000130: 67a9 6539 c607 a837 e94a bb38 5f49 3234
00000140: 5b45 5e39 ab72 4e39 0e9c 9c38 f0f7 a938
00000150: e837 0e39 2fcd 7b39 66f3 4339 f471 b838
00000160: c13d bc37 edf3 5239 5fb4 d138 40e9 4238
00000170: 779a 8238 7465 2b39 3304 5338 dabd f137
00000180: 2fb0 a137 8e96 8237 9be7 e038 6125 2739
00000190: f44d cc38 070e 1039 9547 0a39 9f6a 4738
000001a0: 895b 7738 2292 5735 601c 5339 3a4a 0439
000001b0: 5bbc 0939 a270 0639 2739 ae38 4287 dc38
000001c0: 64d8 2538 4ecc 2139 953e 3f39 a756 4339
000001d0: 7127 dc37 d7d9 d738 0c25 1a39 ffbf 9b37
000001e0: 0637 1738 f1be ce36 0939 9237 91a2 ba37
000001f0: fbf3 b438 e912 4a38 dddf c438 9938 c538
00000200: e3d5 5c39 0b24 363a 7071 2a39 a4f0 cc39
00000210: 7cfe a839 c202 cf38 ff8e 0a3a 4ff5 fc38
00000220: 39d3 cf39 242e b839 a26c 083a 333e 1a3a
00000230: c0a6 363a 5af2 f339 8d97 f539 9945 e339
00000240: 5a05 2a3a 045a 3f3a 5e21 1f3a 1db4 a639
00000250: 3f13 e239 1353 4f3a aa61 0b3a 1627 ea39
00000260: afa8 fc38 61e6 3f3a b9d7 8839 fe40 243a
00000270: 0fb7 8e39 b2c7 063a e2b7 6c39 558f 4b39
00000280: 43db 5b39 58af 7838 c85b 023a ff65 e339
00000290: c013 ce39 d00e 233a e15f 063a 23ad 5b39
000002a0: 77bc 9739 2079 2a3a 6bb7 113a 25f9 c339
000002b0: a42b d039 9331 d539 aca0 e939 d808 0b3a
000002c0: 7953 4c39 34c8 163a 424e 353a f5fc 033a
000002d0: cb22 a439 0122 db39 5014 fd39 a980 aa39
000002e0: 92ce 1d3a 4e4e 063a ab45 b538 8a20 d838
000002f0: 06ff e339 c2c0 ca39 943c 023a dc66 c139
00000300: 06df 5839 92ae 273a 91b9 e837 018a cb39
00000310: 612e af39 fb05 b938 a88d f339 f5c5 5d38
00000320: edda d539 3365 ac39 2a66 0a3a 0af9 ef39
00000330: 53a8 283a fcbe 6438 e2cc af39 a8ce 3c35
00000340: ce29 2c3a d3f7 313a fa45 5f39 1c98 ac39
00000350: 8c2c d539 66c7 3d3a 029a 123a 5faf b639
00000360: 19ad 9838 d57a 333a 7715 9f39 63e3 0e39
00000370: 82c1 4c39 6e60 073a 9787 6939 d3a8 af38
00000380: baf8 bb38 ccb8 8138 ffc5 d139 fd5c f339
00000390: aa53 d539 1ccc 0c3a d4a4 dc39 8194 4139
000003a0: 8a19 2b39 bab6 2136 a320 1a3a dae1 d639
000003b0: 7162 cb39 38cd e639 554f b039 67c4 ef39
000003c0: a8ed 3539 c5b1 0c3a 6037 1f3a f090 113a
000003d0: 9543 f238 ad2e cb39 60f7 e039 f9e9 5e38
000003e0: 0215 dc38 2828 9137 21f3 5338 99bc ce38
000003f0: 7391 9039 ddd6 1039 88d5 d839 d287 ad39
5.1306546e-05 0.00020901635 4.326833e-05 0.00010925978 0.00010875473 2.6477432e-05 0.00013364234 3.3555334e-05
9.664996e-05 9.0139925e-05 0.0001384828 0.00018677348 0.00023348274 0.00011643906 0.00014125994 0.000111083864
0.00021271121 0.00020801886 0.00018119448 7.747516e-05 0.00014158247 0.00025503145 0.00018126592 0.00012982282
3.52875e-05 0.00021208191 8.963735e-05 0.00018929131 7.871373e-05 0.0001626511 5.378211e-05 5.4714805e-05
5.7961246e-05 1.4989156e-05 0.00014871419 0.00014995685 9.1133035e-05 0.00015628898 0.0001558084 5.398545e-05
8.120506e-05 0.00016944962 0.000192876 0.0001174925 0.0001289929 0.00011931489 0.00012952335 0.00013440869
4.9023107e-05 0.00016150209 0.00020149146 0.00017534154 8.96403e-05 0.00010992033 0.000160998 9.089624e-05
0.00017020546 0.00012970464 2.6434203e-05 2.4922094e-05 0.00013597045 0.0001163604 0.00013127337 0.00010871783
5.029301e-05 0.00019560778 9.6591475e-06 0.000108508764 0.00011236202 2.1957285e-05 0.00010698488 1.4605228e-05
0.000102188584 8.334679e-05 0.00014316622 0.00015415922 0.00021902249 2.003078e-05 8.930808e-05 1.6604234e-07
0.00021197407 0.00019688408 7.467727e-05 8.10473e-05 0.00013563002 0.00024013662 0.00018687322 8.795029e-05
2.2440103e-05 0.0002011803 9.999493e-05 4.6470435e-05 6.2276544e-05 0.00016345625 5.031023e-05 2.8817845e-05
1.9274737e-05 1.5567315e-05 0.00010724292 0.00015940286 9.741998e-05 0.00013738136 0.00013187372 4.7544596e-05
5.8974638e-05 8.030639e-07 0.00020133099 0.00012616153 0.00013135506 0.00012821195 8.307612e-05 0.00010515611
3.9540595e-05 0.00015430266 0.00018238493 0.0001862893 2.624441e-05 0.00010292575 0.00014700386 1.8566845e-05
3.605245e-05 6.161507e-06 1.7431115e-05 2.2248629e-05 8.628514e-05 4.8178164e-05 9.387706e-05 9.404234e-05
0.00021060514 0.000694812 0.00016254722 0.00039089203 0.00032233063 9.871043e-05 0.00052855903 0.00012061989
0.0003963949 0.00035129592 0.0005204176 0.0005883902 0.0006967597 0.00046529138 0.00046842956 0.00043348668
0.0006485783 0.0007299485 0.0006070341 0.00031796182 0.0004312042 0.00079088024 0.0005316982 0.0004466108
0.00012047716 0.0007320401 0.00026100667 0.0006265788 0.0002722074 0.0005141451 0.00022575216 0.00019412984
0.00020967149 5.929111e-05 0.0004972783 0.00043372807 0.00039306097 0.0006220164 0.00051259814 0.00020949966
0.00028941382 0.00065030344 0.00055586424 0.00037378925 0.00039705366 0.00040663462 0.00044560933 0.0005303747
0.00019486052 0.00057518785 0.00069162634 0.0005034947 0.0003130644 0.0004179627 0.00048271054 0.00032520786
0.0006019856 0.00051233626 8.643729e-05 0.000103057435 0.0004348682 0.00038672058 0.0004968133 0.00036888465
0.00020682448 0.00063965574 2.7742966e-05 0.00038821998 0.00033413156 8.8226014e-05 0.00046454114 5.2874868e-05
0.00040789638 0.00032881796 0.0005279506 0.0004577118 0.00064337737 5.4537304e-05 0.0003353125 7.033618e-07
0.00065675087 0.0006788943 0.00021293006 0.00032919727 0.00040659716 0.00072394905 0.0005592407 0.00034844407
7.280167e-05 0.00068466115 0.00030342836 0.00013626883 0.00019527043 0.00051642105 0.00022271123 8.376096e-05
8.963184e-05 6.1856204e-05 0.00040011105 0.00046417853 0.0004068886 0.0005370991 0.00042084476 0.00018461236
0.00016317345 2.409723e-06 0.0005879497 0.00040985533 0.00038792522 0.00044021918 0.00033628443 0.00045731963
0.00017350039 0.0005367066 0.000607362 0.00055529084 0.00011552047 0.00038753953 0.00042908918 5.314683e-05
0.000104943305 1.7304046e-05 5.053275e-05 9.8579745e-05 0.00027574188 0.00013812953 0.00041357824 0.00033098325

exp_avg f4 [64]
00000000: edcf 30b9 0317 f3ba 316c f23a 05c3 983a
00000010: 5159 c73a f3f0 343a 7a1f eb3a af55 993a
00000020: 4ffa b53a 8e66 b5ba 8c6d b439 da6e d93a
00000030: b1f4 933a 98eb 5638 9bc7 183b 4188 adba
00000040: 2454 a53a d0ce 3c3b 467e 3eb9 e0f4 da39
00000050: 22e7 0e3b 320c d9ba ef46 bb3a 78f7 883a
00000060: b278 ba3a 5e9d 603a 9262 963a f4ca 2a3a
00000070: c57a 243a 6aed baba ccd7 b8ba 5cbb eb3a
00000080: a907 113b 3e69 8439 2b73 9b3a 877a 17ba
00000090: 16e7 c83a b4c9 e0b9 1541 9d3a 6b10 87ba
000000a0: 7eaa d3ba 1163 b43a ecd9 3eba 8d4f 123b
000000b0: 8263 0e39 80cf a2b9 c501 f93a 0ad9 de3a
000000c0: 073d 16bb b0c6 5e3a 5c63 5c3a 5a40 74ba
000000d0: b785 7939 cb19 19bb 1f44 0dba 05e4 e6ba
000000e0: ad08 103b e7a4 dcba 3d84 103b 7f70 e8ba
000000f0: 46af a3ba 5b26 553a 978c 963a 1fd2 a03a
-0.00016862126 -0.0018546287 0.0018495378 0.00116548 0.0015209113 0.00069023593 0.0017938458 0.0011698509
0.0013883802 -0.0013839768 0.00034413894 0.0016588822 0.0011288134 5.124099e-05 0.0023312334 -0.0013239459
0.0012613577 0.0028809793 -0.00018166853 0.00041762646 0.0021805246 -0.0016559421 0.0014288108 0.0010449728
0.0014226644 0.00085683714 0.0011473468 0.0006515228 0.00062743976 -0.0014261429 -0.0014102398 0.0017984915
0.002212981 0.00025255413 0.0011859884 -0.0005778451 0.0015327658 -0.0004287489 0.0011997545 -0.0010304576
-0.0016148833 0.0013762434 -0.00072803977 0.0022325248 0.00013579245 -0.00031053647 0.001899772 0.0017001939
-0.0022924559 0.00084982347 0.00084071397 -0.00093174505 0.00023796303 -0.002336132 -0.0005388874 -0.0017615563
0.0021977827 -0.0016833813 0.0022051476 -0.0017733722 -0.0012488149 0.00081310206 0.0011485991 0.0012269652

exp_avg_sq f4 [64]
00000000: 9f09 3b3a 7ad1 083b 499d ce38 585d 903a
00000010: 0d5d aa38 cf7d 4a3b d07a c83a 0a0c b539
00000020: daa4 7738 8b4c e83a 85bd 263a 2605 0a39
00000030: 2fe0 8b3a 000e 9d38 3c1a ca3a 051c 1539
00000040: 21dd 053a ad27 8a3a c115 553b 806c 4a3a
00000050: 0cba a939 6719 5139 dbae 1b39 7e7c 8d38
00000060: 2c16 0739 b85b dc39 ccd4 273a 25fc 4b39
00000070: 10b8 da39 dac5 7e39 cfb5 fa38 1182 193a
00000080: 2e8a 2f3a 2729 cd39 9c3a a139 198a 2b37
00000090: 9004 363b 4c85 413a 144c 033a 8ac8 b73a
000000a0: 9bec 1a3a b6d4 0f39 1a5a 7638 4181 cf3a
000000b0: 4aff e439 1b61 e33a ef7b f739 9449 543a
000000c0: c23c 1b3b 9058 a139 6631 673a 736e ba39
000000d0: e044 993a 2b49 8f3a b0b2 f73a 9762 a83a
000000e0: 8a47 1b39 2f9b af37 3117 ca38 be58 7c38
000000f0: d6f5 0b3a 15b0 8a3b 454a f13a 9fc1 1a38
0.00071349175 0.002087681 9.852142e-05 0.0011014147 8.123564e-05 0.0030897742 0.001529539 0.0003453198
5.904292e-05 0.0017723007 0.0006360638 0.00013162624 0.001067167 7.488951e-05 0.0015419195 0.00014220185
0.0005106498 0.0010540389 0.0032514187 0.0007721856 0.00032372808 0.00019941256 0.0001484709 6.7465924e-05
0.00012882863 0.00042030006 0.00064022536 0.0001945352 0.00041717337 0.00024297033 0.000119547934 0.0005855868
0.00066963106 0.00039131308 0.0003075198 1.0224548e-05 0.0027773716 0.00073822285 0.000500859 0.0014021557
0.0005909891 0.00013716784 5.8734884e-05 0.0015831367 0.00043677754 0.0017347665 0.0004720385 0.0008098122
0.0023687338 0.00030774297 0.00088193116 0.00035558976 0.00116935 0.001093184 0.0018897858 0.0012846765
0.00014808602 2.0933889e-05 9.63643e-05 6.016413e-05 0.00053390616 0.0042324164 0.0018408975 3.6896785e-05

exp_avg f4 [2, 64]
00000000: 780c 073c dddb c23c 9fbc b23c 3993 59bd
00000010: d65c 8bbc 5067 7d3c a40d 723d 8c9f c63c
00000020: dcbc 68bc eadb 5e3d be1e 21bd ea14 74bb
00000030: d6bf e83c 6eef edbb da39 063d ccd6 983c
00000040: df0f d13c 51d4 aa3c 7fdf 14bb 9557 83bd
00000050: 6c79 b63c d995 e13c 87e7 193d b3fd a3bc
00000060: 158b 473c 6175 01bd 0275 94bc c0f7 a2bc
00000070: c752 a4bc af81 543d 62da bbbc 8e4e 483a
00000080: c213 4ebc a0d6 703b 730f 00bd b063 f5bb
00000090: ae32 a5bc c8db e5bb b12b c03c 1c01 f83c
000000a0: 0244 543d 8617 94bc 76b8 583c d739 4c3c
000000b0: d5fa 96bc e31f 95bc 4338 7cbc 1a94 143d
000000c0: b93b 79bc 16da 053c 4c59 8abc ae68 303d
000000d0: b112 073d b7aa e43c 5087 6a3c 2d7e 843c
000000e0: 7f7c 5c3c b450 31bd e700 a93c 3576 c838
000000f0: 4245 67bb 5acb 313c 955e 603d 12ef 163d
00000100: 4930 bbbb 70e1 96bc 7dba 893b 7ebb 403c
00000110: 4836 33bc 2ece 1c3b 77f5 ae3a 4394 f13b
00000120: e019 c03c b708 ebbb cd4b 593c 4db3 4a3c
00000130: 052c 3b3c 5eb3 043c d1ed 993b a75a b33b
00000140: 716a 2ebc 5cee 4dbc 1886 203c d301 263c
00000150: daca 31bc 44f2 5abc 1d7b 63bc 2a86 1dbb
00000160: a788 1dba 0fec 223c 78f0 3fbb b315 e0bb
00000170: ff63 c43b 4ec4 81bc ceeb 443c b8c6 d6bb
00000180: e398 2c3b 941e dfb8 2e83 8dbc 0b69 1dbc
00000190: 21c0 87b9 60d2 713b d4fc 09bc b255 38ba
000001a0: a850 27bc 9ad3 53bc 8035 a63c 4840 29bc
000001b0: 57f4 bd3b 8fe8 223c e073 77bc 07cc 8dbb
000001c0: 1e95 b43b 2f89 11bc e5d1 f13b 8a3c 59bc
000001d0: 55ed 14bb 736b c4bb 2638 5e3b f0c0 893b
000001e0: 8262 023c 232d 86bb 58e8 8bb9 4886 1d3c
000001f0: edc9 a6bc 02ab 453c 67a5 8739 9f4b d03b
0.008242719 0.02378648 0.021818457 -0.053118918 -0.017012041 0.015466526 0.05909504 0.024246
-0.014205184 0.054408945 -0.03933596 -0.003724391 0.028411787 -0.0072612083 0.032770015 0.01865711
0.025520263 0.020853193 -0.0022716222 -0.06413189 0.022274695 0.027537273 0.037574317 -0.020018434
0.012179156 -0.031606082 -0.0181222 -0.019893527 -0.020059003 0.05188149 -0.022931281 0.00076411
-0.012577953 0.003674902 -0.031264734 -0.0074886903 -0.020165768 -0.0070147254 0.023458334 0.030273966
0.05182267 -0.018077623 0.013227573 0.012464962 -0.018430153 -0.018203681 -0.015394273 0.036274053
-0.015211993 0.0081696715 -0.016888283 0.04306858 0.03297681 0.027913434 0.014314488 0.016173447
0.013457417 -0.043289855 0.020630313 9.558761e-05 -0.0035289084 0.010851705 0.0547777 0.03684909
-0.005712543 -0.018418044 0.0042031393 0.011763452 -0.010938235 0.0023926604 0.0013348301 0.0073724105
0.023449838 -0.0071726697 0.013262701 0.01237185 0.011424069 0.008099405 0.0046975394 0.005473453
-0.010645495 -0.012569036 0.009797595 0.010132271 -0.010851586 -0.013363425 -0.013884333 -0.0024036267
-0.00060094375 0.009943976 -0.0029287618 -0.0068385242 0.005993366 -0.015840676 0.012019111 -0.006554451
0.0026336245 -0.00010639164 -0.017274465 -0.009607564 -0.00025892354 0.0036899075 -0.008422095 -0.00070318126
-0.010212101 -0.012928868 0.020289183 -0.010330267 0.00579695 0.009943142 -0.01510331 -0.0043273005
0.00551094 -0.008882805 0.0073797577 -0.013259063 -0.0022724469 -0.0059942543 0.0033907979 0.004203908
0.007958056 -0.004094736 -0.00026685256 0.009614535 -0.020359958 0.012064697 0.0002587244 0.006356671

exp_avg_sq f4 [2, 64]
00000000: 34fe d83b 0e98 f73d dbe2 e23d 03cf 8a3d
00000010: 37d4 e63d 5f45 a03c e612 033e 3d39 bb3d
00000020: 8ea0 a73e 2996 a53d c32b b13d 4684 dc3d
00000030: 3653 283e 4af6 0c3d 0d77 723d 71f3 8e3d
00000040: ecbc 563d 6a8f 9a3d b54f 743d 8078 0a3e
00000050: be98 9a3d 0f69 bd3d b66e a33d 738f bc3c
00000060: 6153 a83c 42c3 593d 08bd 9c3c 7a85 333d
00000070: db95 273d 00a1 c63d 0bed 473e 918b ad3c
00000080: 8711 083c 8b43 5f3d e424 1e3e d40d cf3d
00000090: 1d9c 2a3d c0bf ae3d 9ca3 5e3d 2628 113d
000000a0: a498 963d 4b57 123e 42e0 8f3e 6a7c 683d
000000b0: 85d8 da3c 9bfc a93d bf6e 993d 7325 0e3e
000000c0: 6922 6a3c 006f 203d 48dc 483d 0887 a43d
000000d0: 8619 413d c2ef 143d a83b f03c 8f57 013d
000000e0: 915c ba3d a42e bb3e 6fb2 bb3c 18af 343e
000000f0: 24b3 373e bbc1 a73d 9a5f 9d3d 8434 c73d
00000100: b40d 363a 42d4 093c 0c6b c53b 9610 ef3b
00000110: 0881 f73b 216c 7b3a 37b9 d93b 3631 673b
00000120: 9d8d 473c a06f b03b 4175 b93b 2348 933b
00000130: 7abc eb3b b2a1 ed3b 4413 613b 17c6 363b
00000140: 030e 673b 0920 a83b 7c52 0b3b 5a17 e73b
00000150: 8c0e b23b dd64 013c bd15 443c 2e68 043b
00000160: 260d ea3a 7085 853b 9806 833a cf04 f43a
00000170: aec6 a43b 78bf 383c 382e e03b 9611 373b
00000180: a7d1 f439 ec6c 4f3b 1266 a13c eaeb 833b
00000190: 41fd 2e3b ca82 c23b 6fb3 2e3b 6d9a aa3a
000001a0: ba29 153c 0287 c23b 87cc 2c3c ef22 5d3b
000001b0: 53fe 503b eb41 1a3b b4d7 343c 9166 233c
000001c0: c9c9 ba3a 2119 cc3a 1a2e 013b e90a 213c
000001d0: 4f1a 5c3b 3224 e73a f398 b13a 7caf 903a
000001e0: 8d16 5d3b 7c98 963c 918d eb3a b7d6 e53b
000001f0: d19f 3e3c e9cb 6a3b d46e 863b 4598 9f3b
0.0066221002 0.12089549 0.110784255 0.067777656 0.112709455 0.019564329 0.12800178 0.09141777
0.3273968 0.080852814 0.08650925 0.10767417 0.16437992 0.034414567 0.059195567 0.069800265
0.052426264 0.07546885 0.059646327 0.1352253 0.075486645 0.09248554 0.07980101 0.02301762
0.02054757 0.053164728 0.019133106 0.043828465 0.040914398 0.09698677 0.19524018 0.021184715
0.00830496 0.054507773 0.1544376 0.101100594 0.041652787 0.08532667 0.05435525 0.03543868
0.07353333 0.14291112 0.28100783 0.056759275 0.026714573 0.08300134 0.07491826 0.13881473
0.014290431 0.039168358 0.0490382 0.08033568 0.04714348 0.036361463 0.029325321 0.031577643
0.09099687 0.3655902 0.022912232 0.17644918 0.1793943 0.08191248 0.0768425 0.097268134
0.0006944791 0.008412423 0.006024724 0.0072956784 0.0075532235 0.00095910026 0.006644394 0.0035277135
0.012179759 0.0053844005 0.0056597297 0.0044946834 0.007194099 0.0072519416 0.0034343759 0.0027889067
0.0035256154 0.005130772 0.0021258881 0.0070523443 0.005433863 0.007897583 0.011968073 0.0020203697
0.0017856702 0.004074745 0.0009996472 0.0018617156 0.0050285673 0.011276118 0.006841447 0.0027934066
0.0004669551 0.0031650616 0.019701991 0.004025926 0.0026701244 0.0059360014 0.0026657244 0.0013015993
0.009104187 0.0059365043 0.01054681 0.0033742746 0.003188987 0.0023537825 0.011037756 0.009973184
0.001425081 0.0015571454 0.0019711317 0.009829261 0.0033585017 0.0017634688 0.0013549611 0.0011038627
0.0033735365 0.018383257 0.0017971267 0.0070141214 0.011634783 0.0035827106 0.004102567 0.004870447

exp_avg f4 [2]
00000000: b4d9 22bb b3e0 a13c
-0.0024849 0.019760465

exp_avg_sq f4 [2]
00000000: f835 853e d506 8b3c
0.26017737 0.016971031

exp_avg f4 [2, 1]
00000000: a97d 9a3b 3ba5 bb3c
0.004714687 0.022905936

exp_avg_sq f4 [2, 1]
00000000: 60c3 cf3a 9328 3b3b
0.0015851073 0.002855812
