results/energy/checkpoints/A02_H064_L02_D01_Tanh_W4096_P010000_V1.00e+02_S5.00e-01_Adam_PT_False_device_cuda_dtype_float32_chkp.pt (torch, 168019 bytes, 23 tensors)

layers.0.fc.weight f4 [64, 2]
0	0xbd43fac0	-0.047846556
1	0x3ed1f8d5	0.41010156
2	0xbf10ea87	-0.5660786
3	0xbeeec63c	-0.46635616
4	0xbeb56bca	-0.354338
5	0x3e81767b	0.25285706
6	0xbd048074	-0.032349065
7	0x3f02e60f	0.5113229
8	0xbd107dc9	-0.035276208
9	0x3e2ec231	0.17066266
10	0xbe9896b2	-0.2980247
11	0xbc3caae9	-0.0115153575
12	0xbf341a48	-0.703526
13	0xbee34861	-0.44391158
14	0xbf054677	-0.52060646
15	0x3e63fed3	0.22265176
16	0x3e8925c2	0.2678662
17	0x3ee7cdf3	0.45274314
18	0xbefb8305	-0.49123397
19	0xbe3dce7b	-0.18535797
20	0x3e82b9ee	0.25532478
21	0x3f0addd8	0.54244757
22	0xbe438f52	-0.19097641
23	0x3f043000	0.5163574
24	0xbd2ef123	-0.042710435
25	0x3d711f7e	0.058867924
26	0x3f41fe75	0.75778896
27	0xbf1ac16a	-0.60451376
28	0xbed5151f	-0.41617677
29	0xbe0e8b05	-0.13920219
30	0xbf0033d1	-0.50079066
31	0x3f25845d	0.64655095
32	0xbef68fc7	-0.48156568
33	0xbe91c79f	-0.2847261
34	0xbf017ddd	-0.5058268
35	0xbf1d77a6	-0.61510694
36	0xbef1fc03	-0.47262582
37	0x3f160a68	0.5860963
38	0x3eac45ea	0.3364709
39	0x3e920175	0.28516737
40	0x3bac41ca	0.005256866
41	0xbeaa80ea	-0.3330148
42	0x3e256033	0.16149978
43	0xbf32eae3	-0.6988966
44	0xbef68f1b	-0.48156056
45	0xbeb7ed74	-0.3592335
46	0x3eff587f	0.49872205
47	0x3dd1921b	0.102329455
48	0xbf00afc9	-0.50268227
49	0x3e88bcda	0.26706582
50	0x3ed6c337	0.41945812
51	0x3f0e578d	0.5560234
52	0x3e66f721	0.2255521
53	0x3d850349	0.06494767
54	0x3f2ff720	0.6873646
55	0xbecb601c	-0.39721763
56	0x3e00d0a6	0.12579593
57	0xbeee8675	-0.46586958
58	0xbef71822	-0.482606
59	0xbe650735	-0.2236603
60	0x3eb8c892	0.36090523
61	0x3e66ce68	0.22539675
62	0xbee48476	-0.4463231
63	0x3e8b37ec	0.27191103
64	0x3ed8354d	0.42228165
65	0xbd9035b7	-0.07041495
66	0xbc4d36d5	-0.01252528
67	0x3e18d4be	0.14924905
68	0x3ec7a373	0.3899189
69	0x3e8f1c52	0.27951294
70	0xbf10bffc	-0.56542945
71	0xbce0393c	-0.027371041
72	0x3ea0bb77	0.31393024
73	0x3ee4e7d6	0.44708127
74	0x3f118c85	0.5685504
75	0x3f07b1ae	0.5300549
76	0x3e3ad92b	0.18246906
77	0xbf19f8a2	-0.6014501
78	0x3dc380a4	0.095460206
79	0xbec1b4ee	-0.3783335
80	0xbf368698	-0.71299124
81	0x3f1348dc	0.5753305
82	0x3f256280	0.64603424
83	0xbf3d5a09	-0.7396551
84	0x3dd4076c	0.10352978
85	0xbdbce8c2	-0.092240825
86	0xbd8a93b6	-0.06766455
87	0xbe95d82f	-0.29266497
88	0x3ec154b7	0.37759945
89	0xbf00c21b	-0.5029618
90	0x3e9cac20	0.3060007
91	0x3ec18a8c	0.37801015
92	0x3f06851d	0.52546865
93	0x3e3aab1c	0.18229336
94	0xbf2035f2	-0.62582314
95	0xbecaa6cd	-0.39580384
96	0x3eb5af55	0.3548533
97	0x3de6fb6d	0.112784244
98	0xbf22d942	-0.6361276
99	0xbebaf9e0	-0.36518764
100	0x3f24c371	0.6436072
101	0x3ed69e6d	0.41917744
102	0xbec2e223	-0.38063154
103	0xbe204f2a	-0.15655199
104	0xbf3bf026	-0.7341331
105	0x3e51a987	0.20474826
106	0xbf18a72d	-0.5963009
107	0xbeb50c41	-0.3536091
108	0xbd961129	-0.07327492
109	0x3da3f86c	0.08006367
110	0xbeb6bbb2	-0.35690075
111	0x3ed518b9	0.41620424
112	0xbf23535a	-0.6379906
113	0x3f236bba	0.6383625
114	0x3f15924d	0.5842636
115	0xbf1a41a5	-0.60256416
116	0xbe1a3001	-0.15057375
117	0x3d5047cf	0.050849732
118	0x3e5bd190	0.2146666
119	0x3ddd45a1	0.10804296
120	0x3e4f8812	0.2026675
121	0x3d275ded	0.04086106
122	0xbea8129d	-0.328267
123	0x3e940be0	0.2891531
124	0xbf384027	-0.7197289
125	0xbed0d004	-0.40783703
126	0xbdc9c171	-0.09851349
127	0xbe817b29	-0.25289276

layers.0.fc.bias f4 [64]
0	0xbe69bba0	-0.2282548
1	0xbf112bc5	-0.5670741
2	0xbe13f19f	-0.1444764
3	0x3e226e31	0.15862347
4	0xbef10989	-0.47077587
5	0xbd41b3b8	-0.047290534
6	0x3efe287b	0.4964026
7	0xbda6ab9a	-0.08138199
8	0x3d07210d	0.032990504
9	0xbd42576a	-0.047446646
10	0x3e1092f3	0.14118557
11	0x3edc7df4	0.43064845
12	0x3f2f8fac	0.685786
13	0x3efb9678	0.49138236
14	0x3f318fb8	0.6935992
15	0xbac2b524	-0.001485501
16	0xbf219222	-0.63113606
17	0xbeb8c915	-0.36090913
18	0x3ef85410	0.48501635
19	0xbc61bb1c	-0.0137775205
20	0xbeb45b15	-0.3522574
21	0xbf094f6f	-0.5363683
22	0xbf29ded5	-0.6635564
23	0xbf2c60a1	-0.67334944
24	0xbdc77b93	-0.09740367
25	0x3ed18ba4	0.4092685
26	0x3ecd75ba	0.4012888
27	0xbf2bfc0b	-0.6718146
28	0x3ef25e07	0.47337362
29	0xbf0d850f	-0.55281156
30	0xbd8f95fd	-0.0701103
31	0xbe88086a	-0.2656892
32	0xbe0d86af	-0.13820909
33	0xbe29dc9c	-0.16588062
34	0xbf440e0c	-0.76583934
35	0xbf349ce9	-0.70551926
36	0xbde67ae9	-0.11253912
37	0x3bc715d2	0.006075599
38	0xbea7dd80	-0.3278618
39	0x3e8d0404	0.27542126
40	0xbf273867	-0.6532044
41	0xbdbe0080	-0.09277439
42	0x3f21f6a2	0.63266957
43	0xbe9aeec8	-0.302603
44	0x3f22fea9	0.6366983
45	0x3e77810d	0.24170323
46	0xbf26343a	-0.6492344
47	0x3ef09808	0.4699099
48	0xbda55d25	-0.080744065
49	0xbea9b16c	-0.33143175
50	0x3f0ed093	0.5578701
51	0xbf101a88	-0.56290483
52	0x3dbc2df1	0.0918845
53	0xbe069e88	-0.13146412
54	0x3eefc572	0.46830326
55	0x3e578e54	0.21050388
56	0x3e9615c0	0.2931347
57	0x3e8c7971	0.27436402
58	0xbe3c434e	-0.1838505
59	0xbe1f3874	-0.15548879
60	0xbf1ac4c4	-0.6045649
61	0x3ec67c0d	0.38766518
62	0x3f0e947d	0.55695325
63	0x3efba353	0.49148044

layers.1.fc.weight f4 [64, 128]
0	0xbd849d77	-0.064753465
1	0xbc58c0eb	-0.013229589
2	0xbd858d70	-0.06521118
3	0xbcd0d7bf	-0.0254935
4	0xbd8397a1	-0.06425405
5	0x3d0c9211	0.034318987
6	0xbd2e9a1d	-0.042627443
7	0x3a68d6af	0.0008882088
8	0x3bfe22a0	0.0077555925
9	0x3d70e7e7	0.05881491
10	0xbd586a41	-0.052835707
11	0xbd4c9657	-0.049948063
12	0xbd1923d2	-0.037387677
13	0x3d36aa20	0.044595838
14	0xbcb80bde	-0.022466596
15	0x3dba088a	0.0908366
16	0x3ccb81f4	0.02484224
17	0x3b46bf28	0.003032634
18	0xbb31183d	-0.0027022504
19	0xbc957f62	-0.018249217
20	0xbba6b0d8	-0.0050869994
21	0xbcfa3d1d	-0.03054672
22	0xbc21bcae	-0.009871645
23	0x3aea3368	0.0017868103
24	0xbd7c5e01	-0.061613087
25	0xbd0ca10f	-0.034333285
26	0x3d9b8323	0.07593372
27	0xbd86d2b3	-0.065831564
28	0xbc010183	-0.007873896
29	0x3da0fab6	0.07860319
30	0x3cde6fb4	0.027152874
31	0x395c5621	0.0002101292
32	0xbda53e86	-0.08068566
33	0x3d0b056e	0.033940725
34	0xbd96255c	-0.073313445
35	0xbcc7f4f6	-0.024408799
36	0xbcd2375b	-0.025661161
37	0xbc2306a0	-0.00995031
38	0xbc2fc894	-0.010728974
39	0x3d95b107	0.07309156
40	0x3d7324ac	0.059361145
41	0x3da4786a	0.0803078
42	0x3d88d6e5	0.06681613
43	0xbd94e87d	-0.07270906
44	0x3d1114a4	0.035420075
45	0xbd55d1c5	-0.052202005
46	0xbd45b82d	-0.048271347
47	0x3d10657c	0.035253033
48	0x3ca4911c	0.020088725
49	0x3d7aac3d	0.061199415
50	0xbc2d5e71	-0.010581599
51	0xbbc629ca	-0.006047462
52	0x3d4cba04	0.049982086
53	0xbdb4f2cd	-0.08835373
54	0x3d9e4701	0.07728387
55	0xbd8cfbaa	-0.068839386
56	0xbb59f9ec	-0.0033260537
57	0xbd20f0fa	-0.039292313
58	0xbd5d5564	-0.054036513
59	0x3b8e5b5c	0.004344387
60	0x3d82cc45	0.063866176
61	0xbcbbd779	-0.022929894
62	0xbd274f56	-0.040847145
63	0xbcbb0313	-0.022828614
64	0xbdbab30c	-0.09116182
65	0x3cf53b28	0.029935434
66	0xbd3a1789	-0.0454326
67	0xbd10415b	-0.035218578
68	0xbd837c10	-0.064201474
69	0x3cf5e925	0.030018399
70	0x3d59dd1d	0.053189386
71	0x3d764d26	0.06013217
72	0x3d7ef734	0.06224747
73	0xbd35f6ee	-0.044424944
74	0xbb19cbca	-0.0023467415
75	0x3d1e67b7	0.03867313
76	0x3db0b9ec	0.08629212
77	0xbb3aa6b6	-0.0028480715
78	0xbd400274	-0.04687734
79	0xbcddfdd3	-0.027098572
80	0xbdb2a332	-0.08722533
81	0x3bd96f19	0.0066355583
82	0xbd65b955	-0.05608495
83	0xbd54dccc	-0.05196838
84	0x3d7ab79f	0.06121027
85	0xbd8e70df	-0.06955122
86	0xbc7f7781	-0.015592457
87	0x3d044d48	0.032300264
88	0xbafad612	-0.0019137284
89	0xbd4bb972	-0.0497374
90	0xbd842043	-0.06451466
91	0x3daf01d6	0.08545272
92	0x3ca2d52c	0.019877039
93	0x3d8aa92a	0.06770547
94	0xbc8818c0	-0.016613364
95	0x3cf4562d	0.029826248
96	0xbc36be4e	-0.011153771
97	0xbc4a06a4	-0.012330685
98	0xbd316d0a	-0.04331688
99	0x3cf72ba1	0.030172171
100	0x3d575934	0.052575305
101	0x3c8b291c	0.016987376
102	0xbd062a53	-0.032755207
103	0xbd4b0375	-0.049563844
104	0x3daa4acf	0.0831505
105	0xbd52b028	-0.051437527
106	0x3d485442	0.04890848
107	0xbd3b936d	-0.045794893
108	0xbd286b7e	-0.041118138
109	0x3ce43212	0.027855907
110	0xbd2fd1cc	-0.042924687
111	0x3cdd576c	0.027019225
112	0x3cf0a9af	0.029377786
113	0xbd988c4e	-0.07448636
114	0x3cd251c8	0.025673762
115	0x3d081b49	0.033229146
116	0x3cf53e82	0.029937033
117	0xbccccc22	-0.024999682
118	0xbd6e778a	-0.05821947
119	0xbc4c2fa1	-0.0124625275
120	0x3ca8693d	0.020557994
121	0xbd50563f	-0.0508635
122	0x3cb7213f	0.02235472
123	0x3d70c0a5	0.05877747
124	0xbd4de694	-0.050268725
125	0x39b8fe4a	0.00035284675
126	0x3d38ca7d	0.045114983
127	0x3c25e374	0.01012503
128	0x3b88e5d9	0.0041777906
129	0xbb146d92	-0.0022648317
130	0xbd4dea50	-0.050272286
131	0x3ca3b7e8	0.019985154
132	0x3d49ab01	0.049235348
133	0x3dc351e8	0.09537107
134	0x3d720d6c	0.05909483
135	0x3cf6f57d	0.030146355
136	0x3d1b7f0c	0.03796296
137	0xbd19f6ed	-0.037589002
138	0xbd924b1f	-0.071432345
139	0xbd8869e4	-0.06660822
140	0x3dd03196	0.10165708
141	0xbd11d4fd	-0.035603512
142	0xbd642009	-0.055694614
143	0x3d489243	0.04896761
144	0x3d85b183	0.06527998
145	0x3daafd00	0.08349037
146	0x3d8f6d67	0.07003289
147	0x3d81ea4b	0.06343516
148	0xbd0fdb60	-0.03512132
149	0xbd201286	-0.039080165
150	0x3d8ef825	0.069809236
151	0x3d2f4cc0	0.042797804
152	0xbd10bd55	-0.03533681
153	0x3dac6b20	0.0841887
154	0x3d3710da	0.044693805
155	0x3d73b063	0.059494387
156	0xbd6b491d	-0.057442773
157	0x3cba5262	0.022744361
158	0xbd0e8724	-0.03479685
159	0x3ddac581	0.10682202
160	0xbc800e73	-0.01563189
161	0x3cc7147c	0.02430176
162	0x3c00a81d	0.007852581
163	0x3d3b9bc6	0.045802854
164	0xbcefd3f3	-0.02927587
165	0x3d4567e0	0.048194766
166	0xbd9228b6	-0.07136671
167	0x3cad678b	0.021167537
168	0xbbdbb084	-0.006704392
169	0xbdb2e306	-0.087347075
170	0xbd73a8f4	-0.059487298
171	0x3d6fac26	0.058513783
172	0x3d25937d	0.04042386
173	0x3daa3b65	0.0831211
174	0x3d81d5a1	0.063395746
175	0xbd935845	-0.071945705
176	0xbd87e0db	-0.06634685
177	0xbc9c2e0c	-0.019064926
178	0xbd2ad53c	-0.041707262
179	0x3d75c68a	0.060003795
180	0xbd8b8740	-0.06812906
181	0xbd36590a	-0.044518508
182	0xbd944b31	-0.07240904
183	0xbd428e0d	-0.04749875
184	0x3d840be0	0.064475775
185	0x3cc5be2b	0.02413853
186	0x3d783c9c	0.060604677
187	0x3d65fb03	0.056147587
188	0x3d908cc4	0.07058099
189	0xbcc05dac	-0.023482166
190	0x3d42cd55	0.0475591
191	0x3db903d8	0.09033936
192	0x3cc64882	0.024204496
193	0x3daf015c	0.08545181
194	0x3d3e5b34	0.046473697
195	0x3d8a9a70	0.06767738
196	0xbd328dfa	-0.04359243
197	0x3d2ba1ac	0.04190223
198	0x3c32ddf0	0.010917172
199	0xbc993499	-0.018701838
200	0xbd2ab72e	-0.0416786
201	0xbd4af68a	-0.049551524
202	0xbd74129c	-0.05958806
203	0x3d8d78c9	0.069078036
204	0x3d9b8cca	0.07595213
205	0xbd2877fc	-0.04113005
206	0xbd71379f	-0.058890935
207	0x3d92d114	0.07168785
208	0x3d773def	0.0603618
209	0x3a6dfd16	0.0009078545
210	0xbd5c6c49	-0.053814206
211	0x3db40c59	0.08791418
212	0x3cad91e0	0.021187723
213	0xbd9b5b89	-0.07585818
214	0x3db2878e	0.08717261
215	0x3d9c7b9a	0.076407626
216	0xbcf1567d	-0.029460186
217	0x3d4df322	0.050280698
218	0xbd49176f	-0.049094614
219	0x3be25c1c	0.006907953
220	0x3da780d2	0.081788674
221	0x3bc7012c	0.0060731377
222	0xbd681283	-0.05665828
223	0xbc9e501e	-0.019325312
224	0xbc8241db	-0.015900543
225	0xbcdf6dd8	-0.027274057
226	0x3c9e4018	0.019317672
227	0x3dbbb8b7	0.09166091
228	0x3c7e0d16	0.01550605
229	0xbd4a9ac8	-0.049464017
230	0xbb7d09dd	-0.0038610615
231	0x3d486a4b	0.048929494
232	0x3d92f5db	0.071757995
233	0xbd60022d	-0.054689575
234	0xbb7da1b3	-0.0038701117
235	0xbd9ee551	-0.077585824
236	0xbd212809	-0.03934482
237	0x3d15327d	0.036425103
238	0xbd67adb0	-0.056562126
239	0x3d147bfd	0.036251057
240	0x3d9d086a	0.076676205
241	0x3bb64b83	0.005563201
242	0xbd5f4ee7	-0.054518607
243	0xbcf7f705	-0.030269155
244	0x3c9ab82d	0.01888665
245	0xbd8e03e8	-0.06934339
246	0x3d68dd8d	0.056851912
247	0xbdac7060	-0.08419871
248	0xbdd34ac8	-0.10316998
249	0xbddd35c5	-0.10801271
250	0xbcd5763b	-0.026057353
251	0x3d69d120	0.057084203
252	0xbdaf6a85	-0.08565239
253	0x3d8cfd4b	0.06884249
254	0xbd08847b	-0.03332947
255	0x3cfaf991	0.03063658

layers.1.fc.bias f4 [64]
0	0x3da482d4	0.08032766
1	0x3bf31981	0.007418812
2	0xbd36972b	-0.04457776
3	0xbcaf4619	-0.02139573
4	0x3d3fa56b	0.046788614
5	0xbcdca1fd	-0.02693271
6	0x3c9760f0	0.01847884
7	0x3cd45a59	0.025921987
8	0xbd8680b3	-0.06567516
9	0x3db1b333	0.08676758
10	0x3d3f5251	0.046709362
11	0x3c66bdbd	0.014083323
12	0x3dbb9d03	0.09160807
13	0xbd2a9c38	-0.041652888
14	0x3d020d94	0.03175123
15	0x3d492a08	0.04911235
16	0xbd9c219b	-0.07623597
17	0xbd0237a4	-0.031791344
18	0xbd296bac	-0.04136245
19	0xbc83129c	-0.016000085
20	0xbd0e58c0	-0.034752607
21	0xbd2d9f92	-0.042388506
22	0xbc963647	-0.018336428
23	0x3d826803	0.06367495
24	0x3c9540a6	0.018219303
25	0xbdacd285	-0.08438591
26	0xbd1eef17	-0.038802233
27	0xbc655565	-0.01399741
28	0x3d3fd5a0	0.046834588
29	0x3d832427	0.0640338
30	0x3db94659	0.09046621
31	0xbd99110f	-0.07473957
32	0x3d958f15	0.07302681
33	0x3d47bfc6	0.048766874
34	0xbd9e7073	-0.07736292
35	0xbd2f3567	-0.042775538
36	0xbd497803	-0.049186718
37	0x3ca77c9c	0.02044516
38	0xbd0f9280	-0.035051823
39	0xbd922d52	-0.071375504
40	0xbd1d3911	-0.0383845
41	0x3cc0f8c4	0.02355612
42	0x3b814e1b	0.0039460785
43	0xbdafef4c	-0.08590564
44	0xbdae7608	-0.085186064
45	0x3c9dbc8f	0.01925495
46	0x3d890b6d	0.066916324
47	0xbd85be77	-0.06530469
48	0xbd4343cc	-0.047672078
49	0x3cf7d9c5	0.030255208
50	0xbda7b557	-0.08188885
51	0xbd9587ad	-0.07301269
52	0x3d7089e9	0.05872527
53	0xbb989142	-0.004655988
54	0xbd380c07	-0.044933345
55	0x3cb10d9f	0.02161294
56	0x3dc813b6	0.097693846
57	0xbd98d0b2	-0.074616805
58	0xbc3735da	-0.011182273
59	0x3c3c1383	0.011479261
60	0xbdfa9cc4	-0.12236932
61	0x3dd4d2f6	0.103918
62	0xbdcf3277	-0.10117047
63	0xbd2ed48d	-0.042683173

layers.2.gsds.0.weight f4 [2, 64]
0	0x3d4304d7	0.047612038
1	0x3dd25a0c	0.10271081
2	0xbc21d4a6	-0.0098773595
3	0x3e2c070b	0.16799562
4	0xbd6b0b65	-0.057383914
5	0xbdcd52ec	-0.10025582
6	0xbdd8457d	-0.10560129
7	0xbd3d9fa0	-0.04629481
8	0x39e1274d	0.00042944626
9	0x3e0caef3	0.13738613
10	0xbd857a89	-0.06517512
11	0xbc9cb61d	-0.019129807
12	0x3dbf80da	0.09350748
13	0xbd425b11	-0.04745013
14	0x3d7da490	0.061924517
15	0xbb8b4f4a	-0.0042513954
16	0xbd4c654e	-0.0499013
17	0xbdcf8b8a	-0.10134037
18	0x3dcefc11	0.101066716
19	0xbdb57e84	-0.088620216
20	0xbab06b37	-0.0013459687
21	0x3d259fd4	0.040435627
22	0x3bbc72cd	0.00575099
23	0xbd000140	-0.031251192
24	0xbc72df4b	-0.014823745
25	0xbd6d8639	-0.057989333
26	0x3d88b3e2	0.06674935
27	0xbcb4b165	-0.022057245
28	0x3d2b2720	0.04178536
29	0x3d4fc068	0.050720602
30	0x3d2e3df1	0.04253954
31	0xbd744e00	-0.0596447
32	0xbd41f958	-0.047356933
33	0xbd9e2074	-0.07721034
34	0x3d174a23	0.036935937
35	0x3d073408	0.033008605
36	0x3dbef27f	0.09323596
37	0x3d940d74	0.072291285
38	0xbd4d7e10	-0.05016905
39	0x3d9ecf80	0.07754421
40	0x3b2d519e	0.0026446353
41	0xbd2383e0	-0.039920688
42	0x3dcb931d	0.09940169
43	0xbdd7b7a0	-0.105330706
44	0xbd24780a	-0.04015354
45	0xbda989f8	-0.082782686
46	0x3d5396c7	0.051657464
47	0x3e07244e	0.13197443
48	0x3dd78058	0.105225265
49	0xbd15f90d	-0.036614466
50	0xbdc2913d	-0.09500358
51	0x3d72f515	0.05931576
52	0xbcd1146a	-0.02552243
53	0xbd60135d	-0.054705966
54	0xbd535d6e	-0.051602773
55	0x3d8eac2f	0.06966435
56	0xbcd5562b	-0.026042065
57	0x3bed423e	0.0072405627
58	0xbd9f6750	-0.07783377
59	0x3c1a33db	0.009411777
60	0xbd86b2a7	-0.06577044
61	0x3e0060f2	0.12536982
62	0xbdcd5de5	-0.100276746
63	0x3bf3c073	0.007438713
64	0xbda99150	-0.08279669
65	0xbd915e00	-0.07098007
66	0x3d98af74	0.0745534
67	0x3e17ea0c	0.14835376
68	0x3d1be60b	0.038061183
69	0x3d0fdef3	0.03512473
70	0x3da63f31	0.081175216
71	0x3dcef55c	0.10105392
72	0xbc9d3ef3	-0.019195056
73	0xbcaa0532	-0.02075443
74	0x3d18716f	0.037217554
75	0x3dad0612	0.084484234
76	0x3d98d3e5	0.07462291
77	0xbc254908	-0.010088213
78	0x3de80587	0.11329179
79	0xbd742809	-0.059608493
80	0x3d34de90	0.044157565
81	0x3e054599	0.1301483
82	0x3bb29cd6	0.005450825
83	0x3da07fdf	0.078368895
84	0x3ddd6bfc	0.10811612
85	0xbdd71587	-0.10502153
86	0x3d6bb7c0	0.057548285
87	0x3df71ea1	0.12066389
88	0x3df7e598	0.121043384
89	0x3d3e8a21	0.04651845
90	0x3d8cabfd	0.06868742
91	0x3d15b83e	0.03655266
92	0x3d98f742	0.07469036
93	0xbdd80c08	-0.1054917
94	0xbe26e7a3	-0.162993
95	0x3d94dccd	0.07268677
96	0x3e22f0b6	0.15912136
97	0x3d216845	0.03940608
98	0x3e00dbd4	0.12583858
99	0x3bf738c4	0.007544609
100	0x3d26df00	0.040740013
101	0xbd2af47e	-0.041737072
102	0x3d961c7e	0.07329653
103	0xbd40a573	-0.047032785
104	0xbd923fd0	-0.071410775
105	0x3ce38dc2	0.027777556
106	0xbd596e52	-0.053083725
107	0x3d936b69	0.07198221
108	0x3d12d9e4	0.035852328
109	0xbbbcf431	-0.0057664146
110	0x3e09796e	0.13425228
111	0x3dd716e1	0.10502411
112	0xbd852fcd	-0.06503258
113	0x3da967e7	0.08271771
114	0x3a018b82	0.0004941748
115	0xbda761b1	-0.0817293
116	0x3e02ab63	0.12760691
117	0xbd98582d	-0.07438693
118	0x3cb27733	0.021785354
119	0xbdaaa434	-0.083321005
120	0x3dfe545a	0.124184325
121	0x3c447801	0.011991502
122	0x3e03b1ad	0.12860747
123	0x3d73ecc3	0.059551965
124	0xbd3b586a	-0.045738615
125	0x3d776c48	0.060406
126	0x3d38336c	0.044970915
127	0x3d877a34	0.06615105

layers.2.gsds.0.bias f4 [2]
0	0xba229852	-0.0006202507
1	0x3dfcea22	0.12349345

log_envelope.log_envs.0.weight f4 [2, 1]
0	0x3f2811db	0.65652245
1	0x3f2cbfaa	0.67479956

exp_avg f4 [64, 2]
0	0x3637ceb1	2.7389435e-06
1	0x3741247f	1.1512194e-05
2	0x36564448	3.192823e-06
3	0x3706dc3a	8.038298e-06
4	0xb57d57b6	-9.437748e-07
5	0x36848cc2	3.950293e-06
6	0x37f13fdd	2.8759177e-05
7	0x3810858d	3.4456654e-05
8	0xb7ac5567	-2.0543766e-05
9	0xb7e6e9bb	-2.7526976e-05
10	0xb6ee64e4	-7.104698e-06
11	0xb66fbc44	-3.572336e-06
12	0xb672c1d8	-3.6173642e-06
13	0xb75e6463	-1.3255604e-05
14	0x3672e095	3.6191534e-06
15	0x3682e97d	3.9014835e-06
16	0x366271c1	3.3742838e-06
17	0x36f28015	7.2270727e-06
18	0xb67b9b4d	-3.7492312e-06
19	0x37bc67b2	2.2459633e-05
20	0xb7280627	-1.0015013e-05
21	0xb7a8b736	-2.0112475e-05
22	0x36dd4e1e	6.5954073e-06
23	0x3670a2ca	3.5857543e-06
24	0x37a3d8a0	1.9531988e-05
25	0x37d99500	2.59378e-05
26	0xb81a9a91	-3.6860412e-05
27	0xb877d973	-5.9091904e-05
28	0x36ae88a1	5.20151e-06
29	0x37286186	1.0036287e-05
30	0xb70112f9	-7.693417e-06
31	0x36f921a3	7.424694e-06
32	0xb6f6e638	-7.3581723e-06
33	0xb6cbba76	-6.0715784e-06
34	0x36305fe3	2.6281857e-06
35	0xb6fb5893	-7.4906943e-06
36	0xb78401e4	-1.5736507e-05
37	0xb6b54e7d	-5.4033576e-06
38	0xb597c3e1	-1.1307385e-06
39	0xb7a23dfa	-1.9340765e-05
40	0xb4131903	-1.3699541e-07
41	0xb631a062	-2.646841e-06
42	0x3736e26c	1.0900763e-05
43	0x374edfef	1.2330695e-05
44	0x35b9a05f	1.3830248e-06
45	0x36618711	3.3606232e-06
46	0x37bf9458	2.2838052e-05
47	0x3708f8bb	8.164144e-06
48	0x360042ab	1.9112292e-06
49	0xb50c8738	-5.2350833e-07
50	0x3696fe12	4.499926e-06
51	0x36629738	3.3764645e-06
52	0x37434c82	1.1640719e-05
53	0x3767a328	1.3806661e-05
54	0x37edd9e0	2.8354058e-05
55	0x37b7f805	2.1930793e-05
56	0x3761995e	1.3446754e-05
57	0x371cd9ac	9.349005e-06
58	0x363b7083	2.7930662e-06
59	0x371989d3	9.1516e-06
60	0xb76a74d3	-1.3974687e-05
61	0xb66e285c	-3.5488256e-06
62	0x37589751	1.2909834e-05
63	0x37579d7c	1.2851666e-05
64	0x37bfff78	2.2887936e-05
65	0x363f5e06	2.8515947e-06
66	0xb792cb3d	-1.7499196e-05
67	0xb7e5ebd1	-2.7408738e-05
68	0x372764ac	9.977415e-06
69	0x3687c9c1	4.0468008e-06
70	0x37179956	9.036003e-06
71	0x37143444	8.8336565e-06
72	0x371ebe09	9.46178e-06
73	0x3756c828	1.28019965e-05
74	0xb472678b	-2.2575675e-07
75	0x36c24cbd	5.790584e-06
76	0xb6d9b91a	-6.4886526e-06
77	0xb74e9367	-1.2312877e-05
78	0x36de0f96	6.61793e-06
79	0x376c714c	1.4093075e-05
80	0x3799624d	1.8284796e-05
81	0x3828231e	4.0087027e-05
82	0x370c110b	8.348618e-06
83	0x342a856b	1.5881021e-07
84	0x379b9d66	1.8550734e-05
85	0x37bbc614	2.2384374e-05
86	0xb790bb43	-1.7253338e-05
87	0xb7d225c3	-2.5051535e-05
88	0xb75de5c4	-1.3226123e-05
89	0xb7a88a08	-2.0091436e-05
90	0xb61abb0b	-2.3056662e-06
91	0xb7530f9b	-1.25802135e-05
92	0x37c08b5c	2.2953078e-05
93	0x37ceb73b	2.4642437e-05
94	0x370a24b8	8.23399e-06
95	0x37f15639	2.876959e-05
96	0x372fdd76	1.0482376e-05
97	0x3795e9d1	1.7871063e-05
98	0xb62283c8	-2.4216588e-06
99	0xb7393a6f	-1.1040464e-05
100	0xb65070a3	-3.1059978e-06
101	0xb6a03681	-4.7747167e-06
102	0x374285dc	1.1594468e-05
103	0x379439e0	1.7669925e-05
104	0xb5e2216b	-1.6848038e-06
105	0xb7490017	-1.19805545e-05
106	0xb736f2d3	-1.0904582e-05
107	0xb6eee484	-7.1195554e-06
108	0x3622c108	2.425224e-06
109	0x35715bca	8.9913067e-07
110	0xb7c7b2c7	-2.3805898e-05
111	0xb73da957	-1.1304705e-05
112	0x34b91766	3.447596e-07
113	0xb6c39d9c	-5.829801e-06
114	0xb7d810f4	-2.5757101e-05
115	0xb84c8e22	-4.876976e-05
116	0xb6b569ec	-5.4065513e-06
117	0xb79b4f3e	-1.851434e-05
118	0x3760cd39	1.3399223e-05
119	0x37004c49	7.647156e-06
120	0xb6ba0924	-5.544296e-06
121	0xb712aeb2	-8.742953e-06
122	0x358a8a02	1.0321967e-06
123	0x3778f97c	1.48400395e-05
124	0x36668bf2	3.435413e-06
125	0xb6ea979c	-6.991393e-06
126	0x3705632a	7.950506e-06
127	0x370f1984	8.529405e-06

exp_avg_sq f4 [64, 2]
0	0x32f96504	2.9033352e-08
1	0x32b4194d	2.0966263e-08
2	0x32b932f0	2.1559998e-08
3	0x31f06d81	6.9973685e-09
4	0x31dcf57e	6.430752e-09
5	0x30e22fa6	1.6457207e-09
6	0x341a5249	1.4372303e-07
7	0x34100641	1.341332e-07
8	0x33c6c114	9.255214e-08
9	0x33da4d2a	1.0165452e-07
10	0x313a0f28	2.7075178e-09
11	0x30ebc990	1.7155788e-09
12	0x3136a2a5	2.6576938e-09
13	0x32864583	1.5631263e-08
14	0x30d28c34	1.5319359e-09
15	0x30caa0c3	1.4743126e-09
16	0x31cf098d	6.0255787e-09
17	0x31c13dfb	5.6240856e-09
18	0x3408c4da	1.2737601e-07
19	0x337d8e9d	5.903586e-08
20	0x335ec60c	5.1868525e-08
21	0x332a181d	3.960314e-08
22	0x31a5834c	4.8170588e-09
23	0x3138a52f	2.686942e-09
24	0x33b7a034	8.550742e-08
25	0x33c833bf	9.322638e-08
26	0x351e8472	5.905232e-07
27	0x350f3960	5.3355143e-07
28	0x3206e126	7.851019e-09
29	0x31f553f8	7.1399846e-09
30	0x3381d3af	6.0455356e-08
31	0x3206db30	7.849664e-09
32	0x32098b32	8.006099e-09
33	0x319eb363	4.618799e-09
34	0x33c6d851	9.259441e-08
35	0x324e8ff8	1.2023513e-08
36	0x32f3a9c8	2.836613e-08
37	0x32384b8c	1.0727387e-08
38	0x33b6a613	8.505244e-08
39	0x3351748a	4.8767596e-08
40	0x3253524b	1.2300528e-08
41	0x30df295f	1.6237144e-09
42	0x334d787a	4.7839855e-08
43	0x32e9cccd	2.7217903e-08
44	0x3102c67d	1.9030317e-09
45	0x30e00ef5	1.6302396e-09
46	0x332205a7	3.7723705e-08
47	0x31dbda99	6.3985905e-09
48	0x3128afcb	2.4547144e-09
49	0x2f8e6827	2.5903654e-10
50	0x309b5794	1.1302626e-09
51	0x305bba83	7.9936785e-10
52	0x328c83f9	1.635816e-08
53	0x32f94906	2.9020622e-08
54	0x339849a8	7.0914496e-08
55	0x339f6bd7	7.4236304e-08
56	0x3233494c	1.0435837e-08
57	0x3210e0f3	8.433051e-09
58	0x337f72f9	5.947638e-08
59	0x3278b7f9	1.44773304e-08
60	0x32d6652a	2.4958883e-08
61	0x30bcaeb5	1.3728455e-09
62	0x32e11436	2.6202638e-08
63	0x32e6e9ba	2.688181e-08
64	0x33940c7a	6.8940565e-08
65	0x319a408f	4.4893294e-09
66	0x33e3cea7	1.0608101e-07
67	0x33d56558	9.93702e-08
68	0x322dcaf8	1.0116075e-08
69	0x31179e85	2.20635e-09
70	0x329f0bc4	1.8515387e-08
71	0x32836731	1.5297333e-08
72	0x31ad77e2	5.0485918e-09
73	0x32814d9d	1.5052871e-08
74	0x31610afe	3.2748058e-09
75	0x31870936	3.9300643e-09
76	0x33dd8b2a	1.0316428e-07
77	0x32ad628f	2.018467e-08
78	0x3301b9a5	3.0203996e-08
79	0x32cd707d	2.3916295e-08
80	0x34c118b3	3.5967022e-07
81	0x348e1b19	2.6469277e-07
82	0x32c814c0	2.32925e-08
83	0x322304b6	9.48892e-09
84	0x33a2890f	7.568644e-08
85	0x3396338c	6.9942956e-08
86	0x3409af3a	1.2822866e-07
87	0x33b11848	8.2466215e-08
88	0x337d1ed9	5.893421e-08
89	0x33708179	5.599711e-08
90	0x3338767f	4.294861e-08
91	0x329eabc2	1.8471727e-08
92	0x33407a7a	4.4814875e-08
93	0x3354f1e2	4.9580088e-08
94	0x32c79c3f	2.3237702e-08
95	0x33a3c078	7.625289e-08
96	0x33091818	3.191971e-08
97	0x33239119	3.808336e-08
98	0x331fda37	3.7218538e-08
99	0x32896eae	1.599923e-08
100	0x30aed493	1.2720583e-09
101	0x310f2074	2.0827686e-09
102	0x34110626	1.3506414e-07
103	0x33532972	4.916496e-08
104	0x32861de0	1.5613239e-08
105	0x3289a8f0	1.6025723e-08
106	0x3163db60	3.3157548e-09
107	0x3164d19c	3.3297516e-09
108	0x30c82e1e	1.4565023e-09
109	0x2f76735a	2.2414551e-10
110	0x337e4c9b	5.9208656e-08
111	0x3307e49b	3.1640052e-08
112	0x32cfbba6	2.4183304e-08
113	0x327836b0	1.4447934e-08
114	0x350042ac	4.7780736e-07
115	0x34c4d7e2	3.666492e-07
116	0x33f6eb46	1.1498064e-07
117	0x33662366	5.3583243e-08
118	0x3249629d	1.1722162e-08
119	0x31e6abe4	6.7134227e-09
120	0x31b01344	5.1244644e-09
121	0x32000d2c	7.4535755e-09
122	0x3380e321	6.001779e-08
123	0x32e71231	2.6900212e-08
124	0x31867dde	3.9142227e-09
125	0x31e54534	6.6726447e-09
126	0x32080f3a	7.919704e-09
127	0x32001630	7.4556255e-09

exp_avg f4 [64]
0	0x37ab4080	2.0414824e-05
1	0x37518d67	1.2490294e-05
2	0x35f152e0	1.7980019e-06
3	0x378f5d03	1.709024e-05
4	0xb7e936d1	-2.780129e-05
5	0x363a619d	2.7772978e-06
6	0xb79bdcf0	-1.8580322e-05
7	0x35b9e50b	1.3850234e-06
8	0x36fbad37	7.500548e-06
9	0x38213ee3	3.844396e-05
10	0xb78ee266	-1.7033144e-05
11	0xb616c791	-2.2467905e-06
12	0x3792c438	1.7495928e-05
13	0xb88d9f2c	-6.753052e-05
14	0x363c452a	2.8054442e-06
15	0x36457b99	2.942723e-06
16	0xb64edad8	-3.0823776e-06
17	0xb7f9d862	-2.9783874e-05
18	0xb7177cb1	-9.029333e-06
19	0xb8071cba	-3.2213262e-05
20	0xb6d2aa6a	-6.2783265e-06
21	0x3732e510	1.06629595e-05
22	0x36b8a345	5.5026344e-06
23	0x36014966	1.9265221e-06
24	0xb68afef6	-4.142402e-06
25	0xb5e1bfbd	-1.681961e-06
26	0xb5c7d642	-1.4889013e-06
27	0x3803f4d3	3.1460844e-05
28	0x35e14169	1.6782843e-06
29	0x37b2aa42	2.1298536e-05
30	0x371dc51b	9.403821e-06
31	0x37844175	1.5766107e-05
32	0xb73ed753	-1.1375017e-05
33	0xb7c0ca8d	-2.2982504e-05
34	0x363f03c2	2.8463405e-06
35	0x36b423c4	5.3685817e-06
36	0x377c707a	1.50465585e-05
37	0x3720922d	9.570777e-06
38	0xb7107dc0	-8.612347e-06
39	0x37664d0a	1.3727005e-05
40	0x38731442	5.795458e-05
41	0x37b06efd	2.1032518e-05
42	0x378e6a39	1.6977183e-05
43	0xb79c0811	-1.8600405e-05
44	0xb7cc9ad9	-2.4390802e-05
45	0xb7834e4a	-1.5652873e-05
46	0x37cdbb75	2.4525196e-05
47	0x38139757	3.5188477e-05
48	0x37c011f7	2.289655e-05
49	0xb7ab8d19	-2.0450492e-05
50	0xb555bd38	-7.9624033e-07
51	0x37ba9194	2.2240718e-05
52	0xb7869c0c	-1.604671e-05
53	0x37071401	8.051285e-06
54	0x34dd441f	4.1214022e-07
55	0xb73ee54a	-1.1378268e-05
56	0xb7bf210d	-2.2784365e-05
57	0xb87df927	-6.055194e-05
58	0xb79966bd	-1.8286863e-05
59	0x36cc92f9	6.0967836e-06
60	0xb6ff54d4	-7.6094675e-06
61	0x365b2612	3.2655703e-06
62	0xb76d5d34	-1.4148001e-05
63	0x36cb0d4f	6.0514208e-06

exp_avg_sq f4 [64]
0	0x337ac9f9	5.8391354e-08
1	0x331bceb3	3.627674e-08
2	0x311b2324	2.2575444e-09
3	0x34a1b6f0	3.0121691e-07
4	0x346d00cc	2.2072635e-07
5	0x312b0e35	2.489185e-09
6	0x334390d6	4.5533703e-08
7	0x318765e1	3.9405994e-09
8	0x32961a5d	1.7474287e-08
9	0x34626f97	2.1088486e-07
10	0x340a89ae	1.2902339e-07
11	0x30eb9e67	1.7143521e-09
12	0x343ecb64	1.7769122e-07
13	0x35cd8f03	1.5315312e-06
14	0x319a7be5	4.496075e-09
15	0x319f3ca1	4.6344018e-09
16	0x326ba770	1.3716871e-08
17	0x33ba4918	8.6745956e-08
18	0x32da7b8c	2.5434723e-08
19	0x34263864	1.548047e-07
20	0x320c0466	8.150073e-09
21	0x33bbd73f	8.747019e-08
22	0x320f0b80	8.32631e-09
23	0x321bdc87	9.0723296e-09
24	0x30f68f7d	1.7939638e-09
25	0x31640eff	3.318689e-09
26	0x3316506d	3.4997743e-08
27	0x3470cdb0	2.242657e-07
28	0x32252b2f	9.614083e-09
29	0x338f10f8	6.662043e-08
30	0x31aec058	5.0859335e-09
31	0x33ac79b3	8.031511e-08
32	0x32a1a583	1.8818133e-08
33	0x3454f4d9	1.9833114e-07
34	0x310e92c4	2.0747146e-09
35	0x33292267	3.9379668e-08
36	0x33756a2d	5.7140074e-08
37	0x327248c5	1.41028e-08
38	0x3346acfe	4.6257803e-08
39	0x3378d3b7	5.7934553e-08
40	0x3549750e	7.504867e-07
41	0x3369356e	5.4298134e-08
42	0x340fd6d9	1.3396074e-07
43	0x34449258	1.8307162e-07
44	0x34009943	1.1976685e-07
45	0x3362296d	5.2657402e-08
46	0x33d6d8c5	1.0004582e-07
47	0x3446d722	1.8518452e-07
48	0x34073af1	1.2594298e-07
49	0x33a665ec	7.748517e-08
50	0x31c6aed8	5.782436e-09
51	0x341ce339	1.4611295e-07
52	0x3372c73d	5.6526222e-08
53	0x320feb1f	8.377156e-09
54	0x300eade0	5.190639e-10
55	0x33a6b767	7.763338e-08
56	0x33e3c8d5	1.06070424e-07
57	0x358a22b9	1.0291907e-06
58	0x33fa7652	1.16630545e-07
59	0x32853e3b	1.5511537e-08
60	0x3283dcb7	1.5350777e-08
61	0x32de675e	2.5891207e-08
62	0x32a9f2de	1.9784633e-08
63	0x325794d7	1.2548489e-08

exp_avg f4 [64, 128]
0	0x346758e3	2.1545888e-07
1	0xb7272fa5	-9.965069e-06
2	0x34d1db92	3.9089042e-07
3	0x36a778a0	4.9910304e-06
4	0xb685c18b	-3.9862402e-06
5	0xb4b76f7b	-3.416752e-07
6	0x36fb7875	7.494406e-06
7	0x35c9b909	1.5029519e-06
8	0x363fd26f	2.8583706e-06
9	0xb53ef1d5	-7.113243e-07
10	0x36a18db0	4.8146685e-06
11	0x36ec463f	7.041526e-06
12	0x36ebcc44	7.0273254e-06
13	0x357a21cf	9.3181455e-07
14	0x3705a286	7.965258e-06
15	0x36ad41f7	5.163481e-06
16	0xb7203d6c	-9.551044e-06
17	0xb70202c0	-7.749244e-06
18	0x3709039b	8.166676e-06
19	0x358a70d5	1.031464e-06
20	0xb6c18bbd	-5.768116e-06
21	0xb70b4bee	-8.302724e-06
22	0xb72c7180	-1.0278425e-05
23	0xb70dcf8a	-8.452576e-06
24	0x35ca489e	1.5071307e-06
25	0x370b011a	8.285302e-06
26	0x36a7e0bc	5.0031504e-06
27	0xb72a23dd	-1.014114e-05
28	0x36071150	2.0126645e-06
29	0xb70bdc6e	-8.336368e-06
30	0xb4641fa2	-2.1245663e-07
31	0xb57487cc	-9.1094694e-07
32	0xb64f6173	-3.0902127e-06
33	0xb5693f0f	-8.6891026e-07
34	0xb7061d8a	-7.9939e-06
35	0xb715edb5	-8.936438e-06
36	0x35116ac9	5.41721e-07
37	0x35a0e0e1	1.1986377e-06
38	0xb6e1b87b	-6.726999e-06
39	0x34f88999	4.6293715e-07
40	0xb67770f9	-3.6871627e-06
41	0xb6f443cf	-7.2796606e-06
42	0x36c679e1	5.9150484e-06
43	0xb6ae4aa8	-5.194295e-06
44	0x366877ab	3.464035e-06
45	0x36af19ac	5.218395e-06
46	0xb70b53e4	-8.304578e-06
47	0x36e2c193	6.75786e-06
48	0xb5809213	-9.579256e-07
49	0xb6c36a32	-5.8238156e-06
50	0x3721a245	9.634129e-06
51	0xb7010831	-7.690906e-06
52	0x36aeddc5	5.2114215e-06
53	0xb62412de	-2.4448887e-06
54	0x36b5ef30	5.4220654e-06
55	0x36b1f05a	5.3029917e-06
56	0x370add10	8.276911e-06
57	0xb604560b	-1.9719616e-06
58	0xb5e62d9d	-1.7149611e-06
59	0xb5bf3c88	-1.4248226e-06
60	0xb6d6be0d	-6.399822e-06
61	0x36d03107	6.2045906e-06
62	0x370bedbb	8.340397e-06
63	0x36884794	4.0614486e-06
64	0xb45131d8	-1.9482775e-07
65	0xb7274f4d	-9.972439e-06
66	0xb616ee78	-2.249055e-06
67	0x36a18a7a	4.8142947e-06
68	0xb68df897	-4.231067e-06
69	0xb62999b5	-2.5272432e-06
70	0xb521c9fe	-6.027111e-07
71	0xb632cf72	-2.6644816e-06
72	0x36a0558a	4.7783296e-06
73	0xb69535d1	-4.446811e-06
74	0x36d1ab02	6.2485933e-06
75	0x36d58e75	6.364479e-06
76	0x36e5587e	6.8350337e-06
77	0x36b9909b	5.530264e-06
78	0x368bee29	4.1702483e-06
79	0x356b7a11	8.772195e-07
80	0xb71e4734	-9.434112e-06
81	0xb718bb4c	-9.1035145e-06
82	0x36bc5117	5.6122767e-06
83	0x3676fc9d	3.6803897e-06
84	0xb6c0c6db	-5.7451957e-06
85	0xb70851c3	-8.125268e-06
86	0xb7255a86	-9.855843e-06
87	0xb67984a5	-3.71811e-06
88	0xb6272595	-2.4906815e-06
89	0x371755f9	9.020318e-06
90	0x36c70a2a	5.9318454e-06
91	0xb6aacc0d	-5.0901494e-06
92	0x364f6098	3.0901629e-06
93	0xb71313f3	-8.766528e-06
94	0x363f02a2	2.846275e-06
95	0xb68332fa	-3.9100387e-06
96	0x352e2c34	6.4884375e-07
97	0xb5810f8f	-9.615777e-07
98	0xb6908aca	-4.3076916e-06
99	0xb718a080	-9.097275e-06
100	0x36622464	3.3697806e-06
101	0x36c3f820	5.8403384e-06
102	0xb6c9962e	-6.00775e-06
103	0x35a83ca3	1.2534623e-06
104	0xb6e50738	-6.825572e-06
105	0xb5cb503f	-1.5148033e-06
106	0x36d73940	6.414164e-06
107	0xb6b81021	-5.485505e-06
108	0x36c15f0f	5.7629145e-06
109	0x36dc3659	6.562838e-06
110	0xb6456194	-2.9412085e-06
111	0xb4cf09b0	-3.8563803e-07
112	0x36092abd	2.0439468e-06
113	0xb709b67b	-8.208323e-06
114	0x372631d9	9.905977e-06
115	0xb709b2a2	-8.2074275e-06
116	0xb600ea1d	-1.9209758e-06
117	0xb6d62e5d	-6.3830944e-06
118	0x36a7d28f	5.0015e-06
119	0x363500fa	2.697167e-06
120	0x364d8cf9	3.0629437e-06
121	0x363c653c	2.807311e-06
122	0xb6362ab3	-2.7144968e-06
123	0x34c0f6b8	3.5942298e-07
124	0xb6a52642	-4.921837e-06
125	0x36849836	3.9516262e-06
126	0x33e4b0ab	1.0649213e-07
127	0x3657c52b	3.2152263e-06
128	0x3644fffb	2.9355276e-06
129	0xb7b9b45c	-2.2137705e-05
130	0xb5a68c92	-1.2408875e-06
131	0x373c0f4e	1.1209237e-05
132	0xb6b45d78	-5.375299e-06
133	0xb6775c4e	-3.6859597e-06
134	0x36467046	2.956965e-06
135	0xb5c8f4e4	-1.4972434e-06
136	0x3732689f	1.0633986e-05
137	0xb6fba301	-7.499359e-06
138	0x376ab1d8	1.3988894e-05
139	0x3754b1d8	1.2677592e-05
140	0x3736890f	1.0879957e-05
141	0x36b0a941	5.2649125e-06
142	0x37133eb2	8.77648e-06
143	0x36f63b7a	7.3382953e-06
144	0xb7a3e9bb	-1.9539953e-05
145	0xb7a9f25d	-2.025923e-05
146	0x37595ef3	1.2956315e-05
147	0x36f36394	7.2535568e-06
148	0xb739dd52	-1.1078389e-05
149	0xb7839dd5	-1.5689913e-05
150	0xb7aeb533	-2.0826794e-05
151	0xb718fc64	-9.11867e-06
152	0xb58763d0	-1.0087333e-06
153	0x37a6205f	1.9803816e-05
154	0x3729d185	1.01219675e-05
155	0xb768cc29	-1.3875812e-05
156	0x35aa9660	1.2709752e-06
157	0xb7952e47	-1.7783734e-05
158	0x36abcd64	5.1201077e-06
159	0xb689b9d6	-4.1045523e-06
160	0xb590cb33	-1.0787975e-06
161	0xb4b3c038	-3.3481206e-07
162	0xb70ce22e	-8.397312e-06
163	0xb7951fbe	-1.7776965e-05
164	0x36fb7fb9	7.495252e-06
165	0x373bf8b1	1.1203972e-05
166	0xb758ac50	-1.2914723e-05
167	0xb591763f	-1.0837756e-06
168	0xb715cbbc	-8.928528e-06
169	0xb7242b28	-9.78521e-06
170	0x371e0069	9.417629e-06
171	0xb73295aa	-1.0644473e-05
172	0x36c779bd	5.9448344e-06
173	0x3764db84	1.3640969e-05
174	0xb706830d	-8.017535e-06
175	0x362a034f	2.53339e-06
176	0x364b5272	3.0297347e-06
177	0xb78f0164	-1.7047576e-05
178	0x37b8e78a	2.2042328e-05
179	0xb782cbb6	-1.5592068e-05
180	0x36085cc7	2.0319583e-06
181	0xb74b216e	-1.2107526e-05
182	0x370b2aef	8.295042e-06
183	0x3704205c	7.875347e-06
184	0x37400eae	1.144751e-05
185	0xb5586e66	-8.062692e-07
186	0xb67e0848	-3.785377e-06
187	0x3555f129	7.969962e-07
188	0xb7097622	-8.193341e-06
189	0x37150299	8.881697e-06
190	0x369d9cbe	4.697212e-06
191	0x367d02d8	3.7701593e-06
192	0x3623c5b5	2.4403973e-06
193	0xb7b33caf	-2.136672e-05
194	0xb691c36a	-4.344086e-06
195	0x3738cae4	1.1014494e-05
196	0xb6be6036	-5.6736417e-06
197	0xb6d0a3f0	-6.217968e-06
198	0xb6e0fb0d	-6.7049464e-06
199	0xb6d19e7e	-6.2471363e-06
200	0x3755c0bc	1.2740664e-05
201	0xb7424751	-1.1579906e-05
202	0x3781be26	1.5466543e-05
203	0x37487841	1.1948928e-05
204	0x3732aaf6	1.0649432e-05
205	0x372fa616	1.0469483e-05
206	0x3685aed6	3.9840625e-06
207	0x361d343e	2.3425232e-06
208	0xb79e69e7	-1.8884382e-05
209	0xb7b1c081	-2.1189686e-05
210	0x3727a23b	9.991748e-06
211	0x372bb223	1.023387e-05
212	0xb7396e86	-1.10525925e-05
213	0xb782db1d	-1.559924e-05
214	0xb7a5e0dd	-1.9774243e-05
215	0xb6546242	-3.1647655e-06
216	0xb6bbdd8b	-5.5988253e-06
217	0x37a8e796	2.0135001e-05
218	0x373b0957	1.1148243e-05
219	0xb7002bcd	-7.639593e-06
220	0x362e7e37	2.6001487e-06
221	0xb7954691	-1.7795044e-05
222	0x37109610	8.618008e-06
223	0xb6fd8bb1	-7.55625e-06
224	0x365e3fa8	3.311763e-06
225	0xb4ef7fc5	-4.4610184e-07
226	0xb6782153	-3.6974277e-06
227	0xb79321c4	-1.7539489e-05
228	0x3733ed1b	1.0724437e-05
229	0x3788086a	1.6216381e-05
230	0xb74bf434	-1.2156601e-05
231	0xb4074931	-1.2599482e-07
232	0xb75217ba	-1.25225e-05
233	0xb652879e	-3.1371378e-06
234	0x3728092f	1.00157185e-05
235	0xb737ecbc	-1.0962769e-05
236	0x3712e984	8.756648e-06
237	0x377b07c7	1.4962577e-05
238	0xb5b00364	-1.3114009e-06
239	0xb6c9e44c	-6.016844e-06
240	0x36da5c99	6.507686e-06
241	0xb79fbe26	-1.9042822e-05
242	0x37b3fb80	2.1455577e-05
243	0xb78588a4	-1.5918464e-05
244	0xb6cabb49	-6.041872e-06
245	0xb7877ae5	-1.6150481e-05
246	0x3702b667	7.791073e-06
247	0x36a1280d	4.8028364e-06
248	0x36b47fa0	5.3792755e-06
249	0x36a08114	4.7833983e-06
250	0xb6a6d36e	-4.971799e-06
251	0x364446b0	2.9247421e-06
252	0xb6d59248	-6.364924e-06
253	0x36cf85fd	6.184679e-06
254	0xb6af1b25	-5.2185665e-06
255	0x3636cfed	2.7241142e-06

exp_avg_sq f4 [64, 128]
0	0x30b96618	1.3489538e-09
1	0x321d7f4b	9.167546e-09
2	0x3001a60f	4.716591e-10
3	0x3121be5d	2.3536793e-09
4	0x3180abe9	3.744834e-09
5	0x30ad5475	1.2611411e-09
6	0x327412cf	1.4206946e-08
7	0x3156940f	3.122526e-09
8	0x316989f9	3.398439e-09
9	0x31a1c9f2	4.7086752e-09
10	0x31890171	3.9873886e-09
11	0x31ec9107	6.8849917e-09
12	0x32121a3d	8.504284e-09
13	0x300fcf3a	5.2317584e-10
14	0x325fa81d	1.3018533e-08
15	0x31946d47	4.3197903e-09
16	0x31f11750	7.0166735e-09
17	0x32120e71	8.501602e-09
18	0x32598759	1.2661837e-08
19	0x31659560	3.3408796e-09
20	0x3170137b	3.493567e-09
21	0x32139b5d	8.591852e-09
22	0x320a146e	8.037302e-09
23	0x32717704	1.4055107e-08
24	0x312c8cc1	2.5109304e-09
25	0x31f49563	7.118318e-09
26	0x310f477b	2.084987e-09
27	0x32a1d2b5	1.8838685e-08
28	0x3154721e	3.0914928e-09
29	0x31c30d3a	5.6767506e-09
30	0x31820768	3.78434e-09
31	0x2ff5a8c4	4.4685156e-10
32	0x31a7a3a9	4.8789457e-09
33	0x301c2091	5.679875e-10
34	0x3262e4e1	1.3206972e-08
35	0x31cceff6	5.964462e-09
36	0x3199cdb4	4.476272e-09
37	0x320d77a4	8.234483e-09
38	0x31b9d75a	5.4086913e-09
39	0x30a33bed	1.1876843e-09
40	0x30839648	9.574217e-10
41	0x3226f35d	9.717806e-09
42	0x31c470dd	5.717182e-09
43	0x31285b32	2.4499056e-09
44	0x3143c6b5	2.8489187e-09
45	0x316e4d38	3.4677452e-09
46	0x326ec717	1.3898691e-08
47	0x325af823	1.274569e-08
48	0x316909d3	3.3911547e-09
49	0x32093b6d	7.987961e-09
50	0x32269633	9.696623e-09
51	0x319da31e	4.5878457e-09
52	0x323dec9f	1.1055049e-08
53	0x31f93d69	7.2538353e-09
54	0x31b2bc65	5.2019e-09
55	0x31b5e32f	5.293621e-09
56	0x32697a0a	1.35901335e-08
57	0x308648d7	9.770486e-10
58	0x2f6f6f12	2.1776383e-10
59	0x31227269	2.3639137e-09
60	0x321a934f	8.997474e-09
61	0x320551fb	7.760259e-09
62	0x3282b41f	1.5215901e-08
63	0x31c01465	5.590254e-09
64	0x30d7a016	1.5688808e-09
65	0x3212bba4	8.540983e-09
66	0x301d88fd	5.731094e-10
67	0x31167111	2.1892144e-09
68	0x318e7971	4.14655e-09
69	0x30419c51	7.043513e-10
70	0x31cfca9d	6.0475274e-09
71	0x303f5d27	6.961777e-10
72	0x314a37be	2.9426555e-09
73	0x3123f62b	2.3859552e-09
74	0x3187bc53	3.950427e-09
75	0x319a8bf7	4.497902e-09
76	0x32084869	7.932706e-09
77	0x319578c1	4.350199e-09
78	0x32006fe2	7.47602e-09
79	0x2f00bc7b	1.1708494e-10
80	0x32140220	8.615217e-09
81	0x31f214c0	7.045486e-09
82	0x319e40ac	4.6057576e-09
83	0x3111f4eb	2.1239497e-09
84	0x316cbbc5	3.4449255e-09
85	0x31e9d18c	6.805015e-09
86	0x321ef3bc	9.252229e-09
87	0x31f4b126	7.121474e-09
88	0x3021e48c	5.8896243e-10
89	0x31ed9220	6.9142203e-09
90	0x318780a6	3.9436427e-09
91	0x31eb88b3	6.854941e-09
92	0x3190c945	4.2138333e-09
93	0x31fd0d7f	7.3648034e-09
94	0x30ffac03	1.8602581e-09
95	0x30f3a3f8	1.772718e-09
96	0x307895d0	9.043477e-10
97	0x302c8b2d	6.2771016e-10
98	0x3212fc40	8.5556735e-09
99	0x321cc9a7	9.1262455e-09
100	0x314f608b	3.0177343e-09
101	0x31a3b608	4.764619e-09
102	0x31703f5c	3.4960612e-09
103	0x30f0475b	1.7482579e-09
104	0x31f24a4a	7.0515727e-09
105	0x2f86936b	2.4479205e-10
106	0x31f0e66d	7.0111157e-09
107	0x314b6253	2.9596279e-09
108	0x31ea3778	6.8166024e-09
109	0x3185fea9	3.899761e-09
110	0x31eb52cc	6.848813e-09
111	0x31bf0d12	5.5603175e-09
112	0x30acd91b	1.2576352e-09
113	0x31c80b46	5.8220477e-09
114	0x320fe627	8.376026e-09
115	0x31f2e7e9	7.069492e-09
116	0x309dc494	1.1479124e-09
117	0x31906c4a	4.2032626e-09
118	0x3192a4c6	4.267892e-09
119	0x308b626f	1.0141558e-09
120	0x30e36f69	1.6548088e-09
121	0x30ca6486	1.4726005e-09
122	0x30706850	8.745973e-10
123	0x3084ada5	9.653617e-10
124	0x31d57e31	6.213462e-09
125	0x314bee73	2.967593e-09
126	0x31dc73a4	6.4159895e-09
127	0x319a0fa4	4.483768e-09
128	0x3221a08d	9.407938e-09
129	0x33273daa	3.89388e-08
130	0x300c0d50	5.095062e-10
131	0x324e3fe3	1.2005304e-08
132	0x329d8f9f	1.8342517e-08
133	0x31a98ab4	4.934316e-09
134	0x337dd047	5.909558e-08
135	0x31f3f018	7.0995263e-09
136	0x32a9ee11	1.978245e-08
137	0x32a548f4	1.9241703e-08
138	0x32c4e191	2.2919979e-08
139	0x32e269ae	2.635792e-08
140	0x331f1d71	3.704685e-08
141	0x3104ba58	1.9314452e-09
142	0x3370186b	5.5901562e-08
143	0x32208edc	9.345708e-09
144	0x3306e7bf	3.1410078e-08
145	0x33285020	3.918842e-08
146	0x33403900	4.4755325e-08
147	0x3290cc0a	1.6856593e-08
148	0x32809892	1.4970542e-08
149	0x33150af6	3.4701735e-08
150	0x33187e65	3.5505213e-08
151	0x337c6f93	5.87748e-08
152	0x31ac4c4f	5.014534e-09
153	0x33109a3b	3.3667884e-08
154	0x32398adc	1.079999e-08
155	0x33998b4b	7.149955e-08
156	0x32a08a58	1.8689363e-08
157	0x32dd343e	2.5751543e-08
158	0x32969fed	1.7535024e-08
159	0x309ffafc	1.1640107e-09
160	0x328cfc24	1.6412805e-08
161	0x3162911a	3.296981e-09
162	0x337d0c61	5.891741e-08
163	0x32f0b7ad	2.8023203e-08
164	0x32d3bd9f	2.4649863e-08
165	0x33243244	3.8229942e-08
166	0x32b472d8	2.1006983e-08
167	0x320ea80a	8.3036955e-09
168	0x32378474	1.0682118e-08
169	0x32c14738	2.2500544e-08
170	0x32e992a1	2.7191449e-08
171	0x324564de	1.1489844e-08
172	0x32a70ae5	1.9446313e-08
173	0x329cee9c	1.8269297e-08
174	0x337b0479	5.844456e-08
175	0x3367ec09	5.399855e-08
176	0x32727ca5	1.4114595e-08
177	0x330b1559	3.2382875e-08
178	0x33294aa1	3.9416253e-08
179	0x32bde4c6	2.210653e-08
180	0x32fd4f2b	2.9489078e-08
181	0x3301f614	3.025896e-08
182	0x32bc1764	2.1896717e-08
183	0x328b691c	1.6229528e-08
184	0x3329b301	3.9511182e-08
185	0x2fc80f4c	3.6390657e-10
186	0x30c8dd47	1.4614806e-09
187	0x3234916d	1.0510445e-08
188	0x3325f5ef	3.864073e-08
189	0x32f0babe	2.8024598e-08
190	0x3385ff79	6.239765e-08
191	0x32e6c40b	2.6864674e-08
192	0x322e06f5	1.0129715e-08
193	0x332fd705	4.094092e-08
194	0x312eb372	2.5422335e-09
195	0x324692ca	1.1558493e-08
196	0x32a85a6c	1.9598893e-08
197	0x318feea7	4.1889794e-09
198	0x3331f3f9	4.1432916e-08
199	0x3182422e	3.7910217e-09
200	0x32a1d67b	1.8840401e-08
201	0x3280aa75	1.4978676e-08
202	0x32c66080	2.3094117e-08
203	0x32a65a12	1.9365903e-08
204	0x33177ddd	3.52719e-08
205	0x32b7f822	2.1416842e-08
206	0x332e8121	4.0629974e-08
207	0x30563ef5	7.7942214e-10
208	0x332805b9	3.9120753e-08
209	0x33201bb7	3.727811e-08
210	0x32b7d6c5	2.140167e-08
211	0x3273b2f5	1.4185152e-08
212	0x327ea85e	1.4823028e-08
213	0x32fda65a	2.9528724e-08
214	0x3334c749	4.2090765e-08
215	0x332c19dd	4.0070393e-08
216	0x314d617d	2.9886842e-09
217	0x33150b45	3.4702015e-08
218	0x32926c3b	1.7045855e-08
219	0x331e224f	3.6818445e-08
220	0x32bf3211	2.2258094e-08
221	0x3310a3f5	3.367673e-08
222	0x325f6ce5	1.3005068e-08
223	0x320985d1	8.004876e-09
224	0x31dd3b3d	6.438681e-09
225	0x316fb05a	3.4879322e-09
226	0x3347bb79	4.6503803e-08
227	0x3331fc13	4.1440284e-08
228	0x32b55479	2.1109587e-08
229	0x330568fb	3.1061955e-08
230	0x3286632e	1.5644755e-08
231	0x322e85a1	1.0158517e-08
232	0x33142c0e	3.4499003e-08
233	0x309eee74	1.1563785e-09
234	0x330669de	3.1295592e-08
235	0x32606f97	1.3063889e-08
236	0x330d15f9	3.2849105e-08
237	0x32ae2dff	2.0277183e-08
238	0x332cba0c	4.021608e-08
239	0x332254cb	3.7795683e-08
240	0x3219e0b1	8.956861e-09
241	0x330362cc	3.059067e-08
242	0x332e69f2	4.060889e-08
243	0x3306a9e5	3.1353824e-08
244	0x320e95b7	8.299529e-09
245	0x32d7151c	2.5038894e-08
246	0x32a36c92	1.902507e-08
247	0x319d74ea	4.582593e-09
248	0x320f34c6	8.335695e-09
249	0x31fed954	7.4170803e-09
250	0x31809f3e	3.743394e-09
251	0x31e3d4e8	6.630774e-09
252	0x330247bf	3.0333236e-08
253	0x3271a6ff	1.4066017e-08
254	0x33395698	4.3152426e-08
255	0x32ca8ac0	2.3578991e-08

exp_avg f4 [64]
0	0x373e8f38	1.1358228e-05
1	0x379330b0	1.7546437e-05
2	0xb6ac5859	-5.1362845e-06
3	0x37c6ef72	2.371494e-05
4	0xb72ffbaa	-1.0489408e-05
5	0xb790827d	-1.7226901e-05
6	0xb7a73d8d	-1.9936613e-05
7	0xb72c8f83	-1.0285413e-05
8	0x3630e0d0	2.6356902e-06
9	0x37c68118	2.3663553e-05
10	0xb74f3207	-1.2349809e-05
11	0xb68718aa	-4.026185e-06
12	0x36b82959	5.488441e-06
13	0xb6f4c13f	-7.2942635e-06
14	0x369119f6	4.324359e-06
15	0xb61c2bc8	-2.3271296e-06
16	0xb725a9af	-9.874274e-06
17	0xb7cc6b4c	-2.4368659e-05
18	0x378337f3	1.564247e-05
19	0xb7aa80c4	-2.032554e-05
20	0xb692d03f	-4.375382e-06
21	0x372f4f81	1.0449324e-05
22	0xb5cf93bc	-1.5465698e-06
23	0xb7068549	-8.018055e-06
24	0xb703c1f2	-7.853365e-06
25	0xb74e688c	-1.23028985e-05
26	0x3736e2f3	1.0900886e-05
27	0xb6a6d146	-4.971548e-06
28	0x363af084	2.7856158e-06
29	0x373c3e6b	1.1220206e-05
30	0x37389693	1.1002313e-05
31	0xb72e1ad2	-1.0377453e-05
32	0xb7876af4	-1.6143058e-05
33	0xb765c3c0	-1.369504e-05
34	0xb6de9f58	-6.6346656e-06
35	0x35a10458	1.1996699e-06
36	0x375297ed	1.2552348e-05
37	0x376b2a22	1.4016901e-05
38	0xb73b68d4	-1.1170476e-05
39	0x377b1a6f	1.496692e-05
40	0x35acb2e4	1.2867063e-06
41	0xb5bd34d5	-1.4096973e-06
42	0x37cadb34	2.418235e-05
43	0xb7a044d9	-1.9105546e-05
44	0xb648f6ac	-2.9945904e-06
45	0xb758a3af	-1.2912714e-05
46	0x36769945	3.6746071e-06
47	0x3797a10e	1.80756e-05
48	0x371dbe4c	9.402236e-06
49	0xb729b08b	-1.011429e-05
50	0x35bdf6f8	1.4153475e-06
51	0x376490e1	1.3623591e-05
52	0xb624705c	-2.4503306e-06
53	0xb6b15a73	-5.2855407e-06
54	0xb6a332b8	-4.863683e-06
55	0x377c882d	1.5052076e-05
56	0xb721559a	-9.6162785e-06
57	0x35b24ff7	1.3285306e-06
58	0xb805a446	-3.1862663e-05
59	0x3515c6d8	5.579618e-07
60	0x369dc3cf	4.7017597e-06
61	0x360ba553	2.0808845e-06
62	0xb78f7a6c	-1.7103936e-05
63	0xb6922a68	-4.356076e-06

exp_avg_sq f4 [64]
0	0x32bfa6d9	2.23112e-08
1	0x33d59da0	9.947257e-08
2	0x30ff4686	1.8573736e-09
3	0x344ce827	1.9083437e-07
4	0x32c788e3	2.3228898e-08
5	0x33e708d6	1.0758383e-07
6	0x33fe1db0	1.1833197e-07
7	0x3285f3a3	1.5594031e-08
8	0x2f223295	1.4751785e-10
9	0x346231fc	2.1066074e-07
10	0x334068ac	4.4798682e-08
11	0x3153182f	3.0718288e-09
12	0x32f23cad	2.82001e-08
13	0x329f7819	1.856465e-08
14	0x3326215a	3.868022e-08
15	0x3140d6d3	2.806179e-09
16	0x32e4e168	2.6645196e-08
17	0x33f95ea8	1.1612184e-07
18	0x33de41c5	1.0349644e-07
19	0x33c5efe8	9.217166e-08
20	0x3057804f	7.839888e-10
21	0x32a3281a	1.8993934e-08
22	0x300fb247	5.2276444e-10
23	0x319359dd	4.2884793e-09
24	0x31890c48	3.988621e-09
25	0x332baf14	3.9973273e-08
26	0x33032911	3.0538164e-08
27	0x31ad0224	5.035206e-09
28	0x3299cfc9	1.7906034e-08
29	0x32cb0f92	2.3639391e-08
30	0x3252dad4	1.22733645e-08
31	0x33050a59	3.0975887e-08
32	0x32c73b63	2.3193655e-08
33	0x330e36a4	3.3111647e-08
34	0x3143bdde	2.8484162e-09
35	0x3102bc2d	1.9024455e-09
36	0x33c36881	9.099404e-08
37	0x32ff19a3	2.9697565e-08
38	0x32ec6381	2.7519265e-08
39	0x3387d0d2	6.3244116e-08
40	0x2f6ed995	2.1723275e-10
41	0x30c990d7	1.4665841e-09
42	0x33a873d8	7.8441815e-08
43	0x33f04f22	1.1190265e-07
44	0x3179f85b	3.6375443e-09
45	0x3399a3ea	7.1544335e-08
46	0x32a2ac02	1.8937502e-08
47	0x339051a5	6.7203736e-08
48	0x33562bb3	4.9865502e-08
49	0x3289428b	1.597916e-08
50	0x322b0624	9.954906e-09
51	0x33380366	4.284393e-08
52	0x309cf7c0	1.1420909e-09
53	0x33059a92	3.1107056e-08
54	0x31e1688d	6.560248e-09
55	0x336763cc	5.3874643e-08
56	0x3283dd65	1.5351086e-08
57	0x302a1f03	6.188971e-10
58	0x345b02c7	2.0396975e-07
59	0x2f96478a	2.7335673e-10
60	0x328895da	1.5900628e-08
61	0x3378a569	5.789244e-08
62	0x33d98e1c	1.01306995e-07
63	0x302a409c	6.1937455e-10

exp_avg f4 [2, 64]
0	0x382168a1	3.8482834e-05
1	0xb99059c9	-0.00027532715
2	0xb84b5ca2	-4.8485243e-05
3	0xb81c38af	-3.724609e-05
4	0x38470405	4.744904e-05
5	0xb57af475	-9.348799e-07
6	0x37a167bd	1.9241003e-05
7	0x373cca58	1.1252785e-05
8	0xb92a3a6d	-0.00016234229
9	0xb912d600	-0.00014003366
10	0x3959cd0d	0.0002077112
11	0x398d6374	0.00026967714
12	0x395d6a9f	0.00021115922
13	0x38bfcb85	9.145498e-05
14	0x383244d0	4.2502594e-05
15	0x3913db08	0.00014100608
16	0xb903b4de	-0.00012560512
17	0xb9144160	-0.00014138734
18	0x391ff1d2	0.00015253507
19	0x393403b3	0.00017167516
20	0xb924730b	-0.00015683116
21	0xb975a8b2	-0.00023427865
22	0xb950788d	-0.00019881334
23	0x37c82386	2.38584e-05
24	0xb832d8cc	-4.2640415e-05
25	0x39819627	0.0002471667
26	0xb7866693	-1.602181e-05
27	0xb81a13d1	-3.6734917e-05
28	0x38478530	4.7569338e-05
29	0xb90e83e3	-0.00013591307
30	0x38c0fe0f	9.2025955e-05
31	0xb8ec8499	-0.00011278055
32	0xb576ac65	-9.189301e-07
33	0x387b77d3	5.995466e-05
34	0xb978c0b8	-0.00023722916
35	0xb7e4000f	-2.7179745e-05
36	0x38bbb532	8.950605e-05
37	0x391d5636	0.00015004803
38	0xb9329999	-0.00017032622
39	0xb8907474	-6.888146e-05
40	0x378caa8f	1.6768723e-05
41	0xb96a423e	-0.00022340656
42	0xb7758005	-1.4632945e-05
43	0xb90dc95e	-0.00013521823
44	0xb88656de	-6.405798e-05
45	0x38cf0fd7	9.8734796e-05
46	0xb90e024b	-0.0001354303
47	0xb95c7330	-0.00021023746
48	0x3928f55c	0.00016113132
49	0xb92d3ddf	-0.00016521614
50	0x3869225f	5.558354e-05
51	0xb91b76d1	-0.00014826214
52	0xb955718c	-0.00020355562
53	0xb9137b59	-0.00014064963
54	0xb7ee60c5	-2.8416873e-05
55	0x375ef8ad	1.32901305e-05
56	0x3989ba81	0.00026269633
57	0xb84b257d	-4.8433885e-05
58	0x380e5919	3.3938417e-05
59	0x390a68e2	0.00013199777
60	0xb987eecc	-0.00025927124
61	0x396c3682	0.0002252702
62	0xb818a5dc	-3.6394093e-05
63	0xb8916a55	-6.933945e-05
64	0xb5973254	-1.1265024e-06
65	0x37da28ea	2.6006677e-05
66	0xb53913c4	-6.8946633e-07
67	0x390e0412	0.00013543692
68	0xb617134b	-2.2511983e-06
69	0xb7113611	-8.655262e-06
70	0xb8bcfcd9	-9.011635e-05
71	0xb8964636	-7.165635e-05
72	0x36f232c4	7.218072e-06
73	0xb87ff1a0	-6.102177e-05
74	0x37b05c34	2.102377e-05
75	0xb86f4738	-5.7048368e-05
76	0xb8907ca9	-6.889675e-05
77	0xb74a1eda	-1.2047321e-05
78	0xb8855fda	-6.359788e-05
79	0xb8bc25d0	-8.971582e-05
80	0x37a480c0	1.9610277e-05
81	0x3740ea97	1.14987115e-05
82	0xb77e2a02	-1.51493605e-05
83	0x388068c0	6.123027e-05
84	0x37e66caf	2.7468746e-05
85	0x381427fc	3.5323188e-05
86	0x383e4570	4.53642e-05
87	0xb8433f68	-4.6550675e-05
88	0xb7e7673f	-2.7585424e-05
89	0x37096fcb	8.191865e-06
90	0x384ba7aa	4.855512e-05
91	0x384d7e8d	4.899367e-05
92	0xb6ef0b3a	-7.124062e-06
93	0xb7795dce	-1.4863397e-05
94	0xb71fc8b7	-9.523871e-06
95	0x377f3fff	1.5214085e-05
96	0x374bd2af	1.21487965e-05
97	0xb8857eda	-6.365562e-05
98	0x388e00a7	6.771209e-05
99	0xb7c092a3	-2.2956467e-05
100	0x37dde858	2.6453446e-05
101	0x370e09a0	8.466101e-06
102	0x371e9712	9.452708e-06
103	0xb7cb812a	-2.4259632e-05
104	0xb809e97e	-3.2880802e-05
105	0x389cd6a1	7.4786374e-05
106	0xb8b5706d	-8.6516935e-05
107	0x379f06c2	1.8957424e-05
108	0x3803626e	3.1324504e-05
109	0x3781d27f	1.5476018e-05
110	0x38cf8f9b	9.897278e-05
111	0xb882deaf	-6.240361e-05
112	0xb6a248d8	-4.8364564e-06
113	0xb7743dd2	-1.4557927e-05
114	0x38136fde	3.5151716e-05
115	0x376df125	1.4182447e-05
116	0xb811d892	-3.477239e-05
117	0xb8368d8d	-4.352401e-05
118	0x379d00c5	1.8716217e-05
119	0xb7ba563a	-2.221308e-05
120	0xb8b8c1a1	-8.80987e-05
121	0x38c8cc26	9.574769e-05
122	0x36181384	2.2661125e-06
123	0xb7c47a86	-2.3422075e-05
124	0x389e718d	7.5551776e-05
125	0xb887f263	-6.48245e-05
126	0xb8b8e9cd	-8.8173525e-05
127	0xb82db678	-4.141635e-05
