results/energy/checkpoints/A02_H064_L02_D01_Tanh_W4096_P001000_V0.00e+00_S5.00e-01_Adam_PT_False_device_cuda_dtype_float32_chkp.pt (torch, 168019 bytes, 23 tensors)

layers.0.fc.weight f4 [64, 2]
0	0xbcb58fa7	-0.022163225
1	0x3ec4828d	0.38380852
2	0xbf15df14	-0.58543515
3	0xbf03e350	-0.51518726
4	0xbe841703	-0.25798807
5	0x3e41be4f	0.18920253
6	0xbbc0013b	-0.0058595217
7	0x3f0b382e	0.543826
8	0xbd2c1b76	-0.042018376
9	0x3e3d7b1a	0.18503991
10	0xbe5a6b6d	-0.21330042
11	0xbe00b863	-0.12570338
12	0xbf2882cc	-0.6582458
13	0xbef2b1ab	-0.47401175
14	0xbe8babd9	-0.27279547
15	0x3cf0b059	0.029380964
16	0x3e980591	0.29691747
17	0x3edfa95d	0.436839
18	0xbef7a46c	-0.4836763
19	0xbe94de67	-0.2907593
20	0x3e85a131	0.26099542
21	0x3f14d83d	0.58142453
22	0xbe0a9805	-0.13534553
23	0x3f0516e1	0.51988035
24	0xbdcddf1a	-0.10052319
25	0x3d7f6ed6	0.06236156
26	0x3f236341	0.63823324
27	0xbf2a7efb	-0.66600007
28	0xbed6e867	-0.41974184
29	0xbe32ecf9	-0.1747321
30	0xbe959527	-0.29215357
31	0x3f196ebe	0.59934604
32	0xbededef0	-0.43529463
33	0xbea1e623	-0.31620893
34	0xbef5838f	-0.47951934
35	0xbf280530	-0.65632915
36	0xbed600dd	-0.41797534
37	0x3f15a707	0.5845799
38	0x3ea41682	0.32048422
39	0x3eacb349	0.33730534
40	0x3d6563f0	0.05600351
41	0xbeb51c8a	-0.35373336
42	0x3dbfa7a6	0.09358148
43	0xbf2efe18	-0.68356466
44	0xbefb9221	-0.49134925
45	0xbec467e6	-0.38360518
46	0x3ee39a6e	0.44453758
47	0x3ec68cf5	0.38779417
48	0xbe9638bf	-0.2934017
49	0xbc820e29	-0.015875893
50	0x3eec2932	0.4612518
51	0x3f2ab3b4	0.66680455
52	0x3e91ead5	0.28499475
53	0x3d9474a8	0.07248813
54	0x3efbdee3	0.49193487
55	0xbec458d9	-0.38349035
56	0x3e19fc75	0.15037711
57	0xbf09b418	-0.53790426
58	0xbef7c04f	-0.48388907
59	0xbeb09d4a	-0.34495002
60	0x3e9fe04a	0.31225806
61	0x3e994fea	0.29943782
62	0xbecb5be5	-0.39718547
63	0x3e4827bd	0.19546409
64	0x3ec7faa4	0.3905841
65	0xbdb788d9	-0.089616485
66	0x3c467e7d	0.012115118
67	0x3e2c7c0a	0.16844192
68	0x3ee11cf3	0.439674
69	0x3f2047ca	0.6260954
70	0xbf08807b	-0.53321046
71	0xbe62caec	-0.22147721
72	0x3e912985	0.2835199
73	0x3f0e5b7e	0.55608356
74	0x3f1c9ded	0.61178476
75	0x3f167522	0.5877248
76	0x3e259aa2	0.16172269
77	0xbf184157	-0.594747
78	0x3d40ecd5	0.04710086
79	0xbedd33f8	-0.43203712
80	0xbf2a32f4	-0.66484
81	0x3f1b6025	0.6069358
82	0x3f103dde	0.563444
83	0xbf2f750f	-0.6853799
84	0x3def21e5	0.11676387
85	0xbdf0ac03	-0.11751559
86	0xbdc63889	-0.09678752
87	0xbe9db74b	-0.30803904
88	0x3e9a4454	0.30130255
89	0xbedeaf7e	-0.43493265
90	0x3e81daa3	0.2536212
91	0x3ebc7090	0.36804628
92	0x3eff5fe6	0.49877852
93	0x3e80b481	0.25137714
94	0xbf2fa26c	-0.6860721
95	0xbee996d2	-0.4562288
96	0x3eb26cbf	0.34848592
97	0x3e16e66f	0.14736341
98	0xbf0b3144	-0.5437205
99	0xbeccb4a1	-0.3998156
100	0x3f2b07c0	0.668087
101	0x3ef79efe	0.4836349
102	0xbea84b5a	-0.3286999
103	0xbe33f419	-0.17573585
104	0xbf2b868d	-0.67002183
105	0xba7c8008	-0.0009632115
106	0xbf0a2ad3	-0.53971595
107	0xbf02315e	-0.5085658
108	0xbd2139bf	-0.03936171
109	0x3dee35ef	0.11631381
110	0xbe9ede06	-0.31028765
111	0x3ecfcc22	0.40585428
112	0xbed3151e	-0.4122705
113	0x3f22aacd	0.6354187
114	0x3f00fd00	0.5038605
115	0xbf1a2a68	-0.60220957
116	0xbe22dcfb	-0.1590461
117	0x3d1b591f	0.03792679
118	0x3e14f747	0.14547454
119	0x3e1cc7f0	0.15310645
120	0x3e825713	0.25457057
121	0x3d2a1388	0.041522533
122	0xbea23eae	-0.31688446
123	0x3ea170ee	0.3153147
124	0xbf2551aa	-0.64577734
125	0xbed56919	-0.41681746
126	0xbe218c8b	-0.15776269
127	0xbea8edf0	-0.32994032

layers.0.fc.bias f4 [64]
0	0xbe71dfcd	-0.2362053
1	0xbf10f1e2	-0.56619084
2	0xbe4635aa	-0.19356409
3	0x3e1a68ef	0.15079091
4	0xbef240a0	-0.4731493
5	0xbd58da21	-0.0529424
6	0x3efec513	0.4975973
7	0xbdbcb1b6	-0.09213583
8	0x3cd4688d	0.02592876
9	0xbd2ff7c8	-0.042960912
10	0x3e13efeb	0.1444699
11	0x3eec5503	0.4615861
12	0x3f2fe87d	0.68714124
13	0x3eeff5df	0.46867272
14	0x3f2d7719	0.67759854
15	0xbd4b9e38	-0.049711436
16	0xbf263177	-0.6491923
17	0xbeb5b39e	-0.354886
18	0x3ef8b0c4	0.4857236
19	0xbbc9ebc6	-0.0061621396
20	0xbeb8b236	-0.36073464
21	0xbf09f189	-0.5388418
22	0xbf2d4b0f	-0.67692655
23	0xbf1bf019	-0.60913235
24	0xbe20bda6	-0.15697345
25	0x3ecc06e2	0.39849
26	0x3ec8c691	0.39213994
27	0xbf32f0c8	-0.69898653
28	0x3eeb64aa	0.45975238
29	0xbf0dff41	-0.5546761
30	0xbe07b996	-0.13254389
31	0xbe9c9200	-0.3058014
32	0xbe0accd6	-0.13554701
33	0xbe21b239	-0.15790643
34	0xbf2461be	-0.6421164
35	0xbf20799c	-0.6268556
36	0xbdeeadc4	-0.11654237
37	0x3b1b7aad	0.0023724244
38	0xbea7154f	-0.32633445
39	0x3e8fc59e	0.28080457
40	0xbf20ee64	-0.62863755
41	0xbd35aab7	-0.04435226
42	0x3f23d1f6	0.6399225
43	0xbe9cfa13	-0.3065954
44	0x3f240f7e	0.6408614
45	0x3e7e2b1a	0.2482113
46	0xbf2534ae	-0.6453351
47	0x3ef12432	0.47097927
48	0xbda34ff3	-0.079742335
49	0xbeb2e7fa	-0.3494261
50	0x3f0c37ca	0.5477263
51	0xbf13ec36	-0.57782304
52	0x3db880ad	0.09008918
53	0xbe1189d4	-0.14212734
54	0x3efaecd6	0.49008816
55	0x3e4be32c	0.19910878
56	0x3eb73756	0.35784405
57	0x3e847c46	0.25876063
58	0xbe42c489	-0.19020285
59	0xbe0dbd4d	-0.13841744
60	0xbf1aba33	-0.6044037
61	0x3ed05433	0.4068924
62	0x3f0e8472	0.55670846
63	0x3efb108d	0.49036065

layers.1.fc.weight f4 [64, 128]
0	0xbd80b33c	-0.06284186
1	0xb9d73fab	-0.00041055432
2	0xbd314c00	-0.04328537
3	0xbd2270b3	-0.03965826
4	0xbd59c4b1	-0.053166095
5	0x3d22abc5	0.039714593
6	0xbd4608e5	-0.048348326
7	0x3c58cddd	0.013232675
8	0xbb65461f	-0.0034984422
9	0x3d854bc9	0.065085955
10	0xbd90b1f9	-0.070651956
11	0xbd55ece0	-0.052227855
12	0xbd2f305a	-0.04277072
13	0x3d2d76d5	0.042349655
14	0xbcc6604f	-0.024215845
15	0x3dbdc0e1	0.09265304
16	0x3cc968cd	0.024586106
17	0x3c815e26	0.015791964
18	0x3b5773d0	0.0032875426
19	0xbccd3072	-0.025047515
20	0xbaafb73c	-0.0013406049
21	0xbcb205cc	-0.02173128
22	0xbc1b781c	-0.0094890855
23	0x3c1589fb	0.009127135
24	0xbd6b2967	-0.05741253
25	0xbd41fd05	-0.04736044
26	0x3d9b5175	0.07583896
27	0xbd9b5c21	-0.075859316
28	0xbc141316	-0.009037754
29	0x3da83e57	0.082150154
30	0x3cd23953	0.0256621
31	0x3ce0cc0f	0.027441053
32	0xbdb0ecaa	-0.0863889
33	0x3d29c185	0.04144432
34	0xbd79b409	-0.06096271
35	0xbcf779b1	-0.030209394
36	0xbd0f463c	-0.03497909
37	0xbca1114d	-0.01966157
38	0xbc1b5405	-0.009480481
39	0x3d930118	0.07177943
40	0x3ce231ac	0.027611576
41	0x3d83dfdc	0.06439182
42	0x3d629d29	0.05532566
43	0xbd83055c	-0.063975066
44	0x3d18c09b	0.037293058
45	0xbd802a36	-0.06258051
46	0xbd260856	-0.040535294
47	0x3cf92848	0.030414715
48	0x3cb046f0	0.0215182
49	0x3d92aa56	0.07161395
50	0xbce3cc2b	-0.027807316
51	0xbbf7850a	-0.0075537013
52	0x3d541aff	0.051783558
53	0xbd9c5af3	-0.07634535
54	0x3d9b3454	0.0757834
55	0xbd71538d	-0.05891757
56	0x3c006e2a	0.007838765
57	0xbd166204	-0.03671457
58	0xbd1a5148	-0.037675172
59	0x3bce5013	0.0062961667
60	0x3d81e5df	0.063426726
61	0xbc546e06	-0.012965685
62	0xbd417caa	-0.04723803
63	0xbce9efb3	-0.02855668
64	0xbdb594ca	-0.0886627
65	0x3d1f3243	0.038866293
66	0xbd4d4a09	-0.050119434
67	0xbd4d709f	-0.050156232
68	0xbd5ab24c	-0.053392693
69	0x3d2f3a9e	0.04278051
70	0x3d3c200b	0.045928996
71	0x3d707557	0.058705654
72	0x3d1c59d9	0.038171623
73	0xbd11ba3d	-0.035578
74	0xbc8e870c	-0.01739838
75	0x3d160e1c	0.03663455
76	0x3d9cecd9	0.076623626
77	0x3c95c3fb	0.018281927
78	0xbd31d400	-0.04341507
79	0xbd27ba44	-0.04094912
80	0xbda63910	-0.081163526
81	0x3c4bff95	0.012451072
82	0xbd553916	-0.052056395
83	0xbd96b7d0	-0.07359278
84	0x3d860b43	0.06545117
85	0xbd7c17ac	-0.061546013
86	0xbc074a86	-0.008257514
87	0x3cd4d4e8	0.025980428
88	0xbbd089ca	-0.006364082
89	0xbd604bb4	-0.054759696
90	0xbd8350b8	-0.0641188
91	0x3d9c7d98	0.076411426
92	0x3c7ccf38	0.015430264
93	0x3d982047	0.074280314
94	0xbcf00073	-0.02929709
95	0x3cde31dc	0.027123384
96	0xbca5728e	-0.020196225
97	0xbbb474b3	-0.0055070757
98	0xbd59f4c4	-0.053211942
99	0x3d05e6bd	0.032690752
100	0x3cf99a2d	0.030469025
101	0x3b1455e7	0.002263421
102	0xbcf5d1a6	-0.030007195
103	0xbd5b2ee2	-0.053511508
104	0x3d8e1356	0.06937282
105	0xbd896d51	-0.067103036
106	0x3d289e6b	0.041166704
107	0xbd247f72	-0.040160604
108	0xbd2abdfb	-0.041685086
109	0x3cc6f75a	0.024287868
110	0xbd37d017	-0.044876184
111	0x3c9baac2	0.019002322
112	0x3c933630	0.017970175
113	0xbd95604c	-0.07293758
114	0x3c868bb2	0.016424034
115	0x3d161c19	0.03664789
116	0x3d0ceb6c	0.034404203
117	0xbc8c8694	-0.017154016
118	0xbd802b80	-0.06258297
119	0xbc1a11cd	-0.009403658
120	0x3ceaf08b	0.028679153
121	0xbd0fe982	-0.0351348
122	0x3cac7804	0.021053322
123	0x3d6cc2f0	0.057803094
124	0xbd410fbf	-0.047134157
125	0x3a54660d	0.0008102365
126	0x3d152ec6	0.03642156
127	0x3befa8d8	0.007313829
128	0x3b9b1c04	0.0047335643
129	0xbbe44984	-0.0069667716
130	0xbd674293	-0.056459974
131	0x3bc831f9	0.006109473
132	0x3d553a83	0.052057754
133	0x3dc2d7cf	0.095138185
134	0x3d647963	0.055779826
135	0x3cf1f966	0.029537868
136	0x3d18e345	0.037326116
137	0xbd279df4	-0.04092212
138	0xbd977988	-0.07396227
139	0xbd9669c3	-0.07344391
140	0x3dcd6735	0.10029451
141	0x3d27b209	0.040941272
142	0xbd569439	-0.05238745
143	0x3d42baf9	0.047541592
144	0x3d85f27e	0.06540392
145	0x3da8be1f	0.08239388
146	0x3da186aa	0.07887013
147	0x3d84f077	0.064911775
148	0xbccff448	-0.025385037
149	0xbcf968b2	-0.03044543
150	0x3d889178	0.06668371
151	0x3d3b29d1	0.045694176
152	0xbd1dc40a	-0.038517036
153	0x3db3fed5	0.0878884
154	0x3d25700c	0.04039006
155	0x3d442486	0.047886394
156	0xbd653591	-0.055959288
157	0x3c895d5c	0.01676815
158	0xbd11926b	-0.035540026
159	0x3db38a04	0.08766559
160	0xbce0d943	-0.027447348
161	0x3ccbad7d	0.024863
162	0x3c7fa18a	0.015602479
163	0x3cfba01f	0.030716
164	0xbd04762e	-0.032339267
165	0x3d182e32	0.03715343
166	0xbd811926	-0.06303625
167	0x3cacb2b8	0.021081313
168	0xbd3c6b02	-0.046000488
169	0xbdc3cef1	-0.09560955
170	0xbd75d3e4	-0.060016528
171	0x3d8c90fd	0.06863592
172	0x3d442b25	0.04789271
173	0x3da5cbc0	0.08095503
174	0x3d82700b	0.06369027
175	0xbd987fc7	-0.074462466
176	0xbd90b87c	-0.070664376
177	0xbcaae136	-0.020859342
178	0xbd18c575	-0.037297685
179	0x3d7ea183	0.06216575
180	0xbd84d4b0	-0.064858794
181	0xbd27a43f	-0.04092812
182	0xbd91de0c	-0.0712243
183	0xbd22e679	-0.039770577
184	0x3d98333f	0.074316494
185	0x3d62d331	0.05537719
186	0x3d8754b1	0.066079505
187	0x3d67695d	0.056496967
188	0x3d89721b	0.06711217
189	0xbc25a59f	-0.010110288
190	0x3d2f0864	0.04273261
191	0x3daeb501	0.085306175
192	0x3cd39834	0.025829412
193	0x3db591b9	0.08865685
194	0x3d2b864a	0.041876115
195	0x3d5c8566	0.053838156
196	0xbd286662	-0.041113265
197	0x3d382a7f	0.044962402
198	0x3c18d118	0.009327196
199	0xbca91d32	-0.020643804
200	0xbd4fe1fc	-0.050752625
201	0xbd41c250	-0.04730445
202	0xbd904c8b	-0.070458494
203	0x3d7d54e1	0.061848525
204	0x3d985488	0.07437998
205	0xbc827a56	-0.015927475
206	0xbd5d4807	-0.05402377
207	0x3d80630e	0.06268893
208	0x3d748313	0.059695315
209	0x3c1e9116	0.009678146
210	0xbd37ea27	-0.04490104
211	0x3da4eebc	0.080533475
212	0x3cfd8ee5	0.030951926
213	0xbd886909	-0.06660659
214	0x3db22453	0.086983345
215	0x3d8c7b83	0.068594955
216	0xbd02bec6	-0.031920217
217	0x3d3ffe60	0.04687345
218	0xbd4d4b65	-0.05012073
219	0xbc036ea6	-0.008021986
220	0x3d9c0e79	0.07619948
221	0x3bc37f5c	0.00596611
222	0xbd80f898	-0.062974155
223	0xbcdc8d6f	-0.02692291
224	0xbcc60270	-0.024171084
225	0xbcd393c2	-0.025827292
226	0x3c1aca0e	0.009447588
227	0x3daef4c0	0.08542776
228	0x3bbab686	0.005698028
229	0xbd63e57a	-0.055638768
230	0x3b66084d	0.0035100162
231	0x3d381ae0	0.044947505
232	0x3d61d1ad	0.055131603
233	0xbd934127	-0.07190161
234	0xbb6933bb	-0.0035583812
235	0xbd8a05ba	-0.067393735
236	0xbd1069a4	-0.035256997
237	0x3cf5cf03	0.030005937
238	0xbd771427	-0.060321953
239	0x3d03239d	0.032016385
240	0x3d947083	0.072480224
241	0x3c03c3d4	0.0080422945
242	0xbd707d3e	-0.05871319
243	0xbcf9b95f	-0.0304839
244	0x3cc0e8bd	0.023548478
245	0xbd83edb2	-0.06441821
246	0x3d6ecb49	0.058299337
247	0xbda1c7f7	-0.078994684
248	0xbdb4340b	-0.08798989
249	0xbdb89312	-0.090124264
250	0xbcd4d356	-0.02597968
251	0x3d5ad0cb	0.053421777
252	0xbdac5c7b	-0.08416077
253	0x3d9805fd	0.07423017
254	0xbd12f63d	-0.035879362
255	0x3cd63433	0.026147937

layers.1.fc.bias f4 [64]
0	0x3d90cffb	0.07070919
1	0x3b9a8e54	0.004716674
2	0xbd3ec7f7	-0.04657742
3	0xbcf85f34	-0.030318834
4	0x3d1d12d6	0.03834804
5	0xbceb1ef0	-0.028701276
6	0x3cef60c7	0.029220952
7	0x3d18349b	0.037159543
8	0xbd618a3e	-0.05506348
9	0x3dbbd975	0.09172336
10	0x3d09e63e	0.03366684
11	0xbb817a31	-0.003951334
12	0x3d9a0782	0.07520963
13	0xbd1e5610	-0.038656294
14	0x3b7a45d5	0.0038188596
15	0x3d3de462	0.04636038
16	0xbda0ad9e	-0.07845615
17	0xbce08216	-0.02740578
18	0xbd32c624	-0.043645993
19	0xbc84b62e	-0.016200151
20	0xbd153677	-0.036428895
21	0xbcfd8b4b	-0.03095021
22	0xbc80fa03	-0.015744215
23	0x3d8e1764	0.06938055
24	0x3c81cbc0	0.015844226
25	0xbdac552d	-0.084146835
26	0xbd2816df	-0.041037437
27	0xbbae86ef	-0.005326144
28	0x3d31ee42	0.04344011
29	0x3d8221e3	0.0635412
30	0x3dc003ad	0.09375701
31	0xbd9249ce	-0.071429834
32	0x3d9464ae	0.072457656
33	0x3d33ccc3	0.043896448
34	0xbd3a9bad	-0.04555862
35	0xbd864be4	-0.06557444
36	0xbd564b6e	-0.05231803
37	0x3c1404ec	0.009034377
38	0xbd0cd92e	-0.034386806
39	0xbd93aede	-0.07211088
40	0xbd3871f3	-0.045030545
41	0x3d2bfda5	0.04198994
42	0x3b228bbc	0.0024802526
43	0xbda9b407	-0.082862906
44	0xbd8d597b	-0.06901833
45	0x3c93cb2a	0.018041212
46	0x3d565ad6	0.05233272
47	0xbd14716d	-0.036240984
48	0xbd71f716	-0.05907353
49	0x3ce08743	0.027408248
50	0xbd8015d8	-0.06254166
51	0xbd9131f3	-0.07089605
52	0x3d8364be	0.064156994
53	0x3cd1f24e	0.025628235
54	0xbd06ea5c	-0.032938346
55	0x3cbf2b7b	0.023336163
56	0x3d957d5f	0.07299303
57	0xbd8d6a61	-0.06905056
58	0xbc597050	-0.013271406
59	0xbc5c0091	-0.013427869
60	0xbdd1528a	-0.10220821
61	0x3dba7a0c	0.0910531
62	0xbdc63765	-0.096785344
63	0xbd013ea2	-0.031553872

layers.2.gsds.0.weight f4 [2, 64]
0	0x3d5c7a47	0.05382755
1	0x3ddd0332	0.10791625
2	0xbd4e8666	-0.05042114
3	0x3de2e2b5	0.11078397
4	0xbca5d073	-0.020240998
5	0xbde93f3c	-0.11389014
6	0xbdcb294c	-0.09919986
7	0xbd4e9b98	-0.050441355
8	0xbbe0c85f	-0.0068598236
9	0x3de877ce	0.11350976
10	0xbd7305bd	-0.059331644
11	0xbc9b4a78	-0.018956408
12	0x3ddba79f	0.107253306
13	0xbd035ec0	-0.032072783
14	0x3d85bca4	0.06530121
15	0xbc113ccf	-0.008864596
16	0xbd740a06	-0.05957987
17	0xbdb35b13	-0.087576054
18	0x3df3b1b8	0.118991315
19	0xbd9d1097	-0.0766918
20	0x3b35e9f9	0.0027757867
21	0x3d3cd1ed	0.04609864
22	0x3c0e18ae	0.008672876
23	0xbc656936	-0.014002135
24	0xbce766f3	-0.028247332
25	0xbd5e41d8	-0.054262012
26	0x3d2f74d0	0.04283601
27	0xbd26cb1a	-0.040721036
28	0x3d4f4e72	0.05061192
29	0x3d477870	0.048698843
30	0x3d4d268c	0.05008559
31	0xbda04294	-0.07825199
32	0xbdc9f319	-0.0986082
33	0xbd2a2ff5	-0.04154964
34	0x3d1b93c8	0.037982732
35	0x3c013222	0.007885488
36	0x3de62a01	0.1123848
37	0x3da31564	0.07963064
38	0xbd66c2a3	-0.056337964
39	0x3dbf7ae0	0.093496084
40	0xbd830613	-0.06397643
41	0xbd2f30c1	-0.042771105
42	0x3dd5f7f9	0.10447688
43	0xbdd3e6da	-0.10346766
44	0xbcfbaec7	-0.030722989
45	0xbdc9b7dd	-0.09849522
46	0x3d493ce4	0.049130335
47	0x3dd79fdd	0.105285384
48	0x3de76118	0.11297816
49	0xbd3c41a5	-0.04596104
50	0xbdbf6537	-0.09345477
51	0x3d8691eb	0.065708004
52	0xbd91cf99	-0.07119674
53	0xbd23f747	-0.040030744
54	0xbdb7f82b	-0.08982881
55	0x3dc0df20	0.09417558
56	0xbc4369b6	-0.011927059
57	0x3c437dbd	0.011931834
58	0xbbdabf92	-0.006675669
59	0x3c864150	0.016388565
60	0xbd94e143	-0.07269528
61	0x3e0e5d8e	0.13902876
62	0xbdc9f6e8	-0.09861547
63	0xb9b507f5	-0.0003452894
64	0xbd95242e	-0.07282291
65	0xbda8438c	-0.082160085
66	0x3d3dad9f	0.046308156
67	0x3db52222	0.08844401
68	0x3d7533c8	0.059863836
69	0x3cb8dfc5	0.02256764
70	0x3daaa127	0.083315186
71	0x3d452153	0.048127484
72	0xbd3db8d2	-0.046318837
73	0xbd670467	-0.056400683
74	0x3d478766	0.04871311
75	0x3d8a8239	0.06763119
76	0x3dc23cdb	0.094842635
77	0x3c8886a6	0.016665768
78	0x3de266ca	0.11054762
79	0xbdc93712	-0.09824957
80	0x3d0324d6	0.03201755
81	0x3dd7516c	0.10513577
82	0xbc1cdb48	-0.009573765
83	0x3da1ae76	0.07894604
84	0x3deaa438	0.114571035
85	0xbdcdd886	-0.10051064
86	0x3d8e2346	0.069403216
87	0x3d934e6f	0.071926944
88	0x3d97e9d8	0.07417649
89	0x3d8b7154	0.06808725
90	0x3dc9f2e5	0.098607816
91	0x3d6eb2aa	0.058275856
92	0x3dae7eeb	0.085203014
93	0xbdf17f7d	-0.117918946
94	0xbe0b0a57	-0.13578163
95	0x3d2fa636	0.04288312
96	0x3e162ec4	0.14666277
97	0xbd518e08	-0.051160842
98	0x3dd7bfd8	0.10534638
99	0xbd08eae4	-0.033427134
100	0x3d80d6d1	0.06290973
101	0xbbeef741	-0.0072926586
102	0x3d9104aa	0.07080968
103	0xbd46b9a0	-0.04851687
104	0xbdff2272	-0.12457742
105	0x3da66d6a	0.08126338
106	0xbd4b1418	-0.04957971
107	0x3db12b30	0.086508155
108	0x3d252ddf	0.04032695
109	0xbd2f5b68	-0.04281178
110	0x3e0c858c	0.13722819
111	0x3df0c430	0.1175617
112	0xbd626865	-0.05527534
113	0x3d5ac1c9	0.053407464
114	0x3d21a87d	0.039467324
115	0xbdcfb902	-0.10142709
116	0x3c7e26fa	0.015512222
117	0xbdeeb1c6	-0.11655001
118	0xbbebe648	-0.0071990825
119	0xbe04e122	-0.12976506
120	0x3dbe66d5	0.092969574
121	0x3da795b7	0.08182853
122	0x3df37b61	0.11888767
123	0x3d2c1d68	0.04202023
124	0xbd2c7835	-0.042106826
125	0x3d614073	0.054993104
126	0x3d6c73be	0.057727568
127	0x3d9e4f81	0.07730008

layers.2.gsds.0.bias f4 [2]
0	0xbb488689	-0.0030597767
1	0x3e023de4	0.12718922

log_envelope.log_envs.0.weight f4 [2, 1]
0	0x3f319976	0.6937479
1	0x3f2cc0e2	0.67481816

exp_avg f4 [64, 2]
0	0xb422ffa1	-1.5180423e-07
1	0xb5390144	-6.891971e-07
2	0xb4d5a34a	-3.979315e-07
3	0xb5052891	-4.9605393e-07
4	0x352c1398	6.4103506e-07
5	0x35607864	8.3621694e-07
6	0xb539c9e9	-6.921169e-07
7	0xb5aeb468	-1.3016515e-06
8	0x35868a27	1.0023986e-06
9	0x35c136ff	1.4395627e-06
10	0xb39c6e9d	-7.2844365e-08
11	0x34ce4c6e	3.84261e-07
12	0x32ee9221	2.7773298e-08
13	0x35365be9	6.793403e-07
14	0xb3217d38	-3.759962e-08
15	0x33f8c975	1.1585045e-07
16	0xb43d1cd8	-1.761249e-07
17	0xb4109f30	-1.3468957e-07
18	0xb4c8b06b	-3.7381264e-07
19	0xb562f271	-8.454436e-07
20	0x351ceb95	5.8457346e-07
21	0x3580c3af	9.593695e-07
22	0xb44412d8	-1.8260778e-07
23	0xb44b0a04	-1.8909492e-07
24	0xb5c4df4c	-1.4668126e-06
25	0xb602966f	-1.9459073e-06
26	0x3576fbfc	9.2008827e-07
27	0x3542d3d2	7.257887e-07
28	0xb55c24ae	-8.200976e-07
29	0xb568ea72	-8.67679e-07
30	0x34a2d4df	3.0329736e-07
31	0x34b35aa3	3.3407295e-07
32	0x340a8886	1.2901918e-07
33	0x34f81337	4.620758e-07
34	0x354788eb	7.433252e-07
35	0x346f22e0	2.2271297e-07
36	0xb30cce0f	-3.27837e-08
37	0xb3f0137a	-1.1179414e-07
38	0x354af54f	7.5607835e-07
39	0x35de79e1	1.657576e-06
40	0x347cffeb	2.3562431e-07
41	0xb389b201	-6.4119384e-08
42	0xb5a4afaf	-1.2270083e-06
43	0xb5725f8d	-9.029107e-07
44	0x339b5ae1	7.234281e-08
45	0xb41c4b14	-1.4555945e-07
46	0xb51af0ec	-5.772006e-07
47	0xb40732cb	-1.2591333e-07
48	0x3419e1f8	1.4331442e-07
49	0x34d3379e	3.934228e-07
50	0x32a4105a	1.9099549e-08
51	0xb49eabc4	-2.955477e-07
52	0x346818be	2.1615685e-07
53	0xb4f1d297	-4.5042972e-07
54	0xb582dd49	-9.750157e-07
55	0xb54610e8	-7.378535e-07
56	0xb58051e6	-9.560579e-07
57	0xb57fccb5	-9.529279e-07
58	0xb59c8eff	-1.1664523e-06
59	0xb5184983	-5.6731386e-07
60	0x34c6da25	3.7039095e-07
61	0x34912072	2.7031962e-07
62	0xb49d2483	-2.9270095e-07
63	0xb125cc78	-2.4126887e-09
64	0x3596ef40	1.1245502e-06
65	0x35df6055	1.6642831e-06
66	0x35b7acdd	1.3684872e-06
67	0x35ed39cc	1.7674697e-06
68	0xb48ecfc5	-2.6600733e-07
69	0xb48ddb9d	-2.6423086e-07
70	0xb50fd100	-5.3575786e-07
71	0xb4a7b035	-3.1234381e-07
72	0xb4453e53	-1.8369728e-07
73	0xb5646425	-8.508235e-07
74	0x3428f8b9	1.5736704e-07
75	0xb4e9b1e5	-4.3529067e-07
76	0x358ed2aa	1.0641136e-06
77	0x353c8971	7.023546e-07
78	0xb50ad4c1	-5.1718604e-07
79	0xb5b2c9c9	-1.3320761e-06
80	0xb58e00c6	-1.058005e-06
81	0xb4855290	-2.4833253e-07
82	0x34fa9e5e	4.6681356e-07
83	0x350c97a4	5.237473e-07
84	0xb574ed72	-9.124261e-07
85	0xb5d6d130	-1.6005124e-06
86	0x35808faa	9.578555e-07
87	0x35c125c4	1.4390612e-06
88	0x33b6f6f6	8.5199574e-08
89	0x34c7be43	3.7205072e-07
90	0x34bce51d	3.518443e-07
91	0x354efac8	7.7105915e-07
92	0xb5433085	-7.2713766e-07
93	0xb546649f	-7.390717e-07
94	0xb4b73fa1	-3.4132702e-07
95	0xb5928686	-1.0916999e-06
96	0xb4d9334f	-4.0456732e-07
97	0xb560e9ce	-8.3786733e-07
98	0x352ea49e	6.50596e-07
99	0x35875fb8	1.0086142e-06
100	0x343bb267	1.7480635e-07
101	0x34e4e7f9	4.2637092e-07
102	0xb5a95db6	-1.2618755e-06
103	0xb5a3f635	-1.2216102e-06
104	0x347ec857	2.3728477e-07
105	0x35366f65	6.7962384e-07
106	0xb4c2d886	-3.6292857e-07
107	0x34d614db	3.987578e-07
108	0x342a0c52	1.5836966e-07
109	0x34e54f7e	4.2712412e-07
110	0x33bc56e2	8.770236e-08
111	0xb3ab86c7	-7.987324e-08
112	0xb52332d5	-6.07962e-07
113	0xb51a542b	-5.749195e-07
114	0x355b8b3a	8.178646e-07
115	0x35663e8e	8.5772706e-07
116	0x34f70ba3	4.6015802e-07
117	0x35055177	4.966491e-07
118	0xb37ad8be	-5.8404787e-08
119	0xb3214630	-3.754957e-08
120	0x357d1e4e	9.4293944e-07
121	0x3584acac	9.88502e-07
122	0xb5e6d594	-1.7198495e-06
123	0xb60466a0	-1.9729268e-06
124	0xb4e1e397	-4.207511e-07
125	0x3486147b	2.4974347e-07
126	0xb54bcdaf	-7.59227e-07
127	0xb51ecee3	-5.9160647e-07

exp_avg_sq f4 [64, 2]
0	0x2eda8ce6	9.938521e-11
1	0x306a49a6	8.5233365e-10
2	0x2faf7dcb	3.1921696e-10
3	0x302b697b	6.2359334e-10
4	0x309d310d	1.1437195e-09
5	0x30adc4ea	1.2643373e-09
6	0x305c9929	8.025319e-10
7	0x314aa280	2.948724e-09
8	0x310a6411	2.0138524e-09
9	0x31790eee	3.6242755e-09
10	0x2c594c09	3.0879763e-12
11	0x2f9c017b	2.8377287e-10
12	0x2d90193f	1.6382116e-11
13	0x30496775	7.3270395e-10
14	0x2c27c2c5	2.3840246e-12
15	0x2e1e14bf	3.5943467e-11
16	0x2d885233	1.5497914e-11
17	0x2dbc7735	2.1426064e-11
18	0x2f4598a0	1.7971269e-10
19	0x309851b7	1.108268e-09
20	0x3013fdd8	5.383902e-10
21	0x30c36ebd	1.4219591e-09
22	0x2e09f0d0	3.1364078e-11
23	0x2e94927b	6.756281e-11
24	0x314fe8d3	3.025481e-09
25	0x31e0d38e	6.543309e-09
26	0x30834df5	9.553661e-10
27	0x30964d69	1.0935938e-09
28	0x30527b15	7.6572465e-10
29	0x30c31f3e	1.4196997e-09
30	0x2f5e7603	2.0232709e-10
31	0x2efdeb85	1.15469447e-10
32	0x2f1a3356	1.4024457e-10
33	0x2ffd77be	4.6105514e-10
34	0x305a8951	7.9503076e-10
35	0x2fb7aa74	3.340862e-10
36	0x2e73cb86	5.5432568e-11
37	0x2f049acb	1.2060324e-10
38	0x308136da	9.401575e-10
39	0x319515e9	4.3389616e-09
40	0x2f471b49	1.8108638e-10
41	0x2bea5f6b	1.6653184e-12
42	0x315696c4	3.12268e-09
43	0x3120a56a	2.3377091e-09
44	0x2b6f03f5	8.491535e-13
45	0x2e90ebce	6.590249e-11
46	0x30c38ac5	1.4227558e-09
47	0x2ee62142	1.0465097e-10
48	0x2e7c6dff	5.7395862e-11
49	0x2fa594ea	3.0119135e-10
50	0x2e046e49	3.0111278e-11
51	0x2f740309	2.2192749e-10
52	0x2c8214c6	3.6971285e-12
53	0x2fe77422	4.2101173e-10
54	0x30b3887e	1.3062758e-09
55	0x307aacf6	9.119526e-10
56	0x30e322d8	1.6526327e-09
57	0x30a81ab7	1.2231202e-09
58	0x30a621f1	1.2087736e-09
59	0x2f70f081	2.1913317e-10
60	0x30106d82	5.2542515e-10
61	0x2f4a671d	1.8408426e-10
62	0x2f100719	1.3099245e-10
63	0x2c0b98f5	1.9837996e-12
64	0x308b56ad	1.0138216e-09
65	0x31af9eb2	5.111212e-09
66	0x3162c012	3.2996508e-09
67	0x31bfcc39	5.582049e-09
68	0x2fb3cb9f	3.2704592e-10
69	0x2f238ae6	1.487411e-10
70	0x2fafb06e	3.1957675e-10
71	0x2e849998	6.029949e-11
72	0x2f81e899	2.3630234e-10
73	0x308ed85b	1.0393352e-09
74	0x2e004363	2.9163682e-11
75	0x2f92338f	2.659388e-10
76	0x311f62a2	2.3193611e-09
77	0x30c9c7be	1.4681445e-09
78	0x2fed37fd	4.314983e-10
79	0x31380c58	2.678254e-09
80	0x308e8088	1.0368391e-09
81	0x2f979bcc	2.757744e-10
82	0x2f79b7b0	2.2711677e-10
83	0x30395153	6.7418177e-10
84	0x310a4065	2.0118247e-09
85	0x319b22fe	4.515072e-09
86	0x311b3b22	2.2589082e-09
87	0x318f3123	4.167434e-09
88	0x2e62d247	5.1573214e-11
89	0x2f8ed3df	2.5980193e-10
90	0x2f718a53	2.1967965e-10
91	0x30850e69	9.681119e-10
92	0x30fd2d27	1.8421006e-09
93	0x30d1793c	1.5241208e-09
94	0x2f123eed	1.3300978e-10
95	0x30e13cfb	1.6388236e-09
96	0x2f79372c	2.2666019e-10
97	0x309cab1c	1.1399126e-09
98	0x301c4f8d	5.686552e-10
99	0x30ef91eb	1.7431011e-09
100	0x2e7aebb4	5.7052765e-11
101	0x2fd2d06c	3.834687e-10
102	0x318409aa	3.8428043e-09
103	0x312a1257	2.474868e-09
104	0x2f135bba	1.340216e-10
105	0x30997238	1.1164678e-09
106	0x2f3186ab	1.61459e-10
107	0x2fa2045b	2.9470723e-10
108	0x2e85bffb	6.0822423e-11
109	0x2fb5af92	3.3048458e-10
110	0x2e567466	4.876135e-11
111	0x2e25f30b	3.7732522e-11
112	0x300e7c5d	5.183603e-10
113	0x303fc2ef	6.976241e-10
114	0x3067858b	8.4227086e-10
115	0x30cf9c4e	1.5105657e-09
116	0x3030bc13	6.4295697e-10
117	0x300e6a70	5.1810556e-10
118	0x2cc8df43	5.709129e-12
119	0x2cfe5ec0	7.2296336e-12
120	0x304bfd41	7.4210865e-10
121	0x30d820a3	1.5725344e-09
122	0x31391670	2.6933797e-09
123	0x31f896dd	7.234901e-09
124	0x2f803706	2.332216e-10
125	0x2f6585e4	2.0874996e-10
126	0x30318a8d	6.458912e-10
127	0x30089dca	4.9700744e-10

exp_avg f4 [64]
0	0x3307a6f4	3.158398e-08
1	0x33b512aa	8.431864e-08
2	0xb2b5953e	-2.113904e-08
3	0x3425da4f	1.5446243e-07
4	0x3480a40e	2.3961223e-07
5	0xb2d57e2e	-2.4853843e-08
6	0x34e2e29d	4.2260663e-07
7	0x34074424	1.2597644e-07
8	0xb3e00d6c	-1.0433254e-07
9	0xb53ff9ec	-7.151673e-07
10	0xb30d5d73	-3.2914112e-08
11	0xb3950f80	-6.9411726e-08
12	0xb3c5daa8	-9.213301e-08
13	0xb4937598	-2.7466444e-07
14	0xb4411c15	-1.7984742e-07
15	0x3512f811	5.475022e-07
16	0xb3c1d4f1	-9.025997e-08
17	0x34e23d4d	4.2140383e-07
18	0x34c95a93	3.750507e-07
19	0x3479597d	2.3222488e-07
20	0xb40a3c3e	-1.2874168e-07
21	0x354f4bd6	7.7223865e-07
22	0x34265114	1.5489451e-07
23	0x3497a3e3	2.8245185e-07
24	0xb24d793e	-1.1960138e-08
25	0x34a3bfbb	3.0500618e-07
26	0x32b0f693	2.0601226e-08
27	0x32cab993	2.3600284e-08
28	0xb50fc63f	-5.356014e-07
29	0x32ee3201	2.7729586e-08
30	0xb4982ff5	-2.83471e-07
31	0x33fa5fbd	1.1658947e-07
32	0x349d92d4	2.935036e-07
33	0x349140e6	2.7055574e-07
34	0xb36154d8	-5.246406e-08
35	0x34a244f8	3.0225033e-07
36	0x3446c4ae	1.8511739e-07
37	0x3493d3da	2.7535026e-07
38	0xb5086412	-5.080957e-07
39	0xb497d01c	-2.827736e-07
40	0x34fc712d	4.7021004e-07
41	0xb49dc637	-2.938775e-07
42	0xb3c80e74	-9.315855e-08
43	0xb41288ea	-1.3647119e-07
44	0xb2fdf240	-2.9563239e-08
45	0xb38b5d1a	-6.489627e-08
46	0xb3419510	-4.5071886e-08
47	0xb449bf59	-1.8789196e-07
48	0xb3358de1	-4.2271385e-08
49	0xb3a93ac2	-7.880364e-08
50	0xb39a9ec1	-7.200061e-08
51	0x34961cf3	2.796074e-07
52	0xb4068dd5	-1.253132e-07
53	0xb540df2f	-7.185035e-07
54	0xb34faf06	-4.8355126e-08
55	0x34cb7710	3.7898326e-07
56	0xb2db29d3	-2.5513975e-08
57	0xb484e459	-2.475306e-07
58	0xb427e218	-1.563534e-07
59	0x33d21a26	9.7836434e-08
60	0x34989fc3	2.8428448e-07
61	0x342bedc5	1.6012116e-07
62	0x349c5df7	2.9125633e-07
63	0xb46fc553	-2.2330396e-07

exp_avg_sq f4 [64]
0	0x2c15e40d	2.1300767e-12
1	0x2e1f827f	3.6268318e-11
2	0x2c1ead49	2.2549343e-12
3	0x2e21abb8	3.675968e-11
4	0x2e945ade	6.746402e-11
5	0x2cb06f61	5.0145864e-12
6	0x2fcb49b7	3.6977862e-10
7	0x2d32c468	1.01617395e-11
8	0x2d8f7cc4	1.6312625e-11
9	0x30800f0f	9.317506e-10
10	0x2dc16664	2.198703e-11
11	0x2c4f47d1	2.9456335e-12
12	0x2c5d374d	3.1436687e-12
13	0x2cbba94c	5.3336554e-12
14	0x2f128f96	1.3329635e-10
15	0x3005f6ea	4.8736004e-10
16	0x2e24eac7	3.7497807e-11
17	0x2fbc1ba9	3.4216655e-10
18	0x2fc4a994	3.5772685e-10
19	0x2f5db070	2.0162516e-10
20	0x2e397536	4.2168234e-11
21	0x30896276	9.996046e-10
22	0x2e0a32ac	3.1422573e-11
23	0x2e84dc76	6.041827e-11
24	0x2aef277d	4.248233e-13
25	0x2f06501c	1.221569e-10
26	0x2d9da4ea	1.792207e-11
27	0x2cfb8620	7.14874e-12
28	0x2fbacbce	3.3978015e-10
29	0x2e9d2270	7.145651e-11
30	0x2eacbc7a	7.8551346e-11
31	0x2d20d055	9.141206e-12
32	0x2fb6709d	3.3185624e-10
33	0x2e8f2ca7	6.510819e-11
34	0x2d988632	1.7339994e-11
35	0x2e8c5703	6.381919e-11
36	0x2d9c17b9	1.7745682e-11
37	0x2e6350f9	5.1685742e-11
38	0x3019fc1c	5.6019345e-10
39	0x2eed0018	1.0777529e-10
40	0x2f0d2366	1.2836451e-10
41	0x2e9bf6d3	7.092429e-11
42	0x2c3530f9	2.5748832e-12
43	0x2e8dfc5f	6.456768e-11
44	0x2baca9b2	1.2268435e-12
45	0x2c5e7c57	3.161712e-12
46	0x2f2f4bab	1.594304e-10
47	0x2f097e6b	1.250499e-10
48	0x2dcf7de3	2.358908e-11
49	0x2d877a51	1.5402042e-11
50	0x2e05f07b	3.045429e-11
51	0x2e8f0cff	6.505196e-11
52	0x2d44301c	1.11519925e-11
53	0x3050a2c3	7.590126e-10
54	0x2d215ab6	9.171932e-12
55	0x2f95a232	2.721819e-10
56	0x2c887c73	3.879169e-12
57	0x2d2b2059	9.727407e-12
58	0x2e8d4d88	6.42571e-11
59	0x2d30427e	1.0019206e-11
60	0x2ec803f8	9.095652e-11
61	0x2ecac49a	9.22082e-11
62	0x2f8b923a	2.5387853e-10
63	0x2e946d0c	6.7496314e-11

exp_avg f4 [64, 128]
0	0xb4255685	-1.5398298e-07
1	0x34edb49d	4.4276103e-07
2	0xb3438685	-4.552432e-08
3	0xb47cdeaf	-2.355034e-07
4	0xb3349a30	-4.204975e-08
5	0x33b41576	8.385807e-08
6	0xb2aa08d0	-1.9794612e-08
7	0x32d24d95	2.4482498e-08
8	0xb4785a3e	-2.312963e-07
9	0x345197a9	1.9519815e-07
10	0xb4a51f2a	-3.075632e-07
11	0xb43353fb	-1.6701226e-07
12	0xb360c41d	-5.2332428e-08
13	0x344ca6a7	1.9059608e-07
14	0xb3991d91	-7.129996e-08
15	0xb473509c	-2.2660464e-07
16	0x34a0c0d1	2.9942615e-07
17	0x34ddd5ea	4.13201e-07
18	0xb40a3fbd	-1.287544e-07
19	0xb4432a32	-1.8176141e-07
20	0x341de7b7	1.4706062e-07
21	0x345a3769	2.032299e-07
22	0x34c11fcd	3.597219e-07
23	0x3289c592	1.6038744e-08
24	0x337dbce5	5.907795e-08
25	0xb4deb86f	-4.1484915e-07
26	0xb3f2b801	-1.1302473e-07
27	0x33f647b5	1.1468311e-07
28	0x345bcce3	2.0470502e-07
29	0x34b5de9b	3.3875844e-07
30	0xb4099205	-1.2812241e-07
31	0xb2140995	-8.6169125e-09
32	0x32c02668	2.2369207e-08
33	0xb38efb66	-6.6581194e-08
34	0xb34a3c58	-4.7086672e-08
35	0x34a3bdd1	3.0499226e-07
36	0xb48210ab	-2.4226514e-07
37	0xb4ab8a90	-3.195205e-07
38	0x345340a3	1.9674421e-07
39	0x34382021	1.7148024e-07
40	0xb41a894e	-1.4392319e-07
41	0x344867b2	1.8664176e-07
42	0xb1ab31f8	-4.982436e-09
43	0x34328df8	1.662919e-07
44	0x34059a15	1.2442645e-07
45	0xb4799ef3	-2.3247757e-07
46	0x3392f299	6.842783e-08
47	0xb2a20207	-1.8860204e-08
48	0xb3abb4ff	-7.995731e-08
49	0x34be16e6	3.540692e-07
50	0xb4f6fd5b	-4.600541e-07
51	0x34480e5f	1.863168e-07
52	0x33581a55	5.0315368e-08
53	0x34b2be21	3.329342e-07
54	0xb38fa5cd	-6.6891154e-08
55	0xb410cdf9	-1.3485977e-07
56	0xb4227012	-1.5128197e-07
57	0x345735d5	2.004302e-07
58	0x326a5014	1.36388e-08
59	0xb389bcf9	-6.4139336e-08
60	0x3338cf51	4.302939e-08
61	0xb3e10cd5	-1.0479713e-07
62	0xb3643ddb	-5.3141644e-08
63	0x338fb424	6.691724e-08
64	0xb41a10a9	-1.4348429e-07
65	0x349fb453	2.974726e-07
66	0x3318cf7f	3.5578974e-08
67	0xb47bdc4d	-2.3456342e-07
68	0xb2dcfd38	-2.5726521e-08
69	0x341dfff6	1.4714882e-07
70	0x34aa1f75	3.1687856e-07
71	0x33e004c9	1.0431683e-07
72	0xb499008c	-2.849887e-07
73	0x34908437	2.691829e-07
74	0xb4abcfff	-3.200257e-07
75	0xb42bef46	-1.6012663e-07
76	0xb2dc8555	-2.5672003e-08
77	0x330796df	3.1569353e-08
78	0x343b1152	1.7422033e-07
79	0xb40792f8	-1.2626322e-07
80	0x34617c3b	2.0999953e-07
81	0x34b8ccb6	3.4421618e-07
82	0xb36e7feb	-5.5530034e-08
83	0xb4895406	-2.5579374e-07
84	0x3414ba25	1.3851293e-07
85	0x3465397b	2.1348198e-07
86	0x34791346	2.3196944e-07
87	0xb481fc28	-2.421159e-07
88	0x340a10d5	1.2858375e-07
89	0xb4b51dc2	-3.373553e-07
90	0xb417454a	-1.4088178e-07
91	0xb32131dc	-3.753108e-08
92	0x3405c102	1.2456806e-07
93	0x34810094	2.4028543e-07
94	0xb47ee455	-2.373866e-07
95	0x339e308b	7.366278e-08
96	0xb3faa7de	-1.1672067e-07
97	0xb399afc9	-7.156593e-08
98	0xb49b8fab	-2.8975532e-07
99	0x345a2b9d	2.0318699e-07
100	0xb4ac31fd	-3.2073868e-07
101	0xb4cb2e28	-3.784528e-07
102	0x3443e78b	1.8245025e-07
103	0x341f3824	1.4828453e-07
104	0xb297f186	-1.7688546e-08
105	0x332a4df2	3.96521e-08
106	0xb313894c	-3.4350975e-08
107	0x343eb667	1.7761487e-07
108	0x32b33d45	2.0866205e-08
109	0xb4820b6b	-2.4222695e-07
110	0xb466d171	-2.1496614e-07
111	0x34adb315	3.235406e-07
112	0xb44f1fb6	-1.9289914e-07
113	0x349c88c9	2.915679e-07
114	0xb4a52485	-3.0760216e-07
115	0x34334eda	1.669936e-07
116	0x34628889	2.1097561e-07
117	0x34b6623e	3.3971622e-07
118	0xb376960f	-5.7412816e-08
119	0xb3393afb	-4.312731e-08
120	0xb3a6c310	-7.765459e-08
121	0x3335bba2	4.2312998e-08
122	0x33866b8c	6.259424e-08
123	0xb4050bf8	-1.2390944e-07
124	0xb3a1ab99	-7.52836e-08
125	0xb2249787	-9.58051e-09
126	0x34996607	2.8572705e-07
127	0x342ae3b4	1.5915322e-07
128	0xb4eb05ea	-4.3776464e-07
129	0x35803302	9.551588e-07
130	0xb3a61fe6	-7.73578e-08
131	0xb51b6792	-5.7892714e-07
132	0xb455c55b	-1.9908968e-07
133	0x349318b6	2.7398863e-07
134	0x34e534b6	4.2692926e-07
135	0x340a7ab5	1.2896892e-07
136	0xb532d369	-6.661781e-07
137	0x3521dc6b	6.0297924e-07
138	0xb5577605	-8.026548e-07
139	0xb4b050de	-3.2841393e-07
140	0x333a212d	4.3336673e-08
141	0x34ddb277	4.1294308e-07
142	0x3468064e	2.1608977e-07
143	0xb504ef78	-4.9522305e-07
144	0x35187844	5.679942e-07
145	0x358312fc	9.765786e-07
146	0xb42f2f7d	-1.6315421e-07
147	0xb517c556	-5.6539045e-07
148	0x349b3f3b	2.8917006e-07
149	0x34e8173c	4.3230273e-07
150	0x353b5e74	6.9800376e-07
151	0xb4c36476	-3.6394675e-07
152	0x34500aea	1.937548e-07
153	0xb5822a3f	-9.69805e-07
154	0xb47b6b83	-2.3415309e-07
155	0xaf6e79bb	-2.1689221e-10
156	0x351014bf	5.367437e-07
157	0x353a23e2	6.9342616e-07
158	0xb5034c09	-4.891195e-07
159	0xafc12ade	-3.5136954e-10
160	0xb40c8566	-1.3087046e-07
161	0xb4665705	-2.1452077e-07
162	0xb509484e	-5.1141694e-07
163	0x351b3b61	5.782841e-07
164	0xb548cfd3	-7.480823e-07
165	0xb56ec83f	-8.8953306e-07
166	0x34e529ca	4.268498e-07
167	0x350057ed	4.7811665e-07
168	0xb4ba9545	-3.4753808e-07
169	0x34b09d35	3.2896938e-07
170	0x33d0e090	9.7266025e-08
171	0x34c82062	3.7276465e-07
172	0x34b6885d	3.399936e-07
173	0xb518e0fb	-5.69518e-07
174	0xb48e8c97	-2.6551854e-07
175	0x34e5e03a	4.281772e-07
176	0xb4c08200	-3.5857374e-07
177	0x355cf227	8.2308765e-07
178	0xb5869cbc	-1.0029394e-06
179	0x34b6d857	3.405755e-07
180	0x34c2206f	3.6158914e-07
181	0x356889cf	8.662727e-07
182	0xb34fad57	-4.8353595e-08
183	0xb460fb46	-2.0953038e-07
184	0xb484e351	-2.475231e-07
185	0x34db9a8a	4.090437e-07
186	0x332d17d0	4.030136e-08
187	0xb48cfd8e	-2.6261517e-07
188	0xb41cf196	-1.461652e-07
189	0xb3acd0cb	-8.0473534e-08
190	0x34c12b6c	3.5980645e-07
191	0x34c8593b	3.7317827e-07
192	0xb4e2a042	-4.2212383e-07
193	0x3541a357	7.2135794e-07
194	0x334b5d19	4.7349292e-08
195	0xb51b02aa	-5.7745876e-07
196	0xb43bf850	-1.7506068e-07
197	0x34c72935	3.709662e-07
198	0x3579825d	9.294943e-07
199	0x34874274	2.519406e-07
200	0xb54900f5	-7.487973e-07
201	0x353f47bf	7.125745e-07
202	0xb55cd205	-8.2262005e-07
203	0xb4a8d913	-3.145038e-07
204	0x33b2a0bc	8.318008e-08
205	0x3431d97d	1.6563531e-07
206	0x351cc841	5.8405936e-07
207	0xb4b83637	-3.4312117e-07
208	0x34e982c1	4.3494768e-07
209	0x35692129	8.684752e-07
210	0xb3457a0a	-4.597863e-08
211	0xb535fab9	-6.7792604e-07
212	0x3493a163	2.7498308e-07
213	0x34efaec4	4.4644378e-07
214	0x3506983e	5.014043e-07
215	0xb54add99	-7.557333e-07
216	0x34a21baa	3.019498e-07
217	0xb5631615	-8.4596223e-07
218	0xb49783d2	-2.8221854e-07
219	0xb475a9c9	-2.287917e-07
220	0x34e0beed	4.1862168e-07
221	0x3511702d	5.4179947e-07
222	0xb52fab31	-6.5441697e-07
223	0x340b1db6	1.2956193e-07
224	0xb4b71ce7	-3.4107435e-07
225	0xb46e5728	-2.2197185e-07
226	0xb56d3d12	-8.837825e-07
227	0x34e4eb2a	4.2639414e-07
228	0xb569d968	-8.711563e-07
229	0xb58501a4	-9.90975e-07
230	0x34d800c7	4.02337e-07
231	0x34ee2825	4.4360164e-07
232	0xb4217dd0	-1.5040064e-07
233	0x33d7b726	1.0045032e-07
234	0x3362cb36	5.2804545e-08
235	0x34d24959	3.9168916e-07
236	0x3448b425	1.8691988e-07
237	0xb51d2c08	-5.855113e-07
238	0xb53a4bb8	-6.9400585e-07
239	0x357bc664	9.3793483e-07
240	0xb50de92d	-5.286591e-07
241	0x354220e6	7.2318505e-07
242	0xb54b2f47	-7.569219e-07
243	0x34ab45a0	3.190189e-07
244	0x351ffb77	5.9598045e-07
245	0x356bf3fb	8.789936e-07
246	0xb3105ed2	-3.361385e-08
247	0xb391863a	-6.776504e-08
248	0xb40b94be	-1.2999496e-07
249	0x3431ca5a	1.6558025e-07
250	0x33f89b35	1.1576632e-07
251	0xb4bd21f7	-3.5228706e-07
252	0xb4ab7e4e	-3.194313e-07
253	0x338b4d1b	6.486717e-08
254	0x3568a498	8.666625e-07
255	0x3508e929	5.100324e-07

exp_avg_sq f4 [64, 128]
0	0x2e319ff0	4.0387194e-11
1	0x2fbf6d25	3.482025e-10
2	0x2c5fb3e6	3.179007e-12
3	0x2ede0ad0	1.0097312e-10
4	0x2c6d9253	3.3760952e-12
5	0x2d65790a	1.3044019e-11
6	0x2d0e095a	8.073842e-12
7	0x2bbce746	1.3422395e-12
8	0x2ebe653f	8.6581846e-11
9	0x2e7fe386	5.818237e-11
10	0x2f31072e	1.6100607e-10
11	0x2e6e93c8	5.424619e-11
12	0x2c982ec3	4.3252914e-12
13	0x2e6b7897	5.353992e-11
14	0x2d59cfab	1.23811334e-11
15	0x2ed22d4d	9.5577414e-11
16	0x2f3c00d9	1.7098802e-10
17	0x2fac7e92	3.137655e-10
18	0x2e4afb06	4.6152436e-11
19	0x2e6b22af	5.346362e-11
20	0x2e28e638	3.8403253e-11
21	0x2ebe394c	8.6503776e-11
22	0x2f813629	2.3503446e-10
23	0x2c8c4043	3.986174e-12
24	0x2cf701b3	7.020351e-12
25	0x2fb1afe5	3.2321093e-10
26	0x2de6084f	2.6151662e-11
27	0x2e218637	3.672637e-11
28	0x2e909a4c	6.5757705e-11
29	0x2f617676	2.0505717e-10
30	0x2de35177	2.584309e-11
31	0x29efd46e	1.0650583e-13
32	0x2c1770d1	2.1521016e-12
33	0x2d0b401e	7.915472e-12
34	0x2c6511e1	3.2552782e-12
35	0x2f417bca	1.7597226e-10
36	0x2ec3e0a7	8.9074796e-11
37	0x2f1773bf	1.3774491e-10
38	0x2ea9c6eb	7.720565e-11
39	0x2e58a958	4.926312e-11
40	0x2d995fcb	1.7436627e-11
41	0x2ed0bc13	9.4921536e-11
42	0x2a36ddfa	1.6241861e-13
43	0x2e5afb7b	4.979082e-11
44	0x2db910f6	2.1039597e-11
45	0x2ed171cb	9.524433e-11
46	0x2d8f229e	1.6272591e-11
47	0x2d1b343a	8.8223265e-12
48	0x2d3161ec	1.0083028e-11
49	0x2f651097	2.0833323e-10
50	0x2fcb9e6a	3.7038045e-10
51	0x2e99b959	6.990559e-11
52	0x2c26ad01	2.3686055e-12
53	0x2f3c1685	1.7106501e-10
54	0x2cfe9395	7.235499e-12
55	0x2e25a537	3.7663397e-11
56	0x2e870704	6.1403355e-11
57	0x2e9d89de	7.1640235e-11
58	0x2af20b46	4.2995658e-13
59	0x2d07e8e7	7.725576e-12
60	0x2c76ad3f	3.5054874e-12
61	0x2dd24dac	2.390873e-11
62	0x2d8189be	1.4726772e-11
63	0x2d10baeb	8.2269564e-12
64	0x2e1bd0df	3.5428434e-11
65	0x2f64768f	2.07786e-10
66	0x2c4823b0	2.844152e-12
67	0x2edbfbf6	1.0003724e-10
68	0x2bc8fc26	1.428084e-12
69	0x2e312dd9	4.028586e-11
70	0x2f445c43	1.7858874e-10
71	0x2dbd4438	2.1517108e-11
72	0x2f2946a1	1.5395553e-10
73	0x2f2390d5	1.4876218e-10
74	0x2f5ad27e	1.9901766e-10
75	0x2e548687	4.8322703e-11
76	0x2b99809d	1.0907001e-12
77	0x2b900efd	1.0235975e-12
78	0x2e2b253a	3.8913962e-11
79	0x2e0103b1	2.9334483e-11
80	0x2ef6e519	1.1227481e-10
81	0x2f90f117	2.6364752e-10
82	0x2d568649	1.2194309e-11
83	0x2f095166	1.2488996e-10
84	0x2e14fa71	3.387374e-11
85	0x2ec74920	9.062462e-11
86	0x2f16dbe8	1.3720547e-10
87	0x2ed159db	9.520181e-11
88	0x2e14c60d	3.382721e-11
89	0x2f8d0b11	2.5655614e-10
90	0x2e3e2a78	4.3238718e-11
91	0x2b46dd95	7.065124e-13
92	0x2ddf45d4	2.5383175e-11
93	0x2f1b660c	1.4133422e-10
94	0x2ee0b9a8	1.021932e-10
95	0x2d8a300e	1.5710124e-11
96	0x2dd15421	2.379791e-11
97	0x2d1f572d	9.0574605e-12
98	0x2f239514	1.4877727e-10
99	0x2ef72308	1.12384824e-10
100	0x2f4b8a4a	1.8511873e-10
101	0x2f95c6d3	2.7244215e-10
102	0x2e8c3444	6.375747e-11
103	0x2e245743	3.7366787e-11
104	0x2ca8df30	4.799626e-12
105	0x2c9704a1	4.292192e-12
106	0x2c0b0024	1.9753166e-12
107	0x2e7fa3b8	5.81257e-11
108	0x2b071118	4.7985357e-13
109	0x2f01d4aa	1.1808035e-10
110	0x2e9a8a5a	7.0276854e-11
111	0x2f4a0321	1.8372905e-10
112	0x2e999391	6.9838475e-11
113	0x2f50a53f	1.8976197e-10
114	0x2f6d68d6	2.159227e-10
115	0x2e8e7a8f	6.479183e-11
116	0x2ec775eb	9.070419e-11
117	0x2f817931	2.3551075e-10
118	0x2cba1b22	5.2894503e-12
119	0x2ca276f8	4.617525e-12
120	0x2da3bfd5	1.8616145e-11
121	0x2bac6de2	1.2251834e-12
122	0x2cfb50cf	7.1428206e-12
123	0x2deb5acb	2.6756727e-11
124	0x2d0de494	8.065677e-12
125	0x2b8096f1	9.136842e-13
126	0x2f263ad5	1.5118513e-10
127	0x2e308446	4.013525e-11
128	0x2fbcc40f	3.433631e-10
129	0x30d65626	1.5595034e-09
130	0x2cefeb22	6.8188935e-12
131	0x302372e9	5.946235e-10
132	0x2eb53156	8.239691e-11
133	0x2f20a9bf	1.4612221e-10
134	0x2f9bb7b5	2.8324867e-10
135	0x2e28ec8c	3.8408873e-11
136	0x30505471	7.578996e-10
137	0x3028ea23	6.145077e-10
138	0x30981804	1.1066281e-09
139	0x2f505629	1.89481e-10
140	0x2d2296a1	9.24208e-12
141	0x2f52d2a2	1.917422e-10
142	0x2e94deeb	6.769859e-11
143	0x2fea0ef9	4.257499e-10
144	0x3036bff8	6.648402e-10
145	0x30ee00d1	1.7317011e-09
146	0x2ea5ad9c	7.5341705e-11
147	0x30189b7e	5.5518246e-10
148	0x2f1538d0	1.3571655e-10
149	0x2fca5a88	3.6807912e-10
150	0x307e3406	9.247859e-10
151	0x2f57fbcd	1.9643594e-10
152	0x2eb3b135	8.171456e-11
153	0x30ebdcea	1.7161288e-09
154	0x2f0768d2	1.2315418e-10
155	0x2ca27e2e	4.6183257e-12
156	0x30056d8a	4.854078e-10
157	0x3076cffe	8.9789853e-10
158	0x2fe333e0	4.132792e-10
159	0x2c72ff39	3.4531945e-12
160	0x2df60c10	2.7972319e-11
161	0x2ebfa3bd	8.71476e-11
162	0x2fcef515	3.7645323e-10
163	0x303f7b68	6.9660766e-10
164	0x307abf16	9.122102e-10
165	0x30af3161	1.274696e-09
166	0x2fb8e65c	3.3633085e-10
167	0x2fddad7e	4.032294e-10
168	0x2eb1189e	8.053401e-11
169	0x2f86a4e3	2.4491617e-10
170	0x2dc8bd76	2.2821505e-11
171	0x2f88446d	2.4786875e-10
172	0x2f41f298	1.7639434e-10
173	0x30228088	5.911791e-10
174	0x2ec45ce2	8.9295474e-11
175	0x2f9ee9e4	2.8906222e-10
176	0x2f7c08f1	2.2922443e-10
177	0x309f5ddd	1.159545e-09
178	0x30e5f90a	1.6732724e-09
179	0x2f8d813d	2.573958e-10
180	0x2f2e920c	1.5877094e-10
181	0x30acae2c	1.256415e-09
182	0x2bbbd2b8	1.3345635e-12
183	0x2eaef103	7.955416e-11
184	0x2f27c8ee	1.5259946e-10
185	0x2f86c6a4	2.45156e-10
186	0x2c8619fd	3.8113943e-12
187	0x2f139978	1.3424095e-10
188	0x2e48011f	4.547573e-11
189	0x2d5d639c	1.2584513e-11
190	0x2f50f0cf	1.9003042e-10
191	0x2f905b37	2.625826e-10
192	0x2fb16cd4	3.227344e-10
193	0x30988cac	1.1099437e-09
194	0x2caddd54	4.941528e-12
195	0x30229bfd	5.915693e-10
196	0x2e929324	6.665449e-11
197	0x2f8a8a2c	2.520023e-10
198	0x30c2ba40	1.4168293e-09
199	0x2f05bf38	1.2164214e-10
200	0x308af7b3	1.0111222e-09
201	0x30855663	9.701576e-10
202	0x30a9e899	1.2362477e-09
203	0x2f40f44a	1.7549087e-10
204	0x2db2b360	2.0315916e-11
205	0x2d2da57d	9.870657e-12
206	0x30021018	4.7316595e-10
207	0x2f693020	2.1208324e-10
208	0x30063a28	4.883156e-10
209	0x30d54a36	1.5518882e-09
210	0x2d98f831	1.7390618e-11
211	0x3065f554	8.3658347e-10
212	0x2f088b1b	1.2418548e-10
213	0x2fd1e9be	3.8182962e-10
214	0x302d5c59	6.306827e-10
215	0x30743171	8.8836943e-10
216	0x2f458cb6	1.7967036e-10
217	0x30cbeb77	1.4837117e-09
218	0x2f3ab478	1.6980717e-10
219	0x2e34e2c2	4.1128663e-11
220	0x2fac0758	3.1291836e-10
221	0x303ea5e9	6.935737e-10
222	0x304df512	7.492683e-10
223	0x2e5e861c	5.059607e-11
224	0x2f584c2f	1.9672151e-10
225	0x2ecb0841	9.2328374e-11
226	0x30afa651	1.2780196e-09
227	0x300a2a70	5.0264415e-10
228	0x30b26585	1.2980058e-09
229	0x30f7d05d	1.8030836e-09
230	0x2fa45b8e	2.989648e-10
231	0x2fc28291	3.5381167e-10
232	0x2c7005e8	3.410933e-12
233	0x2dd6ec87	2.4434023e-11
234	0x2d2c9a25	9.811295e-12
235	0x2f95a0b0	2.7217117e-10
236	0x2e775cee	5.6243836e-11
237	0x303657e5	6.633612e-10
238	0x30427e0d	7.075592e-10
239	0x30c5a0fa	1.4379389e-09
240	0x3009fe13	5.020137e-10
241	0x30950112	1.0841481e-09
242	0x30a19631	1.1756979e-09
243	0x2f831600	2.3844393e-10
244	0x3030dcfa	6.4342454e-10
245	0x30cc0486	1.4844239e-09
246	0x2aec71c3	4.200096e-13
247	0x2d488c22	1.13997995e-11
248	0x2e79f025	5.6829336e-11
249	0x2df1befe	2.7483345e-11
250	0x2dc6a321	2.2582438e-11
251	0x2f7538ad	2.2302755e-10
252	0x2f3f4156	1.7394561e-10
253	0x2c97498b	4.299843e-12
254	0x30abd5fa	1.2502703e-09
255	0x2ff56c7d	4.4642326e-10

exp_avg f4 [64]
0	0xb38b102c	-6.4756335e-08
1	0x33b85166	8.582974e-08
2	0xb2b52062	-2.10859e-08
3	0x307c6914	9.182639e-10
4	0xb3a456bb	-7.652621e-08
5	0x32dcdbd5	2.5711339e-08
6	0xb43c305e	-1.752646e-07
7	0xb42c1699	-1.6026969e-07
8	0x315b6f7f	3.1932073e-09
9	0x32cdafbd	2.3945057e-08
10	0xb33ac995	-4.3489838e-08
11	0xb3a9906a	-7.8959445e-08
12	0xb4a22ea9	-3.02088e-07
13	0x32d7a4d4	2.510425e-08
14	0xb45b3071	-2.0413587e-07
15	0x334ab98d	4.7200547e-08
16	0xb23ecd9c	-1.1106206e-08
17	0xb30303ff	-3.050445e-08
18	0xb2a1e20f	-1.8845666e-08
19	0xb005ab3e	-4.862847e-10
20	0xb3c79049	-9.292905e-08
21	0x34521074	1.956376e-07
22	0xb39579d1	-6.9605115e-08
23	0xb3e6ccfd	-1.0747497e-07
24	0xb390b87d	-6.739081e-08
25	0xb3c8a4be	-9.343192e-08
26	0xb400c25c	-1.1991636e-07
27	0xb3a7b324	-7.809129e-08
28	0xb442b045	-1.8131784e-07
29	0x3407a6e1	1.2633565e-07
30	0xb4a32e07	-3.0394605e-07
31	0xb131702b	-2.582065e-09
32	0xb416452e	-1.3995006e-07
33	0x33563bc6	4.988012e-08
34	0xb4224b72	-1.5114873e-07
35	0x335e9d50	5.1831478e-08
36	0xb43e9622	-1.7749747e-07
37	0xb3d430e8	-9.880915e-08
38	0xb3c5c507	-9.2093664e-08
39	0xb2cca3e5	-2.3823256e-08
40	0x33d32369	9.831894e-08
41	0xb2bfb9ff	-2.2319908e-08
42	0xb4953b56	-2.7796585e-07
43	0xb3d4af1b	-9.903871e-08
44	0xb3967816	-7.006763e-08
45	0x3438754a	1.7179005e-07
46	0xb41d65fd	-1.4658868e-07
47	0xb39fd338	-7.442435e-08
48	0x324e7de5	1.2019403e-08
49	0xb2a3d2e1	-1.9071594e-08
50	0xb444c016	-1.8323803e-07
51	0xb229d92f	-9.8864765e-09
52	0x32f1583f	2.8096222e-08
53	0x3466cc29	2.1494692e-07
54	0x33e1f2a5	1.0521516e-07
55	0x33f11d60	1.122778e-07
56	0xb434f536	-1.6853014e-07
57	0xb3a92bb0	-7.8776225e-08
58	0xb47c6505	-2.350608e-07
59	0xb40777b1	-1.2616398e-07
60	0xb4a4cf93	-3.069841e-07
61	0xb45b31e1	-2.041411e-07
62	0xafef622d	-4.3543605e-10
63	0xb413b867	-1.3757527e-07

exp_avg_sq f4 [64]
0	0x2cdeb111	6.329278e-12
1	0x2e08687a	3.1015614e-11
2	0x2c6419ca	3.2415065e-12
3	0x2bcc6c93	1.4525207e-12
4	0x2d287fbc	9.578057e-12
5	0x2c77d0e5	3.521677e-12
6	0x2ea72370	7.600576e-11
7	0x2e80aa3a	5.8510044e-11
8	0x2ab85f96	3.2751292e-13
9	0x2c2e0032	2.4726996e-12
10	0x2cf4b4b3	6.9549587e-12
11	0x2d123c65	8.312549e-12
12	0x2e60096a	5.0940065e-11
13	0x2adb85f6	3.899517e-13
14	0x2e27fb07	3.819436e-11
15	0x2c93bf82	4.199253e-12
16	0x2c26d795	2.370969e-12
17	0x2bdfdb84	1.5906031e-12
18	0x2ce7edcd	6.591816e-12
19	0x2b59bf09	7.7359e-13
20	0x2d92daf2	1.669551e-11
21	0x2e874431	6.1512025e-11
22	0x2cbc6ab6	5.3551287e-12
23	0x2d94e76f	1.692843e-11
24	0x2cf86240	7.059492e-12
25	0x2d5bcf15	1.249469e-11
26	0x2d889345	1.552681e-11
27	0x2d4fd0b0	1.1812926e-11
28	0x2e1acc2c	3.5196887e-11
29	0x2e18ee91	3.4772688e-11
30	0x2ec6f24a	9.047037e-11
31	0x2c28b33e	2.3973735e-12
32	0x2e5b6635	4.9885613e-11
33	0x2c9038b2	4.0990206e-12
34	0x2df8bf88	2.8279393e-11
35	0x2ca2a879	4.623021e-12
36	0x2dcb3572	2.3102163e-11
37	0x2e2e8e23	3.9689262e-11
38	0x2dda0c4b	2.478919e-11
39	0x2c0c8f3b	1.9974705e-12
40	0x2d305538	1.0023364e-11
41	0x2d04a8f4	7.540846e-12
42	0x2f4f6b2a	1.8864613e-10
43	0x2e260957	3.7752326e-11
44	0x2d709d14	1.3677299e-11
45	0x2dbd7ea1	2.1543047e-11
46	0x2dfc939c	2.8714635e-11
47	0x2e04d64c	3.020366e-11
48	0x2dbba0ae	2.1330795e-11
49	0x2bef6629	1.7010327e-12
50	0x2f1a5f9f	1.404019e-10
51	0x2c0f9e8b	2.0409531e-12
52	0x2c613a20	3.200669e-12
53	0x2e7bf6eb	5.72901e-11
54	0x2c5510c1	3.027842e-12
55	0x2e0e2277	3.2317673e-11
56	0x2e316c33	4.034124e-11
57	0x2d6ed72e	1.3576513e-11
58	0x2e96ddba	6.860597e-11
59	0x2d906cb9	1.6419187e-11
60	0x2f5d6e31	2.0138981e-10
61	0x2d4dc1b4	1.1695912e-11
62	0x2ca43abf	4.6676825e-12
63	0x2debe56f	2.6818296e-11

exp_avg f4 [2, 64]
0	0x352c0547	6.408267e-07
1	0x37041735	7.873216e-06
2	0xb60586d9	-1.9897036e-06
3	0xb6c978da	-6.004336e-06
4	0xb2d07aa1	-2.4270152e-08
5	0x368054a9	3.824553e-06
6	0x35d747de	1.6039664e-06
7	0xb614388e	-2.2086638e-06
8	0xb712cae7	-8.74952e-06
9	0x36c6e9b8	5.9280683e-06
10	0xb6a0da2e	-4.793771e-06
11	0xb6ae45d4	-5.193733e-06
12	0xb46053fb	-2.0892178e-07
13	0x36c3840a	5.8268242e-06
14	0x365cfdbd	3.293025e-06
15	0xb6625513	-3.3726144e-06
16	0x36c05356	5.7317475e-06
17	0x36c3b397	5.83236e-06
18	0xb6a5f9a5	-4.9464456e-06
19	0xb6f4cf37	-7.2958896e-06
20	0x36892d5a	4.088198e-06
21	0x35f929cc	1.856411e-06
22	0x36aa8809	5.0822314e-06
23	0xb6cf3a55	-6.1758715e-06
24	0x3553ec81	7.8947784e-07
25	0xb6b83e28	-5.4908633e-06
26	0xb653949d	-3.1527954e-06
27	0xb63ef402	-2.8454238e-06
28	0x36d5719d	6.361121e-06
29	0x36ad5d33	5.1666516e-06
30	0xb61e761e	-2.3612588e-06
31	0xb4b23de1	-3.3200106e-07
32	0xb6068c40	-2.0049192e-06
33	0xb60f70b4	-2.1374262e-06
34	0xb6e7ba2f	-6.906011e-06
35	0x3668c7ca	3.4686987e-06
36	0xb6c7b88d	-5.9521467e-06
37	0xb6c701ce	-5.9308722e-06
38	0x36fa1274	7.452729e-06
39	0x36dfd507	6.6707175e-06
40	0xb60baab5	-2.0811979e-06
41	0x36971fae	4.5038387e-06
42	0x3669eae3	3.4856428e-06
43	0x36a4dbaa	4.913153e-06
44	0x3630f47f	2.636836e-06
45	0xb6debc77	-6.6380558e-06
46	0xb6826474	-3.885996e-06
47	0x371baa8c	9.2784285e-06
48	0xb6605ea6	-3.3433694e-06
49	0x36d6d3d3	6.4023566e-06
50	0xb6be5db2	-5.673349e-06
51	0x36a55574	4.9273312e-06
52	0x365d9283	3.3016847e-06
53	0x36bf7d43	5.706826e-06
54	0xb5b482a7	-1.344907e-06
55	0xb640073b	-2.8614438e-06
56	0xb44e338f	-1.9204002e-07
57	0x36d982d0	6.4823325e-06
58	0x3618f645	2.2793113e-06
59	0xb568a0f9	-8.666098e-07
60	0x3690661e	4.3034224e-06
61	0xb5da451f	-1.6262383e-06
62	0x369c8e4c	4.665728e-06
63	0x36ba59c4	5.553682e-06
64	0xb4120254	-1.3598157e-07
65	0xb632c64c	-2.663949e-06
66	0xb48a9fa4	-2.5820657e-07
67	0xb57bf8bb	-9.3866737e-07
68	0x3531c2b2	6.622096e-07
69	0xb288f82d	-1.5945341e-08
70	0x35d4f4b7	1.5866452e-06
71	0x34e39629	4.23913e-07
72	0xb618e0cf	-2.278062e-06
73	0x3562186b	8.4227094e-07
74	0xb59bd39d	-1.1609987e-06
75	0xb5baf0c3	-1.3928151e-06
76	0xb4c6f762	-3.706037e-07
77	0x32b73ff5	2.1333088e-08
78	0x3606569d	2.0017972e-06
79	0xb54796f7	-7.435296e-07
80	0xb5a3657a	-1.217398e-06
81	0xb5ef6922	-1.7837485e-06
82	0xb5acd312	-1.2876428e-06
83	0xb5ce57e5	-1.5373777e-06
84	0x35bec29b	1.4212741e-06
85	0x35a7e06c	1.2507785e-06
86	0xb5d478f0	-1.5830428e-06
87	0xb5fb9df1	-1.8746924e-06
88	0xb4e2b18f	-4.222497e-07
89	0x3520e87c	5.9942954e-07
90	0xb4a07a27	-2.98912e-07
91	0xb56958a5	-8.692826e-07
92	0xb4dd7f20	-4.1256953e-07
93	0xb581e5c6	-9.678122e-07
94	0x3553e4ab	7.893638e-07
95	0xb4fc8fa9	-4.7043184e-07
96	0xb57883e8	-9.257915e-07
97	0xb56770b8	-8.6218233e-07
98	0xb646e7bc	-2.9639186e-06
99	0xb4e05f3d	-4.1792546e-07
100	0xb52ddf4a	-6.477245e-07
101	0xb4837daa	-2.4492084e-07
102	0x35b31898	1.3343697e-06
103	0x3451d572	1.9542293e-07
104	0x35b8e4e1	1.3775681e-06
105	0x36062b6d	1.9992833e-06
106	0xb46d1f11	-2.2083647e-07
107	0x3522fc84	6.071716e-07
108	0xb5b8c765	-1.37671e-06
109	0xb59a985c	-1.1518237e-06
110	0xb63e0a0b	-2.8318052e-06
111	0x366ef0b0	3.5604862e-06
112	0x34762d20	2.2926952e-07
113	0xb56fc260	-8.931729e-07
114	0x363a24e5	2.7737635e-06
115	0xb4dcb44a	-4.110937e-07
116	0x34c9d80e	3.7596368e-07
117	0xb59ccb4f	-1.1682076e-06
118	0xb4a7b632	-3.1238739e-07
119	0xb49f9f51	-2.9731976e-07
120	0xb5915518	-1.0828107e-06
121	0x355b3905	8.166683e-07
122	0x34bb1279	3.4844905e-07
123	0xb4020528	-1.210907e-07
124	0xb5b39c6a	-1.3382062e-06
125	0xb3d2c426	-9.814566e-08
126	0x363bed81	2.8003417e-06
127	0x35b7d94b	1.3697803e-06
