results/energy/checkpoints/A02_H064_L02_D01_Tanh_W4096_P010000_V-2.00e+01_S5.00e-01_Adam_PT_False_device_cuda_dtype_float32_chkp.pt (torch, 168055 bytes, 23 tensors)

layers.0.fc.weight f4 [64, 2]
0	0xbc5cc28c	-0.013474118
1	0x3ec870b3	0.39148483
2	0xbf1bfc69	-0.6093202
3	0xbedeeada	-0.43538553
4	0xbeaab5ef	-0.3334193
5	0x3e7a6494	0.2445243
6	0xbb859fcc	-0.004077887
7	0x3f0f603a	0.56006205
8	0xbdc05bbc	-0.09392497
9	0x3e529ad8	0.2056688
10	0xbe90b27c	-0.28261173
11	0xbd57be1b	-0.052671533
12	0xbf2cc9e5	-0.67495567
13	0xbed3022a	-0.4121259
14	0xbeb36ff0	-0.3504634
15	0x3d8f6bc2	0.07002975
16	0x3eae14f2	0.34000355
17	0x3ecb6a99	0.39729765
18	0xbf0775a5	-0.52913886
19	0xbe3de7d9	-0.18545474
20	0x3e8eafc3	0.2786847
21	0x3f040288	0.5156636
22	0xbe4b6f4e	-0.19866678
23	0x3f052d5b	0.5202233
24	0xbde4283d	-0.11140487
25	0x3d410915	0.047127802
26	0x3f3cf86a	0.7381655
27	0xbf29894a	-0.6622511
28	0xbefc6b6f	-0.49300715
29	0xbe2c7fe1	-0.16845657
30	0xbee14be6	-0.44003218
31	0x3f1687f4	0.588012
32	0xbeeef842	-0.4667378
33	0xbea065ab	-0.31327567
34	0xbef88279	-0.48537043
35	0xbf2fd340	-0.68681717
36	0xbee8ab1a	-0.4544304
37	0x3f1c97f2	0.6116935
38	0x3ebdf459	0.37100485
39	0x3e928701	0.28618625
40	0x3d198aff	0.037486073
41	0xbea36287	-0.31911108
42	0x3e165534	0.1468094
43	0xbf2b7ca1	-0.66987044
44	0xbf0a2a2a	-0.5397059
45	0xbe3380ad	-0.17529555
46	0x3f024dad	0.50899774
47	0x3e9c2e37	0.3050401
48	0xbeb02bd2	-0.34408432
49	0x3d84f988	0.06492907
50	0x3ef5a32e	0.4797606
51	0x3f1c23ad	0.60991937
52	0x3ea1ecbc	0.31625926
53	0x3d342aec	0.043986246
54	0x3f16dfa8	0.5893502
55	0xbecf4e2d	-0.4048933
56	0x3e4839e5	0.19553335
57	0xbf039eed	-0.51414376
58	0xbf11611d	-0.5678881
59	0xbe723833	-0.23654251
60	0x3eb1fe95	0.34764543
61	0x3e2e9a86	0.17051134
62	0xbee81c8f	-0.45334288
63	0x3e87eb57	0.26546738
64	0x3ee0de72	0.43919712
65	0xbda981b2	-0.082766905
66	0x3cc98365	0.024598787
67	0x3e1e5bb3	0.15464668
68	0x3ef2e200	0.4743805
69	0x3eaf1f8b	0.34203753
70	0xbf17b13f	-0.5925483
71	0xbdbadce9	-0.091241665
72	0x3e99a269	0.30006722
73	0x3ee9d921	0.4567347
74	0x3f267ce4	0.6503432
75	0x3ef7e85c	0.48419464
76	0x3e22004c	0.15820426
77	0xbf1bd17a	-0.6086651
78	0x3da14c24	0.07875851
79	0xbed0f8fc	-0.4081496
80	0xbf36e213	-0.7143871
81	0x3f0b7b95	0.54485446
82	0x3f215536	0.63020647
83	0xbf36c9dd	-0.7140177
84	0x3df5a470	0.119942546
85	0xbe034958	-0.12820947
86	0xbe04add4	-0.12956935
87	0xbea508f2	-0.32233387
88	0x3e9c24b5	0.30496755
89	0xbef2ec5d	-0.47445956
90	0x3e863795	0.2621428
91	0x3eb03a8b	0.34419665
92	0x3f06a2ec	0.5259235
93	0x3e515b55	0.20444997
94	0xbf34f8af	-0.7069196
95	0xbec6a1eb	-0.3879541
96	0x3ec552b6	0.38539666
97	0x3da0a4d0	0.078439355
98	0xbf0b0901	-0.54310614
99	0xbeb5d52e	-0.35514206
100	0x3f323cfe	0.69624317
101	0x3ebe5692	0.37175423
102	0xbeab1b63	-0.33419332
103	0xbe038526	-0.12843761
104	0xbf3051cd	-0.6887482
105	0x3e1c8739	0.15285958
106	0xbf12d1bb	-0.57351273
107	0xbe631b14	-0.22178298
108	0xbde0c194	-0.10974422
109	0x3de01cc3	0.10942986
110	0xbea38cfe	-0.31943506
111	0x3ed51625	0.41618457
112	0xbefc8b1b	-0.4932488
113	0x3f2924b8	0.66071653
114	0x3f261fd5	0.6489232
115	0xbf21c042	-0.6318399
116	0xbe6572b9	-0.22407044
117	0x3dec7759	0.11546201
118	0x3e3f4372	0.18678072
119	0x3de556af	0.11198174
120	0x3eaa7e05	0.3329927
121	0x3c1258c2	0.008932294
122	0xbeaad4b9	-0.3336542
123	0x3e9fc99b	0.312085
124	0xbf35d5ef	-0.7102956
125	0xbea50cea	-0.32236415
126	0xbe71a475	-0.23597892
127	0xbe4752e6	-0.19465217

layers.0.fc.bias f4 [64]
0	0xbe7e518a	-0.24835792
1	0xbf112691	-0.5669947
2	0xbe15d4c8	-0.14631951
3	0x3e16a6ae	0.14712021
4	0xbeea8923	-0.45807752
5	0xbcdb5539	-0.026774036
6	0x3efbd35c	0.49184692
7	0xbd841661	-0.06449581
8	0x3b12cba8	0.002239922
9	0xbd439f04	-0.04775907
10	0x3e11758d	0.14204998
11	0x3ee96d8d	0.45591393
12	0x3f2be39d	0.67144185
13	0x3ed0cd25	0.40781513
14	0x3f289b79	0.6586223
15	0xbd3f7a51	-0.04674751
16	0xbf220041	-0.6328164
17	0xbeaf40ef	-0.34229228
18	0x3eebb84c	0.46039045
19	0xbc072486	-0.008248454
20	0xbebfc4c4	-0.37454808
21	0xbf0be010	-0.5463877
22	0xbf2895a6	-0.65853345
23	0xbf1e0cf8	-0.6173854
24	0xbe10e5d8	-0.14150178
25	0x3ec892c3	0.3917447
26	0x3ebe1be8	0.37130666
27	0xbf18541f	-0.5950336
28	0x3ee069f7	0.43830845
29	0xbf086678	-0.53281355
30	0xbe05d843	-0.13070779
31	0xbe898643	-0.26860246
32	0xbe0b2e0e	-0.13591787
33	0xbe15f1f0	-0.14643073
34	0xbf30a4fd	-0.6900175
35	0xbf2ad7e0	-0.6673565
36	0xbddf9485	-0.10917
37	0x3c1ca1e4	0.009560082
38	0xbea2c6fe	-0.31792444
39	0x3e8bb0fc	0.27283466
40	0xbf133129	-0.5749689
41	0xbd3c7cff	-0.046017643
42	0x3f1f957e	0.6233748
43	0xbe912d5b	-0.28354916
44	0x3f22f351	0.6365252
45	0x3e7a7cb1	0.24461628
46	0xbf20dd70	-0.62837887
47	0x3eea9955	0.45820108
48	0xbd9e200e	-0.07720958
49	0xbea8941b	-0.32925496
50	0x3f0bb361	0.54570585
51	0xbf122375	-0.57085353
52	0x3d918ce9	0.071069546
53	0xbe0dff47	-0.13866912
54	0x3f01c6c8	0.5069394
55	0x3e48720a	0.19574752
56	0x3e9e9c5c	0.30978668
57	0x3e3e0725	0.18557413
58	0xbe2d6cd6	-0.16936049
59	0xbe146433	-0.14491348
60	0xbf0c80e4	-0.5488417
61	0x3ebdbec1	0.37059596
62	0x3f0c7d48	0.54878664
63	0x3ef8b984	0.48579037

layers.1.fc.weight f4 [64, 128]
0	0xbd7585e7	-0.059942152
1	0xbb264b34	-0.0025374414
2	0xbd380af6	-0.04493233
3	0xbd16052e	-0.036626033
4	0xbd508cf8	-0.05091569
5	0x3d355792	0.044272967
6	0xbd1d5afc	-0.038416848
7	0x3c72aa57	0.01481112
8	0xbbb49a2e	-0.0055115437
9	0x3d9b62a9	0.07587177
10	0xbd7d99cf	-0.06191426
11	0xbd736398	-0.059421152
12	0xbd5338c6	-0.051567815
13	0x3d5c9f06	0.053862594
14	0xbcbd33c9	-0.023095982
15	0x3db74bce	0.089500055
16	0x3ce38e52	0.027777825
17	0x3c124327	0.008927143
18	0x3c07a881	0.008279921
19	0xbcfa7b89	-0.030576484
20	0x3c0ec331	0.008713529
21	0xbcb6deab	-0.022322973
22	0xbbad179b	-0.005282355
23	0xbb2d666a	-0.0026458749
24	0xbd4243be	-0.047427885
25	0xbd2652e9	-0.040606413
26	0x3d851d00	0.06499672
27	0xbd9ad9a4	-0.07561043
28	0xbc590cbc	-0.013247665
29	0x3dacc574	0.08436099
30	0x3ca94f03	0.020667559
31	0x3cb9a716	0.02266268
32	0xbdb9ee5c	-0.090786666
33	0x3d37661b	0.04477511
34	0xbd9c0513	-0.07618155
35	0xbce3b254	-0.027794994
36	0xbd17e543	-0.037083875
37	0xbce5b6f4	-0.02804134
38	0xbb5a9cb7	-0.003335757
39	0x3d8a4da2	0.067530885
40	0x3cab3e14	0.020903625
41	0x3d83650a	0.06415756
42	0x3d582793	0.052772116
43	0xbd71dc7c	-0.05904816
44	0x3d0a7d7a	0.03381107
45	0xbd79ede6	-0.061017893
46	0xbd544300	-0.05182171
47	0x3d237946	0.039910577
48	0x3c78d732	0.015188025
49	0x3d9a7688	0.07542139
50	0xbcd720c6	-0.026260745
51	0x3a92b608	0.0011193166
52	0x3d8be16b	0.068301044
53	0xbd8a7f0e	-0.06762515
54	0x3d828aab	0.06374105
55	0xbd827029	-0.06369049
56	0x3c36ee01	0.011165143
57	0xbcfb1ff2	-0.030654881
58	0xbd154faf	-0.036452945
59	0x3c378247	0.011200494
60	0x3d973b06	0.07384305
61	0xbcae7282	-0.021294836
62	0xbd1738eb	-0.036919516
63	0xbd09fcc0	-0.033688307
64	0xbdb05b69	-0.08611185
65	0x3d0339ed	0.032037664
66	0xbd29d2d1	-0.041460816
67	0xbd3e4236	-0.046449862
68	0xbd4ec581	-0.050481323
69	0x3d27beeb	0.040953558
70	0x3d46a4bd	0.04849695
71	0x3d861992	0.06547846
72	0x3d5aa5e5	0.053380866
73	0xbd1c0869	-0.038093958
74	0xbbd606ea	-0.006531586
75	0x3cd764e4	0.026293226
76	0x3d942a12	0.07234587
77	0x3d02322f	0.03178614
78	0xbd237769	-0.0399088
79	0xbd25b1f6	-0.04045292
80	0xbdb5b908	-0.088731825
81	0x3bb14d53	0.005410829
82	0xbd3af1e9	-0.04564086
83	0xbd7e3052	-0.0620578
84	0x3d9a7e99	0.07543678
85	0xbd739e54	-0.059477165
86	0xbc774edd	-0.015094486
87	0x3cc18da1	0.023627104
88	0xb9581279	-0.00020606247
89	0xbd4628de	-0.048378818
90	0xbd8e5014	-0.069488674
91	0x3d88f0c1	0.06686545
92	0x3c456b34	0.012049485
93	0x3d8a85ac	0.06763777
94	0xbcd4ec7d	-0.025991673
95	0x3cb76a15	0.022389451
96	0xbcdd9ca1	-0.027052226
97	0xbb2b75dc	-0.002616278
98	0xbd55a025	-0.05215468
99	0x3cc928b6	0.024555545
100	0x3d3571c5	0.044297952
101	0x3c7bcbd7	0.015368423
102	0xbcb9bc04	-0.02267266
103	0xbd69f459	-0.057117794
104	0x3d60db97	0.054896917
105	0xbd83d6cd	-0.064374544
106	0x3d115d36	0.035489284
107	0xbd07b710	-0.033133566
108	0xbd3441d8	-0.044008106
109	0x3cbefc61	0.023313703
110	0xbd4e3107	-0.050339725
111	0x3cbdd399	0.023172187
112	0x3c9771c5	0.018486867
113	0xbd9a0436	-0.075203344
114	0x3cacb3a8	0.02108176
115	0x3d125091	0.035721365
116	0x3d55ec37	0.052227225
117	0xbcb9ca58	-0.022679493
118	0xbd941c20	-0.07231927
119	0xbc444d7c	-0.011981364
120	0x3d0b16da	0.03395734
121	0xbccaa9b1	-0.024739118
122	0x3d1048e9	0.035225783
123	0x3d785db7	0.06063625
124	0xbd330e69	-0.043714914
125	0x39e93fba	0.00044488703
126	0x3d225b30	0.039637744
127	0x3b7da9f6	0.003870604
128	0x3be8baba	0.0071023377
129	0xb9d62dde	-0.00040851434
130	0xbd9a802e	-0.075439796
131	0x3c37f938	0.011228852
132	0x3d72d596	0.059285723
133	0x3d9902ee	0.07471262
134	0x3d828d17	0.06374567
135	0x3bf573c2	0.007490606
136	0x3d37b48c	0.044849917
137	0xbd2bc7aa	-0.04193846
138	0xbd82e602	-0.06391527
139	0xbd9ea9c3	-0.07747223
140	0x3db4e2a9	0.088322945
141	0x3d5c7a24	0.05382742
142	0xbd801792	-0.06254496
143	0x3cefe7f5	0.02928541
144	0x3d6c38a2	0.057671197
145	0x3d9c5d72	0.07635011
146	0x3d99944c	0.074989885
147	0x3d915b35	0.070974745
148	0xbcabb6f6	-0.020961266
149	0xbcf63d22	-0.030058447
150	0x3d82d765	0.063887395
151	0x3d317a79	0.04332969
152	0xbd7039ca	-0.058648862
153	0x3dbbc4f7	0.091684274
154	0x3d3efc1c	0.04662715
155	0x3d6169a4	0.055032387
156	0xbd672215	-0.056428988
157	0x3c8a5562	0.016886417
158	0xbce8206d	-0.028335774
159	0x3d8e27cf	0.06941187
160	0xbc81f1d5	-0.015862385
161	0x3d0c7b94	0.03429754
162	0x3c1d82f9	0.009613746
163	0x3d07071c	0.032965764
164	0xbce4c137	-0.027924163
165	0x3d1b7232	0.037950702
166	0xbd79faa1	-0.061030034
167	0x3ca603c7	0.020265473
168	0xbd65314c	-0.055955216
169	0xbdaff119	-0.085909076
170	0xbd8f919c	-0.07010195
171	0x3d8c49f9	0.06850047
172	0x3d46b189	0.048509154
173	0x3db40273	0.0878953
174	0x3d847880	0.06468296
175	0xbd870b96	-0.06594007
176	0xbd690c18	-0.0568963
177	0xbc96a599	-0.01838951
178	0xbd4e5092	-0.050369807
179	0x3d6d451a	0.05792723
180	0xbd4cc979	-0.049996827
181	0xbd3909d9	-0.045175407
182	0xbdaeab80	-0.08528805
183	0xbd6b7bf7	-0.05749127
184	0x3d8d1dbe	0.068904385
185	0x3d919e4f	0.07110273
186	0x3d79c8dd	0.060982574
187	0x3d943715	0.072370686
188	0x3db20177	0.08691686
189	0xbd029707	-0.031882312
190	0x3d54366c	0.051809713
191	0x3d9a0502	0.075204864
192	0x3cec985f	0.02888125
193	0x3db692ca	0.089147165
194	0x3d4b4563	0.04962672
195	0x3d71190e	0.058861785
196	0xbd03b3f0	-0.032154024
197	0x3d470d6d	0.04859679
198	0x3c2f9a87	0.0107179945
199	0xbc560416	-0.013062498
200	0xbd440a51	-0.0478614
201	0xbd23f9b1	-0.040033046
202	0xbd82df6b	-0.0639027
203	0x3d6b7970	0.05748886
204	0x3d8253b6	0.06363623
205	0xbbcccb6a	-0.006249835
206	0xbd535112	-0.051590987
207	0x3d7d04f0	0.061772287
208	0x3d6c6235	0.057710845
209	0x3baef16e	0.0053388393
210	0xbd2940cd	-0.041321564
211	0x3da4345c	0.08017799
212	0x3d0fd4bd	0.035114992
213	0xbd886046	-0.06658988
214	0x3db126b2	0.08649959
215	0x3d88ee0e	0.0668603
216	0xbcd04fa2	-0.025428597
217	0x3d49d6c4	0.049277082
218	0xbd5a7079	-0.05332992
219	0xbc6a3d6a	-0.014296869
220	0x3d96ecb1	0.07369364
221	0x3bbd9a76	0.0057862354
222	0xbd821211	-0.06351102
223	0xbce98829	-0.028507309
224	0xbcfd1eec	-0.030898534
225	0xbc95b4de	-0.01827472
226	0x3c2b0d26	0.010440147
227	0x3dabe24d	0.08392773
228	0x3c17bd75	0.009261479
229	0xbd6c92ae	-0.057757072
230	0x3ba1ad68	0.0049340017
231	0x3d2bc4d8	0.04193577
232	0x3d29fc1c	0.041500196
233	0xbd8911d4	-0.066928536
234	0xbc7bcc8a	-0.01536859
235	0xbd8795ee	-0.06620394
236	0xbd25553d	-0.040364493
237	0x3cfeb4dc	0.0310921
238	0xbd84db8c	-0.06487188
239	0x3d0e9fa7	0.034820225
240	0x3d8ddbc6	0.06926684
241	0x3c07d30b	0.008290063
242	0xbd7e0bd4	-0.062023
243	0xbcec014f	-0.028809218
244	0x3d3200ea	0.043457903
245	0xbd782e01	-0.060590748
246	0x3d374597	0.0447441
247	0xbda844d9	-0.08216257
248	0xbdb0e334	-0.086370856
249	0xbda5dfda	-0.08099337
250	0xbc7e9ecd	-0.015540791
251	0x3d720430	0.059086025
252	0xbda452db	-0.08023616
253	0x3d9111fc	0.07083508
254	0xbd0dc5ef	-0.034612592
255	0x3cbfd54e	0.023417141

layers.1.fc.bias f4 [64]
0	0x3d87208d	0.065980054
1	0xbb9e5b2e	-0.004832647
2	0xbcfa7da1	-0.030577483
3	0x3b9573a8	0.0045609064
4	0x3ce47874	0.027889468
5	0xbc3bb498	-0.011456631
6	0x3d134a5c	0.035959587
7	0x3d231bf3	0.039821576
8	0xbd538f2c	-0.05165021
9	0x3d9a5d41	0.07537318
10	0x3d767118	0.06016645
11	0xbbe27433	-0.0069108247
12	0x3d625b52	0.05526287
13	0xbcbfc956	-0.023411434
14	0x3c038751	0.008027867
15	0x3d50f550	0.0510152
16	0xbd888ef5	-0.06667892
17	0xbccbca3d	-0.024876708
18	0xbd6efe0f	-0.058347758
19	0xbc385f3f	-0.011253177
20	0xbd72e1dd	-0.05929743
21	0xbd22cc5d	-0.039745677
22	0xbd2edb0d	-0.04268937
23	0x3d90a623	0.07062938
24	0x3ca05bcb	0.01957502
25	0xbdac67cb	-0.084182344
26	0xbd5185b4	-0.0511529
27	0xbbdfe8cc	-0.0068331715
28	0x3cdb5202	0.026772503
29	0x3d326927	0.043557312
30	0x3d9c1997	0.076220684
31	0xbd6a7269	-0.057238016
32	0x3db05f62	0.08611943
33	0x3d6deb92	0.058085985
34	0xbd777c31	-0.060421173
35	0xbd75fdc2	-0.060056455
36	0xbd92e57c	-0.07172677
37	0xbce312d1	-0.027718933
38	0xbc9e1717	-0.01929812
39	0xbdaf6ec7	-0.08566051
40	0xbcf0fe67	-0.029418183
41	0x3d3f5f13	0.04672153
42	0xbcd96d75	-0.026541451
43	0xbd94f28a	-0.07272823
44	0xbd6b42f4	-0.0574369
45	0x3d21f9a5	0.03954472
46	0x3d5149c1	0.051095728
47	0xbd210d5b	-0.039319377
48	0xbd8dcc7e	-0.069237694
49	0x3d2cdbd1	0.04220182
50	0xbd36ea3d	-0.04465698
51	0xbda3ddf5	-0.08001319
52	0x3da5c51e	0.08094238
53	0x3c9a34b6	0.018823963
54	0xbc7b9178	-0.015354507
55	0x3c5586d0	0.01303263
56	0x3d959411	0.07303632
57	0xbd9a6df0	-0.075405
58	0xbc93f572	-0.018061373
59	0xbd1b62b8	-0.037935942
60	0xbdccb6f1	-0.09995831
61	0x3d9d422f	0.07678639
62	0xbdaa52d2	-0.08316578
63	0xbd158d79	-0.036511872

layers.2.gsds.0.weight f4 [2, 64]
0	0x3d83a7da	0.064284995
1	0x3dd562c4	0.10419229
2	0xbcb50c98	-0.022100732
3	0x3dd72587	0.10505205
4	0xba9ae07b	-0.0011816168
5	0xbdf6ca9e	-0.12050365
6	0xbdd5e5b2	-0.104442015
7	0xbd7c4d24	-0.061597005
8	0xbdb006a4	-0.085950166
9	0x3dea95e7	0.11454373
10	0xbd65ca1d	-0.056100953
11	0xbcc793fe	-0.02436256
12	0x3dac1be2	0.08403756
13	0xbcbdc379	-0.023164498
14	0x3d686a81	0.056742195
15	0xbc0adc0b	-0.008475314
16	0xbd5c8384	-0.05383636
17	0xbd9d796b	-0.07689174
18	0x3deacf23	0.114652894
19	0xbd947881	-0.07249547
20	0x3c78856d	0.01516853
21	0x3d48b6c0	0.04900241
22	0x3c8d8a16	0.017277759
23	0xbcbb2d6f	-0.022848813
24	0xbcdf52f0	-0.027261227
25	0xbd46ebd9	-0.048564766
26	0x3d5d708d	0.054062415
27	0xbd002917	-0.031289186
28	0x3d3e3498	0.046436876
29	0x3d6a3824	0.057182446
30	0x3ddf06a9	0.10889942
31	0xbd8a14e6	-0.06742267
32	0xbd8c731f	-0.06857895
33	0xbd9b0585	-0.07569412
34	0x3d238841	0.039924864
35	0xbb1e27fa	-0.0024132715
36	0x3df159db	0.11784717
37	0x3dcfa25a	0.10138388
38	0xbd5c501f	-0.053787347
39	0x3daad1b2	0.083407775
40	0xbd6b4c41	-0.05744577
41	0xbd099ac9	-0.03359488
42	0x3ddaf9b1	0.10692156
43	0xbdb92109	-0.09039504
44	0xbd4b5890	-0.049645007
45	0xbddb56fc	-0.1070995
46	0x3d559d09	0.052151714
47	0x3dd9992b	0.106249176
48	0x3de4ce4c	0.111721605
49	0xbd4ac6f3	-0.04950614
50	0xbdaddcce	-0.08489381
51	0x3d8b54d8	0.06803292
52	0xbd92ddd4	-0.071712166
53	0xbd398575	-0.04529329
54	0xbdbce775	-0.092238344
55	0x3da80ef3	0.08205976
56	0xbc8a1cda	-0.01685946
57	0x3cee3108	0.029076114
58	0xbc30f467	-0.010800458
59	0x3c0fa903	0.008768323
60	0xbd518033	-0.05114765
61	0x3df8d9fd	0.12150953
62	0xbdc727d7	-0.09724396
63	0xbc3ce623	-0.011529478
64	0xbd301347	-0.042987134
65	0xbda6bc33	-0.08141365
66	0x3e0343e2	0.12818864
67	0x3dd5c268	0.10437471
68	0x3da18071	0.078858264
69	0x3d2a4e88	0.0415788
70	0x3db3a1d7	0.08771103
71	0x3daef230	0.08542287
72	0xbdfe4873	-0.12416162
73	0xbd36bc1c	-0.04461299
74	0x3c619c54	0.013770182
75	0x3da2dfb2	0.07952823
76	0x3daf2d03	0.08553507
77	0xbbc62c47	-0.0060477587
78	0x3e0c977a	0.13729659
79	0xbd8e31cb	-0.06943091
80	0x3d710542	0.058842905
81	0x3e118ab2	0.14213064
82	0x3cbd288b	0.023090621
83	0x3d688cf5	0.056775052
84	0x3dfb3136	0.122652456
85	0xbdc2b86b	-0.09507831
86	0x3dabe94e	0.08394109
87	0x3d309a28	0.043115765
88	0x3dba1838	0.090866506
89	0x3cf44ff1	0.029823275
90	0x3dab2f81	0.0835867
91	0x3caad2a6	0.020852398
92	0x3d1e2507	0.03860953
93	0xbda0257b	-0.07819649
94	0xbe344bb1	-0.17606999
95	0x3d94a66d	0.07258306
96	0x3dabf892	0.083970204
97	0xbc958593	-0.01825217
98	0x3db888d7	0.09010475
99	0xbd060f3e	-0.03272938
100	0x3d75d6ef	0.06001943
101	0x3b234f69	0.0024919158
102	0x3d7a36f8	0.06108758
103	0xbd5308e0	-0.051522136
104	0xbd56acc7	-0.052410867
105	0x3d8b6256	0.068058655
106	0xbd90deb7	-0.070737295
107	0x3dc8e43a	0.09809156
108	0xbcab369c	-0.020900063
109	0xbcf8920b	-0.030343076
110	0x3de6e9dc	0.11275074
111	0x3dfa1523	0.12211063
112	0xbdc5d724	-0.096601754
113	0x3d5abbe9	0.05340186
114	0x3d9637fa	0.073348954
115	0xbd19187c	-0.037376866
116	0x3c6d8548	0.014497109
117	0xbdeb89cd	-0.11500893
118	0x3c5423dc	0.012948003
119	0xbda1041f	-0.07862114
120	0x3df311f5	0.118686594
121	0x3cfd65c0	0.030932307
122	0x3e04eeaf	0.12981676
123	0x3de405ae	0.11133896
124	0xbd6501f1	-0.055910055
125	0x3d97bd81	0.07409192
126	0x3d8ae238	0.06781429
127	0x3d9838b5	0.07432691

layers.2.gsds.0.bias f4 [2]
0	0xbc96e55f	-0.01841992
1	0x3de20b0a	0.11037262

log_envelope.log_envs.0.weight f4 [2, 1]
0	0x3f3330a3	0.6999609
1	0x3f3c54b7	0.73566765

exp_avg f4 [64, 2]
0	0x392f3dd6	0.00016712336
1	0xba56efdb	-0.00081991934
2	0xb9abf61d	-0.0003279903
3	0xb9cea626	-0.00039415172
4	0x3620a4a4	2.3937691e-06
5	0xb9748565	-0.00023319347
6	0x3987bbe9	0.0002588921
7	0xba13ee34	-0.00056431
8	0x398df31a	0.0002707474
9	0x398df4ed	0.000270761
10	0xb9fb1491	-0.00047889774
11	0x397c84d4	0.00024082075
12	0xb97444c7	-0.00023295275
13	0x3a0fa438	0.00054794876
14	0xb7f4c298	-2.9177681e-05
15	0x39364583	0.00017382768
16	0xb7ecdbda	-2.8235769e-05
17	0x3a27d047	0.000640158
18	0x386297b9	5.40239e-05
19	0xba5da8ab	-0.00084556144
20	0x393474ec	0.00017209694
21	0x3a30e58c	0.00067480723
22	0x390f0c85	0.00013642207
23	0x3967ccba	0.00022106143
24	0xb8963770	-7.1628834e-05
25	0xba1936e3	-0.00058446656
26	0xb7ff5b99	-3.0441022e-05
27	0xb7d107a1	-2.4918294e-05
28	0x3927d10a	0.00016004234
29	0xba027fe8	-0.0004978166
30	0x38a738a8	7.9737336e-05
31	0x3946a167	0.00018942879
32	0x392147f0	0.00015380955
33	0x39968481	0.00028708953
34	0x39cbce6f	0.00038872982
35	0x39b5bec9	0.00034665156
36	0x3a468063	0.00075722317
37	0x38c81f3f	9.542563e-05
38	0x392bd389	0.00016386634
39	0x3aadd266	0.0013261556
40	0xb6424a0e	-2.8951358e-06
41	0xb9e0e0b3	-0.00042892023
42	0xb9e30827	-0.00043302888
43	0xba129546	-0.00055917015
44	0xb890c0ea	-6.902388e-05
45	0xb929080c	-0.00016120094
46	0xb98bccd0	-0.00026664743
47	0x3925f39d	0.00015826379
48	0xb8af86bf	-8.369749e-05
49	0x38de7e0e	0.000106092644
50	0xb8aaa3ed	-8.136765e-05
51	0xb92cc9c9	-0.00016478369
52	0x37bb3358	2.2316046e-05
53	0xb9b18cdf	-0.00033865028
54	0xb922fcaf	-0.00015543656
55	0xb96aa77f	-0.00022378376
56	0xb98ffe6b	-0.00027464642
57	0xb99c436e	-0.00029804878
58	0xb945176e	-0.00018796112
59	0xb927ecd8	-0.00016014592
60	0x3a4e622a	0.0007872904
61	0xb9445dfa	-0.00018727026
62	0xb92cb8bb	-0.00016472016
63	0x3930634f	0.00016821663
64	0xb8ef3636	-0.00011406506
65	0x3a28285c	0.00064147054
66	0x392d48e0	0.00016525714
67	0x3a51d4d1	0.00080044294
68	0x39b5e201	0.00034691396
69	0x39231bd4	0.00015555258
70	0xb8805b08	-6.1204715e-05
71	0x3884a747	6.325408e-05
72	0x39266b5a	0.00015870985
73	0xba1a18fb	-0.0005878356
74	0xb7b87e78	-2.19934e-05
75	0xb9ff1826	-0.00048655382
76	0x39b61fc6	0.00034737418
77	0x39bee097	0.00036406956
78	0x3a05e47d	0.0005107595
79	0xb995439c	-0.00028469868
80	0x3988df35	0.00026106244
81	0x3a53d530	0.00080807786
82	0x39207458	0.0001530213
83	0x39f2085f	0.00046164074
84	0x383d0c95	4.507283e-05
85	0xba202d2f	-0.00061102485
86	0x392f04e5	0.00016691124
87	0x3a083669	0.0005196096
88	0x3736662d	1.0871835e-05
89	0x3a48eb42	0.00076644507
90	0x38970de3	7.202828e-05
91	0x3a3a0598	0.00070961704
92	0xb81e9052	-3.7804544e-05
93	0xb9cc53ce	-0.00038972351
94	0x39d8fed9	0.00041388607
95	0xbad496a1	-0.0016219207
96	0x393155a8	0.00016911945
97	0xba17e001	-0.0005793572
98	0x3922edc7	0.00015538103
99	0x3a4068de	0.0007339845
100	0x39a9c711	0.00032382508
101	0x399956f7	0.00029247228
102	0xb99e4a76	-0.00030191586
103	0xba49c16e	-0.0007696365
104	0xb91ce8c4	-0.00014964031
105	0x3a1abae0	0.00059024803
106	0xb984fcbc	-0.00025365304
107	0x39111fc7	0.00013840116
108	0x3801fb9a	3.099032e-05
109	0x3a32caa7	0.00068203587
110	0x3a3a99c5	0.00071182504
111	0x39c421d4	0.00037409237
112	0xb9f3b599	-0.00046483873
113	0xba00b539	-0.0004909817
114	0x38d4248b	0.000101157544
115	0x39856d20	0.0002544904
116	0xb8553992	-5.0836774e-05
117	0xb96a3281	-0.00022334793
118	0xb97897d7	-0.00023707688
119	0xba265967	-0.00063457194
120	0x383a0b44	4.4356348e-05
121	0x388e84b3	6.795805e-05
122	0x39cdd750	0.00039261067
123	0xb9d50a3b	-0.00040634148
124	0xb9ed468d	-0.00045256727
125	0x39500de9	0.00019841608
126	0xb94b5678	-0.00019391801
127	0x38856eaf	6.3625506e-05

exp_avg_sq f4 [64, 2]
0	0x39c40bcc	0.00037392823
1	0x3906d741	0.00012859424
2	0x38d34421	0.00010073954
3	0x3815bf2e	3.570242e-05
4	0x3720787b	9.564795e-06
5	0x36229372	2.4225706e-06
6	0x39a9908b	0.00032341885
7	0x388f76ba	6.840886e-05
8	0x379b8618	1.8539882e-05
9	0x3760cedc	1.3399604e-05
10	0x3990e9bf	0.00027639975
11	0x3798d1a7	1.8217439e-05
12	0x38733c79	5.7992034e-05
13	0x376cf1d5	1.4123002e-05
14	0x386686fb	5.4961984e-05
15	0x375bcf42	1.3101673e-05
16	0x38874e07	6.451835e-05
17	0x382363a9	3.8955044e-05
18	0x395fbdb3	0.00021337606
19	0x389db2af	7.519626e-05
20	0x3910dd25	0.00013815293
21	0x3887741e	6.45893e-05
22	0x389bc283	7.4272066e-05
23	0x3760cea7	1.3399555e-05
24	0x38e6c5aa	0.000110040724
25	0x38671cd1	5.510153e-05
26	0x370fa78a	8.562472e-06
27	0x3641b7f7	2.8866323e-06
28	0x382c181b	4.1030446e-05
29	0x37a40f24	1.9557374e-05
30	0x36ddc87e	6.6096536e-06
31	0x35f4b154	1.8231026e-06
32	0x38e14b4d	0.00010742862
33	0x3813ed19	3.5268346e-05
34	0x38c2af93	9.283344e-05
35	0x37d01929	2.4807248e-05
36	0x39c0d80c	0.0003678206
37	0x37c0fc30	2.3005618e-05
38	0x399de41f	0.00030115337
39	0x394b0af5	0.0001936367
40	0x38a2036d	7.7254e-05
41	0x37d10864	2.4918649e-05
42	0x398d441e	0.00026944367
43	0x3900f96b	0.00012299947
44	0x36429a42	2.8998043e-06
45	0x362ebaa9	2.603667e-06
46	0x38123a30	3.4863304e-05
47	0x35e65a5c	1.7162633e-06
48	0x387b6ff8	5.9947342e-05
49	0x36e076a1	6.6895304e-06
50	0x37445941	1.1703291e-05
51	0x377df854	1.51377935e-05
52	0x38490430	4.7926034e-05
53	0x37892a83	1.6351469e-05
54	0x36715ae2	3.59647e-06
55	0x36b67e53	5.4387287e-06
56	0x36a165ba	4.8100164e-06
57	0x36916563	4.3331397e-06
58	0x373a010e	1.10867095e-05
59	0x36b5656a	5.4060265e-06
60	0x39f27251	0.0004624301
61	0x3764fcd9	1.364873e-05
62	0x38e60da9	0.00010969799
63	0x370cbe79	8.388998e-06
64	0x392b1044	0.0001631389
65	0x38c256ad	9.2667855e-05
66	0x3934fa69	0.00017259423
67	0x38aad80a	8.146472e-05
68	0x3784a40e	1.581202e-05
69	0x358eab65	1.0629707e-06
70	0x377fd152	1.5247921e-05
71	0x362523e7	2.4607814e-06
72	0x38f16b55	0.00011511768
73	0x380d2c61	3.365835e-05
74	0x37c5d7fb	2.3584804e-05
75	0x37adf36b	2.0736557e-05
76	0x38d3e632	0.00010104141
77	0x385f268f	5.3203254e-05
78	0x3989e248	0.0002629927
79	0x3788f54d	1.632669e-05
80	0x395cfbf4	0.00021074695
81	0x38a1c561	7.713843e-05
82	0x388b7f2d	6.651725e-05
83	0x38596923	5.1834748e-05
84	0x395c6150	0.00021017087
85	0x385f672b	5.3263426e-05
86	0x3920f4bc	0.0001534996
87	0x38a38bd5	7.7984914e-05
88	0x392d7388	0.00016541604
89	0x3881fc31	6.198174e-05
90	0x396e41dd	0.00022721985
91	0x38a1085f	7.6786375e-05
92	0x37dabe08	2.6076115e-05
93	0x376e7d42	1.4215069e-05
94	0x39846546	0.00025252457
95	0x3901636a	0.00012339433
96	0x397ad701	0.00023921953
97	0x38986499	7.2666626e-05
98	0x3955d4e5	0.00020392572
99	0x38f5c97f	0.00011720042
100	0x383bc643	4.476892e-05
101	0x379459b9	1.7684755e-05
102	0x398ac18f	0.00026465624
103	0x390b7579	0.00013299835
104	0x38ab0453	8.154721e-05
105	0x386899ce	5.5456352e-05
106	0x374fb129	1.237941e-05
107	0x370f682c	8.547719e-06
108	0x39998434	0.00029280933
109	0x38bc617b	8.982696e-05
110	0x38da1314	0.000103986036
111	0x36fa4e67	7.459708e-06
112	0x3837a2a3	4.3782067e-05
113	0x37f03c47	2.8638298e-05
114	0x36a12def	4.8035213e-06
115	0x36e5ce8c	6.848777e-06
116	0x372877cc	1.0041473e-05
117	0x35db0a2c	1.6319732e-06
118	0x38145303	3.536326e-05
119	0x385dddd2	5.2897092e-05
120	0x364bdaea	3.0376782e-06
121	0x34d8d55d	4.0388377e-07
122	0x3990640c	0.0002754036
123	0x388447a4	6.3075946e-05
124	0x38ab099e	8.155707e-05
125	0x365cd48f	3.290628e-06
126	0x37fb9702	2.999185e-05
127	0x35fe23c8	1.8934888e-06

exp_avg f4 [64]
0	0x3987bfee	0.00025892205
1	0x39ef95b6	0.00045697176
2	0xba00ae32	-0.00049087696
3	0x3973e423	0.00023259273
4	0xb7fc26e9	-3.005886e-05
5	0xb8a3d933	-7.812902e-05
6	0x39571f37	0.00020515626
7	0xb8bd50ea	-9.027294e-05
8	0x399ba818	0.00029689143
9	0x38de60d2	0.00010603819
10	0xb97065ec	-0.00022926152
11	0xb9e96f28	-0.0004452404
12	0x392fb3ae	0.00016756236
13	0x392839d7	0.00016043276
14	0xb963fe93	-0.00021743243
15	0x38c73a9e	9.499978e-05
16	0xb7a04078	-1.9103507e-05
17	0xba4500a5	-0.00075150497
18	0x3a3747aa	0.0006991575
19	0xb8dabe00	-0.0001043044
20	0x38c37449	9.3199844e-05
21	0x3a4c8403	0.00078016537
22	0xb78d9ac5	-1.688058e-05
23	0x3657b94a	3.214535e-06
24	0xb8698be0	-5.5681798e-05
25	0x396ad67e	0.00022395884
26	0xb8a95eb1	-8.0761856e-05
27	0xb7e82741	-2.7674834e-05
28	0xb8271ac4	-3.984083e-05
29	0x39ba41f0	0.00035525812
30	0x39083f16	0.00012993472
31	0x38f2822b	0.00011563705
32	0xb9c5a690	-0.00037698867
33	0xb893a8f5	-7.040977e-05
34	0x3900a9f7	0.00012270348
35	0x39834f0f	0.0002504517
36	0xb7b6dd75	-2.1799215e-05
37	0x390fb503	0.00013704975
38	0xba0ff689	-0.00054917537
39	0x39723918	0.00023100188
40	0x39479491	0.00019033464
41	0xb86c2683	-5.630265e-05
42	0x38a8c2de	8.047161e-05
43	0xb908a453	-0.00013031186
44	0x390f566c	0.00013669737
45	0xb820cf99	-3.8340313e-05
46	0xb81db2f8	-3.7598395e-05
47	0xba0aa18c	-0.00052883546
48	0x39a0c46c	0.00030663924
49	0xb961f800	-0.0002155006
50	0xb9846c5a	-0.0002525773
51	0x3974fbd1	0.00023363462
52	0x3982d27b	0.00024952352
53	0x3985b9fe	0.00025506312
54	0xb995d1c6	-0.00028575788
55	0x3992cd3d	0.00028000204
56	0xb98abfed	-0.00026464407
57	0x39c5e9f2	0.0003774907
58	0xb9b363ae	-0.00034215808
59	0xb9046120	-0.00012624683
60	0x3901ff91	0.00012397605
61	0x39c0ccd5	0.00036773706
62	0xb80691ab	-3.2083753e-05
63	0xb8c323df	-9.305006e-05

exp_avg_sq f4 [64]
0	0x39d84d2e	0.00041256234
1	0x38a1273e	7.684388e-05
2	0x3856d094	5.121583e-05
3	0x39850285	0.00025369614
4	0x3799bda6	1.8327333e-05
5	0x3845bbae	4.714325e-05
6	0x3840c4eb	4.595976e-05
7	0x37f8134e	2.9572893e-05
8	0x38fce082	0.00012058114
9	0x3952a064	0.00020086911
10	0x3951660c	0.00019969809
11	0x386cfaba	5.6500292e-05
12	0x393c194b	0.000179385
13	0x3762b26e	1.3512194e-05
14	0x387840ea	5.9188264e-05
15	0x362a54f5	2.5381426e-06
16	0x389eb5e8	7.56791e-05
17	0x38e4ebd6	0.00010915815
18	0x39524d77	0.00020056019
19	0x3a098c73	0.0005247064
20	0x38862ee2	6.3983505e-05
21	0x39bee4d7	0.00036410123
22	0x3718c47d	9.1056545e-06
23	0x37dc5c25	2.6268952e-05
24	0x37487ac0	1.1949509e-05
25	0x381cf879	3.7424707e-05
26	0x38279acb	3.9960065e-05
27	0x36ff05e4	7.600278e-06
28	0x36d0e8b0	6.2259714e-06
29	0x37cd86dc	2.4500703e-05
30	0x389382c5	7.033864e-05
31	0x3736dc4b	1.0899336e-05
32	0x39a24443	0.00030949907
33	0x39525aee	0.00020061035
34	0x36a63978	4.9538758e-06
35	0x36d2dc74	6.284152e-06
36	0x38d2b392	0.00010047028
37	0x383122d6	4.2232532e-05
38	0x3956c522	0.00020482068
39	0x3869d877	5.5753128e-05
40	0x392ec17e	0.00016666015
41	0x394b7556	0.000194033
42	0x3910668d	0.00013771113
43	0x391e7660	0.00015112152
44	0x394a322b	0.0001928291
45	0x391d3801	0.0001499355
46	0x38502ff9	4.9635742e-05
47	0x39b00fe9	0.0003358119
48	0x39665f37	0.0002196998
49	0x3996e912	0.0002878388
50	0x382894cd	4.0192903e-05
51	0x39944a98	0.00028284336
52	0x38ea5259	0.00011173328
53	0x38158f35	3.565774e-05
54	0x3984546e	0.00025239907
55	0x37c26e2f	2.317791e-05
56	0x38a9f06a	8.1033286e-05
57	0x385d27c0	5.2727526e-05
58	0x3834886e	4.3042404e-05
59	0x38da82ca	0.000104194114
60	0x3641eb6f	2.8896281e-06
61	0x3988d11f	0.0002609575
62	0x383207f0	4.24459e-05
63	0x3753850c	1.2607557e-05

exp_avg f4 [64, 128]
0	0xb9553237	-0.0002033197
1	0x390110d3	0.00012308666
2	0xb92e6cb5	-0.0001663443
3	0xb95dc5fe	-0.0002114996
4	0xb91a3b8d	-0.00014708769
5	0xb77f6dca	-1.5224747e-05
6	0x388645c2	6.402611e-05
7	0xb8ac2ed9	-8.210325e-05
8	0xb91cf59d	-0.00014968817
9	0x380acf48	3.309481e-05
10	0xb94969e8	-0.00019208307
11	0xb8f1bdbc	-0.00011527116
12	0x385bbbc2	5.2388532e-05
13	0x39c22092	0.0003702683
14	0xb5aaba9a	-1.2720295e-06
15	0xb9a2fd24	-0.00031087652
16	0x385ab2f4	5.2141913e-05
17	0x397a5ad6	0.00023875697
18	0xb927ba7b	-0.0001599583
19	0xb8c0fb3c	-9.2020695e-05
20	0x3896c880	7.1899034e-05
21	0x38fa965f	0.00011948938
22	0x3784279d	1.5754073e-05
23	0xb81958e5	-3.6560832e-05
24	0xb8adad57	-8.28157e-05
25	0xb94f677a	-0.00019779606
26	0x382c0229	4.1010007e-05
27	0x390d39f8	0.00013468403
28	0x399b00a7	0.0002956439
29	0x386042af	5.3467866e-05
30	0xb81d16ff	-3.7453134e-05
31	0xb9451b3b	-0.00018797528
32	0x38bfb777	9.141763e-05
33	0xb8af25c3	-8.351684e-05
34	0xb8617d9f	-5.3761174e-05
35	0xb6c16be5	-5.764409e-06
36	0xb9422a90	-0.00018517138
37	0xb94e4570	-0.00019671558
38	0x393ec70f	0.00018193967
39	0x396a5655	0.0002234814
40	0xb999760b	-0.00029270383
41	0x39b90ed6	0.00035297003
42	0x3903964d	0.00012549125
43	0x38b685cb	8.703357e-05
44	0x399311ec	0.00028051378
45	0xb8d747d6	-0.000102653794
46	0x364054a9	2.8659508e-06
47	0x385886ea	5.162406e-05
48	0x3752536a	1.2536397e-05
49	0x38f65133	0.000117453186
50	0xb9012852	-0.00012317419
51	0xb79c8e66	-1.8662959e-05
52	0xb92e7c8b	-0.00016640329
53	0x3871dba2	5.7663427e-05
54	0x3767621e	1.3791518e-05
55	0xb937a314	-0.00017512991
56	0xb9713918	-0.0002300482
57	0x39bdfef0	0.00036238832
58	0xb8ce0bf2	-9.8250704e-05
59	0xb8225311	-3.870117e-05
60	0xb694995a	-4.428596e-06
61	0xb8dbe68e	-0.00010485678
62	0xb4d820e3	-4.0257063e-07
63	0x38a8108f	8.0139485e-05
64	0xb94c9382	-0.00019509907
65	0x3931e369	0.00016964752
66	0x3754a1bc	1.2673841e-05
67	0xb95c0859	-0.00020983945
68	0xb8cefc1a	-9.869803e-05
69	0x390e387d	0.00013563219
70	0x39e60fc3	0.00043880762
71	0x38d68143	0.00010228392
72	0xb99b7016	-0.00029647414
73	0x3981e419	0.00024774743
74	0xb995c08b	-0.0002856295
75	0xb84e79d2	-4.922768e-05
76	0x38cd10c8	9.7782875e-05
77	0x384642ee	4.726921e-05
78	0x39a31312	0.0003110399
79	0xb887a190	-6.467395e-05
80	0x38dedb40	0.000106266234
81	0x399e87b3	0.00030237212
82	0x37aadc32	2.0368116e-05
83	0xb98a4cc7	-0.00026378615
84	0x387047f6	5.7287478e-05
85	0x38b851f7	8.789071e-05
86	0x38ad3448	8.259021e-05
87	0xb9bf9b31	-0.00036545985
88	0x38b898f2	8.802292e-05
89	0xb98823ef	-0.00025966714
90	0xb899040e	-7.296364e-05
91	0xb91f776a	-0.00015207907
92	0x393c6678	0.0001796725
93	0x390cc53f	0.0001342492
94	0xb973898e	-0.00023225529
95	0x37c0b251	2.2971219e-05
96	0xb9282591	-0.00016035723
97	0xb8cd6789	-9.794447e-05
98	0xb9be5078	-0.00036299578
99	0x389552fa	7.120329e-05
100	0xb9addfb2	-0.00033163797
101	0xb9ca7991	-0.00038619016
102	0x39039de3	0.00012551951
103	0x3937e8f1	0.00017539017
104	0xb843a852	-4.6648383e-05
105	0x379e0764	1.883851e-05
106	0x38a1fdc4	7.724346e-05
107	0x390e39be	0.00013563686
108	0x390fc5ea	0.00013711271
109	0xb9499f62	-0.00019228228
110	0xb9afe7e1	-0.00033551364
111	0x39e314c8	0.00043312297
112	0xb94fae2f	-0.00019805947
113	0x396c18fe	0.00022516024
114	0xb9363f54	-0.00017380464
115	0x386f42cf	5.704426e-05
116	0x393d6cb9	0.00018064947
117	0x39801ec3	0.00024436982
118	0x38842a9b	6.3021864e-05
119	0xb70bd5f2	-8.334859e-06
120	0xb6cb6d95	-6.0626285e-06
121	0x37e3822f	2.712113e-05
122	0x37addb19	2.0725232e-05
123	0xb91c410e	-0.00014901554
124	0xb94c3d38	-0.00019477762
125	0x38853071	6.350957e-05
126	0x39db79ce	0.00041861687
127	0x396c50a4	0.00022536755
128	0xb9a88afe	-0.00032147014
129	0x38aa0606	8.107354e-05
130	0xb983b743	-0.00025122808
131	0xb9832aa6	-0.00025018043
132	0xb99a5925	-0.00029439587
133	0xb808ca1e	-3.2613163e-05
134	0x38cf41fb	9.882819e-05
135	0xb9057d75	-0.00012730605
136	0xb93f1cb0	-0.00018225866
137	0x375d5105	1.319149e-05
138	0xb967e403	-0.00022114818
139	0xb84c9daa	-4.8784226e-05
140	0x3955a36a	0.0002037414
141	0x3a120b11	0.0005571107
142	0x38882114	6.4911466e-05
143	0xb9dbbc7a	-0.0004191136
144	0xb7b95917	-2.2095204e-05
145	0x3986256d	0.00025586356
146	0xb8d1336b	-9.975474e-05
147	0xb8dd795d	-0.00010560707
148	0x375eeee7	1.3287855e-05
149	0x383f2c23	4.5579054e-05
150	0xb8924f30	-6.976572e-05
151	0xb8c758b1	-9.5055795e-05
152	0xb9150f86	-0.0001421553
153	0xb94cc5a3	-0.00019528581
154	0x3903d113	0.0001257102
155	0x389e5242	7.549349e-05
156	0x3a0109c5	0.0004922415
157	0xb6f98a81	-7.4369023e-06
158	0xb8684048	-5.5372977e-05
159	0xb99e1cab	-0.00030157468
160	0x38e740ca	0.00011027006
161	0xb91573f4	-0.00014252943
162	0xb9090fa1	-0.0001307116
163	0xb8ca7d8e	-9.655497e-05
164	0xb981c416	-0.00024750893
165	0xb97cd9b0	-0.00024113688
166	0x393368d7	0.00017109826
167	0x39bb3cea	0.00035712804
168	0xb9faa41b	-0.00047805984
169	0x39ea6fcc	0.00044715253
170	0x399a3433	0.0002941206
171	0x387033c1	5.726866e-05
172	0x3a0549c6	0.00050845405
173	0xb8b4a752	-8.614235e-05
174	0xb84b4510	-4.846329e-05
175	0x38a16bd1	7.6971606e-05
176	0x37a1af01	1.9274188e-05
177	0x38ca655e	9.650992e-05
178	0xb8b43bbb	-8.5941945e-05
179	0xb8fe1de0	-0.000121172285
180	0xb97d5afb	-0.00024161853
181	0x3814a3e4	3.5438585e-05
182	0x39051284	0.00012690766
183	0xb93f0475	-0.0001821684
184	0xb969ec84	-0.0002230872
185	0x3a05e9a3	0.0005108362
186	0xb92f6d09	-0.0001672992
187	0xb89f4972	-7.595391e-05
188	0xb8cc23a4	-9.7341166e-05
189	0xb86a584b	-5.5872177e-05
190	0x37344e24	1.074703e-05
191	0x39426343	0.0001853826
192	0xb9a276de	-0.0003098761
193	0x38f022e3	0.0001145059
194	0xb79579ec	-1.7818958e-05
195	0xb981fcb6	-0.00024793082
196	0xb97009d7	-0.00022891849
197	0x39335ff7	0.0001710652
198	0x3a2e3e4e	0.00066468574
199	0x38f6e9f3	0.000117737705
200	0xb9cbfc82	-0.0003890731
201	0x39a189c8	0.00030810968
202	0xb9b73ea5	-0.00034951154
203	0x38031275	3.1250023e-05
204	0x398ace07	0.00026474913
205	0x39170416	0.00014402004
206	0x3a0b6ba1	0.0005318467
207	0xb8c41da4	-9.351529e-05
208	0x37cf7ccd	2.4734438e-05
209	0x39ae0ebe	0.0003319885
210	0x3904cc2c	0.00012664561
211	0xb9b5c994	-0.00034673198
212	0xb6a8b2cc	-5.027605e-06
213	0x37353a12	1.0801961e-05
214	0xb75ca334	-1.31510205e-05
215	0xba1b61c3	-0.00059273484
216	0x38abca6b	8.191619e-05
217	0xb98bbdd4	-0.0002665358
218	0xb7827377	-1.5550975e-05
219	0xb9a7d91d	-0.00032014484
220	0x39ac3b75	0.00032850695
221	0x38974ad8	7.214182e-05
222	0xb9adb22c	-0.0003312988
223	0xb8051229	-3.1726584e-05
224	0xb978b175	-0.00023717231
225	0xb929dbd1	-0.00016198984
226	0xba1d2fb0	-0.00059961807
227	0xb801421a	-3.081756e-05
228	0xb9f04cb5	-0.00045833518
229	0xba02cfde	-0.0004990081
230	0x38d07a04	9.94094e-05
231	0x3997e4b3	0.0002897136
232	0xb9377040	-0.00017494056
233	0x374e1619	1.2283702e-05
234	0x3971a430	0.00023044716
235	0x38fb7375	0.00011990118
236	0x39a2d55f	0.00031058022
237	0xb955cdcb	-0.00020389927
238	0xba122ecb	-0.00055764307
239	0x3a2aab4e	0.0006510512
240	0xb98fc0a6	-0.0002741862
241	0x396ccffe	0.00022584197
242	0xb8f5eb4e	-0.00011726339
243	0xb821340a	-3.8433856e-05
244	0x397922bc	0.0002375943
245	0x39948e6f	0.0002833488
246	0x39490138	0.00019169308
247	0x38114686	3.4636374e-05
248	0x38828815	6.22423e-05
249	0x389d887d	7.511766e-05
250	0xb74bde56	-1.21515095e-05
251	0xb96ee284	-0.00022781832
252	0xb9c126ad	-0.00036840644
253	0x392e35aa	0.00016613925
254	0x3a2a01a3	0.0006485229
255	0x39cef7d8	0.0003947604

exp_avg_sq f4 [64, 128]
0	0x37205aa7	9.55785e-06
1	0x38409c39	4.592186e-05
2	0x378782a0	1.6154081e-05
3	0x3718c84c	9.106541e-06
4	0x37a64668	1.9821528e-05
5	0x37290baf	1.0075905e-05
6	0x3821724f	3.849185e-05
7	0x37795f94	1.486381e-05
8	0x3791ee5b	1.739634e-05
9	0x37f0a73c	2.8688104e-05
10	0x3797f090	1.8112623e-05
11	0x37a2b8e2	1.9397998e-05
12	0x3800b946	3.0690127e-05
13	0x38796a8a	5.946545e-05
14	0x380a9b99	3.3046676e-05
15	0x37e364c6	2.7107435e-05
16	0x382856a9	4.013503e-05
17	0x3820a7fc	3.830342e-05
18	0x37e5d1e6	2.7396669e-05
19	0x3793dbed	1.7626176e-05
20	0x37570fdf	1.2818694e-05
21	0x37d67489	2.5565054e-05
22	0x38337e25	4.2794407e-05
23	0x3809a46f	3.2816486e-05
24	0x3785a87f	1.5933298e-05
25	0x381f298c	3.7947248e-05
26	0x37b58ca5	2.1642374e-05
27	0x381150bb	3.464588e-05
28	0x37d5eb61	2.5501186e-05
29	0x382a8dea	4.0663326e-05
30	0x377a60a8	1.4923666e-05
31	0x37ef0059	2.8491182e-05
32	0x37aca1ba	2.0579308e-05
33	0x3637fdc0	2.7416827e-06
34	0x380e839c	3.397801e-05
35	0x383a96d3	4.448632e-05
36	0x3783cb9b	1.5711228e-05
37	0x3823e9ba	3.9079903e-05
38	0x3775063c	1.46045895e-05
39	0x37462edd	1.1812631e-05
40	0x38668bdd	5.496653e-05
41	0x38443839	4.6782403e-05
42	0x3801b188	3.0921336e-05
43	0x37475641	1.1881407e-05
44	0x38272672	3.9851708e-05
45	0x378af6c7	1.6565797e-05
46	0x380bdfd6	3.3348646e-05
47	0x38293c2c	4.034878e-05
48	0x378c9079	1.6756576e-05
49	0x38157c04	3.5639867e-05
50	0x384dc04e	4.9054906e-05
51	0x3805c13c	3.1889635e-05
52	0x383480d7	4.3035336e-05
53	0x380d7c51	3.37328e-05
54	0x37a47e12	1.960903e-05
55	0x3773d644	1.4533816e-05
56	0x37f47a4d	2.9144017e-05
57	0x384fe3b2	4.9564704e-05
58	0x371e2775	9.426721e-06
59	0x36c438dc	5.8478745e-06
60	0x37cda59f	2.4515028e-05
61	0x37965004	1.7918654e-05
62	0x382a7702	4.0641993e-05
63	0x37aa2d6a	2.0286727e-05
64	0x371b12f0	9.243129e-06
65	0x37e897fd	2.772733e-05
66	0x35f549f8	1.827545e-06
67	0x3717ebad	9.055174e-06
68	0x37920ae6	1.7409631e-05
69	0x36421ce4	2.892507e-06
70	0x37e70e31	2.7543954e-05
71	0x36116452	2.1665078e-06
72	0x3749b853	1.202345e-05
73	0x372b9062	1.0226011e-05
74	0x37777434	1.4749403e-05
75	0x378f824b	1.71076e-05
76	0x380542d9	3.1771928e-05
77	0x37030688	7.809729e-06
78	0x37fb8e1f	2.9987712e-05
79	0x355d6672	8.2477993e-07
80	0x37ecba39	2.8220109e-05
81	0x37e4e5a1	2.7286647e-05
82	0x3762d850	1.3521014e-05
83	0x372270ea	9.682242e-06
84	0x375730a4	1.2826324e-05
85	0x37cf704d	2.4728617e-05
86	0x37e0f0ae	2.6814956e-05
87	0x37fa0921	2.9806573e-05
88	0x365ac7eb	3.26009e-06
89	0x37dc1bbc	2.6238959e-05
90	0x374acb06	1.2087408e-05
91	0x37a96c17	2.0196703e-05
92	0x3792882f	1.7467972e-05
93	0x37bd13d7	2.2539794e-05
94	0x370344d9	7.824238e-06
95	0x36b9bf24	5.5356813e-06
96	0x36935f7b	4.392057e-06
97	0x3646ecd2	2.9642147e-06
98	0x380d3923	3.3670232e-05
99	0x37da6e50	2.6038993e-05
100	0x3766003d	1.3709124e-05
101	0x37afa01b	2.093618e-05
102	0x374715f6	1.18664375e-05
103	0x371d8a96	9.390196e-06
104	0x377e3db5	1.5153947e-05
105	0x34821197	2.4227185e-07
106	0x37ebff01	2.8132928e-05
107	0x3731a583	1.0588558e-05
108	0x37e70972	2.7541744e-05
109	0x3747adf5	1.1901827e-05
110	0x37f1772b	2.878493e-05
111	0x37dc36d5	2.6251577e-05
112	0x36bc9d76	5.6211675e-06
113	0x379c07dc	1.8600309e-05
114	0x37d91558	2.5878355e-05
115	0x37c48f3a	2.3431716e-05
116	0x36c31010	5.813323e-06
117	0x3755cb30	1.2743098e-05
118	0x37a8a48c	2.0103784e-05
119	0x3651d338	3.1266372e-06
120	0x36db71af	6.539943e-06
121	0x35fd755a	1.8884123e-06
122	0x3631e347	2.6507348e-06
123	0x36904352	4.2993715e-06
124	0x37bfa929	2.2847746e-05
125	0x372b6185	1.02151e-05
126	0x37e70273	2.7538486e-05
127	0x37b1e74c	2.120775e-05
128	0x38081273	3.244211e-05
129	0x3909cf88	0.0001314265
130	0x383ffc3e	4.5772867e-05
131	0x37ca006e	2.4080477e-05
132	0x387a6de1	5.9706977e-05
133	0x3803ca84	3.142144e-05
134	0x38faf967	0.00011967384
135	0x383899e0	4.4012326e-05
136	0x38763f18	5.870973e-05
137	0x38bd7004	9.033087e-05
138	0x38705b2d	5.7305373e-05
139	0x3844a7cd	4.6886318e-05
140	0x38b93a3a	8.832333e-05
141	0x3930cdb4	0.00016861298
142	0x38cf8895	9.8959696e-05
143	0x389638f2	7.163164e-05
144	0x38e60db0	0.00010969804
145	0x38f1e111	0.000115336974
146	0x388f0eed	6.8215515e-05
147	0x38753a93	5.8467103e-05
148	0x3805ce16	3.1901604e-05
149	0x38819658	6.179203e-05
150	0x38f8afc4	0.000118583004
151	0x38d4128d	0.00010112403
152	0x3844297b	4.6768673e-05
153	0x38eae629	0.0001120086
154	0x388051af	6.1187304e-05
155	0x38c27af2	9.273541e-05
156	0x38a57c2a	7.8909405e-05
157	0x38f3051a	0.00011588093
158	0x384fb231	4.95186e-05
159	0x38ab3b95	8.1650134e-05
160	0x388024cd	6.11037e-05
161	0x371fdc3e	9.528418e-06
162	0x38db22eb	0.00010449238
163	0x39020d3c	0.00012402696
164	0x38697f17	5.566989e-05
165	0x3904c012	0.00012660053
166	0x380b728a	3.3246855e-05
167	0x381fed2c	3.8129438e-05
168	0x3925f86f	0.00015828175
169	0x3900e82b	0.0001229352
170	0x38bd4cee	9.0265516e-05
171	0x3805461c	3.1774965e-05
172	0x38fb488c	0.000119821256
173	0x384b6705	4.8494916e-05
174	0x38d2ee7e	0.00010058003
175	0x39030848	0.00012496219
176	0x385eba09	5.3102183e-05
177	0x38e10377	0.000107294814
178	0x3915fd4f	0.00014304112
179	0x38b7636e	8.74464e-05
180	0x39037ad8	0.00012538896
181	0x38dc7bc1	0.000105134684
182	0x386723dd	5.5108092e-05
183	0x3816e751	3.5978217e-05
184	0x3896d4c9	7.192192e-05
185	0x390f37f5	0.00013658388
186	0x37e34254	2.7091395e-05
187	0x37a863fd	2.0073721e-05
188	0x3898bfb2	7.283631e-05
189	0x3845b69e	4.7138536e-05
190	0x3900cc8d	0.00012283232
191	0x388749da	6.4510576e-05
192	0x3804b2eb	3.1637883e-05
193	0x388dad0e	6.755638e-05
194	0x369c9373	4.6663276e-06
195	0x37c97f32	2.4020297e-05
196	0x385af9cc	5.220789e-05
197	0x370fd8a1	8.573902e-06
198	0x38c40f58	9.348866e-05
199	0x36c3c6b0	5.834583e-06
200	0x381b9d2c	3.7101257e-05
201	0x37febf4f	3.0368245e-05
202	0x382bdc76	4.0974897e-05
203	0x383716bb	4.365177e-05
204	0x38c295ec	9.278566e-05
205	0x37b636ca	2.1721604e-05
206	0x38cd58e8	9.791722e-05
207	0x3641d390	2.8882387e-06
208	0x389043cd	6.879084e-05
209	0x3895eb7f	7.148738e-05
210	0x38192682	3.6513906e-05
211	0x37fd429b	3.0190966e-05
212	0x3808613e	3.251549e-05
213	0x3881599f	6.1678926e-05
214	0x3889a790	6.56388e-05
215	0x38cfdf4f	9.912124e-05
216	0x370551dc	7.946477e-06
217	0x388c4de1	6.690226e-05
218	0x37f9aad8	2.9762668e-05
219	0x38816b8e	6.171233e-05
220	0x386b885e	5.6155368e-05
221	0x3863cec6	5.431359e-05
222	0x37e0e9dc	2.681178e-05
223	0x3769808d	1.3917813e-05
224	0x378137c6	1.540397e-05
225	0x37295a34	1.0094187e-05
226	0x38e7da67	0.00011055619
227	0x388608da	6.391267e-05
228	0x383d8247	4.518244e-05
229	0x3885c60c	6.378823e-05
230	0x37f17877	2.8785535e-05
231	0x3804e589	3.1685024e-05
232	0x382cfa6b	4.1241216e-05
233	0x351b0a12	5.7756654e-07
234	0x38aa2a0e	8.114065e-05
235	0x37d784ca	2.5691832e-05
236	0x38adb061	8.282136e-05
237	0x37f9ff4b	2.9801993e-05
238	0x38c7c49c	9.525681e-05
239	0x38bb6593	8.9357745e-05
240	0x379e7710	1.889051e-05
241	0x38454d75	4.7040598e-05
242	0x388466ae	6.313376e-05
243	0x3877dd20	5.9095328e-05
244	0x37a157db	1.9233607e-05
245	0x3814a854	3.5442717e-05
246	0x38729f56	5.784569e-05
247	0x3708ed5e	8.161498e-06
248	0x378d7f44	1.6867773e-05
249	0x36b6053e	5.424633e-06
250	0x36e29ffd	6.75395e-06
251	0x377c096c	1.5022564e-05
252	0x3897c218	7.236394e-05
253	0x37fa4e99	2.9838922e-05
254	0x38c45a36	9.3628114e-05
255	0x3890b396	6.8999056e-05

exp_avg f4 [64]
0	0x390a208a	0.00013172827
1	0x39d4b249	0.00040568624
2	0xb9b1a3f6	-0.0003388223
3	0xba2748e4	-0.0006381406
4	0xb9261913	-0.00015840335
5	0xb99537b9	-0.0002846101
6	0xb9d28ade	-0.00040157785
7	0xb9c32dd4	-0.00037227443
8	0x389a49b8	7.3570234e-05
9	0x3900e423	0.00012292019
10	0xb89dc8a9	-7.523719e-05
11	0xb95cac24	-0.00021044962
12	0xb9055161	-0.00012714184
13	0xb82171a0	-3.8491213e-05
14	0xb945a2e4	-0.00018848066
15	0x390d0aa9	0.00013450779
16	0xb95fb3ce	-0.0002133392
17	0xb9dbacd2	-0.00041899696
18	0x39111956	0.00013837716
19	0xb9414c6c	-0.00018434384
20	0xb972967b	-0.00023134977
21	0x38c800e8	9.536912e-05
22	0xb916dbea	-0.00014387039
23	0xb90852be	-0.00013000795
24	0xb982f746	-0.00024979765
25	0xb9379106	-0.00017506265
26	0xb8e4f611	-0.00010917721
27	0xb8e54007	-0.00010931497
28	0xb853c062	-5.048549e-05
29	0xb8b64568	-8.691364e-05
30	0xb99457c0	-0.0002829414
31	0xb92977ed	-0.00016161772
32	0xb99e1c11	-0.0003015702
33	0x3892fb9f	7.0086906e-05
34	0xb958bef0	-0.00020670495
35	0x38742132	5.820505e-05
36	0xb76c1487	-1.4071476e-05
37	0xba09e8c1	-0.0005260818
38	0xb956bba2	-0.00020478529
39	0x39852b4e	0.000254
40	0x38911806	6.9186135e-05
41	0xb8a61312	-7.919049e-05
42	0xb8b0185d	-8.396872e-05
43	0xb9b377f1	-0.00034230904
44	0xb787bb51	-1.618048e-05
45	0xb8b93306	-8.830991e-05
46	0xb9721998	-0.00023088453
47	0xba3c500e	-0.000718356
48	0x39a6d4e9	0.00031820618
49	0xb84493c4	-4.686766e-05
50	0xb9433b87	-0.00018618825
51	0xb9386bb4	-0.0001758773
52	0xb9192fd9	-0.00014609042
53	0x392222af	0.00015462445
54	0xb935f4db	-0.00017352721
55	0x39a8d82f	0.00032204526
56	0xb980a14f	-0.00024534247
57	0xb9ade950	-0.00033170963
58	0xb94e0ebc	-0.0001965118
59	0x3854834a	5.066701e-05
60	0xb81f7e58	-3.802622e-05
61	0x38f28186	0.00011563585
62	0xb9a98b39	-0.0003233792
63	0xb932efd6	-0.00017064749

exp_avg_sq f4 [64]
0	0x38c3521d	9.3136194e-05
1	0x398c804d	0.00026798472
2	0x37e3bc97	2.7148328e-05
3	0x393033af	0.00016803922
4	0x37176bf5	9.025437e-06
5	0x39bf881b	0.00036531765
6	0x39862ada	0.000255904
7	0x38b2873e	8.512892e-05
8	0x37a54ddd	1.970579e-05
9	0x398dc060	0.00027036946
10	0x38948e70	7.083721e-05
11	0x37b32ebb	2.1360223e-05
12	0x3927608e	0.0001596233
13	0x373d9ff7	1.1302523e-05
14	0x3911bdb9	0.00013898955
15	0x37256a50	9.859519e-06
16	0x389bd0b7	7.429852e-05
17	0x3927f087	0.00016015965
18	0x39bdccd7	0.00036201507
19	0x3900b53f	0.0001227455
20	0x3808689e	3.252236e-05
21	0x381966d3	3.6573805e-05
22	0x379d0141	1.8716442e-05
23	0x37374804	1.0924417e-05
24	0x37e90352	2.777731e-05
25	0x3882907c	6.2257954e-05
26	0x388832bc	6.4944354e-05
27	0x37ec6b91	2.8183482e-05
28	0x3864ad9d	5.4521126e-05
29	0x3818fe7f	3.6476642e-05
30	0x37c18b86	2.3072364e-05
31	0x38c41788	9.350391e-05
32	0x38df9ee5	0.00010663065
33	0x38a21029	7.727772e-05
34	0x38279299	3.9952432e-05
35	0x35be2094	1.4165585e-06
36	0x39c00eab	0.00036632022
37	0x38af0951	8.3463856e-05
38	0x3891fc6f	6.961158e-05
39	0x393cf5ef	0.00018020695
40	0x38ae9ca0	8.32614e-05
41	0x3787995f	1.6164673e-05
42	0x37c98f38	2.4027759e-05
43	0x3958b335	0.00020666125
44	0x3869c658	5.573625e-05
45	0x398e5944	0.0002715086
46	0x38b609be	8.680251e-05
47	0x390c8c5b	0.00013403727
48	0x399be9ce	0.00029738102
49	0x3833f22d	4.290247e-05
50	0x391473f4	0.00014157576
51	0x3869f8f0	5.578337e-05
52	0x39110837	0.00013831338
53	0x38bc7b08	8.987455e-05
54	0x39530342	0.00020123742
55	0x393ffed8	0.00018310116
56	0x37b528a3	2.1595804e-05
57	0x36a12739	4.80274e-06
58	0x373c8029	1.1235513e-05
59	0x36969847	4.488076e-06
60	0x38870cfb	6.4397194e-05
61	0x39df6fc1	0.00042617138
62	0x397fe01e	0.00024402185
63	0x371271b0	8.728748e-06

exp_avg f4 [2, 64]
0	0xba148214	-0.0005665135
1	0x3b383ff2	0.0028114286
2	0xbbd5f54a	-0.006529485
3	0x3a0f5788	0.000546806
4	0xbb44f6a3	-0.0030054234
5	0x3a819e91	0.0009889175
6	0x38fbb179	0.000120016695
7	0xbb5a6438	-0.0033323895
8	0xbc653c79	-0.013991469
9	0xb98cf768	-0.00026887213
10	0xba4346bc	-0.00074492
11	0xbb1e6bf9	-0.0024173243
12	0xbacfa745	-0.0015842697
13	0x3baf1427	0.0053429785
14	0xbaac9f11	-0.0013169964
15	0xbaeb7334	-0.001796341
16	0x3ae4360b	0.0017411126
17	0x3b0f757e	0.00218901
18	0xbb5709a6	-0.0032812147
19	0xbae57fc0	-0.0017509386
20	0xbacfd742	-0.0015856999
21	0x3a385ac3	0.00070325675
22	0xbb7550ad	-0.003743212
23	0xbb3595af	-0.0027707627
24	0xbb46a7c9	-0.003031241
25	0xbac62838	-0.0015118187
26	0xbabe45ba	-0.001451663
27	0x3ab18ac5	0.0013545385
28	0x3bb3470a	0.005471115
29	0xb934ad33	-0.0001723066
30	0xbc44a44e	-0.012002064
31	0xbb199c04	-0.002343894
32	0xba3fb4ed	-0.0007313032
33	0xbbc59529	-0.006029744
34	0xbba4d15e	-0.0050298413
35	0x3b846a6a	0.004041006
36	0xbb9fbb2b	-0.004874607
37	0xbbf2556c	-0.007395437
38	0x3b26dbc8	0.002546059
39	0x3b9ddd5e	0.004817649
40	0xbb516121	-0.0031948762
41	0x3a89de61	0.0010518545
42	0xbbd2751d	-0.0064226524
43	0x3a068d42	0.00051327434
44	0x3b949a9b	0.004535032
45	0xbb7d6465	-0.0038664576
46	0xb9b008a4	-0.00033575774
47	0x3bc46e29	0.0059945774
48	0x3ac54016	0.0015049006
49	0x3ae2e68c	0.001731114
50	0xbb9cd3cb	-0.00478599
51	0xb9f4801d	-0.00046634758
52	0xbb3b6221	-0.0028592425
53	0x3b22c342	0.002483562
54	0x3954b5e7	0.0002028566
55	0xbb2163d0	-0.0024626143
56	0xbb7d63d5	-0.003866424
57	0x3bfa1dd2	0.0076329494
58	0x3a1d0bf5	0.00059908564
59	0xbbe8182a	-0.0070829587
60	0x393cd9f8	0.00018010277
61	0xbb054c45	-0.002033965
62	0xba95c264	-0.0011425731
63	0xbafe21f4	-0.0019388781
64	0x38afb2a5	8.3779254e-05
65	0x3acdc09a	0.0015697659
66	0xba44ddb0	-0.00075098407
67	0xba2f23e6	-0.00066810695
68	0x3a827a60	0.0009954683
69	0xb91518ae	-0.00014218941
70	0xba068fe8	-0.0005133138
71	0xba3a81a6	-0.0007114656
72	0xbb3f5dc9	-0.0029200187
73	0x3a038e7b	0.00050184847
74	0xbabcf0ee	-0.0014415064
75	0xbae82655	-0.0017711619
76	0xbaadf447	-0.0013271653
77	0xba4fb4f5	-0.0007923388
78	0xb992af24	-0.0002797778
79	0xba7b3fe9	-0.00095844135
80	0x3a5dbdcc	0.0008458763
81	0x3a440868	0.0007478059
82	0xbabd3de2	-0.0014437998
83	0xba52724f	-0.00080278976
84	0x3a905466	0.0011011481
85	0x3b0057da	0.0019583614
86	0x3a367c56	0.00069612765
87	0xb9e4a3d5	-0.00043609613
88	0xb9895ba8	-0.00026198965
89	0xba6370c0	-0.0008676164
90	0x390790c9	0.0001292854
91	0x3a4fc50c	0.00079257856
92	0xb9891a37	-0.00026150208
93	0x3a72ebe4	0.0009266718
94	0xbb1e313c	-0.0024138233
95	0x399c8e97	0.00029860876
96	0xba055568	-0.0005086274
97	0xba3c9d40	-0.0007195063
98	0x3aa36e3e	0.0012468768
99	0x3af1c932	0.0018446802
100	0xb96d9503	-0.00022657592
101	0xbaa96823	-0.0012924712
102	0x3aaf63a3	0.0013381134
103	0x39e5773c	0.0004376712
104	0x3a86799f	0.0010259635
105	0x3ad21141	0.001602687
106	0xbb1d203f	-0.002397552
107	0x3a8c5a7c	0.0010708119
108	0xba0efeb5	-0.00054548244
109	0xbab73170	-0.0013976526
110	0x3a5dc0c5	0.0008459206
111	0x3a867329	0.0010257709
112	0xb90ac404	-0.00013233727
113	0x3a31e460	0.00067860447
114	0xba225056	-0.00061917806
115	0x3a8a9412	0.0010572693
116	0x3855c6e5	5.0968392e-05
117	0x39506bd6	0.00019876598
118	0xb9b77e8b	-0.00034998762
119	0xba1ace9d	-0.00059054216
120	0xbabe9691	-0.0014540722
121	0x3b32fb3f	0.00273104
122	0x362de64f	2.5913066e-06
123	0xbb1af265	-0.0023643014
124	0x3ae129d8	0.0017178608
125	0xbaadf293	-0.0013271145
126	0x3729f555	1.0130306e-05
127	0xba673ae5	-0.00088207267
