results/energy/checkpoints/A02_H064_L02_D01_Tanh_W4096_P010000_V-2.00e+01_S5.00e-01_Adam_PT_False_NO_TRAP_device_cuda_dtype_float32_chkp.pt (torch, 168471 bytes, 23 tensors)

layers.0.fc.weight f4 [64, 2]
0	0xbc60d184	-0.013721827
1	0x3ecb7098	0.3973434
2	0xbf19d16a	-0.60085166
3	0xbed06d98	-0.40708613
4	0xbebad4cd	-0.3649048
5	0x3ea640d8	0.32471347
6	0xbc1d1657	-0.009587846
7	0x3f0c4a3d	0.5480078
8	0xbde0acb3	-0.1097044
9	0x3e4ec30c	0.20191592
10	0xbe8a07d8	-0.2695911
11	0x3c98275b	0.018573454
12	0xbf2c339b	-0.67266244
13	0xbecf45cd	-0.4048294
14	0xbeab0f8d	-0.33410302
15	0x3e30631b	0.17225306
16	0x3ea72d23	0.32651624
17	0x3ecbf66e	0.39836448
18	0xbf0317d8	-0.5120826
19	0xbe20d716	-0.15707049
20	0x3e8db4e3	0.27677068
21	0x3f08a6c0	0.5337944
22	0xbe5eadcc	-0.21745986
23	0x3f01dd2f	0.50728124
24	0xbdf46a16	-0.11934297
25	0x3d3a69e4	0.04551114
26	0x3f4ba5cc	0.7954986
27	0xbf3b6a56	-0.7320913
28	0xbeefb154	-0.46814978
29	0xbe046599	-0.12929381
30	0xbf0cc0e9	-0.5498186
31	0x3f122414	0.570863
32	0xbeede25f	-0.4646177
33	0xbea1916b	-0.31556258
34	0xbeeddf7e	-0.46459574
35	0xbf12b22a	-0.57303107
36	0xbeee5eb4	-0.46556628
37	0x3f1e6d07	0.6188511
38	0x3eb8c87f	0.36090466
39	0x3e8c4705	0.27397934
40	0x3d5b4cc0	0.05353999
41	0xbea102d0	-0.31447458
42	0x3e1f8849	0.15579332
43	0xbf27d9b2	-0.6556655
44	0xbf01f56b	-0.50765103
45	0xbdc7dbc6	-0.09758715
46	0x3ef41135	0.47669378
47	0x3e42b7c5	0.19015415
48	0xbea8d0e3	-0.32971868
49	0x3e39c99d	0.18143316
50	0x3eebabbe	0.46029466
51	0x3f1126b8	0.56699705
52	0x3e9b1931	0.30292657
53	0xbc2bdf1f	-0.010490208
54	0x3f194432	0.5986968
55	0xbeeaffe5	-0.45898357
56	0x3e94028e	0.289082
57	0xbeeec037	-0.46631023
58	0xbf075f29	-0.5287958
59	0xbe2b027c	-0.16700166
60	0x3eb12ebe	0.34605974
61	0x3e2c29a0	0.16812754
62	0xbee46c4d	-0.44613877
63	0x3eae40bf	0.34033772
64	0x3edbf641	0.42961314
65	0xbde8af97	-0.11361616
66	0x3ccdce8f	0.025122909
67	0x3e1dcd29	0.15410294
68	0x3ee74d5e	0.45176214
69	0x3e62c5c6	0.22145757
70	0xbf09a6ef	-0.53770345
71	0x3dfc5b2d	0.12322078
72	0x3e9a2544	0.30106556
73	0x3ee3175a	0.44353753
74	0x3f244164	0.6416228
75	0x3edcf089	0.43152264
76	0x3e2de8fa	0.16983405
77	0xbf1b3ca8	-0.6063943
78	0x3da0a206	0.078434035
79	0xbece82bd	-0.4033412
80	0xbf344298	-0.70414114
81	0x3f12532e	0.5715817
82	0x3f2fe849	0.68713814
83	0xbf373d56	-0.71577966
84	0x3dfdf5b0	0.12400377
85	0xbe082ae7	-0.13297616
86	0xbe04d84a	-0.12973133
87	0xbea4c920	-0.32184696
88	0x3e9ee41d	0.31033412
89	0xbeee2483	-0.4651223
90	0x3e836118	0.25660014
91	0x3ead88e0	0.3389349
92	0x3f055af3	0.520919
93	0x3e3ba87f	0.18325995
94	0xbf347452	-0.7048999
95	0xbec79c7e	-0.38986582
96	0x3ec1a423	0.3782054
97	0x3d84dca6	0.06487398
98	0xbf0aa830	-0.54162884
99	0xbeb005c2	-0.34379393
100	0x3f331d94	0.6996701
101	0x3ebeecd8	0.37290072
102	0xbeab1924	-0.33417618
103	0xbdee6fa2	-0.11642386
104	0xbf20ae54	-0.62766004
105	0x3e6818f1	0.22665764
106	0xbf0e4a53	-0.5558216
107	0xbe4366fe	-0.19082257
108	0xbde5514e	-0.11197148
109	0x3de6411d	0.11242888
110	0xbeb62461	-0.3557463
111	0x3ecedd97	0.40403435
112	0xbf072af9	-0.52799946
113	0x3f2b58fe	0.66932666
114	0x3f383dc2	0.71969235
115	0xbf2b2f16	-0.6686872
116	0xbe6f0f8b	-0.23345773
117	0x3e3f4d2f	0.18681787
118	0x3e3d8fc0	0.18511868
119	0x3dbbfc1b	0.09178945
120	0x3ead6981	0.33869556
121	0xbd441c43	-0.047878515
122	0xbeb0727f	-0.34462354
123	0x3ea37fce	0.31933445
124	0xbf317d69	-0.69331986
125	0xbe9e9d51	-0.30979398
126	0xbe6ab2c1	-0.22919752
127	0xbe394fac	-0.18096799

layers.0.fc.bias f4 [64]
0	0xbe7c2df9	-0.24626912
1	0xbf100b37	-0.5626711
2	0xbe10da29	-0.14145721
3	0x3e1c6511	0.15272929
4	0xbeea1920	-0.45722294
5	0xbcd34a00	-0.025792122
6	0x3efeb0cb	0.49744257
7	0xbd90fde3	-0.07079675
8	0x39fe9661	0.00048558696
9	0xbd40db5f	-0.04708421
10	0x3e10b664	0.14132077
11	0x3eef5eca	0.46752006
12	0x3f2b8346	0.6699718
13	0x3eb8387a	0.35980588
14	0x3f2c81d8	0.67385626
15	0xbcba779e	-0.022762116
16	0xbf221306	-0.6331028
17	0xbebd9fa1	-0.3703585
18	0x3eed46d9	0.46343115
19	0xbc190d90	-0.009341612
20	0xbec28809	-0.37994412
21	0xbf0cd06d	-0.5500553
22	0xbf2da9c6	-0.6783718
23	0xbf23aa51	-0.6393176
24	0xbe0e19d3	-0.13877039
25	0x3ed1800b	0.40918002
26	0x3ebedc37	0.37277386
27	0xbf136cec	-0.57588077
28	0x3ed6ef67	0.41979524
29	0xbf0a4a18	-0.5401931
30	0xbe059eb8	-0.13048828
31	0xbe82dc80	-0.25558853
32	0xbe0ef76f	-0.13961576
33	0xbe1582ef	-0.14600728
34	0xbf3612ff	-0.71122736
35	0xbf35ad42	-0.70967495
36	0xbde54d1a	-0.111963466
37	0x3c31149a	0.010808134
38	0xbea386de	-0.31938833
39	0x3e8a486c	0.27008379
40	0xbf122354	-0.57085156
41	0xbd58f5d9	-0.052968834
42	0x3f1f0570	0.6211767
43	0xbe91e3c4	-0.28494084
44	0x3f222a14	0.63345456
45	0x3e7d4ada	0.24735585
46	0xbf2211c8	-0.6330838
47	0x3eea5a73	0.45772132
48	0xbda0ff9f	-0.07861256
49	0xbeaaaeef	-0.3333659
50	0x3f0a3fe8	0.54003763
51	0xbf12ce54	-0.5734608
52	0x3d967047	0.07345634
53	0xbe0be0ad	-0.13659926
54	0x3f022812	0.5084239
55	0x3e51fb99	0.20506133
56	0x3ea11bdd	0.3146657
57	0x3e2f26ba	0.17104617
58	0xbe27e7d5	-0.1639703
59	0xbe172e5b	-0.14763777
60	0xbf0d92e5	-0.5530227
61	0x3ebdabc9	0.37045124
62	0x3f0d8c35	0.55292064
63	0x3efd5be5	0.49484172

layers.1.fc.weight f4 [64, 128]
0	0xbd821095	-0.06350819
1	0xb91f565d	-0.00015195594
2	0xbd3bfb61	-0.04589403
3	0xbd37eccf	-0.044903573
4	0xbd506d3d	-0.050885428
5	0x3d3e8a39	0.04651854
6	0xbd0c85ae	-0.034307174
7	0x3c821ac5	0.015881905
8	0xbc484839	-0.0122242505
9	0x3d9e08bb	0.07716509
10	0xbd925590	-0.07145226
11	0xbd7ecf6f	-0.062209543
12	0xbd56aebe	-0.05241274
13	0x3d61007f	0.054932114
14	0xbcac3a0d	-0.021023775
15	0x3db2e05b	0.08734199
16	0x3cf32ba6	0.0296839
17	0x3ca3b38c	0.019983076
18	0x3bc6ae99	0.006063294
19	0xbd0d4594	-0.034490183
20	0x3c420142	0.01184112
21	0xbc96d853	-0.018413698
22	0xbb73820e	-0.0037156376
23	0xbb75d7c6	-0.0037512644
24	0xbd3e79d0	-0.04650289
25	0xbd49c0a0	-0.049255967
26	0x3d82a942	0.063799396
27	0xbd9b29c5	-0.07576326
28	0xbc4a905a	-0.012363518
29	0x3dafb38f	0.0857917
30	0x3c9136b1	0.017726274
31	0x3cb856fc	0.022502415
32	0xbdbd599e	-0.09245609
33	0x3d2c752f	0.042103942
34	0xbd9d6c3b	-0.07686659
35	0xbcd6ebf6	-0.026235562
36	0xbd380879	-0.044929955
37	0xbd0e935a	-0.034808494
38	0x3acb2f48	0.0015501762
39	0x3d8ecc8b	0.06972607
40	0x3cab1aa0	0.02088672
41	0x3d8804f4	0.0664157
42	0x3d560f13	0.05226047
43	0xbd5ff1fa	-0.054674126
44	0x3d0e39f1	0.034723226
45	0xbd864081	-0.06555272
46	0xbd5ab7ac	-0.05339782
47	0x3d32a6d8	0.043616146
48	0x3c5490e7	0.012974001
49	0x3da19914	0.078905255
50	0xbce8681a	-0.028369952
51	0x3b2dd9b4	0.0026527466
52	0x3d8d9595	0.06913296
53	0xbd87e3e7	-0.06635266
54	0x3d802baa	0.06258328
55	0xbd8636ac	-0.065533966
56	0x3c0bc7dd	0.008531538
57	0xbcf07166	-0.029350948
58	0xbd173f6d	-0.036925722
59	0x3c003785	0.007825737
60	0x3d9498a0	0.072556734
61	0xbcb5dda5	-0.022200415
62	0xbd0b4233	-0.03399868
63	0xbd019f1e	-0.031645887
64	0xbdb7bd8e	-0.089717016
65	0x3d277c33	0.04088993
66	0xbd246189	-0.04013208
67	0xbd60093f	-0.054696318
68	0xbd4d830b	-0.0501738
69	0x3d3c1a56	0.045923553
70	0x3d3fa80a	0.046791114
71	0x3d8ff48c	0.070290655
72	0x3d3807fc	0.04492949
73	0xbd08ca72	-0.033396192
74	0xbc959fd4	-0.018264689
75	0x3cc40e4a	0.023932595
76	0x3d92dce1	0.071710356
77	0x3ceefcb5	0.029173234
78	0xbd214abf	-0.039377924
79	0xbd44af45	-0.048018713
80	0xbdaaaea4	-0.08334091
81	0x3cb3133c	0.021859758
82	0xbd3f77b8	-0.046745032
83	0xbd8bab5c	-0.068197936
84	0x3da0b33f	0.078466885
85	0xbd651d34	-0.055936053
86	0xbc397fe0	-0.011321992
87	0x3cc0f753	0.023555433
88	0x3b5f32bc	0.003405734
89	0xbd80e0e9	-0.06292898
90	0xbd937d68	-0.07201654
91	0x3d8707d7	0.06593292
92	0x3c566d55	0.01308759
93	0x3d94f7dd	0.07273839
94	0xbcfc0a4a	-0.030766625
95	0x3ccac534	0.024752237
96	0xbd02e323	-0.031954896
97	0xbbb03309	-0.0053771776
98	0xbd5589d7	-0.052133407
99	0x3ce75abc	0.028241508
100	0x3d1417fa	0.03615568
101	0x3ba15b76	0.004924233
102	0xbc94d826	-0.018169474
103	0xbd5f3d9a	-0.054502107
104	0x3d6bf07c	0.05760239
105	0xbd6c84fc	-0.05774401
106	0x3d0e0915	0.03467663
107	0xbce6a261	-0.0281536
108	0xbd314d9a	-0.043286897
109	0x3c893a5d	0.016751463
110	0xbd4e4eca	-0.050368108
111	0x3cb39282	0.021920446
112	0x3c5f5046	0.0136299785
113	0xbd883edb	-0.06652614
114	0x3c4e489f	0.012590556
115	0x3d1d1e60	0.038359046
116	0x3d6a76fd	0.057242382
117	0xbc8e3286	-0.017358076
118	0xbd95cc33	-0.073143385
119	0xbc51e37c	-0.012810584
120	0x3d00694c	0.03135042
121	0xbce1d5cb	-0.027567765
122	0x3d15f207	0.03660777
123	0x3d672086	0.0564275
124	0xbd3813f9	-0.044940922
125	0x3a7ab1b1	0.0009563221
126	0x3d19801b	0.037475687
127	0x3bb0df17	0.005397688
128	0x3bda91dc	0.00667022
129	0xbb94050f	-0.0045172046
130	0xbd9b2000	-0.07574463
131	0x3c2ed6f4	0.010671366
132	0x3d71cf78	0.05903575
133	0x3da01c7b	0.07817932
134	0x3d827537	0.06370013
135	0x3c2d775e	0.010587541
136	0x3d37615c	0.044770584
137	0xbd30e65c	-0.043188438
138	0xbd85298d	-0.06502066
139	0xbd9e2354	-0.07721582
140	0x3db41059	0.087921806
141	0x3d5f1ae5	0.054469008
142	0xbd6f24c9	-0.05838469
143	0x3ce174f2	0.027521584
144	0x3d695832	0.056968875
145	0x3d9d7dee	0.07690035
146	0x3d99979d	0.07499621
147	0x3d92272d	0.071363784
148	0xbca33376	-0.019922
149	0xbd000a84	-0.03126003
150	0x3d8642ab	0.06555685
151	0x3d28ccaa	0.041210808
152	0xbd655311	-0.05598742
153	0x3dbde6bf	0.09272527
154	0x3d37dfab	0.04489104
155	0x3d589524	0.052876607
156	0xbd640c43	-0.055675756
157	0x3c87d74b	0.016582152
158	0xbcf44e1c	-0.029822402
159	0x3d90663b	0.07050749
160	0xbca60454	-0.020265736
161	0x3d054533	0.032536697
162	0x3be80313	0.0070804446
163	0x3d131f08	0.035918266
164	0xbcec0083	-0.028808838
165	0x3d1b1d27	0.0378696
166	0xbd7e74f5	-0.062123258
167	0x3ca1bfab	0.019744715
168	0xbd62775e	-0.05528962
169	0xbdad3098	-0.08456534
170	0xbd8fdd8a	-0.07024677
171	0x3d8e5551	0.069498666
172	0x3d4cdea0	0.050017
173	0x3db44c9f	0.08803677
174	0x3d7e9890	0.062157214
175	0xbd87a075	-0.066224016
176	0xbd735a6b	-0.0594124
177	0xbca9a7c6	-0.020709883
178	0xbd3df4c9	-0.046376023
179	0x3d723809	0.05913547
180	0xbd3b9b04	-0.04580213
181	0xbd40f872	-0.047111936
182	0xbdaff73f	-0.0859208
183	0xbd6e6523	-0.05820192
184	0x3d8bf7f7	0.06834405
185	0x3d925b82	0.0714636
186	0x3d796e32	0.060896106
187	0x3d8d091e	0.068865046
188	0x3dab00b1	0.08349741
189	0xbcff8cc0	-0.031195045
190	0x3d533da2	0.05157245
191	0x3da0d185	0.07852463
192	0x3ce7d7bd	0.028301114
193	0x3daf2342	0.08551647
194	0x3d4f28c1	0.050575975
195	0x3d6ec83f	0.05829644
196	0xbd0415d8	-0.032247394
197	0x3d52ff57	0.051513042
198	0x3be8183e	0.007082968
199	0xbc035fa4	-0.008018408
200	0xbd40995d	-0.04702126
201	0xbd3300b4	-0.043701842
202	0xbd856206	-0.06512837
203	0x3d692d0b	0.056927722
204	0x3d81dbe8	0.06340772
205	0xbbb83402	-0.005621434
206	0xbd5246e0	-0.051337123
207	0x3d44ec47	0.048076894
208	0x3d65f30b	0.056139987
209	0x3bef89ab	0.0073101125
210	0xbd28fec8	-0.041258603
211	0x3da7ffe8	0.08203107
212	0x3d14f1b8	0.036363333
213	0xbd88fcd1	-0.06688846
214	0x3db10dc9	0.086452074
215	0x3d8a7dbf	0.067622654
216	0xbcb396ae	-0.021922436
217	0x3d46fdd9	0.04858193
218	0xbd5d5635	-0.05403729
219	0xbc9369b9	-0.017994748
220	0x3d9a7828	0.07542449
221	0x3b80ef8a	0.0039348053
222	0xbd80eb11	-0.06294835
223	0xbcd7e7d8	-0.026355669
224	0xbd0e74c5	-0.03477933
225	0xbca2d2ec	-0.019875966
226	0x3c2f3c7b	0.010695572
227	0x3daf5f37	0.08563083
228	0x3c1b2d5d	0.009471265
229	0xbd678f9e	-0.05653345
230	0x3ba22521	0.0049482738
231	0x3d2edab1	0.04268903
232	0x3d2d6fa9	0.042342816
233	0xbd6a1987	-0.05715325
234	0xbc8101dc	-0.015747957
235	0xbd875329	-0.066076584
236	0xbd1ed976	-0.038781606
237	0x3d0354c4	0.03206326
238	0xbd835a3a	-0.06413694
239	0x3d014f3d	0.03156971
240	0x3d8cf2d6	0.06882255
241	0x3bab4e56	0.005227844
242	0xbd6960af	-0.05697697
243	0xbceccc6e	-0.028906073
244	0x3d3f40a1	0.046692494
245	0xbd84f76f	-0.06492507
246	0x3d35a50e	0.04434686
247	0xbda8cd8c	-0.0824233
248	0xbdb54834	-0.08851662
249	0xbda6bce2	-0.08141495
250	0xbc6c4860	-0.014421552
251	0x3d6a15e3	0.05714978
252	0xbda84e7b	-0.08218094
253	0x3d94c41e	0.07263969
254	0xbd1bfb6c	-0.03808157
255	0x3cc66763	0.02421922

layers.1.fc.bias f4 [64]
0	0x3d84d8f4	0.06486693
1	0xbbb71d51	-0.0055882116
2	0xbce56972	-0.028004382
3	0x3bed6399	0.007244539
4	0x3cc271b1	0.023735853
5	0xbc2951fb	-0.010334487
6	0x3d1791db	0.037004333
7	0x3d29e365	0.041476626
8	0xbd81d4c4	-0.0633941
9	0x3d9c4b0c	0.076315016
10	0x3d759230	0.05995387
11	0xbbf27644	-0.0073993523
12	0x3d666e4c	0.05625753
13	0xbcbaff2e	-0.022826757
14	0x3bcf8614	0.006333122
15	0x3d5ce384	0.053927913
16	0xbd86c6cd	-0.06580887
17	0xbccdf538	-0.025141343
18	0xbd7472b4	-0.059679702
19	0xbc487cb9	-0.012236767
20	0xbd7673f2	-0.060169168
21	0xbd1ffdba	-0.039060332
22	0xbd2ce990	-0.04221493
23	0x3d8c7148	0.06857544
24	0x3ca3a968	0.01997824
25	0xbdad1f29	-0.08453209
26	0xbd5e07ac	-0.054206535
27	0xbbab54b0	-0.0052286014
28	0x3cd49c3d	0.025953406
29	0x3d392d58	0.04520926
30	0x3dd96e82	0.10616781
31	0xbd72e592	-0.059300967
32	0x3db1d466	0.0868309
33	0x3d760920	0.060067296
34	0xbd72e9bd	-0.05930494
35	0xbd76415e	-0.060120933
36	0xbd948ab4	-0.07253018
37	0xbcf6d2ca	-0.030129809
38	0xbc9e0f3c	-0.019294374
39	0xbdb0f6c3	-0.08640816
40	0xbce0187b	-0.027355423
41	0x3d358623	0.044317376
42	0xbbe30fd8	-0.006929379
43	0xbd93c70a	-0.07215698
44	0xbd6ca21a	-0.05777178
45	0x3d275f99	0.040862653
46	0x3d3cb455	0.046070416
47	0xbd12dcd6	-0.035855137
48	0xbd8eb1a9	-0.0696748
49	0x3d2f0f15	0.042738993
50	0xbd360e70	-0.044447362
51	0xbda8c3e7	-0.082404904
52	0x3da7c4af	0.08191811
53	0x3ca64d56	0.020300549
54	0xbc707475	-0.014676203
55	0x3c444c48	0.0119810775
56	0x3d8bf192	0.06833185
57	0xbdcf4d08	-0.101221144
58	0xbc6e72ca	-0.014553735
59	0xbcc58da9	-0.0241154
60	0xbdc7e958	-0.09761304
61	0x3d99c502	0.075082794
62	0xbda8b170	-0.082369685
63	0xbd1c7cea	-0.038205065

layers.2.gsds.0.weight f4 [2, 64]
0	0x3d846942	0.06465389
1	0x3dcfc9d2	0.10145916
2	0xbcbe0c23	-0.023199147
3	0x3dd83e45	0.10558752
4	0xbb06c279	-0.0020562692
5	0xbdee9bb1	-0.116507895
6	0xbdd82879	-0.105545945
7	0xbd75e9a5	-0.060037274
8	0xbdc5f8d4	-0.09666601
9	0x3de7fd5f	0.113276236
10	0xbd690ae0	-0.056895137
11	0xbccb1f66	-0.024795245
12	0x3dab2116	0.0835592
13	0xbcabd68e	-0.020976331
14	0x3d6e6b52	0.058207817
15	0xbc3be400	-0.011467934
16	0xbd514901	-0.051095013
17	0xbd996f5c	-0.07491943
18	0x3de7c56c	0.11316952
19	0xbd93e55d	-0.07221482
20	0x3c839e20	0.01606661
21	0x3d45991e	0.048241727
22	0x3c92a66c	0.017901622
23	0xbcd00b78	-0.025396094
24	0xbcd3f534	-0.025873758
25	0xbd4029b9	-0.04691479
26	0x3d4fc4a0	0.050724626
27	0xbd010ac2	-0.0315044
28	0x3d38fa78	0.04516074
29	0x3d66837a	0.05627773
30	0x3de983e5	0.1140211
31	0xbd8a266e	-0.06745611
32	0xbd9ff52e	-0.07810436
33	0xbd974872	-0.07386865
34	0x3d1fbe74	0.03899999
35	0x3ac657d6	0.0015132378
36	0x3de89439	0.11356396
37	0x3dd06840	0.10176134
38	0xbd60c1c4	-0.05487229
39	0x3daa4ada	0.08315058
40	0xbd6d7bf4	-0.05797954
41	0xbd04c779	-0.032416794
42	0x3ddedf19	0.10882396
43	0xbdb67c79	-0.0891046
44	0xbd3c6fe5	-0.04600515
45	0xbdd9c2a3	-0.10632827
46	0x3d495711	0.0491553
47	0x3dd3ff6c	0.10351452
48	0x3ddbd582	0.10734083
49	0xbd5340a3	-0.051575314
50	0xbda418bd	-0.08012531
51	0x3d88b905	0.06675915
52	0xbd8c30a1	-0.06845213
53	0xbd3ae5b2	-0.04562921
54	0xbdbf5bff	-0.09343719
55	0x3da119ca	0.07866247
56	0xbc87f7ad	-0.016597593
57	0x3d11b90d	0.03557687
58	0xbc700907	-0.01465059
59	0x3bf69a43	0.0075257136
60	0xbd5632ae	-0.052294426
61	0x3df6bdda	0.1204793
62	0xbdc94c3e	-0.09828995
63	0xbc33cd28	-0.010974206
64	0xbd34329d	-0.04399358
65	0xbda41b00	-0.08012962
66	0x3de70aa8	0.112813294
67	0x3dc28cbe	0.09499501
68	0x3da5fcbe	0.08104847
69	0x3cf6420c	0.03006079
70	0x3d9eae23	0.07748058
71	0x3d8104dd	0.06299756
72	0xbdfdde78	-0.12395948
73	0xbd66374d	-0.056205083
74	0x3caf3485	0.021387348
75	0x3da47a88	0.080311835
76	0x3d9dfa67	0.07713776
77	0xbb8b4036	-0.004249598
78	0x3e0216a7	0.12703954
79	0xbd92663b	-0.07148405
80	0x3d6d97e3	0.05800618
81	0x3e0ca3d9	0.13734378
82	0x3c7f7284	0.0155912675
83	0x3d822f36	0.06356661
84	0x3de99066	0.11404495
85	0xbdcbcc61	-0.099510916
86	0x3daa5d18	0.083185375
87	0x3d425585	0.04744484
88	0x3d91718b	0.07101735
89	0x3d18e9ff	0.03733253
90	0x3dba606d	0.09100423
91	0x3d0b3f18	0.033995718
92	0x3d1ea410	0.03873068
93	0xbd9a1795	-0.07524029
94	0xbe25723b	-0.16156857
95	0x3d8a0736	0.067396566
96	0x3dc928f5	0.09822265
97	0xbc7b6e91	-0.015346185
98	0x3db83e08	0.089962065
99	0xbd205c62	-0.039150603
100	0x3d5923e0	0.05301273
101	0x3c6419cd	0.013922167
102	0x3d699357	0.05702528
103	0xbd623655	-0.055227596
104	0xbd74175a	-0.059592582
105	0x3d9009bb	0.07033106
106	0xbd8f346c	-0.069924206
107	0x3dc60997	0.09669798
108	0xbc416d8f	-0.011805906
109	0xbd0ee8eb	-0.034890097
110	0x3deb95a6	0.115031525
111	0x3ded7cac	0.11596045
112	0xbdb4f076	-0.08834927
113	0x3d531be4	0.05154027
114	0x3d97d136	0.07412951
115	0xbd2eeb9b	-0.04270516
116	0x3b66e432	0.003523123
117	0xbdf838b6	-0.12120192
118	0xbbf84906	-0.0075770644
119	0xbdb4eb4a	-0.0883394
120	0x3de2ba50	0.110706925
121	0x3c00fdac	0.00787298
122	0x3e1151f0	0.14191413
123	0x3e54741f	0.20747422
124	0xbd475cef	-0.048672613
125	0x3d7e6978	0.0621123
126	0x3d6c0e12	0.057630606
127	0x3d7e3e7b	0.062071305

layers.2.gsds.0.bias f4 [2]
0	0xbca0a060	-0.019607723
1	0x3ddb5428	0.10709411

log_envelope.log_envs.0.weight f4 [2, 1]
0	0x3eb509ad	0.35358945
1	0x3eba34b6	0.3636834

exp_avg f4 [64, 2]
0	0x3c0f5c9b	0.008750106
1	0x3bdd0b56	0.006745736
2	0xba11a896	-0.00055564323
3	0x3a7a2e13	0.0009543609
4	0xbadc533a	-0.0016809471
5	0xb9cdd537	-0.00039259504
6	0x3b78869d	0.0037922033
7	0x3b4b0537	0.003097845
8	0xbaae86f8	-0.001331537
9	0xbab3ca06	-0.0013716824
10	0xbb313b9f	-0.0027043594
11	0xbb1cc9a9	-0.002392391
12	0xbacda4e0	-0.0015689395
13	0xbb3715c8	-0.0027936567
14	0xbb06eff2	-0.0020589796
15	0xbad4fa5f	-0.0016248933
16	0xbacd23ae	-0.0015650892
17	0xbb1c4ec5	-0.0023850661
18	0x3a993e05	0.0011691457
19	0x3b4f73b0	0.0031654648
20	0xba6c649d	-0.0009017678
21	0xbb246b4c	-0.0025088368
22	0xbb7e4871	-0.0038800503
23	0xbb19025a	-0.002334735
24	0x3bf08a68	0.007340718
25	0x3bbb8d2c	0.005723616
26	0x3a8173c4	0.000987642
27	0x3acfbea2	0.001584966
28	0x3b4e6d58	0.003149828
29	0x3aef3f6a	0.0018253152
30	0xbb330d2c	-0.0027321083
31	0xbb5960f1	-0.0033169354
32	0x36ba3251	5.5490896e-06
33	0xbade5b68	-0.0016964497
34	0x3a453757	0.00075232
35	0xb964d564	-0.00021823269
36	0x3bef9d76	0.007312472
37	0x3ba88006	0.0051422147
38	0xbb10aab1	-0.0022074396
39	0xbba4c9fa	-0.0050289603
40	0x3b31c6a1	0.0027126449
41	0x3b5875d8	0.0033029225
42	0x3ba61006	0.005067828
43	0x3b6150a0	0.0034380332
44	0x38ba3733	8.879453e-05
45	0x3ad94aaf	0.0016578044
46	0xbb0dbc65	-0.0021627184
47	0xbaa6c3e4	-0.0012723175
48	0xba92fb25	-0.0011213763
49	0xba0eebbd	-0.0005451998
50	0xb919d4b1	-0.00014670451
51	0x39fd556d	0.00048319568
52	0x3a699822	0.0008910914
53	0x3b0802ba	0.0020753578
54	0x3b04a5bc	0.0020240387
55	0x3b170fd4	0.0023050206
56	0x3aa4ee8c	0.00125833
57	0x3abe4e9f	0.001451928
58	0xbab518e3	-0.0013816621
59	0xba337cde	-0.0006846915
60	0x3b61a50e	0.0034430656
61	0x3b3bc92b	0.002865384
62	0xba89aaee	-0.0010503212
63	0xba91d2d5	-0.0011125455
64	0xbba0ecb8	-0.0049110316
65	0xbbbb8b27	-0.0057233754
66	0xbbd0d4d4	-0.0063730273
67	0xbbb9113f	-0.005647808
68	0x392a4a2e	0.00016240097
69	0xba16d4c7	-0.0005753752
70	0xba85ce7a	-0.001020863
71	0xba440908	-0.00074781524
72	0x3b008c45	0.0019614857
73	0x3b18303e	0.0023222114
74	0x390c7e47	0.00013398482
75	0x3a99bb43	0.0011728782
76	0xbbabf353	-0.0052475124
77	0xbb495fd3	-0.0030727282
78	0x3b98afc9	0.004659627
79	0x3b2f8d9d	0.002678729
80	0xb89b801a	-7.414837e-05
81	0xbb0c7f71	-0.0021438266
82	0xba2aa741	-0.0006509908
83	0xba397b6a	-0.000707558
84	0x3b3e44ba	0.0029032663
85	0x3b601168	0.0034190062
86	0xbb1e9470	-0.0024197362
87	0xbb30f23f	-0.0026999859
88	0xba749524	-0.0009330085
89	0xbb126032	-0.002233517
90	0xbac4842b	-0.0014993002
91	0xbb40fc6c	-0.002944733
92	0x3b1a8b90	0.002358172
93	0x3ad8d2f2	0.0016542359
94	0x3ac0f2cc	0.0014720797
95	0x3b6c4b8e	0.0036055776
96	0x3b6c7514	0.0036080526
97	0x3b82ef6b	0.003995826
98	0x39ae123c	0.00033201452
99	0xbb5116f2	-0.0031904546
100	0x39600a2f	0.00021366098
101	0xba238bd1	-0.0006238791
102	0x39919d4a	0.00027773745
103	0x3b9a5fc7	0.0047111246
104	0xbb10d527	-0.0022099705
105	0xbb56dea6	-0.0032786517
106	0xba90e366	-0.0011054098
107	0xbb01e134	-0.001981807
108	0xbc1a895c	-0.009432163
109	0xbc03be90	-0.008041039
110	0x3a46a8a5	0.00075782306
111	0xba196fed	-0.0005853165
112	0x3a1fd3ac	0.000609691
113	0x3a782e20	0.00094673224
114	0x3ac3285b	0.0014889346
115	0x3ab468da	0.0013764158
116	0xbb155711	-0.0022787491
117	0xb9ecaec5	-0.0004514364
118	0x3b7c2ada	0.003847769
119	0x3b92b4bd	0.004477112
120	0xba995662	-0.0011698718
121	0xba80afdc	-0.0009818035
122	0x3c1bc6ff	0.009507894
123	0x3bf98685	0.007614913
124	0xbb0aee3c	-0.0021199128
125	0xbb3ba642	-0.0028633033
126	0xbacfcd9e	-0.0015854125
127	0xba93dc78	-0.0011280915

exp_avg_sq f4 [64, 2]
0	0x3a9d6428	0.0012007998
1	0x3b162247	0.0022908614
2	0x3944fb0d	0.0001878554
3	0x38f479d4	0.00011657519
4	0x391c0a99	0.00014881267
5	0x38dfd95d	0.00010673956
6	0x3a399c9b	0.0007080526
7	0x3a18e680	0.0005832687
8	0x3929233e	0.00016130225
9	0x39664404	0.00021959847
10	0x39e80f8f	0.0004426208
11	0x3960ff74	0.00021457468
12	0x392dce58	0.00016575435
13	0x3a185338	0.00058107404
14	0x38e8dd71	0.00011103869
15	0x38880d59	6.4874715e-05
16	0x395a22f7	0.00020803126
17	0x39fd1793	0.00048273485
18	0x39d06a86	0.00039752218
19	0x3a93f1cf	0.0011287275
20	0x39cb227b	0.00038744867
21	0x3a02f415	0.00049954775
22	0x39791aa0	0.00023756409
23	0x38c39a01	9.32701e-05
24	0x3a4d0d9a	0.0007822156
25	0x3ab1917d	0.0013547387
26	0x38460de3	4.721981e-05
27	0x3846d983	4.7409452e-05
28	0x39e5cb5a	0.00043829792
29	0x3a5730c7	0.00082088675
30	0x397d09fd	0.00024131681
31	0x39e776a2	0.00044148142
32	0x39ac4cd7	0.00032863647
33	0x3971716f	0.00023025808
34	0x3971a558	0.00023045146
35	0x38a47cf1	7.8434015e-05
36	0x3a92059c	0.0011140588
37	0x396bc8d2	0.00022486158
38	0x3a4e8578	0.0007878165
39	0x3b129efe	0.0022372599
40	0x398dc79e	0.00027042342
41	0x39e60c73	0.00043878294
42	0x3a96a9cd	0.0011494696
43	0x3a4711bb	0.00075938896
44	0x38a06f38	7.650111e-05
45	0x390d09c8	0.00013450452
46	0x39206ddf	0.00015299719
47	0x3991e1c6	0.0002782477
48	0x39052027	0.00012695846
49	0x3791d214	1.7383172e-05
50	0x38099c0f	3.2808686e-05
51	0x3816bd8c	3.5939316e-05
52	0x3927f4e3	0.00016017588
53	0x39385657	0.00017579772
54	0x38a31160	7.775682e-05
55	0x38fe7873	0.00012134099
56	0x3906a69a	0.000128413
57	0x38bb9444	8.9444715e-05
58	0x388471f4	6.315476e-05
59	0x380c87fe	3.3505254e-05
60	0x3a37c328	0.00070099765
61	0x3a85456c	0.0010167784
62	0x39639d4f	0.00021707009
63	0x3965998e	0.00021896345
64	0x3aba8b03	0.0014232103
65	0x3b88d2a1	0.0041754995
66	0x3a613472	0.0008590884
67	0x3afbd802	0.0019214156
68	0x3885f43e	6.387428e-05
69	0x380a0bd2	3.2912772e-05
70	0x38206855	3.824414e-05
71	0x37a21a9a	1.9324292e-05
72	0x39424d9b	0.00018530192
73	0x39dfe9aa	0.00042707968
74	0x383faefd	4.570092e-05
75	0x391d9203	0.0001502708
76	0x3a3d30e5	0.00072170637
77	0x3a00a58e	0.0004907482
78	0x3a379dd9	0.0007004417
79	0x394fabb0	0.00019805017
80	0x3a38f6b7	0.00070558063
81	0x3ac9d92a	0.0015399803
82	0x3983d2c1	0.0002514329
83	0x3a0ae4ed	0.0005298395
84	0x3a4b2e33	0.00077507197
85	0x3ab80087	0.0014038243
86	0x39e6eb2d	0.00044044238
87	0x3a2e651b	0.0006652639
88	0x3a8f1146	0.0010915182
89	0x3aa28e83	0.0012402091
90	0x3a06bdb0	0.000513996
91	0x3a424013	0.00074100605
92	0x39b7fa59	0.00035091004
93	0x39ec97a3	0.00045126406
94	0x39d1d699	0.00040023474
95	0x3abbc45a	0.0014325485
96	0x3a09048c	0.0005226813
97	0x3ab7c404	0.0014020209
98	0x3a1e1b25	0.00060312665
99	0x3a5a2dfb	0.00083228917
100	0x387ca36d	6.0233684e-05
101	0x380a5074	3.297669e-05
102	0x3abf3552	0.0014588034
103	0x3af27999	0.0018499374
104	0x392fd938	0.00016770221
105	0x3a2ac218	0.00065139076
106	0x38ac5331	8.217095e-05
107	0x398cda0e	0.00026865344
108	0x3a8f1d2d	0.0010918729
109	0x3b1506e9	0.0022739714
110	0x3a2c3f58	0.0006570718
111	0x38f28580	0.000115643255
112	0x3a4a743a	0.00077230076
113	0x3a10bd0e	0.00055213354
114	0x391664da	0.00014342685
115	0x3928ce81	0.00016098657
116	0x398db7c8	0.00027030543
117	0x38ac2548	8.208543e-05
118	0x3a1de762	0.00060235534
119	0x3a682823	0.00088560785
120	0x38b9a270	8.851744e-05
121	0x38aa69f7	8.125969e-05
122	0x3a729e1b	0.0009255127
123	0x3ad2c1da	0.0016079501
124	0x391a5481	0.00014718065
125	0x39f97b03	0.00047584632
126	0x38a61f67	7.921346e-05
127	0x3828cbc0	4.024408e-05

exp_avg f4 [64]
0	0x3bc86cc3	0.006116481
1	0x396fae42	0.00022857732
2	0xba813776	-0.0009858448
3	0x3b3babf8	0.0028636437
4	0xbaa01725	-0.0012213929
5	0xb9ffb9f0	-0.00048775924
6	0xbade8970	-0.0016978215
7	0xba280a6e	-0.00064102456
8	0xba9ef128	-0.0012126314
9	0x3a66cb5e	0.0008804108
10	0xbad3ed52	-0.001616875
11	0xbaa642f8	-0.0012684753
12	0x3b7014c7	0.0036633478
13	0x38d2aad5	0.000100454
14	0x3ab7233d	0.0013972294
15	0xba353671	-0.00069127145
16	0xb8ae0242	-8.297387e-05
17	0xb92ffdef	-0.00016783898
18	0x3b3a5ca0	0.0028436556
19	0xbb3df789	-0.0028986654
20	0x3ab47b9a	0.0013769746
21	0x3b1f8d8c	0.0024345843
22	0xb985162d	-0.0002538426
23	0xba94439d	-0.0011311654
24	0xb9c2a68b	-0.00037126648
25	0x396fd33e	0.0002287151
26	0xb8d08efa	-9.944844e-05
27	0x3821b4fa	3.855394e-05
28	0x3aa1e6cb	0.0012352107
29	0x3a74287d	0.00093138946
30	0x3ab9d754	0.0014178553
31	0xb997e6c1	-0.0002897289
32	0xbb5be092	-0.0033550602
33	0xbb8424f5	-0.004032726
34	0xb9dfb1a5	-0.0004266623
35	0x3aa9c252	0.0012951589
36	0x3ac69423	0.0015150349
37	0x39ccd53e	0.0003906879
38	0xbb3f1631	-0.0029157514
39	0x3b2e8476	0.0026629246
40	0xba96cf5f	-0.0011505893
41	0xba72e55b	-0.0009265744
42	0x3b4db5b5	0.0031388823
43	0xbac44e91	-0.0014977028
44	0xbb52014a	-0.0032044225
45	0xba4bf9d4	-0.0007781063
46	0x3abff420	0.0014644898
47	0x3b01f7de	0.0019831578
48	0x3b1ade1e	0.0023630927
49	0xba877186	-0.0010333515
50	0xb980b2e4	-0.00024547346
51	0x3ab124b2	0.0013514964
52	0x39559589	0.00020368969
53	0x3881c0e5	6.187129e-05
54	0xbb8bc511	-0.0042654355
55	0x3a378903	0.00070013123
56	0x39c5ad38	0.00037703826
57	0xb9c567ea	-0.0003765219
58	0xba02c036	-0.0004987748
59	0x3a9ac399	0.001180756
60	0xb8eb16e5	-0.00011209938
61	0x3b590f77	0.003312079
62	0xbab57125	-0.0013842924
63	0xba3c20e4	-0.0007176532

exp_avg_sq f4 [64]
0	0x3adedbdc	0.0017002779
1	0x38e7c778	0.00011052092
2	0x38ff6330	0.00012177823
3	0x3a7c1f42	0.0009617695
4	0x38e72a56	0.00011022824
5	0x39411c53	0.00018416466
6	0x39e8ba1b	0.00044389148
7	0x38b6f9f2	8.724992e-05
8	0x3a3446db	0.00068770134
9	0x3a139eca	0.00056312664
10	0x3a4e3a60	0.0007866975
11	0x39009bdb	0.00012265092
12	0x3a708f94	0.0009176668
13	0x3784dbb3	1.5837932e-05
14	0x39f5f063	0.00046909144
15	0x398063e8	0.00024488498
16	0x394514c7	0.00018795124
17	0x3951498c	0.00019959192
18	0x398357b4	0.0002505161
19	0x3acd805b	0.0015678512
20	0x3a078364	0.000516942
21	0x3a5dbf34	0.00084589724
22	0x38954c63	7.119102e-05
23	0x391fc787	0.00015237751
24	0x37b0dcfa	2.1083735e-05
25	0x384c6ad3	4.8736878e-05
26	0x397f0261	0.00024319581
27	0x388f3829	6.829232e-05
28	0x38ad5b4a	8.266287e-05
29	0x385fc909	5.335457e-05
30	0x39f12104	0.000459917
31	0x38cc485d	9.740957e-05
32	0x3ab7d7f4	0.0014026151
33	0x3aa1785b	0.0012319194
34	0x37d15c20	2.495764e-05
35	0x37672fda	1.3779814e-05
36	0x39db326a	0.00041808496
37	0x3916b342	0.00014371893
38	0x3a01acf0	0.0004946729
39	0x39809d6e	0.00024531357
40	0x3a5e0739	0.0008469704
41	0x3981d949	0.00024766687
42	0x3a57ae95	0.0008227614
43	0x39c3d37d	0.0003735087
44	0x3a71cbdb	0.0009223797
45	0x3a26f09b	0.00063682505
46	0x39c0f5b6	0.00036804163
47	0x3a8e39f4	0.0010851012
48	0x3a3e0705	0.0007248971
49	0x3a3a5e89	0.0007109424
50	0x383c28a6	4.486055e-05
51	0x3a7d39c4	0.0009659792
52	0x3a0050e0	0.0004894864
53	0x398b6aa8	0.0002659161
54	0x3aa8dc52	0.0012883043
55	0x38ffd97d	0.00012199858
56	0x398ac8fb	0.00026471153
57	0x38fce355	0.0001205864
58	0x39716b69	0.00023023564
59	0x3a6dce0f	0.00090715376
60	0x383775c9	4.3740296e-05
61	0x3a6f5f13	0.00091312936
62	0x3994d8a8	0.0002839018
63	0x380bdaea	3.3344062e-05

exp_avg f4 [64, 128]
0	0x39eb0686	0.00044827553
1	0xbaea4508	-0.0017873356
2	0xba0de8a9	-0.0005413392
3	0x3ac80b7d	0.0015262213
4	0xba586d1d	-0.0008256005
5	0xba5ccd4d	-0.0008422926
6	0xbade29fb	-0.0016949767
7	0xba38150f	-0.0007022181
8	0x3ad1f93b	0.0016019711
9	0xbabaa51c	-0.001423988
10	0x3aeb9b20	0.0017975308
11	0x3ab3a084	0.0013704454
12	0x3a8a21de	0.0010538658
13	0x3a0ae5cb	0.0005298524
14	0xba3452c3	-0.00068787875
15	0xb986676f	-0.00025635536
16	0xbaf0d521	-0.0018374064
17	0xbaf315a3	-0.0018545877
18	0x3a32a367	0.000681451
19	0x3abfa2cc	0.0014620661
20	0xbab2c3bb	-0.0013638654
21	0xbaf2ebe3	-0.0018533434
22	0xbad82440	-0.0016490296
23	0x3a60d565	0.000857672
24	0xba4910a5	-0.0007670022
25	0x3af5cede	0.0018753668
26	0x3aadca05	0.0013259059
27	0x381bed14	3.7175676e-05
28	0x3a20686b	0.0006119075
29	0xbad7f5b8	-0.0016476428
30	0x3a97973e	0.001156546
31	0xba4a1ab2	-0.00077096664
32	0x3a4762e1	0.00076059817
33	0x3943f068	0.00018686207
34	0x3a436046	0.00074530055
35	0xbabd2b2b	-0.0014432421
36	0x3aca7710	0.001544686
37	0x3ad682ff	0.0016365944
38	0xbabe6d19	-0.0014528363
39	0xb92d71ad	-0.00016540913
40	0xba64595c	-0.00087108254
41	0x392ffa02	0.00016782436
42	0x3aa637d1	0.001268143
43	0xbad17680	-0.001598075
44	0x3a837396	0.0010028954
45	0x3add1a49	0.0016868796
46	0x3a7b3659	0.00095829886
47	0xbae05215	-0.0017114306
48	0x3a8d278b	0.0010769231
49	0xbadf2a19	-0.0017026096
50	0x3add7373	0.0016895368
51	0xbada8b06	-0.0016673512
52	0xba616f0d	-0.00085996167
53	0xbac5697b	-0.0015061343
54	0x3a790861	0.0009499845
55	0x394f8325	0.00019789913
56	0x39be09cd	0.00036246926
57	0x39ddc9b7	0.00042302694
58	0xba1d05ad	-0.00059899205
59	0x3a19f621	0.0005873163
60	0x389e4fe5	7.5489086e-05
61	0x399a7c83	0.00029465937
62	0xbac83885	-0.0015275633
63	0xb998ef28	-0.00029169885
64	0x39f3ac3b	0.00046476893
65	0xbae4523c	-0.0017419527
66	0xb99fa5e3	-0.00030450438
67	0x3ac8dd85	0.0015324807
68	0xba3e1aa4	-0.00072518946
69	0xba24d2f3	-0.00062875374
70	0xba6f9042	-0.00091386226
71	0xb9f79b9a	-0.00047227443
72	0x3ab08292	0.0013466647
73	0xba8d4a32	-0.0010779558
74	0x3ad8be12	0.0016536138
75	0x3abbd994	0.0014331811
76	0x3a95ffe6	0.0011444062
77	0x3999cab0	0.00029333448
78	0xb947c71b	-0.00019052291
79	0x372f3920	1.0444113e-05
80	0xbaed525c	-0.001810621
81	0xbaedbecc	-0.0018138527
82	0x3a63048a	0.0008660039
83	0x3a99bbaf	0.0011728908
84	0xbab5b72a	-0.0013863791
85	0xbaf5087d	-0.0018694546
86	0xbad5f213	-0.0016322754
87	0x39b7ee61	0.00035082086
88	0xba11230f	-0.0005536535
89	0x3af1a9e3	0.0018437471
90	0x3a9e5e38	0.0012082523
91	0xb9b3e17d	-0.00034309542
92	0x39aed715	0.00033348115
93	0xbacc40ca	-0.0015583273
94	0x3a5a8e6a	0.00083372614
95	0xba0d3ef3	-0.00053881033
96	0x39d926ea	0.0004141846
97	0x392866c5	0.00016060013
98	0x3986f102	0.00025738036
99	0xbab929ea	-0.0014126871
100	0x3aa553bf	0.0012613459
101	0x3aa5c531	0.0012647269
102	0xbac7f075	-0.0015254157
103	0xb987f5e2	-0.00025932404
104	0xba276ebb	-0.00063870446
105	0xb8a1a8ba	-7.708506e-05
106	0x3a9bc084	0.0011882936
107	0xbac95b0a	-0.0015362215
108	0x3a3ed37f	0.000727944
109	0x3accb151	0.0015616809
110	0x39dcc1db	0.00042106104
111	0xba7122fb	-0.0009198633
112	0x3a464679	0.0007563602
113	0xbac9db6a	-0.0015400473
114	0x3ad4cd22	0.0016235451
115	0xbad5ac35	-0.0016301932
116	0xb9f9adf7	-0.00047622595
117	0xba9c06b2	-0.0011903851
118	0x3a86b4d5	0.0010277281
119	0x39dea80b	0.0004246834
120	0x3a1b04de	0.0005913506
121	0x394113ea	0.00018413333
122	0xb9debac8	-0.00042482303
123	0x39d01d38	0.0003969462
124	0xb99528eb	-0.0002844998
125	0x3a0be9ba	0.0005337257
126	0xba4fc156	-0.00079252326
127	0xb734b848	-1.0771742e-05
128	0x3a8fbf86	0.0010967113
129	0xbb864e3d	-0.004098682
130	0xba848eb2	-0.0010113327
131	0x3b5d973a	0.0033812062
132	0xbace6250	-0.0015745852
133	0xbaf16fc1	-0.0018420146
134	0xbb6c45c8	-0.0036052335
135	0xbabf7374	-0.0014606551
136	0x3b6bed9a	0.0035999776
137	0xbb52da13	-0.003217344
138	0x3b851f62	0.004062579
139	0x3b4b928e	0.0031062695
140	0x3b075b6e	0.0020653862
141	0x3a7e12c2	0.0009692126
142	0xbade0a49	-0.0016940321
143	0xb9ac8228	-0.0003290337
144	0xbb830d27	-0.0039993706
145	0xbb8e05ce	-0.004334188
146	0x3ae4a59e	0.0017444377
147	0x3b5689be	0.003273591
148	0xbb425493	-0.002965246
149	0xbb8726bb	-0.00412449
150	0xbb62f78d	-0.0034632415
151	0x3b035b81	0.0020043554
152	0xbacdbbb1	-0.0015696195
153	0x3b8e8e49	0.004350458
154	0x3b34fd6c	0.0027616872
155	0x383ab658	4.4515677e-05
156	0x3a975ab2	0.0011547415
157	0xbb6ab7f8	-0.003581522
158	0x3b2b5c50	0.0026147552
159	0xbac63a3b	-0.0015123555
160	0x3ae39225	0.001736228
161	0x3a070549	0.0005150629
162	0x3ae800ae	0.0017700398
163	0xbb3f51ec	-0.0029193116
164	0x3b6349b0	0.0034681372
165	0x3b80c6ab	0.003929933
166	0xbb56355d	-0.0032685616
167	0xba021810	-0.0004962692
168	0xbae430a4	-0.0017409516
169	0x38b1adce	8.472391e-05
170	0x3b238b33	0.0024954795
171	0xbb637d29	-0.0034712052
172	0x3b01fa59	0.0019833057
173	0x3b72eeca	0.00370686
174	0x3b101f74	0.0021991404
175	0xbb70b5e2	-0.0036729504
176	0x3b1f5f09	0.002431812
177	0xbb8070a6	-0.0039196787
178	0x3b828d47	0.0039841267
179	0xbb64cced	-0.0034912184
180	0xbb00609c	-0.0019588834
181	0xbb60e9e1	-0.003431909
182	0x3afc8320	0.0019265153
183	0x3a1943bf	0.0005846582
184	0x3a8e1d46	0.0010842464
185	0x3a392519	0.0007062718
186	0xba984840	-0.0011618212
187	0x3ab4510b	0.0013757063
188	0x39c5945c	0.00037685304
189	0x3a345900	0.0006879717
190	0xbb5429e5	-0.0032373604
191	0xba5cd6b0	-0.0008424325
192	0x3a948aa8	0.0011332827
193	0xbb7db2d6	-0.003871133
194	0xba2d5aa0	-0.00066129304
195	0x3b5e5c07	0.0033929364
196	0xbab50dd4	-0.0013813325
197	0xbabe88c1	-0.0014536605
198	0xbb0edd2f	-0.0021799316
199	0xba8f0b12	-0.0010913333
200	0x3b48e602	0.0030654673
201	0xbb230607	-0.0024875419
202	0x3b756c4f	0.003744859
203	0x3b4b9b07	0.0031067745
204	0x3b12cc45	0.0022399586
205	0x3a3e7cb5	0.00072665076
206	0xba053880	-0.00050819665
207	0x38128287	3.4930676e-05
208	0xbb835be7	-0.0040087583
209	0xbb86b2ec	-0.0041106846
210	0x3afb30f1	0.0019164366
211	0x3b2f1a30	0.002671849
212	0xbb43661b	-0.0029815498
213	0xbb85bc89	-0.004081313
214	0xbb6eced9	-0.0036439209
215	0x3a5cece8	0.0008427636
216	0xbaa3e721	-0.0012504795
217	0x3b8813fa	0.004152772
218	0x3b2ec809	0.0026669523
219	0xba36d545	-0.00069745287
220	0x3a161b23	0.00057260896
221	0xbb64bd2c	-0.0034902794
222	0x3afc438a	0.0019246202
223	0xba9e206d	-0.0012064107
224	0x3a85673f	0.0010177864
225	0x39f33836	0.00046390452
226	0x3a25cfd9	0.0006325222
227	0xbb4fedbf	-0.00317274
228	0x3b3cc067	0.0028801204
229	0x3b4989a4	0.0030752206
230	0xbb5c23d0	-0.0033590682
231	0xba38b7ff	-0.00070464605
232	0xbac41fcf	-0.0014963093
233	0xb947d09a	-0.00019055829
234	0x3b1af80b	0.002364638
235	0xbb5db7a5	-0.0033831384
236	0x3ab7bae8	0.0014017494
237	0x3b6417d1	0.0034804235
238	0x3a81f487	0.0009914794
239	0xbb11f425	-0.0022270766
240	0x3ae68443	0.0017587024
241	0xbb653a70	-0.0034977458
242	0x3b6e2326	0.0036336868
243	0xbb6b8a86	-0.003594072
244	0xba98f2da	-0.0011669055
245	0xbb33fce2	-0.0027463962
246	0x3b065667	0.0020498277
247	0x3a6f8b59	0.0009137891
248	0x3ab1adaa	0.0013555784
249	0x39ecef0f	0.0004519154
250	0xba6bdb5b	-0.0008997225
251	0x3a8081da	0.0009804324
252	0xb9efd6d8	-0.00045745703
253	0x3a8d4e73	0.0010780826
254	0xbaf40f37	-0.0018620257
255	0xb939653b	-0.00017680686

exp_avg_sq f4 [64, 128]
0	0x382dabe1	4.140649e-05
1	0x39340d2f	0.00017171049
2	0x3800bf1c	3.0695563e-05
3	0x38dd7bb0	0.0001056114
4	0x385fe5e7	5.3381456e-05
5	0x3786fde5	1.6092274e-05
6	0x38d2b29c	0.00010046849
7	0x37a8368b	2.005256e-05
8	0x38b9a982	8.853061e-05
9	0x38942930	7.064862e-05
10	0x3905aaa6	0.0001274744
11	0x391931cf	0.00014609772
12	0x390e8107	0.00013590242
13	0x38c2c3d7	9.287119e-05
14	0x38bcc679	9.001507e-05
15	0x38d23ddd	0.00010025103
16	0x3927bb40	0.00015996117
17	0x393aa509	0.00017799823
18	0x39273da5	0.00015949325
19	0x388bfcf3	6.675152e-05
20	0x38d6e976	0.00010247801
21	0x39480667	0.00019075871
22	0x3904cfc5	0.00012665901
23	0x38acbecd	8.2371385e-05
24	0x37a2668c	1.9359657e-05
25	0x393c9bc1	0.000179871
26	0x3861a2ef	5.3795924e-05
27	0x3925be9e	0.00015806637
28	0x384254e9	4.6332283e-05
29	0x39007722	0.00012251412
30	0x382bfcbc	4.1004954e-05
31	0x3806cb65	3.2137516e-05
32	0x3821eb54	3.8604558e-05
33	0x372912c6	1.0077556e-05
34	0x38bfcf22	9.146171e-05
35	0x38c55a4b	9.4105104e-05
36	0x38b1294d	8.4477106e-05
37	0x390dd55c	0.0001352629
38	0x390effe9	0.00013637509
39	0x38286e27	4.015691e-05
40	0x383f9263	4.5674282e-05
41	0x3922590b	0.00015482695
42	0x38d2cc41	0.000100516256
43	0x38c19bac	9.231953e-05
44	0x3885f442	6.387431e-05
45	0x38cfbc74	9.905631e-05
46	0x38ae70ce	8.317978e-05
47	0x38d70ea0	0.00010254723
48	0x380f340a	3.4142322e-05
49	0x390ea5f8	0.00013604003
50	0x39310dba	0.00016885149
51	0x38f18324	0.00011516202
52	0x3877b8b6	5.9061415e-05
53	0x38babb4a	8.9040564e-05
54	0x38cf8fd4	9.897319e-05
55	0x38adc939	8.2867635e-05
56	0x39254691	0.00015761914
57	0x38e58646	0.00010944581
58	0x376c9b33	1.4102831e-05
59	0x378adfb8	1.655506e-05
60	0x38bb9ecb	8.946432e-05
61	0x38c650b1	9.456406e-05
62	0x38c2db7c	9.291523e-05
63	0x3882ba0f	6.233539e-05
64	0x38282067	4.00845e-05
65	0x393b6f15	0.00017875091
66	0x36dfd09f	6.6702046e-06
67	0x38db15fa	0.00010446827
68	0x387823b9	5.9161077e-05
69	0x37c2bac5	2.3213574e-05
70	0x38e27e23	0.000108000146
71	0x37661018	1.3712815e-05
72	0x38e5b494	0.00010953206
73	0x38bc7e11	8.98802e-05
74	0x39171ded	0.0001441163
75	0x38e3b6fd	0.00010858288
76	0x38f9ae60	0.00011905725
77	0x376e0efb	1.4189393e-05
78	0x38731f84	5.7965066e-05
79	0x33dfb3b1	1.04169324e-07
80	0x3938c99f	0.00017622717
81	0x3941e168	0.00018489885
82	0x386450fe	5.4434866e-05
83	0x38b95e09	8.839003e-05
84	0x38c62644	9.448503e-05
85	0x393406ab	0.00017168622
86	0x391e7b12	0.00015113901
87	0x3883ce99	6.2850486e-05
88	0x379c1b06	1.8609233e-05
89	0x3943cfb0	0.00018674019
90	0x38a41fc1	7.826044e-05
91	0x37ea6c39	2.7945369e-05
92	0x3808ae3b	3.258719e-05
93	0x39174373	0.00014425609
94	0x3867f585	5.530335e-05
95	0x37b52ff7	2.1599217e-05
96	0x37a7f08c	2.0019965e-05
97	0x3738aa3e	1.1006892e-05
98	0x38921947	6.966531e-05
99	0x39024232	0.00012422426
100	0x38dbbcda	0.0001047791
101	0x39174b1c	0.00014428463
102	0x38e38db5	0.000108505985
103	0x3808e442	3.263751e-05
104	0x383ae5a6	4.4559732e-05
105	0x3536f971	6.816327e-07
106	0x38ec5a15	0.00011270136
107	0x38dff0c6	0.00010678316
108	0x38956812	7.124258e-05
109	0x38fb359c	0.00011978598
110	0x3883b6b0	6.280595e-05
111	0x38e4c594	0.00010908689
112	0x3839ca22	4.4295688e-05
113	0x391dcb6b	0.00015048466
114	0x3934fa73	0.00017259437
115	0x391311bc	0.00014025619
116	0x37f01684	2.8620714e-05
117	0x38e2fd32	0.00010823681
118	0x38ad5858	8.265738e-05
119	0x3755bfac	1.2740416e-05
120	0x37edee5c	2.8363596e-05
121	0x369c856f	4.664696e-06
122	0x373e8625	1.13561155e-05
123	0x37aa3985	2.0292364e-05
124	0x38414dfe	4.608742e-05
125	0x37ed167f	2.8263077e-05
126	0x38c1b6f8	9.237038e-05
127	0x3863025c	5.4123215e-05
128	0x39556376	0.00020350315
129	0x3a2b6261	0.0006537792
130	0x390f362f	0.00013657728
131	0x39e270f9	0.0004319025
132	0x392b3bab	0.00016330059
133	0x3886089d	6.391222e-05
134	0x39ecfda0	0.00045202393
135	0x38a2d241	7.763925e-05
136	0x39d6a167	0.00040937515
137	0x39a30766	0.00031095295
138	0x3a0f32a9	0.0005462566
139	0x3a04df02	0.0005068631
140	0x39d90c2e	0.0004139854
141	0x39e512a1	0.00043692163
142	0x39a2da0b	0.00031061503
143	0x39eb259d	0.00044850717
144	0x3a115fef	0.0005545606
145	0x3a3b4887	0.00071442913
146	0x3a1b5193	0.0005924936
147	0x39a259bf	0.00030965914
148	0x39b44902	0.0003438667
149	0x3a2aec47	0.00065201934
150	0x39d6d10e	0.0004097302
151	0x399daed1	0.00030075622
152	0x3896eeab	7.197013e-05
153	0x3a3a900b	0.0007116801
154	0x392dc660	0.00016572466
155	0x3a1619d3	0.0005725894
156	0x3954425d	0.00020242618
157	0x39e51ee3	0.00043701296
158	0x394a2907	0.00019279505
159	0x390b7298	0.00013298762
160	0x391664e7	0.00014342704
161	0x38491cdf	4.7949023e-05
162	0x39a9c6ab	0.0003238221
163	0x3995f873	0.00028604604
164	0x39d5a2a2	0.00040747697
165	0x3a1f0b19	0.00060670223
166	0x3a04b387	0.0005062152
167	0x3948fb11	0.00019167016
168	0x39484470	0.00019098981
169	0x3a31e9f0	0.00067868736
170	0x3997ed0d	0.0002897758
171	0x39b0c5fb	0.00033716843
172	0x396a40ff	0.00022340192
173	0x39cc8fb9	0.00039016994
174	0x399fc41b	0.00030472953
175	0x39f1a2a2	0.00046088273
176	0x391c1a08	0.00014887017
177	0x3a111568	0.0005534501
178	0x3a2d3cb1	0.000660847
179	0x39bc698f	0.00035936802
180	0x395e9043	0.00021225312
181	0x39c94f24	0.00038396672
182	0x39a0de66	0.00030683278
183	0x39ad72ab	0.00033082566
184	0x3a240b89	0.00062578224
185	0x3a030b97	0.00049989804
186	0x38600460	5.3409836e-05
187	0x389e14bc	7.537889e-05
188	0x399b2f4c	0.00029599143
189	0x39b35e03	0.00034211585
190	0x39cf2891	0.0003951234
191	0x396d587e	0.00022635047
192	0x394ec118	0.00019717624
193	0x3a2eb4bf	0.00066645065
194	0x37ac4b51	2.053907e-05
195	0x39e01fc1	0.00042748268
196	0x393a81f0	0.00017786748
197	0x38ddebf5	0.000105820516
198	0x3a0addb6	0.000529732
199	0x386e89f7	5.687211e-05
200	0x3a004ccc	0.0004894256
201	0x39d18f5e	0.00039970403
202	0x3a1d96ff	0.0006011575
203	0x39b87eb9	0.0003518963
204	0x39b8bd71	0.0003523636
205	0x382d5682	4.132698e-05
206	0x398ad7e1	0.00026482253
207	0x350c65c8	5.2302175e-07
208	0x3a22272b	0.0006185646
209	0x3a3db1f5	0.00072362955
210	0x392ffca7	0.00016783421
211	0x39d2e3a5	0.0004022393
212	0x39a2ad0d	0.0003102798
213	0x3a15e37b	0.0005717796
214	0x3a053038	0.00050807325
215	0x399edc96	0.00030300458
216	0x3890308f	6.8755e-05
217	0x3a3d57b9	0.00072228495
218	0x398b8278	0.00026609353
219	0x38aed881	8.3372935e-05
220	0x38e3ed3c	0.00010868392
221	0x3a081bd5	0.00051921356
222	0x398f7746	0.0002736395
223	0x3890cb61	6.904337e-05
224	0x38ddd9a7	0.00010578642
225	0x385ffd0d	5.3403015e-05
226	0x39a61917	0.0003168068
227	0x39d12902	0.0003989414
228	0x39ff4f97	0.0004869669
229	0x3a2597e0	0.00063168816
230	0x39cef277	0.00039472032
231	0x3921a7d4	0.00015416677
232	0x390bd6bd	0.00013336069
233	0x361ae497	2.3080845e-06
234	0x39ae752d	0.0003327517
235	0x39d02d4c	0.000397066
236	0x395fa210	0.0002132731
237	0x39f72e76	0.00047146127
238	0x39a239f5	0.0003094223
239	0x3a0bc4d1	0.0005331757
240	0x3963cfff	0.00021725892
241	0x3a1c44cf	0.0005961181
242	0x3a2bc920	0.0006553102
243	0x39f32740	0.00046377815
244	0x39146efa	0.00014155722
245	0x39f224bf	0.00046185215
246	0x398002b2	0.0002441607
247	0x38226a66	3.87229e-05
248	0x38c03b63	9.166335e-05
249	0x3771299d	1.4374408e-05
250	0x38125ddd	3.489653e-05
251	0x38dc905c	0.000105173065
252	0x392a30fd	0.00016230713
253	0x38abb3dd	8.1874176e-05
254	0x39f353d3	0.00046411026
255	0x396d2caa	0.0002261872

exp_avg f4 [64]
0	0x3b14a0a9	0.0022678769
1	0x3b93b59a	0.0045077326
2	0xba59dccd	-0.0008310795
3	0x3a9d9660	0.0012022965
4	0xb9a6b7b9	-0.0003179887
5	0xbb9ced72	-0.004789048
6	0xbb86fcbe	-0.0041194847
7	0xbb08f794	-0.0020899521
8	0x3a756360	0.00093608163
9	0x3b5fecd0	0.003416825
10	0xbb04466c	-0.0020183576
11	0xbaa7a5ba	-0.0012790479
12	0x3a84b549	0.0010124828
13	0xba40a6f8	-0.0007349099
14	0x3b099b5c	0.0020997142
15	0xb9e1be2f	-0.00043057042
16	0xbb18a2a4	-0.00232903
17	0xbb6c1a0c	-0.0036026267
18	0x3b97af8a	0.00462908
19	0xbaf87e16	-0.0018958475
20	0x393ffa36	0.0001830839
21	0x3abeaa53	0.001454661
22	0x391cdd7e	0.00014959832
23	0xba6b1142	-0.000896711
24	0xbaa74324	-0.0012761098
25	0xbb081c19	-0.00207687
26	0x3aba8dc4	0.0014232923
27	0xbab8bdfb	-0.0014094705
28	0x3a6c24b6	0.0009008156
29	0x3a874748	0.0010320926
30	0xba8bebd9	-0.0010675146
31	0xbb261180	-0.002534002
32	0xbb459304	-0.0030147443
33	0xba773523	-0.000943022
34	0x3a8107b2	0.0009844212
35	0x3918f106	0.00014585638
36	0x3b3359d5	0.0027366776
37	0x39d8c46c	0.00041345076
38	0xbb13ce89	-0.0022553524
39	0x3b47595b	0.003041825
40	0xbaa0f523	-0.0012280088
41	0xbaa5a86f	-0.0012638698
42	0x39baf327	0.00035657847
43	0xbb882a63	-0.0041554435
44	0xbae0ed78	-0.0017160615
45	0xbb495132	-0.0030718562
46	0x3947d7a0	0.00019058445
47	0x3b0194fe	0.0019772644
48	0x3b9edfc8	0.004848454
49	0xbaa3e244	-0.0012503345
50	0xbb22f439	-0.0024864806
51	0x3a8d39ed	0.001077471
52	0xbb377549	-0.0027993491
53	0xbab93a3c	-0.0014131735
54	0xbb40e4ec	-0.0029433323
55	0x3b600a48	0.0034185816
56	0xba7dc132	-0.00096799724
57	0x389529bd	7.112648e-05
58	0xb91993e3	-0.00014646309
59	0x39cb7b8b	0.00038811224
60	0xba5ee1d8	-0.0008502281
61	0x3ba1ada1	0.0049340283
62	0xbb893e71	-0.004188352
63	0xba081d88	-0.0005192389

exp_avg_sq f4 [64]
0	0x39d0ac24	0.00039801106
1	0x3a9a6dd3	0.0011781998
2	0x387e615a	6.0648985e-05
3	0x3a754d68	0.0009357543
4	0x385ea0af	5.3078573e-05
5	0x3aefbe13	0.00182909
6	0x3a7142e0	0.00092033856
7	0x393bc159	0.00017905737
8	0x384a35a2	4.8210502e-05
9	0x3a99e112	0.001174005
10	0x39cf3a7a	0.00039525685
11	0x3894e4b1	7.099787e-05
12	0x3a4e9d0e	0.00078816793
13	0x383f7fb3	4.5656878e-05
14	0x3a7f2bc4	0.00097339996
15	0x38bc8201	8.988754e-05
16	0x3998ae82	0.00029121718
17	0x3a197d42	0.00058551517
18	0x3b00d67c	0.0019659093
19	0x39f45832	0.00046605017
20	0x395ca176	0.00021040984
21	0x39202452	0.0001527232
22	0x38e5cbf5	0.00010957561
23	0x382a1fad	4.056066e-05
24	0x3890b6cc	6.900504e-05
25	0x39792aa7	0.0002376238
26	0x39ce34f6	0.0003933084
27	0x38e2ac15	0.000108085726
28	0x39945cd0	0.0002829791
29	0x39563be6	0.00020430944
30	0x3891c0a9	6.9500245e-05
31	0x39b4f373	0.0003451366
32	0x39d1b969	0.00040001728
33	0x399a5450	0.00029435987
34	0x39602bd2	0.00021378629
35	0x371c9ec8	9.335294e-06
36	0x3aea93f1	0.0017896873
37	0x3a30ca3b	0.0006744002
38	0x399f83fb	0.00030425176
39	0x3a59513f	0.00082899997
40	0x39d45b8b	0.00040503996
41	0x38b7f14e	8.7710665e-05
42	0x37dfe2fe	2.6689373e-05
43	0x3a6f1c8a	0.0009121379
44	0x398fea91	0.0002744985
45	0x3a992cbe	0.0011686308
46	0x39b3f947	0.00034327267
47	0x3a2abae4	0.0006512834
48	0x3ab373d2	0.0013691133
49	0x39631ca3	0.00021659075
50	0x3a17b04e	0.00057864643
51	0x39963af4	0.00028654153
52	0x3a37e067	0.00070143346
53	0x3a346a0e	0.00068822585
54	0x3a93dbc3	0.0011280704
55	0x3a3fac08	0.00073117064
56	0x38b40a00	8.5849315e-05
57	0x37866647	1.6021671e-05
58	0x3862481f	5.3949767e-05
59	0x385b4764	5.2280157e-05
60	0x39a75a62	0.00031920063
61	0x3b2612a5	0.0025340703
62	0x3a92b954	0.0011194148
63	0x37c81400	2.3851171e-05

exp_avg f4 [2, 64]
0	0xbc5dd096	-0.0135385
1	0xbd45e33c	-0.04831241
2	0xbab4a7e4	-0.0013782945
3	0x3d3021e2	0.043001063
4	0xbc4bee09	-0.012446889
5	0xbbd3819d	-0.00645466
6	0xbd006dc8	-0.031354696
7	0xbb88cc91	-0.004174777
8	0x3d8108be	0.063004956
9	0xbd2a3d47	-0.041562345
10	0x3d69fb8b	0.057124656
11	0x3d1dcc68	0.038525015
12	0x3c20d268	0.00981579
13	0x3c35388a	0.011060843
14	0xbcc7b123	-0.024376458
15	0x3bf09eef	0.007343165
16	0xbd144098	-0.036194414
17	0xbd34de3a	-0.044157244
18	0x3caef856	0.02135865
19	0x3d8088c7	0.06276088
20	0xbd34ce46	-0.04414203
21	0xbd53df53	-0.05172665
22	0xbd2462de	-0.04013335
23	0x3c8337c8	0.01601781
24	0xbb7a1b0d	-0.0038163096
25	0x3d1c76d4	0.03819926
26	0x3b5e215c	0.0033894395
27	0x3c12f3a9	0.008969226
28	0x3cb6ef58	0.022330925
29	0xbd408304	-0.046999946
30	0x3d2640e2	0.04058922
31	0xbc5c31a6	-0.0134395715
32	0x3caacca3	0.020849532
33	0x3b8e57ab	0.004343947
34	0x3b07f4c5	0.002074526
35	0xbca59299	-0.020211505
36	0x3c889823	0.016674107
37	0x3d1112df	0.035418388
38	0xbd24dc6d	-0.040249277
39	0xbcad8bb1	-0.021184774
40	0xbd1b3b7f	-0.037898537
41	0xbcb00f08	-0.021491542
42	0x3d108135	0.03527947
43	0xbd097162	-0.033555396
44	0x3ce0c0fe	0.027435776
45	0x3d184e59	0.037184093
46	0x3b11cddb	0.0022247944
47	0xbd1de76c	-0.03855078
48	0x3cb614dc	0.022226743
49	0xbcdbbd4f	-0.026823668
50	0x3ccf6bd9	0.02531998
51	0xbd37ab05	-0.04484083
52	0xbcb809e5	-0.022465656
53	0xbca8ad8e	-0.02059057
54	0x39b23204	0.0003398807
55	0xb961e3e8	-0.00021542574
56	0x3c3d78bb	0.011564429
57	0xbbd86dcd	-0.006604886
58	0xbc0d3124	-0.008617673
59	0x3d14ef23	0.03636087
60	0xbcf613b4	-0.030038692
61	0x3c7850ee	0.015156014
62	0xbd0bdb7a	-0.034144856
63	0xbc827750	-0.015926033
64	0xba0bc746	-0.0005332123
65	0xbb65c417	-0.0035059506
66	0x3bf9fe11	0.007629164
67	0xbb112efd	-0.0022153251
68	0x3b08f7fd	0.0020899766
69	0xb95c6acc	-0.0002102062
70	0x3a83dd64	0.0010060486
71	0x3b90f5fa	0.004423854
72	0x3c0d672f	0.008630558
73	0x39624615	0.00021579147
74	0x3aa06fef	0.001224039
75	0x3b533d30	0.0032232516
76	0x3ae17a5d	0.0017202605
77	0xbb8e19ce	-0.0043365723
78	0xbb03565b	-0.0020040486
79	0x3b3a05b7	0.0028384754
80	0xbaa49618	-0.0012556938
81	0xbb7cab8e	-0.0038554403
82	0x3b6f8924	0.0036550248
83	0x3b8a6726	0.004223722
84	0x3a9dc073	0.0012035504
85	0x3a765931	0.0009397446
86	0x3b9300ef	0.0044861953
87	0x3b40e84c	0.0029435335
88	0x3b35fba4	0.0027768398
89	0x3b26c3ff	0.0025446413
90	0xba3f72a6	-0.0007303156
91	0xba83979d	-0.0010039691
92	0xbb6e2ccd	-0.0036342621
93	0x3b1285a4	0.0022357488
94	0x3bd616e4	0.0065334905
95	0x3af42c69	0.0018628958
96	0x3a4def08	0.0007855748
97	0x3b600cac	0.003418724
98	0x3baea614	0.0053298566
99	0x3aa90101	0.0012893976
100	0x3b7cfbdd	0.003860227
101	0x3c0696b4	0.008214641
102	0xbb238c82	-0.0024955575
103	0xbacd3ca0	-0.0015658326
104	0x3bb7c574	0.005608255
105	0xbb505124	-0.0031786645
106	0x3b8fc34a	0.004387294
107	0xba6785c0	-0.0008831881
108	0xbaf3e8a2	-0.0018608759
109	0x3b3c7099	0.0028753637
110	0x3b7cba44	0.0038563171
111	0xbbbee7d5	-0.0058259764
112	0x3aa4de25	0.0012578411
113	0xbb94ee6a	-0.0045450227
114	0x3ba8ce40	0.00515154
115	0x3b6563d2	0.0035002124
116	0x3ae3943e	0.0017362905
117	0xbabd29c5	-0.0014432004
118	0x3a87dbc7	0.0010365181
119	0x3b858198	0.0040742867
120	0x3bb32311	0.0054668267
121	0xbc4a7d7d	-0.01235902
122	0xbabcf667	-0.0014416695
123	0x3b9efebb	0.0048521436
124	0xba146b74	-0.0005661764
125	0x3b241fbc	0.002504333
126	0x3a4d6dc6	0.0007836487
127	0xba4f2b9a	-0.00079029205
