results/energy/checkpoints/A04_H064_L02_D01_Tanh_W4096_P010000_V-5.00e+00_S5.00e-01_Adam_PT_False_device_cuda_dtype_float32_chkp.pt (torch, 202359 bytes, 23 tensors)

layers.0.fc.weight f4 [64, 2]
00000000: fda4 5c3d 9d60 c93e 25b5 2abf 4184 1ebe
00000010: 9c84 9dbe fb90 3b3e 4475 4cbc 588b 1d3f
00000020: 530d 5abd bdc5 2d3e 562b 9fbe fde0 f13c
00000030: bb6d 34bf afad 27be 6446 a4be f37a 543e
00000040: b605 983e 6a4a 343e d7db 17bf 0138 1f3d
00000050: 9a44 a33e 7fbd 183e b81a 7ebe 37c8 ce3e
00000060: 4d3b 29bd 7daf 833d 185c 503f ba08 eebe
00000070: 0f1f 09bf 983f 173d 4407 a4be 88dd 213f
00000080: 1d63 24bf 5ab0 3a3d 639d 03bf 890a d2be
00000090: d3d8 06bf 7384 f13e 7b59 a73e 35e5 2f3e
000000a0: 68e5 923d 4171 a3be ea65 2a3e 80e7 3abf
000000b0: 6e6a 31bf 7259 163e 723f 0b3f 2e64 2d3e
000000c0: 7ee1 afbe ec61 3d3e 68ac ae3e 6b71 af3e
000000d0: ed39 863e 861b 983c ead2 253f 6d97 a6be
000000e0: 98bb ce3d eb26 92be 062d 0abf f2c2 82bd
000000f0: ba44 c33e a9cc df3b 543b cfbe 1157 e33e
00000100: bcac d63e 1356 b6bd 2f6f 05be 597f e53c
00000110: 154c e63e a813 023f 6c4b eabe fd57 cbbd
00000120: 7831 9e3e 6c00 8a3e 7715 503f 9a44 bd3d
00000130: c433 4f3e 7610 13bf dfec 903d 1306 e2be
00000140: be40 3cbf 9ae9 153f c948 583f a8ff 06bf
00000150: bbb9 6e3e eed2 a3bd ede1 4abe 71a6 81be
00000160: 2405 073e 0445 8fbe ce55 643e 64cd aa3e
00000170: a70f 1c3f 7c0f f63c 99da 26bf 4997 9bbe
00000180: 8010 ba3e 95b1 c53c f3ec 0bbf a1f9 8ebd
00000190: 9a65 1f3f 0cda 103e 3959 b6be a1a8 c7bd
000001a0: 6594 75bf c92d d33d 56b0 22bf 511b 15be
000001b0: fa6c af3d 359d b43d 9cd4 aebe e0fe b73e
000001c0: 4a5f f7be 23a6 103f 08b2 213f 5be1 afbe
000001d0: e97c f5bd 64c2 543e 5309 803e f8b5 7b3d
000001e0: 9447 a73e 1e79 073e c1d5 a1be 5db3 9e3e
000001f0: 4dae 5abf f0e7 d73b f634 febd 52e4 16be
0.053868283 0.39331523 -0.66682655 -0.15480138 -0.30765235 0.18317024 -0.01247913 0.61540747
-0.053235363 0.16969962 -0.3108775 0.029526228 -0.70479935 -0.16374849 -0.32084954 0.20750026
0.29691857 0.17606512 -0.59319824 0.03887177 0.31888276 0.14916037 -0.2481488 0.40387127
-0.04131632 0.06429956 0.81390524 -0.46491033 -0.53563017 0.036925882 -0.32036793 0.63228655
-0.64213735 0.04557834 -0.5141203 -0.41023663 -0.526746 0.47171363 0.32685456 0.1717728
0.07172662 -0.31922343 0.1664044 -0.7300949 -0.69303024 0.14682558 0.54393685 0.16932747
-0.34351724 0.18494385 0.3411591 0.3426622 0.2621607 0.018567812 0.64774954 -0.32537404
0.100943744 -0.28545317 -0.5397495 -0.06384839 0.38138372 0.0068298173 -0.4047495 0.44402364
0.4192866 -0.08903136 -0.13030694 0.028014826 0.4497992 0.50811243 -0.45760667 -0.09928892
0.30897117 0.26953447 0.8128275 0.092416 0.20234591 -0.5744699 0.070764296 -0.4414526
-0.7353629 0.5855957 0.8448606 -0.5273385 0.23313038 -0.07999216 -0.19812746 -0.25322297
0.13185555 -0.27982342 0.22298357 0.33359826 0.60961384 0.03003668 -0.65177304 -0.3038886
0.36340714 0.02413253 -0.5465843 -0.06981207 0.62264407 0.14145678 -0.35614946 -0.0974896
-0.9592956 0.10311467 -0.6355032 -0.14561202 0.085657075 0.08819047 -0.34146583 0.35936642
-0.48314887 0.56503505 0.6316228 -0.3435162 -0.11986715 0.20777279 0.25007114 0.061452836
0.32671797 0.13229796 -0.31608394 0.30996218 -0.8542221 0.0065889284 -0.12412445 -0.14735535

layers.0.fc.bias f4 [64]
00000000: c61d 83be 06c2 18bf d34c 1fbe a759 093e
00000010: fd9a 07bf f804 a3bc 830d 1c3f c434 cabd
00000020: 3bfe 28bc 48c1 9cbd 479b 0c3e fc2a 093f
00000030: 30c8 393f b3cb 1d3f 2499 313f 6b8b 91bd
00000040: 6598 3cbf 7617 afbe 0d30 023f d463 0cbc
00000050: 7254 ccbe 92d4 09bf b2c3 51bf 9c48 45bf
00000060: d246 26be 4c3a 1d3f 6bab 0c3f 46fb 5dbf
00000070: 512c 153f 9d36 1dbf 9d2c 29be b28d f0be
00000080: 53c1 35be be4d 81be b95c 25bf 7ce7 3bbf
00000090: 9671 3ebe 3136 3bbd ce0f a5be c8ab 9c3e
000000a0: bc0d 62bf 6eeb 09be c772 233f 06f7 92be
000000b0: 29c4 3a3f fb42 aa3e 29ad 34bf 771f 0e3f
000000c0: 9bc2 b8bd fd88 bfbe c3fc 353f 2500 15bf
000000d0: 3407 0f3e e0ef a5bd 6c43 033f ecbc 593e
000000e0: 0534 b43e 0562 7b3e 4673 5abe 53f2 62be
000000f0: 65d8 1dbf 9e80 c33e 2bd2 0c3f 4506 1a3f
-0.25608653 -0.59671056 -0.1555665 0.13413106 -0.5297087 -0.01989983 0.6095812 -0.098733455
-0.0103145195 -0.07654053 0.13731109 0.53581214 0.72571087 0.61638945 0.693743 -0.0710667
-0.73670036 -0.34197587 0.5085457 -0.008568723 -0.39908177 -0.5383998 -0.8193923 -0.7706392
-0.16237953 0.6141708 0.54949063 -0.8671154 0.58270746 -0.6141146 -0.16520925 -0.46983105
-0.17749529 -0.25254625 -0.6459461 -0.7340009 -0.18598017 -0.045705978 -0.3223862 0.3059981
-0.88302207 -0.13468716 0.6384701 -0.2870409 0.72955567 0.33254227 -0.7057672 0.5551676
-0.09021493 -0.374092 0.7108881 -0.58203346 0.13967592 -0.08102393 0.5127475 0.21263474
0.35195938 0.2454911 -0.21333036 -0.22162752 -0.61658317 0.38184065 0.5500819 0.60165817

layers.1.fc.weight f4 [64, 128]
00000000: 350b 6cbd ba6c 383c 7ae1 28bd 6f3a 99bd
00000010: 5371 0ebd 05f3 263d 77b7 cabc dc89 4e3c
00000020: 2b55 2fbc 9a71 873d 6468 b6bd e7a9 7ebd
00000030: d3aa 82bd 1f34 863d 0729 babc 0704 a73d
00000040: 0cda 033d fa30 483d 70a0 893c 32a0 ddbc
00000050: 0fa8 a23c 9fce f8bc ffd3 15bc f46a c53b
00000060: bf9d 53bd 7d21 d4bd 442d bb3c 33d0 babd
00000070: 1672 bbbc a982 cb3d a0a4 e73c ed10 aa3c
00000080: 86da aabd fece 723d a27a 80bd 3a1a 2c3c
00000090: 8fd2 0dbd c3a5 fabc e69a b139 562b 893d
000000a0: 46dd 8dbb ea9d 853d ff49 0b3d 0814 2ebc
000000b0: bab0 b53c 089f e5bd 2cd9 63bd 1df9 373d
000000c0: 647d cd3c d6df a13d 1058 32bd f6fe e93c
000000d0: 9e4b 983d 61c0 9bbd 3903 443d bbe8 8abd
000000e0: d424 3d3c a6a0 c3bc 2f57 b4bb 069e 8d3c
000000f0: a34c a03d d9ad a0bc 5515 62bc ce0e 22bd
00000100: 946b b2bd 5b11 573d 56ae 41bd 5322 b6bd
00000110: 2f4c 1cbd 4d2a 4d3d ef47 123d 89cc 933d
00000120: dc62 d83c 7017 b2bc f1a8 bfbc 9f00 0d3d
00000130: 8f61 693d 28c5 e33c 16ce 27bd 0b15 45bd
00000140: 4a33 b0bd b6e5 d83c 36ec b0bc 7332 a7bd
00000150: f73f a93d 7750 82bd 862d 37bc ed95 c83c
00000160: 2dfd 52bb 40cc 54bd 9d76 87bd f4ae 6e3d
00000170: c3e4 1e3c 4656 933d 84f8 1cbd 91af 223c
00000180: f92e 14bd eb6f 893b 118b 4cbd cb90 d13c
00000190: 6b50 b73c ed24 87bc e8b7 dabc dca9 63bd
000001a0: 762e 483d 2743 23be 2534 283d 3a94 d3bc
000001b0: ee11 4ebd ca37 553c 535f 3bbd ef4d 193c
000001c0: 03ea f13b 3754 81bd bae7 313c ff72 f83c
000001d0: 81b3 903d afe0 1ebb 1b41 a2bd ee94 463c
000001e0: c4d8 893d 9133 10bd 0d50 3a3d 0d86 5a3d
000001f0: 5eaf 63bd deea 8e3c 004b 1a3d 5b2b 063c
00000200: 027f a8ba 8065 9a3d 4f8a 26bd 6027 6e3d
00000210: b578 343d 7347 d73d 22f7 463d efa2 1a3d
00000220: dada d43c 83e3 fbbb 1040 babd 0446 5abd
00000230: c74c d13d 5b8e 94bc d8f5 84bd d8d1 803d
00000240: 096a 003e f007 fd3d 2789 a13d 5908 4f3d
00000250: 5b8b 5cbd b3ca 86bd 1b9d 113e 949b 5b3d
00000260: 90af acbc 2691 493d f53f 2c3d 347f 783d
00000270: 6c42 36bd fb1b aa3d 53c5 44bd 8f55 e83d
00000280: eb96 08bd 28e6 2c3c 12c8 603c be5d af3d
00000290: 81b6 29bd 4dea 113c 2fae bebd 8c5b db3c
000002a0: 0d32 0f3c 4065 ebbd e8b5 50bd 853a 0a3d
000002b0: 1ae6 5c3d b71c b23d 3255 a63d 0e45 a1bd
000002c0: dcf9 a2bd 7e48 173d 7be3 fbbd 6094 903d
000002d0: 9a29 00bd 99b6 94bb b93c 87bd 2158 06bd
000002e0: c447 a83d 0250 903c 3448 663d 53ba 2b3d
000002f0: 53ea 893d fe60 1fbc 2a3b ff3c 73e8 ba3d
00000300: 3002 d13c d2a2 5b3d 05a8 703c fdd4 d93d
00000310: 4c17 3cbd 5626 6bba 9519 db3c 4b27 6abd
00000320: 3933 cb3c 4d00 c0bd d452 f7bc 82d5 a13d
00000330: 9afb a23d 7141 643d cef4 3abd 6bba 713d
00000340: 7dcd 0f3d 583f abbc f88c c9bc f3da 263e
00000350: cf25 613c 00b3 c5bd 7194 823d dae3 943d
00000360: f6de 80bd 3cf0 7b3d 5eef e3bc af9b c7bc
00000370: d743 b23d bdb2 90bc 2671 4abd 66df 26bd
00000380: c3f4 82bc dd6c 35bd 91d5 b53c ecde 8c3d
00000390: b9e3 503d 1600 2bbc 42cf c5bc 0b51 4d3d
000003a0: 8f34 073d b8df a8bd 01a3 223b 7ee5 ccbd
000003b0: f71c d8bc d340 843d dd1b 91bd 58b0 013d
000003c0: ebc3 c13d ea73 c0bc d746 2cbd ebb1 5fbd
000003d0: dcb8 073d 2f30 e7bd 2b8e 803d 59f7 95bd
000003e0: 29ae 93bd 7a35 cebc 1fbb 12bd 5453 793d
000003f0: 37af b3bd 250d b03d f0b4 f73b 997e 083d
-0.057627875 0.011256391 -0.041230656 -0.074818484 -0.034776043 0.040759105 -0.024745686 0.01260611
-0.010701458 0.06613465 -0.0890663 -0.06217375 -0.063802384 0.0655291 -0.022724641 0.08155065
0.032190368 0.048874833 0.016800135 -0.027053926 0.019855527 -0.030371962 -0.009144782 0.0060247127
-0.05166411 -0.1035795 0.022848733 -0.09121742 -0.022881549 0.09937031 0.028276742 0.020760024
-0.08342461 0.059279434 -0.0627339 0.0105043 -0.034624632 -0.03059662 0.0003387548 0.06697719
-0.0043293564 0.0652426 0.034006115 -0.010624893 0.022178996 -0.112119734 -0.055627033 0.044915307
0.025084205 0.079040214 -0.043541014 0.028563958 0.07436298 -0.07605053 0.047854636 -0.06782671
0.011544425 -0.023880314 -0.005503557 0.017287266 0.07827117 -0.019614147 -0.013799031 -0.0395649
-0.08711925 0.052506786 -0.0472854 -0.088932656 -0.03815859 0.05008917 0.035713132 0.07216746
0.026414327 -0.021739691 -0.023395987 0.03442442 0.056977805 0.027803972 -0.040968023 -0.04811577
-0.086035326 0.026476722 -0.02159701 -0.08163919 0.082641535 -0.06363004 -0.011180287 0.024485553
-0.0032194362 -0.0519526 -0.066144206 0.058272317 0.009698096 0.0719419 -0.03832294 0.009929554
-0.03617761 0.00419425 -0.04993731 0.025581738 0.022377213 -0.0164971 -0.026699021 -0.055581912
0.048872434 -0.15943585 0.041065354 -0.025827516 -0.050310068 0.013013789 -0.045745205 0.00935696
0.0073826327 -0.06314891 0.010858471 0.030328272 0.07065488 -0.0024242809 -0.07922574 0.012120469
0.06730798 -0.035205428 0.0454865 0.053350497 -0.055587165 0.017445978 0.03766918 0.008189048
-0.0012855234 0.07538891 -0.040659245 0.05814302 0.044060428 0.10511675 0.048575528 0.03775304
0.025983263 -0.0076870336 -0.0909425 -0.05328943 0.10219722 -0.018134287 -0.064922035 0.062900245
0.12540449 0.123550296 0.07887488 0.05054507 -0.053843837 -0.065816306 0.14220087 0.053615168
-0.021079808 0.04921069 0.04205318 0.060668185 -0.04449694 0.08306118 -0.048039746 0.11344444
-0.03334705 0.01055292 0.0137195755 0.08562802 -0.041433815 0.008905959 -0.09310567 0.026777051
0.00873996 -0.11493921 -0.05095473 0.033747215 0.05393038 0.08696883 0.081217185 -0.07874499
-0.07957813 0.03693437 -0.12299248 0.0705955 -0.031289674 -0.004538369 -0.06603379 -0.03279889
0.08216813 0.017616276 0.056221202 0.04192574 0.06734147 -0.009727715 0.031156141 0.091263674
0.025513738 0.053622074 0.0146884965 0.106363274 -0.045920655 -0.0008970251 0.026745597 -0.05716638
0.024804698 -0.09375057 -0.030190863 0.079020515 0.079581454 0.055726472 -0.04564362 0.059015673
0.03510808 -0.020904228 -0.024603352 0.1629446 0.013741924 -0.09653282 0.06375969 0.07270022
-0.062925264 0.061508402 -0.0278241 -0.024366228 0.08704346 -0.017663354 -0.049424313 -0.040740393
-0.015985852 -0.044293273 0.022196563 0.068784565 0.050998423 -0.010437032 -0.02414668 0.050126117
0.03300911 -0.08245796 0.0024816396 -0.1000471 -0.026380999 0.06457677 -0.070853926 0.031662315
0.094611965 -0.023492772 -0.042059746 -0.054613035 0.03313528 -0.11288487 0.062771164 -0.073225684
-0.07210953 -0.025171984 -0.035822984 0.060870484 -0.08773654 0.08596257 0.007559411 0.033323858

layers.1.fc.bias f4 [64]
00000000: 4588 4b3d 78e7 1e3c 8d2b 24bd 78a4 503c
00000010: bf66 92bc 2035 493c 54b9 373d 4c08 263d
00000020: ca15 02bd 0f39 d13d 91f9 813d 0f5f 71bc
00000030: 77db c73d a90b 82bb 438b 9fbd 12f9 ba3d
00000040: 423a 0dbd 47f9 4dbc 0bf4 85bd fc01 2dbc
00000050: 9504 99bd 9850 27bd 58aa 563d e7c7 bf3d
00000060: 61fc e43c 7432 c4bd 953b 13be 9f28 81bc
00000070: b5e1 e83d efda 4d3d eb1c ac3d 47ae 84bd
00000080: 2aea bb3d dd8e 8e3e bd28 90bd 77de 16be
00000090: 40c7 a1bd ce92 983c 21a4 35bc 2e78 a9bd
000000a0: 9f3c dd3d 1cc2 323d e5dd 16bd e225 53bd
000000b0: 5eb9 bfbd 2602 3a3d b17c 7e3d ff06 58bd
000000c0: 4a8a 86bd 23eb 093d d845 51bd 426e b7bd
000000d0: 9c89 c63d 2fb2 5a3d f380 55bc dca7 863b
000000e0: 46f2 ba3d 0f65 c5bd 6892 0d3d e244 b4bd
000000f0: 77f8 9fbd 1285 b63d 5ff8 a4bd 0435 e6bc
0.049690504 0.009698741 -0.040080596 0.012734525 -0.017871259 0.012280732 0.044854477 0.040535256
-0.03175906 0.10215961 0.06346429 -0.014732136 0.097586565 -0.003968675 -0.07790234 0.09129538
-0.034479387 -0.012571639 -0.06540688 -0.010559555 -0.07471577 -0.040848345 0.052408546 0.093643
0.027952375 -0.09579936 -0.14378197 -0.01576644 0.11371175 0.05025762 0.08403953 -0.06478553
0.091755226 0.2784337 -0.0703902 -0.14733301 -0.07899332 0.01862469 -0.011086495 -0.082748756
0.10802578 0.04364215 -0.03683271 -0.0515498 -0.09361528 0.045412205 0.062130634 -0.052741047
-0.06569345 0.03367151 -0.051092 -0.08956577 0.09694216 0.053392585 -0.013031232 0.004109366
0.09128241 -0.09638416 0.034563452 -0.08802201 -0.07811063 0.089121 -0.080551855 -0.028101452

layers.2.gsds.0.weight f4 [4, 64]
00000000: d3b2 a33d 6ec2 c73d 078a 0dbd e4a2 e33d
00000010: 7317 323c 1cee 07be 0699 edbd 0e31 8bbd
00000020: 9175 afbc 0102 083e f521 c5bd 1c98 d3bc
00000030: 0bf0 a83d 014c 70bd 9f6e 9c3d b288 9cbb
00000040: a648 7bbd 14a6 c7bd 9a4e e13d e052 a3bd
00000050: b244 9d3c a655 373d d534 3cba ec9b ebbc
00000060: 7cf6 cdbc 0ecc 11bd f37e c6ba b008 f4bc
00000070: 80d8 343d f4d7 b03c 19a9 1b3d 7b9b 2cbd
00000080: 1384 8fbd 27b4 9abb 88aa 143d 1111 223c
00000090: 319f 013e 8d24 943d 9fff 54bd 837b a93d
000000a0: d33e 98bd 5d3f 43bd f127 b13d e69a a9bd
000000b0: 53bd 253c 85c3 cbbd 3fab 813d a727 ae3d
000000c0: 38a8 f43d 88b4 3cbd e6b6 d7bd 710d 993d
000000d0: efc4 2cbd 6ded 8dbd 59d8 dcbd 52ad a13d
000000e0: a5a3 09bd 600a 16bd 8e21 ec3a be70 0d3c
000000f0: 03c7 eabc 6488 f23d 5dab d9bd dfb0 88bc
00000100: f458 dbbc 97f7 73bd b568 aa3d cce5 033e
00000110: 1e57 a53d 90a6 953d f341 ce3d 847e ac3d
00000120: 86c8 ddbd 8bd6 3fbd 9c63 453d 06e5 a13d
00000130: e479 c63d 3031 1fbc 4ba3 f93d df23 cdbd
00000140: 7777 b53c 9fa7 bb3d 8763 a23a 972b ac3d
00000150: ea6f 003e d4f2 bcbd 6775 de3d 7869 ee3d
00000160: ada8 8e3d 0736 7e3d c236 4a3d 7b12 263d
00000170: a54c c63d 2629 c0bd c761 1cbe e719 a83d
00000180: 568c ce3d 3b7d 8ebc 320f b63d c9c8 82bb
00000190: ebb9 b83d f49f 17bd 4a07 903d 6d51 8bbd
000001a0: 07d4 97bd e850 1c3c 19c4 7abd 8443 753d
000001b0: 4cd3 42bc f4e4 84bb 56d3 de3d 204b 8f3d
000001c0: 2377 b3bd d9e4 013c 4a22 6d3d 7523 70bd
000001d0: 014b 793c 1dcb a4bd 98ae 28bd a839 aabd
000001e0: 6601 fd3d c325 723d bc7d c43b b5b0 c63d
000001f0: 9ec9 153d 5a9c a73d 9a52 783d d624 103d
00000200: 6273 a5bd c00a 6d3e a970 c6bd a13c 5ebe
00000210: ecbb 2fbd bbe6 8d3e 1df7 7bbd 859a c0bd
00000220: 0f49 3ebe 2f20 413e 450e 89be 72b0 d53c
00000230: 6d15 483e bac9 fabd 7a8c 37be 3a6f 27bd
00000240: 65a6 e43d c6de 85bd 224b d7bd 00b0 4c3d
00000250: e1a4 863c 1d3b 833d bafd 383e c184 2b3d
00000260: 650e c83d 064a c33d d1d9 343e d83e 3e3e
00000270: b91a 363e 68f6 1dbd e380 2abd 146c b1bd
00000280: ce12 183e 29fc 3bbe bd32 9b3d 81a4 70be
00000290: 1f00 babc 2ba5 e03d 5eb0 e03d 5b71 04bc
000002a0: 15b2 ec3d 4f0b e03d 19f1 073e c802 343d
000002b0: 2944 943e 60fd 923e c680 2b3e e626 493c
000002c0: 6984 243e 8ca0 1d3d 45f3 b73d 7b19 d3bc
000002d0: 6842 03be 4101 123e 0899 25bd 1300 cbbd
000002e0: b757 89bd 6077 3abd 625a 1abe 7d8e acbd
000002f0: 30ec 523d 6748 843e 4ba8 10be cfd6 433e
00000300: 8688 7a3a e92a b33d 36fb b63d 57da 4d3c
00000310: 03f5 dbbd 2777 5fbe 27bd bdbb 38b5 68be
00000320: a1d8 863e 6dc1 653e c589 d33d 7d06 ddbd
00000330: 4892 aa3d b301 31bd acdc 0bbd 84de a1bd
00000340: 7c43 0cbe ca9e 423c 1a92 b53d 7038 043e
00000350: 0d32 a13d a237 3ebd e303 213d 6ff7 613e
00000360: ccb3 443d fcce e93d de26 c83e f6cf 083e
00000370: 8713 b53d 6cdc 22be 34dd 20be 0ffe 1fbe
00000380: 2173 8f3e db3b 62be dbea e2bd 71ce 223d
00000390: 8d9b 993d 95e7 90bd 7a82 3fbc 16c9 ec3d
000003a0: 852e 2abe 84a5 acbe 55b9 933e e5aa 46bd
000003b0: 933b 7abe c294 9d3d d625 d83c 6a77 89be
000003c0: 828b 923c 5f22 70be e9ce 953e ffba 403d
000003d0: ce3e 823e f151 373e e34e 673e ba59 d4bd
000003e0: a2d5 623d 9348 a2be 8a0e df3e c088 863e
000003f0: d9ad 893e 68cd 3abd 39c1 143e 81cc 973d
0.079930924 0.097538814 -0.03455546 0.11115053 0.010869849 -0.13274425 -0.116014525 -0.06796466
-0.021418365 0.13282014 -0.096256174 -0.025829367 0.082489096 -0.058666233 0.07638287 -0.0047770375
-0.06134858 -0.09748474 0.1100132 -0.079747915 0.019197796 0.044759415 -0.00071795034 -0.028760873
-0.025141947 -0.035594992 -0.0015144035 -0.029789299 0.044151783 0.02158735 0.03800306 -0.042140465
-0.07007613 -0.004721183 0.036295444 0.009891764 0.12658383 0.07233534 -0.05200159 0.08275511
-0.07433858 -0.04766785 0.08650196 -0.08281498 0.010115939 -0.09949402 0.06331491 0.08503657
0.11946148 -0.046070606 -0.10532932 0.07473267 -0.042179998 -0.06930051 -0.107834525 0.07894386
-0.03360333 -0.036630988 0.0018015371 0.008632837 -0.02865935 0.11842421 -0.10628388 -0.016685901
-0.026775815 -0.059562292 0.083207525 0.1288063 0.08073257 0.0730716 0.100711726 0.084225684
-0.108292624 -0.046835463 0.048190698 0.07905011 0.096912175 -0.009716317 0.12189349 -0.100166075
0.022151692 0.091628306 0.0012389281 0.084067516 0.12542692 -0.09226003 0.108622365 0.1164121
0.06965766 0.062063243 0.049368627 0.040544968 0.096825875 -0.093828484 -0.15271674 0.082080655
0.10085361 -0.017393699 0.08889617 -0.0039912206 0.09019836 -0.037017778 0.0703264 -0.0680264
-0.07413488 0.009540774 -0.06122217 0.05987884 -0.011891197 -0.0040556137 0.10880153 0.06996751
-0.08762958 0.007928097 0.05789403 -0.058627564 0.015215636 -0.08046553 -0.04118213 -0.08311778
0.12353782 0.059118044 0.005996434 0.09701673 0.03656923 0.081841186 0.06062565 0.03519138
-0.08078648 0.23148632 -0.09689457 -0.21702816 -0.042903826 0.27715096 -0.061514962 -0.09404472
-0.18582557 0.18859933 -0.267687 0.026085112 0.19539423 -0.122455075 -0.17924681 -0.04087756
0.1116455 -0.06536631 -0.10512377 0.049972534 0.016436042 0.06407759 0.18065539 0.04187465
0.097683705 0.09535603 0.17661215 0.1857866 0.17783631 -0.03856507 -0.041626822 -0.086631924
0.14850923 -0.1835791 0.07578037 -0.23500253 -0.022705136 0.10969003 0.10971139 -0.008083667
0.11557404 0.10939657 0.13275565 0.043947965 0.28958252 0.28708935 0.16748342 0.0122773405
0.16066135 0.038483188 0.08981947 -0.025768986 -0.128183 0.14258291 -0.040429145 -0.099121235
-0.067061834 -0.045524 -0.15073541 -0.08425615 0.051494777 0.2583649 -0.14126699 0.19124912
0.0009557087 0.08748419 0.089346334 0.012564263 -0.10740092 -0.21822797 -0.005790371 -0.2272538
0.2633715 0.22437067 0.10329012 -0.10792253 0.08328682 -0.04321451 -0.034145996 -0.079037696
-0.13697618 0.011878679 0.08865757 0.12912154 0.078708746 -0.046439774 0.039310347 0.22067045
0.04802303 0.11416432 0.39092153 0.13360581 0.08841615 -0.15904397 -0.15709382 -0.1562426
0.28017524 -0.22093146 -0.110799514 0.03974766 0.07500372 -0.07075421 -0.011688823 0.115617916
-0.16619308 -0.33720028 0.28852335 -0.04850282 -0.24436788 0.07694389 0.02638523 -0.26848918
0.017888788 -0.23450612 0.29259422 0.047053333 0.2543854 0.17902352 0.22588687 -0.103686765
0.055379517 -0.31695995 0.4356578 0.26276207 0.26890448 -0.045606047 0.14526834 0.07412053

layers.2.gsds.0.bias f4 [4]
00000000: bd9b f33b 769f 67bc 2c00 113e afc1 f1bd
0.007434337 -0.01413714 0.14160222 -0.1180452

log_envelope.log_envs.0.weight f4 [4, 1]
00000000: e65e 343f 7fcb 373f a75c 223f c60b 283f
0.70457304 0.71794885 0.63422626 0.65642965

exp_avg f4 [64, 2]
00000000: ec69 e13a 6393 b2ba fbbe 3739 4663 85ba
00000010: 2e88 0cba 4377 bb3a 1bcb b63a 8590 b1b9
00000020: 8fec 7dba 8eb5 413a f22b 60bb 77d5 493a
00000030: 71fa 73bb 115b 7f39 5b61 e5ba ff4f 203a
00000040: e9eb 5439 c5f6 61ba b0dd 553a 8ec5 84ba
00000050: 79bb 7cbb cc8f fb3a e0e0 57ba 0b8e 6c3a
00000060: ee85 dcb9 7e9d e8b9 be12 4339 3d68 9839
00000070: a770 8cb9 9aaa 7f39 a76f b53a 21e5 a2ba
00000080: ff8c 8439 de95 5fb7 dbd6 e3ba 2344 cb3a
00000090: 6f63 453b 1881 8eba 1d73 32bb 7c4f 143b
000000a0: f611 09ba 308c 443a b992 a33a ed76 9dba
000000b0: 9d87 873a 6309 ec39 16a6 43bb a83f 333a
000000c0: 3752 14ba a792 e339 7885 6cba e756 723a
000000d0: af3b 793a f660 933a f67e 02bb 8c6d 2139
000000e0: 9c04 ce38 16c3 b039 e508 273a a2eb 97ba
000000f0: 7adc 2d3b 857e 88ba c8d4 c7b9 0c2b 133a
00000100: a959 eeba 383e e83a 5dea deb9 8b1e b3b8
00000110: 8ebb 2c3a ca8a ac39 96f5 9cb9 caf7 a0b8
00000120: ecf4 883a 77dd bbb9 7335 c8b8 ea68 22ba
00000130: e2d5 80ba 759d 203b 2534 763b 6590 dfba
00000140: 43db c937 bfed c2b9 9c3f 5eba b1ef 3b39
00000150: 563a 1f3b 7d0c b7ba 0ec3 4abb aa99 a63a
00000160: a569 673a 61a8 a0b9 6127 acba 2820 a83a
00000170: f569 b739 f5f9 2439 036b 023b 8ac0 aab8
00000180: b256 673b 0723 f3ba ae7b e039 5138 7d39
00000190: 86a5 06ba c007 993a 8949 4b3a 8d54 b9ba
000001a0: 118a 6139 c6ee edb9 e5e2 76b9 16ab 9839
000001b0: 18f9 5fb8 8270 9f3a 7447 063b 6df8 c4ba
000001c0: 3c25 f9ba 3484 243a 8d8f 003a cc36 cd39
000001d0: 64e6 c039 1b95 1d3a bacf 49bb b460 1d3a
000001e0: bb91 7fba f25f 4b39 d953 e13a c1c2 29ba
000001f0: 975b 09bb 73e8 8939 cd31 17ba 26f5 ce39
0.0017197705 -0.0013624247 0.00017523386 -0.001017668 -0.00053608685 0.001430251 0.0013946028 -0.00033867746
-0.0009686434 0.00073894195 -0.003420588 0.000769935 -0.0037228132 0.0002435262 -0.0017500328 0.0006115436
0.00020305779 -0.00086198404 0.0008158339 -0.0010129677 -0.003856389 0.0019192635 -0.0008235108 0.00090238516
-0.00042061455 -0.0004436783 0.00018603631 0.00029069363 -0.00026786813 0.00024382249 0.0013842479 -0.0012427905
0.00025282052 -1.33267295e-05 -0.0017382758 0.0015507977 0.0030119081 -0.0010872213 -0.0027229257 0.0022630384
-0.00052288116 0.0007497696 0.001247964 -0.0012013592 0.0010340099 0.0004502042 -0.0029853634 0.00068377936
-0.0005658003 0.00043406078 -0.0009022574 0.0009244517 0.000950749 0.0011244107 -0.00199121 0.00015394966
9.823704e-05 0.00033714686 0.000637187 -0.001159061 0.002652912 -0.0010413682 -0.00038114772 0.00056140195
-0.001818468 0.0017718738 -0.00042517754 -8.541074e-05 0.0006589227 0.00032909802 -0.00029937614 -7.675549e-05
0.0010448969 -0.00035832424 -9.546699e-05 -0.0006195443 -0.0009829367 0.0024507914 0.0037567702 -0.0017056583
2.4063169e-05 -0.00037179698 -0.00084781065 0.00017923002 0.0024296246 -0.0013965514 -0.0030939016 0.001271059
0.0008827693 -0.0003064303 -0.0013134294 0.0012826966 0.00034983424 0.00015733375 0.001990021 -8.142095e-05
0.0035299477 -0.0018549868 0.00042816758 0.0002414894 -0.0005136359 0.0011675283 0.0007754793 -0.0014139578
0.00021509106 -0.00045382063 -0.00023544913 0.00029119168 -5.339933e-05 0.0012164267 0.0020489367 -0.001502765
-0.0019008289 0.00062758033 0.0004904203 0.00039141474 0.00036792748 0.0006011293 -0.003079398 0.00060034846
-0.00097491936 0.00019395331 0.0017191126 -0.0006475859 -0.0020959133 0.00026303864 -0.0005767614 0.00039474032

exp_avg_sq f4 [64, 2]
00000000: 2ec6 333b d3a0 863a 0f1d 913a 0673 a739
00000010: 1a35 cf3a fd53 0a3a 8101 353a 605c 6639
00000020: c182 7339 2c74 de37 eb93 f83a e84c 5a3a
00000030: 767c f73a 8de4 9c39 f13a b13a c008 e939
00000040: 4edc 8739 14be 7238 b25e 0439 fe3f 6838
00000050: 1acb 003b a2cb 1b3a fe21 793a 5788 4139
00000060: 92b9 053a 9837 9f38 d675 c039 b28d c037
00000070: c623 ae38 c119 c136 632b 9a3a 7afe 0139
00000080: 1f68 9039 da3a 9138 36cc 8139 e19c 093a
00000090: 85b9 3e3b 58f7 da39 f14e b03a 65d2 9f3a
000000a0: ed40 5239 77f0 aa38 cf6d 433b a83a 713a
000000b0: 3cb0 9c38 1db3 ab37 21c9 5b3a aefa 9038
000000c0: 6a77 bd39 9938 e638 8d70 6839 3cac 6038
000000d0: cd37 4c38 4a8e 8237 880b 8039 dd49 a137
000000e0: aee6 a338 1a0c d437 eca5 7839 a4db 9639
000000f0: 6411 923a a955 5c39 d9b7 9d39 2a82 2438
00000100: cfb5 a43a 68ae 433a 5044 f738 c7b6 6237
00000110: dc3a 3539 f21e 9037 bfd2 cb36 e319 8035
00000120: 530a a039 fd42 1639 8333 0339 88bb 0038
00000130: 9a11 573b d67a 533a 776f af3b 198b 453a
00000140: 867b 7939 2ef2 6637 1dd6 da37 3347 8437
00000150: 793e ef3a 8ab7 ca39 dfee 0a3b 3841 383a
00000160: 68d2 c539 0553 2a38 d428 353a 3728 c239
00000170: e834 ae39 b57f f638 d7a9 883a 8272 a438
00000180: 7623 523b da4a 923a d499 023a a694 8439
00000190: ea6b 4a3a 46dd 6239 9232 8d3a 8c81 083a
000001a0: 43c5 3c39 0a48 d838 a4fe 0638 f1f1 5037
000001b0: 4202 f03a 56be 1c3a 5433 0e3b 0322 0e3a
000001c0: c622 e53a cc8e 4a38 9e3d 093a 4188 3c38
000001d0: ec06 6739 f462 4037 cfaa a73a f528 0b39
000001e0: 4fe5 4739 18fa 8f38 f94e 2b3b dc27 113a
000001f0: dbec fd3a c3fe 9138 fc10 f538 e9e0 0138
0.0027431357 0.0010271318 0.0011071282 0.0003193842 0.0015808672 0.00052767975 0.0006904826 0.00021968922
0.00023222996 2.6518559e-05 0.0018964981 0.00083275 0.0018881697 0.00029924922 0.0013521594 0.00044447742
0.00025913346 5.787432e-05 0.00012623778 5.5372708e-05 0.0019652308 0.00059431244 0.00095036614 0.00018456705
0.00051011995 7.592066e-05 0.00036708888 2.2954166e-05 8.30363e-05 5.7548464e-06 0.0011762198 0.00012397199
0.00027543397 6.925101e-05 0.00024756946 0.0005249512 0.0029102277 0.00041764486 0.0013451261 0.001219344
0.00020051347 8.151022e-05 0.002982009 0.0009202161 7.471486e-05 2.0468195e-05 0.00083841576 6.913148e-05
0.0003613786 0.00010977797 0.00022167173 5.3566167e-05 4.868936e-05 1.5563466e-05 0.00024422654 1.922709e-05
7.815413e-05 2.5278005e-05 0.00023712934 0.00028773875 0.0011144099 0.00021012746 0.0003008235 3.922187e-05
0.001256639 0.0007464648 0.00011790602 1.3513206e-05 0.00017283432 1.7180548e-05 6.0744055e-06 9.544277e-07
0.0003052527 0.0001433007 0.00012512323 3.069223e-05 0.0032816888 0.0008067315 0.005353864 0.0007535681
0.00023792507 1.3765455e-05 2.608733e-05 1.5768781e-05 0.0018252871 0.0003866519 0.0021199507 0.00070287613
0.00037731533 4.0608476e-05 0.0006910686 0.00037032526 0.00033227284 0.000117539814 0.0010426593 7.841458e-05
0.0032064593 0.0011161224 0.00049820286 0.00025287754 0.0007721769 0.0002163547 0.0010772517 0.0005207292
0.00018002563 0.00010313101 3.2185242e-05 1.24540975e-05 0.001831122 0.000597929 0.0021698074 0.0005421938
0.0017481677 4.8293543e-05 0.0005235317 4.494959e-05 0.00022032455 1.1467131e-05 0.0012791994 0.0001327133
0.00019063543 6.865355e-05 0.00261396 0.00055372505 0.0019372957 6.961592e-05 0.00011685674 3.096546e-05

exp_avg f4 [64]
00000000: 0a48 72ba 3866 94ba e68f 5439 59dd 60b9
00000010: 4efe 4b3a c77b 16b9 b42d bb39 d8aa 813a
00000020: a212 4cba d9d8 14bb 019b f73a 2d81 38b9
00000030: 43c2 54ba 9933 f939 0c5f 7eb8 2009 0dba
00000040: 517a 9539 1e14 b33a 02cf 12ba c343 bf3a
00000050: c221 79b9 c561 e039 2fc8 4ab8 29c6 afb9
00000060: ff6c ff39 e8ae b838 4bc9 fe38 0b6d f0b9
00000070: 4eb1 8fb8 e7d7 f0b9 ba5f 4039 3519 223a
00000080: 5953 883a a265 bf3a c217 b539 7250 8835
00000090: dd03 bab8 1c65 a9ba 87bf b138 fda6 90ba
000000a0: c453 8739 e222 c03a 94e8 83ba d710 6739
000000b0: 7be8 05ba 34df 9236 2ed3 a239 5ed6 f6b9
000000c0: da20 eab9 2f46 3a39 7c72 a03a 8066 44ba
000000d0: 3cc3 803a 6534 bfb9 af69 3b39 39f7 a439
000000e0: adb7 a639 0251 cd3a 8b2a 8a38 0816 50ba
000000f0: 7ba0 a3b9 fea7 16ba 54d4 b93a b752 11b9
-0.0009242302 -0.0011321967 0.00020271502 -0.00021444763 0.000778173 -0.00014351225 0.0003570147 0.0009892834
-0.0007784759 -0.002271226 0.0018890799 -0.00017595729 -0.00081161055 0.00047531424 -6.064684e-05 -0.0005380083
0.00028510627 0.0013662612 -0.00056003046 0.0014592338 -0.00023759066 0.00042797453 -4.834699e-05 -0.00033526242
0.000487186 8.8063825e-05 0.000121491576 -0.0004585761 -6.851797e-05 -0.00045937227 0.00018346208 0.0006183566
0.0010400816 0.0014602432 0.0003454071 1.0156202e-06 -8.869891e-05 -0.001292381 8.4756924e-05 -0.0011036095
0.00025811617 0.0014658833 -0.001006382 0.0002203615 -0.00051081897 4.3771233e-06 0.0003105639 -0.00047080492
-0.00044656434 0.00017764488 0.001224115 -0.00074920803 0.0009823809 -0.00036469396 0.0001787308 0.00031464713
0.00031798836 0.0015664401 6.588277e-05 -0.0007937853 -0.0003120935 -0.00057470787 0.0014177659 -0.00013859091

exp_avg_sq f4 [64]
00000000: 3afa fe3a b0af 873a 6330 313a acd1 8d3a
00000010: ae21 3739 df81 6d3a 3f3d 683a 27ee 063a
00000020: bb54 2839 23b4 693a 492e b43a 60ac ea38
00000030: 70dc 4239 8848 0239 b5b1 c438 ddad 5d38
00000040: 5ea7 9239 9062 9a3a c9e2 093a 1556 4a3b
00000050: be2f 0c3a 6ca6 993a e2c6 8838 1885 2639
00000060: 5b25 4139 5605 ac38 976f ea38 397a f638
00000070: 8ff8 8438 f68a 9a39 abcf 8538 5774 f338
00000080: 3ab7 083b dd87 3d39 08b1 de38 270d a336
00000090: ea06 8039 b72b af39 b4e9 3a3a e98a 273a
000000a0: de42 4e39 ef41 8239 95f6 273a cfe3 f13a
000000b0: b3c3 9139 06ec 3d3a 06b0 4039 11ff 213a
000000c0: 904c 6e3a 218d 5f3a 7c8f 2a3a a594 b33a
000000d0: 1c10 1d3a 00cc ac38 371d 843a cfee c139
000000e0: 6b79 ab38 f96a b439 00ce 4239 9c26 a038
000000f0: 47e7 0c39 a525 c73a 7b10 753a 690c ec37
0.0019453235 0.0010352042 0.00067592243 0.0010819933 0.00017464787 0.0009060185 0.0008859224 0.0005147182
0.00016053293 0.0008915087 0.0013746704 0.00011190097 0.00018583401 0.00012424786 9.379109e-05 5.285243e-05
0.00027971988 0.0011778641 0.0005259929 0.0030874063 0.00053476903 0.0011722571 6.52203e-05 0.00015880575
0.0001841983 8.202593e-05 0.00011178775 0.0001175296 6.340548e-05 0.00029476703 6.3806154e-05 0.00011608813
0.0020861165 0.00018075058 0.000106187596 4.8593097e-06 0.00024419214 0.0003341117 0.00071301614 0.00063912437
0.00019670601 0.00024844657 0.0006407288 0.0018454733 0.00027802362 0.0007244948 0.0001837612 0.00061796705
0.0009090388 0.0008527805 0.0006506366 0.0013700916 0.0005991475 8.239597e-05 0.0010079507 0.00036989755
8.176531e-05 0.00034411976 0.00018578023 7.636586e-05 0.00013437598 0.0015193714 0.0009348464 2.8139171e-05

exp_avg f4 [64, 128]
00000000: ddd8 cab8 c5a5 e3b8 aa08 0cba 7f66 19ba
00000010: 8536 2638 d886 09ba 3f92 afba 1e48 1fba
00000020: c092 c039 9530 2dba 2bcb a239 dcee 6aba
00000030: 0214 c8b9 a579 2d39 e709 9bba 3784 6dba
00000040: da98 ecb8 3171 c9b8 8bc1 b3ba fb2f d739
00000050: 4370 113a 6d02 813a 0cf5 d5b8 f164 933a
00000060: cf3d 13ba 6d03 18b9 e7bd 5238 cdef c63a
00000070: 176d 8238 ee8d 0db9 5abf 3a3a 2a5e f9b9
00000080: 7647 5a3a 5043 fab8 362d 5c3a 2a2d 58b7
00000090: 8e40 e239 b42e 383a a61f 743a 86b8 a639
000000a0: 9f7b 3db9 072f 9b3a 95d1 0538 446d 2338
000000b0: 36e8 8cb6 d30b cfb8 55fd aa3a f563 97ba
000000c0: 1a59 243a 88d5 9fb9 209c 8138 2312 57b8
000000d0: 92d9 7fba 26fd 0aba 4d19 39b9 5983 75ba
000000e0: 6d07 aaba 0e35 1e3a 9d4e 92b9 4272 023a
000000f0: e6a9 353a b0ac 72ba a368 c4ba 89b3 b1b9
00000100: aa43 74b9 078f c439 320c 1339 5c70 11ba
00000110: fe37 1a39 f1ad 5939 c768 8639 b4a3 ee38
00000120: c84b aab9 756a 9339 26f9 bbb9 934b 9bb9
00000130: 8e8f a1b9 680d a3b9 551e 0439 eb14 38b9
00000140: 87be a739 58d8 003a bf25 b2b8 e7bd acb9
00000150: 022e c739 72a7 233a 0f5b 9539 6140 44b9
00000160: 6005 2539 d0e1 18ba 84b6 c2b9 2548 eab7
00000170: 6ab3 feb8 61bb c339 7546 57b9 6fcf e738
00000180: f12a 2bb9 9374 4d39 7fdd 8db9 6f7c e339
00000190: e0a4 a4b9 2533 b8b9 1da0 da39 1081 1e39
000001a0: 3bcf 4339 34cb 69b8 5f61 a7b9 5bf4 f039
000001b0: 6587 50b9 c81a 0bba b830 3eb9 029e a039
000001c0: 7f4d 70b9 2f8d b839 f3a5 c8b9 36fe e039
000001d0: 0abd 8639 c105 be39 d73a b7b9 6bce 93b8
000001e0: 3f54 10b9 898f 5cb9 e65f 9c37 759d 20b9
000001f0: 8f65 a9b8 3d2b e7b8 b525 3639 77bf 98b8
00000200: fd92 a4b9 8922 9b3a 282d adb7 c9a6 8fba
00000210: d6c8 bc39 24b3 13b8 71cd c4ba 0546 09b9
00000220: 2093 11b9 c04e 9a38 3d7b a2b9 aee1 9cba
00000230: 76d9 51ba 2f78 90ba 27d9 98ba d16e 59ba
00000240: 0b01 943a c6e6 593a 3042 b6ba b485 efb8
00000250: afd5 733a 621b d33a 2c75 9b3a 1490 923a
00000260: e225 4c36 c771 86ba b53e 2eba e21e d73a
00000270: 36ed 9cb9 12b5 7e3a 2d0d a239 2de9 7c39
00000280: 78ef e839 a508 8b39 537e 393a 9cce 833a
00000290: 74a8 0338 9bad 9d38 192d ad3a 10a9 a939
000002a0: 406d 8d3a 9c75 4a3a 19df 26ba 94a3 283a
000002b0: e347 00ba 67d1 46ba f91f b13a 8f99 a5ba
000002c0: 2dd9 2e39 746c 353a 4934 9dba ec40 543a
000002d0: 10da dcb9 edec 6739 0860 31ba 7638 54ba
000002e0: caf5 abba 1f90 83b9 60a3 80b8 dc1c 5f39
000002f0: 81a0 1a3a 93c0 75ba 6953 deba 5366 e4b9
00000300: 092f d6b9 9807 653a b015 a639 a8b7 8bba
00000310: 7d87 d739 5818 dc39 b0fa 093a c375 8639
00000320: bc16 29ba 21ed 233a 29a1 3fba cef1 2eba
00000330: 5e55 45ba 7b1b 2eba 085a 3539 5282 a7b9
00000340: 94b0 483a be9c 893a 251e 45b9 6b65 2dba
00000350: 8693 503a b7ab 9e3a d389 393a 0d04 a1b9
00000360: c121 ba39 25c7 97ba 67d6 53ba f825 0a38
00000370: 6ff0 bfb9 f551 5c3a 0859 d1b9 85d9 a139
00000380: dbf2 a7b9 1ae0 e239 3832 15ba b5a2 743a
00000390: 1905 22ba fe2a 49ba 6a9d 5a3a 2d12 7139
000003a0: 0411 fc39 775a 6bb9 acd5 41ba 7656 6f3a
000003b0: 02c4 0dba 9ef0 88ba 9513 a3b9 4b84 273a
000003c0: 33df eeb9 e63a 4f3a 1cea 66ba b54f 6e3a
000003d0: 3c0d 1b3a ecc4 503a fabc 4aba 6481 26b9
000003e0: c941 8cb9 2d99 fcb9 6886 c538 86c2 86b9
000003f0: 091f 8eb8 289b 92b9 9a62 e039 787b 8bb9
-9.6725045e-05 -0.000108550805 -0.0005341867 -0.000585176 3.962826e-05 -0.00052462285 -0.0013395025 -0.0006076115
0.0003673043 -0.00066066656 0.0003105042 -0.00089619844 -0.0003816188 0.00016543882 -0.0011828513 -0.0009060534
-0.00011281828 -9.6055104e-05 -0.0013714297 0.00041043744 0.00055480393 0.0009842642 -0.00010202275 0.0011245293
-0.0005616815 -0.00014497126 5.0244762e-05 0.0015177667 6.2192026e-05 -0.00013499681 0.00071238505 -0.0004756314
0.00083266885 -0.00011933467 0.0008399071 -1.2885119e-05 0.00043154176 0.0007026002 0.00093125773 0.00031799468
-0.00018070497 0.0011839577 3.190486e-05 3.896399e-05 -4.199358e-06 -9.8727316e-05 0.001304547 -0.0011550175
0.00062693807 -0.00030485936 6.18028e-05 -5.1276886e-05 -0.00097598985 -0.0005302004 -0.000176524 -0.00093655806
-0.0012972184 0.00060351274 -0.00027905861 0.0004976132 0.0006929919 -0.00092573 -0.0014984797 -0.00033893835
-0.0002329486 0.00037490597 0.00014023556 -0.0005548054 0.00014707443 0.00020759531 0.00025636537 0.000113792164
-0.00032481388 0.00028117342 -0.0003585305 -0.0002962021 -0.0003081527 -0.0003109977 0.000125998 -0.000175554
0.00031994676 0.000491505 -8.494732e-05 -0.00032947885 0.00037990516 0.0006242908 0.0002848734 -0.00018716
0.00015737629 -0.00058319885 -0.00037138548 -2.7928569e-05 -0.00012145082 0.00037332907 -0.00020530245 0.00011053576
-0.00016323828 0.00019593751 -0.00027058643 0.00043389524 -0.0003140336 -0.0003513332 0.00041699494 0.00015116134
0.00018673849 -5.5740777e-05 -0.0003192527 0.00045958426 -0.00019886864 -0.000530642 -0.00018137961 0.00030635303
-0.00022917053 0.00035200405 -0.00038270614 0.0004291401 0.00025699317 0.0003624391 -0.0003494832 -7.0479546e-05
-0.00013764294 -0.00021034306 1.8641305e-05 -0.00015317446 -8.077465e-05 -0.00011022992 0.0001737092 -7.283588e-05
-0.00031390032 0.0011835854 -2.0644235e-05 -0.001095974 0.0003600779 -3.521437e-05 -0.001501484 -0.00013091422
-0.00013883086 7.3579606e-05 -0.00030990868 -0.0011969113 -0.00080051215 -0.0011022146 -0.0011661396 -0.0008294406
0.0011291815 0.0008312281 -0.0013905223 -0.00011421312 0.00093015557 0.0016106183 0.0011860481 0.0011181855
3.042042e-06 -0.0010257297 -0.00066469173 0.0016412402 -0.00029931375 0.00097163126 0.00030908865 0.00024119458
0.00044428906 0.00026518587 0.0007076014 0.0010056081 3.1389718e-05 7.51868e-05 0.0013212293 0.00032360153
0.0010790005 0.00077232136 -0.00063656416 0.00064330664 -0.00048935245 -0.0007584304 0.0013513557 -0.0012634265
0.00016674837 0.0006920763 -0.0011993732 0.00080968323 -0.0004212414 0.00022118138 -0.0006766324 -0.00080955715
-0.0013119515 -0.00025093646 -6.1339466e-05 0.00021277688 0.0005898551 -0.0009374704 -0.0016962114 -0.00043563786
-0.00040852305 0.00087367883 0.00031678146 -0.0010659592 0.00041108942 0.00041979807 0.00052634906 0.0002564621
-0.0006450226 0.00062532915 -0.00073100865 -0.0006673605 -0.00075276743 -0.0006641668 0.00017295044 -0.00031949818
0.0007655707 0.0010498983 -0.00018798614 -0.0006614539 0.0007956553 0.0012105618 0.00070777274 -0.0003071133
0.00035501833 -0.0011579735 -0.00080809597 3.2937125e-05 -0.00036609496 0.00084045465 -0.0003992992 0.00030870378
-0.00032033664 0.00043273048 -0.0005691382 0.00093321066 -0.0006180569 -0.0007673948 0.00083394966 0.00022990322
0.00048077863 -0.00022445047 -0.00073942053 0.000913001 -0.00054079306 -0.0010447686 -0.00031104372 0.00063902576
-0.00045561194 0.00079052 -0.0008808689 0.0009090857 0.0005914753 0.0007963914 -0.0007733848 -0.00015879195
-0.00026751895 -0.0004817931 9.418727e-05 -0.00025703403 -6.7768684e-05 -0.0002796289 0.00042798073 -0.00026604137

exp_avg_sq f4 [64, 128]
00000000: 4797 0239 5a94 2c37 ff20 5937 bcf9 9b38
00000010: 0ec2 0839 27d6 e837 1567 a139 e3d4 6f37
00000020: 227b 6b38 f9cc 1338 109c f737 9d29 ea38
00000030: 8e3c 4339 93c7 ac37 db83 9c39 b434 1538
00000040: 3af2 0038 0828 f337 e4d1 1f39 2184 7538
00000050: ecbd 5f38 f6cf c638 e371 1f38 3237 ca39
00000060: 5aaf 6f37 6535 7038 c609 8838 0ff8 a339
00000070: e433 2539 44ff ef37 51a9 af38 63cc 7b38
00000080: 7f71 a838 d7ab 9937 2da4 d639 d4bd 8738
00000090: 1dbe 0739 9e64 4f38 d3bd 5538 601a e638
000000a0: 6e31 aa38 00bf a338 b021 e338 4302 df37
000000b0: 8f71 5139 6216 1438 be86 ad39 4c57 9e39
000000c0: 6aa5 8338 360c 5837 75fc d937 29a9 5d38
000000d0: a510 8438 8332 1d38 8c30 a638 9ec1 5638
000000e0: f73b c938 ce7a 8737 1010 e437 e56d b238
000000f0: 65cd 8a39 1639 bf38 27d2 7d39 88f9 5639
00000100: 2618 fd38 3a9a d238 0a04 fe36 930c 9b38
00000110: da5a 0d39 2da7 9237 352c 9239 9d55 6736
00000120: 12e3 6738 7945 3538 e7f0 1b38 d875 c238
00000130: 2e0b 4039 96f1 c038 8508 8139 5e90 0638
00000140: ede2 0139 3e4d de38 2636 d738 c4d8 7738
00000150: f939 4938 3308 aa38 b784 1939 8ac1 a439
00000160: 217c 0e37 bd53 d338 184a b438 c425 8739
00000170: 3b2d 2f39 3061 c838 4ddd 8738 e118 bc38
00000180: 2ddf 6138 9932 b737 bc63 b939 2cc0 0339
00000190: 62fa 0039 d038 e738 971e 1338 3398 f138
000001a0: 77b5 4a39 c4ec fe37 7ba1 0639 3ce8 1f38
000001b0: 35f9 5e39 5c78 6038 f4fe 8d39 e6f0 9839
000001c0: 5534 4d38 34d5 6c38 c7e3 fb38 a985 b938
000001d0: c928 d738 35b6 ad38 31bc b238 3353 9f37
000001e0: 8607 3a38 e0ed 9937 961c fa37 0120 9038
000001f0: 0b4d 7039 9370 8138 5402 7439 01cc 4939
00000200: 03b7 6539 d57a b839 ec85 3239 0bca 0f39
00000210: 3bae 0f39 693b a539 de24 c93a cdc2 5939
00000220: 7521 d839 d0da 223a 60e0 ae39 2661 a039
00000230: ed75 8c39 971a b639 6fdc 9b3a 1cd8 b038
00000240: 4622 5539 0af4 ee39 3280 633a 7be9 ee39
00000250: 83c0 d638 1354 3e39 1b7a 3439 9e9e b03a
00000260: fa15 5f39 d51e 6a39 6493 ef38 fb20 a83a
00000270: 210f 1639 8dfe 6939 9c37 1a3a c012 9238
00000280: 8b81 233a 62f7 2c38 5647 a73a 53d1 3139
00000290: fdb5 1e3a 2340 473a 70ce f838 53d6 b138
000002a0: e43a 8d38 fe16 963a 859b ed38 81c0 3939
000002b0: 9130 4a39 5445 6839 640a b93a 27eb ba3a
000002c0: 92e4 043a 9f69 bd39 7cfb 8839 b975 2539
000002d0: 54de 643a 8541 293a 3f47 dd38 deda ba39
000002e0: f836 2c3a 97a2 f739 b0cf 5e37 9564 cd39
000002f0: d054 463a 8458 d539 4ba4 c83a 991c be39
00000300: f8dd 2439 5b2b 6439 410a 8137 a7ed 1839
00000310: 833b 3239 25cb 0238 ff8e c039 a414 0537
00000320: b4a9 c038 db4f aa38 b4d2 a438 da27 1239
00000330: 01d4 7f39 74e2 2639 52f9 a539 2be3 4538
00000340: 0fe3 7339 f97a 6f39 2f29 1539 b057 ce38
00000350: 4d63 b238 98dd 2f39 9661 8839 a263 d339
00000360: da60 9b37 59a0 5b39 1aa4 1639 53a6 b439
00000370: b9e4 5a39 83e5 4939 3df5 b838 4044 0039
00000380: 64df 9538 2187 1338 57b7 f139 40c3 7139
00000390: 3bfb 3539 9e6d 3a39 f44b a538 644d 1739
000003a0: db3b 9939 3e48 2d38 8be3 4339 e18a bc38
000003b0: 8d4c 8e39 5d98 0239 c8a6 b739 5b84 cb39
000003c0: 2dfe 9538 3f62 0739 7b6f 7f39 73a6 2e39
000003d0: 4e1b 2039 38c3 1e39 a2ca 0639 62e9 e337
000003e0: 590f 8f38 92f9 2638 b648 1a38 086d b838
000003f0: 5f6e 9639 4733 b138 ad8a a239 0098 7939
0.00012454121 1.028654e-05 1.294189e-05 7.4374926e-05 0.00013042262 2.7756278e-05 0.00030785115 1.4295077e-05
5.6143042e-05 3.5238427e-05 2.9517367e-05 0.000111657406 0.00018619208 2.0596932e-05 0.0002985288 3.5573452e-05
3.074317e-05 2.8986498e-05 0.00015241612 5.8535607e-05 5.334422e-05 9.4801115e-05 3.801462e-05 0.00038569566
1.4286337e-05 5.7270187e-05 6.486806e-05 0.000312746 0.00015754957 2.8609888e-05 8.376188e-05 6.0033413e-05
8.0320046e-05 1.831904e-05 0.0004093958 6.47266e-05 0.00012945426 4.9446353e-05 5.0959945e-05 0.000109721674
8.115439e-05 7.808022e-05 0.00010830478 2.6584725e-05 0.00019974097 3.5306795e-05 0.00033097522 0.0003020115
6.2773775e-05 1.2877446e-05 2.5985975e-05 5.284805e-05 6.297351e-05 3.747876e-05 7.9245394e-05 5.1201896e-05
9.595596e-05 1.615044e-05 2.7187198e-05 8.508171e-05 0.00026474442 9.118223e-05 0.00024206248 0.00020501588
0.00012068478 0.00010042307 7.57026e-06 7.393318e-05 0.00013480653 1.7482404e-05 0.00027880227 3.4471516e-06
5.5286167e-05 4.3218464e-05 3.7179238e-05 9.272591e-05 0.00018314712 9.200272e-05 0.00024611145 3.2082542e-05
0.00012386935 0.000106001724 0.00010262085 5.9091268e-05 4.7976126e-05 8.107759e-05 0.00014640657 0.00031424715
8.492761e-06 0.000100768615 8.59687e-05 0.00025777344 0.0001670615 9.554846e-05 6.478522e-05 8.9691726e-05
5.385203e-05 2.1838861e-05 0.00035360258 0.00012564723 0.00012300306 0.000110255205 3.507602e-05 0.00011520125
0.00019331822 3.0389412e-05 0.00012839392 3.812484e-05 0.00021264407 5.3517855e-05 0.0002708357 0.00029171183
4.8924547e-05 5.6465346e-05 0.000120110395 8.8463836e-05 0.00010259596 8.2832215e-05 8.522755e-05 1.899302e-05
4.4352862e-05 1.834979e-05 2.9815634e-05 6.872416e-05 0.00022916884 6.172168e-05 0.0002327052 0.00019244851
0.00021907319 0.00035186732 0.00017025293 0.0001371281 0.00013702449 0.00031515516 0.001534607 0.00020767302
0.00041223658 0.0006212415 0.0003335504 0.0003058996 0.00026790742 0.00034733556 0.0011891256 8.4325875e-05
0.00020326031 0.0004557672 0.00086784654 0.00045568854 0.00010240173 0.00018151132 0.00017211626 0.0013475006
0.00021275124 0.00022327465 0.00011423862 0.0012827212 0.0001431075 0.00022315439 0.000588292 6.965315e-05
0.000623726 4.123839e-05 0.0012762349 0.00016958015 0.000605434 0.00076008047 0.000118640135 8.479939e-05
6.734373e-05 0.0011450944 0.000113300084 0.00017714688 0.00019282314 0.00022151071 0.0014117477 0.0014260755
0.000506946 0.00036127583 0.00026127312 0.00015779481 0.0008730639 0.00064566015 0.00010551372 0.00035639753
0.000656947 0.0004723265 1.3280587e-05 0.00039175586 0.00075657386 0.00040692475 0.0015307752 0.0003626093
0.00015722949 0.00021759926 1.5382773e-05 0.00014584382 0.00016997573 3.118361e-05 0.00036727634 7.9322235e-06
9.186883e-05 8.121106e-05 7.859376e-05 0.00013938491 0.00024397673 0.00015915354 0.0003165701 4.7180027e-05
0.00023258872 0.00022838627 0.0001422509 9.8391785e-05 8.5061976e-05 0.0001677185 0.0002601265 0.00040319288
1.852254e-05 0.00020945202 0.00014366247 0.00034456197 0.00020875306 0.00019254354 8.819483e-05 0.00012232456
7.1464834e-05 3.517338e-05 0.000461037 0.00023056287 0.00017355096 0.00017779178 7.8819605e-05 0.00014429312
0.0002922703 4.1313695e-05 0.00018681416 8.990407e-05 0.00027141385 0.00012454526 0.00035028742 0.0003881779
7.1522176e-05 0.00012911203 0.00024360225 0.0001665594 0.00015268961 0.00015140779 0.00012854722 2.7169186e-05
6.82163e-05 3.9809915e-05 3.678418e-05 8.7941124e-05 0.00028692462 8.449569e-05 0.0003100237 0.00023803115

exp_avg f4 [64]
00000000: 37b1 fab9 d4ad 9aba 1b82 6a39 88fd 9b39
00000010: 2005 51b8 0266 cd39 3700 bab5 fb2d 1a3a
00000020: 2b41 3f39 05f2 edba 63c2 243a e440 a23a
00000030: e2a6 0539 8096 b5ba 4f28 9bb9 0a59 ad3a
00000040: 9079 5c3a 4068 7e39 c5d5 1939 1947 b638
00000050: 2003 bbba 922a a0b6 0272 d7b7 6017 66ba
00000060: 205e ad38 c686 99b9 2af7 37ba abdd e8b7
00000070: d65a f439 90e8 e338 2b0b b3ba 620c e139
00000080: 5cec 4239 66bd 4839 e2f3 3db9 81ce 3d39
00000090: cdb8 44ba 6520 88ba fd00 5339 4ec2 1eba
000000a0: 9f6e 7aba 5050 ea3a de32 77ba 3b33 8239
000000b0: 683a e039 da05 323a c06d 1aba f7fc 5bba
000000c0: 75b2 66ba 299c 873a 7b56 573a 68af 18ba
000000d0: fd6b d439 a0d6 7139 bb09 86b6 c10b a2b9
000000e0: ce5c cdb9 12b9 013b 37cc 2bba 52bd 863a
000000f0: f718 c63a fa8b 2d3a 3de5 9339 fa1d 8ab9
-0.0004781575 -0.0011801072 0.00022364447 0.000297528 -4.9834256e-05 0.0003917665 -1.3858142e-06 0.00058814854
0.00018239456 -0.0018153792 0.00062850694 0.0012378958 0.00012746037 -0.0013854057 -0.00029593936 0.0013225388
0.0008410448 0.00024262164 0.00014670852 8.691679e-05 -0.0014267899 -4.7733274e-06 -2.5683086e-05 -0.0008777287
8.266815e-05 -0.00029282848 -0.00070177263 -2.7759777e-05 0.00046606985 0.000108675216 -0.0013659945 0.0004292457
0.00018589332 0.00019144043 -0.00018115298 0.00018101373 -0.0007504344 -0.0010385631 0.00020122896 -0.00060561753
-0.0009553227 0.0017876718 -0.0009429882 0.00024833702 0.00042768125 0.0006791033 -0.0005890988 -0.0008391882
-0.0008800396 0.0010346222 0.0008214486 -0.00058244774 0.0004051625 0.00023063505 -3.994644e-06 -0.00030907805
-0.00039169792 0.0019794148 -0.00065535627 0.001027981 0.0015113641 0.00066202844 0.0002820882 -0.00026343745

exp_avg_sq f4 [64]
00000000: 33a1 fe39 4438 283a 29d2 a239 940c b239
00000010: 2d4b e337 93e9 d43a 4903 963a c73a 053a
00000020: 87f5 a938 a43e 1f3b 7f77 1639 dd37 1d39
00000030: 188c 8c39 7213 833a 2eca d138 6e2d 8438
00000040: 3ecd 8939 de60 8e3a e133 6a3a e045 423a
00000050: 20b0 8738 9940 4439 cbbb a638 d17c ad3a
00000060: b957 2539 8880 4139 2a31 2038 3a6d 9438
00000070: 54db 3a38 ed0e 2139 7fc8 033a 99a3 6c39
00000080: 316b fd39 316f e035 4d62 a938 1ea0 c237
00000090: 4e0e 2b3a 7edd 0f3a 6769 9b39 b8cb 203a
000000a0: 9f8e b838 d028 593a ee19 0c3b 6add 1f3a
000000b0: 35d5 3c38 47e3 ff39 894e 1e39 cc4f 603a
000000c0: 44d8 9a3a 1267 d439 1d3a 963a 24c8 ee39
000000d0: 7f93 a139 75d8 0539 865b 773a 9bb9 283a
000000e0: b9b7 063a 3523 673a b397 7037 2237 bb39
000000f0: 7d53 3c3a 6613 e83a 01c8 923a 3031 4f38
0.00048566758 0.00064170756 0.0003105563 0.00033960177 2.7095515e-05 0.0016243927 0.0011445071 0.0005082306
8.104281e-05 0.0024298811 0.0001434963 0.00014993497 0.0002680726 0.0010000302 0.000100035555 6.3027124e-05
0.00026283594 0.0010862609 0.0008934122 0.0007410925 6.4701075e-05 0.00018716081 7.950476e-05 0.0013236051
0.00015768305 0.00018453796 3.819276e-05 7.077535e-05 4.455012e-05 0.00015359717 0.00050271297 0.00022567659
0.00048335784 1.6721661e-06 8.076858e-05 2.3201163e-05 0.0006525264 0.0005488022 0.00029642435 0.0006133872
8.800369e-05 0.00082839746 0.002137776 0.0006098362 4.5021257e-05 0.00048806725 0.00015097311 0.00085568125
0.001181372 0.00040512584 0.0011461411 0.00045544014 0.00030818206 0.00012764505 0.00094359403 0.0006436349
0.0005139071 0.0008817197 1.4340435e-05 0.00035708497 0.00071840716 0.0017705976 0.0011198522 4.9398455e-05
