results/energy/checkpoints/A04_H064_L02_D01_Tanh_W4096_P010000_V-2.00e+01_S5.00e-01_Adam_PT_False_device_cuda_dtype_float32_chkp.pt (torch, 202359 bytes, 23 tensors)

layers.0.fc.weight f4 [64, 2]
0	0x3d4c7257	0.04991373
1	0x3ec5c5af	0.38627383
2	0xbf2ff5d7	-0.68734497
3	0xbe2942a0	-0.16529322
4	0xbeaac8e2	-0.33356386
5	0x3e34e400	0.176651
6	0xbcc432c3	-0.023949986
7	0x3f109419	0.5647598
8	0xbe1d1c75	-0.15342887
9	0x3e23d11a	0.15997735
10	0xbea94196	-0.3305785
11	0x3b74bb87	0.003734322
12	0xbf4830bc	-0.7819936
13	0xbde8b489	-0.11362559
14	0xbeb09a0c	-0.34492528
15	0x3e407129	0.18793167
16	0x3e9ba259	0.303973
17	0x3e631d58	0.22179163
18	0xbf1837e6	-0.59460294
19	0xbd0958ef	-0.03353208
20	0x3ea88953	0.3291727
21	0x3e2cf1b8	0.16889083
22	0xbe8d74db	-0.27628216
23	0x3ec79bf5	0.38986173
24	0xbd6737eb	-0.056449812
25	0x3c5999dc	0.013281312
26	0x3f5104bc	0.8164785
27	0xbee2f6b9	-0.4432886
28	0xbf0a17af	-0.5394239
29	0xbdc03e6e	-0.093869075
30	0xbec2e668	-0.3806641
31	0x3f16bfcd	0.58886415
32	0xbf1703c1	-0.58990103
33	0xbd299b8e	-0.041408114
34	0xbf06ad39	-0.52608067
35	0xbeddb36e	-0.43300956
36	0xbf05b3a1	-0.52227217
37	0x3ede4802	0.43414313
38	0x3ea7c568	0.32767797
39	0x3e42a214	0.1900714
40	0x3dff2f00	0.124601364
41	0xbe95caca	-0.29256278
42	0x3e2e6de7	0.17034112
43	0xbf3eab5f	-0.7448024
44	0xbf26a489	-0.6509481
45	0x3cdfc59b	0.027315905
46	0x3f03c2ab	0.51468915
47	0x3e70f3be	0.2353048
48	0xbebf1fe5	-0.3732902
49	0x3e290dd8	0.16509187
50	0x3ec66fb3	0.38757095
51	0x3e9cba09	0.30610684
52	0x3ea3453e	0.31888765
53	0x3d4c3b7f	0.049861427
54	0x3f1bdf8e	0.6088799
55	0xbe5be41f	-0.2147374
56	0x3e0e8e2f	0.13921426
57	0xbe8f9259	-0.28041342
58	0xbf13804e	-0.5761765
59	0xbcaec563	-0.021334356
60	0x3ed5751e	0.41690916
61	0xbd62de62	-0.055387862
62	0xbedd32b2	-0.4320274
63	0x3ee381a9	0.4443486
64	0x3ed603b2	0.41799694
65	0xbd981843	-0.074265026
66	0xbe59bcf7	-0.2126349
67	0x3d934daa	0.071925476
68	0x3ef59b90	0.47970247
69	0x3f1b7a1c	0.607332
70	0xbf1a259d	-0.60213643
71	0xbe479625	-0.1949087
72	0x3ea6f0bf	0.3260555
73	0x3e94de74	0.29075968
74	0x3f51a702	0.8189546
75	0x3df284af	0.11841714
76	0x3e6e9bad	0.23301573
77	0xbf0a93e9	-0.54131943
78	0x3daefd4e	0.08544408
79	0xbee2e524	-0.44315445
80	0xbf340ba8	-0.70330286
81	0x3ea7c2fc	0.3276595
82	0x3f3fefc5	0.74975234
83	0xbee4eafd	-0.44710532
84	0x3e7d373f	0.24728106
85	0xbd9668fd	-0.07344244
86	0xbe41ae2a	-0.18914095
87	0xbe8074ee	-0.2508921
88	0x3e0b62be	0.13611886
89	0xbe82e19c	-0.2556275
90	0x3e688f39	0.22710885
91	0x3eb67d56	0.356425
92	0x3f290acb	0.66032094
93	0x3d173c8b	0.036922973
94	0xbf267bcf	-0.65032667
95	0xbe9b7ace	-0.3036713
96	0x3ec60a8a	0.38679916
97	0x3cd887f4	0.026432015
98	0xbf11c475	-0.56940395
99	0xbdcb84a2	-0.09937407
100	0x3f24550c	0.6419227
101	0x3e217505	0.15767296
102	0xbeb990bc	-0.36243236
103	0xbdef60b5	-0.11688367
104	0xbf743d90	-0.95406437
105	0x3e1d9b45	0.15391262
106	0xbf30ce49	-0.69064766
107	0xbe61c8e4	-0.2204929
108	0x3dd1bc38	0.10240978
109	0x3dc605f4	0.09669104
110	0xbeb7da9c	-0.35908973
111	0x3eaf1506	0.34195727
112	0xbefe043d	-0.4961261
113	0x3f0c07d5	0.5469945
114	0x3f2bf6b5	0.6717332
115	0xbeb0df9b	-0.34545597
116	0xbe25c9a0	-0.16190195
117	0x3db0699b	0.08613893
118	0x3e92ecb5	0.28696218
119	0x3d7319cd	0.059350777
120	0x3eb29e88	0.34886575
121	0x3e1a9f65	0.15099867
122	0xbec8f95a	-0.3925274
123	0x3e960362	0.29299456
124	0xbf5c9a72	-0.86173165
125	0x3dc5ea43	0.096638225
126	0xbe48b92c	-0.19601887
127	0xbe44c713	-0.19216566

layers.0.fc.bias f4 [64]
0	0xbe86b972	-0.2631336
1	0xbf138e0b	-0.57638615
2	0xbe1cc609	-0.1530992
3	0x3e1ced09	0.15324797
4	0xbef5b8ef	-0.47992656
5	0xbca094b6	-0.01960216
6	0x3f134817	0.57531875
7	0xbdd654e4	-0.1046541
8	0xbb3d3ccc	-0.002887535
9	0xbd99756d	-0.074931
10	0x3e08c0b7	0.13354765
11	0x3f0dd643	0.5540506
12	0x3f3a727a	0.7283093
13	0x3f13cce1	0.57734495
14	0x3f2fa9f8	0.68618727
15	0xbd59f0b8	-0.053208083
16	0xbf3afbcb	-0.73040456
17	0xbeb0c526	-0.34525412
18	0x3f00a26a	0.50247824
19	0xbc6a4ff2	-0.014301287
20	0xbecda15b	-0.40162167
21	0xbf0cc55a	-0.54988635
22	0xbf4887d3	-0.7833225
23	0xbf452b09	-0.7701879
24	0xbe16da3c	-0.14731687
25	0x3f1a2d40	0.60225296
26	0x3f07d065	0.5305236
27	0xbf56e22e	-0.8393887
28	0x3f1579aa	0.5838877
29	0xbf14f434	-0.58185124
30	0xbe0637fa	-0.13107291
31	0xbeeeb703	-0.46624002
32	0xbe273ad2	-0.16331032
33	0xbe3419a4	-0.17587906
34	0xbf281808	-0.6566167
35	0xbf2278f3	-0.63465804
36	0xbe4038a4	-0.18771607
37	0xbd6445b2	-0.05573053
38	0xbea66d00	-0.32505035
39	0x3e9d7dbf	0.3076
40	0xbf61a951	-0.8814898
41	0xbdddda13	-0.1083261
42	0x3f23d815	0.6400159
43	0xbe9775a1	-0.2958193
44	0x3f3a12bb	0.7268483
45	0x3ea79f11	0.32738546
46	0xbf35d46a	-0.71027243
47	0x3f08fde0	0.5351238
48	0xbdb0aaae	-0.086263046
49	0xbebafbc9	-0.36520222
50	0x3f2f5e34	0.6850312
51	0xbf140de9	-0.57833725
52	0x3daecf71	0.0853566
53	0xbdd79be7	-0.10527783
54	0x3f043559	0.516439
55	0x3e5f32fb	0.21796791
56	0x3eb272c0	0.34853172
57	0x3e5d6132	0.21619108
58	0xbe4f2310	-0.20228219
59	0xbe5b21b9	-0.21399583
60	0xbf1c4771	-0.6104651
61	0x3ec6fd68	0.3886521
62	0x3f070001	0.5273438
63	0x3f11e736	0.56993425

layers.1.fc.weight f4 [64, 128]
0	0xbd584b86	-0.0528064
1	0x3cf8eeb9	0.03038727
2	0xbd0cb4e8	-0.034352213
3	0xbdaaf2ee	-0.083471164
4	0xbd08d1e4	-0.033403292
5	0x3d47e7c9	0.048805032
6	0xbcec69f7	-0.028859122
7	0x3c986882	0.01860452
8	0xbc46c16e	-0.012131078
9	0x3d9e3f61	0.07726932
10	0xbdc8e84a	-0.098099306
11	0xbd8deda9	-0.06930096
12	0xbd80a880	-0.06282139
13	0x3d2f54d3	0.042805504
14	0xbcb985fd	-0.022646898
15	0x3daba129	0.08380348
16	0x3d422481	0.047398094
17	0x3d8fd43a	0.07022901
18	0x3c1015ce	0.008794261
19	0xbd061f8f	-0.03274494
20	0x3ccc56a9	0.024943667
21	0xbc5c5437	-0.013447813
22	0x3c184ae2	0.009295197
23	0x3b80d644	0.0039317925
24	0xbcee9e2c	-0.029128157
25	0xbddaca61	-0.10683132
26	0x3cb9701a	0.022636462
27	0xbdad68de	-0.084672675
28	0xbce97104	-0.028496273
29	0x3de7724f	0.113010995
30	0x3cc063f3	0.02348516
31	0x3cf4cbe7	0.029882384
32	0xbdb2dc20	-0.08733392
33	0x3d65b3a8	0.056079537
34	0xbd823c39	-0.06359143
35	0x3c3abd0e	0.011397613
36	0xbd1605f1	-0.03662676
37	0xbd1da064	-0.03848304
38	0x3c1c2ff5	0.009532918
39	0x3d788b0c	0.06067948
40	0x3c97fafc	0.018552296
41	0x3d9003a6	0.07031946
42	0x3d0a6053	0.03378327
43	0xbbfe1aa4	-0.0077546407
44	0x3c8eb2db	0.01741927
45	0xbded6571	-0.11591614
46	0xbd58b495	-0.05290659
47	0x3d361a74	0.04445882
48	0x3c9178c1	0.017757775
49	0x3dcd3ee1	0.10021759
50	0xbd65a019	-0.056060884
51	0x3cf9635a	0.030442882
52	0x3d99fffd	0.07519529
53	0xbd7d468d	-0.06183486
54	0x3d47079a	0.048591234
55	0xbd945a0a	-0.07243736
56	0x3b83ab06	0.0040181903
57	0xbd0d347a	-0.034473874
58	0xbbdac07b	-0.0066757775
59	0x3c68179c	0.014165785
60	0x3d98afff	0.074554436
61	0xbcb74674	-0.022372462
62	0xbcb3746c	-0.0219061
63	0xbd20023a	-0.039064623
64	0xbda6882f	-0.08131444
65	0x3d13afa2	0.03605617
66	0xbd3fe0bd	-0.046845187
67	0xbdc7f778	-0.09763998
68	0xbd180cf6	-0.037121736
69	0x3d5a4643	0.053289663
70	0x3d3b24f9	0.045689557
71	0x3d91cca4	0.0711911
72	0x3cd0d901	0.0254941
73	0xbcc9abbc	-0.024618022
74	0xbcd5d7ce	-0.02610388
75	0x3cc792a8	0.024361923
76	0x3d6bcd22	0.057568677
77	0x3ca630a8	0.020286873
78	0xbd083ccf	-0.033261117
79	0xbd1d010f	-0.038331088
80	0xbdc470fa	-0.09591861
81	0x3c928e17	0.01789002
82	0xbd0d74f1	-0.034535352
83	0xbda6ec99	-0.08150596
84	0x3db578f1	0.08860958
85	0xbd48c6f1	-0.04901785
86	0xbcbcd09b	-0.02304869
87	0x3c89fd50	0.016844422
88	0xbb875f90	-0.004131265
89	0xbd659f72	-0.056060262
90	0xbd918f96	-0.07107465
91	0x3d656aec	0.05601017
92	0x3b9e0c01	0.0048232083
93	0x3d8040ab	0.062623344
94	0xbd0f7762	-0.03502596
95	0x3c57c842	0.013170304
96	0xbd00e111	-0.03146464
97	0x3c25dfc7	0.010124153
98	0xbd6d3ad9	-0.05791745
99	0x3cac4182	0.02102733
100	0x3cc710fa	0.024300087
101	0xbc37eeb3	-0.011226344
102	0xbc86c0d5	-0.016449371
103	0xbd7c2d1e	-0.061566465
104	0x3d36e319	0.04465017
105	0xbe086717	-0.13320576
106	0x3d0da002	0.034576423
107	0xbca33e3d	-0.019927138
108	0xbd5a2f2c	-0.053267643
109	0x3bd419e4	0.006472813
110	0xbd5d34cb	-0.054005425
111	0x3ca4fe61	0.020140829
112	0x3c28cc07	0.01030255
113	0xbd94ff7c	-0.07275292
114	0x3cd3d925	0.025860379
115	0x3d02ab25	0.031901497
116	0x3d7c6b3a	0.061625697
117	0xbbdc69af	-0.0067264657
118	0xbdaa87a5	-0.083266534
119	0xba8d23d0	-0.0010768119
120	0x3d460d64	0.048352614
121	0xbd0fc57c	-0.035100445
122	0x3d44f23d	0.04808258
123	0x3d6d02e5	0.05786409
124	0xbd59c532	-0.053166576
125	0x3c008704	0.00784469
126	0x3d0ff0b6	0.03514167
127	0x39ac1f1b	0.00032829572
128	0xbc1aab7d	-0.0094403
129	0x3db1fe19	0.086910434
130	0xbcdd6288	-0.027024522
131	0x3d2fe8e8	0.042946726
132	0x3d2da7b5	0.042396266
133	0x3de8a9f5	0.11360542
134	0x3d36b2f6	0.044604264
135	0x3d432e84	0.047651783
136	0x3c85b357	0.016320867
137	0x3a09c6c8	0.0005255756
138	0xbdd16d7f	-0.10225963
139	0xbd5d0b0e	-0.05396562
140	0x3ddc7028	0.107635796
141	0xbd173e73	-0.03692479
142	0xbd85cd5b	-0.06533309
143	0x3d9b5757	0.07585018
144	0x3e119a41	0.14219
145	0x3e0c93cf	0.1372826
146	0x3d9f3d8e	0.077754125
147	0x3d2a3245	0.041551847
148	0xbd4ba8f5	-0.049721677
149	0xbd3a762b	-0.04552285
150	0x3e24928d	0.1607153
151	0x3d5be5c6	0.053685926
152	0xbc228ac4	-0.00992078
153	0x3d093bbc	0.033504233
154	0x3cf058fd	0.029339308
155	0x3d7aadb9	0.06120083
156	0xbd379c3f	-0.044826742
157	0x3dd6cbdd	0.104881026
158	0xbd5c8a97	-0.053843107
159	0x3e033d31	0.12816311
160	0xbd19e15f	-0.037568446
161	0x3cc04947	0.023472441
162	0x3c622a7b	0.013804073
163	0x3dd8c9bf	0.10585355
164	0xbd463eb6	-0.04839965
165	0x3af7ca96	0.001890498
166	0xbdab9e31	-0.08379782
167	0x3ceacb36	0.028661352
168	0x3d008b70	0.031382978
169	0xbdea9d23	-0.11455753
170	0xbd6a7cbd	-0.057247866
171	0x3d40c31f	0.047061082
172	0x3d5d3892	0.054009028
173	0x3d9587ca	0.0730129
174	0x3da9fb26	0.08299856
175	0xbda576a4	-0.080792695
176	0xbdb0ba97	-0.08629339
177	0x3d4b2a9e	0.04960119
178	0xbe12e6de	-0.14345881
179	0x3dacec6c	0.084435314
180	0xbce13a52	-0.02749363
181	0x3bdb1c8f	0.006686754
182	0xbd901a64	-0.070362836
183	0xbcfa0231	-0.030518623
184	0x3da69d7a	0.08135505
185	0x3c1138ad	0.00886361
186	0x3d88b59c	0.06675264
187	0x3d10a041	0.03530908
188	0x3d82e30f	0.06390964
189	0xbbfc039e	-0.007690861
190	0x3ccad79e	0.024761017
191	0x3dc90fd2	0.098174706
192	0x3caa36f3	0.020778155
193	0x3d98e7e5	0.07466105
194	0x3d0d5972	0.03450913
195	0x3dbce4a7	0.092232995
196	0xbd4ee8a4	-0.050514832
197	0x3c177c7e	0.00924599
198	0x3ca17bc0	0.019712329
199	0xbd0e8c22	-0.03480161
200	0x3c7eb2a8	0.015545525
201	0xbda828c5	-0.08210901
202	0xbd1639cc	-0.036676213
203	0x3d977d7a	0.0739698
204	0x3dabc767	0.08387642
205	0x3abe6be7	0.0014528007
206	0xbd471b72	-0.04861016
207	0x3d89f0f0	0.06735408
208	0x3d597398	0.053088754
209	0xbc2c10ed	-0.010502082
210	0xbd236a87	-0.039896514
211	0x3e1d1fb0	0.15344119
212	0x3c8d438e	0.017244127
213	0xbda2d242	-0.0795026
214	0x3da5c89f	0.08094906
215	0x3d94476b	0.072401844
216	0xbd303be3	-0.043025862
217	0x3d38e59a	0.04514084
218	0xbd25afc4	-0.040450826
219	0xbc480cc7	-0.012210078
220	0x3dbb2cb9	0.091393895
221	0xba17db9a	-0.0005792916
222	0xbd6b7b8d	-0.057490874
223	0xbcd219ed	-0.025647128
224	0xbcb76812	-0.022388492
225	0xbd2dd90c	-0.04244332
226	0x3c66d435	0.01408868
227	0x3da53ee9	0.0806864
228	0x3d2a091a	0.041512586
229	0xbcb9a8da	-0.022663523
230	0xbc23461e	-0.009965448
231	0x3d6121f4	0.05496402
232	0x3d540bab	0.05176894
233	0xbdb3f5ef	-0.087871425
234	0xba032c23	-0.00050038303
235	0xbdaa3d1e	-0.083124384
236	0xbcb1a4c0	-0.021685004
237	0x3d3aa42e	0.04556673
238	0xbd82ca55	-0.06386248
239	0x3d044593	0.032292914
240	0x3dac4ff1	0.08413685
241	0xbb468585	-0.0030291986
242	0xbd6d351a	-0.05791197
243	0xbd24e411	-0.040256564
244	0x3d315e35	0.043302733
245	0xbdd4f376	-0.10397999
246	0x3d7d9c91	0.06191689
247	0xbd99bb18	-0.075063884
248	0xbdaf9949	-0.08574159
249	0xbd94cd27	-0.07265692
250	0xbd1bc02a	-0.03802506
251	0x3d57c8ac	0.05268161
252	0xbdb809a0	-0.08986211
253	0x3da774df	0.08176588
254	0xbc84c95b	-0.016209295
255	0x3d173d93	0.036923956

layers.1.fc.bias f4 [64]
0	0x3d4fde78	0.050749272
1	0x3c65cbcc	0.01402564
2	0xbd4125c1	-0.047155146
3	0x3b0e6e43	0.0021733202
4	0xbc6d8426	-0.014496839
5	0x3cde9b51	0.02717367
6	0x3d080054	0.033203438
7	0x3cf3e32e	0.029771414
8	0xbd8fbb99	-0.07018203
9	0x3da4ac2f	0.08040654
10	0x3dbc3745	0.09190229
11	0xbc54b11b	-0.012981678
12	0x3dc45545	0.09586576
13	0xbd296c34	-0.041362956
14	0xbdd5179d	-0.104048945
15	0x3d5478cd	0.051873017
16	0xbcba2d50	-0.022726685
17	0xbcaa1f8d	-0.020766998
18	0xbd81dcc3	-0.06340935
19	0xbcb89669	-0.022532659
20	0xbd158ad5	-0.036509354
21	0xbcf6d53a	-0.030130971
22	0x3cd57e93	0.026061332
23	0x3dba38ea	0.09092887
24	0x3cea5d62	0.028608982
25	0xbdba90c0	-0.0910964
26	0xbd7cdc3e	-0.061733477
27	0x3c611b90	0.013739482
28	0x3db03d93	0.08605494
29	0x3d716a11	0.058939043
30	0x3da3be66	0.079953
31	0xbd8dce9f	-0.069241755
32	0x3dca245e	0.09870218
33	0x3ea3e859	0.32013205
34	0xbd95307f	-0.072846405
35	0xbe3453a0	-0.17610025
36	0xbd9e10e5	-0.07718066
37	0x3cb804c5	0.022463212
38	0x3bae39e0	0.005316958
39	0xbda0eae6	-0.07857303
40	0x3dcc6a87	0.09981256
41	0x3d62d690	0.055380404
42	0xbd14b248	-0.036302835
43	0xbd6ec76b	-0.05829565
44	0xbd516571	-0.051122133
45	0x3d7d3ba0	0.06182444
46	0x3dab9983	0.083788894
47	0xbd09b323	-0.033618104
48	0xbd608be7	-0.05482092
49	0x3d265a06	0.040613197
50	0xbd87b9e7	-0.06627255
51	0xbda56dba	-0.08077569
52	0x3dae0e98	0.08498877
53	0x3d685ee9	0.05673114
54	0xbca4f662	-0.020137016
55	0x3c09c85a	0.008409584
56	0x3d9061df	0.070499174
57	0xbdd31cc5	-0.10308222
58	0x3d9fe2d8	0.07806939
59	0xbdb1b025	-0.08676175
60	0xbd82a250	-0.06378615
61	0x3dc86504	0.09784892
62	0xbdc05e01	-0.0939293
63	0xbc045c3e	-0.008078633

layers.2.gsds.0.weight f4 [4, 64]
0	0x3d9562d5	0.07294241
1	0x3ddeeb40	0.10884714
2	0xbd434ade	-0.04767882
3	0x3dde1e17	0.10845583
4	0x3c167486	0.009183055
5	0xbdfe6136	-0.12420885
6	0xbdf49228	-0.119419396
7	0xbd95da5c	-0.07317039
8	0xbcc46c84	-0.023977526
9	0x3e062c38	0.13102806
10	0xbd9fbb85	-0.077994384
11	0xbcf2d2d0	-0.029641539
12	0x3dab30e2	0.08358933
13	0xbd4969d1	-0.04917318
14	0x3d720bdc	0.05909334
15	0xbc2e9bcc	-0.010657262
16	0xbd4762df	-0.048678275
17	0xbdce1c55	-0.10063998
18	0x3dcb84fa	0.09937473
19	0xbd8f5a6b	-0.06999668
20	0x3ccecba4	0.025243588
21	0x3d67f9a4	0.05663456
22	0xbb0e23d8	-0.0021688845
23	0xbcd9db1d	-0.02659374
24	0xbbdf532f	-0.006815336
25	0xbd2c1736	-0.042014323
26	0x3cdf3f34	0.027251817
27	0xbcf29d71	-0.02961609
28	0x3d364b54	0.044505432
29	0x3d003437	0.031299796
30	0x3ca129da	0.019673277
31	0xbd4abe91	-0.049498145
32	0xbd7a491f	-0.06110489
33	0xbabe8636	-0.0014535848
34	0x3cf3b907	0.029751314
35	0xb9c8b94f	-0.00038285038
36	0x3e01cddc	0.12676185
37	0x3da02dfe	0.07821272
38	0xbd44b0f1	-0.048020307
39	0x3db0ef15	0.08639351
40	0xbd7b5883	-0.06136371
41	0xbd093ec5	-0.033507127
42	0x3dcab01a	0.0989687
43	0xbdb2ffd8	-0.087402046
44	0x3bd9098f	0.006623454
45	0xbdd5b9b8	-0.10435814
46	0x3d8144e5	0.06311969
47	0x3dbe614a	0.092959
48	0x3df5645d	0.119820334
49	0xbd4a88d7	-0.049446907
50	0xbdf3f1d1	-0.11911357
51	0x3d9967ee	0.07490526
52	0xbd37ec45	-0.04490306
53	0xbd817e0b	-0.06322869
54	0xbda979e3	-0.08275201
55	0x3d9cdf01	0.07659722
56	0xbd1da343	-0.038485777
57	0xba3a1ee2	-0.0007099939
58	0xbc6c1ea3	-0.014411601
59	0x3c5ec17b	0.013595934
60	0xbd9eb894	-0.07750049
61	0x3defe47c	0.11713502
62	0xbdf2a923	-0.118486665
63	0xbc3ef590	-0.011655226
64	0xbd71f090	-0.05906731
65	0xbd9013cb	-0.07035025
66	0x3d944157	0.07239025
67	0x3e21b86b	0.15793006
68	0x3dc90f19	0.09817333
69	0x3d236f10	0.03990084
70	0x3daf73dc	0.0856702
71	0x3d9bb6e3	0.07603242
72	0xbe07bc60	-0.13255453
73	0xbd7b7988	-0.061395198
74	0x3d60efc2	0.05491615
75	0x3db44f3d	0.08804176
76	0x3dad4467	0.08460312
77	0x3b87440f	0.0041279863
78	0x3e15351f	0.14571045
79	0xbdb86510	-0.09003651
80	0x3c9cf3d6	0.019159239
81	0x3de027b9	0.109450765
82	0x3bf84bcc	0.007577395
83	0x3daa96ec	0.08329567
84	0x3e00b8bd	0.12570472
85	0xbdc23f6b	-0.09484752
86	0x3d9e6a1b	0.07735082
87	0x3d70bcb2	0.058773704
88	0x3d218025	0.03942885
89	0xbc87c798	-0.016574666
90	0x3d7c2643	0.061559927
91	0x3d253ab5	0.04033919
92	0x3db99e2d	0.09063373
93	0xbde06a3c	-0.109577626
94	0xbdea5f95	-0.11444012
95	0x3ddd3851	0.10801757
96	0x3dcada42	0.099049106
97	0xbc6b104d	-0.014347148
98	0x3dd9914e	0.10623418
99	0x3be1c2ee	0.0068896925
100	0x3d94462f	0.07239949
101	0xbd2093da	-0.039203502
102	0x3d868e19	0.06570072
103	0xbd4e2760	-0.05033052
104	0xbdb8a668	-0.090161145
105	0x3d040284	0.03222896
106	0xbd89d646	-0.067303225
107	0x3d711898	0.058861345
108	0xbcb6e3d5	-0.022325436
109	0xbcc4c75a	-0.02402084
110	0x3df79847	0.120895915
111	0x3db4be57	0.08825367
112	0xbdb3099d	-0.08742068
113	0x3d4a8847	0.04944637
114	0x3d630162	0.05542124
115	0xbd6c4eb5	-0.05769225
116	0x3c39e436	0.011345914
117	0xbdd518bb	-0.104051076
118	0xbd11b25b	-0.035570484
119	0xbdc2ae0d	-0.09505854
120	0x3dea958f	0.11454307
121	0x3d153845	0.036430616
122	0x3d9f28d1	0.07771457
123	0x3d944d26	0.072412774
124	0x3d1005ce	0.035161786
125	0x3d952a75	0.07283489
126	0x3d595181	0.053056244
127	0x3d69ae4f	0.057051
128	0xbd9b4e7e	-0.075833306
129	0x3e253a59	0.16135539
130	0xbd53a8be	-0.051674597
131	0xbec1872e	-0.37798446
132	0xbddb988d	-0.10722456
133	0x3e8f045b	0.2793301
134	0xbda2857a	-0.07935615
135	0xbdd2b45c	-0.10288307
136	0xbe79b984	-0.24387175
137	0x3e54510a	0.20734039
138	0xbe8a1034	-0.26965487
139	0xbbc0aae2	-0.005879746
140	0x3e343bab	0.17600887
141	0xbe34b059	-0.17645396
142	0xbd69fc41	-0.057125334
143	0xbce3ec0c	-0.027822517
144	0x3e0b0e8d	0.1357977
145	0xbd5deadb	-0.054179054
146	0xbdc24681	-0.09486104
147	0x3ccfe16b	0.025376042
148	0x3be83c4c	0.007087266
149	0x3d9df194	0.07712093
150	0x3dc1ce7b	0.09463211
151	0x3de347df	0.11097693
152	0xbbce28a3	-0.0062914654
153	0xbd78164e	-0.060568146
154	0x3e551e6a	0.20812383
155	0x3e0f8be2	0.14018205
156	0x3e2f55f8	0.17122638
157	0x3b819d2c	0.003955504
158	0xbdfa088b	-0.12208661
159	0xbda7da53	-0.08195939
160	0x3de717f2	0.11283864
161	0xbe3438cc	-0.17599791
162	0x3d4c119f	0.049821492
163	0xbe28259c	-0.16420597
164	0xbd9fee91	-0.07809175
165	0x3dad0088	0.08447367
166	0x3e0a36ae	0.13497421
167	0x3b89568e	0.0041912263
168	0x3e08bef9	0.133541
169	0x3ddb59c5	0.107104816
170	0x3e12c168	0.14331591
171	0x3d43d5b4	0.047811225
172	0x3e8b51a3	0.2721072
173	0x3e684854	0.22683841
174	0x3e10e76e	0.14150783
175	0x3c653146	0.0139887985
176	0x3e09ef37	0.1347016
177	0x3cf36db7	0.029715402
178	0x3e3cf14b	0.18451421
179	0xbc922384	-0.0178392
180	0xbdfb9959	-0.12285108
181	0x3dda9227	0.106724076
182	0xbd3c316b	-0.045945566
183	0xbd8574ce	-0.06516419
184	0xbd597f36	-0.053099833
185	0xba890d4c	-0.0010456233
186	0xbe04313e	-0.1290941
187	0xbd70d1f7	-0.058793988
188	0x3d24ae4b	0.04020528
189	0x3e7f5ff5	0.24938948
190	0xbe1f384b	-0.15548818
191	0x3e38506b	0.17999427
192	0x3dc17216	0.09445588
193	0x3e5e43bd	0.21705528
194	0x3e08e26f	0.13367628
195	0x3d135378	0.035968274
196	0xbd00ee24	-0.03147711
197	0xbe3082c8	-0.17237389
198	0xbcd3947a	-0.025827635
199	0xbe47ab81	-0.19499017
200	0x3c376c55	0.011195262
201	0x3e8cd12a	0.2750333
202	0x3e0b62e1	0.13611938
203	0xbe26bd0f	-0.16283058
204	0x3d65c658	0.05609736
205	0xbd75d7e9	-0.06002036
206	0x3cea1738	0.028575525
207	0xbdba754e	-0.09104405
208	0xbd16555f	-0.03670251
209	0x3d3614b0	0.044453323
210	0x3d1abef5	0.037779767
211	0x3e00900d	0.12554951
212	0x3dfe67a2	0.1242211
213	0xbcfd1df0	-0.030898064
214	0xbcdf7f2f	-0.027282326
215	0x3dd1df0c	0.10247621
216	0x3d87e509	0.06635482
217	0xbae4b6a3	-0.001744945
218	0x3ebb89c1	0.36628535
219	0x3e019c9c	0.12657398
220	0x3db51ac0	0.08842993
221	0xbd95a928	-0.073076546
222	0xbe560edf	-0.2090411
223	0xbd11a41a	-0.03555689
224	0x3e4ffa51	0.20310332
225	0xbe874721	-0.26421455
226	0xbd9e0e79	-0.07717604
227	0x3db5f53c	0.08884665
228	0x3ddbf61b	0.107403
229	0xbe140321	-0.14454319
230	0xbd0ba43a	-0.034092166
231	0x3de281fd	0.110599495
232	0xbe101f57	-0.14074455
233	0xbeb02f2b	-0.34410986
234	0x3e4c6fe0	0.19964552
235	0xbb06ce93	-0.0020569905
236	0xbecd14c4	-0.40054905
237	0x3cfb568b	0.030680915
238	0x3d3c5d58	0.045987457
239	0xbe5f5cf1	-0.21812798
240	0xbd5cd57d	-0.053914536
241	0xbe55498f	-0.20828842
242	0x3eb4100b	0.3516849
243	0x3e154ecd	0.14580841
244	0x3e46b315	0.19404252
245	0x3e802595	0.25028673
246	0x3e47a1d3	0.19495325
247	0xbd8187f7	-0.06324761
248	0xbd30964b	-0.04311208
249	0xbee1e6e1	-0.4412146
250	0x3eba0edb	0.3633946
251	0x3e03423e	0.12818238
252	0x3e96e955	0.29474893
253	0xbd668532	-0.05627937
254	0x3dd94b58	0.10610074
255	0x3d859dc2	0.065242305

layers.2.gsds.0.bias f4 [4]
0	0x3c9772f2	0.018487427
1	0xbcc3475a	-0.023837734
2	0x3e084632	0.13308027
3	0xbe034379	-0.12818708

log_envelope.log_envs.0.weight f4 [4, 1]
0	0x3f3964af	0.72419256
1	0x3f442e92	0.7663356
2	0x3f4d4b20	0.80192757
3	0x3f277e4e	0.654271

exp_avg f4 [64, 2]
0	0x3a965c21	0.0011471548
1	0xbabf06f4	-0.0014574216
2	0xbc4a32da	-0.0123412255
3	0xbc087ebb	-0.008330996
4	0x3b514af6	0.003193555
5	0xba43a03e	-0.00074625376
6	0x3bdf2771	0.0068101217
7	0x3a3c2719	0.0007177457
8	0x3b8251d1	0.0039770384
9	0xb8a89358	-8.038309e-05
10	0x3bd2de31	0.0064351787
11	0x3b2196a2	0.0024656435
12	0xbc10ae1a	-0.008830572
13	0xbbf202f4	-0.007385606
14	0x3bf1c9d0	0.0073787943
15	0xba26a1f7	-0.0006356532
16	0xbc0db0ed	-0.008648139
17	0xbb983a42	-0.0046456167
18	0x3bbb47c3	0.005715342
19	0x3a4976af	0.0007685227
20	0x3c0a6695	0.008447309
21	0x3bd6fb09	0.0065606874
22	0xb8a12180	-7.683318e-05
23	0x3b8c7560	0.004286453
24	0x3b111a6d	0.0022140995
25	0xba9073fe	-0.0011020896
26	0x3bb2c31d	0.005455388
27	0x3c109063	0.008823487
28	0x3b6e7cb8	0.0036390256
29	0xbb10083d	-0.0021977567
30	0x3b3b242c	0.0028555496
31	0xbb51b764	-0.0032000178
32	0x3b53915f	0.0032282693
33	0xbafdf062	-0.0019374008
34	0x3cb45888	0.022014871
35	0x3bf8b1e5	0.007589566
36	0x3bafe12f	0.00536742
37	0xbb1ad81c	-0.0023627346
38	0x3c236676	0.009973159
39	0x3be18798	0.006882619
40	0x3b53c2d5	0.0032312174
41	0xba810a0d	-0.0009844914
42	0xbbc92eb2	-0.0061395997
43	0xbb413396	-0.002948021
44	0x3b1e73cd	0.002417791
45	0xbb1c780c	-0.0023875264
46	0x3c414651	0.01179655
47	0x3b8fb769	0.004385878
48	0x3b9c7eb9	0.0047758487
49	0xbad72b1a	-0.0016416044
50	0xbafdb8b2	-0.0019357412
51	0xbb3adbf1	-0.0028512443
52	0xbd1633bc	-0.03667043
53	0xbbebd4f0	-0.007197015
54	0x3c16e664	0.009210203
55	0x3ba673a9	0.0050797057
56	0xbba30940	-0.004975468
57	0x3926cda5	0.00015907602
58	0xbca25063	-0.019813722
59	0xbc48eaef	-0.012263044
60	0xbc12600f	-0.008934035
61	0x3a51082f	0.0007973937
62	0x3c058c01	0.008151055
63	0xbab49f00	-0.0013780296
64	0x3c3cf6aa	0.011533419
65	0x3c2ce3c6	0.010552352
66	0x3c16850c	0.009186994
67	0x3a1b5464	0.0005925356
68	0xbae04d5c	-0.0017112899
69	0xba050203	-0.0005073847
70	0xb9ab5f67	-0.00032686742
71	0xbba1d862	-0.004939125
72	0x3c4e0113	0.012573498
73	0x3ba302f9	0.0049747196
74	0x3ada8ad6	0.0016673456
75	0xbab6bf78	-0.001394256
76	0x3bbe5b2f	0.00580921
77	0x3beedfe7	0.007289875
78	0xbb9b74ef	-0.004744164
79	0xbb202fa7	-0.0024442466
80	0x3c1121d3	0.008858162
81	0xb9c6abe2	-0.00037893566
82	0xbba91a18	-0.0051605813
83	0x39322366	0.0001698859
84	0xbccb3e92	-0.02481011
85	0xbb844f48	-0.0040377714
86	0x3c0827b2	0.008310245
87	0x3abbf43f	0.0014339759
88	0x3c2ef28a	0.010677943
89	0x3be2763a	0.0069110664
90	0xba389993	-0.00070419273
91	0xba0113aa	-0.00049238896
92	0x3c1bda01	0.009512425
93	0x3b9a507b	0.004709301
94	0xbb20b89c	-0.0024524098
95	0xbba4ad49	-0.00502554
96	0xbbab8720	-0.005234614
97	0x3a5215de	0.0008014123
98	0x3c0183c2	0.007904949
99	0x3a1b4fa6	0.00059246493
100	0x3cc657e0	0.024211824
101	0x3c47c992	0.012194054
102	0xbc9d5c35	-0.019209007
103	0xbbe5fa8e	-0.007018394
104	0x3b5741d0	0.0032845624
105	0xbb511be9	-0.0031907505
106	0x3b424125	0.002964088
107	0x3ab02781	0.0013439507
108	0xbbd3696f	-0.0064517776
109	0xba90b335	-0.0011039736
110	0xbc185c94	-0.009299416
111	0xbbf3622f	-0.007427476
112	0x3b37cfeb	0.0028047513
113	0xb9cc3803	-0.00038951644
114	0xbbcd9e1d	-0.006274952
115	0x39ab1b8d	0.0003263619
116	0x3986194d	0.00025577322
117	0xbbf7a81b	-0.0075578815
118	0x3c4f2c15	0.012644787
119	0x3b444955	0.0029950936
120	0x3cd5b701	0.02608824
121	0x3bb69362	0.0055717686
122	0x3be03096	0.0068417294
123	0x3ae1c680	0.0017225295
124	0xbc281121	-0.01025799
125	0xbc0ee531	-0.008721636
126	0x3c3486b1	0.011018441
127	0x3ad32ef9	0.0016112021

exp_avg_sq f4 [64, 2]
0	0x3ff5ee5d	1.9213368
1	0x3ce31055	0.027717749
2	0x3f5494c7	0.83039516
3	0x3c4c8392	0.012482541
4	0x3d098399	0.033572767
5	0x3bdb87bb	0.00669953
6	0x4028fa87	2.640291
7	0x3cf8663b	0.030322185
8	0x3c623ad5	0.013807972
9	0x3acc94a4	0.0015608263
10	0x3fedcc97	1.8578061
11	0x3d6f8f04	0.058486
12	0x3c8d6be7	0.017263366
13	0x3adb4320	0.0016728379
14	0x3f03c810	0.51477146
15	0x3c8d5c2b	0.017255863
16	0x3d398273	0.04529042
17	0x3c38a5ec	0.011270028
18	0x3edddb91	0.43331578
19	0x3c40ac67	0.011759854
20	0x3e2adb19	0.16685142
21	0x3bc2a511	0.0059400876
22	0x3e9130e3	0.2835761
23	0x3c1e358e	0.009656323
24	0x3ebdcbde	0.370696
25	0x3c11d7fa	0.0089015905
26	0x3e0ae1f0	0.13562751
27	0x3b3d2f23	0.0028867207
28	0x3d07da91	0.033167426
29	0x3b87a073	0.004139
30	0x3ce4509e	0.027870473
31	0x3b90a9bd	0.0044147656
32	0x3edb236f	0.4280047
33	0x3bb1e58e	0.0054289764
34	0x3e279551	0.16365553
35	0x3c2c4edc	0.010516848
36	0x3e634dfc	0.22197717
37	0x3bb389bd	0.005479066
38	0x3e0c4cba	0.13701144
39	0x3cb1200e	0.02162173
40	0x3f2ed1cc	0.68288875
41	0x3caf0dc3	0.021368867
42	0x3e3f547c	0.18684572
43	0x3cb9fad0	0.022702605
44	0x3c990efb	0.018683901
45	0x3a9b2161	0.0011835509
46	0x3e14fd89	0.14549841
47	0x3ba62cc2	0.0050712535
48	0x3e1d9be0	0.15391493
49	0x3a4196df	0.0007384847
50	0x3c4b760d	0.012418282
51	0x39f4ed15	0.00046715947
52	0x3feac978	1.8342733
53	0x3d02a294	0.031893328
54	0x3dcc38c1	0.099717624
55	0x3b007ab9	0.0019604398
56	0x3df8e5f9	0.12153239
57	0x3b9da8e9	0.0048113954
58	0x3ce65b1a	0.028119612
59	0x3b5cce0b	0.0033692147
60	0x3d00df6b	0.031463068
61	0x3bd38af7	0.006455775
62	0x3db81e0b	0.08990105
63	0x39fcd980	0.00048227236
64	0x3d8a0d2d	0.06740794
65	0x3c96f48c	0.018427156
66	0x3ed149dd	0.40876666
67	0x3ca086ca	0.019595522
68	0x3d449eff	0.048003193
69	0x3abd6e9d	0.0014452521
70	0x3dc067f2	0.09394826
71	0x3b0f5c4e	0.0021875086
72	0x3f7b40f4	0.98145986
73	0x3cb664bb	0.022264829
74	0x3c005edf	0.007835119
75	0x3b949a9c	0.0045350324
76	0x3da9762d	0.08274493
77	0x3c076691	0.0082642
78	0x3fcbb7ec	1.5915504
79	0x3c537a6b	0.012907605
80	0x3fb31cc4	1.3993154
81	0x3c923598	0.017847821
82	0x3cd861af	0.026413767
83	0x3c860140	0.016358018
84	0x3fee97ff	1.8640136
85	0x3c9d1c98	0.019178674
86	0x3f638569	0.8887544
87	0x3c0bd10c	0.008533727
88	0x3fb78b80	1.4339447
89	0x3cbd3cb9	0.023100244
90	0x3fd89dab	1.6923116
91	0x3c984d43	0.018591529
92	0x3e1584de	0.14601466
93	0x3b2f0820	0.0026707724
94	0x3cdd4a20	0.027012885
95	0x3b33c89b	0.0027432803
96	0x3e9b2eb9	0.30309084
97	0x3c196176	0.009361615
98	0x3f0b0106	0.54298437
99	0x3c8c023c	0.01709091
100	0x3e33e302	0.17567065
101	0x3bc81473	0.0061059534
102	0x3fe48bf2	1.7855208
103	0x3ca56741	0.020190837
104	0x3b79509e	0.0038042436
105	0x3b4f9622	0.003167518
106	0x3be9ce13	0.0071351617
107	0x3afc6c7a	0.0019258403
108	0x3dd41e6e	0.103573665
109	0x3be342e1	0.006935463
110	0x3d08b699	0.033377264
111	0x3bc3340e	0.005957133
112	0x3de6857e	0.1125593
113	0x3a3350bc	0.00068403385
114	0x3e8251d4	0.25453055
115	0x3c3dad38	0.011576943
116	0x3f857a2b	1.0427908
117	0x3d0a21a5	0.033723492
118	0x3ec1ed71	0.37876466
119	0x3c93c0e8	0.01803632
120	0x3e122a4f	0.14273952
121	0x3c011c24	0.007880244
122	0x3e632b2b	0.22184436
123	0x3b3d6fd4	0.0028905766
124	0x3d084623	0.033270013
125	0x3a64ab37	0.0008723023
126	0x3d177c87	0.036983993
127	0x3b8082f2	0.00392186

exp_avg f4 [64]
0	0x3bb544a1	0.005531863
1	0xbba70925	-0.0050975257
2	0xbbf6e97a	-0.007535157
3	0xbc335d32	-0.010947512
4	0xbc331a7a	-0.0109316055
5	0x3c2a9d42	0.01041347
6	0xbb51ec8c	-0.0032031862
7	0x3ae55f99	0.0017499804
8	0x3b69a7a3	0.0035652898
9	0xbc508ad6	-0.012728414
10	0xbc8ab851	-0.016933592
11	0xbc087a20	-0.008329898
12	0x3be52a2b	0.006993552
13	0xbae1a0e6	-0.0017214089
14	0xbbb89c15	-0.005633841
15	0x3c27717e	0.01021993
16	0x39d1ec14	0.00040039478
17	0xbcf0f1bc	-0.029412143
18	0x3930f9d5	0.00016877738
19	0xbcd7dbe2	-0.026349965
20	0xbbe7f90f	-0.0070792506
21	0x3c08b355	0.008343537
22	0x3b073040	0.0020628124
23	0xbb9bff77	-0.0047606784
24	0x3b1dd5a8	0.0024083648
25	0xbb016ba8	-0.0019748006
26	0xbb93e5b8	-0.0045134686
27	0xbb464a8a	-0.003025683
28	0xbac28759	-0.0014841362
29	0x3c9df886	0.019283544
30	0x3c399ae3	0.011328432
31	0xbc1f32f7	-0.009716741
32	0xbc8579b6	-0.016293388
33	0xb9c93374	-0.00038376043
34	0xba7d6594	-0.00096663204
35	0xbbfd14c4	-0.0077234227
36	0xbbea023e	-0.0071413806
37	0x3c412450	0.011788443
38	0xbc549ae9	-0.012976387
39	0x3c7be06e	0.015373332
40	0x3c694b17	0.014239094
41	0x3cd54975	0.026036004
42	0x3c62dd09	0.013846644
43	0xbc0d9bde	-0.008643119
44	0x3b39de35	0.0028361205
45	0x38efd35d	0.000114357776
46	0xbad3e39b	-0.0016165854
47	0x3b5fed0f	0.0034168398
48	0x3c483728	0.0122201815
49	0xbba23382	-0.004949988
50	0xbccaeeaf	-0.024772016
51	0x3b8dfdcc	0.0043332335
52	0xbbba5cf3	-0.00568735
53	0xbbdc7bdf	-0.006728634
54	0x3b05d19d	0.0020419129
55	0x3c693b80	0.014235377
56	0xbbc955d7	-0.006144266
57	0x3c96b60a	0.01839735
58	0xbbd61c44	-0.0065341312
59	0xbc37a8ed	-0.011209709
60	0xbbba8164	-0.005691694
61	0x3ac1a260	0.0014773123
62	0xbc2d189f	-0.010564952
63	0xb99d0c62	-0.000299546

exp_avg_sq f4 [64]
0	0x3fdd5b6b	1.7293524
1	0x3f3c0228	0.7344079
2	0x3e82bc05	0.25534073
3	0x3f95edfa	1.171325
4	0x3ce604da	0.028078485
5	0x406a7c4e	3.663837
6	0x3da99de2	0.08282067
7	0x3f7c2d5a	0.985067
8	0x3f033ede	0.512678
9	0x3f1a63cd	0.60308534
10	0x3e469deb	0.19396178
11	0x3f10ba69	0.5653444
12	0x3e91a270	0.28444242
13	0x3dd08be6	0.101829335
14	0x3e689a65	0.22715147
15	0x3df11f05	0.11773495
16	0x3ec55cf3	0.38547477
17	0x3f054595	0.520593
18	0x3e814e07	0.25254843
19	0x3f3b7602	0.7322694
20	0x3f9587eb	1.1682104
21	0x3f9faf3b	1.2475351
22	0x3d9d157c	0.076701134
23	0x3de13e4c	0.1099821
24	0x3cd0f13e	0.025505658
25	0x3c88d795	0.01670436
26	0x3faae180	1.3350067
27	0x3d41ad47	0.04728439
28	0x3e008d51	0.12553908
29	0x3d420bd7	0.047374573
30	0x3e330838	0.17483604
31	0x3ca9ff87	0.020751728
32	0x3f562df0	0.83663845
33	0x3f0f94bf	0.56086344
34	0x3dd69dcf	0.10479318
35	0x3dcfed66	0.10152702
36	0x3f8b5261	1.0884515
37	0x3db0b912	0.08629049
38	0x3e590ab1	0.21195485
39	0x3f1d1280	0.61356354
40	0x3f6855dd	0.90756017
41	0x3f865231	1.0493833
42	0x3f857eda	1.0429337
43	0x3efea6cc	0.4973663
44	0x3f9f4bcd	1.2445008
45	0x3f8dfebe	1.1093366
46	0x3da68342	0.08130504
47	0x3e474c52	0.19462708
48	0x3edad6ce	0.42742008
49	0x3f7ee071	0.9956122
50	0x3e3ed879	0.18637265
51	0x3f9ec7e5	1.2404753
52	0x3db210a6	0.08694582
53	0x3db6e523	0.08930423
54	0x3ecbce84	0.39805996
55	0x3deb1a9b	0.11479684
56	0x3c93e62c	0.01805409
57	0x3ee73263	0.4515563
58	0x3f89d368	1.0767641
59	0x3f56af2a	0.8386103
60	0x3e1c6f23	0.1527677
61	0x3da151a9	0.078769036
62	0x3c967d4f	0.018370299
63	0x3e3c18bd	0.18368812

exp_avg f4 [64, 128]
0	0xba9f7ad2	-0.0012167341
1	0x3b7624c7	0.0037558542
2	0x3a6109f8	0.00085845543
3	0xba1c8dc9	-0.00059720554
4	0xba1c6108	-0.00059653865
5	0x3a9e306d	0.0012068875
6	0xb947116c	-0.00018984609
7	0x3a695dd5	0.00089022267
8	0xbabf6599	-0.0014602422
9	0x3b00abbf	0.0019633619
10	0xbacc7ba2	-0.001560081
11	0x3a53c90b	0.0008078969
12	0x3ac7d17e	0.0015244929
13	0xbb35e9ae	-0.0027757692
14	0x3988e52b	0.00026110685
15	0x392f8ad0	0.00016741012
16	0x3b421087	0.0029611902
17	0x3b561f7a	0.003267257
18	0x3993e455	0.00028208146
19	0xbac1570e	-0.0014750676
20	0xba32efb9	-0.00068258826
21	0xb8655d45	-5.468472e-05
22	0x3b52b732	0.003215265
23	0xb93112fc	-0.00016887108
24	0x3a8ad14c	0.001059094
25	0xbb0db685	-0.0021623683
26	0xba80f133	-0.0009837508
27	0xb925d751	-0.00015815838
28	0x3a873922	0.001031671
29	0x3b399c56	0.0028321943
30	0xba9819e8	-0.00116044
31	0x3a48b254	0.00076559675
32	0xba8fd159	-0.0010972425
33	0x39f3c6d5	0.00046496713
34	0x38fbb01e	0.00012001417
35	0x3b62845d	0.0034563758
36	0xbaaee6ce	-0.0013343932
37	0xbaefd1df	-0.0018296799
38	0xb95e19f5	-0.0002118124
39	0x3a82464c	0.0009939163
40	0x3b3e978a	0.0029082024
41	0xba0885ff	-0.0005207955
42	0x38d4bac0	0.00010143733
43	0x3a647bc1	0.00087159505
44	0x3aa25d57	0.0012387437
45	0xbaac07d3	-0.001312489
46	0x3910f27f	0.00013823247
47	0xb692fc17	-4.380486e-06
48	0xbaaa0fab	-0.001297464
49	0x3b34d0c5	0.0027590257
50	0xbb6ce296	-0.0036145798
51	0x3abeb3ab	0.0014549395
52	0x3a9d0a1a	0.001198116
53	0x3b27bf7a	0.0025596307
54	0x39eef85a	0.00045579934
55	0x3a1fe9d3	0.0006100211
56	0x3924844f	0.00015689548
57	0xbad43bf6	-0.0016192186
58	0x38ff548b	0.00012175095
59	0xba9822b2	-0.001160702
60	0xba80a6e1	-0.0009815359
61	0x3a35d4d2	0.0006936315
62	0xb8a2e36f	-7.767125e-05
63	0x3ab801ef	0.0014038662
64	0xba96f944	-0.0011518379
65	0x3af0357e	0.0018326489
66	0x38ace89b	8.244925e-05
67	0xba2a1e2e	-0.00064894825
68	0xba801656	-0.0009772282
69	0x3a265e67	0.00063464645
70	0x39e14b59	0.00042971483
71	0x392877b7	0.00016066326
72	0xba7c5799	-0.000962609
73	0x3aa3f831	0.001250988
74	0xba59a131	-0.00083019125
75	0x3a468f83	0.00075744855
76	0x3ac16738	0.0014755493
77	0xba46a48e	-0.0007577621
78	0x3a6e77f2	0.0009096853
79	0xba140468	-0.00056464085
80	0x3a4d702c	0.00078368443
81	0x3af10656	0.0018388729
82	0x3a134644	0.00056180754
83	0xba7ecd8a	-0.0009719959
84	0xba080db9	-0.0005190033
85	0x393a702a	0.00017780127
86	0x3a51d91e	0.000800507
87	0xba70ca6b	-0.0009185436
88	0x396e8422	0.00022746672
89	0xba45dea6	-0.0007548131
90	0x38ba966a	8.897188e-05
91	0xba7852e2	-0.00094728
92	0x3aae33a5	0.0013290538
93	0x3a736bff	0.0009285807
94	0xba55129e	-0.00081280794
95	0xba213f3a	-0.0006151084
96	0xba532257	-0.0008054128
97	0xb86acc3a	-5.598015e-05
98	0xba2bd208	-0.00065544294
99	0x3abdb3f0	0.0014473181
100	0xba922db5	-0.0011152538
101	0xbacc3dd0	-0.0015582386
102	0x38693e5e	5.5609613e-05
103	0x3a97229c	0.00115307
104	0x390ea2e1	0.00013602852
105	0xb9be820b	-0.00036336514
106	0x3a5d8646	0.0008450489
107	0x39b35835	0.0003420726
108	0x3ac4f7f3	0.0015027508
109	0xba26743e	-0.0006349719
110	0xba279a46	-0.0006393533
111	0x3a1ed010	0.00060582254
112	0xba65bfbd	-0.0008764228
113	0x3aaee365	0.0013342915
114	0xbabf3055	-0.0014586548
115	0x3939c843	0.00017717578
116	0x3aa275bf	0.001239471
117	0x3ae90e9e	0.0017780846
118	0x3a38b2c1	0.00070456794
119	0x39a8ff4f	0.00032233677
120	0x3911e641	0.00013914054
121	0xba1901f9	-0.0005836781
122	0xb98ed803	-0.00027245292
123	0xba747c7f	-0.00093264127
124	0xbaa4c3be	-0.0012570543
125	0x3a3231c8	0.0006797579
126	0x39ce74ac	0.0003937831
127	0x3ab9fc21	0.001418952
128	0x39be6fab	0.00036322823
129	0x3a7f8ff1	0.0009748927
130	0xba6bf70f	-0.0009001353
131	0xba9a8fe7	-0.0011792154
132	0x39b09468	0.00033679907
133	0xbaab31b3	-0.0013061076
134	0xbbceee5b	-0.0063150353
135	0xba99c850	-0.0011732671
136	0x3a97a8f2	0.0011570735
137	0xbb21800a	-0.0024642968
138	0x3a1e7dfd	0.00060459954
139	0xbb37e0a4	-0.002805748
140	0xbaa39f81	-0.0012483449
141	0x394c6917	0.00019494105
142	0xbba1717e	-0.0049268594
143	0xbb026a6a	-0.0019899854
144	0x3b1a9b9e	0.002359129
145	0x3892da0c	7.002437e-05
146	0xbb93d9e2	-0.0045120576
147	0x3ab25fed	0.001360891
148	0x3ad4bd08	0.0016230652
149	0x3b404ea6	0.0029343753
150	0x3b267db5	0.0025404517
151	0x3ba17d60	0.004928276
152	0xba8836a9	-0.0010392267
153	0xbb06bcef	-0.002055939
154	0xba93f7b2	-0.0011289029
155	0x3baa657e	0.005200087
156	0xb9d4e046	-0.00040602888
157	0x3aafbf2f	0.0013408418
158	0x3b25b1ba	0.0025282935
159	0x39371d13	0.00017463071
160	0x3b2f9dc4	0.0026796916
161	0xb9bfe0dd	-0.00036597895
162	0x3bac36c1	0.0052555506
163	0x3af27416	0.0018497731
164	0x3b0f9282	0.0021907394
165	0x3b92e37a	0.0044826837
166	0x3b254945	0.0025220674
167	0x39569d84	0.0002046731
168	0x3b374e66	0.0027970313
169	0x3b93ff7c	0.00451654
170	0xba82c03c	-0.0009975503
171	0x3a20ca87	0.00061336946
172	0xba366345	-0.00069575413
173	0xba5b1b87	-0.0008358289
174	0x3bbaf732	0.0057057375
175	0xbbbf3f7c	-0.0058364253
176	0x3b0a3a35	0.0021091823
177	0xb9322d3e	-0.00016992257
178	0xbb063d20	-0.002048321
179	0x3ac9f29d	0.0015407387
180	0xbbadc398	-0.0053028576
181	0xbb33c795	-0.0027432193
182	0xba61b66f	-0.00086102536
183	0xbb308622	-0.0026935418
184	0xbb87f992	-0.004149624
185	0x3b0e134a	0.0021678978
186	0xb96144dc	-0.00021483324
187	0x3afbfad1	0.0019224529
188	0x3b58c5c5	0.0033076864
189	0xbb5905bc	-0.003311499
190	0xbbccd3bd	-0.006250827
191	0xbafd163b	-0.0019308993
192	0x38aa8be4	8.132288e-05
193	0x3b62f958	0.0034633484
194	0x3a35ebeb	0.00069397566
195	0xba8a897f	-0.0010569541
196	0x3a59b97a	0.0008305531
197	0x3a23c81d	0.0006247776
198	0xbad650e9	-0.0016351017
199	0x3a19d766	0.00058685837
200	0xba3877fc	-0.0007036922
201	0x3ab14d62	0.001352709
202	0xba993dfd	-0.0011691448
203	0xbaa48e60	-0.0012554638
204	0xba87b80c	-0.0010354533
205	0xbb12c5bb	-0.0022395689
206	0xbad20e05	-0.0016025907
207	0xb9055d46	-0.00012718615
208	0x3b47b93b	0.0030475396
209	0x3b31fa19	0.0027157126
210	0xba9214f6	-0.0011145163
211	0xba31210b	-0.0006756938
212	0x3a81a21b	0.000989023
213	0x3b0e815f	0.0021744592
214	0x3b4b6d8c	0.0031040637
215	0x3afa6dd8	0.0019106222
216	0x3a527e92	0.00080297247
217	0xbb3a833a	-0.0028459565
218	0xbaedeed4	-0.0018152841
219	0x3aea4cec	0.0017875708
220	0xba587db6	-0.00082584785
221	0x3b34d3eb	0.0027592133
222	0xb97a39bb	-0.00023863364
223	0x3a99d294	0.0011735731
224	0xb8fc1742	-0.000120206285
225	0x3a22be89	0.00062082015
226	0x3b1beae1	0.0023791122
227	0x3b5ed492	0.0034001213
228	0xb74c07ae	-1.2161136e-05
229	0xba972ba3	-0.001153339
230	0x3aa2d7fa	0.0012423985
231	0xb94b73c5	-0.00019402716
232	0x3b29c2f3	0.0025903552
233	0xba10ecbc	-0.000552844
234	0xbab9e667	-0.0014183045
235	0x3ab6bca2	0.0013941715
236	0xba868800	-0.001026392
237	0xbae5adaf	-0.0017523075
238	0x3aece2fc	0.0018073018
239	0xbae4b1cc	-0.0017448007
240	0xb9d6ce7e	-0.0004097111
241	0x3b1f3f1f	0.0024299098
242	0xbb6591e8	-0.0035029594
243	0x3b10f550	0.0022118874
244	0x3aaf02e2	0.00133523
245	0x3ae7f761	0.0017697626
246	0xba9b21cc	-0.0011835634
247	0xb9ed0f94	-0.0004521577
248	0xba794399	-0.0009508669
249	0xbabc726a	-0.001437736
250	0x3a0908b7	0.0005227434
251	0x381afca1	3.695174e-05
252	0x3a91cda2	0.0011123905
253	0xba42bafb	-0.0007428375
254	0xba8ba526	-0.0010654076
255	0xba50d66d	-0.0007966522

exp_avg_sq f4 [64, 128]
0	0x3da1eb0e	0.07906161
1	0x3b11f900	0.002227366
2	0x3c39cff5	0.011341085
3	0x3c083068	0.008312322
4	0x3da5217e	0.08063029
5	0x3d3bfb21	0.045893792
6	0x3ecc4530	0.39896536
7	0x3cac1569	0.021006303
8	0x3d6278db	0.055291038
9	0x3d9bac1b	0.07601186
10	0x3cb59255	0.022164503
11	0x3e8a5379	0.2701681
12	0x3e94c432	0.29055935
13	0x3b72fbea	0.0037076422
14	0x3ee0ea97	0.43928978
15	0x3cd76629	0.026293831
16	0x3c82d5a3	0.01597101
17	0x3c5cdac6	0.013479894
18	0x3e9ed322	0.31020457
19	0x3d83d39d	0.064368464
20	0x3e0b8961	0.13626625
21	0x3e4d85bc	0.20070547
22	0x3c633d25	0.013869558
23	0x3ef5182f	0.47870013
24	0x3c92a2f7	0.017899973
25	0x3cc44fd7	0.023963852
26	0x3d016de5	0.031598944
27	0x3f00c319	0.50297695
28	0x3e0ceaee	0.13761494
29	0x3b8f5331	0.004373931
30	0x3dfb845d	0.12281106
31	0x3c0da51b	0.008645321
32	0x3e0d313f	0.13788317
33	0x3a9c4afc	0.0011924203
34	0x3ee08795	0.4385344
35	0x3b9dc781	0.0048150425
36	0x3e11a4ab	0.14222972
37	0x3e0cc78f	0.13748
38	0x3e041e41	0.12902166
39	0x3d4aa897	0.049477186
40	0x3ccf186b	0.025280198
41	0x3e081a6b	0.13291328
42	0x3dcb3b2a	0.09923394
43	0x3baff2ec	0.0053695347
44	0x3e546ddb	0.20745032
45	0x3b835921	0.0040084277
46	0x3eec5ef1	0.46166185
47	0x3ec58741	0.38579753
48	0x3dce161f	0.10062813
49	0x3c28fbba	0.010313923
50	0x3b92a217	0.004474889
51	0x3cf7b492	0.03023747
52	0x3e045a57	0.12925087
53	0x3da369ce	0.07979165
54	0x3dccc60b	0.09998711
55	0x3e0885bc	0.13332266
56	0x3e65f5a5	0.22456987
57	0x3d1501de	0.036378734
58	0x3b2b8988	0.0026174504
59	0x3e03c0bc	0.12866491
60	0x3eb7d2be	0.3590297
61	0x3e6cf344	0.23139673
62	0x3eb6932c	0.35659158
63	0x3e9010e8	0.28137898
64	0x3d80c20b	0.06287011
65	0x3d81c658	0.06336659
66	0x3c19a667	0.009378052
67	0x3bb79d8a	0.005603497
68	0x3e06867e	0.13137242
69	0x39a3a84f	0.00031215182
70	0x3dd5bab3	0.10436001
71	0x3b84125e	0.00403051
72	0x3b369ed9	0.0027865677
73	0x39e8166a	0.00044267188
74	0x3b444d05	0.0029953134
75	0x3e13e8e5	0.14444311
76	0x3e87b5ff	0.2650604
77	0x3d8a7b9b	0.06761857
78	0x3e3acd55	0.1824239
79	0x3b6d9ef9	0.0036258085
80	0x3e0820d6	0.13293776
81	0x3caf7db3	0.021422243
82	0x3dbd46ad	0.09241996
83	0x3b5200b1	0.003204387
84	0x3db2eae0	0.08736205
85	0x3e03b23b	0.12860958
86	0x3e0c26b7	0.13686644
87	0x3e6eeb95	0.23332055
88	0x3bf57698	0.007490944
89	0x3deb586f	0.11491477
90	0x3dea0aee	0.11427866
91	0x3e63e94c	0.22256964
92	0x3e43f5b8	0.19136703
93	0x3dbd7fd6	0.092528984
94	0x3c6b2874	0.0143529065
95	0x3db88f61	0.09011722
96	0x3c976f6d	0.01848575
97	0x3c83ef10	0.016105205
98	0x3e534012	0.2062991
99	0x3dbe0a8a	0.09279354
100	0x3d0f01a5	0.034913678
101	0x3bd26fdb	0.0064220256
102	0x3d3fc33a	0.046817042
103	0x3d99bc3e	0.075066075
104	0x3e30c37d	0.17262073
105	0x3b89c59c	0.004204465
106	0x3e3da5c3	0.18520264
107	0x3d10b694	0.03533037
108	0x3e869671	0.26286653
109	0x3d1f027d	0.038820732
110	0x3e2ab26c	0.16669625
111	0x3dec7480	0.11545658
112	0x3c1303b8	0.008973055
113	0x3cf15220	0.029458106
114	0x3dcf5dcc	0.10125312
115	0x3df9c9f5	0.12196723
116	0x3babba78	0.0052407347
117	0x3a476b8a	0.0007607272
118	0x3e0d7bb0	0.13816714
119	0x3cbe3f01	0.023223402
120	0x3d48a1a5	0.04898228
121	0x3c2cc98e	0.010546101
122	0x3cbdc259	0.023163961
123	0x3d0ed6a5	0.03487267
124	0x3e447573	0.19185428
125	0x3d96b128	0.073580086
126	0x3d9b5ec6	0.07586436
127	0x3e45ee9c	0.19329304
128	0x3d704170	0.058656156
129	0x3bb22189	0.0054361266
130	0x3c34f4c2	0.011044683
131	0x3bc98f25	0.0061510974
132	0x3d67a8a7	0.056557324
133	0x3d1d29a5	0.038369793
134	0x3e96244c	0.29324567
135	0x3c9b15d8	0.018931314
136	0x3d398846	0.045295976
137	0x3d8725bf	0.06598996
138	0x3ca6be6d	0.020354474
139	0x3e4e0f62	0.20123056
140	0x3e5928f5	0.2120703
141	0x3bed2569	0.0072371257
142	0x3ea4c516	0.32181615
143	0x3cbae5c3	0.022814637
144	0x3bfbf5de	0.0076892218
145	0x3c83a69b	0.016070655
146	0x3e6ed535	0.2332352
147	0x3d576123	0.05258287
148	0x3dcf1ffe	0.10113524
149	0x3e185079	0.14874448
150	0x3bcf0ca5	0.006318646
151	0x3eb28e3d	0.34874144
152	0x3c8ab4aa	0.01693185
153	0x3c643e85	0.013930921
154	0x3c9fc7da	0.019504476
155	0x3ebbc4a6	0.36673468
156	0x3dc82276	0.09772198
157	0x3b112c9c	0.0022151833
158	0x3dc71563	0.09720876
159	0x3b8915a2	0.004183487
160	0x3dddf1c3	0.10837128
161	0x3aa41d3a	0.0012520917
162	0x3ea3bf51	0.319819
163	0x3b546207	0.0032407062
164	0x3de0a758	0.10969418
165	0x3de70717	0.11280649
166	0x3dc840db	0.09777995
167	0x3d10375f	0.035209056
168	0x3c48f195	0.012264629
169	0x3de0b125	0.10971288
170	0x3d8a5966	0.06755333
171	0x3b604817	0.0034222656
172	0x3e17d807	0.14828502
173	0x3b2f0846	0.0026707812
174	0x3eac92f3	0.33705863
175	0x3e917ebe	0.2841701
176	0x3da4b69a	0.08042641
177	0x3c57d219	0.01317265
178	0x3b268262	0.0025407304
179	0x3c9425e4	0.018084474
180	0x3ddbf049	0.1073919
181	0x3d8f54f4	0.069986254
182	0x3d90a064	0.07061842
183	0x3dd46b7a	0.10372062
184	0x3e304282	0.1721287
185	0x3d13d074	0.03608747
186	0x3acd3dbd	0.0015658658
187	0x3dca83e3	0.09888437
188	0x3e879a12	0.26484734
189	0x3e333de9	0.17504086
190	0x3e8758c2	0.26434904
191	0x3e5460a2	0.20739987
192	0x3d3d0f93	0.04615743
193	0x3d3dd9f9	0.046350453
194	0x3bde0fa8	0.0067767687
195	0x3b87f801	0.0041494374
196	0x3dc3cf83	0.09561064
197	0x39aa5df4	0.00032494927
198	0x3da0864f	0.07838117
199	0x3b3e29d4	0.002901663
200	0x3b19e4f1	0.0023482407
201	0x3a04ec08	0.0005070572
202	0x3b14e5c3	0.0022719956
203	0x3dd77b92	0.10521616
204	0x3e452e8a	0.19256034
205	0x3d4b0dcc	0.049573705
206	0x3e09d90d	0.13461705
207	0x3b2fb2b5	0.0026809399
208	0x3dc73dc2	0.09728576
209	0x3c80834a	0.015687604
210	0x3d8bcf37	0.068266325
211	0x3b2d02aa	0.0026399293
212	0x3d81c178	0.06335729
213	0x3dbe4827	0.09291106
214	0x3dcd9d1d	0.100397326
215	0x3e2fb7be	0.17159936
216	0x3bb0f9cf	0.0054008733
217	0x3daad5e3	0.08341577
218	0x3daa1d0a	0.0830632
219	0x3e27baf5	0.16379912
220	0x3e0e9c7f	0.13926886
221	0x3d8a415b	0.06750747
222	0x3c319ae9	0.010840156
223	0x3d86d432	0.06583442
224	0x3c62fb74	0.013853896
225	0x3c40600b	0.011741648
226	0x3e1bc424	0.1521154
227	0x3d8b1da2	0.067927614
228	0x3cd6347e	0.026148077
229	0x3bb22ff9	0.0054378477
230	0x3d0b37af	0.03398865
231	0x3d60f266	0.05491867
232	0x3e0220e0	0.12707853
233	0x3b5e3808	0.003390791
234	0x3e09e424	0.13465935
235	0x3cd10aef	0.025517909
236	0x3e43ca7a	0.19120207
237	0x3ce5c37d	0.028047318
238	0x3dfd16c7	0.1235786
239	0x3db0ab1e	0.08626388
240	0x3be10384	0.006866874
241	0x3caf9a1c	0.02143579
242	0x3d97bd4c	0.074091524
243	0x3db59ca8	0.088677704
244	0x3b9227c3	0.0044603064
245	0x3a690385	0.0008888769
246	0x3dcd2a51	0.10017837
247	0x3c8c1980	0.017102003
248	0x3d143b66	0.03618946
249	0x3bf76fba	0.0075511606
250	0x3c89bf72	0.016814921
251	0x3cd33784	0.025783308
252	0x3e0fef39	0.140561
253	0x3d5d81d9	0.05407891
254	0x3d6b630b	0.0574675
255	0x3e10730c	0.14106387

exp_avg f4 [64]
0	0x3b1736f4	0.0023073526
1	0xbae101e7	-0.0017166705
2	0xbbbc0fae	-0.005739174
3	0x3bf39431	0.0074334373
4	0xbb626d33	-0.003454995
5	0x3b810a26	0.0039379774
6	0xbc5a98ad	-0.013342065
7	0xb9dfb359	-0.000426675
8	0x3b32da0a	0.0027290606
9	0xbbe52068	-0.0069923885
10	0x3a98b3c8	0.0011650259
11	0x3abce7ca	0.001441234
12	0x3b2a4128	0.0025978778
13	0x38de4a3b	0.000105996114
14	0x397ecc12	0.0002429935
15	0x3bf77fbf	0.0075530703
16	0xba750041	-0.0009346046
17	0xbc3d5a96	-0.011557242
18	0xbaec2e1d	-0.0018019114
19	0xbbc62a67	-0.006047535
20	0xbb15f1d6	-0.002287974
21	0x3c011919	0.007879519
22	0xbb99335b	-0.0046753115
23	0xbc2d31ba	-0.010570938
24	0xbb810c39	-0.0039382246
25	0xbb0905b2	-0.0020907936
26	0x3c6f2ca1	0.014598043
27	0xbba94e5f	-0.0051668133
28	0xbc534537	-0.01289492
29	0x3bdb9df3	0.0067021786
30	0x3c2873cd	0.010281515
31	0xbc290172	-0.010315286
32	0xbc11fa7a	-0.008909816
33	0xb9646c3c	-0.00021784095
34	0xbb9e73fd	-0.004835604
35	0xb8898f0d	-6.559314e-05
36	0x3b76175c	0.0037550544
37	0x3be3fa13	0.0069573014
38	0xbafa561c	-0.0019099149
39	0x3c0a10e5	0.0084268795
40	0x3c8c189d	0.01710158
41	0xbaf7c004	-0.001890183
42	0xbbcfe3bc	-0.0063442867
43	0xbc09268a	-0.008371005
44	0x3c88c2a7	0.01669438
45	0xb9eda47c	-0.00045326713
46	0xbbcca153	-0.0062448173
47	0x3b58f08a	0.0033102357
48	0x3c313908	0.01081682
49	0xba07fd63	-0.0005187599
50	0xbc38ef7a	-0.011287564
51	0x3b4bf4b9	0.0031121208
52	0xbbbd9d14	-0.0057865474
53	0x3c100f87	0.0087927645
54	0xbbdacda8	-0.006677348
55	0x3c0a1f4a	0.008430311
56	0xbbe1f1fb	-0.0068953014
57	0xbb09581d	-0.002095706
58	0x3b59bfdb	0.0033225927
59	0xbbf3b035	-0.007436777
60	0xbb1c9b2c	-0.00238962
61	0xbb0fe4dd	-0.0021956482
62	0xbc22a746	-0.009927576
63	0xbbd4aab3	-0.0064900755

exp_avg_sq f4 [64]
0	0x3f2e8568	0.6817231
1	0x3efd7621	0.49504188
2	0x3defb818	0.11705035
3	0x3c638ddc	0.013888802
4	0x3b193f70	0.002338376
5	0x3f86a18e	1.0518053
6	0x3f726c3a	0.9469639
7	0x3eb1cc12	0.34726006
8	0x3c2299ca	0.0099243615
9	0x3c3e1f3f	0.011604129
10	0x3a52ade2	0.0008036775
11	0x3d0e9567	0.03481045
12	0x3d7c3b54	0.061580017
13	0x3d0f126d	0.03492968
14	0x3e0afb06	0.1357232
15	0x3d1421b5	0.036164958
16	0x3ec5eba2	0.38656336
17	0x3f0f955f	0.560873
18	0x3ef83fe3	0.48486242
19	0x3e890644	0.26762593
20	0x3cfaa7f6	0.030597668
21	0x3e13e3ad	0.1444232
22	0x3a103ac4	0.0005501921
23	0x3cad648c	0.021166109
24	0x3d31734f	0.043322857
25	0x3dfc5f10	0.12322819
26	0x3e8c7f2f	0.27440783
27	0x3dd9dcc8	0.10637814
28	0x3d8c81cb	0.068606935
29	0x3d8afdb7	0.067866735
30	0x3cba6c91	0.022756847
31	0x3e0a81b8	0.13526046
32	0x3ea17270	0.3153262
33	0x3765be51	1.3693775e-05
34	0x3c8f6c4f	0.0175077
35	0x3de0fa6e	0.10985266
36	0x4011e0f1	2.2793543
37	0x3e2b3118	0.16717947
38	0x3e06f19f	0.13178109
39	0x3f68d443	0.90948886
40	0x3e9879e3	0.29780492
41	0x3e1d6d99	0.1537384
42	0x3bdbda44	0.006709369
43	0x3f16ae91	0.5886012
44	0x3d87059a	0.06592865
45	0x3eedf31a	0.46474534
46	0x3ec60a37	0.38679668
47	0x3d427951	0.047478978
48	0x3ef5d844	0.4801656
49	0x3cb64867	0.022251321
50	0x3d133062	0.035934813
51	0x3f1fb3cb	0.6238372
52	0x3db7ec9c	0.089806765
53	0x3dfe61f5	0.124210276
54	0x3d6740cf	0.05645829
55	0x3f004ecb	0.5012023
56	0x3d4367fb	0.047706585
57	0x3e48c62c	0.19606847
58	0x396c084c	0.00022509805
59	0x3e709e86	0.23497972
60	0x3d93ff84	0.0722647
61	0x3d90c937	0.07069629
62	0x3f01f27d	0.5076063
63	0x3d36ffda	0.044677593
