results/energy/checkpoints/A04_H064_L02_D01_Tanh_W4096_P010000_V-5.00e+00_S5.00e-01_Adam_PT_False_NO_TRAP_device_cuda_dtype_float32_chkp.pt (torch, 202711 bytes, 23 tensors)

layers.0.fc.weight f4 [64, 2]
0	0x3d751ec5	0.059843797
1	0x3ecacff8	0.39611793
2	0xbf2509ed	-0.6446827
3	0xbe16b7ec	-0.14718598
4	0xbe896df9	-0.26841715
5	0x3e298e46	0.1655818
6	0xbb2a9cc3	-0.0026033379
7	0x3f13d280	0.5774307
8	0xbd6e4db2	-0.058179565
9	0x3e1bf10e	0.15228674
10	0xbe8348d5	-0.25641504
11	0x3d518e71	0.051161233
12	0xbf2ef27f	-0.6833877
13	0xbe036125	-0.12830026
14	0xbe89c05b	-0.26904568
15	0x3e4c1952	0.19931534
16	0x3e7ac02a	0.24487367
17	0x3e413c0e	0.18870565
18	0xbf11ca76	-0.56949556
19	0x3c861f04	0.016372211
20	0x3e9819aa	0.2970708
21	0x3e12e8af	0.14346574
22	0xbe59013d	-0.21191879
23	0x3eaa05a0	0.33207417
24	0x3c96d42f	0.018411724
25	0x3da409e3	0.08009698
26	0x3f4baaca	0.7955748
27	0xbed4e15b	-0.41578183
28	0xbeeca963	-0.46222982
29	0x3c82a578	0.015948042
30	0xbe8025b0	-0.25028753
31	0x3f1f0d7e	0.6212996
32	0xbf1129eb	-0.56704587
33	0x3d418092	0.047241755
34	0xbef0b188	-0.47010446
35	0xbec19bb6	-0.3781411
36	0xbf00eb50	-0.5035906
37	0x3efad62d	0.48991528
38	0x3e9de49d	0.3083848
39	0x3e30f0d0	0.17279363
40	0x3d870d5d	0.06594346
41	0xbe8c3cad	-0.27390042
42	0x3e2931d0	0.16522908
43	0xbf3361c2	-0.7007104
44	0xbf128f43	-0.5724985
45	0x3e2beb15	0.16788895
46	0x3f00a3e3	0.5025007
47	0x3db5bc5d	0.08873818
48	0xbe51cb57	-0.20487724
49	0x3e3615b8	0.17781723
50	0x3e8d6c42	0.27621657
51	0x3eabfa79	0.33589533
52	0x3e4b0dae	0.19829437
53	0x3ca631a2	0.020287339
54	0x3f04a8e7	0.51820225
55	0xbe9a956d	-0.30192128
56	0x3da03e8e	0.07824431
57	0xbe8a6983	-0.27033624
58	0xbeec29c6	-0.4612562
59	0xbd5b570f	-0.053549822
60	0x3ea6a5a8	0.3254826
61	0xbb8327b7	-0.004002537
62	0xbeaabe95	-0.33348528
63	0x3ecc15f6	0.39860505
64	0x3ec3d5af	0.38248965
65	0xbdc78c12	-0.09743513
66	0xbdfb5a90	-0.12273133
67	0x3cac6de7	0.0210485
68	0x3ec89663	0.39177236
69	0x3ef29659	0.4738033
70	0xbeaf0d98	-0.3419006
71	0xbdc56215	-0.09637848
72	0x3e81eed8	0.25377536
73	0x3e4d5c47	0.20054732
74	0x3f3ed036	0.74536455
75	0x3ce7c05f	0.028289972
76	0x3e3e06c7	0.18557273
77	0xbf0f0e1d	-0.5588091
78	0x3db0ead2	0.086385384
79	0xbedc2f7b	-0.43004975
80	0xbf15cc68	-0.58515024
81	0x3f19dcc1	0.6010247
82	0x3f3b30d2	0.7312137
83	0xbf0df730	-0.55455303
84	0x3e7bae1c	0.24578136
85	0xbd8d5a88	-0.06902033
86	0xbe3a2550	-0.18178296
87	0xbe6cb5c3	-0.23116212
88	0x3e099702	0.13436511
89	0xbe3f49ce	-0.18680498
90	0x3e3da8a1	0.18521358
91	0x3eb5b7fc	0.3549193
92	0x3f08ea57	0.53482574
93	0xbcc287cd	-0.023746395
94	0xbf21014b	-0.628926
95	0xbe8bda57	-0.27315018
96	0x3ea6a59e	0.3254823
97	0x3c887ac1	0.016660096
98	0xbf044c88	-0.5167928
99	0xbd968ac8	-0.07350689
100	0x3f187ac8	0.5956235
101	0x3e1004da	0.1406435
102	0xbe9d1b77	-0.30685017
103	0xbdca17a6	-0.09867792
104	0xbf6a99fa	-0.916412
105	0x3e0998bc	0.1343717
106	0xbf126578	-0.5718608
107	0xbcf97a0d	-0.030453706
108	0x3da0f220	0.07858682
109	0x3d73267a	0.059362866
110	0xbea51012	-0.32238823
111	0x3eb50ade	0.35359854
112	0xbeed4800	-0.46343994
113	0x3f15b6a6	0.58481824
114	0x3f1e6f5d	0.61888677
115	0xbeb2876a	-0.34868938
116	0xbca82303	-0.020524507
117	0x3e19a66b	0.1500489
118	0x3e70a9f6	0.23502335
119	0x3cb2d035	0.021827796
120	0x3e9566e4	0.29180062
121	0x3ddfa7c8	0.109206736
122	0xbe9b92fb	-0.30385575
123	0x3eab58c9	0.33466175
124	0xbf52a360	-0.8228054
125	0x3da06580	0.078318596
126	0xbd937f98	-0.07202071
127	0xbe465162	-0.19366983

layers.0.fc.bias f4 [64]
0	0xbe861d4c	-0.26194227
1	0xbf1a71d1	-0.6032992
2	0xbe2fea11	-0.17179133
3	0x3e04a221	0.12952472
4	0xbf0cf881	-0.55066687
5	0xbca382b3	-0.019959783
6	0x3f21f29a	0.63260806
7	0xbde71d2e	-0.112848625
8	0xbcb67005	-0.022270212
9	0xbd61d0be	-0.055130713
10	0x3e0a1494	0.13484412
11	0x3f1241ec	0.5713184
12	0x3f3ae40e	0.73004234
13	0x3f1d3f94	0.6142514
14	0x3f3d149f	0.7385959
15	0xbdbd34ee	-0.09238611
16	0xbf481616	-0.781587
17	0xbeb5de22	-0.35521036
18	0x3f05c84d	0.5225876
19	0xbc96c131	-0.018402668
20	0xbed5359c	-0.41642463
21	0xbf0bec3c	-0.5465734
22	0xbf6d4f8e	-0.92699516
23	0xbf515fa3	-0.81786555
24	0xbe4881fc	-0.19580835
25	0x3f320a3a	0.69546854
26	0x3f1e38e7	0.61805576
27	0xbf7a9782	-0.9788743
28	0x3f253228	0.6452966
29	0xbf2277d6	-0.63464105
30	0xbe387547	-0.18013488
31	0xbf0d64c5	-0.5523189
32	0xbe3fa4a8	-0.18715155
33	0xbe8bb836	-0.2728898
34	0xbf31b216	-0.6941236
35	0xbf5c453f	-0.8604316
36	0xbe5cdd7e	-0.21568868
37	0xbcaba730	-0.020953745
38	0xbea98265	-0.33107296
39	0x3e9e9d77	0.3097951
40	0xbf7da93e	-0.9908637
41	0xbe0055c4	-0.12532717
42	0x3f26bc5a	0.6513115
43	0xbe981698	-0.29704738
44	0x3f47fe97	0.7812285
45	0x3eb8b00b	0.3607181
46	0xbf3f68d5	-0.74769336
47	0x3f12a07f	0.5727615
48	0xbdc06f2e	-0.09396206
49	0xbec47ff2	-0.38378865
50	0x3f3a0606	0.7266544
51	0xbf18dcc9	-0.5971189
52	0x3e17f129	0.14838089
53	0xbd159a3e	-0.03652405
54	0x3f05fd02	0.52339184
55	0x3e6d6fae	0.23187134
56	0x3ebe5442	0.3717366
57	0x3e764bb3	0.24052314
58	0xbe9882b8	-0.2978723
59	0xbe7f046d	-0.24904032
60	0xbf27160b	-0.6526801
61	0x3eca02ef	0.39455363
62	0x3f120f87	0.5705494
63	0x3f26e059	0.6518608

layers.1.fc.weight f4 [64, 128]
0	0xbd73c38d	-0.059512664
1	0x3c841c6c	0.016126834
2	0xbd3b2ab2	-0.045695014
3	0xbda68331	-0.081304915
4	0xbd1448f0	-0.03620237
5	0x3d18589a	0.037193872
6	0xbcb46902	-0.022022728
7	0x3c123001	0.008922578
8	0xbc17b9d8	-0.009260617
9	0x3d8d6e07	0.06905752
10	0xbdb4b11c	-0.088228434
11	0xbd88f463	-0.06687238
12	0xbd82d9e0	-0.063892126
13	0x3d858d25	0.06521062
14	0xbccc0e0b	-0.02490904
15	0x3d9c3321	0.076269396
16	0x3d041ec0	0.032255888
17	0x3d77d377	0.060504403
18	0x3c82bd35	0.015959362
19	0xbcd47c73	-0.025938248
20	0x3ce6d423	0.028177327
21	0xbcd57bcb	-0.026060006
22	0xbc226951	-0.009912805
23	0x3c0e24fc	0.00867581
24	0xbd635778	-0.05550334
25	0xbdd9353d	-0.106058575
26	0x3cd1a717	0.02559237
27	0xbdb960ad	-0.090516426
28	0xbcae227b	-0.021256676
29	0x3dc96c3e	0.09835099
30	0x3cf127f3	0.029437995
31	0x3c85c09d	0.016327197
32	0xbda8a9c2	-0.08235504
33	0x3d67a70a	0.056555785
34	0xbd81086c	-0.063004345
35	0x3bf157cd	0.007365203
36	0xbd0c0153	-0.03418095
37	0xbd05e9a7	-0.03269353
38	0x3ba875de	0.005141004
39	0x3d8d3cb9	0.068963476
40	0xbb907d00	-0.0044094324
41	0x3d873b09	0.06603057
42	0x3d1a64a0	0.03769362
43	0xbc1550df	-0.009113519
44	0x3cc603af	0.024171678
45	0xbded3e39	-0.11584134
46	0xbd60004a	-0.054687776
47	0x3d27d85a	0.040977813
48	0x3cd5e982	0.026112322
49	0x3da5234e	0.080633745
50	0xbd3f85c4	-0.04675843
51	0x3cd4c10f	0.025970964
52	0x3d9de3c8	0.077094615
53	0xbd92d6ac	-0.07169852
54	0x3d46b728	0.048514515
55	0xbd91d93f	-0.071215145
56	0x3c0d945e	0.0086413305
57	0xbcd3b635	-0.025843719
58	0xbbf2757b	-0.0073992587
59	0x3caa8239	0.020814048
60	0x3d9a9327	0.07547598
61	0xbcbc0771	-0.022952767
62	0xbba868a6	-0.005139428
63	0xbd1fe85a	-0.039039947
64	0xbdb43e58	-0.088009536
65	0x3d62964a	0.055319108
66	0xbd2a085d	-0.041511882
67	0xbdc372ef	-0.09543406
68	0xbd1f50fb	-0.03889559
69	0x3d6fc4f1	0.058537427
70	0x3d1a41a5	0.03766026
71	0x3da5ab50	0.08089316
72	0x3cd6bec8	0.026214018
73	0xbcae8b54	-0.021306671
74	0xbce34d73	-0.027746892
75	0x3d0628ba	0.032753684
76	0x3d68ff10	0.05688387
77	0x3d035e38	0.032072276
78	0xbd21489d	-0.03937589
79	0xbcbd1ea6	-0.023085903
80	0xbdb1294b	-0.08650454
81	0x3ce2a8ce	0.027668383
82	0xbcacb761	-0.021083536
83	0xbda4ccfd	-0.08046911
84	0x3dad5517	0.08463495
85	0xbd605775	-0.054770906
86	0xbc1e760d	-0.0096717
87	0x3cbdda87	0.023175491
88	0x3b6ed5aa	0.0036443272
89	0xbd6dd55c	-0.058064803
90	0xbd8addbb	-0.06780573
91	0x3d68de84	0.056852832
92	0x3c258ac4	0.010103885
93	0x3d925d1f	0.07146668
94	0xbd1d7c16	-0.038448416
95	0x3c8af490	0.01696232
96	0xbd166a12	-0.03672225
97	0x3bb80d07	0.0056167874
98	0xbd4f92b4	-0.050677016
99	0x3cd7a6a9	0.026324587
100	0x3cc85649	0.024455206
101	0xbc4a4390	-0.01234521
102	0xbc9876fa	-0.01861142
103	0xbd600017	-0.054687586
104	0x3d692e8d	0.05692916
105	0xbe0c2d6f	-0.13689207
106	0x3d240c83	0.040050995
107	0xbc9c4063	-0.01907367
108	0xbd4d3a54	-0.050104454
109	0x3bd2587f	0.006419241
110	0xbd434cdd	-0.047680724
111	0x3c06d775	0.00823008
112	0x3c21c2f2	0.009873139
113	0xbd71555f	-0.058919307
114	0x3beb7213	0.0071852296
115	0x3cfa1435	0.030527214
116	0x3d5fa7b0	0.05460328
117	0xbb1592ef	-0.0022823175
118	0xbda40c2b	-0.08010133
119	0x3c615092	0.01375212
120	0x3d898e40	0.06716585
121	0xbd026249	-0.031832013
122	0x3d39877a	0.045295216
123	0x3d53eb28	0.051737934
124	0xbd6935fb	-0.056936245
125	0x3c8db812	0.017299686
126	0x3d2d7100	0.042344093
127	0x3c0cb7bb	0.008588727
128	0x3c23cd9d	0.0099977525
129	0x3d6b0711	0.057379786
130	0xbd640216	-0.05566605
131	0x3d8b15f7	0.06791299
132	0x3d3898eb	0.04506771
133	0x3db7a33d	0.08966682
134	0x3d5353f8	0.05159375
135	0x3cb7b4fa	0.022425164
136	0x3d203b6d	0.039119173
137	0xbc7cd225	-0.015430962
138	0xbd9f0096	-0.07763784
139	0xbd730e0b	-0.059339564
140	0x3dd010b4	0.10159436
141	0xbc5faf20	-0.013652593
142	0xbd923ae4	-0.07140139
143	0x3d5e74b9	0.054310534
144	0x3df28746	0.118422076
145	0x3de05610	0.10953915
146	0x3d8eadde	0.06966756
147	0x3d7f98b7	0.0624015
148	0xbd5ac513	-0.0534106
149	0xbd93e019	-0.072204776
150	0x3e0dac7e	0.13835332
151	0x3d645317	0.055743303
152	0xbcf48504	-0.029848583
153	0x3d718662	0.058966048
154	0x3d37f997	0.04491576
155	0x3d8a3690	0.06748688
156	0xbd3d8eb8	-0.046278685
157	0x3d871e9b	0.065976344
158	0xbd179d54	-0.037015274
159	0x3de64cbf	0.11245107
160	0xbcbc38a9	-0.022976236
161	0xbb9dd39c	-0.0048164856
162	0x3c5cd356	0.013478121
163	0x3da7c3f2	0.081916705
164	0xbcffb16a	-0.031212527
165	0x3c2e5009	0.010639199
166	0xbdbf72f6	-0.09348099
167	0x3cb9c19a	0.022675324
168	0x3bdd9a53	0.0067627816
169	0xbddcf736	-0.10789339
170	0xbd48ac92	-0.0489927
171	0x3cb3b37c	0.02193617
172	0x3d5a6b76	0.05332514
173	0x3dc84e95	0.09780613
174	0x3dab095b	0.08351394
175	0xbd996361	-0.07489658
176	0xbd8b5c99	-0.06804771
177	0x3cbab88f	0.022793083
178	0xbdd97da4	-0.10619667
179	0x3d6c19b7	0.05764171
180	0xbd0258c0	-0.03182292
181	0xbc30c8a3	-0.010790023
182	0xbd82fa1a	-0.06395359
183	0xbd386bb5	-0.045024592
184	0x3d8f9a11	0.07011808
185	0x3cabf80f	0.020992307
186	0x3d6f62e8	0.058443934
187	0x3d6a3713	0.05718143
188	0x3d9eaff9	0.07748408
189	0xbcaa4568	-0.020785049
190	0x3d04afc9	0.032394204
191	0x3daddf0a	0.08489807
192	0x3d090b31	0.03345794
193	0x3d52b50c	0.05144219
194	0x3cc59a91	0.024121555
195	0x3deddaaf	0.11613976
196	0xbd31c9f8	-0.043405503
197	0x3a555791	0.00081383536
198	0x3cc78f4b	0.02436032
199	0xbd3bfc27	-0.045894768
200	0x3ce44cc3	0.027868634
201	0xbdc067ed	-0.09394822
202	0xbce122c7	-0.027482403
203	0x3d96bba8	0.07360011
204	0x3da1be83	0.07897665
205	0x3d46e53e	0.048558466
206	0xbd5119d7	-0.051050033
207	0x3d7b6749	0.061377797
208	0x3d2e6549	0.04257706
209	0xbcdfad9c	-0.027304463
210	0xbd08d8ad	-0.033409763
211	0x3e298282	0.16553691
212	0x3c4fc7e7	0.012681938
213	0xbdcfe2d0	-0.10150683
214	0x3d974cfb	0.0738773
215	0x3d9cd294	0.07657352
216	0xbd5851e3	-0.05281247
217	0x3d8852fa	0.066564515
218	0xbd044bd0	-0.032298863
219	0xbc8e357d	-0.01735949
220	0x3daa1781	0.08305264
221	0xbcb6d768	-0.02231951
222	0xbd3ec07e	-0.046570294
223	0xbcee3ddc	-0.029082231
224	0xbc3cd2cb	-0.011524866
225	0xbd2e9244	-0.04261996
226	0x3cb2dc4b	0.02183356
227	0x3d9879a5	0.07445077
228	0x3d5cb413	0.05388267
229	0xbc14bd26	-0.0090783
230	0xbcde7e24	-0.027159758
231	0x3d2ff812	0.042961188
232	0x3d421c3f	0.04739022
233	0xbd3d9257	-0.04628214
234	0xbb1dc4cb	-0.0024073597
235	0xbdd77eab	-0.10522207
236	0xbcf54232	-0.029938791
237	0x3d8fa526	0.070139214
238	0xbd86e3d3	-0.06586423
239	0x3d05d46f	0.032673296
240	0x3dc481e8	0.0959509
241	0xbcc287f5	-0.02374647
242	0xbd221a90	-0.039576113
243	0xbd521a52	-0.051294632
244	0x3cd2a55d	0.025713617
245	0xbde8deb4	-0.11370602
246	0x3d7ed65d	0.06221615
247	0xbda51fe6	-0.08062725
248	0xbda859e2	-0.08220269
249	0xbcccdcc1	-0.025007607
250	0xbcf91b4f	-0.03040853
251	0x3d8610b1	0.065461524
252	0xbdaaa9dc	-0.08333179
253	0x3da0ac20	0.0784533
254	0x3b25db8e	0.0025307867
255	0x3cea19a2	0.028576676

layers.1.fc.bias f4 [64]
0	0x3d4cd133	0.050004195
1	0x3c1047ae	0.008806152
2	0xbd1eed2b	-0.0388004
3	0xbcd272f5	-0.025689581
4	0xbc1a581f	-0.009420424
5	0xbb875341	-0.0041297977
6	0x3d2be1f3	0.04196353
7	0xbced38f2	-0.028957818
8	0xbcb5ad44	-0.022177346
9	0x3dc96829	0.0983432
10	0x3da932cb	0.08261641
11	0xbc991623	-0.018687313
12	0x3dd146a1	0.102185495
13	0x3b7a2ce8	0.003817374
14	0xbdd9df93	-0.106383465
15	0x3dd38168	0.10327417
16	0xbd1e4765	-0.038642306
17	0xbd139ba6	-0.03603711
18	0xbd645928	-0.05574909
19	0xbbdafe01	-0.0066831117
20	0xbd981f13	-0.07427802
21	0xbd32fd8c	-0.043698832
22	0x3d2d2c69	0.04227868
23	0x3dec5de3	0.11541345
24	0x3d1696ed	0.036765028
25	0xbdbd6652	-0.09248032
26	0xbe3ad3c1	-0.1824484
27	0x3b1decc0	0.0024097413
28	0x3de8bd18	0.11364192
29	0x3d7292ec	0.059222147
30	0x3db957c6	0.090499446
31	0xbd813dec	-0.06310639
32	0x3dc599b5	0.09648458
33	0x3e29b10a	0.16571441
34	0xbdab3918	-0.08360499
35	0xbe0da708	-0.13833249
36	0xbdbb8668	-0.09156495
37	0x3c99e5ed	0.018786395
38	0xbbdb0a91	-0.006684609
39	0xbd9f3b62	-0.07774998
40	0x3e14ec0f	0.14543174
41	0x3d42402a	0.047424473
42	0xbd4c1b18	-0.049830526
43	0xbd4e3909	-0.05034736
44	0xbdcad6ed	-0.09904275
45	0x3d7f652a	0.062352337
46	0x3d530af1	0.051524106
47	0xbd8fe256	-0.07025592
48	0xbd858d47	-0.06521087
49	0x3d3dd5e2	0.046346553
50	0xbd30d650	-0.043173134
51	0xbdbb1534	-0.091349036
52	0x3dc30dc0	0.09524107
53	0x3d6b432e	0.057437114
54	0xbc9a588d	-0.018841052
55	0x3aabdfdb	0.0013112979
56	0x3dc0eb45	0.09419874
57	0xbdd7f2dc	-0.105443686
58	0x3db65845	0.08903555
59	0xbdafd5be	-0.0858569
60	0xbd9e81ea	-0.07739623
61	0x3dc9b53d	0.098490216
62	0xbda96d25	-0.08272771
63	0x3cb1b490	0.021692544

layers.2.gsds.0.weight f4 [4, 64]
0	0x3da18d4f	0.078882806
1	0x3daf1d1b	0.08550473
2	0xbd294ceb	-0.04133312
3	0x3dfbbf52	0.12292351
4	0x3cabc538	0.020968065
5	0xbe16f069	-0.14740147
6	0xbdf72954	-0.120684296
7	0xbd9d8108	-0.076906264
8	0xbcdc8ae0	-0.02692169
9	0x3df7c561	0.12098194
10	0xbdbd8eb8	-0.09255737
11	0xbc9c66f9	-0.01909207
12	0x3d91c822	0.071182504
13	0xbd3351fd	-0.043779362
14	0x3d952298	0.07281989
15	0xbbb29120	-0.005449429
16	0xbda236d5	-0.07920615
17	0xbdd001ba	-0.10156579
18	0x3dde614c	0.10858402
19	0xbd95b314	-0.07309547
20	0x3cb5df62	0.022201244
21	0x3d3cb89a	0.046074487
22	0xbc48e060	-0.012260526
23	0xbc389ca1	-0.011267812
24	0xbd06824a	-0.032839097
25	0xbc817e47	-0.015807284
26	0xbc8f14f2	-0.017466042
27	0xbcb64e13	-0.022254026
28	0x3d3ba2dd	0.045809615
29	0x3bce5bfd	0.006297587
30	0x3d134c4c	0.035961434
31	0xbd7e58f2	-0.062096544
32	0xbd672450	-0.056431115
33	0xbd1b5fda	-0.037933208
34	0x3cedae5c	0.029013805
35	0xba6feb5a	-0.00091521966
36	0x3e08feef	0.133785
37	0x3d958e58	0.073025405
38	0xbd5bcb1d	-0.0536605
39	0x3db1ca6a	0.086811855
40	0xbdd5b089	-0.10434062
41	0xbd253e53	-0.04034264
42	0x3db8d108	0.090242445
43	0xbdb4d258	-0.088291824
44	0x3d2767a6	0.04087033
45	0xbdddf950	-0.10838568
46	0x3d8a223a	0.067448094
47	0x3db563fd	0.08856962
48	0x3e004f8c	0.12530345
49	0xbd4986a6	-0.049200676
50	0xbdceb8fb	-0.10093876
51	0x3d87ca40	0.06630373
52	0xbcf601b6	-0.030030113
53	0xbd9d4eb6	-0.076810285
54	0xbdd1c85e	-0.10243295
55	0x3d883d0f	0.06652271
56	0xbd184125	-0.0371715
57	0xbcdcb106	-0.02693988
58	0x3cc1f535	0.023676494
59	0x3c2fd9e3	0.010733101
60	0xbcdb3b94	-0.026761808
61	0x3de391cb	0.11111792
62	0xbddb6bc4	-0.10713914
63	0xbccc4932	-0.024937246
64	0xbd161c6b	-0.036648195
65	0xbd400f83	-0.046889793
66	0x3dad2e85	0.084561385
67	0x3df60143	0.120119594
68	0x3dbcd0f2	0.09219541
69	0x3d892f9e	0.066985354
70	0x3dc6b1b8	0.09701866
71	0x3da3d8f6	0.080003664
72	0xbdee8109	-0.11645705
73	0xbd437ce3	-0.047726523
74	0x3d3dae7e	0.046308987
75	0x3d91af88	0.07113558
76	0x3db469b8	0.08809227
77	0xbd0204ec	-0.031742975
78	0x3de4ed60	0.11178088
79	0xbdd6d1a3	-0.10489204
80	0x3d807a85	0.06273369
81	0x3de31a3f	0.110889904
82	0x3a33793e	0.00068463746
83	0x3db3c36d	0.08777509
84	0x3e034a37	0.1282128
85	0xbdb72262	-0.08942105
86	0x3e233945	0.15939815
87	0x3e0173fb	0.126419
88	0x3d8c776d	0.06858716
89	0x3d821d86	0.063532874
90	0x3d5c182f	0.053734
91	0x3d2cad23	0.042157304
92	0x3dc84d0b	0.0978032
93	0xbdbf9e61	-0.0935638
94	0xbe265bd7	-0.16245972
95	0x3dd5e9d0	0.10444987
96	0x3de8c841	0.113663204
97	0xbaae0647	-0.0013277017
98	0x3dacb231	0.08432425
99	0xbc28a5cc	-0.010293435
100	0x3daea3d8	0.085273445
101	0xbd18a2b5	-0.037264545
102	0x3d948ff4	0.072540194
103	0xbd78285c	-0.060585365
104	0xbd6618ae	-0.05617588
105	0x3c0a983a	0.008459145
106	0xbd792399	-0.060824964
107	0x3d7b2726	0.06131663
108	0xbcb5f6d3	-0.022212422
109	0xbbfc4e2b	-0.007699748
110	0x3df27bb7	0.11840003
111	0x3d9e8a83	0.07741263
112	0xbdb2ea4b	-0.08736094
113	0x3bee4f08	0.007272605
114	0x3d742d29	0.05961338
115	0xbd58ecfc	-0.05296038
116	0x3977fff0	0.000236511
117	0xbda94813	-0.082657
118	0xbd0d4f41	-0.03449941
119	0xbdb77411	-0.08957685
120	0x3de2c9be	0.110736355
121	0x3d7dc46e	0.061954908
122	0xbb575ccc	-0.0032861708
123	0x3dab4b29	0.08363945
124	0x3cf0a41f	0.029375134
125	0x3d922c81	0.07137395
126	0x3d4b6b4f	0.049662884
127	0x3ce989c5	0.028508076
128	0xbda6783d	-0.081284024
129	0x3e5b7754	0.21432239
130	0xbdc510a9	-0.09622318
131	0xbe4f9151	-0.20270278
132	0xbdaa9b76	-0.08330433
133	0x3e895f03	0.268303
134	0xbd32a41c	-0.04361354
135	0xbda174cb	-0.078836046
136	0xbe136e17	-0.14397465
137	0x3e26c02b	0.16284244
138	0xbe89f748	-0.26946473
139	0x3d3ebe2e	0.04656809
140	0x3e6198c3	0.2203093
141	0xbd9e0ba8	-0.07717067
142	0xbe3fa7dc	-0.18716377
143	0xbc93f153	-0.018059408
144	0x3d78f745	0.06078269
145	0xbda99696	-0.08280675
146	0xbda52241	-0.08063174
147	0x3d0b2530	0.03397101
148	0xbb8a8e6f	-0.004228405
149	0x3d48d004	0.049026504
150	0x3e200787	0.15627871
151	0x3d829c93	0.063775204
152	0x3e104557	0.14088951
153	0x3dac62b8	0.084172666
154	0x3e3d82c6	0.18506917
155	0x3e275c70	0.16343856
156	0x3e4177ce	0.18893358
157	0xbc891e19	-0.016737984
158	0xbb529aee	-0.0032135802
159	0xbdc4d3ff	-0.096107475
160	0x3e03b354	0.12861377
161	0xbe8bab70	-0.27279234
162	0x3db3f3f1	0.087867625
163	0xbe63b2e8	-0.22236216
164	0xbca55c5a	-0.020185638
165	0x3de8e080	0.11370945
166	0x3d9cba75	0.07652751
167	0xbb9e2f95	-0.0048274496
168	0x3dbd86d8	0.09254235
169	0x3dcfd6f9	0.10148425
170	0x3dda3beb	0.1065596
171	0x3d04feea	0.032469667
172	0x3e8ca9e6	0.27473372
173	0x3e9d8420	0.30764866
174	0x3e1a12e9	0.15046276
175	0xbd096479	-0.033543084
176	0x3e2f4b7c	0.17118639
177	0x3ce5adcc	0.028036974
178	0x3da65611	0.081218846
179	0xbd10a25b	-0.035311084
180	0xbdd17871	-0.102280505
181	0x3e171f72	0.14758089
182	0xbd62a6c3	-0.055334818
183	0xbd8c69d6	-0.06856124
184	0xbcb3e52a	-0.02195986
185	0xbd550c6b	-0.052013796
186	0xbe1e3d85	-0.15453155
187	0xbd5f07c5	-0.05445077
188	0x3d7d7787	0.06188157
189	0x3e93e56a	0.28885967
190	0xbe02b413	-0.12764005
191	0x3e572a13	0.21012144
192	0x3b986ef0	0.0046518967
193	0x3d8263c6	0.063666865
194	0x3d618c21	0.055065278
195	0x3d5130f4	0.051072076
196	0xbe73c331	-0.23804928
197	0xbe699c39	-0.228135
198	0xbcd69383	-0.026193386
199	0xbe6fa0e2	-0.23401216
200	0x3e2e4f20	0.17022371
201	0x3e404c9c	0.18779224
202	0x3df9343f	0.12168168
203	0xbe0856fb	-0.1331443
204	0x3d77203f	0.060333487
205	0x3da2619a	0.07928772
206	0xbd027c7d	-0.031857003
207	0xbe1a8c12	-0.15092495
208	0xbd7ec132	-0.062195964
209	0xbbe568e9	-0.0070010317
210	0x3d9b5c6e	0.07585989
211	0x3e109481	0.1411915
212	0x3dbdc2d0	0.09265673
213	0xbc76edc0	-0.015071332
214	0x3cd2008b	0.025635025
215	0x3e4a3f8d	0.19750805
216	0xbcaa543e	-0.020792123
217	0x3e14d102	0.14532855
218	0x3eac15d4	0.33610404
219	0x3e054d77	0.13017832
220	0x3ddf0942	0.10890438
221	0xbe24fba5	-0.1611162
222	0xbe2e9558	-0.17049158
223	0xbe65615e	-0.22400424
224	0x3ea5b311	0.3236318
225	0xbefd3f89	-0.49462536
226	0xbe1177e7	-0.14205895
227	0x3c9240c7	0.017853154
228	0x3c8df4db	0.01732867
229	0xbd5014f8	-0.050801247
230	0x3d1383d5	0.036014397
231	0x3e067caf	0.131335
232	0xbe7d0fe7	-0.24713098
233	0xbe91cf6c	-0.28478563
234	0x3ea81ec0	0.3283596
235	0xbd63e9d4	-0.055642918
236	0xbe1d24d4	-0.1534608
237	0x3d551101	0.05201817
238	0x3ce6f9f1	0.028195353
239	0xbe6953c2	-0.22785857
240	0x3cef1800	0.029186249
241	0xbe0d863c	-0.13820738
242	0x3e7e57ed	0.24838229
243	0x3d024770	0.03180641
244	0x3e175937	0.14780127
245	0x3e2eb094	0.17059547
246	0x3e615d14	0.22008163
247	0xbe39edba	-0.18157092
248	0x3cd53751	0.026027353
249	0xbe896fcd	-0.2684311
250	0x3ef24570	0.47318602
251	0x3e5a603b	0.21325772
252	0x3e5b9694	0.2144416
253	0xbd3ba34c	-0.04581003
254	0x3e04be00	0.12963104
255	0x3d8a6715	0.067579426

layers.2.gsds.0.bias f4 [4]
0	0x3bcbed97	0.0062233913
1	0xbc619379	-0.01376807
2	0x3e1c3bc2	0.15257171
3	0xbddf9104	-0.109163314

log_envelope.log_envs.0.weight f4 [4, 1]
0	0x3f17eb51	0.5934344
1	0x3f0c2b44	0.5475352
2	0x3eeb4001	0.4594727
3	0x3e5dbcb3	0.21654014

exp_avg f4 [64, 2]
0	0xbc8b89c4	-0.017033465
1	0x3c106815	0.008813878
2	0xbcd9a3c3	-0.026567345
3	0x3d337888	0.04381612
4	0xbd1d959c	-0.038472757
5	0xbd531536	-0.0515339
6	0xbba917b1	-0.005160295
7	0xbcca0bcf	-0.024663834
8	0xbcc3cc5a	-0.023901153
9	0xbc83d36e	-0.016092028
10	0xbc9209cc	-0.017826937
11	0xbcdb199b	-0.026745608
12	0xbc509712	-0.0127313305
13	0xbb721bc8	-0.0036942828
14	0xbc8c4827	-0.017124249
15	0xbd0aa926	-0.03385272
16	0x3c6efb04	0.014586214
17	0x3cbf1c53	0.023328936
18	0x3c9bf280	0.019036531
19	0x3be75e10	0.0070607737
20	0x3cf97306	0.030450355
21	0xbce6ed4f	-0.02818933
22	0x3c8862ca	0.016648669
23	0xbc12d458	-0.0089617595
24	0x3bfbdc02	0.007686139
25	0x3c58059b	0.01318493
26	0x3ba48b71	0.0050215055
27	0xbc83baad	-0.016080225
28	0x3dbc7d06	0.09203534
29	0xb95452b0	-0.00020248699
30	0x3cd89a0c	0.026440643
31	0x3d032da6	0.032025956
32	0xbd233c06	-0.039852165
33	0xbcd62bdf	-0.026143966
34	0x3b471c1c	0.0030381745
35	0xbcc8ec13	-0.024526631
36	0x3caa2dd9	0.020773815
37	0xbbeb4e1d	-0.0071809427
38	0x3cec84a1	0.028871836
39	0xbc915846	-0.017742287
40	0x3ba934f6	0.005163784
41	0xbcd3d246	-0.025857102
42	0x3cd156a1	0.025554003
43	0x3d185106	0.037186645
44	0xbdf27eec	-0.11840615
45	0xbcf894b3	-0.030344343
46	0x3d8cdfb8	0.068786085
47	0xbc372d7c	-0.011180278
48	0xbccdd7f1	-0.025127383
49	0xbcc3d5f4	-0.023905732
50	0xbc10aa4a	-0.008829663
51	0x3b96ac29	0.00459816
52	0x3cf668fe	0.030079361
53	0x3cfc67f3	0.030811286
54	0xbcb64fd6	-0.022254866
55	0xbce00970	-0.02734825
56	0xbbdff3ac	-0.006834468
57	0x3c93b5c2	0.018031005
58	0x3cfed05f	0.031105218
59	0x3c2a52d4	0.010395724
60	0xbcadd958	-0.021221802
61	0x3c535262	0.01289806
62	0xbd1921e2	-0.03738583
63	0xbd19f870	-0.037590444
64	0x3ae16957	0.0017197531
65	0xbc728ca5	-0.01480404
66	0xbd1e98fb	-0.038720112
67	0xbd27a799	-0.040931318
68	0x3c8397a7	0.016063524
69	0xbc19c4db	-0.009385313
70	0x3cde50e5	0.027138183
71	0xbcbb2e49	-0.022849219
72	0x3c01e7a3	0.007928762
73	0x3cf78590	0.030215055
74	0x3c9954e7	0.018717242
75	0x3b28530a	0.002568426
76	0xbca8da63	-0.020611947
77	0xbd217f2c	-0.03942792
78	0xbc3174ac	-0.010831039
79	0x3d18215d	0.037141193
80	0x3cfcc7c2	0.03085697
81	0xbce119d6	-0.02747814
82	0xbc442ffc	-0.011974331
83	0xbb0b1db1	-0.0021227414
84	0x3d5811c4	0.052751318
85	0x3d8f5a27	0.06999617
86	0x3b3803b5	0.0028078381
87	0xbd83c15a	-0.06433363
88	0x3c03c3c9	0.008042284
89	0x3c508522	0.012727054
90	0x3d44fb0b	0.048090976
91	0x3c73ffb3	0.014892506
92	0x3d762c18	0.060100645
93	0xbbe5214d	-0.006992495
94	0x3d4b601c	0.049652204
95	0x3cf43b0b	0.02981331
96	0xbb61ecb6	-0.0034473366
97	0x3d444f79	0.047927354
98	0xbcdb6ba9	-0.026784735
99	0xbc100213	-0.008789557
100	0x3c475472	0.012166129
101	0xbd2bc40d	-0.041935015
102	0x3bf95ff3	0.007610315
103	0x3c68ffc6	0.014221137
104	0xbc130738	-0.008973889
105	0x3c480c0c	0.012209903
106	0xbc7c261f	-0.015389948
107	0xbc8dca96	-0.017308515
108	0x3d2b7710	0.041861594
109	0x3c4040ca	0.011734197
110	0x3cd2b28c	0.025719903
111	0x3bfd3bd0	0.0077280775
112	0xbc11028e	-0.008850707
113	0xbc499c56	-0.01230534
114	0xbd05c2db	-0.03265653
115	0x3b9d4ebd	0.004800646
116	0xbd521179	-0.051286194
117	0xbd07dd27	-0.03316989
118	0x3cb1dbe8	0.021711305
119	0xbb5e2cdb	-0.0033901248
120	0xbc14d496	-0.009083888
121	0xbc63ec50	-0.013911322
122	0xbd0f6a43	-0.03501345
123	0xbcb53de5	-0.02212424
124	0xbcc178b4	-0.023617126
125	0xbbebccfe	-0.007196068
126	0x3bab6193	0.0052301376
127	0x3c0e7977	0.008695952

exp_avg_sq f4 [64, 2]
0	0x483b4780	191774.0
1	0x46d7c0cd	27616.4
2	0x4877fcf7	253939.86
3	0x47906fb1	73951.38
4	0x44c9f59b	1615.6752
5	0x46d9db50	27885.656
6	0x49818544	1.0610325e+06
7	0x48425bf8	199023.88
8	0x48c92f39	412025.78
9	0x462c249f	11017.155
10	0x48ce97d2	423102.56
11	0x4678114c	15876.324
12	0x480bea72	143273.78
13	0x4888c12d	280073.4
14	0x460c61be	8984.436
15	0x44a70b9a	1336.3625
16	0x490d5392	578873.1
17	0x484e63ec	211343.69
18	0x485e5161	227653.52
19	0x45dcc87b	7065.06
20	0x489aed12	317288.56
21	0x47e613f1	117799.88
22	0x4726832a	42627.164
23	0x47d69f4b	109886.586
24	0x48a5ebed	339807.4
25	0x46d0965f	26699.186
26	0x47002d62	32813.383
27	0x48018da7	132662.61
28	0x49875ca1	1.1088841e+06
29	0x4951f137	859923.44
30	0x4791a25b	74564.71
31	0x467e682a	16282.041
32	0x4500a9fa	2058.6235
33	0x4625473a	10577.807
34	0x466f56f4	15317.738
35	0x461b90b0	9956.172
36	0x4904cb04	543920.25
37	0x4652d7e3	13493.972
38	0x477a54f6	64084.96
39	0x4884e1a7	272141.22
40	0x492c1541	704852.06
41	0x4916f807	618368.44
42	0x4643bf99	12527.899
43	0x46608a0b	14370.511
44	0x4695c1fc	19168.992
45	0x46a50c86	21126.262
46	0x483cef75	193469.83
47	0x485e70dd	227779.45
48	0x443f9f22	766.48645
49	0x4705c7e5	34247.895
50	0x48b1c4a5	364069.16
51	0x47e82c85	118873.04
52	0x459ec925	5081.143
53	0x46ba7ffa	23871.988
54	0x47af6ba5	89815.29
55	0x455503c3	3408.235
56	0x46ad339a	22169.8
57	0x45beab19	6101.387
58	0x475b3722	56119.133
59	0x4803cd37	134964.86
60	0x48da8134	447497.62
61	0x4884c130	271881.5
62	0x4381539f	258.6533
63	0x44d517f5	1704.7487
64	0x476af4c4	60148.766
65	0x431a181a	154.09415
66	0x4302c568	130.77112
67	0x473ad5ef	47829.934
68	0x47248f76	42127.46
69	0x47984616	77964.17
70	0x4544c5e7	3148.369
71	0x4726df6a	42719.414
72	0x49b9ca55	1.5219946e+06
73	0x479ff97b	81906.96
74	0x3efa8c53	0.48935184
75	0x46109499	9253.149
76	0x4705e9cf	34281.81
77	0x4487abfa	1085.3743
78	0x4770b121	61617.13
79	0x4354619d	212.3813
80	0x46053553	8525.331
81	0x452040d6	2564.0522
82	0x47a5a23b	84804.46
83	0x4841c1a2	198406.53
84	0x46b5c9f4	23268.977
85	0x4568c4bf	3724.2966
86	0x43293cf5	169.23811
87	0x46505171	13332.36
88	0x4798653e	78026.484
89	0x47204e75	41038.457
90	0x48e94aec	477783.38
91	0x47f45acc	125109.59
92	0x4955e1a1	876058.06
93	0x494eff7f	847863.94
94	0x490b8869	571526.56
95	0x493140dd	726029.8
96	0x4721c94e	41417.305
97	0x4568c9a4	3724.6025
98	0x481246f5	149787.83
99	0x470a30f2	35376.945
100	0x47d11fb5	107071.414
101	0x463109f0	11330.484
102	0x47862f39	68702.445
103	0x46c3c2b7	25057.357
104	0x41c7e7d9	24.988207
105	0x45ec092a	7553.1455
106	0x498e56cb	1.1660414e+06
107	0x46515b07	13398.757
108	0x49834b2a	1.0755572e+06
109	0x46e1fe11	28927.033
110	0x47eca97d	121170.98
111	0x4893fac6	303062.2
112	0x4546a1b8	3178.1074
113	0x45d429e0	6789.2344
114	0x4030cf00	2.7626343
115	0x45fba376	8052.4326
116	0x46f89d3a	31822.613
117	0x43761fe7	246.12462
118	0x495870c1	886540.06
119	0x46f92269	31889.205
120	0x462095f6	10277.49
121	0x45069fc7	2153.986
122	0x4989bb91	1.1283061e+06
123	0x48c9e718	413496.75
124	0x4804f701	136156.02
125	0x4830e3eb	181135.67
126	0x46fa0338	32001.61
127	0x44206623	641.5959

exp_avg f4 [64]
0	0xbd094f78	-0.033523053
1	0xbc893955	-0.01675097
2	0x3c451179	0.012028092
3	0x3d268e59	0.040663097
4	0x3d1c3b82	0.03814269
5	0xbcd9a2b9	-0.02656685
6	0xbc57c303	-0.013169053
7	0x3bfc0e6b	0.0076921484
8	0xbd580e0a	-0.052747764
9	0xbbdf6b17	-0.006818186
10	0x3c3cd7e7	0.0115260845
11	0x3cb43e91	0.02200249
12	0xbb907c00	-0.004409313
13	0x3cef736d	0.029229844
14	0x3d8ce808	0.06880194
15	0xbd3f2e42	-0.046674974
16	0x3c19804d	0.009368968
17	0x3c06ae2f	0.00822024
18	0x3c8c9f80	0.0171659
19	0xbc5a553f	-0.013325988
20	0x3d9ba896	0.076005146
21	0xbcbf699d	-0.02336579
22	0x3d4ba354	0.04971631
23	0x3d4a6fd0	0.04942304
24	0xbb860e14	-0.0040910337
25	0x3c603f83	0.013687017
26	0x3c8b5f78	0.017013296
27	0xbc3c544b	-0.011494706
28	0x3ca0ae4d	0.019614363
29	0xbcad1fd8	-0.021133348
30	0xbd851719	-0.06498546
31	0x3c0815d9	0.00830599
32	0x3c9a81c2	0.018860701
33	0x3cbbbef5	0.022918204
34	0x3c0426d2	0.008065896
35	0xbb8e7b4f	-0.0043481956
36	0x3ca4c33c	0.020112626
37	0xbc51bc2d	-0.012801212
38	0x3d3c9cca	0.046047963
39	0x3c2f1488	0.010686047
40	0xbcf0da71	-0.029401036
41	0xbcb06394	-0.021531858
42	0xbc7feeac	-0.015620869
43	0x3c6f3ced	0.014601928
44	0xbc8fd22c	-0.017556272
45	0xbd33c3e4	-0.043887988
46	0x3d157b10	0.036494315
47	0x3d0ea227	0.03482261
48	0xbd42497c	-0.04743336
49	0x3a7cbc8f	0.00096411345
50	0x3a223af4	0.0006188594
51	0xba9aa1c6	-0.001179748
52	0x3a3cac84	0.00071973377
53	0xbc5ebab8	-0.013594322
54	0xbce6212a	-0.028091986
55	0x3ad11d2e	0.0015954131
56	0x3cd64069	0.02615376
57	0x3cda9733	0.026683426
58	0x3c2e31f0	0.010632023
59	0x3c8e4243	0.01736558
60	0xbc06201f	-0.008186369
61	0x3c188a9f	0.009310394
62	0xbc58e1ff	-0.013237475
63	0x3b7b086c	0.003830458

exp_avg_sq f4 [64]
0	0x466f3def	15311.483
1	0x472029fd	41001.99
2	0x467193b5	15460.927
3	0x47d783a9	110343.32
4	0x45bee774	6108.9316
5	0x4609881e	8802.029
6	0x4817a4c1	155283.02
7	0x443938be	740.8866
8	0x47e4db83	117175.02
9	0x4574ce26	3916.8843
10	0x477f2028	65312.156
11	0x476dfc87	60924.527
12	0x46674d1b	14803.276
13	0x478fa86d	73552.85
14	0x48e8cbc9	476766.28
15	0x460d0cb2	9027.174
16	0x45b746c7	5864.847
17	0x45ac81ad	5520.2095
18	0x45e9cf1b	7481.888
19	0x4813590d	150884.2
20	0x48a76719	342840.78
21	0x45f8fd03	7967.6265
22	0x4637049f	11713.155
23	0x47f6a825	126288.29
24	0x469458a6	18988.324
25	0x4780ba35	65908.414
26	0x464eccf2	13235.236
27	0x44ec3087	1889.5165
28	0x45536a88	3382.6582
29	0x47922712	74830.14
30	0x481334a1	150738.52
31	0x446c4afe	945.17175
32	0x42aaeb07	85.45904
33	0x46cf2d8b	26518.771
34	0x4728da84	43226.516
35	0x46b90b16	23685.543
36	0x4731629b	45410.605
37	0x45a052cb	5130.349
38	0x44167292	601.79016
39	0x42eb8077	117.75091
40	0x44b1be7b	1421.9525
41	0x47d6db3c	110006.47
42	0x45010ed8	2064.9277
43	0x45e6ff46	7391.909
44	0x46b1c214	22753.04
45	0x478779ae	69363.36
46	0x48e58894	470084.62
47	0x48c48c91	402532.53
48	0x4501135a	2065.2095
49	0x46993ce2	19614.441
50	0x45c451b4	6282.213
51	0x46591282	13892.627
52	0x4582deeb	4187.8647
53	0x45e82276	7428.3076
54	0x467a9500	16037.25
55	0x48241720	168028.5
56	0x456b3e1d	3763.882
57	0x458b8467	4464.5503
58	0x43087bb6	136.48325
59	0x468a204d	17680.15
60	0x449545c1	1194.1798
61	0x485fe1f2	229255.78
62	0x47c425fd	100427.98
63	0x43b1df9c	355.74695

exp_avg f4 [64, 128]
0	0x3b2dbad1	0.0026509056
1	0xba2e78ad	-0.00066555553
2	0x3b587365	0.0033027765
3	0x3bde1b82	0.0067781815
4	0xb9e68392	-0.00043967046
5	0x3b359762	0.002770864
6	0x3ba3c0d0	0.0049973503
7	0x3b732362	0.0037099947
8	0xba003575	-0.0004890778
9	0x3aea4545	0.0017873427
10	0xba0b0c54	-0.0005304266
11	0x3bbeef1e	0.005826845
12	0x3b8c2f56	0.004278104
13	0xbad5c685	-0.0016309774
14	0x3bb8c100	0.005638242
15	0x3bd33a41	0.0064461534
16	0x3a8bc39d	0.0010663156
17	0xba45cbcd	-0.00075453223
18	0x3b728737	0.0037006864
19	0xba9dff30	-0.0012054201
20	0xbbb5376b	-0.005530288
21	0xbbfaa3ce	-0.0076489216
22	0x3b4ebe9c	0.0031546718
23	0xbbb64c07	-0.0055632624
24	0x3b55cf73	0.003262487
25	0x3b99ca46	0.0046933023
26	0x3ab877f5	0.0014073836
27	0xbbe3b356	-0.0069488687
28	0xba3dd498	-0.0007241457
29	0xb86a9d0c	-5.593621e-05
30	0xbb5d70d7	-0.0033789182
31	0x3ba596e0	0.005053386
32	0xbb6d542d	-0.0036213503
33	0x39571c16	0.0002051446
34	0xbb09d748	-0.0021032859
35	0xbb075cbb	-0.0020654637
36	0xbaccf924	-0.0015638215
37	0xbaf364bb	-0.0018569449
38	0xbbddff5a	-0.006774825
39	0xbb92ace1	-0.004476175
40	0x3c057d95	0.008147617
41	0x3b841416	0.0040307147
42	0xb97f2cee	-0.00024335433
43	0xbb2f135f	-0.0026714427
44	0x39a1f3cf	0.00030889965
45	0x3b8ce31c	0.0042995345
46	0xbbbf073c	-0.00582972
47	0x3b821648	0.0039699413
48	0xbb3d6081	-0.0028896632
49	0x3a1b2b94	0.00059192744
50	0x3a893e48	0.0010470832
51	0xbaac276f	-0.0013134311
52	0xba395605	-0.0007070008
53	0x3b05a162	0.002039038
54	0x3b35acd4	0.0027721422
55	0x3b961e81	0.004581273
56	0x3b5a8bab	0.0033347409
57	0xb9378b70	-0.00017504185
58	0x3a1a83b0	0.0005894257
59	0xbb53ef10	-0.0032338537
60	0xbb91704f	-0.004438437
61	0x3ba59931	0.005053662
62	0x3b9a9738	0.0047177337
63	0x3b12eb32	0.002241802
64	0x3b803c35	0.0039134272
65	0xbbcf0625	-0.006317871
66	0xbaee2ff7	-0.0018172254
67	0x3bdd2924	0.006749289
68	0xbaf99335	-0.0019041063
69	0xbb09c3d3	-0.0021021261
70	0xba7fa18e	-0.00097515516
71	0xba98260d	-0.001160802
72	0x3b86efc6	0.0041179387
73	0xbb4b1583	-0.0030988164
74	0x3b971b2d	0.004611394
75	0x3b858446	0.004074606
76	0x3b94ab8d	0.004537052
77	0x3b50f1c5	0.0031882387
78	0x3a0126cb	0.000492674
79	0x3b512e2d	0.0031918392
80	0xbbc16c87	-0.00590283
81	0xbbe3dacb	-0.0069535724
82	0x3b2ea20e	0.0026646885
83	0x3b857350	0.004072584
84	0xbb986fc0	-0.0046519935
85	0xbbf1ab88	-0.0073751844
86	0xbbbbe43f	-0.005733996
87	0xb8aa99eb	-8.134901e-05
88	0xbaac34fe	-0.0013138351
89	0x3bfeaf60	0.007772371
90	0x3ba70f09	0.005098228
91	0xbb2feba0	-0.0026843324
92	0x3aaf387d	0.0013368275
93	0xbbc6a801	-0.006062508
94	0x3ae438d9	0.0017411961
95	0xbb076a76	-0.002066282
96	0x3a8d531f	0.0010782218
97	0xbb35ee36	-0.0027760393
98	0x3b1d8c92	0.0024040085
99	0xbbdf262f	-0.0068099718
100	0x3b4eff50	0.0031585284
101	0x3b45ff24	0.003021189
102	0xbbb6aa4d	-0.0055745007
103	0xbb21518a	-0.0024615251
104	0xbb767814	-0.0037608193
105	0xba27819b	-0.0006389857
106	0x3b9b0537	0.0047308463
107	0xbbbe1c58	-0.0058017187
108	0x3b5af679	0.003341107
109	0x3be2ccc9	0.006921385
110	0xb9c1d6d0	-0.00036971876
111	0xbaf54034	-0.0018711151
112	0x3b1c0ccb	0.0023811336
113	0xbbaa6eb0	-0.0052011833
114	0x3bdc7f0b	0.006729012
115	0xbbc8678f	-0.006115861
116	0xbadb57a9	-0.0016734499
117	0xbb59b6e1	-0.0033220577
118	0x3b8c0958	0.004273575
119	0x3ae18c2a	0.001720791
120	0x3b45d4f5	0.0030186747
121	0x3aeee956	0.0018227499
122	0x3804587e	3.1553667e-05
123	0x3aa39cbb	0.0012482622
124	0x390cc2d2	0.00013424017
125	0x3b2178e9	0.0024638718
126	0xb9bdc62d	-0.00036196542
127	0x3a189a54	0.00058213365
128	0x3c37c0a8	0.011215366
129	0x3bd107c0	0.0063790977
130	0x3c3d6295	0.011559148
131	0x3bf9b98e	0.007620997
132	0x3ca8ddb8	0.020613536
133	0x3b9a2f7b	0.004705367
134	0xbc54b90c	-0.012983572
135	0x3c2d18db	0.010565008
136	0x3af1c2fa	0.0018444948
137	0xbb5a306c	-0.0033293022
138	0xbae71a82	-0.0017631801
139	0xbc2da510	-0.010598436
140	0xbcaff8e1	-0.02148098
141	0xbc9404dd	-0.018068725
142	0xbbf8b55b	-0.0075899786
143	0x3c7afd2b	0.015319149
144	0x3c972b3e	0.018453237
145	0xbab5aba5	-0.0013860358
146	0xbb9d98ad	-0.00480946
147	0x3b00ef98	0.001967406
148	0x3c09e3bf	0.008416115
149	0x3ad42aa3	0.0016187023
150	0x3cd4c339	0.025971996
151	0x3c038754	0.00802787
152	0x3c510ae4	0.012758944
153	0xbbfb54be	-0.007670014
154	0xbc965d23	-0.018354958
155	0x3c269da9	0.010169425
156	0xbcc1915e	-0.023628887
157	0x3c534e36	0.012897065
158	0x3ab352fd	0.0013681349
159	0x3cd4f59b	0.02599602
160	0x3a1e574f	0.00060402317
161	0x3c3baa0a	0.011454115
162	0x3c4b25fe	0.012399195
163	0x3c92e7c5	0.017932782
164	0x3bad7258	0.005293172
165	0x3c42a930	0.011881158
166	0xba9c25a2	-0.0011913071
167	0xbc86e354	-0.01646582
168	0x3d18fbce	0.037349515
169	0x3baf3fc8	0.0053481795
170	0xbcabb684	-0.020961054
171	0x3b87eb26	0.004147905
172	0xbcda0b35	-0.026616672
173	0xbad55f27	-0.0016278968
174	0x3beee523	0.007290499
175	0xbc6d6030	-0.014488265
176	0x38d49818	0.000101372774
177	0x3b9b0c51	0.004731693
178	0xbc2be4dc	-0.010491576
179	0x3c56e869	0.013116934
180	0xbc9fb78a	-0.019496698
181	0xbb956dca	-0.004560207
182	0xbc882e1a	-0.016623545
183	0x3af70b8b	0.0018848045
184	0xb9934842	-0.0002809186
185	0xbbfce726	-0.0077179847
186	0x3c4ea49d	0.012612489
187	0x3b57f0d5	0.0032949944
188	0x3c214fa0	0.009845644
189	0xbb656630	-0.0035003535
190	0xbc691fa0	-0.014228731
191	0xbc945003	-0.018104559
192	0x3c57177b	0.013128157
193	0xbad7d467	-0.0016466499
194	0x3b32eb85	0.0027301025
195	0x3bf7eaed	0.007565847
196	0x3c9658e0	0.018352926
197	0xbb256a89	-0.0025240502
198	0xbc506386	-0.012719041
199	0x3b04595b	0.0020194862
200	0x3bf9578e	0.0076093143
201	0xbb9dab28	-0.004811663
202	0x3b92172d	0.004458329
203	0xbc46f970	-0.0121444315
204	0xbcacc6b1	-0.021090837
205	0xbb904da2	-0.004403786
206	0xbc6c328d	-0.014416349
207	0x3c0a7408	0.008450516
208	0x3b997189	0.004682724
209	0xbc019da0	-0.007911116
210	0xbb98c7ee	-0.0046625054
211	0x3c004d32	0.007830905
212	0x3c1e808a	0.009674201
213	0x3b2cee4f	0.002638716
214	0x3bfc5b14	0.007701287
215	0x3c7b0b93	0.015322584
216	0x3ba0cb2a	0.0049070315
217	0xbb548d2c	-0.0032432778
218	0xbc485096	-0.012226244
219	0x3c6f02e1	0.014588089
220	0xbca7477c	-0.020419829
221	0x3b403fb2	0.002933484
222	0x3bfbefb1	0.0076884856
223	0x3c3a0a0c	0.011354934
224	0x3bcc2c18	0.0062308423
225	0x3bde1d1f	0.006778374
226	0x3c88e590	0.016711026
227	0x3c1c5b4d	0.009543252
228	0x3c375e97	0.011191986
229	0x3be73c98	0.007056784
230	0x3a93bd5e	0.0011271646
231	0xbc5862ec	-0.013207179
232	0x3c338931	0.010958002
233	0xbb008147	-0.0019608305
234	0xbc4ae53e	-0.012383757
235	0xb974255e	-0.00023283574
236	0xbcb11fdb	-0.021621635
237	0x3b0180b8	0.001976056
238	0x3c5cc568	0.0134748
239	0xbc653e04	-0.013991836
240	0x3bd52e8d	0.0065057934
241	0xbaf43117	-0.0018630353
242	0xba0cdf0a	-0.00053738116
243	0x3bb5942e	0.005541346
244	0xbbc2e011	-0.005947121
245	0xbbbfce92	-0.0058534825
246	0xbc69aef3	-0.014262903
247	0xbb3a2ddb	-0.002840868
248	0xba6935ef	-0.00088962814
249	0xbb217dc0	-0.0024641603
250	0x3c410b9e	0.011782555
251	0x3c1bb2b5	0.009503056
252	0x3c87e5ce	0.016589072
253	0xbbddb875	-0.0067663738
254	0xbc177325	-0.009243761
255	0xbca78a81	-0.020451786

exp_avg_sq f4 [64, 128]
0	0x45cb7b9a	6511.45
1	0x47b28ec3	91421.52
2	0x46c1db01	24813.502
3	0x45e01750	7170.914
4	0x4638318f	11788.39
5	0x4685453d	17058.62
6	0x4649be55	12911.583
7	0x46c123cb	24721.896
8	0x45b24bf0	5705.492
9	0x479c8239	80132.445
10	0x4692518a	18728.77
11	0x45d31da6	6755.706
12	0x45e476cd	7310.85
13	0x471bd8ad	39896.676
14	0x458f4d18	4585.6367
15	0x46bf4ca0	24486.312
16	0x4734787b	46200.48
17	0x47252572	42277.445
18	0x477af928	64249.156
19	0x463f03a5	12224.911
20	0x43eb1b91	470.21536
21	0x46624cb1	14483.173
22	0x4706045e	34308.367
23	0x43b638b5	364.44302
24	0x4690fe61	18559.19
25	0x46b9c902	23780.504
26	0x469cde77	20079.232
27	0x467ba6cb	16105.698
28	0x46723c25	15503.036
29	0x473b832b	48003.168
30	0x46894e48	17575.14
31	0x46d32ba9	27029.83
32	0x46ec3549	30234.643
33	0x4607e92b	8698.292
34	0x45ad873b	5552.904
35	0x46f8220a	31761.02
36	0x448c99aa	1124.802
37	0x47f7e6a6	126925.3
38	0x46808531	16450.596
39	0x4667db8f	14838.89
40	0x46bad043	23912.13
41	0x47ab6b08	87766.06
42	0x46c04170	24608.719
43	0x45e2c03c	7256.0293
44	0x468fb28e	18393.277
45	0x45aa7084	5454.0645
46	0x45f35e8a	7787.8174
47	0x4567cc01	3708.7502
48	0x4691d1f5	18664.979
49	0x478077f2	65775.89
50	0x478b780c	71408.09
51	0x46eff4c5	30714.385
52	0x4842baa3	199402.55
53	0x4792c567	75146.805
54	0x46055670	8533.609
55	0x46ec32b1	30233.346
56	0x4752133a	53779.227
57	0x4767862e	59270.18
58	0x45ae35da	5574.7314
59	0x4582f1f7	4190.2456
60	0x42f1525f	120.66088
61	0x46b95467	23722.201
62	0x47a415a9	84011.32
63	0x45ef69d7	7661.23
64	0x46208b1a	10274.775
65	0x4457f3ae	863.8075
66	0x41e93702	29.15186
67	0x45d290db	6738.107
68	0x45d98a68	6961.301
69	0x44692e4b	932.7233
70	0x465046ed	13329.731
71	0x414fb5ad	12.981854
72	0x45969f3e	4819.9053
73	0x45323a4c	2851.6436
74	0x451f5a9b	2549.6628
75	0x451809cf	2432.613
76	0x45c04f61	6153.9224
77	0x43e440ca	456.50616
78	0x463d8cd1	12131.204
79	0x458e741b	4558.513
80	0x4391b6da	291.42853
81	0x459df893	5055.072
82	0x450550ed	2133.0579
83	0x459e6489	5068.567
84	0x43c5dc0c	395.71912
85	0x43f0322b	480.39194
86	0x44c4ec9a	1575.3938
87	0x466568d7	14682.21
88	0x44033c4f	524.9423
89	0x4315492b	149.28581
90	0x44cc639f	1635.1132
91	0x46237a7d	10462.622
92	0x46249caf	10535.171
93	0x4014f150	2.3272285
94	0x45834a7e	4201.3115
95	0x4597dd1f	4859.64
96	0x454f582a	3317.5103
97	0x43a6835b	333.0262
98	0x46897d6e	17598.715
99	0x4491b6da	1165.7141
100	0x45fe3bd3	8135.478
101	0x459ca893	5013.072
102	0x4416c069	603.0064
103	0x460867d4	8729.957
104	0x45bf965b	6130.7944
105	0x4387a51e	271.28998
106	0x4517997c	2425.5928
107	0x4495cc81	1198.3907
108	0x46173cc5	9679.192
109	0x45038836	2104.5132
110	0x46416acd	12378.7
111	0x46633ecf	14543.702
112	0x45613571	3603.34
113	0x446c1f1b	944.486
114	0x434e0083	206.002
115	0x42a13449	80.60212
116	0x458ac027	4440.019
117	0x456dbafa	3803.686
118	0x450885cd	2184.3625
119	0x43a3627a	326.76935
120	0x434c2967	204.16173
121	0x3fc21375	1.5162188
122	0x4570421c	3844.1318
123	0x4598eebe	4893.843
124	0x4643a61c	12521.527
125	0x44b95de9	1482.9347
126	0x4614bf88	9519.883
127	0x463a42a9	11920.665
128	0x4454511d	849.2674
129	0x44b54e0e	1450.4392
130	0x41e67988	28.809341
131	0x43ec12ca	472.1468
132	0x43ddbfb3	443.49765
133	0x440873c8	545.8091
134	0x460b32a1	8908.657
135	0x421edf98	39.718353
136	0x44b99c73	1484.889
137	0x4590babd	4631.3423
138	0x44a86ab4	1347.3345
139	0x44412106	772.516
140	0x43d14774	418.55823
141	0x453448e6	2884.5562
142	0x459d1ba0	5027.453
143	0x43ecfafc	473.96082
144	0x43f15f2b	482.7435
145	0x4595f8e3	4799.111
146	0x45312efd	2834.9368
147	0x450899d1	2185.6135
148	0x429466fe	74.20116
149	0x3fccb115	1.5991541
150	0x44bcb124	1509.5356
151	0x458ef77d	4574.936
152	0x4065c4db	3.59014
153	0x435b27dc	219.1557
154	0x42a076ee	80.232285
155	0x45cd7afd	6575.3735
156	0x44317ffd	709.9998
157	0x402561d8	2.584097
158	0x4506b44e	2155.269
159	0x4443ad02	782.70325
160	0x4515508e	2389.0347
161	0x3e50bad0	0.20383763
162	0x45172873	2418.528
163	0x4337c816	183.78159
164	0x44ef7d41	1915.9142
165	0x464a76f4	12957.738
166	0x40ae391b	5.444471
167	0x440fd72f	575.36224
168	0x450347fe	2100.4995
169	0x431cb7fb	156.71867
170	0x43557a4b	213.4777
171	0x43d580f5	427.00748
172	0x442b1133	684.26874
173	0x441abe12	618.96985
174	0x45c3ffa4	6271.955
175	0x45d284d5	6736.604
176	0x44ed1f02	1896.969
177	0x44a3d3d7	1310.62
178	0x434aacee	202.6755
179	0x40bd8c2b	5.9233603
180	0x469395ad	18890.838
181	0x45b5ef4d	5821.9126
182	0x42c8f39e	100.475815
183	0x43b9e910	371.8208
184	0x43928d92	293.10602
185	0x4290dd6d	72.43247
186	0x43767930	246.47339
187	0x44aa0301	1360.0939
188	0x45168423	2408.2585
189	0x447060e4	961.5139
190	0x468b48cb	17828.396
191	0x4477ec15	991.6888
192	0x44371ebb	732.48016
193	0x42765387	61.58157
194	0x40050027	2.0781343
195	0x43f02dd8	480.35815
196	0x43f8215c	496.26062
197	0x4284fcc4	66.49368
198	0x446d9128	950.26807
199	0x3f6ce8da	0.92542803
200	0x43abce15	343.61002
201	0x434b4b50	203.29419
202	0x4335c3f0	181.76538
203	0x432d6ae0	173.41748
204	0x43db59ce	438.7016
205	0x42022c48	32.543243
206	0x445834dc	864.8259
207	0x43a27cb9	324.9744
208	0x41a633f2	20.775364
209	0x43b43032	360.37653
210	0x43181060	152.06396
211	0x43b4ab2d	361.3373
212	0x41e1ad8f	28.209745
213	0x4208fe13	34.24812
214	0x42e09d76	112.30754
215	0x4482d5ef	1046.6854
216	0x4215b082	37.42237
217	0x412a4b5b	10.643397
218	0x42e920b4	116.56387
219	0x443a77df	745.873
220	0x443bc283	751.03925
221	0x3e2a8b77	0.16654764
222	0x4395c12a	299.5091
223	0x43ad3817	346.4382
224	0x436c810a	236.50406
225	0x41bdecd2	23.740635
226	0x449cd34d	1254.6031
227	0x42a63405	83.1016
228	0x4410fe54	579.9739
229	0x43b2b0fb	357.38266
230	0x422bf49a	42.98887
231	0x441b9698	622.353
232	0x43da87c8	437.0608
233	0x419ab974	19.340553
234	0x432cead3	172.91728
235	0x42aade35	85.434
236	0x442c80f4	690.0149
237	0x43160816	150.03159
238	0x445c9e00	882.46875
239	0x44819a15	1036.8151
240	0x438070b2	256.88043
241	0x4286aa94	67.33316
242	0x416afc4d	14.686597
243	0x40b7e0dd	5.746199
244	0x439e4374	316.52698
245	0x4387952d	271.16544
246	0x431bb800	155.71875
247	0x41ba5c4e	23.29507
248	0x4168dfae	14.554609
249	0x3ddd7ec3	0.108151935
250	0x438905b4	274.04456
251	0x43ae708b	348.87924
252	0x445f297e	892.6483
253	0x42d36f13	105.71694
254	0x4429ab0b	678.67255
255	0x445473cf	849.8095

exp_avg f4 [64]
0	0x3bc27401	0.005934239
1	0xbd134cee	-0.035962038
2	0x3d2a8df2	0.041639276
3	0x3ac6459b	0.0015126945
4	0x3d77ecc4	0.06052853
5	0xbc0834b2	-0.008313345
6	0x3cf6e531	0.030138584
7	0x3cccdd9b	0.025008013
8	0x3cc3acd7	0.023886127
9	0xbdbb71f4	-0.09152594
10	0x3c94b31e	0.018151816
11	0x3c9ba4f2	0.01899955
12	0x3ccb8e53	0.024848139
13	0xbaacfcfd	-0.0013197955
14	0x3d445df8	0.047941178
15	0xbcc6225c	-0.024186306
16	0x399ffe75	0.00030516429
17	0x3d3bc76e	0.045844488
18	0x3c755521	0.01497391
19	0x3c7324c8	0.014840312
20	0x3d31f2ab	0.043444317
21	0xbccb3c76	-0.024809103
22	0x3d0fd454	0.0351146
23	0x3ce0a30f	0.027421502
24	0x3c13df23	0.009025368
25	0x3c5659a5	0.013082896
26	0xbbc778da	-0.0060874047
27	0xbb6658ac	-0.0035148067
28	0x3cea5774	0.028606154
29	0xbcc929ab	-0.024556002
30	0x3c31500e	0.010822309
31	0x3d54a88d	0.051918555
32	0x3c96f485	0.018427143
33	0x3aada465	0.0013247846
34	0x3bc5c9dc	0.0060360264
35	0x3b6b1258	0.0035869088
36	0x3d099a44	0.033594385
37	0xbc3e6d15	-0.011622687
38	0x3cb9f70a	0.022700805
39	0xbc3efa74	-0.011656392
40	0x3b5b91e1	0.0033503699
41	0x397ffe5d	0.00024413453
42	0xbc985e78	-0.018599734
43	0x3c64dc30	0.013968512
44	0x3cb9062c	0.02258595
45	0xbc91f376	-0.017816287
46	0x3c92a347	0.017900122
47	0x3d2ea83c	0.04264091
48	0xbd0d16ca	-0.03444556
49	0x3caa8963	0.020817464
50	0x3d46d836	0.04854604
51	0xbbfea388	-0.0077709593
52	0x3bb85f95	0.0056266286
53	0xbd5adecd	-0.053435136
54	0xbc6cf183	-0.014461878
55	0xbc8ad8a0	-0.016948998
56	0x3d353189	0.044236694
57	0xbce82239	-0.028336631
58	0x3be8eff7	0.007108684
59	0xbb84f4b8	-0.004057493
60	0xbc85f6b5	-0.01635299
61	0x3cb2937a	0.021798838
62	0x3c3fa84b	0.011697839
63	0xbc4e2b29	-0.012583532

exp_avg_sq f4 [64]
0	0x46a2c8aa	20836.332
1	0x44b9ac81	1485.3907
2	0x45578ca6	3448.7905
3	0x48b5d680	372404.0
4	0x45b409ed	5761.2407
5	0x4552d846	3373.517
6	0x4557ec3e	3454.7651
7	0x3c6c7967	0.014433241
8	0x48f29d6a	496875.3
9	0x47a6617b	85186.96
10	0x401f2d8f	2.4871557
11	0x45437083	3127.032
12	0x48917ac5	297942.16
13	0x481255a3	149846.55
14	0x45ebf862	7551.048
15	0x47bb7d4b	95994.586
16	0x46ec8116	30272.543
17	0x3f2ba22e	0.6704434
18	0x4406056a	536.0846
19	0x42686c8c	58.106003
20	0x4801704b	132545.17
21	0x45107ab8	2311.67
22	0x452eb87b	2795.53
23	0x41e089d2	28.067295
24	0x448b17e6	1112.7468
25	0x40fec406	7.9614286
26	0x412a02c7	10.625678
27	0x41e30614	28.377968
28	0x452e0c09	2784.7522
29	0x430a91ff	138.5703
30	0x4766d079	59088.473
31	0x42d17cf7	104.74407
32	0x41e3e400	28.486328
33	0x38ffe0ff	0.00012201256
34	0x4790fb0a	74230.08
35	0x41a041ff	20.032225
36	0x478c467a	71820.95
37	0x4549aa50	3226.6445
38	0x4356efb8	214.9364
39	0x44abc2a6	1374.0828
40	0x431daf50	157.68481
41	0x483c146b	192593.67
42	0x442a07f2	680.12415
43	0x44b6637b	1459.1088
44	0x4156dc64	13.428806
45	0x482fde38	180088.88
46	0x4534fd1a	2895.8188
47	0x4950266b	852582.7
48	0x46efb401	30682.002
49	0x459f6975	5101.182
50	0x4796809c	77057.22
51	0x4268068b	58.00639
52	0x40109794	2.2592516
53	0x443cd5e6	755.34216
54	0x48970637	309297.72
55	0x43483f5c	200.2475
56	0x43f5645a	490.784
57	0x45a11adc	5155.3574
58	0x3d21077c	0.03931378
59	0x470d773d	36215.24
60	0x438a447e	276.5351
61	0x497a57d5	1.0254053e+06
62	0x464e46b4	13201.676
63	0x4336ec31	182.92262
