results/energy/checkpoints/A04_H064_L02_D01_Tanh_W4096_P010000_V2.00e+01_S5.00e-01_Adam_PT_False_device_cuda_dtype_float32_chkp.pt (torch, 202451 bytes, 23 tensors)

layers.0.fc.weight f4 [64, 2]
00000000: b2b1 123d d39b b43e 0184 1ebf 320e 2cbe
00000010: 4a29 91be 6f15 3a3e 5267 10bb e549 163f
00000020: ab38 81bd 86b8 203e 8b6b 8ebe c95c c73c
00000030: 934b 26bf 6b37 23be bb5b 95be d3e1 773e
00000040: a8dc 813e acdf 2c3e f01d 0dbf 0360 b4bd
00000050: a990 913e 1835 353e 8af5 71be 93b2 b23e
00000060: 5eed 0abd 877d 093d 0cc0 393f 7be8 cabe
00000070: ecb2 00bf df44 70bd 1a7b 98be 1a89 0c3f
00000080: 011a 08bf 7d0c 153d 8e08 f6be db72 d7be
00000090: f484 f0be 9595 fd3e 9911 9a3e 6600 3e3e
000000a0: 902e 0a3e 2663 9abe 2a36 323e 08f7 36bf
000000b0: 083a 13bf dd43 db3c b228 e53e 56e2 073e
000000c0: b394 9ebe aaed 6a3e c023 9b3e d8cd bc3e
000000d0: f822 8c3e 16bd 533d 8c41 083f 0328 b4be
000000e0: 122d e13d 1bb1 98be bcf1 f2be c443 f0bc
000000f0: cd8d bb3e 07b7 793d 6e0f b9be 894b f63e
00000100: 7e24 c83e 82d9 8abd 90a2 fcbd 2d2d a13d
00000110: d5a1 e03e abb1 103f 1511 dbbe ebdf 91be
00000120: d167 8f3e 31d4 913e d563 443f 3441 303e
00000130: b8cd 453e 8287 0bbf d311 e03d 240e ebbe
00000140: c850 25bf bb8e cc3e 535e 263f 1610 0fbf
00000150: e8c9 6e3e b4df b7bd 087a 35be 543e 5abe
00000160: 17d1 fd3d f9a9 81be 49a4 573e 6abb ac3e
00000170: 38d3 0f3f 175d 063d 1303 1abf bc95 a9be
00000180: 2a9b ad3e 28f7 073d 2df9 04bf a25e d6bd
00000190: 1987 173f 2e26 153e f0ed aebe 3958 bcbd
000001a0: 38f8 5abf 20b1 123c ba86 19bf a94e 99be
000001b0: 9147 f83d c17c b63d 3a35 a0be bc09 b03e
000001c0: f324 d1be a761 033f fc9e 0f3f e9e3 82be
000001d0: 231b dabd bb09 a03d 384d 523e 847e 8c3d
000001e0: 850a a43e b1fb ad3d e3e2 96be 7b04 923e
000001f0: 7127 44bf bf8a 06bd d33e 17be 4829 2fbe
0.035813995 0.35275134 -0.6192017 -0.1680229 -0.28351814 0.18172239 -0.002203424 0.58706504
-0.06309637 0.1569539 -0.27816424 0.024336236 -0.6495907 -0.15939109 -0.29171547 0.24207239
0.2536366 0.16882199 -0.55123806 -0.08807375 0.2843068 0.17696035 -0.23628822 0.34901866
-0.033917777 0.033566978 0.72558665 -0.39630494 -0.50273013 -0.05865943 -0.2978142 0.548967
-0.5316468 0.036388863 -0.48053402 -0.42079815 -0.46976435 0.49528185 0.3009155 0.1855484
0.13494325 -0.3015377 0.17403474 -0.7147069 -0.57510424 0.026765758 0.4475761 0.13269934
-0.30972824 0.22942224 0.30300713 0.36875796 0.2737043 0.051694 0.53225017 -0.35186777
0.109949246 -0.2982262 -0.47450054 -0.029329188 0.36631623 0.060965564 -0.36144584 0.48104504
0.3909034 -0.067797676 -0.12335694 0.07869945 0.43873468 0.565211 -0.4278647 -0.28491148
0.28008893 0.28482202 0.7671483 0.17212373 0.19316757 -0.54503644 0.109409 -0.45909226
-0.6457639 0.39952645 0.6498768 -0.5588392 0.23319209 -0.08978215 -0.17722332 -0.21312839
0.12393396 -0.2532499 0.21058764 0.33736736 0.5618167 0.03280362 -0.6016094 -0.3312205
0.33907443 0.03319469 -0.5194271 -0.104672685 0.5919052 0.14565346 -0.34165907 -0.09196515
-0.85535 0.008953363 -0.599712 -0.29942825 0.12123025 0.08910514 -0.3129061 0.34382427
-0.40848503 0.5132088 0.56101966 -0.25564507 -0.10649707 0.07814356 0.20537269 0.068600684
0.32039276 0.08495272 -0.29469976 0.28519043 -0.7662268 -0.032847162 -0.1477006 -0.17105591

layers.0.fc.bias f4 [64]
00000000: 4e95 8fbe 4d92 19bf 4a84 3fbe 471e 233e
00000010: b27a 0bbf 0844 c03b a77d 1d3f 11dd 09be
00000020: ebc4 4bbd ba58 68bd 37f0 0b3e d9c6 163f
00000030: c528 403f ca95 233f 8b5e 383f c74c bfbd
00000040: 368e 48bf b773 c0be 4a4b 0d3f 386c 07bd
00000050: 5e8d dabe d2dc 10bf 16eb 5abf 09a3 56bf
00000060: a3b2 3dbe 5baf 233f 5a05 123f 99d3 70bf
00000070: 7d08 1d3f 2013 27bf 9ef7 46be 104d 01bf
00000080: 2ec6 3bbe 8a82 8ebe 97f5 31bf a2e7 42bf
00000090: 3d12 53be a7c2 7ebd a1c7 b1be cbc2 a83e
000000a0: b894 6dbf b9ed d1bd 69ac 293f 6e28 a0be
000000b0: 4582 423f 50e0 b13e 3712 40bf cfb2 0f3f
000000c0: 6d0c d2bd 12f5 c5be d6ca 363f ed7b 1abf
000000d0: 7f81 f43d 64ca b0bd 06b3 083f 83cd 813e
000000e0: 2c25 d33e da18 753e 25dc 73be b1c8 78be
000000f0: 9bc7 29bf e6be d63e 6229 143f 0a49 1c3f
-0.28043598 -0.5998886 -0.18702808 0.15929519 -0.54484093 0.005867485 0.61519855 -0.13463236
-0.049748342 -0.05672524 0.13665853 0.5889717 0.7506221 0.63900435 0.7201926 -0.09340816
-0.78341997 -0.37588283 0.55193007 -0.03306219 -0.4268598 -0.56586945 -0.8551496 -0.8384252
-0.18525176 0.63939446 0.57039416 -0.9407287 0.6134108 -0.6526356 -0.19430396 -0.50508213
-0.18337318 -0.27833968 -0.69515365 -0.76134694 -0.20612426 -0.062197354 -0.34722617 0.32961115
-0.9280505 -0.1025042 0.662787 -0.31280845 0.75980026 0.3474145 -0.75027794 0.56132215
-0.10256276 -0.38663536 0.71403253 -0.60345346 0.11938762 -0.08632353 0.5339817 0.25352105
0.41239297 0.23935261 -0.23814447 -0.24295308 -0.663202 0.4194252 0.57875645 0.6104895

layers.1.fc.weight f4 [64, 128]
00000000: 7201 3fbd 3aa2 353d 8797 94bc 8d6f 8fbd
00000010: 74c9 cfbc 36a5 873d 4aab 08bd 6b87 153d
00000020: bc6d 8fbc 8c19 c53d 0af6 d6bd a058 8bbd
00000030: ef8c 90bd 9326 f53c ef27 d4bc 9afe cb3d
00000040: 1056 663d e333 853d a104 6d3c 705e 2cbd
00000050: f768 d83c 8ba2 bfbc e65a 963c 3e81 d63b
00000060: 630e dfbc 8a16 e2bd 2150 823c d81b a8bd
00000070: 8840 0ebd 1d47 fd3d 910e 1f3c 6e34 143d
00000080: 1c8b d9bd 5986 8e3d d245 84bd a176 943c
00000090: 136c 26bd aacc 5bbd b851 8abb abba 603d
000000a0: 683e b63c 0193 083d 60f6 de3c 35be 75ba
000000b0: c4e4 2f3c bb9f f7bd 0540 49bd 4249 2d3d
000000c0: 97d7 cf3a 50f1 e53d c4b6 88bd c51a 183d
000000d0: 36c4 bc3d 70e7 42bd 4be5 273d 601b 50bd
000000e0: 2e9a c53c 7b3b 7fbd 22b1 b13b c2b4 383c
000000f0: 20dd 9e3d 1a06 7dbc d8cf e3bc 103b 39bd
00000100: 1990 98bd d777 3a3d 2332 03bd 631f acbd
00000110: f313 eebc f298 1a3d bc86 1a3d b7a5 ae3d
00000120: 05e1 243d 61e2 03bd db38 05bd 3713 633c
00000130: 99dd 493d dfd0 6b3c 298b 43bd 5580 b1bc
00000140: 3471 a3bd 9951 ef3c a84e 38bd f574 87bd
00000150: 1b87 c73d 7398 3abd b4b9 01bc d5d4 063d
00000160: a03c 133c bfa4 8cbd b207 abbd a2e3 8b3d
00000170: 8ae0 98bb a31c 9f3d abd5 98bc 0592 d83c
00000180: f946 6bbc 32db a03c ca7d 2fbd 7c4b 173d
00000190: f929 233d 0640 033c bef9 11bc f79d 8fbd
000001a0: 181e 6e3d 0852 cdbd 6796 bc3c ec88 38bc
000001b0: 2841 7fbd aab0 4bbb ba5c 29bd cebe 343c
000001c0: 6a67 e43c f33a 76bd 8b7d 3e3c be83 3c3d
000001d0: 29b3 133d 7b4c 29bc efef babd 1803 4cbc
000001e0: 42c0 1e3d cfe1 28bd 5275 6b3d cd6f 943d
000001f0: fb47 1cbd 60e1 82bb 63eb eb3c d50b 15bc
00000200: a093 57bc a251 8b3d 0070 81bd 2319 bc3c
00000210: 7369 293d 6ae8 a13d ace7 f63c 530a 173c
00000220: 3366 1a3d a9e0 10bd 2bda a0bd 98dc 97bd
00000230: 01e2 ca3d ddc1 b03b 16ca a7bd a789 e73c
00000240: 7fbf f83d 2ec7 f33d 5986 653d 3eb7 873d
00000250: 09fc f2bc 7640 10bd 3805 0d3e 0b70 8d3d
00000260: f5ed 39bd 1acd 403d 73c3 273d 2d21 a13d
00000270: a533 14bd 242e a13d d3b9 edbc e03d cf3d
00000280: cf7d 23bc 3b05 e63b bac1 b53c deab af3d
00000290: 2003 02bd b1cf df3c 0c82 76bd fe7c 583d
000002a0: b3a0 913b 6a5f b4bd af99 4abd a7b7 183d
000002b0: 3d7e 6b3d ed14 ac3d 0c17 ca3d b76c c1bd
000002c0: 0585 70bd 0ef3 cd3c bb93 f1bd 2d9a 913d
000002d0: e855 5ebd 0269 c7bc 7bd7 89bd 14fd 75bd
000002e0: 3172 693d 641c 453d 48f4 593d 4933 6e3d
000002f0: 6f7c a63d 0af4 05bd 9d52 343c ef3d b33d
00000300: 47d8 073c cabe ad3d f394 523d 7f93 963d
00000310: ab8d 3abd e76b ba3c c850 1c3c d749 91bc
00000320: b142 2a3b 6d8f 87bd 7266 87bd b92f 803d
00000330: a2c7 9d3d b9ed 35b8 dabd 8abd 59f9 903d
00000340: c572 943d 1e1c fd3b b93a 5abd f6be 143e
00000350: a253 dd3c f885 99bd aa49 ca3d 65a8 ba3d
00000360: 9a67 cfbc a85b e23c 97d0 68bd 0a16 953b
00000370: 9599 b13d a55d 983c 957e 34bd 48be 35bc
00000380: 80de 87bb 8418 04bd b367 ef3c 19df cf3d
00000390: ab36 3b3d b2b9 b0bc ec6f 763a 7d6c 763d
000003a0: f7ba 883d 43e8 4abd 3dbe 51bc 7135 8fbd
000003b0: df2f dcbc a16f ff3c 76c9 3abd 1af9 b03c
000003c0: c441 c13d 334b 403c 6af3 96bd 6486 afbc
000003d0: 2ae0 073d 32a0 abbd 3bd3 593d 990f b7bd
000003e0: 298c c9bd 79c7 9abd ab2a edbc 1516 733d
000003f0: 38ea 9cbd faa5 8c3d 08e9 adbc b756 113d
-0.046632238 0.044344164 -0.01813866 -0.070036985 -0.025364615 0.06623308 -0.03336648 0.036506098
-0.01750838 0.09624013 -0.10496147 -0.06804013 -0.07058131 0.02992562 -0.025897948 0.09960671
0.05623442 0.06504037 0.014466436 -0.04208225 0.026417239 -0.023392936 0.01835389 0.0065461686
-0.02722854 -0.11039455 0.015907349 -0.08208436 -0.03472951 0.123670794 0.009708063 0.036182813
-0.10622236 0.069592185 -0.0645863 0.018122973 -0.04063041 -0.05366198 -0.0042211674 0.05486552
0.022246554 0.03334332 0.02721709 -0.00093743514 0.010735694 -0.12091013 -0.04913332 0.042306192
0.0015857097 0.11227667 -0.06675485 0.037134904 0.09217112 -0.047583997 0.040990155 -0.050807357
0.02412137 -0.062312584 0.005422727 0.011273565 0.0775702 -0.015443349 -0.027809069 -0.045222342
-0.074493594 0.045524444 -0.032030236 -0.08404424 -0.029062247 0.037743516 0.03772615 0.08527701
0.040253658 -0.032198314 -0.032524925 0.013859562 0.049283598 0.0143930605 -0.047740135 -0.021667639
-0.07980576 0.029213713 -0.044996887 -0.06614105 0.09742566 -0.045555543 -0.00791781 0.032917816
0.008986622 -0.0686736 -0.08351077 0.06830527 -0.004665439 0.07769134 -0.018656572 0.026436815
-0.014360183 0.01963577 -0.04284457 0.036937222 0.03983495 0.00801087 -0.008909641 -0.07012551
0.05813417 -0.10025412 0.023020936 -0.0112631135 -0.062317997 -0.0031080642 -0.041348197 0.0110318195
0.027881343 -0.060114812 0.011626611 0.046024077 0.036059532 -0.010333176 -0.09127795 -0.0124519095
0.03875757 -0.041230973 0.057484932 0.07247887 -0.038154583 -0.003994152 0.028798765 -0.009097059
-0.013157755 0.068026796 -0.063201904 0.022961205 0.04136033 0.079056576 0.030139767 0.00921877
0.03769512 -0.035370503 -0.07854112 -0.07415122 0.09906388 0.005394204 -0.08192842 0.02826388
0.121459 0.11903225 0.056036327 0.066267475 -0.029661195 -0.035217725 0.13771522 0.06906136
-0.04539295 0.0470706 0.04095788 0.07867656 -0.036182065 0.07870129 -0.029019272 0.101192236
-0.009978726 0.0070196665 0.022187103 0.08577703 -0.03174126 0.027320715 -0.060182616 0.052853577
0.0044442057 -0.08807261 -0.04946297 0.03728452 0.057493437 0.08402429 0.09867677 -0.09444564
-0.058720607 0.025140312 -0.117957555 0.07109485 -0.054281145 -0.024342064 -0.06730553 -0.060055807
0.056993667 0.04812278 0.05321148 0.058154378 0.081292026 -0.032703437 0.011006025 0.08752047
0.008291311 0.08483656 0.05141158 0.073523514 -0.04554526 0.02275653 0.009540744 -0.017735405
0.0025979693 -0.06619153 -0.06611337 0.062591024 0.077040926 -4.337516e-05 -0.067744926 0.07078809
0.07248453 0.007724299 -0.05327866 0.14525971 0.027017418 -0.07496256 0.098773316 0.0911415
-0.025317956 0.027631596 -0.05683955 0.0045497464 0.086718716 0.01859934 -0.04406603 -0.01109273
-0.004146397 -0.032249942 0.029224252 0.101499744 0.045706432 -0.021572921 0.0009400833 0.060162056
0.06676286 -0.04953791 -0.012801704 -0.06992615 -0.026878295 0.031181158 -0.045602284 0.021603156
0.09436372 0.011736679 -0.07370646 -0.021426387 0.033172764 -0.08380164 0.05317996 -0.08938522
-0.098411866 -0.07557578 -0.02895101 0.05934723 -0.07661861 0.06867595 -0.021229282 0.03548309

layers.1.fc.bias f4 [64]
00000000: 0b27 2f3d e26f ef3b 8747 79bd 4e34 4a3d
00000010: a787 e3bc 5df6 3f3b af52 de3c 40a5 263d
00000020: f278 5c3c 827a ed3d d6f6 d73d f3b6 66bb
00000030: 9f7b c93d ecb6 233d 25cf debd 36d8 c43d
00000040: d4d4 673a 7ace cdbc 1d01 63bd 7234 87bc
00000050: fd71 8ebd f03c c8bc 38fd 843d e7bb f93d
00000060: 4f36 063d 203a b1bd 61cb 3bbe 07bd 013c
00000070: 4501 fa3d 8837 743d 12c1 013e 31c3 85bd
00000080: 47ea c73d 504e 923e db96 43bd 6db5 05be
00000090: 0841 a8bd ca67 073d 4c0a 653c f44d 90bd
000000a0: 0ec6 293e 8e49 233c 2fca 4bbd 3572 84bd
000000b0: f322 04be 467f 9c3d 2e29 c23d d1f9 e7bc
000000c0: 1a73 51bd 9867 813d 55b4 5fbd 96db a2bd
000000d0: 7d83 a83d dce1 973d 01d4 11bd 97a4 bf3a
000000e0: 4161 a03d 2785 c8bd 6a89 c83d e7c4 9dbd
000000f0: 3a4a 71bd 55a2 da3d 39de d1bd ce82 9d3b
0.042761844 0.0073070386 -0.06085923 0.049366288 -0.027774645 0.002929113 0.027139036 0.04068494
0.01345657 0.11595632 0.10545127 -0.003520426 0.09838032 0.03996937 -0.108793534 0.096115515
0.00088436645 -0.02512287 -0.055420984 -0.0165045 -0.06955335 -0.02444312 0.0649361 0.12194043
0.032766636 -0.086536646 -0.18339302 0.007918603 0.122072734 0.05962327 0.12671307 -0.065313704
0.09761482 0.28575373 -0.04775129 -0.1305749 -0.08215529 0.033057965 0.013979506 -0.070461184
0.16579458 0.009966267 -0.049753364 -0.06467096 -0.12903957 0.07641463 0.09480511 -0.028317364
-0.05113516 0.06318587 -0.054615337 -0.07952039 0.082282044 0.07416126 -0.035602573 0.0014621195
0.0783105 -0.09791022 0.09791835 -0.07703572 -0.05890868 0.10675494 -0.10247464 0.004806853

layers.2.gsds.0.weight f4 [4, 64]
00000000: 689a 913d 45cc de3d 15e7 15bd 6f6c e33d
00000010: 9f61 39ba 917b d6bd 925e ebbd 7956 7cbd
00000020: 6206 fdbc c786 073e 83d6 bfbd 52c3 bdbc
00000030: 1194 ab3d e8ea 34bd f5e4 ab3d 841e a7ba
00000040: 3b49 69bd 4cc6 dbbd dce9 d73d 2160 b1bd
00000050: 9c19 683c ec10 3f3d 90e0 0bbb 4360 f2bc
00000060: 6c83 c9bc 9b33 2fbd 9102 0e3d 5586 e7bc
00000070: ebf3 303d c791 513d e824 c33c e3c9 84bd
00000080: 5ca8 bebd 99b0 3b39 7435 113d aec9 103c
00000090: 7772 ea3d c3ed 753d fa80 78bd 7179 a43d
000000a0: 2384 92bd 0fe2 fdbc 2ef2 b53d d71f bebd
000000b0: 9b47 863d e7c8 dfbd 5c38 653d d47a c03d
000000c0: 459e e03d f916 adbd cd27 a1bd b852 873d
000000d0: 9d69 0bbd 7873 57bd 4471 a7bd 54e9 903d
000000e0: 7aae d3bc 63e6 a7b9 8741 bbbc 62ef b83c
000000f0: 9f2a 91bd 1c9e f43d 201f e0bd 3459 82bb
00000100: 641b 2dbd d199 8ebd af78 ab3d f94a 933d
00000110: 0057 963d db91 cf3d c1c1 ce3d 7ace c13d
00000120: 9805 e4bc 21fa 9dbd 8e55 103d 4bc9 5d3d
00000130: d566 843d 2d74 0ebb 86d0 373e 7b49 aabd
00000140: db4e de3d c6c8 1f3e 7cf7 06bb e264 943c
00000150: 02f7 e93d cc72 a8bd ac70 013e e3b4 b53c
00000160: 5e9c bd3d eb54 9f3c 3c21 6b3d 3b3e 76bb
00000170: bfb5 8a3d 4c2a 40bd b231 13be 7e12 cc3d
00000180: 605d 823d 7699 07bd b6d9 d63d 0397 c23c
00000190: 506e f83c be7c 09bd 7d27 6c3d 290b 38bd
000001a0: 2e25 82bd 08f8 a93d cdb4 453b cc6b e53d
000001b0: b73d 85bc ce9a 5fbd e8d2 bd3d ea0d fb3d
000001c0: 656b bbbd ae39 b03d cad5 d33c 439b 0ebd
000001d0: 5341 c1bc 5771 aebd f932 09bd 2b33 aebd
000001e0: 45b4 b53d b3d4 043d 2cce ed3d 000b 853d
000001f0: 11c8 98bd 7616 5f3d 1622 893d e8e6 7b3d
00000200: 047c 13be 849f 2b3e 518e f6bd fef1 4abe
00000210: 30a6 c4bd 1bf4 3a3e 4a02 23bd d9f1 a1bd
00000220: d529 38be cd87 223e 8b10 9cbe 3eab 7b3d
00000230: b6d7 523e d2a1 3ebe d424 0ebe 13f9 77bc
00000240: 07a1 b53d 07c8 adbd 0214 a6bd 9d1b 41bc
00000250: eb09 f9bb 7e76 6b3d de80 043e 0026 0dbc
00000260: b2e0 5c3d 8a3d 103d 7de0 8a3e 11bb c93d
00000270: 7f45 3e3e d573 073d 2a7f edbd c6a0 48bd
00000280: 4fef e33d 63ca 66be f4e6 44bc a05b 74be
00000290: 8717 afbd b029 e63d 133c 943d 1f9c f13c
000002a0: f7a4 a83d c5c5 743d b720 303d a2b3 423c
000002b0: cbcc a93e 0e7e 633e 73c1 fe3d 89c6 bf3d
000002c0: 895c 2e3e b11c 683d 0df5 033d 25f1 81bd
000002d0: 6f0b e4bd 3e0a f03d 1cb1 783c 3b34 16bd
000002e0: a959 38bd 2683 7dbd d0aa 3abe 3271 70bc
000002f0: 7063 593d c358 853e d3b9 f0bd cf24 553e
00000300: c30e da3c cd97 593d c077 f33c 6329 69ba
00000310: bf07 5cbd 6795 84be 93e1 7abd 69ed 91be
00000320: 62fd 793e f5b6 433e 9438 403e c76c 11be
00000330: ccba 5b3d 6d4b 8dbc 61a2 48bd 155a 2cbe
00000340: b05f 16be ddf3 65bd 53f9 313d 73c4 2a3e
00000350: 385e 263e ddb5 7cbc 8fab 8fbd 0468 8c3e
00000360: b237 30bd 4bf5 053e 55c4 b53e bb07 303e
00000370: 6b05 8f3d aacc 31be 296d d5bd e0af 4dbe
00000380: 92e8 9a3e 4be2 aabe dd27 23bd 41b1 05bd
00000390: 48bd 393e eb76 cbbc 4723 debb 6bfa 253e
000003a0: 27e8 64be d591 99be b0cf bd3e 2250 d4bd
000003b0: f0a5 51be e492 023d 65cb b23d 1c91 47be
000003c0: 648a 863d d33c 36be e3ed a13e 4296 9bbb
000003d0: e113 5a3e 2c67 da3d 12d4 873e 3b14 13be
000003e0: 52b7 7bbc af5f 9fbe 09b1 c23e e36c 783e
000003f0: 60e4 4f3e 8240 d4bd 61aa cf3d c088 da3d
0.07109529 0.10878805 -0.03659733 0.111046664 -0.00070717366 -0.10472787 -0.11492647 -0.061605904
-0.030886833 0.13235007 -0.09367087 -0.023164425 0.08377851 -0.044169337 0.083932795 -0.0012750183
-0.056954604 -0.107311815 0.10542652 -0.08660913 0.014166262 0.046646997 -0.0021343566 -0.029586917
-0.0245988 -0.042773824 0.034670416 -0.028262297 0.04320137 0.051164415 0.02382131 -0.06483819
-0.09309456 0.00017899497 0.035451367 0.008837147 0.11447614 0.0600412 -0.060669877 0.080309756
-0.07154109 -0.030991582 0.08884083 -0.09283417 0.065566264 -0.10926991 0.05596195 0.093984276
0.109676875 -0.08451647 -0.078689195 0.06607574 -0.034036268 -0.052600354 -0.081759006 0.07075754
-0.025840033 -0.00032024374 -0.022858394 0.022575084 -0.070882075 0.119442195 -0.109434366 -0.003977919
-0.04226245 -0.06962932 0.08372628 0.07192034 0.07340813 0.101352416 0.100955494 0.094632104
-0.027834699 -0.07713724 0.03523784 0.054147046 0.06464926 -0.0021736727 0.17950639 -0.083147965
0.10854884 0.15603933 -0.002059429 0.01811451 0.11424066 -0.08225021 0.12640637 0.02218098
0.0925834 0.019449672 0.05740474 -0.0037573713 0.067729466 -0.046915337 -0.14374426 0.099644646
0.06365466 -0.033105336 0.10490744 0.023753649 0.030326039 -0.03356623 0.057654846 -0.04493252
-0.06354748 0.08299261 0.003016758 0.11202201 -0.01626478 -0.054590993 0.09268743 0.12258513
-0.09151343 0.086047515 0.025858779 -0.034816038 -0.02359072 -0.085177116 -0.033495877 -0.08505853
0.08872274 0.03242941 0.1161159 0.06496239 -0.07460035 0.05446478 0.066959545 0.061499506
-0.14402777 0.16760069 -0.120388635 -0.19818875 -0.0960201 0.18257181 -0.039797105 -0.07907457
-0.17984708 0.15872116 -0.3048137 0.061442606 0.205901 -0.18616417 -0.13881236 -0.0151350675
0.08868604 -0.08485418 -0.08109285 -0.011786369 -0.0076000593 0.05748605 0.12939784 -0.008615017
0.053925224 0.03521494 0.27124396 0.09850133 0.18581198 0.03306945 -0.1159652 -0.04898145
0.11129629 -0.22538142 -0.012017954 -0.23863077 -0.08549409 0.1123842 0.07238021 0.02949339
0.082345895 0.05975892 0.04299995 0.011883648 0.33164057 0.22216055 0.12439241 0.093640395
0.17027487 0.056667987 0.03221612 -0.06344823 -0.11134993 0.117207035 0.015178945 -0.036670905
-0.04500738 -0.06189265 -0.18229222 -0.014675425 0.053073347 0.26044282 -0.11754193 0.20814823
0.026618367 0.053123284 0.029720187 -0.0008894412 -0.053718325 -0.25895235 -0.06125028 -0.28501442
0.24413064 0.19112761 0.18771583 -0.14201652 0.05364494 -0.01724788 -0.04898298 -0.16831239
-0.1468494 -0.05614077 0.043450665 0.16676502 0.16246879 -0.015424219 -0.07015144 0.27423108
-0.043021865 0.13081853 0.35501352 0.17190449 0.06983455 -0.1736323 -0.10421211 -0.20086622
0.30255562 -0.33375773 -0.03983294 -0.032639746 0.18138611 -0.024836978 -0.0067791077 0.16208808
-0.22354184 -0.29994074 0.37072515 -0.103668466 -0.20473456 0.031878367 0.08730201 -0.19488949
0.06569365 -0.1779664 0.31626806 -0.0047481367 0.21296646 0.1066421 0.26528984 -0.14363186
-0.015363531 -0.31127688 0.38025692 0.24260287 0.20301962 -0.103638664 0.10139919 0.10670614

layers.2.gsds.0.bias f4 [4]
00000000: 4886 a83c 811c 2ebd 5e81 2a3e 3a49 0bbe
0.020571843 -0.042507652 0.16650912 -0.13602152

log_envelope.log_envs.0.weight f4 [4, 1]
00000000: daea 233f f62f 273f 2d82 103f a927 173f
0.6403023 0.6530756 0.5644863 0.5904489

exp_avg f4 [64, 2]
00000000: 22f2 08bc 1d1d 033c 2715 4bbc 0688 d73b
00000010: da44 5439 6144 7fbb df9e 40bc 4842 313c
00000020: f09d e63a ff20 263a 8dd3 db3b a91c 2cbc
00000030: 6b75 8c3b 5467 feba c2f5 d23b 92f9 49bb
00000040: df4e 853b 5011 1c3b 4771 18bc e02c ee3b
00000050: 8624 353c ae91 11bc edf0 c93a 3bc7 87bb
00000060: c008 a7ba 086c fe3b cf32 833b 3908 88ba
00000070: 9a66 84b9 1db1 d53b 7c11 bdba 4d3d 47b6
00000080: 4aa5 6d3b 20fd 9bbb 8358 fc3b 74e2 05bc
00000090: 15ce 18bb 1526 d63b 9740 223c a69a 4ebc
000000a0: 35fc aeba a635 bc3b 9024 4339 84fd e63b
000000b0: 4ef9 6ebb 9eb6 b3ba fd3f 733b d7ea f53a
000000c0: 7a2d 953b d828 16ba 5f04 8bba 36d2 28b9
000000d0: bc3b eabb 215f aa3a 18f7 3eba 33b5 9b3a
000000e0: 1822 e538 d378 e33a 7017 91bb 3a77 253b
000000f0: c176 99bb b037 32bb cba9 193c 69de 97ba
00000100: df1f 153c f025 1ebc a310 5dba ad7c 40bb
00000110: 3b57 00bb eeed 0b3b 2b2a e136 a0e5 1a3b
00000120: 64af d2bb 1c31 1d3c f95f 2abb 907c 863a
00000130: 4857 b43a 47f8 f8bb 419c 42bc b410 ed3b
00000140: c58b bb3b 2d54 09bc 3e27 493a 0aea fbba
00000150: 0526 d5bb 5060 0c3c 7f45 193c dd46 efbb
00000160: d7fb 31bb 42cf 35bb f9b7 193c 42e3 5dbc
00000170: f323 2bbb 256e 923b eb36 17bc 0f70 b13a
00000180: 7ad9 14bc 300d 023c c8ac ea3b 5ba8 59bc
00000190: 3d0f cb3b 684f 8cbb f23b bdbb e63f 133c
000001a0: 2ae9 eb3a 403b 12bb 4fc8 a339 619e 65bb
000001b0: 2274 3b3b ece6 1dbc 56c5 b1bb 43ad 92ba
000001c0: 01f1 df3b 1e0f 2b3b 61e5 733b 8971 99ba
000001d0: cfa9 c03b 9efb eb3b fed6 573a ce56 2e3c
000001e0: a482 473b 62c8 29bb f589 0fbb a7e5 0c3c
000001f0: af24 dd3b 4067 feb9 8354 fc3a 717e 04ba
-0.00835851 0.008002547 -0.01239518 0.0065774946 0.00020243545 -0.003895067 -0.011756628 0.010819025
0.0017594676 0.0006337314 0.0067085684 -0.01050488 0.0042864583 -0.0019409456 0.006437988 -0.0030818922
0.00406824 0.002381403 -0.009304351 0.007268533 0.011056071 -0.00888483 0.0015406884 -0.004143623
-0.0012743697 0.007764343 0.0040038596 -0.0010378427 -0.00025253446 0.0065213577 -0.0014424766 -2.9688993e-06
0.003626185 -0.0047603995 0.007700981 -0.008171666 -0.0023316194 0.0065353015 0.009903095 -0.012610113
-0.001335031 0.0057437 0.0001861027 0.0070492644 -0.0036464515 -0.001371104 0.0037116997 0.0018762004
0.0045525404 -0.0005728132 -0.0010606161 -0.00016100038 -0.007148234 0.0012998321 -0.00072847446 0.0011879563
0.000109259214 0.0017354734 -0.004427843 0.0025248067 -0.004683346 -0.0027193837 0.009378861 -0.0011586669
0.009101837 -0.0096526 -0.000843296 -0.0029371188 -0.0019583243 0.0021351534 6.7104315e-06 0.0023635402
-0.0064295996 0.009594228 -0.0025997146 0.0010260511 0.0013758922 -0.0075979563 -0.011878074 0.007234657
0.005723449 -0.0083818855 0.0007673389 -0.0019219529 -0.0065047764 0.008567885 0.009354948 -0.0073021487
-0.0027158165 -0.0027741943 0.009382241 -0.013542952 -0.0026113957 0.0044686967 -0.009229402 0.0013537424
-0.009085054 0.007937714 0.0071617104 -0.013284768 0.006196885 -0.004281927 -0.0057749683 0.008987403
0.0017998565 -0.0022313148 0.00031239024 -0.0035037028 0.0028603156 -0.009637576 -0.0054251356 -0.0011190552
0.00683415 0.002610154 0.0037215578 -0.001170681 0.0058796178 0.007201626 0.00082336355 0.010640813
0.0030442858 -0.002590679 -0.0021902297 0.008599675 0.006748758 -0.00048523583 0.0019251261 -0.00050542416

exp_avg_sq f4 [64, 2]
00000000: 6175 e63c 03b2 8b3b f6e1 303c 5a05 e83a
00000010: 6e7e f63a 046a 033a 1624 653d fc6f 933b
00000020: 36c1 dd3a 9018 0b3a cdbc de3c f343 753b
00000030: 0f1b ba3b 3a5f 683a 6d5e e33b f9e2 e339
00000040: 033b 3d3a 3961 5638 ec97 7a3c 9b35 0b3b
00000050: 4622 dc3c 2465 9f3b 3973 ed3b ea86 7e3a
00000060: fef7 783c e597 333b 276f 883a f3aa 9139
00000070: 99e0 973d 3dfe 333c 6da8 e33b 491f 4b3a
00000080: e3a4 f03b 241c d339 feec 973c 4715 113b
00000090: 0a66 863c 2b07 f23a 01aa ef3c c7dc db3b
000000a0: 06ff 813c 76d5 163b 209f d23b 92d4 ae3a
000000b0: 85ee ce3b 5d43 b439 1854 9d3a fda5 8039
000000c0: c7aa a33b 3864 0e39 14eb 3c39 5f72 9438
000000d0: e9a5 023c 065a 1a3a 5a56 a939 36a8 4b38
000000e0: 5ea4 b63b f63b dd39 b54c 763b b22c e839
000000f0: 7b71 ca3b a389 773a 64d0 f93b 6741 0239
00000100: 72d5 bd3c c5f2 703b 32e6 b53b 3f8c 7f3a
00000110: 709b 823c 390c ea3a 2981 cc38 9679 be38
00000120: b05e 133d 26bd d33b c11d 173a 64d6 1f39
00000130: f280 353c c6d7 0b3b b695 eb3c ed78 613b
00000140: 86db c53b bc04 4b3a 5061 fa3a 224d 3b39
00000150: ad6c 623c d7af 023b d9be 933c 94fc ca3a
00000160: 578e 223a 6b89 5e39 32fb 093d e458 c33b
00000170: 0ede d43c 61b2 613b e727 253d b4d2 8b3b
00000180: 9f93 a93c 7e5f 6c3b 56ec 963c 2f78 583b
00000190: 2cb2 a73b 1c4e 4a3a b0f3 303c 2113 063b
000001a0: 2811 5f3a ca3c 8439 14ed a03b 1c6d 4f3a
000001b0: 678c ab3c e44c 783b 4070 273c 4b01 d33a
000001c0: 039e 4d3b 1e95 133a 24c6 c33a 407c 1739
000001d0: 9974 7f3c e328 833b 9278 dd3c 2cc2 cc3b
000001e0: f2ed e03b f5c4 443a 03df e93c f087 7a3b
000001f0: df4d 463b 3c3e c239 bb87 f73a b52a a138
0.028132142 0.004263164 0.010796061 0.001770179 0.001880599 0.0005013051 0.055942617 0.0044994336
0.0016918543 0.00053060893 0.027189637 0.0037424534 0.005679495 0.00088642875 0.0069387467 0.00043465922
0.0007218571 5.111212e-05 0.01529501 0.0021241668 0.026871812 0.004864352 0.0072464016 0.0009709435
0.015195845 0.0027403769 0.0010409103 0.00027783922 0.074158855 0.010985908 0.006947568 0.00077484973
0.007343875 0.00040266023 0.018545624 0.0022137926 0.016406078 0.0018465271 0.029255869 0.0067096683
0.015868675 0.0023015416 0.0064276606 0.0013338497 0.006315055 0.00034382465 0.0012003211 0.00024537733
0.0049947235 0.0001357951 0.0001801665 7.078493e-05 0.007974126 0.00058880483 0.0003229853 4.855563e-05
0.0055737933 0.0004219708 0.0037582342 0.0004428379 0.0061780787 0.0009442812 0.007623719 0.0001242213
0.023173068 0.0036765796 0.005551123 0.00097483763 0.015943259 0.0017856426 9.751536e-05 9.082553e-05
0.035978973 0.0064617572 0.00057646265 0.00015243288 0.011078106 0.0021338328 0.028757911 0.0034404353
0.006038132 0.0007744541 0.0019102488 0.00017862444 0.013819856 0.0019941234 0.01803534 0.0015486651
0.000620102 0.00021222762 0.033686824 0.0059615243 0.02598479 0.0034438598 0.040321257 0.004267061
0.020700274 0.003606766 0.01842324 0.003303062 0.0051176753 0.00077173277 0.010800287 0.002045818
0.00085093314 0.00025222293 0.0049110744 0.0007912682 0.020940972 0.0037887627 0.010219634 0.0016098408
0.00313747 0.0005629825 0.001493637 0.00014446769 0.015591764 0.004002677 0.027035031 0.006248733
0.006864303 0.00075061555 0.028548723 0.0038227998 0.0030258817 0.00037048932 0.0018885055 7.685033e-05

exp_avg f4 [64]
00000000: 2b75 a3ba 80fc 383b 19d8 7f3b a953 363c
00000010: 0e46 843b cbea d4ba f101 713b d5d6 0cbb
00000020: 6426 993a 5828 d5bb 359a 343c ac81 443b
00000030: 4b94 883b b13d 16bb f161 093c 40fd 33bc
00000040: 12de f03a a79e 213c bc59 fabb 81e7 c03b
00000050: f74e e83b 8842 0dbc 9147 f53b 9264 943b
00000060: 556c 7d3b f8da 9b3b 8f0d 4b3c 8d01 b139
00000070: c086 963b 7dba a6ba 10cd 43bc 986c 1bba
00000080: c151 393c 860e 19bc 9e99 ad3b fb83 9a3a
00000090: b4ed 163c 9087 11bb c13d 413c 7d43 1fba
000000a0: 205d 10bc b8e7 a73b 4af7 be3b a876 533b
000000b0: fdf1 b8bb 0d9c b9bb de35 eb39 e742 87b8
000000c0: f0ab 33bc 0a02 7a3b 3ae6 89ba e9ec 773a
000000d0: dbf4 c9ba e777 acbb c8c2 d03a a4e6 60bc
000000e0: 22a3 f63b 9ff8 82bb 2e1c 8f3c 1bf8 5d3c
000000f0: 0a1e e4ba 94d6 7339 df3a 183c 2254 953b
-0.0012470832 0.0028226674 0.0039038716 0.011128345 0.0040366715 -0.001624429 0.0036774839 -0.0021490355
0.0011684415 -0.0065050535 0.011023094 0.0029984517 0.0041680685 -0.0022924955 0.008385167 -0.0109856725
0.0018376729 0.009864486 -0.0076400917 0.0058869724 0.0070894915 -0.008621819 0.007485338 0.0045285905
0.0038669307 0.0047563277 0.012393369 0.00033761226 0.0045937 -0.0012720373 -0.011950746 -0.00059289625
0.011310996 -0.009341842 0.0052978536 0.0011788601 0.009211946 -0.0022206046 0.011794508 -0.0006075425
-0.008811265 0.0051240586 0.005827819 0.003226677 -0.0056440816 -0.0056643547 0.00044862827 -6.449763e-05
-0.010966286 0.0038148188 -0.0010520883 0.00094576046 -0.0015408056 -0.005263317 0.001592719 -0.013726864
0.007526771 -0.003996923 0.017469492 0.0135479225 -0.0017403972 0.00023254222 0.00929138 0.0045571486

exp_avg_sq f4 [64]
00000000: d496 d53c 0dc7 763c 8c57 3d3b f261 9d3d
00000010: a236 023b 0d4a cb3c a846 513c 129e 3f3b
00000020: 87ca 453a 59ac c73c 588a 413d ab13 323b
00000030: d652 1b3d 0e60 8c3b fc88 9c3d a719 8b3b
00000040: 1fa1 f03a 3c01 343c ef67 9b3c c882 b23d
00000050: 1545 853c 7bcf c83b 20b5 973b f8a2 3b3a
00000060: 12ee c63a f1d5 b739 3943 4c3c daea 0d39
00000070: 6e7f f63b 404d 0d3b e149 5a3c 3789 4d3a
00000080: 988e 113d 5726 8e3c b437 443c e9e6 3e3a
00000090: 9c8b 893d c8a8 ed3a 5c7c 8b3c b9c0 193d
000000a0: 4970 7d3c 9067 e33a 7c4d 0e3d 4b00 493c
000000b0: 1018 283a ec47 aa3d bfe5 c43c f726 4d3d
000000c0: 52d9 ef3c 4def e73c 5bf1 b83b 2ab1 853c
000000d0: 149c b93b fdb9 b63c 7c63 063d 2955 ed3b
000000e0: bebe 943b 7055 033b ed4e f73c 1245 4d3d
000000f0: d1da 063c 5fc3 513d 6b9f df3b 8136 9a3a
0.026072897 0.015062106 0.0028891293 0.07684697 0.001986899 0.024815584 0.012773193 0.0029238504
0.00075451325 0.024374174 0.047251076 0.0027172368 0.037920795 0.0042839115 0.07643315 0.0042450014
0.0018358565 0.010986622 0.018970458 0.08716351 0.016268292 0.006128249 0.004629746 0.0007157768
0.0015177152 0.0003506388 0.012467199 0.00013534297 0.007522515 0.0021560937 0.013323278 0.0007840576
0.03553638 0.017352266 0.011976171 0.0007282333 0.067160815 0.0018131966 0.017027073 0.03753731
0.015468665 0.001734959 0.034741864 0.012268136 0.0006412277 0.08314499 0.024035333 0.050085988
0.029278431 0.02831235 0.005644006 0.01631983 0.005664358 0.022305483 0.03280972 0.007242818
0.00453934 0.0020039938 0.030189002 0.0501147 0.008230881 0.05121171 0.006824424 0.0011765511

exp_avg f4 [64, 128]
00000000: 3a14 093b e045 fa3a 2f28 3a3b d3d7 8a3b
00000010: cfcc 9e3a 7cad cf3a 18e1 8b3a 31f3 593b
00000020: 4b60 07b9 df10 0b3b 78a3 5db9 f28b 1d3b
00000030: 4073 3b39 8114 cbbb 5f79 7b3a 7435 b63b
00000040: 1f7d 213b 0aa2 bcb9 e0a7 653b 2f1a 8fb9
00000050: f53f 1abb 000c 9bbb b8b3 223b c795 13ba
00000060: d723 5a3b 656e 983a 9312 68ba 5105 c6ba
00000070: 0292 08bb e04a 003b d114 a7ba 4408 a03b
00000080: 6998 0cbb 4bb0 9e3a 2b89 a539 e993 c3b8
00000090: c96e c039 7968 11bb ce5a 8fbb f286 68bb
000000a0: e873 9c3b 7e1c c9bb 9fea c4ba cdec 2cba
000000b0: 39f3 d9ba e280 b53a 16f6 8aba 5ec6 1b3a
000000c0: be7d b8ba f061 fe3a 5d8e e3ba 7266 6e3a
000000d0: bcc0 4e3b f011 923a f794 4637 308b 673b
000000e0: fe3a 8a3b c7c0 99bb 664a 943a b6c7 02ba
000000f0: 40cf 14ba 3d30 2d3b de4e cf3a 3886 9bb9
00000100: 94fc 243b 20e5 2fbb 7ed2 01ba 7df4 893b
00000110: 9de4 153a df76 c1ba 264f 3cbb e86d 10b9
00000120: b40b 2a3b cf1c 23bb 6384 363b 5fc9 263a
00000130: 24b5 96b8 635a f039 128b 03bb 55b6 e83a
00000140: 75fa 01bb 6a90 85bb fb1a 043a ba89 383b
00000150: 86b8 88ba b10e 57bb 40fa 07bb e6f5 fe3a
00000160: 4269 a1b9 7080 6f3b 46de e83a 5157 ff39
00000170: 9804 82ba 931e 10bb db8b 0c3b 25fc 393a
00000180: ecd5 c23a c917 8db9 e8fe 623b 6941 5abb
00000190: 2523 4f3b 5efb 3b3b d0fa 1abb ac9b 0fbb
000001a0: 0f61 4fba 1fe0 f6b9 5615 3a3a 1c21 29bb
000001b0: 4151 20ba beee 663b 75cc 053b ebd3 64bb
000001c0: 6957 013b e14b 26bb de80 2f3b 4585 13bb
000001d0: d1c8 0fbb 2806 61bb 22d6 9d3a a244 da39
000001e0: a294 733a f046 523a 3d48 2fb9 30d7 dc3a
000001f0: eb3b de3a 45a4 c538 eae6 28bb 3c4a cdba
00000200: 9d92 d13a 7eb2 6a3b 82f6 623b 8a10 563b
00000210: 042d b73a e3a0 1e3b 3849 393b 3c53 7d3b
00000220: f0dc 9dba b029 823b 901f beba fa42 1c3b
00000230: be6b a7b8 66a4 ecbb 042e fb3a 0c0e b83b
00000240: 3840 683b 4ee9 dd3a d10c 833b 1c97 caba
00000250: d38f 0dbb 64d4 88bb eec3 693b 8f3a a2ba
00000260: 3937 813b 96f1 04b9 7c8c e9ba 2e12 00bb
00000270: fee7 11bb 16dd 4d3b 7573 20bb cb10 ab3b
00000280: c7d7 50bb 64ce cd3a aeb0 96ba cbfd 9b3a
00000290: 5f40 6bba 3890 9abb 5f54 85bb 0065 5abb
000002a0: 56d8 b43b 5b51 e9bb 37e9 0abb 6e3d a039
000002b0: 99b0 fcba b901 1439 5dc3 0abb 1636 283b
000002c0: 2ec1 23bb 213d 693b 43f3 50bb b250 013b
000002d0: 5db7 b43b 1898 623b ffe5 1fba ea70 7e3b
000002e0: ac13 963b a8ce c0bb 26c1 bb3a a879 92ba
000002f0: 5e6e 92ba 43ac 403b 65a5 6a3b 5b1c 1fb8
00000300: 170d 083b 6c12 d5ba a288 62b9 d502 543b
00000310: 85a5 353a 1714 8bba 8c36 0fbb 57aa 6538
00000320: ac57 003b 1a9c ddba bcf2 053b 3b00 9139
00000330: 99f6 beb9 b6d6 8cb9 66d2 cbba 3c05 c93a
00000340: 63da 9bba 23e2 3fbb c3ca c939 aff2 083b
00000350: 3bad 28ba bf4e 20bb 351b a1ba 8dde cb3a
00000360: 3e88 51b8 d20c 343b 4aa6 993a d214 0d3a
00000370: 21da 88ba 9698 b7ba d6e4 ce3a be8e 593a
00000380: abba 893a a176 98b8 ee88 1e3b 0180 1ebb
00000390: 1eb7 1c3b 9eef 093b 3ee0 e5ba f2ab f2ba
000003a0: 14bd 3eb9 98c9 39ba 99af 9639 7dd7 f8ba
000003b0: bfca 4fba ca97 2d3b d9d0 cd3a 0a3c 2bbb
000003c0: da2c bc3a 7e73 d6ba b0f4 d83a b2e7 c9ba
000003d0: 2dfd d2ba a777 20bb bfa0 3e3a 2829 b139
000003e0: 27f9 433a 9709 7a39 c4d4 4db7 5b00 b43a
000003f0: efc2 be3a 6094 b7b7 81cf 02bb e89b bfba
0.0020916597 0.0019094311 0.00284053 0.004237154 0.0012115481 0.0015844549 0.0010671942 0.0033256526
-0.00012910475 0.0021219773 -0.00021137099 0.0024039713 0.00017876644 -0.0061975126 0.0009592976 0.0055605713
0.0024641228 -0.00035978883 0.0035042688 -0.00027294594 -0.0023536657 -0.004731655 0.002482636 -0.00056299235
0.0033285522 0.001162958 -0.00088528654 -0.0015107786 -0.002083898 0.001957588 -0.0012747293 0.004883798
-0.0021453148 0.0012106983 0.0003157345 -9.325875e-05 0.00036703635 -0.0022187515 -0.0043748384 -0.0035480824
0.0047745593 -0.0061374297 -0.0015023536 -0.00065965654 -0.0016628272 0.0013847614 -0.0010601904 0.000594234
-0.001407556 0.001940785 -0.0017361153 0.0009094245 0.0031547984 0.0011144262 1.1836403e-05 0.0035330765
0.004218458 -0.0046921703 0.0011313676 -0.00049888657 -0.00056766346 0.0026426457 0.0015816351 -0.00029663905
0.0025174962 -0.002683945 -0.0004952325 0.0042100535 0.0005717965 -0.0014760158 -0.00287337 -0.00013773853
0.0025946917 -0.0024888997 0.0027849905 0.0006362404 -7.1862974e-05 0.0004584371 -0.0020071906 0.0017754534
-0.0019833122 -0.0040760534 0.0005039421 0.0028158263 -0.0010430969 -0.0032815153 -0.0020748526 0.0019451946
-0.00030786736 0.003654506 0.0017766438 0.00048702446 -0.0009919582 -0.002199088 0.0021445665 0.00070947624
0.0014864779 -0.00026911337 0.00346368 -0.0033303148 0.003160664 0.0028683762 -0.002364803 -0.0021912856
-0.0007910886 -0.0004708776 0.0007098516 -0.0025807088 -0.00061156234 0.0035237516 0.0020416055 -0.0034916352
0.0019735938 -0.0025374817 0.0026779692 -0.0022509855 -0.0021939764 -0.0034335945 0.0012041966 0.00041631336
0.00092918624 0.0008021435 -0.00016716211 0.0016848799 0.0016955113 9.4242896e-05 -0.00257724 -0.0015662382
0.0015989129 0.0035811956 0.0034631793 0.0032663667 0.0013975208 0.0024204783 0.0028272402 0.0038654348
-0.0012043994 0.0039722547 -0.0014505256 0.0023843632 -7.983249e-05 -0.0072217463 0.0019163494 0.005616909
0.0035438668 0.0016930492 0.0039993306 -0.0015456411 -0.0021600618 -0.0041757096 0.0035669762 -0.0012377071
0.0039433506 -0.00012678499 -0.0017818357 -0.0019542086 -0.0022263522 0.0031412295 -0.002448288 0.0052205077
-0.0031866895 0.0015701768 -0.0011496746 0.0011901198 -0.00089741306 -0.0047168992 -0.0040688957 -0.003332436
0.0055189533 -0.007120294 -0.0021196136 0.00030563347 -0.0019278704 0.00014115022 -0.0021173574 0.0025667003
-0.002498697 0.0035589414 -0.0031883277 0.0019731936 0.0055150227 0.0034575518 -0.0006099641 0.0038824626
0.004579982 -0.0058840103 0.001432453 -0.0011175172 -0.0011171808 0.002939955 0.003580415 -3.7934962e-05
0.0020759755 -0.00162561 -0.00021603939 0.003235032 0.00069292664 -0.0010610846 -0.002185258 5.4756496e-05
0.0019583507 -0.0016907484 0.002043887 0.00027656727 -0.00036423354 -0.00026862853 -0.0015550375 0.0015336643
-0.0011890646 -0.0029279075 0.00038488777 0.0020896604 -0.0006434505 -0.0024460999 -0.0012291434 0.0015553996
-4.995637e-05 0.0027473462 0.0011722532 0.00053818256 -0.0010440984 -0.0014007266 0.0015784751 0.00082991633
0.0010507902 -7.270021e-05 0.0024190503 -0.0024185183 0.0023912857 0.0021047364 -0.0017538143 -0.0018514378
-0.00018190249 -0.000708723 0.0002874106 -0.0018985119 -0.0007926635 0.0026488178 0.00157025 -0.0026128315
0.0014356629 -0.0016361324 0.0016552415 -0.0015404134 -0.0016097181 -0.002448538 0.0007271878 0.00033790735
0.0007475786 0.0002384543 -1.22684905e-05 0.0013733016 0.0014553944 -2.1884392e-05 -0.0019960108 -0.0014618607

exp_avg_sq f4 [64, 128]
00000000: b8b8 a83a d336 193b 361c f039 1b6a 9d39
00000010: f762 2d3b 1d09 ed39 97d2 a83b 0b6f ca39
00000020: f8cc 2f3a af21 bc3a 8821 003a 000b 4e3b
00000030: 7177 8e3b 2218 4a3b 9566 b03b aca1 e139
00000040: 9976 563b 1012 b73a 089a 583b 61df 503a
00000050: ef13 e23a db60 173b 76ec 6d3b 501e c83b
00000060: da96 043a fbfc 143b 5cee 0b3b b4d7 d03b
00000070: 55f8 533b f624 243b 1e23 c93a 6787 0c3b
00000080: 3d59 b73a 2b25 303a cad7 b63b 8775 403b
00000090: 782b d03a 50cf 2d3b 5e39 953a 2c04 b33a
000000a0: 534e 8d3b bc67 c83a 58cd 463b 5cc8 323a
000000b0: aa5e 8d3b 6c3d 563a cb0d ba3b 4cc0 a03b
000000c0: 5dd4 813a 8ab5 be3a 83ef 353b 907a 123b
000000d0: 4804 3d3b c5ce eb3a 5ab1 0a3b ad66 963a
000000e0: 8386 0c3b f681 a63a cc96 043a 6e00 a03a
000000f0: 9134 963b 60af 0d3b 96ea a43b 23f3 793b
00000100: 262d a13a 72bd 7b3a d89d 6239 ac4c 9d39
00000110: a37d 313b 04d4 8238 b020 073b aaee eb38
00000120: fceb 7439 48f4 3c39 debe 2039 60f5 1a3b
00000130: ee55 8c3b ed47 8d3a ef87 393b 95d8 2039
00000140: 6f67 083b 7e99 0b3a 21f8 cb3a ae6b 7739
00000150: 8648 bc3a ce0e fd3a f997 133b 0f6b 773b
00000160: 53c8 5539 7a4a fd3a 2d05 f83a b2d2 663b
00000170: ba08 583b 0618 d13a 010c 123a 7f53 d53a
00000180: 1090 de39 8569 363a cf99 5e3b c293 0d3b
00000190: f6b2 573a 1153 e739 eff9 4f3a 6539 ba3a
000001a0: fe48 293b df8e 0d39 9c2d 3c3b 1315 263a
000001b0: 75c4 8e3b 58e7 393a c4f1 353b 442e 073b
000001c0: bd54 8f39 6483 003a 1056 be3a a325 eb3a
000001d0: 46a2 f339 9241 9939 3bfb 0c3b 5908 f539
000001e0: 1423 7c3a 232f 3439 2a4c 0b3a 917f 443a
000001f0: 9660 4e3b d525 a73a 139c de3a e8ee 5a3b
00000200: b14b b73a 3f8b c73b 22d7 ab3a dd2f 653a
00000210: 697c 5e3b 9be3 a73a a775 eb3b 7f17 963a
00000220: 49a6 cb3a cab7 8d3b 9211 f03a ce92 893b
00000230: 22c7 b93b b734 d63b 74fa dc3b cc2c 5d3a
00000240: fa07 c73b 1d57 9a3b 9fb7 983b fd03 023b
00000250: cd01 1e3b 9cf3 713b 12b8 d73b c912 f13b
00000260: 71a2 bb3a 624a 9a3b 1bdc 7c3b 618b 033c
00000270: b574 853b 00d3 a93b f933 343b cfcc 583b
00000280: ee40 2d3b c2de 8f3a 2198 de3b 08e5 bd3b
00000290: 290a 253b 5469 dc3b 1155 ee3a 73ab c33a
000002a0: 8cc1 e43b a353 7f3b 6c3f 953b d950 eb3a
000002b0: 5a17 b73b be96 1a3b 32d4 eb3b a242 e23b
000002c0: 8fa8 0b3b 9fd9 933b c582 cb3b 488a 8e3b
000002d0: 8ebf e83b 59b3 af3b bccb 573b 0e14 f23a
000002e0: 156d 543b a305 7f3b 242d 563a e732 da3a
000002f0: b783 b53b c568 413b 217c f93b 7812 943b
00000300: 14cd aa3a a541 043b c0f6 bb39 afcb 663a
00000310: abdb 5f3b f90b e538 70ef 143b dbaa 3e39
00000320: 6589 a939 7bf0 e339 274e f339 09b8 553b
00000330: 0dff b73b eebc f13a 4415 543b dffa 2839
00000340: 6c98 593b 9cee bf3a 6f5a 063b 4415 bd39
00000350: 71f3 093b daf9 5a3b 69ba 6a3b 7a81 8f3b
00000360: 9c4d ad39 2094 623b 0d17 403b 54a9 923b
00000370: 6cc5 843b dc7e 303b 7c18 1d3a de4e 073b
00000380: f875 ef39 ac56 7b3a 8415 703b f532 743b
00000390: e507 693a 89d6 373a 920a bc3a 4849 ca3a
000003a0: d792 733b bfa9 3639 1e6d 823b c8e9 a53a
000003b0: 1be2 b43b 0010 cd3a 7c74 503b 5b71 123b
000003c0: cebe a539 befb 9a3a 4ed9 2f3b 668d 3f3b
000003d0: 22f8 2c3a 010e 383a 55ae 4d3b e0f3 213a
000003e0: 24d2 ad3a b235 ec39 5c6c 3d3a 9c8f 533a
000003f0: 125f 703b b0ca d83a b4ba f83a 5957 813b
0.0012872433 0.0023378625 0.00045797386 0.00030024428 0.0026456693 0.00045210953 0.0051520574 0.00038611176
0.0006706263 0.00143533 0.0004887809 0.0031439662 0.0043477346 0.0030837138 0.0053833225 0.000430358
0.0032724498 0.0013967175 0.0033050794 0.00079678564 0.0017248372 0.0023098502 0.0036304272 0.006107129
0.0005057879 0.0022733796 0.002135179 0.00637337 0.0032344062 0.0025046444 0.0015345549 0.002144301
0.0013988387 0.00067194056 0.0055799233 0.0029366927 0.0015882095 0.0026521273 0.0011384895 0.001365786
0.0043123155 0.0015289704 0.0030334797 0.0006820017 0.0043142634 0.0008172605 0.005677914 0.004905736
0.0009905208 0.0014549952 0.0027761168 0.0022350885 0.0028841663 0.0017990699 0.0021162839 0.0011474692
0.002144248 0.0012703526 0.0005057871 0.0012207159 0.004583903 0.0021619424 0.0050328476 0.0038139306
0.001229678 0.00096031197 0.00021611841 0.00030002499 0.0027082942 6.238374e-05 0.0020618849 0.00011250128
0.00023357564 0.00018020079 0.00015329893 0.002364479 0.0042827046 0.0010778882 0.0028309783 0.00015339472
0.0020813604 0.00053253013 0.0015561619 0.0002359587 0.0014364875 0.001930678 0.0022521003 0.003775302
0.0002038789 0.0019324564 0.0018922441 0.00352208 0.0032964186 0.0015952594 0.0005571247 0.0016275494
0.00042450475 0.00069584727 0.0033966189 0.0021602963 0.00082282664 0.00044121643 0.00079336663 0.0014207779
0.002583086 0.00013500031 0.0028713709 0.0006335538 0.0043569156 0.0007091663 0.0027762512 0.0020626942
0.0002733822 0.0004902391 0.0014521498 0.0017940294 0.00046469475 0.00029231288 0.002151205 0.0004673626
0.0009618264 0.00017183697 0.00053137785 0.00074958155 0.0031490675 0.0012752364 0.001698377 0.003340656
0.001398435 0.0060895975 0.0013110379 0.0008742789 0.0033948666 0.0012808921 0.007185656 0.0011451094
0.0015537228 0.004324888 0.0018315783 0.0041984087 0.0056694904 0.006537046 0.0067437235 0.0008437156
0.006073949 0.0047100917 0.004660561 0.0019838803 0.002410996 0.0036918884 0.006583222 0.0073569757
0.0014315379 0.004708574 0.0038583342 0.008028836 0.0040727505 0.005182624 0.0027496798 0.003308106
0.0026436406 0.0010976421 0.0067930375 0.005795125 0.0025183058 0.0067264233 0.0018183311 0.0014928415
0.0069810804 0.0038959763 0.0045546796 0.0017953172 0.0055875005 0.0023588385 0.0071969265 0.006904916
0.0021310186 0.0045120264 0.0062106573 0.0043499805 0.007102913 0.005361956 0.0032927832 0.0018469112
0.003241365 0.0038913272 0.00081701786 0.001664725 0.0055393833 0.002951191 0.0076136743 0.004518803
0.0013031089 0.0020180729 0.00035851263 0.0008804155 0.0034158032 0.00010921801 0.0022725724 0.0001818346
0.0003233656 0.00043475986 0.000464068 0.0032610914 0.005615121 0.0018443146 0.0032361308 0.00016115185
0.0033202423 0.0014643255 0.002050068 0.00036064733 0.0021049643 0.0033413083 0.0035816676 0.0043794485
0.00033054955 0.0034573153 0.0029310614 0.004475752 0.004051855 0.0026931083 0.0005992723 0.0020646374
0.00045673526 0.0009587805 0.0036633918 0.0037261818 0.0008889421 0.0007012864 0.0014346412 0.0015433216
0.003716638 0.00017420108 0.003980293 0.0012658173 0.005520118 0.0015645027 0.0031807711 0.0022345397
0.00031613413 0.0011824293 0.0026832405 0.0029228567 0.0006598254 0.000702113 0.0031384428 0.0006178003
0.0013261479 0.00045053434 0.00072259246 0.00080704107 0.003667776 0.0016539898 0.001897654 0.00394718

exp_avg f4 [64]
00000000: 6b4a ebb8 93fe 15ba d5de b63b 30f1 543b
00000010: bfef ae3b 55cf 07ba 8071 003c bb94 e73a
00000020: 4dc8 613a eb26 1ebc 6ea7 04bb 11a6 9539
00000030: f44e e3b9 1d88 3b39 5ee9 ae3a 2703 9eba
00000040: 58d1 5d3b eefd 3f3c b0dd da3b d69f a83b
00000050: 6c0d 9c3b 5382 d3bb d7fe 02bb 14ec dd39
00000060: def4 d43b b3ee 9e3b b9b8 3339 d0f3 293b
00000070: 4e44 113a f620 efbb 19f9 14bb 61be 3d3b
00000080: 66ba 1a3c d430 6537 69fd 0d3c 60c3 0d38
00000090: f33a a73b d44d f0ba 47b9 a63b 60bb d53a
000000a0: 6845 1937 4aa6 ab39 4325 083c 31c2 ca3a
000000b0: 246c 053b ab75 c23a 2ff9 243c 2c93 6f3b
000000c0: 8abb 65bb 1c81 713b 9280 b239 5612 43bb
000000d0: 3d0c 523a 2e17 91bb 81d3 223b 5623 07bc
000000e0: 8e5c 793b a894 35ba b6cd 9e3a 8949 b73b
000000f0: 71f8 a03b 413f 0cbb 9933 f43b 10e2 dd3b
-0.00011219535 -0.00057218334 0.005580763 0.0032492392 0.0053386386 -0.0005180736 0.0078395605 0.0017668227
0.0008612916 -0.009652833 -0.0020241397 0.00028543224 -0.0004335564 0.00017884416 0.0013344695 -0.0012055383
0.0033846702 0.011718256 0.0066792592 0.005146007 0.004762342 -0.006454745 -0.0019988322 0.00042328297
0.006498917 0.0048502325 0.00017139585 0.0025932677 0.0005541489 -0.0072976304 -0.0022731482 0.0028952586
0.009443855 1.3660832e-05 0.008666375 3.3798977e-05 0.005103463 -0.0018333741 0.0050880047 0.0016306452
9.135671e-06 0.00032739557 0.008309665 0.001546925 0.0020358646 0.0014836093 0.010069176 0.0036556227
-0.003505441 0.0036850637 0.00034046598 -0.0029765568 0.0008012688 -0.004427812 0.0024845304 -0.008248171
0.0038049552 -0.00069267536 0.001211575 0.005593483 0.004912429 -0.0021400007 0.00745244 0.0067713335

exp_avg_sq f4 [64]
00000000: a64b 2e3c a081 643c 978b a93a a67c c23b
00000010: 34ea a93b 9f4e fd3c b180 053d 3b12 2d3b
00000020: f452 c639 25c1 373d 68c2 8939 f06c 9339
00000030: f0d5 b63b 5f8c bb36 30ff c43b 8faf 3d39
00000040: 0a66 e73a 8e13 653c 4e14 b93c 4771 f73c
00000050: eaf4 8a3b ecaf 0d3b 8ee2 583b a842 1538
00000060: ba71 153b dfb0 bf3b 31f1 d539 0990 9f3b
00000070: b4e4 6d39 cfd3 623b 00ca 133a dbfd 2e3b
00000080: 4861 a33c 83df c935 9a34 163d 575a 6d38
00000090: 26cb ae3d c63f 953b fd6e 0e3c 6448 4f3c
000000a0: 5a9b 7235 b217 f239 9c5c 383b f71a 013c
000000b0: fbb9 3839 98f0 633d 247b 463d 14c7 9f3d
000000c0: ef6a fc3b d712 a93b 7d2a ae3b 4ff5 513c
000000d0: e466 983b f53f 073d 7d6c 6d3b 7400 ee3b
000000e0: 0718 8b3a 4299 9238 074a 3238 dd81 113c
000000f0: d008 0c3d 47e4 7d3b 267b 013d bcbc f43a
0.010638153 0.013946921 0.0012935278 0.0059352694 0.00518539 0.030921279 0.032593433 0.0026408571
0.00037827308 0.04486193 0.0002627552 0.0002811919 0.0055797026 5.5893756e-06 0.006011866 0.00018089845
0.0017654311 0.013981713 0.02259269 0.030205382 0.004240622 0.002161975 0.0033094021 3.5586447e-05
0.0022803382 0.005849942 0.00040806227 0.0048694653 0.0002268728 0.003461111 0.00056377053 0.0026701603
0.019943848 1.5040717e-06 0.03667126 5.658934e-05 0.08534841 0.0045547215 0.008693454 0.012651537
9.037809e-07 0.0004617549 0.0028131371 0.007879964 0.0001761689 0.05564937 0.04845728 0.07801643
0.007703177 0.0051597166 0.0053151236 0.012814834 0.0046509374 0.03301998 0.0036227994 0.0072632376
0.0010612019 6.990369e-05 4.250745e-05 0.0088810595 0.03418809 0.00387408 0.031611584 0.001867197
