results/energy/checkpoints/A04_H064_L02_D01_Tanh_W4096_P010000_V-1.00e+01_S5.00e-01_Adam_PT_False_NO_TRAP_device_cuda_dtype_float32_chkp.pt (torch, 202711 bytes, 23 tensors)

layers.0.fc.weight f4 [64, 2]
000000 2b 68 2c 3d 9f fd cd 3e c0 43 25 bf 43 6b bd 3c
       0.04209153 0.4023256 -0.64556503 0.023122435
000010 0a ae 9b be 9c 5e 66 3e 97 62 f8 bc 5f 9f 17 3f
       -0.3040622 0.22497028 -0.030320449 0.59227556
000020 14 b9 86 bd 04 a7 13 3e e4 0a 9e be f1 40 fe 3d
       -0.065782696 0.1441918 -0.30867684 0.1241473
000030 70 d4 2e bf 9e c2 d7 bd 24 dd a2 be 9b 99 83 3e
       -0.68292904 -0.10535167 -0.31809342 0.2570313
000040 c5 72 95 3e 14 13 4d 3e 63 88 0f bf 70 44 02 3e
       0.29189125 0.20026809 -0.56067485 0.1272142
000050 9c e4 9b 3e 89 9e ab 3d 51 06 78 be c2 12 e1 3e
       0.30447853 0.083798476 -0.2422116 0.43959624
000060 91 76 74 bd e9 63 b0 3c 2f ad 66 3f 7e 07 1e bf
       -0.059683386 0.021532016 0.9010801 -0.6173018
000070 1f 39 04 bf 39 dc c8 3d af c4 95 be 98 c8 22 3f
       -0.5164966 0.09807629 -0.2925162 0.6358733
000080 2e 77 16 bf 36 56 d3 3d 78 8f 00 bf fa 68 9e be
       -0.58775604 0.10319178 -0.50218916 -0.30939466
000090 36 21 07 bf 67 25 0c 3f 1d a6 a4 3e c4 89 1f 3e
       -0.5278505 0.5474457 0.32157984 0.15579897
0000a0 e7 bd 47 3d 1f de bc be a7 82 28 3e 44 cf 43 bf
       0.04876509 -0.36888215 0.1645609 -0.7648814
0000b0 28 e2 2b bf 58 28 21 3e 8b f5 e5 3e da af e9 3d
       -0.6714196 0.15738046 0.44913897 0.11410494
0000c0 de 7f ae be 3e 90 68 3e dd 62 ad 3e 59 bc a1 3e
       -0.3408193 0.22711274 0.3386449 0.3158901
0000d0 bd 58 83 3e ba 61 3e 3d b6 60 24 3f c1 b8 cb be
       0.2565364 0.046479918 0.6421007 -0.39789394
0000e0 0e 22 db 3d 3a 6b 81 be 2d 1f 09 bf 25 e7 46 3d
       0.10699855 -0.2527712 -0.53563195 0.04856028
0000f0 7f ea c5 3e 39 84 35 be 5d 5f ca be 17 2d d9 3e
       0.3865547 -0.1772622 -0.3952588 0.42417213
000100 44 9e d0 3e ae 97 f6 bd 45 02 d1 bd fb 5f 78 3c
       0.40745747 -0.12040649 -0.10205511 0.015159602
000110 a2 d7 df 3e 49 94 01 3f 1f c6 f1 be 88 a5 09 be
       0.43719202 0.5061689 -0.47221467 -0.13442051
000120 51 ab 9d 3e 05 a4 7f 3e ea 61 4c 3f 14 59 05 be
       0.30794767 0.24964912 0.79836905 -0.13022262
000130 ed e3 51 3e 62 06 16 bf 50 c9 6f 3d 0c 5c f5 be
       0.20497103 -0.5860349 0.058541596 -0.4792179
000140 67 ba 29 bf ef 7b 00 3f fe 92 62 3f c2 b4 1d bf
       -0.6630005 0.5018911 0.8850554 -0.6160394
000150 ba a2 5d 3e fc e9 db bd 63 dd 36 be 45 10 4c be
       0.21644107 -0.10737988 -0.1785789 -0.19928081
000160 aa 95 09 3e d6 8e ab be 3e 56 5f 3e 5a 55 b4 3e
       0.13435999 -0.33507413 0.21810243 0.35221368
000170 67 3b 20 3f ba ca 14 bd 12 42 1c bf 4e 09 8d be
       0.6259064 -0.036326148 -0.61038315 -0.2754616
000180 88 76 bd 3e 20 69 60 bc 51 6a 0a bf 6f 5c e1 3c
       0.37004495 -0.013696939 -0.54068476 0.027509896
000190 9b b4 1b 3f bd ae 74 3d 5b 7b b3 be 6c 7e 70 bd
       0.6082246 0.059736956 -0.3505505 -0.058714315
0001a0 11 30 80 bf 98 da e6 3e 95 bf 1c bf 8f 9c 66 3d
       -1.0014669 0.4508865 -0.6122983 0.05630165
0001b0 06 d2 be 3d fa e0 d5 3d a5 8d b2 be e2 a4 bd 3e
       0.093174025 0.104433015 -0.3487369 0.37039858
0001c0 46 ba f9 be 7c fb 17 3f 06 33 27 3f 94 96 ee be
       -0.48774928 0.5936811 0.6531223 -0.46599257
0001d0 1b 20 09 be c3 67 f0 3d 32 3a 6b 3e ff 2d 1f bd
       -0.13391154 0.11738541 0.22971418 -0.038862225
0001e0 a4 bd a0 3e 03 ff a7 3d a3 d9 aa be ce 93 b8 3e
       0.31394684 0.082029365 -0.3336917 0.36050266
0001f0 3e 4d 4f bf 9e 06 d1 3d 0e 41 10 be d8 ac 04 be
       -0.8097724 0.1020634 -0.14087316 -0.1295656

layers.0.fc.bias f4 [64]
000000 8f 21 8a be 96 be 19 bf f5 f1 25 be 5e df 15 3e
       -0.26978728 -0.60056436 -0.1620558 0.14635989
000010 c5 48 08 bf 81 69 88 bc 6d d1 1f 3f b3 db cd bd
       -0.5323604 -0.01665187 0.62428933 -0.1005167
000020 0b d8 23 bc 06 aa 9d bd ca df 08 3e 71 fc 11 3f
       -0.010000239 -0.07698445 0.13366619 0.5702582
000030 6e 77 3d 3f bf b1 14 3f f7 b1 3e 3f 25 35 85 bd
       0.7401036 0.5808372 0.744903 -0.06504277
000040 9e 15 3f bf ce 06 b6 be 34 80 06 3f bb 17 b8 bc
       -0.7464236 -0.35552067 0.5253937 -0.022472253
000050 bc ab d9 be 08 e5 0f bf 93 16 4e bf 82 4e 4e bf
       -0.42513835 -0.5620885 -0.80503196 -0.80588543
000060 7d e0 16 be b2 c0 1f 3f 4b e6 0a 3f 32 90 69 bf
       -0.14734073 0.62403405 0.5425765 -0.9123565
000070 3d b8 16 3f bd c6 1c bf 0c 5d 21 be ff 6d f7 be
       0.58874875 -0.6124075 -0.15758151 -0.48326108
000080 83 b6 39 be b4 57 83 be 74 aa 32 bf 56 0e 3b bf
       -0.18136029 -0.2565285 -0.6979134 -0.7306875
000090 d4 a0 45 be 7f 3f 46 bd 26 74 a8 be 2f 81 a5 3e
       -0.19299632 -0.0484004 -0.32901114 0.32325122
0000a0 01 71 66 bf 02 3d 3d be 21 9b 28 3f 79 4f 9a be
       -0.9001618 -0.18480304 0.6586171 -0.30138758
0000b0 aa fa 46 3f b0 5a a3 3e 18 b2 38 bf 6b 3e 09 3f
       0.77726233 0.31905127 -0.7214675 0.5361087
0000c0 7b 84 c0 bd 5a 69 c0 be 1b b3 37 3f be fa 15 bf
       -0.09400269 -0.37580377 0.7175767 -0.5858573
0000d0 04 28 69 3d d1 d5 f4 bd 0c 3b 06 3f 87 2d 62 3e
       0.056922927 -0.11954845 0.5243385 0.2208768
0000e0 d0 81 c5 3e ca 6d 7b 3e 14 ca 70 be 4a a1 69 be
       0.38575602 0.245536 -0.23514587 -0.22815433
0000f0 a3 ce 20 bf 75 16 c7 3e d1 4a 0d 3f ac 42 15 3f
       -0.628153 0.3888432 0.55192286 0.5830486

layers.1.fc.weight f4 [64, 128]
000000 42 a2 57 bd c1 ee d8 3c 34 ab 2c bd 18 36 8b bd
       -0.052644975 0.026481034 -0.04215546 -0.06797427
000010 50 92 06 bd 4d c1 41 3d 98 da b5 bc b7 f5 4c 3c
       -0.03285438 0.047303487 -0.02219896 0.012509755
000020 b0 ab 5e bc b4 5c 95 3d 2a fe a2 bd 93 f9 89 bd
       -0.013590738 0.07293072 -0.07958634 -0.06737056
000030 72 85 7b bd 0d 12 48 3d 21 31 ad bc b8 46 ad 3d
       -0.06140656 0.04884534 -0.02114159 0.08460754
000040 92 48 3b 3d 6a e3 69 3d 4e 88 2c 3c c3 10 07 bd
       0.045723505 0.057101645 0.010530544 -0.03297497
000050 d8 9f b2 3c ca ee 8c bc 57 4c cb 3b 54 60 73 3b
       0.021804735 -0.017203707 0.006204169 0.0037136273
000060 85 a9 57 bd b8 09 de bd 44 66 a0 3c 76 0f af bd
       -0.0526519 -0.108416975 0.019580014 -0.08547871
000070 f0 4e f5 bc 32 cc ea 3d 8c 56 b1 3c 84 a4 0b 3d
       -0.029944867 0.114647284 0.021647714 0.03409244
000080 29 6d b3 bd b8 2d 88 3d f5 30 7a bd b0 0f 3e 3c
       -0.08761055 0.06649345 -0.061081845 0.01160042
000090 8b 08 1d bd ef a3 09 bd 31 40 d2 3b 65 48 63 3d
       -0.038338225 -0.033603605 0.0064163436 0.055488963
0000a0 4b 57 7a 3c f9 d9 8a 3d 46 4f 02 3d fd 3d 91 ba
       0.015279601 0.06779856 0.031813882 -0.0011081096
0000b0 8d 82 86 3c ef d4 f9 bd 4b 75 64 bd 45 c6 48 3d
       0.016419673 -0.12198817 -0.05577592 0.04901721
0000c0 bb 20 97 3c 51 82 b5 3d b5 65 60 bd 86 ca 04 3d
       0.018448224 0.088627465 -0.054784495 0.032419704
0000d0 04 bd 95 3d 3a 63 8b bd 61 8f 47 3d d4 28 8e bd
       0.073114425 -0.06806035 0.04872072 -0.06941381
0000e0 15 87 c6 3b 26 1a e3 bc 1b f3 3c 3b 11 2b 3d 3c
       0.0060585835 -0.02772243 0.0028831426 0.011545912
0000f0 b0 ca 96 3d 22 bf ab bc 98 48 6c bc ed a9 17 bd
       0.07362878 -0.020965163 -0.014421605 -0.03702729
000100 fc 69 a1 bd f2 a3 1d 3d 4f 00 31 bd 03 82 a6 bd
       -0.07881543 0.03848643 -0.043213185 -0.081302665
000110 e0 36 1d bd 7c 9a 76 3d 38 0e 18 3d 98 74 a2 3d
       -0.03838241 0.06020592 0.037122935 0.07932395
000120 f6 1a 16 3d 02 22 25 bd 52 f8 ab bc 5b 9f e1 3c
       0.036646806 -0.040315636 -0.020992432 0.027541807
000130 ce d7 6f 3d a8 85 7d 3c 6a 87 00 bd 8b 89 a7 bc
       0.058555417 0.015473761 -0.03137914 -0.020451328
000140 b1 fc b9 bd e4 6b 14 3c 0d b8 b0 bc fe e5 91 bd
       -0.090814 0.009058926 -0.021572137 -0.07123946
000150 1b 8d b0 3d fb e0 5b bd 46 de 88 bc 80 61 89 3c
       0.08620664 -0.053681355 -0.01670755 0.016770124
000160 bf 56 b4 39 8b 5f 63 bd 04 1d 8f bd 7c 34 43 3d
       0.00034396906 -0.05551104 -0.06987956 0.047657475
000170 a5 91 c2 3b 36 72 86 3d 1b 8a 2c bd 47 ea 3b 3c
       0.0059377723 0.06564753 -0.042123895 0.01146943
000180 68 45 12 bd 01 5e ec 3b eb 1a 3b bd 00 ab c4 3c
       -0.035710722 0.0072133546 -0.045679968 0.02400732
000190 f6 49 0a 3d 3d bd ea 3c 73 6e b3 bc 93 d3 80 bd
       0.03376194 0.028654689 -0.021903252 -0.062903546
0001a0 8c 1c 40 3d fe c3 e6 bd 52 9e 13 3d b4 cd ba bc
       0.046902224 -0.11267851 0.036039658 -0.022803165
0001b0 57 91 55 bd 7e 6a 4a 3c e1 6e 57 bd 4f 83 e1 3b
       -0.05214056 0.012354491 -0.052595977 0.0068821083
0001c0 e8 7f 19 3c 5d 50 97 bd f8 a3 aa 3c 2f 71 04 3d
       0.009368874 -0.07388375 0.02083014 0.032334503
0001d0 f0 ef a3 3a 76 bf c7 bc 19 7b a7 bd 21 ff 36 3c
       0.001250742 -0.024383288 -0.08177776 0.011169226
0001e0 a8 a9 86 3d 38 cb 23 bd 1a 94 42 3d 55 2e 5c 3d
       0.06575328 -0.039988726 0.047504522 0.053755123
0001f0 fd f6 5e bd 72 62 75 3c d8 34 d3 3c f0 a2 9e 3a
       -0.054434765 0.0149770845 0.025782034 0.0012103003
000200 86 e2 76 3c 30 b6 9d 3d 8a 7a d4 bc 8e 44 4e 3d
       0.015068656 0.07700765 -0.025937337 0.050358348
000210 74 1b 61 3d 8e a4 dd 3d 5e 43 09 3d bb 60 51 3d
       0.054957822 0.10822402 0.033511512 0.05111764
000220 37 a3 1a 3d bb ce 85 bc 20 0b b7 bd d8 58 65 bd
       0.03775331 -0.016333928 -0.08937669 -0.05599293
000230 c4 6a c9 3d 95 04 14 bd f8 58 9b bd f3 1e a4 3d
       0.09834817 -0.036137182 -0.07585329 0.080137156
000240 b6 a5 15 3e 92 80 e7 3d e7 86 9a 3d 87 98 7b 3d
       0.14613995 0.1130382 0.07545262 0.06142476
000250 4e 00 45 bd 7d 91 3b bd 6c ce 28 3e 6c 5c 83 3d
       -0.048095994 -0.045793045 0.16484994 0.064141124
000260 a1 c0 09 bc 45 26 0e 3d 54 e0 9d 3c a2 ca 92 3d
       -0.008407743 0.034704465 0.019272007 0.071675554
000270 a1 77 72 bd 73 21 cf 3d 7b 8b 2d bd 95 59 0c 3e
       -0.05919612 0.10113802 -0.042369347 0.13706048
000280 81 1b ef bc a3 69 fb 3c e5 1e f7 3c 61 65 d3 3d
       -0.02918792 0.03069002 0.030166099 0.10322071
000290 ef 5a dc bc c0 df a6 3c 92 de b1 bd 92 af 02 3c
       -0.02689883 0.020370364 -0.0868503 0.00797643
0002a0 a7 1f 2c 3d 85 9b f2 bd c7 6f 8f bd 4b ad 3f 3d
       0.042022374 -0.11846069 -0.07003742 0.046796124
0002b0 54 1a 26 3d 6e de a3 3d f9 bc bb 3d 32 d7 c3 bd
       0.040552452 0.080014095 0.09166903 -0.095625296
0002c0 7b 35 97 bd 15 d9 1e 3d ae 97 08 be 0a a5 bc 3d
       -0.073832475 0.038781244 -0.13339111 0.09211166
0002d0 5d 43 17 bd 50 36 99 bc 57 3d a2 bd d1 10 f0 bc
       -0.036929477 -0.018702656 -0.07921856 -0.029304894
0002e0 68 0a ac 3d 11 23 69 3b 5a cc a0 3d 41 8a 3b 3d
       0.08400422 0.003557388 0.07851477 0.045786146
0002f0 4b 00 9d 3d 03 4d 39 bc 01 77 89 3c 85 b2 ab 3d
       0.076660715 -0.011309865 0.016780378 0.08383659
000300 a8 d5 31 3d 04 9f a0 3d 17 03 0a 3d 3e 0e cf 3d
       0.04341665 0.0784283 0.033694353 0.10110138
000310 78 00 21 bd 93 34 b7 bc 96 e6 9c bc cc 02 2b bd
       -0.039307088 -0.022363937 -0.01915292 -0.041750714
000320 dc 77 36 3d 8b be de bd 02 ff f6 bc 25 0b 89 3d
       0.0445479 -0.10876187 -0.030150894 0.06691579
000330 5e 66 96 3d ab 8e bb b6 6b a6 90 bd e0 d1 a7 3d
       0.07343744 -5.589643e-06 -0.07062992 0.08194327
000340 5c 3b 74 3d f3 45 64 bc 18 6d 4e bd 47 b8 3c 3e
       0.059626922 -0.013932693 -0.05039701 0.18429671
000350 ad d8 aa 3c 47 ef 9d bd 17 81 b3 3d 17 12 c1 3d
       0.020855272 -0.07711654 0.08764856 0.094272785
000360 93 40 4b bd e3 1c 26 3d 95 65 3a bd 94 9d 08 bb
       -0.04962213 0.040554892 -0.045507032 -0.0020845877
000370 0d fd 9f 3d 3c a7 82 3b e8 11 cd bc ba 02 92 bc
       0.078119375 0.003987221 -0.025032952 -0.017823566
000380 4e a5 31 3c 0d 37 17 bd 2f a8 2c 3d 61 4d b3 3d
       0.010842634 -0.036917735 0.04215258 0.08754993
000390 75 af 91 3d e2 14 c9 3b 1a 0d 30 bc c2 b2 07 3d
       0.07113544 0.0061365226 -0.010745311 0.03312946
0003a0 8c 39 79 3d fc 94 06 3d 53 0b 0c bc f4 cc ad bd
       0.060845897 0.032856926 -0.008547622 -0.08486357
0003b0 96 40 0a bd d2 ca 47 3d a2 fd 0e bd 08 76 43 bb
       -0.033753 0.04877741 -0.03490985 -0.002982499
0003c0 15 cd f6 3d 78 84 ae bb 44 a6 83 bd 07 d9 0f bd
       0.12050835 -0.00532585 -0.06428197 -0.035119083
0003d0 f5 4f 2b 3b 83 82 f1 bd ee b2 62 3d 76 af b1 bd
       0.0026140187 -0.11792471 0.055346422 -0.08676045
0003e0 15 55 c1 bd 3f bd 54 bd 9d a3 e9 bc c1 54 98 3d
       -0.09440056 -0.05193829 -0.0285204 0.074380405
0003f0 10 fe 8f bd 9e 86 92 3d 08 1a 82 bd 5a a8 a5 3c
       -0.070308805 0.071545824 -0.06352621 0.020221878

layers.1.fc.bias f4 [64]
000000 93 0e 54 3d b9 bd 87 3b 40 06 4a bd 57 2c 83 3d
       0.05177171 0.0041424897 -0.049322367 0.064049415
000010 5e 1d 16 bc 80 b0 dc 3c 10 94 f1 3c 18 da 23 3d
       -0.009162275 0.02693963 0.029489547 0.040002912
000020 da b8 88 bc 76 45 c4 3d 4b ad d4 3d ac 53 6e bc
       -0.016689707 0.09583561 0.103846155 -0.014546316
000030 36 a6 a4 3d f6 20 8f bc 8a 6b bb bd 99 c8 bf 3d
       0.08039515 -0.017471772 -0.09151371 0.09364433
000040 cf 9f 2a bd 78 76 c6 bc 2e b3 93 bd 40 e9 d8 bc
       -0.04165631 -0.024226412 -0.0721191 -0.02647841
000050 bb ee 0f bd 03 9c dc bc 33 a2 b3 3d 15 8a cc 3d
       -0.03513978 -0.026929861 0.087711714 0.099872746
000060 76 ce be 3c 07 12 d2 bd b2 0e 04 be c7 41 0a 3a
       0.023291808 -0.10257345 -0.12896231 0.0005274084
000070 42 3b a6 3d 8d f9 6c 3d 94 be 03 3e 6d 64 8f bd
       0.08116771 0.057855178 0.12865669 -0.070015766
000080 cd cd bb 3d 5e c0 94 3e 4b af 82 bd 95 f1 31 be
       0.09170113 0.29053015 -0.06381091 -0.17377312
000090 35 db a5 bd 52 f2 e3 3c 45 3d b5 b9 5e ab 95 bd
       -0.08098451 0.027825508 -0.0003456866 -0.07308076
0000a0 62 b6 15 3e 06 aa c8 3c 86 03 50 bd aa 0d 6b bd
       0.14620355 0.024495136 -0.05078461 -0.057386078
0000b0 56 3b b3 bd 75 29 63 3d 5b f2 bc 3d b9 7e 0d bd
       -0.08751552 0.05545946 0.09225913 -0.03454468
0000c0 8e 4f 5b bd 03 9c 46 3d fc cd 3c bd ce ce 99 bd
       -0.053542666 0.048488628 -0.04609488 -0.07510148
0000d0 78 2c 80 3d ad 9e 5f 3d 34 85 c2 bc 37 ce 1a 3c
       0.06258482 0.054594684 -0.023745157 0.0094485795
0000e0 06 92 93 3d b8 67 a4 bd 11 d9 84 3d e5 ef 90 bd
       0.07205586 -0.08027595 0.06486715 -0.07077006
0000f0 70 2d 90 bd d2 45 a0 3d 1b 46 d3 bd 30 11 69 bc
       -0.070399165 0.07825817 -0.10316106 -0.014225289

layers.2.gsds.0.weight f4 [4, 64]
000000 cc 50 9c 3d 92 a5 d9 3d a9 42 2b bd 6f d3 e5 3d
       0.07632598 0.10627283 -0.04181162 0.112219684
000010 5a f8 96 bb 61 5d ff bd 42 dc f1 bd 78 09 89 bd
       -0.0046072425 -0.124689825 -0.11809589 -0.06691259
000020 9f 7d b9 bc ca ec 1b 3e b8 83 af bd 2d c1 41 bd
       -0.022642909 0.15227047 -0.08570045 -0.047303367
000030 10 e6 b5 3d f2 d2 68 bd bb 25 90 3d 88 82 d7 3a
       0.088817716 -0.056841798 0.070384465 0.00164421
000040 3b 72 69 bd d3 52 ae bd bd 08 00 3e c7 04 96 bd
       -0.056993704 -0.08511891 0.12503333 -0.0732513
000050 15 e6 c5 3c 1f e3 84 3d f7 37 74 3c ad bf ec bb
       0.024157563 0.064886324 0.014905921 -0.007224998
000060 41 eb e7 bc 1f 80 d9 bc 64 d5 6a 3c 3a bd 0a bd
       -0.02831042 -0.02655035 0.014333103 -0.033871867
000070 1d 15 37 3d b0 f3 0f 3d 4b 75 78 3c ed 6a 34 bd
       0.04469787 0.035144508 0.015164684 -0.044047285
000080 b8 fd 85 bd c3 d1 60 3b 23 9f 19 3d 52 c9 dc 3b
       -0.06542534 0.0034304715 0.03750528 0.0067378664
000090 af 14 eb 3d b1 c4 7e 3d 22 85 0f bd f2 b4 a7 3d
       0.114785545 0.0621993 -0.035039075 0.081888095
0000a0 ba ce 46 bd b9 43 46 bd c2 92 e5 3d ae 08 9e bd
       -0.048536994 -0.04840443 0.112096325 -0.07716499
0000b0 e1 49 0d 3c d6 6b d1 bd 26 5f 6f 3d 95 31 96 3d
       0.008623571 -0.10225646 0.05844035 0.07333676
0000c0 1d 6f e5 3d 50 e8 6c bd 71 58 ce bd db bf aa 3d
       0.11202834 -0.057838738 -0.100754626 0.08337375
0000d0 0a 9b 1f bd fa a4 85 bd 45 bb bf bd 36 b0 ab 3d
       -0.038966216 -0.065256074 -0.09361891 0.08383219
0000e0 73 25 e0 bc cd 5e 45 bc 3d e3 43 bc 8f 10 b6 3c
       -0.027361607 -0.012046528 -0.011956033 0.022224693
0000f0 f1 aa 48 bd 56 f9 f7 3d 10 61 e6 bd 1b c0 86 bc
       -0.048991147 0.12108104 -0.11248982 -0.016449025
000100 80 67 73 bd df 34 98 bd 26 93 8b 3d 39 60 9a 3d
       -0.059424877 -0.07431959 0.06815176 0.07537884
000110 c0 a2 8b 3d 90 47 7c 3d 90 82 b3 3d 3c 78 a5 3d
       0.068181515 0.061591685 0.08765137 0.080795735
000120 20 65 c8 bd d9 67 62 bd 99 7c 56 3d 39 3b a6 3d
       -0.09784913 -0.055274818 0.05236492 0.081167646
000130 95 27 b6 3d ee 6d a4 3c 37 79 07 3e 10 77 be bd
       0.088942684 0.02007195 0.13229834 -0.09300053
000140 6e 83 cb 3c 53 18 f9 3d c2 76 0b 3c 58 d2 b2 3d
       0.024842944 0.121628426 0.008512201 0.08731526
000150 dc eb 03 3e 54 2d bc bd 6f 72 a5 3d 96 ad 98 3d
       0.12882942 -0.09188333 0.08078467 0.07454984
000160 c3 4f 59 3d 94 84 a1 3d fa 82 7b 3d ed 03 01 3d
       0.053054582 0.078866154 0.061404206 0.031497885
000170 13 22 cf 3d 5d e4 e0 bd 23 c0 ed bd fa 9d 9f 3d
       0.10113921 -0.10981057 -0.11608913 0.077938035
000180 c7 e0 bb 3d 44 45 5f bc 16 53 cf 3d 10 52 ff b9
       0.09173732 -0.013627354 0.10123269 -0.00048698531
000190 23 b8 91 3d a2 4c 88 bd 13 2a 99 3d 45 58 3a bd
       0.071151994 -0.066552415 0.07478728 -0.045494337
0001a0 ac 38 ce bd fd a8 c4 3c 64 9b c7 bd e2 d6 85 3d
       -0.10069403 0.024006361 -0.09746435 0.06535126
0001b0 58 73 af bc 82 de 93 bc 41 f4 f7 3d 95 dd e2 3d
       -0.021417305 -0.018050436 0.121071346 0.1107742
0001c0 db 73 a1 bd 76 3c dc 3c 7f 33 3f 3d 48 57 7b bd
       -0.07883426 0.026884299 0.04667997 -0.061362535
0001d0 27 b7 d4 3c f6 6d 95 bd 7d 10 74 bd c4 cd c2 bd
       0.02596624 -0.07296364 -0.059586037 -0.09511903
0001e0 b3 1d ee 3d f6 d1 61 3d 97 7c ac 3d 38 e4 f6 3d
       0.116267584 0.055131875 0.08422201 0.12055248
0001f0 57 b7 0f 3d ec c8 a6 3d e6 03 45 3d 37 02 6e 3d
       0.035086956 0.081437916 0.04809942 0.05810758
000200 40 c4 ab bd 34 a4 72 3e 62 1b c3 bd 61 6a 8a be
       -0.08387041 0.23695451 -0.09526707 -0.27034286
000210 bd 72 7b bd 07 55 99 3e 4c d8 b6 bd 92 37 d0 bd
       -0.06138872 0.29947683 -0.08927974 -0.10166849
000220 8e 99 64 be c9 f8 41 3e f8 cd 89 be a2 5a 09 ba
       -0.22324201 0.1894256 -0.26914954 -0.00052396406
000230 f4 2a 2c 3e 14 1b 45 be 52 bd 1a be ed 1a 71 bc
       0.1681326 -0.1924861 -0.15111282 -0.014715892
000240 72 5c 16 3e a8 02 8c bd 7f c3 dd bd bc 42 4f 3d
       0.14683703 -0.06836444 -0.108283035 0.050600752
000250 95 8a c1 3c 32 23 ae 3d 1c db e1 3d 48 84 85 3d
       0.023625651 0.08502807 0.1102812 0.06519371
000260 e5 ac 8d 3d 9e 57 2f 3d 0f 22 2f 3e 3a 24 22 3e
       0.06917743 0.042808168 0.17102836 0.15834132
000270 fa 46 2a 3e 48 64 75 3c aa 41 e1 bd 88 6c e9 bd
       0.16628638 0.014977522 -0.109988526 -0.11397654
000280 d0 8d 17 3e 8a 85 52 be 28 3a a8 3d c6 29 4a be
       0.14800191 -0.20558754 0.082142174 -0.19742498
000290 16 69 68 bd 3c 73 be 3d 4f 75 09 3e 2a a1 e2 39
       -0.056740843 0.09299323 0.13423656 0.00043226156
0002a0 ee b6 ea 3d e3 dc e3 3d 97 fd 03 3e c6 08 40 3d
       0.11460672 0.11126115 0.12889706 0.046883367
0002b0 6a 8d 74 3e 3e d8 66 3e 3f 35 27 3e aa fd 05 3d
       0.2388207 0.22543427 0.16328906 0.032712616
0002c0 08 2d 1b 3e a4 7d 83 3d ce b1 d7 3d 33 aa 9e bc
       0.15153897 0.064204484 0.105319604 -0.019368267
0002d0 dd 95 00 be ce 62 12 3e 6a 39 33 bd 3f b2 b0 bd
       -0.12557168 0.14295503 -0.043755926 -0.08627748
0002e0 e2 ec 7e bd 76 bb 83 bc cc c4 19 be b4 70 8c bd
       -0.062237628 -0.0160806 -0.15016478 -0.06857434
0002f0 05 cd 18 3d a3 28 81 3e 99 ad 2a be b9 c3 3a 3e
       0.037304897 0.25226316 -0.16667785 0.18238725
000300 2d f0 8d 3d 5f 75 e3 3d a0 93 c4 3d 02 8a 7b bc
       0.069305755 0.11106371 0.0959847 -0.015352728
000310 75 c1 0c bd 5d bb 7f be 8b 10 a9 bc 13 4f 6a be
       -0.034364183 -0.24973817 -0.020637771 -0.22881727
000320 30 21 44 3e 0e 68 78 3e 1e 90 07 3e 6d 7f 4a be
       0.19153285 0.24258444 0.1323857 -0.19775172
000330 30 9b 37 3d 14 52 ec bc d2 4a 7d 3b 43 ae 0e be
       0.044825733 -0.028847732 0.0038649333 -0.13933663
000340 82 6d 03 bd 17 35 95 3a 5a e3 2d bd 74 95 2e 3e
       -0.032086857 0.001138362 -0.042453147 0.170492
000350 fc 3d 0b 3e 89 be c6 bc 67 93 b4 3c 48 9d 73 3e
       0.13597864 -0.024260776 0.022042943 0.23790467
000360 66 77 d5 3c cb 6c 35 3e 2f 16 94 3e 01 ac 12 3e
       0.02605791 0.17717282 0.28923175 0.14323427
000370 ad 13 26 3d 07 fa 2a be 99 d0 46 be 5c c8 f8 bd
       0.040546108 -0.1669694 -0.19415511 -0.121475905
000380 b7 d2 8e 3e 1c cf 91 be 09 7f d2 bd 7f b3 e3 3c
       0.27895138 -0.28478324 -0.10278136 0.027795551
000390 d7 73 01 3e 24 c1 a1 bd 0c 88 82 3d 9d 24 e6 3d
       0.12641846 -0.07898167 0.06373605 0.11237452
0003a0 f6 10 26 be 60 ab a5 be cd ac 96 3e c5 48 b4 bc
       -0.16217408 -0.3235731 0.29428712 -0.022007355
0003b0 74 8e 96 be 46 b0 31 3d 44 43 6f 3d 62 0a 8b be
       -0.29405558 0.043380998 0.05841376 -0.2715636
0003c0 9b cf 43 ba 11 06 59 be eb 35 a2 3e b6 26 89 3d
       -0.00074695953 -0.2119372 0.3168176 0.06696837
0003d0 4a e5 83 3e 75 eb 2d 3e a7 ee 59 3e e9 bb 07 be
       0.2576087 0.16984351 0.21282445 -0.13255276
0003e0 78 19 c1 bd 43 f5 ad be bb 7a bf 3e 23 79 74 3e
       -0.09428686 -0.33976182 0.37398323 0.23874335
0003f0 08 e0 7b 3e a6 62 8f bd 2c a4 07 3e c5 9b 49 3d
       0.2459718 -0.070012376 0.1324622 0.04922082

layers.2.gsds.0.bias f4 [4]
000000 22 4d cf 3c 14 e9 a1 bc 42 b7 03 3e eb fa 0f be
       0.025305334 -0.01976446 0.12862876 -0.14060561

log_envelope.log_envs.0.weight f4 [4, 1]
000000 e3 a0 2a 3f a0 90 37 3f aa ad 16 3f ef d5 08 3f
       0.66651744 0.71705055 0.5885874 0.53451437

exp_avg f4 [64, 2]
000000 49 7f 2e 3d 5a 06 e4 3b 57 c6 09 bc 55 1e 1e bb
       0.042601857 0.006958765 -0.008409104 -0.0024126966
000010 59 80 59 bc b0 47 90 ba bc 83 59 3d d2 f9 7c 3b
       -0.013275229 -0.0011007693 0.053104147 0.0038601053
000020 28 8d bd bb fc d9 e5 bb ba 5d 12 bc fd 6c dc bb
       -0.0057846494 -0.007014511 -0.008933479 -0.0067268596
000030 9e d3 53 bc 90 68 d1 3a c0 9a 05 bb 7f a2 1c bb
       -0.012928871 0.0015976597 -0.0020386428 -0.0023900566
000040 25 3a 8c bc 8c b6 81 3b 16 48 f4 39 54 84 49 ba
       -0.01711757 0.003958529 0.00046593015 -0.000768726
000050 4b 77 dc bc 6e 7f 97 3a b9 85 24 bd db 42 8c ba
       -0.026912352 0.0011558363 -0.04016659 -0.0010701077
000060 3a 02 17 3d ea 7d 1e 3b af 3e 9c 3c ac d6 13 3c
       0.036867358 0.0024183937 0.019072859 0.00902335
000070 e0 e5 d4 3c fe 8f f0 3a f8 f3 99 3c ab 75 18 3c
       0.02598852 0.001835346 0.018793091 0.009305398
000080 45 51 5b bc b4 1c 30 bb 56 49 ed bc 25 da 9a bb
       -0.013386075 -0.0026872577 -0.028965633 -0.004725712
000090 26 bc f1 3c e6 b7 ad ba 63 a4 90 bc 70 68 8d 3b
       0.029508661 -0.0013253659 -0.01765651 0.0043154284
0000a0 79 e0 01 3d df 7d 00 3b d1 09 50 3d 7e f1 66 3b
       0.031708214 0.0019606275 0.05079061 0.0035239155
0000b0 89 50 91 bb 86 f7 cb bb f8 18 73 3c 51 1d 78 3b
       -0.0044346494 -0.0062245755 0.014837496 0.003785927
0000c0 32 fe 21 bb 5a 0b 79 ba 7c 96 4f bc b8 cc 59 bb
       -0.0024718163 -0.00095002877 -0.012670156 -0.0033233594
0000d0 f2 fe 55 3c d8 be a4 ba 6e 6b 37 3c ea e7 32 3b
       0.013061272 -0.0012569083 0.011195047 0.0027298876
0000e0 43 70 7d 3c b3 c8 1a bb 1e 14 c1 3c 6e f3 fd 3b
       0.01546866 -0.0023618161 0.023569163 0.0077499663
0000f0 07 93 9f 3b 4c e2 5a 3a 72 5b 76 3a d4 47 cb 3b
       0.004869822 0.0008349761 0.00093977817 0.006203631
000100 a7 61 26 bc 37 43 01 bb af 0a a6 b8 e3 f2 95 39
       -0.010155118 -0.00197239 -7.917487e-05 0.0002860046
000110 33 41 e2 3c 4d 0b 47 3a 73 1f 01 bc e2 69 03 3a
       0.02761898 0.00075929315 -0.007881033 0.0005013031
000120 b7 bb 2a 3d fc 86 92 3a c0 33 21 bb 40 f8 7a 3b
       0.041682925 0.0011179144 -0.0024597496 0.0038294941
000130 d3 df 6b bc 3a 3a fe bb c0 d8 02 3d 55 dc e3 ba
       -0.014396626 -0.007758406 0.03194499 -0.001738439
000140 06 f9 b7 3a 2e 64 92 3b 85 65 20 3b d1 cc 6e bb
       0.0014036007 0.0044675088 0.0024474573 -0.0036437998
000150 42 e8 00 3d 3b 30 78 ba 5d fd fe bc 37 e1 a6 bb
       0.0314715 -0.0009467636 -0.031126672 -0.0050927657
000160 18 1a 94 3b 84 e7 5d ba 3e 5f c8 bc cd 08 b4 ba
       0.004519712 -0.00084649795 -0.024459478 -0.0013735533
000170 58 13 36 3d 36 89 8e ba e7 db 06 3d 6d 1b 8b bb
       0.04445204 -0.0010874632 0.03292456 -0.004245213
000180 46 0b 12 3d 9c ef 8e 3b f9 81 3a bb f8 47 c1 bb
       0.035655282 0.0043620598 -0.0028458817 -0.005898472
000190 c3 da 08 bc d8 18 16 bb 32 70 c5 3c ce a4 8c 3b
       -0.008352938 -0.0022902992 0.02410135 0.004292107
0001a0 8c 9d 70 3c 9a de 86 bb cc f6 20 3c 42 51 07 bc
       0.014686 -0.0041158916 0.009824466 -0.0082591195
0001b0 9f 8b 12 bd ff 8e 2d ba c3 9b d3 3b 32 24 8b 3b
       -0.035777684 -0.00066207343 0.006457777 0.004246258
0001c0 d2 2c 0a 3b 27 e5 ad b7 b0 6e 5d 3c 71 95 8c 3b
       0.0021083844 -2.0729914e-05 0.0135151595 0.0042902757
0001d0 44 a8 c9 bc d0 0b 24 bb 8d 2b a4 39 eb 90 5a bb
       -0.024616368 -0.0025031455 0.00031312965 -0.0033350538
0001e0 d7 20 84 bc c4 dd b8 b9 be 62 8a 3d 4b 26 b9 3a
       -0.01612894 -0.00035260443 0.06757115 0.0014125792
0001f0 7b 55 17 bc d8 2c 71 39 8c 00 b0 bb 2e 6c 7c ba
       -0.009236689 0.00023000257 -0.005371159 -0.0009629157

exp_avg_sq f4 [64, 2]
000000 b9 59 36 3e 16 f2 1e 3b b1 42 f6 3b 43 d5 c9 3a
       0.17807664 0.0024253181 0.0075152745 0.001539864
000010 03 c7 6b 3c bd f7 89 3a ed cc a4 3e 8b e6 18 3a
       0.01439071 0.0010526102 0.32187596 0.00058326934
000020 48 05 59 3c 35 b7 ef 3a 13 10 da 3d ff 35 c4 3a
       0.013245888 0.0018288853 0.10647597 0.0014969705
000030 9f b7 25 3d 47 3d c0 3a 68 01 fd 3b c3 cc 11 3b
       0.040458318 0.00146667 0.007721115 0.0022247292
000040 5b 0d aa 3c 71 3a 0d 3b 2a dc 9e 3b 91 d0 ca 3a
       0.020758322 0.0021549726 0.004848023 0.0015473535
000050 ba 11 ae 3d cb 75 2a 3b 70 40 f6 3d df 27 42 3b
       0.08499475 0.0026010151 0.12024009 0.0029625816
000060 8e 2c 85 3d fb 07 24 3b 1d a5 35 3c 55 ed c6 3a
       0.06502639 0.002502917 0.011086729 0.0015176932
000070 61 85 14 3d 2d 9f 4d 3a d8 7e 20 3d f9 4e 8a 3a
       0.036260013 0.00078438484 0.039183468 0.00105521
000080 24 36 6c 3c fe 4a 31 3a 13 21 3a 3d 5d cf 65 3b
       0.014417205 0.0006763189 0.0454417 0.0035066225
000090 cb 7e 25 3e c6 c5 af 3a 11 16 db 3d 04 6c 67 3b
       0.16161649 0.0013410382 0.10697568 0.0035312185
0000a0 67 34 5b 3d 12 ee bc 3a 93 65 37 3e 26 01 3c 3b
       0.05351677 0.0014414212 0.17909841 0.0028687208
0000b0 e9 f6 bc 3b ea 06 d7 3a 71 7f fe 3c f4 2d e5 3a
       0.0057667387 0.0016405259 0.031066628 0.0017485009
0000c0 ce 04 9a 3b 0a ae 7a 3a 42 f8 1c 3d 3a dc bd 3a
       0.00470028 0.0009562677 0.038322695 0.0014485188
0000d0 fe 69 a2 3c 4d dd 1a 3a 72 39 13 3d 86 fd 0b 3a
       0.019825932 0.000590761 0.035943456 0.0005340207
0000e0 e1 c3 de 3c 27 5b bf 39 c1 cf 27 3d be ab e3 3a
       0.027193012 0.00036498273 0.040969614 0.0017369909
0000f0 f4 6e 18 3d 63 a5 70 39 39 ff 05 3c a0 fe 23 3b
       0.03721519 0.00022949795 0.008178526 0.0025023594
000100 0c fd 56 3d d1 ba 05 3b 25 1d 4c 3d 23 8d 79 3a
       0.052487418 0.002040554 0.049832482 0.0009519627
000110 17 85 dc 3c 0b 02 7a 3a e6 75 9e 3b 01 6b fd 38
       0.026918931 0.00095370476 0.004835832 0.00012083911
000120 20 2b c5 3d 56 58 5b 3b 2d 12 96 3b 14 54 8c 3a
       0.09627366 0.00334694 0.0045798034 0.001070621
000130 e9 1d 1b 3e 65 b6 53 3b b1 2d 5e 3e 34 4b 09 3b
       0.15148129 0.003230476 0.21697117 0.0020949366
000140 dd 20 3f 3b 13 10 f1 39 5b cf 1b 3c 06 c8 06 3b
       0.0029163875 0.00045979078 0.009509887 0.0020566
000150 94 34 10 3e 6d b9 49 3b 6a f0 49 3e b5 f8 4f 3b
       0.14082557 0.0030780688 0.19720617 0.0031733934
000160 68 81 75 3a 72 6e 0f 39 ae 5c 1a 3e e5 43 85 3a
       0.00093652913 0.00013678687 0.15074417 0.0010167329
000170 1c e8 9e 3d 2e 7a 9a 3b 3d 19 10 3d b2 da 2e 3b
       0.07759115 0.004714272 0.03518032 0.0026680646
000180 3c 6a ac 3d 95 1d e2 3a bc ab 4f 3c 67 4c ee 3a
       0.084187 0.0017251248 0.012675222 0.0018180729
000190 d1 27 ec 3c df f1 89 3a 08 10 92 3d 6c cd e6 3a
       0.02882758 0.0010524354 0.07131964 0.0017608828
0001a0 7e 93 3e 3c 21 0e f2 3a f2 13 11 3c 8b d0 93 3a
       0.011631845 0.0018467346 0.008854853 0.0011277361
0001b0 a1 29 8b 3d 61 87 b2 3a 14 8a d2 3d 3d e4 13 3b
       0.067950495 0.0013620668 0.102802426 0.002256646
0001c0 7b 6b 5b 3c 8b af 3c 3a cf b9 81 3c 23 52 96 3a
       0.013392325 0.0007197789 0.01583567 0.001146857
0001d0 06 36 dc 3c bc eb a7 3a 30 fd 7e 3d b0 b1 9a 3b
       0.02688123 0.0012811343 0.062253177 0.004720889
0001e0 a1 e3 7c 3d b7 4b 7b 3a e0 cb 63 3e 82 92 a8 3a
       0.06174052 0.00095861725 0.22245741 0.0012861046
0001f0 1b 44 29 3d 18 03 24 3b f3 ea ff 3c 07 bc d4 3a
       0.041324716 0.0025026258 0.031239962 0.0016230353

exp_avg f4 [64]
000000 ef e2 68 bc 98 7a 16 3c 4d 9a 03 3b e2 2d 22 3c
       -0.014214261 0.009184502 0.0020080984 0.009898635
000010 ee ff a0 3c 41 85 81 3c dc 04 8a 3b 28 43 b1 3c
       0.019653287 0.01581061 0.004212005 0.021638468
000020 3a 22 89 bc c5 9c 3e bc 14 d9 ba 3b d5 f7 ca bc
       -0.016739953 -0.011634056 0.0057021473 -0.024776379
000030 77 64 d6 3c a1 83 dc bc f8 da 3d 3b b9 57 99 bc
       0.026170952 -0.026918234 0.0028969627 -0.018718587
000040 7f ec 26 3c be eb 24 3c b1 19 d4 3b 6d 2a cc bb
       0.010188221 0.010065971 0.006472789 -0.0062306435
000050 62 6d 0d 3c fa a9 7b bb e4 e4 9d 3c ae 5d 06 3c
       0.008632036 -0.0038400874 0.019274183 0.008201046
000060 e2 d7 b6 b9 85 e1 c5 3c 5f 07 19 bb fe 4a 94 3b
       -0.0003487459 0.024155388 -0.002335034 0.0045255413
000070 d4 16 1c 3a 66 02 cd bc 1e a8 b2 3b 21 2f 81 bc
       0.00059543294 -0.025025558 0.00545217 -0.015769543
000080 a6 2d d7 3b c2 79 38 3b 56 53 50 3c 94 ea 9a 3b
       0.006566721 0.0028148745 0.012715181 0.004727671
000090 09 79 14 3d d8 81 19 3c f7 d5 ca 3c 60 22 cb 3b
       0.03624824 0.009369336 0.02476023 0.006199166
0000a0 02 a9 6d bb 97 31 d2 3c 0e 2a 00 3c 58 b5 bc 3b
       -0.0036264067 0.025658412 0.007822527 0.0057589225
0000b0 45 bc 04 bb de 23 e8 bb d1 c7 b4 3c 29 d2 00 3b
       -0.002025382 -0.007084354 0.022067936 0.0019656515
0000c0 13 70 bf 3b 52 48 1a 3c a4 60 1e bb fe ed 95 bc
       0.0058422177 0.009416657 -0.002416649 -0.01830196
0000d0 89 ec f7 3a e1 8c 61 3c 24 9d 4f bc 85 7d ba bc
       0.0018915097 0.013766498 -0.012671743 -0.02276493
0000e0 17 49 f2 bb fc e7 0f bc 60 d8 80 3c 0d 45 11 3d
       -0.007393967 -0.008783337 0.015728176 0.035466243
0000f0 d3 4a 04 3b 06 df 8a 3c 0b f5 d0 3c 39 72 05 3c
       0.00201862 0.016952049 0.02550747 0.008144909

exp_avg_sq f4 [64]
000000 32 33 ff 3c 72 7c 85 3b 95 5f 01 3c 6b d2 18 3c
       0.031152342 0.004073673 0.007896324 0.009327511
000010 37 dc 97 3c f5 d0 76 3c 71 5d 29 3c c0 05 f6 3c
       0.018537624 0.015064468 0.01033722 0.030032039
000020 e2 6d 9e 3c 6b 21 9d 3c 26 c0 bc 3c a6 d1 41 3d
       0.019339506 0.019180974 0.023040842 0.047319077
000030 b0 65 8d 3c c1 ec 8f 3c a5 e5 c3 3b 9a ec 70 3c
       0.017260402 0.017568948 0.0059783035 0.014704848
000040 22 1d cd 3b d0 a5 b9 3c e9 59 7e 3c 72 bf 91 3c
       0.0062595764 0.022662073 0.015524366 0.017791484
000050 b5 af 91 3b 63 8b f9 3c 8f ca ef 3b e7 87 1b 3c
       0.0044459947 0.030461973 0.007317848 0.009492851
000060 d4 2a c8 3a 86 8f e7 3c 3b 88 f8 3b a9 13 f2 3a
       0.0015271553 0.02826668 0.0075845993 0.0018468994
000070 46 f3 2e 3b fd 04 00 3d cc f8 e0 3a 83 dd eb 3b
       0.0026695295 0.031254757 0.0017163991 0.007198037
000080 d6 27 bd 3c e2 cf 4a 3c 4d b4 96 3b e1 5b 9e 3a
       0.023090284 0.012378665 0.0045991302 0.0012081825
000090 5c 5c 5b 3d 2d d4 3e 3b 87 f4 12 3d a8 c7 44 3c
       0.053554878 0.0029118166 0.03587773 0.012010492
0000a0 6d 08 ba 3a 28 7f 56 3c a3 6f 1f 3c 19 d4 d4 3c
       0.0014193185 0.01309184 0.009731206 0.025980042
0000b0 62 bb bb 3a 57 1f e4 3b 87 08 64 3c 93 d5 d8 3b
       0.0014322812 0.006961744 0.013918049 0.006617257
0000c0 b6 a0 79 3c 09 ef 5b 3c f2 c2 2d 3b 2e d8 c8 3c
       0.01523607 0.01342369 0.0026513902 0.024517145
0000d0 92 47 6e 3c 02 a7 d2 3b 5a e2 c9 3b cd 72 f1 3c
       0.014543431 0.0064286003 0.0061610164 0.029473687
0000e0 b5 6b 9b 3b fd 73 29 3c 8c 7e 85 3c 8a 16 4c 3d
       0.0047430643 0.010342595 0.016295694 0.049826182
0000f0 78 f6 dc 3b c4 40 43 3c eb 1e 52 3d 05 5e 64 3c
       0.0067432486 0.011917297 0.051299017 0.013938432

exp_avg f4 [64, 128]
000000 8b b7 c1 3a f1 05 09 bc 2f d6 9a bb 53 c9 07 ba
       0.0014779432 -0.008363233 -0.0047252397 -0.0005179841
000010 fd 32 d3 b9 16 6e a6 bb 8f f0 ac bb a7 52 a1 bb
       -0.00040283045 -0.0050790412 -0.0052777003 -0.004923183
000020 ce 41 aa 3b 81 88 d9 bb 04 e9 aa 3b da af 78 bb
       0.005195833 -0.006638587 0.005215766 -0.0037946613
000030 18 e7 ac ba 8e 62 0f 3c 27 e6 c5 bb d4 49 8c bb
       -0.001319143 0.008751525 -0.006039399 -0.004281262
000040 90 b8 e8 bb 22 b6 fd bb 52 55 c8 bb a4 df b3 3b
       -0.0071020797 -0.007742659 -0.0061136866 0.0054893065
000050 7c 18 8a 3a 0b ac 33 3b 84 7c ff bb 52 e8 ac 3b
       0.0010535861 0.0027415778 -0.007796826 0.005276718
000060 8e e9 a8 bb 92 31 a0 3b 20 c0 68 3b b2 7a e3 3b
       -0.005154795 0.0048887217 0.0035514906 0.0069421167
000070 7d 67 49 3a a2 f3 e3 bb 31 8e bb 3b d9 8a 9c bb
       0.00076829625 -0.0069565335 0.0057237376 -0.004777294
000080 35 83 c0 3b 00 ff da ba 3e 54 a0 3b 30 b6 cc bb
       0.005875016 -0.0016708076 0.004892855 -0.0062473044
000090 d3 d6 aa 3b 6d 6b b6 3b 0a e6 60 3b 5e ec 50 39
       0.0052135973 0.0055670054 0.0034316801 0.0001992448
0000a0 4b cf d6 bb fa 3a 88 3b 59 10 1a 3b b5 ed 4d bb
       -0.006555473 0.004157421 0.002350828 -0.0031422202
0000b0 16 58 1e 3a c2 f7 79 3b b4 8a c9 3b 85 76 a9 bb
       0.00060403475 0.003814206 0.006150568 -0.0051715993
0000c0 9d d8 bc 3b 2b 50 ee bb 2b 65 03 3c 15 b7 9d bb
       0.005763127 -0.0072727404 0.008019726 -0.004813085
0000d0 78 bb 8a bb bf 76 e5 bb 91 19 90 3a 1f 96 ac bb
       -0.004233774 -0.007002681 0.0010993948 -0.0052669193
0000e0 09 b8 c1 bb 68 c1 db 3b 07 86 0d bb d5 b0 88 3b
       -0.0059118313 0.0067064054 -0.002159478 0.0041714706
0000f0 42 86 94 3b 92 7a a6 bb c6 89 81 bb a9 21 2b bb
       0.0045326063 -0.0050805295 -0.0039531915 -0.0026112592
000100 15 85 43 3a 1a f4 25 3a 0f be 08 39 ea 9f 54 38
       0.00074584904 0.00063306245 0.00013040773 5.069367e-05
000110 c3 3d 10 3a 5d f4 08 b9 cb 0c 96 ba b7 2e 83 38
       0.0005502367 -0.00013061003 -0.0011447904 6.255268e-05
000120 99 a0 91 39 4d 8b e2 38 8a 9f 70 38 59 59 0a ba
       0.0002777621 0.000108024666 5.736904e-05 -0.0005277596
000130 b1 b0 27 ba 92 06 35 ba 5a 23 9f ba 6f 73 8a 39
       -0.00063968735 -0.0006905581 -0.0012141273 0.00026407416
000140 bd b5 1a 3a 38 af d6 39 77 cf 62 ba f4 60 90 39
       0.0005901715 0.0004094781 -0.00086521305 0.00027538056
000150 97 62 74 39 c8 87 06 3a 96 56 20 3a 08 81 ab 3a
       0.00023306381 0.00051319273 0.0006116418 0.0013084719
000160 ec 18 d0 38 5a 57 02 ba 05 fe d9 b9 ee 71 ba 3a
       9.922855e-05 -0.0004972123 -0.00041578725 0.0014224628
000170 ba d6 30 ba bf 28 0a 3a ed bd be 39 0b d3 2b 3a
       -0.0006745864 0.0005270354 0.0003638113 0.000655458
000180 8d 13 d9 39 1f 90 35 39 90 29 a9 3a d4 6d 0b 3a
       0.00041404032 0.00017315194 0.0012906063 0.0005318795
000190 00 d0 0f 3a a5 d0 9e b9 ae ad 4b 39 0d 52 4e ba
       0.00054860115 -0.0003029156 0.0001942429 -0.0007870503
0001a0 3b 53 6b 3a 04 aa f0 b8 1b 78 19 ba d2 61 e8 38
       0.0008976941 -0.0001147576 -0.0005854384 0.000110808425
0001b0 f7 4b 5e ba 32 1d 3e b9 6e fe a1 3a 61 fa 80 ba
       -0.00084799476 -0.00018130688 0.0012359151 -0.0009840244
0001c0 27 3e ab 39 df 91 d7 39 d5 a5 17 ba 60 0f f0 39
       0.0003266197 0.00041116678 -0.0005784904 0.00045787822
0001d0 6d 76 2c 3a c3 13 8a 39 9c 4e bd b9 2a 03 b9 b9
       0.0006578926 0.00026336135 -0.00036107458 -0.00035288307
0001e0 6b 86 2a ba 7f 62 c1 b9 4d 44 6b 39 24 fe ec 39
       -0.0006505015 -0.00036885214 0.0002243679 0.00045202777
0001f0 85 e5 87 3a 87 26 11 ba 65 c1 73 ba 21 b4 59 ba
       0.0010368085 -0.0005537052 -0.00092985324 -0.00083047344
000200 ba a6 db 3a a8 67 78 bc ff 8c 03 bc 5f 58 d3 3a
       0.0016758062 -0.015161432 -0.008029222 0.0016124359
000210 8c 78 42 bb f5 84 fd bb ca fc cb bb e0 f7 01 bc
       -0.0029673902 -0.007736797 -0.006225203 -0.007932633
000220 5d a8 04 3c 9c 33 2b bc 66 90 0f 3c 56 71 f0 ba
       0.008096782 -0.010449316 0.008762455 -0.0018344324
000230 73 5a ae 3a 1b 78 7e 3c fc 0c a4 bb ce ad c0 bb
       0.0013302102 0.015531565 -0.0050064307 -0.005880094
000240 62 98 73 bc ae 83 4e bc 68 79 b5 bb 23 a0 09 3c
       -0.014867874 -0.012604637 -0.0055381544 0.008399996
000250 20 d9 ba ba 5d f6 b7 b9 72 96 85 bc 62 1d 8f 3b
       -0.0014255382 -0.00035088035 -0.01630709 0.0043675164
000260 07 ee 0d bc b6 bb 2a 3c ca fe 07 3c 57 0f 9c 3b
       -0.008662707 0.01042073 0.008300493 0.004762571
000270 32 15 72 3b 10 5f 62 bc 6b f4 f8 3b c5 6c 25 bc
       0.0036938903 -0.01381661 0.0075974963 -0.010096733
000280 a3 72 fe 3b cc 35 7e bb 12 23 c4 3b 18 38 53 bc
       0.0077651306 -0.003878939 0.005985626 -0.012891792
000290 d2 1c f1 3b 0c a1 07 3c 56 d2 09 3b dc 5e 8c 3a
       0.007358172 0.008278143 0.002102991 0.0010709423
0002a0 8c 02 7f bc a2 a2 c3 3b e0 67 dd 3b fe 95 db bb
       -0.015564572 0.005970315 0.0067567676 -0.00670123
0002b0 1a 43 88 3b 17 c6 01 3c 6c 4c c2 3b ff 1d e4 bb
       0.0041583898 0.007920763 0.0059295204 -0.0069615836
0002c0 30 b3 06 3c 5a 84 52 bc cd 58 78 3c a2 fa 2a bc
       0.008221433 -0.012848938 0.0151578905 -0.010435732
0002d0 af 63 a7 bb 8f 87 34 bc 63 02 91 3b 73 f0 c9 bb
       -0.0051083188 -0.011018648 0.0044253333 -0.006162697
0002e0 6a 2a c4 bb 45 b6 3d 3c 49 b9 8e bb 13 1f a4 3b
       -0.0059865015 0.011579101 -0.004355584 0.005008587
0002f0 ad 25 7e 3b 9d 41 9d bb f0 39 b7 bb 9b dc b7 ba
       0.003877978 -0.0047990815 -0.0055916235 -0.0014027538
000300 11 94 29 3a ae 06 17 bb 00 ad 22 ba 47 0f 1c 3b
       0.0006468902 -0.0023044753 -0.00062055886 0.0023812817
000310 fb a9 cc ba e9 e1 1a ba f1 01 0a b9 d9 7b bc b9
       -0.0015614623 -0.0005908297 -0.00013161429 -0.00035950428
000320 0b 10 c6 3a ed 6a 7d ba 8b d2 d1 3a bf 72 10 3b
       0.0015110982 -0.0009667117 0.0016008181 0.002204105
000330 af cc 13 3b 17 c8 01 3a dd f2 2a 3a e8 96 8a 3a
       0.002255242 0.0004950775 0.0006521175 0.0010573538
000340 64 70 1e bb 43 1d 32 bb 56 55 96 3a cf dc b5 3a
       -0.0024175877 -0.0027178086 0.0011469524 0.001387501
000350 e0 a9 24 bb 42 39 58 bb b5 22 1a bb fd 73 20 ba
       -0.0025125667 -0.0032993113 -0.0023519222 -0.0006120799
000360 c0 d4 24 ba c2 e1 55 3b 1b fe 1e 3b 47 07 70 ba
       -0.0006287806 0.0032635783 0.0024260345 -0.0009156358
000370 0b 6c c2 3a 65 a9 18 bb c7 d3 e2 38 bb 35 6c ba
       0.0014833225 -0.0023294326 0.000108159664 -0.0009010692
000380 89 80 8a 39 e4 01 a2 ba db 80 7a 39 95 81 45 bb
       0.00026417177 -0.0012360183 0.0002388986 -0.0030137051
000390 ec 8e 8f 3a 22 57 5c 3a 6e 48 15 bb 6d c2 bf b9
       0.0010952628 0.0008405318 -0.0022778767 -0.00036575217
0003a0 b7 82 e7 ba 9a 93 61 ba 80 6d 11 3b 1d d7 12 bb
       -0.0017662857 -0.0008605063 0.0022190511 -0.002240605
0003b0 b2 c9 f1 3a 98 be 31 3b 61 03 c0 b9 66 b7 0d ba
       0.0018446951 0.002712166 -0.0003662361 -0.00054060516
0003c0 83 7c 46 3a 95 75 fa ba 52 c4 34 3b ea ff 28 bb
       0.0007571654 -0.0019108529 0.0027582836 -0.0025787302
0003d0 40 9a f2 36 9c 4e a8 ba 14 e8 1a 3b 81 0a 45 3a
       7.230119e-06 -0.001284081 0.0023636864 0.0007516519
0003e0 17 52 a3 3a eb ac 5c 39 b7 f5 63 ba 8d 4c 66 b8
       0.0012460378 0.00021045252 -0.0008695977 -5.4907567e-05
0003f0 b1 9a 22 ba 3f 59 94 3a ce cd 17 b7 8e 71 88 3a
       -0.00062028604 0.0011318101 -9.048219e-06 0.0010409818

exp_avg_sq f4 [64, 128]
000000 05 bd b7 39 7e ab f1 3b a7 6b 96 3b 35 30 2a 3a
       0.0003504531 0.00737518 0.00459047 0.0006492169
000010 75 54 b2 3a 50 7f 9c 3b a3 44 32 3c 05 fa a2 3b
       0.0013605492 0.004775919 0.010880622 0.0049736523
000020 bc 65 83 3b 50 ff d4 3b 82 d3 8b 3b 29 bb 85 3b
       0.0040099304 0.006500162 0.004267157 0.004081149
000030 f4 69 1a 3b e1 94 e6 3b cc f1 15 3c c0 97 a6 3b
       0.0023561688 0.0070367907 0.009151887 0.005084008
000040 c3 c0 f4 3b d4 7c cb 3b dd eb 1d 3c 4c 62 98 3b
       0.007469268 0.006209949 0.009638754 0.00465039
000050 e0 5a ad 3a 1a ab 46 3b ca 7f 0d 3c 7f 65 ed 3b
       0.0013225935 0.0030314387 0.008636424 0.0072447653
000060 d0 d5 aa 3b c9 a4 8f 3b ed 5e 57 3b 54 17 55 3c
       0.0052134767 0.0043836576 0.0032862977 0.01300605
000070 fe 32 df 3a 9b 27 dc 3b ca 32 d1 3b f5 41 b5 3b
       0.0017028747 0.0067185885 0.0063842284 0.0055315443
000080 08 8b d9 3b 70 2a 72 3a 49 9e d4 3b 24 52 c1 3b
       0.0066388883 0.0009237891 0.0064885956 0.0058996845
000090 21 c0 8f 3b a0 bf 9d 3b 7c 2e 68 3b 9e 66 40 3a
       0.004386917 0.0048141032 0.0035428097 0.000733951
0000a0 40 4c 1b 3c 41 eb 65 3b d1 11 3a 3b f0 bc 00 3b
       0.009478629 0.003508285 0.0028391967 0.0019643866
0000b0 ea 3e 17 3b ad da 26 3b 95 91 36 3c 69 76 18 3c
       0.0023078271 0.002545993 0.011143108 0.009305575
0000c0 9a 80 be 3b 13 5a d4 3b 5b 78 f2 3b 18 2e 94 3b
       0.0058136703 0.0064804642 0.0073996014 0.0045220964
0000d0 37 96 4f 3b 06 15 cd 3b ee cd d2 3a 6a 09 ca 3b
       0.0031675228 0.0062586097 0.00160831 0.006165673
0000e0 9f 83 0c 3c c2 22 c0 3b 1f 86 b0 3a f8 d5 57 3b
       0.008576303 0.0058635185 0.0013467706 0.0032933932
0000f0 5a 55 a0 3b 8a 3b c3 3b 6e 23 2c 3c 0d 76 13 3b
       0.004892987 0.0059580253 0.010506494 0.0022500784
000100 8f 80 a9 39 f1 a0 82 3a cd 83 09 39 2e 59 ea 39
       0.00032329976 0.0009966177 0.00013114438 0.00044698402
000110 f8 9a a5 3a 04 0c eb 37 3e 46 20 3a 45 46 5e 38
       0.0012634685 2.8019778e-05 0.00061139825 5.2994368e-05
000120 7b 4b 17 39 98 03 f2 38 d6 51 6b 39 5b c5 b8 3a
       0.00014428601 0.000115401286 0.00022441833 0.0014096902
000130 27 6d 0e 3b 64 4e 06 3a 1b d1 9b 3a 99 f7 88 38
       0.002173254 0.00051233754 0.001188788 6.531104e-05
000140 0e cf bd 3a b1 b3 44 3a e3 c5 3b 3a e0 68 03 39
       0.0014481263 0.0007503583 0.00071629713 0.00012532203
000150 6e 33 8f 3a 19 07 dd 3a 2c 2a bc 3a 5b 08 bd 3a
       0.0010925361 0.0016863077 0.001435583 0.0014422046
000160 74 32 f2 38 f4 0f db 3a 5c 1b b0 3a 16 ab c2 3a
       0.00011548857 0.0016713128 0.0013435888 0.0014852013
000170 5c 9c ba 3a 31 ea 98 3a 81 22 a4 38 36 a8 49 3a
       0.0014237273 0.0011666474 7.826556e-05 0.0007692607
000180 89 b0 d6 38 ba fd c6 39 06 25 87 3a 2f a8 e1 3a
       0.000102371974 0.00037954544 0.0010310716 0.001721626
000190 45 8c 53 39 27 d6 db 38 5a a6 3b 3a 9d 77 e1 39
       0.00020174783 0.00010482623 0.0007158272 0.00043004463
0001a0 e5 69 cd 3a 25 6f 32 38 c0 8b e5 3a 78 34 2a 3a
       0.0015671818 4.254202e-05 0.0017512962 0.0006492804
0001b0 42 b0 0c 3b e4 43 53 3a a2 f0 6a 3a 66 79 0f 3a
       0.0021467363 0.0008059128 0.00089622487 0.0005473107
0001c0 2d 36 8e 38 7a 5c 18 3a 01 fd b6 3a 1f d0 b7 3a
       6.781179e-05 0.000581212 0.0013960899 0.0014023817
0001d0 f7 f6 6a 38 2a 0f 3e 39 2a 3a b6 3a e0 b8 48 39
       5.601995e-05 0.00018125461 0.0013902832 0.00019142358
0001e0 1a b8 f1 39 9c c9 35 39 d8 82 97 39 4f c0 53 39
       0.00046104268 0.0001733661 0.0002889845 0.00020194169
0001f0 5c bc 9a 3a ed 61 18 3a cb 90 cf 39 fc 5b a9 3a
       0.0011805403 0.0005812932 0.00039589996 0.001292109
000200 b7 39 a7 39 c5 63 85 3c 8e 43 a9 3b 51 a5 e8 39
       0.00031895723 0.016282925 0.005165524 0.0004437366
000210 71 16 94 3a b5 5b 95 3b b9 5d 87 3b 22 ee ab 3b
       0.0011298192 0.0045580515 0.0041310457 0.0052468935
000220 06 1e 7b 3b 10 9c fc 3b 15 f7 98 3b 7e 85 0b 3b
       0.0038317456 0.007709034 0.0046681263 0.0021289284
000230 54 78 b1 3a 98 6a 9f 3c af 43 85 3b 51 9f a3 3b
       0.0013539889 0.019460008 0.0040669064 0.004993357
000240 b2 38 83 3c 71 41 1b 3c 57 0c 96 3b 99 f9 8e 3b
       0.016018245 0.009476052 0.0045791077 0.0043632505
000250 a0 3b 3a 3a d1 16 c6 3a b9 01 a4 3c c3 ee 6a 3b
       0.0007104222 0.0015113001 0.020020353 0.003584788
000260 e1 4f c1 3b 95 34 c5 3b 93 94 8b 3b cf 45 99 3b
       0.005899415 0.006018231 0.004259655 0.0046775113
000270 5e ab da 3a 10 fa 58 3c c2 4b a1 3b 78 e2 13 3c
       0.0016683151 0.013243213 0.004922361 0.009026162
000280 1e 39 a3 3b 39 3e 7d 3a 23 c8 6e 3b b1 c6 2d 3c
       0.004981174 0.0009660456 0.0036435209 0.010606454
000290 cd fe 66 3b 1c 95 aa 3b c7 a4 08 3b ce da 53 3a
       0.0035247088 0.0052057635 0.0020850168 0.00080816157
0002a0 8d 4c b0 3c 29 8f 4a 3b b4 f6 62 3b 1e e5 0f 3b
       0.021520877 0.0030908084 0.003463191 0.0021956633
0002b0 9e 27 14 3b ab 05 3e 3b e9 3e 8e 3b 6f 10 8f 3b
       0.0022606621 0.0028995078 0.0043409956 0.0043659727
0002c0 62 c7 a1 3b 80 0c 36 3c ea 8a 82 3c 68 5f df 3b
       0.0049370984 0.011111379 0.01593538 0.0068167932
0002d0 67 b9 4f 3b fc d0 07 3c 4c 0b b2 3a d1 df 8c 3b
       0.0031696202 0.008289572 0.0013583689 0.004299142
0002e0 bd 79 9c 3b cd ba 25 3c 10 35 c0 3a 1d 15 1d 3b
       0.0047752545 0.010115338 0.0014664251 0.0023968883
0002f0 fd 07 36 3b 73 06 64 3b 01 07 63 3b 59 1a ac 3a
       0.0027775757 0.0034793883 0.0034641626 0.0013130411
000300 23 3c b3 39 db cd 1f 3a ae 52 a2 38 08 62 b2 39
       0.00034186346 0.00060960435 7.740162e-05 0.00034023845
000310 2d f1 51 3a fa e5 f3 37 da 01 3a 3a dc 27 00 38
       0.0008008655 2.9074949e-05 0.0007095613 3.05547e-05
000320 3b 0e 38 39 a9 0d da 38 28 a0 2b 39 a0 82 60 3a
       0.00017552909 0.000103975945 0.00016367494 0.00085643865
000330 9c a1 b1 3a 9e 40 a7 39 38 bd 72 3a 38 5c c7 38
       0.0013552192 0.00031900866 0.0009259763 9.5062365e-05
000340 93 55 6c 3a 32 f3 ff 39 aa a8 02 3a fc 64 28 39
       0.0009015437 0.00048818585 0.00049842393 0.00016059348
000350 ed 27 29 3a 93 b9 80 3a df b0 6e 3a 74 93 93 3a
       0.0006452788 0.000982093 0.00091053353 0.0011259154
000360 13 d6 8d 38 5c f9 80 3a b1 c0 52 3a 16 56 8d 3a
       6.763278e-05 0.000983994 0.00080395775 0.0010783102
000370 69 41 71 3a 0d 67 3a 3a 8c 7f bd 38 13 f4 03 3a
       0.0009203167 0.00071106927 9.03598e-05 0.00050336233
000380 d7 d8 03 39 93 12 6f 39 97 4a 8b 3a 38 07 88 3a
       0.00012573913 0.00022799736 0.0010627088 0.0010378128
000390 86 97 96 39 02 90 31 39 9a a7 e2 39 70 c6 d2 39
       0.00028723123 0.00016933682 0.00043230952 0.0004020217
0003a0 cf 21 8a 3a f5 09 c8 38 b1 43 8d 3a 15 85 ce 39
       0.001053864 9.538598e-05 0.001077762 0.00039390536
0003b0 03 25 b5 3a 28 5b 03 3a a8 30 57 3a a4 14 37 3a
       0.0013820234 0.0005010837 0.00082088495 0.00069839717
0003c0 1d 5d dd 38 0b 61 b9 39 f8 62 60 3a 37 2c 5c 3a
       0.00010555445 0.00035358252 0.00085596694 0.00083989225
0003d0 ca 9c e8 38 fd 0b 20 39 0e 4c 5a 3a 95 13 05 39
       0.00011091826 0.00015263255 0.0008327373 0.00012691163
0003e0 72 92 a1 39 3b 2d c9 38 4d c6 3a 39 98 0f 2e 39
       0.00030817423 9.592852e-05 0.00017812215 0.00016599742
0003f0 60 a8 66 3a 30 37 c5 39 de 47 0a 3a 0e 27 67 3a
       0.00087988935 0.00037615886 0.0005274991 0.000881777

exp_avg f4 [64]
000000 66 50 7b ba 15 15 77 3b 24 4d 7c ba c4 f2 3b 3c
       -0.00095868704 0.0037701775 -0.0009624532 0.011471454
000010 8b 2a 44 3b bf 9a 39 3c a2 61 0a bc b9 69 21 bc
       0.0029932584 0.011328398 -0.008446129 -0.009851866
000020 e7 3f 57 3d 93 05 1e 3d e1 7a 85 ba 2f e2 e7 ba
       0.052551176 0.038579535 -0.0010183715 -0.0017691309
000030 9d df cf 3b 2b 55 a0 3c e5 18 99 3b 79 ac a0 bc
       0.0063437955 0.019571861 0.004672157 -0.019613491
000040 ae 57 17 3c 06 cb b9 ba a1 b0 d9 3c 5c 41 5e 3b
       0.009237213 -0.0014174886 0.026573481 0.003391347
000050 0a 2d 64 3b de f6 f9 3a e6 19 49 ba 6f f0 00 bb
       0.0034816884 0.0019070765 -0.00076714007 -0.001967456
000060 0f 9c 7c 3b 8c 16 f3 3b af 19 a1 3c 17 9d 8b 3b
       0.0038545167 0.0074184593 0.019665567 0.00426067
000070 18 d9 ea bc f2 97 3b bc 54 5d c7 bb 79 0f bd ba
       -0.028667971 -0.011449801 -0.0060841236 -0.0014424167
000080 96 c7 8b 3b e8 a7 b2 ba fe e8 07 3c 5b 10 88 bb
       0.004265736 -0.0013630362 0.008295296 -0.0041523403
000090 78 8f 3b 3c 0b 85 6c ba 3b 7e 18 3c 48 01 19 3a
       0.01144778 -0.00090225105 0.009307439 0.0005836678
0000a0 33 d2 85 38 dd 28 9f 3c 8d ca 42 3b 9c 77 c6 3a
       6.381087e-05 0.019428665 0.002972278 0.0015141848
0000b0 68 a7 09 bc 38 7c 27 bc f8 2a 39 3b 64 4d 69 bc
       -0.008401729 -0.010222487 0.002825437 -0.014239643
0000c0 ca 06 fb b9 06 57 cf b9 95 25 b1 bc 1b 0b bc 3b
       -0.0004787951 -0.00039546954 -0.021624366 0.0057386286
0000d0 d3 73 d7 bb fb 8c 0c bc 44 06 77 bc 08 1f aa ba
       -0.0065750866 -0.008578534 -0.015077177 -0.0012979219
0000e0 6d a8 0d 3c 8f 4e f7 bc 98 0a 92 3a 7a df 95 3c
       0.008646113 -0.030188827 0.0011142073 0.018295038
0000f0 12 48 a1 3b 13 43 d7 bd ae 1a 69 bc 90 ae ed 3b
       0.0049219215 -0.1051084 -0.014227552 0.0072534755
