results/energy/checkpoints/A06_H064_L02_D01_Tanh_W4096_P001000_V-2.00e+01_S5.00e-01_Adam_PT_False_device_cuda_dtype_float32_chkp.pt (torch, 236663 bytes, 23 tensors)

layers.0.fc.weight f4 [64, 2]
0	0xbc09e1f6	-0.00841569
1	0x3ec8d43b	0.3922442
2	0xbf2848d7	-0.65736145
3	0xbeee9c3f	-0.4660358
4	0xbea3b228	-0.3197186
5	0x3e50e79f	0.20400856
6	0xbcaa4cb4	-0.020788528
7	0x3f0c66d1	0.54844385
8	0xbe22aea7	-0.15886937
9	0x3e81997a	0.25312406
10	0xbeab0c52	-0.33407837
11	0xbdd4b0f1	-0.103853114
12	0xbf378f66	-0.71703184
13	0xbea374b2	-0.3192497
14	0xbeafb79a	-0.34319764
15	0x3d9ef86b	0.07762226
16	0x3ea822a9	0.32838944
17	0x3edf7df7	0.4365079
18	0xbf0c87cd	-0.54894716
19	0xbe823d96	-0.2543761
20	0x3eafd95e	0.34345526
21	0x3f013f06	0.5048679
22	0xbe4fded6	-0.20299849
23	0x3f1b90cd	0.60767823
24	0xbe012f43	-0.12615685
25	0x3dab0f9a	0.08352585
26	0x3f461e8c	0.7739036
27	0xbf29880e	-0.6622323
28	0xbf08877a	-0.5333172
29	0xbe2385a0	-0.15968943
30	0xbec24f53	-0.37951145
31	0x3f337807	0.7010502
32	0xbf1479dc	-0.5799844
33	0xbe92491e	-0.2857141
34	0xbf0de271	-0.5542365
35	0xbf202237	-0.6255221
36	0xbf0207cd	-0.50793153
37	0x3f21c955	0.63197833
38	0x3ebec929	0.37262848
39	0x3ea3134d	0.31850663
40	0x3dbf6ea8	0.09347278
41	0xbec78630	-0.38969564
42	0x3e2253ff	0.15852354
43	0xbf334f80	-0.7004318
44	0xbf22819f	-0.63479036
45	0xbe2e3c4d	-0.1701519
46	0x3f096a92	0.5367824
47	0x3ec07d31	0.37595513
48	0xbec3892f	-0.381906
49	0x3dc8f5f7	0.09812539
50	0x3ef195f8	0.4718473
51	0x3f2b08d4	0.66810346
52	0x3e828d42	0.25498396
53	0x3dce5c59	0.10076208
54	0x3f16e5a0	0.5894413
55	0xbed5a383	-0.41726312
56	0x3e3271a8	0.17426169
57	0xbf0d2874	-0.5513985
58	0xbf0eae48	-0.5573468
59	0xbeaf5574	-0.34244883
60	0x3ec0ab24	0.3763057
61	0x3e82a865	0.255191
62	0xbee90466	-0.45511168
63	0x3e86de31	0.26341394
64	0x3ee61a10	0.4494176
65	0xbe035b4d	-0.12827797
66	0x3d8f7126	0.07004003
67	0x3dde8e16	0.108669445
68	0x3f05ae4f	0.522191
69	0x3f299ab9	0.66251713
70	0xbf03160a	-0.51205504
71	0xbe870838	-0.26373458
72	0x3ea7691b	0.32697377
73	0x3f079927	0.52968067
74	0x3f41c1f6	0.75686586
75	0x3f15c2c4	0.58500314
76	0x3e353f20	0.17699862
77	0xbf259b12	-0.64689744
78	0x3cbb35d2	0.022852812
79	0xbee76fa6	-0.45202368
80	0xbf44e0c4	-0.76905465
81	0x3f1a8517	0.6035933
82	0x3f20737e	0.6267623
83	0xbf37d5df	-0.71810716
84	0x3e270aa6	0.16312656
85	0xbe10eaed	-0.14152117
86	0xbe17917f	-0.14801596
87	0xbe900555	-0.28129068
88	0x3e89404d	0.2680687
89	0xbecedd21	-0.40403083
90	0x3e7129ad	0.23551054
91	0x3ec0bb5b	0.3764294
92	0x3f1fe4e0	0.6245861
93	0x3e1caa77	0.15299402
94	0xbf30eaa8	-0.6910806
95	0xbedcf44e	-0.4315514
96	0x3ec23c41	0.37936595
97	0x3deebb14	0.11656776
98	0xbf22200d	-0.63330156
99	0xbeb9f16c	-0.36317003
100	0x3f38c56d	0.7217625
101	0x3ed9d81c	0.4254769
102	0xbea3cf36	-0.31994027
103	0xbe3ef3bb	-0.18647663
104	0xbf4b46e0	-0.7940502
105	0x3d57881b	0.052620035
106	0xbf18bba3	-0.5966131
107	0xbec9c4c8	-0.39407945
108	0xbdd2dd44	-0.10296109
109	0x3e300a96	0.17191538
110	0xbeb1bf17	-0.34716102
111	0x3ee4f531	0.44718316
112	0xbeeed528	-0.46647
113	0x3f29b540	0.6629219
114	0x3f11a645	0.5689433
115	0xbf1ae425	-0.6050437
116	0xbe336928	-0.17520583
117	0x3c220868	0.0098896995
118	0x3e020e06	0.12700662
119	0x3e06eb6e	0.13175747
120	0x3ea9a153	0.33130893
121	0x3d076c28	0.03306213
122	0xbe949291	-0.2901807
123	0x3ebfea96	0.37483662
124	0xbf45fd12	-0.7733928
125	0xbe9aab37	-0.30208752
126	0xbe1695e1	-0.14705612
127	0xbe94e332	-0.29079586

layers.0.fc.bias f4 [64]
0	0xbe8760d2	-0.26441056
1	0xbf0fc451	-0.5615893
2	0xbe23821d	-0.15967603
3	0x3e244ba0	0.16044474
4	0xbef0df9b	-0.47045597
5	0xbd00d2f8	-0.031451195
6	0x3f0c8ed0	0.54905415
7	0xbdd90d3a	-0.10598226
8	0x3c89b774	0.01681111
9	0xbdaaa7d2	-0.083327904
10	0x3e0a8554	0.13527423
11	0x3ee830f2	0.45349842
12	0x3f2c65e7	0.6734299
13	0x3f04cc8c	0.51874614
14	0x3f27bad7	0.6551947
15	0xbd8c3d8f	-0.06847679
16	0xbf21d09d	-0.63208944
17	0xbeaedaaf	-0.34151217
18	0x3ef1a826	0.471986
19	0xba2ccdb4	-0.00065919315
20	0xbeb5d747	-0.35515806
21	0xbf073ed5	-0.5283025
22	0xbf07cb37	-0.53044456
23	0xbf1a27a9	-0.60216767
24	0xbe1c36e3	-0.15255313
25	0x3ec25525	0.37955585
26	0x3edacf1f	0.42736146
27	0xbf29981c	-0.66247725
28	0x3ef5e176	0.48023576
29	0xbf06f6c8	-0.5272031
30	0xbe161b39	-0.14658822
31	0xbe986241	-0.29762462
32	0xbded5b3e	-0.11589669
33	0xbe381bd2	-0.17979363
34	0xbf1adb1c	-0.60490584
35	0xbf1987c0	-0.59972763
36	0xbdf3e660	-0.11909175
37	0xbad7e353	-0.0016470946
38	0xbe99978c	-0.29998434
39	0x3e8dcea8	0.2769673
40	0xbf26b99b	-0.6512696
41	0xbda9d1c5	-0.082919635
42	0x3f1ed385	0.62041503
43	0xbe93230e	-0.28737682
44	0x3f272d10	0.65303135
45	0x3e90f417	0.28311226
46	0xbf23544b	-0.63800496
47	0x3ee72fc7	0.4515364
48	0xbdab0f14	-0.08352485
49	0xbe9e6cf8	-0.30942512
50	0x3f0fe4cf	0.5620851
51	0xbf12669b	-0.57187814
52	0x3db52e5c	0.08846733
53	0xbe3e2d06	-0.18571863
54	0x3f04d66e	0.51889694
55	0x3e3cf780	0.18453789
56	0x3eaab759	0.33343008
57	0x3e781618	0.24227178
58	0xbe4db261	-0.20087577
59	0xbe1f2ac4	-0.15543658
60	0xbf15284e	-0.58264625
61	0x3ebd86e4	0.37016976
62	0x3f0d97cb	0.5530974
63	0x3f02205c	0.50830626

layers.1.fc.weight f4 [64, 128]
0	0xbd65c546	-0.056096338
1	0xbcc551d7	-0.024086876
2	0xbd0ea336	-0.03482362
3	0xbdb7c04c	-0.089722246
4	0xbd29bab0	-0.041437805
5	0x3da6e428	0.08148986
6	0xbcf606fb	-0.030032625
7	0x3cc19ead	0.023635233
8	0xbc400a5a	-0.011721218
9	0x3d90b197	0.070651226
10	0xbdb718fa	-0.08940311
11	0xbd891a2d	-0.06694446
12	0xbd784444	-0.06061198
13	0x3dcb2cf3	0.09920683
14	0xbca00a83	-0.019536262
15	0x3ddda57d	0.1082258
16	0x3c7d7693	0.015470165
17	0x3c8cf6ce	0.01720753
18	0x3c872539	0.016497241
19	0xbd0096bb	-0.031393748
20	0x3cc10cb8	0.023565635
21	0xbc2ab98f	-0.010420217
22	0xbcef8f3a	-0.0292431
23	0xbb395aac	-0.0028282804
24	0xbd34791d	-0.044060815
25	0xbd65cec8	-0.056105405
26	0x3d506675	0.05087896
27	0xbdb5fe3d	-0.08886383
28	0xbad39c63	-0.0016144629
29	0x3d8e8658	0.06959218
30	0x3cb1fe07	0.021727575
31	0x3c343534	0.010999013
32	0xbdbf22b4	-0.09332791
33	0x3d562170	0.052277982
34	0xbd997c37	-0.07494395
35	0xbd241386	-0.04005768
36	0xbd1dba7e	-0.03850793
37	0xbca6e09e	-0.020370778
38	0x3b8e11f2	0.0043356353
39	0x3d9ecaf9	0.07753558
40	0xbcdf1780	-0.027232885
41	0x3d4fade4	0.050702944
42	0x3d33cc8a	0.043896236
43	0xbcd85253	-0.026406443
44	0x3d0c5f7e	0.034270756
45	0xbdc8f793	-0.09812846
46	0xbd648adb	-0.055796485
47	0x3d45a75d	0.048255313
48	0x3c86c550	0.016451508
49	0x3d875002	0.06607057
50	0xbae01923	-0.0017097335
51	0x3c2cfe56	0.010558685
52	0x3d8299e0	0.063770056
53	0xbd8ebf71	-0.06970108
54	0x3d588710	0.05286318
55	0xbd75689a	-0.05991421
56	0x3c99a0ae	0.018753376
57	0xbcbb2d39	-0.022848712
58	0xbc6e2adf	-0.014536588
59	0x3c3e3644	0.011609618
60	0x3d924d14	0.07143608
61	0xbc9e860b	-0.019351026
62	0xbce1b001	-0.027549746
63	0xbd16a5c2	-0.036779173
64	0xbda6a7ac	-0.081374496
65	0x3d65592a	0.055993237
66	0xbcf3de69	-0.02976914
67	0xbdd3f94c	-0.10350284
68	0xbd23b95c	-0.039971694
69	0x3da5b772	0.0809163
70	0x3d413a57	0.047174778
71	0x3de2d282	0.110753074
72	0x3c78b6a7	0.015180266
73	0xbb95983a	-0.004565266
74	0xbd86c58b	-0.06580647
75	0x3c2c3587	0.010510809
76	0x3d78b21a	0.060716726
77	0x3c9d2433	0.0191823
78	0xbd409028	-0.047012478
79	0xbd808c2b	-0.06276735
80	0xbd8f3081	-0.06991673
81	0x3d563ecf	0.052305993
82	0xbd724882	-0.05915118
83	0xbdc1e7e1	-0.094680555
84	0x3dbfe9b3	0.093707465
85	0xbd28d354	-0.041217163
86	0x3b033a64	0.0020023817
87	0x3cea3b82	0.028592829
88	0x3cde0dcd	0.02710619
89	0xbdb6c3a7	-0.089240365
90	0xbdb4c30e	-0.08826266
91	0x3d9ea0a1	0.07745481
92	0x3bbc3fd4	0.0057449136
93	0x3db5b4cd	0.08872376
94	0xbd34f257	-0.044176426
95	0x3d1cd14f	0.03828555
96	0xbca39f6a	-0.019973475
97	0x3ba6bcc2	0.0050884197
98	0xbd54005d	-0.05175816
99	0x3d37850a	0.04480461
100	0x3c39c3ae	0.011338158
101	0xbc923bae	-0.017850723
102	0xba86d5b6	-0.001028708
103	0xbd7aa604	-0.06119348
104	0x3d8802f1	0.06641186
105	0xbc4c8bec	-0.012484532
106	0x3cc8a35b	0.024491956
107	0xbc19cb47	-0.009386844
108	0xbd5b5f22	-0.053557523
109	0xbc540dc6	-0.012942737
110	0xbd2d72d0	-0.04234582
111	0x3cbb063f	0.022830127
112	0x3b064b19	0.002049154
113	0xbd240c97	-0.04005107
114	0xbb1d2add	-0.0023981847
115	0x3d554d60	0.052075744
116	0x3d4380be	0.0477302
117	0x3cae5629	0.021281319
118	0xbdad8702	-0.08473016
119	0xbcd715f5	-0.026255587
120	0x3c9b9c5b	0.018995455
121	0xbd158d95	-0.036511976
122	0x3d4e6c3d	0.050396193
123	0x3d830f81	0.063994415
124	0xbd1a65e0	-0.03769481
125	0xbc2f5c3f	-0.0107031455
126	0x3d199163	0.037492167
127	0xbac8e0ea	-0.0015325819
128	0xbbc96adc	-0.006146772
129	0x3d93bb45	0.07213453
130	0xbd37df1a	-0.0448905
131	0x3d1ebf9a	0.038756944
132	0x3d29a551	0.041417424
133	0x3dbf292d	0.093340255
134	0x3cdf270f	0.027240304
135	0x3d042c8d	0.03226905
136	0x3d1e94ba	0.038716055
137	0xbcb584f6	-0.022158127
138	0xbdb5e73d	-0.08881996
139	0xbd861b61	-0.06548191
140	0x3dcba011	0.099426396
141	0xbc7ebdb0	-0.015548155
142	0xbd9b0228	-0.07568771
143	0x3d62e130	0.055390537
144	0x3dfb0f98	0.12258834
145	0x3e03bc67	0.12864839
146	0x3d8105a1	0.06299902
147	0x3d8113c8	0.06302601
148	0xbd105476	-0.0352368
149	0xbd342e43	-0.04398943
150	0x3e0be70b	0.13662355
151	0x3d860b66	0.06545143
152	0xbce7ea69	-0.028310018
153	0x3d2970a8	0.041367203
154	0x3d0153c4	0.031574026
155	0x3d8d92c3	0.06912758
156	0xbd262f7e	-0.040572636
157	0x3da6265b	0.081127845
158	0xbd00c058	-0.031433433
159	0x3de64d26	0.11245184
160	0xbc87cfc2	-0.016578559
161	0x3cc02581	0.023455383
162	0x3cf384ed	0.02972647
163	0x3dbb77e9	0.091537304
164	0xbcf6c775	-0.030124405
165	0x3cec3580	0.028834105
166	0xbd949da2	-0.072566286
167	0x3d507763	0.050895106
168	0x3c855572	0.016276095
169	0xbdb95d85	-0.090510406
170	0xbd4a81ff	-0.04944038
171	0x3d35d757	0.044394817
172	0x3d82f459	0.06394262
173	0x3d997766	0.074934766
174	0x3dbda73b	0.09260412
175	0xbdd0c3b3	-0.10193577
176	0xbd83b069	-0.06430132
177	0x3d04f33c	0.03245853
178	0xbdf10946	-0.11769347
179	0x3d95d957	0.07316845
180	0xbd7b4d78	-0.061353177
181	0xbc2f3ebc	-0.010696109
182	0xbd957010	-0.07296765
183	0xbd4450c3	-0.047928583
184	0x3d845f84	0.06463531
185	0x3ce7a8ef	0.028278796
186	0x3d7eab5b	0.062175136
187	0x3d813c02	0.06310274
188	0x3da250a2	0.07925536
189	0xbcba8c2e	-0.022771921
190	0x3c19a87a	0.009378547
191	0x3dad0fbb	0.08450266
192	0x3c8d6934	0.017262079
193	0x3d6c39b1	0.057672206
194	0x3cb9259c	0.022600941
195	0x3db492a5	0.08817033
196	0xbd3cfade	-0.046137683
197	0xbba55f9d	-0.0050467984
198	0x3d1aac7b	0.037762146
199	0xbd7c8061	-0.06164587
200	0xbce2acab	-0.027670225
201	0xbd93b10d	-0.07211504
202	0xbc9603a3	-0.018312281
203	0x3da35b58	0.07976407
204	0x3da056d1	0.07829059
205	0x3c9b5a85	0.018964062
206	0xbcdcf35f	-0.026971517
207	0x3d4befa1	0.049789075
208	0x3ce69ff5	0.028152445
209	0xbcf7a37e	-0.030229326
210	0xbc803286	-0.015649091
211	0x3db60075	0.08886806
212	0x3c90dc55	0.017683187
213	0xbdb0f684	-0.08640769
214	0x3d6442f6	0.05572792
215	0x3d2ee6e8	0.042700678
216	0xbd847eb0	-0.06469476
217	0x3daa913d	0.08328483
218	0xbce31203	-0.02771855
219	0xbd23a7a2	-0.03995479
220	0x3db9d422	0.09073664
221	0xbccefb0e	-0.025266197
222	0xbdb92885	-0.090409316
223	0xbd659950	-0.056054413
224	0xbd48e163	-0.04904307
225	0xbd02f66a	-0.03197328
226	0xbc7c3207	-0.015392787
227	0x3d5e2b82	0.05424071
228	0xbc37688b	-0.011194359
229	0xbd5704fa	-0.05249498
230	0xbc946887	-0.018116249
231	0x3d632fa4	0.055465356
232	0x3c7ff0d2	0.015621381
233	0xbdf9b405	-0.12192539
234	0x3a8871f8	0.0010409942
235	0xbdb4a395	-0.08820263
236	0xbca851fe	-0.02054691
237	0x3d730119	0.05932722
238	0xbdb464dd	-0.08808301
239	0x3d7b44ab	0.061344784
240	0x3d5b9a31	0.053613845
241	0xbd040f71	-0.03224129
242	0xbcdc43c9	-0.026887791
243	0xbd5cb9a0	-0.053887963
244	0x3d1ebb76	0.038752995
245	0xbdfc95b8	-0.12333244
246	0x3d74f254	0.059801415
247	0xbd66ef04	-0.056380287
248	0xbd6f1cf3	-0.058377218
249	0xbd713258	-0.058885902
250	0xbd2066be	-0.039160483
251	0x3d3d158a	0.04616312
252	0xbdd3d325	-0.10343007
253	0x3dc10fc7	0.094268374
254	0xbbe4b85e	-0.006979986
255	0x3d274656	0.040838562

layers.1.fc.bias f4 [64]
0	0x3d5b630d	0.05356126
1	0x3c052f01	0.008128882
2	0xbd71e8ea	-0.059060015
3	0x3cb34da1	0.021887602
4	0x3d2b3548	0.04179886
5	0x3bc7edaf	0.006101332
6	0x3d5c68fc	0.05381106
7	0x3ce59911	0.02802709
8	0xbd0df62c	-0.034658596
9	0x3d98f965	0.07469443
10	0x3ca22b2d	0.019795978
11	0xbb21c86e	-0.0024686116
12	0x3d951eed	0.07281289
13	0xbcbb4a46	-0.022862565
14	0xbd7e4e1b	-0.062086206
15	0xbc6abf02	-0.014327766
16	0xbd42ed89	-0.047589812
17	0xbccb2e02	-0.024802212
18	0xbd8825ff	-0.06647872
19	0xbbcda2cf	-0.006275512
20	0xbd2c17cc	-0.042014882
21	0xbd273c58	-0.040829033
22	0x3c18e3a3	0.009331617
23	0x3d84c0ee	0.06482111
24	0x3cdc1fcf	0.026870636
25	0xbda9ce8e	-0.0829135
26	0xbd8fca58	-0.07021016
27	0xbbf1316d	-0.0073606283
28	0x3ce2641d	0.027635628
29	0x3d6f9395	0.058490355
30	0x3db57b52	0.08861412
31	0xbdb961bd	-0.09051845
32	0x3db65cde	0.08904432
33	0x3d71edb0	0.059064567
34	0xbd96d09c	-0.07364008
35	0xbdddc97e	-0.10829447
36	0xbd96801a	-0.07348652
37	0xbcb014e5	-0.021494338
38	0x3cbaf09d	0.022819811
39	0xbdb24710	-0.0870496
40	0x3ca93c6a	0.02065869
41	0x3d940126	0.072267815
42	0xbcf8463e	-0.030306932
43	0xbd86edb0	-0.06588304
44	0xbd49a243	-0.04922701
45	0x3cf140ed	0.029449904
46	0x3d1c59ec	0.038171694
47	0xbd4a005a	-0.04931674
48	0xbd887d55	-0.0666453
49	0x3d4abfe3	0.049499404
50	0xbcdebfc3	-0.027191048
51	0xbda6b101	-0.081392296
52	0x3dab00d1	0.08349765
53	0x3d5dba31	0.054132644
54	0xbcf381dc	-0.029725008
55	0x3b24f4a2	0.0025170227
56	0x3d52c869	0.051460657
57	0xbd632c70	-0.0554623
58	0xbd1846f7	-0.037177052
59	0xbce13d40	-0.027495027
60	0xbdaa3431	-0.08310736
61	0x3dba6b81	0.09102536
62	0xbd6394c1	-0.055561785
63	0xbcf823d9	-0.030290531

layers.2.gsds.0.weight f4 [6, 64]
0	0x3d844f9f	0.06460499
1	0x3de2f122	0.11081149
2	0xbd25931a	-0.04042349
3	0x3d999246	0.074986026
4	0x3c8cd46a	0.01719113
5	0xbdf2f810	-0.118637204
6	0xbe1a754b	-0.15083806
7	0xbd9034af	-0.070412986
8	0xbd06ff51	-0.032958332
9	0x3dfe9402	0.12430574
10	0xbd6278d8	-0.055291027
11	0xbd84a8d9	-0.06477518
12	0x3d5ec187	0.05438378
13	0xbd6d8703	-0.057990085
14	0x3d5b56be	0.05354952
15	0x3b5790c4	0.0032892684
16	0xbd31bf13	-0.043395113
17	0xbdadb6a8	-0.084821045
18	0x3dd2ea9d	0.10298655
19	0xbd9bc097	-0.07605093
20	0x3cf46075	0.02983115
21	0x3da8a765	0.08235053
22	0x3c4dea68	0.012568094
23	0xbbd270e2	-0.006422148
24	0xbd055454	-0.032551125
25	0xbd58a12e	-0.052888088
26	0x3d03ac94	0.032147005
27	0xbc8129ce	-0.015767004
28	0x3d658a7a	0.056040265
29	0x3d80ee21	0.062954195
30	0x3d0878a8	0.03331819
31	0xbd7b4e58	-0.06135401
32	0xbda961a0	-0.082705736
33	0xbda68758	-0.081312835
34	0x3d53706d	0.05162089
35	0x3b918a6c	0.00444155
36	0x3e02d117	0.12775074
37	0x3dbf03ca	0.093268946
38	0xbd49cd97	-0.04926833
39	0x3de4cd4d	0.111719705
40	0xbdad6645	-0.08466772
41	0xbd3b4b62	-0.045726188
42	0x3dc1f066	0.094696805
43	0xbdbb422c	-0.09143481
44	0xbc6d130e	-0.014469875
45	0xbdbb7e01	-0.09154893
46	0x3d987b41	0.07445384
47	0x3dc457df	0.095870726
48	0x3df31cc6	0.118707225
49	0xbd2c9548	-0.042134553
50	0xbdd8d60a	-0.105877
51	0x3da7a784	0.08186248
52	0xbdae4571	-0.08509339
53	0xbd664cbc	-0.056225523
54	0xbdcb22fa	-0.099187806
55	0x3dcc8b20	0.099874735
56	0xbd2a12dd	-0.041521896
57	0x3c8b4a44	0.017003186
58	0xbd1083aa	-0.035281815
59	0x3c3b0c13	0.011416453
60	0xbd73c53d	-0.059514273
61	0x3ddb5daa	0.107112244
62	0xbdfc39be	-0.12315701
63	0xbd207767	-0.03917637
64	0xbd59532f	-0.053057846
65	0xbda2f31b	-0.07956525
66	0x3d8fb1d9	0.070163436
67	0x3dd35e69	0.10320742
68	0x3d964042	0.07336475
69	0x3d1f1de7	0.038846876
70	0x3db6de49	0.08929116
71	0x3da2b845	0.07945303
72	0xbd16ffb5	-0.036864955
73	0xbd823b83	-0.06359007
74	0x3d28796b	0.04113142
75	0x3db57731	0.088606246
76	0x3dbb3c5f	0.09142374
77	0xbb42c75f	-0.0029720885
78	0x3e1a214e	0.15051767
79	0xbd9db690	-0.07700837
80	0x3d80866b	0.06275638
81	0x3df66441	0.12030841
82	0x3c0c7265	0.008572196
83	0x3d94fa2e	0.072742805
84	0x3dda6584	0.10663894
85	0xbdf248fc	-0.11830327
86	0x3d90f7ba	0.070785
87	0x3d5d4c7d	0.054028023
88	0x3d8f1b52	0.06987633
89	0x3d83525c	0.06412193
90	0x3dc31c66	0.09526901
91	0x3d173207	0.036912944
92	0x3d7270d4	0.059189633
93	0xbdda0347	-0.10645156
94	0xbe096bc3	-0.13420014
95	0x3d8c0d96	0.06838529
96	0x3de69bb3	0.11260166
97	0xbd44eda1	-0.048078183
98	0x3dbcad07	0.0921269
99	0xbc17a527	-0.009255684
100	0x3d731357	0.059344616
101	0xbbd74a5b	-0.006570143
102	0x3d86f6ca	0.0659004
103	0xbd5fd0ff	-0.054642674
104	0xbddaf96e	-0.10692106
105	0x3d9f1263	0.07767179
106	0xbd81f751	-0.06346
107	0x3dd74b27	0.10512381
108	0x3cf2d152	0.029640827
109	0xbd76fbd7	-0.060298767
110	0x3de99227	0.114048295
111	0x3dfcb1ce	0.12338601
112	0xbd9e7b5f	-0.07738375
113	0x3d7b10d6	0.061295353
114	0x3d335ea0	0.043791413
115	0xbd943b60	-0.072378874
116	0xbb262be7	-0.0025355758
117	0xbde9351b	-0.11387082
118	0x3cfda582	0.03096271
119	0xbdddb562	-0.10825612
120	0x3de5f202	0.112278
121	0x3d694500	0.05695057
122	0x3dd154e1	0.102212675
123	0x3cf1abf6	0.029500943
124	0xbd727ecd	-0.059202958
125	0x3d84ad5d	0.06478379
126	0x3d1a2a79	0.03763816
127	0x3d61260c	0.054967925
128	0xbdde0798	-0.10841292
129	0x3e3cc562	0.1843467
130	0xbdda7472	-0.106667414
131	0xbe6e7855	-0.2328809
132	0x3c4903a4	0.012268934
133	0x3e4e669e	0.20156333
134	0xbd77b0ad	-0.060471226
135	0xbdde6380	-0.10858822
136	0xbe47437e	-0.1945934
137	0x3e0a1a48	0.13486588
138	0xbe4dccaa	-0.20097604
139	0xbd07c522	-0.033146985
140	0x3e013fca	0.1262199
141	0xbe0375af	-0.12837861
142	0xbe1a735e	-0.15083072
143	0xbd8a2027	-0.06744414
144	0x3de2f0a9	0.110810585
145	0xbd0ada0f	-0.033899363
146	0xbdb47782	-0.08811857
147	0x3d8c327f	0.06845569
148	0x393ef887	0.00018212396
149	0x3d7af321	0.061267022
150	0x3d9e88fa	0.0774097
151	0x3d4f584c	0.050621316
152	0x3b3f136f	0.002915587
153	0x3d3b4b5a	0.045726158
154	0x3e54c96e	0.20779964
155	0x3dd5e529	0.104440995
156	0x3defbff9	0.11706538
157	0xbbb2d2ec	-0.0054572728
158	0xbdd68947	-0.10475402
159	0xbdfe3605	-0.12412647
160	0x3e294d7f	0.16533469
161	0xbded9abd	-0.116017796
162	0xbcac4a30	-0.02103147
163	0xbe2944bf	-0.16530131
164	0xbd03da18	-0.032190412
165	0xbd6e0f8c	-0.058120295
166	0x3e11e939	0.14249124
167	0x3c3e0674	0.011598218
168	0x3d85daa1	0.06535841
169	0x3de76a3d	0.1129956
170	0x3d44c295	0.04803713
171	0x3cfbdf0d	0.030746007
172	0x3e8711f0	0.26380873
173	0x3e7e135e	0.24812075
174	0x3dfb7730	0.122785926
175	0x3d79b788	0.060966045
176	0x3e14ba66	0.1452423
177	0x3d8c9682	0.068646446
178	0x3d987c63	0.074456
179	0xbdb3efb5	-0.08785955
180	0xbe033aa7	-0.12815343
181	0x3dfe42fe	0.124151215
182	0xbd37d39f	-0.044879552
183	0xbdc456ea	-0.0958689
184	0xbd86cfa5	-0.06582574
185	0xbc9ce4e3	-0.01915211
186	0xbdf7b14c	-0.120943636
187	0xbe2af0b7	-0.16693388
188	0x3d908c56	0.07058017
189	0x3e28df75	0.16491492
190	0xbe0ef3dc	-0.13960212
191	0x3dde26e9	0.10847265
192	0x3d00e43c	0.03146766
193	0x3d93faa7	0.072255425
194	0x3dadaa79	0.08479781
195	0xbcef9b63	-0.029248899
196	0xbc8e795d	-0.017391855
197	0xbde917bd	-0.11381481
198	0xbd665bb5	-0.056239802
199	0xbdb4b805	-0.088241614
200	0xbc10d28f	-0.008839264
201	0x3e0b2c72	0.13591173
202	0x3d90cd5b	0.070704184
203	0xbd98fe0a	-0.07470329
204	0x3d5ca807	0.05387118
205	0x3bcbe595	0.0062224367
206	0xbc766c44	-0.015040461
207	0xbd0775c0	-0.03307128
208	0xbdafeb0a	-0.08589752
209	0xbccf14f7	-0.025278552
210	0x3d46627b	0.048433762
211	0x3df3e339	0.11908574
212	0x3dc21c04	0.09478
213	0xbbd9eaef	-0.0066503207
214	0xbbb763ac	-0.0055965986
215	0x3df909b6	0.12160055
216	0xbaee87a3	-0.0018198382
217	0x3da71183	0.08157637
218	0x3e374d88	0.1790067
219	0x3db522cb	0.08844527
220	0x3d42ee63	0.047590625
221	0xbdd9f71b	-0.10642835
222	0xbca3b342	-0.019982938
223	0xbe0407fb	-0.1289367
224	0x3e222117	0.15832935
225	0x3d54a00e	0.051910453
226	0xbd99aa40	-0.07503176
227	0x3c1b706a	0.009487251
228	0x3c497485	0.012295847
229	0x3c013f4b	0.007888625
230	0xbcae6b7b	-0.021291485
231	0x3d9be4ba	0.076119855
232	0xbe0b0647	-0.13576613
233	0xbe210ff5	-0.15728743
234	0x3e1aee5a	0.15129986
235	0xbd5f0e90	-0.054457247
236	0x3bc89a1f	0.0061218883
237	0x3c8ae65d	0.016955549
238	0x3d4fbc15	0.05071648
239	0xbdcab049	-0.09896905
240	0x3cb3feb4	0.021972038
241	0xbda2bbaa	-0.0794595
242	0x3e429aa8	0.19004309
243	0x3d0ccba0	0.03437388
244	0x3e1ac6eb	0.15114944
245	0x3db617bb	0.08891245
246	0x3da3c495	0.079964794
247	0xbd25d9ad	-0.040490795
248	0x3d140e0c	0.03614621
249	0xbda3473f	-0.079725735
250	0x3dcbf7f5	0.099594034
251	0xbd9c4725	-0.07630757
252	0x3df8df63	0.12151983
253	0xbd01ab79	-0.03165767
254	0x3d3cf612	0.04613311
255	0x3da014d4	0.07816473

layers.2.gsds.0.bias f4 [6]
0	0xbcde544b	-0.027139803
1	0x3ddd7e9c	0.108151644
2	0x3dfef830	0.12449682
3	0xbd9698fb	-0.073533975
4	0xbe010543	-0.12599663
5	0x3cf179af	0.029476969

log_envelope.log_envs.0.weight f4 [6, 1]
0	0x3f2d8941	0.6778756
1	0x3f2eff7f	0.68358606
2	0x3f2b479d	0.6690615
3	0x3f4ebcf1	0.8075705
4	0x3f6ecd5f	0.9328212
5	0x3f414f53	0.75511664

exp_avg f4 [64, 2]
0	0x3f94df75	1.1630694
1	0xbe013eee	-0.12621662
2	0x3e577e2d	0.21044226
3	0xbe115e26	-0.14196071
4	0x3e68d9af	0.2273929
5	0x3d5f07ad	0.05445068
6	0x3f44152a	0.76594794
7	0xbc54752a	-0.012967387
8	0x3e9fae7e	0.31187814
9	0xbd3ef169	-0.046616945
10	0xbe62717a	-0.221136
11	0xbc8f98d4	-0.017528929
12	0x3f818d93	1.012133
13	0x3dfb30e4	0.122651845
14	0xbd130e7b	-0.03590248
15	0xbd075342	-0.033038385
16	0xbd7183e3	-0.058963668
17	0x3d09cbf3	0.033641767
18	0xbe0fb399	-0.14033355
19	0xbde5980a	-0.1121064
20	0xbe28103c	-0.16412443
21	0x3e310766	0.17287979
22	0xbf1a2153	-0.602071
23	0xbda29dce	-0.07940255
24	0x3e789533	0.24275665
25	0x3d23e08c	0.040009066
26	0x3c343802	0.010999681
27	0x3d109660	0.03529966
28	0xbe60d83e	-0.2195749
29	0xbdc7e68c	-0.0976077
30	0x3db22e52	0.08700241
31	0xbe57fb1d	-0.21091886
32	0x3dc2fa80	0.09520435
33	0xbcc5ae61	-0.024131002
34	0x3d8fb15e	0.07016252
35	0xbca41b24	-0.020032473
36	0x3eef52b5	0.46742788
37	0xbdb1508e	-0.08657943
38	0xbe2abccf	-0.16673587
39	0x3e39a4a5	0.18129213
40	0x3eef954d	0.46793595
41	0xbcda4654	-0.026644863
42	0x3f1f017c	0.6211164
43	0x3d4d64f5	0.05014511
44	0xba88117b	-0.0010381186
45	0xbcb64a7d	-0.022252316
46	0x3e4ae1dc	0.19812721
47	0xbb4a7f75	-0.0030898724
48	0x3e368230	0.178231
49	0xbd61656b	-0.05502836
50	0xbe14d6cd	-0.14535065
51	0x3dedce55	0.1161162
52	0x3e808cda	0.2510746
53	0x3cfa63cc	0.030565165
54	0x3e1a1f2e	0.15050957
55	0x3dd6d689	0.10490138
56	0x3e558d94	0.20854789
57	0x3db97bd5	0.09056822
58	0x3e0f6ec2	0.14007095
59	0xbde0f0fa	-0.10983463
60	0xbf0ece89	-0.557839
61	0xbce38687	-0.027774109
62	0xbcda8a4f	-0.026677279
63	0xbdf61427	-0.120155625
64	0x3f0a866b	0.54111356
65	0x3e48a16e	0.1959283
66	0xbf0318da	-0.51209795
67	0x3d6113d6	0.054950558
68	0xbf08c43b	-0.53424424
69	0xbdefd2e9	-0.1171015
70	0x3de34250	0.110966325
71	0xbce80328	-0.028321818
72	0x3d8cd17a	0.06875892
73	0xbd512167	-0.051057246
74	0x3d78d20e	0.0607472
75	0x3d0d1d88	0.03445199
76	0xbef34502	-0.47513586
77	0x3d48fb1f	0.049067613
78	0x3fad6d31	1.3548948
79	0xbd24b2ab	-0.040209454
80	0x3f07298e	0.5279778
81	0xbc89b2c1	-0.01680887
82	0xbd83c389	-0.0643378
83	0xbc3fc013	-0.011703509
84	0x3f44d4c6	0.76887167
85	0x3bf793ab	0.007555445
86	0xbf3fc3a2	-0.74907887
87	0xbd239e0f	-0.03994566
88	0xbf2eb898	-0.6825042
89	0x3dbe1744	0.09281781
90	0xbf654516	-0.8955854
91	0x3e2b3725	0.16720255
92	0xbf0a5b6e	-0.5404576
93	0xbe08a9c2	-0.13346007
94	0xbf19576c	-0.5989902
95	0xbd3c11d0	-0.045915425
96	0xbed45a4f	-0.4147515
97	0xbddaf55b	-0.10691329
98	0x3d70dba7	0.058803227
99	0xbd9e7504	-0.07737163
100	0xbe7103a0	-0.23536539
101	0x3df85e55	0.121273674
102	0x3f5b8c64	0.85761094
103	0xbe06926f	-0.13141797
104	0x3e5852cf	0.21125339
105	0xbe20280c	-0.15640277
106	0x3eb5ba76	0.3549382
107	0xbdc19ea7	-0.09454089
108	0xbf25929c	-0.64676833
109	0x3d40fec6	0.04711797
110	0x3e71e59c	0.23622745
111	0xbe3b2f33	-0.18279724
112	0x3ebda5d5	0.37040582
113	0x3dc647be	0.096816525
114	0xbeca45ee	-0.39506477
115	0x3d46abc2	0.048503645
116	0xbd323565	-0.043507952
117	0xbcf92cab	-0.030416807
118	0xbe91f072	-0.28503758
119	0xbbf77cc2	-0.007552714
120	0xbd8fd68f	-0.07023346
121	0x3d525a11	0.051355425
122	0x3f2a7608	0.6658635
123	0xbd4c6de0	-0.049909472
124	0x3f999a17	1.200015
125	0x3ded3a60	0.115834
126	0xbdf08e05	-0.11745838
127	0x3cc3443d	0.02383625

exp_avg_sq f4 [64, 2]
0	0x41ab2825	21.394602
1	0x41ae6ece	21.804104
2	0x42f61d64	123.0574
3	0x4119e0d5	9.617391
4	0x43306de4	176.42926
5	0x4215a648	37.412384
6	0x4236cca7	45.699856
7	0x3e5e62e3	0.2171741
8	0x3e478d52	0.19487503
9	0x3e1c0965	0.15237959
10	0x42ecc28c	118.379974
11	0x40ec48f5	7.383906
12	0x406c2810	3.6899452
13	0x3dc30969	0.09523279
14	0x40b723e3	5.7231307
15	0x3df9dd57	0.1220042
16	0x41893172	17.149143
17	0x3d4f57db	0.050620895
18	0x4008bc08	2.1364765
19	0x4035a5d9	2.8382475
20	0x3ff79045	1.9340903
21	0x3f907571	1.128584
22	0x40b766a8	5.7312813
23	0x41a72677	20.893782
24	0x3f49990b	0.7874915
25	0x402d5bec	2.7087355
26	0x427679e7	61.619045
27	0x3f6e8b2f	0.9318113
28	0x42f35e6d	121.684425
29	0x3d59f0bf	0.05320811
30	0x3f2e023a	0.6797215
31	0x3e8ed34b	0.2789558
32	0x433dd892	189.84598
33	0x3fe1f231	1.7652036
34	0x40997593	4.7956023
35	0x40570224	3.3595057
36	0x4238ad8c	46.16948
37	0x418f0443	17.87708
38	0x4297b612	75.855606
39	0x40d8a409	6.770024
40	0x3ff5aac2	1.9192736
41	0x408f75da	4.483136
42	0x41f730fe	30.898922
43	0x3e2198a0	0.15780878
44	0x41d63ca3	26.779608
45	0x3c2fcbc9	0.0107297385
46	0x4192d810	18.3555
47	0x3f079f2c	0.5297725
48	0x423a1f49	46.530552
49	0x3d3120dd	0.04324423
50	0x43070238	135.00867
51	0x40ab0244	5.3440266
52	0x429d80c7	78.75152
53	0x40acdcc5	5.4019494
54	0x42020757	32.507168
55	0x401931aa	2.3936563
56	0x418faa56	17.958172
57	0x40b56b1b	5.6693244
58	0x42bf0636	95.51213
59	0x403bfe21	2.9373858
60	0x43a48987	329.07443
61	0x41eee556	29.86198
62	0x4332080f	178.03148
63	0x403ea04f	2.9785345
64	0x4031af00	2.7763062
65	0x408b05f8	4.3444786
66	0x40bf0e33	5.9704833
67	0x4106b224	8.418491
68	0x419ceb17	19.61479
69	0x4096e7f6	4.7158155
70	0x429af214	77.47281
71	0x40a42c71	5.130425
72	0x4234ee66	45.23281
73	0x40cb82ae	6.359702
74	0x44255014	661.2512
75	0x41a1ccc4	20.224983
76	0x3eab62de	0.33473867
77	0x3e93f16d	0.2889513
78	0x409646c0	4.6961365
79	0x4004e6f4	2.0765963
80	0x4385d9e7	267.70236
81	0x41844685	16.534433
82	0x43eee6e4	477.80383
83	0x40f93594	7.7877903
84	0x423d123f	47.26782
85	0x3efc75f7	0.4930875
86	0x41ff595d	31.918634
87	0x404e1971	3.2203028
88	0x3fb92465	1.4464232
89	0x4032413d	2.7852318
90	0x404a78b6	3.1636176
91	0x416f6ff1	14.964829
92	0x4216b4a3	37.676403
93	0x3e3f4943	0.18680291
94	0x43bbe130	375.75928
95	0x3ef1fdb9	0.47263888
96	0x43786ba1	248.42043
97	0x4186a1e4	16.829048
98	0x4385b0f0	267.38232
99	0x40b1af2f	5.5526347
100	0x4284e1ea	66.44124
101	0x3e607761	0.2192054
102	0x4236133c	45.518784
103	0x40385901	2.8804324
104	0x4311bb3d	145.7314
105	0x3f8d8b24	1.1058087
106	0x433639f6	182.22641
107	0x3ca3a1d0	0.01997462
108	0x4200e824	32.2267
109	0x3e096cef	0.13420461
110	0x42a0e667	80.450005
111	0x4126757f	10.403686
112	0x43ae024d	348.01797
113	0x411bad70	9.729843
114	0x42e0ff53	112.49868
115	0x4033ac77	2.8074014
116	0x439ca76f	313.30807
117	0x4269542f	58.33221
118	0x41540cb3	13.2531
119	0x427fc647	63.94363
120	0x42d9865e	108.762436
121	0x3fa5c9af	1.2952174
122	0x413a5e5e	11.648039
123	0x4004c07e	2.0742488
124	0x41664047	14.390693
125	0x3e922164	0.285411
126	0x426ec0ca	59.68827
127	0x3dce82a3	0.10083511

exp_avg f4 [64]
0	0xbf02ecf5	-0.5114282
1	0xbc8a26e4	-0.016864248
2	0x3ee76a17	0.45198128
3	0xbe29681b	-0.1654362
4	0xbd2f9dcf	-0.042875107
5	0xbcde8db9	-0.027167188
6	0x3f0609d6	0.5235876
7	0x3df44995	0.11928097
8	0x3e2c1c2e	0.16807625
9	0xbe961e45	-0.2931997
10	0x3e7d42f5	0.24732573
11	0xbe029b3a	-0.12754527
12	0x3dc4479c	0.09583971
13	0xbe001cf5	-0.12511046
14	0xbe6e527a	-0.2327365
15	0xbe6938ac	-0.22775525
16	0xbdb96bf1	-0.09053791
17	0x3e38566a	0.18001714
18	0x3d239587	0.039937522
19	0x3efd3370	0.49453306
20	0xbe71cb0f	-0.23612617
21	0xbebe3520	-0.37149906
22	0x3b878509	0.004135732
23	0x3d22f7d5	0.039787132
24	0x3d12aaf5	0.03580757
25	0x3d74d135	0.059769828
26	0x3db57e8a	0.08862026
27	0x3e3468ba	0.17618075
28	0x3d8bebbe	0.06832074
29	0xbe5d50bd	-0.2161283
30	0xbeb7b074	-0.3587681
31	0xbe1b82b0	-0.15186572
32	0x3eab725b	0.33485684
33	0x3c7b0b72	0.015322553
34	0xbea09973	-0.31367072
35	0x3d372c2b	0.044719856
36	0xbd71fa80	-0.059076786
37	0x3e16cafd	0.14725871
38	0x3e9002b0	0.2812705
39	0xbdfdefbf	-0.123992436
40	0xbe980dba	-0.29697973
41	0xbddab95a	-0.10679884
42	0xbda5f695	-0.081036724
43	0x3e176e2a	0.14788118
44	0x3ecb21c5	0.39674202
45	0x3f1cc78a	0.6124197
46	0xbedf4a29	-0.43611267
47	0xbeb1ccb8	-0.347265
48	0xbf27534b	-0.6536147
49	0xbd2534ee	-0.04033368
50	0xbc13a5c3	-0.009011689
51	0xbee48659	-0.4463375
52	0xbdcae380	-0.099066734
53	0xbc116dde	-0.008876292
54	0x3eceac3b	0.40365776
55	0xbdca095c	-0.098650664
56	0x3ecad1fc	0.3961333
57	0xbe4ac661	-0.19802238
58	0x3e41f5f8	0.18941486
59	0xbd92871f	-0.071546786
60	0x3e2fbee8	0.17162669
61	0xbe8a5a8a	-0.270222
62	0x3ee8dbb0	0.45480108
63	0x3da27536	0.079325125

exp_avg_sq f4 [64]
0	0x45e37703	7278.8765
1	0x452b1fab	2737.9792
2	0x45d75053	6890.0405
3	0x4367a631	231.64919
4	0x4267c910	57.94635
5	0x44b2e59a	1431.175
6	0x424344f7	48.81735
7	0x422d29f4	43.29097
8	0x410eaf6a	8.917826
9	0x44bf2669	1529.2003
10	0x406499b4	3.5718813
11	0x45a59814	5299.01
12	0x44447bf6	785.9369
13	0x430fd255	143.82161
14	0x425a0a43	54.51002
15	0x40994637	4.789821
16	0x43d0260f	416.29733
17	0x423d2c49	47.293247
18	0x4594ec35	4765.526
19	0x456818e0	3713.5547
20	0x446fc709	959.1099
21	0x44041c36	528.4408
22	0x40f32ea1	7.599442
23	0x43d1746b	418.90952
24	0x415b7d1d	13.718045
25	0x44a1db4d	1294.8531
26	0x442a0a00	680.15625
27	0x4464f620	915.8457
28	0x4480af25	1029.4733
29	0x4383f581	263.918
30	0x45beb949	6103.1606
31	0x44356fa7	725.74457
32	0x4529e555	2718.3333
33	0x45124a3f	2340.6404
34	0x44d00f57	1664.4794
35	0x4442c859	779.13043
36	0x44b65d18	1458.9092
37	0x45ca76e5	6478.862
38	0x43c13ffb	386.49985
39	0x44505dd7	833.46625
40	0x4591a328	4660.3945
41	0x450c11f9	2241.1233
42	0x4353fbff	211.98436
43	0x4505b0dd	2139.054
44	0x44826ef9	1043.4679
45	0x45b81b5d	5891.4204
46	0x40f422b5	7.6292367
47	0x43f82ea9	496.36453
48	0x44e15bf8	1802.874
49	0x45253d9b	2643.8503
50	0x4315449e	149.26804
51	0x44c6e5de	1591.1833
52	0x4471dcf4	967.4524
53	0x42dea42e	111.32066
54	0x4330767f	176.46288
55	0x452ab158	2731.084
56	0x44e29a20	1812.8164
57	0x435c0b81	220.04494
58	0x4612ad93	9387.394
59	0x46879c58	17358.172
60	0x441ed200	635.28125
61	0x418267b7	16.300642
62	0x422f0db0	43.763367
63	0x4374030e	244.01193

exp_avg f4 [64, 128]
0	0x3c9f02e5	0.01941056
1	0xbe023adb	-0.12717764
2	0xbdfda9d6	-0.12385909
3	0xbd4d596b	-0.050134104
4	0xbcafeb27	-0.021474434
5	0xbdf2b8af	-0.11851632
6	0xbdede54b	-0.11616
7	0xbe007cdb	-0.12547629
8	0x3dce0d5b	0.10061141
9	0xbe01041f	-0.12599228
10	0x3dbf0c07	0.09328466
11	0xbe101337	-0.1406983
12	0xbdfbbad3	-0.12291493
13	0x3e0c698e	0.13712141
14	0xbe113636	-0.14180836
15	0xbe280108	-0.16406643
16	0xbe05e011	-0.13073756
17	0xbde73b18	-0.11290568
18	0xbe360332	-0.17774656
19	0x3de99be9	0.114066906
20	0x3dcb2caf	0.09920632
21	0x3e07a98b	0.1324827
22	0xbe0cfd80	-0.13768578
23	0x3e02ba75	0.1276644
24	0xbe055fdd	-0.1302485
25	0x3dcbc74c	0.09950122
26	0x3d73e8a9	0.059548054
27	0x3e2f6d5c	0.17131561
28	0x3d252f32	0.040328212
29	0xbe001e2c	-0.1251151
30	0x3dfc4c79	0.123192735
31	0xbe119b28	-0.14219344
32	0x3e12d101	0.14337541
33	0x3d6567c9	0.05600718
34	0x3dec1b13	0.115286015
35	0xbdf8946a	-0.12137683
36	0x3dd26e42	0.10274936
37	0x3dfba031	0.122864135
38	0x3e03479f	0.1282029
39	0xbc347350	-0.011013821
40	0xbe1beb30	-0.15226436
41	0x3e23875f	0.15969609
42	0xbb7f7849	-0.0038981608
43	0xbcb83e98	-0.022490785
44	0x3d5baafb	0.053629857
45	0x3d64f31d	0.055895913
46	0x3e081322	0.13288549
47	0xbdeb72a2	-0.11496474
48	0x3e033c56	0.12815985
49	0xbe01bbd0	-0.12669301
50	0x3e0516be	0.12996957
51	0xbd87336a	-0.06601603
52	0xbdf5fcc7	-0.12011104
53	0xbdfd7355	-0.123755135
54	0xbde13474	-0.10996333
55	0xbe212950	-0.15738416
56	0xbe346615	-0.17617066
57	0x3e1f10f4	0.15533811
58	0xbd73b801	-0.05950165
59	0x3d9ce54b	0.07660922
60	0x3e18e4fc	0.149311
61	0xbe1bdd8e	-0.15221235
62	0xbde94e3e	-0.11391877
63	0xbddf8f6a	-0.10916026
64	0x3cc216c0	0.023692489
65	0x3d38b018	0.04508981
66	0x3c93e9ba	0.018055785
67	0xbd22017a	-0.03955219
68	0x3d6028fa	0.05472658
69	0x3c854c34	0.016271688
70	0x3af41706	0.0018622584
71	0x3c8cae2c	0.017172895
72	0xbcc95e12	-0.024580989
73	0x3ccc8e13	0.02497009
74	0xbd12d22d	-0.03584497
75	0xbd7fd131	-0.06245536
76	0xbda34c74	-0.07973567
77	0xbc9aa40e	-0.018877055
78	0xbc9feadb	-0.019521168
79	0xbba242b5	-0.0049517998
80	0x3d436f46	0.04771354
81	0x3d355aa6	0.044275902
82	0xbcee285f	-0.029071985
83	0xbca7b1b7	-0.020470483
84	0x3d656735	0.05600663
85	0x3d9af89b	0.07566949
86	0x3d205e25	0.039152283
87	0x3c2e23e9	0.010628679
88	0x3ca4ba8c	0.020108484
89	0xbd4c7f98	-0.04992637
90	0xbd5fa09e	-0.054596536
91	0x3cd8881d	0.026432091
92	0xbd3ac014	-0.045593336
93	0x3d3c3dae	0.04595726
94	0xbbee9d3c	-0.0072819274
95	0x3cc31310	0.0238128
96	0xbaca5cf7	-0.0015439083
97	0x3c9a662a	0.018847544
98	0x3bada25e	0.0052988967
99	0x3d4ef9f7	0.050531354
100	0xbc7d2cc9	-0.015452572
101	0xbcf0761f	-0.0293532
102	0x3d4dbff5	0.050231893
103	0xbcc24bd6	-0.023717802
104	0x3cb65386	0.022256624
105	0x3bcc9b18	0.0062440746
106	0xbd966429	-0.07343323
107	0x3d49ef0c	0.04930024
108	0xbd7f0b91	-0.06226689
109	0xbd46a4e6	-0.048497103
110	0x3c29d882	0.010366561
111	0x3bf4f1d7	0.0074751186
112	0xbc083a9b	-0.008314754
113	0x3d13bc41	0.036068205
114	0xbd2ebfec	-0.0426635
115	0x3d82cc4e	0.06386624
116	0x3c4bdce8	0.012442805
117	0x3d0565ac	0.032567665
118	0xbd8b8292	-0.06812014
119	0xbc9b23e9	-0.018938022
120	0xbcd24558	-0.025667831
121	0xbc1e9ae1	-0.009680481
122	0x3cf82d35	0.030294994
123	0x3c3e79a3	0.01162568
124	0x3d2dd94b	0.042443555
125	0xbd1f4eb6	-0.038893424
126	0x3b37a7a0	0.0028023496
127	0xbd47d4d5	-0.048786957
128	0xbc42fc20	-0.011900932
129	0xbde61cce	-0.11235963
130	0xbe2fa415	-0.17152436
131	0xbcb2d9af	-0.021832315
132	0xbdc49e6d	-0.0960053
133	0xbe231923	-0.15927558
134	0xbe1b05c1	-0.15138914
135	0xbe2c68ca	-0.16836849
136	0x3e070e33	0.1318901
137	0xbe0c3868	-0.13693392
138	0x3df2c76e	0.118544444
139	0xbe0976d5	-0.13424237
140	0xbd9b8024	-0.075928
141	0x3da4e4e1	0.08051468
142	0xbe780e18	-0.24224126
143	0xbe70a039	-0.2349862
144	0xbdea59eb	-0.11442932
145	0xbde748da	-0.11293192
146	0xbea402b6	-0.32033318
147	0x3e15b383	0.1461926
148	0x3d8bc066	0.068238065
149	0x3dbaa8f5	0.09114257
150	0xbdf3699c	-0.11885378
151	0x3e4b3512	0.19844463
152	0xbe2a6783	-0.16641049
153	0x3dd48051	0.10376037
154	0x3de029f3	0.10945501
155	0x3eabccc9	0.33554676
156	0x3df571bb	0.11984583
157	0xbdec0a83	-0.115254425
158	0x3e2a0e15	0.16606934
159	0xbe244324	-0.16041237
160	0x3e4b7214	0.19867736
161	0x3d59974b	0.0531228
162	0x3e27b205	0.16376503
163	0xbdeb6d01	-0.114954
164	0x3e0aeadd	0.13566156
165	0x3e025bf6	0.12730393
166	0x3e01a67c	0.12661165
167	0x3cd012ae	0.025399532
168	0xbdb2e697	-0.08735388
169	0x3e7177b1	0.23580815
170	0x3da131e1	0.07870842
171	0xbd9c30dd	-0.076265074
172	0x3dfd95e5	0.12382106
173	0x3dc94f43	0.09829571
174	0x3e625505	0.22102745
175	0xbe0cbead	-0.13744612
176	0x3e309af4	0.1724661
177	0xbdfa7a20	-0.12230325
178	0x3deb2f9a	0.11483689
179	0xbdd3d316	-0.10342996
180	0xbdee45df	-0.116344206
181	0xbe015bcc	-0.12632674
182	0xbd8cba15	-0.0687143
183	0xbe6ce41b	-0.2313389
184	0xbe97fbe4	-0.29684365
185	0x3e2b7bad	0.16746397
186	0xbde3a45e	-0.11115335
187	0x3dbf64e0	0.09345412
188	0x3e5bbb27	0.21458112
189	0xbe52a2c5	-0.20569904
190	0xbe0ce339	-0.13758554
191	0xbdd1e068	-0.1024788
192	0xbbb48443	-0.005508931
193	0xb8ed16c3	-0.0001130528
194	0x39888f0d	0.00026046523
195	0xbbfbbddd	-0.0076825456
196	0xba9775ef	-0.0011555533
197	0x3ba10c09	0.004914765
198	0x3c6fa7e6	0.014627432
199	0x3b112ea9	0.0022153056
200	0xbc0fbb68	-0.0087727085
201	0x3bb54493	0.0055318563
202	0xbc05c55c	-0.00816473
203	0xbb826aa3	-0.0039799972
204	0xb97b563d	-0.00023969352
205	0x3c0430fa	0.008068318
206	0x3c4ea7de	0.012613265
207	0xbba08d59	-0.0048996625
208	0xba5ac4b3	-0.00083453505
209	0x3b95d355	0.004572312
210	0x3b5c2067	0.003358865
211	0xbbfac286	-0.0076525835
212	0x3b8b8ebb	0.004258958
213	0x3bae4e39	0.0053193835
214	0xbab11daf	-0.0013512875
215	0xbc6f0f61	-0.014591069
216	0x3ad8f3b0	0.0016552117
217	0xbbaa7090	-0.005201407
218	0xbb37a1c8	-0.0028020013
219	0xbc087c62	-0.008330436
220	0x3bae55fa	0.005320308
221	0x3a30285f	0.0006719883
222	0xbc085866	-0.008321857
223	0xbac68dca	-0.0015148458
224	0xbb86a9c1	-0.0041095917
225	0xbb22b616	-0.002482777
226	0xbc8edd28	-0.01743944
227	0x394b1d1b	0.00019370431
228	0xbc34e374	-0.011040557
229	0xbc0d7756	-0.008634409
230	0x3bb83ee7	0.005622733
231	0x3bcb0fa7	0.0061969343
232	0xbc132739	-0.008981519
233	0x3a68666e	0.0008865361
234	0xb9e6af57	-0.00043999657
235	0x3bb36872	0.0054750973
236	0x3b3c7480	0.0028755963
237	0xbbce4a43	-0.006295474
238	0xbc5ee7fe	-0.013605116
239	0x3c6bbfed	0.01438902
240	0xbbca37d7	-0.0061712074
241	0x3b2f3039	0.0026731624
242	0x3a7d4e40	0.0009662844
243	0x3b1c1b1b	0.0023819867
244	0x3bafce76	0.0053651882
245	0x3ba1c23d	0.004936485
246	0xbac3eaa5	-0.0014947249
247	0xb99cbd21	-0.0002989555
248	0x3a71b290	0.00092200283
249	0x3b95b130	0.0045682415
250	0x3b0d6540	0.0021575242
251	0xbb7d1258	-0.003861567
252	0xbbd976ad	-0.0066364617
253	0x39a542d9	0.00031521058
254	0x3c6ea931	0.014566706
255	0x3bbf7dd4	0.0058438573

exp_avg_sq f4 [64, 128]
0	0x43095c40	137.36035
1	0x435d0bee	221.0466
2	0x41ef8d01	29.94385
3	0x41fb12c8	31.38417
4	0x43b11795	354.18423
5	0x3d7ff5df	0.06249034
6	0x43e46caa	456.84894
7	0x40f7d164	7.7443104
8	0x3ff10c01	1.8831788
9	0x405a571c	3.4115667
10	0x40d922bf	6.7854915
11	0x4387de6a	271.7376
12	0x441a46a0	617.1035
13	0x4357b8e2	215.7222
14	0x43fa6df9	500.85916
15	0x40989db2	4.76925
16	0x43b2d2c7	357.6467
17	0x42835a5a	65.67647
18	0x4392e4fe	293.789
19	0x40c83713	6.256723
20	0x4337bf88	183.74817
21	0x43b4bfe9	361.4993
22	0x436a5f17	234.37144
23	0x43e711cc	462.13904
24	0x418e9540	17.822876
25	0x42da0bbb	109.02291
26	0x437a91ee	250.57004
27	0x43eb43a2	470.52838
28	0x43b9b3e8	371.40552
29	0x436d8a7f	237.541
30	0x427409ab	61.00944
31	0x42b864ad	92.19663
32	0x42342000	45.03125
33	0x42806fde	64.21849
34	0x43f121e8	482.2649
35	0x43a8dd2b	337.72787
36	0x42370827	45.75796
37	0x42af3b27	87.61553
38	0x42f3bff1	121.874886
39	0x431c918d	156.56856
40	0x43bdf4fd	379.91397
41	0x4252d850	52.711243
42	0x4406e6a5	539.6038
43	0x42edf5a0	118.97974
44	0x44120fb3	584.2453
45	0x42c8b414	100.351715
46	0x43f43894	488.44202
47	0x43c33b9a	390.46564
48	0x41dbdaf0	27.481903
49	0x42141147	37.016872
50	0x434c3cc2	204.23734
51	0x43c31d9c	390.23132
52	0x43197ad2	153.47977
53	0x400734d0	2.1125984
54	0x43c53966	394.44843
55	0x42650d69	57.263096
56	0x4327d2e8	167.82385
57	0x4215c721	37.44446
58	0x42713f8d	60.31206
59	0x4238b80b	46.17973
60	0x43e468b5	456.81802
61	0x433ea507	190.64464
62	0x43fc9778	505.18335
63	0x43caf3bd	405.9042
64	0x43093e0b	137.24236
65	0x43810e1e	258.1103
66	0x420c90ef	35.141537
67	0x41fc86b5	31.565775
68	0x43b09948	353.1975
69	0x3e357b29	0.17722763
70	0x43b7c4e6	367.53827
71	0x4130097a	11.002314
72	0x3f81ccf9	1.0140678
73	0x3f9552af	1.1665858
74	0x412175b8	10.09124
75	0x438cf4f0	281.91357
76	0x441c469f	625.10345
77	0x437a036c	250.01337
78	0x440725cd	540.59064
79	0x40ee8195	7.453318
80	0x43c01748	384.1819
81	0x42c069a7	96.20635
82	0x438b66ca	278.80304
83	0x404c66e3	3.1937797
84	0x433b3adc	187.22992
85	0x43b9b67d	371.4257
86	0x438770c0	270.88086
87	0x43f284ff	485.03903
88	0x41c97c4e	25.185696
89	0x43077082	135.43948
90	0x438019cf	256.20163
91	0x43f5b9aa	491.4505
92	0x43ba30b9	372.38065
93	0x4387d88d	271.6918
94	0x4255a682	53.412605
95	0x42e857d5	116.17155
96	0x41e53e64	28.655464
97	0x42830573	65.51064
98	0x44005ea1	513.4786
99	0x43b6615a	364.76056
100	0x422b923d	42.89281
101	0x40f25a5f	7.5735316
102	0x42fe09f7	127.01946
103	0x431b5895	155.34602
104	0x43c2874f	389.0571
105	0x4116c628	9.423378
106	0x44072151	540.52057
107	0x42ecc212	118.37904
108	0x4412d191	587.2745
109	0x42c9f163	100.97146
110	0x43fd4651	506.54935
111	0x438e45b1	284.54446
112	0x41a7e202	20.985355
113	0x429687ed	75.26548
114	0x43714c6f	241.29857
115	0x43c8b7ed	401.43692
116	0x419d93cc	19.697166
117	0x419cbe27	19.592848
118	0x43c845c3	400.545
119	0x42538c59	52.88706
120	0x431337b2	147.21756
121	0x428c7186	70.221725
122	0x427008ff	60.008785
123	0x42403e3d	48.06078
124	0x43f274f5	484.91373
125	0x434577cf	197.468
126	0x43b1c63d	355.54874
127	0x43cfd6d1	415.67825
128	0x4323f211	163.94557
129	0x43a926d7	338.30344
130	0x423d3365	47.30019
131	0x421db89e	39.43029
132	0x43db63c6	438.77948
133	0x3f415e97	0.7553496
134	0x44001cb7	512.44867
135	0x417f4e57	15.956626
136	0x3ec3b6e7	0.3822548
137	0x3e3bf424	0.18354851
138	0x4178a0cd	15.539258
139	0x43a04f80	320.6211
140	0x4438b05c	738.7556
141	0x43a7afaf	335.37253
142	0x44111dc8	580.46533
143	0x412300b8	10.187675
144	0x43fac8aa	501.5677
145	0x42e28adb	113.2712
146	0x43a44b4b	328.58823
147	0x403580ff	2.8359983
148	0x435b67f1	219.40602
149	0x43d81d25	432.2277
150	0x43af4b1c	350.5868
151	0x44048280	530.03906
152	0x42028cb4	32.637405
153	0x43290e7d	169.0566
154	0x43a39a4f	327.20554
155	0x440832ae	544.7919
156	0x43e7077d	462.0585
157	0x43ad30a7	346.3801
158	0x42689a21	58.150517
159	0x430c32a6	140.19785
160	0x421b6ede	38.85827
161	0x42953b9b	74.61642
162	0x440a5364	553.303
163	0x43ea1701	468.17972
164	0x422a85d2	42.630684
165	0x427d3561	63.302128
166	0x430c2f00	140.1836
167	0x433e0628	190.02405
168	0x440883db	546.06024
169	0x421ee5bd	39.724354
170	0x442770cb	669.7624
171	0x431bc31e	155.76218
172	0x443580c1	726.0118
173	0x430765a2	135.397
174	0x440cdbd4	563.4348
175	0x43d5a566	427.29218
176	0x41b589c0	22.69226
177	0x42992d8a	76.58894
178	0x43a13fff	322.49997
179	0x43fdf3db	507.90512
180	0x4300be26	128.74277
181	0x414871fe	12.52783
182	0x43eb5d28	470.72778
183	0x4265c065	57.437885
184	0x43338ddf	179.55418
185	0x428c44aa	70.13411
186	0x42a2a256	81.31706
187	0x424d81c6	51.37673
188	0x4404dc2c	531.4402
189	0x43579da4	215.61578
190	0x440d838c	566.0554
191	0x43ee7e2d	476.98575
192	0x4323910f	163.56664
193	0x43a08242	321.01764
194	0x422c09e1	43.009647
195	0x42200e05	40.01369
196	0x43d54a14	426.57874
197	0x3ea53629	0.32267883
198	0x43da523f	436.64255
199	0x415e8a9b	13.908839
200	0x3f58ce61	0.8468991
201	0x3ff751af	1.9321803
202	0x415cc0d7	13.79708
203	0x43ac5b40	344.7129
204	0x443d0f09	756.2349
205	0x43985353	304.65097
206	0x44222b63	648.6779
207	0x41090898	8.564598
208	0x43ec55ac	472.6693
209	0x42f4ecbc	122.46237
210	0x43a946e4	338.55383
211	0x404ba26b	3.1817882
212	0x4364ceed	228.8083
213	0x43e331f8	454.39038
214	0x43a75efa	334.742
215	0x4410d86f	579.3818
216	0x41fc4201	31.532228
217	0x432acb5a	170.79434
218	0x439c83fa	313.03107
219	0x44147ffd	593.9998
220	0x43dfa57d	447.29288
221	0x43a804b3	336.0367
222	0x42784870	62.07074
223	0x430dfd10	141.98853
224	0x42069f45	33.655537
225	0x429cebfc	78.46091
226	0x4418c3b2	611.05774
227	0x43e0384d	448.43985
228	0x42433950	48.80597
229	0x40eb8796	7.360301
230	0x431c5da3	156.36577
231	0x43393cf4	185.2381
232	0x43eca949	473.32254
233	0x41368e10	11.409683
234	0x44239a4a	654.41077
235	0x4311efd7	145.93687
236	0x44313afb	708.9216
237	0x42faeb23	125.45925
238	0x4417c295	607.04034
239	0x43a83001	336.37503
240	0x41c0c76b	24.097372
241	0x42bf7bbf	95.74169
242	0x4396547b	300.66
243	0x43f54bac	490.5912
244	0x41b07626	22.05769
245	0x41d2a8e4	26.332466
246	0x43f2a89a	485.3172
247	0x4280bcac	64.3685
248	0x43335a7d	179.35347
249	0x42aaa5cd	85.32383
250	0x4292d4c9	73.415596
251	0x4264cbc2	57.198982
252	0x4411e983	583.6486
253	0x436fa91e	239.66061
254	0x43d326f5	422.30435
255	0x43f97d2e	498.97797

exp_avg f4 [64]
0	0xbe13feb4	-0.1445263
1	0xbb12d06d	-0.0022402063
2	0x3e871ad6	0.26387662
3	0x3dc9b6a6	0.098492905
4	0xbde0b200	-0.10971451
5	0x3e141be1	0.1446376
6	0x3ec1f4ca	0.37882072
7	0x3d8f3a5d	0.06993554
8	0x3ed2038f	0.4101834
9	0xbd2f45d9	-0.04279122
10	0x3df27369	0.11838419
11	0x3d6151d3	0.055009674
12	0x3d586ebb	0.052839976
13	0x3d97eb8d	0.074179746
14	0xbe1699e5	-0.14707144
15	0x3c6679b3	0.014067101
16	0xbd7eb00c	-0.06217961
17	0x3eced775	0.40398756
18	0xbde09db5	-0.1096758
19	0x3e6bfe6f	0.23046277
20	0xbda96993	-0.0827209
21	0xbe8d7897	-0.27631065
22	0x3cd3a73c	0.02583658
23	0x3e23e810	0.16006494
24	0x3e8a7ce9	0.27048424
25	0x3e31bfa7	0.17358266
26	0x3eebfa79	0.46089533
27	0x3e73e8ac	0.23819226
28	0xbe47ad80	-0.19499779
29	0xbe941e97	-0.28929588
30	0x3e743fcc	0.23852462
31	0x3ce592ce	0.028024103
32	0x3f1ebcc2	0.6200677
33	0xbe6327b2	-0.22183111
34	0xbe783ce4	-0.24241978
35	0x3d758e9c	0.059950456
36	0xbe908bda	-0.28231698
37	0xbdac6342	-0.084173694
38	0x3f23fd0e	0.64058006
39	0xbe3e579c	-0.18588108
40	0x3d2d1754	0.042258576
41	0x3e35b3ae	0.17744324
42	0xbe69747c	-0.22798342
43	0x3b7718cb	0.0037703987
44	0x3eb5e265	0.35524288
45	0xbdbc40bd	-0.09192035
46	0xbe585734	-0.21127015
47	0xbf1decc4	-0.616894
48	0xbeb98ca5	-0.36240116
49	0xbc1d2c43	-0.009593072
50	0xbf0ebf34	-0.557605
51	0x3df7744b	0.12082728
52	0x3e5f7c27	0.21824704
53	0x3ead8bf6	0.33895844
54	0x3ea32023	0.31860456
55	0xbe927451	-0.28604367
56	0x3e5d4701	0.21609117
57	0xbd626c91	-0.05527932
58	0x3e4ddc0b	0.20103471
59	0x3e8ab55f	0.270915
60	0xbd787f40	-0.06066823
61	0xbe5f4ea5	-0.21807344
62	0x3eacd564	0.33756554
63	0x3e1ca975	0.15299018

exp_avg_sq f4 [64]
0	0x44e1e5e0	1807.1836
1	0x4508ae69	2186.9006
2	0x44a9228e	1353.0798
3	0x4196d41c	18.853569
4	0x4246ab7e	49.667473
5	0x459c226c	4996.3027
6	0x43c72405	398.2814
7	0x44d2b583	1685.6722
8	0x401a7758	2.4135342
9	0x434f5a0b	207.35173
10	0x435e3a71	222.22829
11	0x44de6254	1779.0728
12	0x44a0df1a	1286.9719
13	0x4429f99d	679.9002
14	0x401e513f	2.4737089
15	0x413da29e	11.852201
16	0x4519491e	2452.5698
17	0x427c5ece	63.092583
18	0x45ac3e29	5511.77
19	0x4407cb7a	543.1793
20	0x415a78e9	13.654519
21	0x4220b4e3	40.176647
22	0x414fb4ad	12.98161
23	0x40968538	4.703762
24	0x435e221a	222.13321
25	0x434595fd	197.58589
26	0x4530fa57	2831.6462
27	0x44414c2a	773.19006
28	0x413529aa	11.322672
29	0x43e931fc	466.3905
30	0x45e8108e	7426.0693
31	0x43dfa023	447.25107
32	0x4341f560	193.9585
33	0x476b329d	60210.613
34	0x421fea35	39.978718
35	0x447b7fcf	1005.997
36	0x4541fa1b	3103.6316
37	0x45845ade	4235.3584
38	0x40689bf0	3.6345177
39	0x4554b498	3403.287
40	0x440376f7	525.8588
41	0x4458ed75	867.71027
42	0x4735344b	46388.293
43	0x42cda388	102.8194
44	0x4083ba2e	4.116477
45	0x3f900d17	1.1253995
46	0x41a43255	20.524576
47	0x419f9ba3	19.950994
48	0x40b41719	5.6278195
49	0x445e72c6	889.79333
50	0x444adb26	811.4242
51	0x425414d3	53.020336
52	0x44208f2c	642.23706
53	0x429c19f6	78.050705
54	0x40f5516b	7.6661887
55	0x457da084	4058.0322
56	0x4497d047	1214.5087
57	0x44a9a3ad	1357.1149
58	0x45009a45	2057.6418
59	0x4463c466	911.0687
60	0x422566c1	41.350346
61	0x404ae01a	3.169928
62	0x449c08ab	1248.2709
63	0x43af3d61	350.47952
