results/energy/checkpoints/A06_H064_L02_D01_Tanh_W4096_P010000_V-2.00e+01_S5.00e-01_Adam_PT_False_device_cuda_dtype_float32_chkp.pt (torch, 237536 bytes, 23 tensors)

layers.0.fc.weight f4 [64, 2]
0	0x3cd47948	0.025936738
1	0x3e9d291b	0.30695423
2	0xbf457abd	-0.7714041
3	0xbd67ed09	-0.05662254
4	0xbeea924a	-0.45814735
5	0x3e25587b	0.16147034
6	0xbd887a7c	-0.06663987
7	0x3efb8bc9	0.49130085
8	0xbdb41e11	-0.08794797
9	0x3e2f7504	0.17134482
10	0xbedaf6c0	-0.4276638
11	0x3ca4a3e4	0.02009768
12	0xbf5baa4f	-0.85806745
13	0xbe31f171	-0.17377259
14	0xbee20c11	-0.4414983
15	0x3e858809	0.2608035
16	0x3eb8e3d5	0.36111322
17	0x3e30c7be	0.17263696
18	0xbf532886	-0.8248371
19	0x3e62a20c	0.22132128
20	0x3ed431cb	0.4144424
21	0x3d71ef33	0.05906601
22	0xbee5af3a	-0.4486025
23	0x3ede74ce	0.4344849
24	0xbe2c6c86	-0.16838273
25	0x3dafff85	0.08593658
26	0x3f60f4b7	0.87873405
27	0xbf58abac	-0.8463695
28	0xbf2a5d2b	-0.66548413
29	0xbe0cbf62	-0.13744882
30	0xbed0bb52	-0.40767914
31	0x3ef0de7f	0.4704475
32	0xbf3438aa	-0.7039896
33	0x3d4db15e	0.05021798
34	0xbf182faa	-0.5944773
35	0xbeddf5cd	-0.43351594
36	0xbf2812a3	-0.6565344
37	0x3eeb79fb	0.459915
38	0x3ee64801	0.4497681
39	0x3e8991a8	0.2686894
40	0x3ea2f974	0.31830943
41	0xbeae76b5	-0.3407494
42	0x3e985259	0.29750326
43	0xbf141e4b	-0.57858723
44	0xbf47970a	-0.7796484
45	0x3e2b5f63	0.16735606
46	0x3f3d3ec3	0.7392389
47	0x3ec54ab9	0.3853357
48	0xbeea8965	-0.4580795
49	0x3e98a583	0.29813775
50	0x3f21022a	0.6289393
51	0x3e2490b0	0.16070819
52	0x3f020c24	0.50799775
53	0xbd7e4f76	-0.0620875
54	0x3f43e7b9	0.76525456
55	0xbe5492b7	-0.20759092
56	0x3eacd1be	0.3375377
57	0xbf0bce97	-0.54612106
58	0xbf2d9982	-0.6781236
59	0x3cdd6418	0.027025267
60	0x3eff569f	0.49870774
61	0x3c248685	0.010041838
62	0xbf167779	-0.5877605
63	0x3ed1f9d4	0.41010916
64	0x3ef142dc	0.47121322
65	0xbdd45aeb	-0.10368904
66	0x3ec357d6	0.3815295
67	0x3ded7bb2	0.11595859
68	0x3f2747fd	0.6534422
69	0x3ebee702	0.3728562
70	0xbf56412a	-0.8369318
71	0x3c362255	0.011116584
72	0x3ec32bda	0.38119394
73	0x3e9a3312	0.3011709
74	0x3fba5321	1.4556619
75	0xbe87187e	-0.26385874
76	0x3ea06b32	0.31331784
77	0xbf0f2cce	-0.5592774
78	0x3daa7948	0.08323914
79	0xbeaa5dbc	-0.3327464
80	0xbf80fbbd	-1.0076824
81	0x3f2af656	0.6678213
82	0x3f60f19b	0.8786866
83	0xbf03fd40	-0.51558304
84	0x3e9ffa5c	0.31245697
85	0xbe5b33f5	-0.21406539
86	0xbe8d86b7	-0.27641842
87	0xbe2c8ae3	-0.16849856
88	0x3e5de2e9	0.2166859
89	0xbe753be0	-0.23948622
90	0x3ec3b960	0.38227367
91	0x3e0d1a39	0.13779534
92	0x3f484458	0.78229284
93	0xbcdabd9a	-0.026701737
94	0xbf30f432	-0.6912261
95	0xbea18d79	-0.31553248
96	0x3ef4a2c1	0.4778042
97	0x3e1acde4	0.15117604
98	0xbf389308	-0.7209935
99	0x3ddc3c8a	0.107537344
100	0x3f2a9071	0.6662665
101	0x3e00665b	0.12539046
102	0xbed8c6c4	-0.42339146
103	0xbd0e04ad	-0.034672428
104	0xbf84e65e	-1.0382802
105	0x3ddb0ce8	0.10695821
106	0xbf3f8da3	-0.74825495
107	0xbdc4868e	-0.09595977
108	0xbee03c54	-0.43796027
109	0x3e3b633a	0.1829957
110	0xbee20ff5	-0.441528
111	0x3eb92248	0.36158967
112	0xbf2d8117	-0.677751
113	0x3f016dab	0.50557965
114	0x3f3aa0d6	0.72901666
115	0xbf07d52b	-0.53059644
116	0xbea81900	-0.32831573
117	0xbd301da1	-0.042997006
118	0x3e88c56f	0.2671313
119	0x3c116b96	0.008875748
120	0x3ef316a6	0.47478217
121	0x3df1c508	0.11805159
122	0xbef46879	-0.47735956
123	0x3e620909	0.22073759
124	0xbf5bdcf8	-0.85884047
125	0xbe0222e9	-0.1270863
126	0xbe8366b6	-0.256643
127	0xbeb38eb0	-0.350698

layers.0.fc.bias f4 [64]
0	0xbea8234c	-0.3283943
1	0xbf21f2ea	-0.6326128
2	0xbe62d117	-0.22150074
3	0x3e97e9a0	0.2967043
4	0xbf2d9edf	-0.67820543
5	0x3c21885b	0.00985917
6	0x3f5066bf	0.8140678
7	0xbe0e3d4c	-0.1389057
8	0xbd9c22c6	-0.0762382
9	0xbdb27132	-0.087129965
10	0x3d58793a	0.052849986
11	0x3f20ea41	0.62857443
12	0x3f451181	0.76979834
13	0x3f25fc5e	0.64838207
14	0x3f5197a2	0.81872
15	0xbdf2e47d	-0.11859987
16	0xbf63a4c9	-0.8892332
17	0xbedf8fd3	-0.43664417
18	0x3f1f5843	0.6224405
19	0xbd1cb5fb	-0.038259488
20	0xbf0382c1	-0.5137139
21	0xbf23c10d	-0.6396645
22	0xbf3d1112	-0.7385417
23	0xbf540950	-0.8282671
24	0xbe1f3dfb	-0.15550987
25	0x3f54ece9	0.83173996
26	0x3f22aa07	0.6354069
27	0xbf719530	-0.9436827
28	0x3f22399e	0.63369167
29	0xbf2f7f10	-0.68553257
30	0xbe9602bd	-0.29298964
31	0xbf339961	-0.7015591
32	0xbe4c2bf0	-0.19938636
33	0xbedba90c	-0.4290241
34	0xbf5eb99a	-0.87001956
35	0xbf802e64	-1.0014157
36	0xbeabd5b7	-0.3356149
37	0x3dac9f5b	0.08428832
38	0xbea4b918	-0.32172465
39	0x3ede010f	0.43360183
40	0xbf627ef2	-0.88474953
41	0xbe982358	-0.29714465
42	0x3f250d8a	0.64473784
43	0xbed4a7d6	-0.415343
44	0x3f470d1d	0.77754384
45	0x3ecc3ce6	0.39890212
46	0xbf688296	-0.9082426
47	0x3f2658bf	0.64979166
48	0xbe2578f1	-0.16159417
49	0xbee0dfc3	-0.43920717
50	0x3f46ce80	0.77658844
51	0xbf251a03	-0.64492816
52	0x3e346297	0.17615734
53	0xbe2d057c	-0.16896623
54	0x3f238868	0.63880014
55	0x3e5e5191	0.21710803
56	0x3f1d6aee	0.61491287
57	0x3edefb70	0.43551207
58	0xbea3398d	-0.31879845
59	0xbe91869b	-0.28423008
60	0xbf2f0134	-0.6836121
61	0x3ee9ce77	0.45665333
62	0x3f393cc1	0.7235833
63	0x3f250468	0.6445985

layers.1.fc.weight f4 [64, 128]
0	0xbd3ac68d	-0.04559951
1	0xbc187cf1	-0.009307132
2	0x3d40399e	0.046929948
3	0xbe0b6f52	-0.13616684
4	0xbbad22f0	-0.005283706
5	0x3e23229c	0.15931171
6	0x3db0b3b8	0.08628029
7	0x3db78787	0.08961397
8	0xbdd2efa9	-0.10299618
9	0x3df98007	0.121826224
10	0xbe4527b3	-0.19253425
11	0xbc079dc8	-0.008277364
12	0xbd931b17	-0.07182901
13	0x3e40d2b6	0.1883038
14	0x3d807022	0.06271388
15	0x3de8470e	0.113416776
16	0x3d15eb0c	0.03660111
17	0x3daa1dc6	0.0830646
18	0x3e0a7191	0.13519885
19	0xbdedd789	-0.11613376
20	0xbc647d56	-0.013945898
21	0xbd2b0cb6	-0.04176017
22	0xbceb8062	-0.028747741
23	0xbdb38f91	-0.087676175
24	0x3d071dc4	0.03298737
25	0xbde0a9ee	-0.109699115
26	0xbc96875a	-0.018375088
27	0xbe4a0785	-0.19729431
28	0xbd25bc39	-0.040462706
29	0x3dcb2d9d	0.099208094
30	0xbd8a726c	-0.067601055
31	0x3d103c1e	0.035213582
32	0xbe323097	-0.17401348
33	0xbca5043f	-0.020143626
34	0xbe1768cf	-0.14786075
35	0xbca27495	-0.019830981
36	0xbdf2124f	-0.11819898
37	0xbd8aa692	-0.06770052
38	0xbd71bddc	-0.059018955
39	0x3d2df857	0.042473163
40	0xbdaab81a	-0.08335896
41	0x3c5df3fd	0.013546941
42	0x3ba1b3dc	0.004934771
43	0x3d8cd6fe	0.06876944
44	0xbb5938a2	-0.0033145328
45	0xbe4aa0fa	-0.1978797
46	0xbe2a374a	-0.16622654
47	0x3e1192cc	0.14216155
48	0xbd896beb	-0.06710037
49	0x3dc5d135	0.09659044
50	0xbccb12c8	-0.024789229
51	0x3d87cee1	0.06631256
52	0x3de9be46	0.11413245
53	0xbcc385c6	-0.0238675
54	0x3dc4d61a	0.09611149
55	0x3c614133	0.013748455
56	0x3e0ada00	0.13559723
57	0x3d0a08d2	0.033699818
58	0x3dc66b2e	0.09688412
59	0xbd4c46ef	-0.049872335
60	0x3cb76980	0.022389174
61	0x3d898e02	0.06716539
62	0x3db77f3c	0.08959815
63	0xbd024355	-0.031802494
64	0xbd8c9851	-0.068649895
65	0x3bcfba25	0.006339329
66	0xbdc106d6	-0.09425132
67	0xbe24eb2d	-0.16105337
68	0xbcaf87fe	-0.02142715
69	0x3c2a0c58	0.01037892
70	0x3d3b94b5	0.045796115
71	0x3c27eba7	0.010249055
72	0x3d2b5e53	0.041838
73	0xbde33735	-0.11094514
74	0x3c1a9318	0.009434484
75	0x3d3ac1a6	0.045594834
76	0x3d390ee6	0.045180224
77	0x3d717935	0.058953483
78	0xbc83a756	-0.016071003
79	0xbdba976d	-0.091109134
80	0xbe07757b	-0.13228409
81	0xbd38fb8f	-0.04516178
82	0xbc1d4f71	-0.00960146
83	0xbd51d8c8	-0.05123213
84	0x3da7b9fd	0.08189771
85	0xbd5a03b6	-0.053226195
86	0xbd3d9db0	-0.04629296
87	0x3bffe394	0.007809112
88	0xbd631ec8	-0.055449277
89	0x3c493d09	0.012282618
90	0xbd16158f	-0.036641654
91	0x3d0519d0	0.03249532
92	0x3cd3c70d	0.02585175
93	0x3cd87dd7	0.026427193
94	0xbd2faa08	-0.042886764
95	0xbd296627	-0.041357186
96	0xbcc68e9b	-0.024237921
97	0xbc94acba	-0.018148769
98	0xbd9e8519	-0.0774023
99	0xbc8a0d68	-0.016852096
100	0x3bc68dad	0.0060593695
101	0x3ddb6625	0.10712842
102	0xbd05ab41	-0.032634024
103	0xbd913acc	-0.07091293
104	0x3cc4dbf4	0.024030663
105	0xbc801b23	-0.01563794
106	0x3d2a9176	0.04164263
107	0xbcd5bf1e	-0.026092108
108	0xbd85c9ad	-0.06532607
109	0x3ca8725a	0.02056234
110	0xbd8d6e74	-0.06905833
111	0x3ce5897d	0.028019661
112	0x3cd5e2c6	0.02610911
113	0xbdf7c832	-0.12098731
114	0x3da14f96	0.07876508
115	0x3c7d6c2b	0.015467684
116	0xbd5bf8ff	-0.053704258
117	0xbd8166f6	-0.06318466
118	0xbd810cf3	-0.06301298
119	0x3c0dd401	0.008656503
120	0x3da2dc1d	0.079521395
121	0x3c855760	0.016277015
122	0x3d0eac79	0.03483245
123	0x3d8af239	0.067844816
124	0xbd8edaeb	-0.06975349
125	0x3cb3c79e	0.02194577
126	0x3cc4b8e7	0.02401395
127	0x3b671c1f	0.0035264564
128	0xbbd1fba7	-0.006408173
129	0x3e3abddd	0.1823649
130	0x3d99057a	0.07471748
131	0x3d91dbf6	0.07122032
132	0x3d5f7f0e	0.05456453
133	0x3e4038de	0.18771693
134	0x3d04cac9	0.032419953
135	0x3df3a0f4	0.11895934
136	0xbd0d9076	-0.034561597
137	0x3d7ce0c1	0.06173778
138	0xbe38397a	-0.17990676
139	0xbd0bf6c1	-0.03417087
140	0x3dfe2b2b	0.124105774
141	0xbddf4032	-0.10900916
142	0xbd82b3b3	-0.06381931
143	0x3e01917b	0.12653153
144	0x3e77399e	0.24143073
145	0x3e752bb0	0.23942447
146	0x3da70de8	0.08156949
147	0xbc4bdd96	-0.012442967
148	0xbda7a4e2	-0.08185746
149	0xbd8f491e	-0.06996368
150	0x3e83e673	0.25761756
151	0x3d6523c8	0.055942327
152	0x3d883230	0.066501975
153	0xbd8b2c03	-0.06795504
154	0xbd827c2a	-0.06371339
155	0x3d873940	0.066027164
156	0xbdd37b4e	-0.10326253
157	0x3e47d732	0.19515684
158	0xbda4016d	-0.080080844
159	0x3e5beaf7	0.2147635
160	0xbd95f9ad	-0.073230125
161	0xbd275b38	-0.040858477
162	0x3cb1ac5a	0.021688629
163	0x3e530c25	0.20610102
164	0xbd86abd6	-0.06575744
165	0xbd4b0521	-0.04956544
166	0xbdf066be	-0.117383465
167	0xbbf4cfbe	-0.007471054
168	0x3e00248c	0.12513942
169	0xbe1173c5	-0.14204319
170	0xbdd05604	-0.10172656
171	0x3de15bbe	0.110038266
172	0x3d1540e6	0.036438845
173	0xbbd59a40	-0.006518632
174	0x3db57df0	0.08861911
175	0xbdafe23e	-0.08588074
176	0xbe00f1c7	-0.1259223
177	0x3e0bd4c0	0.13655376
178	0xbe5a914b	-0.21344487
179	0x3e11e1d2	0.142463
180	0xbbbf20cf	-0.0058327685
181	0x3d9ee280	0.07758045
182	0xbd067940	-0.032830477
183	0x3bc7f5f7	0.0061023193
184	0x3dad8946	0.084734485
185	0xbd9320b2	-0.071839705
186	0x3e1a345a	0.15059033
187	0x3c65c7c4	0.014024679
188	0x3d59f242	0.05320955
189	0x3c6e4169	0.014541962
190	0x3c8a0783	0.016849285
191	0x3dd9fea7	0.10644274
192	0x3cdeaad3	0.027181065
193	0x3cb211e0	0.02173704
194	0xbbf24bfb	-0.0073943115
195	0x3de5c789	0.11219699
196	0xbd5bca17	-0.053659525
197	0xbd725364	-0.05916156
198	0x3d241fac	0.040069267
199	0xbdb82cff	-0.08992957
200	0x3c7268cc	0.014795493
201	0xbe63d485	-0.22249039
202	0x3c4fbb6a	0.01267896
203	0x3d96ae9e	0.07357524
204	0x3db04694	0.08607212
205	0x3d5cce79	0.053907845
206	0xbd2fbf3b	-0.04290698
207	0x3d1e1ba4	0.03860058
208	0x3d112b48	0.035441667
209	0xbd1310bb	-0.035904627
210	0xbcef7e8e	-0.02923515
211	0x3e07a22d	0.13245459
212	0x3c86ee41	0.01647103
213	0xbdb2bf11	-0.08727849
214	0x3d010d21	0.03150666
215	0x3d7214ae	0.059101753
216	0xbde14690	-0.10999787
217	0x3d727348	0.059191972
218	0xbcd5965c	-0.026072673
219	0xbd03cf2d	-0.03218
220	0x3daee6c5	0.085401095
221	0xbd0cabbf	-0.034343477
222	0xbce1248f	-0.027483253
223	0xbd01ed56	-0.03172048
224	0x3c98172c	0.018565737
225	0xbb096fb5	-0.0020971124
226	0x3c3ddbfe	0.011588095
227	0x3d5b7804	0.053581253
228	0x3d767054	0.06016572
229	0x3e339005	0.17535408
230	0xbc6f99c7	-0.014624066
231	0x3d4af848	0.049553186
232	0xba1d75eb	-0.0006006646
233	0xbd6c5f8e	-0.057708316
234	0x3b314678	0.002705006
235	0xbdc72492	-0.09723772
236	0xbc94ddfd	-0.018172259
237	0x3d8a0a7a	0.067402795
238	0xbda6cce4	-0.081445485
239	0x3d09f93a	0.033684947
240	0x3e0177a5	0.12643297
241	0xbda2911c	-0.07937834
242	0xbd1f80c3	-0.038941156
243	0xbd4ede98	-0.05050525
244	0xbd756317	-0.059908953
245	0xbe505961	-0.20346595
246	0x3d7610b4	0.060074523
247	0xbdc1dda2	-0.09466101
248	0xbd975494	-0.07389179
249	0xbbeb67b3	-0.007183993
250	0xbd68a1c4	-0.056794897
251	0x3d8a7617	0.06760805
252	0xbdaafef5	-0.083494104
253	0x3d9caee2	0.07650544
254	0x39b964fd	0.00035361192
255	0x3cd94ed1	0.02652684

layers.1.fc.bias f4 [64]
0	0x3ce8e8fa	0.028431404
1	0x3cb5d4fa	0.022196282
2	0xbd721e86	-0.05911114
3	0x3d0709c8	0.032968313
4	0xbc5d87fe	-0.013521193
5	0x3bc48972	0.00599783
6	0x3d2aa591	0.041661803
7	0x3c3265e4	0.01088855
8	0x3e05fb50	0.1308415
9	0x3c21ab6a	0.009867528
10	0x3b759a5b	0.0037476036
11	0x3b65f6d0	0.0035089739
12	0x3db9335f	0.090430014
13	0xbceaffa9	-0.028686361
14	0xbdbd5fb5	-0.0924677
15	0x3e3faa30	0.18717265
16	0xbdad3842	-0.08457996
17	0xbcdab444	-0.026697285
18	0xbd7ff9f8	-0.06249425
19	0xbcd305bf	-0.025759576
20	0xbd4d28d8	-0.05008778
21	0xbd9406d3	-0.07227864
22	0x3cc69e83	0.024245506
23	0x3dcdc485	0.10047249
24	0x3d696d2c	0.05698888
25	0xbdcece86	-0.10097985
26	0xbdcfcbb7	-0.101462774
27	0xbc60f976	-0.013731351
28	0x3dc2000f	0.094726674
29	0x3d6d076d	0.05786841
30	0x3d862d82	0.06551649
31	0xbe2aebbf	-0.16691492
32	0x3dc3970f	0.095502965
33	0x3e062f65	0.13104017
34	0xbe0e98d6	-0.1392549
35	0xbe1afbdd	-0.1513514
36	0xbd605936	-0.05477258
37	0x3e04b9cb	0.129615
38	0x3cfecd40	0.03110373
39	0xbdb38429	-0.08765442
40	0x3dc7b081	0.09750462
41	0x3d7fb215	0.06242569
42	0x3dfb8292	0.12280764
43	0xbdc74875	-0.09730617
44	0xbde31caa	-0.110894516
45	0xbb2bfdce	-0.0026243809
46	0xbd1b3ff5	-0.03790279
47	0xbd80d394	-0.06290355
48	0x3cf03cdb	0.029325893
49	0xbdf4fb87	-0.119620375
50	0xbe0875bf	-0.13326167
51	0xbcc3918a	-0.02387311
52	0x3d807585	0.06272415
53	0x3dc84c0d	0.097801305
54	0xbde718a3	-0.11283996
55	0xbc2c98db	-0.01053449
56	0x3cd3f10f	0.025871782
57	0x3e83768e	0.25676388
58	0x3ba620b6	0.0050698174
59	0x3e18e9f2	0.14932993
60	0xbd9bfb2b	-0.07616266
61	0x3db19b8a	0.08672245
62	0xbda6bf78	-0.081419885
63	0xbd3b5ad7	-0.04574093

layers.2.gsds.0.weight f4 [6, 64]
0	0x3d9e3980	0.07725811
1	0x3de718e5	0.11284045
2	0xbd334e65	-0.043775935
3	0xbadbd0a3	-0.0016770553
4	0x3afc450b	0.0019246651
5	0xbdf11586	-0.117716834
6	0xbddd4072	-0.108033076
7	0xbca5c89d	-0.020237261
8	0xbd35a4b9	-0.044346545
9	0x3d0ede2f	0.03487986
10	0xbdbc6c3e	-0.09200333
11	0xbd007477	-0.03136107
12	0x3db4237c	0.087958306
13	0xbd89538c	-0.067053884
14	0x3d8587cb	0.06520041
15	0xbd768311	-0.06018359
16	0xbd57e4e3	-0.052708518
17	0xbdbc4024	-0.09191921
18	0x3db89667	0.09013062
19	0xbd9506c2	-0.072766796
20	0xbbb6c7a3	-0.005577998
21	0x3d70763f	0.05870652
22	0xba8ad5d9	-0.0010592296
23	0xbd3d80db	-0.046265464
24	0x3b84e0ed	0.0040551336
25	0xbd41c4fd	-0.047307003
26	0x3d367309	0.0445433
27	0xbcd9fdf7	-0.026610358
28	0x3d1caa35	0.03824826
29	0x3d72de82	0.05929423
30	0x3d2df0a0	0.042465806
31	0xbd48f778	-0.04906413
32	0xbd8a2f71	-0.0674733
33	0x3db49553	0.08817544
34	0x3d38a9de	0.045083873
35	0x3d40edc6	0.04710176
36	0x3dc4949f	0.0959866
37	0x3c0b81b0	0.008514807
38	0xbd310e85	-0.043226738
39	0x3dad7a9a	0.0847065
40	0x3ba75a1f	0.005107179
41	0xbdafef61	-0.0859058
42	0x3d68a206	0.056795143
43	0xbd2fdd82	-0.042935856
44	0x3d88394c	0.066515535
45	0x3d5525fa	0.05203817
46	0x3d43ce40	0.047804117
47	0x3dcc7fbf	0.09985303
48	0x3dbc7f18	0.09203929
49	0x3d6a9f89	0.05728105
50	0xbd6a0d70	-0.05714172
51	0x3ce50749	0.027957575
52	0xbdaec130	-0.08532941
53	0xbd72645d	-0.059177745
54	0xbad51fc1	-0.0016260074
55	0x3d90a36d	0.07062421
56	0xbd012faa	-0.031539597
57	0xbd93c9fe	-0.07216261
58	0xbdea35fc	-0.11436078
59	0x3d15be1c	0.036558256
60	0xbd7fb1e2	-0.0624255
61	0x3e01fccc	0.1269409
62	0xbdfaf326	-0.12253408
63	0xbc265fb4	-0.010154653
64	0xbc95cee2	-0.018287126
65	0xbdd0a0d2	-0.10186924
66	0x3db368d7	0.08760231
67	0x3e09bd2b	0.13451068
68	0x3dda8ee8	0.106717885
69	0x3d6bf130	0.05760306
70	0x3dd4609f	0.103699915
71	0x3da20086	0.07910256
72	0xbd09cbca	-0.033641614
73	0xbd6c162d	-0.057638336
74	0x3dbc04eb	0.091806255
75	0x3d9497ee	0.07255541
76	0x3d3b864d	0.045782376
77	0x3c895672	0.016764853
78	0x3e1dad46	0.1539813
79	0xbdc277db	-0.09495517
80	0x3d34041b	0.043949228
81	0x3e00e877	0.12588678
82	0xbc438926	-0.011934554
83	0x3d70173c	0.058615908
84	0x3dd94805	0.1060944
85	0xbd843d83	-0.06457045
86	0x3d2d042c	0.042240307
87	0x3d98ae27	0.07455092
88	0x3d86d1f8	0.06583017
89	0x3d357840	0.044304132
90	0x3d9cc2c4	0.07654336
91	0x3cf09c38	0.029371366
92	0x3d50bad9	0.05095944
93	0xbdef92c3	-0.116979145
94	0xbda269f4	-0.07930365
95	0x3d9748a1	0.073869
96	0x3e2e2832	0.17007521
97	0xbc59bd6c	-0.013289791
98	0x3e02fd71	0.12791993
99	0xbd7e2c92	-0.062054224
100	0x3dfb860d	0.122814275
101	0xbd23451e	-0.039860837
102	0x3d908343	0.07056286
103	0xbd9086a1	-0.070569284
104	0xbd61761b	-0.055044275
105	0x3d3c6512	0.045994826
106	0xbb425a02	-0.00296557
107	0x3da8a574	0.08234683
108	0x3d6c59a4	0.057702675
109	0xbd001e02	-0.031278618
110	0x3ddc8755	0.10768
111	0x3dc0da6b	0.0941666
112	0xbd6fc4b3	-0.058537196
113	0xbdacba2e	-0.084339485
114	0xbb216e2f	-0.0024632325
115	0xbd1cbc14	-0.038265303
116	0x3d31c70a	0.04340271
117	0xbdbf3aa5	-0.093373574
118	0x3cbc31fa	0.02297305
119	0xbdb620e8	-0.08892995
120	0x3df241f0	0.11828983
121	0x3d383089	0.04496816
122	0x3e085706	0.13314447
123	0x3c945048	0.018104687
124	0x3c82b16a	0.015953738
125	0x3db8937a	0.09012504
126	0x3da80ba6	0.08205347
127	0x3dbe3bfc	0.09288785
128	0xbd007794	-0.03136404
129	0x3e626d5a	0.22112027
130	0xbdc35503	-0.09537699
131	0xbe8d4d6e	-0.27598137
132	0xbc95245f	-0.01820582
133	0x3e6be301	0.23035814
134	0xbdadacca	-0.084802225
135	0xbd53b781	-0.051688675
136	0xbd4af813	-0.04955299
137	0x3e1e897e	0.15482137
138	0xbe9a11e3	-0.3009177
139	0xbc829c47	-0.01594366
140	0x3e2065ad	0.15663786
141	0xbe152589	-0.145651
142	0xbe215fb7	-0.15759169
143	0xbbb04824	-0.0053796936
144	0x3e1e64ac	0.15468091
145	0xbd1a817c	-0.037721142
146	0xbdfee11a	-0.124452785
147	0x3d5a5761	0.053305987
148	0x3c867a38	0.0164157
149	0x3da35b2c	0.07976374
150	0x3d83818f	0.06421196
151	0xbc62944d	-0.013829303
152	0x3d2895dd	0.041158546
153	0x3cce3ec8	0.02517642
154	0x3e4bb217	0.19892155
155	0x3e127155	0.14301045
156	0x3dc56116	0.09637658
157	0x3c027896	0.00796332
158	0xbd503270	-0.05082935
159	0xbdbfbd0a	-0.09362228
160	0x3e268fcb	0.1626579
161	0xbce4a32f	-0.027909843
162	0xbbb85784	-0.005625667
163	0xbe0a36f9	-0.13497533
164	0xbd0c83d6	-0.034305416
165	0x3dde416f	0.10852324
166	0x3db3266d	0.087475635
167	0xbc9144c4	-0.017732985
168	0x3caa2f08	0.02077438
169	0x3d232b29	0.039836083
170	0x3d23a2ed	0.0399503
171	0x3db2118d	0.08694754
172	0x3e317df8	0.1733321
173	0x3e430762	0.19045785
174	0x3e43492f	0.19070886
175	0xbce087fe	-0.027408596
176	0x3e306f5d	0.17229982
177	0x3e057f32	0.13036802
178	0xbc969431	-0.01838121
179	0xbddb03a0	-0.10694051
180	0xbd593149	-0.053025518
181	0x3e2ac403	0.16676335
182	0xbe74f7dd	-0.23922677
183	0xbd7d6f24	-0.06187357
184	0xbd351df6	-0.044218026
185	0x3d3fa6ad	0.046789814
186	0xbe1d96ad	-0.1538951
187	0x3d18d219	0.03730974
188	0x3e24c8ad	0.16092177
189	0x3e4828c3	0.195468
190	0xbe140d5e	-0.14458224
191	0x3e375e8c	0.1790716
192	0x3e3aac6a	0.18229833
193	0x3db4867a	0.08814712
194	0x3d9ed68a	0.07755764
195	0x3d8f8f49	0.07009751
196	0xbc062944	-0.008188549
197	0xbe2c46d0	-0.16823888
198	0xbc9620c3	-0.018326169
199	0xbe51ed8b	-0.20500772
200	0x3e6a097a	0.22855178
201	0x3e5bebb1	0.21476628
202	0x3e4d8af0	0.20072532
203	0xbe3dcc82	-0.18535045
204	0x3d0be4d3	0.03415377
205	0x3c725465	0.014790629
206	0x3b5e4aeb	0.0033919166
207	0xbe381bfe	-0.17979428
208	0xbe080b24	-0.132855
209	0xbc186e0f	-0.009303584
210	0x3d36da2e	0.044641666
211	0x3e20c98d	0.15701886
212	0x3da9a402	0.08283235
213	0xbcf777ec	-0.03020855
214	0x3ce21741	0.027598979
215	0x3df23c87	0.11827951
216	0xbd5faf9d	-0.054610837
217	0x3dcc91f9	0.099887796
218	0x3e814190	0.25245333
219	0x3e0209aa	0.12698999
220	0x3db0a3a9	0.08624966
221	0xbe16bba1	-0.14720012
222	0x3e710743	0.23537926
223	0xbe2f86e4	-0.171413
224	0x3e9529ec	0.29133546
225	0x3e5831b5	0.21112712
226	0xbdde3e5f	-0.1085174
227	0xbe081f12	-0.13293102
228	0x3e3d82a3	0.18506865
229	0x3d0004e8	0.03125468
230	0xbd1c7a4d	-0.038202573
231	0x3dbcc04f	0.092163675
232	0xbe6cf39d	-0.23139806
233	0xbeba5d90	-0.36399508
234	0x3e3fcac3	0.18729691
235	0xbd5c8bfe	-0.053844444
236	0xbe3cc70f	-0.1843531
237	0xbdefddab	-0.11712202
238	0x3d9a0223	0.07519939
239	0xbe8a405d	-0.2700223
240	0x3d135344	0.03596808
241	0xbd545fbd	-0.051849116
242	0x3e6bb267	0.23017274
243	0x3e27d053	0.16388063
244	0x3e9f5286	0.31117648
245	0x3e3e73c1	0.18598844
246	0xbdf1a2e9	-0.11798651
247	0xbdf31987	-0.11870103
248	0x3d48e8bb	0.049050074
249	0xbe6071e3	-0.21918444
250	0x3e9c756d	0.3055834
251	0xbcda3cdd	-0.02664035
252	0x3e99d2ab	0.3004354
253	0xbd071b6f	-0.032985147
254	0x3e4e1bb4	0.20127755
255	0x3e43783d	0.19088836

layers.2.gsds.0.bias f4 [6]
0	0x3c2c1bc9	0.010504671
1	0x3d827ba9	0.063712426
2	0x3e028026	0.12744197
3	0xbd8f2b61	-0.06990696
4	0xbe7b9b6f	-0.24571012
5	0xbaa4cd29	-0.001257335

log_envelope.log_envs.0.weight f4 [6, 1]
0	0x3f39e9a0	0.7262211
1	0x3f3cb62f	0.7371549
2	0x3f1de7ef	0.6168203
3	0x3f2118e9	0.62928635
4	0x3fa215df	1.2662925
5	0x3f8ed25e	1.1157949

exp_avg f4 [64, 2]
0	0x3c8e59cb	0.017376801
1	0x3c9caecb	0.019126317
2	0x3ca6aa50	0.020344883
3	0x3c1acf81	0.009448887
4	0xbd0e51fd	-0.03474616
5	0xbc96b12e	-0.018395033
6	0xbd293c57	-0.04131731
7	0xbcb1bedc	-0.021697454
8	0xbcf5a832	-0.029987428
9	0xbc7a87c7	-0.015291161
10	0xbc8facf4	-0.017538525
11	0xbcafb4c5	-0.021448502
12	0x3c2a375b	0.010389174
13	0xbcad58b2	-0.021160457
14	0xbc475110	-0.012165323
15	0xbbdd7c06	-0.0067591695
16	0x389826ae	7.2551295e-05
17	0xbbb7cf24	-0.00560941
18	0x3ae20a3d	0.0017245483
19	0x3ba0b810	0.0049047545
20	0xbcae5c91	-0.021284373
21	0xbc8ded58	-0.017325088
22	0x3bcd3a65	0.0062630647
23	0xbc282e87	-0.010264999
24	0x3cd07d82	0.025450472
25	0x3bc33624	0.005957382
26	0x3b05abf9	0.0020396693
27	0x3b1c0a63	0.0023809902
28	0x3d2eedd6	0.042707287
29	0x3aeb6176	0.0017958123
30	0xba394091	-0.0007066811
31	0x3b06c85a	0.0020566196
32	0xbd283951	-0.041070286
33	0xbc6863e4	-0.014183972
34	0xbcc5ed9a	-0.024161149
35	0xbcb30406	-0.021852504
36	0x3bbb3d84	0.0057141203
37	0x3c54c169	0.012985566
38	0xbbc0f750	-0.005888857
39	0xbce437ef	-0.027858702
40	0x3c98a7a8	0.018634632
41	0xbc437e24	-0.01193193
42	0x3bdec562	0.006798432
43	0x3cb29f09	0.02180435
44	0xbcc9790b	-0.02459385
45	0xbc067401	-0.008206368
46	0x3c57b248	0.013165064
47	0xbc4967b9	-0.012292796
48	0xbc88da08	-0.016705528
49	0xbc1bddfe	-0.009513376
50	0xbc4e5326	-0.012593066
51	0xbb82b429	-0.003988762
52	0xbb2bdd85	-0.0026224565
53	0x3b1e24c8	0.002413081
54	0x3bd03989	0.006354515
55	0xbc0d3059	-0.008617484
56	0xbbf4ab78	-0.0074667297
57	0xbb1bcc6f	-0.0023772975
58	0x3d226fae	0.039657287
59	0x3c5fd615	0.013661881
60	0xbb98615a	-0.004650277
61	0x3c3a6344	0.011376206
62	0xbd4662bc	-0.048434004
63	0xbc589c83	-0.013220909
64	0xbb1a0f64	-0.0023507709
65	0xbd146900	-0.03623295
66	0x3c10fcf4	0.008849371
67	0x3c4df487	0.012570507
68	0x3d226d7f	0.039655205
69	0xbb00c9d1	-0.0019651542
70	0x3cecdc50	0.028913647
71	0x3bc19c92	0.005908557
72	0x3cfe5822	0.031047884
73	0x3b362b7e	0.002779692
74	0xbc2ffda1	-0.010741622
75	0x3bcecb8f	0.006310887
76	0xbb7ecfec	-0.0038881255
77	0xbcc7ca6f	-0.02438852
78	0x3c82172e	0.015880194
79	0x3c878f76	0.0165479
80	0x3b15400e	0.0022773775
81	0x3ad06dc6	0.0015901856
82	0xbbcc5791	-0.0062360247
83	0x3a875ffb	0.0010328287
84	0x3bf1a002	0.0073738107
85	0x3be2ff2c	0.0069273915
86	0xbc8d8559	-0.0172755
87	0xbc68d1e8	-0.014210202
88	0xbc541713	-0.012944954
89	0xbb9f84de	-0.004868134
90	0x3c3d2609	0.011544713
91	0x3b50204d	0.0031757534
92	0x3d0b9246	0.034075044
93	0xbb171637	-0.0023054013
94	0x3cafc3e3	0.02145571
95	0x3c3922d9	0.011299812
96	0x3c1d2fd7	0.009593925
97	0x3c90a5d9	0.017657207
98	0x3bbb0558	0.005707424
99	0x3ac87820	0.0015294589
100	0x3c08441e	0.008317022
101	0x3b49345d	0.0030701377
102	0x3c13c85a	0.0090199355
103	0x3c0774a9	0.00826756
104	0x3bb9b7b7	0.0056676525
105	0xbc49f428	-0.012326278
106	0x3bbecf3e	0.005823045
107	0x3b7544da	0.0037425072
108	0xbbfe4833	-0.0077600717
109	0x3b8901e1	0.004181132
110	0x3bad9ea6	0.0052984534
111	0x3c937b34	0.018003084
112	0x3c50cd09	0.012744197
113	0xbc4c9d0f	-0.012488618
114	0xbc0dc5d1	-0.00865312
115	0xb9f9634a	-0.00047566957
116	0xbd7ba47f	-0.061436173
117	0xbd1baa97	-0.038004484
118	0x3c24baa6	0.010054266
119	0x3a9677c6	0.0011479787
120	0xbabfa450	-0.0014621112
121	0xbc8e8874	-0.01739905
122	0x3d16256d	0.036656786
123	0x3be39459	0.0069451747
124	0x3c07c059	0.008285605
125	0xbcad6988	-0.021168485
126	0x3c61bf78	0.01377856
127	0xbc6e9f1f	-0.014564305

exp_avg_sq f4 [64, 2]
0	0x3d90c95d	0.07069657
1	0x3c0a36f3	0.0084359525
2	0x3cdfa30e	0.02729943
3	0x3a9adfda	0.001181598
4	0x3c97663e	0.01848137
5	0x3b440b66	0.002991402
6	0x3d1848f7	0.03717896
7	0x3b8e6ad1	0.0043462296
8	0x3cc23dcc	0.023711108
9	0x3b610463	0.003433489
10	0x3d1b621b	0.037935358
11	0x3bc8b495	0.0061250427
12	0x3d920d4f	0.07131445
13	0x3b703c79	0.0036657138
14	0x3beaeb16	0.0071691377
15	0x3a0ad3e1	0.00052958546
16	0x3c8630a3	0.016380614
17	0x3a9fc4d9	0.0012189402
18	0x3a118d6f	0.0005552386
19	0x39ea6e5c	0.00044714182
20	0x3c0d6c03	0.008631709
21	0x3b1216fd	0.0022291534
22	0x3c76ef29	0.015071669
23	0x3a97f079	0.0011592052
24	0x3c85ccac	0.016332947
25	0x3a787996	0.0009478567
26	0x3ab24a21	0.0013602414
27	0x384547d7	4.7035366e-05
28	0x3d724012	0.059143133
29	0x3b1cfd4d	0.002395469
30	0x3c9bca12	0.019017253
31	0x3b910f28	0.0044268556
32	0x3d8af719	0.067854114
33	0x3b051764	0.0020308131
34	0x3d5f8983	0.0545745
35	0x3ba4e0e0	0.00503169
36	0x3d6b313b	0.057419997
37	0x3b19fc21	0.0023496228
38	0x3ca3f8d2	0.020016108
39	0x3be22aa3	0.0069020553
40	0x3c32f40e	0.010922445
41	0x3b8836d4	0.0041569266
42	0x3d6715ed	0.056417394
43	0x3ba85153	0.0051366477
44	0x3c5a33ce	0.013318015
45	0x3a1af5a7	0.0005911239
46	0x3cb1fdae	0.02172741
47	0x3ad7e489	0.0016471307
48	0x3c033548	0.008008309
49	0x3a66c5b5	0.00088032644
50	0x3c055f2b	0.008140366
51	0x39d7a447	0.00041130392
52	0x3c255c2b	0.010092775
53	0x3a65c5ee	0.00087651506
54	0x3c779bd8	0.01511284
55	0x3a51d89f	0.00080049963
56	0x3bcd8ddd	0.006273015
57	0x39f3b190	0.00046480866
58	0x3d22fed0	0.03979379
59	0x3b2f8096	0.0026779524
60	0x3bdb2a96	0.0066884262
61	0x3aa7f76a	0.0012814824
62	0x3d4d63f3	0.050144147
63	0x3a93d54f	0.0011278781
64	0x3d5efe94	0.054442003
65	0x3c4bf139	0.012447649
66	0x3d652523	0.05594362
67	0x3b80db58	0.003932398
68	0x3c993315	0.018701116
69	0x3a6bd34e	0.00089960254
70	0x3cba1172	0.022713397
71	0x39d47cdf	0.00040528827
72	0x3d047041	0.032333616
73	0x3b5a21a1	0.0033284205
74	0x392e8f43	0.00016647302
75	0x38e91ea7	0.00011116015
76	0x3ce274fe	0.027643677
77	0x3bc36a11	0.005963572
78	0x3d09a15f	0.03360116
79	0x3b697d73	0.0035627752
80	0x3aab404e	0.0013065429
81	0x391a6998	0.00014725921
82	0x3a15b5b4	0.0005710975
83	0x39730e64	0.00023179647
84	0x3bb4f147	0.0055219266
85	0x39ec0531	0.00045017296
86	0x3cd9abda	0.026571203
87	0x3b2ccb7a	0.0026366399
88	0x3c8924ee	0.016741242
89	0x3a83cc83	0.0010055456
90	0x3ba6b8ad	0.005087933
91	0x392bba8f	0.0001637733
92	0x3c748da2	0.014926346
93	0x3a8aeeba	0.001059971
94	0x3da5f4c0	0.08103323
95	0x3b4459bd	0.0029960715
96	0x3c2d48c5	0.010576432
97	0x3b37a821	0.0028023797
98	0x3be5c3aa	0.0070118504
99	0x39571388	0.00020511274
100	0x3bd7c54e	0.0065848
101	0x39fa7e9c	0.00047778047
102	0x3c364a2f	0.011126085
103	0x3a8eede3	0.0010904636
104	0x3c0d6879	0.008630865
105	0x3a7ed774	0.0009721436
106	0x3abe8812	0.0014536402
107	0x3a80e16d	0.0009832807
108	0x3c028de0	0.007968396
109	0x39c95f29	0.00038408607
110	0x3d10d5fa	0.035360314
111	0x3b68c88e	0.003551993
112	0x3c83ce92	0.016089711
113	0x3abacb90	0.001425134
114	0x3c2c962b	0.01053385
115	0x391f1079	0.00015169558
116	0x3d94f2bc	0.072728604
117	0x3c2dd216	0.01060917
118	0x3befca93	0.00731785
119	0x3a7e3d8c	0.0009698502
120	0x3da9cabd	0.082906224
121	0x3b834f9b	0.0040072924
122	0x3d92027a	0.071293786
123	0x3ba5066d	0.0050361664
124	0x3d86454b	0.06556185
125	0x3b53e990	0.003233526
126	0x3cb25c82	0.021772627
127	0x3b177f38	0.00231166

exp_avg f4 [64]
0	0xbc044751	-0.008073644
1	0xbc8cf324	-0.017205782
2	0x3cdb8fae	0.02680191
3	0x3d2e1858	0.042503685
4	0x3d3299e6	0.0436038
5	0x3c581938	0.013189606
6	0x3c81c19b	0.015839389
7	0x3c0d1205	0.008610253
8	0xbb0c4c9d	-0.002140797
9	0xbc22b58c	-0.009930979
10	0x3cc4fc8e	0.024046209
11	0x3c5a49db	0.013323273
12	0x3c5624d9	0.013070309
13	0xbb3acca3	-0.002850332
14	0x3d019128	0.031632572
15	0xbd0c64db	-0.03427587
16	0x3cc69b93	0.024244105
17	0x3d0c8296	0.034304224
18	0xbb96dcde	-0.004603966
19	0x3d0ce426	0.034397267
20	0x3d1926ec	0.037390634
21	0xbcbd7706	-0.023128044
22	0x3c3c0665	0.011476134
23	0x3c439a09	0.01193858
24	0x3c7af4b7	0.015317134
25	0x3c699f8c	0.01425923
26	0x3c0cd7b0	0.008596346
27	0x3be99f2a	0.0071295695
28	0x3c079b92	0.008276837
29	0xbd0fe7b7	-0.03513309
30	0xbc920531	-0.017824741
31	0x3caf7aa7	0.02142079
32	0x3d5c270f	0.053748187
33	0x3b495a21	0.0030723887
34	0x3cd29df8	0.025710091
35	0xbc9e40e0	-0.019318044
36	0x3d3976f4	0.04527946
37	0xbc0e290f	-0.008676781
38	0x3d2daf98	0.042403787
39	0xbce22622	-0.027606074
40	0xba5b852a	-0.000837403
41	0xba5b80db	-0.0008373388
42	0xbbfd334d	-0.007727063
43	0x3d1e453d	0.03864025
44	0x3ccbfe69	0.024901586
45	0xbbf38685	-0.0074318075
46	0x3cdfe587	0.027331127
47	0x3c630507	0.013856179
48	0xbb6560a3	-0.0035000227
49	0xbc2d9ba9	-0.010596194
50	0xbbc6dd13	-0.0060688346
51	0xbc6e8f27	-0.014560497
52	0x3b85afab	0.004079779
53	0xbcb664dc	-0.02226489
54	0xbc17499f	-0.009233861
55	0xbce86995	-0.028370658
56	0x3c7d59b6	0.015463283
57	0x3bc2ec8e	0.0059486097
58	0x3d68760e	0.05675321
59	0x3cac2137	0.021011932
60	0x3c146d8e	0.009059323
61	0x3d0673d0	0.03282529
62	0x3c97ee64	0.01854629
63	0x3c9e62cd	0.019334221

exp_avg_sq f4 [64]
0	0x3e2502b5	0.16114314
1	0x3d0b9b43	0.034083616
2	0x3d470a47	0.048593786
3	0x3cc09d91	0.023512634
4	0x3d144f95	0.036208708
5	0x3df39d09	0.118951865
6	0x3d803437	0.06259959
7	0x3b89dbfc	0.0042071324
8	0x3d075278	0.033037633
9	0x3bbed6c0	0.00582394
10	0x3d530b1a	0.05152426
11	0x3c5da930	0.013529107
12	0x3cca663b	0.02470695
13	0x39aceebe	0.00032984273
14	0x3d33cc7d	0.043896187
15	0x3d81e5ed	0.06342683
16	0x3d2a190e	0.0415278
17	0x3dcaab85	0.09895996
18	0x3d15ed80	0.03660345
19	0x3e1cb2ef	0.15302633
20	0x3d38a4df	0.04507911
21	0x3da5c41f	0.08094048
22	0x3bd3f76a	0.006468703
23	0x3ca3201b	0.01991277
24	0x3bcf03d1	0.0063175936
25	0x3c0eeb66	0.008723116
26	0x3c68ed5d	0.014216748
27	0x3c25e662	0.010125728
28	0x3b8593f7	0.0040764767
29	0x3d37e66c	0.04489748
30	0x3c8a5c87	0.016889824
31	0x3cbb5769	0.022868829
32	0x3e415789	0.18881048
33	0x3d7baee2	0.061446078
34	0x3c34d527	0.011037148
35	0x3c806448	0.015672818
36	0x3d5e2545	0.05423476
37	0x3b73f94d	0.0037227452
38	0x3dbceb31	0.09224547
39	0x3d91e2ee	0.071233615
40	0x3a1f6d77	0.000608168
41	0x3a9d6976	0.0012009579
42	0x3c6f30a7	0.014599002
43	0x3d40dc00	0.04708481
44	0x3beab4e5	0.0071626776
45	0x3b217c15	0.002464061
46	0x3c3f625e	0.011681167
47	0x3d82f4b5	0.063943304
48	0x3d5d57fd	0.05403899
49	0x3bd2b14d	0.0064298273
50	0x3b9aebb5	0.0047278055
51	0x3ccfae37	0.025351627
52	0x3ce4d641	0.027934195
53	0x3c2a68a5	0.010400926
54	0x3bc1cb9d	0.005914165
55	0x3d500c58	0.050793022
56	0x3c50dee5	0.012748455
57	0x3bc95cb0	0.0061450824
58	0x3e43c03e	0.19116303
59	0x3c2cd50e	0.010548843
60	0x3d768bf8	0.06019208
61	0x3dd5e117	0.10443323
62	0x3d5b27db	0.053504806
63	0x3cc89f0e	0.024489906

exp_avg f4 [64, 128]
0	0x3b1fcca6	0.0024383455
1	0x3b79f808	0.0038142223
2	0x3b33da25	0.0027443257
3	0x3a74f1bd	0.0009343883
4	0x3b514d49	0.0031936935
5	0x3ac7c8d7	0.001524235
6	0xba97a417	-0.0011569288
7	0x3b30233c	0.002687647
8	0xb9b43ee2	-0.00034379127
9	0x3b594c7d	0.0033157163
10	0xbac4d499	-0.0015016972
11	0x3a17bb8c	0.00057881395
12	0xbb141a96	-0.0022598854
13	0xbb8585ba	-0.0040747793
14	0xbafac795	-0.0019132966
15	0x3b483176	0.003054706
16	0x3b842034	0.004032159
17	0x3b2eacf0	0.0026653372
18	0x3aafdb21	0.0013416746
19	0xba218315	-0.00061611953
20	0xb96fbb3b	-0.00022862565
21	0xba236575	-0.0006233075
22	0x3b8444a4	0.004036503
23	0x3b276e2e	0.002554785
24	0x3b3a551c	0.0028432077
25	0xbb782b9d	-0.0037867792
26	0xbb6a1022	-0.0035715182
27	0x3a41e2c3	0.0007396156
28	0xbb7e84b9	-0.0038836433
29	0x3b7a67f6	0.0038208938
30	0xb9f11a52	-0.00045986712
31	0x3b8246dc	0.0039757323
32	0xba9760d4	-0.0011549243
33	0x3a89815a	0.001049082
34	0x3b48c3ae	0.0030634212
35	0x3b87d40c	0.004145151
36	0x3aacb36e	0.0013176033
37	0xbb8c6c55	-0.004285375
38	0xbb0059e6	-0.0019584834
39	0xbb457d91	-0.0030134658
40	0x3b8c8286	0.0042880205
41	0xbb3d6796	-0.0028900853
42	0xbb65891e	-0.0035024355
43	0x3b099f46	0.0020999475
44	0xbb6e8840	-0.003639713
45	0xbb209271	-0.0024501348
46	0x3aa661d1	0.0012693946
47	0xbacac171	-0.0015469027
48	0xba0a6017	-0.0005278601
49	0x3b6e50d9	0.0036364107
50	0xbb78a091	-0.0037937502
51	0x3b5af6b0	0.0033411197
52	0x3b4f1e49	0.0031603745
53	0x3b4245f4	0.0029643746
54	0xba193a74	-0.0005845197
55	0x3af4a34c	0.0018664389
56	0x3ad2ff25	0.0016097768
57	0xbb7cf83b	-0.0038600105
58	0x3b1303f4	0.0022432776
59	0x39c72937	0.00037986945
60	0x3af554a4	0.0018717241
61	0x3a02b897	0.00049866125
62	0xb9f33fbc	-0.00046396058
63	0xbb4bdb4e	-0.0031106058
64	0x3b292ae9	0.002581293
65	0xb9b727df	-0.00034934186
66	0xb93640bc	-0.00017380988
67	0x39c7f21c	0.00038136623
68	0x3b38f545	0.0028222364
69	0xbac19761	-0.0014769846
70	0xbb8cef57	-0.0043009925
71	0xb87cdbd5	-6.0286216e-05
72	0x3b14351f	0.002261467
73	0xbaa63270	-0.0012679826
74	0x3ac66e42	0.001513906
75	0xbb0b4341	-0.0021249803
76	0xbb449902	-0.0029998426
77	0xbb04380d	-0.002017501
78	0xbb838138	-0.004013207
79	0x3a454d36	0.0007526459
80	0x3a83825e	0.0010033359
81	0xbaff972e	-0.0019500011
82	0xbb1bca3e	-0.0023771669
83	0x3b32a3fd	0.002725839
84	0x3aedb859	0.0018136605
85	0x3ac35710	0.0014903266
86	0x3a244995	0.0006267068
87	0x3b944ae4	0.004525529
88	0x38b20a5b	8.48963e-05
89	0xba03c019	-0.0005025878
90	0xba5d7ed1	-0.0008449378
91	0x3b6c1bd5	0.0036027331
92	0xbb38387c	-0.002810984
93	0x39b91bb0	0.00035306579
94	0x3b2ccc38	0.002636684
95	0x3ae64d89	0.0017570715
96	0x3afb9de6	0.0019196838
97	0x3b4a195e	0.0030837874
98	0x3b908f1d	0.0044115917
99	0x3a59d2ba	0.0008309294
100	0x3b62aa7e	0.0034586485
101	0x3abc9b04	0.001438946
102	0x39a54842	0.0003152509
103	0xbb2b3812	-0.002612595
104	0x3ad766ec	0.0016433871
105	0x3ae501cf	0.0017471852
106	0xbb063f6f	-0.0020484587
107	0x3856d137	5.1216422e-05
108	0xbb39deae	-0.0028361487
109	0x39a57439	0.00031557845
110	0x3b802fef	0.003911964
111	0xbb8c9b7c	-0.004290996
112	0x3b323dac	0.0027197404
113	0xb9abaf9f	-0.0003274651
114	0xb98bfadc	-0.0002669905
115	0x3a6ad4fd	0.00089581293
116	0xbb2e5435	-0.0026600484
117	0xbb024459	-0.0019877164
118	0xbb3825ca	-0.0028098696
119	0xba825db5	-0.000994614
120	0xbb15410b	-0.0022774364
121	0xba83bd2e	-0.0010050887
122	0xb8cb0811	-9.681297e-05
123	0x3b096b6e	0.0020968574
124	0x3b6f27e2	0.0036492278
125	0xbb175159	-0.0023089258
126	0xbb8836b2	-0.004156911
127	0xbb7d1bcc	-0.0038621305
128	0x3ba3f100	0.0050030947
129	0x3b509e30	0.0031832568
130	0xba98ad23	-0.0011648278
131	0xbbba10a3	-0.005678253
132	0x3c0f24b4	0.008736778
133	0xbb8fe4fa	-0.00439131
134	0xbc6f8fad	-0.014621657
135	0xbb23f704	-0.002501906
136	0x3b937ea8	0.0045011826
137	0xbbe9303e	-0.0071163466
138	0x3b4f6be8	0.003165001
139	0xbc45f772	-0.012082921
140	0xbc39f433	-0.011349726
141	0xbaa55e17	-0.0012616542
142	0xbc63e5de	-0.013909785
143	0xbb340c34	-0.0027473094
144	0x3bf19889	0.00737292
145	0x3afe00f1	0.0019378943
146	0xbc58524d	-0.013203216
147	0x3b968b2a	0.0045942264
148	0x3c27426b	0.010208706
149	0x3c3a3f80	0.011367679
150	0x3b957798	0.004561376
151	0x3c67cf6b	0.014148573
152	0xbb207091	-0.0024481157
153	0xbbecfa3e	-0.0072319796
154	0xbbaa2a3b	-0.0051930225
155	0x3c72b84e	0.0148144495
156	0xbbc71ee6	-0.0060766814
157	0x3b98f0bf	0.004667371
158	0x3c114f77	0.008869044
159	0x3bab2ad1	0.00522361
160	0x3bf9c00e	0.0076217717
161	0x3c19b48d	0.009381426
162	0x3c6551ff	0.0139966
163	0x3c03edf6	0.00805234
164	0x3c04609e	0.008079676
165	0x3c5a64fe	0.0133297425
166	0x3c0767c1	0.008264483
167	0xbbb50697	-0.005524467
168	0x3b97186c	0.0046110656
169	0x3c4b6e6a	0.0124164615
170	0xbbdb47d7	-0.0066919136
171	0x3b8513aa	0.004061182
172	0xbc12d69c	-0.0089623
173	0xbb3a5f59	-0.002843818
174	0x3c713574	0.014722217
175	0xbc552be7	-0.013010955
176	0x3bdf6489	0.0068174046
177	0x38b19906	8.4685205e-05
178	0xbbcbe828	-0.0062227435
179	0x3bc6d827	0.006068248
180	0xbc450b74	-0.012026656
181	0xbb910218	-0.0044252984
182	0xbc434dbd	-0.01192039
183	0xbc017960	-0.007902473
184	0xbc59f8b6	-0.013303926
185	0x3a3e3184	0.0007255303
186	0x3affc5a9	0.0019513863
187	0x3bdf7fd6	0.006820659
188	0x3c48a346	0.012245959
189	0xbc2f041a	-0.01068213
190	0xbc6a1aee	-0.014288647
191	0xbc2bcc5a	-0.010485733
192	0x3b9b7540	0.004744202
193	0x3bf37dae	0.0074307537
194	0x3b51757e	0.00319609
195	0xbba3f01d	-0.005002989
196	0x3c194e36	0.009357026
197	0x38162b56	3.5803147e-05
198	0xbc069a84	-0.00821555
199	0x3b00f790	0.0019678809
200	0x3a473fbd	0.00076007453
201	0x3a600f3f	0.0008547194
202	0xba852839	-0.0010159082
203	0xbc084991	-0.008318321
204	0xbc2709e4	-0.010195229
205	0xbbe70008	-0.0070495643
206	0xbc11e966	-0.008905744
207	0x3ac757c2	0.0015208649
208	0x3c25d1f6	0.010120859
209	0x3bc1bd95	0.0059124925
210	0xbbfc3b22	-0.007697479
211	0x3914e978	0.00014201354
212	0x3bef1d44	0.00729719
213	0x3c12b3f0	0.008954033
214	0x3c09fc75	0.008422007
215	0x3c0ad949	0.008474656
216	0x3b0d5892	0.0021567685
217	0xbc22bd67	-0.009932852
218	0xbc0890e8	-0.00833533
219	0x3c2110e0	0.0098306835
220	0xbc0a0fdf	-0.0084266355
221	0x3c07f2cc	0.008297633
222	0x3b7a003d	0.0038147115
223	0x3c0d9815	0.008642216
224	0x3b312353	0.0027029112
225	0x3bba3594	0.0056826565
226	0x3c15dd6a	0.0091470275
227	0x3c2c5987	0.010519392
228	0x3b8c5678	0.004282769
229	0xb9e14245	-0.0004296472
230	0x3ba4d4e8	0.005030263
231	0xbbcddb93	-0.006282279
232	0x3c1103d5	0.008851011
233	0x3b840dbf	0.004029959
234	0xbc10687a	-0.008813972
235	0x3bd0fc16	0.0063777072
236	0xbc27f0f4	-0.010250319
237	0xbbc2db41	-0.0059465473
238	0x3c1941cb	0.009354065
239	0xbbe957c1	-0.007121057
240	0x3aff912d	0.0019498222
241	0x3bb1776d	0.005415848
242	0xbc17e4f5	-0.009270896
243	0x3c0ef3a6	0.0087250825
244	0xbb177f16	-0.002311652
245	0x3b0ce2ad	0.0021497414
246	0xbc0721e9	-0.008247831
247	0xbb531885	-0.003221066
248	0xbbf97cb3	-0.0076137423
249	0xbba9bf3a	-0.0051802667
250	0x3ba0e76a	0.004910399
251	0x3b848c94	0.0040450785
252	0x3c08836c	0.008332115
253	0xbbc8a06b	-0.006122639
254	0xbbf73156	-0.007543723
255	0xbc092d0a	-0.008372555

exp_avg_sq f4 [64, 128]
0	0x39b4e91f	0.00034505964
1	0x3b4b1429	0.0030987358
2	0x3abf686c	0.0014603264
3	0x398c7ca7	0.00026795754
4	0x3ae48292	0.0017433933
5	0x3a36d65d	0.00069746916
6	0x390bb0f7	0.00013321998
7	0x3a963708	0.0011460492
8	0x39c925ab	0.00038365772
9	0x3b0a5503	0.00211078
10	0x3a5da8c6	0.000845563
11	0x39010750	0.00012305123
12	0x3a9d4f03	0.0012001697
13	0x3b52694b	0.0032106217
14	0x38c13155	9.212146e-05
15	0x3a7a5e1e	0.0009550768
16	0x3b5d565a	0.0033773393
17	0x3b2032a6	0.0024444251
18	0x381b2b00	3.6994927e-05
19	0x3a3c2bf6	0.00071781815
20	0x391c9c86	0.00014935629
21	0x39fa84d1	0.00047782672
22	0x3b54def2	0.0032481519
23	0x38dfb92d	0.0001066796
24	0x3aa353f8	0.0012460938
25	0x3b549821	0.0032439309
26	0x3b31d069	0.0027132279
27	0x38ccf5cc	9.773261e-05
28	0x3b15eb4e	0.0022875848
29	0x3b492778	0.0030693691
30	0x3973c3d6	0.0002324724
31	0x3b41d578	0.00295767
32	0x39b30ae4	0.00034149655
33	0x37bbdefa	2.2395969e-05
34	0x393b131c	0.00017840829
35	0x3b68fc0d	0.0035550625
36	0x3889c9fd	6.570292e-05
37	0x3b4eb075	0.0031538282
38	0x37dd1e55	2.6359377e-05
39	0x3a733b63	0.00092785637
40	0x3b66348a	0.003512653
41	0x3a9a0b44	0.0011752625
42	0x3b16424f	0.0022927707
43	0x3ac9bfb5	0.0015392216
44	0x3b1df216	0.0024100593
45	0x3aeb8207	0.0017967828
46	0x388ec57b	6.807871e-05
47	0x38fb22a4	0.00011975065
48	0x39f6f054	0.00047099835
49	0x3b3057a6	0.0026907711
50	0x3b51ab62	0.0031993021
51	0x3b28a839	0.0025735034
52	0x3b0508be	0.00202994
53	0x3b0c8491	0.002144132
54	0x390c43e9	0.00013376739
55	0x396e1ef2	0.00022708977
56	0x38635b87	5.420626e-05
57	0x3b2f3d66	0.0026739477
58	0x3ab53018	0.0013823537
59	0x36de6d4c	6.6288394e-06
60	0x3918302f	0.000145138
61	0x3793c067	1.761336e-05
62	0x396aab5e	0.00022379818
63	0x3a07bdb3	0.00051781087
64	0x39d40d4a	0.00040445692
65	0x3a5988ae	0.000829826
66	0x39358c4d	0.00017313771
67	0x39d2ce9c	0.00040208257
68	0x3abddce4	0.0014485386
69	0x3795ae1d	1.7843262e-05
70	0x3a80092d	0.000976836
71	0x389584ae	7.129587e-05
72	0x38351524	4.317345e-05
73	0x385364bd	5.040014e-05
74	0x382d6f59	4.1350115e-05
75	0x3a87b841	0.0010354595
76	0x3adfd0ef	0.0017075817
77	0x3a39714f	0.0007074074
78	0x3aa1856e	0.001232309
79	0x38438bb8	4.6621746e-05
80	0x3ac1f72f	0.0014798398
81	0x3a1d2963	0.0005995242
82	0x3a4f5bb7	0.000791009
83	0x38617902	5.3756878e-05
84	0x3a57f0e3	0.0008237494
85	0x3aa31bf4	0.0012444244
86	0x3a85c3eb	0.0010205483
87	0x3a95b8c4	0.0011422862
88	0x38b12829	8.447498e-05
89	0x3abec162	0.0014553482
90	0x3a899ad5	0.0010498414
91	0x3abbd60c	0.0014330759
92	0x3a950c32	0.0011371432
93	0x3a85730d	0.0010181383
94	0x396f9d11	0.00022851328
95	0x3a90defc	0.0011052783
96	0x38e7dcd5	0.000110560715
97	0x3a0c1790	0.0005344087
98	0x3ab22238	0.001359052
99	0x3acceb2a	0.0015634049
100	0x39b46813	0.00034409817
101	0x388d7dd3	6.7468405e-05
102	0x39c37045	0.00037276946
103	0x3a30b7f7	0.000674128
104	0x3a8a2846	0.0010540567
105	0x3902f70b	0.00012489797
106	0x3aa0bc00	0.001226306
107	0x3a27a3b5	0.00063949387
108	0x3adfb75b	0.0017068194
109	0x3a1269c6	0.00055852195
110	0x3aaacebb	0.0013031581
111	0x3a500386	0.00079350953
112	0x38c097cb	9.183547e-05
113	0x39f5f8a8	0.00046915305
114	0x3aa648cd	0.0012686491
115	0x3a98add0	0.001164848
116	0x3869e7d9	5.5767454e-05
117	0x390fb7c2	0.00013705998
118	0x3a89d388	0.0010515312
119	0x390eefa7	0.00013631453
120	0x3a46e67b	0.0007587445
121	0x39dac373	0.0004172582
122	0x39c8d625	0.00038306523
123	0x39904552	0.00027517468
124	0x3a91af55	0.0011114875
125	0x3a100bda	0.000549493
126	0x3a4ee0e5	0.0007891788
127	0x3a9c7508	0.0011936733
128	0x3974fc14	0.0002336356
129	0x39ce9854	0.00039404875
130	0x38bb5883	8.9333415e-05
131	0x398e316c	0.00027121173
132	0x3a3ce9e1	0.00072064815
133	0x3919bf8b	0.00014662572
134	0x3acea507	0.0015765735
135	0x38ceafae	9.855568e-05
136	0x391d35fe	0.000149928
137	0x39da59c4	0.0004164708
138	0x38c6b85e	9.475717e-05
139	0x3a8fb9f2	0.001096545
140	0x3a8d2796	0.0010769244
141	0x3a0c2b3e	0.000534702
142	0x3ac03257	0.001466344
143	0x38f7c82e	0.00011815164
144	0x3a463882	0.0007561521
145	0x396b5754	0.00022443879
146	0x3aa5db7d	0.0012653914
147	0x393312b1	0.00017077733
148	0x3a4eb0fd	0.00078846497
149	0x3a8292bd	0.0009961944
150	0x3a09c636	0.0005255671
151	0x3ac35513	0.0014902673
152	0x38dfe09c	0.000106753054
153	0x3a34cd83	0.0006897079
154	0x39e45fa9	0.0004355882
155	0x3add1d36	0.0016869667
156	0x3a02bdf6	0.0004987413
157	0x39f36dcd	0.0004643038
158	0x3a10cb31	0.0005523442
159	0x3a067849	0.0005129618
160	0x39d29d5c	0.00040171563
161	0x3a2a98b9	0.0006507743
162	0x3ac30219	0.0014877944
163	0x3a6944f9	0.00088985224
164	0x39fbb3c6	0.00048008392
165	0x3a9cc4a4	0.0011960459
166	0x3a0302f4	0.00049976935
167	0x39a7b7c1	0.0003198963
168	0x3a4d90a1	0.0007841681
169	0x3a874694	0.0010320717
170	0x3a0ade97	0.00052974507
171	0x396eb919	0.00022766403
172	0x3a543098	0.0008094399
173	0x393edeea	0.00018202854
174	0x3ad82030	0.0016489085
175	0x3aa21696	0.001236635
176	0x39acf69d	0.00032990138
177	0x3972e946	0.0002316582
178	0x3a1bf78a	0.0005949667
179	0x39fd746c	0.00048342661
180	0x3a827f83	0.0009956214
181	0x39812832	0.00024634745
182	0x3a8de235	0.0010824861
183	0x39e43e25	0.0004353385
184	0x3aa73b24	0.0012758714
185	0x39937d16	0.0002813122
186	0x38f1290e	0.000114994225
187	0x39b1d23a	0.00033916702
188	0x3a9620a0	0.0011453815
189	0x3a5848e9	0.00082506106
190	0x3ac29957	0.0014846724
191	0x3a685161	0.0008862224
192	0x39677ff9	0.0002207755
193	0x3a116f82	0.0005547927
194	0x38dbc3be	0.000104791936
195	0x396b28ea	0.00022426588
196	0x3a4d195c	0.0007823908
197	0x37995dc6	1.8282688e-05
198	0x3a34defb	0.0006899682
199	0x38307f2c	4.2080108e-05
200	0x38246a91	3.9199895e-05
201	0x381caec7	3.7356072e-05
202	0x380cc93a	3.3566008e-05
203	0x3a229646	0.0006202202
204	0x3a740564	0.00093086646
205	0x3a005b0c	0.00048963795
206	0x3a4e537b	0.0007870716
207	0x37da0e89	2.5994394e-05
208	0x3a78c44e	0.0009489701
209	0x39cb4ba4	0.00038775534
210	0x3a0adfb4	0.00052976166
211	0x3861ccc7	5.3834894e-05
212	0x39f7c694	0.00047259463
213	0x3a37f6e5	0.0007017686
214	0x3a335401	0.00068408257
215	0x3a453568	0.0007522912
216	0x385003ea	4.959471e-05
217	0x3a6d5cf6	0.0009054685
218	0x3a270286	0.00063709205
219	0x3a749bd1	0.000933108
220	0x3a2a49d7	0.00064959883
221	0x3a2c44f9	0.0006571557
222	0x39259f53	0.00015794979
223	0x3a356374	0.0006919422
224	0x38a4f55b	7.8658304e-05
225	0x39a928cd	0.0003226459
226	0x3a5e9569	0.0008490892
227	0x3a88ae92	0.0010428003
228	0x39662bbb	0.000219508
229	0x386b3873	5.608094e-05
230	0x3964c07e	0.00021815483
231	0x39bf5b93	0.00036498587
232	0x3a488836	0.00076496915
233	0x38fdb081	0.000120968565
234	0x3a361a23	0.00069466437
235	0x39befba6	0.00036427117
236	0x3a763a9c	0.0009392889
237	0x39ad6cd9	0.0003307823
238	0x3a61df1b	0.0008616314
239	0x3a0db697	0.0005405931
240	0x389e7ab2	7.556881e-05
241	0x39a247b5	0.00030952474
242	0x3a535195	0.0008061168
243	0x3a3339eb	0.00068369386
244	0x38a69397	7.9429876e-05
245	0x38d4643f	0.0001012762
246	0x3a244c15	0.00062674406
247	0x38b8f25b	8.818946e-05
248	0x3a06ed45	0.000514705
249	0x398dd98d	0.00027055704
250	0x396a6978	0.00022355269
251	0x392779c8	0.00015971728
252	0x3a2f26b3	0.0006681487
253	0x39b4bc4f	0.00034472576
254	0x3a177301	0.000577733
255	0x3a2dedc1	0.00066348544

exp_avg f4 [64]
0	0xbb91c4ab	-0.0044484935
1	0xbc830cf3	-0.015997386
2	0x3c424830	0.011858031
3	0xbbae093f	-0.005311161
4	0x3cce48e2	0.025181238
5	0x3cd392a2	0.025826756
6	0x3cb9b84e	0.022670891
7	0x3c775d9a	0.015098
8	0xbb1e6c50	-0.0024173446
9	0x3c0b6656	0.0085082855
10	0x3c306a0e	0.010767473
11	0xb92db866	-0.0001656726
12	0x3bbd9347	0.005785379
13	0xbbc0095c	-0.0058604907
14	0x3cda73d3	0.026666557
15	0x3c873841	0.016506316
16	0x3c4b8884	0.012422685
17	0x3c8b7bab	0.017026743
18	0xb9dc8a16	-0.00042064552
19	0xba10aa2c	-0.00055185216
20	0x3c2a29e9	0.010385969
21	0xbb3783f0	-0.0028002225
22	0x3b920c00	0.004456997
23	0xbbc755cd	-0.0060832263
24	0x3c01d712	0.007924812
25	0x3c0f288c	0.0087376945
26	0x3c8e13e4	0.017343469
27	0x3bda949e	0.0066705486
28	0x3bf357a0	0.007426217
29	0xbc901997	-0.017590327
30	0x3c292825	0.010324513
31	0x3c6f5acb	0.014609049
32	0x3c7c5eb6	0.01540344
33	0xbc7ea6b9	-0.0155426795
34	0x3b2643f6	0.0025370098
35	0x3bf932ec	0.0076049473
36	0x3cb71abd	0.022351617
37	0xbb913ccc	-0.0044322964
38	0x3c387486	0.01125825
39	0xbbbdcafe	-0.005792021
40	0xb943d651	-0.00018676488
41	0xbbb35202	-0.0054724226
42	0xbbee66e7	-0.0072754505
43	0xbc27736f	-0.010220393
44	0xbc67d346	-0.014149493
45	0xbc041102	-0.008060696
46	0x3c1ffbed	0.009764654
47	0xbb70058f	-0.0036624407
48	0xbc1785d6	-0.009248218
49	0xbc028441	-0.007966102
50	0x3c5b6411	0.013390557
51	0xbbe47ca4	-0.006972866
52	0x3c1d22c7	0.009590811
53	0xbc1b53de	-0.009480445
54	0xbbe4b0ca	-0.0069790827
55	0xbd206ecc	-0.039168164
56	0x3d2e3739	0.042533133
57	0x3c35a70f	0.011087193
58	0x3cf2d783	0.02964378
59	0x3a45e277	0.00075486995
60	0xbb329e66	-0.0027255057
61	0x3abee17a	0.0014563047
62	0x3c663d0e	0.0140526425
63	0x3d0499a5	0.03237309

exp_avg_sq f4 [64]
0	0x3b8a7bc7	0.004226181
1	0x3b150c3a	0.0022742883
2	0x3bd994de	0.006640061
3	0x3ba4978f	0.00502295
4	0x3c7a33aa	0.015271107
5	0x3e8a48d4	0.27008688
6	0x3df04d33	0.117334746
7	0x3babd803	0.0052442565
8	0x3af2dad7	0.0018528354
9	0x3b43ef66	0.0029897331
10	0x3c89842e	0.016786661
11	0x3a4e3c4a	0.000786726
12	0x3c6e4850	0.014543608
13	0x3b1ba7f4	0.002375123
14	0x3d07dc32	0.03316898
15	0x3c34705e	0.011013119
16	0x3c7d83eb	0.015473346
17	0x3cdaf64b	0.02672877
18	0x3d963b9d	0.07335589
19	0x3bf90d14	0.007600436
20	0x3b5172c7	0.0031959282
21	0x3a64d233	0.0008728832
22	0x3aa1abc9	0.0012334521
23	0x3b865518	0.0040994994
24	0x3a723b73	0.0009240426
25	0x3c15291a	0.009104038
26	0x3b152d57	0.002276262
27	0x3bd6054a	0.006531392
28	0x3aea6157	0.0017881793
29	0x3c8e90d9	0.017403053
30	0x3b220800	0.0024724007
31	0x3c7bee08	0.015376575
32	0x3c6fdfc2	0.01464075
33	0x3bd59bc5	0.0065188133
34	0x390a2c67	0.00013177247
35	0x3a1f5388	0.0006077816
36	0x3b82ad3a	0.0039879354
37	0x39bf07b8	0.0003643611
38	0x3c4e9748	0.01260931
39	0x3ab59f61	0.0013856703
40	0x3adea0f9	0.001698523
41	0x3c115ff6	0.0088729765
42	0x3b4f23de	0.0031607072
43	0x3c097beb	0.008391361
44	0x3b581c4c	0.003297585
45	0x3a0dbc2c	0.0005406763
46	0x3bd97990	0.006636806
47	0x3b777a08	0.0037761945
48	0x3bbf6f59	0.005842131
49	0x3c14ad55	0.009074529
50	0x3c175654	0.009236891
51	0x3a361410	0.00069457386
52	0x3d3e8a0a	0.046518363
53	0x3bbf986d	0.005847028
54	0x3ad3ebca	0.0016168293
55	0x3df51279	0.11966414
56	0x3d4c89a7	0.049935963
57	0x3bca4ecd	0.0061739446
58	0x3d6770d5	0.05650409
59	0x3a27d624	0.0006402454
60	0x3a8a1449	0.001053461
61	0x3c9514a4	0.018198319
62	0x3df13283	0.117772125
63	0x3d02a2ab	0.031893414
