results/energy/checkpoints/A12_H064_L02_D01_Tanh_W4096_P010000_V2.00e+01_S5.00e-01_Adam_PT_False_device_cuda_dtype_float32_chkp.pt (torch, 339923 bytes, 23 tensors)

layers.0.fc.weight f4 [64, 2]
00000000: d4cd 1bbe b487 1f3e 14cd bcbe 95db 26be
00000010: f7c6 e3bd da00 923e 1824 8dbd f1d2 833e
00000020: efab f4be 8d2d f13d e3c9 26be 5926 863e
00000030: 7c26 12bf 2e04 0a3e 608f d8bb 34d2 b53e
00000040: db67 3c3e 2610 c03d a455 52bf b365 e43e
00000050: 616e 6f3e ef1e 7bbe 4735 67be d405 0c3f
00000060: c731 bfbd 3203 413b 71bd dd3e f508 abbf
00000070: 7849 1ebf f98d a33e 23a3 22be 775f 473f
00000080: 171f 10bf 9a56 c13e bb58 f8be 20b3 43be
00000090: ef9a fcbe 93fb 773f 073b 083f a299 a63e
000000a0: c168 f53e 5915 ecbe ee1c 643e a29c 84be
000000b0: 0ed3 31bf 1165 9f3e 8a94 8d3e 1041 61be
000000c0: 160d 06be 0251 cb3e dbdc a83e 1e28 b8be
000000d0: 8fbf 963e c300 4a3d 779b 213f 19be 3dbf
000000e0: efa0 9e3e b3f2 eebe 0bd4 2dbf d607 3f3e
000000f0: ca70 973e 66cc 653e e4de bbbe e2d9 a33e
00000100: 6355 113f f45b 85be bcf9 943e 2f36 813e
00000110: aa00 d03e a584 c33d 1521 24bf ebf7 be3d
00000120: 95f7 883e 1ebe a13e 3317 3d3f 2a3c 0abe
00000130: f681 773e a739 67bf 46cd 983e 8883 53be
00000140: 9773 4fbf 5977 463f 100c 483f 19de 5dbf
00000150: dbbb 8e3e 5152 ccbd ba0a 81be d125 22be
00000160: 7bf1 ba3e ab07 a1bd 6779 b93e 068e 24bc
00000170: 19d4 0f3f 5409 4ebf d3ef 51bf 4b35 9b3e
00000180: a1c0 933e 082e 1abe b463 9ebe f576 28bc
00000190: 6780 623f b553 71be 2bff b7be dae8 8f3e
000001a0: 822c 49bf 5cd7 833e d4d9 3cbf 35b0 26bc
000001b0: 93e7 5dbe 7e9f 503e f15f 10be 6f89 bc3e
000001c0: e7e8 e2be bc48 aa3f 8661 103f a9bf 86bf
000001d0: 9bcc 8fbe 7c19 623e 8e98 3b3e 3eeb 503b
000001e0: 38a8 d43e bf49 3abd c4a0 7cbe 6d95 b33e
000001f0: 419d 18bf 851b d13e 4c4b 453c e200 533e
-0.15215236 0.1557911 -0.36875212 -0.16294701 -0.11121934 0.28516275 -0.0689165 0.25746873
-0.47787425 0.11776266 -0.16287951 0.26201132 -0.5708997 0.13478157 -0.0066088885 0.35511935
0.18398993 0.0937808 -0.8216193 0.4460884 0.2338195 -0.24523519 -0.22578917 0.54696393
-0.09335666 0.0029451367 0.43308595 -1.3362108 -0.61830854 0.31944254 -0.15882544 0.7788004
-0.5629744 0.37761384 -0.48505196 -0.191113 -0.49336955 0.96868247 0.5321507 0.32539088
0.47931483 -0.46110037 0.22276661 -0.2590075 -0.6946267 0.31131795 0.2765239 -0.21997476
-0.1309093 0.39710242 0.32981 -0.35968107 0.29443023 0.049317133 0.63127846 -0.7411819
0.30982158 -0.4666954 -0.67901677 0.18655333 0.2957824 0.22441253 -0.3669349 0.3200217
0.56770915 -0.26046717 0.29096782 0.2523665 0.40625507 0.09546784 -0.6411298 0.0932463
0.2675139 0.3159036 0.73863524 -0.13499513 0.2417067 -0.90322345 0.2984411 -0.20655644
-0.8103575 0.7752586 0.78143406 -0.8666702 0.27877697 -0.09976638 -0.25203496 -0.15834738
0.3651236 -0.07862791 0.36225435 -0.010043627 0.5618301 -0.80482984 -0.8200657 0.30314097
0.28857902 -0.15056622 -0.30935442 -0.010282268 0.88477176 -0.23567088 -0.35936865 0.2810734
-0.7858354 0.25750244 -0.7376988 -0.010173847 -0.2167037 0.20373341 -0.14099099 0.36823604
-0.44318315 1.3303447 0.5639881 -1.052724 -0.2808579 0.22080034 0.18319914 0.0031878497
0.4153459 -0.045480486 -0.24670702 0.3507494 -0.5961495 0.40841308 0.012041878 0.20605806

layers.0.fc.bias f4 [64]
00000000: bc9e 26bf 0cea 87bf 1ea0 05bf d603 113f
00000010: 6f76 5cbf cdcf 873e 430c 9e3f 2968 febe
00000020: a5cf 2abf 1cd3 5fbe c4d7 51be dcc7 8b3f
00000030: 48cd 663f 758f b53f bbae a33f afa6 7dbd
00000040: df75 abbf 07fa 3bbf b96c 913f 2a3d 16be
00000050: 39c1 25bf b537 92bf b029 96bf dede b6bf
00000060: c366 49bf 0f90 973f b4f1 903f 73df abbf
00000070: ab41 8c3f 309a 79bf 86e7 fabe cc96 89bf
00000080: e376 febe 42e8 29bf 00c6 8cbf 33d7 afbf
00000090: 6f5e 17bf e57f 07be c3bf 32bf 9713 733f
000000a0: fbf3 adbf f9e2 8abe 3039 7a3f 305c 36bf
000000b0: e12f 8a3f 4a05 323f 5311 ffbf a4cf 7d3f
000000c0: a859 0bbf af88 86bf 3d6b 8f3f a7a0 96bf
000000d0: 2004 983e 1d85 e7bd 9ee6 6e3f cacf 393f
000000e0: bacc a43f c49b 403f 2200 86bf 5659 4bbf
000000f0: ecfe 98bf e20a 713f 05a3 933f b30a 693f
-0.6508596 -1.06183 -0.52197444 0.5664648 -0.86118215 0.26525727 1.2347492 -0.49688843
-0.6672309 -0.21857876 -0.20492464 1.0920367 0.90156984 1.4184405 1.2787699 -0.06192654
-1.3395346 -0.73428386 1.1361305 -0.1467177 -0.6474796 -1.142325 -1.1731472 -1.4286764
-0.78672427 1.1840838 1.1323762 -1.3427566 1.095754 -0.97500896 -0.49004763 -1.0749145
-0.49700078 -0.6637002 -1.0997925 -1.3737549 -0.5912847 -0.13232382 -0.69823855 0.94951767
-1.3590082 -0.2712629 0.9774351 -0.71234417 1.0795861 0.6953932 -1.9927162 0.9914496
-0.5443368 -1.0510463 1.1204602 -1.1767777 0.29690647 -0.11304686 0.93320644 0.72582686
1.2874978 0.7523768 -1.046879 -0.7943319 -1.1952796 0.9415723 1.1534125 0.9103195

layers.1.fc.weight f4 [64, 128]
00000000: 0d82 32bd 4cf2 563d b106 123e 0ed5 05be
00000010: 4c45 15bd e09f 723e fdde 923d 8e04 203e
00000020: 1dba 1abe 438e 303e eed3 87be 282d 1f3d
00000030: 9961 f8bc 7a63 ca3d 344d 843d 0c66 b33e
00000040: a36d 4a3d a77b df3d 2b87 073e f120 1abe
00000050: 2196 f2bd 32c9 b3bd 3d8e 493c 85f9 d9bd
00000060: df52 933d c95f 05be 94a1 1bbc db4b 34be
00000070: cc9e a9bc 7ae9 093e 1a5c 94bd 9340 c13d
00000080: f30d 32be 1e22 c0bd fbfd 2cbe 8e23 913b
00000090: 9459 e3bd 9543 ecbd bdc0 04be 4c39 793d
000000a0: c589 a0bc 02de f1bd 8bb2 0c3d e580 113d
000000b0: b37a 1d3d 557e 56be 825f 15be 4fe5 003e
000000c0: 2cca aebd 6f6b 193e 88b2 66bd 0b95 0a3d
000000d0: 3562 1c3e 5c05 d93c 6673 0f3e 3280 933d
000000e0: 4ca4 f13d f98e 8cbd d83a 9c3d c99f c0bd
000000f0: d60f 53bc 4959 a33d 57d0 4c3d e1a3 fc3b
00000100: 6dcf cfbd a12c 5e3a 3ce8 85bd 665d a3bd
00000110: eeac 82bd d094 883d b16a 33bb da5a 97bc
00000120: 45f4 0d3b 69aa c0bd e813 d6bb cbcf 093d
00000130: edb1 a23d eb61 373d 36e2 c4bd daa9 97bd
00000140: b605 debd b48d e3bc a302 babd dd70 8d3d
00000150: c18a fc3d 4122 70bd 0520 56bc 2adc db3a
00000160: 8ee1 c7bc 958f d0bc 2f03 1abd 63e1 f13d
00000170: fe1a 083d ecbe 7f3d 1a78 d0bb 700d 92bc
00000180: ed11 313d eeb9 89bb 286c 29bd 0471 813c
00000190: e1c4 db3c db5f 483e 8438 95bb 9901 fabc
000001a0: c495 873d 75b5 ea3d 004d 563d 4f90 7bbd
000001b0: e902 a9bc 4043 5c3d 07c9 6abd b5eb 4dbd
000001c0: 06ae 933c 10c2 fbbd 8052 f73c 6764 2d3c
000001d0: 417d 2cbe 683a ffbd 1f0e 89bd 08c5 7fbc
000001e0: 688d 9fba cbfc cbbc cd60 fcbb fb34 1c3d
000001f0: 40d5 bcbc d5ca a13b 7b61 93bc 4154 da3c
00000200: 293f e83c 55df 113e f3be 393e 08c8 36bb
00000210: 6ad0 aa3d f5d7 7a3e 8908 803d 5487 3f3e
00000220: cccf 59bd 1f35 8e3d 6f52 83be 28eb 46bd
00000230: 39d4 dc3d 60a7 d2bd 6631 3ebd bea4 943e
00000240: b801 363e 32dd 873e 6507 d03d 0468 89bc
00000250: 5fcc 6cbd bb11 5ebd 52a2 503e 6d17 053d
00000260: 3130 233e f318 cebd 8f62 5dbd a840 263d
00000270: 079f bebd 56cc 1f3e 41e3 bbbd ba49 963e
00000280: 0a9e 83bd 4e49 0cbd 94a6 00bc c47e 323e
00000290: d88f b9bd 14d5 04bd 5071 0abe ce4f 65bc
000002a0: f33b 143e bf24 40be 5de1 adbd d819 d73d
000002b0: ee2b 143d ece6 5abd 3e32 863d b83d 89bd
000002c0: fe4a f1bd 702d 333e 56ef 6fbe 264a e63d
000002d0: d85c f03a c09c be3d 9ec4 5ebd d02d 6b3b
000002e0: f3ed d53d 5df9 5dbe 9b87 433e bef5 e63c
000002f0: c3a3 673d 6065 ab3b 3276 4a3d 4a7c d43d
00000300: b520 8a3c e510 ea3d 150c f33c dda3 953d
00000310: 16ee 18bd 3259 71bc a0d5 d93c 34ad 1fbd
00000320: 2fea c7bc 1afc 1fbf 1045 cc3b 888d 8b3d
00000330: ec3e 9b3d 7835 f8bc 60c0 9fbc 34ee cc3c
00000340: 64b4 4c3d 1755 fbbc 092f c2bc 7237 c93d
00000350: 298c 913c d36d 96bd 7436 0b3b cafd 883d
00000360: 8171 28bd 46fa 833c 9956 68bd 127b 2dbd
00000370: 1db3 723d 6fce bfbd cc0a 2abd 2792 b6bb
00000380: c572 2fbd 73ee c2bb b7a3 d53c f84c 123d
00000390: c5e8 c53c 9c28 ea3d 3b4b c8bc d26a 8d3c
000003a0: e2ee 85bd aeef 743e 8971 f1bc ca0e 56bd
000003b0: 4bdb 94bd e538 a03c 7844 7bbd 2cbf 0b3e
000003c0: db5b c53d f48f b13c 3c74 4e3d 48b0 adbb
000003d0: dce8 27be ec6a c7be e02c 423d 6517 94bd
000003e0: b753 73bd 14ec 063c c2be 923b fc83 7e3d
000003f0: 7392 99bd fd66 9a3d 9ae0 20bb 049d 3a3d
-0.043581057 0.052477166 0.14260365 -0.13069555 -0.03644304 0.236938 0.07171438 0.15626737
-0.15110059 0.17241769 -0.26528877 0.038861424 -0.030319976 0.09882255 0.06460038 0.35038793
0.049420964 0.10912257 0.13235156 -0.15051629 -0.11845041 -0.08778609 0.012301979 -0.10643295
0.07193541 -0.1302482 -0.009498972 -0.17607062 -0.020705603 0.1346797 -0.072441295 0.09436145
-0.17388134 -0.09381507 -0.16893761 0.0044292873 -0.1110107 -0.11536328 -0.12964149 0.06084566
-0.019596944 -0.11809923 0.03434996 0.035523314 0.038447093 -0.2094663 -0.14587215 0.12587474
-0.08534655 0.14982389 -0.056322604 0.033833545 0.15271838 0.026491813 0.14008865 0.07202186
0.11798915 -0.06863207 0.07628411 -0.094054766 -0.012882194 0.07976014 0.050003376 0.0077099656
-0.10146985 0.0008475278 -0.06538436 -0.07976799 -0.0638064 0.06669009 -0.0027376825 -0.018475939
0.0021660489 -0.09407503 -0.0065331347 0.033645432 0.07944093 0.044771116 -0.09613459 -0.074054435
-0.10840933 -0.02777753 -0.09082534 0.069062926 0.12331153 -0.058626417 -0.0130691575 0.0016773988
-0.024399545 -0.02545909 -0.037600692 0.11810567 0.033228867 0.062437937 -0.0063619735 -0.017828673
0.043229986 -0.0042030727 -0.04136291 0.01580096 0.026827278 0.19567816 -0.0045538563 -0.03051834
0.066203624 0.114603914 0.052319527 -0.06141692 -0.02063127 0.053775072 -0.05732062 -0.050273616
0.018027317 -0.12292874 0.030190706 0.01058302 -0.16844656 -0.12462312 -0.066921465 -0.015610941
-0.001217288 -0.024900815 -0.0077019692 0.038136464 -0.023050904 0.0049375095 -0.017990818 0.026651504
0.02835043 0.1424535 0.18139248 -0.0027890224 0.08340533 0.24496444 0.06251628 0.18703967
-0.053176686 0.06943726 -0.2564883 -0.048564106 0.10782666 -0.102858305 -0.04643383 0.29031938
0.17774093 0.26535946 0.101576604 -0.016773231 -0.05781209 -0.054216128 0.2037442 0.032493044
0.15936352 -0.100633524 -0.05404907 0.040589005 -0.09307676 0.15605292 -0.091742046 0.29353124
-0.06426628 -0.034249596 -0.007852215 0.1743117 -0.09060639 -0.03242977 -0.13519788 -0.013996078
0.14475994 -0.18764018 -0.0849025 0.10502976 0.036174707 -0.05344288 0.06552552 -0.06701225
-0.11781882 0.17497802 -0.23431143 0.112446114 0.0018338216 0.093072414 -0.054386728 0.003588546
0.10445776 -0.21677156 0.19094698 0.02819335 0.05655266 0.0052305907 0.049429126 0.10375269
0.016861299 0.114290036 0.029668847 0.07306645 -0.03733643 -0.0147307385 0.026591122 -0.03898354
-0.02440366 -0.6249405 0.006233819 0.06814104 0.07580361 -0.030298933 -0.019500911 0.025015928
0.04997672 -0.030680222 -0.023704069 0.098250285 0.017767029 -0.07345166 0.0021242173 0.066890314
-0.04112387 0.01611055 -0.05672321 -0.042353697 0.059252847 -0.09365546 -0.041514203 -0.005571622
-0.042834062 -0.0059488355 0.026079042 0.035717934 0.024158845 0.11433527 -0.024449935 0.01726285
-0.06539704 0.23919556 -0.029473083 -0.052260198 -0.07268389 0.01955838 -0.061344594 0.13647145
0.09636661 0.021675088 0.05040382 -0.0053005554 -0.16397423 -0.38948762 0.047406077 -0.07231025
-0.05940601 0.008234996 0.0044783065 0.06213759 -0.07498636 0.07539175 -0.0024547935 0.045559898

layers.1.fc.bias f4 [64]
00000000: db14 993d 725b 463c f1c9 82be 8501 743e
00000010: 6634 29be c725 b93d 6855 3fbe af8b cdbd
00000020: 5063 e5be 739a 85be 59af ffbb 2ee6 833e
00000030: 5e1f 5d3e d61a e33c 0555 dcbe f43b fe3d
00000040: 66bb 64be 1141 fc3d 2962 21be db8a 84bd
00000050: 09f1 f4bd 1c8d 59bd 6f94 923d 95b3 803e
00000060: 9fe1 85bd 4bd6 68be dc67 57be 0db3 663e
00000070: e7f9 7e3d 8b3c 753e fd47 ee3d 99bb a2bd
00000080: d20c 863e 4a92 d33c bf0e 5fbd 2c6c 4cbe
00000090: 95df 9e3c d099 723e 7258 84bd 35ed b0be
000000a0: 8972 b03e f705 34be bdd2 34bd 753a 3cbe
000000b0: be98 6ebd 95cd f3bd f9c3 68be 416c a9bd
000000c0: 2147 033e 61be 20be 7db4 9fbd cdc7 11bd
000000d0: 4215 0a3d 4f2b 6d3e 043a d83a eefd 9fbe
000000e0: ac66 abbe 0ffa 9c3c 0544 af3e 0314 2f3e
000000f0: d71c ccbd 3aaa e93e 0834 debe edf2 ae3e
0.07474681 0.012106763 -0.25544694 0.23828705 -0.16523895 0.090404086 -0.18684924 -0.10036408
-0.44802332 -0.26094398 -0.0078028855 0.2576155 0.21593997 0.027722757 -0.43033615 0.12413779
-0.22337112 0.12317098 -0.15760101 -0.06471797 -0.11960036 -0.053113088 0.07157218 0.2513701
-0.065371744 -0.22737996 -0.21035713 0.2252924 0.062250044 0.23948877 0.116348244 -0.07945938
0.26181656 0.025826592 -0.054457422 -0.1996314 0.019393722 0.23691487 -0.06462182 -0.34555975
0.34462383 -0.175804 -0.04414629 -0.18381675 -0.058251135 -0.11904446 -0.22731008 -0.08272601
0.12820102 -0.15697624 -0.07798097 -0.035590935 0.03371168 0.23161052 0.0016496782 -0.3124842
-0.3347677 0.019162206 0.34231582 0.17097478 -0.09966438 0.45637685 -0.43399072 0.34169713

layers.2.gsds.0.weight f4 [12, 64]
00000000: 7d72 073d c446 c43d 72cb 64bd 9391 c33c
00000010: 85fb 22bd 355c 97bd 0ac4 89bd 90cc d3bd
00000020: f0f3 9339 5935 703c d24b b8bd 0fde dd3c
00000030: 905c a73d c146 0ebd 4f09 9e3d 6db9 063d
00000040: eeec 93bc 3197 80be 386d d83d 3fe3 07bd
00000050: 7af9 a33c eaea de3b e35c 1b3d ba41 f5bd
00000060: 515e aabb fbcb 2b3e 5175 023b ff63 42bc
00000070: 34e1 a13c 1e44 b43d 60a5 b03a 5ffe fabd
00000080: 33c6 84bd 548d 3a3b 3028 553c b84c babc
00000090: e46c f3bc 0a89 a43d 4740 da3c 6253 213d
000000a0: 4d49 f2ba 4fa7 253d 7c70 b93d 01f7 b0bd
000000b0: b3bb 543d e9b3 06be 60de 093e 92d4 943c
000000c0: 12ec 893d ff06 e3ba 75b5 8dbd 33ff fb3c
000000d0: 7196 5ebd c49c 013c 72fa 8abd bdd3 ea3d
000000e0: d5fe 34bd 56ee 0abd c227 9cbe c5ed 96bd
000000f0: 6563 0dbd dc4a 083e 4cf8 d5bd 7597 bf3b
00000100: 0860 1ebd c30d 39bd 1fef 033d 27ad 87bc
00000110: 1614 d4bc 4ccf b23d 25be b33d 9136 3d3d
00000120: 3c90 8ebb d171 50bb 0fc8 d9b9 3441 ee3c
00000130: 0503 273c 7739 8e3c 016c f83d d278 02bd
00000140: 844e 80bd c1fd 93bd a65e afbc dce8 2d3d
00000150: 7560 e43c 5def 8fbe 2501 a83d 971b d9be
00000160: f4ea 1d3d 0ff0 883e caf3 5d3c 76d1 ad3d
00000170: 01bd c13c 607e 79bb cf9d 95bd 61c9 523d
00000180: a740 3c3d a4e5 2bbd f2f0 773d 2962 0fbc
00000190: c0ad 273c 60b7 ce3b 9c58 8d3c c1f2 a23c
000001a0: b319 a6bc e6c0 58be 672c 4abd 5c08 6bbd
000001b0: 8172 65bd 3650 963c 750b 3b3e b820 843d
000001c0: f5f9 873d 6788 2f3d 2671 0f3d c8e6 24bd
000001d0: 3e75 543d 3bbf a9bc 6889 2e3c e841 85be
000001e0: 679f e83d 804d 1e3d 46b5 553d 60b6 14be
000001f0: 82ec 313d 7792 bf3d 98c6 433d cda8 b73d
00000200: ad78 69bd fc0c db3d cf42 823d 2e5c 063c
00000210: 6bf4 ddbc 94ce 383e 78a0 24bb 0ebc fcbd
00000220: 48f4 6dbd 6cda febb e958 1ebe be37 5b3d
00000230: d0f4 0f3e 034b 3a3d 1132 e6bd cf86 16be
00000240: de02 a43d b85a 8cbe 49ac 863c 3c39 a2bd
00000250: d75a 0fbe c7c6 b4be 75d2 5e3c 2c2a 6ebd
00000260: 6ade ad3d e5dc 90bd cc34 c23a 1a83 51be
00000270: d877 c33d 1338 9fbe 5906 a8bd acc2 03be
00000280: cf00 babc fed2 d93c 55cb 61bd fd49 18be
00000290: 9c5a 31bd 4073 ea3d 9a65 b73c 9233 91bc
000002a0: b007 21be d475 fb3c 1f4c 9bbd 3c17 513e
000002b0: 6386 693d 706c b13c 19fd 2b3e b376 0a3d
000002c0: 7601 053e 6f36 e0bc 0850 afbd 4b3a 61bd
000002d0: 7aab edbb dd64 d03d cc4e 613c d40c 923e
000002e0: 7098 1ebe 7c03 ae3c 5043 b13c ff12 f2bd
000002f0: 9a91 1b3d 8f03 333e 64ba 17be 6b7e 7a3e
00000300: 687d 2f3e 33bd 553d ac1d 53be bed9 05bd
00000310: 462a 5b3d 6ee3 bebd 8367 fe3d f372 b83d
00000320: 3622 e83c 3c3b 8c3d 830c 4d3d 793e 25be
00000330: 595a be3d 9a33 0fbd 1082 8bbc 1525 c13b
00000340: a141 213c 8dc6 eabc 26d5 5d3e a162 0b3e
00000350: f6f9 2cbe 7071 46bd 0c38 36bd d884 873e
00000360: 9da1 163b 2ddc 48be 7720 2fbd 66e9 2d3f
00000370: 8c09 c23d d8db 92be 2def 7c3d ae44 46be
00000380: 9dec 273d 52d1 a53d 32f9 4abc 145c f63d
00000390: 71fb f33d 27dd 3e3e 2aa2 34bd a05b 253d
000003a0: 1b83 5ebe a643 efbc bfcd 09bd 6ae0 e4bd
000003b0: 14d6 53bd 138f 3bba 5840 93bc fafc 68bd
000003c0: 01d0 68be 93b3 89bb 04c9 153e 1e32 ce3d
000003d0: 7de6 6f3e d571 ca3c 150f e9ba ac03 1ebf
000003e0: e15f b53d c68b 71bb 8d90 90bb 6332 6b3a
000003f0: 1fb1 963d 3437 babd 522a dd3d 820f a53d
0.03306817 0.0958381 -0.055858083 0.023873126 -0.03979065 -0.07390634 -0.067268446 -0.103417516
0.00028219773 0.014661157 -0.089988366 0.027083425 0.08171952 -0.034735445 0.07716619 0.03289168
-0.018057313 -0.2511535 0.10567707 -0.033175703 0.02001642 0.0068029063 0.03793038 -0.11975427
-0.0051992317 0.16777031 0.0019906352 -0.011864661 0.019760706 0.08802055 0.001347702 -0.12255549
-0.06483116 0.0028465586 0.01301007 -0.02274166 -0.029715009 0.080339506 0.026641978 0.03938616
-0.001848498 0.04044276 0.09054658 -0.08640862 0.051936816 -0.13154568 0.13463736 0.018167768
0.0673448 -0.0017320811 -0.06919376 0.030761337 -0.05434269 0.007910911 -0.0678605 0.11466167
-0.04418834 -0.0339187 -0.30499083 -0.0736957 -0.034518618 0.13309807 -0.104477495 0.0058469125
-0.0386658 -0.04517914 0.032210466 -0.016562058 -0.025888484 0.08730945 0.087765016 0.046194617
-0.00435069 -0.003180612 -0.0004153852 0.029083826 0.010193591 0.017361386 0.12129975 -0.031853504
-0.06264976 -0.07226134 -0.021407437 0.0424584 0.027878026 -0.28112307 0.08203343 -0.42403862
0.038554147 0.2674565 0.013546893 0.08487217 0.023649694 -0.003806971 -0.0730549 0.05146158
0.045960095 -0.04196705 0.060532518 -0.008751431 0.010234296 0.006308481 0.017254166 0.019891145
-0.020275926 -0.21167335 -0.04935875 -0.05738102 -0.056017403 0.018348794 0.1826609 0.06451553
0.066394724 0.042854693 0.035020016 -0.040259153 0.051869623 -0.020721069 0.010652877 -0.26026845
0.113585286 0.03864813 0.05217483 -0.14522696 0.043438442 0.09354108 0.047796816 0.08967743
-0.05699985 0.10695836 0.06360399 0.008200688 -0.027094087 0.18047553 -0.002512006 -0.12340556
-0.058094293 -0.0077775028 -0.15463604 0.053519957 0.14058232 0.045481693 -0.11240018 -0.14699863
0.080083594 -0.27412963 0.016439574 -0.07921073 -0.13999496 -0.35307905 0.013599982 -0.058145687
0.08489688 -0.07073382 0.001481676 -0.20460168 0.09544343 -0.3109747 -0.08204336 -0.1286723
-0.022705464 0.026589867 -0.055125553 -0.14871974 -0.043299302 0.114477634 0.022387315 -0.017724786
-0.15725589 0.030695833 -0.07582878 0.2041902 0.057012927 0.021658152 0.16795768 0.033804607
0.12988839 -0.027369706 -0.085601866 -0.054987233 -0.0072531076 0.10175488 0.013751697 0.28525412
-0.15487838 0.021241896 0.021638542 -0.118200295 0.037980653 0.17481826 -0.14817196 0.24462287
0.17137682 0.052182388 -0.20616788 -0.03267836 0.053507112 -0.093207225 0.12422087 0.090063
0.028336626 0.068472356 0.05006076 -0.16137113 0.09294576 -0.03496132 -0.017029792 0.005894313
0.009842307 -0.02865913 0.21663341 0.13611843 -0.16892228 -0.048448026 -0.044487044 0.2646854
0.0022984513 -0.1961524 -0.04275557 0.6793426 0.09474477 -0.28683352 0.061751533 -0.19362137
0.040997136 0.08096565 -0.012388514 0.12029281 0.11913193 0.1863905 -0.044099964 0.040370584
-0.217297 -0.029207062 -0.03364348 -0.11175616 -0.051717833 -0.00071548036 -0.017975017 -0.056881882
-0.22735597 -0.004202315 0.14627463 0.10068153 0.23427768 0.024712482 -0.0017780984 -0.6172435
0.08856178 -0.0036856993 -0.004411763 0.0008972047 0.07358002 -0.090925604 0.107990876 0.080595985

layers.2.gsds.0.bias f4 [12]
00000000: 6648 28bd ccc5 2a3d 8e3b 663c 0d85 cabc
00000010: 6bbf a43e 1cac 05be 6e32 c9bd 95fa 303d
00000020: f34b 2e3e 08e2 84bc 5b9c 42be 2591 9fbd
-0.04108467 0.04169254 0.014052285 -0.024721647 0.3217729 -0.13053936 -0.09824072 0.043207724
0.1702116 -0.016221061 -0.19004957 -0.07791356

log_envelope.log_envs.0.weight f4 [12, 1]
00000000: 0867 f23e 966e d13e 0db1 9b3e 1b15 a83e
00000010: 4b68 eb3e 81bd 563f 1045 0d3f f94e 8d3f
00000020: e9b1 563f 4781 463f 86dd 533f ae9e 4a3f
0.47344232 0.40904683 0.30408517 0.32828602 0.45978007 0.8388291 0.55183506 1.1039726
0.8386522 0.7754101 0.8275989 0.79148376

exp_avg f4 [64, 2]
00000000: b3b7 673f 0001 263e 6932 a13f 5ad2 8d3e
00000010: 9f87 3540 455c 143e 9c15 2640 5b8b d83c
00000020: 923b 25bf cb9a e73d dde4 0040 4788 22bd
00000030: 681a cebd be75 bd3d 3f93 dc3f e560 d63d
00000040: 1a17 a3bf 394a cc3d d431 17bf 0924 cfbd
00000050: 8c07 0ec0 ca78 c73d 8c41 3f40 9389 c33b
00000060: cce5 0640 6de2 f4bd 0e6f 3fbf bd6f 88bc
00000070: e765 a43f b6fd 353d c6b3 06be 47dc 343d
00000080: 9cc3 813f e957 b9bd 81eb 1d3e e12f 23be
00000090: cd3a f03e b97b 66be a00e 66bf a33d e93d
000000a0: c54b 2ebf 606e f7bc 0ec5 7ac0 120a 8bbd
000000b0: 4a50 e4bc d864 0f3e e4cb 83c0 9653 57bd
000000c0: cbb5 b240 1467 ae3c 8f5c 59c0 d270 f43d
000000d0: e086 0cbf bb7d 1cbe aaba 40c0 6fca 65be
000000e0: ac25 3abf 1cb1 c1bd 9e3f 463f b777 523e
000000f0: 478b c5bf b591 193d b218 5abf 6b4d d03d
00000100: d2e0 dabd 4f0d 11be 282a ebbf 85ad 4a3d
00000110: 1a47 04bf 7b9e 953c b79e 9a3e 8925 2a3e
00000120: f6db e1be d29f d4bd 70ae 19bf 0fc4 eaba
00000130: ec53 37bf 6479 433e 2d7d 8d3f a40f 81bd
00000140: fd07 ab3c 7830 bb3c a48e 8640 b451 0d3f
00000150: e595 0abf 5d64 7fbc b40a 963e 44d8 6f3e
00000160: cdba de3f 1857 27be 8e4d bb3b b9ff 613d
00000170: 9bce 51bf 38a9 573d 8fd7 953e 5887 09bd
00000180: 8456 6fbf 227f c63c d067 b23f 73bd 073e
00000190: d90e ec3e 69f7 b8bd e95e 973f 6779 b83c
000001a0: a06b 0dc0 1027 35bd 2627 1fbf 3a9b 38bb
000001b0: 9a74 0a40 2083 fdbc d3bc 8040 a91f 713e
000001c0: 1d20 043f 4f29 1c3d baf7 8ebf 1108 cabd
000001d0: 804b c2bf e63d 353c 279e 3dc0 61e7 b83d
000001e0: 05a5 67bf 08d1 2a3e 31f8 0940 1923 2e3d
000001f0: 5b74 323f eb9f 12be 6fb4 5c3f a3fb d5bc
0.9051468 0.16211319 1.2593509 0.27699548 2.8364027 0.14488323 2.595069 0.026433637
-0.6454402 0.11308821 2.0139687 -0.039680745 -0.1006363 0.09250973 1.7232436 0.104677
-1.2741425 0.09975094 -0.59060407 -0.10114295 -2.2192106 0.097398356 2.9883757 0.005967328
2.1077757 -0.1195725 -0.7477883 -0.016654843 1.2843598 0.04443141 -0.13154516 0.044155385
1.013782 -0.09049971 0.15421869 -0.15936233 0.4691986 -0.22508134 -0.89866066 0.113887094
-0.68084365 -0.030203998 -3.9182773 -0.0678903 -0.027870316 0.14003313 -4.118639 -0.052569948
5.5846915 0.021289386 -3.3962743 0.11935581 -0.548933 -0.15282337 -3.011393 -0.22440504
-0.7271373 -0.09457609 0.7744082 0.2055348 -1.5433129 0.037492473 -0.8519393 0.10171016
-0.10687412 -0.14165233 -1.837224 0.049481887 -0.5167099 0.018264046 0.30199215 0.16615881
-0.4411313 -0.10382046 -0.60031796 -0.0017911213 -0.7161243 0.19089276 1.1053826 -0.06301811
0.020877833 0.02285026 4.204912 0.55202794 -0.5413497 -0.015587893 0.2930504 0.23422343
1.7400757 -0.16341817 0.0057160323 0.055175517 -0.8195588 0.052651614 0.2926602 -0.03357634
-0.9349139 0.024230544 1.3937931 0.13255863 0.46105078 -0.09031565 1.1825839 0.022518827
-2.209694 -0.044226706 -0.6216911 -0.0028168694 2.1633668 -0.030946314 4.02305 0.23547234
0.516115 0.038125332 -1.116935 -0.0986482 -1.5179291 0.011062121 -2.9627779 0.09028507
-0.90486175 0.16681302 2.1557734 0.04251394 0.69708794 -0.14318816 0.8621282 -0.026120966

exp_avg_sq f4 [64, 2]
00000000: ab33 3d4c e8c8 7b48 f5e6 514a 14c6 e747
00000010: 2586 164a 5477 3647 e271 124b c84f ac46
00000020: 5a0a b74a 5ea2 cb47 f2f6 f34a 0afc 5e47
00000030: 5987 8649 4f5c 9146 c7d9 da4b a068 3247
00000040: 2731 894c b636 9848 900e f24a b79a 9649
00000050: a7ca fa48 b8f1 3645 e259 eb4a fbae 8248
00000060: b404 414b 6a17 d547 a15d 3d4a 38bb 9c47
00000070: 0477 6f4a e7fa 5046 62f7 3e49 2720 b048
00000080: 2940 ac49 6637 9847 0bde cc47 9307 fc45
00000090: a324 cc46 dd3d b245 d143 7d4d bafe e647
000000a0: b939 0649 887e 5349 a7ba aa4a e5d3 9a47
000000b0: 4383 904a b1a2 1f49 8727 094a e168 0f46
000000c0: 7f4a f84b 20ef 1049 d49f 684a 0184 5447
000000d0: 910c 174a e804 5648 5032 f24b 3295 3348
000000e0: 7343 124a 339a 4a47 59f6 db4a a208 4246
000000f0: c91d 1c4c 9dd7 fb45 53fa 884a a019 b148
00000100: 04bf fc4b 7d6c e449 576f 524a 7afb 8648
00000110: 23e8 ed49 5450 2746 280f cd4a 4d3c 9548
00000120: 3aff b54d 7135 444a fb65 dc4c 53ae 9d49
00000130: 1863 324c 55d8 cf48 9b7a 714a 3cc5 2b49
00000140: 015d c44a 4f5d 8848 3c6f 5a4a 9279 2249
00000150: 85f6 6c4a 9828 0a48 4249 0548 c3fd 0d47
00000160: c3ed 434c 41d8 ac49 1971 1349 6108 6f48
00000170: f98f 9d48 5d18 0944 1575 cc4b 049c 294a
00000180: 1208 2648 8834 f047 f066 554a 0f20 c447
00000190: 9664 da49 343b cc46 d5fc 6747 ba22 2d46
000001a0: bf20 124c 7aeb b949 52ca 904c d151 6f47
000001b0: ca3d e148 4049 1348 4712 264c fef6 5c48
000001c0: 0288 c248 1a48 3046 2170 5c4a a446 a248
000001d0: c3e2 ba48 ca15 0c45 ee44 064b 287b 4f49
000001e0: d92e a545 13db b745 fb29 2749 fb39 0147
000001f0: 4ebc 9f4a 85eb 9847 ab36 5a49 5875 2847
4.9598124e+07 257827.62 3.4390372e+06 118668.16 2.4661852e+06 46711.33 9.59741e+06 22055.89
5.997869e+06 104260.734 7.994233e+06 57084.04 1.1020591e+06 18606.154 2.8685198e+07 45672.625
7.192812e+07 311733.7 7.93172e+06 1.2337509e+06 513621.22 2927.1074 7.711985e+06 267639.84
1.2649652e+07 109102.83 3.1025682e+06 80246.44 3.923393e+06 13374.726 782198.1 360705.22
1.4110771e+06 77934.8 104892.086 8064.947 26130.318 5703.733 2.655675e+08 118269.45
549787.56 866280.5 5.5944515e+06 79271.79 4.7353935e+06 653867.06 2.2471378e+06 9178.22
3.2543998e+07 593650.0 3.811317e+06 54404.004 2.4747882e+06 219155.62 3.1745184e+07 183892.78
2.3963808e+06 51866.2 7.2077245e+06 12418.158 4.0924964e+07 8058.9517 4.4884895e+06 362701.0
3.3127944e+07 1.8712476e+06 3.4477658e+06 276443.8 1.9489324e+06 10708.082 6.71938e+06 305634.4
3.8167533e+08 3.2146842e+06 1.15552216e+08 1.2917224e+06 4.6763104e+07 425666.66 3.9563908e+06 703571.75
6.4344325e+06 279274.47 3.578831e+06 665497.1 3.8824012e+06 141474.38 136485.03 36349.76
5.1361548e+07 1.4159441e+06 603921.56 244769.52 322687.78 548.3807 2.6798634e+07 2.778881e+06
170016.28 122985.06 3.49638e+06 100416.12 1.7890748e+06 26141.602 59388.832 11080.682
3.8306556e+07 1.5230552e+06 7.591182e+07 61265.816 461294.3 150821.0 4.353462e+07 226267.97
398400.06 11282.025 3.6116562e+06 332341.12 382742.1 2241.3618 8.79947e+06 849842.5
5285.856 5883.3843 684703.7 33081.98 5.234215e+06 78295.04 893802.7 43125.344

exp_avg f4 [64]
00000000: e6e1 853e b13e 0bbf 9e23 eabe 15ff 5ebe
00000010: 8208 643d 3cb9 ab3f 3392 293e ab51 1e3d
00000020: 544c a8bd 0c48 473f d4d8 4ebf da57 563f
00000030: 82de 2abf 5d29 013f c653 403f 9559 0f3e
00000040: 899e 3bbf f549 a0be 402b 053f fe5b 83bf
00000050: fe37 8cbf 81e4 e8be 3a12 e9bd 9bea 97bf
00000060: d808 3dbf c22b 913f 5f16 8d3e 3e45 d0bf
00000070: 9a6d b13d 2072 53bf b214 69bf 4609 9b3e
00000080: a19e a5be ffb5 3dbf 8deb d3be 9aca 8fbe
00000090: 2320 f13d ef47 043f 2f51 f5be 91e1 ecbd
000000a0: 662a debe 28a7 db3f 5c78 56be 457b e8be
000000b0: 8170 90bf 443b 263f 3f4f abbe 8df9 343e
000000c0: 6a26 4cbf 21d9 16bf 06ff 273c fb90 e0be
000000d0: 2e0c c7bf 9a83 3d3e c03e 003f 1f9d 553f
000000e0: d86a 133f ee9a 3c3f 8c1c 073f fb53 8f3d
000000f0: bdd2 0fbf 25c7 313f 60c2 b13e d267 07bf
0.2614891 -0.54392534 -0.457303 -0.21776994 0.055672176 1.3415904 0.16559677 0.038652103
-0.082176834 0.7784431 -0.80799603 0.837278 -0.6674577 0.5045374 0.7512783 0.13999017
-0.7328878 -0.31306425 0.5201912 -1.0262449 -1.0954587 -0.45486835 -0.113804296 -1.1868471
-0.7384162 1.1341479 0.2755613 -1.6271131 0.08663483 -0.82596016 -0.91047204 0.30280513
-0.32347587 -0.7410583 -0.41390648 -0.2808426 0.11773708 0.5167226 -0.479135 -0.11566461
-0.43391722 1.7160387 -0.20944351 -0.45406547 -1.1284333 0.6493418 -0.33458897 0.17673321
-0.79746115 -0.5892506 0.010253673 -0.4386061 -1.5550592 0.18507233 0.5009575 0.8344287
0.57584906 0.73673904 0.52777934 0.0699844 -0.56180936 0.69444495 0.3471861 -0.5289279

exp_avg_sq f4 [64]
00000000: 4549 284a 45ec 9a49 2fed f348 1e5f 6648
00000010: 971b 8849 a709 1549 1c4f 4248 3e7f ee48
00000020: 067c 4b4a 7252 494b 769e f446 b7b2 2e4a
00000030: 946d 8e49 1d85 5149 7dad 0b48 c771 6b4a
00000040: d879 4b49 1176 a847 6a50 6e47 c468 9a49
00000050: 145c 0d4b 9efa 4e49 5066 d54a 9db7 bf47
00000060: 02be c14a 0f07 0e49 040c 0f4a 8211 f049
00000070: 416a 0749 a0af 0148 664f a847 05bf 6c4a
00000080: 14ad 984b 7471 344a 9ba8 df47 e67e 474a
00000090: 7725 034c b4c9 524b 86ec 8a4a b89e e54a
000000a0: 2b4a 364a f731 d94a a8af b849 49ce bd48
000000b0: 5d0e 674b 38c4 1f4a 4c39 b745 55bb e24b
000000c0: 868d a049 1b16 8349 6b81 8848 016a e747
000000d0: 5a8a 784b edf6 1f49 abe4 c449 60b2 134a
000000e0: 91a5 eb47 1fed 584a d024 bb46 3bae 0a4b
000000f0: 90c4 7547 56bf ac48 8d6b 4c49 9031 e148
2.7572012e+06 1.2691286e+06 499561.47 235900.47 1.1149949e+06 610458.44 198972.44 488441.94
3.3338895e+06 1.3193842e+07 31311.23 2.8622538e+06 1.1667705e+06 858193.8 143029.95 3.8575218e+06
833437.5 86252.13 61008.414 1.2649205e+06 9.264148e+06 847785.9 6.99268e+06 98159.23
6.348545e+06 581744.94 2.343681e+06 1.9666402e+06 554660.06 132798.5 86174.8 3.8788492e+06
2.001156e+07 2.956381e+06 114513.21 3.2685375e+06 3.4379228e+07 1.3814196e+07 4.552259e+06 7.524188e+06
2.9866348e+06 7.1170515e+06 1.512949e+06 388722.28 1.5142493e+07 2.617614e+06 5863.162 2.9718186e+07
1.3152488e+06 1.0738594e+06 279563.34 118484.01 1.6288346e+07 655214.8 1.6129494e+06 2.419864e+06
120651.13 3.5541198e+06 23954.406 9.088571e+06 62916.562 353786.7 837304.8 461196.5

exp_avg f4 [64, 128]
00000000: 5559 e23e 361e 1b3f 9944 b63e 676f aabe
00000010: 2a20 173f 2faf c5bd d6c0 c6be 8553 8d3e
00000020: 69f0 933e cf8f 043f d70b a63b 5632 00bf
00000030: b9f8 e6be d175 1ebf 5f5b cfbe e08b 623d
00000040: 7298 253f de72 123f d323 e4be e02e 7ebe
00000050: 414e 223e 6706 013f f104 263f e097 0f3f
00000060: 5eb2 ee3e 5dcc 1bbf b2a7 1abf faae ec3e
00000070: 17e0 16bf 1560 223f d6e0 c83d aaa6 193f
00000080: cf6a 81bc daf0 4f3e c8f2 c33e dced 273f
00000090: 0e6a 2a3e d8d3 abbe f4fa b43e 35bc 11bf
000000a0: 2ffe 283f e966 74be add8 12bf 2f9a 023f
000000b0: bdf4 1abf ff1e 08bf a2a2 1f3f 0a92 1bbe
000000c0: 5907 3a3e 210c 183f 14db 29bf 2e0b 1d3f
000000d0: 847e 843e de71 e93e a392 dbbe 515d c4be
000000e0: 95f0 03bf 6b13 0dbf b55f 153f 8e9b ba3e
000000f0: f61a de3e 6b71 dcbe 7e37 bdbe d162 00bf
00000100: 6d50 ad3e dceb c13e 89e8 8f3e 9bff b3be
00000110: 42aa 723e 7658 28be 2073 9cbe 8ba8 8b3e
00000120: aafd 9e3e d7b0 70bd 52c0 f83d d2c3 eebe
00000130: b3f4 ebbe d5c1 bbbe 2990 9dbe da4d 1abd
00000140: bc11 a83e a72e 523e cc02 b3be eef6 9b3d
00000150: 0728 733e 4a71 f03e 3c8a 6a3e 753e ff3e
00000160: 7b6e c63e 47ea d6be 95ed e3be 10d3 a83e
00000170: 076b cbbe 8013 3c3e e7a6 3e3e ea33 b93e
00000180: 71a8 3d3e 0fbd 7a3e 9dfb a63e 0d59 a03e
00000190: 16a7 633e 5717 e23d 9855 b53e efa2 bcbe
000001a0: 2556 5f3e 2acb 223e 3463 cbbe a263 a73e
000001b0: 92dc c0be 4ff4 79be 8a13 e13e 8eab 71be
000001c0: 17d3 723e 91b3 d03e a746 1bbe 4ce8 cd3e
000001d0: 1730 14be aa27 63bd 13c4 d1be 0ea1 c9be
000001e0: 7565 d0be affc efbd a2d7 d33e 1bf1 bc3e
000001f0: 567d b33e 0b4a cdbe 1d3c 99be 6207 ffbe
00000200: 700f bc3d 2aa9 b73d c2e3 a43d 82b5 babd
00000210: f97f b63d 465e 7ebd eb39 2abe 251a a93d
00000220: 265c eb3d 4531 d5bd 5715 833d fe64 18be
00000230: 5eee 07be c35e 1bbe 5769 2dbe 70d3 cc3c
00000240: a9b9 1a3e 9cff 5d3d 409a 27be 6a96 223d
00000250: e085 143e d7ba 1d3e 153d 083e 742b 293e
00000260: a912 e73d 67ed 13be 582d f0bd bfb8 2f3e
00000270: ac6c 10be 17f0 d83d df66 be3d 7b1a 083e
00000280: e721 0e3e d6d3 e13d 4b25 1d3e c29f ef3d
00000290: f66d c73d ea58 ea3d cc13 d83d 69fb f1bd
000002a0: 67aa 433e 2035 243e 818c edbd ae04 8d3d
000002b0: f623 eebd ef04 8dbd e89f 333e a6d4 2cbe
000002c0: 8777 ec3d c688 e43d bda6 13be 8dc6 0e3e
000002d0: 5af5 16be 4aec 4abd e911 12be 1e8b edbd
000002e0: 0da3 24be e1cc c9bd 7c71 043e c2de 033e
000002f0: 124a 243e a430 14be 4080 2bbe 8b4a f7bd
00000300: a66d a73d 53f0 5c3d dc7a 9b3d 8b8e a4bd
00000310: 3793 193d 1763 17bd ef5c 87bd cd8b a93d
00000320: fe77 a13d 779b 58bc 7b40 fa3c 7c1d c4bd
00000330: 0347 f7bd 15d6 87bd a20a 91bd 3d8d 463c
00000340: 898e 523d f0f4 e93c 5fe3 87bd cdeb bb3c
00000350: f0e4 7d3d 2fe4 df3d 76db 363d 355b ed3d
00000360: 95b8 d23d 45a8 b3bd 0cd7 a8bd 22dc 983d
00000370: 9fc0 b0bd bd27 1e3d 5d43 2f3d 2260 8a3d
00000380: 24ff 643d 0059 5d3d 3be8 863d 5ce0 443d
00000390: a2d5 4d3d c789 143d 173b 4a3d 7007 96bd
000003a0: dce0 403d eec1 653d adaf a1bd ff3b 563d
000003b0: 7a32 83bd bb2a 17bd 73fb 8a3d d480 a1bd
000003c0: 4320 623d a469 953d 0d69 36bd 062e 9e3d
000003d0: 8034 4ebd e459 82bc 7b8a c3bd 4355 b1bd
000003e0: 54fb 5abd 4686 9dbc 18f8 b33d c1f0 bc3d
000003f0: 570a 913d ee53 b2bd 459a 93bd fede f8bd
0.4420878 0.60592973 0.3559921 -0.33288118 0.59033453 -0.09652554 -0.38818997 0.27602783
0.28894356 0.51781934 0.0050673294 -0.50076807 -0.45111635 -0.61898524 -0.40499398 0.055309176
0.6468574 0.57206523 -0.44558582 -0.24822569 0.15850164 0.50400394 0.6485129 0.5609112
0.46620458 -0.6085871 -0.6041213 0.46227247 -0.58935684 0.6342786 0.09808509 0.60019934
-0.015798 0.20306721 0.38271165 0.6559732 0.16642019 -0.3356006 0.35347712 -0.56927806
0.66012853 -0.23867382 -0.5736187 0.51016515 -0.6052969 -0.53172296 0.6235753 -0.15192428
0.18166865 0.5939351 -0.6634991 0.61345184 0.25877774 0.45594686 -0.42885312 -0.38352445
-0.51538974 -0.55107754 0.5834916 0.36446804 0.43379945 -0.4305528 -0.369564 -0.5015078
0.33850423 0.3787526 0.28107098 -0.3515595 0.2369776 -0.16439995 -0.30556583 0.27277026
0.31052905 -0.058762398 0.12146057 -0.46633774 -0.46085128 -0.3667132 -0.30774048 -0.0376719
0.3282603 0.20525609 -0.3496307 0.076154575 0.23745738 0.46961433 0.22904295 0.49852338
0.38756165 -0.41975614 -0.44517198 0.32973528 -0.39730093 0.18366814 0.18618356 0.3617242
0.18521287 0.24486183 0.3261384 0.3131794 0.22231707 0.11039608 0.35416865 -0.36843058
0.21810205 0.15897813 -0.39724123 0.326932 -0.37668282 -0.24409603 0.4396022 -0.23600599
0.23713337 0.40761998 -0.1516367 0.4021629 -0.1447147 -0.05545775 -0.40969905 -0.39380687
-0.40702406 -0.117181174 0.41375452 0.369027 0.3505656 -0.40095553 -0.29928675 -0.4981032
0.09182632 0.08967812 0.08051254 -0.09116651 0.089111276 -0.062101625 -0.16623656 0.0825694
0.11492185 -0.10409788 0.064005546 -0.14882275 -0.13274524 -0.15172867 -0.16934715 0.025003165
0.15109886 0.054198846 -0.16367435 0.039694227 0.14504194 0.15403305 0.13304551 0.16520482
0.11282856 -0.1444603 -0.11727399 0.17160319 -0.14103955 0.105926685 0.09296965 0.13291351
0.1388012 0.110267326 0.15346257 0.11700393 0.0973777 0.1144274 0.10550651 -0.11815531
0.19107972 0.1603589 -0.115990646 0.06885658 -0.11627953 -0.06885707 0.17541468 -0.16877994
0.115462355 0.111589 -0.14419074 0.13942929 -0.14742032 -0.04954175 -0.14264645 -0.115988
-0.16077824 -0.09853531 0.12933916 0.12877944 0.1604388 -0.1447168 -0.16748142 -0.12074765
0.08175211 0.05394013 0.07591793 -0.080350004 0.03749391 -0.036959734 -0.066095226 0.08278618
0.07884215 -0.013220659 0.030548325 -0.09575936 -0.12074091 -0.0663263 -0.07082106 0.012118635
0.051405463 0.028559178 -0.066351645 0.022939587 0.06198591 0.109321944 0.044642888 0.11589662
0.102891125 -0.08772329 -0.08244142 0.07463862 -0.086304896 0.038612116 0.042788852 0.06756617
0.055907384 0.054039955 0.06587263 0.04806553 0.050252564 0.036264207 0.04937276 -0.07325637
0.047089443 0.05609315 -0.078948356 0.05230331 -0.06406112 -0.036905985 0.067862414 -0.078859
0.05520655 0.0729554 -0.044533778 0.07723622 -0.050343037 -0.015912004 -0.095478974 -0.086588405
-0.05346234 -0.019229066 0.087875545 0.09225608 0.0708205 -0.087074146 -0.07207159 -0.121519074

exp_avg_sq f4 [64, 128]
00000000: 9ac9 0f4a de74 894a 9ad0 b149 72a0 9f49
00000010: 9232 824a ea94 ab47 8036 8b49 d792 3149
00000020: 2242 2e49 5168 534a 6855 7545 c2b4 304a
00000030: 1c62 074a 4cbc 884a 3830 9649 59fa 1646
00000040: 5e20 964a 0c5d 804a 850a 084a 35c3 c949
00000050: 3d36 d147 3057 294a 0853 974a d651 524a
00000060: 79e1 174a 8f20 854a 8c78 864a 5670 e949
00000070: 91d3 784a d072 924a 3ae5 9645 ac7d 824a
00000080: dd44 fa47 2f04 4948 f0ae 9949 db9a 9a4a
00000090: 89c5 ae47 13da 054a 4300 d849 8b79 6d4a
000000a0: 0ea6 9b4a ff19 6d49 6070 724a d01e 4e4a
000000b0: 938d 864a 7ec0 5b4a 5037 834a 4d6b 2044
000000c0: aab9 5b48 df8d 824a 3ca7 9c4a 25e7 874a
000000d0: 645d c249 efa1 464a f758 eb49 bca0 cf49
000000e0: 9b29 4f4a f26b 5c4a 3c84 774a cf98 9d49
000000f0: 0700 d049 6fd9 f149 0109 7f49 8ae8 374a
00000100: 7b01 b049 ab6e 064a de78 5d49 bed5 ba49
00000110: 94ed 7c49 018c a648 66f1 9449 8fc9 2e49
00000120: 19f8 8349 29df 5146 bd32 1748 e09d 2f4a
00000130: 440c 154a be99 c449 7a86 9549 725c 8147
00000140: 501b c449 b177 6349 b82a e549 e8da 6744
00000150: 105a 0e49 d0f8 294a aea5 5c49 97be 424a
00000160: f6d9 d249 3f3a 0f4a e32b 284a 16e7 bb49
00000170: 9879 fb49 1848 2849 53f1 9448 4881 e349
00000180: 2af8 5248 710f 1b49 e918 ad49 890e c549
00000190: 51c5 e648 7fe6 0245 bbad ee49 d2b0 e049
000001a0: 28f9 3149 4a9f 8e47 0869 054a 719b c649
000001b0: 9fa5 004a c72e 7c49 77ff 3b4a 5bdc c048
000001c0: a1ad 1f49 95a2 114a d42d 0049 fc35 094a
000001d0: 7701 d646 31e1 a646 66a6 004a 4d19 f149
000001e0: 579d 234a ccf1 7148 cead 074a aa98 c349
000001f0: 3726 cc49 d26f 004a 43c9 8c49 65d0 354a
00000200: ca42 9d47 7d95 3948 82e1 3447 2637 a247
00000210: dea3 1948 18ab dc46 bf62 4e48 50d5 0847
00000220: 0fb5 a347 bf3d ca41 55a9 9946 4ce5 3a48
00000230: b869 0248 2b94 3348 6e21 5a48 48f8 e345
00000240: 99d6 6348 1f37 1248 6a59 5748 b2b6 d844
00000250: 0521 0248 8d41 3648 db0c 7348 c384 5348
00000260: 6a47 b447 66ba 3048 e628 3748 f43d 6648
00000270: 1919 1c48 fb66 5348 732f 2d47 972a 2648
00000280: 4ee4 bf47 2592 9647 f536 2c48 58f4 7a48
00000290: b9d1 6047 4fa9 b346 f550 1448 4ea0 0e48
000002a0: d728 8e48 fb6f df47 762f 1848 dc7f e547
000002b0: 1cdd 3148 3a5f dc47 b12d 7748 4f57 5348
000002c0: e2d3 9747 63cd 2b48 1d23 9648 2f25 3648
000002d0: 9a7d 9047 0fb9 b144 5da2 1548 0f57 ef47
000002e0: f94b 6548 0e18 7d47 5c19 1d48 ab9e e047
000002f0: 64aa 3d48 db57 1f48 6c0f 5148 908e 0e48
00000300: e44c 8a47 6343 d347 4d07 2e47 36cf 9247
00000310: 88bd 4647 dadd 8246 aa11 6a47 0259 0947
00000320: d665 4f47 9bea 2444 af9c ed45 82fe 0948
00000330: 703c ea47 0d7c 9a47 e2fb 6a47 3f4f 4b45
00000340: 0718 9a47 f4bb 3247 d311 b447 9ef9 3642
00000350: d3b5 df46 0d8f 0548 7160 2d47 5606 1948
00000360: c7ae a547 7a16 e147 c624 0448 91a5 9347
00000370: f999 c547 bb3a 0447 f413 6a46 f8c3 b247
00000380: fcc5 2546 5db0 f346 c703 8847 d8d6 9a47
00000390: d356 b546 5ad0 cd42 138b bb47 f58d b047
000003a0: a4d8 0b47 e921 6045 89a8 d147 d30e 9c47
000003b0: 0c2c ca47 bb27 4647 dfb8 1348 7b8b 9746
000003c0: ebf0 fa46 dbde e447 e36f c946 bfa1 d747
000003d0: 9a2a a844 c521 8344 cb2d ca47 7072 bd47
000003e0: b88f 0048 641e 3e46 a939 d547 10b2 9947
000003f0: 026a a047 f8d7 c947 0040 5d47 49dd 0e48
2.3558145e+06 4.504175e+06 1.4566592e+06 1.3076622e+06 4.266313e+06 87849.83 1.140432e+06 727341.44
713762.1 3.4637002e+06 3925.338 2.8951525e+06 2.218119e+06 4.48055e+06 1.230343e+06 9662.587
4.919343e+06 4.206214e+06 2.2288972e+06 1.6528386e+06 107116.48 2.774476e+06 4.958596e+06 3.4458775e+06
2.4884142e+06 4.3623115e+06 4.406342e+06 1.9123308e+06 4.0767722e+06 4.798824e+06 4828.6533 4.275926e+06
128137.73 205840.73 1.258974e+06 5.0660935e+06 89483.07 2.1930288e+06 1.7694804e+06 3.8907868e+06
5.100295e+06 971167.94 3.97212e+06 3.377076e+06 4.4090335e+06 3.6004155e+06 4.299688e+06 641.6766
224998.66 4.2779995e+06 5.133214e+06 4.4532665e+06 1.5922365e+06 3.2543958e+06 1.9279669e+06 1.7008875e+06
3.3941508e+06 3.6113885e+06 4.055311e+06 1.2910339e+06 1.7039369e+06 1.9812299e+06 1.04462406e+06 3.0131545e+06
1.4418394e+06 2.2025388e+06 907149.9 1.5305518e+06 1.03599325e+06 341088.03 1.2201408e+06 715928.94
1.0810911e+06 13431.79 154826.95 2.877304e+06 2.442001e+06 1.6105518e+06 1.2249112e+06 66232.89
1.606506e+06 931707.06 1.877335e+06 927.4204 583073.0 2.78482e+06 903770.9 3.1906938e+06
1.7272948e+06 2.3466398e+06 2.7553208e+06 1.5392988e+06 2.060083e+06 689281.5 305034.6 1.863721e+06
216032.66 635127.06 1.4180131e+06 1.6142891e+06 472618.53 2094.406 1.9552554e+06 1.8406662e+06
728978.5 73022.58 2.185794e+06 1.6269901e+06 2.1077518e+06 1.03294044e+06 3.0801578e+06 394978.84
654042.06 2.3860852e+06 525021.25 2.248063e+06 27392.732 21360.596 2.1078015e+06 1.9750816e+06
2.6806618e+06 247751.19 2.2229635e+06 1.6023252e+06 1.6723909e+06 2.1043085e+06 1.1533204e+06 2.9788412e+06
80517.58 190037.95 46305.508 83054.3 157327.47 28245.547 211338.98 35029.312
83818.12 25.28015 19668.666 191381.19 133542.88 183888.67 223365.72 7295.035
233306.39 149724.48 220517.66 1733.7092 133252.08 186630.2 248883.42 216595.05
92302.83 180969.6 187555.6 235767.81 159844.39 216475.92 44335.45 170154.36
98248.61 77092.29 176347.83 256977.38 57553.723 22996.654 151875.83 146049.22
291142.72 114399.96 155837.84 117503.72 182132.44 112830.45 253110.77 216413.23
77735.766 175925.55 307480.9 186516.73 73979.2 1421.7831 153225.45 122542.12
234799.89 64792.055 160869.44 115005.336 194217.56 163167.42 214077.69 145978.25
70809.78 108166.77 44551.3 75166.42 50877.53 16750.926 59921.664 35161.008
53093.836 659.6657 7603.5854 141306.03 119928.875 79096.1 60155.883 3252.953
78896.055 45755.953 92195.65 45.743767 28634.912 136764.2 44384.44 156697.34
84829.555 115244.95 135315.1 75595.13 101171.945 33850.73 14980.988 91527.94
10609.496 31192.182 69639.555 79277.69 23211.412 102.90694 96022.15 90395.914
35800.64 3586.1194 107345.07 79901.65 103512.09 50727.73 151267.48 19397.74
32120.459 117181.71 25783.943 110403.49 1345.3313 1049.0553 103515.586 96996.875
131646.88 12167.598 109171.32 78692.125 82132.016 103343.94 56640.0 146293.14

exp_avg f4 [64]
00000000: 9d2c 2dbf a283 35be 0f66 c6bd 6d23 45bc
00000010: 31a1 833e 97eb f03f fdc9 8cbb 47f3 303f
00000020: 6de3 c83f 6297 fbbd 9215 923d ba86 dc3e
00000030: c023 19bd dc49 07bf d2e4 a2bc 7f78 813c
00000040: ac73 36be c290 8bbc dfe0 be3d 842a bf3c
00000050: 192e 34be 90b3 033d 5ce0 00bd 4159 4f3e
00000060: 8ee6 873e a31f 1fbd 0b74 e2be 80cc 0a3c
00000070: 15f8 433e 863e 783e 628c b2be 9c9a 9b3e
00000080: 8b62 d6be e265 d4bd bff3 b83d e051 c73e
00000090: 194c a13e a8b9 5b3d 1a18 51bf fb9c a33d
000000a0: 92c3 843d 11b4 21bd 6f57 0c40 3119 80bd
000000b0: 6778 323d 8e8b 663d 0876 0f3d f439 973e
000000c0: 95cd 82bd 06f0 fc3d 2a14 43bf 7064 aa3d
000000d0: 9d66 223e b54b d5bd d00e a4be b1d6 59bd
000000e0: 6833 54bc f466 1bbe bbf1 15bf b41d 91be
000000f0: a9b3 97bf 48b7 172b 3669 38bc 1b74 633d
-0.676462 -0.17725995 -0.09687435 -0.012032372 0.25708917 1.8821896 -0.00429654 0.6912121
1.5694405 -0.12284733 0.071330205 0.43071538 -0.03738761 -0.52847075 -0.0198845 0.015804527
-0.17817563 -0.0170368 0.093202345 0.023335703 -0.1759571 0.032153666 -0.031463966 0.20248891
0.26543087 -0.03884853 -0.4422916 0.008471608 0.19137605 0.24242601 -0.3487273 0.30391395
-0.41872057 -0.10370995 0.09030866 0.38929653 0.3150337 0.053643852 -0.816774 0.07988926
0.064826146 -0.039478365 2.1928365 -0.06254805 0.043571856 0.056285433 0.035024673 0.29536402
-0.06386868 0.12350468 -0.7620264 0.08319938 0.15859456 -0.104148306 -0.3204255 -0.05318326
-0.012951709 -0.15175992 -0.58571976 -0.28342974 -1.1851703 5.390033e-13 -0.011255553 0.05553065

exp_avg_sq f4 [64]
00000000: c2e5 a14a f86d 7e48 2e19 0842 fc3a 7e41
00000010: ea2d 0244 fc2c db48 292d 6a45 8d13 6d46
00000020: 498d d447 35b0 1649 4064 aa44 7c24 3c48
00000030: 7cb3 2e40 1af7 1549 c244 ce3d fe88 a941
00000040: a19f c543 20f1 023d 3b58 8f42 a9f1 0c49
00000050: c785 5544 d53e 1f44 42a0 2e46 a0f3 c844
00000060: abca 8148 6701 203e bbcf 0e47 e301 813b
00000070: 90de 2044 e272 8543 dc3d 894c 0750 e542
00000080: dd6c c54a c299 384a cfee 8147 28f1 484b
00000090: 667f 2a48 a898 0944 8c18 8449 efa6 f246
000000a0: ac35 a544 ecc5 9d41 c236 2449 d58d 8640
000000b0: c83e 9942 b47d 1b42 f3cd d63e 657c ae49
000000c0: 2c76 ef41 0a40 914b 54de 1549 1626 ee47
000000d0: 19ca 7146 ee4a a24a 522a 8349 a1aa 4140
000000e0: a818 be3d 64ee 7d45 a3a3 0346 75af be43
000000f0: e7cb 234a 930c d51d 4e0e da3e 8ad4 5c3f
5.305057e+06 260535.88 34.02459 15.8894005 520.7174 448871.88 3746.8225 15172.888
108826.57 617219.3 1363.1328 192657.94 2.7297049 614257.6 0.10071708 21.19189
395.2471 0.031968236 71.672325 577306.56 854.0903 636.98175 11176.064 1607.6133
265813.34 0.15625535 36559.73 0.0039369925 643.47754 266.89752 7.195414e+07 114.6563
6.4692305e+06 3.0244965e+06 66525.62 1.3168936e+07 174589.6 550.38525 1.0821295e+06 31059.467
1321.6772 19.721642 672620.1 4.2048135 76.62262 38.872757 0.41954002 1.4293886e+06
29.932701 1.9038228e+07 613861.25 121932.17 15474.524 5.318007e+06 1.0745062e+06 3.0260394
0.092820466 4062.8994 8424.909 381.37076 2.6836418e+06 5.639363e-21 0.4258904 0.8626181

exp_avg f4 [12, 64]
00000000: 3df4 c5be dae2 74bf 2ddd b140 6ad7 84c0
00000010: b05a 8440 fd49 8ec0 a38b 8f3f a136 b83f
00000020: d6dc ad3e 4537 ff3f 4fd0 97bf 3425 13c0
00000030: 9496 f7c0 ecee 8cc0 5c72 aa3f 13ee 8ac0
00000040: 5daf b140 d000 6ec0 a905 323f 866d de3f
00000050: 1f73 c040 e50b 13bf 6290 0840 f86c 12bf
00000060: 2bc6 b940 a614 a63f 5a2f cb3f 9f89 8bbf
00000070: eadd e33e 4ecd 8cc0 d61a 5fbe 3f10 42c0
00000080: 36ab 66bf 9ef5 733f 2c22 9d40 7233 8940
00000090: 7a8f 1d40 bd78 19c0 3274 c040 2734 963f
000000a0: 89ca 6ec0 e59a b940 9ebb 44c0 80df a740
000000b0: 394f cf3e ce1e 083f 7502 e540 c9da a23f
000000c0: ca9c efbf 7f24 6840 6d4d 83bf 31f4 703f
000000d0: 574d 0940 0b1a a2c0 7312 afbf 1e7f ac3f
000000e0: a082 263f 971a 39c0 95e9 16be a76d ccbf
000000f0: cfc1 ad3f 0391 e0c0 773e ae3f 7d0c dbc0
00000100: c7b4 d1bf 881a abbf d43d 41bf ccef 01bf
00000110: f1b5 9cbf a79d 09bf 1884 69be 923e 6cbe
00000120: b7af 343f 435a eabf 9153 8c3f 48d8 4c3f
00000130: 1767 6ebe 1de3 78bf ac66 85bf 2ebc 69bd
00000140: fe15 08bf 23d8 64be cd3f 31bf 2031 74be
00000150: 1c05 f63e bf02 ef3e 4816 65bf b985 143f
00000160: 7bcc dfbd 688f 91bc 2790 0a40 0f85 643f
00000170: b97e 8ebe 6abb 0abf 0fe2 26bf 3cd9 2abf
00000180: 42e9 bf3f c054 b2be 6b34 713e 1605 6abf
00000190: d07d 1640 83b9 3b3f ff85 8f3f 14e4 cabd
000001a0: 1c58 f1be f72f 503f 294d dfbe 5609 60bf
000001b0: f2a4 043e 4ba4 763e a612 a6be 162b b83f
000001c0: e306 6b3f 4fe3 733f 8158 833d eb7d 9abf
000001d0: da31 93bf dc57 14bf 65eb 413f 2153 ccbe
000001e0: 26c1 bcbe c571 a03f c3d2 49be b7f1 4bbe
000001f0: a175 06bf 7ae4 103e a500 89bf d899 0c3f
00000200: 72db e63e 13de ecbe d601 933f 298a b6bf
00000210: 55d7 ae3f ede3 35bf e49b 943f 4c69 573d
00000220: 479a 2c40 9def 00c0 6759 e4be 7aee 7a3f
00000230: 37e7 fd3e a9ee 91be 3fee 083f 3df9 bdbd
00000240: 922d 9e3f d392 4cbf 0f68 6d3e 7c0c 5940
00000250: 095e b03e bb02 7e3e 4616 5fbe 69d2 20bf
00000260: 6f27 443f 6dec 683e 19f2 f33e f53c 83be
00000270: 8e80 abbe 6ca7 69bf d5d4 ab3e edcc 703f
00000280: 87c7 4d3e 72f6 c53e 43c9 2a3f c048 153e
00000290: 866d 43c0 c9d9 c73e 6949 ff3f 56cc 0c3f
000002a0: 70ba b4bf 07a5 e23f 35c7 9a3c bb3c 943f
000002b0: 5f36 1c3f 4464 553f ce22 293f 0661 20bf
000002c0: 7eff 3dbf c4c5 853d 50ec 21bf 1718 e03e
000002d0: f371 353f 3eba 0abf 4145 dfbe c4e8 f53e
000002e0: 6f42 be3e 685a 0dbf 67a8 27be f608 a23f
000002f0: 6493 503f 7736 79bf 01a5 de3e 93e9 b1bf
00000300: bcb1 4a40 26d0 1640 f1d6 8340 6de3 63c0
00000310: a2b6 7a40 8c72 b0bf 9c6a 1c40 56f8 66be
00000320: 9cd4 7d3e f918 1140 e3a2 cdbf 1434 01c0
00000330: 46f2 2dc0 b72c 743e 88a1 e53f 2df0 e2bf
00000340: b3f2 a240 76a6 2ebf c4a4 933f b266 7040
00000350: 9094 f33f 36e1 efbe a798 3b40 6c1c c6bf
00000360: 0aaa 5340 f1dd be3d 3a51 8d3e 2433 d5bf
00000370: 4e55 d8be 6de5 88bf 38dc c43f 08a8 883e
00000380: 66a1 6ebf 8f9f ed3f 821d 3040 cee4 3540
00000390: d65f 86c0 ddba 44c0 c028 8940 d03a 99be
000003a0: 8506 b0bf 4fbb 0240 9c88 e03d dc15 a240
000003b0: 986c 283f 5363 813e 399b 5f40 5b5a 5dbf
000003c0: 1f72 42c0 d650 d7be 11e9 2bbf 8e49 5d40
000003d0: 09de 6b40 9134 20bf d421 1cc0 5785 bb3f
000003e0: 415e 5d3f 429c 20c0 96d1 373f e89f 95be
000003f0: d5e7 3240 84a1 64c0 bf29 ee3f fcaa 85c0
-0.38662902 -0.9565865 5.558249 -4.1512957 4.1360703 -4.446532 1.1214489 1.4391671
0.33957547 1.9938742 -1.1860446 -2.2991457 -7.737131 -4.4041653 1.331615 -4.341562
5.5526567 -3.7187996 0.69539887 1.7377174 6.014053 -0.57440025 2.1338124 -0.57197523
5.8054404 1.2975051 1.5873826 -1.0901374 0.44505244 -4.4000616 -0.21787581 -3.0322416
-0.90105 0.9529666 4.9104214 4.28753 2.461882 -2.3979943 6.014184 1.1734666
-3.7311118 5.800158 -3.0739512 5.2460327 0.4049013 0.53172004 7.15655 1.2723018
-1.8719723 3.6272275 -1.0258003 0.94122607 2.1453454 -5.065679 -1.3677505 1.3476293
0.6504307 -2.892248 -0.14737542 -1.5970963 1.3574771 -7.0177016 1.3612813 -6.8452744
-1.6383294 -1.3367472 -0.7548497 -0.50756526 -1.2243024 -0.53756183 -0.22804296 -0.23070744
0.7058062 -1.8308796 1.0963002 0.8001752 -0.23281513 -0.9722155 -1.0421958 -0.057064228
-0.5315856 -0.22348075 -0.6923798 -0.23846865 0.48050773 0.46681783 -0.89487123 0.58016545
-0.109276734 -0.017768577 2.1650484 0.8926553 -0.27831057 -0.5419222 -0.6518869 -0.66737723
1.499306 -0.34830284 0.23555152 -0.9141401 2.351429 0.73329943 1.1212767 -0.09906784
-0.47137535 0.8132319 -0.43613556 -0.87514246 0.12953547 0.2408611 -0.32436103 1.4388149
0.91807383 0.9526872 0.06413365 -1.2069677 -1.1499588 -0.5794656 0.7574981 -0.39907172
-0.3686611 1.253472 -0.19709305 -0.19916426 -0.5252324 0.14149657 -1.0703322 0.54922247
0.45089298 -0.4626318 1.1484935 -1.4260913 1.3659464 -0.7105091 1.1610074 0.052590653
2.6969163 -2.0146248 -0.4459946 0.98020136 0.49590465 -0.28502396 0.53488535 -0.09276054
1.2357657 -0.79911536 0.23184226 3.391387 0.34446743 0.24805729 -0.2178584 -0.6282106
0.7662267 0.2274644 0.47645643 -0.25632444 -0.33496517 -0.9127109 0.33560815 0.9406269
0.20095645 0.38664585 0.6671335 0.14578533 -3.0535598 0.39033344 1.9944278 0.5499929
-1.4119396 1.7706612 0.018893817 1.1581033 0.61020464 0.8335612 0.6606873 -0.62648046
-0.74217975 0.065318614 -0.6325121 0.4376838 0.70877 -0.54190433 -0.43607524 0.4802915
0.3716006 -0.55216074 -0.16372834 1.2658985 0.814749 -0.9734873 0.43485263 -1.3899406
3.167098 2.3564544 4.119988 -3.560756 3.917397 -1.3784957 2.444007 -0.2255567
0.24788135 2.2671492 -1.6065334 -2.0188036 -2.7179122 0.23845182 1.793992 -1.7729546
5.0921264 -0.6822275 1.1534657 3.756268 1.9029713 -0.4685151 2.9311922 -1.5477424
3.3072534 0.09319676 0.27601033 -1.6656232 -0.42252582 -1.0695015 1.5379705 0.26690698
-0.93215024 1.8564318 2.751801 2.8420901 -4.1991987 -3.0739052 4.2862244 -0.29927683
-1.375199 2.0426824 0.10963556 5.0651684 0.657907 0.2527109 3.493849 -0.86465997
-3.0382154 -0.4205386 -0.67152506 3.4576144 3.685427 -0.6258021 -2.4395647 1.4650067
0.86471945 -2.5095372 0.7180418 -0.2922356 2.7954 -3.5723581 1.860649 -4.177122
