analysis/PHYS_A12_H064_L02_D01_Tanh_W4096_P010000_V-2.00e+01_S5.00e-01_Adam_PT_False_device_cuda_dtype_float32.npz (npz, 668732 bytes, 12 tensors)

V0 f8 []
0	0xc034000000000000	-20.0

rms f8 []
0	0x3ff88137948ac372	1.5315471460746406

density_xx f4 [250]
0	0xc0bf3b64	-5.976
1	0xc0bdb22d	-5.928
2	0xc0bc28f6	-5.88
3	0xc0ba9fbe	-5.832
4	0xc0b91688	-5.7840004
5	0xc0b78d50	-5.736
6	0xc0b60418	-5.6879997
7	0xc0b47ae2	-5.6400003
8	0xc0b2f1aa	-5.592
9	0xc0b16872	-5.5439997
10	0xc0afdf3c	-5.4960003
11	0xc0ae5604	-5.448
12	0xc0accccc	-5.3999996
13	0xc0ab4396	-5.352
14	0xc0a9ba5e	-5.304
15	0xc0a83127	-5.256
16	0xc0a6a7f0	-5.208
17	0xc0a51eb8	-5.16
18	0xc0a39581	-5.112
19	0xc0a20c4a	-5.064
20	0xc0a08312	-5.016
21	0xc09ef9db	-4.968
22	0xc09d70a4	-4.92
23	0xc09be76c	-4.8719997
24	0xc09a5e36	-4.8240004
25	0xc098d4fe	-4.776
26	0xc0974bc6	-4.7279997
27	0xc095c290	-4.6800003
28	0xc0943958	-4.632
29	0xc092b020	-4.5839996
30	0xc09126ea	-4.5360003
31	0xc08f9db2	-4.488
32	0xc08e147b	-4.44
33	0xc08c8b44	-4.392
34	0xc08b020c	-4.344
35	0xc08978d5	-4.296
36	0xc087ef9e	-4.248
37	0xc0866666	-4.2
38	0xc084dd2f	-4.152
39	0xc08353f8	-4.104
40	0xc081cac0	-4.0559998
41	0xc0804189	-4.008
42	0xc07d70a4	-3.96
43	0xc07a5e36	-3.9120002
44	0xc0774bc6	-3.8639998
45	0xc0743958	-3.816
46	0xc07126ea	-3.7680001
47	0xc06e147b	-3.72
48	0xc06b020c	-3.672
49	0xc067ef9e	-3.624
50	0xc064dd2f	-3.576
51	0xc061cac0	-3.5279999
52	0xc05eb852	-3.48
53	0xc05ba5e4	-3.4320002
54	0xc0589374	-3.3839998
55	0xc0558106	-3.336
56	0xc0526e98	-3.288
57	0xc04f5c29	-3.24
58	0xc04c49ba	-3.192
59	0xc049374c	-3.144
60	0xc04624dd	-3.096
61	0xc043126e	-3.0479999
62	0xc0400000	-3.0
63	0xc03ced92	-2.9520001
64	0xc039db23	-2.904
65	0xc036c8b4	-2.856
66	0xc033b646	-2.808
67	0xc030a3d7	-2.76
68	0xc02d9168	-2.712
69	0xc02a7efa	-2.664
70	0xc0276c8c	-2.6160002
71	0xc0245a1c	-2.5679998
72	0xc02147ae	-2.52
73	0xc01e3540	-2.4720001
74	0xc01b22d1	-2.424
75	0xc0181062	-2.376
76	0xc014fdf4	-2.328
77	0xc011eb85	-2.28
78	0xc00ed916	-2.2319999
79	0xc00bc6a8	-2.184
80	0xc008b43a	-2.1360002
81	0xc005a1ca	-2.0879998
82	0xc0028f5c	-2.04
83	0xbffef9dc	-1.9920001
84	0xbff8d4fe	-1.944
85	0xbff2b020	-1.8959999
86	0xbfec8b44	-1.848
87	0xbfe66666	-1.8
88	0xbfe0418a	-1.7520001
89	0xbfda1cac	-1.704
90	0xbfd3f7ce	-1.6559999
91	0xbfcdd2f2	-1.608
92	0xbfc7ae14	-1.56
93	0xbfc18938	-1.5120001
94	0xbfbb645a	-1.464
95	0xbfb53f7d	-1.416
96	0xbfaf1aa0	-1.368
97	0xbfa8f5c2	-1.3199999
98	0xbfa2d0e6	-1.2720001
99	0xbf9cac08	-1.224
100	0xbf96872b	-1.176
101	0xbf90624e	-1.128
102	0xbf8a3d70	-1.0799999
103	0xbf841894	-1.0320001
104	0xbf7be76c	-0.98399997
105	0xbf6f9db2	-0.936
106	0xbf6353f8	-0.888
107	0xbf570a3e	-0.84000003
108	0xbf4ac083	-0.792
109	0xbf3e76c9	-0.744
110	0xbf322d0e	-0.696
111	0xbf25e354	-0.648
112	0xbf19999a	-0.6
113	0xbf0d4fdf	-0.552
114	0xbf010625	-0.504
115	0xbee978d5	-0.456
116	0xbed0e560	-0.408
117	0xbeb851ec	-0.36
118	0xbe9fbe76	-0.31199998
119	0xbe872b02	-0.264
120	0xbe5d2f1a	-0.21599999
121	0xbe2c0831	-0.168
122	0xbdf5c28f	-0.12
123	0xbd9374bc	-0.072
124	0xbcc49ba6	-0.024
125	0x3cc49ba6	0.024
126	0x3d9374bc	0.072
127	0x3df5c28f	0.12
128	0x3e2c0831	0.168
129	0x3e5d2f1a	0.21599999
130	0x3e872b02	0.264
131	0x3e9fbe76	0.31199998
132	0x3eb851ec	0.36
133	0x3ed0e560	0.408
134	0x3ee978d5	0.456
135	0x3f010625	0.504
136	0x3f0d4fdf	0.552
137	0x3f19999a	0.6
138	0x3f25e354	0.648
139	0x3f322d0e	0.696
140	0x3f3e76c9	0.744
141	0x3f4ac083	0.792
142	0x3f570a3e	0.84000003
143	0x3f6353f8	0.888
144	0x3f6f9db2	0.936
145	0x3f7be76c	0.98399997
146	0x3f841894	1.0320001
147	0x3f8a3d70	1.0799999
148	0x3f90624e	1.128
149	0x3f96872b	1.176
150	0x3f9cac08	1.224
151	0x3fa2d0e6	1.2720001
152	0x3fa8f5c2	1.3199999
153	0x3faf1aa0	1.368
154	0x3fb53f7d	1.416
155	0x3fbb645a	1.464
156	0x3fc18938	1.5120001
157	0x3fc7ae14	1.56
158	0x3fcdd2f2	1.608
159	0x3fd3f7ce	1.6559999
160	0x3fda1cac	1.704
161	0x3fe0418a	1.7520001
162	0x3fe66666	1.8
163	0x3fec8b44	1.848
164	0x3ff2b020	1.8959999
165	0x3ff8d4fe	1.944
166	0x3ffef9dc	1.9920001
167	0x40028f5c	2.04
168	0x4005a1ca	2.0879998
169	0x4008b43a	2.1360002
170	0x400bc6a8	2.184
171	0x400ed916	2.2319999
172	0x4011eb85	2.28
173	0x4014fdf4	2.328
174	0x40181062	2.376
175	0x401b22d1	2.424
176	0x401e3540	2.4720001
177	0x402147ae	2.52
178	0x40245a1c	2.5679998
179	0x40276c8c	2.6160002
180	0x402a7efa	2.664
181	0x402d9168	2.712
182	0x4030a3d7	2.76
183	0x4033b646	2.808
184	0x4036c8b4	2.856
185	0x4039db23	2.904
186	0x403ced92	2.9520001
187	0x40400000	3.0
188	0x4043126e	3.0479999
189	0x404624dd	3.096
190	0x4049374c	3.144
191	0x404c49ba	3.192
192	0x404f5c29	3.24
193	0x40526e98	3.288
194	0x40558106	3.336
195	0x40589374	3.3839998
196	0x405ba5e4	3.4320002
197	0x405eb852	3.48
198	0x4061cac0	3.5279999
199	0x4064dd2f	3.576
200	0x4067ef9e	3.624
201	0x406b020c	3.672
202	0x406e147b	3.72
203	0x407126ea	3.7680001
204	0x40743958	3.816
205	0x40774bc6	3.8639998
206	0x407a5e36	3.9120002
207	0x407d70a4	3.96
208	0x40804189	4.008
209	0x4081cac0	4.0559998
210	0x408353f8	4.104
211	0x4084dd2f	4.152
212	0x40866666	4.2
213	0x4087ef9e	4.248
214	0x408978d5	4.296
215	0x408b020c	4.344
216	0x408c8b44	4.392
217	0x408e147b	4.44
218	0x408f9db2	4.488
219	0x409126ea	4.5360003
220	0x4092b020	4.5839996
221	0x40943958	4.632
222	0x4095c290	4.6800003
223	0x40974bc6	4.7279997
224	0x4098d4fe	4.776
225	0x409a5e36	4.8240004
226	0x409be76c	4.8719997
227	0x409d70a4	4.92
228	0x409ef9db	4.968
229	0x40a08312	5.016
230	0x40a20c4a	5.064
231	0x40a39581	5.112
232	0x40a51eb8	5.16
233	0x40a6a7f0	5.208
234	0x40a83127	5.256
235	0x40a9ba5e	5.304
236	0x40ab4396	5.352
237	0x40accccc	5.3999996
238	0x40ae5604	5.448
239	0x40afdf3c	5.4960003
240	0x40b16872	5.5439997
241	0x40b2f1aa	5.592
242	0x40b47ae2	5.6400003
243	0x40b60418	5.6879997
244	0x40b78d50	5.736
245	0x40b91688	5.7840004
246	0x40ba9fbe	5.832
247	0x40bc28f6	5.88
248	0x40bdb22d	5.928
249	0x40bf3b64	5.976

density_psi f8 [250]
0	0x0000000000000000	0.0
1	0x0000000000000000	0.0
2	0x0000000000000000	0.0
3	0x0000000000000000	0.0
4	0x0000000000000000	0.0
5	0x0000000000000000	0.0
6	0x0000000000000000	0.0
7	0x0000000000000000	0.0
8	0x0000000000000000	0.0
9	0x0000000000000000	0.0
10	0x0000000000000000	0.0
11	0x0000000000000000	0.0
12	0x0000000000000000	0.0
13	0x0000000000000000	0.0
14	0x0000000000000000	0.0
15	0x0000000000000000	0.0
16	0x0000000000000000	0.0
17	0x0000000000000000	0.0
18	0x0000000000000000	0.0
19	0x0000000000000000	0.0
20	0x0000000000000000	0.0
21	0x0000000000000000	0.0
22	0x0000000000000000	0.0
23	0x0000000000000000	0.0
24	0x0000000000000000	0.0
25	0x0000000000000000	0.0
26	0x0000000000000000	0.0
27	0x0000000000000000	0.0
28	0x0000000000000000	0.0
29	0x0000000000000000	0.0
30	0x0000000000000000	0.0
31	0x0000000000000000	0.0
32	0x0000000000000000	0.0
33	0x0000000000000000	0.0
34	0x0000000000000000	0.0
35	0x0000000000000000	0.0
36	0x0000000000000000	0.0
37	0x0000000000000000	0.0
38	0x0000000000000000	0.0
39	0x0000000000000000	0.0
40	0x0000000000000000	0.0
41	0x0000000000000000	0.0
42	0x0000000000000000	0.0
43	0x0000000000000000	0.0
44	0x3eb1110ecccd19de	1.0172505426495205e-06
45	0x3ecddde39f4b1090	3.5603945839086853e-06
46	0x3ed1110ecccd19de	4.069002170598082e-06
47	0x3ee6666ab7784c6c	1.0681183751726056e-05
48	0x3ef33330a666bd1a	1.831050976769137e-05
49	0x3efffffbc0009080	3.0517516279485613e-05
50	0x3f06eef35a507f01	4.3741990602306706e-05
51	0x3f13fffd58005a50	7.629379069871403e-05
52	0x3f20777aa3d319b4	0.00012563106603220647
53	0x3f2bbbb80ccd4a08	0.00021158811287110024
54	0x3f343bb90bcd282a	0.0003087355396941294
55	0x3f409558877264c5	0.0005060846587127346
56	0x3f4a0440cfb3a8ae	0.0007939640485379507
57	0x3f55a66a9278454b	0.0013214150184278235
58	0x3f60677549b9e3ac	0.0020024576932055806
59	0x3f696aa74a8072c6	0.0031026141550810375
60	0x3f73fcd0a6da579e	0.004879775091145703
61	0x3f7da7fc0fb085ea	0.007240280737307961
62	0x3f868804578b80df	0.011001619264277838
63	0x3f90a79763577e68	0.016264310301151857
64	0x3f9869e292458763	0.02384141938944796
65	0x3fa1af862f38b643	0.03454226805147844
66	0x3fa94c630a413f0a	0.04941091060811516
67	0x3fb1d6ae1ab437d0	0.06968200828506999
68	0x3fb8df0dc3713d1c	0.0971535303262851
69	0x3fc118656d805892	0.13355701300378492
70	0x3fc7095ace9fce6d	0.17997298325609581
71	0x3fce7919d1c87002	0.23807070487316656
72	0x3fd3d5f705c422fa	0.30993438304044185
73	0x3fd9604b9024e5ca	0.3965023906381161
74	0x3fdfd190cc62920e	0.49716587028004333
75	0x3fe39bd4dcc53226	0.6127723991317608
76	0x3fe7bc86728fbe62	0.7417633283166192
77	0x3fec2e7018f2ef7a	0.8806686866077904
78	0x3ff066fa16970d44	1.0251408464835814
79	0x3ff2c17f59059b8e	1.172240588895622
80	0x3ff51232006228c0	1.3169422163942244
81	0x3ff75830197ccfd1	1.4590302463156954
82	0x3ff968cb4bed93b4	1.5880845037402027
83	0x3ffb5eb59ea2e7e3	1.7106224247677282
84	0x3ffd24d0ede90d34	1.82148831304296
85	0x3ffebf01fcc975a4	1.9216327547540937
86	0x400019a9483c33f7	2.012529911362886
87	0x4000c09c3c2b1434	2.094047994675316
88	0x40015b1373fe8412	2.1694706975981797
89	0x4001ed1c04e8adbf	2.2407760985858824
90	0x40027631e2df7e76	2.307712337918754
91	0x4002f28c08bafe65	2.3684311563554723
92	0x40036c7494ea2876	2.427956736942231
93	0x4003dd2520d2a52f	2.4829809726985768
94	0x400448a0dfc66af8	2.5354630930354425
95	0x4004aa8fa7bf521f	2.5832818131696196
96	0x400502c0e5596078	2.626344482221665
97	0x400556d45f556d42	2.6673972557015597
98	0x4005a130618f83fc	2.7037055608675455
99	0x4005e567db11fa18	2.737014495359528
100	0x400629bc41a8327b	2.77037860197589
101	0x4006682b5673f6ec	2.8008639101161545
102	0x4006a3635839f9a4	2.82977932860304
103	0x4006d4b13791d733	2.8538536397344614
104	0x4007066d7b80b3d0	2.8781385086681226
105	0x400737b86dbc41b0	2.9022072384907105
106	0x40075a13a1f6dac9	2.918982758851915
107	0x4007837f97341230	2.939208203579504
108	0x40079f724eb55b4a	2.952854742917599
109	0x4007c07a93f6def6	2.968983798953441
110	0x4007db7a819c9966	2.982167255965737
111	0x4007f53cb7ad7c2a	2.9947447156732965
112	0x400809227f437586	3.004460329290569
113	0x400828f652d3a4c0	3.020001074870919
114	0x40083265df9789fc	3.0246083706017526
115	0x40084a0adc59cabc	3.0361535277273486
116	0x400850840166d941	3.0393142804634015
117	0x40086001569195ec	3.0468775523356637
118	0x4008699623440984	3.051555896295385
119	0x4008745191734886	3.05679620392863
120	0x4008778cc4ae6d40	3.0583739629488775
121	0x400885ee673a5b0e	3.0653961243327847
122	0x400888f88094fc81	3.066880230471327
123	0x40088d310d7c79ea	3.0689412168132906
124	0x40088d7084f3e820	3.069062269872134
125	0x40088eb99604c934	3.0696899147234493
126	0x40088b74c938766f	3.068093845401385
127	0x400889bbb3ca0f92	3.0672525449790067
128	0x40088481562d35ec	3.0646998150393667
129	0x400883ebb3bbc591	3.064414409797515
130	0x40087ad4c4b67e41	3.059976136035204
131	0x400871859aa5ae74	3.055430610829541
132	0x40086b6ef00bc21f	3.052457690581164
133	0x400856722378ac85	3.0422098895265344
134	0x400846e475db3dee	3.0346154410869906
135	0x40083dad56effcea	3.0301157752979764
136	0x400829c60e95991b	3.020397294941302
137	0x40081329b1f29f48	3.009356870857946
138	0x4007fddfeb22e7e8	2.9989622468974524
139	0x4007e6e16ff567be	2.9877346750990617
140	0x4007c790b64f5576	2.972443985267712
141	0x4007a9c36015848c	2.957892180115385
142	0x40078ab0ec2ab352	2.942720265439143
143	0x40075fa9c443d146	2.9217105229564906
144	0x400740d7e579aa68	2.906661789679948
145	0x40070c4cae6696e6	2.8810056328828635
146	0x4006e0a1c075e92a	2.8596835170730133
147	0x4006ae6603390e19	2.8351555110728097
148	0x4006788dbd57fa67	2.80886409687746
149	0x400637226202c451	2.7769210488409404
150	0x4005f9ef0ee28f2e	2.747037998475114
151	0x4005b4057330f695	2.7129010199849497
152	0x40056a692cb8598a	2.676958417297276
153	0x40051785b2c5676c	2.6364854780667226
154	0x4004c1c1c6cccc22	2.5946078807114796
155	0x4004638702b6c6d1	2.548597356036091
156	0x4003fcfd21c6c7e1	2.4985296858585433
157	0x40038c9d1e693d1c	2.443659055315619
158	0x400316e55f2700a6	2.386179679277194
159	0x400296a405fa60fb	2.3235550372156673
160	0x40020ccbbc6f131b	2.2562479707143104
161	0x400176c7b9172e69	2.1829981289100044
162	0x4000db9d09c6e729	2.1072331203294152
163	0x400032098d3b5a4c	2.024432280896951
164	0x3ffef08fdc233ddc	1.933730945503945
165	0x3ffd578fd61aa14c	1.8338774074018884
166	0x3ffb9b59e4b81795	1.725427525934241
167	0x3ff9aff6044f2490	1.6054592293096768
168	0x3ff79b76ff7c5434	1.475455282202586
169	0x3ff565541779c3d1	1.3372383992211676
170	0x3ff31945d05640f2	1.1936700952683705
171	0x3ff0c6075f4c9ef2	1.0483468744877737
172	0x3fecff05967a6900	0.9061305941607145
173	0x3fe890ca9aa2f554	0.7676747341389878
174	0x3fe46584c1fbd5b4	0.6373924053902358
175	0x3fe0b32115b83e0d	0.5218663620198086
176	0x3fdab49c74033899	0.41727362946847674
177	0x3fd5199966443a60	0.32968745219196727
178	0x3fd0413ff977a301	0.2539825378612904
179	0x3fc8c2e31c843c9d	0.19344748394403136
180	0x3fc28c0392fb5afe	0.14489788700912948
181	0x3fbb6162c3774872	0.10695473930471325
182	0x3fb3ce0c5992e9cb	0.07736279665815642
183	0x3fac565191de7ff6	0.055346058899203784
184	0x3fa3cb52b4545962	0.03866060687339502
185	0x3f9bb6499b651e36	0.027062559232289916
186	0x3f92e2ec6ccb887c	0.018443769588778455
187	0x3f898d15fd96a345	0.012476131249813735
188	0x3f81561fd4b1e7e2	0.008465050390657983
189	0x3f76c80463e0d894	0.005561844967863067
190	0x3f6f1773565a2600	0.003795361774625361
191	0x3f63eddb3846c065	0.0024327546727463283
192	0x3f59f99e9b097f7b	0.0015853928454347677
193	0x3f501bb9980d158a	0.0009831726494707615
194	0x3f44333717bc7bc6	0.0006164568908139038
195	0x3f3a6662e4cd4404	0.00040283121488921014
196	0x3f2dddd9e666ed44	0.00022786412155349257
197	0x3f2122256f6158ee	0.00013071734400921887
198	0x3f14221f7599f484	7.68024159700388e-05
199	0x3f06eef35a507f01	4.3741990602306706e-05
200	0x3efdddd9e666ed44	2.848301519418657e-05
201	0x3eeeeeead333bee1	1.4750132868418044e-05
202	0x3ee5555971c7e743	1.0172555954024816e-05
203	0x3ed33330a666bd1a	4.577627441922842e-06
204	0x3ec111145b06529c	2.0345111908049633e-06
205	0x3eb1110ecccd19de	1.0172505426495205e-06
206	0x0000000000000000	0.0
207	0x0000000000000000	0.0
208	0x0000000000000000	0.0
209	0x0000000000000000	0.0
210	0x0000000000000000	0.0
211	0x0000000000000000	0.0
212	0x0000000000000000	0.0
213	0x0000000000000000	0.0
214	0x0000000000000000	0.0
215	0x0000000000000000	0.0
216	0x0000000000000000	0.0
217	0x0000000000000000	0.0
218	0x0000000000000000	0.0
219	0x0000000000000000	0.0
220	0x0000000000000000	0.0
221	0x0000000000000000	0.0
222	0x0000000000000000	0.0
223	0x0000000000000000	0.0
224	0x0000000000000000	0.0
225	0x0000000000000000	0.0
226	0x0000000000000000	0.0
227	0x0000000000000000	0.0
228	0x0000000000000000	0.0
229	0x0000000000000000	0.0
230	0x0000000000000000	0.0
231	0x0000000000000000	0.0
232	0x0000000000000000	0.0
233	0x0000000000000000	0.0
234	0x0000000000000000	0.0
235	0x0000000000000000	0.0
236	0x0000000000000000	0.0
237	0x0000000000000000	0.0
238	0x0000000000000000	0.0
239	0x0000000000000000	0.0
240	0x0000000000000000	0.0
241	0x0000000000000000	0.0
242	0x0000000000000000	0.0
243	0x0000000000000000	0.0
244	0x0000000000000000	0.0
245	0x0000000000000000	0.0
246	0x0000000000000000	0.0
247	0x0000000000000000	0.0
248	0x0000000000000000	0.0
249	0x0000000000000000	0.0

h_obdm f8 [250, 250]
0	0x0000000000000000	0.0
1	0x0000000000000000	0.0
2	0x0000000000000000	0.0
3	0x0000000000000000	0.0
4	0x0000000000000000	0.0
5	0x0000000000000000	0.0
6	0x0000000000000000	0.0
7	0x0000000000000000	0.0
8	0x0000000000000000	0.0
9	0x0000000000000000	0.0
10	0x0000000000000000	0.0
11	0x0000000000000000	0.0
12	0x0000000000000000	0.0
13	0x0000000000000000	0.0
14	0x0000000000000000	0.0
15	0x0000000000000000	0.0
16	0x0000000000000000	0.0
17	0x0000000000000000	0.0
18	0x0000000000000000	0.0
19	0x0000000000000000	0.0
20	0x0000000000000000	0.0
21	0x0000000000000000	0.0
22	0x0000000000000000	0.0
23	0x0000000000000000	0.0
24	0x0000000000000000	0.0
25	0x0000000000000000	0.0
26	0x0000000000000000	0.0
27	0x0000000000000000	0.0
28	0x0000000000000000	0.0
29	0x0000000000000000	0.0
30	0x0000000000000000	0.0
31	0x0000000000000000	0.0
32	0x0000000000000000	0.0
33	0x0000000000000000	0.0
34	0x0000000000000000	0.0
35	0x0000000000000000	0.0
36	0x0000000000000000	0.0
37	0x0000000000000000	0.0
38	0x0000000000000000	0.0
39	0x0000000000000000	0.0
40	0x0000000000000000	0.0
41	0x0000000000000000	0.0
42	0x0000000000000000	0.0
43	0x0000000000000000	0.0
44	0x0000000000000000	0.0
45	0x0000000000000000	0.0
46	0x0000000000000000	0.0
47	0x0000000000000000	0.0
48	0x0000000000000000	0.0
49	0x0000000000000000	0.0
50	0x0000000000000000	0.0
51	0x0000000000000000	0.0
52	0x0000000000000000	0.0
53	0x0000000000000000	0.0
54	0x0000000000000000	0.0
55	0x0000000000000000	0.0
56	0x0000000000000000	0.0
57	0x0000000000000000	0.0
58	0x0000000000000000	0.0
59	0x0000000000000000	0.0
60	0x0000000000000000	0.0
61	0x0000000000000000	0.0
62	0x0000000000000000	0.0
63	0x0000000000000000	0.0
64	0x0000000000000000	0.0
65	0x0000000000000000	0.0
66	0x0000000000000000	0.0
67	0x0000000000000000	0.0
68	0x0000000000000000	0.0
69	0x0000000000000000	0.0
70	0x0000000000000000	0.0
71	0x0000000000000000	0.0
72	0x0000000000000000	0.0
73	0x0000000000000000	0.0
74	0x0000000000000000	0.0
75	0x0000000000000000	0.0
76	0x0000000000000000	0.0
77	0x0000000000000000	0.0
78	0x0000000000000000	0.0
79	0x0000000000000000	0.0
80	0x0000000000000000	0.0
81	0x0000000000000000	0.0
82	0x0000000000000000	0.0
83	0x0000000000000000	0.0
84	0x0000000000000000	0.0
85	0x0000000000000000	0.0
86	0x0000000000000000	0.0
87	0x0000000000000000	0.0
88	0x0000000000000000	0.0
89	0x0000000000000000	0.0
90	0x0000000000000000	0.0
91	0x0000000000000000	0.0
92	0x0000000000000000	0.0
93	0x0000000000000000	0.0
94	0x0000000000000000	0.0
95	0x0000000000000000	0.0
96	0x0000000000000000	0.0
97	0x0000000000000000	0.0
98	0x0000000000000000	0.0
99	0x0000000000000000	0.0
100	0x0000000000000000	0.0
101	0x0000000000000000	0.0
102	0x0000000000000000	0.0
103	0x0000000000000000	0.0
104	0x0000000000000000	0.0
105	0x0000000000000000	0.0
106	0x0000000000000000	0.0
107	0x0000000000000000	0.0
108	0x0000000000000000	0.0
109	0x0000000000000000	0.0
110	0x0000000000000000	0.0
111	0x0000000000000000	0.0
112	0x0000000000000000	0.0
113	0x0000000000000000	0.0
114	0x0000000000000000	0.0
115	0x0000000000000000	0.0
116	0x0000000000000000	0.0
117	0x0000000000000000	0.0
118	0x0000000000000000	0.0
119	0x0000000000000000	0.0
120	0x0000000000000000	0.0
121	0x0000000000000000	0.0
122	0x0000000000000000	0.0
123	0x0000000000000000	0.0
124	0x0000000000000000	0.0
125	0x0000000000000000	0.0
126	0x0000000000000000	0.0
127	0x0000000000000000	0.0
128	0x0000000000000000	0.0
129	0x0000000000000000	0.0
130	0x0000000000000000	0.0
131	0x0000000000000000	0.0
132	0x0000000000000000	0.0
133	0x0000000000000000	0.0
134	0x0000000000000000	0.0
135	0x0000000000000000	0.0
136	0x0000000000000000	0.0
137	0x0000000000000000	0.0
138	0x0000000000000000	0.0
139	0x0000000000000000	0.0
140	0x0000000000000000	0.0
141	0x0000000000000000	0.0
142	0x0000000000000000	0.0
143	0x0000000000000000	0.0
144	0x0000000000000000	0.0
145	0x0000000000000000	0.0
146	0x0000000000000000	0.0
147	0x0000000000000000	0.0
148	0x0000000000000000	0.0
149	0x0000000000000000	0.0
150	0x0000000000000000	0.0
151	0x0000000000000000	0.0
152	0x0000000000000000	0.0
153	0x0000000000000000	0.0
154	0x0000000000000000	0.0
155	0x0000000000000000	0.0
156	0x0000000000000000	0.0
157	0x0000000000000000	0.0
158	0x0000000000000000	0.0
159	0x0000000000000000	0.0
160	0x0000000000000000	0.0
161	0x0000000000000000	0.0
162	0x0000000000000000	0.0
163	0x0000000000000000	0.0
164	0x0000000000000000	0.0
165	0x0000000000000000	0.0
166	0x0000000000000000	0.0
167	0x0000000000000000	0.0
168	0x0000000000000000	0.0
169	0x0000000000000000	0.0
170	0x0000000000000000	0.0
171	0x0000000000000000	0.0
172	0x0000000000000000	0.0
173	0x0000000000000000	0.0
174	0x0000000000000000	0.0
175	0x0000000000000000	0.0
176	0x0000000000000000	0.0
177	0x0000000000000000	0.0
178	0x0000000000000000	0.0
179	0x0000000000000000	0.0
180	0x0000000000000000	0.0
181	0x0000000000000000	0.0
182	0x0000000000000000	0.0
183	0x0000000000000000	0.0
184	0x0000000000000000	0.0
185	0x0000000000000000	0.0
186	0x0000000000000000	0.0
187	0x0000000000000000	0.0
188	0x0000000000000000	0.0
189	0x0000000000000000	0.0
190	0x0000000000000000	0.0
191	0x0000000000000000	0.0
192	0x0000000000000000	0.0
193	0x0000000000000000	0.0
194	0x0000000000000000	0.0
195	0x0000000000000000	0.0
196	0x0000000000000000	0.0
197	0x0000000000000000	0.0
198	0x0000000000000000	0.0
199	0x0000000000000000	0.0
200	0x0000000000000000	0.0
201	0x0000000000000000	0.0
202	0x0000000000000000	0.0
203	0x0000000000000000	0.0
204	0x0000000000000000	0.0
205	0x0000000000000000	0.0
206	0x0000000000000000	0.0
207	0x0000000000000000	0.0
208	0x0000000000000000	0.0
209	0x0000000000000000	0.0
210	0x0000000000000000	0.0
211	0x0000000000000000	0.0
212	0x0000000000000000	0.0
213	0x0000000000000000	0.0
214	0x0000000000000000	0.0
215	0x0000000000000000	0.0
216	0x0000000000000000	0.0
217	0x0000000000000000	0.0
218	0x0000000000000000	0.0
219	0x0000000000000000	0.0
220	0x0000000000000000	0.0
221	0x0000000000000000	0.0
222	0x0000000000000000	0.0
223	0x0000000000000000	0.0
224	0x0000000000000000	0.0
225	0x0000000000000000	0.0
226	0x0000000000000000	0.0
227	0x0000000000000000	0.0
228	0x0000000000000000	0.0
229	0x0000000000000000	0.0
230	0x0000000000000000	0.0
231	0x0000000000000000	0.0
232	0x0000000000000000	0.0
233	0x0000000000000000	0.0
234	0x0000000000000000	0.0
235	0x0000000000000000	0.0
236	0x0000000000000000	0.0
237	0x0000000000000000	0.0
238	0x0000000000000000	0.0
239	0x0000000000000000	0.0
240	0x0000000000000000	0.0
241	0x0000000000000000	0.0
242	0x0000000000000000	0.0
243	0x0000000000000000	0.0
244	0x0000000000000000	0.0
245	0x0000000000000000	0.0
246	0x0000000000000000	0.0
247	0x0000000000000000	0.0
248	0x0000000000000000	0.0
249	0x0000000000000000	0.0
250	0x0000000000000000	0.0
251	0x0000000000000000	0.0
252	0x0000000000000000	0.0
253	0x0000000000000000	0.0
254	0x0000000000000000	0.0
255	0x0000000000000000	0.0

xedges_obdm f8 [251]
0	0xc018000000000000	-6.0
1	0xc017ced916872b02	-5.952
2	0xc0179db22d0e5604	-5.904
3	0xc0176c8b43958106	-5.856
4	0xc0173b645a1cac08	-5.808
5	0xc0170a3d70a3d70a	-5.76
6	0xc016d916872b020c	-5.712
7	0xc016a7ef9db22d0e	-5.664
8	0xc01676c8b4395810	-5.616
9	0xc01645a1cac08312	-5.568
10	0xc016147ae147ae14	-5.52
11	0xc015e353f7ced916	-5.4719999999999995
12	0xc015b22d0e560418	-5.4239999999999995
13	0xc015810624dd2f1b	-5.376
14	0xc0154fdf3b645a1d	-5.328
15	0xc0151eb851eb851f	-5.28
16	0xc014ed916872b021	-5.232
17	0xc014bc6a7ef9db23	-5.184
18	0xc0148b4395810625	-5.136
19	0xc0145a1cac083127	-5.088
20	0xc01428f5c28f5c29	-5.04
21	0xc013f7ced916872b	-4.992
22	0xc013c6a7ef9db22d	-4.944
23	0xc01395810624dd2f	-4.896
24	0xc013645a1cac0831	-4.848
25	0xc013333333333333	-4.8
26	0xc013020c49ba5e35	-4.752
27	0xc012d0e560418937	-4.704
28	0xc0129fbe76c8b439	-4.656
29	0xc0126e978d4fdf3b	-4.608
30	0xc0123d70a3d70a3e	-4.5600000000000005
31	0xc0120c49ba5e3540	-4.5120000000000005
32	0xc011db22d0e56042	-4.464
33	0xc011a9fbe76c8b44	-4.416
34	0xc01178d4fdf3b646	-4.368
35	0xc01147ae147ae148	-4.32
36	0xc01116872b020c4a	-4.272
37	0xc010e5604189374c	-4.224
38	0xc010b4395810624e	-4.176
39	0xc01083126e978d50	-4.128
40	0xc01051eb851eb852	-4.08
41	0xc01020c49ba5e354	-4.032
42	0xc00fdf3b645a1cac	-3.984
43	0xc00f7ced916872b0	-3.936
44	0xc00f1a9fbe76c8b4	-3.888
45	0xc00eb851eb851eb8	-3.84
46	0xc00e5604189374bc	-3.792
47	0xc00df3b645a1cac0	-3.7439999999999998
48	0xc00d916872b020c4	-3.6959999999999997
49	0xc00d2f1a9fbe76c9	-3.648
50	0xc00ccccccccccccd	-3.6
51	0xc00c6a7ef9db22d1	-3.552
52	0xc00c083126e978d5	-3.504
53	0xc00ba5e353f7ced9	-3.456
54	0xc00b4395810624dd	-3.408
55	0xc00ae147ae147ae1	-3.36
56	0xc00a7ef9db22d0e5	-3.312
57	0xc00a1cac083126e9	-3.264
58	0xc009ba5e353f7ced	-3.2159999999999997
59	0xc0095810624dd2f2	-3.168
60	0xc008f5c28f5c28f6	-3.12
61	0xc0089374bc6a7efa	-3.072
62	0xc0083126e978d4fe	-3.024
63	0xc007ced916872b02	-2.976
64	0xc0076c8b43958106	-2.928
65	0xc0070a3d70a3d70a	-2.88
66	0xc006a7ef9db22d0e	-2.832
67	0xc00645a1cac08312	-2.784
68	0xc005e353f7ced916	-2.7359999999999998
69	0xc005810624dd2f1a	-2.6879999999999997
70	0xc0051eb851eb851f	-2.64
71	0xc004bc6a7ef9db23	-2.592
72	0xc0045a1cac083127	-2.544
73	0xc003f7ced916872b	-2.496
74	0xc00395810624dd2f	-2.448
75	0xc003333333333333	-2.4
76	0xc002d0e560418937	-2.352
77	0xc0026e978d4fdf3b	-2.304
78	0xc0020c49ba5e353f	-2.256
79	0xc001a9fbe76c8b43	-2.2079999999999997
80	0xc00147ae147ae148	-2.16
81	0xc000e5604189374c	-2.112
82	0xc00083126e978d50	-2.064
83	0xc00020c49ba5e354	-2.016
84	0xbfff7ced916872b0	-1.968
85	0xbffeb851eb851eb8	-1.92
86	0xbffdf3b645a1cac0	-1.8719999999999999
87	0xbffd2f1a9fbe76c8	-1.8239999999999998
88	0xbffc6a7ef9db22d0	-1.7759999999999998
89	0xbffba5e353f7ced8	-1.7279999999999998
90	0xbffae147ae147ae0	-1.6799999999999997
91	0xbffa1cac083126e8	-1.6319999999999997
92	0xbff95810624dd2f0	-1.5839999999999996
93	0xbff89374bc6a7ef8	-1.5359999999999996
94	0xbff7ced916872b00	-1.4879999999999995
95	0xbff70a3d70a3d708	-1.4399999999999995
96	0xbff645a1cac08310	-1.3919999999999995
97	0xbff5810624dd2f1c	-1.3440000000000003
98	0xbff4bc6a7ef9db24	-1.2960000000000003
99	0xbff3f7ced916872c	-1.2480000000000002
100	0xbff3333333333334	-1.2000000000000002
101	0xbff26e978d4fdf3c	-1.1520000000000001
102	0xbff1a9fbe76c8b44	-1.104
103	0xbff0e5604189374c	-1.056
104	0xbff020c49ba5e354	-1.008
105	0xbfeeb851eb851eb8	-0.96
106	0xbfed2f1a9fbe76c8	-0.9119999999999999
107	0xbfeba5e353f7ced8	-0.8639999999999999
108	0xbfea1cac083126e8	-0.8159999999999998
109	0xbfe89374bc6a7ef8	-0.7679999999999998
110	0xbfe70a3d70a3d708	-0.7199999999999998
111	0xbfe5810624dd2f18	-0.6719999999999997
112	0xbfe3f7ced9168728	-0.6239999999999997
113	0xbfe26e978d4fdf38	-0.5759999999999996
114	0xbfe0e56041893748	-0.5279999999999996
115	0xbfdeb851eb851eb0	-0.47999999999999954
116	0xbfdba5e353f7ced0	-0.4319999999999995
117	0xbfd89374bc6a7ef0	-0.38399999999999945
118	0xbfd5810624dd2f20	-0.3360000000000003
119	0xbfd26e978d4fdf40	-0.28800000000000026
120	0xbfceb851eb851ec0	-0.2400000000000002
121	0xbfc89374bc6a7f00	-0.19200000000000017
122	0xbfc26e978d4fdf40	-0.14400000000000013
123	0xbfb89374bc6a7f00	-0.09600000000000009
124	0xbfa89374bc6a7f00	-0.04800000000000004
125	0x0000000000000000	0.0
126	0x3fa89374bc6a7f00	0.04800000000000004
127	0x3fb89374bc6a7f00	0.09600000000000009
128	0x3fc26e978d4fdf40	0.14400000000000013
129	0x3fc89374bc6a7f00	0.19200000000000017
130	0x3fceb851eb851ec0	0.2400000000000002
131	0x3fd26e978d4fdf40	0.28800000000000026
132	0x3fd5810624dd2f20	0.3360000000000003
133	0x3fd89374bc6a7f00	0.38400000000000034
134	0x3fdba5e353f7cee0	0.4320000000000004
135	0x3fdeb851eb851ec0	0.4800000000000004
136	0x3fe0e56041893750	0.5280000000000005
137	0x3fe26e978d4fdf40	0.5760000000000005
138	0x3fe3f7ced9168730	0.6240000000000006
139	0x3fe5810624dd2f18	0.6719999999999997
140	0x3fe70a3d70a3d708	0.7199999999999998
141	0x3fe89374bc6a7ef8	0.7679999999999998
142	0x3fea1cac083126e8	0.8159999999999998
143	0x3feba5e353f7ced8	0.8639999999999999
144	0x3fed2f1a9fbe76c8	0.9119999999999999
145	0x3feeb851eb851eb8	0.96
146	0x3ff020c49ba5e354	1.008
147	0x3ff0e5604189374c	1.056
148	0x3ff1a9fbe76c8b44	1.104
149	0x3ff26e978d4fdf3c	1.1520000000000001
150	0x3ff3333333333334	1.2000000000000002
151	0x3ff3f7ced916872c	1.2480000000000002
152	0x3ff4bc6a7ef9db24	1.2960000000000003
153	0x3ff5810624dd2f1c	1.3440000000000003
154	0x3ff645a1cac08314	1.3920000000000003
155	0x3ff70a3d70a3d70c	1.4400000000000004
156	0x3ff7ced916872b04	1.4880000000000004
157	0x3ff89374bc6a7efc	1.5360000000000005
158	0x3ff95810624dd2f4	1.5840000000000005
159	0x3ffa1cac083126ec	1.6320000000000006
160	0x3ffae147ae147ae0	1.6799999999999997
161	0x3ffba5e353f7ced8	1.7279999999999998
162	0x3ffc6a7ef9db22d0	1.7759999999999998
163	0x3ffd2f1a9fbe76c8	1.8239999999999998
164	0x3ffdf3b645a1cac0	1.8719999999999999
165	0x3ffeb851eb851eb8	1.92
166	0x3fff7ced916872b0	1.968
167	0x400020c49ba5e354	2.016
168	0x400083126e978d50	2.064
169	0x4000e5604189374c	2.112
170	0x400147ae147ae148	2.16
171	0x4001a9fbe76c8b44	2.208
172	0x40020c49ba5e3540	2.2560000000000002
173	0x40026e978d4fdf3c	2.3040000000000003
174	0x4002d0e560418938	2.3520000000000003
175	0x4003333333333334	2.4000000000000004
176	0x400395810624dd30	2.4480000000000004
177	0x4003f7ced916872c	2.4960000000000004
178	0x40045a1cac083128	2.5440000000000005
179	0x4004bc6a7ef9db24	2.5920000000000005
180	0x40051eb851eb8520	2.6400000000000006
181	0x4005810624dd2f1c	2.6880000000000006
182	0x4005e353f7ced918	2.7360000000000007
183	0x400645a1cac08314	2.7840000000000007
184	0x4006a7ef9db22d10	2.8320000000000007
185	0x40070a3d70a3d70c	2.880000000000001
186	0x40076c8b43958108	2.928000000000001
187	0x4007ced916872b04	2.976000000000001
188	0x40083126e978d500	3.024000000000001
189	0x40089374bc6a7efc	3.072000000000001
190	0x4008f5c28f5c28f8	3.120000000000001
191	0x40095810624dd2f4	3.168000000000001
192	0x4009ba5e353f7cf0	3.216000000000001
193	0x400a1cac083126e8	3.2639999999999993
194	0x400a7ef9db22d0e4	3.3119999999999994
195	0x400ae147ae147ae0	3.3599999999999994
196	0x400b4395810624dc	3.4079999999999995
197	0x400ba5e353f7ced8	3.4559999999999995
198	0x400c083126e978d4	3.5039999999999996
199	0x400c6a7ef9db22d0	3.5519999999999996
200	0x400ccccccccccccc	3.5999999999999996
201	0x400d2f1a9fbe76c8	3.6479999999999997
202	0x400d916872b020c4	3.6959999999999997
203	0x400df3b645a1cac0	3.7439999999999998
204	0x400e5604189374bc	3.792
205	0x400eb851eb851eb8	3.84
206	0x400f1a9fbe76c8b4	3.888
207	0x400f7ced916872b0	3.936
208	0x400fdf3b645a1cac	3.984
209	0x401020c49ba5e354	4.032
210	0x401051eb851eb852	4.08
211	0x401083126e978d50	4.128
212	0x4010b4395810624e	4.176
213	0x4010e5604189374c	4.224
214	0x401116872b020c4a	4.272
215	0x401147ae147ae148	4.32
216	0x401178d4fdf3b646	4.368
217	0x4011a9fbe76c8b44	4.416
218	0x4011db22d0e56042	4.464
219	0x40120c49ba5e3540	4.5120000000000005
220	0x40123d70a3d70a3e	4.5600000000000005
221	0x40126e978d4fdf3c	4.6080000000000005
222	0x40129fbe76c8b43a	4.656000000000001
223	0x4012d0e560418938	4.704000000000001
224	0x4013020c49ba5e36	4.752000000000001
225	0x4013333333333334	4.800000000000001
226	0x4013645a1cac0832	4.848000000000001
227	0x401395810624dd30	4.896000000000001
228	0x4013c6a7ef9db22e	4.944000000000001
229	0x4013f7ced916872c	4.992000000000001
230	0x401428f5c28f5c2a	5.040000000000001
231	0x40145a1cac083128	5.088000000000001
232	0x40148b4395810626	5.136000000000001
233	0x4014bc6a7ef9db24	5.184000000000001
234	0x4014ed916872b022	5.232000000000001
235	0x40151eb851eb851e	5.279999999999999
236	0x40154fdf3b645a1c	5.327999999999999
237	0x4015810624dd2f1a	5.3759999999999994
238	0x4015b22d0e560418	5.4239999999999995
239	0x4015e353f7ced916	5.4719999999999995
240	0x4016147ae147ae14	5.52
241	0x401645a1cac08312	5.568
242	0x401676c8b4395810	5.616
243	0x4016a7ef9db22d0e	5.664
244	0x4016d916872b020c	5.712
245	0x40170a3d70a3d70a	5.76
246	0x40173b645a1cac08	5.808
247	0x40176c8b43958106	5.856
248	0x40179db22d0e5604	5.904
249	0x4017ced916872b02	5.952
250	0x4018000000000000	6.0

yedges_obdm f8 [251]
0	0xc018000000000000	-6.0
1	0xc017ced916872b02	-5.952
2	0xc0179db22d0e5604	-5.904
3	0xc0176c8b43958106	-5.856
4	0xc0173b645a1cac08	-5.808
5	0xc0170a3d70a3d70a	-5.76
6	0xc016d916872b020c	-5.712
7	0xc016a7ef9db22d0e	-5.664
8	0xc01676c8b4395810	-5.616
9	0xc01645a1cac08312	-5.568
10	0xc016147ae147ae14	-5.52
11	0xc015e353f7ced916	-5.4719999999999995
12	0xc015b22d0e560418	-5.4239999999999995
13	0xc015810624dd2f1b	-5.376
14	0xc0154fdf3b645a1d	-5.328
15	0xc0151eb851eb851f	-5.28
16	0xc014ed916872b021	-5.232
17	0xc014bc6a7ef9db23	-5.184
18	0xc0148b4395810625	-5.136
19	0xc0145a1cac083127	-5.088
20	0xc01428f5c28f5c29	-5.04
21	0xc013f7ced916872b	-4.992
22	0xc013c6a7ef9db22d	-4.944
23	0xc01395810624dd2f	-4.896
24	0xc013645a1cac0831	-4.848
25	0xc013333333333333	-4.8
26	0xc013020c49ba5e35	-4.752
27	0xc012d0e560418937	-4.704
28	0xc0129fbe76c8b439	-4.656
29	0xc0126e978d4fdf3b	-4.608
30	0xc0123d70a3d70a3e	-4.5600000000000005
31	0xc0120c49ba5e3540	-4.5120000000000005
32	0xc011db22d0e56042	-4.464
33	0xc011a9fbe76c8b44	-4.416
34	0xc01178d4fdf3b646	-4.368
35	0xc01147ae147ae148	-4.32
36	0xc01116872b020c4a	-4.272
37	0xc010e5604189374c	-4.224
38	0xc010b4395810624e	-4.176
39	0xc01083126e978d50	-4.128
40	0xc01051eb851eb852	-4.08
41	0xc01020c49ba5e354	-4.032
42	0xc00fdf3b645a1cac	-3.984
43	0xc00f7ced916872b0	-3.936
44	0xc00f1a9fbe76c8b4	-3.888
45	0xc00eb851eb851eb8	-3.84
46	0xc00e5604189374bc	-3.792
47	0xc00df3b645a1cac0	-3.7439999999999998
48	0xc00d916872b020c4	-3.6959999999999997
49	0xc00d2f1a9fbe76c9	-3.648
50	0xc00ccccccccccccd	-3.6
51	0xc00c6a7ef9db22d1	-3.552
52	0xc00c083126e978d5	-3.504
53	0xc00ba5e353f7ced9	-3.456
54	0xc00b4395810624dd	-3.408
55	0xc00ae147ae147ae1	-3.36
56	0xc00a7ef9db22d0e5	-3.312
57	0xc00a1cac083126e9	-3.264
58	0xc009ba5e353f7ced	-3.2159999999999997
59	0xc0095810624dd2f2	-3.168
60	0xc008f5c28f5c28f6	-3.12
61	0xc0089374bc6a7efa	-3.072
62	0xc0083126e978d4fe	-3.024
63	0xc007ced916872b02	-2.976
64	0xc0076c8b43958106	-2.928
65	0xc0070a3d70a3d70a	-2.88
66	0xc006a7ef9db22d0e	-2.832
67	0xc00645a1cac08312	-2.784
68	0xc005e353f7ced916	-2.7359999999999998
69	0xc005810624dd2f1a	-2.6879999999999997
70	0xc0051eb851eb851f	-2.64
71	0xc004bc6a7ef9db23	-2.592
72	0xc0045a1cac083127	-2.544
73	0xc003f7ced916872b	-2.496
74	0xc00395810624dd2f	-2.448
75	0xc003333333333333	-2.4
76	0xc002d0e560418937	-2.352
77	0xc0026e978d4fdf3b	-2.304
78	0xc0020c49ba5e353f	-2.256
79	0xc001a9fbe76c8b43	-2.2079999999999997
80	0xc00147ae147ae148	-2.16
81	0xc000e5604189374c	-2.112
82	0xc00083126e978d50	-2.064
83	0xc00020c49ba5e354	-2.016
84	0xbfff7ced916872b0	-1.968
85	0xbffeb851eb851eb8	-1.92
86	0xbffdf3b645a1cac0	-1.8719999999999999
87	0xbffd2f1a9fbe76c8	-1.8239999999999998
88	0xbffc6a7ef9db22d0	-1.7759999999999998
89	0xbffba5e353f7ced8	-1.7279999999999998
90	0xbffae147ae147ae0	-1.6799999999999997
91	0xbffa1cac083126e8	-1.6319999999999997
92	0xbff95810624dd2f0	-1.5839999999999996
93	0xbff89374bc6a7ef8	-1.5359999999999996
94	0xbff7ced916872b00	-1.4879999999999995
95	0xbff70a3d70a3d708	-1.4399999999999995
96	0xbff645a1cac08310	-1.3919999999999995
97	0xbff5810624dd2f1c	-1.3440000000000003
98	0xbff4bc6a7ef9db24	-1.2960000000000003
99	0xbff3f7ced916872c	-1.2480000000000002
100	0xbff3333333333334	-1.2000000000000002
101	0xbff26e978d4fdf3c	-1.1520000000000001
102	0xbff1a9fbe76c8b44	-1.104
103	0xbff0e5604189374c	-1.056
104	0xbff020c49ba5e354	-1.008
105	0xbfeeb851eb851eb8	-0.96
106	0xbfed2f1a9fbe76c8	-0.9119999999999999
107	0xbfeba5e353f7ced8	-0.8639999999999999
108	0xbfea1cac083126e8	-0.8159999999999998
109	0xbfe89374bc6a7ef8	-0.7679999999999998
110	0xbfe70a3d70a3d708	-0.7199999999999998
111	0xbfe5810624dd2f18	-0.6719999999999997
112	0xbfe3f7ced9168728	-0.6239999999999997
113	0xbfe26e978d4fdf38	-0.5759999999999996
114	0xbfe0e56041893748	-0.5279999999999996
115	0xbfdeb851eb851eb0	-0.47999999999999954
116	0xbfdba5e353f7ced0	-0.4319999999999995
117	0xbfd89374bc6a7ef0	-0.38399999999999945
118	0xbfd5810624dd2f20	-0.3360000000000003
119	0xbfd26e978d4fdf40	-0.28800000000000026
120	0xbfceb851eb851ec0	-0.2400000000000002
121	0xbfc89374bc6a7f00	-0.19200000000000017
122	0xbfc26e978d4fdf40	-0.14400000000000013
123	0xbfb89374bc6a7f00	-0.09600000000000009
124	0xbfa89374bc6a7f00	-0.04800000000000004
125	0x0000000000000000	0.0
126	0x3fa89374bc6a7f00	0.04800000000000004
127	0x3fb89374bc6a7f00	0.09600000000000009
128	0x3fc26e978d4fdf40	0.14400000000000013
129	0x3fc89374bc6a7f00	0.19200000000000017
130	0x3fceb851eb851ec0	0.2400000000000002
131	0x3fd26e978d4fdf40	0.28800000000000026
132	0x3fd5810624dd2f20	0.3360000000000003
133	0x3fd89374bc6a7f00	0.38400000000000034
134	0x3fdba5e353f7cee0	0.4320000000000004
135	0x3fdeb851eb851ec0	0.4800000000000004
136	0x3fe0e56041893750	0.5280000000000005
137	0x3fe26e978d4fdf40	0.5760000000000005
138	0x3fe3f7ced9168730	0.6240000000000006
139	0x3fe5810624dd2f18	0.6719999999999997
140	0x3fe70a3d70a3d708	0.7199999999999998
141	0x3fe89374bc6a7ef8	0.7679999999999998
142	0x3fea1cac083126e8	0.8159999999999998
143	0x3feba5e353f7ced8	0.8639999999999999
144	0x3fed2f1a9fbe76c8	0.9119999999999999
145	0x3feeb851eb851eb8	0.96
146	0x3ff020c49ba5e354	1.008
147	0x3ff0e5604189374c	1.056
148	0x3ff1a9fbe76c8b44	1.104
149	0x3ff26e978d4fdf3c	1.1520000000000001
150	0x3ff3333333333334	1.2000000000000002
151	0x3ff3f7ced916872c	1.2480000000000002
152	0x3ff4bc6a7ef9db24	1.2960000000000003
153	0x3ff5810624dd2f1c	1.3440000000000003
154	0x3ff645a1cac08314	1.3920000000000003
155	0x3ff70a3d70a3d70c	1.4400000000000004
156	0x3ff7ced916872b04	1.4880000000000004
157	0x3ff89374bc6a7efc	1.5360000000000005
158	0x3ff95810624dd2f4	1.5840000000000005
159	0x3ffa1cac083126ec	1.6320000000000006
160	0x3ffae147ae147ae0	1.6799999999999997
161	0x3ffba5e353f7ced8	1.7279999999999998
162	0x3ffc6a7ef9db22d0	1.7759999999999998
163	0x3ffd2f1a9fbe76c8	1.8239999999999998
164	0x3ffdf3b645a1cac0	1.8719999999999999
165	0x3ffeb851eb851eb8	1.92
166	0x3fff7ced916872b0	1.968
167	0x400020c49ba5e354	2.016
168	0x400083126e978d50	2.064
169	0x4000e5604189374c	2.112
170	0x400147ae147ae148	2.16
171	0x4001a9fbe76c8b44	2.208
172	0x40020c49ba5e3540	2.2560000000000002
173	0x40026e978d4fdf3c	2.3040000000000003
174	0x4002d0e560418938	2.3520000000000003
175	0x4003333333333334	2.4000000000000004
176	0x400395810624dd30	2.4480000000000004
177	0x4003f7ced916872c	2.4960000000000004
178	0x40045a1cac083128	2.5440000000000005
179	0x4004bc6a7ef9db24	2.5920000000000005
180	0x40051eb851eb8520	2.6400000000000006
181	0x4005810624dd2f1c	2.6880000000000006
182	0x4005e353f7ced918	2.7360000000000007
183	0x400645a1cac08314	2.7840000000000007
184	0x4006a7ef9db22d10	2.8320000000000007
185	0x40070a3d70a3d70c	2.880000000000001
186	0x40076c8b43958108	2.928000000000001
187	0x4007ced916872b04	2.976000000000001
188	0x40083126e978d500	3.024000000000001
189	0x40089374bc6a7efc	3.072000000000001
190	0x4008f5c28f5c28f8	3.120000000000001
191	0x40095810624dd2f4	3.168000000000001
192	0x4009ba5e353f7cf0	3.216000000000001
193	0x400a1cac083126e8	3.2639999999999993
194	0x400a7ef9db22d0e4	3.3119999999999994
195	0x400ae147ae147ae0	3.3599999999999994
196	0x400b4395810624dc	3.4079999999999995
197	0x400ba5e353f7ced8	3.4559999999999995
198	0x400c083126e978d4	3.5039999999999996
199	0x400c6a7ef9db22d0	3.5519999999999996
200	0x400ccccccccccccc	3.5999999999999996
201	0x400d2f1a9fbe76c8	3.6479999999999997
202	0x400d916872b020c4	3.6959999999999997
203	0x400df3b645a1cac0	3.7439999999999998
204	0x400e5604189374bc	3.792
205	0x400eb851eb851eb8	3.84
206	0x400f1a9fbe76c8b4	3.888
207	0x400f7ced916872b0	3.936
208	0x400fdf3b645a1cac	3.984
209	0x401020c49ba5e354	4.032
210	0x401051eb851eb852	4.08
211	0x401083126e978d50	4.128
212	0x4010b4395810624e	4.176
213	0x4010e5604189374c	4.224
214	0x401116872b020c4a	4.272
215	0x401147ae147ae148	4.32
216	0x401178d4fdf3b646	4.368
217	0x4011a9fbe76c8b44	4.416
218	0x4011db22d0e56042	4.464
219	0x40120c49ba5e3540	4.5120000000000005
220	0x40123d70a3d70a3e	4.5600000000000005
221	0x40126e978d4fdf3c	4.6080000000000005
222	0x40129fbe76c8b43a	4.656000000000001
223	0x4012d0e560418938	4.704000000000001
224	0x4013020c49ba5e36	4.752000000000001
225	0x4013333333333334	4.800000000000001
226	0x4013645a1cac0832	4.848000000000001
227	0x401395810624dd30	4.896000000000001
228	0x4013c6a7ef9db22e	4.944000000000001
229	0x4013f7ced916872c	4.992000000000001
230	0x401428f5c28f5c2a	5.040000000000001
231	0x40145a1cac083128	5.088000000000001
232	0x40148b4395810626	5.136000000000001
233	0x4014bc6a7ef9db24	5.184000000000001
234	0x4014ed916872b022	5.232000000000001
235	0x40151eb851eb851e	5.279999999999999
236	0x40154fdf3b645a1c	5.327999999999999
237	0x4015810624dd2f1a	5.3759999999999994
238	0x4015b22d0e560418	5.4239999999999995
239	0x4015e353f7ced916	5.4719999999999995
240	0x4016147ae147ae14	5.52
241	0x401645a1cac08312	5.568
242	0x401676c8b4395810	5.616
243	0x4016a7ef9db22d0e	5.664
244	0x4016d916872b020c	5.712
245	0x40170a3d70a3d70a	5.76
246	0x40173b645a1cac08	5.808
247	0x40176c8b43958106	5.856
248	0x40179db22d0e5604	5.904
249	0x4017ced916872b02	5.952
250	0x4018000000000000	6.0

h_tbd f8 [250, 250]
0	0x0000000000000000	0.0
1	0x0000000000000000	0.0
2	0x0000000000000000	0.0
3	0x0000000000000000	0.0
4	0x0000000000000000	0.0
5	0x0000000000000000	0.0
6	0x0000000000000000	0.0
7	0x0000000000000000	0.0
8	0x0000000000000000	0.0
9	0x0000000000000000	0.0
10	0x0000000000000000	0.0
11	0x0000000000000000	0.0
12	0x0000000000000000	0.0
13	0x0000000000000000	0.0
14	0x0000000000000000	0.0
15	0x0000000000000000	0.0
16	0x0000000000000000	0.0
17	0x0000000000000000	0.0
18	0x0000000000000000	0.0
19	0x0000000000000000	0.0
20	0x0000000000000000	0.0
21	0x0000000000000000	0.0
22	0x0000000000000000	0.0
23	0x0000000000000000	0.0
24	0x0000000000000000	0.0
25	0x0000000000000000	0.0
26	0x0000000000000000	0.0
27	0x0000000000000000	0.0
28	0x0000000000000000	0.0
29	0x0000000000000000	0.0
30	0x0000000000000000	0.0
31	0x0000000000000000	0.0
32	0x0000000000000000	0.0
33	0x0000000000000000	0.0
34	0x0000000000000000	0.0
35	0x0000000000000000	0.0
36	0x0000000000000000	0.0
37	0x0000000000000000	0.0
38	0x0000000000000000	0.0
39	0x0000000000000000	0.0
40	0x0000000000000000	0.0
41	0x0000000000000000	0.0
42	0x0000000000000000	0.0
43	0x0000000000000000	0.0
44	0x0000000000000000	0.0
45	0x0000000000000000	0.0
46	0x0000000000000000	0.0
47	0x0000000000000000	0.0
48	0x0000000000000000	0.0
49	0x0000000000000000	0.0
50	0x0000000000000000	0.0
51	0x0000000000000000	0.0
52	0x0000000000000000	0.0
53	0x0000000000000000	0.0
54	0x0000000000000000	0.0
55	0x0000000000000000	0.0
56	0x0000000000000000	0.0
57	0x0000000000000000	0.0
58	0x0000000000000000	0.0
59	0x0000000000000000	0.0
60	0x0000000000000000	0.0
61	0x0000000000000000	0.0
62	0x0000000000000000	0.0
63	0x0000000000000000	0.0
64	0x0000000000000000	0.0
65	0x0000000000000000	0.0
66	0x0000000000000000	0.0
67	0x0000000000000000	0.0
68	0x0000000000000000	0.0
69	0x0000000000000000	0.0
70	0x0000000000000000	0.0
71	0x0000000000000000	0.0
72	0x0000000000000000	0.0
73	0x0000000000000000	0.0
74	0x0000000000000000	0.0
75	0x0000000000000000	0.0
76	0x0000000000000000	0.0
77	0x0000000000000000	0.0
78	0x0000000000000000	0.0
79	0x0000000000000000	0.0
80	0x0000000000000000	0.0
81	0x0000000000000000	0.0
82	0x0000000000000000	0.0
83	0x0000000000000000	0.0
84	0x0000000000000000	0.0
85	0x0000000000000000	0.0
86	0x0000000000000000	0.0
87	0x0000000000000000	0.0
88	0x0000000000000000	0.0
89	0x0000000000000000	0.0
90	0x0000000000000000	0.0
91	0x0000000000000000	0.0
92	0x0000000000000000	0.0
93	0x0000000000000000	0.0
94	0x0000000000000000	0.0
95	0x0000000000000000	0.0
96	0x0000000000000000	0.0
97	0x0000000000000000	0.0
98	0x0000000000000000	0.0
99	0x0000000000000000	0.0
100	0x0000000000000000	0.0
101	0x0000000000000000	0.0
102	0x0000000000000000	0.0
103	0x0000000000000000	0.0
104	0x0000000000000000	0.0
105	0x0000000000000000	0.0
106	0x0000000000000000	0.0
107	0x0000000000000000	0.0
108	0x0000000000000000	0.0
109	0x0000000000000000	0.0
110	0x0000000000000000	0.0
111	0x0000000000000000	0.0
112	0x0000000000000000	0.0
113	0x0000000000000000	0.0
114	0x0000000000000000	0.0
115	0x0000000000000000	0.0
116	0x0000000000000000	0.0
117	0x0000000000000000	0.0
118	0x0000000000000000	0.0
119	0x0000000000000000	0.0
120	0x0000000000000000	0.0
121	0x0000000000000000	0.0
122	0x0000000000000000	0.0
123	0x0000000000000000	0.0
124	0x0000000000000000	0.0
125	0x0000000000000000	0.0
126	0x0000000000000000	0.0
127	0x0000000000000000	0.0
128	0x0000000000000000	0.0
129	0x0000000000000000	0.0
130	0x0000000000000000	0.0
131	0x0000000000000000	0.0
132	0x0000000000000000	0.0
133	0x0000000000000000	0.0
134	0x0000000000000000	0.0
135	0x0000000000000000	0.0
136	0x0000000000000000	0.0
137	0x0000000000000000	0.0
138	0x0000000000000000	0.0
139	0x0000000000000000	0.0
140	0x0000000000000000	0.0
141	0x0000000000000000	0.0
142	0x0000000000000000	0.0
143	0x0000000000000000	0.0
144	0x0000000000000000	0.0
145	0x0000000000000000	0.0
146	0x0000000000000000	0.0
147	0x0000000000000000	0.0
148	0x0000000000000000	0.0
149	0x0000000000000000	0.0
150	0x0000000000000000	0.0
151	0x0000000000000000	0.0
152	0x0000000000000000	0.0
153	0x0000000000000000	0.0
154	0x0000000000000000	0.0
155	0x0000000000000000	0.0
156	0x0000000000000000	0.0
157	0x0000000000000000	0.0
158	0x0000000000000000	0.0
159	0x0000000000000000	0.0
160	0x0000000000000000	0.0
161	0x0000000000000000	0.0
162	0x0000000000000000	0.0
163	0x0000000000000000	0.0
164	0x0000000000000000	0.0
165	0x0000000000000000	0.0
166	0x0000000000000000	0.0
167	0x0000000000000000	0.0
168	0x0000000000000000	0.0
169	0x0000000000000000	0.0
170	0x0000000000000000	0.0
171	0x0000000000000000	0.0
172	0x0000000000000000	0.0
173	0x0000000000000000	0.0
174	0x0000000000000000	0.0
175	0x0000000000000000	0.0
176	0x0000000000000000	0.0
177	0x0000000000000000	0.0
178	0x0000000000000000	0.0
179	0x0000000000000000	0.0
180	0x0000000000000000	0.0
181	0x0000000000000000	0.0
182	0x0000000000000000	0.0
183	0x0000000000000000	0.0
184	0x0000000000000000	0.0
185	0x0000000000000000	0.0
186	0x0000000000000000	0.0
187	0x0000000000000000	0.0
188	0x0000000000000000	0.0
189	0x0000000000000000	0.0
190	0x0000000000000000	0.0
191	0x0000000000000000	0.0
192	0x0000000000000000	0.0
193	0x0000000000000000	0.0
194	0x0000000000000000	0.0
195	0x0000000000000000	0.0
196	0x0000000000000000	0.0
197	0x0000000000000000	0.0
198	0x0000000000000000	0.0
199	0x0000000000000000	0.0
200	0x0000000000000000	0.0
201	0x0000000000000000	0.0
202	0x0000000000000000	0.0
203	0x0000000000000000	0.0
204	0x0000000000000000	0.0
205	0x0000000000000000	0.0
206	0x0000000000000000	0.0
207	0x0000000000000000	0.0
208	0x0000000000000000	0.0
209	0x0000000000000000	0.0
210	0x0000000000000000	0.0
211	0x0000000000000000	0.0
212	0x0000000000000000	0.0
213	0x0000000000000000	0.0
214	0x0000000000000000	0.0
215	0x0000000000000000	0.0
216	0x0000000000000000	0.0
217	0x0000000000000000	0.0
218	0x0000000000000000	0.0
219	0x0000000000000000	0.0
220	0x0000000000000000	0.0
221	0x0000000000000000	0.0
222	0x0000000000000000	0.0
223	0x0000000000000000	0.0
224	0x0000000000000000	0.0
225	0x0000000000000000	0.0
226	0x0000000000000000	0.0
227	0x0000000000000000	0.0
228	0x0000000000000000	0.0
229	0x0000000000000000	0.0
230	0x0000000000000000	0.0
231	0x0000000000000000	0.0
232	0x0000000000000000	0.0
233	0x0000000000000000	0.0
234	0x0000000000000000	0.0
235	0x0000000000000000	0.0
236	0x0000000000000000	0.0
237	0x0000000000000000	0.0
238	0x0000000000000000	0.0
239	0x0000000000000000	0.0
240	0x0000000000000000	0.0
241	0x0000000000000000	0.0
242	0x0000000000000000	0.0
243	0x0000000000000000	0.0
244	0x0000000000000000	0.0
245	0x0000000000000000	0.0
246	0x0000000000000000	0.0
247	0x0000000000000000	0.0
248	0x0000000000000000	0.0
249	0x0000000000000000	0.0
250	0x0000000000000000	0.0
251	0x0000000000000000	0.0
252	0x0000000000000000	0.0
253	0x0000000000000000	0.0
254	0x0000000000000000	0.0
255	0x0000000000000000	0.0
