analysis/PHYS_A02_H064_L02_D01_Tanh_W4096_P010000_V0.00e+00_S5.00e-01_Adam_PT_False_device_cuda_dtype_float32.npz (npz, 616771 bytes, 12 tensors)

V0 f8 []
000000 00 00 00 00 00 00 00 00
       0.0

rms f8 []
000000 dd 52 01 6c d0 7b e8 3f
       0.7651140317417134

density_xx f4 [250]
000000 64 3b bf c0 2d b2 bd c0 f6 28 bc c0 be 9f ba c0
       -5.976 -5.928 -5.88 -5.832
000010 88 16 b9 c0 50 8d b7 c0 18 04 b6 c0 e2 7a b4 c0
       -5.7840004 -5.736 -5.6879997 -5.6400003
000020 aa f1 b2 c0 72 68 b1 c0 3c df af c0 04 56 ae c0
       -5.592 -5.5439997 -5.4960003 -5.448
000030 cc cc ac c0 96 43 ab c0 5e ba a9 c0 27 31 a8 c0
       -5.3999996 -5.352 -5.304 -5.256
000040 f0 a7 a6 c0 b8 1e a5 c0 81 95 a3 c0 4a 0c a2 c0
       -5.208 -5.16 -5.112 -5.064
000050 12 83 a0 c0 db f9 9e c0 a4 70 9d c0 6c e7 9b c0
       -5.016 -4.968 -4.92 -4.8719997
000060 36 5e 9a c0 fe d4 98 c0 c6 4b 97 c0 90 c2 95 c0
       -4.8240004 -4.776 -4.7279997 -4.6800003
000070 58 39 94 c0 20 b0 92 c0 ea 26 91 c0 b2 9d 8f c0
       -4.632 -4.5839996 -4.5360003 -4.488
000080 7b 14 8e c0 44 8b 8c c0 0c 02 8b c0 d5 78 89 c0
       -4.44 -4.392 -4.344 -4.296
000090 9e ef 87 c0 66 66 86 c0 2f dd 84 c0 f8 53 83 c0
       -4.248 -4.2 -4.152 -4.104
0000a0 c0 ca 81 c0 89 41 80 c0 a4 70 7d c0 36 5e 7a c0
       -4.0559998 -4.008 -3.96 -3.9120002
0000b0 c6 4b 77 c0 58 39 74 c0 ea 26 71 c0 7b 14 6e c0
       -3.8639998 -3.816 -3.7680001 -3.72
0000c0 0c 02 6b c0 9e ef 67 c0 2f dd 64 c0 c0 ca 61 c0
       -3.672 -3.624 -3.576 -3.5279999
0000d0 52 b8 5e c0 e4 a5 5b c0 74 93 58 c0 06 81 55 c0
       -3.48 -3.4320002 -3.3839998 -3.336
0000e0 98 6e 52 c0 29 5c 4f c0 ba 49 4c c0 4c 37 49 c0
       -3.288 -3.24 -3.192 -3.144
0000f0 dd 24 46 c0 6e 12 43 c0 00 00 40 c0 92 ed 3c c0
       -3.096 -3.0479999 -3.0 -2.9520001
000100 23 db 39 c0 b4 c8 36 c0 46 b6 33 c0 d7 a3 30 c0
       -2.904 -2.856 -2.808 -2.76
000110 68 91 2d c0 fa 7e 2a c0 8c 6c 27 c0 1c 5a 24 c0
       -2.712 -2.664 -2.6160002 -2.5679998
000120 ae 47 21 c0 40 35 1e c0 d1 22 1b c0 62 10 18 c0
       -2.52 -2.4720001 -2.424 -2.376
000130 f4 fd 14 c0 85 eb 11 c0 16 d9 0e c0 a8 c6 0b c0
       -2.328 -2.28 -2.2319999 -2.184
000140 3a b4 08 c0 ca a1 05 c0 5c 8f 02 c0 dc f9 fe bf
       -2.1360002 -2.0879998 -2.04 -1.9920001
000150 fe d4 f8 bf 20 b0 f2 bf 44 8b ec bf 66 66 e6 bf
       -1.944 -1.8959999 -1.848 -1.8
000160 8a 41 e0 bf ac 1c da bf ce f7 d3 bf f2 d2 cd bf
       -1.7520001 -1.704 -1.6559999 -1.608
000170 14 ae c7 bf 38 89 c1 bf 5a 64 bb bf 7d 3f b5 bf
       -1.56 -1.5120001 -1.464 -1.416
000180 a0 1a af bf c2 f5 a8 bf e6 d0 a2 bf 08 ac 9c bf
       -1.368 -1.3199999 -1.2720001 -1.224
000190 2b 87 96 bf 4e 62 90 bf 70 3d 8a bf 94 18 84 bf
       -1.176 -1.128 -1.0799999 -1.0320001
0001a0 6c e7 7b bf b2 9d 6f bf f8 53 63 bf 3e 0a 57 bf
       -0.98399997 -0.936 -0.888 -0.84000003
0001b0 83 c0 4a bf c9 76 3e bf 0e 2d 32 bf 54 e3 25 bf
       -0.792 -0.744 -0.696 -0.648
0001c0 9a 99 19 bf df 4f 0d bf 25 06 01 bf d5 78 e9 be
       -0.6 -0.552 -0.504 -0.456
0001d0 60 e5 d0 be ec 51 b8 be 76 be 9f be 02 2b 87 be
       -0.408 -0.36 -0.31199998 -0.264
0001e0 1a 2f 5d be 31 08 2c be 8f c2 f5 bd bc 74 93 bd
       -0.21599999 -0.168 -0.12 -0.072
0001f0 a6 9b c4 bc a6 9b c4 3c bc 74 93 3d 8f c2 f5 3d
       -0.024 0.024 0.072 0.12
000200 31 08 2c 3e 1a 2f 5d 3e 02 2b 87 3e 76 be 9f 3e
       0.168 0.21599999 0.264 0.31199998
000210 ec 51 b8 3e 60 e5 d0 3e d5 78 e9 3e 25 06 01 3f
       0.36 0.408 0.456 0.504
000220 df 4f 0d 3f 9a 99 19 3f 54 e3 25 3f 0e 2d 32 3f
       0.552 0.6 0.648 0.696
000230 c9 76 3e 3f 83 c0 4a 3f 3e 0a 57 3f f8 53 63 3f
       0.744 0.792 0.84000003 0.888
000240 b2 9d 6f 3f 6c e7 7b 3f 94 18 84 3f 70 3d 8a 3f
       0.936 0.98399997 1.0320001 1.0799999
000250 4e 62 90 3f 2b 87 96 3f 08 ac 9c 3f e6 d0 a2 3f
       1.128 1.176 1.224 1.2720001
000260 c2 f5 a8 3f a0 1a af 3f 7d 3f b5 3f 5a 64 bb 3f
       1.3199999 1.368 1.416 1.464
000270 38 89 c1 3f 14 ae c7 3f f2 d2 cd 3f ce f7 d3 3f
       1.5120001 1.56 1.608 1.6559999
000280 ac 1c da 3f 8a 41 e0 3f 66 66 e6 3f 44 8b ec 3f
       1.704 1.7520001 1.8 1.848
000290 20 b0 f2 3f fe d4 f8 3f dc f9 fe 3f 5c 8f 02 40
       1.8959999 1.944 1.9920001 2.04
0002a0 ca a1 05 40 3a b4 08 40 a8 c6 0b 40 16 d9 0e 40
       2.0879998 2.1360002 2.184 2.2319999
0002b0 85 eb 11 40 f4 fd 14 40 62 10 18 40 d1 22 1b 40
       2.28 2.328 2.376 2.424
0002c0 40 35 1e 40 ae 47 21 40 1c 5a 24 40 8c 6c 27 40
       2.4720001 2.52 2.5679998 2.6160002
0002d0 fa 7e 2a 40 68 91 2d 40 d7 a3 30 40 46 b6 33 40
       2.664 2.712 2.76 2.808
0002e0 b4 c8 36 40 23 db 39 40 92 ed 3c 40 00 00 40 40
       2.856 2.904 2.9520001 3.0
0002f0 6e 12 43 40 dd 24 46 40 4c 37 49 40 ba 49 4c 40
       3.0479999 3.096 3.144 3.192
000300 29 5c 4f 40 98 6e 52 40 06 81 55 40 74 93 58 40
       3.24 3.288 3.336 3.3839998
000310 e4 a5 5b 40 52 b8 5e 40 c0 ca 61 40 2f dd 64 40
       3.4320002 3.48 3.5279999 3.576
000320 9e ef 67 40 0c 02 6b 40 7b 14 6e 40 ea 26 71 40
       3.624 3.672 3.72 3.7680001
000330 58 39 74 40 c6 4b 77 40 36 5e 7a 40 a4 70 7d 40
       3.816 3.8639998 3.9120002 3.96
000340 89 41 80 40 c0 ca 81 40 f8 53 83 40 2f dd 84 40
       4.008 4.0559998 4.104 4.152
000350 66 66 86 40 9e ef 87 40 d5 78 89 40 0c 02 8b 40
       4.2 4.248 4.296 4.344
000360 44 8b 8c 40 7b 14 8e 40 b2 9d 8f 40 ea 26 91 40
       4.392 4.44 4.488 4.5360003
000370 20 b0 92 40 58 39 94 40 90 c2 95 40 c6 4b 97 40
       4.5839996 4.632 4.6800003 4.7279997
000380 fe d4 98 40 36 5e 9a 40 6c e7 9b 40 a4 70 9d 40
       4.776 4.8240004 4.8719997 4.92
000390 db f9 9e 40 12 83 a0 40 4a 0c a2 40 81 95 a3 40
       4.968 5.016 5.064 5.112
0003a0 b8 1e a5 40 f0 a7 a6 40 27 31 a8 40 5e ba a9 40
       5.16 5.208 5.256 5.304
0003b0 96 43 ab 40 cc cc ac 40 04 56 ae 40 3c df af 40
       5.352 5.3999996 5.448 5.4960003
0003c0 72 68 b1 40 aa f1 b2 40 e2 7a b4 40 18 04 b6 40
       5.5439997 5.592 5.6400003 5.6879997
0003d0 50 8d b7 40 88 16 b9 40 be 9f ba 40 f6 28 bc 40
       5.736 5.7840004 5.832 5.88
0003e0 2d b2 bd 40 64 3b bf 40
       5.928 5.976

density_psi f8 [250]
000000 00 00 00 00 00 00 00 00 00 00 00 00 00 00 00 00
       0.0 0.0
000010 00 00 00 00 00 00 00 00 00 00 00 00 00 00 00 00
       0.0 0.0
000020 00 00 00 00 00 00 00 00 00 00 00 00 00 00 00 00
       0.0 0.0
000030 00 00 00 00 00 00 00 00 00 00 00 00 00 00 00 00
       0.0 0.0
000040 00 00 00 00 00 00 00 00 00 00 00 00 00 00 00 00
       0.0 0.0
000050 00 00 00 00 00 00 00 00 00 00 00 00 00 00 00 00
       0.0 0.0
000060 00 00 00 00 00 00 00 00 00 00 00 00 00 00 00 00
       0.0 0.0
000070 00 00 00 00 00 00 00 00 00 00 00 00 00 00 00 00
       0.0 0.0
000080 00 00 00 00 00 00 00 00 00 00 00 00 00 00 00 00
       0.0 0.0
000090 00 00 00 00 00 00 00 00 00 00 00 00 00 00 00 00
       0.0 0.0
0000a0 00 00 00 00 00 00 00 00 00 00 00 00 00 00 00 00
       0.0 0.0
0000b0 00 00 00 00 00 00 00 00 00 00 00 00 00 00 00 00
       0.0 0.0
0000c0 00 00 00 00 00 00 00 00 00 00 00 00 00 00 00 00
       0.0 0.0
0000d0 00 00 00 00 00 00 00 00 00 00 00 00 00 00 00 00
       0.0 0.0
0000e0 00 00 00 00 00 00 00 00 00 00 00 00 00 00 00 00
       0.0 0.0
0000f0 00 00 00 00 00 00 00 00 00 00 00 00 00 00 00 00
       0.0 0.0
000100 00 00 00 00 00 00 00 00 00 00 00 00 00 00 00 00
       0.0 0.0
000110 00 00 00 00 00 00 00 00 00 00 00 00 00 00 00 00
       0.0 0.0
000120 00 00 00 00 00 00 00 00 00 00 00 00 00 00 00 00
       0.0 0.0
000130 00 00 00 00 00 00 00 00 00 00 00 00 00 00 00 00
       0.0 0.0
000140 00 00 00 00 00 00 00 00 00 00 00 00 00 00 00 00
       0.0 0.0
000150 00 00 00 00 00 00 00 00 de 19 cd cc 0e 11 a1 3e
       0.0 5.086252713247602e-07
000160 00 00 00 00 00 00 00 00 00 00 00 00 00 00 00 00
       0.0 0.0
000170 de 19 cd cc 0e 11 a1 3e 00 00 00 00 00 00 00 00
       5.086252713247602e-07 0.0
000180 00 00 00 00 00 00 00 00 de 19 cd cc 0e 11 c1 3e
       0.0 2.034501085299041e-06
000190 9c 52 06 5b 14 11 a1 3e de 19 cd cc 0e 11 a1 3e
       5.086277977012408e-07 5.086252713247602e-07
0001a0 9c 52 06 5b 14 11 c1 3e cd a6 33 33 96 99 b9 3e
       2.0345111908049633e-06 1.5258758139742807e-06
0001b0 55 60 00 80 52 55 c5 3e 43 e7 c7 71 59 55 d5 3e
       2.543126356623801e-06 5.086277977012408e-06
0001c0 44 ed 66 e6 d9 dd dd 3e 3d 46 ea 13 c1 bb db 3e
       7.120753798546643e-06 6.61216137011613e-06
0001d0 91 03 9a 59 74 77 e7 3e ad 82 33 43 97 99 f1 3e
       1.1189755969144725e-05 1.6784633953717088e-05
0001e0 c0 16 d9 42 8d 88 f8 3e 60 6c 00 d0 fc ff f7 3e
       2.3396878694257077e-05 2.288813720961421e-05
0001f0 72 ed 55 15 03 00 00 3f 09 4a cd 0c b8 bb 0b 3f
       3.051766786207445e-05 5.2897028217775066e-05
000200 c8 c7 cd 7c 6b 66 0a 3f 81 f1 99 e1 74 77 13 3f
       5.035415197242283e-05 7.425928961341499e-05
000210 bf 97 33 4f 41 44 16 3f e6 6b 72 ac 58 55 21 3f
       8.494042031123495e-05 0.0001322432274023226
000220 ba 91 33 27 ec ee 24 3f a0 26 23 ae 6b 66 2b 3f
       0.0001597083351959747 0.00020904602485520996
000230 c4 4c 00 be fd ff 30 3f f1 2e cd d8 b8 bb 35 3f
       0.0002593988883756277 0.0003316236769037437
000240 8f 2e c8 e3 5a d5 3c 3f 03 4c 00 19 53 d5 40 3f
       0.0004399630450115732 0.0005137115240380078
000250 3b 6b 9a 0c d1 0c 46 3f 02 eb 66 f7 d9 5d 4d 3f
       0.0006729145763587416 0.0008961977280742275
000260 ea 53 80 dd 52 95 52 3f 12 3b b1 9b 15 91 57 3f
       0.0011342343550542152 0.001438399411899109
000270 83 55 0d 61 62 46 5e 3f 9c 16 0c d2 25 22 63 3f
       0.001847835610722854 0.0023356188470440974
000280 aa d8 86 81 da 4d 69 3f 14 e2 19 ab ca 0c 70 3f
       0.003088881272755269 0.003918449090285953
000290 1c 49 e9 80 9d 41 74 3f 21 39 8b 5f 9a d1 79 3f
       0.004945388077049164 0.0063034086421807365
0002a0 69 18 1d 2d 64 be 80 3f f4 26 5a 07 67 fe 84 3f
       0.008175642611274197 0.010250859176511785
0002b0 64 ef 6b de 11 c9 8a 3f bf 3c 26 d6 55 cd 90 3f
       0.013078822708386624 0.01640829200328819
0002c0 c9 04 be 9f 00 d6 94 3f 20 76 44 31 a7 28 9a 3f
       0.020347604513067084 0.025545704252286083
0002d0 18 fe 88 c2 44 78 a0 3f ff 59 ab 9b 00 4e a4 3f
       0.0321675765485418 0.039657610895734045
0002e0 d0 bb 22 38 78 21 a9 3f bc 0c ff a6 bc af ae 3f
       0.04908347783327083 0.059934516320504255
0002f0 d5 7b 23 f8 66 02 b3 3f 23 9b 58 e0 6b 04 b7 3f
       0.07425540502616397 0.08991121508789184
000300 6a 3c 20 4c f8 bc bb 3f ad 86 d4 5d de b0 c0 3f
       0.10835220202010168 0.13039760190536268
000310 e9 74 c3 53 7c d4 c3 3f 71 e0 be 70 3c 9c c7 3f
       0.15492204751982477 0.18445544724613996
000320 05 97 c9 71 5e c6 cb 3f 95 61 96 15 1a 2c d0 3f
       0.21699123912838317 0.25269176586291425
000330 e3 22 f3 a0 71 c4 d2 3f 29 f8 38 3f 5a 9a d5 3f
       0.29323998182057504 0.3375459306151947
000340 30 4e 5c 44 e7 9e d8 3f ad c5 ea 5d 29 d5 db 3f
       0.3846986930450127 0.4348853509100888
000350 0b 85 34 89 ba 40 df 3f b1 dd b5 f9 0c 54 e1 3f
       0.48832572363797117 0.5415100934177898
000360 4f 33 e3 5e 0d 0e e3 3f 65 e9 dc 27 39 c8 e4 3f
       0.5954653599998013 0.6494413164685225
000370 2d ac 6a c7 bd 71 e6 3f 44 fc f8 a6 4f 01 e8 3f
       0.7013844389779301 0.7501600514587001
000380 a8 25 b5 06 24 6a e9 3f ed ed ec ed e2 94 ea 3f
       0.7942066317565848 0.8306746146185425
000390 48 8c e2 6f cb 94 eb 3f 83 31 57 94 cc 40 ec 3f
       0.8619134125950803 0.882910051086171
0003a0 c8 1f a6 28 37 a9 ec 3f 40 7b 0c e4 42 c8 ec 3f
       0.8956561845707194 0.8994459585263499
0003b0 2d c2 f3 5b 9a 9f ec 3f 83 e1 93 cd f8 15 ec 3f
       0.8944827838841484 0.8776821150959652
0003c0 27 50 97 cb 18 47 eb 3f e8 4e f4 c8 00 39 ea 3f
       0.8524288154972098 0.8194583821191062
0003d0 6a b8 ec b4 f7 ff e8 3f 78 69 f3 62 c6 a6 e7 3f
       0.7812460454640704 0.7391082699426041
0003e0 3f 8c d3 0d 21 38 e6 3f 78 cb 5c 63 26 d4 e4 3f
       0.6943516988798207 0.6508972111390525
0003f0 17 72 14 ec 0e 91 e3 3f b4 3c 30 fa 8c 76 e2 3f
       0.6114573107657318 0.576971520089407
000400 52 bd 27 36 26 8b e1 3f 56 b5 78 f6 7c f3 e0 3f
       0.5482359941214929 0.5297226728340927
000410 4e 68 b1 e4 5b a9 e0 3f c3 04 f9 f3 21 c9 e0 3f
       0.5206737009677995 0.5245523228733407
000420 0a 19 fc 14 84 31 e1 3f 88 34 a2 ce 8f f3 e1 3f
       0.5372944269045388 0.560981658536222
000430 d8 f6 9c b3 c2 f9 e2 3f 88 17 c3 3f 97 41 e4 3f
       0.5929883487767382 0.6330066914895136
000440 32 53 56 fb 15 a7 e5 3f 23 17 ba 35 c5 23 e7 3f
       0.6766462239198516 0.7231164979318446
000450 3d 84 04 ce 51 a5 e8 3f 01 aa ef b9 7f 0f ea 3f
       0.7701806091100775 0.8143919593397301
000460 52 fc e9 48 b8 51 eb 3f 0c df 06 73 2a 5c ec 3f
       0.8537255691625296 0.8862507101648318
000470 96 75 2a 60 6c fd ec 3f 19 5c bf e1 00 72 ed 3f
       0.9059354665984525 0.920166436112484
000480 23 d7 1e 9e 5c 87 ed 3f 0c 22 40 29 a9 45 ed 3f
       0.9227736557283815 0.9147535138773164
000490 4f f2 cf 0e 24 a5 ec 3f ce b2 0a 7f 7b b3 eb 3f
       0.8951587952902375 0.8656594735417344
0004a0 d5 91 c3 fe 43 8d ea 3f 23 fe 5d 66 58 19 e9 3f
       0.829744336686924 0.7843439101561142
0004b0 a3 2e 27 c5 51 7d e7 3f 2e 1d f3 84 1e cb e5 3f
       0.7340477800984967 0.6810448261902928
0004c0 f0 04 bf 54 4c f5 e3 3f 8d ca d4 bd 13 15 e2 3f
       0.6236936240385642 0.5650728900566989
0004d0 27 f6 1a 3e 74 3e e0 3f e3 8f ce ee 31 ec dc 3f
       0.5076237881655218 0.4519162017916171
0004e0 17 d4 35 19 96 8c d9 3f ff 1d f0 ff b5 40 d6 3f
       0.39920570814075645 0.3476996421236151
0004f0 1b 4f 37 94 20 55 d3 3f d3 be ab 3a 9c 8e d0 3f
       0.3020707557127353 0.2587042401273553
000500 a0 32 d4 84 00 38 cc 3f 28 4b 3c 72 fc cd c7 3f
       0.2204590462282754 0.18597369745165193
000510 79 3d 51 ee 55 f4 c3 3f 7d 2e a7 7f 80 a6 c0 3f
       0.15589403282727313 0.13008123620089754
000520 52 e1 f1 8d 3c 6b bb 3f e3 fe 81 27 1f 6e b6 3f
       0.1071050497574835 0.0876178237394885
000530 7d a3 cb 14 89 4b b2 3f 2c 58 fe 70 c1 9e ad 3f
       0.07146507985784285 0.05785183433833682
000540 ed d1 42 b4 da cf a7 3f 85 88 87 6c ec e4 a2 3f
       0.046507677559393425 0.03690279793569665
000550 82 2f 9a 01 39 21 9e 3f 76 9e 4f c7 eb c0 97 3f
       0.029423609469219077 0.023196872749308338
000560 ca 80 f0 ff 7a 55 92 3f 4b e9 fe ae 84 fc 8c 3f
       0.017904207106881377 0.014153515425154103
000570 2b 64 78 b8 a7 2e 86 3f 55 a5 f0 59 03 64 81 3f
       0.01083117515286077 0.008491541082622215
000580 be dd 46 5b da 6d 7a 3f af a2 79 8a ae 1a 74 3f
       0.006452420192025908 0.004908258247816973
000590 7d 57 2d 52 62 b6 6e 3f f1 03 1a ac c9 8c 67 3f
       0.003749076874934808 0.0028747500335275446
0005a0 0f ef 9f 36 e1 5d 61 3f 46 46 cd d3 62 e6 5a 3f
       0.0021199606608187714 0.0016418423758363262
0005b0 de d1 c7 02 59 15 53 3f 5c b7 33 61 40 44 4d 3f
       0.0011647576567358413 0.000893145976446279
0005c0 c4 c8 e6 a3 85 c8 45 3f 70 3e 12 4f 39 b3 3f 3f
       0.0006647732296214616 0.00048370503561388
0005d0 29 cf 66 1e 30 33 37 3f 52 1b 1d c5 58 d5 31 3f
       0.0003540031888420331 0.00027211587177016384
0005e0 77 36 cd 4a 63 66 27 3f ef 1c 67 e6 36 33 23 3f
       0.00017852747023499083 0.00014648480573795734
0005f0 f3 31 cd 6c 63 66 16 3f 11 b4 66 ea 30 33 11 3f
       8.544904558255971e-05 6.561266000089406e-05
000600 7e ae 61 2b 27 22 0a 3f 5b 66 00 a8 a7 aa 06 3f
       4.9845524174721594e-05 4.323314806260462e-05
000610 ae b4 ef ce d0 cc f4 3e 55 60 00 80 52 55 f5 3e
       1.983648411034839e-05 2.0345010852990408e-05
000620 44 ed 66 e6 d9 dd ed 3e c5 b7 b6 a0 25 22 e2 3e
       1.4241507597093286e-05 8.646672560921093e-06
000630 de 19 cd cc 0e 11 d1 3e 9c 52 06 5b 14 11 c1 3e
       4.069002170598082e-06 2.0345111908049633e-06
000640 55 60 00 80 52 55 c5 3e 55 60 00 80 52 55 c5 3e
       2.543126356623801e-06 2.543126356623801e-06
000650 43 e7 c7 71 59 55 c5 3e de 19 cd cc 0e 11 b1 3e
       2.543138988506204e-06 1.0172505426495205e-06
000660 00 00 00 00 00 00 00 00 00 00 00 00 00 00 00 00
       0.0 0.0
000670 de 19 cd cc 0e 11 a1 3e 00 00 00 00 00 00 00 00
       5.086252713247602e-07 0.0
000680 00 00 00 00 00 00 00 00 00 00 00 00 00 00 00 00
       0.0 0.0
000690 00 00 00 00 00 00 00 00 00 00 00 00 00 00 00 00
       0.0 0.0
0006a0 00 00 00 00 00 00 00 00 00 00 00 00 00 00 00 00
       0.0 0.0
0006b0 0c 7f 97 3e 09 11 a1 3e 00 00 00 00 00 00 00 00
       5.086227449733768e-07 0.0
0006c0 00 00 00 00 00 00 00 00 00 00 00 00 00 00 00 00
       0.0 0.0
0006d0 00 00 00 00 00 00 00 00 00 00 00 00 00 00 00 00
       0.0 0.0
0006e0 00 00 00 00 00 00 00 00 00 00 00 00 00 00 00 00
       0.0 0.0
0006f0 00 00 00 00 00 00 00 00 00 00 00 00 00 00 00 00
       0.0 0.0
000700 00 00 00 00 00 00 00 00 00 00 00 00 00 00 00 00
       0.0 0.0
000710 00 00 00 00 00 00 00 00 00 00 00 00 00 00 00 00
       0.0 0.0
000720 00 00 00 00 00 00 00 00 00 00 00 00 00 00 00 00
       0.0 0.0
000730 00 00 00 00 00 00 00 00 00 00 00 00 00 00 00 00
       0.0 0.0
000740 00 00 00 00 00 00 00 00 00 00 00 00 00 00 00 00
       0.0 0.0
000750 00 00 00 00 00 00 00 00 00 00 00 00 00 00 00 00
       0.0 0.0
000760 00 00 00 00 00 00 00 00 00 00 00 00 00 00 00 00
       0.0 0.0
000770 00 00 00 00 00 00 00 00 00 00 00 00 00 00 00 00
       0.0 0.0
000780 00 00 00 00 00 00 00 00 00 00 00 00 00 00 00 00
       0.0 0.0
000790 00 00 00 00 00 00 00 00 00 00 00 00 00 00 00 00
       0.0 0.0
0007a0 00 00 00 00 00 00 00 00 00 00 00 00 00 00 00 00
       0.0 0.0
0007b0 00 00 00 00 00 00 00 00 00 00 00 00 00 00 00 00
       0.0 0.0
0007c0 00 00 00 00 00 00 00 00 00 00 00 00 00 00 00 00
       0.0 0.0

h_obdm f8 [250, 250]
000000 00 00 00 00 00 00 00 00 00 00 00 00 00 00 00 00
       0.0 0.0
000010 00 00 00 00 00 00 00 00 00 00 00 00 00 00 00 00
       0.0 0.0
000020 00 00 00 00 00 00 00 00 00 00 00 00 00 00 00 00
       0.0 0.0
000030 00 00 00 00 00 00 00 00 00 00 00 00 00 00 00 00
       0.0 0.0
000040 00 00 00 00 00 00 00 00 00 00 00 00 00 00 00 00
       0.0 0.0
000050 00 00 00 00 00 00 00 00 00 00 00 00 00 00 00 00
       0.0 0.0
000060 00 00 00 00 00 00 00 00 00 00 00 00 00 00 00 00
       0.0 0.0
000070 00 00 00 00 00 00 00 00 00 00 00 00 00 00 00 00
       0.0 0.0
000080 00 00 00 00 00 00 00 00 00 00 00 00 00 00 00 00
       0.0 0.0
000090 00 00 00 00 00 00 00 00 00 00 00 00 00 00 00 00
       0.0 0.0
0000a0 00 00 00 00 00 00 00 00 00 00 00 00 00 00 00 00
       0.0 0.0
0000b0 00 00 00 00 00 00 00 00 00 00 00 00 00 00 00 00
       0.0 0.0
0000c0 00 00 00 00 00 00 00 00 00 00 00 00 00 00 00 00
       0.0 0.0
0000d0 00 00 00 00 00 00 00 00 00 00 00 00 00 00 00 00
       0.0 0.0
0000e0 00 00 00 00 00 00 00 00 00 00 00 00 00 00 00 00
       0.0 0.0
0000f0 00 00 00 00 00 00 00 00 00 00 00 00 00 00 00 00
       0.0 0.0
000100 00 00 00 00 00 00 00 00 00 00 00 00 00 00 00 00
       0.0 0.0
000110 00 00 00 00 00 00 00 00 00 00 00 00 00 00 00 00
       0.0 0.0
000120 00 00 00 00 00 00 00 00 00 00 00 00 00 00 00 00
       0.0 0.0
000130 00 00 00 00 00 00 00 00 00 00 00 00 00 00 00 00
       0.0 0.0
000140 00 00 00 00 00 00 00 00 00 00 00 00 00 00 00 00
       0.0 0.0
000150 00 00 00 00 00 00 00 00 00 00 00 00 00 00 00 00
       0.0 0.0
000160 00 00 00 00 00 00 00 00 00 00 00 00 00 00 00 00
       0.0 0.0
000170 00 00 00 00 00 00 00 00 00 00 00 00 00 00 00 00
       0.0 0.0
000180 00 00 00 00 00 00 00 00 00 00 00 00 00 00 00 00
       0.0 0.0
000190 00 00 00 00 00 00 00 00 00 00 00 00 00 00 00 00
       0.0 0.0
0001a0 00 00 00 00 00 00 00 00 00 00 00 00 00 00 00 00
       0.0 0.0
0001b0 00 00 00 00 00 00 00 00 00 00 00 00 00 00 00 00
       0.0 0.0
0001c0 00 00 00 00 00 00 00 00 00 00 00 00 00 00 00 00
       0.0 0.0
0001d0 00 00 00 00 00 00 00 00 00 00 00 00 00 00 00 00
       0.0 0.0
0001e0 00 00 00 00 00 00 00 00 00 00 00 00 00 00 00 00
       0.0 0.0
0001f0 00 00 00 00 00 00 00 00 00 00 00 00 00 00 00 00
       0.0 0.0
000200 00 00 00 00 00 00 00 00 00 00 00 00 00 00 00 00
       0.0 0.0
000210 00 00 00 00 00 00 00 00 00 00 00 00 00 00 00 00
       0.0 0.0
000220 00 00 00 00 00 00 00 00 00 00 00 00 00 00 00 00
       0.0 0.0
000230 00 00 00 00 00 00 00 00 00 00 00 00 00 00 00 00
       0.0 0.0
000240 00 00 00 00 00 00 00 00 00 00 00 00 00 00 00 00
       0.0 0.0
000250 00 00 00 00 00 00 00 00 00 00 00 00 00 00 00 00
       0.0 0.0
000260 00 00 00 00 00 00 00 00 00 00 00 00 00 00 00 00
       0.0 0.0
000270 00 00 00 00 00 00 00 00 00 00 00 00 00 00 00 00
       0.0 0.0
000280 00 00 00 00 00 00 00 00 00 00 00 00 00 00 00 00
       0.0 0.0
000290 00 00 00 00 00 00 00 00 00 00 00 00 00 00 00 00
       0.0 0.0
0002a0 00 00 00 00 00 00 00 00 00 00 00 00 00 00 00 00
       0.0 0.0
0002b0 00 00 00 00 00 00 00 00 00 00 00 00 00 00 00 00
       0.0 0.0
0002c0 00 00 00 00 00 00 00 00 00 00 00 00 00 00 00 00
       0.0 0.0
0002d0 00 00 00 00 00 00 00 00 00 00 00 00 00 00 00 00
       0.0 0.0
0002e0 00 00 00 00 00 00 00 00 00 00 00 00 00 00 00 00
       0.0 0.0
0002f0 00 00 00 00 00 00 00 00 00 00 00 00 00 00 00 00
       0.0 0.0
000300 00 00 00 00 00 00 00 00 00 00 00 00 00 00 00 00
       0.0 0.0
000310 00 00 00 00 00 00 00 00 00 00 00 00 00 00 00 00
       0.0 0.0
000320 00 00 00 00 00 00 00 00 00 00 00 00 00 00 00 00
       0.0 0.0
000330 00 00 00 00 00 00 00 00 00 00 00 00 00 00 00 00
       0.0 0.0
000340 00 00 00 00 00 00 00 00 00 00 00 00 00 00 00 00
       0.0 0.0
000350 00 00 00 00 00 00 00 00 00 00 00 00 00 00 00 00
       0.0 0.0
000360 00 00 00 00 00 00 00 00 00 00 00 00 00 00 00 00
       0.0 0.0
000370 00 00 00 00 00 00 00 00 00 00 00 00 00 00 00 00
       0.0 0.0
000380 00 00 00 00 00 00 00 00 00 00 00 00 00 00 00 00
       0.0 0.0
000390 00 00 00 00 00 00 00 00 00 00 00 00 00 00 00 00
       0.0 0.0
0003a0 00 00 00 00 00 00 00 00 00 00 00 00 00 00 00 00
       0.0 0.0
0003b0 00 00 00 00 00 00 00 00 00 00 00 00 00 00 00 00
       0.0 0.0
0003c0 00 00 00 00 00 00 00 00 00 00 00 00 00 00 00 00
       0.0 0.0
0003d0 00 00 00 00 00 00 00 00 00 00 00 00 00 00 00 00
       0.0 0.0
0003e0 00 00 00 00 00 00 00 00 00 00 00 00 00 00 00 00
       0.0 0.0
0003f0 00 00 00 00 00 00 00 00 00 00 00 00 00 00 00 00
       0.0 0.0
000400 00 00 00 00 00 00 00 00 00 00 00 00 00 00 00 00
       0.0 0.0
000410 00 00 00 00 00 00 00 00 00 00 00 00 00 00 00 00
       0.0 0.0
000420 00 00 00 00 00 00 00 00 00 00 00 00 00 00 00 00
       0.0 0.0
000430 00 00 00 00 00 00 00 00 00 00 00 00 00 00 00 00
       0.0 0.0
000440 00 00 00 00 00 00 00 00 00 00 00 00 00 00 00 00
       0.0 0.0
000450 00 00 00 00 00 00 00 00 00 00 00 00 00 00 00 00
       0.0 0.0
000460 00 00 00 00 00 00 00 00 00 00 00 00 00 00 00 00
       0.0 0.0
000470 00 00 00 00 00 00 00 00 00 00 00 00 00 00 00 00
       0.0 0.0
000480 00 00 00 00 00 00 00 00 00 00 00 00 00 00 00 00
       0.0 0.0
000490 00 00 00 00 00 00 00 00 00 00 00 00 00 00 00 00
       0.0 0.0
0004a0 00 00 00 00 00 00 00 00 00 00 00 00 00 00 00 00
       0.0 0.0
0004b0 00 00 00 00 00 00 00 00 00 00 00 00 00 00 00 00
       0.0 0.0
0004c0 00 00 00 00 00 00 00 00 00 00 00 00 00 00 00 00
       0.0 0.0
0004d0 00 00 00 00 00 00 00 00 00 00 00 00 00 00 00 00
       0.0 0.0
0004e0 00 00 00 00 00 00 00 00 00 00 00 00 00 00 00 00
       0.0 0.0
0004f0 00 00 00 00 00 00 00 00 00 00 00 00 00 00 00 00
       0.0 0.0
000500 00 00 00 00 00 00 00 00 00 00 00 00 00 00 00 00
       0.0 0.0
000510 00 00 00 00 00 00 00 00 00 00 00 00 00 00 00 00
       0.0 0.0
000520 00 00 00 00 00 00 00 00 00 00 00 00 00 00 00 00
       0.0 0.0
000530 00 00 00 00 00 00 00 00 00 00 00 00 00 00 00 00
       0.0 0.0
000540 00 00 00 00 00 00 00 00 00 00 00 00 00 00 00 00
       0.0 0.0
000550 00 00 00 00 00 00 00 00 00 00 00 00 00 00 00 00
       0.0 0.0
000560 00 00 00 00 00 00 00 00 00 00 00 00 00 00 00 00
       0.0 0.0
000570 00 00 00 00 00 00 00 00 00 00 00 00 00 00 00 00
       0.0 0.0
000580 00 00 00 00 00 00 00 00 00 00 00 00 00 00 00 00
       0.0 0.0
000590 00 00 00 00 00 00 00 00 00 00 00 00 00 00 00 00
       0.0 0.0
0005a0 00 00 00 00 00 00 00 00 00 00 00 00 00 00 00 00
       0.0 0.0
0005b0 00 00 00 00 00 00 00 00 00 00 00 00 00 00 00 00
       0.0 0.0
0005c0 00 00 00 00 00 00 00 00 00 00 00 00 00 00 00 00
       0.0 0.0
0005d0 00 00 00 00 00 00 00 00 00 00 00 00 00 00 00 00
       0.0 0.0
0005e0 00 00 00 00 00 00 00 00 00 00 00 00 00 00 00 00
       0.0 0.0
0005f0 00 00 00 00 00 00 00 00 00 00 00 00 00 00 00 00
       0.0 0.0
000600 00 00 00 00 00 00 00 00 00 00 00 00 00 00 00 00
       0.0 0.0
000610 00 00 00 00 00 00 00 00 00 00 00 00 00 00 00 00
       0.0 0.0
000620 00 00 00 00 00 00 00 00 00 00 00 00 00 00 00 00
       0.0 0.0
000630 00 00 00 00 00 00 00 00 00 00 00 00 00 00 00 00
       0.0 0.0
000640 00 00 00 00 00 00 00 00 00 00 00 00 00 00 00 00
       0.0 0.0
000650 00 00 00 00 00 00 00 00 00 00 00 00 00 00 00 00
       0.0 0.0
000660 00 00 00 00 00 00 00 00 00 00 00 00 00 00 00 00
       0.0 0.0
000670 00 00 00 00 00 00 00 00 00 00 00 00 00 00 00 00
       0.0 0.0
000680 00 00 00 00 00 00 00 00 00 00 00 00 00 00 00 00
       0.0 0.0
000690 00 00 00 00 00 00 00 00 00 00 00 00 00 00 00 00
       0.0 0.0
0006a0 00 00 00 00 00 00 00 00 00 00 00 00 00 00 00 00
       0.0 0.0
0006b0 00 00 00 00 00 00 00 00 00 00 00 00 00 00 00 00
       0.0 0.0
0006c0 00 00 00 00 00 00 00 00 00 00 00 00 00 00 00 00
       0.0 0.0
0006d0 00 00 00 00 00 00 00 00 00 00 00 00 00 00 00 00
       0.0 0.0
0006e0 00 00 00 00 00 00 00 00 00 00 00 00 00 00 00 00
       0.0 0.0
0006f0 00 00 00 00 00 00 00 00 00 00 00 00 00 00 00 00
       0.0 0.0
000700 00 00 00 00 00 00 00 00 00 00 00 00 00 00 00 00
       0.0 0.0
000710 00 00 00 00 00 00 00 00 00 00 00 00 00 00 00 00
       0.0 0.0
000720 00 00 00 00 00 00 00 00 00 00 00 00 00 00 00 00
       0.0 0.0
000730 00 00 00 00 00 00 00 00 00 00 00 00 00 00 00 00
       0.0 0.0
000740 00 00 00 00 00 00 00 00 00 00 00 00 00 00 00 00
       0.0 0.0
000750 00 00 00 00 00 00 00 00 00 00 00 00 00 00 00 00
       0.0 0.0
000760 00 00 00 00 00 00 00 00 00 00 00 00 00 00 00 00
       0.0 0.0
000770 00 00 00 00 00 00 00 00 00 00 00 00 00 00 00 00
       0.0 0.0
000780 00 00 00 00 00 00 00 00 00 00 00 00 00 00 00 00
       0.0 0.0
000790 00 00 00 00 00 00 00 00 00 00 00 00 00 00 00 00
       0.0 0.0
0007a0 00 00 00 00 00 00 00 00 00 00 00 00 00 00 00 00
       0.0 0.0
0007b0 00 00 00 00 00 00 00 00 00 00 00 00 00 00 00 00
       0.0 0.0
0007c0 00 00 00 00 00 00 00 00 00 00 00 00 00 00 00 00
       0.0 0.0
0007d0 00 00 00 00 00 00 00 00 00 00 00 00 00 00 00 00
       0.0 0.0
0007e0 00 00 00 00 00 00 00 00 00 00 00 00 00 00 00 00
       0.0 0.0
0007f0 00 00 00 00 00 00 00 00 00 00 00 00 00 00 00 00
       0.0 0.0

xedges_obdm f8 [251]
000000 00 00 00 00 00 00 18 c0 02 2b 87 16 d9 ce 17 c0
       -6.0 -5.952
000010 04 56 0e 2d b2 9d 17 c0 06 81 95 43 8b 6c 17 c0
       -5.904 -5.856
000020 08 ac 1c 5a 64 3b 17 c0 0a d7 a3 70 3d 0a 17 c0
       -5.808 -5.76
000030 0c 02 2b 87 16 d9 16 c0 0e 2d b2 9d ef a7 16 c0
       -5.712 -5.664
000040 10 58 39 b4 c8 76 16 c0 12 83 c0 ca a1 45 16 c0
       -5.616 -5.568
000050 14 ae 47 e1 7a 14 16 c0 16 d9 ce f7 53 e3 15 c0
       -5.52 -5.4719999999999995
000060 18 04 56 0e 2d b2 15 c0 1b 2f dd 24 06 81 15 c0
       -5.4239999999999995 -5.376
000070 1d 5a 64 3b df 4f 15 c0 1f 85 eb 51 b8 1e 15 c0
       -5.328 -5.28
000080 21 b0 72 68 91 ed 14 c0 23 db f9 7e 6a bc 14 c0
       -5.232 -5.184
000090 25 06 81 95 43 8b 14 c0 27 31 08 ac 1c 5a 14 c0
       -5.136 -5.088
0000a0 29 5c 8f c2 f5 28 14 c0 2b 87 16 d9 ce f7 13 c0
       -5.04 -4.992
0000b0 2d b2 9d ef a7 c6 13 c0 2f dd 24 06 81 95 13 c0
       -4.944 -4.896
0000c0 31 08 ac 1c 5a 64 13 c0 33 33 33 33 33 33 13 c0
       -4.848 -4.8
0000d0 35 5e ba 49 0c 02 13 c0 37 89 41 60 e5 d0 12 c0
       -4.752 -4.704
0000e0 39 b4 c8 76 be 9f 12 c0 3b df 4f 8d 97 6e 12 c0
       -4.656 -4.608
0000f0 3e 0a d7 a3 70 3d 12 c0 40 35 5e ba 49 0c 12 c0
       -4.5600000000000005 -4.5120000000000005
000100 42 60 e5 d0 22 db 11 c0 44 8b 6c e7 fb a9 11 c0
       -4.464 -4.416
000110 46 b6 f3 fd d4 78 11 c0 48 e1 7a 14 ae 47 11 c0
       -4.368 -4.32
000120 4a 0c 02 2b 87 16 11 c0 4c 37 89 41 60 e5 10 c0
       -4.272 -4.224
000130 4e 62 10 58 39 b4 10 c0 50 8d 97 6e 12 83 10 c0
       -4.176 -4.128
000140 52 b8 1e 85 eb 51 10 c0 54 e3 a5 9b c4 20 10 c0
       -4.08 -4.032
000150 ac 1c 5a 64 3b df 0f c0 b0 72 68 91 ed 7c 0f c0
       -3.984 -3.936
000160 b4 c8 76 be 9f 1a 0f c0 b8 1e 85 eb 51 b8 0e c0
       -3.888 -3.84
000170 bc 74 93 18 04 56 0e c0 c0 ca a1 45 b6 f3 0d c0
       -3.792 -3.7439999999999998
000180 c4 20 b0 72 68 91 0d c0 c9 76 be 9f 1a 2f 0d c0
       -3.6959999999999997 -3.648
000190 cd cc cc cc cc cc 0c c0 d1 22 db f9 7e 6a 0c c0
       -3.6 -3.552
0001a0 d5 78 e9 26 31 08 0c c0 d9 ce f7 53 e3 a5 0b c0
       -3.504 -3.456
0001b0 dd 24 06 81 95 43 0b c0 e1 7a 14 ae 47 e1 0a c0
       -3.408 -3.36
0001c0 e5 d0 22 db f9 7e 0a c0 e9 26 31 08 ac 1c 0a c0
       -3.312 -3.264
0001d0 ed 7c 3f 35 5e ba 09 c0 f2 d2 4d 62 10 58 09 c0
       -3.2159999999999997 -3.168
0001e0 f6 28 5c 8f c2 f5 08 c0 fa 7e 6a bc 74 93 08 c0
       -3.12 -3.072
0001f0 fe d4 78 e9 26 31 08 c0 02 2b 87 16 d9 ce 07 c0
       -3.024 -2.976
000200 06 81 95 43 8b 6c 07 c0 0a d7 a3 70 3d 0a 07 c0
       -2.928 -2.88
000210 0e 2d b2 9d ef a7 06 c0 12 83 c0 ca a1 45 06 c0
       -2.832 -2.784
000220 16 d9 ce f7 53 e3 05 c0 1a 2f dd 24 06 81 05 c0
       -2.7359999999999998 -2.6879999999999997
000230 1f 85 eb 51 b8 1e 05 c0 23 db f9 7e 6a bc 04 c0
       -2.64 -2.592
000240 27 31 08 ac 1c 5a 04 c0 2b 87 16 d9 ce f7 03 c0
       -2.544 -2.496
000250 2f dd 24 06 81 95 03 c0 33 33 33 33 33 33 03 c0
       -2.448 -2.4
000260 37 89 41 60 e5 d0 02 c0 3b df 4f 8d 97 6e 02 c0
       -2.352 -2.304
000270 3f 35 5e ba 49 0c 02 c0 43 8b 6c e7 fb a9 01 c0
       -2.256 -2.2079999999999997
000280 48 e1 7a 14 ae 47 01 c0 4c 37 89 41 60 e5 00 c0
       -2.16 -2.112
000290 50 8d 97 6e 12 83 00 c0 54 e3 a5 9b c4 20 00 c0
       -2.064 -2.016
0002a0 b0 72 68 91 ed 7c ff bf b8 1e 85 eb 51 b8 fe bf
       -1.968 -1.92
0002b0 c0 ca a1 45 b6 f3 fd bf c8 76 be 9f 1a 2f fd bf
       -1.8719999999999999 -1.8239999999999998
0002c0 d0 22 db f9 7e 6a fc bf d8 ce f7 53 e3 a5 fb bf
       -1.7759999999999998 -1.7279999999999998
0002d0 e0 7a 14 ae 47 e1 fa bf e8 26 31 08 ac 1c fa bf
       -1.6799999999999997 -1.6319999999999997
0002e0 f0 d2 4d 62 10 58 f9 bf f8 7e 6a bc 74 93 f8 bf
       -1.5839999999999996 -1.5359999999999996
0002f0 00 2b 87 16 d9 ce f7 bf 08 d7 a3 70 3d 0a f7 bf
       -1.4879999999999995 -1.4399999999999995
000300 10 83 c0 ca a1 45 f6 bf 1c 2f dd 24 06 81 f5 bf
       -1.3919999999999995 -1.3440000000000003
000310 24 db f9 7e 6a bc f4 bf 2c 87 16 d9 ce f7 f3 bf
       -1.2960000000000003 -1.2480000000000002
000320 34 33 33 33 33 33 f3 bf 3c df 4f 8d 97 6e f2 bf
       -1.2000000000000002 -1.1520000000000001
000330 44 8b 6c e7 fb a9 f1 bf 4c 37 89 41 60 e5 f0 bf
       -1.104 -1.056
000340 54 e3 a5 9b c4 20 f0 bf b8 1e 85 eb 51 b8 ee bf
       -1.008 -0.96
000350 c8 76 be 9f 1a 2f ed bf d8 ce f7 53 e3 a5 eb bf
       -0.9119999999999999 -0.8639999999999999
000360 e8 26 31 08 ac 1c ea bf f8 7e 6a bc 74 93 e8 bf
       -0.8159999999999998 -0.7679999999999998
000370 08 d7 a3 70 3d 0a e7 bf 18 2f dd 24 06 81 e5 bf
       -0.7199999999999998 -0.6719999999999997
000380 28 87 16 d9 ce f7 e3 bf 38 df 4f 8d 97 6e e2 bf
       -0.6239999999999997 -0.5759999999999996
000390 48 37 89 41 60 e5 e0 bf b0 1e 85 eb 51 b8 de bf
       -0.5279999999999996 -0.47999999999999954
0003a0 d0 ce f7 53 e3 a5 db bf f0 7e 6a bc 74 93 d8 bf
       -0.4319999999999995 -0.38399999999999945
0003b0 20 2f dd 24 06 81 d5 bf 40 df 4f 8d 97 6e d2 bf
       -0.3360000000000003 -0.28800000000000026
0003c0 c0 1e 85 eb 51 b8 ce bf 00 7f 6a bc 74 93 c8 bf
       -0.2400000000000002 -0.19200000000000017
0003d0 40 df 4f 8d 97 6e c2 bf 00 7f 6a bc 74 93 b8 bf
       -0.14400000000000013 -0.09600000000000009
0003e0 00 7f 6a bc 74 93 a8 bf 00 00 00 00 00 00 00 00
       -0.04800000000000004 0.0
0003f0 00 7f 6a bc 74 93 a8 3f 00 7f 6a bc 74 93 b8 3f
       0.04800000000000004 0.09600000000000009
000400 40 df 4f 8d 97 6e c2 3f 00 7f 6a bc 74 93 c8 3f
       0.14400000000000013 0.19200000000000017
000410 c0 1e 85 eb 51 b8 ce 3f 40 df 4f 8d 97 6e d2 3f
       0.2400000000000002 0.28800000000000026
000420 20 2f dd 24 06 81 d5 3f 00 7f 6a bc 74 93 d8 3f
       0.3360000000000003 0.38400000000000034
000430 e0 ce f7 53 e3 a5 db 3f c0 1e 85 eb 51 b8 de 3f
       0.4320000000000004 0.4800000000000004
000440 50 37 89 41 60 e5 e0 3f 40 df 4f 8d 97 6e e2 3f
       0.5280000000000005 0.5760000000000005
000450 30 87 16 d9 ce f7 e3 3f 18 2f dd 24 06 81 e5 3f
       0.6240000000000006 0.6719999999999997
000460 08 d7 a3 70 3d 0a e7 3f f8 7e 6a bc 74 93 e8 3f
       0.7199999999999998 0.7679999999999998
000470 e8 26 31 08 ac 1c ea 3f d8 ce f7 53 e3 a5 eb 3f
       0.8159999999999998 0.8639999999999999
000480 c8 76 be 9f 1a 2f ed 3f b8 1e 85 eb 51 b8 ee 3f
       0.9119999999999999 0.96
000490 54 e3 a5 9b c4 20 f0 3f 4c 37 89 41 60 e5 f0 3f
       1.008 1.056
0004a0 44 8b 6c e7 fb a9 f1 3f 3c df 4f 8d 97 6e f2 3f
       1.104 1.1520000000000001
0004b0 34 33 33 33 33 33 f3 3f 2c 87 16 d9 ce f7 f3 3f
       1.2000000000000002 1.2480000000000002
0004c0 24 db f9 7e 6a bc f4 3f 1c 2f dd 24 06 81 f5 3f
       1.2960000000000003 1.3440000000000003
0004d0 14 83 c0 ca a1 45 f6 3f 0c d7 a3 70 3d 0a f7 3f
       1.3920000000000003 1.4400000000000004
0004e0 04 2b 87 16 d9 ce f7 3f fc 7e 6a bc 74 93 f8 3f
       1.4880000000000004 1.5360000000000005
0004f0 f4 d2 4d 62 10 58 f9 3f ec 26 31 08 ac 1c fa 3f
       1.5840000000000005 1.6320000000000006
000500 e0 7a 14 ae 47 e1 fa 3f d8 ce f7 53 e3 a5 fb 3f
       1.6799999999999997 1.7279999999999998
000510 d0 22 db f9 7e 6a fc 3f c8 76 be 9f 1a 2f fd 3f
       1.7759999999999998 1.8239999999999998
000520 c0 ca a1 45 b6 f3 fd 3f b8 1e 85 eb 51 b8 fe 3f
       1.8719999999999999 1.92
000530 b0 72 68 91 ed 7c ff 3f 54 e3 a5 9b c4 20 00 40
       1.968 2.016
000540 50 8d 97 6e 12 83 00 40 4c 37 89 41 60 e5 00 40
       2.064 2.112
000550 48 e1 7a 14 ae 47 01 40 44 8b 6c e7 fb a9 01 40
       2.16 2.208
000560 40 35 5e ba 49 0c 02 40 3c df 4f 8d 97 6e 02 40
       2.2560000000000002 2.3040000000000003
000570 38 89 41 60 e5 d0 02 40 34 33 33 33 33 33 03 40
       2.3520000000000003 2.4000000000000004
000580 30 dd 24 06 81 95 03 40 2c 87 16 d9 ce f7 03 40
       2.4480000000000004 2.4960000000000004
000590 28 31 08 ac 1c 5a 04 40 24 db f9 7e 6a bc 04 40
       2.5440000000000005 2.5920000000000005
0005a0 20 85 eb 51 b8 1e 05 40 1c 2f dd 24 06 81 05 40
       2.6400000000000006 2.6880000000000006
0005b0 18 d9 ce f7 53 e3 05 40 14 83 c0 ca a1 45 06 40
       2.7360000000000007 2.7840000000000007
0005c0 10 2d b2 9d ef a7 06 40 0c d7 a3 70 3d 0a 07 40
       2.8320000000000007 2.880000000000001
0005d0 08 81 95 43 8b 6c 07 40 04 2b 87 16 d9 ce 07 40
       2.928000000000001 2.976000000000001
0005e0 00 d5 78 e9 26 31 08 40 fc 7e 6a bc 74 93 08 40
       3.024000000000001 3.072000000000001
0005f0 f8 28 5c 8f c2 f5 08 40 f4 d2 4d 62 10 58 09 40
       3.120000000000001 3.168000000000001
000600 f0 7c 3f 35 5e ba 09 40 e8 26 31 08 ac 1c 0a 40
       3.216000000000001 3.2639999999999993
000610 e4 d0 22 db f9 7e 0a 40 e0 7a 14 ae 47 e1 0a 40
       3.3119999999999994 3.3599999999999994
000620 dc 24 06 81 95 43 0b 40 d8 ce f7 53 e3 a5 0b 40
       3.4079999999999995 3.4559999999999995
000630 d4 78 e9 26 31 08 0c 40 d0 22 db f9 7e 6a 0c 40
       3.5039999999999996 3.5519999999999996
000640 cc cc cc cc cc cc 0c 40 c8 76 be 9f 1a 2f 0d 40
       3.5999999999999996 3.6479999999999997
000650 c4 20 b0 72 68 91 0d 40 c0 ca a1 45 b6 f3 0d 40
       3.6959999999999997 3.7439999999999998
000660 bc 74 93 18 04 56 0e 40 b8 1e 85 eb 51 b8 0e 40
       3.792 3.84
000670 b4 c8 76 be 9f 1a 0f 40 b0 72 68 91 ed 7c 0f 40
       3.888 3.936
000680 ac 1c 5a 64 3b df 0f 40 54 e3 a5 9b c4 20 10 40
       3.984 4.032
000690 52 b8 1e 85 eb 51 10 40 50 8d 97 6e 12 83 10 40
       4.08 4.128
0006a0 4e 62 10 58 39 b4 10 40 4c 37 89 41 60 e5 10 40
       4.176 4.224
0006b0 4a 0c 02 2b 87 16 11 40 48 e1 7a 14 ae 47 11 40
       4.272 4.32
0006c0 46 b6 f3 fd d4 78 11 40 44 8b 6c e7 fb a9 11 40
       4.368 4.416
0006d0 42 60 e5 d0 22 db 11 40 40 35 5e ba 49 0c 12 40
       4.464 4.5120000000000005
0006e0 3e 0a d7 a3 70 3d 12 40 3c df 4f 8d 97 6e 12 40
       4.5600000000000005 4.6080000000000005
0006f0 3a b4 c8 76 be 9f 12 40 38 89 41 60 e5 d0 12 40
       4.656000000000001 4.704000000000001
000700 36 5e ba 49 0c 02 13 40 34 33 33 33 33 33 13 40
       4.752000000000001 4.800000000000001
000710 32 08 ac 1c 5a 64 13 40 30 dd 24 06 81 95 13 40
       4.848000000000001 4.896000000000001
000720 2e b2 9d ef a7 c6 13 40 2c 87 16 d9 ce f7 13 40
       4.944000000000001 4.992000000000001
000730 2a 5c 8f c2 f5 28 14 40 28 31 08 ac 1c 5a 14 40
       5.040000000000001 5.088000000000001
000740 26 06 81 95 43 8b 14 40 24 db f9 7e 6a bc 14 40
       5.136000000000001 5.184000000000001
000750 22 b0 72 68 91 ed 14 40 1e 85 eb 51 b8 1e 15 40
       5.232000000000001 5.279999999999999
000760 1c 5a 64 3b df 4f 15 40 1a 2f dd 24 06 81 15 40
       5.327999999999999 5.3759999999999994
000770 18 04 56 0e 2d b2 15 40 16 d9 ce f7 53 e3 15 40
       5.4239999999999995 5.4719999999999995
000780 14 ae 47 e1 7a 14 16 40 12 83 c0 ca a1 45 16 40
       5.52 5.568
000790 10 58 39 b4 c8 76 16 40 0e 2d b2 9d ef a7 16 40
       5.616 5.664
0007a0 0c 02 2b 87 16 d9 16 40 0a d7 a3 70 3d 0a 17 40
       5.712 5.76
0007b0 08 ac 1c 5a 64 3b 17 40 06 81 95 43 8b 6c 17 40
       5.808 5.856
0007c0 04 56 0e 2d b2 9d 17 40 02 2b 87 16 d9 ce 17 40
       5.904 5.952
0007d0 00 00 00 00 00 00 18 40
       6.0

yedges_obdm f8 [251]
000000 00 00 00 00 00 00 18 c0 02 2b 87 16 d9 ce 17 c0
       -6.0 -5.952
000010 04 56 0e 2d b2 9d 17 c0 06 81 95 43 8b 6c 17 c0
       -5.904 -5.856
000020 08 ac 1c 5a 64 3b 17 c0 0a d7 a3 70 3d 0a 17 c0
       -5.808 -5.76
000030 0c 02 2b 87 16 d9 16 c0 0e 2d b2 9d ef a7 16 c0
       -5.712 -5.664
000040 10 58 39 b4 c8 76 16 c0 12 83 c0 ca a1 45 16 c0
       -5.616 -5.568
000050 14 ae 47 e1 7a 14 16 c0 16 d9 ce f7 53 e3 15 c0
       -5.52 -5.4719999999999995
000060 18 04 56 0e 2d b2 15 c0 1b 2f dd 24 06 81 15 c0
       -5.4239999999999995 -5.376
000070 1d 5a 64 3b df 4f 15 c0 1f 85 eb 51 b8 1e 15 c0
       -5.328 -5.28
000080 21 b0 72 68 91 ed 14 c0 23 db f9 7e 6a bc 14 c0
       -5.232 -5.184
000090 25 06 81 95 43 8b 14 c0 27 31 08 ac 1c 5a 14 c0
       -5.136 -5.088
0000a0 29 5c 8f c2 f5 28 14 c0 2b 87 16 d9 ce f7 13 c0
       -5.04 -4.992
0000b0 2d b2 9d ef a7 c6 13 c0 2f dd 24 06 81 95 13 c0
       -4.944 -4.896
0000c0 31 08 ac 1c 5a 64 13 c0 33 33 33 33 33 33 13 c0
       -4.848 -4.8
0000d0 35 5e ba 49 0c 02 13 c0 37 89 41 60 e5 d0 12 c0
       -4.752 -4.704
0000e0 39 b4 c8 76 be 9f 12 c0 3b df 4f 8d 97 6e 12 c0
       -4.656 -4.608
0000f0 3e 0a d7 a3 70 3d 12 c0 40 35 5e ba 49 0c 12 c0
       -4.5600000000000005 -4.5120000000000005
000100 42 60 e5 d0 22 db 11 c0 44 8b 6c e7 fb a9 11 c0
       -4.464 -4.416
000110 46 b6 f3 fd d4 78 11 c0 48 e1 7a 14 ae 47 11 c0
       -4.368 -4.32
000120 4a 0c 02 2b 87 16 11 c0 4c 37 89 41 60 e5 10 c0
       -4.272 -4.224
000130 4e 62 10 58 39 b4 10 c0 50 8d 97 6e 12 83 10 c0
       -4.176 -4.128
000140 52 b8 1e 85 eb 51 10 c0 54 e3 a5 9b c4 20 10 c0
       -4.08 -4.032
000150 ac 1c 5a 64 3b df 0f c0 b0 72 68 91 ed 7c 0f c0
       -3.984 -3.936
000160 b4 c8 76 be 9f 1a 0f c0 b8 1e 85 eb 51 b8 0e c0
       -3.888 -3.84
000170 bc 74 93 18 04 56 0e c0 c0 ca a1 45 b6 f3 0d c0
       -3.792 -3.7439999999999998
000180 c4 20 b0 72 68 91 0d c0 c9 76 be 9f 1a 2f 0d c0
       -3.6959999999999997 -3.648
000190 cd cc cc cc cc cc 0c c0 d1 22 db f9 7e 6a 0c c0
       -3.6 -3.552
0001a0 d5 78 e9 26 31 08 0c c0 d9 ce f7 53 e3 a5 0b c0
       -3.504 -3.456
0001b0 dd 24 06 81 95 43 0b c0 e1 7a 14 ae 47 e1 0a c0
       -3.408 -3.36
0001c0 e5 d0 22 db f9 7e 0a c0 e9 26 31 08 ac 1c 0a c0
       -3.312 -3.264
0001d0 ed 7c 3f 35 5e ba 09 c0 f2 d2 4d 62 10 58 09 c0
       -3.2159999999999997 -3.168
0001e0 f6 28 5c 8f c2 f5 08 c0 fa 7e 6a bc 74 93 08 c0
       -3.12 -3.072
0001f0 fe d4 78 e9 26 31 08 c0 02 2b 87 16 d9 ce 07 c0
       -3.024 -2.976
000200 06 81 95 43 8b 6c 07 c0 0a d7 a3 70 3d 0a 07 c0
       -2.928 -2.88
000210 0e 2d b2 9d ef a7 06 c0 12 83 c0 ca a1 45 06 c0
       -2.832 -2.784
000220 16 d9 ce f7 53 e3 05 c0 1a 2f dd 24 06 81 05 c0
       -2.7359999999999998 -2.6879999999999997
000230 1f 85 eb 51 b8 1e 05 c0 23 db f9 7e 6a bc 04 c0
       -2.64 -2.592
000240 27 31 08 ac 1c 5a 04 c0 2b 87 16 d9 ce f7 03 c0
       -2.544 -2.496
000250 2f dd 24 06 81 95 03 c0 33 33 33 33 33 33 03 c0
       -2.448 -2.4
000260 37 89 41 60 e5 d0 02 c0 3b df 4f 8d 97 6e 02 c0
       -2.352 -2.304
000270 3f 35 5e ba 49 0c 02 c0 43 8b 6c e7 fb a9 01 c0
       -2.256 -2.2079999999999997
000280 48 e1 7a 14 ae 47 01 c0 4c 37 89 41 60 e5 00 c0
       -2.16 -2.112
000290 50 8d 97 6e 12 83 00 c0 54 e3 a5 9b c4 20 00 c0
       -2.064 -2.016
0002a0 b0 72 68 91 ed 7c ff bf b8 1e 85 eb 51 b8 fe bf
       -1.968 -1.92
0002b0 c0 ca a1 45 b6 f3 fd bf c8 76 be 9f 1a 2f fd bf
       -1.8719999999999999 -1.8239999999999998
0002c0 d0 22 db f9 7e 6a fc bf d8 ce f7 53 e3 a5 fb bf
       -1.7759999999999998 -1.7279999999999998
0002d0 e0 7a 14 ae 47 e1 fa bf e8 26 31 08 ac 1c fa bf
       -1.6799999999999997 -1.6319999999999997
0002e0 f0 d2 4d 62 10 58 f9 bf f8 7e 6a bc 74 93 f8 bf
       -1.5839999999999996 -1.5359999999999996
0002f0 00 2b 87 16 d9 ce f7 bf 08 d7 a3 70 3d 0a f7 bf
       -1.4879999999999995 -1.4399999999999995
000300 10 83 c0 ca a1 45 f6 bf 1c 2f dd 24 06 81 f5 bf
       -1.3919999999999995 -1.3440000000000003
000310 24 db f9 7e 6a bc f4 bf 2c 87 16 d9 ce f7 f3 bf
       -1.2960000000000003 -1.2480000000000002
000320 34 33 33 33 33 33 f3 bf 3c df 4f 8d 97 6e f2 bf
       -1.2000000000000002 -1.1520000000000001
000330 44 8b 6c e7 fb a9 f1 bf 4c 37 89 41 60 e5 f0 bf
       -1.104 -1.056
000340 54 e3 a5 9b c4 20 f0 bf b8 1e 85 eb 51 b8 ee bf
       -1.008 -0.96
000350 c8 76 be 9f 1a 2f ed bf d8 ce f7 53 e3 a5 eb bf
       -0.9119999999999999 -0.8639999999999999
000360 e8 26 31 08 ac 1c ea bf f8 7e 6a bc 74 93 e8 bf
       -0.8159999999999998 -0.7679999999999998
000370 08 d7 a3 70 3d 0a e7 bf 18 2f dd 24 06 81 e5 bf
       -0.7199999999999998 -0.6719999999999997
000380 28 87 16 d9 ce f7 e3 bf 38 df 4f 8d 97 6e e2 bf
       -0.6239999999999997 -0.5759999999999996
000390 48 37 89 41 60 e5 e0 bf b0 1e 85 eb 51 b8 de bf
       -0.5279999999999996 -0.47999999999999954
0003a0 d0 ce f7 53 e3 a5 db bf f0 7e 6a bc 74 93 d8 bf
       -0.4319999999999995 -0.38399999999999945
0003b0 20 2f dd 24 06 81 d5 bf 40 df 4f 8d 97 6e d2 bf
       -0.3360000000000003 -0.28800000000000026
0003c0 c0 1e 85 eb 51 b8 ce bf 00 7f 6a bc 74 93 c8 bf
       -0.2400000000000002 -0.19200000000000017
0003d0 40 df 4f 8d 97 6e c2 bf 00 7f 6a bc 74 93 b8 bf
       -0.14400000000000013 -0.09600000000000009
0003e0 00 7f 6a bc 74 93 a8 bf 00 00 00 00 00 00 00 00
       -0.04800000000000004 0.0
0003f0 00 7f 6a bc 74 93 a8 3f 00 7f 6a bc 74 93 b8 3f
       0.04800000000000004 0.09600000000000009
000400 40 df 4f 8d 97 6e c2 3f 00 7f 6a bc 74 93 c8 3f
       0.14400000000000013 0.19200000000000017
000410 c0 1e 85 eb 51 b8 ce 3f 40 df 4f 8d 97 6e d2 3f
       0.2400000000000002 0.28800000000000026
000420 20 2f dd 24 06 81 d5 3f 00 7f 6a bc 74 93 d8 3f
       0.3360000000000003 0.38400000000000034
000430 e0 ce f7 53 e3 a5 db 3f c0 1e 85 eb 51 b8 de 3f
       0.4320000000000004 0.4800000000000004
000440 50 37 89 41 60 e5 e0 3f 40 df 4f 8d 97 6e e2 3f
       0.5280000000000005 0.5760000000000005
000450 30 87 16 d9 ce f7 e3 3f 18 2f dd 24 06 81 e5 3f
       0.6240000000000006 0.6719999999999997
000460 08 d7 a3 70 3d 0a e7 3f f8 7e 6a bc 74 93 e8 3f
       0.7199999999999998 0.7679999999999998
000470 e8 26 31 08 ac 1c ea 3f d8 ce f7 53 e3 a5 eb 3f
       0.8159999999999998 0.8639999999999999
000480 c8 76 be 9f 1a 2f ed 3f b8 1e 85 eb 51 b8 ee 3f
       0.9119999999999999 0.96
000490 54 e3 a5 9b c4 20 f0 3f 4c 37 89 41 60 e5 f0 3f
       1.008 1.056
0004a0 44 8b 6c e7 fb a9 f1 3f 3c df 4f 8d 97 6e f2 3f
       1.104 1.1520000000000001
0004b0 34 33 33 33 33 33 f3 3f 2c 87 16 d9 ce f7 f3 3f
       1.2000000000000002 1.2480000000000002
0004c0 24 db f9 7e 6a bc f4 3f 1c 2f dd 24 06 81 f5 3f
       1.2960000000000003 1.3440000000000003
0004d0 14 83 c0 ca a1 45 f6 3f 0c d7 a3 70 3d 0a f7 3f
       1.3920000000000003 1.4400000000000004
0004e0 04 2b 87 16 d9 ce f7 3f fc 7e 6a bc 74 93 f8 3f
       1.4880000000000004 1.5360000000000005
0004f0 f4 d2 4d 62 10 58 f9 3f ec 26 31 08 ac 1c fa 3f
       1.5840000000000005 1.6320000000000006
000500 e0 7a 14 ae 47 e1 fa 3f d8 ce f7 53 e3 a5 fb 3f
       1.6799999999999997 1.7279999999999998
000510 d0 22 db f9 7e 6a fc 3f c8 76 be 9f 1a 2f fd 3f
       1.7759999999999998 1.8239999999999998
000520 c0 ca a1 45 b6 f3 fd 3f b8 1e 85 eb 51 b8 fe 3f
       1.8719999999999999 1.92
000530 b0 72 68 91 ed 7c ff 3f 54 e3 a5 9b c4 20 00 40
       1.968 2.016
000540 50 8d 97 6e 12 83 00 40 4c 37 89 41 60 e5 00 40
       2.064 2.112
000550 48 e1 7a 14 ae 47 01 40 44 8b 6c e7 fb a9 01 40
       2.16 2.208
000560 40 35 5e ba 49 0c 02 40 3c df 4f 8d 97 6e 02 40
       2.2560000000000002 2.3040000000000003
000570 38 89 41 60 e5 d0 02 40 34 33 33 33 33 33 03 40
       2.3520000000000003 2.4000000000000004
000580 30 dd 24 06 81 95 03 40 2c 87 16 d9 ce f7 03 40
       2.4480000000000004 2.4960000000000004
000590 28 31 08 ac 1c 5a 04 40 24 db f9 7e 6a bc 04 40
       2.5440000000000005 2.5920000000000005
0005a0 20 85 eb 51 b8 1e 05 40 1c 2f dd 24 06 81 05 40
       2.6400000000000006 2.6880000000000006
0005b0 18 d9 ce f7 53 e3 05 40 14 83 c0 ca a1 45 06 40
       2.7360000000000007 2.7840000000000007
0005c0 10 2d b2 9d ef a7 06 40 0c d7 a3 70 3d 0a 07 40
       2.8320000000000007 2.880000000000001
0005d0 08 81 95 43 8b 6c 07 40 04 2b 87 16 d9 ce 07 40
       2.928000000000001 2.976000000000001
0005e0 00 d5 78 e9 26 31 08 40 fc 7e 6a bc 74 93 08 40
       3.024000000000001 3.072000000000001
0005f0 f8 28 5c 8f c2 f5 08 40 f4 d2 4d 62 10 58 09 40
       3.120000000000001 3.168000000000001
000600 f0 7c 3f 35 5e ba 09 40 e8 26 31 08 ac 1c 0a 40
       3.216000000000001 3.2639999999999993
000610 e4 d0 22 db f9 7e 0a 40 e0 7a 14 ae 47 e1 0a 40
       3.3119999999999994 3.3599999999999994
000620 dc 24 06 81 95 43 0b 40 d8 ce f7 53 e3 a5 0b 40
       3.4079999999999995 3.4559999999999995
000630 d4 78 e9 26 31 08 0c 40 d0 22 db f9 7e 6a 0c 40
       3.5039999999999996 3.5519999999999996
000640 cc cc cc cc cc cc 0c 40 c8 76 be 9f 1a 2f 0d 40
       3.5999999999999996 3.6479999999999997
000650 c4 20 b0 72 68 91 0d 40 c0 ca a1 45 b6 f3 0d 40
       3.6959999999999997 3.7439999999999998
000660 bc 74 93 18 04 56 0e 40 b8 1e 85 eb 51 b8 0e 40
       3.792 3.84
000670 b4 c8 76 be 9f 1a 0f 40 b0 72 68 91 ed 7c 0f 40
       3.888 3.936
000680 ac 1c 5a 64 3b df 0f 40 54 e3 a5 9b c4 20 10 40
       3.984 4.032
000690 52 b8 1e 85 eb 51 10 40 50 8d 97 6e 12 83 10 40
       4.08 4.128
0006a0 4e 62 10 58 39 b4 10 40 4c 37 89 41 60 e5 10 40
       4.176 4.224
0006b0 4a 0c 02 2b 87 16 11 40 48 e1 7a 14 ae 47 11 40
       4.272 4.32
0006c0 46 b6 f3 fd d4 78 11 40 44 8b 6c e7 fb a9 11 40
       4.368 4.416
0006d0 42 60 e5 d0 22 db 11 40 40 35 5e ba 49 0c 12 40
       4.464 4.5120000000000005
0006e0 3e 0a d7 a3 70 3d 12 40 3c df 4f 8d 97 6e 12 40
       4.5600000000000005 4.6080000000000005
0006f0 3a b4 c8 76 be 9f 12 40 38 89 41 60 e5 d0 12 40
       4.656000000000001 4.704000000000001
000700 36 5e ba 49 0c 02 13 40 34 33 33 33 33 33 13 40
       4.752000000000001 4.800000000000001
000710 32 08 ac 1c 5a 64 13 40 30 dd 24 06 81 95 13 40
       4.848000000000001 4.896000000000001
000720 2e b2 9d ef a7 c6 13 40 2c 87 16 d9 ce f7 13 40
       4.944000000000001 4.992000000000001
000730 2a 5c 8f c2 f5 28 14 40 28 31 08 ac 1c 5a 14 40
       5.040000000000001 5.088000000000001
000740 26 06 81 95 43 8b 14 40 24 db f9 7e 6a bc 14 40
       5.136000000000001 5.184000000000001
000750 22 b0 72 68 91 ed 14 40 1e 85 eb 51 b8 1e 15 40
       5.232000000000001 5.279999999999999
000760 1c 5a 64 3b df 4f 15 40 1a 2f dd 24 06 81 15 40
       5.327999999999999 5.3759999999999994
000770 18 04 56 0e 2d b2 15 40 16 d9 ce f7 53 e3 15 40
       5.4239999999999995 5.4719999999999995
000780 14 ae 47 e1 7a 14 16 40 12 83 c0 ca a1 45 16 40
       5.52 5.568
000790 10 58 39 b4 c8 76 16 40 0e 2d b2 9d ef a7 16 40
       5.616 5.664
0007a0 0c 02 2b 87 16 d9 16 40 0a d7 a3 70 3d 0a 17 40
       5.712 5.76
0007b0 08 ac 1c 5a 64 3b 17 40 06 81 95 43 8b 6c 17 40
       5.808 5.856
0007c0 04 56 0e 2d b2 9d 17 40 02 2b 87 16 d9 ce 17 40
       5.904 5.952
0007d0 00 00 00 00 00 00 18 40
       6.0
