analysis/PHYS_A02_H064_L02_D01_Tanh_W4096_P010000_V0.00e+00_S5.00e-01_Adam_PT_False_device_cuda_dtype_float32.npz (npz, 623981 bytes, 12 tensors)

V0 f8 []
000000 00 00 00 00 00 00 00 00
       0.0

rms f8 []
000000 d4 b0 ba 93 33 7d e8 3f
       0.7652833829247592

density_xx f4 [250]
000000 64 3b bf c0 2d b2 bd c0 f6 28 bc c0 be 9f ba c0
       -5.976 -5.928 -5.88 -5.832
000010 88 16 b9 c0 50 8d b7 c0 18 04 b6 c0 e2 7a b4 c0
       -5.7840004 -5.736 -5.6879997 -5.6400003
000020 aa f1 b2 c0 72 68 b1 c0 3c df af c0 04 56 ae c0
       -5.592 -5.5439997 -5.4960003 -5.448
000030 cc cc ac c0 96 43 ab c0 5e ba a9 c0 27 31 a8 c0
       -5.3999996 -5.352 -5.304 -5.256
000040 f0 a7 a6 c0 b8 1e a5 c0 81 95 a3 c0 4a 0c a2 c0
       -5.208 -5.16 -5.112 -5.064
000050 12 83 a0 c0 db f9 9e c0 a4 70 9d c0 6c e7 9b c0
       -5.016 -4.968 -4.92 -4.8719997
000060 36 5e 9a c0 fe d4 98 c0 c6 4b 97 c0 90 c2 95 c0
       -4.8240004 -4.776 -4.7279997 -4.6800003
000070 58 39 94 c0 20 b0 92 c0 ea 26 91 c0 b2 9d 8f c0
       -4.632 -4.5839996 -4.5360003 -4.488
000080 7b 14 8e c0 44 8b 8c c0 0c 02 8b c0 d5 78 89 c0
       -4.44 -4.392 -4.344 -4.296
000090 9e ef 87 c0 66 66 86 c0 2f dd 84 c0 f8 53 83 c0
       -4.248 -4.2 -4.152 -4.104
0000a0 c0 ca 81 c0 89 41 80 c0 a4 70 7d c0 36 5e 7a c0
       -4.0559998 -4.008 -3.96 -3.9120002
0000b0 c6 4b 77 c0 58 39 74 c0 ea 26 71 c0 7b 14 6e c0
       -3.8639998 -3.816 -3.7680001 -3.72
0000c0 0c 02 6b c0 9e ef 67 c0 2f dd 64 c0 c0 ca 61 c0
       -3.672 -3.624 -3.576 -3.5279999
0000d0 52 b8 5e c0 e4 a5 5b c0 74 93 58 c0 06 81 55 c0
       -3.48 -3.4320002 -3.3839998 -3.336
0000e0 98 6e 52 c0 29 5c 4f c0 ba 49 4c c0 4c 37 49 c0
       -3.288 -3.24 -3.192 -3.144
0000f0 dd 24 46 c0 6e 12 43 c0 00 00 40 c0 92 ed 3c c0
       -3.096 -3.0479999 -3.0 -2.9520001
000100 23 db 39 c0 b4 c8 36 c0 46 b6 33 c0 d7 a3 30 c0
       -2.904 -2.856 -2.808 -2.76
000110 68 91 2d c0 fa 7e 2a c0 8c 6c 27 c0 1c 5a 24 c0
       -2.712 -2.664 -2.6160002 -2.5679998
000120 ae 47 21 c0 40 35 1e c0 d1 22 1b c0 62 10 18 c0
       -2.52 -2.4720001 -2.424 -2.376
000130 f4 fd 14 c0 85 eb 11 c0 16 d9 0e c0 a8 c6 0b c0
       -2.328 -2.28 -2.2319999 -2.184
000140 3a b4 08 c0 ca a1 05 c0 5c 8f 02 c0 dc f9 fe bf
       -2.1360002 -2.0879998 -2.04 -1.9920001
000150 fe d4 f8 bf 20 b0 f2 bf 44 8b ec bf 66 66 e6 bf
       -1.944 -1.8959999 -1.848 -1.8
000160 8a 41 e0 bf ac 1c da bf ce f7 d3 bf f2 d2 cd bf
       -1.7520001 -1.704 -1.6559999 -1.608
000170 14 ae c7 bf 38 89 c1 bf 5a 64 bb bf 7d 3f b5 bf
       -1.56 -1.5120001 -1.464 -1.416
000180 a0 1a af bf c2 f5 a8 bf e6 d0 a2 bf 08 ac 9c bf
       -1.368 -1.3199999 -1.2720001 -1.224
000190 2b 87 96 bf 4e 62 90 bf 70 3d 8a bf 94 18 84 bf
       -1.176 -1.128 -1.0799999 -1.0320001
0001a0 6c e7 7b bf b2 9d 6f bf f8 53 63 bf 3e 0a 57 bf
       -0.98399997 -0.936 -0.888 -0.84000003
0001b0 83 c0 4a bf c9 76 3e bf 0e 2d 32 bf 54 e3 25 bf
       -0.792 -0.744 -0.696 -0.648
0001c0 9a 99 19 bf df 4f 0d bf 25 06 01 bf d5 78 e9 be
       -0.6 -0.552 -0.504 -0.456
0001d0 60 e5 d0 be ec 51 b8 be 76 be 9f be 02 2b 87 be
       -0.408 -0.36 -0.31199998 -0.264
0001e0 1a 2f 5d be 31 08 2c be 8f c2 f5 bd bc 74 93 bd
       -0.21599999 -0.168 -0.12 -0.072
0001f0 a6 9b c4 bc a6 9b c4 3c bc 74 93 3d 8f c2 f5 3d
       -0.024 0.024 0.072 0.12
000200 31 08 2c 3e 1a 2f 5d 3e 02 2b 87 3e 76 be 9f 3e
       0.168 0.21599999 0.264 0.31199998
000210 ec 51 b8 3e 60 e5 d0 3e d5 78 e9 3e 25 06 01 3f
       0.36 0.408 0.456 0.504
000220 df 4f 0d 3f 9a 99 19 3f 54 e3 25 3f 0e 2d 32 3f
       0.552 0.6 0.648 0.696
000230 c9 76 3e 3f 83 c0 4a 3f 3e 0a 57 3f f8 53 63 3f
       0.744 0.792 0.84000003 0.888
000240 b2 9d 6f 3f 6c e7 7b 3f 94 18 84 3f 70 3d 8a 3f
       0.936 0.98399997 1.0320001 1.0799999
000250 4e 62 90 3f 2b 87 96 3f 08 ac 9c 3f e6 d0 a2 3f
       1.128 1.176 1.224 1.2720001
000260 c2 f5 a8 3f a0 1a af 3f 7d 3f b5 3f 5a 64 bb 3f
       1.3199999 1.368 1.416 1.464
000270 38 89 c1 3f 14 ae c7 3f f2 d2 cd 3f ce f7 d3 3f
       1.5120001 1.56 1.608 1.6559999
000280 ac 1c da 3f 8a 41 e0 3f 66 66 e6 3f 44 8b ec 3f
       1.704 1.7520001 1.8 1.848
000290 20 b0 f2 3f fe d4 f8 3f dc f9 fe 3f 5c 8f 02 40
       1.8959999 1.944 1.9920001 2.04
0002a0 ca a1 05 40 3a b4 08 40 a8 c6 0b 40 16 d9 0e 40
       2.0879998 2.1360002 2.184 2.2319999
0002b0 85 eb 11 40 f4 fd 14 40 62 10 18 40 d1 22 1b 40
       2.28 2.328 2.376 2.424
0002c0 40 35 1e 40 ae 47 21 40 1c 5a 24 40 8c 6c 27 40
       2.4720001 2.52 2.5679998 2.6160002
0002d0 fa 7e 2a 40 68 91 2d 40 d7 a3 30 40 46 b6 33 40
       2.664 2.712 2.76 2.808
0002e0 b4 c8 36 40 23 db 39 40 92 ed 3c 40 00 00 40 40
       2.856 2.904 2.9520001 3.0
0002f0 6e 12 43 40 dd 24 46 40 4c 37 49 40 ba 49 4c 40
       3.0479999 3.096 3.144 3.192
000300 29 5c 4f 40 98 6e 52 40 06 81 55 40 74 93 58 40
       3.24 3.288 3.336 3.3839998
000310 e4 a5 5b 40 52 b8 5e 40 c0 ca 61 40 2f dd 64 40
       3.4320002 3.48 3.5279999 3.576
000320 9e ef 67 40 0c 02 6b 40 7b 14 6e 40 ea 26 71 40
       3.624 3.672 3.72 3.7680001
000330 58 39 74 40 c6 4b 77 40 36 5e 7a 40 a4 70 7d 40
       3.816 3.8639998 3.9120002 3.96
000340 89 41 80 40 c0 ca 81 40 f8 53 83 40 2f dd 84 40
       4.008 4.0559998 4.104 4.152
000350 66 66 86 40 9e ef 87 40 d5 78 89 40 0c 02 8b 40
       4.2 4.248 4.296 4.344
000360 44 8b 8c 40 7b 14 8e 40 b2 9d 8f 40 ea 26 91 40
       4.392 4.44 4.488 4.5360003
000370 20 b0 92 40 58 39 94 40 90 c2 95 40 c6 4b 97 40
       4.5839996 4.632 4.6800003 4.7279997
000380 fe d4 98 40 36 5e 9a 40 6c e7 9b 40 a4 70 9d 40
       4.776 4.8240004 4.8719997 4.92
000390 db f9 9e 40 12 83 a0 40 4a 0c a2 40 81 95 a3 40
       4.968 5.016 5.064 5.112
0003a0 b8 1e a5 40 f0 a7 a6 40 27 31 a8 40 5e ba a9 40
       5.16 5.208 5.256 5.304
0003b0 96 43 ab 40 cc cc ac 40 04 56 ae 40 3c df af 40
       5.352 5.3999996 5.448 5.4960003
0003c0 72 68 b1 40 aa f1 b2 40 e2 7a b4 40 18 04 b6 40
       5.5439997 5.592 5.6400003 5.6879997
0003d0 50 8d b7 40 88 16 b9 40 be 9f ba 40 f6 28 bc 40
       5.736 5.7840004 5.832 5.88
0003e0 2d b2 bd 40 64 3b bf 40
       5.928 5.976

density_psi f8 [250]
000000 00 00 00 00 00 00 00 00 00 00 00 00 00 00 00 00
       0.0 0.0
000010 00 00 00 00 00 00 00 00 00 00 00 00 00 00 00 00
       0.0 0.0
000020 00 00 00 00 00 00 00 00 00 00 00 00 00 00 00 00
       0.0 0.0
000030 00 00 00 00 00 00 00 00 00 00 00 00 00 00 00 00
       0.0 0.0
000040 00 00 00 00 00 00 00 00 00 00 00 00 00 00 00 00
       0.0 0.0
000050 00 00 00 00 00 00 00 00 00 00 00 00 00 00 00 00
       0.0 0.0
000060 00 00 00 00 00 00 00 00 00 00 00 00 00 00 00 00
       0.0 0.0
000070 00 00 00 00 00 00 00 00 00 00 00 00 00 00 00 00
       0.0 0.0
000080 00 00 00 00 00 00 00 00 00 00 00 00 00 00 00 00
       0.0 0.0
000090 00 00 00 00 00 00 00 00 00 00 00 00 00 00 00 00
       0.0 0.0
0000a0 00 00 00 00 00 00 00 00 00 00 00 00 00 00 00 00
       0.0 0.0
0000b0 00 00 00 00 00 00 00 00 00 00 00 00 00 00 00 00
       0.0 0.0
0000c0 00 00 00 00 00 00 00 00 00 00 00 00 00 00 00 00
       0.0 0.0
0000d0 00 00 00 00 00 00 00 00 00 00 00 00 00 00 00 00
       0.0 0.0
0000e0 00 00 00 00 00 00 00 00 00 00 00 00 00 00 00 00
       0.0 0.0
0000f0 00 00 00 00 00 00 00 00 00 00 00 00 00 00 00 00
       0.0 0.0
000100 00 00 00 00 00 00 00 00 00 00 00 00 00 00 00 00
       0.0 0.0
000110 00 00 00 00 00 00 00 00 00 00 00 00 00 00 00 00
       0.0 0.0
000120 00 00 00 00 00 00 00 00 00 00 00 00 00 00 00 00
       0.0 0.0
000130 00 00 00 00 00 00 00 00 00 00 00 00 00 00 00 00
       0.0 0.0
000140 00 00 00 00 00 00 00 00 00 00 00 00 00 00 00 00
       0.0 0.0
000150 9c 52 06 5b 14 11 a1 3e 00 00 00 00 00 00 00 00
       5.086277977012408e-07 0.0
000160 00 00 00 00 00 00 00 00 00 00 00 00 00 00 00 00
       0.0 0.0
000170 00 00 00 00 00 00 00 00 00 00 00 00 00 00 00 00
       0.0 0.0
000180 00 00 00 00 00 00 00 00 cd a6 33 33 96 99 b9 3e
       0.0 1.5258758139742807e-06
000190 9c 52 06 5b 14 11 c1 3e cd a6 33 33 96 99 b9 3e
       2.0345111908049633e-06 1.5258758139742807e-06
0001a0 9c 52 06 5b 14 11 b1 3e cd a6 33 33 96 99 b9 3e
       1.0172555954024816e-06 1.5258758139742807e-06
0001b0 de 19 cd cc 0e 11 d1 3e 90 10 4b 9f e3 dd dd 3e
       4.069002170598082e-06 7.1207891678173705e-06
0001c0 91 03 9a 59 74 77 d7 3e ef 1c 67 e6 36 33 e3 3e
       5.594877984572362e-06 9.155300358622334e-06
0001d0 91 03 9a 59 74 77 e7 3e 91 03 9a 59 74 77 e7 3e
       1.1189755969144725e-05 1.1189755969144725e-05
0001e0 6c 4c 78 b7 6a 66 f6 3e d7 b2 33 83 40 44 fc 3e
       2.136236750345211e-05 2.695713938021229e-05
0001f0 ba 75 fb e4 f4 ee fe 3e 60 6c 00 d0 fc ff 07 3f
       2.9500412266671965e-05 4.577627441922842e-05
000200 7e ae 61 2b 27 22 0a 3f dc 16 cd 38 64 66 10 3f
       4.9845524174721594e-05 6.256090837294552e-05
000210 55 60 00 80 52 55 15 3f 24 43 23 42 6c 66 1e 3f
       8.138004341196163e-05 0.00011596713787588288
000220 36 8d 33 49 ec ee 23 3f c8 c7 cd 7c 6b 66 2a 3f
       0.0001520789561261033 0.00020141660788969133
000230 e5 c1 33 67 95 99 2f 3f 98 62 00 6f 52 d5 35 3f
       0.00024108837860793635 0.000333149552717718
000240 34 59 fb 50 f4 ee 3b 3f bb ea 99 14 75 f7 41 3f
       0.00042623009447363973 0.0005482980424880915
000250 6d bd 39 15 af ea 46 3f fe b9 b3 a2 95 d9 4d 3f
       0.0006993632218392061 0.0009109478609426456
000260 d5 b7 66 23 86 08 52 3f 81 37 31 89 15 31 57 3f
       0.0011006650871467811 0.001415511161002553
000270 37 f1 a6 c8 d9 bd 5e 3f 08 c6 b6 ea 25 a2 63 3f
       0.0018763186259170403 0.0023966541827682465
000280 47 74 80 94 fc bf 69 3f 1f e2 69 55 75 0f 70 3f
       0.003143304176787018 0.003920992216642576
000290 c1 55 9f a9 bf 63 74 3f d3 88 9d a5 de 0d 7a 3f
       0.004977940256102043 0.00636088344058035
0002a0 bc 7d 63 68 97 81 80 3f e1 70 f1 8e ef de 84 3f
       0.00805967604941215 0.01019084124543962
0002b0 be b0 ce ca 00 74 8a 3f cb f2 a8 4d cd ce 90 3f
       0.01291657084387798 0.0164138868951678
0002c0 4d 7c c5 07 67 0c 95 3f f7 dd 42 04 85 7a 9a 3f
       0.020555124139147108 0.025858000168879482
0002d0 64 ae 5f 7c 00 39 a0 3f cc 26 24 02 67 50 a4 3f
       0.031684889967291935 0.0396759214509764
0002e0 56 e9 6a 16 56 2f a9 3f 4c df 96 cb de 01 af 3f
       0.04918927215244888 0.06056114421102041
0002f0 ca a0 b5 3b 2b eb b2 3f 88 34 b3 ae b8 f8 b6 3f
       0.0739008923316106 0.08973268761765685
000300 dd 58 0d f7 a2 c5 bb 3f 7f 2e d5 7f 80 ac c0 3f
       0.10848444491907423 0.1302643417533211
000310 0e 57 ad ba a2 e5 c3 3f 9f b8 9b 4e 1a 9c c7 3f
       0.1554454242238354 0.1844513782338639
000320 bd 16 97 1e 49 b6 cb 3f e5 7b f8 59 fe 2f d0 3f
       0.2165004157415548 0.25292929445453033
000330 d6 ac 3c 29 3a bc d2 3f 17 47 ec 0b 07 97 d5 3f
       0.2927384760575483 0.3373429886279253
000340 ae d5 34 aa ad a9 d8 3f e7 53 61 b3 7e d9 db 3f
       0.3853563463374837 0.4351498367080339
000350 34 dd 7b 66 18 2d df 3f a7 52 f6 e8 db 4d e1 3f
       0.4871273995226659 0.5407542753260558
000360 6e 1a d5 09 58 17 e3 3f bb 3e ec 27 39 ca e4 3f
       0.5965995971717584 0.6496854572050873
000370 d8 7e 6b c7 ad 71 e6 3f 4f 32 70 1e 47 01 e8 3f
       0.7013768095893864 0.750155982446424
000380 68 c4 0d 4b 98 68 e9 3f 29 7c 91 43 38 9f ea 3f
       0.7940179315466027 0.8319360084241271
000390 15 8d 4e d6 c1 92 eb 3f de 11 46 50 78 47 ec 3f
       0.8616646943741296 0.8837243621679212
0003a0 95 74 f6 8e 3d b1 ec 3f 1f 71 e0 d2 11 d2 ec 3f
       0.8966357986679606 0.9006432646452004
0003b0 d8 3c 4a b1 2f 9f ec 3f 16 12 34 89 c4 0a ec 3f
       0.8944319212622771 0.8763144187692571
0003c0 b5 65 3c 76 d3 44 eb 3f f9 73 6d 51 99 3e ea 3f
       0.8521516141219566 0.8201414671308377
0003d0 a8 fb 8f 70 03 f6 e8 3f ef 84 5a c9 ec a1 e7 3f
       0.7800309370503458 0.7385162289321253
0003e0 6d c5 b1 eb ae 35 e6 3f 12 7f 29 30 d3 d4 e4 3f
       0.6940531352430931 0.6509796085992738
0003f0 ab de 26 fd bf 87 e3 3f 36 d0 9b 82 c5 6a e2 3f
       0.6103210396167545 0.5755336333227266
000400 52 4d 19 36 66 90 e1 3f 33 15 1a 90 a6 f6 e0 3f
       0.5488768631570713 0.5301087202539406
000410 59 b2 e1 06 1e af e0 3f 4c dd 3b 38 a6 c9 e0 3f
       0.5213766226202764 0.5246153925244612
000420 b5 67 52 6a 29 31 e1 3f 10 a1 08 13 24 e7 e1 3f
       0.5372511936759482 0.5594654437782385
000430 d9 26 a4 b3 b2 fa e2 3f 33 f6 0a 95 7c 46 e4 3f
       0.593102789747003 0.6336043272965014
000440 88 48 85 fb 35 ad e5 3f b2 ea 60 e0 0f 24 e7 3f
       0.677393904925581 0.7231521017450488
000450 32 ae 9b 56 3a a7 e8 3f 69 ee 06 10 c5 00 ea 3f
       0.770413560062883 0.8125939667729202
000460 fb f6 c7 48 48 4d eb 3f ee 77 20 c8 5f 54 ec 3f
       0.8531838819032765 0.8852995785452984
000470 24 4b e7 e7 e4 0c ed 3f 96 ee ef 03 e3 73 ed 3f
       0.9078239945759816 0.9203963353060824
000480 6d 36 b1 26 a5 88 ed 3f 22 1e 89 6d 4d 45 ed 3f
       0.9229303127010106 0.9147097720496655
000490 66 2e ce fd 22 a7 ec 3f 65 71 74 90 0c bf eb 3f
       0.8954024274002677 0.8670714208015339
0004a0 2d 32 2e ba af 82 ea 3f 8e b7 87 34 15 0f e9 3f
       0.8284529339158034 0.7830911661128412
0004b0 ed fd ba 4d ca 7e e7 3f a9 af c7 a6 00 c1 e5 3f
       0.7342273252651786 0.6798098809645029
0004c0 3f 2f e6 98 80 f1 e3 3f d2 be b2 8a 50 17 e2 3f
       0.6232302652656257 0.5653460225057307
0004d0 58 b6 fb 91 69 49 e0 3f cd 03 fa ff a2 ef dc 3f
       0.5089614726291058 0.4521262645503697
0004e0 02 43 8a e5 e2 7c d9 3f bf d9 ae 33 e9 52 d6 3f
       0.39824745574973985 0.34881048247498464
0004f0 f1 31 ce 71 de 4b d3 3f ea ea b6 29 4b 92 d0 3f
       0.3015056716328948 0.25892905305560865
000500 3b cc f1 a6 22 38 cc 3f 5d 3e 25 0c 56 d8 c7 3f
       0.220463115230446 0.18628955452958254
000510 59 5b 36 88 2f fe c3 3f 0b d2 04 d5 95 a7 c0 3f
       0.15619463110916845 0.13011429692564067
000520 7f 39 f1 6b 9a 6f bb 3f f7 fe 43 7c 74 72 b6 3f
       0.10717167983350427 0.08768394502476072
000530 fa 75 df 36 ab 49 b2 3f 7e cc 7e d3 16 e3 ad 3f
       0.0714365967719103 0.0583731778309806
000540 17 05 78 a3 c9 cd a7 3f 16 89 47 68 ec 04 a3 3f
       0.04649191017598236 0.03714693806593254
000550 00 e4 aa 1b 5b f7 9d 3f 9b 9e 3f c6 eb c8 97 3f
       0.02926390034074089 0.023227390265587827
000560 14 9a 5c 51 bf 99 92 3f ee 82 d8 d0 a6 fe 8c 3f
       0.01816462453930441 0.0141575844273247
000570 7a 31 ad c5 b8 4b 86 3f eb 5d cc 7c 36 0f 81 3f
       0.010886615307435166 0.008329797442953221
000580 51 ab 33 11 96 99 7a 3f 30 5b 5a b9 d0 5c 74 3f
       0.006494127464274539 0.004971328094731928
000590 0d 58 ed 4d 62 d6 6e 3f df 6a 00 86 a7 aa 67 3f
       0.0037643356330745504 0.002888991541124638
0005a0 85 ea 84 2b d0 7c 61 3f b2 42 0d 44 b8 1b 5a 3f
       0.0021347108669521075 0.0015935229750604738
0005b0 f7 7a 17 07 48 84 53 3f 20 e9 e6 5a 2f f3 4c 3f
       0.0011912063022163058 0.0008834820962911084
0005c0 e9 fa 19 f0 c9 8c 45 3f 72 5e 17 73 47 84 40 3f
       0.0006576524758229149 0.0005040501475219296
0005d0 41 99 33 99 96 99 36 3f 6a e2 e9 0d bf 3b 31 3f
       0.00034484793395818744 0.00026296057141154147
0005e0 7a 39 cd de 0d 11 28 3f d5 91 94 26 bf bb 21 3f
       0.00018361372294823844 0.00013529499418853003
0005f0 bc 94 33 bb 96 99 15 3f 84 f4 99 75 1f 22 14 3f
       8.239729395461114e-05 7.68024159700388e-05
000600 f2 2c 7e c2 7c 77 0b 3f 8c fd 99 31 1f 22 06 3f
       5.23886631632278e-05 4.22158975199551e-05
000610 fc dd 72 fc 5a 55 fd 3e 87 f7 99 09 ca cc f4 3e
       2.7974528873568244e-05 1.983638558166565e-05
000620 7b eb 99 b9 1f 22 f2 3e c5 b7 b6 a0 25 22 e2 3e
       1.7293259225041845e-05 8.646672560921093e-06
000630 a6 1b 9a f9 c8 cc ec 3e 3d 46 ea 13 c1 bb db 3e
       1.3732882325768525e-05 6.61216137011613e-06
000640 1a bd 66 a6 30 33 d3 3e de 19 cd cc 0e 11 b1 3e
       4.577627441922842e-06 1.0172505426495205e-06
000650 43 e7 c7 71 59 55 c5 3e 00 00 00 00 00 00 00 00
       2.543138988506204e-06 0.0
000660 00 00 00 00 00 00 00 00 de 19 cd cc 0e 11 a1 3e
       0.0 5.086252713247602e-07
000670 00 00 00 00 00 00 00 00 9c 52 06 5b 14 11 a1 3e
       0.0 5.086277977012408e-07
000680 de 19 cd cc 0e 11 a1 3e 00 00 00 00 00 00 00 00
       5.086252713247602e-07 0.0
000690 00 00 00 00 00 00 00 00 00 00 00 00 00 00 00 00
       0.0 0.0
0006a0 00 00 00 00 00 00 00 00 00 00 00 00 00 00 00 00
       0.0 0.0
0006b0 0c 7f 97 3e 09 11 a1 3e 00 00 00 00 00 00 00 00
       5.086227449733768e-07 0.0
0006c0 00 00 00 00 00 00 00 00 00 00 00 00 00 00 00 00
       0.0 0.0
0006d0 00 00 00 00 00 00 00 00 00 00 00 00 00 00 00 00
       0.0 0.0
0006e0 00 00 00 00 00 00 00 00 00 00 00 00 00 00 00 00
       0.0 0.0
0006f0 00 00 00 00 00 00 00 00 00 00 00 00 00 00 00 00
       0.0 0.0
000700 00 00 00 00 00 00 00 00 00 00 00 00 00 00 00 00
       0.0 0.0
000710 00 00 00 00 00 00 00 00 00 00 00 00 00 00 00 00
       0.0 0.0
000720 00 00 00 00 00 00 00 00 00 00 00 00 00 00 00 00
       0.0 0.0
000730 00 00 00 00 00 00 00 00 00 00 00 00 00 00 00 00
       0.0 0.0
000740 00 00 00 00 00 00 00 00 00 00 00 00 00 00 00 00
       0.0 0.0
000750 00 00 00 00 00 00 00 00 00 00 00 00 00 00 00 00
       0.0 0.0
000760 00 00 00 00 00 00 00 00 00 00 00 00 00 00 00 00
       0.0 0.0
000770 00 00 00 00 00 00 00 00 00 00 00 00 00 00 00 00
       0.0 0.0
000780 00 00 00 00 00 00 00 00 00 00 00 00 00 00 00 00
       0.0 0.0
000790 00 00 00 00 00 00 00 00 00 00 00 00 00 00 00 00
       0.0 0.0
0007a0 00 00 00 00 00 00 00 00 00 00 00 00 00 00 00 00
       0.0 0.0
0007b0 00 00 00 00 00 00 00 00 00 00 00 00 00 00 00 00
       0.0 0.0
0007c0 00 00 00 00 00 00 00 00 00 00 00 00 00 00 00 00
       0.0 0.0

h_obdm f8 [250, 250]
000000 00 00 00 00 00 00 00 00 00 00 00 00 00 00 00 00
       0.0 0.0
000010 00 00 00 00 00 00 00 00 00 00 00 00 00 00 00 00
       0.0 0.0
000020 00 00 00 00 00 00 00 00 00 00 00 00 00 00 00 00
       0.0 0.0
000030 00 00 00 00 00 00 00 00 00 00 00 00 00 00 00 00
       0.0 0.0
000040 00 00 00 00 00 00 00 00 00 00 00 00 00 00 00 00
       0.0 0.0
000050 00 00 00 00 00 00 00 00 00 00 00 00 00 00 00 00
       0.0 0.0
000060 00 00 00 00 00 00 00 00 00 00 00 00 00 00 00 00
       0.0 0.0
000070 00 00 00 00 00 00 00 00 00 00 00 00 00 00 00 00
       0.0 0.0
000080 00 00 00 00 00 00 00 00 00 00 00 00 00 00 00 00
       0.0 0.0
000090 00 00 00 00 00 00 00 00 00 00 00 00 00 00 00 00
       0.0 0.0
0000a0 00 00 00 00 00 00 00 00 00 00 00 00 00 00 00 00
       0.0 0.0
0000b0 00 00 00 00 00 00 00 00 00 00 00 00 00 00 00 00
       0.0 0.0
0000c0 00 00 00 00 00 00 00 00 00 00 00 00 00 00 00 00
       0.0 0.0
0000d0 00 00 00 00 00 00 00 00 00 00 00 00 00 00 00 00
       0.0 0.0
0000e0 00 00 00 00 00 00 00 00 00 00 00 00 00 00 00 00
       0.0 0.0
0000f0 00 00 00 00 00 00 00 00 00 00 00 00 00 00 00 00
       0.0 0.0
000100 00 00 00 00 00 00 00 00 00 00 00 00 00 00 00 00
       0.0 0.0
000110 00 00 00 00 00 00 00 00 00 00 00 00 00 00 00 00
       0.0 0.0
000120 00 00 00 00 00 00 00 00 00 00 00 00 00 00 00 00
       0.0 0.0
000130 00 00 00 00 00 00 00 00 00 00 00 00 00 00 00 00
       0.0 0.0
000140 00 00 00 00 00 00 00 00 00 00 00 00 00 00 00 00
       0.0 0.0
000150 00 00 00 00 00 00 00 00 00 00 00 00 00 00 00 00
       0.0 0.0
000160 00 00 00 00 00 00 00 00 00 00 00 00 00 00 00 00
       0.0 0.0
000170 00 00 00 00 00 00 00 00 00 00 00 00 00 00 00 00
       0.0 0.0
000180 00 00 00 00 00 00 00 00 00 00 00 00 00 00 00 00
       0.0 0.0
000190 00 00 00 00 00 00 00 00 00 00 00 00 00 00 00 00
       0.0 0.0
0001a0 00 00 00 00 00 00 00 00 00 00 00 00 00 00 00 00
       0.0 0.0
0001b0 00 00 00 00 00 00 00 00 00 00 00 00 00 00 00 00
       0.0 0.0
0001c0 00 00 00 00 00 00 00 00 00 00 00 00 00 00 00 00
       0.0 0.0
0001d0 00 00 00 00 00 00 00 00 00 00 00 00 00 00 00 00
       0.0 0.0
0001e0 00 00 00 00 00 00 00 00 00 00 00 00 00 00 00 00
       0.0 0.0
0001f0 00 00 00 00 00 00 00 00 00 00 00 00 00 00 00 00
       0.0 0.0
000200 00 00 00 00 00 00 00 00 00 00 00 00 00 00 00 00
       0.0 0.0
000210 00 00 00 00 00 00 00 00 00 00 00 00 00 00 00 00
       0.0 0.0
000220 00 00 00 00 00 00 00 00 00 00 00 00 00 00 00 00
       0.0 0.0
000230 00 00 00 00 00 00 00 00 00 00 00 00 00 00 00 00
       0.0 0.0
000240 00 00 00 00 00 00 00 00 00 00 00 00 00 00 00 00
       0.0 0.0
000250 00 00 00 00 00 00 00 00 00 00 00 00 00 00 00 00
       0.0 0.0
000260 00 00 00 00 00 00 00 00 00 00 00 00 00 00 00 00
       0.0 0.0
000270 00 00 00 00 00 00 00 00 00 00 00 00 00 00 00 00
       0.0 0.0
000280 00 00 00 00 00 00 00 00 00 00 00 00 00 00 00 00
       0.0 0.0
000290 00 00 00 00 00 00 00 00 00 00 00 00 00 00 00 00
       0.0 0.0
0002a0 00 00 00 00 00 00 00 00 00 00 00 00 00 00 00 00
       0.0 0.0
0002b0 00 00 00 00 00 00 00 00 00 00 00 00 00 00 00 00
       0.0 0.0
0002c0 00 00 00 00 00 00 00 00 00 00 00 00 00 00 00 00
       0.0 0.0
0002d0 00 00 00 00 00 00 00 00 00 00 00 00 00 00 00 00
       0.0 0.0
0002e0 00 00 00 00 00 00 00 00 00 00 00 00 00 00 00 00
       0.0 0.0
0002f0 00 00 00 00 00 00 00 00 00 00 00 00 00 00 00 00
       0.0 0.0
000300 00 00 00 00 00 00 00 00 00 00 00 00 00 00 00 00
       0.0 0.0
000310 00 00 00 00 00 00 00 00 00 00 00 00 00 00 00 00
       0.0 0.0
000320 00 00 00 00 00 00 00 00 00 00 00 00 00 00 00 00
       0.0 0.0
000330 00 00 00 00 00 00 00 00 00 00 00 00 00 00 00 00
       0.0 0.0
000340 00 00 00 00 00 00 00 00 00 00 00 00 00 00 00 00
       0.0 0.0
000350 00 00 00 00 00 00 00 00 00 00 00 00 00 00 00 00
       0.0 0.0
000360 00 00 00 00 00 00 00 00 00 00 00 00 00 00 00 00
       0.0 0.0
000370 00 00 00 00 00 00 00 00 00 00 00 00 00 00 00 00
       0.0 0.0
000380 00 00 00 00 00 00 00 00 00 00 00 00 00 00 00 00
       0.0 0.0
000390 00 00 00 00 00 00 00 00 00 00 00 00 00 00 00 00
       0.0 0.0
0003a0 00 00 00 00 00 00 00 00 00 00 00 00 00 00 00 00
       0.0 0.0
0003b0 00 00 00 00 00 00 00 00 00 00 00 00 00 00 00 00
       0.0 0.0
0003c0 00 00 00 00 00 00 00 00 00 00 00 00 00 00 00 00
       0.0 0.0
0003d0 00 00 00 00 00 00 00 00 00 00 00 00 00 00 00 00
       0.0 0.0
0003e0 00 00 00 00 00 00 00 00 00 00 00 00 00 00 00 00
       0.0 0.0
0003f0 00 00 00 00 00 00 00 00 00 00 00 00 00 00 00 00
       0.0 0.0
000400 00 00 00 00 00 00 00 00 00 00 00 00 00 00 00 00
       0.0 0.0
000410 00 00 00 00 00 00 00 00 00 00 00 00 00 00 00 00
       0.0 0.0
000420 00 00 00 00 00 00 00 00 00 00 00 00 00 00 00 00
       0.0 0.0
000430 00 00 00 00 00 00 00 00 00 00 00 00 00 00 00 00
       0.0 0.0
000440 00 00 00 00 00 00 00 00 00 00 00 00 00 00 00 00
       0.0 0.0
000450 00 00 00 00 00 00 00 00 00 00 00 00 00 00 00 00
       0.0 0.0
000460 00 00 00 00 00 00 00 00 00 00 00 00 00 00 00 00
       0.0 0.0
000470 00 00 00 00 00 00 00 00 00 00 00 00 00 00 00 00
       0.0 0.0
000480 00 00 00 00 00 00 00 00 00 00 00 00 00 00 00 00
       0.0 0.0
000490 00 00 00 00 00 00 00 00 00 00 00 00 00 00 00 00
       0.0 0.0
0004a0 00 00 00 00 00 00 00 00 00 00 00 00 00 00 00 00
       0.0 0.0
0004b0 00 00 00 00 00 00 00 00 00 00 00 00 00 00 00 00
       0.0 0.0
0004c0 00 00 00 00 00 00 00 00 00 00 00 00 00 00 00 00
       0.0 0.0
0004d0 00 00 00 00 00 00 00 00 00 00 00 00 00 00 00 00
       0.0 0.0
0004e0 00 00 00 00 00 00 00 00 00 00 00 00 00 00 00 00
       0.0 0.0
0004f0 00 00 00 00 00 00 00 00 00 00 00 00 00 00 00 00
       0.0 0.0
000500 00 00 00 00 00 00 00 00 00 00 00 00 00 00 00 00
       0.0 0.0
000510 00 00 00 00 00 00 00 00 00 00 00 00 00 00 00 00
       0.0 0.0
000520 00 00 00 00 00 00 00 00 00 00 00 00 00 00 00 00
       0.0 0.0
000530 00 00 00 00 00 00 00 00 00 00 00 00 00 00 00 00
       0.0 0.0
000540 00 00 00 00 00 00 00 00 00 00 00 00 00 00 00 00
       0.0 0.0
000550 00 00 00 00 00 00 00 00 00 00 00 00 00 00 00 00
       0.0 0.0
000560 00 00 00 00 00 00 00 00 00 00 00 00 00 00 00 00
       0.0 0.0
000570 00 00 00 00 00 00 00 00 00 00 00 00 00 00 00 00
       0.0 0.0
000580 00 00 00 00 00 00 00 00 00 00 00 00 00 00 00 00
       0.0 0.0
000590 00 00 00 00 00 00 00 00 00 00 00 00 00 00 00 00
       0.0 0.0
0005a0 00 00 00 00 00 00 00 00 00 00 00 00 00 00 00 00
       0.0 0.0
0005b0 00 00 00 00 00 00 00 00 00 00 00 00 00 00 00 00
       0.0 0.0
0005c0 00 00 00 00 00 00 00 00 00 00 00 00 00 00 00 00
       0.0 0.0
0005d0 00 00 00 00 00 00 00 00 00 00 00 00 00 00 00 00
       0.0 0.0
0005e0 00 00 00 00 00 00 00 00 00 00 00 00 00 00 00 00
       0.0 0.0
0005f0 00 00 00 00 00 00 00 00 00 00 00 00 00 00 00 00
       0.0 0.0
000600 00 00 00 00 00 00 00 00 00 00 00 00 00 00 00 00
       0.0 0.0
000610 00 00 00 00 00 00 00 00 00 00 00 00 00 00 00 00
       0.0 0.0
000620 00 00 00 00 00 00 00 00 00 00 00 00 00 00 00 00
       0.0 0.0
000630 00 00 00 00 00 00 00 00 00 00 00 00 00 00 00 00
       0.0 0.0
000640 00 00 00 00 00 00 00 00 00 00 00 00 00 00 00 00
       0.0 0.0
000650 00 00 00 00 00 00 00 00 00 00 00 00 00 00 00 00
       0.0 0.0
000660 00 00 00 00 00 00 00 00 00 00 00 00 00 00 00 00
       0.0 0.0
000670 00 00 00 00 00 00 00 00 00 00 00 00 00 00 00 00
       0.0 0.0
000680 00 00 00 00 00 00 00 00 00 00 00 00 00 00 00 00
       0.0 0.0
000690 00 00 00 00 00 00 00 00 00 00 00 00 00 00 00 00
       0.0 0.0
0006a0 00 00 00 00 00 00 00 00 00 00 00 00 00 00 00 00
       0.0 0.0
0006b0 00 00 00 00 00 00 00 00 00 00 00 00 00 00 00 00
       0.0 0.0
0006c0 00 00 00 00 00 00 00 00 00 00 00 00 00 00 00 00
       0.0 0.0
0006d0 00 00 00 00 00 00 00 00 00 00 00 00 00 00 00 00
       0.0 0.0
0006e0 00 00 00 00 00 00 00 00 00 00 00 00 00 00 00 00
       0.0 0.0
0006f0 00 00 00 00 00 00 00 00 00 00 00 00 00 00 00 00
       0.0 0.0
000700 00 00 00 00 00 00 00 00 00 00 00 00 00 00 00 00
       0.0 0.0
000710 00 00 00 00 00 00 00 00 00 00 00 00 00 00 00 00
       0.0 0.0
000720 00 00 00 00 00 00 00 00 00 00 00 00 00 00 00 00
       0.0 0.0
000730 00 00 00 00 00 00 00 00 00 00 00 00 00 00 00 00
       0.0 0.0
000740 00 00 00 00 00 00 00 00 00 00 00 00 00 00 00 00
       0.0 0.0
000750 00 00 00 00 00 00 00 00 00 00 00 00 00 00 00 00
       0.0 0.0
000760 00 00 00 00 00 00 00 00 00 00 00 00 00 00 00 00
       0.0 0.0
000770 00 00 00 00 00 00 00 00 00 00 00 00 00 00 00 00
       0.0 0.0
000780 00 00 00 00 00 00 00 00 00 00 00 00 00 00 00 00
       0.0 0.0
000790 00 00 00 00 00 00 00 00 00 00 00 00 00 00 00 00
       0.0 0.0
0007a0 00 00 00 00 00 00 00 00 00 00 00 00 00 00 00 00
       0.0 0.0
0007b0 00 00 00 00 00 00 00 00 00 00 00 00 00 00 00 00
       0.0 0.0
0007c0 00 00 00 00 00 00 00 00 00 00 00 00 00 00 00 00
       0.0 0.0
0007d0 00 00 00 00 00 00 00 00 00 00 00 00 00 00 00 00
       0.0 0.0
0007e0 00 00 00 00 00 00 00 00 00 00 00 00 00 00 00 00
       0.0 0.0
0007f0 00 00 00 00 00 00 00 00 00 00 00 00 00 00 00 00
       0.0 0.0

xedges_obdm f8 [251]
000000 00 00 00 00 00 00 18 c0 02 2b 87 16 d9 ce 17 c0
       -6.0 -5.952
000010 04 56 0e 2d b2 9d 17 c0 06 81 95 43 8b 6c 17 c0
       -5.904 -5.856
000020 08 ac 1c 5a 64 3b 17 c0 0a d7 a3 70 3d 0a 17 c0
       -5.808 -5.76
000030 0c 02 2b 87 16 d9 16 c0 0e 2d b2 9d ef a7 16 c0
       -5.712 -5.664
000040 10 58 39 b4 c8 76 16 c0 12 83 c0 ca a1 45 16 c0
       -5.616 -5.568
000050 14 ae 47 e1 7a 14 16 c0 16 d9 ce f7 53 e3 15 c0
       -5.52 -5.4719999999999995
000060 18 04 56 0e 2d b2 15 c0 1b 2f dd 24 06 81 15 c0
       -5.4239999999999995 -5.376
000070 1d 5a 64 3b df 4f 15 c0 1f 85 eb 51 b8 1e 15 c0
       -5.328 -5.28
000080 21 b0 72 68 91 ed 14 c0 23 db f9 7e 6a bc 14 c0
       -5.232 -5.184
000090 25 06 81 95 43 8b 14 c0 27 31 08 ac 1c 5a 14 c0
       -5.136 -5.088
0000a0 29 5c 8f c2 f5 28 14 c0 2b 87 16 d9 ce f7 13 c0
       -5.04 -4.992
0000b0 2d b2 9d ef a7 c6 13 c0 2f dd 24 06 81 95 13 c0
       -4.944 -4.896
0000c0 31 08 ac 1c 5a 64 13 c0 33 33 33 33 33 33 13 c0
       -4.848 -4.8
0000d0 35 5e ba 49 0c 02 13 c0 37 89 41 60 e5 d0 12 c0
       -4.752 -4.704
0000e0 39 b4 c8 76 be 9f 12 c0 3b df 4f 8d 97 6e 12 c0
       -4.656 -4.608
0000f0 3e 0a d7 a3 70 3d 12 c0 40 35 5e ba 49 0c 12 c0
       -4.5600000000000005 -4.5120000000000005
000100 42 60 e5 d0 22 db 11 c0 44 8b 6c e7 fb a9 11 c0
       -4.464 -4.416
000110 46 b6 f3 fd d4 78 11 c0 48 e1 7a 14 ae 47 11 c0
       -4.368 -4.32
000120 4a 0c 02 2b 87 16 11 c0 4c 37 89 41 60 e5 10 c0
       -4.272 -4.224
000130 4e 62 10 58 39 b4 10 c0 50 8d 97 6e 12 83 10 c0
       -4.176 -4.128
000140 52 b8 1e 85 eb 51 10 c0 54 e3 a5 9b c4 20 10 c0
       -4.08 -4.032
000150 ac 1c 5a 64 3b df 0f c0 b0 72 68 91 ed 7c 0f c0
       -3.984 -3.936
000160 b4 c8 76 be 9f 1a 0f c0 b8 1e 85 eb 51 b8 0e c0
       -3.888 -3.84
000170 bc 74 93 18 04 56 0e c0 c0 ca a1 45 b6 f3 0d c0
       -3.792 -3.7439999999999998
000180 c4 20 b0 72 68 91 0d c0 c9 76 be 9f 1a 2f 0d c0
       -3.6959999999999997 -3.648
000190 cd cc cc cc cc cc 0c c0 d1 22 db f9 7e 6a 0c c0
       -3.6 -3.552
0001a0 d5 78 e9 26 31 08 0c c0 d9 ce f7 53 e3 a5 0b c0
       -3.504 -3.456
0001b0 dd 24 06 81 95 43 0b c0 e1 7a 14 ae 47 e1 0a c0
       -3.408 -3.36
0001c0 e5 d0 22 db f9 7e 0a c0 e9 26 31 08 ac 1c 0a c0
       -3.312 -3.264
0001d0 ed 7c 3f 35 5e ba 09 c0 f2 d2 4d 62 10 58 09 c0
       -3.2159999999999997 -3.168
0001e0 f6 28 5c 8f c2 f5 08 c0 fa 7e 6a bc 74 93 08 c0
       -3.12 -3.072
0001f0 fe d4 78 e9 26 31 08 c0 02 2b 87 16 d9 ce 07 c0
       -3.024 -2.976
000200 06 81 95 43 8b 6c 07 c0 0a d7 a3 70 3d 0a 07 c0
       -2.928 -2.88
000210 0e 2d b2 9d ef a7 06 c0 12 83 c0 ca a1 45 06 c0
       -2.832 -2.784
000220 16 d9 ce f7 53 e3 05 c0 1a 2f dd 24 06 81 05 c0
       -2.7359999999999998 -2.6879999999999997
000230 1f 85 eb 51 b8 1e 05 c0 23 db f9 7e 6a bc 04 c0
       -2.64 -2.592
000240 27 31 08 ac 1c 5a 04 c0 2b 87 16 d9 ce f7 03 c0
       -2.544 -2.496
000250 2f dd 24 06 81 95 03 c0 33 33 33 33 33 33 03 c0
       -2.448 -2.4
000260 37 89 41 60 e5 d0 02 c0 3b df 4f 8d 97 6e 02 c0
       -2.352 -2.304
000270 3f 35 5e ba 49 0c 02 c0 43 8b 6c e7 fb a9 01 c0
       -2.256 -2.2079999999999997
000280 48 e1 7a 14 ae 47 01 c0 4c 37 89 41 60 e5 00 c0
       -2.16 -2.112
000290 50 8d 97 6e 12 83 00 c0 54 e3 a5 9b c4 20 00 c0
       -2.064 -2.016
0002a0 b0 72 68 91 ed 7c ff bf b8 1e 85 eb 51 b8 fe bf
       -1.968 -1.92
0002b0 c0 ca a1 45 b6 f3 fd bf c8 76 be 9f 1a 2f fd bf
       -1.8719999999999999 -1.8239999999999998
0002c0 d0 22 db f9 7e 6a fc bf d8 ce f7 53 e3 a5 fb bf
       -1.7759999999999998 -1.7279999999999998
0002d0 e0 7a 14 ae 47 e1 fa bf e8 26 31 08 ac 1c fa bf
       -1.6799999999999997 -1.6319999999999997
0002e0 f0 d2 4d 62 10 58 f9 bf f8 7e 6a bc 74 93 f8 bf
       -1.5839999999999996 -1.5359999999999996
0002f0 00 2b 87 16 d9 ce f7 bf 08 d7 a3 70 3d 0a f7 bf
       -1.4879999999999995 -1.4399999999999995
000300 10 83 c0 ca a1 45 f6 bf 1c 2f dd 24 06 81 f5 bf
       -1.3919999999999995 -1.3440000000000003
000310 24 db f9 7e 6a bc f4 bf 2c 87 16 d9 ce f7 f3 bf
       -1.2960000000000003 -1.2480000000000002
000320 34 33 33 33 33 33 f3 bf 3c df 4f 8d 97 6e f2 bf
       -1.2000000000000002 -1.1520000000000001
000330 44 8b 6c e7 fb a9 f1 bf 4c 37 89 41 60 e5 f0 bf
       -1.104 -1.056
000340 54 e3 a5 9b c4 20 f0 bf b8 1e 85 eb 51 b8 ee bf
       -1.008 -0.96
000350 c8 76 be 9f 1a 2f ed bf d8 ce f7 53 e3 a5 eb bf
       -0.9119999999999999 -0.8639999999999999
000360 e8 26 31 08 ac 1c ea bf f8 7e 6a bc 74 93 e8 bf
       -0.8159999999999998 -0.7679999999999998
000370 08 d7 a3 70 3d 0a e7 bf 18 2f dd 24 06 81 e5 bf
       -0.7199999999999998 -0.6719999999999997
000380 28 87 16 d9 ce f7 e3 bf 38 df 4f 8d 97 6e e2 bf
       -0.6239999999999997 -0.5759999999999996
000390 48 37 89 41 60 e5 e0 bf b0 1e 85 eb 51 b8 de bf
       -0.5279999999999996 -0.47999999999999954
0003a0 d0 ce f7 53 e3 a5 db bf f0 7e 6a bc 74 93 d8 bf
       -0.4319999999999995 -0.38399999999999945
0003b0 20 2f dd 24 06 81 d5 bf 40 df 4f 8d 97 6e d2 bf
       -0.3360000000000003 -0.28800000000000026
0003c0 c0 1e 85 eb 51 b8 ce bf 00 7f 6a bc 74 93 c8 bf
       -0.2400000000000002 -0.19200000000000017
0003d0 40 df 4f 8d 97 6e c2 bf 00 7f 6a bc 74 93 b8 bf
       -0.14400000000000013 -0.09600000000000009
0003e0 00 7f 6a bc 74 93 a8 bf 00 00 00 00 00 00 00 00
       -0.04800000000000004 0.0
0003f0 00 7f 6a bc 74 93 a8 3f 00 7f 6a bc 74 93 b8 3f
       0.04800000000000004 0.09600000000000009
000400 40 df 4f 8d 97 6e c2 3f 00 7f 6a bc 74 93 c8 3f
       0.14400000000000013 0.19200000000000017
000410 c0 1e 85 eb 51 b8 ce 3f 40 df 4f 8d 97 6e d2 3f
       0.2400000000000002 0.28800000000000026
000420 20 2f dd 24 06 81 d5 3f 00 7f 6a bc 74 93 d8 3f
       0.3360000000000003 0.38400000000000034
000430 e0 ce f7 53 e3 a5 db 3f c0 1e 85 eb 51 b8 de 3f
       0.4320000000000004 0.4800000000000004
000440 50 37 89 41 60 e5 e0 3f 40 df 4f 8d 97 6e e2 3f
       0.5280000000000005 0.5760000000000005
000450 30 87 16 d9 ce f7 e3 3f 18 2f dd 24 06 81 e5 3f
       0.6240000000000006 0.6719999999999997
000460 08 d7 a3 70 3d 0a e7 3f f8 7e 6a bc 74 93 e8 3f
       0.7199999999999998 0.7679999999999998
000470 e8 26 31 08 ac 1c ea 3f d8 ce f7 53 e3 a5 eb 3f
       0.8159999999999998 0.8639999999999999
000480 c8 76 be 9f 1a 2f ed 3f b8 1e 85 eb 51 b8 ee 3f
       0.9119999999999999 0.96
000490 54 e3 a5 9b c4 20 f0 3f 4c 37 89 41 60 e5 f0 3f
       1.008 1.056
0004a0 44 8b 6c e7 fb a9 f1 3f 3c df 4f 8d 97 6e f2 3f
       1.104 1.1520000000000001
0004b0 34 33 33 33 33 33 f3 3f 2c 87 16 d9 ce f7 f3 3f
       1.2000000000000002 1.2480000000000002
0004c0 24 db f9 7e 6a bc f4 3f 1c 2f dd 24 06 81 f5 3f
       1.2960000000000003 1.3440000000000003
0004d0 14 83 c0 ca a1 45 f6 3f 0c d7 a3 70 3d 0a f7 3f
       1.3920000000000003 1.4400000000000004
0004e0 04 2b 87 16 d9 ce f7 3f fc 7e 6a bc 74 93 f8 3f
       1.4880000000000004 1.5360000000000005
0004f0 f4 d2 4d 62 10 58 f9 3f ec 26 31 08 ac 1c fa 3f
       1.5840000000000005 1.6320000000000006
000500 e0 7a 14 ae 47 e1 fa 3f d8 ce f7 53 e3 a5 fb 3f
       1.6799999999999997 1.7279999999999998
000510 d0 22 db f9 7e 6a fc 3f c8 76 be 9f 1a 2f fd 3f
       1.7759999999999998 1.8239999999999998
000520 c0 ca a1 45 b6 f3 fd 3f b8 1e 85 eb 51 b8 fe 3f
       1.8719999999999999 1.92
000530 b0 72 68 91 ed 7c ff 3f 54 e3 a5 9b c4 20 00 40
       1.968 2.016
000540 50 8d 97 6e 12 83 00 40 4c 37 89 41 60 e5 00 40
       2.064 2.112
000550 48 e1 7a 14 ae 47 01 40 44 8b 6c e7 fb a9 01 40
       2.16 2.208
000560 40 35 5e ba 49 0c 02 40 3c df 4f 8d 97 6e 02 40
       2.2560000000000002 2.3040000000000003
000570 38 89 41 60 e5 d0 02 40 34 33 33 33 33 33 03 40
       2.3520000000000003 2.4000000000000004
000580 30 dd 24 06 81 95 03 40 2c 87 16 d9 ce f7 03 40
       2.4480000000000004 2.4960000000000004
000590 28 31 08 ac 1c 5a 04 40 24 db f9 7e 6a bc 04 40
       2.5440000000000005 2.5920000000000005
0005a0 20 85 eb 51 b8 1e 05 40 1c 2f dd 24 06 81 05 40
       2.6400000000000006 2.6880000000000006
0005b0 18 d9 ce f7 53 e3 05 40 14 83 c0 ca a1 45 06 40
       2.7360000000000007 2.7840000000000007
0005c0 10 2d b2 9d ef a7 06 40 0c d7 a3 70 3d 0a 07 40
       2.8320000000000007 2.880000000000001
0005d0 08 81 95 43 8b 6c 07 40 04 2b 87 16 d9 ce 07 40
       2.928000000000001 2.976000000000001
0005e0 00 d5 78 e9 26 31 08 40 fc 7e 6a bc 74 93 08 40
       3.024000000000001 3.072000000000001
0005f0 f8 28 5c 8f c2 f5 08 40 f4 d2 4d 62 10 58 09 40
       3.120000000000001 3.168000000000001
000600 f0 7c 3f 35 5e ba 09 40 e8 26 31 08 ac 1c 0a 40
       3.216000000000001 3.2639999999999993
000610 e4 d0 22 db f9 7e 0a 40 e0 7a 14 ae 47 e1 0a 40
       3.3119999999999994 3.3599999999999994
000620 dc 24 06 81 95 43 0b 40 d8 ce f7 53 e3 a5 0b 40
       3.4079999999999995 3.4559999999999995
000630 d4 78 e9 26 31 08 0c 40 d0 22 db f9 7e 6a 0c 40
       3.5039999999999996 3.5519999999999996
000640 cc cc cc cc cc cc 0c 40 c8 76 be 9f 1a 2f 0d 40
       3.5999999999999996 3.6479999999999997
000650 c4 20 b0 72 68 91 0d 40 c0 ca a1 45 b6 f3 0d 40
       3.6959999999999997 3.7439999999999998
000660 bc 74 93 18 04 56 0e 40 b8 1e 85 eb 51 b8 0e 40
       3.792 3.84
000670 b4 c8 76 be 9f 1a 0f 40 b0 72 68 91 ed 7c 0f 40
       3.888 3.936
000680 ac 1c 5a 64 3b df 0f 40 54 e3 a5 9b c4 20 10 40
       3.984 4.032
000690 52 b8 1e 85 eb 51 10 40 50 8d 97 6e 12 83 10 40
       4.08 4.128
0006a0 4e 62 10 58 39 b4 10 40 4c 37 89 41 60 e5 10 40
       4.176 4.224
0006b0 4a 0c 02 2b 87 16 11 40 48 e1 7a 14 ae 47 11 40
       4.272 4.32
0006c0 46 b6 f3 fd d4 78 11 40 44 8b 6c e7 fb a9 11 40
       4.368 4.416
0006d0 42 60 e5 d0 22 db 11 40 40 35 5e ba 49 0c 12 40
       4.464 4.5120000000000005
0006e0 3e 0a d7 a3 70 3d 12 40 3c df 4f 8d 97 6e 12 40
       4.5600000000000005 4.6080000000000005
0006f0 3a b4 c8 76 be 9f 12 40 38 89 41 60 e5 d0 12 40
       4.656000000000001 4.704000000000001
000700 36 5e ba 49 0c 02 13 40 34 33 33 33 33 33 13 40
       4.752000000000001 4.800000000000001
000710 32 08 ac 1c 5a 64 13 40 30 dd 24 06 81 95 13 40
       4.848000000000001 4.896000000000001
000720 2e b2 9d ef a7 c6 13 40 2c 87 16 d9 ce f7 13 40
       4.944000000000001 4.992000000000001
000730 2a 5c 8f c2 f5 28 14 40 28 31 08 ac 1c 5a 14 40
       5.040000000000001 5.088000000000001
000740 26 06 81 95 43 8b 14 40 24 db f9 7e 6a bc 14 40
       5.136000000000001 5.184000000000001
000750 22 b0 72 68 91 ed 14 40 1e 85 eb 51 b8 1e 15 40
       5.232000000000001 5.279999999999999
000760 1c 5a 64 3b df 4f 15 40 1a 2f dd 24 06 81 15 40
       5.327999999999999 5.3759999999999994
000770 18 04 56 0e 2d b2 15 40 16 d9 ce f7 53 e3 15 40
       5.4239999999999995 5.4719999999999995
000780 14 ae 47 e1 7a 14 16 40 12 83 c0 ca a1 45 16 40
       5.52 5.568
000790 10 58 39 b4 c8 76 16 40 0e 2d b2 9d ef a7 16 40
       5.616 5.664
0007a0 0c 02 2b 87 16 d9 16 40 0a d7 a3 70 3d 0a 17 40
       5.712 5.76
0007b0 08 ac 1c 5a 64 3b 17 40 06 81 95 43 8b 6c 17 40
       5.808 5.856
0007c0 04 56 0e 2d b2 9d 17 40 02 2b 87 16 d9 ce 17 40
       5.904 5.952
0007d0 00 00 00 00 00 00 18 40
       6.0

yedges_obdm f8 [251]
000000 00 00 00 00 00 00 18 c0 02 2b 87 16 d9 ce 17 c0
       -6.0 -5.952
000010 04 56 0e 2d b2 9d 17 c0 06 81 95 43 8b 6c 17 c0
       -5.904 -5.856
000020 08 ac 1c 5a 64 3b 17 c0 0a d7 a3 70 3d 0a 17 c0
       -5.808 -5.76
000030 0c 02 2b 87 16 d9 16 c0 0e 2d b2 9d ef a7 16 c0
       -5.712 -5.664
000040 10 58 39 b4 c8 76 16 c0 12 83 c0 ca a1 45 16 c0
       -5.616 -5.568
000050 14 ae 47 e1 7a 14 16 c0 16 d9 ce f7 53 e3 15 c0
       -5.52 -5.4719999999999995
000060 18 04 56 0e 2d b2 15 c0 1b 2f dd 24 06 81 15 c0
       -5.4239999999999995 -5.376
000070 1d 5a 64 3b df 4f 15 c0 1f 85 eb 51 b8 1e 15 c0
       -5.328 -5.28
000080 21 b0 72 68 91 ed 14 c0 23 db f9 7e 6a bc 14 c0
       -5.232 -5.184
000090 25 06 81 95 43 8b 14 c0 27 31 08 ac 1c 5a 14 c0
       -5.136 -5.088
0000a0 29 5c 8f c2 f5 28 14 c0 2b 87 16 d9 ce f7 13 c0
       -5.04 -4.992
0000b0 2d b2 9d ef a7 c6 13 c0 2f dd 24 06 81 95 13 c0
       -4.944 -4.896
0000c0 31 08 ac 1c 5a 64 13 c0 33 33 33 33 33 33 13 c0
       -4.848 -4.8
0000d0 35 5e ba 49 0c 02 13 c0 37 89 41 60 e5 d0 12 c0
       -4.752 -4.704
0000e0 39 b4 c8 76 be 9f 12 c0 3b df 4f 8d 97 6e 12 c0
       -4.656 -4.608
0000f0 3e 0a d7 a3 70 3d 12 c0 40 35 5e ba 49 0c 12 c0
       -4.5600000000000005 -4.5120000000000005
000100 42 60 e5 d0 22 db 11 c0 44 8b 6c e7 fb a9 11 c0
       -4.464 -4.416
000110 46 b6 f3 fd d4 78 11 c0 48 e1 7a 14 ae 47 11 c0
       -4.368 -4.32
000120 4a 0c 02 2b 87 16 11 c0 4c 37 89 41 60 e5 10 c0
       -4.272 -4.224
000130 4e 62 10 58 39 b4 10 c0 50 8d 97 6e 12 83 10 c0
       -4.176 -4.128
000140 52 b8 1e 85 eb 51 10 c0 54 e3 a5 9b c4 20 10 c0
       -4.08 -4.032
000150 ac 1c 5a 64 3b df 0f c0 b0 72 68 91 ed 7c 0f c0
       -3.984 -3.936
000160 b4 c8 76 be 9f 1a 0f c0 b8 1e 85 eb 51 b8 0e c0
       -3.888 -3.84
000170 bc 74 93 18 04 56 0e c0 c0 ca a1 45 b6 f3 0d c0
       -3.792 -3.7439999999999998
000180 c4 20 b0 72 68 91 0d c0 c9 76 be 9f 1a 2f 0d c0
       -3.6959999999999997 -3.648
000190 cd cc cc cc cc cc 0c c0 d1 22 db f9 7e 6a 0c c0
       -3.6 -3.552
0001a0 d5 78 e9 26 31 08 0c c0 d9 ce f7 53 e3 a5 0b c0
       -3.504 -3.456
0001b0 dd 24 06 81 95 43 0b c0 e1 7a 14 ae 47 e1 0a c0
       -3.408 -3.36
0001c0 e5 d0 22 db f9 7e 0a c0 e9 26 31 08 ac 1c 0a c0
       -3.312 -3.264
0001d0 ed 7c 3f 35 5e ba 09 c0 f2 d2 4d 62 10 58 09 c0
       -3.2159999999999997 -3.168
0001e0 f6 28 5c 8f c2 f5 08 c0 fa 7e 6a bc 74 93 08 c0
       -3.12 -3.072
0001f0 fe d4 78 e9 26 31 08 c0 02 2b 87 16 d9 ce 07 c0
       -3.024 -2.976
000200 06 81 95 43 8b 6c 07 c0 0a d7 a3 70 3d 0a 07 c0
       -2.928 -2.88
000210 0e 2d b2 9d ef a7 06 c0 12 83 c0 ca a1 45 06 c0
       -2.832 -2.784
000220 16 d9 ce f7 53 e3 05 c0 1a 2f dd 24 06 81 05 c0
       -2.7359999999999998 -2.6879999999999997
000230 1f 85 eb 51 b8 1e 05 c0 23 db f9 7e 6a bc 04 c0
       -2.64 -2.592
000240 27 31 08 ac 1c 5a 04 c0 2b 87 16 d9 ce f7 03 c0
       -2.544 -2.496
000250 2f dd 24 06 81 95 03 c0 33 33 33 33 33 33 03 c0
       -2.448 -2.4
000260 37 89 41 60 e5 d0 02 c0 3b df 4f 8d 97 6e 02 c0
       -2.352 -2.304
000270 3f 35 5e ba 49 0c 02 c0 43 8b 6c e7 fb a9 01 c0
       -2.256 -2.2079999999999997
000280 48 e1 7a 14 ae 47 01 c0 4c 37 89 41 60 e5 00 c0
       -2.16 -2.112
000290 50 8d 97 6e 12 83 00 c0 54 e3 a5 9b c4 20 00 c0
       -2.064 -2.016
0002a0 b0 72 68 91 ed 7c ff bf b8 1e 85 eb 51 b8 fe bf
       -1.968 -1.92
0002b0 c0 ca a1 45 b6 f3 fd bf c8 76 be 9f 1a 2f fd bf
       -1.8719999999999999 -1.8239999999999998
0002c0 d0 22 db f9 7e 6a fc bf d8 ce f7 53 e3 a5 fb bf
       -1.7759999999999998 -1.7279999999999998
0002d0 e0 7a 14 ae 47 e1 fa bf e8 26 31 08 ac 1c fa bf
       -1.6799999999999997 -1.6319999999999997
0002e0 f0 d2 4d 62 10 58 f9 bf f8 7e 6a bc 74 93 f8 bf
       -1.5839999999999996 -1.5359999999999996
0002f0 00 2b 87 16 d9 ce f7 bf 08 d7 a3 70 3d 0a f7 bf
       -1.4879999999999995 -1.4399999999999995
000300 10 83 c0 ca a1 45 f6 bf 1c 2f dd 24 06 81 f5 bf
       -1.3919999999999995 -1.3440000000000003
000310 24 db f9 7e 6a bc f4 bf 2c 87 16 d9 ce f7 f3 bf
       -1.2960000000000003 -1.2480000000000002
000320 34 33 33 33 33 33 f3 bf 3c df 4f 8d 97 6e f2 bf
       -1.2000000000000002 -1.1520000000000001
000330 44 8b 6c e7 fb a9 f1 bf 4c 37 89 41 60 e5 f0 bf
       -1.104 -1.056
000340 54 e3 a5 9b c4 20 f0 bf b8 1e 85 eb 51 b8 ee bf
       -1.008 -0.96
000350 c8 76 be 9f 1a 2f ed bf d8 ce f7 53 e3 a5 eb bf
       -0.9119999999999999 -0.8639999999999999
000360 e8 26 31 08 ac 1c ea bf f8 7e 6a bc 74 93 e8 bf
       -0.8159999999999998 -0.7679999999999998
000370 08 d7 a3 70 3d 0a e7 bf 18 2f dd 24 06 81 e5 bf
       -0.7199999999999998 -0.6719999999999997
000380 28 87 16 d9 ce f7 e3 bf 38 df 4f 8d 97 6e e2 bf
       -0.6239999999999997 -0.5759999999999996
000390 48 37 89 41 60 e5 e0 bf b0 1e 85 eb 51 b8 de bf
       -0.5279999999999996 -0.47999999999999954
0003a0 d0 ce f7 53 e3 a5 db bf f0 7e 6a bc 74 93 d8 bf
       -0.4319999999999995 -0.38399999999999945
0003b0 20 2f dd 24 06 81 d5 bf 40 df 4f 8d 97 6e d2 bf
       -0.3360000000000003 -0.28800000000000026
0003c0 c0 1e 85 eb 51 b8 ce bf 00 7f 6a bc 74 93 c8 bf
       -0.2400000000000002 -0.19200000000000017
0003d0 40 df 4f 8d 97 6e c2 bf 00 7f 6a bc 74 93 b8 bf
       -0.14400000000000013 -0.09600000000000009
0003e0 00 7f 6a bc 74 93 a8 bf 00 00 00 00 00 00 00 00
       -0.04800000000000004 0.0
0003f0 00 7f 6a bc 74 93 a8 3f 00 7f 6a bc 74 93 b8 3f
       0.04800000000000004 0.09600000000000009
000400 40 df 4f 8d 97 6e c2 3f 00 7f 6a bc 74 93 c8 3f
       0.14400000000000013 0.19200000000000017
000410 c0 1e 85 eb 51 b8 ce 3f 40 df 4f 8d 97 6e d2 3f
       0.2400000000000002 0.28800000000000026
000420 20 2f dd 24 06 81 d5 3f 00 7f 6a bc 74 93 d8 3f
       0.3360000000000003 0.38400000000000034
000430 e0 ce f7 53 e3 a5 db 3f c0 1e 85 eb 51 b8 de 3f
       0.4320000000000004 0.4800000000000004
000440 50 37 89 41 60 e5 e0 3f 40 df 4f 8d 97 6e e2 3f
       0.5280000000000005 0.5760000000000005
000450 30 87 16 d9 ce f7 e3 3f 18 2f dd 24 06 81 e5 3f
       0.6240000000000006 0.6719999999999997
000460 08 d7 a3 70 3d 0a e7 3f f8 7e 6a bc 74 93 e8 3f
       0.7199999999999998 0.7679999999999998
000470 e8 26 31 08 ac 1c ea 3f d8 ce f7 53 e3 a5 eb 3f
       0.8159999999999998 0.8639999999999999
000480 c8 76 be 9f 1a 2f ed 3f b8 1e 85 eb 51 b8 ee 3f
       0.9119999999999999 0.96
000490 54 e3 a5 9b c4 20 f0 3f 4c 37 89 41 60 e5 f0 3f
       1.008 1.056
0004a0 44 8b 6c e7 fb a9 f1 3f 3c df 4f 8d 97 6e f2 3f
       1.104 1.1520000000000001
0004b0 34 33 33 33 33 33 f3 3f 2c 87 16 d9 ce f7 f3 3f
       1.2000000000000002 1.2480000000000002
0004c0 24 db f9 7e 6a bc f4 3f 1c 2f dd 24 06 81 f5 3f
       1.2960000000000003 1.3440000000000003
0004d0 14 83 c0 ca a1 45 f6 3f 0c d7 a3 70 3d 0a f7 3f
       1.3920000000000003 1.4400000000000004
0004e0 04 2b 87 16 d9 ce f7 3f fc 7e 6a bc 74 93 f8 3f
       1.4880000000000004 1.5360000000000005
0004f0 f4 d2 4d 62 10 58 f9 3f ec 26 31 08 ac 1c fa 3f
       1.5840000000000005 1.6320000000000006
000500 e0 7a 14 ae 47 e1 fa 3f d8 ce f7 53 e3 a5 fb 3f
       1.6799999999999997 1.7279999999999998
000510 d0 22 db f9 7e 6a fc 3f c8 76 be 9f 1a 2f fd 3f
       1.7759999999999998 1.8239999999999998
000520 c0 ca a1 45 b6 f3 fd 3f b8 1e 85 eb 51 b8 fe 3f
       1.8719999999999999 1.92
000530 b0 72 68 91 ed 7c ff 3f 54 e3 a5 9b c4 20 00 40
       1.968 2.016
000540 50 8d 97 6e 12 83 00 40 4c 37 89 41 60 e5 00 40
       2.064 2.112
000550 48 e1 7a 14 ae 47 01 40 44 8b 6c e7 fb a9 01 40
       2.16 2.208
000560 40 35 5e ba 49 0c 02 40 3c df 4f 8d 97 6e 02 40
       2.2560000000000002 2.3040000000000003
000570 38 89 41 60 e5 d0 02 40 34 33 33 33 33 33 03 40
       2.3520000000000003 2.4000000000000004
000580 30 dd 24 06 81 95 03 40 2c 87 16 d9 ce f7 03 40
       2.4480000000000004 2.4960000000000004
000590 28 31 08 ac 1c 5a 04 40 24 db f9 7e 6a bc 04 40
       2.5440000000000005 2.5920000000000005
0005a0 20 85 eb 51 b8 1e 05 40 1c 2f dd 24 06 81 05 40
       2.6400000000000006 2.6880000000000006
0005b0 18 d9 ce f7 53 e3 05 40 14 83 c0 ca a1 45 06 40
       2.7360000000000007 2.7840000000000007
0005c0 10 2d b2 9d ef a7 06 40 0c d7 a3 70 3d 0a 07 40
       2.8320000000000007 2.880000000000001
0005d0 08 81 95 43 8b 6c 07 40 04 2b 87 16 d9 ce 07 40
       2.928000000000001 2.976000000000001
0005e0 00 d5 78 e9 26 31 08 40 fc 7e 6a bc 74 93 08 40
       3.024000000000001 3.072000000000001
0005f0 f8 28 5c 8f c2 f5 08 40 f4 d2 4d 62 10 58 09 40
       3.120000000000001 3.168000000000001
000600 f0 7c 3f 35 5e ba 09 40 e8 26 31 08 ac 1c 0a 40
       3.216000000000001 3.2639999999999993
000610 e4 d0 22 db f9 7e 0a 40 e0 7a 14 ae 47 e1 0a 40
       3.3119999999999994 3.3599999999999994
000620 dc 24 06 81 95 43 0b 40 d8 ce f7 53 e3 a5 0b 40
       3.4079999999999995 3.4559999999999995
000630 d4 78 e9 26 31 08 0c 40 d0 22 db f9 7e 6a 0c 40
       3.5039999999999996 3.5519999999999996
000640 cc cc cc cc cc cc 0c 40 c8 76 be 9f 1a 2f 0d 40
       3.5999999999999996 3.6479999999999997
000650 c4 20 b0 72 68 91 0d 40 c0 ca a1 45 b6 f3 0d 40
       3.6959999999999997 3.7439999999999998
000660 bc 74 93 18 04 56 0e 40 b8 1e 85 eb 51 b8 0e 40
       3.792 3.84
000670 b4 c8 76 be 9f 1a 0f 40 b0 72 68 91 ed 7c 0f 40
       3.888 3.936
000680 ac 1c 5a 64 3b df 0f 40 54 e3 a5 9b c4 20 10 40
       3.984 4.032
000690 52 b8 1e 85 eb 51 10 40 50 8d 97 6e 12 83 10 40
       4.08 4.128
0006a0 4e 62 10 58 39 b4 10 40 4c 37 89 41 60 e5 10 40
       4.176 4.224
0006b0 4a 0c 02 2b 87 16 11 40 48 e1 7a 14 ae 47 11 40
       4.272 4.32
0006c0 46 b6 f3 fd d4 78 11 40 44 8b 6c e7 fb a9 11 40
       4.368 4.416
0006d0 42 60 e5 d0 22 db 11 40 40 35 5e ba 49 0c 12 40
       4.464 4.5120000000000005
0006e0 3e 0a d7 a3 70 3d 12 40 3c df 4f 8d 97 6e 12 40
       4.5600000000000005 4.6080000000000005
0006f0 3a b4 c8 76 be 9f 12 40 38 89 41 60 e5 d0 12 40
       4.656000000000001 4.704000000000001
000700 36 5e ba 49 0c 02 13 40 34 33 33 33 33 33 13 40
       4.752000000000001 4.800000000000001
000710 32 08 ac 1c 5a 64 13 40 30 dd 24 06 81 95 13 40
       4.848000000000001 4.896000000000001
000720 2e b2 9d ef a7 c6 13 40 2c 87 16 d9 ce f7 13 40
       4.944000000000001 4.992000000000001
000730 2a 5c 8f c2 f5 28 14 40 28 31 08 ac 1c 5a 14 40
       5.040000000000001 5.088000000000001
000740 26 06 81 95 43 8b 14 40 24 db f9 7e 6a bc 14 40
       5.136000000000001 5.184000000000001
000750 22 b0 72 68 91 ed 14 40 1e 85 eb 51 b8 1e 15 40
       5.232000000000001 5.279999999999999
000760 1c 5a 64 3b df 4f 15 40 1a 2f dd 24 06 81 15 40
       5.327999999999999 5.3759999999999994
000770 18 04 56 0e 2d b2 15 40 16 d9 ce f7 53 e3 15 40
       5.4239999999999995 5.4719999999999995
000780 14 ae 47 e1 7a 14 16 40 12 83 c0 ca a1 45 16 40
       5.52 5.568
000790 10 58 39 b4 c8 76 16 40 0e 2d b2 9d ef a7 16 40
       5.616 5.664
0007a0 0c 02 2b 87 16 d9 16 40 0a d7 a3 70 3d 0a 17 40
       5.712 5.76
0007b0 08 ac 1c 5a 64 3b 17 40 06 81 95 43 8b 6c 17 40
       5.808 5.856
0007c0 04 56 0e 2d b2 9d 17 40 02 2b 87 16 d9 ce 17 40
       5.904 5.952
0007d0 00 00 00 00 00 00 18 40
       6.0
