analysis/PHYS_A02_H064_L02_D01_Tanh_W4096_P010000_V1.00e+02_S5.00e-01_Adam_PT_False_device_cuda_dtype_float32.npz (npz, 755540 bytes, 12 tensors)

V0 f8 []
0	0x4059000000000000	100.0

rms f8 []
0	0x3ffc939061f6ca99	1.786026365921009

density_xx f4 [250]
0	0xc0bf3b64	-5.976
1	0xc0bdb22d	-5.928
2	0xc0bc28f6	-5.88
3	0xc0ba9fbe	-5.832
4	0xc0b91688	-5.7840004
5	0xc0b78d50	-5.736
6	0xc0b60418	-5.6879997
7	0xc0b47ae2	-5.6400003
8	0xc0b2f1aa	-5.592
9	0xc0b16872	-5.5439997
10	0xc0afdf3c	-5.4960003
11	0xc0ae5604	-5.448
12	0xc0accccc	-5.3999996
13	0xc0ab4396	-5.352
14	0xc0a9ba5e	-5.304
15	0xc0a83127	-5.256
16	0xc0a6a7f0	-5.208
17	0xc0a51eb8	-5.16
18	0xc0a39581	-5.112
19	0xc0a20c4a	-5.064
20	0xc0a08312	-5.016
21	0xc09ef9db	-4.968
22	0xc09d70a4	-4.92
23	0xc09be76c	-4.8719997
24	0xc09a5e36	-4.8240004
25	0xc098d4fe	-4.776
26	0xc0974bc6	-4.7279997
27	0xc095c290	-4.6800003
28	0xc0943958	-4.632
29	0xc092b020	-4.5839996
30	0xc09126ea	-4.5360003
31	0xc08f9db2	-4.488
32	0xc08e147b	-4.44
33	0xc08c8b44	-4.392
34	0xc08b020c	-4.344
35	0xc08978d5	-4.296
36	0xc087ef9e	-4.248
37	0xc0866666	-4.2
38	0xc084dd2f	-4.152
39	0xc08353f8	-4.104
40	0xc081cac0	-4.0559998
41	0xc0804189	-4.008
42	0xc07d70a4	-3.96
43	0xc07a5e36	-3.9120002
44	0xc0774bc6	-3.8639998
45	0xc0743958	-3.816
46	0xc07126ea	-3.7680001
47	0xc06e147b	-3.72
48	0xc06b020c	-3.672
49	0xc067ef9e	-3.624
50	0xc064dd2f	-3.576
51	0xc061cac0	-3.5279999
52	0xc05eb852	-3.48
53	0xc05ba5e4	-3.4320002
54	0xc0589374	-3.3839998
55	0xc0558106	-3.336
56	0xc0526e98	-3.288
57	0xc04f5c29	-3.24
58	0xc04c49ba	-3.192
59	0xc049374c	-3.144
60	0xc04624dd	-3.096
61	0xc043126e	-3.0479999
62	0xc0400000	-3.0
63	0xc03ced92	-2.9520001
64	0xc039db23	-2.904
65	0xc036c8b4	-2.856
66	0xc033b646	-2.808
67	0xc030a3d7	-2.76
68	0xc02d9168	-2.712
69	0xc02a7efa	-2.664
70	0xc0276c8c	-2.6160002
71	0xc0245a1c	-2.5679998
72	0xc02147ae	-2.52
73	0xc01e3540	-2.4720001
74	0xc01b22d1	-2.424
75	0xc0181062	-2.376
76	0xc014fdf4	-2.328
77	0xc011eb85	-2.28
78	0xc00ed916	-2.2319999
79	0xc00bc6a8	-2.184
80	0xc008b43a	-2.1360002
81	0xc005a1ca	-2.0879998
82	0xc0028f5c	-2.04
83	0xbffef9dc	-1.9920001
84	0xbff8d4fe	-1.944
85	0xbff2b020	-1.8959999
86	0xbfec8b44	-1.848
87	0xbfe66666	-1.8
88	0xbfe0418a	-1.7520001
89	0xbfda1cac	-1.704
90	0xbfd3f7ce	-1.6559999
91	0xbfcdd2f2	-1.608
92	0xbfc7ae14	-1.56
93	0xbfc18938	-1.5120001
94	0xbfbb645a	-1.464
95	0xbfb53f7d	-1.416
96	0xbfaf1aa0	-1.368
97	0xbfa8f5c2	-1.3199999
98	0xbfa2d0e6	-1.2720001
99	0xbf9cac08	-1.224
100	0xbf96872b	-1.176
101	0xbf90624e	-1.128
102	0xbf8a3d70	-1.0799999
103	0xbf841894	-1.0320001
104	0xbf7be76c	-0.98399997
105	0xbf6f9db2	-0.936
106	0xbf6353f8	-0.888
107	0xbf570a3e	-0.84000003
108	0xbf4ac083	-0.792
109	0xbf3e76c9	-0.744
110	0xbf322d0e	-0.696
111	0xbf25e354	-0.648
112	0xbf19999a	-0.6
113	0xbf0d4fdf	-0.552
114	0xbf010625	-0.504
115	0xbee978d5	-0.456
116	0xbed0e560	-0.408
117	0xbeb851ec	-0.36
118	0xbe9fbe76	-0.31199998
119	0xbe872b02	-0.264
120	0xbe5d2f1a	-0.21599999
121	0xbe2c0831	-0.168
122	0xbdf5c28f	-0.12
123	0xbd9374bc	-0.072
124	0xbcc49ba6	-0.024
125	0x3cc49ba6	0.024
126	0x3d9374bc	0.072
127	0x3df5c28f	0.12
128	0x3e2c0831	0.168
129	0x3e5d2f1a	0.21599999
130	0x3e872b02	0.264
131	0x3e9fbe76	0.31199998
132	0x3eb851ec	0.36
133	0x3ed0e560	0.408
134	0x3ee978d5	0.456
135	0x3f010625	0.504
136	0x3f0d4fdf	0.552
137	0x3f19999a	0.6
138	0x3f25e354	0.648
139	0x3f322d0e	0.696
140	0x3f3e76c9	0.744
141	0x3f4ac083	0.792
142	0x3f570a3e	0.84000003
143	0x3f6353f8	0.888
144	0x3f6f9db2	0.936
145	0x3f7be76c	0.98399997
146	0x3f841894	1.0320001
147	0x3f8a3d70	1.0799999
148	0x3f90624e	1.128
149	0x3f96872b	1.176
150	0x3f9cac08	1.224
151	0x3fa2d0e6	1.2720001
152	0x3fa8f5c2	1.3199999
153	0x3faf1aa0	1.368
154	0x3fb53f7d	1.416
155	0x3fbb645a	1.464
156	0x3fc18938	1.5120001
157	0x3fc7ae14	1.56
158	0x3fcdd2f2	1.608
159	0x3fd3f7ce	1.6559999
160	0x3fda1cac	1.704
161	0x3fe0418a	1.7520001
162	0x3fe66666	1.8
163	0x3fec8b44	1.848
164	0x3ff2b020	1.8959999
165	0x3ff8d4fe	1.944
166	0x3ffef9dc	1.9920001
167	0x40028f5c	2.04
168	0x4005a1ca	2.0879998
169	0x4008b43a	2.1360002
170	0x400bc6a8	2.184
171	0x400ed916	2.2319999
172	0x4011eb85	2.28
173	0x4014fdf4	2.328
174	0x40181062	2.376
175	0x401b22d1	2.424
176	0x401e3540	2.4720001
177	0x402147ae	2.52
178	0x40245a1c	2.5679998
179	0x40276c8c	2.6160002
180	0x402a7efa	2.664
181	0x402d9168	2.712
182	0x4030a3d7	2.76
183	0x4033b646	2.808
184	0x4036c8b4	2.856
185	0x4039db23	2.904
186	0x403ced92	2.9520001
187	0x40400000	3.0
188	0x4043126e	3.0479999
189	0x404624dd	3.096
190	0x4049374c	3.144
191	0x404c49ba	3.192
192	0x404f5c29	3.24
193	0x40526e98	3.288
194	0x40558106	3.336
195	0x40589374	3.3839998
196	0x405ba5e4	3.4320002
197	0x405eb852	3.48
198	0x4061cac0	3.5279999
199	0x4064dd2f	3.576
200	0x4067ef9e	3.624
201	0x406b020c	3.672
202	0x406e147b	3.72
203	0x407126ea	3.7680001
204	0x40743958	3.816
205	0x40774bc6	3.8639998
206	0x407a5e36	3.9120002
207	0x407d70a4	3.96
208	0x40804189	4.008
209	0x4081cac0	4.0559998
210	0x408353f8	4.104
211	0x4084dd2f	4.152
212	0x40866666	4.2
213	0x4087ef9e	4.248
214	0x408978d5	4.296
215	0x408b020c	4.344
216	0x408c8b44	4.392
217	0x408e147b	4.44
218	0x408f9db2	4.488
219	0x409126ea	4.5360003
220	0x4092b020	4.5839996
221	0x40943958	4.632
222	0x4095c290	4.6800003
223	0x40974bc6	4.7279997
224	0x4098d4fe	4.776
225	0x409a5e36	4.8240004
226	0x409be76c	4.8719997
227	0x409d70a4	4.92
228	0x409ef9db	4.968
229	0x40a08312	5.016
230	0x40a20c4a	5.064
231	0x40a39581	5.112
232	0x40a51eb8	5.16
233	0x40a6a7f0	5.208
234	0x40a83127	5.256
235	0x40a9ba5e	5.304
236	0x40ab4396	5.352
237	0x40accccc	5.3999996
238	0x40ae5604	5.448
239	0x40afdf3c	5.4960003
240	0x40b16872	5.5439997
241	0x40b2f1aa	5.592
242	0x40b47ae2	5.6400003
243	0x40b60418	5.6879997
244	0x40b78d50	5.736
245	0x40b91688	5.7840004
246	0x40ba9fbe	5.832
247	0x40bc28f6	5.88
248	0x40bdb22d	5.928
249	0x40bf3b64	5.976

density_psi f8 [250]
0	0x0000000000000000	0.0
1	0x0000000000000000	0.0
2	0x0000000000000000	0.0
3	0x0000000000000000	0.0
4	0x0000000000000000	0.0
5	0x0000000000000000	0.0
6	0x0000000000000000	0.0
7	0x0000000000000000	0.0
8	0x0000000000000000	0.0
9	0x0000000000000000	0.0
10	0x0000000000000000	0.0
11	0x0000000000000000	0.0
12	0x0000000000000000	0.0
13	0x0000000000000000	0.0
14	0x0000000000000000	0.0
15	0x0000000000000000	0.0
16	0x0000000000000000	0.0
17	0x0000000000000000	0.0
18	0x0000000000000000	0.0
19	0x0000000000000000	0.0
20	0x0000000000000000	0.0
21	0x0000000000000000	0.0
22	0x0000000000000000	0.0
23	0x0000000000000000	0.0
24	0x0000000000000000	0.0
25	0x0000000000000000	0.0
26	0x0000000000000000	0.0
27	0x0000000000000000	0.0
28	0x0000000000000000	0.0
29	0x0000000000000000	0.0
30	0x0000000000000000	0.0
31	0x3ea111145b06529c	5.086277977012408e-07
32	0x3ea111093e977f0c	5.086227449733768e-07
33	0x3eb9999e88897be9	1.5258833931037222e-06
34	0x3eb9999e88897be9	1.5258833931037222e-06
35	0x3ec5554b8e3d5ece	2.5431137248668837e-06
36	0x3ed111145b06529c	4.0690223816099265e-06
37	0x3ed5555971c7e743	5.086277977012408e-06
38	0x3ee111093e977f0c	8.137963919574029e-06
39	0x3eeaaaafce39e113	1.2715694942531019e-05
40	0x3eeaaaafce39e113	1.2715694942531019e-05
41	0x3efc44408333b2d7	2.695713938021229e-05
42	0x3f00ccd0099a3952	3.2043551255178174e-05
43	0x3f0733301e66cf29	4.4250398605254135e-05
44	0x3f0ffffbc0009080	6.1035032558971226e-05
45	0x3f14eef2f7a5c153	7.98545642390948e-05
46	0x3f17dddab266d22c	9.104392356713208e-05
47	0x3f22eef294fb03a4	0.00014445029454715236
48	0x3f2855521a006de1	0.00018564822403353747
49	0x3f30e66427cd191d	0.0002578730125616534
50	0x3f385de28ff586f1	0.000371806920119607
51	0x3f3d4cc8e89a1de8	0.0004470816134944642
52	0x3f43fbbf9594a73a	0.0006098447294437877
53	0x3f4a1dda65e6dc55	0.0007970158001658992
54	0x3f519ddb86e6b5f3	0.001075233823580543
55	0x3f56c22684e18e68	0.0013890625155220885
56	0x3f5dd10d1b4d5371	0.001819861220799992
57	0x3f63466a1d4d840c	0.00235291219216594
58	0x3f689bb8770d3bec	0.003003940852444034
59	0x3f6f110cf0cd5917	0.0037923100229974127
60	0x3f73e003d480bcf3	0.004852309190069837
61	0x3f798440e0b3a66c	0.006229642323185663
62	0x3f7fe3c1e0f5186a	0.007785565699412892
63	0x3f840a1f78c9f417	0.009784932969745736
64	0x3f88def3b9e5e6c2	0.012143997297914825
65	0x3f8ed7b7a3155814	0.015059885658654827
66	0x3f92fc41bec388ee	0.01854040839033016
67	0x3f97699e1c9ebc73	0.022863836762266176
68	0x3f9c5d0d4cb54ce0	0.02769871502580379
69	0x3fa115478f08b92a	0.033365474901403694
70	0x3fa4c81f5f8df771	0.04058931390225851
71	0x3fa8b51eda14092c	0.04825683986747928
72	0x3fad7c49f2e28467	0.05758887376692528
73	0x3fb17dc1f190822f	0.06832515857286901
74	0x3fb494d94caf3571	0.08039625284364661
75	0x3fb8102778856ca9	0.09399649326717231
76	0x3fbbfc95e20db193	0.1093228985680013
77	0x3fc03d7edcead8f9	0.1268766955087768
78	0x3fc2a3b941fd20f8	0.14562144968136415
79	0x3fc553a1f9fbbf5f	0.16661476808757933
80	0x3fc83f78834dba4b	0.1894369736796356
81	0x3fcb7e04e1cbe28c	0.2147832968255624
82	0x3fcecba3cd1c1965	0.24058959498524782
83	0x3fd13ad7fb8fef56	0.2692165333426052
84	0x3fd3259930bd6343	0.2991698242163247
85	0x3fd517fa3b516d60	0.3295884684827879
86	0x3fd71af3e4572bb5	0.36102006243589396
87	0x3fd935c0c146c5ca	0.39390581965116367
88	0x3fdb3d60d0d690ec	0.4256212272105262
89	0x3fdd5ec8e6361e3a	0.4589102028043929
90	0x3fdf6efa8a971a6b	0.4911486009045009
91	0x3fe0afae5dcb6c02	0.5214454490591154
92	0x3fe1a162a94cc134	0.5509503656994981
93	0x3fe28ed805be9a4e	0.5799369919012152
94	0x3fe3555d6105ee0a	0.6041705031379376
95	0x3fe3fda2ada5ba46	0.6247113601255669
96	0x3fe49dbd6adb7900	0.64425536032266
97	0x3fe510e1b2927e14	0.6583107459773054
98	0x3fe56a93d7644b52	0.6692599493856994
99	0x3fe5a5d70c5dd71b	0.6764941445860332
100	0x3fe5b4305144c868	0.6782456958083118
101	0x3fe59ec4ea057f46	0.6756310053569698
102	0x3fe569a81ba1804b	0.6691475429215726
103	0x3fe50464e565f478	0.6567863922533794
104	0x3fe47fb99cc39ec5	0.6405914365577351
105	0x3fe3ec8098bfd9e8	0.6226199134242139
106	0x3fe32a26f9543bde	0.5988955373485358
107	0x3fe25c78a7d80fa3	0.5737880018427756
108	0x3fe174df74c44ac4	0.5455167084313293
109	0x3fe072607e178e71	0.5139620268568718
110	0x3fdef3ad5766849a	0.4836228707809568
111	0x3fdcd431ee168fde	0.45045135737222874
112	0x3fdac13617322f47	0.4180426813625115
113	0x3fd8a973f04656bb	0.3853425833161556
114	0x3fd692884a7591bc	0.35269362708484286
115	0x3fd49c38157a7ac7	0.32203485581878194
116	0x3fd2d3aa76e495e3	0.29416905985485026
117	0x3fd1115304438ee8	0.26668239036938113
118	0x3fcf0d7faa9ae0ea	0.24259944753953927
119	0x3fcc588d127bd246	0.2214523639919596
120	0x3fca06a6a6616ac0	0.2033279716877896
121	0x3fc8201512fd1b61	0.1884790747373826
122	0x3fc6bf5148fcb8e5	0.17771354736164038
123	0x3fc5c3b7744aecb7	0.1700352971873593
124	0x3fc53d37745e8a0b	0.16593068296522548
125	0x3fc53b77745ecb61	0.16587727720397097
126	0x3fc5a6aeebc6a017	0.16914927017683176
127	0x3fc6c8158d568a51	0.17798108483573796
128	0x3fc82961dfb054fb	0.18876288816742445
129	0x3fc9ffaaea94842b	0.2031148572359894
130	0x3fcc502f348962fb	0.22119703355090067
131	0x3fcf0cf2ddcf9751	0.24258266287432176
132	0x3fd11975264f532c	0.267178809558845
133	0x3fd2c7f965f3abc1	0.29345545726999595
134	0x3fd4a04d6aef1e56	0.32228408282069176
135	0x3fd698240621e133	0.3530359325300367
136	0x3fd8af6b67eb8cc7	0.38570675991486464
137	0x3fdacb20c15a4830	0.4186479461869821
138	0x3fdcdc51ee54da89	0.4509472682433758
139	0x3fdeef119be77604	0.483341600656644
140	0x3fe077fb28ed303a	0.5146461295457876
141	0x3fe175a196ec3d41	0.54560927846061
142	0x3fe25e25748ece93	0.573992469455748
143	0x3fe32b93c62bf578	0.5990694876233382
144	0x3fe3e95e7685b215	0.6222374262702625
145	0x3fe4865ef1c1733b	0.6414026948728869
146	0x3fe503aa3ab5b2b1	0.6566973826098402
147	0x3fe56472c6243cbc	0.6685117597534354
148	0x3fe59ee4ea06749c	0.6756462641530052
149	0x3fe5b337c8dd41fe	0.6781271861200933
150	0x3fe59da0a5b87a4c	0.6754916416865142
151	0x3fe5654d70d573d9	0.6686160281930099
152	0x3fe51663d4dedb3e	0.6589831502559276
153	0x3fe496d4e21df9b5	0.6434120575284427
154	0x3fe40b65df0500e9	0.6263913493967525
155	0x3fe350f3c74a802b	0.6036318676378917
156	0x3fe285ff7cf24058	0.5788571777684508
157	0x3fe1a41e651d7190	0.5512840247061366
158	0x3fe0bb3c3c01dedd	0.5228558704393113
159	0x3fdf773868b427f0	0.4916516325471312
160	0x3fdd604d2a46d174	0.459002772603774
161	0x3fdb3b27372be862	0.425485423925812
162	0x3fd938a949e59a6a	0.3940833303117076
163	0x3fd71af8289b90ae	0.3610210796889629
164	0x3fd51024e5c009d0	0.3291103595403486
165	0x3fd31146003d3c81	0.29792928717956363
166	0x3fd1379c3fbb69a4	0.2690191862472153
167	0x3fcede2c5936f242	0.24115518909629158
168	0x3fcb58ef916361e3	0.21365160559686477
169	0x3fc84b521b546db4	0.18979860624754752
170	0x3fc550d0e85fb995	0.16652880998976785
171	0x3fc2a49b64013a96	0.14564840682074437
172	0x3fc0385cb9cb7812	0.12672003814708482
173	0x3fbc0cb8020b4b76	0.10956907319932249
174	0x3fb81fd2211b6cf0	0.09423554714469495
175	0x3fb4843fafe2ac4b	0.0801429562003914
176	0x3fb17428593d4ed1	0.06817867449472749
177	0x3fad55e38515b62f	0.05729590415544938
178	0x3fa8c6964f39a314	0.04839009968856636
179	0x3fa4e196d3a3917e	0.040783608755904574
180	0x3fa14aadffb987f2	0.033772885767362384
181	0x3f9c26eb31c3b253	0.02749221316564594
182	0x3f9719e251857ae9	0.022559677339240834
183	0x3f92ed74f3edef12	0.01848395098521311
184	0x3f8eeffbe4208bb3	0.015106170558345377
185	0x3f88f4d19bfa86dc	0.012185704777326327
186	0x3f83f596f2fb8d54	0.00974576882385373
187	0x3f801c475f0cafeb	0.00786643751924739
188	0x3f7979963773a63d	0.006219469817759169
189	0x3f74699d889e9fed	0.004983535161876757
190	0x3f6fb8845206f5a3	0.0038721641905953993
191	0x3f692eeb96b3a4eb	0.0030741311398868507
192	0x3f63977b3dfde214	0.002391567904791234
193	0x3f5d2eeb0eb3b6fb	0.0017812057001793103
194	0x3f574ef36cd08292	0.0014226319501703705
195	0x3f526441d2f38640	0.0011225359738137458
196	0x3f4b910d67cd4948	0.0008412661987711534
197	0x3f43e225f70c1dbe	0.0006067929626575803
198	0x3f3cd55181008234	0.0004399608596959176
199	0x3f3700046eab8554	0.00035095318041385615
200	0x3f31aaa852004fc7	0.00026957139380212293
201	0x3f29110dbccd3dfe	0.00019124310201810985
202	0x3f225558ddc7cabd	0.0001398726443678412
203	0x3f1bbbb80ccd4a09	0.00010579405643555013
204	0x3f14eef2f7a5c153	7.98545642390948e-05
205	0x3f0dddd9e666ed44	5.696603038837314e-05
206	0x3f0666636ccd31f3	4.272452279127986e-05
207	0x3efd555afc72ddfc	2.7974528873568244e-05
208	0x3ef5555280006055	2.0345010852990408e-05
209	0x3eebbbc113ea463d	1.322432274023226e-05
210	0x3ee6666ab7784c6c	1.0681183751726056e-05
211	0x3ee3332a666a6eed	9.155209409520782e-06
212	0x3ed5555971c7e743	5.086277977012408e-06
213	0x3ec5555971c7e743	2.543138988506204e-06
214	0x3ec9998ddde33e92	3.051736469840261e-06
215	0x3ec111145b06529c	2.0345111908049633e-06
216	0x3ed111145b06529c	4.0690223816099265e-06
217	0x3eb9998ddde33e92	1.5258682349201305e-06
218	0x3ea111145b06529c	5.086277977012408e-07
219	0x3eb111145b06529c	1.0172555954024816e-06
220	0x0000000000000000	0.0
221	0x0000000000000000	0.0
222	0x0000000000000000	0.0
223	0x0000000000000000	0.0
224	0x0000000000000000	0.0
225	0x0000000000000000	0.0
226	0x0000000000000000	0.0
227	0x0000000000000000	0.0
228	0x0000000000000000	0.0
229	0x0000000000000000	0.0
230	0x0000000000000000	0.0
231	0x0000000000000000	0.0
232	0x0000000000000000	0.0
233	0x0000000000000000	0.0
234	0x0000000000000000	0.0
235	0x0000000000000000	0.0
236	0x0000000000000000	0.0
237	0x0000000000000000	0.0
238	0x0000000000000000	0.0
239	0x0000000000000000	0.0
240	0x0000000000000000	0.0
241	0x0000000000000000	0.0
242	0x0000000000000000	0.0
243	0x0000000000000000	0.0
244	0x0000000000000000	0.0
245	0x0000000000000000	0.0
246	0x0000000000000000	0.0
247	0x0000000000000000	0.0
248	0x0000000000000000	0.0
249	0x0000000000000000	0.0

h_obdm f8 [250, 250]
0	0x0000000000000000	0.0
1	0x0000000000000000	0.0
2	0x0000000000000000	0.0
3	0x0000000000000000	0.0
4	0x0000000000000000	0.0
5	0x0000000000000000	0.0
6	0x0000000000000000	0.0
7	0x0000000000000000	0.0
8	0x0000000000000000	0.0
9	0x0000000000000000	0.0
10	0x0000000000000000	0.0
11	0x0000000000000000	0.0
12	0x0000000000000000	0.0
13	0x0000000000000000	0.0
14	0x0000000000000000	0.0
15	0x0000000000000000	0.0
16	0x0000000000000000	0.0
17	0x0000000000000000	0.0
18	0x0000000000000000	0.0
19	0x0000000000000000	0.0
20	0x0000000000000000	0.0
21	0x0000000000000000	0.0
22	0x0000000000000000	0.0
23	0x0000000000000000	0.0
24	0x0000000000000000	0.0
25	0x0000000000000000	0.0
26	0x0000000000000000	0.0
27	0x0000000000000000	0.0
28	0x0000000000000000	0.0
29	0x0000000000000000	0.0
30	0x0000000000000000	0.0
31	0x0000000000000000	0.0
32	0x0000000000000000	0.0
33	0x0000000000000000	0.0
34	0x0000000000000000	0.0
35	0x0000000000000000	0.0
36	0x0000000000000000	0.0
37	0x0000000000000000	0.0
38	0x0000000000000000	0.0
39	0x0000000000000000	0.0
40	0x0000000000000000	0.0
41	0x0000000000000000	0.0
42	0x0000000000000000	0.0
43	0x0000000000000000	0.0
44	0x0000000000000000	0.0
45	0x0000000000000000	0.0
46	0x0000000000000000	0.0
47	0x0000000000000000	0.0
48	0x0000000000000000	0.0
49	0x0000000000000000	0.0
50	0x0000000000000000	0.0
51	0x0000000000000000	0.0
52	0x0000000000000000	0.0
53	0x0000000000000000	0.0
54	0x0000000000000000	0.0
55	0x0000000000000000	0.0
56	0x0000000000000000	0.0
57	0x0000000000000000	0.0
58	0x0000000000000000	0.0
59	0x0000000000000000	0.0
60	0x0000000000000000	0.0
61	0x0000000000000000	0.0
62	0x0000000000000000	0.0
63	0x0000000000000000	0.0
64	0x0000000000000000	0.0
65	0x0000000000000000	0.0
66	0x0000000000000000	0.0
67	0x0000000000000000	0.0
68	0x0000000000000000	0.0
69	0x0000000000000000	0.0
70	0x0000000000000000	0.0
71	0x0000000000000000	0.0
72	0x0000000000000000	0.0
73	0x0000000000000000	0.0
74	0x0000000000000000	0.0
75	0x0000000000000000	0.0
76	0x0000000000000000	0.0
77	0x0000000000000000	0.0
78	0x0000000000000000	0.0
79	0x0000000000000000	0.0
80	0x0000000000000000	0.0
81	0x0000000000000000	0.0
82	0x0000000000000000	0.0
83	0x0000000000000000	0.0
84	0x0000000000000000	0.0
85	0x0000000000000000	0.0
86	0x0000000000000000	0.0
87	0x0000000000000000	0.0
88	0x0000000000000000	0.0
89	0x0000000000000000	0.0
90	0x0000000000000000	0.0
91	0x0000000000000000	0.0
92	0x0000000000000000	0.0
93	0x0000000000000000	0.0
94	0x0000000000000000	0.0
95	0x0000000000000000	0.0
96	0x0000000000000000	0.0
97	0x0000000000000000	0.0
98	0x0000000000000000	0.0
99	0x0000000000000000	0.0
100	0x0000000000000000	0.0
101	0x0000000000000000	0.0
102	0x0000000000000000	0.0
103	0x0000000000000000	0.0
104	0x0000000000000000	0.0
105	0x0000000000000000	0.0
106	0x0000000000000000	0.0
107	0x0000000000000000	0.0
108	0x0000000000000000	0.0
109	0x0000000000000000	0.0
110	0x0000000000000000	0.0
111	0x0000000000000000	0.0
112	0x0000000000000000	0.0
113	0x0000000000000000	0.0
114	0x0000000000000000	0.0
115	0x0000000000000000	0.0
116	0x0000000000000000	0.0
117	0x0000000000000000	0.0
118	0x0000000000000000	0.0
119	0x0000000000000000	0.0
120	0x0000000000000000	0.0
121	0x0000000000000000	0.0
122	0x0000000000000000	0.0
123	0x0000000000000000	0.0
124	0x0000000000000000	0.0
125	0x0000000000000000	0.0
126	0x0000000000000000	0.0
127	0x0000000000000000	0.0
128	0x0000000000000000	0.0
129	0x0000000000000000	0.0
130	0x0000000000000000	0.0
131	0x0000000000000000	0.0
132	0x0000000000000000	0.0
133	0x0000000000000000	0.0
134	0x0000000000000000	0.0
135	0x0000000000000000	0.0
136	0x0000000000000000	0.0
137	0x0000000000000000	0.0
138	0x0000000000000000	0.0
139	0x0000000000000000	0.0
140	0x0000000000000000	0.0
141	0x0000000000000000	0.0
142	0x0000000000000000	0.0
143	0x0000000000000000	0.0
144	0x0000000000000000	0.0
145	0x0000000000000000	0.0
146	0x0000000000000000	0.0
147	0x0000000000000000	0.0
148	0x0000000000000000	0.0
149	0x0000000000000000	0.0
150	0x0000000000000000	0.0
151	0x0000000000000000	0.0
152	0x0000000000000000	0.0
153	0x0000000000000000	0.0
154	0x0000000000000000	0.0
155	0x0000000000000000	0.0
156	0x0000000000000000	0.0
157	0x0000000000000000	0.0
158	0x0000000000000000	0.0
159	0x0000000000000000	0.0
160	0x0000000000000000	0.0
161	0x0000000000000000	0.0
162	0x0000000000000000	0.0
163	0x0000000000000000	0.0
164	0x0000000000000000	0.0
165	0x0000000000000000	0.0
166	0x0000000000000000	0.0
167	0x0000000000000000	0.0
168	0x0000000000000000	0.0
169	0x0000000000000000	0.0
170	0x0000000000000000	0.0
171	0x0000000000000000	0.0
172	0x0000000000000000	0.0
173	0x0000000000000000	0.0
174	0x0000000000000000	0.0
175	0x0000000000000000	0.0
176	0x0000000000000000	0.0
177	0x0000000000000000	0.0
178	0x0000000000000000	0.0
179	0x0000000000000000	0.0
180	0x0000000000000000	0.0
181	0x0000000000000000	0.0
182	0x0000000000000000	0.0
183	0x0000000000000000	0.0
184	0x0000000000000000	0.0
185	0x0000000000000000	0.0
186	0x0000000000000000	0.0
187	0x0000000000000000	0.0
188	0x0000000000000000	0.0
189	0x0000000000000000	0.0
190	0x0000000000000000	0.0
191	0x0000000000000000	0.0
192	0x0000000000000000	0.0
193	0x0000000000000000	0.0
194	0x0000000000000000	0.0
195	0x0000000000000000	0.0
196	0x0000000000000000	0.0
197	0x0000000000000000	0.0
198	0x0000000000000000	0.0
199	0x0000000000000000	0.0
200	0x0000000000000000	0.0
201	0x0000000000000000	0.0
202	0x0000000000000000	0.0
203	0x0000000000000000	0.0
204	0x0000000000000000	0.0
205	0x0000000000000000	0.0
206	0x0000000000000000	0.0
207	0x0000000000000000	0.0
208	0x0000000000000000	0.0
209	0x0000000000000000	0.0
210	0x0000000000000000	0.0
211	0x0000000000000000	0.0
212	0x0000000000000000	0.0
213	0x0000000000000000	0.0
214	0x0000000000000000	0.0
215	0x0000000000000000	0.0
216	0x0000000000000000	0.0
217	0x0000000000000000	0.0
218	0x0000000000000000	0.0
219	0x0000000000000000	0.0
220	0x0000000000000000	0.0
221	0x0000000000000000	0.0
222	0x0000000000000000	0.0
223	0x0000000000000000	0.0
224	0x0000000000000000	0.0
225	0x0000000000000000	0.0
226	0x0000000000000000	0.0
227	0x0000000000000000	0.0
228	0x0000000000000000	0.0
229	0x0000000000000000	0.0
230	0x0000000000000000	0.0
231	0x0000000000000000	0.0
232	0x0000000000000000	0.0
233	0x0000000000000000	0.0
234	0x0000000000000000	0.0
235	0x0000000000000000	0.0
236	0x0000000000000000	0.0
237	0x0000000000000000	0.0
238	0x0000000000000000	0.0
239	0x0000000000000000	0.0
240	0x0000000000000000	0.0
241	0x0000000000000000	0.0
242	0x0000000000000000	0.0
243	0x0000000000000000	0.0
244	0x0000000000000000	0.0
245	0x0000000000000000	0.0
246	0x0000000000000000	0.0
247	0x0000000000000000	0.0
248	0x0000000000000000	0.0
249	0x0000000000000000	0.0
250	0x0000000000000000	0.0
251	0x0000000000000000	0.0
252	0x0000000000000000	0.0
253	0x0000000000000000	0.0
254	0x0000000000000000	0.0
255	0x0000000000000000	0.0

xedges_obdm f8 [251]
0	0xc018000000000000	-6.0
1	0xc017ced916872b02	-5.952
2	0xc0179db22d0e5604	-5.904
3	0xc0176c8b43958106	-5.856
4	0xc0173b645a1cac08	-5.808
5	0xc0170a3d70a3d70a	-5.76
6	0xc016d916872b020c	-5.712
7	0xc016a7ef9db22d0e	-5.664
8	0xc01676c8b4395810	-5.616
9	0xc01645a1cac08312	-5.568
10	0xc016147ae147ae14	-5.52
11	0xc015e353f7ced916	-5.4719999999999995
12	0xc015b22d0e560418	-5.4239999999999995
13	0xc015810624dd2f1b	-5.376
14	0xc0154fdf3b645a1d	-5.328
15	0xc0151eb851eb851f	-5.28
16	0xc014ed916872b021	-5.232
17	0xc014bc6a7ef9db23	-5.184
18	0xc0148b4395810625	-5.136
19	0xc0145a1cac083127	-5.088
20	0xc01428f5c28f5c29	-5.04
21	0xc013f7ced916872b	-4.992
22	0xc013c6a7ef9db22d	-4.944
23	0xc01395810624dd2f	-4.896
24	0xc013645a1cac0831	-4.848
25	0xc013333333333333	-4.8
26	0xc013020c49ba5e35	-4.752
27	0xc012d0e560418937	-4.704
28	0xc0129fbe76c8b439	-4.656
29	0xc0126e978d4fdf3b	-4.608
30	0xc0123d70a3d70a3e	-4.5600000000000005
31	0xc0120c49ba5e3540	-4.5120000000000005
32	0xc011db22d0e56042	-4.464
33	0xc011a9fbe76c8b44	-4.416
34	0xc01178d4fdf3b646	-4.368
35	0xc01147ae147ae148	-4.32
36	0xc01116872b020c4a	-4.272
37	0xc010e5604189374c	-4.224
38	0xc010b4395810624e	-4.176
39	0xc01083126e978d50	-4.128
40	0xc01051eb851eb852	-4.08
41	0xc01020c49ba5e354	-4.032
42	0xc00fdf3b645a1cac	-3.984
43	0xc00f7ced916872b0	-3.936
44	0xc00f1a9fbe76c8b4	-3.888
45	0xc00eb851eb851eb8	-3.84
46	0xc00e5604189374bc	-3.792
47	0xc00df3b645a1cac0	-3.7439999999999998
48	0xc00d916872b020c4	-3.6959999999999997
49	0xc00d2f1a9fbe76c9	-3.648
50	0xc00ccccccccccccd	-3.6
51	0xc00c6a7ef9db22d1	-3.552
52	0xc00c083126e978d5	-3.504
53	0xc00ba5e353f7ced9	-3.456
54	0xc00b4395810624dd	-3.408
55	0xc00ae147ae147ae1	-3.36
56	0xc00a7ef9db22d0e5	-3.312
57	0xc00a1cac083126e9	-3.264
58	0xc009ba5e353f7ced	-3.2159999999999997
59	0xc0095810624dd2f2	-3.168
60	0xc008f5c28f5c28f6	-3.12
61	0xc0089374bc6a7efa	-3.072
62	0xc0083126e978d4fe	-3.024
63	0xc007ced916872b02	-2.976
64	0xc0076c8b43958106	-2.928
65	0xc0070a3d70a3d70a	-2.88
66	0xc006a7ef9db22d0e	-2.832
67	0xc00645a1cac08312	-2.784
68	0xc005e353f7ced916	-2.7359999999999998
69	0xc005810624dd2f1a	-2.6879999999999997
70	0xc0051eb851eb851f	-2.64
71	0xc004bc6a7ef9db23	-2.592
72	0xc0045a1cac083127	-2.544
73	0xc003f7ced916872b	-2.496
74	0xc00395810624dd2f	-2.448
75	0xc003333333333333	-2.4
76	0xc002d0e560418937	-2.352
77	0xc0026e978d4fdf3b	-2.304
78	0xc0020c49ba5e353f	-2.256
79	0xc001a9fbe76c8b43	-2.2079999999999997
80	0xc00147ae147ae148	-2.16
81	0xc000e5604189374c	-2.112
82	0xc00083126e978d50	-2.064
83	0xc00020c49ba5e354	-2.016
84	0xbfff7ced916872b0	-1.968
85	0xbffeb851eb851eb8	-1.92
86	0xbffdf3b645a1cac0	-1.8719999999999999
87	0xbffd2f1a9fbe76c8	-1.8239999999999998
88	0xbffc6a7ef9db22d0	-1.7759999999999998
89	0xbffba5e353f7ced8	-1.7279999999999998
90	0xbffae147ae147ae0	-1.6799999999999997
91	0xbffa1cac083126e8	-1.6319999999999997
92	0xbff95810624dd2f0	-1.5839999999999996
93	0xbff89374bc6a7ef8	-1.5359999999999996
94	0xbff7ced916872b00	-1.4879999999999995
95	0xbff70a3d70a3d708	-1.4399999999999995
96	0xbff645a1cac08310	-1.3919999999999995
97	0xbff5810624dd2f1c	-1.3440000000000003
98	0xbff4bc6a7ef9db24	-1.2960000000000003
99	0xbff3f7ced916872c	-1.2480000000000002
100	0xbff3333333333334	-1.2000000000000002
101	0xbff26e978d4fdf3c	-1.1520000000000001
102	0xbff1a9fbe76c8b44	-1.104
103	0xbff0e5604189374c	-1.056
104	0xbff020c49ba5e354	-1.008
105	0xbfeeb851eb851eb8	-0.96
106	0xbfed2f1a9fbe76c8	-0.9119999999999999
107	0xbfeba5e353f7ced8	-0.8639999999999999
108	0xbfea1cac083126e8	-0.8159999999999998
109	0xbfe89374bc6a7ef8	-0.7679999999999998
110	0xbfe70a3d70a3d708	-0.7199999999999998
111	0xbfe5810624dd2f18	-0.6719999999999997
112	0xbfe3f7ced9168728	-0.6239999999999997
113	0xbfe26e978d4fdf38	-0.5759999999999996
114	0xbfe0e56041893748	-0.5279999999999996
115	0xbfdeb851eb851eb0	-0.47999999999999954
116	0xbfdba5e353f7ced0	-0.4319999999999995
117	0xbfd89374bc6a7ef0	-0.38399999999999945
118	0xbfd5810624dd2f20	-0.3360000000000003
119	0xbfd26e978d4fdf40	-0.28800000000000026
120	0xbfceb851eb851ec0	-0.2400000000000002
121	0xbfc89374bc6a7f00	-0.19200000000000017
122	0xbfc26e978d4fdf40	-0.14400000000000013
123	0xbfb89374bc6a7f00	-0.09600000000000009
124	0xbfa89374bc6a7f00	-0.04800000000000004
125	0x0000000000000000	0.0
126	0x3fa89374bc6a7f00	0.04800000000000004
127	0x3fb89374bc6a7f00	0.09600000000000009
128	0x3fc26e978d4fdf40	0.14400000000000013
129	0x3fc89374bc6a7f00	0.19200000000000017
130	0x3fceb851eb851ec0	0.2400000000000002
131	0x3fd26e978d4fdf40	0.28800000000000026
132	0x3fd5810624dd2f20	0.3360000000000003
133	0x3fd89374bc6a7f00	0.38400000000000034
134	0x3fdba5e353f7cee0	0.4320000000000004
135	0x3fdeb851eb851ec0	0.4800000000000004
136	0x3fe0e56041893750	0.5280000000000005
137	0x3fe26e978d4fdf40	0.5760000000000005
138	0x3fe3f7ced9168730	0.6240000000000006
139	0x3fe5810624dd2f18	0.6719999999999997
140	0x3fe70a3d70a3d708	0.7199999999999998
141	0x3fe89374bc6a7ef8	0.7679999999999998
142	0x3fea1cac083126e8	0.8159999999999998
143	0x3feba5e353f7ced8	0.8639999999999999
144	0x3fed2f1a9fbe76c8	0.9119999999999999
145	0x3feeb851eb851eb8	0.96
146	0x3ff020c49ba5e354	1.008
147	0x3ff0e5604189374c	1.056
148	0x3ff1a9fbe76c8b44	1.104
149	0x3ff26e978d4fdf3c	1.1520000000000001
150	0x3ff3333333333334	1.2000000000000002
151	0x3ff3f7ced916872c	1.2480000000000002
152	0x3ff4bc6a7ef9db24	1.2960000000000003
153	0x3ff5810624dd2f1c	1.3440000000000003
154	0x3ff645a1cac08314	1.3920000000000003
155	0x3ff70a3d70a3d70c	1.4400000000000004
156	0x3ff7ced916872b04	1.4880000000000004
157	0x3ff89374bc6a7efc	1.5360000000000005
158	0x3ff95810624dd2f4	1.5840000000000005
159	0x3ffa1cac083126ec	1.6320000000000006
160	0x3ffae147ae147ae0	1.6799999999999997
161	0x3ffba5e353f7ced8	1.7279999999999998
162	0x3ffc6a7ef9db22d0	1.7759999999999998
163	0x3ffd2f1a9fbe76c8	1.8239999999999998
164	0x3ffdf3b645a1cac0	1.8719999999999999
165	0x3ffeb851eb851eb8	1.92
166	0x3fff7ced916872b0	1.968
167	0x400020c49ba5e354	2.016
168	0x400083126e978d50	2.064
169	0x4000e5604189374c	2.112
170	0x400147ae147ae148	2.16
171	0x4001a9fbe76c8b44	2.208
172	0x40020c49ba5e3540	2.2560000000000002
173	0x40026e978d4fdf3c	2.3040000000000003
174	0x4002d0e560418938	2.3520000000000003
175	0x4003333333333334	2.4000000000000004
176	0x400395810624dd30	2.4480000000000004
177	0x4003f7ced916872c	2.4960000000000004
178	0x40045a1cac083128	2.5440000000000005
179	0x4004bc6a7ef9db24	2.5920000000000005
180	0x40051eb851eb8520	2.6400000000000006
181	0x4005810624dd2f1c	2.6880000000000006
182	0x4005e353f7ced918	2.7360000000000007
183	0x400645a1cac08314	2.7840000000000007
184	0x4006a7ef9db22d10	2.8320000000000007
185	0x40070a3d70a3d70c	2.880000000000001
186	0x40076c8b43958108	2.928000000000001
187	0x4007ced916872b04	2.976000000000001
188	0x40083126e978d500	3.024000000000001
189	0x40089374bc6a7efc	3.072000000000001
190	0x4008f5c28f5c28f8	3.120000000000001
191	0x40095810624dd2f4	3.168000000000001
192	0x4009ba5e353f7cf0	3.216000000000001
193	0x400a1cac083126e8	3.2639999999999993
194	0x400a7ef9db22d0e4	3.3119999999999994
195	0x400ae147ae147ae0	3.3599999999999994
196	0x400b4395810624dc	3.4079999999999995
197	0x400ba5e353f7ced8	3.4559999999999995
198	0x400c083126e978d4	3.5039999999999996
199	0x400c6a7ef9db22d0	3.5519999999999996
200	0x400ccccccccccccc	3.5999999999999996
201	0x400d2f1a9fbe76c8	3.6479999999999997
202	0x400d916872b020c4	3.6959999999999997
203	0x400df3b645a1cac0	3.7439999999999998
204	0x400e5604189374bc	3.792
205	0x400eb851eb851eb8	3.84
206	0x400f1a9fbe76c8b4	3.888
207	0x400f7ced916872b0	3.936
208	0x400fdf3b645a1cac	3.984
209	0x401020c49ba5e354	4.032
210	0x401051eb851eb852	4.08
211	0x401083126e978d50	4.128
212	0x4010b4395810624e	4.176
213	0x4010e5604189374c	4.224
214	0x401116872b020c4a	4.272
215	0x401147ae147ae148	4.32
216	0x401178d4fdf3b646	4.368
217	0x4011a9fbe76c8b44	4.416
218	0x4011db22d0e56042	4.464
219	0x40120c49ba5e3540	4.5120000000000005
220	0x40123d70a3d70a3e	4.5600000000000005
221	0x40126e978d4fdf3c	4.6080000000000005
222	0x40129fbe76c8b43a	4.656000000000001
223	0x4012d0e560418938	4.704000000000001
224	0x4013020c49ba5e36	4.752000000000001
225	0x4013333333333334	4.800000000000001
226	0x4013645a1cac0832	4.848000000000001
227	0x401395810624dd30	4.896000000000001
228	0x4013c6a7ef9db22e	4.944000000000001
229	0x4013f7ced916872c	4.992000000000001
230	0x401428f5c28f5c2a	5.040000000000001
231	0x40145a1cac083128	5.088000000000001
232	0x40148b4395810626	5.136000000000001
233	0x4014bc6a7ef9db24	5.184000000000001
234	0x4014ed916872b022	5.232000000000001
235	0x40151eb851eb851e	5.279999999999999
236	0x40154fdf3b645a1c	5.327999999999999
237	0x4015810624dd2f1a	5.3759999999999994
238	0x4015b22d0e560418	5.4239999999999995
239	0x4015e353f7ced916	5.4719999999999995
240	0x4016147ae147ae14	5.52
241	0x401645a1cac08312	5.568
242	0x401676c8b4395810	5.616
243	0x4016a7ef9db22d0e	5.664
244	0x4016d916872b020c	5.712
245	0x40170a3d70a3d70a	5.76
246	0x40173b645a1cac08	5.808
247	0x40176c8b43958106	5.856
248	0x40179db22d0e5604	5.904
249	0x4017ced916872b02	5.952
250	0x4018000000000000	6.0

yedges_obdm f8 [251]
0	0xc018000000000000	-6.0
1	0xc017ced916872b02	-5.952
2	0xc0179db22d0e5604	-5.904
3	0xc0176c8b43958106	-5.856
4	0xc0173b645a1cac08	-5.808
5	0xc0170a3d70a3d70a	-5.76
6	0xc016d916872b020c	-5.712
7	0xc016a7ef9db22d0e	-5.664
8	0xc01676c8b4395810	-5.616
9	0xc01645a1cac08312	-5.568
10	0xc016147ae147ae14	-5.52
11	0xc015e353f7ced916	-5.4719999999999995
12	0xc015b22d0e560418	-5.4239999999999995
13	0xc015810624dd2f1b	-5.376
14	0xc0154fdf3b645a1d	-5.328
15	0xc0151eb851eb851f	-5.28
16	0xc014ed916872b021	-5.232
17	0xc014bc6a7ef9db23	-5.184
18	0xc0148b4395810625	-5.136
19	0xc0145a1cac083127	-5.088
20	0xc01428f5c28f5c29	-5.04
21	0xc013f7ced916872b	-4.992
22	0xc013c6a7ef9db22d	-4.944
23	0xc01395810624dd2f	-4.896
24	0xc013645a1cac0831	-4.848
25	0xc013333333333333	-4.8
26	0xc013020c49ba5e35	-4.752
27	0xc012d0e560418937	-4.704
28	0xc0129fbe76c8b439	-4.656
29	0xc0126e978d4fdf3b	-4.608
30	0xc0123d70a3d70a3e	-4.5600000000000005
31	0xc0120c49ba5e3540	-4.5120000000000005
32	0xc011db22d0e56042	-4.464
33	0xc011a9fbe76c8b44	-4.416
34	0xc01178d4fdf3b646	-4.368
35	0xc01147ae147ae148	-4.32
36	0xc01116872b020c4a	-4.272
37	0xc010e5604189374c	-4.224
38	0xc010b4395810624e	-4.176
39	0xc01083126e978d50	-4.128
40	0xc01051eb851eb852	-4.08
41	0xc01020c49ba5e354	-4.032
42	0xc00fdf3b645a1cac	-3.984
43	0xc00f7ced916872b0	-3.936
44	0xc00f1a9fbe76c8b4	-3.888
45	0xc00eb851eb851eb8	-3.84
46	0xc00e5604189374bc	-3.792
47	0xc00df3b645a1cac0	-3.7439999999999998
48	0xc00d916872b020c4	-3.6959999999999997
49	0xc00d2f1a9fbe76c9	-3.648
50	0xc00ccccccccccccd	-3.6
51	0xc00c6a7ef9db22d1	-3.552
52	0xc00c083126e978d5	-3.504
53	0xc00ba5e353f7ced9	-3.456
54	0xc00b4395810624dd	-3.408
55	0xc00ae147ae147ae1	-3.36
56	0xc00a7ef9db22d0e5	-3.312
57	0xc00a1cac083126e9	-3.264
58	0xc009ba5e353f7ced	-3.2159999999999997
59	0xc0095810624dd2f2	-3.168
60	0xc008f5c28f5c28f6	-3.12
61	0xc0089374bc6a7efa	-3.072
62	0xc0083126e978d4fe	-3.024
63	0xc007ced916872b02	-2.976
64	0xc0076c8b43958106	-2.928
65	0xc0070a3d70a3d70a	-2.88
66	0xc006a7ef9db22d0e	-2.832
67	0xc00645a1cac08312	-2.784
68	0xc005e353f7ced916	-2.7359999999999998
69	0xc005810624dd2f1a	-2.6879999999999997
70	0xc0051eb851eb851f	-2.64
71	0xc004bc6a7ef9db23	-2.592
72	0xc0045a1cac083127	-2.544
73	0xc003f7ced916872b	-2.496
74	0xc00395810624dd2f	-2.448
75	0xc003333333333333	-2.4
76	0xc002d0e560418937	-2.352
77	0xc0026e978d4fdf3b	-2.304
78	0xc0020c49ba5e353f	-2.256
79	0xc001a9fbe76c8b43	-2.2079999999999997
80	0xc00147ae147ae148	-2.16
81	0xc000e5604189374c	-2.112
82	0xc00083126e978d50	-2.064
83	0xc00020c49ba5e354	-2.016
84	0xbfff7ced916872b0	-1.968
85	0xbffeb851eb851eb8	-1.92
86	0xbffdf3b645a1cac0	-1.8719999999999999
87	0xbffd2f1a9fbe76c8	-1.8239999999999998
88	0xbffc6a7ef9db22d0	-1.7759999999999998
89	0xbffba5e353f7ced8	-1.7279999999999998
90	0xbffae147ae147ae0	-1.6799999999999997
91	0xbffa1cac083126e8	-1.6319999999999997
92	0xbff95810624dd2f0	-1.5839999999999996
93	0xbff89374bc6a7ef8	-1.5359999999999996
94	0xbff7ced916872b00	-1.4879999999999995
95	0xbff70a3d70a3d708	-1.4399999999999995
96	0xbff645a1cac08310	-1.3919999999999995
97	0xbff5810624dd2f1c	-1.3440000000000003
98	0xbff4bc6a7ef9db24	-1.2960000000000003
99	0xbff3f7ced916872c	-1.2480000000000002
100	0xbff3333333333334	-1.2000000000000002
101	0xbff26e978d4fdf3c	-1.1520000000000001
102	0xbff1a9fbe76c8b44	-1.104
103	0xbff0e5604189374c	-1.056
104	0xbff020c49ba5e354	-1.008
105	0xbfeeb851eb851eb8	-0.96
106	0xbfed2f1a9fbe76c8	-0.9119999999999999
107	0xbfeba5e353f7ced8	-0.8639999999999999
108	0xbfea1cac083126e8	-0.8159999999999998
109	0xbfe89374bc6a7ef8	-0.7679999999999998
110	0xbfe70a3d70a3d708	-0.7199999999999998
111	0xbfe5810624dd2f18	-0.6719999999999997
112	0xbfe3f7ced9168728	-0.6239999999999997
113	0xbfe26e978d4fdf38	-0.5759999999999996
114	0xbfe0e56041893748	-0.5279999999999996
115	0xbfdeb851eb851eb0	-0.47999999999999954
116	0xbfdba5e353f7ced0	-0.4319999999999995
117	0xbfd89374bc6a7ef0	-0.38399999999999945
118	0xbfd5810624dd2f20	-0.3360000000000003
119	0xbfd26e978d4fdf40	-0.28800000000000026
120	0xbfceb851eb851ec0	-0.2400000000000002
121	0xbfc89374bc6a7f00	-0.19200000000000017
122	0xbfc26e978d4fdf40	-0.14400000000000013
123	0xbfb89374bc6a7f00	-0.09600000000000009
124	0xbfa89374bc6a7f00	-0.04800000000000004
125	0x0000000000000000	0.0
126	0x3fa89374bc6a7f00	0.04800000000000004
127	0x3fb89374bc6a7f00	0.09600000000000009
128	0x3fc26e978d4fdf40	0.14400000000000013
129	0x3fc89374bc6a7f00	0.19200000000000017
130	0x3fceb851eb851ec0	0.2400000000000002
131	0x3fd26e978d4fdf40	0.28800000000000026
132	0x3fd5810624dd2f20	0.3360000000000003
133	0x3fd89374bc6a7f00	0.38400000000000034
134	0x3fdba5e353f7cee0	0.4320000000000004
135	0x3fdeb851eb851ec0	0.4800000000000004
136	0x3fe0e56041893750	0.5280000000000005
137	0x3fe26e978d4fdf40	0.5760000000000005
138	0x3fe3f7ced9168730	0.6240000000000006
139	0x3fe5810624dd2f18	0.6719999999999997
140	0x3fe70a3d70a3d708	0.7199999999999998
141	0x3fe89374bc6a7ef8	0.7679999999999998
142	0x3fea1cac083126e8	0.8159999999999998
143	0x3feba5e353f7ced8	0.8639999999999999
144	0x3fed2f1a9fbe76c8	0.9119999999999999
145	0x3feeb851eb851eb8	0.96
146	0x3ff020c49ba5e354	1.008
147	0x3ff0e5604189374c	1.056
148	0x3ff1a9fbe76c8b44	1.104
149	0x3ff26e978d4fdf3c	1.1520000000000001
150	0x3ff3333333333334	1.2000000000000002
151	0x3ff3f7ced916872c	1.2480000000000002
152	0x3ff4bc6a7ef9db24	1.2960000000000003
153	0x3ff5810624dd2f1c	1.3440000000000003
154	0x3ff645a1cac08314	1.3920000000000003
155	0x3ff70a3d70a3d70c	1.4400000000000004
156	0x3ff7ced916872b04	1.4880000000000004
157	0x3ff89374bc6a7efc	1.5360000000000005
158	0x3ff95810624dd2f4	1.5840000000000005
159	0x3ffa1cac083126ec	1.6320000000000006
160	0x3ffae147ae147ae0	1.6799999999999997
161	0x3ffba5e353f7ced8	1.7279999999999998
162	0x3ffc6a7ef9db22d0	1.7759999999999998
163	0x3ffd2f1a9fbe76c8	1.8239999999999998
164	0x3ffdf3b645a1cac0	1.8719999999999999
165	0x3ffeb851eb851eb8	1.92
166	0x3fff7ced916872b0	1.968
167	0x400020c49ba5e354	2.016
168	0x400083126e978d50	2.064
169	0x4000e5604189374c	2.112
170	0x400147ae147ae148	2.16
171	0x4001a9fbe76c8b44	2.208
172	0x40020c49ba5e3540	2.2560000000000002
173	0x40026e978d4fdf3c	2.3040000000000003
174	0x4002d0e560418938	2.3520000000000003
175	0x4003333333333334	2.4000000000000004
176	0x400395810624dd30	2.4480000000000004
177	0x4003f7ced916872c	2.4960000000000004
178	0x40045a1cac083128	2.5440000000000005
179	0x4004bc6a7ef9db24	2.5920000000000005
180	0x40051eb851eb8520	2.6400000000000006
181	0x4005810624dd2f1c	2.6880000000000006
182	0x4005e353f7ced918	2.7360000000000007
183	0x400645a1cac08314	2.7840000000000007
184	0x4006a7ef9db22d10	2.8320000000000007
185	0x40070a3d70a3d70c	2.880000000000001
186	0x40076c8b43958108	2.928000000000001
187	0x4007ced916872b04	2.976000000000001
188	0x40083126e978d500	3.024000000000001
189	0x40089374bc6a7efc	3.072000000000001
190	0x4008f5c28f5c28f8	3.120000000000001
191	0x40095810624dd2f4	3.168000000000001
192	0x4009ba5e353f7cf0	3.216000000000001
193	0x400a1cac083126e8	3.2639999999999993
194	0x400a7ef9db22d0e4	3.3119999999999994
195	0x400ae147ae147ae0	3.3599999999999994
196	0x400b4395810624dc	3.4079999999999995
197	0x400ba5e353f7ced8	3.4559999999999995
198	0x400c083126e978d4	3.5039999999999996
199	0x400c6a7ef9db22d0	3.5519999999999996
200	0x400ccccccccccccc	3.5999999999999996
201	0x400d2f1a9fbe76c8	3.6479999999999997
202	0x400d916872b020c4	3.6959999999999997
203	0x400df3b645a1cac0	3.7439999999999998
204	0x400e5604189374bc	3.792
205	0x400eb851eb851eb8	3.84
206	0x400f1a9fbe76c8b4	3.888
207	0x400f7ced916872b0	3.936
208	0x400fdf3b645a1cac	3.984
209	0x401020c49ba5e354	4.032
210	0x401051eb851eb852	4.08
211	0x401083126e978d50	4.128
212	0x4010b4395810624e	4.176
213	0x4010e5604189374c	4.224
214	0x401116872b020c4a	4.272
215	0x401147ae147ae148	4.32
216	0x401178d4fdf3b646	4.368
217	0x4011a9fbe76c8b44	4.416
218	0x4011db22d0e56042	4.464
219	0x40120c49ba5e3540	4.5120000000000005
220	0x40123d70a3d70a3e	4.5600000000000005
221	0x40126e978d4fdf3c	4.6080000000000005
222	0x40129fbe76c8b43a	4.656000000000001
223	0x4012d0e560418938	4.704000000000001
224	0x4013020c49ba5e36	4.752000000000001
225	0x4013333333333334	4.800000000000001
226	0x4013645a1cac0832	4.848000000000001
227	0x401395810624dd30	4.896000000000001
228	0x4013c6a7ef9db22e	4.944000000000001
229	0x4013f7ced916872c	4.992000000000001
230	0x401428f5c28f5c2a	5.040000000000001
231	0x40145a1cac083128	5.088000000000001
232	0x40148b4395810626	5.136000000000001
233	0x4014bc6a7ef9db24	5.184000000000001
234	0x4014ed916872b022	5.232000000000001
235	0x40151eb851eb851e	5.279999999999999
236	0x40154fdf3b645a1c	5.327999999999999
237	0x4015810624dd2f1a	5.3759999999999994
238	0x4015b22d0e560418	5.4239999999999995
239	0x4015e353f7ced916	5.4719999999999995
240	0x4016147ae147ae14	5.52
241	0x401645a1cac08312	5.568
242	0x401676c8b4395810	5.616
243	0x4016a7ef9db22d0e	5.664
244	0x4016d916872b020c	5.712
245	0x40170a3d70a3d70a	5.76
246	0x40173b645a1cac08	5.808
247	0x40176c8b43958106	5.856
248	0x40179db22d0e5604	5.904
249	0x4017ced916872b02	5.952
250	0x4018000000000000	6.0

h_tbd f8 [250, 250]
0	0x0000000000000000	0.0
1	0x0000000000000000	0.0
2	0x0000000000000000	0.0
3	0x0000000000000000	0.0
4	0x0000000000000000	0.0
5	0x0000000000000000	0.0
6	0x0000000000000000	0.0
7	0x0000000000000000	0.0
8	0x0000000000000000	0.0
9	0x0000000000000000	0.0
10	0x0000000000000000	0.0
11	0x0000000000000000	0.0
12	0x0000000000000000	0.0
13	0x0000000000000000	0.0
14	0x0000000000000000	0.0
15	0x0000000000000000	0.0
16	0x0000000000000000	0.0
17	0x0000000000000000	0.0
18	0x0000000000000000	0.0
19	0x0000000000000000	0.0
20	0x0000000000000000	0.0
21	0x0000000000000000	0.0
22	0x0000000000000000	0.0
23	0x0000000000000000	0.0
24	0x0000000000000000	0.0
25	0x0000000000000000	0.0
26	0x0000000000000000	0.0
27	0x0000000000000000	0.0
28	0x0000000000000000	0.0
29	0x0000000000000000	0.0
30	0x0000000000000000	0.0
31	0x0000000000000000	0.0
32	0x0000000000000000	0.0
33	0x0000000000000000	0.0
34	0x0000000000000000	0.0
35	0x0000000000000000	0.0
36	0x0000000000000000	0.0
37	0x0000000000000000	0.0
38	0x0000000000000000	0.0
39	0x0000000000000000	0.0
40	0x0000000000000000	0.0
41	0x0000000000000000	0.0
42	0x0000000000000000	0.0
43	0x0000000000000000	0.0
44	0x0000000000000000	0.0
45	0x0000000000000000	0.0
46	0x0000000000000000	0.0
47	0x0000000000000000	0.0
48	0x0000000000000000	0.0
49	0x0000000000000000	0.0
50	0x0000000000000000	0.0
51	0x0000000000000000	0.0
52	0x0000000000000000	0.0
53	0x0000000000000000	0.0
54	0x0000000000000000	0.0
55	0x0000000000000000	0.0
56	0x0000000000000000	0.0
57	0x0000000000000000	0.0
58	0x0000000000000000	0.0
59	0x0000000000000000	0.0
60	0x0000000000000000	0.0
61	0x0000000000000000	0.0
62	0x0000000000000000	0.0
63	0x0000000000000000	0.0
64	0x0000000000000000	0.0
65	0x0000000000000000	0.0
66	0x0000000000000000	0.0
67	0x0000000000000000	0.0
68	0x0000000000000000	0.0
69	0x0000000000000000	0.0
70	0x0000000000000000	0.0
71	0x0000000000000000	0.0
72	0x0000000000000000	0.0
73	0x0000000000000000	0.0
74	0x0000000000000000	0.0
75	0x0000000000000000	0.0
76	0x0000000000000000	0.0
77	0x0000000000000000	0.0
78	0x0000000000000000	0.0
79	0x0000000000000000	0.0
80	0x0000000000000000	0.0
81	0x0000000000000000	0.0
82	0x0000000000000000	0.0
83	0x0000000000000000	0.0
84	0x0000000000000000	0.0
85	0x0000000000000000	0.0
86	0x0000000000000000	0.0
87	0x0000000000000000	0.0
88	0x0000000000000000	0.0
89	0x0000000000000000	0.0
90	0x0000000000000000	0.0
91	0x0000000000000000	0.0
92	0x0000000000000000	0.0
93	0x0000000000000000	0.0
94	0x0000000000000000	0.0
95	0x0000000000000000	0.0
96	0x0000000000000000	0.0
97	0x0000000000000000	0.0
98	0x0000000000000000	0.0
99	0x0000000000000000	0.0
100	0x0000000000000000	0.0
101	0x0000000000000000	0.0
102	0x0000000000000000	0.0
103	0x0000000000000000	0.0
104	0x0000000000000000	0.0
105	0x0000000000000000	0.0
106	0x0000000000000000	0.0
107	0x0000000000000000	0.0
108	0x0000000000000000	0.0
109	0x0000000000000000	0.0
110	0x0000000000000000	0.0
111	0x0000000000000000	0.0
112	0x0000000000000000	0.0
113	0x0000000000000000	0.0
114	0x0000000000000000	0.0
115	0x0000000000000000	0.0
116	0x0000000000000000	0.0
117	0x0000000000000000	0.0
118	0x0000000000000000	0.0
119	0x0000000000000000	0.0
120	0x0000000000000000	0.0
121	0x0000000000000000	0.0
122	0x0000000000000000	0.0
123	0x0000000000000000	0.0
124	0x0000000000000000	0.0
125	0x0000000000000000	0.0
126	0x0000000000000000	0.0
127	0x0000000000000000	0.0
128	0x0000000000000000	0.0
129	0x0000000000000000	0.0
130	0x0000000000000000	0.0
131	0x0000000000000000	0.0
132	0x0000000000000000	0.0
133	0x0000000000000000	0.0
134	0x0000000000000000	0.0
135	0x0000000000000000	0.0
136	0x0000000000000000	0.0
137	0x0000000000000000	0.0
138	0x0000000000000000	0.0
139	0x0000000000000000	0.0
140	0x0000000000000000	0.0
141	0x0000000000000000	0.0
142	0x0000000000000000	0.0
143	0x0000000000000000	0.0
144	0x0000000000000000	0.0
145	0x0000000000000000	0.0
146	0x0000000000000000	0.0
147	0x0000000000000000	0.0
148	0x0000000000000000	0.0
149	0x0000000000000000	0.0
150	0x0000000000000000	0.0
151	0x0000000000000000	0.0
152	0x0000000000000000	0.0
153	0x0000000000000000	0.0
154	0x0000000000000000	0.0
155	0x0000000000000000	0.0
156	0x0000000000000000	0.0
157	0x0000000000000000	0.0
158	0x0000000000000000	0.0
159	0x0000000000000000	0.0
160	0x0000000000000000	0.0
161	0x0000000000000000	0.0
162	0x0000000000000000	0.0
163	0x0000000000000000	0.0
164	0x0000000000000000	0.0
165	0x0000000000000000	0.0
166	0x0000000000000000	0.0
167	0x0000000000000000	0.0
168	0x0000000000000000	0.0
169	0x0000000000000000	0.0
170	0x0000000000000000	0.0
171	0x0000000000000000	0.0
172	0x0000000000000000	0.0
173	0x0000000000000000	0.0
174	0x0000000000000000	0.0
175	0x0000000000000000	0.0
176	0x0000000000000000	0.0
177	0x0000000000000000	0.0
178	0x0000000000000000	0.0
179	0x0000000000000000	0.0
180	0x0000000000000000	0.0
181	0x0000000000000000	0.0
182	0x0000000000000000	0.0
183	0x0000000000000000	0.0
184	0x0000000000000000	0.0
185	0x0000000000000000	0.0
186	0x0000000000000000	0.0
187	0x0000000000000000	0.0
188	0x0000000000000000	0.0
189	0x0000000000000000	0.0
190	0x0000000000000000	0.0
191	0x0000000000000000	0.0
192	0x0000000000000000	0.0
193	0x0000000000000000	0.0
194	0x0000000000000000	0.0
195	0x0000000000000000	0.0
196	0x0000000000000000	0.0
197	0x0000000000000000	0.0
198	0x0000000000000000	0.0
199	0x0000000000000000	0.0
200	0x0000000000000000	0.0
201	0x0000000000000000	0.0
202	0x0000000000000000	0.0
203	0x0000000000000000	0.0
204	0x0000000000000000	0.0
205	0x0000000000000000	0.0
206	0x0000000000000000	0.0
207	0x0000000000000000	0.0
208	0x0000000000000000	0.0
209	0x0000000000000000	0.0
210	0x0000000000000000	0.0
211	0x0000000000000000	0.0
212	0x0000000000000000	0.0
213	0x0000000000000000	0.0
214	0x0000000000000000	0.0
215	0x0000000000000000	0.0
216	0x0000000000000000	0.0
217	0x0000000000000000	0.0
218	0x0000000000000000	0.0
219	0x0000000000000000	0.0
220	0x0000000000000000	0.0
221	0x0000000000000000	0.0
222	0x0000000000000000	0.0
223	0x0000000000000000	0.0
224	0x0000000000000000	0.0
225	0x0000000000000000	0.0
226	0x0000000000000000	0.0
227	0x0000000000000000	0.0
228	0x0000000000000000	0.0
229	0x0000000000000000	0.0
230	0x0000000000000000	0.0
231	0x0000000000000000	0.0
232	0x0000000000000000	0.0
233	0x0000000000000000	0.0
234	0x0000000000000000	0.0
235	0x0000000000000000	0.0
236	0x0000000000000000	0.0
237	0x0000000000000000	0.0
238	0x0000000000000000	0.0
239	0x0000000000000000	0.0
240	0x0000000000000000	0.0
241	0x0000000000000000	0.0
242	0x0000000000000000	0.0
243	0x0000000000000000	0.0
244	0x0000000000000000	0.0
245	0x0000000000000000	0.0
246	0x0000000000000000	0.0
247	0x0000000000000000	0.0
248	0x0000000000000000	0.0
249	0x0000000000000000	0.0
250	0x0000000000000000	0.0
251	0x0000000000000000	0.0
252	0x0000000000000000	0.0
253	0x0000000000000000	0.0
254	0x0000000000000000	0.0
255	0x0000000000000000	0.0
